…
Layers:  [2, 2, 2]  Growth_rate:  12  nb_filter:  32  dropout:  0.2
dense_block:  3  reduction:  0.0  bottleneck:  False
Epochs:  25  batch_size:  128  lr:  0.03  optimizer:  adadelta
 es_patience:  4  lr_patience:  3  pooling:  avg
------------------------	  end of configs        -------------------------
pooling:avg
__________________________________________________________________________________________________
Layer (type)                    Output Shape         Param #     Connected to                     
==================================================================================================
input_1 (InputLayer)            (None, 2, 96, 96)    0                                            
__________________________________________________________________________________________________
initial_conv2D (Conv2D)         (None, 32, 48, 48)   3136        input_1[0][0]                    
__________________________________________________________________________________________________
initial_bn (BatchNormalization) (None, 32, 48, 48)   128         initial_conv2D[0][0]             
__________________________________________________________________________________________________
activation_1 (Activation)       (None, 32, 48, 48)   0           initial_bn[0][0]                 
__________________________________________________________________________________________________
max_pooling2d_1 (MaxPooling2D)  (None, 32, 24, 24)   0           activation_1[0][0]               
__________________________________________________________________________________________________
dense_0_0_bn (BatchNormalizatio (None, 32, 24, 24)   128         max_pooling2d_1[0][0]            
__________________________________________________________________________________________________
activation_2 (Activation)       (None, 32, 24, 24)   0           dense_0_0_bn[0][0]               
__________________________________________________________________________________________________
dense_0_0_conv2D (Conv2D)       (None, 12, 24, 24)   3456        activation_2[0][0]               
__________________________________________________________________________________________________
dropout_1 (Dropout)             (None, 12, 24, 24)   0           dense_0_0_conv2D[0][0]           
__________________________________________________________________________________________________
concatenate_1 (Concatenate)     (None, 44, 24, 24)   0           max_pooling2d_1[0][0]            
                                                                 dropout_1[0][0]                  
__________________________________________________________________________________________________
dense_0_1_bn (BatchNormalizatio (None, 44, 24, 24)   176         concatenate_1[0][0]              
__________________________________________________________________________________________________
activation_3 (Activation)       (None, 44, 24, 24)   0           dense_0_1_bn[0][0]               
__________________________________________________________________________________________________
dense_0_1_conv2D (Conv2D)       (None, 12, 24, 24)   4752        activation_3[0][0]               
__________________________________________________________________________________________________
dropout_2 (Dropout)             (None, 12, 24, 24)   0           dense_0_1_conv2D[0][0]           
__________________________________________________________________________________________________
concatenate_2 (Concatenate)     (None, 56, 24, 24)   0           concatenate_1[0][0]              
                                                                 dropout_2[0][0]                  
__________________________________________________________________________________________________
tr_0_bn (BatchNormalization)    (None, 56, 24, 24)   224         concatenate_2[0][0]              
__________________________________________________________________________________________________
activation_4 (Activation)       (None, 56, 24, 24)   0           tr_0_bn[0][0]                    
__________________________________________________________________________________________________
tr_0_conv2D (Conv2D)            (None, 56, 24, 24)   3136        activation_4[0][0]               
__________________________________________________________________________________________________
average_pooling2d_1 (AveragePoo (None, 56, 12, 12)   0           tr_0_conv2D[0][0]                
__________________________________________________________________________________________________
dense_1_0_bn (BatchNormalizatio (None, 56, 12, 12)   224         average_pooling2d_1[0][0]        
__________________________________________________________________________________________________
activation_5 (Activation)       (None, 56, 12, 12)   0           dense_1_0_bn[0][0]               
__________________________________________________________________________________________________
dense_1_0_conv2D (Conv2D)       (None, 12, 12, 12)   6048        activation_5[0][0]               
__________________________________________________________________________________________________
dropout_3 (Dropout)             (None, 12, 12, 12)   0           dense_1_0_conv2D[0][0]           
__________________________________________________________________________________________________
concatenate_3 (Concatenate)     (None, 68, 12, 12)   0           average_pooling2d_1[0][0]        
                                                                 dropout_3[0][0]                  
__________________________________________________________________________________________________
dense_1_1_bn (BatchNormalizatio (None, 68, 12, 12)   272         concatenate_3[0][0]              
__________________________________________________________________________________________________
activation_6 (Activation)       (None, 68, 12, 12)   0           dense_1_1_bn[0][0]               
__________________________________________________________________________________________________
dense_1_1_conv2D (Conv2D)       (None, 12, 12, 12)   7344        activation_6[0][0]               
__________________________________________________________________________________________________
dropout_4 (Dropout)             (None, 12, 12, 12)   0           dense_1_1_conv2D[0][0]           
__________________________________________________________________________________________________
concatenate_4 (Concatenate)     (None, 80, 12, 12)   0           concatenate_3[0][0]              
                                                                 dropout_4[0][0]                  
__________________________________________________________________________________________________
tr_1_bn (BatchNormalization)    (None, 80, 12, 12)   320         concatenate_4[0][0]              
__________________________________________________________________________________________________
activation_7 (Activation)       (None, 80, 12, 12)   0           tr_1_bn[0][0]                    
__________________________________________________________________________________________________
tr_1_conv2D (Conv2D)            (None, 80, 12, 12)   6400        activation_7[0][0]               
__________________________________________________________________________________________________
average_pooling2d_2 (AveragePoo (None, 80, 6, 6)     0           tr_1_conv2D[0][0]                
__________________________________________________________________________________________________
dense_2_0_bn (BatchNormalizatio (None, 80, 6, 6)     320         average_pooling2d_2[0][0]        
__________________________________________________________________________________________________
activation_8 (Activation)       (None, 80, 6, 6)     0           dense_2_0_bn[0][0]               
__________________________________________________________________________________________________
dense_2_0_conv2D (Conv2D)       (None, 12, 6, 6)     8640        activation_8[0][0]               
__________________________________________________________________________________________________
dropout_5 (Dropout)             (None, 12, 6, 6)     0           dense_2_0_conv2D[0][0]           
__________________________________________________________________________________________________
concatenate_5 (Concatenate)     (None, 92, 6, 6)     0           average_pooling2d_2[0][0]        
                                                                 dropout_5[0][0]                  
__________________________________________________________________________________________________
dense_2_1_bn (BatchNormalizatio (None, 92, 6, 6)     368         concatenate_5[0][0]              
__________________________________________________________________________________________________
activation_9 (Activation)       (None, 92, 6, 6)     0           dense_2_1_bn[0][0]               
__________________________________________________________________________________________________
dense_2_1_conv2D (Conv2D)       (None, 12, 6, 6)     9936        activation_9[0][0]               
__________________________________________________________________________________________________
dropout_6 (Dropout)             (None, 12, 6, 6)     0           dense_2_1_conv2D[0][0]           
__________________________________________________________________________________________________
concatenate_6 (Concatenate)     (None, 104, 6, 6)    0           concatenate_5[0][0]              
                                                                 dropout_6[0][0]                  
__________________________________________________________________________________________________
final_bn (BatchNormalization)   (None, 104, 6, 6)    416         concatenate_6[0][0]              
__________________________________________________________________________________________________
activation_10 (Activation)      (None, 104, 6, 6)    0           final_bn[0][0]                   
__________________________________________________________________________________________________
global_average_pooling2d_1 (Glo (None, 104)          0           activation_10[0][0]              
__________________________________________________________________________________________________
dense_1 (Dense)                 (None, 1)            105         global_average_pooling2d_1[0][0] 
==================================================================================================
Total params: 55,529
Trainable params: 54,241
Non-trainable params: 1,288
__________________________________________________________________________________________________
Finished compiling
Train on 39840 samples, validate on 7968 samples
Epoch 1/25
 - 19s - loss: 0.6238 - acc: 0.7015 - val_loss: 0.5671 - val_acc: 0.7467
…
Layers:  [2, 2, 2]  Growth_rate:  18  nb_filter:  32  dropout:  0.2
dense_block:  3  reduction:  0.0  bottleneck:  False
Epochs:  25  batch_size:  128  lr:  0.03  optimizer:  adadelta
 es_patience:  4  lr_patience:  3  pooling:  avg
------------------------	  end of configs        -------------------------
pooling:avg
__________________________________________________________________________________________________
Layer (type)                    Output Shape         Param #     Connected to                     
==================================================================================================
input_1 (InputLayer)            (None, 2, 96, 96)    0                                            
__________________________________________________________________________________________________
initial_conv2D (Conv2D)         (None, 32, 48, 48)   3136        input_1[0][0]                    
__________________________________________________________________________________________________
initial_bn (BatchNormalization) (None, 32, 48, 48)   128         initial_conv2D[0][0]             
__________________________________________________________________________________________________
activation_1 (Activation)       (None, 32, 48, 48)   0           initial_bn[0][0]                 
__________________________________________________________________________________________________
max_pooling2d_1 (MaxPooling2D)  (None, 32, 24, 24)   0           activation_1[0][0]               
__________________________________________________________________________________________________
dense_0_0_bn (BatchNormalizatio (None, 32, 24, 24)   128         max_pooling2d_1[0][0]            
__________________________________________________________________________________________________
activation_2 (Activation)       (None, 32, 24, 24)   0           dense_0_0_bn[0][0]               
__________________________________________________________________________________________________
dense_0_0_conv2D (Conv2D)       (None, 18, 24, 24)   5184        activation_2[0][0]               
__________________________________________________________________________________________________
dropout_1 (Dropout)             (None, 18, 24, 24)   0           dense_0_0_conv2D[0][0]           
__________________________________________________________________________________________________
concatenate_1 (Concatenate)     (None, 50, 24, 24)   0           max_pooling2d_1[0][0]            
                                                                 dropout_1[0][0]                  
__________________________________________________________________________________________________
dense_0_1_bn (BatchNormalizatio (None, 50, 24, 24)   200         concatenate_1[0][0]              
__________________________________________________________________________________________________
activation_3 (Activation)       (None, 50, 24, 24)   0           dense_0_1_bn[0][0]               
__________________________________________________________________________________________________
dense_0_1_conv2D (Conv2D)       (None, 18, 24, 24)   8100        activation_3[0][0]               
__________________________________________________________________________________________________
dropout_2 (Dropout)             (None, 18, 24, 24)   0           dense_0_1_conv2D[0][0]           
__________________________________________________________________________________________________
concatenate_2 (Concatenate)     (None, 68, 24, 24)   0           concatenate_1[0][0]              
                                                                 dropout_2[0][0]                  
__________________________________________________________________________________________________
tr_0_bn (BatchNormalization)    (None, 68, 24, 24)   272         concatenate_2[0][0]              
__________________________________________________________________________________________________
activation_4 (Activation)       (None, 68, 24, 24)   0           tr_0_bn[0][0]                    
__________________________________________________________________________________________________
tr_0_conv2D (Conv2D)            (None, 68, 24, 24)   4624        activation_4[0][0]               
__________________________________________________________________________________________________
average_pooling2d_1 (AveragePoo (None, 68, 12, 12)   0           tr_0_conv2D[0][0]                
__________________________________________________________________________________________________
dense_1_0_bn (BatchNormalizatio (None, 68, 12, 12)   272         average_pooling2d_1[0][0]        
__________________________________________________________________________________________________
activation_5 (Activation)       (None, 68, 12, 12)   0           dense_1_0_bn[0][0]               
__________________________________________________________________________________________________
dense_1_0_conv2D (Conv2D)       (None, 18, 12, 12)   11016       activation_5[0][0]               
__________________________________________________________________________________________________
dropout_3 (Dropout)             (None, 18, 12, 12)   0           dense_1_0_conv2D[0][0]           
__________________________________________________________________________________________________
concatenate_3 (Concatenate)     (None, 86, 12, 12)   0           average_pooling2d_1[0][0]        
                                                                 dropout_3[0][0]                  
__________________________________________________________________________________________________
dense_1_1_bn (BatchNormalizatio (None, 86, 12, 12)   344         concatenate_3[0][0]              
__________________________________________________________________________________________________
activation_6 (Activation)       (None, 86, 12, 12)   0           dense_1_1_bn[0][0]               
__________________________________________________________________________________________________
dense_1_1_conv2D (Conv2D)       (None, 18, 12, 12)   13932       activation_6[0][0]               
__________________________________________________________________________________________________
dropout_4 (Dropout)             (None, 18, 12, 12)   0           dense_1_1_conv2D[0][0]           
__________________________________________________________________________________________________
concatenate_4 (Concatenate)     (None, 104, 12, 12)  0           concatenate_3[0][0]              
                                                                 dropout_4[0][0]                  
__________________________________________________________________________________________________
tr_1_bn (BatchNormalization)    (None, 104, 12, 12)  416         concatenate_4[0][0]              
__________________________________________________________________________________________________
activation_7 (Activation)       (None, 104, 12, 12)  0           tr_1_bn[0][0]                    
__________________________________________________________________________________________________
tr_1_conv2D (Conv2D)            (None, 104, 12, 12)  10816       activation_7[0][0]               
__________________________________________________________________________________________________
average_pooling2d_2 (AveragePoo (None, 104, 6, 6)    0           tr_1_conv2D[0][0]                
__________________________________________________________________________________________________
dense_2_0_bn (BatchNormalizatio (None, 104, 6, 6)    416         average_pooling2d_2[0][0]        
__________________________________________________________________________________________________
activation_8 (Activation)       (None, 104, 6, 6)    0           dense_2_0_bn[0][0]               
__________________________________________________________________________________________________
dense_2_0_conv2D (Conv2D)       (None, 18, 6, 6)     16848       activation_8[0][0]               
__________________________________________________________________________________________________
dropout_5 (Dropout)             (None, 18, 6, 6)     0           dense_2_0_conv2D[0][0]           
__________________________________________________________________________________________________
concatenate_5 (Concatenate)     (None, 122, 6, 6)    0           average_pooling2d_2[0][0]        
                                                                 dropout_5[0][0]                  
__________________________________________________________________________________________________
dense_2_1_bn (BatchNormalizatio (None, 122, 6, 6)    488         concatenate_5[0][0]              
__________________________________________________________________________________________________
activation_9 (Activation)       (None, 122, 6, 6)    0           dense_2_1_bn[0][0]               
__________________________________________________________________________________________________
dense_2_1_conv2D (Conv2D)       (None, 18, 6, 6)     19764       activation_9[0][0]               
__________________________________________________________________________________________________
dropout_6 (Dropout)             (None, 18, 6, 6)     0           dense_2_1_conv2D[0][0]           
__________________________________________________________________________________________________
concatenate_6 (Concatenate)     (None, 140, 6, 6)    0           concatenate_5[0][0]              
                                                                 dropout_6[0][0]                  
__________________________________________________________________________________________________
final_bn (BatchNormalization)   (None, 140, 6, 6)    560         concatenate_6[0][0]              
__________________________________________________________________________________________________
activation_10 (Activation)      (None, 140, 6, 6)    0           final_bn[0][0]                   
__________________________________________________________________________________________________
global_average_pooling2d_1 (Glo (None, 140)          0           activation_10[0][0]              
__________________________________________________________________________________________________
dense_1 (Dense)                 (None, 1)            141         global_average_pooling2d_1[0][0] 
==================================================================================================
Total params: 96,785
Trainable params: 95,173
Non-trainable params: 1,612
__________________________________________________________________________________________________
Finished compiling
Train on 39840 samples, validate on 7968 samples
Epoch 1/25
 - 11s - loss: 0.6188 - acc: 0.6985 - val_loss: 0.5581 - val_acc: 0.7514
…
Layers:  [2, 2, 2]  Growth_rate:  30  nb_filter:  8  dropout:  0.2
dense_block:  3  reduction:  0.0  bottleneck:  False
Epochs:  25  batch_size:  128  lr:  0.03  optimizer:  adadelta
 es_patience:  4  lr_patience:  3  pooling:  avg
------------------------	  end of configs        -------------------------
pooling:avg
__________________________________________________________________________________________________
Layer (type)                    Output Shape         Param #     Connected to                     
==================================================================================================
input_1 (InputLayer)            (None, 2, 96, 96)    0                                            
__________________________________________________________________________________________________
initial_conv2D (Conv2D)         (None, 8, 48, 48)    784         input_1[0][0]                    
__________________________________________________________________________________________________
initial_bn (BatchNormalization) (None, 8, 48, 48)    32          initial_conv2D[0][0]             
__________________________________________________________________________________________________
activation_1 (Activation)       (None, 8, 48, 48)    0           initial_bn[0][0]                 
__________________________________________________________________________________________________
max_pooling2d_1 (MaxPooling2D)  (None, 8, 24, 24)    0           activation_1[0][0]               
__________________________________________________________________________________________________
dense_0_0_bn (BatchNormalizatio (None, 8, 24, 24)    32          max_pooling2d_1[0][0]            
__________________________________________________________________________________________________
activation_2 (Activation)       (None, 8, 24, 24)    0           dense_0_0_bn[0][0]               
__________________________________________________________________________________________________
dense_0_0_conv2D (Conv2D)       (None, 30, 24, 24)   2160        activation_2[0][0]               
__________________________________________________________________________________________________
dropout_1 (Dropout)             (None, 30, 24, 24)   0           dense_0_0_conv2D[0][0]           
__________________________________________________________________________________________________
concatenate_1 (Concatenate)     (None, 38, 24, 24)   0           max_pooling2d_1[0][0]            
                                                                 dropout_1[0][0]                  
__________________________________________________________________________________________________
dense_0_1_bn (BatchNormalizatio (None, 38, 24, 24)   152         concatenate_1[0][0]              
__________________________________________________________________________________________________
activation_3 (Activation)       (None, 38, 24, 24)   0           dense_0_1_bn[0][0]               
__________________________________________________________________________________________________
dense_0_1_conv2D (Conv2D)       (None, 30, 24, 24)   10260       activation_3[0][0]               
__________________________________________________________________________________________________
dropout_2 (Dropout)             (None, 30, 24, 24)   0           dense_0_1_conv2D[0][0]           
__________________________________________________________________________________________________
concatenate_2 (Concatenate)     (None, 68, 24, 24)   0           concatenate_1[0][0]              
                                                                 dropout_2[0][0]                  
__________________________________________________________________________________________________
tr_0_bn (BatchNormalization)    (None, 68, 24, 24)   272         concatenate_2[0][0]              
__________________________________________________________________________________________________
activation_4 (Activation)       (None, 68, 24, 24)   0           tr_0_bn[0][0]                    
__________________________________________________________________________________________________
tr_0_conv2D (Conv2D)            (None, 68, 24, 24)   4624        activation_4[0][0]               
__________________________________________________________________________________________________
average_pooling2d_1 (AveragePoo (None, 68, 12, 12)   0           tr_0_conv2D[0][0]                
__________________________________________________________________________________________________
dense_1_0_bn (BatchNormalizatio (None, 68, 12, 12)   272         average_pooling2d_1[0][0]        
__________________________________________________________________________________________________
activation_5 (Activation)       (None, 68, 12, 12)   0           dense_1_0_bn[0][0]               
__________________________________________________________________________________________________
dense_1_0_conv2D (Conv2D)       (None, 30, 12, 12)   18360       activation_5[0][0]               
__________________________________________________________________________________________________
dropout_3 (Dropout)             (None, 30, 12, 12)   0           dense_1_0_conv2D[0][0]           
__________________________________________________________________________________________________
concatenate_3 (Concatenate)     (None, 98, 12, 12)   0           average_pooling2d_1[0][0]        
                                                                 dropout_3[0][0]                  
__________________________________________________________________________________________________
dense_1_1_bn (BatchNormalizatio (None, 98, 12, 12)   392         concatenate_3[0][0]              
__________________________________________________________________________________________________
activation_6 (Activation)       (None, 98, 12, 12)   0           dense_1_1_bn[0][0]               
__________________________________________________________________________________________________
dense_1_1_conv2D (Conv2D)       (None, 30, 12, 12)   26460       activation_6[0][0]               
__________________________________________________________________________________________________
dropout_4 (Dropout)             (None, 30, 12, 12)   0           dense_1_1_conv2D[0][0]           
__________________________________________________________________________________________________
concatenate_4 (Concatenate)     (None, 128, 12, 12)  0           concatenate_3[0][0]              
                                                                 dropout_4[0][0]                  
__________________________________________________________________________________________________
tr_1_bn (BatchNormalization)    (None, 128, 12, 12)  512         concatenate_4[0][0]              
__________________________________________________________________________________________________
activation_7 (Activation)       (None, 128, 12, 12)  0           tr_1_bn[0][0]                    
__________________________________________________________________________________________________
tr_1_conv2D (Conv2D)            (None, 128, 12, 12)  16384       activation_7[0][0]               
__________________________________________________________________________________________________
average_pooling2d_2 (AveragePoo (None, 128, 6, 6)    0           tr_1_conv2D[0][0]                
__________________________________________________________________________________________________
dense_2_0_bn (BatchNormalizatio (None, 128, 6, 6)    512         average_pooling2d_2[0][0]        
__________________________________________________________________________________________________
activation_8 (Activation)       (None, 128, 6, 6)    0           dense_2_0_bn[0][0]               
__________________________________________________________________________________________________
dense_2_0_conv2D (Conv2D)       (None, 30, 6, 6)     34560       activation_8[0][0]               
__________________________________________________________________________________________________
dropout_5 (Dropout)             (None, 30, 6, 6)     0           dense_2_0_conv2D[0][0]           
__________________________________________________________________________________________________
concatenate_5 (Concatenate)     (None, 158, 6, 6)    0           average_pooling2d_2[0][0]        
                                                                 dropout_5[0][0]                  
__________________________________________________________________________________________________
dense_2_1_bn (BatchNormalizatio (None, 158, 6, 6)    632         concatenate_5[0][0]              
__________________________________________________________________________________________________
activation_9 (Activation)       (None, 158, 6, 6)    0           dense_2_1_bn[0][0]               
__________________________________________________________________________________________________
dense_2_1_conv2D (Conv2D)       (None, 30, 6, 6)     42660       activation_9[0][0]               
__________________________________________________________________________________________________
dropout_6 (Dropout)             (None, 30, 6, 6)     0           dense_2_1_conv2D[0][0]           
__________________________________________________________________________________________________
concatenate_6 (Concatenate)     (None, 188, 6, 6)    0           concatenate_5[0][0]              
                                                                 dropout_6[0][0]                  
__________________________________________________________________________________________________
final_bn (BatchNormalization)   (None, 188, 6, 6)    752         concatenate_6[0][0]              
__________________________________________________________________________________________________
activation_10 (Activation)      (None, 188, 6, 6)    0           final_bn[0][0]                   
__________________________________________________________________________________________________
global_average_pooling2d_1 (Glo (None, 188)          0           activation_10[0][0]              
__________________________________________________________________________________________________
dense_1 (Dense)                 (None, 1)            189         global_average_pooling2d_1[0][0] 
==================================================================================================
Total params: 160,001
Trainable params: 158,221
Non-trainable params: 1,780
__________________________________________________________________________________________________
Finished compiling
Train on 39840 samples, validate on 7968 samples
Epoch 1/25
 - 12s - loss: 0.6192 - acc: 0.6943 - val_loss: 0.5682 - val_acc: 0.7373
…
Layers:  [2, 2, 2]  Growth_rate:  12  nb_filter:  32  dropout:  0.2
dense_block:  3  reduction:  0.5  bottleneck:  False
Epochs:  25  batch_size:  128  lr:  0.03  optimizer:  adadelta
 es_patience:  4  lr_patience:  3  pooling:  avg
------------------------	  end of configs        -------------------------
pooling:avg
__________________________________________________________________________________________________
Layer (type)                    Output Shape         Param #     Connected to                     
==================================================================================================
input_1 (InputLayer)            (None, 2, 96, 96)    0                                            
__________________________________________________________________________________________________
initial_conv2D (Conv2D)         (None, 32, 48, 48)   3136        input_1[0][0]                    
__________________________________________________________________________________________________
initial_bn (BatchNormalization) (None, 32, 48, 48)   128         initial_conv2D[0][0]             
__________________________________________________________________________________________________
activation_1 (Activation)       (None, 32, 48, 48)   0           initial_bn[0][0]                 
__________________________________________________________________________________________________
max_pooling2d_1 (MaxPooling2D)  (None, 32, 24, 24)   0           activation_1[0][0]               
__________________________________________________________________________________________________
dense_0_0_bn (BatchNormalizatio (None, 32, 24, 24)   128         max_pooling2d_1[0][0]            
__________________________________________________________________________________________________
activation_2 (Activation)       (None, 32, 24, 24)   0           dense_0_0_bn[0][0]               
__________________________________________________________________________________________________
dense_0_0_conv2D (Conv2D)       (None, 12, 24, 24)   3456        activation_2[0][0]               
__________________________________________________________________________________________________
dropout_1 (Dropout)             (None, 12, 24, 24)   0           dense_0_0_conv2D[0][0]           
__________________________________________________________________________________________________
concatenate_1 (Concatenate)     (None, 44, 24, 24)   0           max_pooling2d_1[0][0]            
                                                                 dropout_1[0][0]                  
__________________________________________________________________________________________________
dense_0_1_bn (BatchNormalizatio (None, 44, 24, 24)   176         concatenate_1[0][0]              
__________________________________________________________________________________________________
activation_3 (Activation)       (None, 44, 24, 24)   0           dense_0_1_bn[0][0]               
__________________________________________________________________________________________________
dense_0_1_conv2D (Conv2D)       (None, 12, 24, 24)   4752        activation_3[0][0]               
__________________________________________________________________________________________________
dropout_2 (Dropout)             (None, 12, 24, 24)   0           dense_0_1_conv2D[0][0]           
__________________________________________________________________________________________________
concatenate_2 (Concatenate)     (None, 56, 24, 24)   0           concatenate_1[0][0]              
                                                                 dropout_2[0][0]                  
__________________________________________________________________________________________________
tr_0_bn (BatchNormalization)    (None, 56, 24, 24)   224         concatenate_2[0][0]              
__________________________________________________________________________________________________
activation_4 (Activation)       (None, 56, 24, 24)   0           tr_0_bn[0][0]                    
__________________________________________________________________________________________________
tr_0_conv2D (Conv2D)            (None, 28, 24, 24)   1568        activation_4[0][0]               
__________________________________________________________________________________________________
average_pooling2d_1 (AveragePoo (None, 28, 12, 12)   0           tr_0_conv2D[0][0]                
__________________________________________________________________________________________________
dense_1_0_bn (BatchNormalizatio (None, 28, 12, 12)   112         average_pooling2d_1[0][0]        
__________________________________________________________________________________________________
activation_5 (Activation)       (None, 28, 12, 12)   0           dense_1_0_bn[0][0]               
__________________________________________________________________________________________________
dense_1_0_conv2D (Conv2D)       (None, 12, 12, 12)   3024        activation_5[0][0]               
__________________________________________________________________________________________________
dropout_3 (Dropout)             (None, 12, 12, 12)   0           dense_1_0_conv2D[0][0]           
__________________________________________________________________________________________________
concatenate_3 (Concatenate)     (None, 40, 12, 12)   0           average_pooling2d_1[0][0]        
                                                                 dropout_3[0][0]                  
__________________________________________________________________________________________________
dense_1_1_bn (BatchNormalizatio (None, 40, 12, 12)   160         concatenate_3[0][0]              
__________________________________________________________________________________________________
activation_6 (Activation)       (None, 40, 12, 12)   0           dense_1_1_bn[0][0]               
__________________________________________________________________________________________________
dense_1_1_conv2D (Conv2D)       (None, 12, 12, 12)   4320        activation_6[0][0]               
__________________________________________________________________________________________________
dropout_4 (Dropout)             (None, 12, 12, 12)   0           dense_1_1_conv2D[0][0]           
__________________________________________________________________________________________________
concatenate_4 (Concatenate)     (None, 52, 12, 12)   0           concatenate_3[0][0]              
                                                                 dropout_4[0][0]                  
__________________________________________________________________________________________________
tr_1_bn (BatchNormalization)    (None, 52, 12, 12)   208         concatenate_4[0][0]              
__________________________________________________________________________________________________
activation_7 (Activation)       (None, 52, 12, 12)   0           tr_1_bn[0][0]                    
__________________________________________________________________________________________________
tr_1_conv2D (Conv2D)            (None, 26, 12, 12)   1352        activation_7[0][0]               
__________________________________________________________________________________________________
average_pooling2d_2 (AveragePoo (None, 26, 6, 6)     0           tr_1_conv2D[0][0]                
__________________________________________________________________________________________________
dense_2_0_bn (BatchNormalizatio (None, 26, 6, 6)     104         average_pooling2d_2[0][0]        
__________________________________________________________________________________________________
activation_8 (Activation)       (None, 26, 6, 6)     0           dense_2_0_bn[0][0]               
__________________________________________________________________________________________________
dense_2_0_conv2D (Conv2D)       (None, 12, 6, 6)     2808        activation_8[0][0]               
__________________________________________________________________________________________________
dropout_5 (Dropout)             (None, 12, 6, 6)     0           dense_2_0_conv2D[0][0]           
__________________________________________________________________________________________________
concatenate_5 (Concatenate)     (None, 38, 6, 6)     0           average_pooling2d_2[0][0]        
                                                                 dropout_5[0][0]                  
__________________________________________________________________________________________________
dense_2_1_bn (BatchNormalizatio (None, 38, 6, 6)     152         concatenate_5[0][0]              
__________________________________________________________________________________________________
activation_9 (Activation)       (None, 38, 6, 6)     0           dense_2_1_bn[0][0]               
__________________________________________________________________________________________________
dense_2_1_conv2D (Conv2D)       (None, 12, 6, 6)     4104        activation_9[0][0]               
__________________________________________________________________________________________________
dropout_6 (Dropout)             (None, 12, 6, 6)     0           dense_2_1_conv2D[0][0]           
__________________________________________________________________________________________________
concatenate_6 (Concatenate)     (None, 50, 6, 6)     0           concatenate_5[0][0]              
                                                                 dropout_6[0][0]                  
__________________________________________________________________________________________________
final_bn (BatchNormalization)   (None, 50, 6, 6)     200         concatenate_6[0][0]              
__________________________________________________________________________________________________
activation_10 (Activation)      (None, 50, 6, 6)     0           final_bn[0][0]                   
__________________________________________________________________________________________________
global_average_pooling2d_1 (Glo (None, 50)           0           activation_10[0][0]              
__________________________________________________________________________________________________
dense_1 (Dense)                 (None, 1)            51          global_average_pooling2d_1[0][0] 
==================================================================================================
Total params: 30,163
Trainable params: 29,367
Non-trainable params: 796
__________________________________________________________________________________________________
Finished compiling
Train on 39840 samples, validate on 7968 samples
Epoch 1/25
 - 12s - loss: 0.6130 - acc: 0.6880 - val_loss: 0.5663 - val_acc: 0.7371
…
Layers:  [2, 2, 2]  Growth_rate:  18  nb_filter:  32  dropout:  0.2
dense_block:  3  reduction:  0.5  bottleneck:  False
Epochs:  25  batch_size:  128  lr:  0.03  optimizer:  adadelta
 es_patience:  4  lr_patience:  3  pooling:  avg
------------------------	  end of configs        -------------------------
pooling:avg
__________________________________________________________________________________________________
Layer (type)                    Output Shape         Param #     Connected to                     
==================================================================================================
input_1 (InputLayer)            (None, 2, 96, 96)    0                                            
__________________________________________________________________________________________________
initial_conv2D (Conv2D)         (None, 32, 48, 48)   3136        input_1[0][0]                    
__________________________________________________________________________________________________
initial_bn (BatchNormalization) (None, 32, 48, 48)   128         initial_conv2D[0][0]             
__________________________________________________________________________________________________
activation_1 (Activation)       (None, 32, 48, 48)   0           initial_bn[0][0]                 
__________________________________________________________________________________________________
max_pooling2d_1 (MaxPooling2D)  (None, 32, 24, 24)   0           activation_1[0][0]               
__________________________________________________________________________________________________
dense_0_0_bn (BatchNormalizatio (None, 32, 24, 24)   128         max_pooling2d_1[0][0]            
__________________________________________________________________________________________________
activation_2 (Activation)       (None, 32, 24, 24)   0           dense_0_0_bn[0][0]               
__________________________________________________________________________________________________
dense_0_0_conv2D (Conv2D)       (None, 18, 24, 24)   5184        activation_2[0][0]               
__________________________________________________________________________________________________
dropout_1 (Dropout)             (None, 18, 24, 24)   0           dense_0_0_conv2D[0][0]           
__________________________________________________________________________________________________
concatenate_1 (Concatenate)     (None, 50, 24, 24)   0           max_pooling2d_1[0][0]            
                                                                 dropout_1[0][0]                  
__________________________________________________________________________________________________
dense_0_1_bn (BatchNormalizatio (None, 50, 24, 24)   200         concatenate_1[0][0]              
__________________________________________________________________________________________________
activation_3 (Activation)       (None, 50, 24, 24)   0           dense_0_1_bn[0][0]               
__________________________________________________________________________________________________
dense_0_1_conv2D (Conv2D)       (None, 18, 24, 24)   8100        activation_3[0][0]               
__________________________________________________________________________________________________
dropout_2 (Dropout)             (None, 18, 24, 24)   0           dense_0_1_conv2D[0][0]           
__________________________________________________________________________________________________
concatenate_2 (Concatenate)     (None, 68, 24, 24)   0           concatenate_1[0][0]              
                                                                 dropout_2[0][0]                  
__________________________________________________________________________________________________
tr_0_bn (BatchNormalization)    (None, 68, 24, 24)   272         concatenate_2[0][0]              
__________________________________________________________________________________________________
activation_4 (Activation)       (None, 68, 24, 24)   0           tr_0_bn[0][0]                    
__________________________________________________________________________________________________
tr_0_conv2D (Conv2D)            (None, 34, 24, 24)   2312        activation_4[0][0]               
__________________________________________________________________________________________________
average_pooling2d_1 (AveragePoo (None, 34, 12, 12)   0           tr_0_conv2D[0][0]                
__________________________________________________________________________________________________
dense_1_0_bn (BatchNormalizatio (None, 34, 12, 12)   136         average_pooling2d_1[0][0]        
__________________________________________________________________________________________________
activation_5 (Activation)       (None, 34, 12, 12)   0           dense_1_0_bn[0][0]               
__________________________________________________________________________________________________
dense_1_0_conv2D (Conv2D)       (None, 18, 12, 12)   5508        activation_5[0][0]               
__________________________________________________________________________________________________
dropout_3 (Dropout)             (None, 18, 12, 12)   0           dense_1_0_conv2D[0][0]           
__________________________________________________________________________________________________
concatenate_3 (Concatenate)     (None, 52, 12, 12)   0           average_pooling2d_1[0][0]        
                                                                 dropout_3[0][0]                  
__________________________________________________________________________________________________
dense_1_1_bn (BatchNormalizatio (None, 52, 12, 12)   208         concatenate_3[0][0]              
__________________________________________________________________________________________________
activation_6 (Activation)       (None, 52, 12, 12)   0           dense_1_1_bn[0][0]               
__________________________________________________________________________________________________
dense_1_1_conv2D (Conv2D)       (None, 18, 12, 12)   8424        activation_6[0][0]               
__________________________________________________________________________________________________
dropout_4 (Dropout)             (None, 18, 12, 12)   0           dense_1_1_conv2D[0][0]           
__________________________________________________________________________________________________
concatenate_4 (Concatenate)     (None, 70, 12, 12)   0           concatenate_3[0][0]              
                                                                 dropout_4[0][0]                  
__________________________________________________________________________________________________
tr_1_bn (BatchNormalization)    (None, 70, 12, 12)   280         concatenate_4[0][0]              
__________________________________________________________________________________________________
activation_7 (Activation)       (None, 70, 12, 12)   0           tr_1_bn[0][0]                    
__________________________________________________________________________________________________
tr_1_conv2D (Conv2D)            (None, 35, 12, 12)   2450        activation_7[0][0]               
__________________________________________________________________________________________________
average_pooling2d_2 (AveragePoo (None, 35, 6, 6)     0           tr_1_conv2D[0][0]                
__________________________________________________________________________________________________
dense_2_0_bn (BatchNormalizatio (None, 35, 6, 6)     140         average_pooling2d_2[0][0]        
__________________________________________________________________________________________________
activation_8 (Activation)       (None, 35, 6, 6)     0           dense_2_0_bn[0][0]               
__________________________________________________________________________________________________
dense_2_0_conv2D (Conv2D)       (None, 18, 6, 6)     5670        activation_8[0][0]               
__________________________________________________________________________________________________
dropout_5 (Dropout)             (None, 18, 6, 6)     0           dense_2_0_conv2D[0][0]           
__________________________________________________________________________________________________
concatenate_5 (Concatenate)     (None, 53, 6, 6)     0           average_pooling2d_2[0][0]        
                                                                 dropout_5[0][0]                  
__________________________________________________________________________________________________
dense_2_1_bn (BatchNormalizatio (None, 53, 6, 6)     212         concatenate_5[0][0]              
__________________________________________________________________________________________________
activation_9 (Activation)       (None, 53, 6, 6)     0           dense_2_1_bn[0][0]               
__________________________________________________________________________________________________
dense_2_1_conv2D (Conv2D)       (None, 18, 6, 6)     8586        activation_9[0][0]               
__________________________________________________________________________________________________
dropout_6 (Dropout)             (None, 18, 6, 6)     0           dense_2_1_conv2D[0][0]           
__________________________________________________________________________________________________
concatenate_6 (Concatenate)     (None, 71, 6, 6)     0           concatenate_5[0][0]              
                                                                 dropout_6[0][0]                  
__________________________________________________________________________________________________
final_bn (BatchNormalization)   (None, 71, 6, 6)     284         concatenate_6[0][0]              
__________________________________________________________________________________________________
activation_10 (Activation)      (None, 71, 6, 6)     0           final_bn[0][0]                   
__________________________________________________________________________________________________
global_average_pooling2d_1 (Glo (None, 71)           0           activation_10[0][0]              
__________________________________________________________________________________________________
dense_1 (Dense)                 (None, 1)            72          global_average_pooling2d_1[0][0] 
==================================================================================================
Total params: 51,430
Trainable params: 50,436
Non-trainable params: 994
__________________________________________________________________________________________________
Finished compiling
Train on 39840 samples, validate on 7968 samples
Epoch 1/25
 - 13s - loss: 0.6125 - acc: 0.6857 - val_loss: 0.5467 - val_acc: 0.7451
…
Layers:  [2, 2, 2]  Growth_rate:  30  nb_filter:  8  dropout:  0.2
dense_block:  3  reduction:  0.5  bottleneck:  False
Epochs:  25  batch_size:  128  lr:  0.03  optimizer:  adadelta
 es_patience:  4  lr_patience:  3  pooling:  avg
------------------------	  end of configs        -------------------------
pooling:avg
__________________________________________________________________________________________________
Layer (type)                    Output Shape         Param #     Connected to                     
==================================================================================================
input_1 (InputLayer)            (None, 2, 96, 96)    0                                            
__________________________________________________________________________________________________
initial_conv2D (Conv2D)         (None, 8, 48, 48)    784         input_1[0][0]                    
__________________________________________________________________________________________________
initial_bn (BatchNormalization) (None, 8, 48, 48)    32          initial_conv2D[0][0]             
__________________________________________________________________________________________________
activation_1 (Activation)       (None, 8, 48, 48)    0           initial_bn[0][0]                 
__________________________________________________________________________________________________
max_pooling2d_1 (MaxPooling2D)  (None, 8, 24, 24)    0           activation_1[0][0]               
__________________________________________________________________________________________________
dense_0_0_bn (BatchNormalizatio (None, 8, 24, 24)    32          max_pooling2d_1[0][0]            
__________________________________________________________________________________________________
activation_2 (Activation)       (None, 8, 24, 24)    0           dense_0_0_bn[0][0]               
__________________________________________________________________________________________________
dense_0_0_conv2D (Conv2D)       (None, 30, 24, 24)   2160        activation_2[0][0]               
__________________________________________________________________________________________________
dropout_1 (Dropout)             (None, 30, 24, 24)   0           dense_0_0_conv2D[0][0]           
__________________________________________________________________________________________________
concatenate_1 (Concatenate)     (None, 38, 24, 24)   0           max_pooling2d_1[0][0]            
                                                                 dropout_1[0][0]                  
__________________________________________________________________________________________________
dense_0_1_bn (BatchNormalizatio (None, 38, 24, 24)   152         concatenate_1[0][0]              
__________________________________________________________________________________________________
activation_3 (Activation)       (None, 38, 24, 24)   0           dense_0_1_bn[0][0]               
__________________________________________________________________________________________________
dense_0_1_conv2D (Conv2D)       (None, 30, 24, 24)   10260       activation_3[0][0]               
__________________________________________________________________________________________________
dropout_2 (Dropout)             (None, 30, 24, 24)   0           dense_0_1_conv2D[0][0]           
__________________________________________________________________________________________________
concatenate_2 (Concatenate)     (None, 68, 24, 24)   0           concatenate_1[0][0]              
                                                                 dropout_2[0][0]                  
__________________________________________________________________________________________________
tr_0_bn (BatchNormalization)    (None, 68, 24, 24)   272         concatenate_2[0][0]              
__________________________________________________________________________________________________
activation_4 (Activation)       (None, 68, 24, 24)   0           tr_0_bn[0][0]                    
__________________________________________________________________________________________________
tr_0_conv2D (Conv2D)            (None, 34, 24, 24)   2312        activation_4[0][0]               
__________________________________________________________________________________________________
average_pooling2d_1 (AveragePoo (None, 34, 12, 12)   0           tr_0_conv2D[0][0]                
__________________________________________________________________________________________________
dense_1_0_bn (BatchNormalizatio (None, 34, 12, 12)   136         average_pooling2d_1[0][0]        
__________________________________________________________________________________________________
activation_5 (Activation)       (None, 34, 12, 12)   0           dense_1_0_bn[0][0]               
__________________________________________________________________________________________________
dense_1_0_conv2D (Conv2D)       (None, 30, 12, 12)   9180        activation_5[0][0]               
__________________________________________________________________________________________________
dropout_3 (Dropout)             (None, 30, 12, 12)   0           dense_1_0_conv2D[0][0]           
__________________________________________________________________________________________________
concatenate_3 (Concatenate)     (None, 64, 12, 12)   0           average_pooling2d_1[0][0]        
                                                                 dropout_3[0][0]                  
__________________________________________________________________________________________________
dense_1_1_bn (BatchNormalizatio (None, 64, 12, 12)   256         concatenate_3[0][0]              
__________________________________________________________________________________________________
activation_6 (Activation)       (None, 64, 12, 12)   0           dense_1_1_bn[0][0]               
__________________________________________________________________________________________________
dense_1_1_conv2D (Conv2D)       (None, 30, 12, 12)   17280       activation_6[0][0]               
__________________________________________________________________________________________________
dropout_4 (Dropout)             (None, 30, 12, 12)   0           dense_1_1_conv2D[0][0]           
__________________________________________________________________________________________________
concatenate_4 (Concatenate)     (None, 94, 12, 12)   0           concatenate_3[0][0]              
                                                                 dropout_4[0][0]                  
__________________________________________________________________________________________________
tr_1_bn (BatchNormalization)    (None, 94, 12, 12)   376         concatenate_4[0][0]              
__________________________________________________________________________________________________
activation_7 (Activation)       (None, 94, 12, 12)   0           tr_1_bn[0][0]                    
__________________________________________________________________________________________________
tr_1_conv2D (Conv2D)            (None, 47, 12, 12)   4418        activation_7[0][0]               
__________________________________________________________________________________________________
average_pooling2d_2 (AveragePoo (None, 47, 6, 6)     0           tr_1_conv2D[0][0]                
__________________________________________________________________________________________________
dense_2_0_bn (BatchNormalizatio (None, 47, 6, 6)     188         average_pooling2d_2[0][0]        
__________________________________________________________________________________________________
activation_8 (Activation)       (None, 47, 6, 6)     0           dense_2_0_bn[0][0]               
__________________________________________________________________________________________________
dense_2_0_conv2D (Conv2D)       (None, 30, 6, 6)     12690       activation_8[0][0]               
__________________________________________________________________________________________________
dropout_5 (Dropout)             (None, 30, 6, 6)     0           dense_2_0_conv2D[0][0]           
__________________________________________________________________________________________________
concatenate_5 (Concatenate)     (None, 77, 6, 6)     0           average_pooling2d_2[0][0]        
                                                                 dropout_5[0][0]                  
__________________________________________________________________________________________________
dense_2_1_bn (BatchNormalizatio (None, 77, 6, 6)     308         concatenate_5[0][0]              
__________________________________________________________________________________________________
activation_9 (Activation)       (None, 77, 6, 6)     0           dense_2_1_bn[0][0]               
__________________________________________________________________________________________________
dense_2_1_conv2D (Conv2D)       (None, 30, 6, 6)     20790       activation_9[0][0]               
__________________________________________________________________________________________________
dropout_6 (Dropout)             (None, 30, 6, 6)     0           dense_2_1_conv2D[0][0]           
__________________________________________________________________________________________________
concatenate_6 (Concatenate)     (None, 107, 6, 6)    0           concatenate_5[0][0]              
                                                                 dropout_6[0][0]                  
__________________________________________________________________________________________________
final_bn (BatchNormalization)   (None, 107, 6, 6)    428         concatenate_6[0][0]              
__________________________________________________________________________________________________
activation_10 (Activation)      (None, 107, 6, 6)    0           final_bn[0][0]                   
__________________________________________________________________________________________________
global_average_pooling2d_1 (Glo (None, 107)          0           activation_10[0][0]              
__________________________________________________________________________________________________
dense_1 (Dense)                 (None, 1)            108         global_average_pooling2d_1[0][0] 
==================================================================================================
Total params: 82,162
Trainable params: 81,072
Non-trainable params: 1,090
__________________________________________________________________________________________________
Finished compiling
Train on 39840 samples, validate on 7968 samples
Epoch 1/25
 - 12s - loss: 0.6119 - acc: 0.6899 - val_loss: 0.5492 - val_acc: 0.7241
…
Layers:  [4, 4, 4]  Growth_rate:  12  nb_filter:  32  dropout:  0.2
dense_block:  3  reduction:  0.0  bottleneck:  False
Epochs:  25  batch_size:  128  lr:  0.03  optimizer:  adadelta
 es_patience:  4  lr_patience:  3  pooling:  avg
------------------------	  end of configs        -------------------------
pooling:avg
__________________________________________________________________________________________________
Layer (type)                    Output Shape         Param #     Connected to                     
==================================================================================================
input_1 (InputLayer)            (None, 2, 96, 96)    0                                            
__________________________________________________________________________________________________
initial_conv2D (Conv2D)         (None, 32, 48, 48)   3136        input_1[0][0]                    
__________________________________________________________________________________________________
initial_bn (BatchNormalization) (None, 32, 48, 48)   128         initial_conv2D[0][0]             
__________________________________________________________________________________________________
activation_1 (Activation)       (None, 32, 48, 48)   0           initial_bn[0][0]                 
__________________________________________________________________________________________________
max_pooling2d_1 (MaxPooling2D)  (None, 32, 24, 24)   0           activation_1[0][0]               
__________________________________________________________________________________________________
dense_0_0_bn (BatchNormalizatio (None, 32, 24, 24)   128         max_pooling2d_1[0][0]            
__________________________________________________________________________________________________
activation_2 (Activation)       (None, 32, 24, 24)   0           dense_0_0_bn[0][0]               
__________________________________________________________________________________________________
dense_0_0_conv2D (Conv2D)       (None, 12, 24, 24)   3456        activation_2[0][0]               
__________________________________________________________________________________________________
dropout_1 (Dropout)             (None, 12, 24, 24)   0           dense_0_0_conv2D[0][0]           
__________________________________________________________________________________________________
concatenate_1 (Concatenate)     (None, 44, 24, 24)   0           max_pooling2d_1[0][0]            
                                                                 dropout_1[0][0]                  
__________________________________________________________________________________________________
dense_0_1_bn (BatchNormalizatio (None, 44, 24, 24)   176         concatenate_1[0][0]              
__________________________________________________________________________________________________
activation_3 (Activation)       (None, 44, 24, 24)   0           dense_0_1_bn[0][0]               
__________________________________________________________________________________________________
dense_0_1_conv2D (Conv2D)       (None, 12, 24, 24)   4752        activation_3[0][0]               
__________________________________________________________________________________________________
dropout_2 (Dropout)             (None, 12, 24, 24)   0           dense_0_1_conv2D[0][0]           
__________________________________________________________________________________________________
concatenate_2 (Concatenate)     (None, 56, 24, 24)   0           concatenate_1[0][0]              
                                                                 dropout_2[0][0]                  
__________________________________________________________________________________________________
dense_0_2_bn (BatchNormalizatio (None, 56, 24, 24)   224         concatenate_2[0][0]              
__________________________________________________________________________________________________
activation_4 (Activation)       (None, 56, 24, 24)   0           dense_0_2_bn[0][0]               
__________________________________________________________________________________________________
dense_0_2_conv2D (Conv2D)       (None, 12, 24, 24)   6048        activation_4[0][0]               
__________________________________________________________________________________________________
dropout_3 (Dropout)             (None, 12, 24, 24)   0           dense_0_2_conv2D[0][0]           
__________________________________________________________________________________________________
concatenate_3 (Concatenate)     (None, 68, 24, 24)   0           concatenate_2[0][0]              
                                                                 dropout_3[0][0]                  
__________________________________________________________________________________________________
dense_0_3_bn (BatchNormalizatio (None, 68, 24, 24)   272         concatenate_3[0][0]              
__________________________________________________________________________________________________
activation_5 (Activation)       (None, 68, 24, 24)   0           dense_0_3_bn[0][0]               
__________________________________________________________________________________________________
dense_0_3_conv2D (Conv2D)       (None, 12, 24, 24)   7344        activation_5[0][0]               
__________________________________________________________________________________________________
dropout_4 (Dropout)             (None, 12, 24, 24)   0           dense_0_3_conv2D[0][0]           
__________________________________________________________________________________________________
concatenate_4 (Concatenate)     (None, 80, 24, 24)   0           concatenate_3[0][0]              
                                                                 dropout_4[0][0]                  
__________________________________________________________________________________________________
tr_0_bn (BatchNormalization)    (None, 80, 24, 24)   320         concatenate_4[0][0]              
__________________________________________________________________________________________________
activation_6 (Activation)       (None, 80, 24, 24)   0           tr_0_bn[0][0]                    
__________________________________________________________________________________________________
tr_0_conv2D (Conv2D)            (None, 80, 24, 24)   6400        activation_6[0][0]               
__________________________________________________________________________________________________
average_pooling2d_1 (AveragePoo (None, 80, 12, 12)   0           tr_0_conv2D[0][0]                
__________________________________________________________________________________________________
dense_1_0_bn (BatchNormalizatio (None, 80, 12, 12)   320         average_pooling2d_1[0][0]        
__________________________________________________________________________________________________
activation_7 (Activation)       (None, 80, 12, 12)   0           dense_1_0_bn[0][0]               
__________________________________________________________________________________________________
dense_1_0_conv2D (Conv2D)       (None, 12, 12, 12)   8640        activation_7[0][0]               
__________________________________________________________________________________________________
dropout_5 (Dropout)             (None, 12, 12, 12)   0           dense_1_0_conv2D[0][0]           
__________________________________________________________________________________________________
concatenate_5 (Concatenate)     (None, 92, 12, 12)   0           average_pooling2d_1[0][0]        
                                                                 dropout_5[0][0]                  
__________________________________________________________________________________________________
dense_1_1_bn (BatchNormalizatio (None, 92, 12, 12)   368         concatenate_5[0][0]              
__________________________________________________________________________________________________
activation_8 (Activation)       (None, 92, 12, 12)   0           dense_1_1_bn[0][0]               
__________________________________________________________________________________________________
dense_1_1_conv2D (Conv2D)       (None, 12, 12, 12)   9936        activation_8[0][0]               
__________________________________________________________________________________________________
dropout_6 (Dropout)             (None, 12, 12, 12)   0           dense_1_1_conv2D[0][0]           
__________________________________________________________________________________________________
concatenate_6 (Concatenate)     (None, 104, 12, 12)  0           concatenate_5[0][0]              
                                                                 dropout_6[0][0]                  
__________________________________________________________________________________________________
dense_1_2_bn (BatchNormalizatio (None, 104, 12, 12)  416         concatenate_6[0][0]              
__________________________________________________________________________________________________
activation_9 (Activation)       (None, 104, 12, 12)  0           dense_1_2_bn[0][0]               
__________________________________________________________________________________________________
dense_1_2_conv2D (Conv2D)       (None, 12, 12, 12)   11232       activation_9[0][0]               
__________________________________________________________________________________________________
dropout_7 (Dropout)             (None, 12, 12, 12)   0           dense_1_2_conv2D[0][0]           
__________________________________________________________________________________________________
concatenate_7 (Concatenate)     (None, 116, 12, 12)  0           concatenate_6[0][0]              
                                                                 dropout_7[0][0]                  
__________________________________________________________________________________________________
dense_1_3_bn (BatchNormalizatio (None, 116, 12, 12)  464         concatenate_7[0][0]              
__________________________________________________________________________________________________
activation_10 (Activation)      (None, 116, 12, 12)  0           dense_1_3_bn[0][0]               
__________________________________________________________________________________________________
dense_1_3_conv2D (Conv2D)       (None, 12, 12, 12)   12528       activation_10[0][0]              
__________________________________________________________________________________________________
dropout_8 (Dropout)             (None, 12, 12, 12)   0           dense_1_3_conv2D[0][0]           
__________________________________________________________________________________________________
concatenate_8 (Concatenate)     (None, 128, 12, 12)  0           concatenate_7[0][0]              
                                                                 dropout_8[0][0]                  
__________________________________________________________________________________________________
tr_1_bn (BatchNormalization)    (None, 128, 12, 12)  512         concatenate_8[0][0]              
__________________________________________________________________________________________________
activation_11 (Activation)      (None, 128, 12, 12)  0           tr_1_bn[0][0]                    
__________________________________________________________________________________________________
tr_1_conv2D (Conv2D)            (None, 128, 12, 12)  16384       activation_11[0][0]              
__________________________________________________________________________________________________
average_pooling2d_2 (AveragePoo (None, 128, 6, 6)    0           tr_1_conv2D[0][0]                
__________________________________________________________________________________________________
dense_2_0_bn (BatchNormalizatio (None, 128, 6, 6)    512         average_pooling2d_2[0][0]        
__________________________________________________________________________________________________
activation_12 (Activation)      (None, 128, 6, 6)    0           dense_2_0_bn[0][0]               
__________________________________________________________________________________________________
dense_2_0_conv2D (Conv2D)       (None, 12, 6, 6)     13824       activation_12[0][0]              
__________________________________________________________________________________________________
dropout_9 (Dropout)             (None, 12, 6, 6)     0           dense_2_0_conv2D[0][0]           
__________________________________________________________________________________________________
concatenate_9 (Concatenate)     (None, 140, 6, 6)    0           average_pooling2d_2[0][0]        
                                                                 dropout_9[0][0]                  
__________________________________________________________________________________________________
dense_2_1_bn (BatchNormalizatio (None, 140, 6, 6)    560         concatenate_9[0][0]              
__________________________________________________________________________________________________
activation_13 (Activation)      (None, 140, 6, 6)    0           dense_2_1_bn[0][0]               
__________________________________________________________________________________________________
dense_2_1_conv2D (Conv2D)       (None, 12, 6, 6)     15120       activation_13[0][0]              
__________________________________________________________________________________________________
dropout_10 (Dropout)            (None, 12, 6, 6)     0           dense_2_1_conv2D[0][0]           
__________________________________________________________________________________________________
concatenate_10 (Concatenate)    (None, 152, 6, 6)    0           concatenate_9[0][0]              
                                                                 dropout_10[0][0]                 
__________________________________________________________________________________________________
dense_2_2_bn (BatchNormalizatio (None, 152, 6, 6)    608         concatenate_10[0][0]             
__________________________________________________________________________________________________
activation_14 (Activation)      (None, 152, 6, 6)    0           dense_2_2_bn[0][0]               
__________________________________________________________________________________________________
dense_2_2_conv2D (Conv2D)       (None, 12, 6, 6)     16416       activation_14[0][0]              
__________________________________________________________________________________________________
dropout_11 (Dropout)            (None, 12, 6, 6)     0           dense_2_2_conv2D[0][0]           
__________________________________________________________________________________________________
concatenate_11 (Concatenate)    (None, 164, 6, 6)    0           concatenate_10[0][0]             
                                                                 dropout_11[0][0]                 
__________________________________________________________________________________________________
dense_2_3_bn (BatchNormalizatio (None, 164, 6, 6)    656         concatenate_11[0][0]             
__________________________________________________________________________________________________
activation_15 (Activation)      (None, 164, 6, 6)    0           dense_2_3_bn[0][0]               
__________________________________________________________________________________________________
dense_2_3_conv2D (Conv2D)       (None, 12, 6, 6)     17712       activation_15[0][0]              
__________________________________________________________________________________________________
dropout_12 (Dropout)            (None, 12, 6, 6)     0           dense_2_3_conv2D[0][0]           
__________________________________________________________________________________________________
concatenate_12 (Concatenate)    (None, 176, 6, 6)    0           concatenate_11[0][0]             
                                                                 dropout_12[0][0]                 
__________________________________________________________________________________________________
final_bn (BatchNormalization)   (None, 176, 6, 6)    704         concatenate_12[0][0]             
__________________________________________________________________________________________________
activation_16 (Activation)      (None, 176, 6, 6)    0           final_bn[0][0]                   
__________________________________________________________________________________________________
global_average_pooling2d_1 (Glo (None, 176)          0           activation_16[0][0]              
__________________________________________________________________________________________________
dense_1 (Dense)                 (None, 1)            177         global_average_pooling2d_1[0][0] 
==================================================================================================
Total params: 159,473
Trainable params: 156,289
Non-trainable params: 3,184
__________________________________________________________________________________________________
Finished compiling
Train on 39840 samples, validate on 7968 samples
Epoch 1/25
 - 17s - loss: 0.5894 - acc: 0.7380 - val_loss: 0.5358 - val_acc: 0.7684
…
Layers:  [4, 4, 4]  Growth_rate:  18  nb_filter:  32  dropout:  0.2
dense_block:  3  reduction:  0.0  bottleneck:  False
Epochs:  25  batch_size:  128  lr:  0.03  optimizer:  adadelta
 es_patience:  4  lr_patience:  3  pooling:  avg
------------------------	  end of configs        -------------------------
pooling:avg
__________________________________________________________________________________________________
Layer (type)                    Output Shape         Param #     Connected to                     
==================================================================================================
input_1 (InputLayer)            (None, 2, 96, 96)    0                                            
__________________________________________________________________________________________________
initial_conv2D (Conv2D)         (None, 32, 48, 48)   3136        input_1[0][0]                    
__________________________________________________________________________________________________
initial_bn (BatchNormalization) (None, 32, 48, 48)   128         initial_conv2D[0][0]             
__________________________________________________________________________________________________
activation_1 (Activation)       (None, 32, 48, 48)   0           initial_bn[0][0]                 
__________________________________________________________________________________________________
max_pooling2d_1 (MaxPooling2D)  (None, 32, 24, 24)   0           activation_1[0][0]               
__________________________________________________________________________________________________
dense_0_0_bn (BatchNormalizatio (None, 32, 24, 24)   128         max_pooling2d_1[0][0]            
__________________________________________________________________________________________________
activation_2 (Activation)       (None, 32, 24, 24)   0           dense_0_0_bn[0][0]               
__________________________________________________________________________________________________
dense_0_0_conv2D (Conv2D)       (None, 18, 24, 24)   5184        activation_2[0][0]               
__________________________________________________________________________________________________
dropout_1 (Dropout)             (None, 18, 24, 24)   0           dense_0_0_conv2D[0][0]           
__________________________________________________________________________________________________
concatenate_1 (Concatenate)     (None, 50, 24, 24)   0           max_pooling2d_1[0][0]            
                                                                 dropout_1[0][0]                  
__________________________________________________________________________________________________
dense_0_1_bn (BatchNormalizatio (None, 50, 24, 24)   200         concatenate_1[0][0]              
__________________________________________________________________________________________________
activation_3 (Activation)       (None, 50, 24, 24)   0           dense_0_1_bn[0][0]               
__________________________________________________________________________________________________
dense_0_1_conv2D (Conv2D)       (None, 18, 24, 24)   8100        activation_3[0][0]               
__________________________________________________________________________________________________
dropout_2 (Dropout)             (None, 18, 24, 24)   0           dense_0_1_conv2D[0][0]           
__________________________________________________________________________________________________
concatenate_2 (Concatenate)     (None, 68, 24, 24)   0           concatenate_1[0][0]              
                                                                 dropout_2[0][0]                  
__________________________________________________________________________________________________
dense_0_2_bn (BatchNormalizatio (None, 68, 24, 24)   272         concatenate_2[0][0]              
__________________________________________________________________________________________________
activation_4 (Activation)       (None, 68, 24, 24)   0           dense_0_2_bn[0][0]               
__________________________________________________________________________________________________
dense_0_2_conv2D (Conv2D)       (None, 18, 24, 24)   11016       activation_4[0][0]               
__________________________________________________________________________________________________
dropout_3 (Dropout)             (None, 18, 24, 24)   0           dense_0_2_conv2D[0][0]           
__________________________________________________________________________________________________
concatenate_3 (Concatenate)     (None, 86, 24, 24)   0           concatenate_2[0][0]              
                                                                 dropout_3[0][0]                  
__________________________________________________________________________________________________
dense_0_3_bn (BatchNormalizatio (None, 86, 24, 24)   344         concatenate_3[0][0]              
__________________________________________________________________________________________________
activation_5 (Activation)       (None, 86, 24, 24)   0           dense_0_3_bn[0][0]               
__________________________________________________________________________________________________
dense_0_3_conv2D (Conv2D)       (None, 18, 24, 24)   13932       activation_5[0][0]               
__________________________________________________________________________________________________
dropout_4 (Dropout)             (None, 18, 24, 24)   0           dense_0_3_conv2D[0][0]           
__________________________________________________________________________________________________
concatenate_4 (Concatenate)     (None, 104, 24, 24)  0           concatenate_3[0][0]              
                                                                 dropout_4[0][0]                  
__________________________________________________________________________________________________
tr_0_bn (BatchNormalization)    (None, 104, 24, 24)  416         concatenate_4[0][0]              
__________________________________________________________________________________________________
activation_6 (Activation)       (None, 104, 24, 24)  0           tr_0_bn[0][0]                    
__________________________________________________________________________________________________
tr_0_conv2D (Conv2D)            (None, 104, 24, 24)  10816       activation_6[0][0]               
__________________________________________________________________________________________________
average_pooling2d_1 (AveragePoo (None, 104, 12, 12)  0           tr_0_conv2D[0][0]                
__________________________________________________________________________________________________
dense_1_0_bn (BatchNormalizatio (None, 104, 12, 12)  416         average_pooling2d_1[0][0]        
__________________________________________________________________________________________________
activation_7 (Activation)       (None, 104, 12, 12)  0           dense_1_0_bn[0][0]               
__________________________________________________________________________________________________
dense_1_0_conv2D (Conv2D)       (None, 18, 12, 12)   16848       activation_7[0][0]               
__________________________________________________________________________________________________
dropout_5 (Dropout)             (None, 18, 12, 12)   0           dense_1_0_conv2D[0][0]           
__________________________________________________________________________________________________
concatenate_5 (Concatenate)     (None, 122, 12, 12)  0           average_pooling2d_1[0][0]        
                                                                 dropout_5[0][0]                  
__________________________________________________________________________________________________
dense_1_1_bn (BatchNormalizatio (None, 122, 12, 12)  488         concatenate_5[0][0]              
__________________________________________________________________________________________________
activation_8 (Activation)       (None, 122, 12, 12)  0           dense_1_1_bn[0][0]               
__________________________________________________________________________________________________
dense_1_1_conv2D (Conv2D)       (None, 18, 12, 12)   19764       activation_8[0][0]               
__________________________________________________________________________________________________
dropout_6 (Dropout)             (None, 18, 12, 12)   0           dense_1_1_conv2D[0][0]           
__________________________________________________________________________________________________
concatenate_6 (Concatenate)     (None, 140, 12, 12)  0           concatenate_5[0][0]              
                                                                 dropout_6[0][0]                  
__________________________________________________________________________________________________
dense_1_2_bn (BatchNormalizatio (None, 140, 12, 12)  560         concatenate_6[0][0]              
__________________________________________________________________________________________________
activation_9 (Activation)       (None, 140, 12, 12)  0           dense_1_2_bn[0][0]               
__________________________________________________________________________________________________
dense_1_2_conv2D (Conv2D)       (None, 18, 12, 12)   22680       activation_9[0][0]               
__________________________________________________________________________________________________
dropout_7 (Dropout)             (None, 18, 12, 12)   0           dense_1_2_conv2D[0][0]           
__________________________________________________________________________________________________
concatenate_7 (Concatenate)     (None, 158, 12, 12)  0           concatenate_6[0][0]              
                                                                 dropout_7[0][0]                  
__________________________________________________________________________________________________
dense_1_3_bn (BatchNormalizatio (None, 158, 12, 12)  632         concatenate_7[0][0]              
__________________________________________________________________________________________________
activation_10 (Activation)      (None, 158, 12, 12)  0           dense_1_3_bn[0][0]               
__________________________________________________________________________________________________
dense_1_3_conv2D (Conv2D)       (None, 18, 12, 12)   25596       activation_10[0][0]              
__________________________________________________________________________________________________
dropout_8 (Dropout)             (None, 18, 12, 12)   0           dense_1_3_conv2D[0][0]           
__________________________________________________________________________________________________
concatenate_8 (Concatenate)     (None, 176, 12, 12)  0           concatenate_7[0][0]              
                                                                 dropout_8[0][0]                  
__________________________________________________________________________________________________
tr_1_bn (BatchNormalization)    (None, 176, 12, 12)  704         concatenate_8[0][0]              
__________________________________________________________________________________________________
activation_11 (Activation)      (None, 176, 12, 12)  0           tr_1_bn[0][0]                    
__________________________________________________________________________________________________
tr_1_conv2D (Conv2D)            (None, 176, 12, 12)  30976       activation_11[0][0]              
__________________________________________________________________________________________________
average_pooling2d_2 (AveragePoo (None, 176, 6, 6)    0           tr_1_conv2D[0][0]                
__________________________________________________________________________________________________
dense_2_0_bn (BatchNormalizatio (None, 176, 6, 6)    704         average_pooling2d_2[0][0]        
__________________________________________________________________________________________________
activation_12 (Activation)      (None, 176, 6, 6)    0           dense_2_0_bn[0][0]               
__________________________________________________________________________________________________
dense_2_0_conv2D (Conv2D)       (None, 18, 6, 6)     28512       activation_12[0][0]              
__________________________________________________________________________________________________
dropout_9 (Dropout)             (None, 18, 6, 6)     0           dense_2_0_conv2D[0][0]           
__________________________________________________________________________________________________
concatenate_9 (Concatenate)     (None, 194, 6, 6)    0           average_pooling2d_2[0][0]        
                                                                 dropout_9[0][0]                  
__________________________________________________________________________________________________
dense_2_1_bn (BatchNormalizatio (None, 194, 6, 6)    776         concatenate_9[0][0]              
__________________________________________________________________________________________________
activation_13 (Activation)      (None, 194, 6, 6)    0           dense_2_1_bn[0][0]               
__________________________________________________________________________________________________
dense_2_1_conv2D (Conv2D)       (None, 18, 6, 6)     31428       activation_13[0][0]              
__________________________________________________________________________________________________
dropout_10 (Dropout)            (None, 18, 6, 6)     0           dense_2_1_conv2D[0][0]           
__________________________________________________________________________________________________
concatenate_10 (Concatenate)    (None, 212, 6, 6)    0           concatenate_9[0][0]              
                                                                 dropout_10[0][0]                 
__________________________________________________________________________________________________
dense_2_2_bn (BatchNormalizatio (None, 212, 6, 6)    848         concatenate_10[0][0]             
__________________________________________________________________________________________________
activation_14 (Activation)      (None, 212, 6, 6)    0           dense_2_2_bn[0][0]               
__________________________________________________________________________________________________
dense_2_2_conv2D (Conv2D)       (None, 18, 6, 6)     34344       activation_14[0][0]              
__________________________________________________________________________________________________
dropout_11 (Dropout)            (None, 18, 6, 6)     0           dense_2_2_conv2D[0][0]           
__________________________________________________________________________________________________
concatenate_11 (Concatenate)    (None, 230, 6, 6)    0           concatenate_10[0][0]             
                                                                 dropout_11[0][0]                 
__________________________________________________________________________________________________
dense_2_3_bn (BatchNormalizatio (None, 230, 6, 6)    920         concatenate_11[0][0]             
__________________________________________________________________________________________________
activation_15 (Activation)      (None, 230, 6, 6)    0           dense_2_3_bn[0][0]               
__________________________________________________________________________________________________
dense_2_3_conv2D (Conv2D)       (None, 18, 6, 6)     37260       activation_15[0][0]              
__________________________________________________________________________________________________
dropout_12 (Dropout)            (None, 18, 6, 6)     0           dense_2_3_conv2D[0][0]           
__________________________________________________________________________________________________
concatenate_12 (Concatenate)    (None, 248, 6, 6)    0           concatenate_11[0][0]             
                                                                 dropout_12[0][0]                 
__________________________________________________________________________________________________
final_bn (BatchNormalization)   (None, 248, 6, 6)    992         concatenate_12[0][0]             
__________________________________________________________________________________________________
activation_16 (Activation)      (None, 248, 6, 6)    0           final_bn[0][0]                   
__________________________________________________________________________________________________
global_average_pooling2d_1 (Glo (None, 248)          0           activation_16[0][0]              
__________________________________________________________________________________________________
dense_1 (Dense)                 (None, 1)            249         global_average_pooling2d_1[0][0] 
==================================================================================================
Total params: 308,369
Trainable params: 304,105
Non-trainable params: 4,264
__________________________________________________________________________________________________
Finished compiling
Train on 39840 samples, validate on 7968 samples
Epoch 1/25
 - 17s - loss: 0.5937 - acc: 0.7421 - val_loss: 0.5583 - val_acc: 0.7536
…
Layers:  [4, 4, 4]  Growth_rate:  30  nb_filter:  8  dropout:  0.2
dense_block:  3  reduction:  0.0  bottleneck:  False
Epochs:  25  batch_size:  128  lr:  0.03  optimizer:  adadelta
 es_patience:  4  lr_patience:  3  pooling:  avg
------------------------	  end of configs        -------------------------
pooling:avg
__________________________________________________________________________________________________
Layer (type)                    Output Shape         Param #     Connected to                     
==================================================================================================
input_1 (InputLayer)            (None, 2, 96, 96)    0                                            
__________________________________________________________________________________________________
initial_conv2D (Conv2D)         (None, 8, 48, 48)    784         input_1[0][0]                    
__________________________________________________________________________________________________
initial_bn (BatchNormalization) (None, 8, 48, 48)    32          initial_conv2D[0][0]             
__________________________________________________________________________________________________
activation_1 (Activation)       (None, 8, 48, 48)    0           initial_bn[0][0]                 
__________________________________________________________________________________________________
max_pooling2d_1 (MaxPooling2D)  (None, 8, 24, 24)    0           activation_1[0][0]               
__________________________________________________________________________________________________
dense_0_0_bn (BatchNormalizatio (None, 8, 24, 24)    32          max_pooling2d_1[0][0]            
__________________________________________________________________________________________________
activation_2 (Activation)       (None, 8, 24, 24)    0           dense_0_0_bn[0][0]               
__________________________________________________________________________________________________
dense_0_0_conv2D (Conv2D)       (None, 30, 24, 24)   2160        activation_2[0][0]               
__________________________________________________________________________________________________
dropout_1 (Dropout)             (None, 30, 24, 24)   0           dense_0_0_conv2D[0][0]           
__________________________________________________________________________________________________
concatenate_1 (Concatenate)     (None, 38, 24, 24)   0           max_pooling2d_1[0][0]            
                                                                 dropout_1[0][0]                  
__________________________________________________________________________________________________
dense_0_1_bn (BatchNormalizatio (None, 38, 24, 24)   152         concatenate_1[0][0]              
__________________________________________________________________________________________________
activation_3 (Activation)       (None, 38, 24, 24)   0           dense_0_1_bn[0][0]               
__________________________________________________________________________________________________
dense_0_1_conv2D (Conv2D)       (None, 30, 24, 24)   10260       activation_3[0][0]               
__________________________________________________________________________________________________
dropout_2 (Dropout)             (None, 30, 24, 24)   0           dense_0_1_conv2D[0][0]           
__________________________________________________________________________________________________
concatenate_2 (Concatenate)     (None, 68, 24, 24)   0           concatenate_1[0][0]              
                                                                 dropout_2[0][0]                  
__________________________________________________________________________________________________
dense_0_2_bn (BatchNormalizatio (None, 68, 24, 24)   272         concatenate_2[0][0]              
__________________________________________________________________________________________________
activation_4 (Activation)       (None, 68, 24, 24)   0           dense_0_2_bn[0][0]               
__________________________________________________________________________________________________
dense_0_2_conv2D (Conv2D)       (None, 30, 24, 24)   18360       activation_4[0][0]               
__________________________________________________________________________________________________
dropout_3 (Dropout)             (None, 30, 24, 24)   0           dense_0_2_conv2D[0][0]           
__________________________________________________________________________________________________
concatenate_3 (Concatenate)     (None, 98, 24, 24)   0           concatenate_2[0][0]              
                                                                 dropout_3[0][0]                  
__________________________________________________________________________________________________
dense_0_3_bn (BatchNormalizatio (None, 98, 24, 24)   392         concatenate_3[0][0]              
__________________________________________________________________________________________________
activation_5 (Activation)       (None, 98, 24, 24)   0           dense_0_3_bn[0][0]               
__________________________________________________________________________________________________
dense_0_3_conv2D (Conv2D)       (None, 30, 24, 24)   26460       activation_5[0][0]               
__________________________________________________________________________________________________
dropout_4 (Dropout)             (None, 30, 24, 24)   0           dense_0_3_conv2D[0][0]           
__________________________________________________________________________________________________
concatenate_4 (Concatenate)     (None, 128, 24, 24)  0           concatenate_3[0][0]              
                                                                 dropout_4[0][0]                  
__________________________________________________________________________________________________
tr_0_bn (BatchNormalization)    (None, 128, 24, 24)  512         concatenate_4[0][0]              
__________________________________________________________________________________________________
activation_6 (Activation)       (None, 128, 24, 24)  0           tr_0_bn[0][0]                    
__________________________________________________________________________________________________
tr_0_conv2D (Conv2D)            (None, 128, 24, 24)  16384       activation_6[0][0]               
__________________________________________________________________________________________________
average_pooling2d_1 (AveragePoo (None, 128, 12, 12)  0           tr_0_conv2D[0][0]                
__________________________________________________________________________________________________
dense_1_0_bn (BatchNormalizatio (None, 128, 12, 12)  512         average_pooling2d_1[0][0]        
__________________________________________________________________________________________________
activation_7 (Activation)       (None, 128, 12, 12)  0           dense_1_0_bn[0][0]               
__________________________________________________________________________________________________
dense_1_0_conv2D (Conv2D)       (None, 30, 12, 12)   34560       activation_7[0][0]               
__________________________________________________________________________________________________
dropout_5 (Dropout)             (None, 30, 12, 12)   0           dense_1_0_conv2D[0][0]           
__________________________________________________________________________________________________
concatenate_5 (Concatenate)     (None, 158, 12, 12)  0           average_pooling2d_1[0][0]        
                                                                 dropout_5[0][0]                  
__________________________________________________________________________________________________
dense_1_1_bn (BatchNormalizatio (None, 158, 12, 12)  632         concatenate_5[0][0]              
__________________________________________________________________________________________________
activation_8 (Activation)       (None, 158, 12, 12)  0           dense_1_1_bn[0][0]               
__________________________________________________________________________________________________
dense_1_1_conv2D (Conv2D)       (None, 30, 12, 12)   42660       activation_8[0][0]               
__________________________________________________________________________________________________
dropout_6 (Dropout)             (None, 30, 12, 12)   0           dense_1_1_conv2D[0][0]           
__________________________________________________________________________________________________
concatenate_6 (Concatenate)     (None, 188, 12, 12)  0           concatenate_5[0][0]              
                                                                 dropout_6[0][0]                  
__________________________________________________________________________________________________
dense_1_2_bn (BatchNormalizatio (None, 188, 12, 12)  752         concatenate_6[0][0]              
__________________________________________________________________________________________________
activation_9 (Activation)       (None, 188, 12, 12)  0           dense_1_2_bn[0][0]               
__________________________________________________________________________________________________
dense_1_2_conv2D (Conv2D)       (None, 30, 12, 12)   50760       activation_9[0][0]               
__________________________________________________________________________________________________
dropout_7 (Dropout)             (None, 30, 12, 12)   0           dense_1_2_conv2D[0][0]           
__________________________________________________________________________________________________
concatenate_7 (Concatenate)     (None, 218, 12, 12)  0           concatenate_6[0][0]              
                                                                 dropout_7[0][0]                  
__________________________________________________________________________________________________
dense_1_3_bn (BatchNormalizatio (None, 218, 12, 12)  872         concatenate_7[0][0]              
__________________________________________________________________________________________________
activation_10 (Activation)      (None, 218, 12, 12)  0           dense_1_3_bn[0][0]               
__________________________________________________________________________________________________
dense_1_3_conv2D (Conv2D)       (None, 30, 12, 12)   58860       activation_10[0][0]              
__________________________________________________________________________________________________
dropout_8 (Dropout)             (None, 30, 12, 12)   0           dense_1_3_conv2D[0][0]           
__________________________________________________________________________________________________
concatenate_8 (Concatenate)     (None, 248, 12, 12)  0           concatenate_7[0][0]              
                                                                 dropout_8[0][0]                  
__________________________________________________________________________________________________
tr_1_bn (BatchNormalization)    (None, 248, 12, 12)  992         concatenate_8[0][0]              
__________________________________________________________________________________________________
activation_11 (Activation)      (None, 248, 12, 12)  0           tr_1_bn[0][0]                    
__________________________________________________________________________________________________
tr_1_conv2D (Conv2D)            (None, 248, 12, 12)  61504       activation_11[0][0]              
__________________________________________________________________________________________________
average_pooling2d_2 (AveragePoo (None, 248, 6, 6)    0           tr_1_conv2D[0][0]                
__________________________________________________________________________________________________
dense_2_0_bn (BatchNormalizatio (None, 248, 6, 6)    992         average_pooling2d_2[0][0]        
__________________________________________________________________________________________________
activation_12 (Activation)      (None, 248, 6, 6)    0           dense_2_0_bn[0][0]               
__________________________________________________________________________________________________
dense_2_0_conv2D (Conv2D)       (None, 30, 6, 6)     66960       activation_12[0][0]              
__________________________________________________________________________________________________
dropout_9 (Dropout)             (None, 30, 6, 6)     0           dense_2_0_conv2D[0][0]           
__________________________________________________________________________________________________
concatenate_9 (Concatenate)     (None, 278, 6, 6)    0           average_pooling2d_2[0][0]        
                                                                 dropout_9[0][0]                  
__________________________________________________________________________________________________
dense_2_1_bn (BatchNormalizatio (None, 278, 6, 6)    1112        concatenate_9[0][0]              
__________________________________________________________________________________________________
activation_13 (Activation)      (None, 278, 6, 6)    0           dense_2_1_bn[0][0]               
__________________________________________________________________________________________________
dense_2_1_conv2D (Conv2D)       (None, 30, 6, 6)     75060       activation_13[0][0]              
__________________________________________________________________________________________________
dropout_10 (Dropout)            (None, 30, 6, 6)     0           dense_2_1_conv2D[0][0]           
__________________________________________________________________________________________________
concatenate_10 (Concatenate)    (None, 308, 6, 6)    0           concatenate_9[0][0]              
                                                                 dropout_10[0][0]                 
__________________________________________________________________________________________________
dense_2_2_bn (BatchNormalizatio (None, 308, 6, 6)    1232        concatenate_10[0][0]             
__________________________________________________________________________________________________
activation_14 (Activation)      (None, 308, 6, 6)    0           dense_2_2_bn[0][0]               
__________________________________________________________________________________________________
dense_2_2_conv2D (Conv2D)       (None, 30, 6, 6)     83160       activation_14[0][0]              
__________________________________________________________________________________________________
dropout_11 (Dropout)            (None, 30, 6, 6)     0           dense_2_2_conv2D[0][0]           
__________________________________________________________________________________________________
concatenate_11 (Concatenate)    (None, 338, 6, 6)    0           concatenate_10[0][0]             
                                                                 dropout_11[0][0]                 
__________________________________________________________________________________________________
dense_2_3_bn (BatchNormalizatio (None, 338, 6, 6)    1352        concatenate_11[0][0]             
__________________________________________________________________________________________________
activation_15 (Activation)      (None, 338, 6, 6)    0           dense_2_3_bn[0][0]               
__________________________________________________________________________________________________
dense_2_3_conv2D (Conv2D)       (None, 30, 6, 6)     91260       activation_15[0][0]              
__________________________________________________________________________________________________
dropout_12 (Dropout)            (None, 30, 6, 6)     0           dense_2_3_conv2D[0][0]           
__________________________________________________________________________________________________
concatenate_12 (Concatenate)    (None, 368, 6, 6)    0           concatenate_11[0][0]             
                                                                 dropout_12[0][0]                 
__________________________________________________________________________________________________
final_bn (BatchNormalization)   (None, 368, 6, 6)    1472        concatenate_12[0][0]             
__________________________________________________________________________________________________
activation_16 (Activation)      (None, 368, 6, 6)    0           final_bn[0][0]                   
__________________________________________________________________________________________________
global_average_pooling2d_1 (Glo (None, 368)          0           activation_16[0][0]              
__________________________________________________________________________________________________
dense_1 (Dense)                 (None, 1)            369         global_average_pooling2d_1[0][0] 
==================================================================================================
Total params: 650,873
Trainable params: 645,217
Non-trainable params: 5,656
__________________________________________________________________________________________________
Finished compiling
Train on 39840 samples, validate on 7968 samples
Epoch 1/25
 - 17s - loss: 0.6174 - acc: 0.7282 - val_loss: 0.7210 - val_acc: 0.6554
…
Layers:  [4, 4, 4]  Growth_rate:  12  nb_filter:  32  dropout:  0.2
dense_block:  3  reduction:  0.5  bottleneck:  False
Epochs:  25  batch_size:  128  lr:  0.03  optimizer:  adadelta
 es_patience:  4  lr_patience:  3  pooling:  avg
------------------------	  end of configs        -------------------------
pooling:avg
__________________________________________________________________________________________________
Layer (type)                    Output Shape         Param #     Connected to                     
==================================================================================================
input_1 (InputLayer)            (None, 2, 96, 96)    0                                            
__________________________________________________________________________________________________
initial_conv2D (Conv2D)         (None, 32, 48, 48)   3136        input_1[0][0]                    
__________________________________________________________________________________________________
initial_bn (BatchNormalization) (None, 32, 48, 48)   128         initial_conv2D[0][0]             
__________________________________________________________________________________________________
activation_1 (Activation)       (None, 32, 48, 48)   0           initial_bn[0][0]                 
__________________________________________________________________________________________________
max_pooling2d_1 (MaxPooling2D)  (None, 32, 24, 24)   0           activation_1[0][0]               
__________________________________________________________________________________________________
dense_0_0_bn (BatchNormalizatio (None, 32, 24, 24)   128         max_pooling2d_1[0][0]            
__________________________________________________________________________________________________
activation_2 (Activation)       (None, 32, 24, 24)   0           dense_0_0_bn[0][0]               
__________________________________________________________________________________________________
dense_0_0_conv2D (Conv2D)       (None, 12, 24, 24)   3456        activation_2[0][0]               
__________________________________________________________________________________________________
dropout_1 (Dropout)             (None, 12, 24, 24)   0           dense_0_0_conv2D[0][0]           
__________________________________________________________________________________________________
concatenate_1 (Concatenate)     (None, 44, 24, 24)   0           max_pooling2d_1[0][0]            
                                                                 dropout_1[0][0]                  
__________________________________________________________________________________________________
dense_0_1_bn (BatchNormalizatio (None, 44, 24, 24)   176         concatenate_1[0][0]              
__________________________________________________________________________________________________
activation_3 (Activation)       (None, 44, 24, 24)   0           dense_0_1_bn[0][0]               
__________________________________________________________________________________________________
dense_0_1_conv2D (Conv2D)       (None, 12, 24, 24)   4752        activation_3[0][0]               
__________________________________________________________________________________________________
dropout_2 (Dropout)             (None, 12, 24, 24)   0           dense_0_1_conv2D[0][0]           
__________________________________________________________________________________________________
concatenate_2 (Concatenate)     (None, 56, 24, 24)   0           concatenate_1[0][0]              
                                                                 dropout_2[0][0]                  
__________________________________________________________________________________________________
dense_0_2_bn (BatchNormalizatio (None, 56, 24, 24)   224         concatenate_2[0][0]              
__________________________________________________________________________________________________
activation_4 (Activation)       (None, 56, 24, 24)   0           dense_0_2_bn[0][0]               
__________________________________________________________________________________________________
dense_0_2_conv2D (Conv2D)       (None, 12, 24, 24)   6048        activation_4[0][0]               
__________________________________________________________________________________________________
dropout_3 (Dropout)             (None, 12, 24, 24)   0           dense_0_2_conv2D[0][0]           
__________________________________________________________________________________________________
concatenate_3 (Concatenate)     (None, 68, 24, 24)   0           concatenate_2[0][0]              
                                                                 dropout_3[0][0]                  
__________________________________________________________________________________________________
dense_0_3_bn (BatchNormalizatio (None, 68, 24, 24)   272         concatenate_3[0][0]              
__________________________________________________________________________________________________
activation_5 (Activation)       (None, 68, 24, 24)   0           dense_0_3_bn[0][0]               
__________________________________________________________________________________________________
dense_0_3_conv2D (Conv2D)       (None, 12, 24, 24)   7344        activation_5[0][0]               
__________________________________________________________________________________________________
dropout_4 (Dropout)             (None, 12, 24, 24)   0           dense_0_3_conv2D[0][0]           
__________________________________________________________________________________________________
concatenate_4 (Concatenate)     (None, 80, 24, 24)   0           concatenate_3[0][0]              
                                                                 dropout_4[0][0]                  
__________________________________________________________________________________________________
tr_0_bn (BatchNormalization)    (None, 80, 24, 24)   320         concatenate_4[0][0]              
__________________________________________________________________________________________________
activation_6 (Activation)       (None, 80, 24, 24)   0           tr_0_bn[0][0]                    
__________________________________________________________________________________________________
tr_0_conv2D (Conv2D)            (None, 40, 24, 24)   3200        activation_6[0][0]               
__________________________________________________________________________________________________
average_pooling2d_1 (AveragePoo (None, 40, 12, 12)   0           tr_0_conv2D[0][0]                
__________________________________________________________________________________________________
dense_1_0_bn (BatchNormalizatio (None, 40, 12, 12)   160         average_pooling2d_1[0][0]        
__________________________________________________________________________________________________
activation_7 (Activation)       (None, 40, 12, 12)   0           dense_1_0_bn[0][0]               
__________________________________________________________________________________________________
dense_1_0_conv2D (Conv2D)       (None, 12, 12, 12)   4320        activation_7[0][0]               
__________________________________________________________________________________________________
dropout_5 (Dropout)             (None, 12, 12, 12)   0           dense_1_0_conv2D[0][0]           
__________________________________________________________________________________________________
concatenate_5 (Concatenate)     (None, 52, 12, 12)   0           average_pooling2d_1[0][0]        
                                                                 dropout_5[0][0]                  
__________________________________________________________________________________________________
dense_1_1_bn (BatchNormalizatio (None, 52, 12, 12)   208         concatenate_5[0][0]              
__________________________________________________________________________________________________
activation_8 (Activation)       (None, 52, 12, 12)   0           dense_1_1_bn[0][0]               
__________________________________________________________________________________________________
dense_1_1_conv2D (Conv2D)       (None, 12, 12, 12)   5616        activation_8[0][0]               
__________________________________________________________________________________________________
dropout_6 (Dropout)             (None, 12, 12, 12)   0           dense_1_1_conv2D[0][0]           
__________________________________________________________________________________________________
concatenate_6 (Concatenate)     (None, 64, 12, 12)   0           concatenate_5[0][0]              
                                                                 dropout_6[0][0]                  
__________________________________________________________________________________________________
dense_1_2_bn (BatchNormalizatio (None, 64, 12, 12)   256         concatenate_6[0][0]              
__________________________________________________________________________________________________
activation_9 (Activation)       (None, 64, 12, 12)   0           dense_1_2_bn[0][0]               
__________________________________________________________________________________________________
dense_1_2_conv2D (Conv2D)       (None, 12, 12, 12)   6912        activation_9[0][0]               
__________________________________________________________________________________________________
dropout_7 (Dropout)             (None, 12, 12, 12)   0           dense_1_2_conv2D[0][0]           
__________________________________________________________________________________________________
concatenate_7 (Concatenate)     (None, 76, 12, 12)   0           concatenate_6[0][0]              
                                                                 dropout_7[0][0]                  
__________________________________________________________________________________________________
dense_1_3_bn (BatchNormalizatio (None, 76, 12, 12)   304         concatenate_7[0][0]              
__________________________________________________________________________________________________
activation_10 (Activation)      (None, 76, 12, 12)   0           dense_1_3_bn[0][0]               
__________________________________________________________________________________________________
dense_1_3_conv2D (Conv2D)       (None, 12, 12, 12)   8208        activation_10[0][0]              
__________________________________________________________________________________________________
dropout_8 (Dropout)             (None, 12, 12, 12)   0           dense_1_3_conv2D[0][0]           
__________________________________________________________________________________________________
concatenate_8 (Concatenate)     (None, 88, 12, 12)   0           concatenate_7[0][0]              
                                                                 dropout_8[0][0]                  
__________________________________________________________________________________________________
tr_1_bn (BatchNormalization)    (None, 88, 12, 12)   352         concatenate_8[0][0]              
__________________________________________________________________________________________________
activation_11 (Activation)      (None, 88, 12, 12)   0           tr_1_bn[0][0]                    
__________________________________________________________________________________________________
tr_1_conv2D (Conv2D)            (None, 44, 12, 12)   3872        activation_11[0][0]              
__________________________________________________________________________________________________
average_pooling2d_2 (AveragePoo (None, 44, 6, 6)     0           tr_1_conv2D[0][0]                
__________________________________________________________________________________________________
dense_2_0_bn (BatchNormalizatio (None, 44, 6, 6)     176         average_pooling2d_2[0][0]        
__________________________________________________________________________________________________
activation_12 (Activation)      (None, 44, 6, 6)     0           dense_2_0_bn[0][0]               
__________________________________________________________________________________________________
dense_2_0_conv2D (Conv2D)       (None, 12, 6, 6)     4752        activation_12[0][0]              
__________________________________________________________________________________________________
dropout_9 (Dropout)             (None, 12, 6, 6)     0           dense_2_0_conv2D[0][0]           
__________________________________________________________________________________________________
concatenate_9 (Concatenate)     (None, 56, 6, 6)     0           average_pooling2d_2[0][0]        
                                                                 dropout_9[0][0]                  
__________________________________________________________________________________________________
dense_2_1_bn (BatchNormalizatio (None, 56, 6, 6)     224         concatenate_9[0][0]              
__________________________________________________________________________________________________
activation_13 (Activation)      (None, 56, 6, 6)     0           dense_2_1_bn[0][0]               
__________________________________________________________________________________________________
dense_2_1_conv2D (Conv2D)       (None, 12, 6, 6)     6048        activation_13[0][0]              
__________________________________________________________________________________________________
dropout_10 (Dropout)            (None, 12, 6, 6)     0           dense_2_1_conv2D[0][0]           
__________________________________________________________________________________________________
concatenate_10 (Concatenate)    (None, 68, 6, 6)     0           concatenate_9[0][0]              
                                                                 dropout_10[0][0]                 
__________________________________________________________________________________________________
dense_2_2_bn (BatchNormalizatio (None, 68, 6, 6)     272         concatenate_10[0][0]             
__________________________________________________________________________________________________
activation_14 (Activation)      (None, 68, 6, 6)     0           dense_2_2_bn[0][0]               
__________________________________________________________________________________________________
dense_2_2_conv2D (Conv2D)       (None, 12, 6, 6)     7344        activation_14[0][0]              
__________________________________________________________________________________________________
dropout_11 (Dropout)            (None, 12, 6, 6)     0           dense_2_2_conv2D[0][0]           
__________________________________________________________________________________________________
concatenate_11 (Concatenate)    (None, 80, 6, 6)     0           concatenate_10[0][0]             
                                                                 dropout_11[0][0]                 
__________________________________________________________________________________________________
dense_2_3_bn (BatchNormalizatio (None, 80, 6, 6)     320         concatenate_11[0][0]             
__________________________________________________________________________________________________
activation_15 (Activation)      (None, 80, 6, 6)     0           dense_2_3_bn[0][0]               
__________________________________________________________________________________________________
dense_2_3_conv2D (Conv2D)       (None, 12, 6, 6)     8640        activation_15[0][0]              
__________________________________________________________________________________________________
dropout_12 (Dropout)            (None, 12, 6, 6)     0           dense_2_3_conv2D[0][0]           
__________________________________________________________________________________________________
concatenate_12 (Concatenate)    (None, 92, 6, 6)     0           concatenate_11[0][0]             
                                                                 dropout_12[0][0]                 
__________________________________________________________________________________________________
final_bn (BatchNormalization)   (None, 92, 6, 6)     368         concatenate_12[0][0]             
__________________________________________________________________________________________________
activation_16 (Activation)      (None, 92, 6, 6)     0           final_bn[0][0]                   
__________________________________________________________________________________________________
global_average_pooling2d_1 (Glo (None, 92)           0           activation_16[0][0]              
__________________________________________________________________________________________________
dense_1 (Dense)                 (None, 1)            93          global_average_pooling2d_1[0][0] 
==================================================================================================
Total params: 87,629
Trainable params: 85,685
Non-trainable params: 1,944
__________________________________________________________________________________________________
Finished compiling
Train on 39840 samples, validate on 7968 samples
Epoch 1/25
 - 16s - loss: 0.5744 - acc: 0.7221 - val_loss: 0.5136 - val_acc: 0.7546
…
Layers:  [4, 4, 4]  Growth_rate:  18  nb_filter:  32  dropout:  0.2
dense_block:  3  reduction:  0.5  bottleneck:  False
Epochs:  25  batch_size:  128  lr:  0.03  optimizer:  adadelta
 es_patience:  4  lr_patience:  3  pooling:  avg
------------------------	  end of configs        -------------------------
pooling:avg
__________________________________________________________________________________________________
Layer (type)                    Output Shape         Param #     Connected to                     
==================================================================================================
input_1 (InputLayer)            (None, 2, 96, 96)    0                                            
__________________________________________________________________________________________________
initial_conv2D (Conv2D)         (None, 32, 48, 48)   3136        input_1[0][0]                    
__________________________________________________________________________________________________
initial_bn (BatchNormalization) (None, 32, 48, 48)   128         initial_conv2D[0][0]             
__________________________________________________________________________________________________
activation_1 (Activation)       (None, 32, 48, 48)   0           initial_bn[0][0]                 
__________________________________________________________________________________________________
max_pooling2d_1 (MaxPooling2D)  (None, 32, 24, 24)   0           activation_1[0][0]               
__________________________________________________________________________________________________
dense_0_0_bn (BatchNormalizatio (None, 32, 24, 24)   128         max_pooling2d_1[0][0]            
__________________________________________________________________________________________________
activation_2 (Activation)       (None, 32, 24, 24)   0           dense_0_0_bn[0][0]               
__________________________________________________________________________________________________
dense_0_0_conv2D (Conv2D)       (None, 18, 24, 24)   5184        activation_2[0][0]               
__________________________________________________________________________________________________
dropout_1 (Dropout)             (None, 18, 24, 24)   0           dense_0_0_conv2D[0][0]           
__________________________________________________________________________________________________
concatenate_1 (Concatenate)     (None, 50, 24, 24)   0           max_pooling2d_1[0][0]            
                                                                 dropout_1[0][0]                  
__________________________________________________________________________________________________
dense_0_1_bn (BatchNormalizatio (None, 50, 24, 24)   200         concatenate_1[0][0]              
__________________________________________________________________________________________________
activation_3 (Activation)       (None, 50, 24, 24)   0           dense_0_1_bn[0][0]               
__________________________________________________________________________________________________
dense_0_1_conv2D (Conv2D)       (None, 18, 24, 24)   8100        activation_3[0][0]               
__________________________________________________________________________________________________
dropout_2 (Dropout)             (None, 18, 24, 24)   0           dense_0_1_conv2D[0][0]           
__________________________________________________________________________________________________
concatenate_2 (Concatenate)     (None, 68, 24, 24)   0           concatenate_1[0][0]              
                                                                 dropout_2[0][0]                  
__________________________________________________________________________________________________
dense_0_2_bn (BatchNormalizatio (None, 68, 24, 24)   272         concatenate_2[0][0]              
__________________________________________________________________________________________________
activation_4 (Activation)       (None, 68, 24, 24)   0           dense_0_2_bn[0][0]               
__________________________________________________________________________________________________
dense_0_2_conv2D (Conv2D)       (None, 18, 24, 24)   11016       activation_4[0][0]               
__________________________________________________________________________________________________
dropout_3 (Dropout)             (None, 18, 24, 24)   0           dense_0_2_conv2D[0][0]           
__________________________________________________________________________________________________
concatenate_3 (Concatenate)     (None, 86, 24, 24)   0           concatenate_2[0][0]              
                                                                 dropout_3[0][0]                  
__________________________________________________________________________________________________
dense_0_3_bn (BatchNormalizatio (None, 86, 24, 24)   344         concatenate_3[0][0]              
__________________________________________________________________________________________________
activation_5 (Activation)       (None, 86, 24, 24)   0           dense_0_3_bn[0][0]               
__________________________________________________________________________________________________
dense_0_3_conv2D (Conv2D)       (None, 18, 24, 24)   13932       activation_5[0][0]               
__________________________________________________________________________________________________
dropout_4 (Dropout)             (None, 18, 24, 24)   0           dense_0_3_conv2D[0][0]           
__________________________________________________________________________________________________
concatenate_4 (Concatenate)     (None, 104, 24, 24)  0           concatenate_3[0][0]              
                                                                 dropout_4[0][0]                  
__________________________________________________________________________________________________
tr_0_bn (BatchNormalization)    (None, 104, 24, 24)  416         concatenate_4[0][0]              
__________________________________________________________________________________________________
activation_6 (Activation)       (None, 104, 24, 24)  0           tr_0_bn[0][0]                    
__________________________________________________________________________________________________
tr_0_conv2D (Conv2D)            (None, 52, 24, 24)   5408        activation_6[0][0]               
__________________________________________________________________________________________________
average_pooling2d_1 (AveragePoo (None, 52, 12, 12)   0           tr_0_conv2D[0][0]                
__________________________________________________________________________________________________
dense_1_0_bn (BatchNormalizatio (None, 52, 12, 12)   208         average_pooling2d_1[0][0]        
__________________________________________________________________________________________________
activation_7 (Activation)       (None, 52, 12, 12)   0           dense_1_0_bn[0][0]               
__________________________________________________________________________________________________
dense_1_0_conv2D (Conv2D)       (None, 18, 12, 12)   8424        activation_7[0][0]               
__________________________________________________________________________________________________
dropout_5 (Dropout)             (None, 18, 12, 12)   0           dense_1_0_conv2D[0][0]           
__________________________________________________________________________________________________
concatenate_5 (Concatenate)     (None, 70, 12, 12)   0           average_pooling2d_1[0][0]        
                                                                 dropout_5[0][0]                  
__________________________________________________________________________________________________
dense_1_1_bn (BatchNormalizatio (None, 70, 12, 12)   280         concatenate_5[0][0]              
__________________________________________________________________________________________________
activation_8 (Activation)       (None, 70, 12, 12)   0           dense_1_1_bn[0][0]               
__________________________________________________________________________________________________
dense_1_1_conv2D (Conv2D)       (None, 18, 12, 12)   11340       activation_8[0][0]               
__________________________________________________________________________________________________
dropout_6 (Dropout)             (None, 18, 12, 12)   0           dense_1_1_conv2D[0][0]           
__________________________________________________________________________________________________
concatenate_6 (Concatenate)     (None, 88, 12, 12)   0           concatenate_5[0][0]              
                                                                 dropout_6[0][0]                  
__________________________________________________________________________________________________
dense_1_2_bn (BatchNormalizatio (None, 88, 12, 12)   352         concatenate_6[0][0]              
__________________________________________________________________________________________________
activation_9 (Activation)       (None, 88, 12, 12)   0           dense_1_2_bn[0][0]               
__________________________________________________________________________________________________
dense_1_2_conv2D (Conv2D)       (None, 18, 12, 12)   14256       activation_9[0][0]               
__________________________________________________________________________________________________
dropout_7 (Dropout)             (None, 18, 12, 12)   0           dense_1_2_conv2D[0][0]           
__________________________________________________________________________________________________
concatenate_7 (Concatenate)     (None, 106, 12, 12)  0           concatenate_6[0][0]              
                                                                 dropout_7[0][0]                  
__________________________________________________________________________________________________
dense_1_3_bn (BatchNormalizatio (None, 106, 12, 12)  424         concatenate_7[0][0]              
__________________________________________________________________________________________________
activation_10 (Activation)      (None, 106, 12, 12)  0           dense_1_3_bn[0][0]               
__________________________________________________________________________________________________
dense_1_3_conv2D (Conv2D)       (None, 18, 12, 12)   17172       activation_10[0][0]              
__________________________________________________________________________________________________
dropout_8 (Dropout)             (None, 18, 12, 12)   0           dense_1_3_conv2D[0][0]           
__________________________________________________________________________________________________
concatenate_8 (Concatenate)     (None, 124, 12, 12)  0           concatenate_7[0][0]              
                                                                 dropout_8[0][0]                  
__________________________________________________________________________________________________
tr_1_bn (BatchNormalization)    (None, 124, 12, 12)  496         concatenate_8[0][0]              
__________________________________________________________________________________________________
activation_11 (Activation)      (None, 124, 12, 12)  0           tr_1_bn[0][0]                    
__________________________________________________________________________________________________
tr_1_conv2D (Conv2D)            (None, 62, 12, 12)   7688        activation_11[0][0]              
__________________________________________________________________________________________________
average_pooling2d_2 (AveragePoo (None, 62, 6, 6)     0           tr_1_conv2D[0][0]                
__________________________________________________________________________________________________
dense_2_0_bn (BatchNormalizatio (None, 62, 6, 6)     248         average_pooling2d_2[0][0]        
__________________________________________________________________________________________________
activation_12 (Activation)      (None, 62, 6, 6)     0           dense_2_0_bn[0][0]               
__________________________________________________________________________________________________
dense_2_0_conv2D (Conv2D)       (None, 18, 6, 6)     10044       activation_12[0][0]              
__________________________________________________________________________________________________
dropout_9 (Dropout)             (None, 18, 6, 6)     0           dense_2_0_conv2D[0][0]           
__________________________________________________________________________________________________
concatenate_9 (Concatenate)     (None, 80, 6, 6)     0           average_pooling2d_2[0][0]        
                                                                 dropout_9[0][0]                  
__________________________________________________________________________________________________
dense_2_1_bn (BatchNormalizatio (None, 80, 6, 6)     320         concatenate_9[0][0]              
__________________________________________________________________________________________________
activation_13 (Activation)      (None, 80, 6, 6)     0           dense_2_1_bn[0][0]               
__________________________________________________________________________________________________
dense_2_1_conv2D (Conv2D)       (None, 18, 6, 6)     12960       activation_13[0][0]              
__________________________________________________________________________________________________
dropout_10 (Dropout)            (None, 18, 6, 6)     0           dense_2_1_conv2D[0][0]           
__________________________________________________________________________________________________
concatenate_10 (Concatenate)    (None, 98, 6, 6)     0           concatenate_9[0][0]              
                                                                 dropout_10[0][0]                 
__________________________________________________________________________________________________
dense_2_2_bn (BatchNormalizatio (None, 98, 6, 6)     392         concatenate_10[0][0]             
__________________________________________________________________________________________________
activation_14 (Activation)      (None, 98, 6, 6)     0           dense_2_2_bn[0][0]               
__________________________________________________________________________________________________
dense_2_2_conv2D (Conv2D)       (None, 18, 6, 6)     15876       activation_14[0][0]              
__________________________________________________________________________________________________
dropout_11 (Dropout)            (None, 18, 6, 6)     0           dense_2_2_conv2D[0][0]           
__________________________________________________________________________________________________
concatenate_11 (Concatenate)    (None, 116, 6, 6)    0           concatenate_10[0][0]             
                                                                 dropout_11[0][0]                 
__________________________________________________________________________________________________
dense_2_3_bn (BatchNormalizatio (None, 116, 6, 6)    464         concatenate_11[0][0]             
__________________________________________________________________________________________________
…
dense_2_5_bn (BatchNormalizatio (None, 122, 6, 6)    488         concatenate_17[0][0]             
__________________________________________________________________________________________________
activation_21 (Activation)      (None, 122, 6, 6)    0           dense_2_5_bn[0][0]               
__________________________________________________________________________________________________
dense_2_5_conv2D (Conv2D)       (None, 12, 6, 6)     13176       activation_21[0][0]              
__________________________________________________________________________________________________
dropout_18 (Dropout)            (None, 12, 6, 6)     0           dense_2_5_conv2D[0][0]           
__________________________________________________________________________________________________
concatenate_18 (Concatenate)    (None, 134, 6, 6)    0           concatenate_17[0][0]             
                                                                 dropout_18[0][0]                 
__________________________________________________________________________________________________
final_bn (BatchNormalization)   (None, 134, 6, 6)    536         concatenate_18[0][0]             
__________________________________________________________________________________________________
activation_22 (Activation)      (None, 134, 6, 6)    0           final_bn[0][0]                   
__________________________________________________________________________________________________
global_average_pooling2d_1 (Glo (None, 134)          0           activation_22[0][0]              
__________________________________________________________________________________________________
dense_1 (Dense)                 (None, 1)            135         global_average_pooling2d_1[0][0] 
==================================================================================================
Total params: 176,535
Trainable params: 172,915
Non-trainable params: 3,620
__________________________________________________________________________________________________
Finished compiling
Train on 39840 samples, validate on 7968 samples
Epoch 1/25
 - 21s - loss: 0.5717 - acc: 0.7396 - val_loss: 0.5549 - val_acc: 0.7195
…
Layers:  [6, 6, 6]  Growth_rate:  18  nb_filter:  32  dropout:  0.2
dense_block:  3  reduction:  0.5  bottleneck:  False
Epochs:  25  batch_size:  128  lr:  0.03  optimizer:  adadelta
 es_patience:  4  lr_patience:  3  pooling:  avg
------------------------	  end of configs        -------------------------
pooling:avg
__________________________________________________________________________________________________
Layer (type)                    Output Shape         Param #     Connected to                     
==================================================================================================
input_1 (InputLayer)            (None, 2, 96, 96)    0                                            
__________________________________________________________________________________________________
initial_conv2D (Conv2D)         (None, 32, 48, 48)   3136        input_1[0][0]                    
__________________________________________________________________________________________________
initial_bn (BatchNormalization) (None, 32, 48, 48)   128         initial_conv2D[0][0]             
__________________________________________________________________________________________________
activation_1 (Activation)       (None, 32, 48, 48)   0           initial_bn[0][0]                 
__________________________________________________________________________________________________
max_pooling2d_1 (MaxPooling2D)  (None, 32, 24, 24)   0           activation_1[0][0]               
__________________________________________________________________________________________________
dense_0_0_bn (BatchNormalizatio (None, 32, 24, 24)   128         max_pooling2d_1[0][0]            
__________________________________________________________________________________________________
activation_2 (Activation)       (None, 32, 24, 24)   0           dense_0_0_bn[0][0]               
__________________________________________________________________________________________________
dense_0_0_conv2D (Conv2D)       (None, 18, 24, 24)   5184        activation_2[0][0]               
__________________________________________________________________________________________________
dropout_1 (Dropout)             (None, 18, 24, 24)   0           dense_0_0_conv2D[0][0]           
__________________________________________________________________________________________________
concatenate_1 (Concatenate)     (None, 50, 24, 24)   0           max_pooling2d_1[0][0]            
                                                                 dropout_1[0][0]                  
__________________________________________________________________________________________________
dense_0_1_bn (BatchNormalizatio (None, 50, 24, 24)   200         concatenate_1[0][0]              
__________________________________________________________________________________________________
activation_3 (Activation)       (None, 50, 24, 24)   0           dense_0_1_bn[0][0]               
__________________________________________________________________________________________________
dense_0_1_conv2D (Conv2D)       (None, 18, 24, 24)   8100        activation_3[0][0]               
__________________________________________________________________________________________________
dropout_2 (Dropout)             (None, 18, 24, 24)   0           dense_0_1_conv2D[0][0]           
__________________________________________________________________________________________________
concatenate_2 (Concatenate)     (None, 68, 24, 24)   0           concatenate_1[0][0]              
                                                                 dropout_2[0][0]                  
__________________________________________________________________________________________________
dense_0_2_bn (BatchNormalizatio (None, 68, 24, 24)   272         concatenate_2[0][0]              
__________________________________________________________________________________________________
activation_4 (Activation)       (None, 68, 24, 24)   0           dense_0_2_bn[0][0]               
__________________________________________________________________________________________________
dense_0_2_conv2D (Conv2D)       (None, 18, 24, 24)   11016       activation_4[0][0]               
__________________________________________________________________________________________________
dropout_3 (Dropout)             (None, 18, 24, 24)   0           dense_0_2_conv2D[0][0]           
__________________________________________________________________________________________________
concatenate_3 (Concatenate)     (None, 86, 24, 24)   0           concatenate_2[0][0]              
                                                                 dropout_3[0][0]                  
__________________________________________________________________________________________________
dense_0_3_bn (BatchNormalizatio (None, 86, 24, 24)   344         concatenate_3[0][0]              
__________________________________________________________________________________________________
activation_5 (Activation)       (None, 86, 24, 24)   0           dense_0_3_bn[0][0]               
__________________________________________________________________________________________________
dense_0_3_conv2D (Conv2D)       (None, 18, 24, 24)   13932       activation_5[0][0]               
__________________________________________________________________________________________________
dropout_4 (Dropout)             (None, 18, 24, 24)   0           dense_0_3_conv2D[0][0]           
__________________________________________________________________________________________________
concatenate_4 (Concatenate)     (None, 104, 24, 24)  0           concatenate_3[0][0]              
                                                                 dropout_4[0][0]                  
__________________________________________________________________________________________________
dense_0_4_bn (BatchNormalizatio (None, 104, 24, 24)  416         concatenate_4[0][0]              
__________________________________________________________________________________________________
activation_6 (Activation)       (None, 104, 24, 24)  0           dense_0_4_bn[0][0]               
__________________________________________________________________________________________________
dense_0_4_conv2D (Conv2D)       (None, 18, 24, 24)   16848       activation_6[0][0]               
__________________________________________________________________________________________________
dropout_5 (Dropout)             (None, 18, 24, 24)   0           dense_0_4_conv2D[0][0]           
__________________________________________________________________________________________________
concatenate_5 (Concatenate)     (None, 122, 24, 24)  0           concatenate_4[0][0]              
                                                                 dropout_5[0][0]                  
__________________________________________________________________________________________________
dense_0_5_bn (BatchNormalizatio (None, 122, 24, 24)  488         concatenate_5[0][0]              
__________________________________________________________________________________________________
activation_7 (Activation)       (None, 122, 24, 24)  0           dense_0_5_bn[0][0]               
__________________________________________________________________________________________________
dense_0_5_conv2D (Conv2D)       (None, 18, 24, 24)   19764       activation_7[0][0]               
__________________________________________________________________________________________________
dropout_6 (Dropout)             (None, 18, 24, 24)   0           dense_0_5_conv2D[0][0]           
__________________________________________________________________________________________________
concatenate_6 (Concatenate)     (None, 140, 24, 24)  0           concatenate_5[0][0]              
                                                                 dropout_6[0][0]                  
__________________________________________________________________________________________________
tr_0_bn (BatchNormalization)    (None, 140, 24, 24)  560         concatenate_6[0][0]              
__________________________________________________________________________________________________
activation_8 (Activation)       (None, 140, 24, 24)  0           tr_0_bn[0][0]                    
__________________________________________________________________________________________________
tr_0_conv2D (Conv2D)            (None, 70, 24, 24)   9800        activation_8[0][0]               
__________________________________________________________________________________________________
average_pooling2d_1 (AveragePoo (None, 70, 12, 12)   0           tr_0_conv2D[0][0]                
__________________________________________________________________________________________________
dense_1_0_bn (BatchNormalizatio (None, 70, 12, 12)   280         average_pooling2d_1[0][0]        
__________________________________________________________________________________________________
activation_9 (Activation)       (None, 70, 12, 12)   0           dense_1_0_bn[0][0]               
__________________________________________________________________________________________________
dense_1_0_conv2D (Conv2D)       (None, 18, 12, 12)   11340       activation_9[0][0]               
__________________________________________________________________________________________________
dropout_7 (Dropout)             (None, 18, 12, 12)   0           dense_1_0_conv2D[0][0]           
__________________________________________________________________________________________________
concatenate_7 (Concatenate)     (None, 88, 12, 12)   0           average_pooling2d_1[0][0]        
                                                                 dropout_7[0][0]                  
__________________________________________________________________________________________________
dense_1_1_bn (BatchNormalizatio (None, 88, 12, 12)   352         concatenate_7[0][0]              
__________________________________________________________________________________________________
activation_10 (Activation)      (None, 88, 12, 12)   0           dense_1_1_bn[0][0]               
__________________________________________________________________________________________________
dense_1_1_conv2D (Conv2D)       (None, 18, 12, 12)   14256       activation_10[0][0]              
__________________________________________________________________________________________________
dropout_8 (Dropout)             (None, 18, 12, 12)   0           dense_1_1_conv2D[0][0]           
__________________________________________________________________________________________________
concatenate_8 (Concatenate)     (None, 106, 12, 12)  0           concatenate_7[0][0]              
                                                                 dropout_8[0][0]                  
__________________________________________________________________________________________________
dense_1_2_bn (BatchNormalizatio (None, 106, 12, 12)  424         concatenate_8[0][0]              
__________________________________________________________________________________________________
activation_11 (Activation)      (None, 106, 12, 12)  0           dense_1_2_bn[0][0]               
__________________________________________________________________________________________________
dense_1_2_conv2D (Conv2D)       (None, 18, 12, 12)   17172       activation_11[0][0]              
__________________________________________________________________________________________________
dropout_9 (Dropout)             (None, 18, 12, 12)   0           dense_1_2_conv2D[0][0]           
__________________________________________________________________________________________________
concatenate_9 (Concatenate)     (None, 124, 12, 12)  0           concatenate_8[0][0]              
                                                                 dropout_9[0][0]                  
__________________________________________________________________________________________________
dense_1_3_bn (BatchNormalizatio (None, 124, 12, 12)  496         concatenate_9[0][0]              
__________________________________________________________________________________________________
activation_12 (Activation)      (None, 124, 12, 12)  0           dense_1_3_bn[0][0]               
__________________________________________________________________________________________________
dense_1_3_conv2D (Conv2D)       (None, 18, 12, 12)   20088       activation_12[0][0]              
__________________________________________________________________________________________________
dropout_10 (Dropout)            (None, 18, 12, 12)   0           dense_1_3_conv2D[0][0]           
__________________________________________________________________________________________________
concatenate_10 (Concatenate)    (None, 142, 12, 12)  0           concatenate_9[0][0]              
                                                                 dropout_10[0][0]                 
__________________________________________________________________________________________________
dense_1_4_bn (BatchNormalizatio (None, 142, 12, 12)  568         concatenate_10[0][0]             
__________________________________________________________________________________________________
activation_13 (Activation)      (None, 142, 12, 12)  0           dense_1_4_bn[0][0]               
__________________________________________________________________________________________________
dense_1_4_conv2D (Conv2D)       (None, 18, 12, 12)   23004       activation_13[0][0]              
__________________________________________________________________________________________________
dropout_11 (Dropout)            (None, 18, 12, 12)   0           dense_1_4_conv2D[0][0]           
__________________________________________________________________________________________________
concatenate_11 (Concatenate)    (None, 160, 12, 12)  0           concatenate_10[0][0]             
                                                                 dropout_11[0][0]                 
__________________________________________________________________________________________________
dense_1_5_bn (BatchNormalizatio (None, 160, 12, 12)  640         concatenate_11[0][0]             
__________________________________________________________________________________________________
activation_14 (Activation)      (None, 160, 12, 12)  0           dense_1_5_bn[0][0]               
__________________________________________________________________________________________________
dense_1_5_conv2D (Conv2D)       (None, 18, 12, 12)   25920       activation_14[0][0]              
__________________________________________________________________________________________________
dropout_12 (Dropout)            (None, 18, 12, 12)   0           dense_1_5_conv2D[0][0]           
__________________________________________________________________________________________________
concatenate_12 (Concatenate)    (None, 178, 12, 12)  0           concatenate_11[0][0]             
                                                                 dropout_12[0][0]                 
__________________________________________________________________________________________________
tr_1_bn (BatchNormalization)    (None, 178, 12, 12)  712         concatenate_12[0][0]             
__________________________________________________________________________________________________
activation_15 (Activation)      (None, 178, 12, 12)  0           tr_1_bn[0][0]                    
__________________________________________________________________________________________________
tr_1_conv2D (Conv2D)            (None, 89, 12, 12)   15842       activation_15[0][0]              
__________________________________________________________________________________________________
average_pooling2d_2 (AveragePoo (None, 89, 6, 6)     0           tr_1_conv2D[0][0]                
__________________________________________________________________________________________________
dense_2_0_bn (BatchNormalizatio (None, 89, 6, 6)     356         average_pooling2d_2[0][0]        
__________________________________________________________________________________________________
activation_16 (Activation)      (None, 89, 6, 6)     0           dense_2_0_bn[0][0]               
__________________________________________________________________________________________________
dense_2_0_conv2D (Conv2D)       (None, 18, 6, 6)     14418       activation_16[0][0]              
__________________________________________________________________________________________________
dropout_13 (Dropout)            (None, 18, 6, 6)     0           dense_2_0_conv2D[0][0]           
__________________________________________________________________________________________________
concatenate_13 (Concatenate)    (None, 107, 6, 6)    0           average_pooling2d_2[0][0]        
                                                                 dropout_13[0][0]                 
__________________________________________________________________________________________________
dense_2_1_bn (BatchNormalizatio (None, 107, 6, 6)    428         concatenate_13[0][0]             
__________________________________________________________________________________________________
activation_17 (Activation)      (None, 107, 6, 6)    0           dense_2_1_bn[0][0]               
__________________________________________________________________________________________________
dense_2_1_conv2D (Conv2D)       (None, 18, 6, 6)     17334       activation_17[0][0]              
__________________________________________________________________________________________________
dropout_14 (Dropout)            (None, 18, 6, 6)     0           dense_2_1_conv2D[0][0]           
__________________________________________________________________________________________________
concatenate_14 (Concatenate)    (None, 125, 6, 6)    0           concatenate_13[0][0]             
                                                                 dropout_14[0][0]                 
__________________________________________________________________________________________________
dense_2_2_bn (BatchNormalizatio (None, 125, 6, 6)    500         concatenate_14[0][0]             
__________________________________________________________________________________________________
activation_18 (Activation)      (None, 125, 6, 6)    0           dense_2_2_bn[0][0]               
__________________________________________________________________________________________________
dense_2_2_conv2D (Conv2D)       (None, 18, 6, 6)     20250       activation_18[0][0]              
__________________________________________________________________________________________________
dropout_15 (Dropout)            (None, 18, 6, 6)     0           dense_2_2_conv2D[0][0]           
__________________________________________________________________________________________________
concatenate_15 (Concatenate)    (None, 143, 6, 6)    0           concatenate_14[0][0]             
                                                                 dropout_15[0][0]                 
__________________________________________________________________________________________________
dense_2_3_bn (BatchNormalizatio (None, 143, 6, 6)    572         concatenate_15[0][0]             
__________________________________________________________________________________________________
activation_19 (Activation)      (None, 143, 6, 6)    0           dense_2_3_bn[0][0]               
__________________________________________________________________________________________________
dense_2_3_conv2D (Conv2D)       (None, 18, 6, 6)     23166       activation_19[0][0]              
__________________________________________________________________________________________________
dropout_16 (Dropout)            (None, 18, 6, 6)     0           dense_2_3_conv2D[0][0]           
__________________________________________________________________________________________________
concatenate_16 (Concatenate)    (None, 161, 6, 6)    0           concatenate_15[0][0]             
                                                                 dropout_16[0][0]                 
__________________________________________________________________________________________________
dense_2_4_bn (BatchNormalizatio (None, 161, 6, 6)    644         concatenate_16[0][0]             
__________________________________________________________________________________________________
activation_20 (Activation)      (None, 161, 6, 6)    0           dense_2_4_bn[0][0]               
__________________________________________________________________________________________________
dense_2_4_conv2D (Conv2D)       (None, 18, 6, 6)     26082       activation_20[0][0]              
__________________________________________________________________________________________________
dropout_17 (Dropout)            (None, 18, 6, 6)     0           dense_2_4_conv2D[0][0]           
__________________________________________________________________________________________________
concatenate_17 (Concatenate)    (None, 179, 6, 6)    0           concatenate_16[0][0]             
                                                                 dropout_17[0][0]                 
__________________________________________________________________________________________________
dense_2_5_bn (BatchNormalizatio (None, 179, 6, 6)    716         concatenate_17[0][0]             
__________________________________________________________________________________________________
activation_21 (Activation)      (None, 179, 6, 6)    0           dense_2_5_bn[0][0]               
__________________________________________________________________________________________________
dense_2_5_conv2D (Conv2D)       (None, 18, 6, 6)     28998       activation_21[0][0]              
__________________________________________________________________________________________________
dropout_18 (Dropout)            (None, 18, 6, 6)     0           dense_2_5_conv2D[0][0]           
__________________________________________________________________________________________________
concatenate_18 (Concatenate)    (None, 197, 6, 6)    0           concatenate_17[0][0]             
                                                                 dropout_18[0][0]                 
__________________________________________________________________________________________________
final_bn (BatchNormalization)   (None, 197, 6, 6)    788         concatenate_18[0][0]             
__________________________________________________________________________________________________
activation_22 (Activation)      (None, 197, 6, 6)    0           final_bn[0][0]                   
__________________________________________________________________________________________________
global_average_pooling2d_1 (Glo (None, 197)          0           activation_22[0][0]              
__________________________________________________________________________________________________
dense_1 (Dense)                 (None, 1)            198         global_average_pooling2d_1[0][0] 
==================================================================================================
Total params: 355,860
Trainable params: 350,854
Non-trainable params: 5,006
__________________________________________________________________________________________________
Finished compiling
Train on 39840 samples, validate on 7968 samples
Epoch 1/25
 - 22s - loss: 0.5620 - acc: 0.7435 - val_loss: 0.4914 - val_acc: 0.7683
…
Layers:  [6, 6, 6]  Growth_rate:  30  nb_filter:  8  dropout:  0.2
dense_block:  3  reduction:  0.5  bottleneck:  False
Epochs:  25  batch_size:  128  lr:  0.03  optimizer:  adadelta
 es_patience:  4  lr_patience:  3  pooling:  avg
------------------------	  end of configs        -------------------------
pooling:avg
__________________________________________________________________________________________________
Layer (type)                    Output Shape         Param #     Connected to                     
==================================================================================================
input_1 (InputLayer)            (None, 2, 96, 96)    0                                            
__________________________________________________________________________________________________
initial_conv2D (Conv2D)         (None, 8, 48, 48)    784         input_1[0][0]                    
__________________________________________________________________________________________________
initial_bn (BatchNormalization) (None, 8, 48, 48)    32          initial_conv2D[0][0]             
__________________________________________________________________________________________________
activation_1 (Activation)       (None, 8, 48, 48)    0           initial_bn[0][0]                 
__________________________________________________________________________________________________
max_pooling2d_1 (MaxPooling2D)  (None, 8, 24, 24)    0           activation_1[0][0]               
__________________________________________________________________________________________________
dense_0_0_bn (BatchNormalizatio (None, 8, 24, 24)    32          max_pooling2d_1[0][0]            
__________________________________________________________________________________________________
activation_2 (Activation)       (None, 8, 24, 24)    0           dense_0_0_bn[0][0]               
__________________________________________________________________________________________________
dense_0_0_conv2D (Conv2D)       (None, 30, 24, 24)   2160        activation_2[0][0]               
__________________________________________________________________________________________________
dropout_1 (Dropout)             (None, 30, 24, 24)   0           dense_0_0_conv2D[0][0]           
__________________________________________________________________________________________________
concatenate_1 (Concatenate)     (None, 38, 24, 24)   0           max_pooling2d_1[0][0]            
                                                                 dropout_1[0][0]                  
__________________________________________________________________________________________________
dense_0_1_bn (BatchNormalizatio (None, 38, 24, 24)   152         concatenate_1[0][0]              
__________________________________________________________________________________________________
activation_3 (Activation)       (None, 38, 24, 24)   0           dense_0_1_bn[0][0]               
__________________________________________________________________________________________________
dense_0_1_conv2D (Conv2D)       (None, 30, 24, 24)   10260       activation_3[0][0]               
__________________________________________________________________________________________________
dropout_2 (Dropout)             (None, 30, 24, 24)   0           dense_0_1_conv2D[0][0]           
__________________________________________________________________________________________________
concatenate_2 (Concatenate)     (None, 68, 24, 24)   0           concatenate_1[0][0]              
                                                                 dropout_2[0][0]                  
__________________________________________________________________________________________________
dense_0_2_bn (BatchNormalizatio (None, 68, 24, 24)   272         concatenate_2[0][0]              
__________________________________________________________________________________________________
activation_4 (Activation)       (None, 68, 24, 24)   0           dense_0_2_bn[0][0]               
__________________________________________________________________________________________________
dense_0_2_conv2D (Conv2D)       (None, 30, 24, 24)   18360       activation_4[0][0]               
__________________________________________________________________________________________________
dropout_3 (Dropout)             (None, 30, 24, 24)   0           dense_0_2_conv2D[0][0]           
__________________________________________________________________________________________________
concatenate_3 (Concatenate)     (None, 98, 24, 24)   0           concatenate_2[0][0]              
                                                                 dropout_3[0][0]                  
__________________________________________________________________________________________________
dense_0_3_bn (BatchNormalizatio (None, 98, 24, 24)   392         concatenate_3[0][0]              
__________________________________________________________________________________________________
activation_5 (Activation)       (None, 98, 24, 24)   0           dense_0_3_bn[0][0]               
__________________________________________________________________________________________________
dense_0_3_conv2D (Conv2D)       (None, 30, 24, 24)   26460       activation_5[0][0]               
__________________________________________________________________________________________________
dropout_4 (Dropout)             (None, 30, 24, 24)   0           dense_0_3_conv2D[0][0]           
__________________________________________________________________________________________________
concatenate_4 (Concatenate)     (None, 128, 24, 24)  0           concatenate_3[0][0]              
                                                                 dropout_4[0][0]                  
__________________________________________________________________________________________________
dense_0_4_bn (BatchNormalizatio (None, 128, 24, 24)  512         concatenate_4[0][0]              
__________________________________________________________________________________________________
activation_6 (Activation)       (None, 128, 24, 24)  0           dense_0_4_bn[0][0]               
__________________________________________________________________________________________________
dense_0_4_conv2D (Conv2D)       (None, 30, 24, 24)   34560       activation_6[0][0]               
__________________________________________________________________________________________________
dropout_5 (Dropout)             (None, 30, 24, 24)   0           dense_0_4_conv2D[0][0]           
__________________________________________________________________________________________________
concatenate_5 (Concatenate)     (None, 158, 24, 24)  0           concatenate_4[0][0]              
                                                                 dropout_5[0][0]                  
__________________________________________________________________________________________________
dense_0_5_bn (BatchNormalizatio (None, 158, 24, 24)  632         concatenate_5[0][0]              
__________________________________________________________________________________________________
activation_7 (Activation)       (None, 158, 24, 24)  0           dense_0_5_bn[0][0]               
__________________________________________________________________________________________________
dense_0_5_conv2D (Conv2D)       (None, 30, 24, 24)   42660       activation_7[0][0]               
__________________________________________________________________________________________________
dropout_6 (Dropout)             (None, 30, 24, 24)   0           dense_0_5_conv2D[0][0]           
__________________________________________________________________________________________________
concatenate_6 (Concatenate)     (None, 188, 24, 24)  0           concatenate_5[0][0]              
                                                                 dropout_6[0][0]                  
__________________________________________________________________________________________________
tr_0_bn (BatchNormalization)    (None, 188, 24, 24)  752         concatenate_6[0][0]              
__________________________________________________________________________________________________
activation_8 (Activation)       (None, 188, 24, 24)  0           tr_0_bn[0][0]                    
__________________________________________________________________________________________________
tr_0_conv2D (Conv2D)            (None, 94, 24, 24)   17672       activation_8[0][0]               
__________________________________________________________________________________________________
average_pooling2d_1 (AveragePoo (None, 94, 12, 12)   0           tr_0_conv2D[0][0]                
__________________________________________________________________________________________________
dense_1_0_bn (BatchNormalizatio (None, 94, 12, 12)   376         average_pooling2d_1[0][0]        
__________________________________________________________________________________________________
activation_9 (Activation)       (None, 94, 12, 12)   0           dense_1_0_bn[0][0]               
__________________________________________________________________________________________________
dense_1_0_conv2D (Conv2D)       (None, 30, 12, 12)   25380       activation_9[0][0]               
__________________________________________________________________________________________________
dropout_7 (Dropout)             (None, 30, 12, 12)   0           dense_1_0_conv2D[0][0]           
__________________________________________________________________________________________________
concatenate_7 (Concatenate)     (None, 124, 12, 12)  0           average_pooling2d_1[0][0]        
                                                                 dropout_7[0][0]                  
__________________________________________________________________________________________________
dense_1_1_bn (BatchNormalizatio (None, 124, 12, 12)  496         concatenate_7[0][0]              
__________________________________________________________________________________________________
activation_10 (Activation)      (None, 124, 12, 12)  0           dense_1_1_bn[0][0]               
__________________________________________________________________________________________________
dense_1_1_conv2D (Conv2D)       (None, 30, 12, 12)   33480       activation_10[0][0]              
__________________________________________________________________________________________________
dropout_8 (Dropout)             (None, 30, 12, 12)   0           dense_1_1_conv2D[0][0]           
__________________________________________________________________________________________________
concatenate_8 (Concatenate)     (None, 154, 12, 12)  0           concatenate_7[0][0]              
                                                                 dropout_8[0][0]                  
__________________________________________________________________________________________________
dense_1_2_bn (BatchNormalizatio (None, 154, 12, 12)  616         concatenate_8[0][0]              
__________________________________________________________________________________________________
activation_11 (Activation)      (None, 154, 12, 12)  0           dense_1_2_bn[0][0]               
__________________________________________________________________________________________________
dense_1_2_conv2D (Conv2D)       (None, 30, 12, 12)   41580       activation_11[0][0]              
__________________________________________________________________________________________________
dropout_9 (Dropout)             (None, 30, 12, 12)   0           dense_1_2_conv2D[0][0]           
__________________________________________________________________________________________________
concatenate_9 (Concatenate)     (None, 184, 12, 12)  0           concatenate_8[0][0]              
                                                                 dropout_9[0][0]                  
__________________________________________________________________________________________________
dense_1_3_bn (BatchNormalizatio (None, 184, 12, 12)  736         concatenate_9[0][0]              
__________________________________________________________________________________________________
activation_12 (Activation)      (None, 184, 12, 12)  0           dense_1_3_bn[0][0]               
__________________________________________________________________________________________________
dense_1_3_conv2D (Conv2D)       (None, 30, 12, 12)   49680       activation_12[0][0]              
__________________________________________________________________________________________________
dropout_10 (Dropout)            (None, 30, 12, 12)   0           dense_1_3_conv2D[0][0]           
__________________________________________________________________________________________________
concatenate_10 (Concatenate)    (None, 214, 12, 12)  0           concatenate_9[0][0]              
                                                                 dropout_10[0][0]                 
__________________________________________________________________________________________________
dense_1_4_bn (BatchNormalizatio (None, 214, 12, 12)  856         concatenate_10[0][0]             
__________________________________________________________________________________________________
activation_13 (Activation)      (None, 214, 12, 12)  0           dense_1_4_bn[0][0]               
__________________________________________________________________________________________________
dense_1_4_conv2D (Conv2D)       (None, 30, 12, 12)   57780       activation_13[0][0]              
__________________________________________________________________________________________________
dropout_11 (Dropout)            (None, 30, 12, 12)   0           dense_1_4_conv2D[0][0]           
__________________________________________________________________________________________________
concatenate_11 (Concatenate)    (None, 244, 12, 12)  0           concatenate_10[0][0]             
                                                                 dropout_11[0][0]                 
__________________________________________________________________________________________________
dense_1_5_bn (BatchNormalizatio (None, 244, 12, 12)  976         concatenate_11[0][0]             
__________________________________________________________________________________________________
activation_14 (Activation)      (None, 244, 12, 12)  0           dense_1_5_bn[0][0]               
__________________________________________________________________________________________________
dense_1_5_conv2D (Conv2D)       (None, 30, 12, 12)   65880       activation_14[0][0]              
__________________________________________________________________________________________________
dropout_12 (Dropout)            (None, 30, 12, 12)   0           dense_1_5_conv2D[0][0]           
__________________________________________________________________________________________________
concatenate_12 (Concatenate)    (None, 274, 12, 12)  0           concatenate_11[0][0]             
                                                                 dropout_12[0][0]                 
__________________________________________________________________________________________________
tr_1_bn (BatchNormalization)    (None, 274, 12, 12)  1096        concatenate_12[0][0]             
__________________________________________________________________________________________________
activation_15 (Activation)      (None, 274, 12, 12)  0           tr_1_bn[0][0]                    
__________________________________________________________________________________________________
tr_1_conv2D (Conv2D)            (None, 137, 12, 12)  37538       activation_15[0][0]              
__________________________________________________________________________________________________
average_pooling2d_2 (AveragePoo (None, 137, 6, 6)    0           tr_1_conv2D[0][0]                
__________________________________________________________________________________________________
dense_2_0_bn (BatchNormalizatio (None, 137, 6, 6)    548         average_pooling2d_2[0][0]        
__________________________________________________________________________________________________
activation_16 (Activation)      (None, 137, 6, 6)    0           dense_2_0_bn[0][0]               
__________________________________________________________________________________________________
dense_2_0_conv2D (Conv2D)       (None, 30, 6, 6)     36990       activation_16[0][0]              
__________________________________________________________________________________________________
dropout_13 (Dropout)            (None, 30, 6, 6)     0           dense_2_0_conv2D[0][0]           
__________________________________________________________________________________________________
concatenate_13 (Concatenate)    (None, 167, 6, 6)    0           average_pooling2d_2[0][0]        
                                                                 dropout_13[0][0]                 
__________________________________________________________________________________________________
dense_2_1_bn (BatchNormalizatio (None, 167, 6, 6)    668         concatenate_13[0][0]             
__________________________________________________________________________________________________
activation_17 (Activation)      (None, 167, 6, 6)    0           dense_2_1_bn[0][0]               
__________________________________________________________________________________________________
dense_2_1_conv2D (Conv2D)       (None, 30, 6, 6)     45090       activation_17[0][0]              
__________________________________________________________________________________________________
dropout_14 (Dropout)            (None, 30, 6, 6)     0           dense_2_1_conv2D[0][0]           
__________________________________________________________________________________________________
concatenate_14 (Concatenate)    (None, 197, 6, 6)    0           concatenate_13[0][0]             
                                                                 dropout_14[0][0]                 
__________________________________________________________________________________________________
dense_2_2_bn (BatchNormalizatio (None, 197, 6, 6)    788         concatenate_14[0][0]             
__________________________________________________________________________________________________
activation_18 (Activation)      (None, 197, 6, 6)    0           dense_2_2_bn[0][0]               
__________________________________________________________________________________________________
dense_2_2_conv2D (Conv2D)       (None, 30, 6, 6)     53190       activation_18[0][0]              
__________________________________________________________________________________________________
dropout_15 (Dropout)            (None, 30, 6, 6)     0           dense_2_2_conv2D[0][0]           
__________________________________________________________________________________________________
concatenate_15 (Concatenate)    (None, 227, 6, 6)    0           concatenate_14[0][0]             
                                                                 dropout_15[0][0]                 
__________________________________________________________________________________________________
dense_2_3_bn (BatchNormalizatio (None, 227, 6, 6)    908         concatenate_15[0][0]             
__________________________________________________________________________________________________
activation_19 (Activation)      (None, 227, 6, 6)    0           dense_2_3_bn[0][0]               
__________________________________________________________________________________________________
dense_2_3_conv2D (Conv2D)       (None, 30, 6, 6)     61290       activation_19[0][0]              
__________________________________________________________________________________________________
dropout_16 (Dropout)            (None, 30, 6, 6)     0           dense_2_3_conv2D[0][0]           
__________________________________________________________________________________________________
concatenate_16 (Concatenate)    (None, 257, 6, 6)    0           concatenate_15[0][0]             
                                                                 dropout_16[0][0]                 
__________________________________________________________________________________________________
dense_2_4_bn (BatchNormalizatio (None, 257, 6, 6)    1028        concatenate_16[0][0]             
__________________________________________________________________________________________________
activation_20 (Activation)      (None, 257, 6, 6)    0           dense_2_4_bn[0][0]               
__________________________________________________________________________________________________
dense_2_4_conv2D (Conv2D)       (None, 30, 6, 6)     69390       activation_20[0][0]              
__________________________________________________________________________________________________
dropout_17 (Dropout)            (None, 30, 6, 6)     0           dense_2_4_conv2D[0][0]           
__________________________________________________________________________________________________
concatenate_17 (Concatenate)    (None, 287, 6, 6)    0           concatenate_16[0][0]             
                                                                 dropout_17[0][0]                 
__________________________________________________________________________________________________
dense_2_5_bn (BatchNormalizatio (None, 287, 6, 6)    1148        concatenate_17[0][0]             
__________________________________________________________________________________________________
activation_21 (Activation)      (None, 287, 6, 6)    0           dense_2_5_bn[0][0]               
__________________________________________________________________________________________________
dense_2_5_conv2D (Conv2D)       (None, 30, 6, 6)     77490       activation_21[0][0]              
__________________________________________________________________________________________________
dropout_18 (Dropout)            (None, 30, 6, 6)     0           dense_2_5_conv2D[0][0]           
__________________________________________________________________________________________________
concatenate_18 (Concatenate)    (None, 317, 6, 6)    0           concatenate_17[0][0]             
                                                                 dropout_18[0][0]                 
__________________________________________________________________________________________________
final_bn (BatchNormalization)   (None, 317, 6, 6)    1268        concatenate_18[0][0]             
__________________________________________________________________________________________________
activation_22 (Activation)      (None, 317, 6, 6)    0           final_bn[0][0]                   
__________________________________________________________________________________________________
global_average_pooling2d_1 (Glo (None, 317)          0           activation_22[0][0]              
__________________________________________________________________________________________________
dense_1 (Dense)                 (None, 1)            318         global_average_pooling2d_1[0][0] 
==================================================================================================
Total params: 822,276
Trainable params: 815,134
Non-trainable params: 7,142
__________________________________________________________________________________________________
Finished compiling
Train on 39840 samples, validate on 7968 samples
Epoch 1/25
 - 23s - loss: 0.5712 - acc: 0.7369 - val_loss: 0.5452 - val_acc: 0.7369
…
