…
------------------------ current config for the test -------------------------
Layers:  [2, 2, 2, 2]  Growth_rate:  24  nb_filter:  16  dropout:  0.2
dense_block  4  reduction_:  0.5  bottleneck:  True
------------------------	  end of configs        -------------------------
pooling:flatten
__________________________________________________________________________________________________
Layer (type)                    Output Shape         Param #     Connected to                     
==================================================================================================
input_1 (InputLayer)            (None, 1, 96, 96)    0                                            
__________________________________________________________________________________________________
initial_conv2D (Conv2D)         (None, 16, 48, 48)   784         input_1[0][0]                    
__________________________________________________________________________________________________
initial_bn (BatchNormalization) (None, 16, 48, 48)   64          initial_conv2D[0][0]             
__________________________________________________________________________________________________
activation_1 (Activation)       (None, 16, 48, 48)   0           initial_bn[0][0]                 
__________________________________________________________________________________________________
max_pooling2d_1 (MaxPooling2D)  (None, 16, 24, 24)   0           activation_1[0][0]               
__________________________________________________________________________________________________
dense_0_0_bn (BatchNormalizatio (None, 16, 24, 24)   64          max_pooling2d_1[0][0]            
__________________________________________________________________________________________________
activation_2 (Activation)       (None, 16, 24, 24)   0           dense_0_0_bn[0][0]               
__________________________________________________________________________________________________
dense_0_0_bottleneck_conv2D (Co (None, 96, 24, 24)   1536        activation_2[0][0]               
__________________________________________________________________________________________________
dense_0_0_bottleneck_bn (BatchN (None, 96, 24, 24)   384         dense_0_0_bottleneck_conv2D[0][0]
__________________________________________________________________________________________________
activation_3 (Activation)       (None, 96, 24, 24)   0           dense_0_0_bottleneck_bn[0][0]    
__________________________________________________________________________________________________
dense_0_0_conv2D (Conv2D)       (None, 24, 24, 24)   20736       activation_3[0][0]               
__________________________________________________________________________________________________
dropout_1 (Dropout)             (None, 24, 24, 24)   0           dense_0_0_conv2D[0][0]           
__________________________________________________________________________________________________
concatenate_1 (Concatenate)     (None, 40, 24, 24)   0           max_pooling2d_1[0][0]            
                                                                 dropout_1[0][0]                  
__________________________________________________________________________________________________
dense_0_1_bn (BatchNormalizatio (None, 40, 24, 24)   160         concatenate_1[0][0]              
__________________________________________________________________________________________________
activation_4 (Activation)       (None, 40, 24, 24)   0           dense_0_1_bn[0][0]               
__________________________________________________________________________________________________
dense_0_1_bottleneck_conv2D (Co (None, 96, 24, 24)   3840        activation_4[0][0]               
__________________________________________________________________________________________________
dense_0_1_bottleneck_bn (BatchN (None, 96, 24, 24)   384         dense_0_1_bottleneck_conv2D[0][0]
__________________________________________________________________________________________________
activation_5 (Activation)       (None, 96, 24, 24)   0           dense_0_1_bottleneck_bn[0][0]    
__________________________________________________________________________________________________
dense_0_1_conv2D (Conv2D)       (None, 24, 24, 24)   20736       activation_5[0][0]               
__________________________________________________________________________________________________
dropout_2 (Dropout)             (None, 24, 24, 24)   0           dense_0_1_conv2D[0][0]           
__________________________________________________________________________________________________
concatenate_2 (Concatenate)     (None, 64, 24, 24)   0           concatenate_1[0][0]              
                                                                 dropout_2[0][0]                  
__________________________________________________________________________________________________
tr_0_bn (BatchNormalization)    (None, 64, 24, 24)   256         concatenate_2[0][0]              
__________________________________________________________________________________________________
activation_6 (Activation)       (None, 64, 24, 24)   0           tr_0_bn[0][0]                    
__________________________________________________________________________________________________
tr_0_conv2D (Conv2D)            (None, 32, 24, 24)   2048        activation_6[0][0]               
__________________________________________________________________________________________________
max_pooling2d_2 (MaxPooling2D)  (None, 32, 12, 12)   0           tr_0_conv2D[0][0]                
__________________________________________________________________________________________________
dense_1_0_bn (BatchNormalizatio (None, 32, 12, 12)   128         max_pooling2d_2[0][0]            
__________________________________________________________________________________________________
activation_7 (Activation)       (None, 32, 12, 12)   0           dense_1_0_bn[0][0]               
__________________________________________________________________________________________________
dense_1_0_bottleneck_conv2D (Co (None, 96, 12, 12)   3072        activation_7[0][0]               
__________________________________________________________________________________________________
dense_1_0_bottleneck_bn (BatchN (None, 96, 12, 12)   384         dense_1_0_bottleneck_conv2D[0][0]
__________________________________________________________________________________________________
activation_8 (Activation)       (None, 96, 12, 12)   0           dense_1_0_bottleneck_bn[0][0]    
__________________________________________________________________________________________________
dense_1_0_conv2D (Conv2D)       (None, 24, 12, 12)   20736       activation_8[0][0]               
__________________________________________________________________________________________________
dropout_3 (Dropout)             (None, 24, 12, 12)   0           dense_1_0_conv2D[0][0]           
__________________________________________________________________________________________________
concatenate_3 (Concatenate)     (None, 56, 12, 12)   0           max_pooling2d_2[0][0]            
                                                                 dropout_3[0][0]                  
__________________________________________________________________________________________________
dense_1_1_bn (BatchNormalizatio (None, 56, 12, 12)   224         concatenate_3[0][0]              
__________________________________________________________________________________________________
activation_9 (Activation)       (None, 56, 12, 12)   0           dense_1_1_bn[0][0]               
__________________________________________________________________________________________________
dense_1_1_bottleneck_conv2D (Co (None, 96, 12, 12)   5376        activation_9[0][0]               
__________________________________________________________________________________________________
dense_1_1_bottleneck_bn (BatchN (None, 96, 12, 12)   384         dense_1_1_bottleneck_conv2D[0][0]
__________________________________________________________________________________________________
activation_10 (Activation)      (None, 96, 12, 12)   0           dense_1_1_bottleneck_bn[0][0]    
__________________________________________________________________________________________________
dense_1_1_conv2D (Conv2D)       (None, 24, 12, 12)   20736       activation_10[0][0]              
__________________________________________________________________________________________________
dropout_4 (Dropout)             (None, 24, 12, 12)   0           dense_1_1_conv2D[0][0]           
__________________________________________________________________________________________________
concatenate_4 (Concatenate)     (None, 80, 12, 12)   0           concatenate_3[0][0]              
                                                                 dropout_4[0][0]                  
__________________________________________________________________________________________________
tr_1_bn (BatchNormalization)    (None, 80, 12, 12)   320         concatenate_4[0][0]              
__________________________________________________________________________________________________
activation_11 (Activation)      (None, 80, 12, 12)   0           tr_1_bn[0][0]                    
__________________________________________________________________________________________________
tr_1_conv2D (Conv2D)            (None, 40, 12, 12)   3200        activation_11[0][0]              
__________________________________________________________________________________________________
max_pooling2d_3 (MaxPooling2D)  (None, 40, 6, 6)     0           tr_1_conv2D[0][0]                
__________________________________________________________________________________________________
dense_2_0_bn (BatchNormalizatio (None, 40, 6, 6)     160         max_pooling2d_3[0][0]            
__________________________________________________________________________________________________
activation_12 (Activation)      (None, 40, 6, 6)     0           dense_2_0_bn[0][0]               
__________________________________________________________________________________________________
dense_2_0_bottleneck_conv2D (Co (None, 96, 6, 6)     3840        activation_12[0][0]              
__________________________________________________________________________________________________
dense_2_0_bottleneck_bn (BatchN (None, 96, 6, 6)     384         dense_2_0_bottleneck_conv2D[0][0]
__________________________________________________________________________________________________
activation_13 (Activation)      (None, 96, 6, 6)     0           dense_2_0_bottleneck_bn[0][0]    
__________________________________________________________________________________________________
dense_2_0_conv2D (Conv2D)       (None, 24, 6, 6)     20736       activation_13[0][0]              
__________________________________________________________________________________________________
dropout_5 (Dropout)             (None, 24, 6, 6)     0           dense_2_0_conv2D[0][0]           
__________________________________________________________________________________________________
concatenate_5 (Concatenate)     (None, 64, 6, 6)     0           max_pooling2d_3[0][0]            
                                                                 dropout_5[0][0]                  
__________________________________________________________________________________________________
dense_2_1_bn (BatchNormalizatio (None, 64, 6, 6)     256         concatenate_5[0][0]              
__________________________________________________________________________________________________
activation_14 (Activation)      (None, 64, 6, 6)     0           dense_2_1_bn[0][0]               
__________________________________________________________________________________________________
dense_2_1_bottleneck_conv2D (Co (None, 96, 6, 6)     6144        activation_14[0][0]              
__________________________________________________________________________________________________
dense_2_1_bottleneck_bn (BatchN (None, 96, 6, 6)     384         dense_2_1_bottleneck_conv2D[0][0]
__________________________________________________________________________________________________
activation_15 (Activation)      (None, 96, 6, 6)     0           dense_2_1_bottleneck_bn[0][0]    
__________________________________________________________________________________________________
dense_2_1_conv2D (Conv2D)       (None, 24, 6, 6)     20736       activation_15[0][0]              
__________________________________________________________________________________________________
dropout_6 (Dropout)             (None, 24, 6, 6)     0           dense_2_1_conv2D[0][0]           
__________________________________________________________________________________________________
concatenate_6 (Concatenate)     (None, 88, 6, 6)     0           concatenate_5[0][0]              
                                                                 dropout_6[0][0]                  
__________________________________________________________________________________________________
tr_2_bn (BatchNormalization)    (None, 88, 6, 6)     352         concatenate_6[0][0]              
__________________________________________________________________________________________________
activation_16 (Activation)      (None, 88, 6, 6)     0           tr_2_bn[0][0]                    
__________________________________________________________________________________________________
tr_2_conv2D (Conv2D)            (None, 44, 6, 6)     3872        activation_16[0][0]              
__________________________________________________________________________________________________
max_pooling2d_4 (MaxPooling2D)  (None, 44, 3, 3)     0           tr_2_conv2D[0][0]                
__________________________________________________________________________________________________
dense_3_0_bn (BatchNormalizatio (None, 44, 3, 3)     176         max_pooling2d_4[0][0]            
__________________________________________________________________________________________________
activation_17 (Activation)      (None, 44, 3, 3)     0           dense_3_0_bn[0][0]               
__________________________________________________________________________________________________
dense_3_0_bottleneck_conv2D (Co (None, 96, 3, 3)     4224        activation_17[0][0]              
__________________________________________________________________________________________________
dense_3_0_bottleneck_bn (BatchN (None, 96, 3, 3)     384         dense_3_0_bottleneck_conv2D[0][0]
__________________________________________________________________________________________________
activation_18 (Activation)      (None, 96, 3, 3)     0           dense_3_0_bottleneck_bn[0][0]    
__________________________________________________________________________________________________
dense_3_0_conv2D (Conv2D)       (None, 24, 3, 3)     20736       activation_18[0][0]              
__________________________________________________________________________________________________
dropout_7 (Dropout)             (None, 24, 3, 3)     0           dense_3_0_conv2D[0][0]           
__________________________________________________________________________________________________
concatenate_7 (Concatenate)     (None, 68, 3, 3)     0           max_pooling2d_4[0][0]            
                                                                 dropout_7[0][0]                  
__________________________________________________________________________________________________
dense_3_1_bn (BatchNormalizatio (None, 68, 3, 3)     272         concatenate_7[0][0]              
__________________________________________________________________________________________________
activation_19 (Activation)      (None, 68, 3, 3)     0           dense_3_1_bn[0][0]               
__________________________________________________________________________________________________
dense_3_1_bottleneck_conv2D (Co (None, 96, 3, 3)     6528        activation_19[0][0]              
__________________________________________________________________________________________________
dense_3_1_bottleneck_bn (BatchN (None, 96, 3, 3)     384         dense_3_1_bottleneck_conv2D[0][0]
__________________________________________________________________________________________________
activation_20 (Activation)      (None, 96, 3, 3)     0           dense_3_1_bottleneck_bn[0][0]    
__________________________________________________________________________________________________
dense_3_1_conv2D (Conv2D)       (None, 24, 3, 3)     20736       activation_20[0][0]              
__________________________________________________________________________________________________
dropout_8 (Dropout)             (None, 24, 3, 3)     0           dense_3_1_conv2D[0][0]           
__________________________________________________________________________________________________
concatenate_8 (Concatenate)     (None, 92, 3, 3)     0           concatenate_7[0][0]              
                                                                 dropout_8[0][0]                  
__________________________________________________________________________________________________
final_bn (BatchNormalization)   (None, 92, 3, 3)     368         concatenate_8[0][0]              
__________________________________________________________________________________________________
activation_21 (Activation)      (None, 92, 3, 3)     0           final_bn[0][0]                   
__________________________________________________________________________________________________
flatten_1 (Flatten)             (None, 828)          0           activation_21[0][0]              
==================================================================================================
Total params: 216,224
Trainable params: 213,288
Non-trainable params: 2,936
__________________________________________________________________________________________________
__________________________________________________________________________________________________
Layer (type)                    Output Shape         Param #     Connected to                     
==================================================================================================
input_2 (InputLayer)            (None, 1, 96, 96)    0                                            
__________________________________________________________________________________________________
input_3 (InputLayer)            (None, 1, 96, 96)    0                                            
__________________________________________________________________________________________________
densenet (Model)                (None, 828)          216224      input_2[0][0]                    
                                                                 input_3[0][0]                    
__________________________________________________________________________________________________
merge_features (Concatenate)    (None, 1656)         0           densenet[1][0]                   
                                                                 densenet[2][0]                   
__________________________________________________________________________________________________
dense_1 (Dense)                 (None, 512)          848384      merge_features[0][0]             
__________________________________________________________________________________________________
activation_22 (Activation)      (None, 512)          0           dense_1[0][0]                    
__________________________________________________________________________________________________
batch_normalization_1 (BatchNor (None, 512)          2048        activation_22[0][0]              
__________________________________________________________________________________________________
dropout_9 (Dropout)             (None, 512)          0           batch_normalization_1[0][0]      
__________________________________________________________________________________________________
dense_2 (Dense)                 (None, 1)            513         dropout_9[0][0]                  
==================================================================================================
Total params: 1,067,169
Trainable params: 1,063,209
Non-trainable params: 3,960
__________________________________________________________________________________________________
Finished compiling
Train on 31872 samples, validate on 7968 samples
Epoch 1/10
 - 71s - loss: 0.8904 - acc: 0.6754 - val_loss: 1.6736 - val_acc: 0.5092
…
------------------------ current config for the test -------------------------
Layers:  [2, 2, 2, 2]  Growth_rate:  30  nb_filter:  16  dropout:  0.2
dense_block  4  reduction_:  0.5  bottleneck:  True
------------------------	  end of configs        -------------------------
pooling:flatten
__________________________________________________________________________________________________
Layer (type)                    Output Shape         Param #     Connected to                     
==================================================================================================
input_1 (InputLayer)            (None, 1, 96, 96)    0                                            
__________________________________________________________________________________________________
initial_conv2D (Conv2D)         (None, 16, 48, 48)   784         input_1[0][0]                    
__________________________________________________________________________________________________
initial_bn (BatchNormalization) (None, 16, 48, 48)   64          initial_conv2D[0][0]             
__________________________________________________________________________________________________
activation_1 (Activation)       (None, 16, 48, 48)   0           initial_bn[0][0]                 
__________________________________________________________________________________________________
max_pooling2d_1 (MaxPooling2D)  (None, 16, 24, 24)   0           activation_1[0][0]               
__________________________________________________________________________________________________
dense_0_0_bn (BatchNormalizatio (None, 16, 24, 24)   64          max_pooling2d_1[0][0]            
__________________________________________________________________________________________________
activation_2 (Activation)       (None, 16, 24, 24)   0           dense_0_0_bn[0][0]               
__________________________________________________________________________________________________
dense_0_0_bottleneck_conv2D (Co (None, 120, 24, 24)  1920        activation_2[0][0]               
__________________________________________________________________________________________________
dense_0_0_bottleneck_bn (BatchN (None, 120, 24, 24)  480         dense_0_0_bottleneck_conv2D[0][0]
__________________________________________________________________________________________________
activation_3 (Activation)       (None, 120, 24, 24)  0           dense_0_0_bottleneck_bn[0][0]    
__________________________________________________________________________________________________
dense_0_0_conv2D (Conv2D)       (None, 30, 24, 24)   32400       activation_3[0][0]               
__________________________________________________________________________________________________
dropout_1 (Dropout)             (None, 30, 24, 24)   0           dense_0_0_conv2D[0][0]           
__________________________________________________________________________________________________
concatenate_1 (Concatenate)     (None, 46, 24, 24)   0           max_pooling2d_1[0][0]            
                                                                 dropout_1[0][0]                  
__________________________________________________________________________________________________
dense_0_1_bn (BatchNormalizatio (None, 46, 24, 24)   184         concatenate_1[0][0]              
__________________________________________________________________________________________________
activation_4 (Activation)       (None, 46, 24, 24)   0           dense_0_1_bn[0][0]               
__________________________________________________________________________________________________
dense_0_1_bottleneck_conv2D (Co (None, 120, 24, 24)  5520        activation_4[0][0]               
__________________________________________________________________________________________________
dense_0_1_bottleneck_bn (BatchN (None, 120, 24, 24)  480         dense_0_1_bottleneck_conv2D[0][0]
__________________________________________________________________________________________________
activation_5 (Activation)       (None, 120, 24, 24)  0           dense_0_1_bottleneck_bn[0][0]    
__________________________________________________________________________________________________
dense_0_1_conv2D (Conv2D)       (None, 30, 24, 24)   32400       activation_5[0][0]               
__________________________________________________________________________________________________
dropout_2 (Dropout)             (None, 30, 24, 24)   0           dense_0_1_conv2D[0][0]           
__________________________________________________________________________________________________
concatenate_2 (Concatenate)     (None, 76, 24, 24)   0           concatenate_1[0][0]              
                                                                 dropout_2[0][0]                  
__________________________________________________________________________________________________
tr_0_bn (BatchNormalization)    (None, 76, 24, 24)   304         concatenate_2[0][0]              
__________________________________________________________________________________________________
activation_6 (Activation)       (None, 76, 24, 24)   0           tr_0_bn[0][0]                    
__________________________________________________________________________________________________
tr_0_conv2D (Conv2D)            (None, 38, 24, 24)   2888        activation_6[0][0]               
__________________________________________________________________________________________________
max_pooling2d_2 (MaxPooling2D)  (None, 38, 12, 12)   0           tr_0_conv2D[0][0]                
__________________________________________________________________________________________________
dense_1_0_bn (BatchNormalizatio (None, 38, 12, 12)   152         max_pooling2d_2[0][0]            
__________________________________________________________________________________________________
activation_7 (Activation)       (None, 38, 12, 12)   0           dense_1_0_bn[0][0]               
__________________________________________________________________________________________________
dense_1_0_bottleneck_conv2D (Co (None, 120, 12, 12)  4560        activation_7[0][0]               
__________________________________________________________________________________________________
dense_1_0_bottleneck_bn (BatchN (None, 120, 12, 12)  480         dense_1_0_bottleneck_conv2D[0][0]
__________________________________________________________________________________________________
activation_8 (Activation)       (None, 120, 12, 12)  0           dense_1_0_bottleneck_bn[0][0]    
__________________________________________________________________________________________________
dense_1_0_conv2D (Conv2D)       (None, 30, 12, 12)   32400       activation_8[0][0]               
__________________________________________________________________________________________________
dropout_3 (Dropout)             (None, 30, 12, 12)   0           dense_1_0_conv2D[0][0]           
__________________________________________________________________________________________________
concatenate_3 (Concatenate)     (None, 68, 12, 12)   0           max_pooling2d_2[0][0]            
                                                                 dropout_3[0][0]                  
__________________________________________________________________________________________________
dense_1_1_bn (BatchNormalizatio (None, 68, 12, 12)   272         concatenate_3[0][0]              
__________________________________________________________________________________________________
activation_9 (Activation)       (None, 68, 12, 12)   0           dense_1_1_bn[0][0]               
__________________________________________________________________________________________________
dense_1_1_bottleneck_conv2D (Co (None, 120, 12, 12)  8160        activation_9[0][0]               
__________________________________________________________________________________________________
dense_1_1_bottleneck_bn (BatchN (None, 120, 12, 12)  480         dense_1_1_bottleneck_conv2D[0][0]
__________________________________________________________________________________________________
activation_10 (Activation)      (None, 120, 12, 12)  0           dense_1_1_bottleneck_bn[0][0]    
__________________________________________________________________________________________________
dense_1_1_conv2D (Conv2D)       (None, 30, 12, 12)   32400       activation_10[0][0]              
__________________________________________________________________________________________________
dropout_4 (Dropout)             (None, 30, 12, 12)   0           dense_1_1_conv2D[0][0]           
__________________________________________________________________________________________________
concatenate_4 (Concatenate)     (None, 98, 12, 12)   0           concatenate_3[0][0]              
                                                                 dropout_4[0][0]                  
__________________________________________________________________________________________________
tr_1_bn (BatchNormalization)    (None, 98, 12, 12)   392         concatenate_4[0][0]              
__________________________________________________________________________________________________
activation_11 (Activation)      (None, 98, 12, 12)   0           tr_1_bn[0][0]                    
__________________________________________________________________________________________________
tr_1_conv2D (Conv2D)            (None, 49, 12, 12)   4802        activation_11[0][0]              
__________________________________________________________________________________________________
max_pooling2d_3 (MaxPooling2D)  (None, 49, 6, 6)     0           tr_1_conv2D[0][0]                
__________________________________________________________________________________________________
dense_2_0_bn (BatchNormalizatio (None, 49, 6, 6)     196         max_pooling2d_3[0][0]            
__________________________________________________________________________________________________
activation_12 (Activation)      (None, 49, 6, 6)     0           dense_2_0_bn[0][0]               
__________________________________________________________________________________________________
dense_2_0_bottleneck_conv2D (Co (None, 120, 6, 6)    5880        activation_12[0][0]              
__________________________________________________________________________________________________
dense_2_0_bottleneck_bn (BatchN (None, 120, 6, 6)    480         dense_2_0_bottleneck_conv2D[0][0]
__________________________________________________________________________________________________
activation_13 (Activation)      (None, 120, 6, 6)    0           dense_2_0_bottleneck_bn[0][0]    
__________________________________________________________________________________________________
dense_2_0_conv2D (Conv2D)       (None, 30, 6, 6)     32400       activation_13[0][0]              
__________________________________________________________________________________________________
dropout_5 (Dropout)             (None, 30, 6, 6)     0           dense_2_0_conv2D[0][0]           
__________________________________________________________________________________________________
concatenate_5 (Concatenate)     (None, 79, 6, 6)     0           max_pooling2d_3[0][0]            
                                                                 dropout_5[0][0]                  
__________________________________________________________________________________________________
dense_2_1_bn (BatchNormalizatio (None, 79, 6, 6)     316         concatenate_5[0][0]              
__________________________________________________________________________________________________
activation_14 (Activation)      (None, 79, 6, 6)     0           dense_2_1_bn[0][0]               
__________________________________________________________________________________________________
dense_2_1_bottleneck_conv2D (Co (None, 120, 6, 6)    9480        activation_14[0][0]              
__________________________________________________________________________________________________
dense_2_1_bottleneck_bn (BatchN (None, 120, 6, 6)    480         dense_2_1_bottleneck_conv2D[0][0]
__________________________________________________________________________________________________
activation_15 (Activation)      (None, 120, 6, 6)    0           dense_2_1_bottleneck_bn[0][0]    
__________________________________________________________________________________________________
dense_2_1_conv2D (Conv2D)       (None, 30, 6, 6)     32400       activation_15[0][0]              
__________________________________________________________________________________________________
dropout_6 (Dropout)             (None, 30, 6, 6)     0           dense_2_1_conv2D[0][0]           
__________________________________________________________________________________________________
concatenate_6 (Concatenate)     (None, 109, 6, 6)    0           concatenate_5[0][0]              
                                                                 dropout_6[0][0]                  
__________________________________________________________________________________________________
tr_2_bn (BatchNormalization)    (None, 109, 6, 6)    436         concatenate_6[0][0]              
__________________________________________________________________________________________________
activation_16 (Activation)      (None, 109, 6, 6)    0           tr_2_bn[0][0]                    
__________________________________________________________________________________________________
tr_2_conv2D (Conv2D)            (None, 54, 6, 6)     5886        activation_16[0][0]              
__________________________________________________________________________________________________
max_pooling2d_4 (MaxPooling2D)  (None, 54, 3, 3)     0           tr_2_conv2D[0][0]                
__________________________________________________________________________________________________
dense_3_0_bn (BatchNormalizatio (None, 54, 3, 3)     216         max_pooling2d_4[0][0]            
__________________________________________________________________________________________________
activation_17 (Activation)      (None, 54, 3, 3)     0           dense_3_0_bn[0][0]               
__________________________________________________________________________________________________
dense_3_0_bottleneck_conv2D (Co (None, 120, 3, 3)    6480        activation_17[0][0]              
__________________________________________________________________________________________________
dense_3_0_bottleneck_bn (BatchN (None, 120, 3, 3)    480         dense_3_0_bottleneck_conv2D[0][0]
__________________________________________________________________________________________________
activation_18 (Activation)      (None, 120, 3, 3)    0           dense_3_0_bottleneck_bn[0][0]    
__________________________________________________________________________________________________
dense_3_0_conv2D (Conv2D)       (None, 30, 3, 3)     32400       activation_18[0][0]              
__________________________________________________________________________________________________
dropout_7 (Dropout)             (None, 30, 3, 3)     0           dense_3_0_conv2D[0][0]           
__________________________________________________________________________________________________
concatenate_7 (Concatenate)     (None, 84, 3, 3)     0           max_pooling2d_4[0][0]            
                                                                 dropout_7[0][0]                  
__________________________________________________________________________________________________
dense_3_1_bn (BatchNormalizatio (None, 84, 3, 3)     336         concatenate_7[0][0]              
__________________________________________________________________________________________________
activation_19 (Activation)      (None, 84, 3, 3)     0           dense_3_1_bn[0][0]               
__________________________________________________________________________________________________
dense_3_1_bottleneck_conv2D (Co (None, 120, 3, 3)    10080       activation_19[0][0]              
__________________________________________________________________________________________________
dense_3_1_bottleneck_bn (BatchN (None, 120, 3, 3)    480         dense_3_1_bottleneck_conv2D[0][0]
__________________________________________________________________________________________________
activation_20 (Activation)      (None, 120, 3, 3)    0           dense_3_1_bottleneck_bn[0][0]    
__________________________________________________________________________________________________
dense_3_1_conv2D (Conv2D)       (None, 30, 3, 3)     32400       activation_20[0][0]              
__________________________________________________________________________________________________
dropout_8 (Dropout)             (None, 30, 3, 3)     0           dense_3_1_conv2D[0][0]           
__________________________________________________________________________________________________
concatenate_8 (Concatenate)     (None, 114, 3, 3)    0           concatenate_7[0][0]              
                                                                 dropout_8[0][0]                  
__________________________________________________________________________________________________
final_bn (BatchNormalization)   (None, 114, 3, 3)    456         concatenate_8[0][0]              
__________________________________________________________________________________________________
activation_21 (Activation)      (None, 114, 3, 3)    0           final_bn[0][0]                   
__________________________________________________________________________________________________
flatten_1 (Flatten)             (None, 1026)         0           activation_21[0][0]              
==================================================================================================
Total params: 332,868
Trainable params: 329,254
Non-trainable params: 3,614
__________________________________________________________________________________________________
__________________________________________________________________________________________________
Layer (type)                    Output Shape         Param #     Connected to                     
==================================================================================================
input_2 (InputLayer)            (None, 1, 96, 96)    0                                            
__________________________________________________________________________________________________
input_3 (InputLayer)            (None, 1, 96, 96)    0                                            
__________________________________________________________________________________________________
densenet (Model)                (None, 1026)         332868      input_2[0][0]                    
                                                                 input_3[0][0]                    
__________________________________________________________________________________________________
merge_features (Concatenate)    (None, 2052)         0           densenet[1][0]                   
                                                                 densenet[2][0]                   
__________________________________________________________________________________________________
dense_1 (Dense)                 (None, 512)          1051136     merge_features[0][0]             
__________________________________________________________________________________________________
activation_22 (Activation)      (None, 512)          0           dense_1[0][0]                    
__________________________________________________________________________________________________
batch_normalization_1 (BatchNor (None, 512)          2048        activation_22[0][0]              
__________________________________________________________________________________________________
dropout_9 (Dropout)             (None, 512)          0           batch_normalization_1[0][0]      
__________________________________________________________________________________________________
dense_2 (Dense)                 (None, 1)            513         dropout_9[0][0]                  
==================================================================================================
Total params: 1,386,565
Trainable params: 1,381,927
Non-trainable params: 4,638
__________________________________________________________________________________________________
Finished compiling
Train on 31872 samples, validate on 7968 samples
Epoch 1/10
 - 86s - loss: 0.9084 - acc: 0.6851 - val_loss: 0.9933 - val_acc: 0.6431
…
------------------------ current config for the test -------------------------
Layers:  [2, 2, 2, 2]  Growth_rate:  36  nb_filter:  16  dropout:  0.2
dense_block  4  reduction_:  0.5  bottleneck:  True
------------------------	  end of configs        -------------------------
pooling:flatten
__________________________________________________________________________________________________
Layer (type)                    Output Shape         Param #     Connected to                     
==================================================================================================
input_1 (InputLayer)            (None, 1, 96, 96)    0                                            
__________________________________________________________________________________________________
initial_conv2D (Conv2D)         (None, 16, 48, 48)   784         input_1[0][0]                    
__________________________________________________________________________________________________
initial_bn (BatchNormalization) (None, 16, 48, 48)   64          initial_conv2D[0][0]             
__________________________________________________________________________________________________
activation_1 (Activation)       (None, 16, 48, 48)   0           initial_bn[0][0]                 
__________________________________________________________________________________________________
max_pooling2d_1 (MaxPooling2D)  (None, 16, 24, 24)   0           activation_1[0][0]               
__________________________________________________________________________________________________
dense_0_0_bn (BatchNormalizatio (None, 16, 24, 24)   64          max_pooling2d_1[0][0]            
__________________________________________________________________________________________________
activation_2 (Activation)       (None, 16, 24, 24)   0           dense_0_0_bn[0][0]               
__________________________________________________________________________________________________
dense_0_0_bottleneck_conv2D (Co (None, 144, 24, 24)  2304        activation_2[0][0]               
__________________________________________________________________________________________________
dense_0_0_bottleneck_bn (BatchN (None, 144, 24, 24)  576         dense_0_0_bottleneck_conv2D[0][0]
__________________________________________________________________________________________________
activation_3 (Activation)       (None, 144, 24, 24)  0           dense_0_0_bottleneck_bn[0][0]    
__________________________________________________________________________________________________
dense_0_0_conv2D (Conv2D)       (None, 36, 24, 24)   46656       activation_3[0][0]               
__________________________________________________________________________________________________
dropout_1 (Dropout)             (None, 36, 24, 24)   0           dense_0_0_conv2D[0][0]           
__________________________________________________________________________________________________
concatenate_1 (Concatenate)     (None, 52, 24, 24)   0           max_pooling2d_1[0][0]            
                                                                 dropout_1[0][0]                  
__________________________________________________________________________________________________
dense_0_1_bn (BatchNormalizatio (None, 52, 24, 24)   208         concatenate_1[0][0]              
__________________________________________________________________________________________________
activation_4 (Activation)       (None, 52, 24, 24)   0           dense_0_1_bn[0][0]               
__________________________________________________________________________________________________
dense_0_1_bottleneck_conv2D (Co (None, 144, 24, 24)  7488        activation_4[0][0]               
__________________________________________________________________________________________________
dense_0_1_bottleneck_bn (BatchN (None, 144, 24, 24)  576         dense_0_1_bottleneck_conv2D[0][0]
__________________________________________________________________________________________________
activation_5 (Activation)       (None, 144, 24, 24)  0           dense_0_1_bottleneck_bn[0][0]    
__________________________________________________________________________________________________
dense_0_1_conv2D (Conv2D)       (None, 36, 24, 24)   46656       activation_5[0][0]               
__________________________________________________________________________________________________
dropout_2 (Dropout)             (None, 36, 24, 24)   0           dense_0_1_conv2D[0][0]           
__________________________________________________________________________________________________
concatenate_2 (Concatenate)     (None, 88, 24, 24)   0           concatenate_1[0][0]              
                                                                 dropout_2[0][0]                  
__________________________________________________________________________________________________
tr_0_bn (BatchNormalization)    (None, 88, 24, 24)   352         concatenate_2[0][0]              
__________________________________________________________________________________________________
activation_6 (Activation)       (None, 88, 24, 24)   0           tr_0_bn[0][0]                    
__________________________________________________________________________________________________
tr_0_conv2D (Conv2D)            (None, 44, 24, 24)   3872        activation_6[0][0]               
__________________________________________________________________________________________________
max_pooling2d_2 (MaxPooling2D)  (None, 44, 12, 12)   0           tr_0_conv2D[0][0]                
__________________________________________________________________________________________________
dense_1_0_bn (BatchNormalizatio (None, 44, 12, 12)   176         max_pooling2d_2[0][0]            
__________________________________________________________________________________________________
activation_7 (Activation)       (None, 44, 12, 12)   0           dense_1_0_bn[0][0]               
__________________________________________________________________________________________________
dense_1_0_bottleneck_conv2D (Co (None, 144, 12, 12)  6336        activation_7[0][0]               
__________________________________________________________________________________________________
dense_1_0_bottleneck_bn (BatchN (None, 144, 12, 12)  576         dense_1_0_bottleneck_conv2D[0][0]
__________________________________________________________________________________________________
activation_8 (Activation)       (None, 144, 12, 12)  0           dense_1_0_bottleneck_bn[0][0]    
__________________________________________________________________________________________________
dense_1_0_conv2D (Conv2D)       (None, 36, 12, 12)   46656       activation_8[0][0]               
__________________________________________________________________________________________________
dropout_3 (Dropout)             (None, 36, 12, 12)   0           dense_1_0_conv2D[0][0]           
__________________________________________________________________________________________________
concatenate_3 (Concatenate)     (None, 80, 12, 12)   0           max_pooling2d_2[0][0]            
                                                                 dropout_3[0][0]                  
__________________________________________________________________________________________________
dense_1_1_bn (BatchNormalizatio (None, 80, 12, 12)   320         concatenate_3[0][0]              
__________________________________________________________________________________________________
activation_9 (Activation)       (None, 80, 12, 12)   0           dense_1_1_bn[0][0]               
__________________________________________________________________________________________________
dense_1_1_bottleneck_conv2D (Co (None, 144, 12, 12)  11520       activation_9[0][0]               
__________________________________________________________________________________________________
dense_1_1_bottleneck_bn (BatchN (None, 144, 12, 12)  576         dense_1_1_bottleneck_conv2D[0][0]
__________________________________________________________________________________________________
activation_10 (Activation)      (None, 144, 12, 12)  0           dense_1_1_bottleneck_bn[0][0]    
__________________________________________________________________________________________________
dense_1_1_conv2D (Conv2D)       (None, 36, 12, 12)   46656       activation_10[0][0]              
__________________________________________________________________________________________________
dropout_4 (Dropout)             (None, 36, 12, 12)   0           dense_1_1_conv2D[0][0]           
__________________________________________________________________________________________________
concatenate_4 (Concatenate)     (None, 116, 12, 12)  0           concatenate_3[0][0]              
                                                                 dropout_4[0][0]                  
__________________________________________________________________________________________________
tr_1_bn (BatchNormalization)    (None, 116, 12, 12)  464         concatenate_4[0][0]              
__________________________________________________________________________________________________
activation_11 (Activation)      (None, 116, 12, 12)  0           tr_1_bn[0][0]                    
__________________________________________________________________________________________________
tr_1_conv2D (Conv2D)            (None, 58, 12, 12)   6728        activation_11[0][0]              
__________________________________________________________________________________________________
max_pooling2d_3 (MaxPooling2D)  (None, 58, 6, 6)     0           tr_1_conv2D[0][0]                
__________________________________________________________________________________________________
dense_2_0_bn (BatchNormalizatio (None, 58, 6, 6)     232         max_pooling2d_3[0][0]            
__________________________________________________________________________________________________
activation_12 (Activation)      (None, 58, 6, 6)     0           dense_2_0_bn[0][0]               
__________________________________________________________________________________________________
dense_2_0_bottleneck_conv2D (Co (None, 144, 6, 6)    8352        activation_12[0][0]              
__________________________________________________________________________________________________
dense_2_0_bottleneck_bn (BatchN (None, 144, 6, 6)    576         dense_2_0_bottleneck_conv2D[0][0]
__________________________________________________________________________________________________
activation_13 (Activation)      (None, 144, 6, 6)    0           dense_2_0_bottleneck_bn[0][0]    
__________________________________________________________________________________________________
dense_2_0_conv2D (Conv2D)       (None, 36, 6, 6)     46656       activation_13[0][0]              
__________________________________________________________________________________________________
dropout_5 (Dropout)             (None, 36, 6, 6)     0           dense_2_0_conv2D[0][0]           
__________________________________________________________________________________________________
concatenate_5 (Concatenate)     (None, 94, 6, 6)     0           max_pooling2d_3[0][0]            
                                                                 dropout_5[0][0]                  
__________________________________________________________________________________________________
dense_2_1_bn (BatchNormalizatio (None, 94, 6, 6)     376         concatenate_5[0][0]              
__________________________________________________________________________________________________
activation_14 (Activation)      (None, 94, 6, 6)     0           dense_2_1_bn[0][0]               
__________________________________________________________________________________________________
dense_2_1_bottleneck_conv2D (Co (None, 144, 6, 6)    13536       activation_14[0][0]              
__________________________________________________________________________________________________
dense_2_1_bottleneck_bn (BatchN (None, 144, 6, 6)    576         dense_2_1_bottleneck_conv2D[0][0]
__________________________________________________________________________________________________
activation_15 (Activation)      (None, 144, 6, 6)    0           dense_2_1_bottleneck_bn[0][0]    
__________________________________________________________________________________________________
dense_2_1_conv2D (Conv2D)       (None, 36, 6, 6)     46656       activation_15[0][0]              
__________________________________________________________________________________________________
dropout_6 (Dropout)             (None, 36, 6, 6)     0           dense_2_1_conv2D[0][0]           
__________________________________________________________________________________________________
concatenate_6 (Concatenate)     (None, 130, 6, 6)    0           concatenate_5[0][0]              
                                                                 dropout_6[0][0]                  
__________________________________________________________________________________________________
tr_2_bn (BatchNormalization)    (None, 130, 6, 6)    520         concatenate_6[0][0]              
__________________________________________________________________________________________________
activation_16 (Activation)      (None, 130, 6, 6)    0           tr_2_bn[0][0]                    
__________________________________________________________________________________________________
tr_2_conv2D (Conv2D)            (None, 65, 6, 6)     8450        activation_16[0][0]              
__________________________________________________________________________________________________
max_pooling2d_4 (MaxPooling2D)  (None, 65, 3, 3)     0           tr_2_conv2D[0][0]                
__________________________________________________________________________________________________
dense_3_0_bn (BatchNormalizatio (None, 65, 3, 3)     260         max_pooling2d_4[0][0]            
__________________________________________________________________________________________________
activation_17 (Activation)      (None, 65, 3, 3)     0           dense_3_0_bn[0][0]               
__________________________________________________________________________________________________
dense_3_0_bottleneck_conv2D (Co (None, 144, 3, 3)    9360        activation_17[0][0]              
__________________________________________________________________________________________________
dense_3_0_bottleneck_bn (BatchN (None, 144, 3, 3)    576         dense_3_0_bottleneck_conv2D[0][0]
__________________________________________________________________________________________________
activation_18 (Activation)      (None, 144, 3, 3)    0           dense_3_0_bottleneck_bn[0][0]    
__________________________________________________________________________________________________
dense_3_0_conv2D (Conv2D)       (None, 36, 3, 3)     46656       activation_18[0][0]              
__________________________________________________________________________________________________
dropout_7 (Dropout)             (None, 36, 3, 3)     0           dense_3_0_conv2D[0][0]           
__________________________________________________________________________________________________
concatenate_7 (Concatenate)     (None, 101, 3, 3)    0           max_pooling2d_4[0][0]            
                                                                 dropout_7[0][0]                  
__________________________________________________________________________________________________
dense_3_1_bn (BatchNormalizatio (None, 101, 3, 3)    404         concatenate_7[0][0]              
__________________________________________________________________________________________________
activation_19 (Activation)      (None, 101, 3, 3)    0           dense_3_1_bn[0][0]               
__________________________________________________________________________________________________
dense_3_1_bottleneck_conv2D (Co (None, 144, 3, 3)    14544       activation_19[0][0]              
__________________________________________________________________________________________________
dense_3_1_bottleneck_bn (BatchN (None, 144, 3, 3)    576         dense_3_1_bottleneck_conv2D[0][0]
__________________________________________________________________________________________________
activation_20 (Activation)      (None, 144, 3, 3)    0           dense_3_1_bottleneck_bn[0][0]    
__________________________________________________________________________________________________
dense_3_1_conv2D (Conv2D)       (None, 36, 3, 3)     46656       activation_20[0][0]              
__________________________________________________________________________________________________
dropout_8 (Dropout)             (None, 36, 3, 3)     0           dense_3_1_conv2D[0][0]           
__________________________________________________________________________________________________
concatenate_8 (Concatenate)     (None, 137, 3, 3)    0           concatenate_7[0][0]              
                                                                 dropout_8[0][0]                  
__________________________________________________________________________________________________
final_bn (BatchNormalization)   (None, 137, 3, 3)    548         concatenate_8[0][0]              
__________________________________________________________________________________________________
activation_21 (Activation)      (None, 137, 3, 3)    0           final_bn[0][0]                   
__________________________________________________________________________________________________
flatten_1 (Flatten)             (None, 1233)         0           activation_21[0][0]              
==================================================================================================
Total params: 475,118
Trainable params: 470,820
Non-trainable params: 4,298
__________________________________________________________________________________________________
__________________________________________________________________________________________________
Layer (type)                    Output Shape         Param #     Connected to                     
==================================================================================================
input_2 (InputLayer)            (None, 1, 96, 96)    0                                            
__________________________________________________________________________________________________
input_3 (InputLayer)            (None, 1, 96, 96)    0                                            
__________________________________________________________________________________________________
densenet (Model)                (None, 1233)         475118      input_2[0][0]                    
                                                                 input_3[0][0]                    
__________________________________________________________________________________________________
merge_features (Concatenate)    (None, 2466)         0           densenet[1][0]                   
                                                                 densenet[2][0]                   
__________________________________________________________________________________________________
dense_1 (Dense)                 (None, 512)          1263104     merge_features[0][0]             
__________________________________________________________________________________________________
activation_22 (Activation)      (None, 512)          0           dense_1[0][0]                    
__________________________________________________________________________________________________
batch_normalization_1 (BatchNor (None, 512)          2048        activation_22[0][0]              
__________________________________________________________________________________________________
dropout_9 (Dropout)             (None, 512)          0           batch_normalization_1[0][0]      
__________________________________________________________________________________________________
dense_2 (Dense)                 (None, 1)            513         dropout_9[0][0]                  
==================================================================================================
Total params: 1,740,783
Trainable params: 1,735,461
Non-trainable params: 5,322
__________________________________________________________________________________________________
Finished compiling
Train on 31872 samples, validate on 7968 samples
Epoch 1/10
 - 100s - loss: 0.9202 - acc: 0.6981 - val_loss: 1.2261 - val_acc: 0.6360
…
------------------------ current config for the test -------------------------
Layers:  [3, 3, 3, 3]  Growth_rate:  24  nb_filter:  16  dropout:  0.2
dense_block  4  reduction_:  0.5  bottleneck:  True
------------------------	  end of configs        -------------------------
pooling:flatten
__________________________________________________________________________________________________
Layer (type)                    Output Shape         Param #     Connected to                     
==================================================================================================
input_1 (InputLayer)            (None, 1, 96, 96)    0                                            
__________________________________________________________________________________________________
initial_conv2D (Conv2D)         (None, 16, 48, 48)   784         input_1[0][0]                    
__________________________________________________________________________________________________
initial_bn (BatchNormalization) (None, 16, 48, 48)   64          initial_conv2D[0][0]             
__________________________________________________________________________________________________
activation_1 (Activation)       (None, 16, 48, 48)   0           initial_bn[0][0]                 
__________________________________________________________________________________________________
max_pooling2d_1 (MaxPooling2D)  (None, 16, 24, 24)   0           activation_1[0][0]               
__________________________________________________________________________________________________
dense_0_0_bn (BatchNormalizatio (None, 16, 24, 24)   64          max_pooling2d_1[0][0]            
__________________________________________________________________________________________________
activation_2 (Activation)       (None, 16, 24, 24)   0           dense_0_0_bn[0][0]               
__________________________________________________________________________________________________
dense_0_0_bottleneck_conv2D (Co (None, 96, 24, 24)   1536        activation_2[0][0]               
__________________________________________________________________________________________________
dense_0_0_bottleneck_bn (BatchN (None, 96, 24, 24)   384         dense_0_0_bottleneck_conv2D[0][0]
__________________________________________________________________________________________________
activation_3 (Activation)       (None, 96, 24, 24)   0           dense_0_0_bottleneck_bn[0][0]    
__________________________________________________________________________________________________
dense_0_0_conv2D (Conv2D)       (None, 24, 24, 24)   20736       activation_3[0][0]               
__________________________________________________________________________________________________
dropout_1 (Dropout)             (None, 24, 24, 24)   0           dense_0_0_conv2D[0][0]           
__________________________________________________________________________________________________
concatenate_1 (Concatenate)     (None, 40, 24, 24)   0           max_pooling2d_1[0][0]            
                                                                 dropout_1[0][0]                  
__________________________________________________________________________________________________
dense_0_1_bn (BatchNormalizatio (None, 40, 24, 24)   160         concatenate_1[0][0]              
__________________________________________________________________________________________________
activation_4 (Activation)       (None, 40, 24, 24)   0           dense_0_1_bn[0][0]               
__________________________________________________________________________________________________
dense_0_1_bottleneck_conv2D (Co (None, 96, 24, 24)   3840        activation_4[0][0]               
__________________________________________________________________________________________________
dense_0_1_bottleneck_bn (BatchN (None, 96, 24, 24)   384         dense_0_1_bottleneck_conv2D[0][0]
__________________________________________________________________________________________________
activation_5 (Activation)       (None, 96, 24, 24)   0           dense_0_1_bottleneck_bn[0][0]    
__________________________________________________________________________________________________
dense_0_1_conv2D (Conv2D)       (None, 24, 24, 24)   20736       activation_5[0][0]               
__________________________________________________________________________________________________
dropout_2 (Dropout)             (None, 24, 24, 24)   0           dense_0_1_conv2D[0][0]           
__________________________________________________________________________________________________
concatenate_2 (Concatenate)     (None, 64, 24, 24)   0           concatenate_1[0][0]              
                                                                 dropout_2[0][0]                  
__________________________________________________________________________________________________
dense_0_2_bn (BatchNormalizatio (None, 64, 24, 24)   256         concatenate_2[0][0]              
__________________________________________________________________________________________________
activation_6 (Activation)       (None, 64, 24, 24)   0           dense_0_2_bn[0][0]               
__________________________________________________________________________________________________
dense_0_2_bottleneck_conv2D (Co (None, 96, 24, 24)   6144        activation_6[0][0]               
__________________________________________________________________________________________________
dense_0_2_bottleneck_bn (BatchN (None, 96, 24, 24)   384         dense_0_2_bottleneck_conv2D[0][0]
__________________________________________________________________________________________________
activation_7 (Activation)       (None, 96, 24, 24)   0           dense_0_2_bottleneck_bn[0][0]    
__________________________________________________________________________________________________
dense_0_2_conv2D (Conv2D)       (None, 24, 24, 24)   20736       activation_7[0][0]               
__________________________________________________________________________________________________
dropout_3 (Dropout)             (None, 24, 24, 24)   0           dense_0_2_conv2D[0][0]           
__________________________________________________________________________________________________
concatenate_3 (Concatenate)     (None, 88, 24, 24)   0           concatenate_2[0][0]              
                                                                 dropout_3[0][0]                  
__________________________________________________________________________________________________
tr_0_bn (BatchNormalization)    (None, 88, 24, 24)   352         concatenate_3[0][0]              
__________________________________________________________________________________________________
activation_8 (Activation)       (None, 88, 24, 24)   0           tr_0_bn[0][0]                    
__________________________________________________________________________________________________
tr_0_conv2D (Conv2D)            (None, 44, 24, 24)   3872        activation_8[0][0]               
__________________________________________________________________________________________________
max_pooling2d_2 (MaxPooling2D)  (None, 44, 12, 12)   0           tr_0_conv2D[0][0]                
__________________________________________________________________________________________________
dense_1_0_bn (BatchNormalizatio (None, 44, 12, 12)   176         max_pooling2d_2[0][0]            
__________________________________________________________________________________________________
activation_9 (Activation)       (None, 44, 12, 12)   0           dense_1_0_bn[0][0]               
__________________________________________________________________________________________________
dense_1_0_bottleneck_conv2D (Co (None, 96, 12, 12)   4224        activation_9[0][0]               
__________________________________________________________________________________________________
dense_1_0_bottleneck_bn (BatchN (None, 96, 12, 12)   384         dense_1_0_bottleneck_conv2D[0][0]
__________________________________________________________________________________________________
activation_10 (Activation)      (None, 96, 12, 12)   0           dense_1_0_bottleneck_bn[0][0]    
__________________________________________________________________________________________________
dense_1_0_conv2D (Conv2D)       (None, 24, 12, 12)   20736       activation_10[0][0]              
__________________________________________________________________________________________________
dropout_4 (Dropout)             (None, 24, 12, 12)   0           dense_1_0_conv2D[0][0]           
__________________________________________________________________________________________________
concatenate_4 (Concatenate)     (None, 68, 12, 12)   0           max_pooling2d_2[0][0]            
                                                                 dropout_4[0][0]                  
__________________________________________________________________________________________________
dense_1_1_bn (BatchNormalizatio (None, 68, 12, 12)   272         concatenate_4[0][0]              
__________________________________________________________________________________________________
activation_11 (Activation)      (None, 68, 12, 12)   0           dense_1_1_bn[0][0]               
__________________________________________________________________________________________________
dense_1_1_bottleneck_conv2D (Co (None, 96, 12, 12)   6528        activation_11[0][0]              
__________________________________________________________________________________________________
dense_1_1_bottleneck_bn (BatchN (None, 96, 12, 12)   384         dense_1_1_bottleneck_conv2D[0][0]
__________________________________________________________________________________________________
activation_12 (Activation)      (None, 96, 12, 12)   0           dense_1_1_bottleneck_bn[0][0]    
__________________________________________________________________________________________________
dense_1_1_conv2D (Conv2D)       (None, 24, 12, 12)   20736       activation_12[0][0]              
__________________________________________________________________________________________________
dropout_5 (Dropout)             (None, 24, 12, 12)   0           dense_1_1_conv2D[0][0]           
__________________________________________________________________________________________________
concatenate_5 (Concatenate)     (None, 92, 12, 12)   0           concatenate_4[0][0]              
                                                                 dropout_5[0][0]                  
__________________________________________________________________________________________________
dense_1_2_bn (BatchNormalizatio (None, 92, 12, 12)   368         concatenate_5[0][0]              
__________________________________________________________________________________________________
activation_13 (Activation)      (None, 92, 12, 12)   0           dense_1_2_bn[0][0]               
__________________________________________________________________________________________________
dense_1_2_bottleneck_conv2D (Co (None, 96, 12, 12)   8832        activation_13[0][0]              
__________________________________________________________________________________________________
dense_1_2_bottleneck_bn (BatchN (None, 96, 12, 12)   384         dense_1_2_bottleneck_conv2D[0][0]
__________________________________________________________________________________________________
activation_14 (Activation)      (None, 96, 12, 12)   0           dense_1_2_bottleneck_bn[0][0]    
__________________________________________________________________________________________________
dense_1_2_conv2D (Conv2D)       (None, 24, 12, 12)   20736       activation_14[0][0]              
__________________________________________________________________________________________________
dropout_6 (Dropout)             (None, 24, 12, 12)   0           dense_1_2_conv2D[0][0]           
__________________________________________________________________________________________________
concatenate_6 (Concatenate)     (None, 116, 12, 12)  0           concatenate_5[0][0]              
                                                                 dropout_6[0][0]                  
__________________________________________________________________________________________________
tr_1_bn (BatchNormalization)    (None, 116, 12, 12)  464         concatenate_6[0][0]              
__________________________________________________________________________________________________
activation_15 (Activation)      (None, 116, 12, 12)  0           tr_1_bn[0][0]                    
__________________________________________________________________________________________________
tr_1_conv2D (Conv2D)            (None, 58, 12, 12)   6728        activation_15[0][0]              
__________________________________________________________________________________________________
max_pooling2d_3 (MaxPooling2D)  (None, 58, 6, 6)     0           tr_1_conv2D[0][0]                
__________________________________________________________________________________________________
dense_2_0_bn (BatchNormalizatio (None, 58, 6, 6)     232         max_pooling2d_3[0][0]            
__________________________________________________________________________________________________
activation_16 (Activation)      (None, 58, 6, 6)     0           dense_2_0_bn[0][0]               
__________________________________________________________________________________________________
dense_2_0_bottleneck_conv2D (Co (None, 96, 6, 6)     5568        activation_16[0][0]              
__________________________________________________________________________________________________
dense_2_0_bottleneck_bn (BatchN (None, 96, 6, 6)     384         dense_2_0_bottleneck_conv2D[0][0]
__________________________________________________________________________________________________
activation_17 (Activation)      (None, 96, 6, 6)     0           dense_2_0_bottleneck_bn[0][0]    
__________________________________________________________________________________________________
dense_2_0_conv2D (Conv2D)       (None, 24, 6, 6)     20736       activation_17[0][0]              
__________________________________________________________________________________________________
dropout_7 (Dropout)             (None, 24, 6, 6)     0           dense_2_0_conv2D[0][0]           
__________________________________________________________________________________________________
concatenate_7 (Concatenate)     (None, 82, 6, 6)     0           max_pooling2d_3[0][0]            
                                                                 dropout_7[0][0]                  
__________________________________________________________________________________________________
dense_2_1_bn (BatchNormalizatio (None, 82, 6, 6)     328         concatenate_7[0][0]              
__________________________________________________________________________________________________
activation_18 (Activation)      (None, 82, 6, 6)     0           dense_2_1_bn[0][0]               
__________________________________________________________________________________________________
dense_2_1_bottleneck_conv2D (Co (None, 96, 6, 6)     7872        activation_18[0][0]              
__________________________________________________________________________________________________
dense_2_1_bottleneck_bn (BatchN (None, 96, 6, 6)     384         dense_2_1_bottleneck_conv2D[0][0]
__________________________________________________________________________________________________
activation_19 (Activation)      (None, 96, 6, 6)     0           dense_2_1_bottleneck_bn[0][0]    
__________________________________________________________________________________________________
dense_2_1_conv2D (Conv2D)       (None, 24, 6, 6)     20736       activation_19[0][0]              
__________________________________________________________________________________________________
dropout_8 (Dropout)             (None, 24, 6, 6)     0           dense_2_1_conv2D[0][0]           
__________________________________________________________________________________________________
concatenate_8 (Concatenate)     (None, 106, 6, 6)    0           concatenate_7[0][0]              
                                                                 dropout_8[0][0]                  
__________________________________________________________________________________________________
dense_2_2_bn (BatchNormalizatio (None, 106, 6, 6)    424         concatenate_8[0][0]              
__________________________________________________________________________________________________
activation_20 (Activation)      (None, 106, 6, 6)    0           dense_2_2_bn[0][0]               
__________________________________________________________________________________________________
dense_2_2_bottleneck_conv2D (Co (None, 96, 6, 6)     10176       activation_20[0][0]              
__________________________________________________________________________________________________
dense_2_2_bottleneck_bn (BatchN (None, 96, 6, 6)     384         dense_2_2_bottleneck_conv2D[0][0]
__________________________________________________________________________________________________
activation_21 (Activation)      (None, 96, 6, 6)     0           dense_2_2_bottleneck_bn[0][0]    
__________________________________________________________________________________________________
dense_2_2_conv2D (Conv2D)       (None, 24, 6, 6)     20736       activation_21[0][0]              
__________________________________________________________________________________________________
dropout_9 (Dropout)             (None, 24, 6, 6)     0           dense_2_2_conv2D[0][0]           
__________________________________________________________________________________________________
concatenate_9 (Concatenate)     (None, 130, 6, 6)    0           concatenate_8[0][0]              
                                                                 dropout_9[0][0]                  
__________________________________________________________________________________________________
tr_2_bn (BatchNormalization)    (None, 130, 6, 6)    520         concatenate_9[0][0]              
__________________________________________________________________________________________________
activation_22 (Activation)      (None, 130, 6, 6)    0           tr_2_bn[0][0]                    
__________________________________________________________________________________________________
tr_2_conv2D (Conv2D)            (None, 65, 6, 6)     8450        activation_22[0][0]              
__________________________________________________________________________________________________
max_pooling2d_4 (MaxPooling2D)  (None, 65, 3, 3)     0           tr_2_conv2D[0][0]                
__________________________________________________________________________________________________
dense_3_0_bn (BatchNormalizatio (None, 65, 3, 3)     260         max_pooling2d_4[0][0]            
__________________________________________________________________________________________________
activation_23 (Activation)      (None, 65, 3, 3)     0           dense_3_0_bn[0][0]               
__________________________________________________________________________________________________
dense_3_0_bottleneck_conv2D (Co (None, 96, 3, 3)     6240        activation_23[0][0]              
__________________________________________________________________________________________________
dense_3_0_bottleneck_bn (BatchN (None, 96, 3, 3)     384         dense_3_0_bottleneck_conv2D[0][0]
__________________________________________________________________________________________________
activation_24 (Activation)      (None, 96, 3, 3)     0           dense_3_0_bottleneck_bn[0][0]    
__________________________________________________________________________________________________
dense_3_0_conv2D (Conv2D)       (None, 24, 3, 3)     20736       activation_24[0][0]              
__________________________________________________________________________________________________
dropout_10 (Dropout)            (None, 24, 3, 3)     0           dense_3_0_conv2D[0][0]           
__________________________________________________________________________________________________
concatenate_10 (Concatenate)    (None, 89, 3, 3)     0           max_pooling2d_4[0][0]            
                                                                 dropout_10[0][0]                 
__________________________________________________________________________________________________
dense_3_1_bn (BatchNormalizatio (None, 89, 3, 3)     356         concatenate_10[0][0]             
__________________________________________________________________________________________________
activation_25 (Activation)      (None, 89, 3, 3)     0           dense_3_1_bn[0][0]               
__________________________________________________________________________________________________
dense_3_1_bottleneck_conv2D (Co (None, 96, 3, 3)     8544        activation_25[0][0]              
__________________________________________________________________________________________________
dense_3_1_bottleneck_bn (BatchN (None, 96, 3, 3)     384         dense_3_1_bottleneck_conv2D[0][0]
__________________________________________________________________________________________________
activation_26 (Activation)      (None, 96, 3, 3)     0           dense_3_1_bottleneck_bn[0][0]    
__________________________________________________________________________________________________
dense_3_1_conv2D (Conv2D)       (None, 24, 3, 3)     20736       activation_26[0][0]              
__________________________________________________________________________________________________
dropout_11 (Dropout)            (None, 24, 3, 3)     0           dense_3_1_conv2D[0][0]           
__________________________________________________________________________________________________
concatenate_11 (Concatenate)    (None, 113, 3, 3)    0           concatenate_10[0][0]             
                                                                 dropout_11[0][0]                 
__________________________________________________________________________________________________
dense_3_2_bn (BatchNormalizatio (None, 113, 3, 3)    452         concatenate_11[0][0]             
__________________________________________________________________________________________________
activation_27 (Activation)      (None, 113, 3, 3)    0           dense_3_2_bn[0][0]               
__________________________________________________________________________________________________
dense_3_2_bottleneck_conv2D (Co (None, 96, 3, 3)     10848       activation_27[0][0]              
__________________________________________________________________________________________________
dense_3_2_bottleneck_bn (BatchN (None, 96, 3, 3)     384         dense_3_2_bottleneck_conv2D[0][0]
__________________________________________________________________________________________________
activation_28 (Activation)      (None, 96, 3, 3)     0           dense_3_2_bottleneck_bn[0][0]    
__________________________________________________________________________________________________
dense_3_2_conv2D (Conv2D)       (None, 24, 3, 3)     20736       activation_28[0][0]              
__________________________________________________________________________________________________
dropout_12 (Dropout)            (None, 24, 3, 3)     0           dense_3_2_conv2D[0][0]           
__________________________________________________________________________________________________
concatenate_12 (Concatenate)    (None, 137, 3, 3)    0           concatenate_11[0][0]             
                                                                 dropout_12[0][0]                 
__________________________________________________________________________________________________
final_bn (BatchNormalization)   (None, 137, 3, 3)    548         concatenate_12[0][0]             
__________________________________________________________________________________________________
activation_29 (Activation)      (None, 137, 3, 3)    0           final_bn[0][0]                   
__________________________________________________________________________________________________
flatten_1 (Flatten)             (None, 1233)         0           activation_29[0][0]              
==================================================================================================
Total params: 358,922
Trainable params: 353,970
Non-trainable params: 4,952
__________________________________________________________________________________________________
__________________________________________________________________________________________________
Layer (type)                    Output Shape         Param #     Connected to                     
==================================================================================================
input_2 (InputLayer)            (None, 1, 96, 96)    0                                            
__________________________________________________________________________________________________
input_3 (InputLayer)            (None, 1, 96, 96)    0                                            
__________________________________________________________________________________________________
densenet (Model)                (None, 1233)         358922      input_2[0][0]                    
                                                                 input_3[0][0]                    
__________________________________________________________________________________________________
merge_features (Concatenate)    (None, 2466)         0           densenet[1][0]                   
                                                                 densenet[2][0]                   
__________________________________________________________________________________________________
dense_1 (Dense)                 (None, 512)          1263104     merge_features[0][0]             
__________________________________________________________________________________________________
activation_30 (Activation)      (None, 512)          0           dense_1[0][0]                    
__________________________________________________________________________________________________
batch_normalization_1 (BatchNor (None, 512)          2048        activation_30[0][0]              
__________________________________________________________________________________________________
dropout_13 (Dropout)            (None, 512)          0           batch_normalization_1[0][0]      
__________________________________________________________________________________________________
dense_2 (Dense)                 (None, 1)            513         dropout_13[0][0]                 
==================================================================================================
Total params: 1,624,587
Trainable params: 1,618,611
Non-trainable params: 5,976
__________________________________________________________________________________________________
Finished compiling
Train on 31872 samples, validate on 7968 samples
Epoch 1/10
 - 100s - loss: 0.9464 - acc: 0.6832 - val_loss: 1.4571 - val_acc: 0.5633
…
------------------------ current config for the test -------------------------
Layers:  [3, 3, 3, 3]  Growth_rate:  30  nb_filter:  16  dropout:  0.2
dense_block  4  reduction_:  0.5  bottleneck:  True
------------------------	  end of configs        -------------------------
pooling:flatten
__________________________________________________________________________________________________
Layer (type)                    Output Shape         Param #     Connected to                     
==================================================================================================
input_1 (InputLayer)            (None, 1, 96, 96)    0                                            
__________________________________________________________________________________________________
initial_conv2D (Conv2D)         (None, 16, 48, 48)   784         input_1[0][0]                    
__________________________________________________________________________________________________
initial_bn (BatchNormalization) (None, 16, 48, 48)   64          initial_conv2D[0][0]             
__________________________________________________________________________________________________
activation_1 (Activation)       (None, 16, 48, 48)   0           initial_bn[0][0]                 
__________________________________________________________________________________________________
max_pooling2d_1 (MaxPooling2D)  (None, 16, 24, 24)   0           activation_1[0][0]               
__________________________________________________________________________________________________
dense_0_0_bn (BatchNormalizatio (None, 16, 24, 24)   64          max_pooling2d_1[0][0]            
__________________________________________________________________________________________________
activation_2 (Activation)       (None, 16, 24, 24)   0           dense_0_0_bn[0][0]               
__________________________________________________________________________________________________
dense_0_0_bottleneck_conv2D (Co (None, 120, 24, 24)  1920        activation_2[0][0]               
__________________________________________________________________________________________________
dense_0_0_bottleneck_bn (BatchN (None, 120, 24, 24)  480         dense_0_0_bottleneck_conv2D[0][0]
__________________________________________________________________________________________________
activation_3 (Activation)       (None, 120, 24, 24)  0           dense_0_0_bottleneck_bn[0][0]    
__________________________________________________________________________________________________
dense_0_0_conv2D (Conv2D)       (None, 30, 24, 24)   32400       activation_3[0][0]               
__________________________________________________________________________________________________
dropout_1 (Dropout)             (None, 30, 24, 24)   0           dense_0_0_conv2D[0][0]           
__________________________________________________________________________________________________
concatenate_1 (Concatenate)     (None, 46, 24, 24)   0           max_pooling2d_1[0][0]            
                                                                 dropout_1[0][0]                  
__________________________________________________________________________________________________
dense_0_1_bn (BatchNormalizatio (None, 46, 24, 24)   184         concatenate_1[0][0]              
__________________________________________________________________________________________________
activation_4 (Activation)       (None, 46, 24, 24)   0           dense_0_1_bn[0][0]               
__________________________________________________________________________________________________
dense_0_1_bottleneck_conv2D (Co (None, 120, 24, 24)  5520        activation_4[0][0]               
__________________________________________________________________________________________________
dense_0_1_bottleneck_bn (BatchN (None, 120, 24, 24)  480         dense_0_1_bottleneck_conv2D[0][0]
__________________________________________________________________________________________________
activation_5 (Activation)       (None, 120, 24, 24)  0           dense_0_1_bottleneck_bn[0][0]    
__________________________________________________________________________________________________
dense_0_1_conv2D (Conv2D)       (None, 30, 24, 24)   32400       activation_5[0][0]               
__________________________________________________________________________________________________
dropout_2 (Dropout)             (None, 30, 24, 24)   0           dense_0_1_conv2D[0][0]           
__________________________________________________________________________________________________
concatenate_2 (Concatenate)     (None, 76, 24, 24)   0           concatenate_1[0][0]              
                                                                 dropout_2[0][0]                  
__________________________________________________________________________________________________
dense_0_2_bn (BatchNormalizatio (None, 76, 24, 24)   304         concatenate_2[0][0]              
__________________________________________________________________________________________________
activation_6 (Activation)       (None, 76, 24, 24)   0           dense_0_2_bn[0][0]               
__________________________________________________________________________________________________
dense_0_2_bottleneck_conv2D (Co (None, 120, 24, 24)  9120        activation_6[0][0]               
__________________________________________________________________________________________________
dense_0_2_bottleneck_bn (BatchN (None, 120, 24, 24)  480         dense_0_2_bottleneck_conv2D[0][0]
__________________________________________________________________________________________________
activation_7 (Activation)       (None, 120, 24, 24)  0           dense_0_2_bottleneck_bn[0][0]    
__________________________________________________________________________________________________
dense_0_2_conv2D (Conv2D)       (None, 30, 24, 24)   32400       activation_7[0][0]               
__________________________________________________________________________________________________
dropout_3 (Dropout)             (None, 30, 24, 24)   0           dense_0_2_conv2D[0][0]           
__________________________________________________________________________________________________
concatenate_3 (Concatenate)     (None, 106, 24, 24)  0           concatenate_2[0][0]              
                                                                 dropout_3[0][0]                  
__________________________________________________________________________________________________
tr_0_bn (BatchNormalization)    (None, 106, 24, 24)  424         concatenate_3[0][0]              
__________________________________________________________________________________________________
activation_8 (Activation)       (None, 106, 24, 24)  0           tr_0_bn[0][0]                    
__________________________________________________________________________________________________
tr_0_conv2D (Conv2D)            (None, 53, 24, 24)   5618        activation_8[0][0]               
__________________________________________________________________________________________________
max_pooling2d_2 (MaxPooling2D)  (None, 53, 12, 12)   0           tr_0_conv2D[0][0]                
__________________________________________________________________________________________________
dense_1_0_bn (BatchNormalizatio (None, 53, 12, 12)   212         max_pooling2d_2[0][0]            
__________________________________________________________________________________________________
activation_9 (Activation)       (None, 53, 12, 12)   0           dense_1_0_bn[0][0]               
__________________________________________________________________________________________________
dense_1_0_bottleneck_conv2D (Co (None, 120, 12, 12)  6360        activation_9[0][0]               
__________________________________________________________________________________________________
dense_1_0_bottleneck_bn (BatchN (None, 120, 12, 12)  480         dense_1_0_bottleneck_conv2D[0][0]
__________________________________________________________________________________________________
activation_10 (Activation)      (None, 120, 12, 12)  0           dense_1_0_bottleneck_bn[0][0]    
__________________________________________________________________________________________________
dense_1_0_conv2D (Conv2D)       (None, 30, 12, 12)   32400       activation_10[0][0]              
__________________________________________________________________________________________________
dropout_4 (Dropout)             (None, 30, 12, 12)   0           dense_1_0_conv2D[0][0]           
__________________________________________________________________________________________________
concatenate_4 (Concatenate)     (None, 83, 12, 12)   0           max_pooling2d_2[0][0]            
                                                                 dropout_4[0][0]                  
__________________________________________________________________________________________________
dense_1_1_bn (BatchNormalizatio (None, 83, 12, 12)   332         concatenate_4[0][0]              
__________________________________________________________________________________________________
activation_11 (Activation)      (None, 83, 12, 12)   0           dense_1_1_bn[0][0]               
__________________________________________________________________________________________________
dense_1_1_bottleneck_conv2D (Co (None, 120, 12, 12)  9960        activation_11[0][0]              
__________________________________________________________________________________________________
dense_1_1_bottleneck_bn (BatchN (None, 120, 12, 12)  480         dense_1_1_bottleneck_conv2D[0][0]
__________________________________________________________________________________________________
activation_12 (Activation)      (None, 120, 12, 12)  0           dense_1_1_bottleneck_bn[0][0]    
__________________________________________________________________________________________________
dense_1_1_conv2D (Conv2D)       (None, 30, 12, 12)   32400       activation_12[0][0]              
__________________________________________________________________________________________________
dropout_5 (Dropout)             (None, 30, 12, 12)   0           dense_1_1_conv2D[0][0]           
__________________________________________________________________________________________________
concatenate_5 (Concatenate)     (None, 113, 12, 12)  0           concatenate_4[0][0]              
                                                                 dropout_5[0][0]                  
__________________________________________________________________________________________________
dense_1_2_bn (BatchNormalizatio (None, 113, 12, 12)  452         concatenate_5[0][0]              
__________________________________________________________________________________________________
activation_13 (Activation)      (None, 113, 12, 12)  0           dense_1_2_bn[0][0]               
__________________________________________________________________________________________________
dense_1_2_bottleneck_conv2D (Co (None, 120, 12, 12)  13560       activation_13[0][0]              
__________________________________________________________________________________________________
dense_1_2_bottleneck_bn (BatchN (None, 120, 12, 12)  480         dense_1_2_bottleneck_conv2D[0][0]
__________________________________________________________________________________________________
activation_14 (Activation)      (None, 120, 12, 12)  0           dense_1_2_bottleneck_bn[0][0]    
__________________________________________________________________________________________________
dense_1_2_conv2D (Conv2D)       (None, 30, 12, 12)   32400       activation_14[0][0]              
__________________________________________________________________________________________________
dropout_6 (Dropout)             (None, 30, 12, 12)   0           dense_1_2_conv2D[0][0]           
__________________________________________________________________________________________________
concatenate_6 (Concatenate)     (None, 143, 12, 12)  0           concatenate_5[0][0]              
                                                                 dropout_6[0][0]                  
__________________________________________________________________________________________________
tr_1_bn (BatchNormalization)    (None, 143, 12, 12)  572         concatenate_6[0][0]              
__________________________________________________________________________________________________
activation_15 (Activation)      (None, 143, 12, 12)  0           tr_1_bn[0][0]                    
__________________________________________________________________________________________________
tr_1_conv2D (Conv2D)            (None, 71, 12, 12)   10153       activation_15[0][0]              
__________________________________________________________________________________________________
max_pooling2d_3 (MaxPooling2D)  (None, 71, 6, 6)     0           tr_1_conv2D[0][0]                
__________________________________________________________________________________________________
dense_2_0_bn (BatchNormalizatio (None, 71, 6, 6)     284         max_pooling2d_3[0][0]            
__________________________________________________________________________________________________
activation_16 (Activation)      (None, 71, 6, 6)     0           dense_2_0_bn[0][0]               
__________________________________________________________________________________________________
dense_2_0_bottleneck_conv2D (Co (None, 120, 6, 6)    8520        activation_16[0][0]              
__________________________________________________________________________________________________
dense_2_0_bottleneck_bn (BatchN (None, 120, 6, 6)    480         dense_2_0_bottleneck_conv2D[0][0]
__________________________________________________________________________________________________
activation_17 (Activation)      (None, 120, 6, 6)    0           dense_2_0_bottleneck_bn[0][0]    
__________________________________________________________________________________________________
dense_2_0_conv2D (Conv2D)       (None, 30, 6, 6)     32400       activation_17[0][0]              
__________________________________________________________________________________________________
dropout_7 (Dropout)             (None, 30, 6, 6)     0           dense_2_0_conv2D[0][0]           
__________________________________________________________________________________________________
concatenate_7 (Concatenate)     (None, 101, 6, 6)    0           max_pooling2d_3[0][0]            
                                                                 dropout_7[0][0]                  
__________________________________________________________________________________________________
dense_2_1_bn (BatchNormalizatio (None, 101, 6, 6)    404         concatenate_7[0][0]              
__________________________________________________________________________________________________
activation_18 (Activation)      (None, 101, 6, 6)    0           dense_2_1_bn[0][0]               
__________________________________________________________________________________________________
dense_2_1_bottleneck_conv2D (Co (None, 120, 6, 6)    12120       activation_18[0][0]              
__________________________________________________________________________________________________
dense_2_1_bottleneck_bn (BatchN (None, 120, 6, 6)    480         dense_2_1_bottleneck_conv2D[0][0]
__________________________________________________________________________________________________
activation_19 (Activation)      (None, 120, 6, 6)    0           dense_2_1_bottleneck_bn[0][0]    
__________________________________________________________________________________________________
dense_2_1_conv2D (Conv2D)       (None, 30, 6, 6)     32400       activation_19[0][0]              
__________________________________________________________________________________________________
dropout_8 (Dropout)             (None, 30, 6, 6)     0           dense_2_1_conv2D[0][0]           
__________________________________________________________________________________________________
concatenate_8 (Concatenate)     (None, 131, 6, 6)    0           concatenate_7[0][0]              
                                                                 dropout_8[0][0]                  
__________________________________________________________________________________________________
dense_2_2_bn (BatchNormalizatio (None, 131, 6, 6)    524         concatenate_8[0][0]              
__________________________________________________________________________________________________
activation_20 (Activation)      (None, 131, 6, 6)    0           dense_2_2_bn[0][0]               
__________________________________________________________________________________________________
dense_2_2_bottleneck_conv2D (Co (None, 120, 6, 6)    15720       activation_20[0][0]              
__________________________________________________________________________________________________
dense_2_2_bottleneck_bn (BatchN (None, 120, 6, 6)    480         dense_2_2_bottleneck_conv2D[0][0]
__________________________________________________________________________________________________
activation_21 (Activation)      (None, 120, 6, 6)    0           dense_2_2_bottleneck_bn[0][0]    
__________________________________________________________________________________________________
dense_2_2_conv2D (Conv2D)       (None, 30, 6, 6)     32400       activation_21[0][0]              
__________________________________________________________________________________________________
dropout_9 (Dropout)             (None, 30, 6, 6)     0           dense_2_2_conv2D[0][0]           
__________________________________________________________________________________________________
concatenate_9 (Concatenate)     (None, 161, 6, 6)    0           concatenate_8[0][0]              
                                                                 dropout_9[0][0]                  
__________________________________________________________________________________________________
tr_2_bn (BatchNormalization)    (None, 161, 6, 6)    644         concatenate_9[0][0]              
__________________________________________________________________________________________________
activation_22 (Activation)      (None, 161, 6, 6)    0           tr_2_bn[0][0]                    
__________________________________________________________________________________________________
tr_2_conv2D (Conv2D)            (None, 80, 6, 6)     12880       activation_22[0][0]              
__________________________________________________________________________________________________
max_pooling2d_4 (MaxPooling2D)  (None, 80, 3, 3)     0           tr_2_conv2D[0][0]                
__________________________________________________________________________________________________
dense_3_0_bn (BatchNormalizatio (None, 80, 3, 3)     320         max_pooling2d_4[0][0]            
__________________________________________________________________________________________________
activation_23 (Activation)      (None, 80, 3, 3)     0           dense_3_0_bn[0][0]               
__________________________________________________________________________________________________
dense_3_0_bottleneck_conv2D (Co (None, 120, 3, 3)    9600        activation_23[0][0]              
__________________________________________________________________________________________________
dense_3_0_bottleneck_bn (BatchN (None, 120, 3, 3)    480         dense_3_0_bottleneck_conv2D[0][0]
__________________________________________________________________________________________________
activation_24 (Activation)      (None, 120, 3, 3)    0           dense_3_0_bottleneck_bn[0][0]    
__________________________________________________________________________________________________
dense_3_0_conv2D (Conv2D)       (None, 30, 3, 3)     32400       activation_24[0][0]              
__________________________________________________________________________________________________
dropout_10 (Dropout)            (None, 30, 3, 3)     0           dense_3_0_conv2D[0][0]           
__________________________________________________________________________________________________
concatenate_10 (Concatenate)    (None, 110, 3, 3)    0           max_pooling2d_4[0][0]            
                                                                 dropout_10[0][0]                 
__________________________________________________________________________________________________
dense_3_1_bn (BatchNormalizatio (None, 110, 3, 3)    440         concatenate_10[0][0]             
__________________________________________________________________________________________________
activation_25 (Activation)      (None, 110, 3, 3)    0           dense_3_1_bn[0][0]               
__________________________________________________________________________________________________
dense_3_1_bottleneck_conv2D (Co (None, 120, 3, 3)    13200       activation_25[0][0]              
__________________________________________________________________________________________________
dense_3_1_bottleneck_bn (BatchN (None, 120, 3, 3)    480         dense_3_1_bottleneck_conv2D[0][0]
__________________________________________________________________________________________________
activation_26 (Activation)      (None, 120, 3, 3)    0           dense_3_1_bottleneck_bn[0][0]    
__________________________________________________________________________________________________
dense_3_1_conv2D (Conv2D)       (None, 30, 3, 3)     32400       activation_26[0][0]              
__________________________________________________________________________________________________
dropout_11 (Dropout)            (None, 30, 3, 3)     0           dense_3_1_conv2D[0][0]           
__________________________________________________________________________________________________
concatenate_11 (Concatenate)    (None, 140, 3, 3)    0           concatenate_10[0][0]             
                                                                 dropout_11[0][0]                 
__________________________________________________________________________________________________
dense_3_2_bn (BatchNormalizatio (None, 140, 3, 3)    560         concatenate_11[0][0]             
__________________________________________________________________________________________________
activation_27 (Activation)      (None, 140, 3, 3)    0           dense_3_2_bn[0][0]               
__________________________________________________________________________________________________
dense_3_2_bottleneck_conv2D (Co (None, 120, 3, 3)    16800       activation_27[0][0]              
__________________________________________________________________________________________________
dense_3_2_bottleneck_bn (BatchN (None, 120, 3, 3)    480         dense_3_2_bottleneck_conv2D[0][0]
__________________________________________________________________________________________________
activation_28 (Activation)      (None, 120, 3, 3)    0           dense_3_2_bottleneck_bn[0][0]    
__________________________________________________________________________________________________
dense_3_2_conv2D (Conv2D)       (None, 30, 3, 3)     32400       activation_28[0][0]              
__________________________________________________________________________________________________
dropout_12 (Dropout)            (None, 30, 3, 3)     0           dense_3_2_conv2D[0][0]           
__________________________________________________________________________________________________
concatenate_12 (Concatenate)    (None, 170, 3, 3)    0           concatenate_11[0][0]             
                                                                 dropout_12[0][0]                 
__________________________________________________________________________________________________
final_bn (BatchNormalization)   (None, 170, 3, 3)    680         concatenate_12[0][0]             
__________________________________________________________________________________________________
activation_29 (Activation)      (None, 170, 3, 3)    0           final_bn[0][0]                   
__________________________________________________________________________________________________
flatten_1 (Flatten)             (None, 1530)         0           activation_29[0][0]              
==================================================================================================
Total params: 552,859
Trainable params: 546,747
Non-trainable params: 6,112
__________________________________________________________________________________________________
__________________________________________________________________________________________________
Layer (type)                    Output Shape         Param #     Connected to                     
==================================================================================================
input_2 (InputLayer)            (None, 1, 96, 96)    0                                            
__________________________________________________________________________________________________
input_3 (InputLayer)            (None, 1, 96, 96)    0                                            
__________________________________________________________________________________________________
densenet (Model)                (None, 1530)         552859      input_2[0][0]                    
                                                                 input_3[0][0]                    
__________________________________________________________________________________________________
merge_features (Concatenate)    (None, 3060)         0           densenet[1][0]                   
                                                                 densenet[2][0]                   
__________________________________________________________________________________________________
dense_1 (Dense)                 (None, 512)          1567232     merge_features[0][0]             
__________________________________________________________________________________________________
activation_30 (Activation)      (None, 512)          0           dense_1[0][0]                    
__________________________________________________________________________________________________
batch_normalization_1 (BatchNor (None, 512)          2048        activation_30[0][0]              
__________________________________________________________________________________________________
dropout_13 (Dropout)            (None, 512)          0           batch_normalization_1[0][0]      
__________________________________________________________________________________________________
dense_2 (Dense)                 (None, 1)            513         dropout_13[0][0]                 
==================================================================================================
Total params: 2,122,652
Trainable params: 2,115,516
Non-trainable params: 7,136
__________________________________________________________________________________________________
Finished compiling
Train on 31872 samples, validate on 7968 samples
Epoch 1/10
 - 124s - loss: 0.9830 - acc: 0.7027 - val_loss: 1.1300 - val_acc: 0.6509
…
------------------------ current config for the test -------------------------
Layers:  [3, 3, 3, 3]  Growth_rate:  36  nb_filter:  16  dropout:  0.2
dense_block  4  reduction_:  0.5  bottleneck:  True
------------------------	  end of configs        -------------------------
pooling:flatten
__________________________________________________________________________________________________
Layer (type)                    Output Shape         Param #     Connected to                     
==================================================================================================
input_1 (InputLayer)            (None, 1, 96, 96)    0                                            
__________________________________________________________________________________________________
initial_conv2D (Conv2D)         (None, 16, 48, 48)   784         input_1[0][0]                    
__________________________________________________________________________________________________
initial_bn (BatchNormalization) (None, 16, 48, 48)   64          initial_conv2D[0][0]             
__________________________________________________________________________________________________
activation_1 (Activation)       (None, 16, 48, 48)   0           initial_bn[0][0]                 
__________________________________________________________________________________________________
max_pooling2d_1 (MaxPooling2D)  (None, 16, 24, 24)   0           activation_1[0][0]               
__________________________________________________________________________________________________
dense_0_0_bn (BatchNormalizatio (None, 16, 24, 24)   64          max_pooling2d_1[0][0]            
__________________________________________________________________________________________________
activation_2 (Activation)       (None, 16, 24, 24)   0           dense_0_0_bn[0][0]               
__________________________________________________________________________________________________
dense_0_0_bottleneck_conv2D (Co (None, 144, 24, 24)  2304        activation_2[0][0]               
__________________________________________________________________________________________________
dense_0_0_bottleneck_bn (BatchN (None, 144, 24, 24)  576         dense_0_0_bottleneck_conv2D[0][0]
__________________________________________________________________________________________________
activation_3 (Activation)       (None, 144, 24, 24)  0           dense_0_0_bottleneck_bn[0][0]    
__________________________________________________________________________________________________
dense_0_0_conv2D (Conv2D)       (None, 36, 24, 24)   46656       activation_3[0][0]               
__________________________________________________________________________________________________
dropout_1 (Dropout)             (None, 36, 24, 24)   0           dense_0_0_conv2D[0][0]           
__________________________________________________________________________________________________
concatenate_1 (Concatenate)     (None, 52, 24, 24)   0           max_pooling2d_1[0][0]            
                                                                 dropout_1[0][0]                  
__________________________________________________________________________________________________
dense_0_1_bn (BatchNormalizatio (None, 52, 24, 24)   208         concatenate_1[0][0]              
__________________________________________________________________________________________________
activation_4 (Activation)       (None, 52, 24, 24)   0           dense_0_1_bn[0][0]               
__________________________________________________________________________________________________
dense_0_1_bottleneck_conv2D (Co (None, 144, 24, 24)  7488        activation_4[0][0]               
__________________________________________________________________________________________________
dense_0_1_bottleneck_bn (BatchN (None, 144, 24, 24)  576         dense_0_1_bottleneck_conv2D[0][0]
__________________________________________________________________________________________________
activation_5 (Activation)       (None, 144, 24, 24)  0           dense_0_1_bottleneck_bn[0][0]    
__________________________________________________________________________________________________
dense_0_1_conv2D (Conv2D)       (None, 36, 24, 24)   46656       activation_5[0][0]               
__________________________________________________________________________________________________
dropout_2 (Dropout)             (None, 36, 24, 24)   0           dense_0_1_conv2D[0][0]           
__________________________________________________________________________________________________
concatenate_2 (Concatenate)     (None, 88, 24, 24)   0           concatenate_1[0][0]              
                                                                 dropout_2[0][0]                  
__________________________________________________________________________________________________
dense_0_2_bn (BatchNormalizatio (None, 88, 24, 24)   352         concatenate_2[0][0]              
__________________________________________________________________________________________________
activation_6 (Activation)       (None, 88, 24, 24)   0           dense_0_2_bn[0][0]               
__________________________________________________________________________________________________
dense_0_2_bottleneck_conv2D (Co (None, 144, 24, 24)  12672       activation_6[0][0]               
__________________________________________________________________________________________________
dense_0_2_bottleneck_bn (BatchN (None, 144, 24, 24)  576         dense_0_2_bottleneck_conv2D[0][0]
__________________________________________________________________________________________________
activation_7 (Activation)       (None, 144, 24, 24)  0           dense_0_2_bottleneck_bn[0][0]    
__________________________________________________________________________________________________
dense_0_2_conv2D (Conv2D)       (None, 36, 24, 24)   46656       activation_7[0][0]               
__________________________________________________________________________________________________
dropout_3 (Dropout)             (None, 36, 24, 24)   0           dense_0_2_conv2D[0][0]           
__________________________________________________________________________________________________
concatenate_3 (Concatenate)     (None, 124, 24, 24)  0           concatenate_2[0][0]              
                                                                 dropout_3[0][0]                  
__________________________________________________________________________________________________
tr_0_bn (BatchNormalization)    (None, 124, 24, 24)  496         concatenate_3[0][0]              
__________________________________________________________________________________________________
activation_8 (Activation)       (None, 124, 24, 24)  0           tr_0_bn[0][0]                    
__________________________________________________________________________________________________
tr_0_conv2D (Conv2D)            (None, 62, 24, 24)   7688        activation_8[0][0]               
__________________________________________________________________________________________________
max_pooling2d_2 (MaxPooling2D)  (None, 62, 12, 12)   0           tr_0_conv2D[0][0]                
__________________________________________________________________________________________________
dense_1_0_bn (BatchNormalizatio (None, 62, 12, 12)   248         max_pooling2d_2[0][0]            
__________________________________________________________________________________________________
activation_9 (Activation)       (None, 62, 12, 12)   0           dense_1_0_bn[0][0]               
__________________________________________________________________________________________________
dense_1_0_bottleneck_conv2D (Co (None, 144, 12, 12)  8928        activation_9[0][0]               
__________________________________________________________________________________________________
dense_1_0_bottleneck_bn (BatchN (None, 144, 12, 12)  576         dense_1_0_bottleneck_conv2D[0][0]
__________________________________________________________________________________________________
activation_10 (Activation)      (None, 144, 12, 12)  0           dense_1_0_bottleneck_bn[0][0]    
__________________________________________________________________________________________________
dense_1_0_conv2D (Conv2D)       (None, 36, 12, 12)   46656       activation_10[0][0]              
__________________________________________________________________________________________________
dropout_4 (Dropout)             (None, 36, 12, 12)   0           dense_1_0_conv2D[0][0]           
__________________________________________________________________________________________________
concatenate_4 (Concatenate)     (None, 98, 12, 12)   0           max_pooling2d_2[0][0]            
                                                                 dropout_4[0][0]                  
__________________________________________________________________________________________________
dense_1_1_bn (BatchNormalizatio (None, 98, 12, 12)   392         concatenate_4[0][0]              
__________________________________________________________________________________________________
activation_11 (Activation)      (None, 98, 12, 12)   0           dense_1_1_bn[0][0]               
__________________________________________________________________________________________________
dense_1_1_bottleneck_conv2D (Co (None, 144, 12, 12)  14112       activation_11[0][0]              
__________________________________________________________________________________________________
dense_1_1_bottleneck_bn (BatchN (None, 144, 12, 12)  576         dense_1_1_bottleneck_conv2D[0][0]
__________________________________________________________________________________________________
activation_12 (Activation)      (None, 144, 12, 12)  0           dense_1_1_bottleneck_bn[0][0]    
__________________________________________________________________________________________________
dense_1_1_conv2D (Conv2D)       (None, 36, 12, 12)   46656       activation_12[0][0]              
__________________________________________________________________________________________________
dropout_5 (Dropout)             (None, 36, 12, 12)   0           dense_1_1_conv2D[0][0]           
__________________________________________________________________________________________________
concatenate_5 (Concatenate)     (None, 134, 12, 12)  0           concatenate_4[0][0]              
                                                                 dropout_5[0][0]                  
__________________________________________________________________________________________________
dense_1_2_bn (BatchNormalizatio (None, 134, 12, 12)  536         concatenate_5[0][0]              
__________________________________________________________________________________________________
activation_13 (Activation)      (None, 134, 12, 12)  0           dense_1_2_bn[0][0]               
__________________________________________________________________________________________________
dense_1_2_bottleneck_conv2D (Co (None, 144, 12, 12)  19296       activation_13[0][0]              
__________________________________________________________________________________________________
dense_1_2_bottleneck_bn (BatchN (None, 144, 12, 12)  576         dense_1_2_bottleneck_conv2D[0][0]
__________________________________________________________________________________________________
activation_14 (Activation)      (None, 144, 12, 12)  0           dense_1_2_bottleneck_bn[0][0]    
__________________________________________________________________________________________________
dense_1_2_conv2D (Conv2D)       (None, 36, 12, 12)   46656       activation_14[0][0]              
__________________________________________________________________________________________________
dropout_6 (Dropout)             (None, 36, 12, 12)   0           dense_1_2_conv2D[0][0]           
__________________________________________________________________________________________________
concatenate_6 (Concatenate)     (None, 170, 12, 12)  0           concatenate_5[0][0]              
                                                                 dropout_6[0][0]                  
__________________________________________________________________________________________________
tr_1_bn (BatchNormalization)    (None, 170, 12, 12)  680         concatenate_6[0][0]              
__________________________________________________________________________________________________
activation_15 (Activation)      (None, 170, 12, 12)  0           tr_1_bn[0][0]                    
__________________________________________________________________________________________________
tr_1_conv2D (Conv2D)            (None, 85, 12, 12)   14450       activation_15[0][0]              
__________________________________________________________________________________________________
max_pooling2d_3 (MaxPooling2D)  (None, 85, 6, 6)     0           tr_1_conv2D[0][0]                
__________________________________________________________________________________________________
dense_2_0_bn (BatchNormalizatio (None, 85, 6, 6)     340         max_pooling2d_3[0][0]            
__________________________________________________________________________________________________
activation_16 (Activation)      (None, 85, 6, 6)     0           dense_2_0_bn[0][0]               
__________________________________________________________________________________________________
dense_2_0_bottleneck_conv2D (Co (None, 144, 6, 6)    12240       activation_16[0][0]              
__________________________________________________________________________________________________
dense_2_0_bottleneck_bn (BatchN (None, 144, 6, 6)    576         dense_2_0_bottleneck_conv2D[0][0]
__________________________________________________________________________________________________
activation_17 (Activation)      (None, 144, 6, 6)    0           dense_2_0_bottleneck_bn[0][0]    
__________________________________________________________________________________________________
dense_2_0_conv2D (Conv2D)       (None, 36, 6, 6)     46656       activation_17[0][0]              
__________________________________________________________________________________________________
dropout_7 (Dropout)             (None, 36, 6, 6)     0           dense_2_0_conv2D[0][0]           
__________________________________________________________________________________________________
concatenate_7 (Concatenate)     (None, 121, 6, 6)    0           max_pooling2d_3[0][0]            
                                                                 dropout_7[0][0]                  
__________________________________________________________________________________________________
dense_2_1_bn (BatchNormalizatio (None, 121, 6, 6)    484         concatenate_7[0][0]              
__________________________________________________________________________________________________
activation_18 (Activation)      (None, 121, 6, 6)    0           dense_2_1_bn[0][0]               
__________________________________________________________________________________________________
dense_2_1_bottleneck_conv2D (Co (None, 144, 6, 6)    17424       activation_18[0][0]              
__________________________________________________________________________________________________
dense_2_1_bottleneck_bn (BatchN (None, 144, 6, 6)    576         dense_2_1_bottleneck_conv2D[0][0]
__________________________________________________________________________________________________
activation_19 (Activation)      (None, 144, 6, 6)    0           dense_2_1_bottleneck_bn[0][0]    
__________________________________________________________________________________________________
dense_2_1_conv2D (Conv2D)       (None, 36, 6, 6)     46656       activation_19[0][0]              
__________________________________________________________________________________________________
dropout_8 (Dropout)             (None, 36, 6, 6)     0           dense_2_1_conv2D[0][0]           
__________________________________________________________________________________________________
concatenate_8 (Concatenate)     (None, 157, 6, 6)    0           concatenate_7[0][0]              
                                                                 dropout_8[0][0]                  
__________________________________________________________________________________________________
dense_2_2_bn (BatchNormalizatio (None, 157, 6, 6)    628         concatenate_8[0][0]              
__________________________________________________________________________________________________
activation_20 (Activation)      (None, 157, 6, 6)    0           dense_2_2_bn[0][0]               
__________________________________________________________________________________________________
dense_2_2_bottleneck_conv2D (Co (None, 144, 6, 6)    22608       activation_20[0][0]              
__________________________________________________________________________________________________
dense_2_2_bottleneck_bn (BatchN (None, 144, 6, 6)    576         dense_2_2_bottleneck_conv2D[0][0]
__________________________________________________________________________________________________
activation_21 (Activation)      (None, 144, 6, 6)    0           dense_2_2_bottleneck_bn[0][0]    
__________________________________________________________________________________________________
dense_2_2_conv2D (Conv2D)       (None, 36, 6, 6)     46656       activation_21[0][0]              
__________________________________________________________________________________________________
dropout_9 (Dropout)             (None, 36, 6, 6)     0           dense_2_2_conv2D[0][0]           
__________________________________________________________________________________________________
concatenate_9 (Concatenate)     (None, 193, 6, 6)    0           concatenate_8[0][0]              
                                                                 dropout_9[0][0]                  
__________________________________________________________________________________________________
tr_2_bn (BatchNormalization)    (None, 193, 6, 6)    772         concatenate_9[0][0]              
__________________________________________________________________________________________________
activation_22 (Activation)      (None, 193, 6, 6)    0           tr_2_bn[0][0]                    
__________________________________________________________________________________________________
tr_2_conv2D (Conv2D)            (None, 96, 6, 6)     18528       activation_22[0][0]              
__________________________________________________________________________________________________
max_pooling2d_4 (MaxPooling2D)  (None, 96, 3, 3)     0           tr_2_conv2D[0][0]                
__________________________________________________________________________________________________
dense_3_0_bn (BatchNormalizatio (None, 96, 3, 3)     384         max_pooling2d_4[0][0]            
__________________________________________________________________________________________________
activation_23 (Activation)      (None, 96, 3, 3)     0           dense_3_0_bn[0][0]               
__________________________________________________________________________________________________
dense_3_0_bottleneck_conv2D (Co (None, 144, 3, 3)    13824       activation_23[0][0]              
__________________________________________________________________________________________________
dense_3_0_bottleneck_bn (BatchN (None, 144, 3, 3)    576         dense_3_0_bottleneck_conv2D[0][0]
__________________________________________________________________________________________________
activation_24 (Activation)      (None, 144, 3, 3)    0           dense_3_0_bottleneck_bn[0][0]    
__________________________________________________________________________________________________
dense_3_0_conv2D (Conv2D)       (None, 36, 3, 3)     46656       activation_24[0][0]              
__________________________________________________________________________________________________
dropout_10 (Dropout)            (None, 36, 3, 3)     0           dense_3_0_conv2D[0][0]           
__________________________________________________________________________________________________
concatenate_10 (Concatenate)    (None, 132, 3, 3)    0           max_pooling2d_4[0][0]            
                                                                 dropout_10[0][0]                 
__________________________________________________________________________________________________
dense_3_1_bn (BatchNormalizatio (None, 132, 3, 3)    528         concatenate_10[0][0]             
__________________________________________________________________________________________________
activation_25 (Activation)      (None, 132, 3, 3)    0           dense_3_1_bn[0][0]               
__________________________________________________________________________________________________
dense_3_1_bottleneck_conv2D (Co (None, 144, 3, 3)    19008       activation_25[0][0]              
__________________________________________________________________________________________________
dense_3_1_bottleneck_bn (BatchN (None, 144, 3, 3)    576         dense_3_1_bottleneck_conv2D[0][0]
__________________________________________________________________________________________________
activation_26 (Activation)      (None, 144, 3, 3)    0           dense_3_1_bottleneck_bn[0][0]    
__________________________________________________________________________________________________
dense_3_1_conv2D (Conv2D)       (None, 36, 3, 3)     46656       activation_26[0][0]              
__________________________________________________________________________________________________
dropout_11 (Dropout)            (None, 36, 3, 3)     0           dense_3_1_conv2D[0][0]           
__________________________________________________________________________________________________
concatenate_11 (Concatenate)    (None, 168, 3, 3)    0           concatenate_10[0][0]             
                                                                 dropout_11[0][0]                 
__________________________________________________________________________________________________
dense_3_2_bn (BatchNormalizatio (None, 168, 3, 3)    672         concatenate_11[0][0]             
__________________________________________________________________________________________________
activation_27 (Activation)      (None, 168, 3, 3)    0           dense_3_2_bn[0][0]               
__________________________________________________________________________________________________
dense_3_2_bottleneck_conv2D (Co (None, 144, 3, 3)    24192       activation_27[0][0]              
__________________________________________________________________________________________________
dense_3_2_bottleneck_bn (BatchN (None, 144, 3, 3)    576         dense_3_2_bottleneck_conv2D[0][0]
__________________________________________________________________________________________________
activation_28 (Activation)      (None, 144, 3, 3)    0           dense_3_2_bottleneck_bn[0][0]    
__________________________________________________________________________________________________
dense_3_2_conv2D (Conv2D)       (None, 36, 3, 3)     46656       activation_28[0][0]              
__________________________________________________________________________________________________
dropout_12 (Dropout)            (None, 36, 3, 3)     0           dense_3_2_conv2D[0][0]           
__________________________________________________________________________________________________
concatenate_12 (Concatenate)    (None, 204, 3, 3)    0           concatenate_11[0][0]             
                                                                 dropout_12[0][0]                 
__________________________________________________________________________________________________
final_bn (BatchNormalization)   (None, 204, 3, 3)    816         concatenate_12[0][0]             
__________________________________________________________________________________________________
activation_29 (Activation)      (None, 204, 3, 3)    0           final_bn[0][0]                   
__________________________________________________________________________________________________
flatten_1 (Flatten)             (None, 1836)         0           activation_29[0][0]              
==================================================================================================
Total params: 789,994
Trainable params: 782,706
Non-trainable params: 7,288
__________________________________________________________________________________________________
__________________________________________________________________________________________________
Layer (type)                    Output Shape         Param #     Connected to                     
==================================================================================================
input_2 (InputLayer)            (None, 1, 96, 96)    0                                            
__________________________________________________________________________________________________
input_3 (InputLayer)            (None, 1, 96, 96)    0                                            
__________________________________________________________________________________________________
densenet (Model)                (None, 1836)         789994      input_2[0][0]                    
                                                                 input_3[0][0]                    
__________________________________________________________________________________________________
merge_features (Concatenate)    (None, 3672)         0           densenet[1][0]                   
                                                                 densenet[2][0]                   
__________________________________________________________________________________________________
dense_1 (Dense)                 (None, 512)          1880576     merge_features[0][0]             
__________________________________________________________________________________________________
activation_30 (Activation)      (None, 512)          0           dense_1[0][0]                    
__________________________________________________________________________________________________
batch_normalization_1 (BatchNor (None, 512)          2048        activation_30[0][0]              
__________________________________________________________________________________________________
dropout_13 (Dropout)            (None, 512)          0           batch_normalization_1[0][0]      
__________________________________________________________________________________________________
dense_2 (Dense)                 (None, 1)            513         dropout_13[0][0]                 
==================================================================================================
Total params: 2,673,131
Trainable params: 2,664,819
Non-trainable params: 8,312
__________________________________________________________________________________________________
Finished compiling
Train on 31872 samples, validate on 7968 samples
Epoch 1/10
 - 154s - loss: 1.0536 - acc: 0.7027 - val_loss: 0.9772 - val_acc: 0.7075
…
------------------------ current config for the test -------------------------
Layers:  [4, 4, 4, 4]  Growth_rate:  24  nb_filter:  16  dropout:  0.2
dense_block  4  reduction_:  0.5  bottleneck:  True
------------------------	  end of configs        -------------------------
pooling:flatten
__________________________________________________________________________________________________
Layer (type)                    Output Shape         Param #     Connected to                     
==================================================================================================
input_1 (InputLayer)            (None, 1, 96, 96)    0                                            
__________________________________________________________________________________________________
initial_conv2D (Conv2D)         (None, 16, 48, 48)   784         input_1[0][0]                    
__________________________________________________________________________________________________
initial_bn (BatchNormalization) (None, 16, 48, 48)   64          initial_conv2D[0][0]             
__________________________________________________________________________________________________
activation_1 (Activation)       (None, 16, 48, 48)   0           initial_bn[0][0]                 
__________________________________________________________________________________________________
max_pooling2d_1 (MaxPooling2D)  (None, 16, 24, 24)   0           activation_1[0][0]               
__________________________________________________________________________________________________
dense_0_0_bn (BatchNormalizatio (None, 16, 24, 24)   64          max_pooling2d_1[0][0]            
__________________________________________________________________________________________________
activation_2 (Activation)       (None, 16, 24, 24)   0           dense_0_0_bn[0][0]               
__________________________________________________________________________________________________
dense_0_0_bottleneck_conv2D (Co (None, 96, 24, 24)   1536        activation_2[0][0]               
__________________________________________________________________________________________________
dense_0_0_bottleneck_bn (BatchN (None, 96, 24, 24)   384         dense_0_0_bottleneck_conv2D[0][0]
__________________________________________________________________________________________________
activation_3 (Activation)       (None, 96, 24, 24)   0           dense_0_0_bottleneck_bn[0][0]    
__________________________________________________________________________________________________
dense_0_0_conv2D (Conv2D)       (None, 24, 24, 24)   20736       activation_3[0][0]               
__________________________________________________________________________________________________
dropout_1 (Dropout)             (None, 24, 24, 24)   0           dense_0_0_conv2D[0][0]           
__________________________________________________________________________________________________
concatenate_1 (Concatenate)     (None, 40, 24, 24)   0           max_pooling2d_1[0][0]            
                                                                 dropout_1[0][0]                  
__________________________________________________________________________________________________
dense_0_1_bn (BatchNormalizatio (None, 40, 24, 24)   160         concatenate_1[0][0]              
__________________________________________________________________________________________________
activation_4 (Activation)       (None, 40, 24, 24)   0           dense_0_1_bn[0][0]               
__________________________________________________________________________________________________
dense_0_1_bottleneck_conv2D (Co (None, 96, 24, 24)   3840        activation_4[0][0]               
__________________________________________________________________________________________________
dense_0_1_bottleneck_bn (BatchN (None, 96, 24, 24)   384         dense_0_1_bottleneck_conv2D[0][0]
__________________________________________________________________________________________________
activation_5 (Activation)       (None, 96, 24, 24)   0           dense_0_1_bottleneck_bn[0][0]    
__________________________________________________________________________________________________
dense_0_1_conv2D (Conv2D)       (None, 24, 24, 24)   20736       activation_5[0][0]               
__________________________________________________________________________________________________
dropout_2 (Dropout)             (None, 24, 24, 24)   0           dense_0_1_conv2D[0][0]           
__________________________________________________________________________________________________
concatenate_2 (Concatenate)     (None, 64, 24, 24)   0           concatenate_1[0][0]              
                                                                 dropout_2[0][0]                  
__________________________________________________________________________________________________
…
==================================================================================================
input_2 (InputLayer)            (None, 1, 96, 96)    0                                            
__________________________________________________________________________________________________
input_3 (InputLayer)            (None, 1, 96, 96)    0                                            
__________________________________________________________________________________________________
densenet (Model)                (None, 3051)         1432795     input_2[0][0]                    
                                                                 input_3[0][0]                    
__________________________________________________________________________________________________
merge_features (Concatenate)    (None, 6102)         0           densenet[1][0]                   
                                                                 densenet[2][0]                   
__________________________________________________________________________________________________
dense_1 (Dense)                 (None, 512)          3124736     merge_features[0][0]             
__________________________________________________________________________________________________
activation_54 (Activation)      (None, 512)          0           dense_1[0][0]                    
__________________________________________________________________________________________________
batch_normalization_1 (BatchNor (None, 512)          2048        activation_54[0][0]              
__________________________________________________________________________________________________
dropout_25 (Dropout)            (None, 512)          0           batch_normalization_1[0][0]      
__________________________________________________________________________________________________
dense_2 (Dense)                 (None, 1)            513         dropout_25[0][0]                 
==================================================================================================
Total params: 4,560,092
Trainable params: 4,542,468
Non-trainable params: 17,624
__________________________________________________________________________________________________
Finished compiling
Train on 31872 samples, validate on 7968 samples
Epoch 1/10
…
------------------------ current config for the test -------------------------
Layers:  [6, 6, 6, 6]  Growth_rate:  36  nb_filter:  16  dropout:  0.2
dense_block  4  reduction_:  0.5  bottleneck:  True
------------------------	  end of configs        -------------------------
pooling:flatten
__________________________________________________________________________________________________
Layer (type)                    Output Shape         Param #     Connected to                     
==================================================================================================
input_1 (InputLayer)            (None, 1, 96, 96)    0                                            
__________________________________________________________________________________________________
initial_conv2D (Conv2D)         (None, 16, 48, 48)   784         input_1[0][0]                    
__________________________________________________________________________________________________
initial_bn (BatchNormalization) (None, 16, 48, 48)   64          initial_conv2D[0][0]             
__________________________________________________________________________________________________
activation_1 (Activation)       (None, 16, 48, 48)   0           initial_bn[0][0]                 
__________________________________________________________________________________________________
max_pooling2d_1 (MaxPooling2D)  (None, 16, 24, 24)   0           activation_1[0][0]               
__________________________________________________________________________________________________
dense_0_0_bn (BatchNormalizatio (None, 16, 24, 24)   64          max_pooling2d_1[0][0]            
__________________________________________________________________________________________________
activation_2 (Activation)       (None, 16, 24, 24)   0           dense_0_0_bn[0][0]               
__________________________________________________________________________________________________
dense_0_0_bottleneck_conv2D (Co (None, 144, 24, 24)  2304        activation_2[0][0]               
__________________________________________________________________________________________________
dense_0_0_bottleneck_bn (BatchN (None, 144, 24, 24)  576         dense_0_0_bottleneck_conv2D[0][0]
__________________________________________________________________________________________________
activation_3 (Activation)       (None, 144, 24, 24)  0           dense_0_0_bottleneck_bn[0][0]    
__________________________________________________________________________________________________
dense_0_0_conv2D (Conv2D)       (None, 36, 24, 24)   46656       activation_3[0][0]               
__________________________________________________________________________________________________
dropout_1 (Dropout)             (None, 36, 24, 24)   0           dense_0_0_conv2D[0][0]           
__________________________________________________________________________________________________
concatenate_1 (Concatenate)     (None, 52, 24, 24)   0           max_pooling2d_1[0][0]            
                                                                 dropout_1[0][0]                  
__________________________________________________________________________________________________
dense_0_1_bn (BatchNormalizatio (None, 52, 24, 24)   208         concatenate_1[0][0]              
__________________________________________________________________________________________________
activation_4 (Activation)       (None, 52, 24, 24)   0           dense_0_1_bn[0][0]               
__________________________________________________________________________________________________
dense_0_1_bottleneck_conv2D (Co (None, 144, 24, 24)  7488        activation_4[0][0]               
__________________________________________________________________________________________________
dense_0_1_bottleneck_bn (BatchN (None, 144, 24, 24)  576         dense_0_1_bottleneck_conv2D[0][0]
__________________________________________________________________________________________________
activation_5 (Activation)       (None, 144, 24, 24)  0           dense_0_1_bottleneck_bn[0][0]    
__________________________________________________________________________________________________
dense_0_1_conv2D (Conv2D)       (None, 36, 24, 24)   46656       activation_5[0][0]               
__________________________________________________________________________________________________
dropout_2 (Dropout)             (None, 36, 24, 24)   0           dense_0_1_conv2D[0][0]           
__________________________________________________________________________________________________
concatenate_2 (Concatenate)     (None, 88, 24, 24)   0           concatenate_1[0][0]              
                                                                 dropout_2[0][0]                  
__________________________________________________________________________________________________
dense_0_2_bn (BatchNormalizatio (None, 88, 24, 24)   352         concatenate_2[0][0]              
__________________________________________________________________________________________________
activation_6 (Activation)       (None, 88, 24, 24)   0           dense_0_2_bn[0][0]               
__________________________________________________________________________________________________
dense_0_2_bottleneck_conv2D (Co (None, 144, 24, 24)  12672       activation_6[0][0]               
__________________________________________________________________________________________________
dense_0_2_bottleneck_bn (BatchN (None, 144, 24, 24)  576         dense_0_2_bottleneck_conv2D[0][0]
__________________________________________________________________________________________________
activation_7 (Activation)       (None, 144, 24, 24)  0           dense_0_2_bottleneck_bn[0][0]    
__________________________________________________________________________________________________
dense_0_2_conv2D (Conv2D)       (None, 36, 24, 24)   46656       activation_7[0][0]               
__________________________________________________________________________________________________
dropout_3 (Dropout)             (None, 36, 24, 24)   0           dense_0_2_conv2D[0][0]           
__________________________________________________________________________________________________
concatenate_3 (Concatenate)     (None, 124, 24, 24)  0           concatenate_2[0][0]              
                                                                 dropout_3[0][0]                  
__________________________________________________________________________________________________
dense_0_3_bn (BatchNormalizatio (None, 124, 24, 24)  496         concatenate_3[0][0]              
__________________________________________________________________________________________________
activation_8 (Activation)       (None, 124, 24, 24)  0           dense_0_3_bn[0][0]               
__________________________________________________________________________________________________
dense_0_3_bottleneck_conv2D (Co (None, 144, 24, 24)  17856       activation_8[0][0]               
__________________________________________________________________________________________________
dense_0_3_bottleneck_bn (BatchN (None, 144, 24, 24)  576         dense_0_3_bottleneck_conv2D[0][0]
__________________________________________________________________________________________________
activation_9 (Activation)       (None, 144, 24, 24)  0           dense_0_3_bottleneck_bn[0][0]    
__________________________________________________________________________________________________
dense_0_3_conv2D (Conv2D)       (None, 36, 24, 24)   46656       activation_9[0][0]               
__________________________________________________________________________________________________
dropout_4 (Dropout)             (None, 36, 24, 24)   0           dense_0_3_conv2D[0][0]           
__________________________________________________________________________________________________
concatenate_4 (Concatenate)     (None, 160, 24, 24)  0           concatenate_3[0][0]              
                                                                 dropout_4[0][0]                  
__________________________________________________________________________________________________
dense_0_4_bn (BatchNormalizatio (None, 160, 24, 24)  640         concatenate_4[0][0]              
__________________________________________________________________________________________________
activation_10 (Activation)      (None, 160, 24, 24)  0           dense_0_4_bn[0][0]               
__________________________________________________________________________________________________
dense_0_4_bottleneck_conv2D (Co (None, 144, 24, 24)  23040       activation_10[0][0]              
__________________________________________________________________________________________________
dense_0_4_bottleneck_bn (BatchN (None, 144, 24, 24)  576         dense_0_4_bottleneck_conv2D[0][0]
__________________________________________________________________________________________________
activation_11 (Activation)      (None, 144, 24, 24)  0           dense_0_4_bottleneck_bn[0][0]    
__________________________________________________________________________________________________
dense_0_4_conv2D (Conv2D)       (None, 36, 24, 24)   46656       activation_11[0][0]              
__________________________________________________________________________________________________
dropout_5 (Dropout)             (None, 36, 24, 24)   0           dense_0_4_conv2D[0][0]           
__________________________________________________________________________________________________
concatenate_5 (Concatenate)     (None, 196, 24, 24)  0           concatenate_4[0][0]              
                                                                 dropout_5[0][0]                  
__________________________________________________________________________________________________
dense_0_5_bn (BatchNormalizatio (None, 196, 24, 24)  784         concatenate_5[0][0]              
__________________________________________________________________________________________________
activation_12 (Activation)      (None, 196, 24, 24)  0           dense_0_5_bn[0][0]               
__________________________________________________________________________________________________
dense_0_5_bottleneck_conv2D (Co (None, 144, 24, 24)  28224       activation_12[0][0]              
__________________________________________________________________________________________________
dense_0_5_bottleneck_bn (BatchN (None, 144, 24, 24)  576         dense_0_5_bottleneck_conv2D[0][0]
__________________________________________________________________________________________________
activation_13 (Activation)      (None, 144, 24, 24)  0           dense_0_5_bottleneck_bn[0][0]    
__________________________________________________________________________________________________
dense_0_5_conv2D (Conv2D)       (None, 36, 24, 24)   46656       activation_13[0][0]              
__________________________________________________________________________________________________
dropout_6 (Dropout)             (None, 36, 24, 24)   0           dense_0_5_conv2D[0][0]           
__________________________________________________________________________________________________
concatenate_6 (Concatenate)     (None, 232, 24, 24)  0           concatenate_5[0][0]              
                                                                 dropout_6[0][0]                  
__________________________________________________________________________________________________
tr_0_bn (BatchNormalization)    (None, 232, 24, 24)  928         concatenate_6[0][0]              
__________________________________________________________________________________________________
activation_14 (Activation)      (None, 232, 24, 24)  0           tr_0_bn[0][0]                    
__________________________________________________________________________________________________
tr_0_conv2D (Conv2D)            (None, 116, 24, 24)  26912       activation_14[0][0]              
__________________________________________________________________________________________________
max_pooling2d_2 (MaxPooling2D)  (None, 116, 12, 12)  0           tr_0_conv2D[0][0]                
__________________________________________________________________________________________________
dense_1_0_bn (BatchNormalizatio (None, 116, 12, 12)  464         max_pooling2d_2[0][0]            
__________________________________________________________________________________________________
activation_15 (Activation)      (None, 116, 12, 12)  0           dense_1_0_bn[0][0]               
__________________________________________________________________________________________________
dense_1_0_bottleneck_conv2D (Co (None, 144, 12, 12)  16704       activation_15[0][0]              
__________________________________________________________________________________________________
dense_1_0_bottleneck_bn (BatchN (None, 144, 12, 12)  576         dense_1_0_bottleneck_conv2D[0][0]
__________________________________________________________________________________________________
activation_16 (Activation)      (None, 144, 12, 12)  0           dense_1_0_bottleneck_bn[0][0]    
__________________________________________________________________________________________________
dense_1_0_conv2D (Conv2D)       (None, 36, 12, 12)   46656       activation_16[0][0]              
__________________________________________________________________________________________________
dropout_7 (Dropout)             (None, 36, 12, 12)   0           dense_1_0_conv2D[0][0]           
__________________________________________________________________________________________________
concatenate_7 (Concatenate)     (None, 152, 12, 12)  0           max_pooling2d_2[0][0]            
                                                                 dropout_7[0][0]                  
__________________________________________________________________________________________________
dense_1_1_bn (BatchNormalizatio (None, 152, 12, 12)  608         concatenate_7[0][0]              
__________________________________________________________________________________________________
activation_17 (Activation)      (None, 152, 12, 12)  0           dense_1_1_bn[0][0]               
__________________________________________________________________________________________________
dense_1_1_bottleneck_conv2D (Co (None, 144, 12, 12)  21888       activation_17[0][0]              
__________________________________________________________________________________________________
dense_1_1_bottleneck_bn (BatchN (None, 144, 12, 12)  576         dense_1_1_bottleneck_conv2D[0][0]
__________________________________________________________________________________________________
activation_18 (Activation)      (None, 144, 12, 12)  0           dense_1_1_bottleneck_bn[0][0]    
__________________________________________________________________________________________________
dense_1_1_conv2D (Conv2D)       (None, 36, 12, 12)   46656       activation_18[0][0]              
__________________________________________________________________________________________________
dropout_8 (Dropout)             (None, 36, 12, 12)   0           dense_1_1_conv2D[0][0]           
__________________________________________________________________________________________________
concatenate_8 (Concatenate)     (None, 188, 12, 12)  0           concatenate_7[0][0]              
                                                                 dropout_8[0][0]                  
__________________________________________________________________________________________________
dense_1_2_bn (BatchNormalizatio (None, 188, 12, 12)  752         concatenate_8[0][0]              
__________________________________________________________________________________________________
activation_19 (Activation)      (None, 188, 12, 12)  0           dense_1_2_bn[0][0]               
__________________________________________________________________________________________________
dense_1_2_bottleneck_conv2D (Co (None, 144, 12, 12)  27072       activation_19[0][0]              
__________________________________________________________________________________________________
dense_1_2_bottleneck_bn (BatchN (None, 144, 12, 12)  576         dense_1_2_bottleneck_conv2D[0][0]
__________________________________________________________________________________________________
activation_20 (Activation)      (None, 144, 12, 12)  0           dense_1_2_bottleneck_bn[0][0]    
__________________________________________________________________________________________________
dense_1_2_conv2D (Conv2D)       (None, 36, 12, 12)   46656       activation_20[0][0]              
__________________________________________________________________________________________________
dropout_9 (Dropout)             (None, 36, 12, 12)   0           dense_1_2_conv2D[0][0]           
__________________________________________________________________________________________________
concatenate_9 (Concatenate)     (None, 224, 12, 12)  0           concatenate_8[0][0]              
                                                                 dropout_9[0][0]                  
__________________________________________________________________________________________________
dense_1_3_bn (BatchNormalizatio (None, 224, 12, 12)  896         concatenate_9[0][0]              
__________________________________________________________________________________________________
activation_21 (Activation)      (None, 224, 12, 12)  0           dense_1_3_bn[0][0]               
__________________________________________________________________________________________________
dense_1_3_bottleneck_conv2D (Co (None, 144, 12, 12)  32256       activation_21[0][0]              
__________________________________________________________________________________________________
dense_1_3_bottleneck_bn (BatchN (None, 144, 12, 12)  576         dense_1_3_bottleneck_conv2D[0][0]
__________________________________________________________________________________________________
activation_22 (Activation)      (None, 144, 12, 12)  0           dense_1_3_bottleneck_bn[0][0]    
__________________________________________________________________________________________________
dense_1_3_conv2D (Conv2D)       (None, 36, 12, 12)   46656       activation_22[0][0]              
__________________________________________________________________________________________________
dropout_10 (Dropout)            (None, 36, 12, 12)   0           dense_1_3_conv2D[0][0]           
__________________________________________________________________________________________________
concatenate_10 (Concatenate)    (None, 260, 12, 12)  0           concatenate_9[0][0]              
                                                                 dropout_10[0][0]                 
__________________________________________________________________________________________________
dense_1_4_bn (BatchNormalizatio (None, 260, 12, 12)  1040        concatenate_10[0][0]             
__________________________________________________________________________________________________
activation_23 (Activation)      (None, 260, 12, 12)  0           dense_1_4_bn[0][0]               
__________________________________________________________________________________________________
dense_1_4_bottleneck_conv2D (Co (None, 144, 12, 12)  37440       activation_23[0][0]              
__________________________________________________________________________________________________
dense_1_4_bottleneck_bn (BatchN (None, 144, 12, 12)  576         dense_1_4_bottleneck_conv2D[0][0]
__________________________________________________________________________________________________
activation_24 (Activation)      (None, 144, 12, 12)  0           dense_1_4_bottleneck_bn[0][0]    
__________________________________________________________________________________________________
dense_1_4_conv2D (Conv2D)       (None, 36, 12, 12)   46656       activation_24[0][0]              
__________________________________________________________________________________________________
dropout_11 (Dropout)            (None, 36, 12, 12)   0           dense_1_4_conv2D[0][0]           
__________________________________________________________________________________________________
concatenate_11 (Concatenate)    (None, 296, 12, 12)  0           concatenate_10[0][0]             
                                                                 dropout_11[0][0]                 
__________________________________________________________________________________________________
dense_1_5_bn (BatchNormalizatio (None, 296, 12, 12)  1184        concatenate_11[0][0]             
__________________________________________________________________________________________________
activation_25 (Activation)      (None, 296, 12, 12)  0           dense_1_5_bn[0][0]               
__________________________________________________________________________________________________
dense_1_5_bottleneck_conv2D (Co (None, 144, 12, 12)  42624       activation_25[0][0]              
__________________________________________________________________________________________________
dense_1_5_bottleneck_bn (BatchN (None, 144, 12, 12)  576         dense_1_5_bottleneck_conv2D[0][0]
__________________________________________________________________________________________________
activation_26 (Activation)      (None, 144, 12, 12)  0           dense_1_5_bottleneck_bn[0][0]    
__________________________________________________________________________________________________
dense_1_5_conv2D (Conv2D)       (None, 36, 12, 12)   46656       activation_26[0][0]              
__________________________________________________________________________________________________
dropout_12 (Dropout)            (None, 36, 12, 12)   0           dense_1_5_conv2D[0][0]           
__________________________________________________________________________________________________
concatenate_12 (Concatenate)    (None, 332, 12, 12)  0           concatenate_11[0][0]             
                                                                 dropout_12[0][0]                 
__________________________________________________________________________________________________
tr_1_bn (BatchNormalization)    (None, 332, 12, 12)  1328        concatenate_12[0][0]             
__________________________________________________________________________________________________
activation_27 (Activation)      (None, 332, 12, 12)  0           tr_1_bn[0][0]                    
__________________________________________________________________________________________________
tr_1_conv2D (Conv2D)            (None, 166, 12, 12)  55112       activation_27[0][0]              
__________________________________________________________________________________________________
max_pooling2d_3 (MaxPooling2D)  (None, 166, 6, 6)    0           tr_1_conv2D[0][0]                
__________________________________________________________________________________________________
dense_2_0_bn (BatchNormalizatio (None, 166, 6, 6)    664         max_pooling2d_3[0][0]            
__________________________________________________________________________________________________
activation_28 (Activation)      (None, 166, 6, 6)    0           dense_2_0_bn[0][0]               
__________________________________________________________________________________________________
dense_2_0_bottleneck_conv2D (Co (None, 144, 6, 6)    23904       activation_28[0][0]              
__________________________________________________________________________________________________
dense_2_0_bottleneck_bn (BatchN (None, 144, 6, 6)    576         dense_2_0_bottleneck_conv2D[0][0]
__________________________________________________________________________________________________
activation_29 (Activation)      (None, 144, 6, 6)    0           dense_2_0_bottleneck_bn[0][0]    
__________________________________________________________________________________________________
dense_2_0_conv2D (Conv2D)       (None, 36, 6, 6)     46656       activation_29[0][0]              
__________________________________________________________________________________________________
dropout_13 (Dropout)            (None, 36, 6, 6)     0           dense_2_0_conv2D[0][0]           
__________________________________________________________________________________________________
concatenate_13 (Concatenate)    (None, 202, 6, 6)    0           max_pooling2d_3[0][0]            
                                                                 dropout_13[0][0]                 
__________________________________________________________________________________________________
dense_2_1_bn (BatchNormalizatio (None, 202, 6, 6)    808         concatenate_13[0][0]             
__________________________________________________________________________________________________
activation_30 (Activation)      (None, 202, 6, 6)    0           dense_2_1_bn[0][0]               
__________________________________________________________________________________________________
dense_2_1_bottleneck_conv2D (Co (None, 144, 6, 6)    29088       activation_30[0][0]              
__________________________________________________________________________________________________
dense_2_1_bottleneck_bn (BatchN (None, 144, 6, 6)    576         dense_2_1_bottleneck_conv2D[0][0]
__________________________________________________________________________________________________
activation_31 (Activation)      (None, 144, 6, 6)    0           dense_2_1_bottleneck_bn[0][0]    
__________________________________________________________________________________________________
dense_2_1_conv2D (Conv2D)       (None, 36, 6, 6)     46656       activation_31[0][0]              
__________________________________________________________________________________________________
dropout_14 (Dropout)            (None, 36, 6, 6)     0           dense_2_1_conv2D[0][0]           
__________________________________________________________________________________________________
concatenate_14 (Concatenate)    (None, 238, 6, 6)    0           concatenate_13[0][0]             
                                                                 dropout_14[0][0]                 
__________________________________________________________________________________________________
dense_2_2_bn (BatchNormalizatio (None, 238, 6, 6)    952         concatenate_14[0][0]             
__________________________________________________________________________________________________
activation_32 (Activation)      (None, 238, 6, 6)    0           dense_2_2_bn[0][0]               
__________________________________________________________________________________________________
dense_2_2_bottleneck_conv2D (Co (None, 144, 6, 6)    34272       activation_32[0][0]              
__________________________________________________________________________________________________
dense_2_2_bottleneck_bn (BatchN (None, 144, 6, 6)    576         dense_2_2_bottleneck_conv2D[0][0]
__________________________________________________________________________________________________
activation_33 (Activation)      (None, 144, 6, 6)    0           dense_2_2_bottleneck_bn[0][0]    
__________________________________________________________________________________________________
dense_2_2_conv2D (Conv2D)       (None, 36, 6, 6)     46656       activation_33[0][0]              
__________________________________________________________________________________________________
dropout_15 (Dropout)            (None, 36, 6, 6)     0           dense_2_2_conv2D[0][0]           
__________________________________________________________________________________________________
concatenate_15 (Concatenate)    (None, 274, 6, 6)    0           concatenate_14[0][0]             
                                                                 dropout_15[0][0]                 
__________________________________________________________________________________________________
dense_2_3_bn (BatchNormalizatio (None, 274, 6, 6)    1096        concatenate_15[0][0]             
__________________________________________________________________________________________________
activation_34 (Activation)      (None, 274, 6, 6)    0           dense_2_3_bn[0][0]               
__________________________________________________________________________________________________
dense_2_3_bottleneck_conv2D (Co (None, 144, 6, 6)    39456       activation_34[0][0]              
__________________________________________________________________________________________________
dense_2_3_bottleneck_bn (BatchN (None, 144, 6, 6)    576         dense_2_3_bottleneck_conv2D[0][0]
__________________________________________________________________________________________________
activation_35 (Activation)      (None, 144, 6, 6)    0           dense_2_3_bottleneck_bn[0][0]    
__________________________________________________________________________________________________
dense_2_3_conv2D (Conv2D)       (None, 36, 6, 6)     46656       activation_35[0][0]              
__________________________________________________________________________________________________
dropout_16 (Dropout)            (None, 36, 6, 6)     0           dense_2_3_conv2D[0][0]           
__________________________________________________________________________________________________
concatenate_16 (Concatenate)    (None, 310, 6, 6)    0           concatenate_15[0][0]             
                                                                 dropout_16[0][0]                 
__________________________________________________________________________________________________
dense_2_4_bn (BatchNormalizatio (None, 310, 6, 6)    1240        concatenate_16[0][0]             
__________________________________________________________________________________________________
activation_36 (Activation)      (None, 310, 6, 6)    0           dense_2_4_bn[0][0]               
__________________________________________________________________________________________________
dense_2_4_bottleneck_conv2D (Co (None, 144, 6, 6)    44640       activation_36[0][0]              
__________________________________________________________________________________________________
dense_2_4_bottleneck_bn (BatchN (None, 144, 6, 6)    576         dense_2_4_bottleneck_conv2D[0][0]
__________________________________________________________________________________________________
activation_37 (Activation)      (None, 144, 6, 6)    0           dense_2_4_bottleneck_bn[0][0]    
__________________________________________________________________________________________________
dense_2_4_conv2D (Conv2D)       (None, 36, 6, 6)     46656       activation_37[0][0]              
__________________________________________________________________________________________________
dropout_17 (Dropout)            (None, 36, 6, 6)     0           dense_2_4_conv2D[0][0]           
__________________________________________________________________________________________________
concatenate_17 (Concatenate)    (None, 346, 6, 6)    0           concatenate_16[0][0]             
                                                                 dropout_17[0][0]                 
__________________________________________________________________________________________________
dense_2_5_bn (BatchNormalizatio (None, 346, 6, 6)    1384        concatenate_17[0][0]             
__________________________________________________________________________________________________
activation_38 (Activation)      (None, 346, 6, 6)    0           dense_2_5_bn[0][0]               
__________________________________________________________________________________________________
dense_2_5_bottleneck_conv2D (Co (None, 144, 6, 6)    49824       activation_38[0][0]              
__________________________________________________________________________________________________
dense_2_5_bottleneck_bn (BatchN (None, 144, 6, 6)    576         dense_2_5_bottleneck_conv2D[0][0]
__________________________________________________________________________________________________
activation_39 (Activation)      (None, 144, 6, 6)    0           dense_2_5_bottleneck_bn[0][0]    
__________________________________________________________________________________________________
dense_2_5_conv2D (Conv2D)       (None, 36, 6, 6)     46656       activation_39[0][0]              
__________________________________________________________________________________________________
dropout_18 (Dropout)            (None, 36, 6, 6)     0           dense_2_5_conv2D[0][0]           
__________________________________________________________________________________________________
concatenate_18 (Concatenate)    (None, 382, 6, 6)    0           concatenate_17[0][0]             
                                                                 dropout_18[0][0]                 
__________________________________________________________________________________________________
tr_2_bn (BatchNormalization)    (None, 382, 6, 6)    1528        concatenate_18[0][0]             
__________________________________________________________________________________________________
activation_40 (Activation)      (None, 382, 6, 6)    0           tr_2_bn[0][0]                    
__________________________________________________________________________________________________
tr_2_conv2D (Conv2D)            (None, 191, 6, 6)    72962       activation_40[0][0]              
__________________________________________________________________________________________________
max_pooling2d_4 (MaxPooling2D)  (None, 191, 3, 3)    0           tr_2_conv2D[0][0]                
__________________________________________________________________________________________________
dense_3_0_bn (BatchNormalizatio (None, 191, 3, 3)    764         max_pooling2d_4[0][0]            
__________________________________________________________________________________________________
activation_41 (Activation)      (None, 191, 3, 3)    0           dense_3_0_bn[0][0]               
__________________________________________________________________________________________________
dense_3_0_bottleneck_conv2D (Co (None, 144, 3, 3)    27504       activation_41[0][0]              
__________________________________________________________________________________________________
dense_3_0_bottleneck_bn (BatchN (None, 144, 3, 3)    576         dense_3_0_bottleneck_conv2D[0][0]
__________________________________________________________________________________________________
activation_42 (Activation)      (None, 144, 3, 3)    0           dense_3_0_bottleneck_bn[0][0]    
__________________________________________________________________________________________________
dense_3_0_conv2D (Conv2D)       (None, 36, 3, 3)     46656       activation_42[0][0]              
__________________________________________________________________________________________________
dropout_19 (Dropout)            (None, 36, 3, 3)     0           dense_3_0_conv2D[0][0]           
__________________________________________________________________________________________________
concatenate_19 (Concatenate)    (None, 227, 3, 3)    0           max_pooling2d_4[0][0]            
                                                                 dropout_19[0][0]                 
__________________________________________________________________________________________________
dense_3_1_bn (BatchNormalizatio (None, 227, 3, 3)    908         concatenate_19[0][0]             
__________________________________________________________________________________________________
activation_43 (Activation)      (None, 227, 3, 3)    0           dense_3_1_bn[0][0]               
__________________________________________________________________________________________________
dense_3_1_bottleneck_conv2D (Co (None, 144, 3, 3)    32688       activation_43[0][0]              
__________________________________________________________________________________________________
dense_3_1_bottleneck_bn (BatchN (None, 144, 3, 3)    576         dense_3_1_bottleneck_conv2D[0][0]
__________________________________________________________________________________________________
activation_44 (Activation)      (None, 144, 3, 3)    0           dense_3_1_bottleneck_bn[0][0]    
__________________________________________________________________________________________________
dense_3_1_conv2D (Conv2D)       (None, 36, 3, 3)     46656       activation_44[0][0]              
__________________________________________________________________________________________________
dropout_20 (Dropout)            (None, 36, 3, 3)     0           dense_3_1_conv2D[0][0]           
__________________________________________________________________________________________________
concatenate_20 (Concatenate)    (None, 263, 3, 3)    0           concatenate_19[0][0]             
                                                                 dropout_20[0][0]                 
__________________________________________________________________________________________________
dense_3_2_bn (BatchNormalizatio (None, 263, 3, 3)    1052        concatenate_20[0][0]             
__________________________________________________________________________________________________
activation_45 (Activation)      (None, 263, 3, 3)    0           dense_3_2_bn[0][0]               
__________________________________________________________________________________________________
dense_3_2_bottleneck_conv2D (Co (None, 144, 3, 3)    37872       activation_45[0][0]              
__________________________________________________________________________________________________
dense_3_2_bottleneck_bn (BatchN (None, 144, 3, 3)    576         dense_3_2_bottleneck_conv2D[0][0]
__________________________________________________________________________________________________
activation_46 (Activation)      (None, 144, 3, 3)    0           dense_3_2_bottleneck_bn[0][0]    
__________________________________________________________________________________________________
dense_3_2_conv2D (Conv2D)       (None, 36, 3, 3)     46656       activation_46[0][0]              
__________________________________________________________________________________________________
dropout_21 (Dropout)            (None, 36, 3, 3)     0           dense_3_2_conv2D[0][0]           
__________________________________________________________________________________________________
concatenate_21 (Concatenate)    (None, 299, 3, 3)    0           concatenate_20[0][0]             
                                                                 dropout_21[0][0]                 
__________________________________________________________________________________________________
dense_3_3_bn (BatchNormalizatio (None, 299, 3, 3)    1196        concatenate_21[0][0]             
__________________________________________________________________________________________________
activation_47 (Activation)      (None, 299, 3, 3)    0           dense_3_3_bn[0][0]               
__________________________________________________________________________________________________
dense_3_3_bottleneck_conv2D (Co (None, 144, 3, 3)    43056       activation_47[0][0]              
__________________________________________________________________________________________________
dense_3_3_bottleneck_bn (BatchN (None, 144, 3, 3)    576         dense_3_3_bottleneck_conv2D[0][0]
__________________________________________________________________________________________________
activation_48 (Activation)      (None, 144, 3, 3)    0           dense_3_3_bottleneck_bn[0][0]    
__________________________________________________________________________________________________
dense_3_3_conv2D (Conv2D)       (None, 36, 3, 3)     46656       activation_48[0][0]              
__________________________________________________________________________________________________
dropout_22 (Dropout)            (None, 36, 3, 3)     0           dense_3_3_conv2D[0][0]           
__________________________________________________________________________________________________
concatenate_22 (Concatenate)    (None, 335, 3, 3)    0           concatenate_21[0][0]             
                                                                 dropout_22[0][0]                 
__________________________________________________________________________________________________
dense_3_4_bn (BatchNormalizatio (None, 335, 3, 3)    1340        concatenate_22[0][0]             
__________________________________________________________________________________________________
activation_49 (Activation)      (None, 335, 3, 3)    0           dense_3_4_bn[0][0]               
__________________________________________________________________________________________________
dense_3_4_bottleneck_conv2D (Co (None, 144, 3, 3)    48240       activation_49[0][0]              
__________________________________________________________________________________________________
dense_3_4_bottleneck_bn (BatchN (None, 144, 3, 3)    576         dense_3_4_bottleneck_conv2D[0][0]
__________________________________________________________________________________________________
activation_50 (Activation)      (None, 144, 3, 3)    0           dense_3_4_bottleneck_bn[0][0]    
__________________________________________________________________________________________________
dense_3_4_conv2D (Conv2D)       (None, 36, 3, 3)     46656       activation_50[0][0]              
__________________________________________________________________________________________________
dropout_23 (Dropout)            (None, 36, 3, 3)     0           dense_3_4_conv2D[0][0]           
__________________________________________________________________________________________________
concatenate_23 (Concatenate)    (None, 371, 3, 3)    0           concatenate_22[0][0]             
                                                                 dropout_23[0][0]                 
__________________________________________________________________________________________________
dense_3_5_bn (BatchNormalizatio (None, 371, 3, 3)    1484        concatenate_23[0][0]             
__________________________________________________________________________________________________
activation_51 (Activation)      (None, 371, 3, 3)    0           dense_3_5_bn[0][0]               
__________________________________________________________________________________________________
dense_3_5_bottleneck_conv2D (Co (None, 144, 3, 3)    53424       activation_51[0][0]              
__________________________________________________________________________________________________
dense_3_5_bottleneck_bn (BatchN (None, 144, 3, 3)    576         dense_3_5_bottleneck_conv2D[0][0]
__________________________________________________________________________________________________
activation_52 (Activation)      (None, 144, 3, 3)    0           dense_3_5_bottleneck_bn[0][0]    
__________________________________________________________________________________________________
dense_3_5_conv2D (Conv2D)       (None, 36, 3, 3)     46656       activation_52[0][0]              
__________________________________________________________________________________________________
dropout_24 (Dropout)            (None, 36, 3, 3)     0           dense_3_5_conv2D[0][0]           
__________________________________________________________________________________________________
concatenate_24 (Concatenate)    (None, 407, 3, 3)    0           concatenate_23[0][0]             
                                                                 dropout_24[0][0]                 
__________________________________________________________________________________________________
final_bn (BatchNormalization)   (None, 407, 3, 3)    1628        concatenate_24[0][0]             
__________________________________________________________________________________________________
activation_53 (Activation)      (None, 407, 3, 3)    0           final_bn[0][0]                   
__________________________________________________________________________________________________
flatten_1 (Flatten)             (None, 3663)         0           activation_53[0][0]              
==================================================================================================
Total params: 2,048,726
Trainable params: 2,028,888
Non-trainable params: 19,838
__________________________________________________________________________________________________
__________________________________________________________________________________________________
Layer (type)                    Output Shape         Param #     Connected to                     
==================================================================================================
input_2 (InputLayer)            (None, 1, 96, 96)    0                                            
__________________________________________________________________________________________________
input_3 (InputLayer)            (None, 1, 96, 96)    0                                            
__________________________________________________________________________________________________
densenet (Model)                (None, 3663)         2048726     input_2[0][0]                    
                                                                 input_3[0][0]                    
__________________________________________________________________________________________________
merge_features (Concatenate)    (None, 7326)         0           densenet[1][0]                   
                                                                 densenet[2][0]                   
__________________________________________________________________________________________________
dense_1 (Dense)                 (None, 512)          3751424     merge_features[0][0]             
__________________________________________________________________________________________________
activation_54 (Activation)      (None, 512)          0           dense_1[0][0]                    
__________________________________________________________________________________________________
batch_normalization_1 (BatchNor (None, 512)          2048        activation_54[0][0]              
__________________________________________________________________________________________________
dropout_25 (Dropout)            (None, 512)          0           batch_normalization_1[0][0]      
__________________________________________________________________________________________________
dense_2 (Dense)                 (None, 1)            513         dropout_25[0][0]                 
==================================================================================================
Total params: 5,802,711
Trainable params: 5,781,849
Non-trainable params: 20,862
__________________________________________________________________________________________________
Finished compiling
Train on 31872 samples, validate on 7968 samples
Epoch 1/10
…
