…
  58:     print('Best saved model Test accuracy:', acc)
  59:     pred = model.predict(X_test)
  60:     auc_score = roc_auc_score(y_test,pred)
  61:     print("best saved model auc_score ------------------> ",auc_score)
  62: 
  63:     
  64:     return {'loss': -auc_score, 'status': STATUS_OK, 'model': model}  
  65: 
__________________________________________________________________________________________________
Layer (type)                    Output Shape         Param #     Connected to                     
==================================================================================================
input_1 (InputLayer)            (None, 2, 96, 96)    0                                            
__________________________________________________________________________________________________
initial_conv2D (Conv2D)         (None, 32, 96, 96)   576         input_1[0][0]                    
__________________________________________________________________________________________________
dense_0_0_bn (BatchNormalizatio (None, 32, 96, 96)   128         initial_conv2D[0][0]             
__________________________________________________________________________________________________
activation_1 (Activation)       (None, 32, 96, 96)   0           dense_0_0_bn[0][0]               
__________________________________________________________________________________________________
dense_0_0_bottleneck_conv2D (Co (None, 64, 96, 96)   2048        activation_1[0][0]               
__________________________________________________________________________________________________
dense_0_0_bottleneck_bn (BatchN (None, 64, 96, 96)   256         dense_0_0_bottleneck_conv2D[0][0]
__________________________________________________________________________________________________
activation_2 (Activation)       (None, 64, 96, 96)   0           dense_0_0_bottleneck_bn[0][0]    
__________________________________________________________________________________________________
dense_0_0_conv2D (Conv2D)       (None, 16, 96, 96)   9216        activation_2[0][0]               
__________________________________________________________________________________________________
concatenate_1 (Concatenate)     (None, 48, 96, 96)   0           initial_conv2D[0][0]             
                                                                 dense_0_0_conv2D[0][0]           
__________________________________________________________________________________________________
dense_0_1_bn (BatchNormalizatio (None, 48, 96, 96)   192         concatenate_1[0][0]              
__________________________________________________________________________________________________
activation_3 (Activation)       (None, 48, 96, 96)   0           dense_0_1_bn[0][0]               
__________________________________________________________________________________________________
dense_0_1_bottleneck_conv2D (Co (None, 64, 96, 96)   3072        activation_3[0][0]               
__________________________________________________________________________________________________
dense_0_1_bottleneck_bn (BatchN (None, 64, 96, 96)   256         dense_0_1_bottleneck_conv2D[0][0]
__________________________________________________________________________________________________
activation_4 (Activation)       (None, 64, 96, 96)   0           dense_0_1_bottleneck_bn[0][0]    
__________________________________________________________________________________________________
dense_0_1_conv2D (Conv2D)       (None, 16, 96, 96)   9216        activation_4[0][0]               
__________________________________________________________________________________________________
concatenate_2 (Concatenate)     (None, 64, 96, 96)   0           concatenate_1[0][0]              
                                                                 dense_0_1_conv2D[0][0]           
__________________________________________________________________________________________________
dense_0_2_bn (BatchNormalizatio (None, 64, 96, 96)   256         concatenate_2[0][0]              
__________________________________________________________________________________________________
activation_5 (Activation)       (None, 64, 96, 96)   0           dense_0_2_bn[0][0]               
__________________________________________________________________________________________________
dense_0_2_bottleneck_conv2D (Co (None, 64, 96, 96)   4096        activation_5[0][0]               
__________________________________________________________________________________________________
dense_0_2_bottleneck_bn (BatchN (None, 64, 96, 96)   256         dense_0_2_bottleneck_conv2D[0][0]
__________________________________________________________________________________________________
activation_6 (Activation)       (None, 64, 96, 96)   0           dense_0_2_bottleneck_bn[0][0]    
__________________________________________________________________________________________________
dense_0_2_conv2D (Conv2D)       (None, 16, 96, 96)   9216        activation_6[0][0]               
__________________________________________________________________________________________________
concatenate_3 (Concatenate)     (None, 80, 96, 96)   0           concatenate_2[0][0]              
                                                                 dense_0_2_conv2D[0][0]           
__________________________________________________________________________________________________
tr_0_bn (BatchNormalization)    (None, 80, 96, 96)   320         concatenate_3[0][0]              
__________________________________________________________________________________________________
activation_7 (Activation)       (None, 80, 96, 96)   0           tr_0_bn[0][0]                    
__________________________________________________________________________________________________
tr_0_conv2D (Conv2D)            (None, 40, 96, 96)   3200        activation_7[0][0]               
__________________________________________________________________________________________________
average_pooling2d_1 (AveragePoo (None, 40, 48, 48)   0           tr_0_conv2D[0][0]                
__________________________________________________________________________________________________
dense_1_0_bn (BatchNormalizatio (None, 40, 48, 48)   160         average_pooling2d_1[0][0]        
__________________________________________________________________________________________________
activation_8 (Activation)       (None, 40, 48, 48)   0           dense_1_0_bn[0][0]               
__________________________________________________________________________________________________
dense_1_0_bottleneck_conv2D (Co (None, 64, 48, 48)   2560        activation_8[0][0]               
__________________________________________________________________________________________________
dense_1_0_bottleneck_bn (BatchN (None, 64, 48, 48)   256         dense_1_0_bottleneck_conv2D[0][0]
__________________________________________________________________________________________________
activation_9 (Activation)       (None, 64, 48, 48)   0           dense_1_0_bottleneck_bn[0][0]    
__________________________________________________________________________________________________
dense_1_0_conv2D (Conv2D)       (None, 16, 48, 48)   9216        activation_9[0][0]               
__________________________________________________________________________________________________
concatenate_4 (Concatenate)     (None, 56, 48, 48)   0           average_pooling2d_1[0][0]        
                                                                 dense_1_0_conv2D[0][0]           
__________________________________________________________________________________________________
dense_1_1_bn (BatchNormalizatio (None, 56, 48, 48)   224         concatenate_4[0][0]              
__________________________________________________________________________________________________
activation_10 (Activation)      (None, 56, 48, 48)   0           dense_1_1_bn[0][0]               
__________________________________________________________________________________________________
dense_1_1_bottleneck_conv2D (Co (None, 64, 48, 48)   3584        activation_10[0][0]              
__________________________________________________________________________________________________
dense_1_1_bottleneck_bn (BatchN (None, 64, 48, 48)   256         dense_1_1_bottleneck_conv2D[0][0]
__________________________________________________________________________________________________
activation_11 (Activation)      (None, 64, 48, 48)   0           dense_1_1_bottleneck_bn[0][0]    
__________________________________________________________________________________________________
dense_1_1_conv2D (Conv2D)       (None, 16, 48, 48)   9216        activation_11[0][0]              
__________________________________________________________________________________________________
concatenate_5 (Concatenate)     (None, 72, 48, 48)   0           concatenate_4[0][0]              
                                                                 dense_1_1_conv2D[0][0]           
__________________________________________________________________________________________________
dense_1_2_bn (BatchNormalizatio (None, 72, 48, 48)   288         concatenate_5[0][0]              
__________________________________________________________________________________________________
activation_12 (Activation)      (None, 72, 48, 48)   0           dense_1_2_bn[0][0]               
__________________________________________________________________________________________________
dense_1_2_bottleneck_conv2D (Co (None, 64, 48, 48)   4608        activation_12[0][0]              
__________________________________________________________________________________________________
dense_1_2_bottleneck_bn (BatchN (None, 64, 48, 48)   256         dense_1_2_bottleneck_conv2D[0][0]
__________________________________________________________________________________________________
activation_13 (Activation)      (None, 64, 48, 48)   0           dense_1_2_bottleneck_bn[0][0]    
__________________________________________________________________________________________________
dense_1_2_conv2D (Conv2D)       (None, 16, 48, 48)   9216        activation_13[0][0]              
__________________________________________________________________________________________________
concatenate_6 (Concatenate)     (None, 88, 48, 48)   0           concatenate_5[0][0]              
                                                                 dense_1_2_conv2D[0][0]           
__________________________________________________________________________________________________
tr_1_bn (BatchNormalization)    (None, 88, 48, 48)   352         concatenate_6[0][0]              
__________________________________________________________________________________________________
activation_14 (Activation)      (None, 88, 48, 48)   0           tr_1_bn[0][0]                    
__________________________________________________________________________________________________
tr_1_conv2D (Conv2D)            (None, 44, 48, 48)   3872        activation_14[0][0]              
__________________________________________________________________________________________________
average_pooling2d_2 (AveragePoo (None, 44, 24, 24)   0           tr_1_conv2D[0][0]                
__________________________________________________________________________________________________
dense_2_0_bn (BatchNormalizatio (None, 44, 24, 24)   176         average_pooling2d_2[0][0]        
__________________________________________________________________________________________________
activation_15 (Activation)      (None, 44, 24, 24)   0           dense_2_0_bn[0][0]               
__________________________________________________________________________________________________
dense_2_0_bottleneck_conv2D (Co (None, 64, 24, 24)   2816        activation_15[0][0]              
__________________________________________________________________________________________________
dense_2_0_bottleneck_bn (BatchN (None, 64, 24, 24)   256         dense_2_0_bottleneck_conv2D[0][0]
__________________________________________________________________________________________________
activation_16 (Activation)      (None, 64, 24, 24)   0           dense_2_0_bottleneck_bn[0][0]    
__________________________________________________________________________________________________
dense_2_0_conv2D (Conv2D)       (None, 16, 24, 24)   9216        activation_16[0][0]              
__________________________________________________________________________________________________
concatenate_7 (Concatenate)     (None, 60, 24, 24)   0           average_pooling2d_2[0][0]        
                                                                 dense_2_0_conv2D[0][0]           
__________________________________________________________________________________________________
dense_2_1_bn (BatchNormalizatio (None, 60, 24, 24)   240         concatenate_7[0][0]              
__________________________________________________________________________________________________
activation_17 (Activation)      (None, 60, 24, 24)   0           dense_2_1_bn[0][0]               
__________________________________________________________________________________________________
dense_2_1_bottleneck_conv2D (Co (None, 64, 24, 24)   3840        activation_17[0][0]              
__________________________________________________________________________________________________
dense_2_1_bottleneck_bn (BatchN (None, 64, 24, 24)   256         dense_2_1_bottleneck_conv2D[0][0]
__________________________________________________________________________________________________
activation_18 (Activation)      (None, 64, 24, 24)   0           dense_2_1_bottleneck_bn[0][0]    
__________________________________________________________________________________________________
dense_2_1_conv2D (Conv2D)       (None, 16, 24, 24)   9216        activation_18[0][0]              
__________________________________________________________________________________________________
concatenate_8 (Concatenate)     (None, 76, 24, 24)   0           concatenate_7[0][0]              
                                                                 dense_2_1_conv2D[0][0]           
__________________________________________________________________________________________________
dense_2_2_bn (BatchNormalizatio (None, 76, 24, 24)   304         concatenate_8[0][0]              
__________________________________________________________________________________________________
activation_19 (Activation)      (None, 76, 24, 24)   0           dense_2_2_bn[0][0]               
__________________________________________________________________________________________________
dense_2_2_bottleneck_conv2D (Co (None, 64, 24, 24)   4864        activation_19[0][0]              
__________________________________________________________________________________________________
dense_2_2_bottleneck_bn (BatchN (None, 64, 24, 24)   256         dense_2_2_bottleneck_conv2D[0][0]
__________________________________________________________________________________________________
activation_20 (Activation)      (None, 64, 24, 24)   0           dense_2_2_bottleneck_bn[0][0]    
__________________________________________________________________________________________________
dense_2_2_conv2D (Conv2D)       (None, 16, 24, 24)   9216        activation_20[0][0]              
__________________________________________________________________________________________________
concatenate_9 (Concatenate)     (None, 92, 24, 24)   0           concatenate_8[0][0]              
                                                                 dense_2_2_conv2D[0][0]           
__________________________________________________________________________________________________
final_bn (BatchNormalization)   (None, 92, 24, 24)   368         concatenate_9[0][0]              
__________________________________________________________________________________________________
activation_21 (Activation)      (None, 92, 24, 24)   0           final_bn[0][0]                   
__________________________________________________________________________________________________
global_average_pooling2d_1 (Glo (None, 92)           0           activation_21[0][0]              
__________________________________________________________________________________________________
dense_1 (Dense)                 (None, 1)            93          global_average_pooling2d_1[0][0] 
==================================================================================================
Total params: 127,485
Trainable params: 124,829
Non-trainable params: 2,656
__________________________________________________________________________________________________
Train on 31872 samples, validate on 7968 samples
Epoch 1/40
 - 53s - loss: 0.6439 - acc: 0.7455 - val_loss: 0.5894 - val_acc: 0.7705
…
7200/7440 [============================>.] - ETA: 0s
7328/7440 [============================>.] - ETA: 0s
7440/7440 [==============================] - 4s 530us/step
Best saved model Test accuracy: 0.805241935483871
best saved model auc_score ------------------>  0.90915824806336
__________________________________________________________________________________________________
Layer (type)                    Output Shape         Param #     Connected to                     
==================================================================================================
input_2 (InputLayer)            (None, 2, 96, 96)    0                                            
__________________________________________________________________________________________________
initial_conv2D (Conv2D)         (None, 8, 96, 96)    144         input_2[0][0]                    
__________________________________________________________________________________________________
dense_0_0_bn (BatchNormalizatio (None, 8, 96, 96)    32          initial_conv2D[0][0]             
__________________________________________________________________________________________________
activation_22 (Activation)      (None, 8, 96, 96)    0           dense_0_0_bn[0][0]               
__________________________________________________________________________________________________
dense_0_0_bottleneck_conv2D (Co (None, 64, 96, 96)   512         activation_22[0][0]              
__________________________________________________________________________________________________
dense_0_0_bottleneck_bn (BatchN (None, 64, 96, 96)   256         dense_0_0_bottleneck_conv2D[0][0]
__________________________________________________________________________________________________
activation_23 (Activation)      (None, 64, 96, 96)   0           dense_0_0_bottleneck_bn[0][0]    
__________________________________________________________________________________________________
dense_0_0_conv2D (Conv2D)       (None, 16, 96, 96)   9216        activation_23[0][0]              
__________________________________________________________________________________________________
concatenate_10 (Concatenate)    (None, 24, 96, 96)   0           initial_conv2D[0][0]             
                                                                 dense_0_0_conv2D[0][0]           
__________________________________________________________________________________________________
dense_0_1_bn (BatchNormalizatio (None, 24, 96, 96)   96          concatenate_10[0][0]             
__________________________________________________________________________________________________
activation_24 (Activation)      (None, 24, 96, 96)   0           dense_0_1_bn[0][0]               
__________________________________________________________________________________________________
dense_0_1_bottleneck_conv2D (Co (None, 64, 96, 96)   1536        activation_24[0][0]              
__________________________________________________________________________________________________
dense_0_1_bottleneck_bn (BatchN (None, 64, 96, 96)   256         dense_0_1_bottleneck_conv2D[0][0]
__________________________________________________________________________________________________
activation_25 (Activation)      (None, 64, 96, 96)   0           dense_0_1_bottleneck_bn[0][0]    
__________________________________________________________________________________________________
dense_0_1_conv2D (Conv2D)       (None, 16, 96, 96)   9216        activation_25[0][0]              
__________________________________________________________________________________________________
concatenate_11 (Concatenate)    (None, 40, 96, 96)   0           concatenate_10[0][0]             
                                                                 dense_0_1_conv2D[0][0]           
__________________________________________________________________________________________________
dense_0_2_bn (BatchNormalizatio (None, 40, 96, 96)   160         concatenate_11[0][0]             
__________________________________________________________________________________________________
activation_26 (Activation)      (None, 40, 96, 96)   0           dense_0_2_bn[0][0]               
__________________________________________________________________________________________________
dense_0_2_bottleneck_conv2D (Co (None, 64, 96, 96)   2560        activation_26[0][0]              
__________________________________________________________________________________________________
dense_0_2_bottleneck_bn (BatchN (None, 64, 96, 96)   256         dense_0_2_bottleneck_conv2D[0][0]
__________________________________________________________________________________________________
activation_27 (Activation)      (None, 64, 96, 96)   0           dense_0_2_bottleneck_bn[0][0]    
__________________________________________________________________________________________________
dense_0_2_conv2D (Conv2D)       (None, 16, 96, 96)   9216        activation_27[0][0]              
__________________________________________________________________________________________________
concatenate_12 (Concatenate)    (None, 56, 96, 96)   0           concatenate_11[0][0]             
                                                                 dense_0_2_conv2D[0][0]           
__________________________________________________________________________________________________
tr_0_bn (BatchNormalization)    (None, 56, 96, 96)   224         concatenate_12[0][0]             
__________________________________________________________________________________________________
activation_28 (Activation)      (None, 56, 96, 96)   0           tr_0_bn[0][0]                    
__________________________________________________________________________________________________
tr_0_conv2D (Conv2D)            (None, 28, 96, 96)   1568        activation_28[0][0]              
__________________________________________________________________________________________________
average_pooling2d_3 (AveragePoo (None, 28, 48, 48)   0           tr_0_conv2D[0][0]                
__________________________________________________________________________________________________
dense_1_0_bn (BatchNormalizatio (None, 28, 48, 48)   112         average_pooling2d_3[0][0]        
__________________________________________________________________________________________________
activation_29 (Activation)      (None, 28, 48, 48)   0           dense_1_0_bn[0][0]               
__________________________________________________________________________________________________
dense_1_0_bottleneck_conv2D (Co (None, 64, 48, 48)   1792        activation_29[0][0]              
__________________________________________________________________________________________________
dense_1_0_bottleneck_bn (BatchN (None, 64, 48, 48)   256         dense_1_0_bottleneck_conv2D[0][0]
__________________________________________________________________________________________________
activation_30 (Activation)      (None, 64, 48, 48)   0           dense_1_0_bottleneck_bn[0][0]    
__________________________________________________________________________________________________
dense_1_0_conv2D (Conv2D)       (None, 16, 48, 48)   9216        activation_30[0][0]              
__________________________________________________________________________________________________
concatenate_13 (Concatenate)    (None, 44, 48, 48)   0           average_pooling2d_3[0][0]        
                                                                 dense_1_0_conv2D[0][0]           
__________________________________________________________________________________________________
dense_1_1_bn (BatchNormalizatio (None, 44, 48, 48)   176         concatenate_13[0][0]             
__________________________________________________________________________________________________
activation_31 (Activation)      (None, 44, 48, 48)   0           dense_1_1_bn[0][0]               
__________________________________________________________________________________________________
dense_1_1_bottleneck_conv2D (Co (None, 64, 48, 48)   2816        activation_31[0][0]              
__________________________________________________________________________________________________
dense_1_1_bottleneck_bn (BatchN (None, 64, 48, 48)   256         dense_1_1_bottleneck_conv2D[0][0]
__________________________________________________________________________________________________
activation_32 (Activation)      (None, 64, 48, 48)   0           dense_1_1_bottleneck_bn[0][0]    
__________________________________________________________________________________________________
dense_1_1_conv2D (Conv2D)       (None, 16, 48, 48)   9216        activation_32[0][0]              
__________________________________________________________________________________________________
concatenate_14 (Concatenate)    (None, 60, 48, 48)   0           concatenate_13[0][0]             
                                                                 dense_1_1_conv2D[0][0]           
__________________________________________________________________________________________________
dense_1_2_bn (BatchNormalizatio (None, 60, 48, 48)   240         concatenate_14[0][0]             
__________________________________________________________________________________________________
activation_33 (Activation)      (None, 60, 48, 48)   0           dense_1_2_bn[0][0]               
__________________________________________________________________________________________________
dense_1_2_bottleneck_conv2D (Co (None, 64, 48, 48)   3840        activation_33[0][0]              
__________________________________________________________________________________________________
dense_1_2_bottleneck_bn (BatchN (None, 64, 48, 48)   256         dense_1_2_bottleneck_conv2D[0][0]
__________________________________________________________________________________________________
activation_34 (Activation)      (None, 64, 48, 48)   0           dense_1_2_bottleneck_bn[0][0]    
__________________________________________________________________________________________________
dense_1_2_conv2D (Conv2D)       (None, 16, 48, 48)   9216        activation_34[0][0]              
__________________________________________________________________________________________________
concatenate_15 (Concatenate)    (None, 76, 48, 48)   0           concatenate_14[0][0]             
                                                                 dense_1_2_conv2D[0][0]           
__________________________________________________________________________________________________
tr_1_bn (BatchNormalization)    (None, 76, 48, 48)   304         concatenate_15[0][0]             
__________________________________________________________________________________________________
activation_35 (Activation)      (None, 76, 48, 48)   0           tr_1_bn[0][0]                    
__________________________________________________________________________________________________
tr_1_conv2D (Conv2D)            (None, 38, 48, 48)   2888        activation_35[0][0]              
__________________________________________________________________________________________________
average_pooling2d_4 (AveragePoo (None, 38, 24, 24)   0           tr_1_conv2D[0][0]                
__________________________________________________________________________________________________
dense_2_0_bn (BatchNormalizatio (None, 38, 24, 24)   152         average_pooling2d_4[0][0]        
__________________________________________________________________________________________________
activation_36 (Activation)      (None, 38, 24, 24)   0           dense_2_0_bn[0][0]               
__________________________________________________________________________________________________
dense_2_0_bottleneck_conv2D (Co (None, 64, 24, 24)   2432        activation_36[0][0]              
__________________________________________________________________________________________________
dense_2_0_bottleneck_bn (BatchN (None, 64, 24, 24)   256         dense_2_0_bottleneck_conv2D[0][0]
__________________________________________________________________________________________________
activation_37 (Activation)      (None, 64, 24, 24)   0           dense_2_0_bottleneck_bn[0][0]    
__________________________________________________________________________________________________
dense_2_0_conv2D (Conv2D)       (None, 16, 24, 24)   9216        activation_37[0][0]              
__________________________________________________________________________________________________
concatenate_16 (Concatenate)    (None, 54, 24, 24)   0           average_pooling2d_4[0][0]        
                                                                 dense_2_0_conv2D[0][0]           
__________________________________________________________________________________________________
dense_2_1_bn (BatchNormalizatio (None, 54, 24, 24)   216         concatenate_16[0][0]             
__________________________________________________________________________________________________
activation_38 (Activation)      (None, 54, 24, 24)   0           dense_2_1_bn[0][0]               
__________________________________________________________________________________________________
dense_2_1_bottleneck_conv2D (Co (None, 64, 24, 24)   3456        activation_38[0][0]              
__________________________________________________________________________________________________
dense_2_1_bottleneck_bn (BatchN (None, 64, 24, 24)   256         dense_2_1_bottleneck_conv2D[0][0]
__________________________________________________________________________________________________
activation_39 (Activation)      (None, 64, 24, 24)   0           dense_2_1_bottleneck_bn[0][0]    
__________________________________________________________________________________________________
dense_2_1_conv2D (Conv2D)       (None, 16, 24, 24)   9216        activation_39[0][0]              
__________________________________________________________________________________________________
concatenate_17 (Concatenate)    (None, 70, 24, 24)   0           concatenate_16[0][0]             
                                                                 dense_2_1_conv2D[0][0]           
__________________________________________________________________________________________________
dense_2_2_bn (BatchNormalizatio (None, 70, 24, 24)   280         concatenate_17[0][0]             
__________________________________________________________________________________________________
activation_40 (Activation)      (None, 70, 24, 24)   0           dense_2_2_bn[0][0]               
__________________________________________________________________________________________________
dense_2_2_bottleneck_conv2D (Co (None, 64, 24, 24)   4480        activation_40[0][0]              
__________________________________________________________________________________________________
dense_2_2_bottleneck_bn (BatchN (None, 64, 24, 24)   256         dense_2_2_bottleneck_conv2D[0][0]
__________________________________________________________________________________________________
activation_41 (Activation)      (None, 64, 24, 24)   0           dense_2_2_bottleneck_bn[0][0]    
__________________________________________________________________________________________________
dense_2_2_conv2D (Conv2D)       (None, 16, 24, 24)   9216        activation_41[0][0]              
__________________________________________________________________________________________________
concatenate_18 (Concatenate)    (None, 86, 24, 24)   0           concatenate_17[0][0]             
                                                                 dense_2_2_conv2D[0][0]           
__________________________________________________________________________________________________
final_bn (BatchNormalization)   (None, 86, 24, 24)   344         concatenate_18[0][0]             
__________________________________________________________________________________________________
activation_42 (Activation)      (None, 86, 24, 24)   0           final_bn[0][0]                   
__________________________________________________________________________________________________
global_average_pooling2d_2 (Glo (None, 86)           0           activation_42[0][0]              
__________________________________________________________________________________________________
dense_2 (Dense)                 (None, 1)            87          global_average_pooling2d_2[0][0] 
==================================================================================================
Total params: 115,695
Trainable params: 113,375
Non-trainable params: 2,320
__________________________________________________________________________________________________
Train on 31872 samples, validate on 7968 samples
Epoch 1/40
 - 47s - loss: 0.6188 - acc: 0.7591 - val_loss: 0.5399 - val_acc: 0.8017
…
7200/7440 [============================>.] - ETA: 0s
7328/7440 [============================>.] - ETA: 0s
7440/7440 [==============================] - 4s 532us/step
Best saved model Test accuracy: 0.8241935483870968
best saved model auc_score ------------------>  0.9081203029251936
__________________________________________________________________________________________________
Layer (type)                    Output Shape         Param #     Connected to                     
==================================================================================================
input_3 (InputLayer)            (None, 2, 96, 96)    0                                            
__________________________________________________________________________________________________
initial_conv2D (Conv2D)         (None, 16, 96, 96)   288         input_3[0][0]                    
__________________________________________________________________________________________________
dense_0_0_bn (BatchNormalizatio (None, 16, 96, 96)   64          initial_conv2D[0][0]             
__________________________________________________________________________________________________
activation_43 (Activation)      (None, 16, 96, 96)   0           dense_0_0_bn[0][0]               
__________________________________________________________________________________________________
dense_0_0_bottleneck_conv2D (Co (None, 64, 96, 96)   1024        activation_43[0][0]              
__________________________________________________________________________________________________
dense_0_0_bottleneck_bn (BatchN (None, 64, 96, 96)   256         dense_0_0_bottleneck_conv2D[0][0]
__________________________________________________________________________________________________
activation_44 (Activation)      (None, 64, 96, 96)   0           dense_0_0_bottleneck_bn[0][0]    
__________________________________________________________________________________________________
dense_0_0_conv2D (Conv2D)       (None, 16, 96, 96)   9216        activation_44[0][0]              
__________________________________________________________________________________________________
concatenate_19 (Concatenate)    (None, 32, 96, 96)   0           initial_conv2D[0][0]             
                                                                 dense_0_0_conv2D[0][0]           
__________________________________________________________________________________________________
dense_0_1_bn (BatchNormalizatio (None, 32, 96, 96)   128         concatenate_19[0][0]             
__________________________________________________________________________________________________
activation_45 (Activation)      (None, 32, 96, 96)   0           dense_0_1_bn[0][0]               
__________________________________________________________________________________________________
dense_0_1_bottleneck_conv2D (Co (None, 64, 96, 96)   2048        activation_45[0][0]              
__________________________________________________________________________________________________
dense_0_1_bottleneck_bn (BatchN (None, 64, 96, 96)   256         dense_0_1_bottleneck_conv2D[0][0]
__________________________________________________________________________________________________
activation_46 (Activation)      (None, 64, 96, 96)   0           dense_0_1_bottleneck_bn[0][0]    
__________________________________________________________________________________________________
dense_0_1_conv2D (Conv2D)       (None, 16, 96, 96)   9216        activation_46[0][0]              
__________________________________________________________________________________________________
concatenate_20 (Concatenate)    (None, 48, 96, 96)   0           concatenate_19[0][0]             
                                                                 dense_0_1_conv2D[0][0]           
__________________________________________________________________________________________________
dense_0_2_bn (BatchNormalizatio (None, 48, 96, 96)   192         concatenate_20[0][0]             
__________________________________________________________________________________________________
activation_47 (Activation)      (None, 48, 96, 96)   0           dense_0_2_bn[0][0]               
__________________________________________________________________________________________________
dense_0_2_bottleneck_conv2D (Co (None, 64, 96, 96)   3072        activation_47[0][0]              
__________________________________________________________________________________________________
dense_0_2_bottleneck_bn (BatchN (None, 64, 96, 96)   256         dense_0_2_bottleneck_conv2D[0][0]
__________________________________________________________________________________________________
activation_48 (Activation)      (None, 64, 96, 96)   0           dense_0_2_bottleneck_bn[0][0]    
__________________________________________________________________________________________________
dense_0_2_conv2D (Conv2D)       (None, 16, 96, 96)   9216        activation_48[0][0]              
__________________________________________________________________________________________________
concatenate_21 (Concatenate)    (None, 64, 96, 96)   0           concatenate_20[0][0]             
                                                                 dense_0_2_conv2D[0][0]           
__________________________________________________________________________________________________
tr_0_bn (BatchNormalization)    (None, 64, 96, 96)   256         concatenate_21[0][0]             
__________________________________________________________________________________________________
activation_49 (Activation)      (None, 64, 96, 96)   0           tr_0_bn[0][0]                    
__________________________________________________________________________________________________
tr_0_conv2D (Conv2D)            (None, 32, 96, 96)   2048        activation_49[0][0]              
__________________________________________________________________________________________________
average_pooling2d_5 (AveragePoo (None, 32, 48, 48)   0           tr_0_conv2D[0][0]                
__________________________________________________________________________________________________
dense_1_0_bn (BatchNormalizatio (None, 32, 48, 48)   128         average_pooling2d_5[0][0]        
__________________________________________________________________________________________________
activation_50 (Activation)      (None, 32, 48, 48)   0           dense_1_0_bn[0][0]               
__________________________________________________________________________________________________
dense_1_0_bottleneck_conv2D (Co (None, 64, 48, 48)   2048        activation_50[0][0]              
__________________________________________________________________________________________________
dense_1_0_bottleneck_bn (BatchN (None, 64, 48, 48)   256         dense_1_0_bottleneck_conv2D[0][0]
__________________________________________________________________________________________________
activation_51 (Activation)      (None, 64, 48, 48)   0           dense_1_0_bottleneck_bn[0][0]    
__________________________________________________________________________________________________
dense_1_0_conv2D (Conv2D)       (None, 16, 48, 48)   9216        activation_51[0][0]              
__________________________________________________________________________________________________
concatenate_22 (Concatenate)    (None, 48, 48, 48)   0           average_pooling2d_5[0][0]        
                                                                 dense_1_0_conv2D[0][0]           
__________________________________________________________________________________________________
dense_1_1_bn (BatchNormalizatio (None, 48, 48, 48)   192         concatenate_22[0][0]             
__________________________________________________________________________________________________
activation_52 (Activation)      (None, 48, 48, 48)   0           dense_1_1_bn[0][0]               
__________________________________________________________________________________________________
dense_1_1_bottleneck_conv2D (Co (None, 64, 48, 48)   3072        activation_52[0][0]              
__________________________________________________________________________________________________
dense_1_1_bottleneck_bn (BatchN (None, 64, 48, 48)   256         dense_1_1_bottleneck_conv2D[0][0]
__________________________________________________________________________________________________
activation_53 (Activation)      (None, 64, 48, 48)   0           dense_1_1_bottleneck_bn[0][0]    
__________________________________________________________________________________________________
dense_1_1_conv2D (Conv2D)       (None, 16, 48, 48)   9216        activation_53[0][0]              
__________________________________________________________________________________________________
concatenate_23 (Concatenate)    (None, 64, 48, 48)   0           concatenate_22[0][0]             
                                                                 dense_1_1_conv2D[0][0]           
__________________________________________________________________________________________________
dense_1_2_bn (BatchNormalizatio (None, 64, 48, 48)   256         concatenate_23[0][0]             
__________________________________________________________________________________________________
activation_54 (Activation)      (None, 64, 48, 48)   0           dense_1_2_bn[0][0]               
__________________________________________________________________________________________________
dense_1_2_bottleneck_conv2D (Co (None, 64, 48, 48)   4096        activation_54[0][0]              
__________________________________________________________________________________________________
dense_1_2_bottleneck_bn (BatchN (None, 64, 48, 48)   256         dense_1_2_bottleneck_conv2D[0][0]
__________________________________________________________________________________________________
activation_55 (Activation)      (None, 64, 48, 48)   0           dense_1_2_bottleneck_bn[0][0]    
__________________________________________________________________________________________________
dense_1_2_conv2D (Conv2D)       (None, 16, 48, 48)   9216        activation_55[0][0]              
__________________________________________________________________________________________________
concatenate_24 (Concatenate)    (None, 80, 48, 48)   0           concatenate_23[0][0]             
                                                                 dense_1_2_conv2D[0][0]           
__________________________________________________________________________________________________
tr_1_bn (BatchNormalization)    (None, 80, 48, 48)   320         concatenate_24[0][0]             
__________________________________________________________________________________________________
activation_56 (Activation)      (None, 80, 48, 48)   0           tr_1_bn[0][0]                    
__________________________________________________________________________________________________
tr_1_conv2D (Conv2D)            (None, 40, 48, 48)   3200        activation_56[0][0]              
__________________________________________________________________________________________________
average_pooling2d_6 (AveragePoo (None, 40, 24, 24)   0           tr_1_conv2D[0][0]                
__________________________________________________________________________________________________
dense_2_0_bn (BatchNormalizatio (None, 40, 24, 24)   160         average_pooling2d_6[0][0]        
__________________________________________________________________________________________________
activation_57 (Activation)      (None, 40, 24, 24)   0           dense_2_0_bn[0][0]               
__________________________________________________________________________________________________
dense_2_0_bottleneck_conv2D (Co (None, 64, 24, 24)   2560        activation_57[0][0]              
__________________________________________________________________________________________________
dense_2_0_bottleneck_bn (BatchN (None, 64, 24, 24)   256         dense_2_0_bottleneck_conv2D[0][0]
__________________________________________________________________________________________________
activation_58 (Activation)      (None, 64, 24, 24)   0           dense_2_0_bottleneck_bn[0][0]    
__________________________________________________________________________________________________
dense_2_0_conv2D (Conv2D)       (None, 16, 24, 24)   9216        activation_58[0][0]              
__________________________________________________________________________________________________
concatenate_25 (Concatenate)    (None, 56, 24, 24)   0           average_pooling2d_6[0][0]        
                                                                 dense_2_0_conv2D[0][0]           
__________________________________________________________________________________________________
dense_2_1_bn (BatchNormalizatio (None, 56, 24, 24)   224         concatenate_25[0][0]             
__________________________________________________________________________________________________
activation_59 (Activation)      (None, 56, 24, 24)   0           dense_2_1_bn[0][0]               
__________________________________________________________________________________________________
dense_2_1_bottleneck_conv2D (Co (None, 64, 24, 24)   3584        activation_59[0][0]              
__________________________________________________________________________________________________
dense_2_1_bottleneck_bn (BatchN (None, 64, 24, 24)   256         dense_2_1_bottleneck_conv2D[0][0]
__________________________________________________________________________________________________
activation_60 (Activation)      (None, 64, 24, 24)   0           dense_2_1_bottleneck_bn[0][0]    
__________________________________________________________________________________________________
dense_2_1_conv2D (Conv2D)       (None, 16, 24, 24)   9216        activation_60[0][0]              
__________________________________________________________________________________________________
concatenate_26 (Concatenate)    (None, 72, 24, 24)   0           concatenate_25[0][0]             
                                                                 dense_2_1_conv2D[0][0]           
__________________________________________________________________________________________________
dense_2_2_bn (BatchNormalizatio (None, 72, 24, 24)   288         concatenate_26[0][0]             
__________________________________________________________________________________________________
activation_61 (Activation)      (None, 72, 24, 24)   0           dense_2_2_bn[0][0]               
__________________________________________________________________________________________________
dense_2_2_bottleneck_conv2D (Co (None, 64, 24, 24)   4608        activation_61[0][0]              
__________________________________________________________________________________________________
dense_2_2_bottleneck_bn (BatchN (None, 64, 24, 24)   256         dense_2_2_bottleneck_conv2D[0][0]
__________________________________________________________________________________________________
activation_62 (Activation)      (None, 64, 24, 24)   0           dense_2_2_bottleneck_bn[0][0]    
__________________________________________________________________________________________________
dense_2_2_conv2D (Conv2D)       (None, 16, 24, 24)   9216        activation_62[0][0]              
__________________________________________________________________________________________________
concatenate_27 (Concatenate)    (None, 88, 24, 24)   0           concatenate_26[0][0]             
                                                                 dense_2_2_conv2D[0][0]           
__________________________________________________________________________________________________
final_bn (BatchNormalization)   (None, 88, 24, 24)   352         concatenate_27[0][0]             
__________________________________________________________________________________________________
activation_63 (Activation)      (None, 88, 24, 24)   0           final_bn[0][0]                   
__________________________________________________________________________________________________
global_average_pooling2d_3 (Glo (None, 88)           0           activation_63[0][0]              
__________________________________________________________________________________________________
dense_3 (Dense)                 (None, 1)            89          global_average_pooling2d_3[0][0] 
==================================================================================================
Total params: 119,545
Trainable params: 117,113
Non-trainable params: 2,432
__________________________________________________________________________________________________
Train on 31872 samples, validate on 7968 samples
Epoch 1/40
 - 50s - loss: 0.6273 - acc: 0.7545 - val_loss: 0.5597 - val_acc: 0.7888
…
