…
  54:     #score, acc = model.evaluate(X_test, y_test)
  55:     #print('Best saved model Test accuracy:', acc)
  56:     #pred = model.predict(X_test)
  57:     #auc_score = roc_auc_score(y_test,pred)
  58:     #print("best saved model auc_score ------------------> ",auc_score)
  59: 
  60:     
  61:     return {'loss': -auc_score, 'status': STATUS_OK, 'model': model}  
  62: 
_________________________________________________________________
Layer (type)                 Output Shape              Param #   
=================================================================
input_1 (InputLayer)         (None, 2, 96, 96)         0         
_________________________________________________________________
initial_conv2D (Conv2D)      (None, 16, 96, 96)        288       
_________________________________________________________________
tr_0_bn (BatchNormalization) (None, 16, 96, 96)        64        
_________________________________________________________________
activation_1 (Activation)    (None, 16, 96, 96)        0         
_________________________________________________________________
tr_0_conv2D (Conv2D)         (None, 8, 96, 96)         128       
_________________________________________________________________
average_pooling2d_1 (Average (None, 8, 48, 48)         0         
_________________________________________________________________
tr_1_bn (BatchNormalization) (None, 8, 48, 48)         32        
_________________________________________________________________
activation_2 (Activation)    (None, 8, 48, 48)         0         
_________________________________________________________________
tr_1_conv2D (Conv2D)         (None, 4, 48, 48)         32        
_________________________________________________________________
average_pooling2d_2 (Average (None, 4, 24, 24)         0         
_________________________________________________________________
tr_2_bn (BatchNormalization) (None, 4, 24, 24)         16        
_________________________________________________________________
activation_3 (Activation)    (None, 4, 24, 24)         0         
_________________________________________________________________
tr_2_conv2D (Conv2D)         (None, 2, 24, 24)         8         
_________________________________________________________________
average_pooling2d_3 (Average (None, 2, 12, 12)         0         
_________________________________________________________________
final_bn (BatchNormalization (None, 2, 12, 12)         8         
_________________________________________________________________
activation_4 (Activation)    (None, 2, 12, 12)         0         
_________________________________________________________________
global_average_pooling2d_1 ( (None, 2)                 0         
_________________________________________________________________
dense_1 (Dense)              (None, 1)                 3         
=================================================================
Total params: 579
Trainable params: 519
Non-trainable params: 60
_________________________________________________________________
Train on 31872 samples, validate on 7968 samples
Epoch 1/50
 - 11s - loss: 0.7080 - acc: 0.5086 - val_loss: 0.6772 - val_acc: 0.5705
Epoch 2/50
 - 8s - loss: 0.6684 - acc: 0.6223 - val_loss: 0.6611 - val_acc: 0.6693
…
6272/7440 [========================>.....] - ETA: 0s
6848/7440 [==========================>...] - ETA: 0s
7424/7440 [============================>.] - ETA: 0s
7440/7440 [==============================] - 1s 92us/step
current Test accuracy: 0.7788978494623656
current auc_score ------------------>  0.8662155306971904
__________________________________________________________________________________________________
Layer (type)                    Output Shape         Param #     Connected to                     
==================================================================================================
input_2 (InputLayer)            (None, 2, 96, 96)    0                                            
__________________________________________________________________________________________________
initial_conv2D (Conv2D)         (None, 16, 96, 96)   288         input_2[0][0]                    
__________________________________________________________________________________________________
dense_0_0_bn (BatchNormalizatio (None, 16, 96, 96)   64          initial_conv2D[0][0]             
__________________________________________________________________________________________________
activation_5 (Activation)       (None, 16, 96, 96)   0           dense_0_0_bn[0][0]               
__________________________________________________________________________________________________
dense_0_0_bottleneck_conv2D (Co (None, 56, 96, 96)   896         activation_5[0][0]               
__________________________________________________________________________________________________
dense_0_0_bottleneck_bn (BatchN (None, 56, 96, 96)   224         dense_0_0_bottleneck_conv2D[0][0]
__________________________________________________________________________________________________
activation_6 (Activation)       (None, 56, 96, 96)   0           dense_0_0_bottleneck_bn[0][0]    
__________________________________________________________________________________________________
dense_0_0_conv2D (Conv2D)       (None, 14, 96, 96)   7056        activation_6[0][0]               
__________________________________________________________________________________________________
concatenate_1 (Concatenate)     (None, 30, 96, 96)   0           initial_conv2D[0][0]             
                                                                 dense_0_0_conv2D[0][0]           
__________________________________________________________________________________________________
dense_0_1_bn (BatchNormalizatio (None, 30, 96, 96)   120         concatenate_1[0][0]              
__________________________________________________________________________________________________
activation_7 (Activation)       (None, 30, 96, 96)   0           dense_0_1_bn[0][0]               
__________________________________________________________________________________________________
dense_0_1_bottleneck_conv2D (Co (None, 56, 96, 96)   1680        activation_7[0][0]               
__________________________________________________________________________________________________
dense_0_1_bottleneck_bn (BatchN (None, 56, 96, 96)   224         dense_0_1_bottleneck_conv2D[0][0]
__________________________________________________________________________________________________
activation_8 (Activation)       (None, 56, 96, 96)   0           dense_0_1_bottleneck_bn[0][0]    
__________________________________________________________________________________________________
dense_0_1_conv2D (Conv2D)       (None, 14, 96, 96)   7056        activation_8[0][0]               
__________________________________________________________________________________________________
concatenate_2 (Concatenate)     (None, 44, 96, 96)   0           concatenate_1[0][0]              
                                                                 dense_0_1_conv2D[0][0]           
__________________________________________________________________________________________________
tr_0_bn (BatchNormalization)    (None, 44, 96, 96)   176         concatenate_2[0][0]              
__________________________________________________________________________________________________
activation_9 (Activation)       (None, 44, 96, 96)   0           tr_0_bn[0][0]                    
__________________________________________________________________________________________________
tr_0_conv2D (Conv2D)            (None, 22, 96, 96)   968         activation_9[0][0]               
__________________________________________________________________________________________________
average_pooling2d_4 (AveragePoo (None, 22, 48, 48)   0           tr_0_conv2D[0][0]                
__________________________________________________________________________________________________
dense_1_0_bn (BatchNormalizatio (None, 22, 48, 48)   88          average_pooling2d_4[0][0]        
__________________________________________________________________________________________________
activation_10 (Activation)      (None, 22, 48, 48)   0           dense_1_0_bn[0][0]               
__________________________________________________________________________________________________
dense_1_0_bottleneck_conv2D (Co (None, 56, 48, 48)   1232        activation_10[0][0]              
__________________________________________________________________________________________________
dense_1_0_bottleneck_bn (BatchN (None, 56, 48, 48)   224         dense_1_0_bottleneck_conv2D[0][0]
__________________________________________________________________________________________________
activation_11 (Activation)      (None, 56, 48, 48)   0           dense_1_0_bottleneck_bn[0][0]    
__________________________________________________________________________________________________
dense_1_0_conv2D (Conv2D)       (None, 14, 48, 48)   7056        activation_11[0][0]              
__________________________________________________________________________________________________
concatenate_3 (Concatenate)     (None, 36, 48, 48)   0           average_pooling2d_4[0][0]        
                                                                 dense_1_0_conv2D[0][0]           
__________________________________________________________________________________________________
dense_1_1_bn (BatchNormalizatio (None, 36, 48, 48)   144         concatenate_3[0][0]              
__________________________________________________________________________________________________
activation_12 (Activation)      (None, 36, 48, 48)   0           dense_1_1_bn[0][0]               
__________________________________________________________________________________________________
dense_1_1_bottleneck_conv2D (Co (None, 56, 48, 48)   2016        activation_12[0][0]              
__________________________________________________________________________________________________
dense_1_1_bottleneck_bn (BatchN (None, 56, 48, 48)   224         dense_1_1_bottleneck_conv2D[0][0]
__________________________________________________________________________________________________
activation_13 (Activation)      (None, 56, 48, 48)   0           dense_1_1_bottleneck_bn[0][0]    
__________________________________________________________________________________________________
dense_1_1_conv2D (Conv2D)       (None, 14, 48, 48)   7056        activation_13[0][0]              
__________________________________________________________________________________________________
concatenate_4 (Concatenate)     (None, 50, 48, 48)   0           concatenate_3[0][0]              
                                                                 dense_1_1_conv2D[0][0]           
__________________________________________________________________________________________________
final_bn (BatchNormalization)   (None, 50, 48, 48)   200         concatenate_4[0][0]              
__________________________________________________________________________________________________
activation_14 (Activation)      (None, 50, 48, 48)   0           final_bn[0][0]                   
__________________________________________________________________________________________________
global_average_pooling2d_2 (Glo (None, 50)           0           activation_14[0][0]              
__________________________________________________________________________________________________
dense_2 (Dense)                 (None, 1)            51          global_average_pooling2d_2[0][0] 
==================================================================================================
Total params: 37,043
Trainable params: 36,199
Non-trainable params: 844
__________________________________________________________________________________________________
Train on 31872 samples, validate on 7968 samples
Epoch 1/50
 - 27s - loss: 0.5690 - acc: 0.7531 - val_loss: 0.5387 - val_acc: 0.7644
…
6976/7440 [===========================>..] - ETA: 0s
7168/7440 [===========================>..] - ETA: 0s
7360/7440 [============================>.] - ETA: 0s
7440/7440 [==============================] - 2s 269us/step
current Test accuracy: 0.8033602150537634
current auc_score ------------------>  0.8917915365938258
__________________________________________________________________________________________________
Layer (type)                    Output Shape         Param #     Connected to                     
==================================================================================================
input_3 (InputLayer)            (None, 2, 96, 96)    0                                            
__________________________________________________________________________________________________
initial_conv2D (Conv2D)         (None, 16, 96, 96)   288         input_3[0][0]                    
__________________________________________________________________________________________________
dense_0_0_bn (BatchNormalizatio (None, 16, 96, 96)   64          initial_conv2D[0][0]             
__________________________________________________________________________________________________
activation_15 (Activation)      (None, 16, 96, 96)   0           dense_0_0_bn[0][0]               
__________________________________________________________________________________________________
dense_0_0_bottleneck_conv2D (Co (None, 56, 96, 96)   896         activation_15[0][0]              
__________________________________________________________________________________________________
dense_0_0_bottleneck_bn (BatchN (None, 56, 96, 96)   224         dense_0_0_bottleneck_conv2D[0][0]
__________________________________________________________________________________________________
activation_16 (Activation)      (None, 56, 96, 96)   0           dense_0_0_bottleneck_bn[0][0]    
__________________________________________________________________________________________________
dense_0_0_conv2D (Conv2D)       (None, 14, 96, 96)   7056        activation_16[0][0]              
__________________________________________________________________________________________________
concatenate_5 (Concatenate)     (None, 30, 96, 96)   0           initial_conv2D[0][0]             
                                                                 dense_0_0_conv2D[0][0]           
__________________________________________________________________________________________________
dense_0_1_bn (BatchNormalizatio (None, 30, 96, 96)   120         concatenate_5[0][0]              
__________________________________________________________________________________________________
activation_17 (Activation)      (None, 30, 96, 96)   0           dense_0_1_bn[0][0]               
__________________________________________________________________________________________________
dense_0_1_bottleneck_conv2D (Co (None, 56, 96, 96)   1680        activation_17[0][0]              
__________________________________________________________________________________________________
dense_0_1_bottleneck_bn (BatchN (None, 56, 96, 96)   224         dense_0_1_bottleneck_conv2D[0][0]
__________________________________________________________________________________________________
activation_18 (Activation)      (None, 56, 96, 96)   0           dense_0_1_bottleneck_bn[0][0]    
__________________________________________________________________________________________________
dense_0_1_conv2D (Conv2D)       (None, 14, 96, 96)   7056        activation_18[0][0]              
__________________________________________________________________________________________________
concatenate_6 (Concatenate)     (None, 44, 96, 96)   0           concatenate_5[0][0]              
                                                                 dense_0_1_conv2D[0][0]           
__________________________________________________________________________________________________
dense_0_2_bn (BatchNormalizatio (None, 44, 96, 96)   176         concatenate_6[0][0]              
__________________________________________________________________________________________________
activation_19 (Activation)      (None, 44, 96, 96)   0           dense_0_2_bn[0][0]               
__________________________________________________________________________________________________
dense_0_2_bottleneck_conv2D (Co (None, 56, 96, 96)   2464        activation_19[0][0]              
__________________________________________________________________________________________________
dense_0_2_bottleneck_bn (BatchN (None, 56, 96, 96)   224         dense_0_2_bottleneck_conv2D[0][0]
__________________________________________________________________________________________________
activation_20 (Activation)      (None, 56, 96, 96)   0           dense_0_2_bottleneck_bn[0][0]    
__________________________________________________________________________________________________
dense_0_2_conv2D (Conv2D)       (None, 14, 96, 96)   7056        activation_20[0][0]              
__________________________________________________________________________________________________
concatenate_7 (Concatenate)     (None, 58, 96, 96)   0           concatenate_6[0][0]              
                                                                 dense_0_2_conv2D[0][0]           
__________________________________________________________________________________________________
tr_0_bn (BatchNormalization)    (None, 58, 96, 96)   232         concatenate_7[0][0]              
__________________________________________________________________________________________________
activation_21 (Activation)      (None, 58, 96, 96)   0           tr_0_bn[0][0]                    
__________________________________________________________________________________________________
tr_0_conv2D (Conv2D)            (None, 29, 96, 96)   1682        activation_21[0][0]              
__________________________________________________________________________________________________
average_pooling2d_5 (AveragePoo (None, 29, 48, 48)   0           tr_0_conv2D[0][0]                
__________________________________________________________________________________________________
dense_1_0_bn (BatchNormalizatio (None, 29, 48, 48)   116         average_pooling2d_5[0][0]        
__________________________________________________________________________________________________
activation_22 (Activation)      (None, 29, 48, 48)   0           dense_1_0_bn[0][0]               
__________________________________________________________________________________________________
dense_1_0_bottleneck_conv2D (Co (None, 56, 48, 48)   1624        activation_22[0][0]              
__________________________________________________________________________________________________
dense_1_0_bottleneck_bn (BatchN (None, 56, 48, 48)   224         dense_1_0_bottleneck_conv2D[0][0]
__________________________________________________________________________________________________
activation_23 (Activation)      (None, 56, 48, 48)   0           dense_1_0_bottleneck_bn[0][0]    
__________________________________________________________________________________________________
dense_1_0_conv2D (Conv2D)       (None, 14, 48, 48)   7056        activation_23[0][0]              
__________________________________________________________________________________________________
concatenate_8 (Concatenate)     (None, 43, 48, 48)   0           average_pooling2d_5[0][0]        
                                                                 dense_1_0_conv2D[0][0]           
__________________________________________________________________________________________________
dense_1_1_bn (BatchNormalizatio (None, 43, 48, 48)   172         concatenate_8[0][0]              
__________________________________________________________________________________________________
activation_24 (Activation)      (None, 43, 48, 48)   0           dense_1_1_bn[0][0]               
__________________________________________________________________________________________________
dense_1_1_bottleneck_conv2D (Co (None, 56, 48, 48)   2408        activation_24[0][0]              
__________________________________________________________________________________________________
dense_1_1_bottleneck_bn (BatchN (None, 56, 48, 48)   224         dense_1_1_bottleneck_conv2D[0][0]
__________________________________________________________________________________________________
activation_25 (Activation)      (None, 56, 48, 48)   0           dense_1_1_bottleneck_bn[0][0]    
__________________________________________________________________________________________________
dense_1_1_conv2D (Conv2D)       (None, 14, 48, 48)   7056        activation_25[0][0]              
__________________________________________________________________________________________________
concatenate_9 (Concatenate)     (None, 57, 48, 48)   0           concatenate_8[0][0]              
                                                                 dense_1_1_conv2D[0][0]           
__________________________________________________________________________________________________
dense_1_2_bn (BatchNormalizatio (None, 57, 48, 48)   228         concatenate_9[0][0]              
__________________________________________________________________________________________________
activation_26 (Activation)      (None, 57, 48, 48)   0           dense_1_2_bn[0][0]               
__________________________________________________________________________________________________
dense_1_2_bottleneck_conv2D (Co (None, 56, 48, 48)   3192        activation_26[0][0]              
__________________________________________________________________________________________________
dense_1_2_bottleneck_bn (BatchN (None, 56, 48, 48)   224         dense_1_2_bottleneck_conv2D[0][0]
__________________________________________________________________________________________________
activation_27 (Activation)      (None, 56, 48, 48)   0           dense_1_2_bottleneck_bn[0][0]    
__________________________________________________________________________________________________
dense_1_2_conv2D (Conv2D)       (None, 14, 48, 48)   7056        activation_27[0][0]              
__________________________________________________________________________________________________
concatenate_10 (Concatenate)    (None, 71, 48, 48)   0           concatenate_9[0][0]              
                                                                 dense_1_2_conv2D[0][0]           
__________________________________________________________________________________________________
tr_1_bn (BatchNormalization)    (None, 71, 48, 48)   284         concatenate_10[0][0]             
__________________________________________________________________________________________________
activation_28 (Activation)      (None, 71, 48, 48)   0           tr_1_bn[0][0]                    
__________________________________________________________________________________________________
tr_1_conv2D (Conv2D)            (None, 35, 48, 48)   2485        activation_28[0][0]              
__________________________________________________________________________________________________
average_pooling2d_6 (AveragePoo (None, 35, 24, 24)   0           tr_1_conv2D[0][0]                
__________________________________________________________________________________________________
dense_2_0_bn (BatchNormalizatio (None, 35, 24, 24)   140         average_pooling2d_6[0][0]        
__________________________________________________________________________________________________
activation_29 (Activation)      (None, 35, 24, 24)   0           dense_2_0_bn[0][0]               
__________________________________________________________________________________________________
dense_2_0_bottleneck_conv2D (Co (None, 56, 24, 24)   1960        activation_29[0][0]              
__________________________________________________________________________________________________
dense_2_0_bottleneck_bn (BatchN (None, 56, 24, 24)   224         dense_2_0_bottleneck_conv2D[0][0]
__________________________________________________________________________________________________
activation_30 (Activation)      (None, 56, 24, 24)   0           dense_2_0_bottleneck_bn[0][0]    
__________________________________________________________________________________________________
dense_2_0_conv2D (Conv2D)       (None, 14, 24, 24)   7056        activation_30[0][0]              
__________________________________________________________________________________________________
concatenate_11 (Concatenate)    (None, 49, 24, 24)   0           average_pooling2d_6[0][0]        
                                                                 dense_2_0_conv2D[0][0]           
__________________________________________________________________________________________________
dense_2_1_bn (BatchNormalizatio (None, 49, 24, 24)   196         concatenate_11[0][0]             
__________________________________________________________________________________________________
activation_31 (Activation)      (None, 49, 24, 24)   0           dense_2_1_bn[0][0]               
__________________________________________________________________________________________________
dense_2_1_bottleneck_conv2D (Co (None, 56, 24, 24)   2744        activation_31[0][0]              
__________________________________________________________________________________________________
dense_2_1_bottleneck_bn (BatchN (None, 56, 24, 24)   224         dense_2_1_bottleneck_conv2D[0][0]
__________________________________________________________________________________________________
activation_32 (Activation)      (None, 56, 24, 24)   0           dense_2_1_bottleneck_bn[0][0]    
__________________________________________________________________________________________________
dense_2_1_conv2D (Conv2D)       (None, 14, 24, 24)   7056        activation_32[0][0]              
__________________________________________________________________________________________________
concatenate_12 (Concatenate)    (None, 63, 24, 24)   0           concatenate_11[0][0]             
                                                                 dense_2_1_conv2D[0][0]           
__________________________________________________________________________________________________
dense_2_2_bn (BatchNormalizatio (None, 63, 24, 24)   252         concatenate_12[0][0]             
__________________________________________________________________________________________________
activation_33 (Activation)      (None, 63, 24, 24)   0           dense_2_2_bn[0][0]               
__________________________________________________________________________________________________
dense_2_2_bottleneck_conv2D (Co (None, 56, 24, 24)   3528        activation_33[0][0]              
__________________________________________________________________________________________________
dense_2_2_bottleneck_bn (BatchN (None, 56, 24, 24)   224         dense_2_2_bottleneck_conv2D[0][0]
__________________________________________________________________________________________________
activation_34 (Activation)      (None, 56, 24, 24)   0           dense_2_2_bottleneck_bn[0][0]    
__________________________________________________________________________________________________
dense_2_2_conv2D (Conv2D)       (None, 14, 24, 24)   7056        activation_34[0][0]              
__________________________________________________________________________________________________
concatenate_13 (Concatenate)    (None, 77, 24, 24)   0           concatenate_12[0][0]             
                                                                 dense_2_2_conv2D[0][0]           
__________________________________________________________________________________________________
final_bn (BatchNormalization)   (None, 77, 24, 24)   308         concatenate_13[0][0]             
__________________________________________________________________________________________________
activation_35 (Activation)      (None, 77, 24, 24)   0           final_bn[0][0]                   
__________________________________________________________________________________________________
global_average_pooling2d_3 (Glo (None, 77)           0           activation_35[0][0]              
__________________________________________________________________________________________________
dense_3 (Dense)                 (None, 1)            78          global_average_pooling2d_3[0][0] 
==================================================================================================
Total params: 92,837
Trainable params: 90,685
Non-trainable params: 2,152
__________________________________________________________________________________________________
Train on 31872 samples, validate on 7968 samples
Epoch 1/50
 - 45s - loss: 0.5811 - acc: 0.7709 - val_loss: 0.5729 - val_acc: 0.7720
…
7072/7440 [===========================>..] - ETA: 0s
7200/7440 [============================>.] - ETA: 0s
7328/7440 [============================>.] - ETA: 0s
7440/7440 [==============================] - 3s 399us/step
current Test accuracy: 0.8026881720430108
current auc_score ------------------>  0.8881608422939069
__________________________________________________________________________________________________
Layer (type)                    Output Shape         Param #     Connected to                     
==================================================================================================
input_4 (InputLayer)            (None, 2, 96, 96)    0                                            
__________________________________________________________________________________________________
initial_conv2D (Conv2D)         (None, 16, 96, 96)   288         input_4[0][0]                    
__________________________________________________________________________________________________
dense_0_0_bn (BatchNormalizatio (None, 16, 96, 96)   64          initial_conv2D[0][0]             
__________________________________________________________________________________________________
activation_36 (Activation)      (None, 16, 96, 96)   0           dense_0_0_bn[0][0]               
__________________________________________________________________________________________________
dense_0_0_bottleneck_conv2D (Co (None, 40, 96, 96)   640         activation_36[0][0]              
__________________________________________________________________________________________________
dense_0_0_bottleneck_bn (BatchN (None, 40, 96, 96)   160         dense_0_0_bottleneck_conv2D[0][0]
__________________________________________________________________________________________________
activation_37 (Activation)      (None, 40, 96, 96)   0           dense_0_0_bottleneck_bn[0][0]    
__________________________________________________________________________________________________
dense_0_0_conv2D (Conv2D)       (None, 10, 96, 96)   3600        activation_37[0][0]              
__________________________________________________________________________________________________
concatenate_14 (Concatenate)    (None, 26, 96, 96)   0           initial_conv2D[0][0]             
                                                                 dense_0_0_conv2D[0][0]           
__________________________________________________________________________________________________
dense_0_1_bn (BatchNormalizatio (None, 26, 96, 96)   104         concatenate_14[0][0]             
__________________________________________________________________________________________________
activation_38 (Activation)      (None, 26, 96, 96)   0           dense_0_1_bn[0][0]               
__________________________________________________________________________________________________
dense_0_1_bottleneck_conv2D (Co (None, 40, 96, 96)   1040        activation_38[0][0]              
__________________________________________________________________________________________________
dense_0_1_bottleneck_bn (BatchN (None, 40, 96, 96)   160         dense_0_1_bottleneck_conv2D[0][0]
__________________________________________________________________________________________________
activation_39 (Activation)      (None, 40, 96, 96)   0           dense_0_1_bottleneck_bn[0][0]    
__________________________________________________________________________________________________
dense_0_1_conv2D (Conv2D)       (None, 10, 96, 96)   3600        activation_39[0][0]              
__________________________________________________________________________________________________
concatenate_15 (Concatenate)    (None, 36, 96, 96)   0           concatenate_14[0][0]             
                                                                 dense_0_1_conv2D[0][0]           
__________________________________________________________________________________________________
tr_0_bn (BatchNormalization)    (None, 36, 96, 96)   144         concatenate_15[0][0]             
__________________________________________________________________________________________________
activation_40 (Activation)      (None, 36, 96, 96)   0           tr_0_bn[0][0]                    
__________________________________________________________________________________________________
tr_0_conv2D (Conv2D)            (None, 18, 96, 96)   648         activation_40[0][0]              
__________________________________________________________________________________________________
average_pooling2d_7 (AveragePoo (None, 18, 48, 48)   0           tr_0_conv2D[0][0]                
__________________________________________________________________________________________________
dense_1_0_bn (BatchNormalizatio (None, 18, 48, 48)   72          average_pooling2d_7[0][0]        
__________________________________________________________________________________________________
activation_41 (Activation)      (None, 18, 48, 48)   0           dense_1_0_bn[0][0]               
__________________________________________________________________________________________________
dense_1_0_bottleneck_conv2D (Co (None, 40, 48, 48)   720         activation_41[0][0]              
__________________________________________________________________________________________________
dense_1_0_bottleneck_bn (BatchN (None, 40, 48, 48)   160         dense_1_0_bottleneck_conv2D[0][0]
__________________________________________________________________________________________________
activation_42 (Activation)      (None, 40, 48, 48)   0           dense_1_0_bottleneck_bn[0][0]    
__________________________________________________________________________________________________
dense_1_0_conv2D (Conv2D)       (None, 10, 48, 48)   3600        activation_42[0][0]              
__________________________________________________________________________________________________
concatenate_16 (Concatenate)    (None, 28, 48, 48)   0           average_pooling2d_7[0][0]        
                                                                 dense_1_0_conv2D[0][0]           
__________________________________________________________________________________________________
dense_1_1_bn (BatchNormalizatio (None, 28, 48, 48)   112         concatenate_16[0][0]             
__________________________________________________________________________________________________
activation_43 (Activation)      (None, 28, 48, 48)   0           dense_1_1_bn[0][0]               
__________________________________________________________________________________________________
dense_1_1_bottleneck_conv2D (Co (None, 40, 48, 48)   1120        activation_43[0][0]              
__________________________________________________________________________________________________
dense_1_1_bottleneck_bn (BatchN (None, 40, 48, 48)   160         dense_1_1_bottleneck_conv2D[0][0]
__________________________________________________________________________________________________
activation_44 (Activation)      (None, 40, 48, 48)   0           dense_1_1_bottleneck_bn[0][0]    
__________________________________________________________________________________________________
dense_1_1_conv2D (Conv2D)       (None, 10, 48, 48)   3600        activation_44[0][0]              
__________________________________________________________________________________________________
concatenate_17 (Concatenate)    (None, 38, 48, 48)   0           concatenate_16[0][0]             
                                                                 dense_1_1_conv2D[0][0]           
__________________________________________________________________________________________________
tr_1_bn (BatchNormalization)    (None, 38, 48, 48)   152         concatenate_17[0][0]             
__________________________________________________________________________________________________
activation_45 (Activation)      (None, 38, 48, 48)   0           tr_1_bn[0][0]                    
__________________________________________________________________________________________________
tr_1_conv2D (Conv2D)            (None, 19, 48, 48)   722         activation_45[0][0]              
__________________________________________________________________________________________________
average_pooling2d_8 (AveragePoo (None, 19, 24, 24)   0           tr_1_conv2D[0][0]                
__________________________________________________________________________________________________
dense_2_0_bn (BatchNormalizatio (None, 19, 24, 24)   76          average_pooling2d_8[0][0]        
__________________________________________________________________________________________________
activation_46 (Activation)      (None, 19, 24, 24)   0           dense_2_0_bn[0][0]               
__________________________________________________________________________________________________
dense_2_0_bottleneck_conv2D (Co (None, 40, 24, 24)   760         activation_46[0][0]              
__________________________________________________________________________________________________
dense_2_0_bottleneck_bn (BatchN (None, 40, 24, 24)   160         dense_2_0_bottleneck_conv2D[0][0]
__________________________________________________________________________________________________
activation_47 (Activation)      (None, 40, 24, 24)   0           dense_2_0_bottleneck_bn[0][0]    
__________________________________________________________________________________________________
dense_2_0_conv2D (Conv2D)       (None, 10, 24, 24)   3600        activation_47[0][0]              
__________________________________________________________________________________________________
concatenate_18 (Concatenate)    (None, 29, 24, 24)   0           average_pooling2d_8[0][0]        
                                                                 dense_2_0_conv2D[0][0]           
__________________________________________________________________________________________________
dense_2_1_bn (BatchNormalizatio (None, 29, 24, 24)   116         concatenate_18[0][0]             
__________________________________________________________________________________________________
activation_48 (Activation)      (None, 29, 24, 24)   0           dense_2_1_bn[0][0]               
__________________________________________________________________________________________________
dense_2_1_bottleneck_conv2D (Co (None, 40, 24, 24)   1160        activation_48[0][0]              
__________________________________________________________________________________________________
dense_2_1_bottleneck_bn (BatchN (None, 40, 24, 24)   160         dense_2_1_bottleneck_conv2D[0][0]
__________________________________________________________________________________________________
activation_49 (Activation)      (None, 40, 24, 24)   0           dense_2_1_bottleneck_bn[0][0]    
__________________________________________________________________________________________________
dense_2_1_conv2D (Conv2D)       (None, 10, 24, 24)   3600        activation_49[0][0]              
__________________________________________________________________________________________________
concatenate_19 (Concatenate)    (None, 39, 24, 24)   0           concatenate_18[0][0]             
                                                                 dense_2_1_conv2D[0][0]           
__________________________________________________________________________________________________
final_bn (BatchNormalization)   (None, 39, 24, 24)   156         concatenate_19[0][0]             
__________________________________________________________________________________________________
activation_50 (Activation)      (None, 39, 24, 24)   0           final_bn[0][0]                   
__________________________________________________________________________________________________
global_average_pooling2d_4 (Glo (None, 39)           0           activation_50[0][0]              
__________________________________________________________________________________________________
dense_4 (Dense)                 (None, 1)            40          global_average_pooling2d_4[0][0] 
==================================================================================================
Total params: 30,694
Trainable params: 29,716
Non-trainable params: 978
__________________________________________________________________________________________________
Train on 31872 samples, validate on 7968 samples
Epoch 1/50
 - 28s - loss: 0.5700 - acc: 0.7517 - val_loss: 0.4998 - val_acc: 0.7863
…
6976/7440 [===========================>..] - ETA: 0s
7200/7440 [============================>.] - ETA: 0s
7424/7440 [============================>.] - ETA: 0s
7440/7440 [==============================] - 2s 246us/step
current Test accuracy: 0.8139784946236559
current auc_score ------------------>  0.9094339663544918
__________________________________________________________________________________________________
Layer (type)                    Output Shape         Param #     Connected to                     
==================================================================================================
input_5 (InputLayer)            (None, 2, 96, 96)    0                                            
__________________________________________________________________________________________________
initial_conv2D (Conv2D)         (None, 16, 96, 96)   288         input_5[0][0]                    
__________________________________________________________________________________________________
dense_0_0_bn (BatchNormalizatio (None, 16, 96, 96)   64          initial_conv2D[0][0]             
__________________________________________________________________________________________________
activation_51 (Activation)      (None, 16, 96, 96)   0           dense_0_0_bn[0][0]               
__________________________________________________________________________________________________
dense_0_0_bottleneck_conv2D (Co (None, 72, 96, 96)   1152        activation_51[0][0]              
__________________________________________________________________________________________________
dense_0_0_bottleneck_bn (BatchN (None, 72, 96, 96)   288         dense_0_0_bottleneck_conv2D[0][0]
__________________________________________________________________________________________________
activation_52 (Activation)      (None, 72, 96, 96)   0           dense_0_0_bottleneck_bn[0][0]    
__________________________________________________________________________________________________
dense_0_0_conv2D (Conv2D)       (None, 18, 96, 96)   11664       activation_52[0][0]              
__________________________________________________________________________________________________
concatenate_20 (Concatenate)    (None, 34, 96, 96)   0           initial_conv2D[0][0]             
                                                                 dense_0_0_conv2D[0][0]           
__________________________________________________________________________________________________
dense_0_1_bn (BatchNormalizatio (None, 34, 96, 96)   136         concatenate_20[0][0]             
__________________________________________________________________________________________________
activation_53 (Activation)      (None, 34, 96, 96)   0           dense_0_1_bn[0][0]               
__________________________________________________________________________________________________
dense_0_1_bottleneck_conv2D (Co (None, 72, 96, 96)   2448        activation_53[0][0]              
__________________________________________________________________________________________________
dense_0_1_bottleneck_bn (BatchN (None, 72, 96, 96)   288         dense_0_1_bottleneck_conv2D[0][0]
__________________________________________________________________________________________________
activation_54 (Activation)      (None, 72, 96, 96)   0           dense_0_1_bottleneck_bn[0][0]    
__________________________________________________________________________________________________
dense_0_1_conv2D (Conv2D)       (None, 18, 96, 96)   11664       activation_54[0][0]              
__________________________________________________________________________________________________
concatenate_21 (Concatenate)    (None, 52, 96, 96)   0           concatenate_20[0][0]             
                                                                 dense_0_1_conv2D[0][0]           
__________________________________________________________________________________________________
dense_0_2_bn (BatchNormalizatio (None, 52, 96, 96)   208         concatenate_21[0][0]             
__________________________________________________________________________________________________
activation_55 (Activation)      (None, 52, 96, 96)   0           dense_0_2_bn[0][0]               
__________________________________________________________________________________________________
dense_0_2_bottleneck_conv2D (Co (None, 72, 96, 96)   3744        activation_55[0][0]              
__________________________________________________________________________________________________
dense_0_2_bottleneck_bn (BatchN (None, 72, 96, 96)   288         dense_0_2_bottleneck_conv2D[0][0]
__________________________________________________________________________________________________
activation_56 (Activation)      (None, 72, 96, 96)   0           dense_0_2_bottleneck_bn[0][0]    
__________________________________________________________________________________________________
dense_0_2_conv2D (Conv2D)       (None, 18, 96, 96)   11664       activation_56[0][0]              
__________________________________________________________________________________________________
concatenate_22 (Concatenate)    (None, 70, 96, 96)   0           concatenate_21[0][0]             
                                                                 dense_0_2_conv2D[0][0]           
__________________________________________________________________________________________________
tr_0_bn (BatchNormalization)    (None, 70, 96, 96)   280         concatenate_22[0][0]             
__________________________________________________________________________________________________
activation_57 (Activation)      (None, 70, 96, 96)   0           tr_0_bn[0][0]                    
__________________________________________________________________________________________________
tr_0_conv2D (Conv2D)            (None, 35, 96, 96)   2450        activation_57[0][0]              
__________________________________________________________________________________________________
average_pooling2d_9 (AveragePoo (None, 35, 48, 48)   0           tr_0_conv2D[0][0]                
__________________________________________________________________________________________________
dense_1_0_bn (BatchNormalizatio (None, 35, 48, 48)   140         average_pooling2d_9[0][0]        
__________________________________________________________________________________________________
activation_58 (Activation)      (None, 35, 48, 48)   0           dense_1_0_bn[0][0]               
__________________________________________________________________________________________________
dense_1_0_bottleneck_conv2D (Co (None, 72, 48, 48)   2520        activation_58[0][0]              
__________________________________________________________________________________________________
dense_1_0_bottleneck_bn (BatchN (None, 72, 48, 48)   288         dense_1_0_bottleneck_conv2D[0][0]
__________________________________________________________________________________________________
activation_59 (Activation)      (None, 72, 48, 48)   0           dense_1_0_bottleneck_bn[0][0]    
__________________________________________________________________________________________________
dense_1_0_conv2D (Conv2D)       (None, 18, 48, 48)   11664       activation_59[0][0]              
__________________________________________________________________________________________________
concatenate_23 (Concatenate)    (None, 53, 48, 48)   0           average_pooling2d_9[0][0]        
                                                                 dense_1_0_conv2D[0][0]           
__________________________________________________________________________________________________
dense_1_1_bn (BatchNormalizatio (None, 53, 48, 48)   212         concatenate_23[0][0]             
__________________________________________________________________________________________________
activation_60 (Activation)      (None, 53, 48, 48)   0           dense_1_1_bn[0][0]               
__________________________________________________________________________________________________
dense_1_1_bottleneck_conv2D (Co (None, 72, 48, 48)   3816        activation_60[0][0]              
__________________________________________________________________________________________________
dense_1_1_bottleneck_bn (BatchN (None, 72, 48, 48)   288         dense_1_1_bottleneck_conv2D[0][0]
__________________________________________________________________________________________________
activation_61 (Activation)      (None, 72, 48, 48)   0           dense_1_1_bottleneck_bn[0][0]    
__________________________________________________________________________________________________
dense_1_1_conv2D (Conv2D)       (None, 18, 48, 48)   11664       activation_61[0][0]              
__________________________________________________________________________________________________
concatenate_24 (Concatenate)    (None, 71, 48, 48)   0           concatenate_23[0][0]             
                                                                 dense_1_1_conv2D[0][0]           
__________________________________________________________________________________________________
dense_1_2_bn (BatchNormalizatio (None, 71, 48, 48)   284         concatenate_24[0][0]             
__________________________________________________________________________________________________
activation_62 (Activation)      (None, 71, 48, 48)   0           dense_1_2_bn[0][0]               
__________________________________________________________________________________________________
dense_1_2_bottleneck_conv2D (Co (None, 72, 48, 48)   5112        activation_62[0][0]              
__________________________________________________________________________________________________
dense_1_2_bottleneck_bn (BatchN (None, 72, 48, 48)   288         dense_1_2_bottleneck_conv2D[0][0]
__________________________________________________________________________________________________
activation_63 (Activation)      (None, 72, 48, 48)   0           dense_1_2_bottleneck_bn[0][0]    
__________________________________________________________________________________________________
dense_1_2_conv2D (Conv2D)       (None, 18, 48, 48)   11664       activation_63[0][0]              
__________________________________________________________________________________________________
concatenate_25 (Concatenate)    (None, 89, 48, 48)   0           concatenate_24[0][0]             
                                                                 dense_1_2_conv2D[0][0]           
__________________________________________________________________________________________________
final_bn (BatchNormalization)   (None, 89, 48, 48)   356         concatenate_25[0][0]             
__________________________________________________________________________________________________
activation_64 (Activation)      (None, 89, 48, 48)   0           final_bn[0][0]                   
__________________________________________________________________________________________________
global_average_pooling2d_5 (Glo (None, 89)           0           activation_64[0][0]              
__________________________________________________________________________________________________
dense_5 (Dense)                 (None, 1)            90          global_average_pooling2d_5[0][0] 
==================================================================================================
Total params: 95,012
Trainable params: 93,308
Non-trainable params: 1,704
__________________________________________________________________________________________________
Train on 31872 samples, validate on 7968 samples
Epoch 1/50
 - 48s - loss: 0.5907 - acc: 0.7552 - val_loss: 0.5640 - val_acc: 0.7691
…
7072/7440 [===========================>..] - ETA: 0s
7200/7440 [============================>.] - ETA: 0s
7328/7440 [============================>.] - ETA: 0s
7440/7440 [==============================] - 3s 452us/step
current Test accuracy: 0.7674731182795699
current auc_score ------------------>  0.882263122904382
__________________________________________________________________________________________________
Layer (type)                    Output Shape         Param #     Connected to                     
==================================================================================================
input_6 (InputLayer)            (None, 2, 96, 96)    0                                            
__________________________________________________________________________________________________
initial_conv2D (Conv2D)         (None, 16, 96, 96)   288         input_6[0][0]                    
__________________________________________________________________________________________________
dense_0_0_bn (BatchNormalizatio (None, 16, 96, 96)   64          initial_conv2D[0][0]             
__________________________________________________________________________________________________
activation_65 (Activation)      (None, 16, 96, 96)   0           dense_0_0_bn[0][0]               
__________________________________________________________________________________________________
dense_0_0_bottleneck_conv2D (Co (None, 72, 96, 96)   1152        activation_65[0][0]              
__________________________________________________________________________________________________
dense_0_0_bottleneck_bn (BatchN (None, 72, 96, 96)   288         dense_0_0_bottleneck_conv2D[0][0]
__________________________________________________________________________________________________
activation_66 (Activation)      (None, 72, 96, 96)   0           dense_0_0_bottleneck_bn[0][0]    
__________________________________________________________________________________________________
dense_0_0_conv2D (Conv2D)       (None, 18, 96, 96)   11664       activation_66[0][0]              
__________________________________________________________________________________________________
concatenate_26 (Concatenate)    (None, 34, 96, 96)   0           initial_conv2D[0][0]             
                                                                 dense_0_0_conv2D[0][0]           
__________________________________________________________________________________________________
dense_0_1_bn (BatchNormalizatio (None, 34, 96, 96)   136         concatenate_26[0][0]             
__________________________________________________________________________________________________
activation_67 (Activation)      (None, 34, 96, 96)   0           dense_0_1_bn[0][0]               
__________________________________________________________________________________________________
dense_0_1_bottleneck_conv2D (Co (None, 72, 96, 96)   2448        activation_67[0][0]              
__________________________________________________________________________________________________
dense_0_1_bottleneck_bn (BatchN (None, 72, 96, 96)   288         dense_0_1_bottleneck_conv2D[0][0]
__________________________________________________________________________________________________
activation_68 (Activation)      (None, 72, 96, 96)   0           dense_0_1_bottleneck_bn[0][0]    
__________________________________________________________________________________________________
dense_0_1_conv2D (Conv2D)       (None, 18, 96, 96)   11664       activation_68[0][0]              
__________________________________________________________________________________________________
concatenate_27 (Concatenate)    (None, 52, 96, 96)   0           concatenate_26[0][0]             
                                                                 dense_0_1_conv2D[0][0]           
__________________________________________________________________________________________________
dense_0_2_bn (BatchNormalizatio (None, 52, 96, 96)   208         concatenate_27[0][0]             
__________________________________________________________________________________________________
activation_69 (Activation)      (None, 52, 96, 96)   0           dense_0_2_bn[0][0]               
__________________________________________________________________________________________________
dense_0_2_bottleneck_conv2D (Co (None, 72, 96, 96)   3744        activation_69[0][0]              
__________________________________________________________________________________________________
dense_0_2_bottleneck_bn (BatchN (None, 72, 96, 96)   288         dense_0_2_bottleneck_conv2D[0][0]
__________________________________________________________________________________________________
activation_70 (Activation)      (None, 72, 96, 96)   0           dense_0_2_bottleneck_bn[0][0]    
__________________________________________________________________________________________________
dense_0_2_conv2D (Conv2D)       (None, 18, 96, 96)   11664       activation_70[0][0]              
__________________________________________________________________________________________________
concatenate_28 (Concatenate)    (None, 70, 96, 96)   0           concatenate_27[0][0]             
                                                                 dense_0_2_conv2D[0][0]           
__________________________________________________________________________________________________
tr_0_bn (BatchNormalization)    (None, 70, 96, 96)   280         concatenate_28[0][0]             
__________________________________________________________________________________________________
activation_71 (Activation)      (None, 70, 96, 96)   0           tr_0_bn[0][0]                    
__________________________________________________________________________________________________
tr_0_conv2D (Conv2D)            (None, 35, 96, 96)   2450        activation_71[0][0]              
__________________________________________________________________________________________________
average_pooling2d_10 (AveragePo (None, 35, 48, 48)   0           tr_0_conv2D[0][0]                
__________________________________________________________________________________________________
dense_1_0_bn (BatchNormalizatio (None, 35, 48, 48)   140         average_pooling2d_10[0][0]       
__________________________________________________________________________________________________
activation_72 (Activation)      (None, 35, 48, 48)   0           dense_1_0_bn[0][0]               
__________________________________________________________________________________________________
dense_1_0_bottleneck_conv2D (Co (None, 72, 48, 48)   2520        activation_72[0][0]              
__________________________________________________________________________________________________
dense_1_0_bottleneck_bn (BatchN (None, 72, 48, 48)   288         dense_1_0_bottleneck_conv2D[0][0]
__________________________________________________________________________________________________
activation_73 (Activation)      (None, 72, 48, 48)   0           dense_1_0_bottleneck_bn[0][0]    
__________________________________________________________________________________________________
dense_1_0_conv2D (Conv2D)       (None, 18, 48, 48)   11664       activation_73[0][0]              
__________________________________________________________________________________________________
concatenate_29 (Concatenate)    (None, 53, 48, 48)   0           average_pooling2d_10[0][0]       
                                                                 dense_1_0_conv2D[0][0]           
__________________________________________________________________________________________________
dense_1_1_bn (BatchNormalizatio (None, 53, 48, 48)   212         concatenate_29[0][0]             
__________________________________________________________________________________________________
activation_74 (Activation)      (None, 53, 48, 48)   0           dense_1_1_bn[0][0]               
__________________________________________________________________________________________________
dense_1_1_bottleneck_conv2D (Co (None, 72, 48, 48)   3816        activation_74[0][0]              
__________________________________________________________________________________________________
dense_1_1_bottleneck_bn (BatchN (None, 72, 48, 48)   288         dense_1_1_bottleneck_conv2D[0][0]
__________________________________________________________________________________________________
activation_75 (Activation)      (None, 72, 48, 48)   0           dense_1_1_bottleneck_bn[0][0]    
__________________________________________________________________________________________________
dense_1_1_conv2D (Conv2D)       (None, 18, 48, 48)   11664       activation_75[0][0]              
__________________________________________________________________________________________________
concatenate_30 (Concatenate)    (None, 71, 48, 48)   0           concatenate_29[0][0]             
                                                                 dense_1_1_conv2D[0][0]           
__________________________________________________________________________________________________
dense_1_2_bn (BatchNormalizatio (None, 71, 48, 48)   284         concatenate_30[0][0]             
__________________________________________________________________________________________________
activation_76 (Activation)      (None, 71, 48, 48)   0           dense_1_2_bn[0][0]               
__________________________________________________________________________________________________
dense_1_2_bottleneck_conv2D (Co (None, 72, 48, 48)   5112        activation_76[0][0]              
__________________________________________________________________________________________________
dense_1_2_bottleneck_bn (BatchN (None, 72, 48, 48)   288         dense_1_2_bottleneck_conv2D[0][0]
__________________________________________________________________________________________________
activation_77 (Activation)      (None, 72, 48, 48)   0           dense_1_2_bottleneck_bn[0][0]    
__________________________________________________________________________________________________
dense_1_2_conv2D (Conv2D)       (None, 18, 48, 48)   11664       activation_77[0][0]              
__________________________________________________________________________________________________
concatenate_31 (Concatenate)    (None, 89, 48, 48)   0           concatenate_30[0][0]             
                                                                 dense_1_2_conv2D[0][0]           
__________________________________________________________________________________________________
tr_1_bn (BatchNormalization)    (None, 89, 48, 48)   356         concatenate_31[0][0]             
__________________________________________________________________________________________________
activation_78 (Activation)      (None, 89, 48, 48)   0           tr_1_bn[0][0]                    
__________________________________________________________________________________________________
tr_1_conv2D (Conv2D)            (None, 44, 48, 48)   3916        activation_78[0][0]              
__________________________________________________________________________________________________
average_pooling2d_11 (AveragePo (None, 44, 24, 24)   0           tr_1_conv2D[0][0]                
__________________________________________________________________________________________________
dense_2_0_bn (BatchNormalizatio (None, 44, 24, 24)   176         average_pooling2d_11[0][0]       
__________________________________________________________________________________________________
activation_79 (Activation)      (None, 44, 24, 24)   0           dense_2_0_bn[0][0]               
__________________________________________________________________________________________________
dense_2_0_bottleneck_conv2D (Co (None, 72, 24, 24)   3168        activation_79[0][0]              
__________________________________________________________________________________________________
dense_2_0_bottleneck_bn (BatchN (None, 72, 24, 24)   288         dense_2_0_bottleneck_conv2D[0][0]
__________________________________________________________________________________________________
activation_80 (Activation)      (None, 72, 24, 24)   0           dense_2_0_bottleneck_bn[0][0]    
__________________________________________________________________________________________________
dense_2_0_conv2D (Conv2D)       (None, 18, 24, 24)   11664       activation_80[0][0]              
__________________________________________________________________________________________________
concatenate_32 (Concatenate)    (None, 62, 24, 24)   0           average_pooling2d_11[0][0]       
                                                                 dense_2_0_conv2D[0][0]           
__________________________________________________________________________________________________
dense_2_1_bn (BatchNormalizatio (None, 62, 24, 24)   248         concatenate_32[0][0]             
__________________________________________________________________________________________________
activation_81 (Activation)      (None, 62, 24, 24)   0           dense_2_1_bn[0][0]               
__________________________________________________________________________________________________
dense_2_1_bottleneck_conv2D (Co (None, 72, 24, 24)   4464        activation_81[0][0]              
__________________________________________________________________________________________________
dense_2_1_bottleneck_bn (BatchN (None, 72, 24, 24)   288         dense_2_1_bottleneck_conv2D[0][0]
__________________________________________________________________________________________________
activation_82 (Activation)      (None, 72, 24, 24)   0           dense_2_1_bottleneck_bn[0][0]    
__________________________________________________________________________________________________
dense_2_1_conv2D (Conv2D)       (None, 18, 24, 24)   11664       activation_82[0][0]              
__________________________________________________________________________________________________
concatenate_33 (Concatenate)    (None, 80, 24, 24)   0           concatenate_32[0][0]             
                                                                 dense_2_1_conv2D[0][0]           
__________________________________________________________________________________________________
dense_2_2_bn (BatchNormalizatio (None, 80, 24, 24)   320         concatenate_33[0][0]             
__________________________________________________________________________________________________
activation_83 (Activation)      (None, 80, 24, 24)   0           dense_2_2_bn[0][0]               
__________________________________________________________________________________________________
dense_2_2_bottleneck_conv2D (Co (None, 72, 24, 24)   5760        activation_83[0][0]              
__________________________________________________________________________________________________
dense_2_2_bottleneck_bn (BatchN (None, 72, 24, 24)   288         dense_2_2_bottleneck_conv2D[0][0]
__________________________________________________________________________________________________
activation_84 (Activation)      (None, 72, 24, 24)   0           dense_2_2_bottleneck_bn[0][0]    
__________________________________________________________________________________________________
dense_2_2_conv2D (Conv2D)       (None, 18, 24, 24)   11664       activation_84[0][0]              
__________________________________________________________________________________________________
concatenate_34 (Concatenate)    (None, 98, 24, 24)   0           concatenate_33[0][0]             
                                                                 dense_2_2_conv2D[0][0]           
__________________________________________________________________________________________________
tr_2_bn (BatchNormalization)    (None, 98, 24, 24)   392         concatenate_34[0][0]             
__________________________________________________________________________________________________
activation_85 (Activation)      (None, 98, 24, 24)   0           tr_2_bn[0][0]                    
__________________________________________________________________________________________________
tr_2_conv2D (Conv2D)            (None, 49, 24, 24)   4802        activation_85[0][0]              
__________________________________________________________________________________________________
average_pooling2d_12 (AveragePo (None, 49, 12, 12)   0           tr_2_conv2D[0][0]                
__________________________________________________________________________________________________
dense_3_0_bn (BatchNormalizatio (None, 49, 12, 12)   196         average_pooling2d_12[0][0]       
__________________________________________________________________________________________________
activation_86 (Activation)      (None, 49, 12, 12)   0           dense_3_0_bn[0][0]               
__________________________________________________________________________________________________
dense_3_0_bottleneck_conv2D (Co (None, 72, 12, 12)   3528        activation_86[0][0]              
__________________________________________________________________________________________________
dense_3_0_bottleneck_bn (BatchN (None, 72, 12, 12)   288         dense_3_0_bottleneck_conv2D[0][0]
__________________________________________________________________________________________________
activation_87 (Activation)      (None, 72, 12, 12)   0           dense_3_0_bottleneck_bn[0][0]    
__________________________________________________________________________________________________
dense_3_0_conv2D (Conv2D)       (None, 18, 12, 12)   11664       activation_87[0][0]              
__________________________________________________________________________________________________
concatenate_35 (Concatenate)    (None, 67, 12, 12)   0           average_pooling2d_12[0][0]       
                                                                 dense_3_0_conv2D[0][0]           
__________________________________________________________________________________________________
dense_3_1_bn (BatchNormalizatio (None, 67, 12, 12)   268         concatenate_35[0][0]             
__________________________________________________________________________________________________
activation_88 (Activation)      (None, 67, 12, 12)   0           dense_3_1_bn[0][0]               
__________________________________________________________________________________________________
dense_3_1_bottleneck_conv2D (Co (None, 72, 12, 12)   4824        activation_88[0][0]              
__________________________________________________________________________________________________
dense_3_1_bottleneck_bn (BatchN (None, 72, 12, 12)   288         dense_3_1_bottleneck_conv2D[0][0]
__________________________________________________________________________________________________
activation_89 (Activation)      (None, 72, 12, 12)   0           dense_3_1_bottleneck_bn[0][0]    
__________________________________________________________________________________________________
dense_3_1_conv2D (Conv2D)       (None, 18, 12, 12)   11664       activation_89[0][0]              
__________________________________________________________________________________________________
concatenate_36 (Concatenate)    (None, 85, 12, 12)   0           concatenate_35[0][0]             
                                                                 dense_3_1_conv2D[0][0]           
__________________________________________________________________________________________________
dense_3_2_bn (BatchNormalizatio (None, 85, 12, 12)   340         concatenate_36[0][0]             
__________________________________________________________________________________________________
activation_90 (Activation)      (None, 85, 12, 12)   0           dense_3_2_bn[0][0]               
__________________________________________________________________________________________________
dense_3_2_bottleneck_conv2D (Co (None, 72, 12, 12)   6120        activation_90[0][0]              
__________________________________________________________________________________________________
dense_3_2_bottleneck_bn (BatchN (None, 72, 12, 12)   288         dense_3_2_bottleneck_conv2D[0][0]
__________________________________________________________________________________________________
activation_91 (Activation)      (None, 72, 12, 12)   0           dense_3_2_bottleneck_bn[0][0]    
__________________________________________________________________________________________________
dense_3_2_conv2D (Conv2D)       (None, 18, 12, 12)   11664       activation_91[0][0]              
__________________________________________________________________________________________________
concatenate_37 (Concatenate)    (None, 103, 12, 12)  0           concatenate_36[0][0]             
                                                                 dense_3_2_conv2D[0][0]           
__________________________________________________________________________________________________
final_bn (BatchNormalization)   (None, 103, 12, 12)  412         concatenate_37[0][0]             
__________________________________________________________________________________________________
activation_92 (Activation)      (None, 103, 12, 12)  0           final_bn[0][0]                   
__________________________________________________________________________________________________
global_average_pooling2d_6 (Glo (None, 103)          0           activation_92[0][0]              
__________________________________________________________________________________________________
dense_6 (Dense)                 (None, 1)            104         global_average_pooling2d_6[0][0] 
==================================================================================================
Total params: 205,672
Trainable params: 201,928
Non-trainable params: 3,744
__________________________________________________________________________________________________
Train on 31872 samples, validate on 7968 samples
Epoch 1/50
 - 61s - loss: 0.6211 - acc: 0.7935 - val_loss: 0.5600 - val_acc: 0.8230
…
6816/7440 [==========================>...] - ETA: 0s
6944/7440 [===========================>..] - ETA: 0s
7072/7440 [===========================>..] - ETA: 0s
7200/7440 [============================>.] - ETA: 0s
7328/7440 [============================>.] - ETA: 0s
7440/7440 [==============================] - 4s 507us/step
current Test accuracy: 0.7705645161290322
current auc_score ------------------>  0.8975165481558561
_________________________________________________________________
Layer (type)                 Output Shape              Param #   
=================================================================
input_7 (InputLayer)         (None, 2, 96, 96)         0         
_________________________________________________________________
initial_conv2D (Conv2D)      (None, 16, 96, 96)        288       
_________________________________________________________________
tr_0_bn (BatchNormalization) (None, 16, 96, 96)        64        
_________________________________________________________________
activation_93 (Activation)   (None, 16, 96, 96)        0         
_________________________________________________________________
tr_0_conv2D (Conv2D)         (None, 8, 96, 96)         128       
_________________________________________________________________
average_pooling2d_13 (Averag (None, 8, 48, 48)         0         
_________________________________________________________________
final_bn (BatchNormalization (None, 8, 48, 48)         32        
_________________________________________________________________
activation_94 (Activation)   (None, 8, 48, 48)         0         
_________________________________________________________________
global_average_pooling2d_7 ( (None, 8)                 0         
_________________________________________________________________
dense_7 (Dense)              (None, 1)                 9         
=================================================================
Total params: 521
Trainable params: 473
Non-trainable params: 48
_________________________________________________________________
Train on 31872 samples, validate on 7968 samples
Epoch 1/50
 - 8s - loss: 0.6692 - acc: 0.6057 - val_loss: 0.6576 - val_acc: 0.6009
Epoch 2/50
 - 7s - loss: 0.6350 - acc: 0.6773 - val_loss: 0.6235 - val_acc: 0.7024
…
6304/7440 [========================>.....] - ETA: 0s
6816/7440 [==========================>...] - ETA: 0s
7328/7440 [============================>.] - ETA: 0s
7440/7440 [==============================] - 1s 100us/step
current Test accuracy: 0.8385752688172043
current auc_score ------------------>  0.8644298473812001
__________________________________________________________________________________________________
Layer (type)                    Output Shape         Param #     Connected to                     
==================================================================================================
input_8 (InputLayer)            (None, 2, 96, 96)    0                                            
__________________________________________________________________________________________________
initial_conv2D (Conv2D)         (None, 16, 96, 96)   288         input_8[0][0]                    
__________________________________________________________________________________________________
dense_0_0_bn (BatchNormalizatio (None, 16, 96, 96)   64          initial_conv2D[0][0]             
__________________________________________________________________________________________________
activation_95 (Activation)      (None, 16, 96, 96)   0           dense_0_0_bn[0][0]               
__________________________________________________________________________________________________
dense_0_0_bottleneck_conv2D (Co (None, 40, 96, 96)   640         activation_95[0][0]              
__________________________________________________________________________________________________
dense_0_0_bottleneck_bn (BatchN (None, 40, 96, 96)   160         dense_0_0_bottleneck_conv2D[0][0]
__________________________________________________________________________________________________
activation_96 (Activation)      (None, 40, 96, 96)   0           dense_0_0_bottleneck_bn[0][0]    
__________________________________________________________________________________________________
dense_0_0_conv2D (Conv2D)       (None, 10, 96, 96)   3600        activation_96[0][0]              
__________________________________________________________________________________________________
concatenate_38 (Concatenate)    (None, 26, 96, 96)   0           initial_conv2D[0][0]             
                                                                 dense_0_0_conv2D[0][0]           
__________________________________________________________________________________________________
dense_0_1_bn (BatchNormalizatio (None, 26, 96, 96)   104         concatenate_38[0][0]             
__________________________________________________________________________________________________
activation_97 (Activation)      (None, 26, 96, 96)   0           dense_0_1_bn[0][0]               
__________________________________________________________________________________________________
dense_0_1_bottleneck_conv2D (Co (None, 40, 96, 96)   1040        activation_97[0][0]              
__________________________________________________________________________________________________
dense_0_1_bottleneck_bn (BatchN (None, 40, 96, 96)   160         dense_0_1_bottleneck_conv2D[0][0]
__________________________________________________________________________________________________
activation_98 (Activation)      (None, 40, 96, 96)   0           dense_0_1_bottleneck_bn[0][0]    
__________________________________________________________________________________________________
dense_0_1_conv2D (Conv2D)       (None, 10, 96, 96)   3600        activation_98[0][0]              
__________________________________________________________________________________________________
concatenate_39 (Concatenate)    (None, 36, 96, 96)   0           concatenate_38[0][0]             
                                                                 dense_0_1_conv2D[0][0]           
__________________________________________________________________________________________________
dense_0_2_bn (BatchNormalizatio (None, 36, 96, 96)   144         concatenate_39[0][0]             
__________________________________________________________________________________________________
activation_99 (Activation)      (None, 36, 96, 96)   0           dense_0_2_bn[0][0]               
__________________________________________________________________________________________________
dense_0_2_bottleneck_conv2D (Co (None, 40, 96, 96)   1440        activation_99[0][0]              
__________________________________________________________________________________________________
dense_0_2_bottleneck_bn (BatchN (None, 40, 96, 96)   160         dense_0_2_bottleneck_conv2D[0][0]
__________________________________________________________________________________________________
activation_100 (Activation)     (None, 40, 96, 96)   0           dense_0_2_bottleneck_bn[0][0]    
__________________________________________________________________________________________________
dense_0_2_conv2D (Conv2D)       (None, 10, 96, 96)   3600        activation_100[0][0]             
__________________________________________________________________________________________________
concatenate_40 (Concatenate)    (None, 46, 96, 96)   0           concatenate_39[0][0]             
                                                                 dense_0_2_conv2D[0][0]           
__________________________________________________________________________________________________
dense_0_3_bn (BatchNormalizatio (None, 46, 96, 96)   184         concatenate_40[0][0]             
__________________________________________________________________________________________________
activation_101 (Activation)     (None, 46, 96, 96)   0           dense_0_3_bn[0][0]               
__________________________________________________________________________________________________
dense_0_3_bottleneck_conv2D (Co (None, 40, 96, 96)   1840        activation_101[0][0]             
__________________________________________________________________________________________________
dense_0_3_bottleneck_bn (BatchN (None, 40, 96, 96)   160         dense_0_3_bottleneck_conv2D[0][0]
__________________________________________________________________________________________________
activation_102 (Activation)     (None, 40, 96, 96)   0           dense_0_3_bottleneck_bn[0][0]    
__________________________________________________________________________________________________
dense_0_3_conv2D (Conv2D)       (None, 10, 96, 96)   3600        activation_102[0][0]             
__________________________________________________________________________________________________
concatenate_41 (Concatenate)    (None, 56, 96, 96)   0           concatenate_40[0][0]             
                                                                 dense_0_3_conv2D[0][0]           
__________________________________________________________________________________________________
dense_0_4_bn (BatchNormalizatio (None, 56, 96, 96)   224         concatenate_41[0][0]             
__________________________________________________________________________________________________
activation_103 (Activation)     (None, 56, 96, 96)   0           dense_0_4_bn[0][0]               
__________________________________________________________________________________________________
dense_0_4_bottleneck_conv2D (Co (None, 40, 96, 96)   2240        activation_103[0][0]             
__________________________________________________________________________________________________
dense_0_4_bottleneck_bn (BatchN (None, 40, 96, 96)   160         dense_0_4_bottleneck_conv2D[0][0]
__________________________________________________________________________________________________
activation_104 (Activation)     (None, 40, 96, 96)   0           dense_0_4_bottleneck_bn[0][0]    
__________________________________________________________________________________________________
dense_0_4_conv2D (Conv2D)       (None, 10, 96, 96)   3600        activation_104[0][0]             
__________________________________________________________________________________________________
concatenate_42 (Concatenate)    (None, 66, 96, 96)   0           concatenate_41[0][0]             
                                                                 dense_0_4_conv2D[0][0]           
__________________________________________________________________________________________________
tr_0_bn (BatchNormalization)    (None, 66, 96, 96)   264         concatenate_42[0][0]             
__________________________________________________________________________________________________
activation_105 (Activation)     (None, 66, 96, 96)   0           tr_0_bn[0][0]                    
__________________________________________________________________________________________________
tr_0_conv2D (Conv2D)            (None, 33, 96, 96)   2178        activation_105[0][0]             
__________________________________________________________________________________________________
average_pooling2d_14 (AveragePo (None, 33, 48, 48)   0           tr_0_conv2D[0][0]                
__________________________________________________________________________________________________
dense_1_0_bn (BatchNormalizatio (None, 33, 48, 48)   132         average_pooling2d_14[0][0]       
__________________________________________________________________________________________________
activation_106 (Activation)     (None, 33, 48, 48)   0           dense_1_0_bn[0][0]               
__________________________________________________________________________________________________
dense_1_0_bottleneck_conv2D (Co (None, 40, 48, 48)   1320        activation_106[0][0]             
__________________________________________________________________________________________________
dense_1_0_bottleneck_bn (BatchN (None, 40, 48, 48)   160         dense_1_0_bottleneck_conv2D[0][0]
__________________________________________________________________________________________________
activation_107 (Activation)     (None, 40, 48, 48)   0           dense_1_0_bottleneck_bn[0][0]    
__________________________________________________________________________________________________
dense_1_0_conv2D (Conv2D)       (None, 10, 48, 48)   3600        activation_107[0][0]             
__________________________________________________________________________________________________
concatenate_43 (Concatenate)    (None, 43, 48, 48)   0           average_pooling2d_14[0][0]       
                                                                 dense_1_0_conv2D[0][0]           
__________________________________________________________________________________________________
dense_1_1_bn (BatchNormalizatio (None, 43, 48, 48)   172         concatenate_43[0][0]             
__________________________________________________________________________________________________
activation_108 (Activation)     (None, 43, 48, 48)   0           dense_1_1_bn[0][0]               
__________________________________________________________________________________________________
dense_1_1_bottleneck_conv2D (Co (None, 40, 48, 48)   1720        activation_108[0][0]             
__________________________________________________________________________________________________
dense_1_1_bottleneck_bn (BatchN (None, 40, 48, 48)   160         dense_1_1_bottleneck_conv2D[0][0]
__________________________________________________________________________________________________
activation_109 (Activation)     (None, 40, 48, 48)   0           dense_1_1_bottleneck_bn[0][0]    
__________________________________________________________________________________________________
dense_1_1_conv2D (Conv2D)       (None, 10, 48, 48)   3600        activation_109[0][0]             
__________________________________________________________________________________________________
concatenate_44 (Concatenate)    (None, 53, 48, 48)   0           concatenate_43[0][0]             
                                                                 dense_1_1_conv2D[0][0]           
__________________________________________________________________________________________________
dense_1_2_bn (BatchNormalizatio (None, 53, 48, 48)   212         concatenate_44[0][0]             
__________________________________________________________________________________________________
activation_110 (Activation)     (None, 53, 48, 48)   0           dense_1_2_bn[0][0]               
__________________________________________________________________________________________________
dense_1_2_bottleneck_conv2D (Co (None, 40, 48, 48)   2120        activation_110[0][0]             
__________________________________________________________________________________________________
dense_1_2_bottleneck_bn (BatchN (None, 40, 48, 48)   160         dense_1_2_bottleneck_conv2D[0][0]
__________________________________________________________________________________________________
activation_111 (Activation)     (None, 40, 48, 48)   0           dense_1_2_bottleneck_bn[0][0]    
__________________________________________________________________________________________________
dense_1_2_conv2D (Conv2D)       (None, 10, 48, 48)   3600        activation_111[0][0]             
__________________________________________________________________________________________________
concatenate_45 (Concatenate)    (None, 63, 48, 48)   0           concatenate_44[0][0]             
                                                                 dense_1_2_conv2D[0][0]           
__________________________________________________________________________________________________
dense_1_3_bn (BatchNormalizatio (None, 63, 48, 48)   252         concatenate_45[0][0]             
__________________________________________________________________________________________________
activation_112 (Activation)     (None, 63, 48, 48)   0           dense_1_3_bn[0][0]               
__________________________________________________________________________________________________
dense_1_3_bottleneck_conv2D (Co (None, 40, 48, 48)   2520        activation_112[0][0]             
__________________________________________________________________________________________________
dense_1_3_bottleneck_bn (BatchN (None, 40, 48, 48)   160         dense_1_3_bottleneck_conv2D[0][0]
__________________________________________________________________________________________________
activation_113 (Activation)     (None, 40, 48, 48)   0           dense_1_3_bottleneck_bn[0][0]    
__________________________________________________________________________________________________
dense_1_3_conv2D (Conv2D)       (None, 10, 48, 48)   3600        activation_113[0][0]             
__________________________________________________________________________________________________
concatenate_46 (Concatenate)    (None, 73, 48, 48)   0           concatenate_45[0][0]             
                                                                 dense_1_3_conv2D[0][0]           
__________________________________________________________________________________________________
dense_1_4_bn (BatchNormalizatio (None, 73, 48, 48)   292         concatenate_46[0][0]             
__________________________________________________________________________________________________
activation_114 (Activation)     (None, 73, 48, 48)   0           dense_1_4_bn[0][0]               
__________________________________________________________________________________________________
dense_1_4_bottleneck_conv2D (Co (None, 40, 48, 48)   2920        activation_114[0][0]             
__________________________________________________________________________________________________
dense_1_4_bottleneck_bn (BatchN (None, 40, 48, 48)   160         dense_1_4_bottleneck_conv2D[0][0]
__________________________________________________________________________________________________
activation_115 (Activation)     (None, 40, 48, 48)   0           dense_1_4_bottleneck_bn[0][0]    
__________________________________________________________________________________________________
dense_1_4_conv2D (Conv2D)       (None, 10, 48, 48)   3600        activation_115[0][0]             
__________________________________________________________________________________________________
concatenate_47 (Concatenate)    (None, 83, 48, 48)   0           concatenate_46[0][0]             
                                                                 dense_1_4_conv2D[0][0]           
__________________________________________________________________________________________________
tr_1_bn (BatchNormalization)    (None, 83, 48, 48)   332         concatenate_47[0][0]             
__________________________________________________________________________________________________
activation_116 (Activation)     (None, 83, 48, 48)   0           tr_1_bn[0][0]                    
__________________________________________________________________________________________________
tr_1_conv2D (Conv2D)            (None, 41, 48, 48)   3403        activation_116[0][0]             
__________________________________________________________________________________________________
average_pooling2d_15 (AveragePo (None, 41, 24, 24)   0           tr_1_conv2D[0][0]                
__________________________________________________________________________________________________
dense_2_0_bn (BatchNormalizatio (None, 41, 24, 24)   164         average_pooling2d_15[0][0]       
__________________________________________________________________________________________________
activation_117 (Activation)     (None, 41, 24, 24)   0           dense_2_0_bn[0][0]               
__________________________________________________________________________________________________
dense_2_0_bottleneck_conv2D (Co (None, 40, 24, 24)   1640        activation_117[0][0]             
__________________________________________________________________________________________________
dense_2_0_bottleneck_bn (BatchN (None, 40, 24, 24)   160         dense_2_0_bottleneck_conv2D[0][0]
__________________________________________________________________________________________________
activation_118 (Activation)     (None, 40, 24, 24)   0           dense_2_0_bottleneck_bn[0][0]    
__________________________________________________________________________________________________
dense_2_0_conv2D (Conv2D)       (None, 10, 24, 24)   3600        activation_118[0][0]             
__________________________________________________________________________________________________
concatenate_48 (Concatenate)    (None, 51, 24, 24)   0           average_pooling2d_15[0][0]       
                                                                 dense_2_0_conv2D[0][0]           
__________________________________________________________________________________________________
dense_2_1_bn (BatchNormalizatio (None, 51, 24, 24)   204         concatenate_48[0][0]             
__________________________________________________________________________________________________
activation_119 (Activation)     (None, 51, 24, 24)   0           dense_2_1_bn[0][0]               
__________________________________________________________________________________________________
dense_2_1_bottleneck_conv2D (Co (None, 40, 24, 24)   2040        activation_119[0][0]             
__________________________________________________________________________________________________
dense_2_1_bottleneck_bn (BatchN (None, 40, 24, 24)   160         dense_2_1_bottleneck_conv2D[0][0]
__________________________________________________________________________________________________
activation_120 (Activation)     (None, 40, 24, 24)   0           dense_2_1_bottleneck_bn[0][0]    
__________________________________________________________________________________________________
dense_2_1_conv2D (Conv2D)       (None, 10, 24, 24)   3600        activation_120[0][0]             
__________________________________________________________________________________________________
concatenate_49 (Concatenate)    (None, 61, 24, 24)   0           concatenate_48[0][0]             
                                                                 dense_2_1_conv2D[0][0]           
__________________________________________________________________________________________________
dense_2_2_bn (BatchNormalizatio (None, 61, 24, 24)   244         concatenate_49[0][0]             
__________________________________________________________________________________________________
activation_121 (Activation)     (None, 61, 24, 24)   0           dense_2_2_bn[0][0]               
__________________________________________________________________________________________________
dense_2_2_bottleneck_conv2D (Co (None, 40, 24, 24)   2440        activation_121[0][0]             
__________________________________________________________________________________________________
dense_2_2_bottleneck_bn (BatchN (None, 40, 24, 24)   160         dense_2_2_bottleneck_conv2D[0][0]
__________________________________________________________________________________________________
activation_122 (Activation)     (None, 40, 24, 24)   0           dense_2_2_bottleneck_bn[0][0]    
__________________________________________________________________________________________________
dense_2_2_conv2D (Conv2D)       (None, 10, 24, 24)   3600        activation_122[0][0]             
__________________________________________________________________________________________________
concatenate_50 (Concatenate)    (None, 71, 24, 24)   0           concatenate_49[0][0]             
                                                                 dense_2_2_conv2D[0][0]           
__________________________________________________________________________________________________
dense_2_3_bn (BatchNormalizatio (None, 71, 24, 24)   284         concatenate_50[0][0]             
__________________________________________________________________________________________________
activation_123 (Activation)     (None, 71, 24, 24)   0           dense_2_3_bn[0][0]               
__________________________________________________________________________________________________
dense_2_3_bottleneck_conv2D (Co (None, 40, 24, 24)   2840        activation_123[0][0]             
__________________________________________________________________________________________________
dense_2_3_bottleneck_bn (BatchN (None, 40, 24, 24)   160         dense_2_3_bottleneck_conv2D[0][0]
__________________________________________________________________________________________________
activation_124 (Activation)     (None, 40, 24, 24)   0           dense_2_3_bottleneck_bn[0][0]    
__________________________________________________________________________________________________
dense_2_3_conv2D (Conv2D)       (None, 10, 24, 24)   3600        activation_124[0][0]             
__________________________________________________________________________________________________
concatenate_51 (Concatenate)    (None, 81, 24, 24)   0           concatenate_50[0][0]             
                                                                 dense_2_3_conv2D[0][0]           
__________________________________________________________________________________________________
dense_2_4_bn (BatchNormalizatio (None, 81, 24, 24)   324         concatenate_51[0][0]             
__________________________________________________________________________________________________
activation_125 (Activation)     (None, 81, 24, 24)   0           dense_2_4_bn[0][0]               
__________________________________________________________________________________________________
dense_2_4_bottleneck_conv2D (Co (None, 40, 24, 24)   3240        activation_125[0][0]             
__________________________________________________________________________________________________
dense_2_4_bottleneck_bn (BatchN (None, 40, 24, 24)   160         dense_2_4_bottleneck_conv2D[0][0]
__________________________________________________________________________________________________
activation_126 (Activation)     (None, 40, 24, 24)   0           dense_2_4_bottleneck_bn[0][0]    
__________________________________________________________________________________________________
dense_2_4_conv2D (Conv2D)       (None, 10, 24, 24)   3600        activation_126[0][0]             
__________________________________________________________________________________________________
concatenate_52 (Concatenate)    (None, 91, 24, 24)   0           concatenate_51[0][0]             
                                                                 dense_2_4_conv2D[0][0]           
__________________________________________________________________________________________________
tr_2_bn (BatchNormalization)    (None, 91, 24, 24)   364         concatenate_52[0][0]             
__________________________________________________________________________________________________
activation_127 (Activation)     (None, 91, 24, 24)   0           tr_2_bn[0][0]                    
__________________________________________________________________________________________________
tr_2_conv2D (Conv2D)            (None, 45, 24, 24)   4095        activation_127[0][0]             
__________________________________________________________________________________________________
average_pooling2d_16 (AveragePo (None, 45, 12, 12)   0           tr_2_conv2D[0][0]                
__________________________________________________________________________________________________
dense_3_0_bn (BatchNormalizatio (None, 45, 12, 12)   180         average_pooling2d_16[0][0]       
__________________________________________________________________________________________________
activation_128 (Activation)     (None, 45, 12, 12)   0           dense_3_0_bn[0][0]               
__________________________________________________________________________________________________
dense_3_0_bottleneck_conv2D (Co (None, 40, 12, 12)   1800        activation_128[0][0]             
__________________________________________________________________________________________________
dense_3_0_bottleneck_bn (BatchN (None, 40, 12, 12)   160         dense_3_0_bottleneck_conv2D[0][0]
__________________________________________________________________________________________________
activation_129 (Activation)     (None, 40, 12, 12)   0           dense_3_0_bottleneck_bn[0][0]    
__________________________________________________________________________________________________
dense_3_0_conv2D (Conv2D)       (None, 10, 12, 12)   3600        activation_129[0][0]             
__________________________________________________________________________________________________
concatenate_53 (Concatenate)    (None, 55, 12, 12)   0           average_pooling2d_16[0][0]       
                                                                 dense_3_0_conv2D[0][0]           
__________________________________________________________________________________________________
dense_3_1_bn (BatchNormalizatio (None, 55, 12, 12)   220         concatenate_53[0][0]             
__________________________________________________________________________________________________
activation_130 (Activation)     (None, 55, 12, 12)   0           dense_3_1_bn[0][0]               
__________________________________________________________________________________________________
dense_3_1_bottleneck_conv2D (Co (None, 40, 12, 12)   2200        activation_130[0][0]             
__________________________________________________________________________________________________
dense_3_1_bottleneck_bn (BatchN (None, 40, 12, 12)   160         dense_3_1_bottleneck_conv2D[0][0]
__________________________________________________________________________________________________
activation_131 (Activation)     (None, 40, 12, 12)   0           dense_3_1_bottleneck_bn[0][0]    
__________________________________________________________________________________________________
dense_3_1_conv2D (Conv2D)       (None, 10, 12, 12)   3600        activation_131[0][0]             
__________________________________________________________________________________________________
concatenate_54 (Concatenate)    (None, 65, 12, 12)   0           concatenate_53[0][0]             
                                                                 dense_3_1_conv2D[0][0]           
__________________________________________________________________________________________________
dense_3_2_bn (BatchNormalizatio (None, 65, 12, 12)   260         concatenate_54[0][0]             
__________________________________________________________________________________________________
activation_132 (Activation)     (None, 65, 12, 12)   0           dense_3_2_bn[0][0]               
__________________________________________________________________________________________________
dense_3_2_bottleneck_conv2D (Co (None, 40, 12, 12)   2600        activation_132[0][0]             
__________________________________________________________________________________________________
dense_3_2_bottleneck_bn (BatchN (None, 40, 12, 12)   160         dense_3_2_bottleneck_conv2D[0][0]
__________________________________________________________________________________________________
activation_133 (Activation)     (None, 40, 12, 12)   0           dense_3_2_bottleneck_bn[0][0]    
__________________________________________________________________________________________________
dense_3_2_conv2D (Conv2D)       (None, 10, 12, 12)   3600        activation_133[0][0]             
__________________________________________________________________________________________________
concatenate_55 (Concatenate)    (None, 75, 12, 12)   0           concatenate_54[0][0]             
                                                                 dense_3_2_conv2D[0][0]           
__________________________________________________________________________________________________
dense_3_3_bn (BatchNormalizatio (None, 75, 12, 12)   300         concatenate_55[0][0]             
__________________________________________________________________________________________________
activation_134 (Activation)     (None, 75, 12, 12)   0           dense_3_3_bn[0][0]               
__________________________________________________________________________________________________
dense_3_3_bottleneck_conv2D (Co (None, 40, 12, 12)   3000        activation_134[0][0]             
__________________________________________________________________________________________________
dense_3_3_bottleneck_bn (BatchN (None, 40, 12, 12)   160         dense_3_3_bottleneck_conv2D[0][0]
__________________________________________________________________________________________________
activation_135 (Activation)     (None, 40, 12, 12)   0           dense_3_3_bottleneck_bn[0][0]    
__________________________________________________________________________________________________
dense_3_3_conv2D (Conv2D)       (None, 10, 12, 12)   3600        activation_135[0][0]             
__________________________________________________________________________________________________
concatenate_56 (Concatenate)    (None, 85, 12, 12)   0           concatenate_55[0][0]             
                                                                 dense_3_3_conv2D[0][0]           
__________________________________________________________________________________________________
dense_3_4_bn (BatchNormalizatio (None, 85, 12, 12)   340         concatenate_56[0][0]             
__________________________________________________________________________________________________
activation_136 (Activation)     (None, 85, 12, 12)   0           dense_3_4_bn[0][0]               
__________________________________________________________________________________________________
dense_3_4_bottleneck_conv2D (Co (None, 40, 12, 12)   3400        activation_136[0][0]             
__________________________________________________________________________________________________
dense_3_4_bottleneck_bn (BatchN (None, 40, 12, 12)   160         dense_3_4_bottleneck_conv2D[0][0]
__________________________________________________________________________________________________
activation_137 (Activation)     (None, 40, 12, 12)   0           dense_3_4_bottleneck_bn[0][0]    
__________________________________________________________________________________________________
dense_3_4_conv2D (Conv2D)       (None, 10, 12, 12)   3600        activation_137[0][0]             
__________________________________________________________________________________________________
concatenate_57 (Concatenate)    (None, 95, 12, 12)   0           concatenate_56[0][0]             
                                                                 dense_3_4_conv2D[0][0]           
__________________________________________________________________________________________________
final_bn (BatchNormalization)   (None, 95, 12, 12)   380         concatenate_57[0][0]             
__________________________________________________________________________________________________
activation_138 (Activation)     (None, 95, 12, 12)   0           final_bn[0][0]                   
__________________________________________________________________________________________________
global_average_pooling2d_8 (Glo (None, 95)           0           activation_138[0][0]             
__________________________________________________________________________________________________
dense_8 (Dense)                 (None, 1)            96          global_average_pooling2d_8[0][0] 
==================================================================================================
Total params: 133,900
Trainable params: 129,480
Non-trainable params: 4,420
__________________________________________________________________________________________________
Train on 31872 samples, validate on 7968 samples
Epoch 1/50
 - 78s - loss: 0.6127 - acc: 0.7908 - val_loss: 0.5935 - val_acc: 0.7977
…
7232/7440 [============================>.] - ETA: 0s
7328/7440 [============================>.] - ETA: 0s
7424/7440 [============================>.] - ETA: 0s
7440/7440 [==============================] - 4s 593us/step
current Test accuracy: 0.7926075268817204
current auc_score ------------------>  0.8889524800554977
__________________________________________________________________________________________________
Layer (type)                    Output Shape         Param #     Connected to                     
==================================================================================================
input_9 (InputLayer)            (None, 2, 96, 96)    0                                            
__________________________________________________________________________________________________
initial_conv2D (Conv2D)         (None, 16, 96, 96)   288         input_9[0][0]                    
__________________________________________________________________________________________________
dense_0_0_bn (BatchNormalizatio (None, 16, 96, 96)   64          initial_conv2D[0][0]             
__________________________________________________________________________________________________
activation_139 (Activation)     (None, 16, 96, 96)   0           dense_0_0_bn[0][0]               
__________________________________________________________________________________________________
dense_0_0_bottleneck_conv2D (Co (None, 72, 96, 96)   1152        activation_139[0][0]             
__________________________________________________________________________________________________
dense_0_0_bottleneck_bn (BatchN (None, 72, 96, 96)   288         dense_0_0_bottleneck_conv2D[0][0]
__________________________________________________________________________________________________
activation_140 (Activation)     (None, 72, 96, 96)   0           dense_0_0_bottleneck_bn[0][0]    
__________________________________________________________________________________________________
dense_0_0_conv2D (Conv2D)       (None, 18, 96, 96)   11664       activation_140[0][0]             
__________________________________________________________________________________________________
concatenate_58 (Concatenate)    (None, 34, 96, 96)   0           initial_conv2D[0][0]             
                                                                 dense_0_0_conv2D[0][0]           
__________________________________________________________________________________________________
dense_0_1_bn (BatchNormalizatio (None, 34, 96, 96)   136         concatenate_58[0][0]             
__________________________________________________________________________________________________
activation_141 (Activation)     (None, 34, 96, 96)   0           dense_0_1_bn[0][0]               
__________________________________________________________________________________________________
dense_0_1_bottleneck_conv2D (Co (None, 72, 96, 96)   2448        activation_141[0][0]             
__________________________________________________________________________________________________
dense_0_1_bottleneck_bn (BatchN (None, 72, 96, 96)   288         dense_0_1_bottleneck_conv2D[0][0]
__________________________________________________________________________________________________
activation_142 (Activation)     (None, 72, 96, 96)   0           dense_0_1_bottleneck_bn[0][0]    
__________________________________________________________________________________________________
dense_0_1_conv2D (Conv2D)       (None, 18, 96, 96)   11664       activation_142[0][0]             
__________________________________________________________________________________________________
concatenate_59 (Concatenate)    (None, 52, 96, 96)   0           concatenate_58[0][0]             
                                                                 dense_0_1_conv2D[0][0]           
__________________________________________________________________________________________________
dense_0_2_bn (BatchNormalizatio (None, 52, 96, 96)   208         concatenate_59[0][0]             
__________________________________________________________________________________________________
activation_143 (Activation)     (None, 52, 96, 96)   0           dense_0_2_bn[0][0]               
__________________________________________________________________________________________________
dense_0_2_bottleneck_conv2D (Co (None, 72, 96, 96)   3744        activation_143[0][0]             
__________________________________________________________________________________________________
dense_0_2_bottleneck_bn (BatchN (None, 72, 96, 96)   288         dense_0_2_bottleneck_conv2D[0][0]
__________________________________________________________________________________________________
activation_144 (Activation)     (None, 72, 96, 96)   0           dense_0_2_bottleneck_bn[0][0]    
__________________________________________________________________________________________________
dense_0_2_conv2D (Conv2D)       (None, 18, 96, 96)   11664       activation_144[0][0]             
__________________________________________________________________________________________________
concatenate_60 (Concatenate)    (None, 70, 96, 96)   0           concatenate_59[0][0]             
                                                                 dense_0_2_conv2D[0][0]           
__________________________________________________________________________________________________
dense_0_3_bn (BatchNormalizatio (None, 70, 96, 96)   280         concatenate_60[0][0]             
__________________________________________________________________________________________________
activation_145 (Activation)     (None, 70, 96, 96)   0           dense_0_3_bn[0][0]               
__________________________________________________________________________________________________
dense_0_3_bottleneck_conv2D (Co (None, 72, 96, 96)   5040        activation_145[0][0]             
__________________________________________________________________________________________________
dense_0_3_bottleneck_bn (BatchN (None, 72, 96, 96)   288         dense_0_3_bottleneck_conv2D[0][0]
__________________________________________________________________________________________________
activation_146 (Activation)     (None, 72, 96, 96)   0           dense_0_3_bottleneck_bn[0][0]    
__________________________________________________________________________________________________
dense_0_3_conv2D (Conv2D)       (None, 18, 96, 96)   11664       activation_146[0][0]             
__________________________________________________________________________________________________
concatenate_61 (Concatenate)    (None, 88, 96, 96)   0           concatenate_60[0][0]             
                                                                 dense_0_3_conv2D[0][0]           
__________________________________________________________________________________________________
dense_0_4_bn (BatchNormalizatio (None, 88, 96, 96)   352         concatenate_61[0][0]             
__________________________________________________________________________________________________
activation_147 (Activation)     (None, 88, 96, 96)   0           dense_0_4_bn[0][0]               
__________________________________________________________________________________________________
dense_0_4_bottleneck_conv2D (Co (None, 72, 96, 96)   6336        activation_147[0][0]             
__________________________________________________________________________________________________
dense_0_4_bottleneck_bn (BatchN (None, 72, 96, 96)   288         dense_0_4_bottleneck_conv2D[0][0]
__________________________________________________________________________________________________
activation_148 (Activation)     (None, 72, 96, 96)   0           dense_0_4_bottleneck_bn[0][0]    
__________________________________________________________________________________________________
dense_0_4_conv2D (Conv2D)       (None, 18, 96, 96)   11664       activation_148[0][0]             
__________________________________________________________________________________________________
concatenate_62 (Concatenate)    (None, 106, 96, 96)  0           concatenate_61[0][0]             
                                                                 dense_0_4_conv2D[0][0]           
__________________________________________________________________________________________________
tr_0_bn (BatchNormalization)    (None, 106, 96, 96)  424         concatenate_62[0][0]             
__________________________________________________________________________________________________
activation_149 (Activation)     (None, 106, 96, 96)  0           tr_0_bn[0][0]                    
__________________________________________________________________________________________________
tr_0_conv2D (Conv2D)            (None, 53, 96, 96)   5618        activation_149[0][0]             
__________________________________________________________________________________________________
average_pooling2d_17 (AveragePo (None, 53, 48, 48)   0           tr_0_conv2D[0][0]                
__________________________________________________________________________________________________
dense_1_0_bn (BatchNormalizatio (None, 53, 48, 48)   212         average_pooling2d_17[0][0]       
__________________________________________________________________________________________________
activation_150 (Activation)     (None, 53, 48, 48)   0           dense_1_0_bn[0][0]               
__________________________________________________________________________________________________
dense_1_0_bottleneck_conv2D (Co (None, 72, 48, 48)   3816        activation_150[0][0]             
__________________________________________________________________________________________________
dense_1_0_bottleneck_bn (BatchN (None, 72, 48, 48)   288         dense_1_0_bottleneck_conv2D[0][0]
__________________________________________________________________________________________________
activation_151 (Activation)     (None, 72, 48, 48)   0           dense_1_0_bottleneck_bn[0][0]    
__________________________________________________________________________________________________
dense_1_0_conv2D (Conv2D)       (None, 18, 48, 48)   11664       activation_151[0][0]             
__________________________________________________________________________________________________
concatenate_63 (Concatenate)    (None, 71, 48, 48)   0           average_pooling2d_17[0][0]       
                                                                 dense_1_0_conv2D[0][0]           
__________________________________________________________________________________________________
dense_1_1_bn (BatchNormalizatio (None, 71, 48, 48)   284         concatenate_63[0][0]             
__________________________________________________________________________________________________
activation_152 (Activation)     (None, 71, 48, 48)   0           dense_1_1_bn[0][0]               
__________________________________________________________________________________________________
dense_1_1_bottleneck_conv2D (Co (None, 72, 48, 48)   5112        activation_152[0][0]             
__________________________________________________________________________________________________
dense_1_1_bottleneck_bn (BatchN (None, 72, 48, 48)   288         dense_1_1_bottleneck_conv2D[0][0]
__________________________________________________________________________________________________
activation_153 (Activation)     (None, 72, 48, 48)   0           dense_1_1_bottleneck_bn[0][0]    
__________________________________________________________________________________________________
dense_1_1_conv2D (Conv2D)       (None, 18, 48, 48)   11664       activation_153[0][0]             
__________________________________________________________________________________________________
concatenate_64 (Concatenate)    (None, 89, 48, 48)   0           concatenate_63[0][0]             
                                                                 dense_1_1_conv2D[0][0]           
__________________________________________________________________________________________________
dense_1_2_bn (BatchNormalizatio (None, 89, 48, 48)   356         concatenate_64[0][0]             
__________________________________________________________________________________________________
activation_154 (Activation)     (None, 89, 48, 48)   0           dense_1_2_bn[0][0]               
__________________________________________________________________________________________________
dense_1_2_bottleneck_conv2D (Co (None, 72, 48, 48)   6408        activation_154[0][0]             
__________________________________________________________________________________________________
dense_1_2_bottleneck_bn (BatchN (None, 72, 48, 48)   288         dense_1_2_bottleneck_conv2D[0][0]
__________________________________________________________________________________________________
activation_155 (Activation)     (None, 72, 48, 48)   0           dense_1_2_bottleneck_bn[0][0]    
__________________________________________________________________________________________________
dense_1_2_conv2D (Conv2D)       (None, 18, 48, 48)   11664       activation_155[0][0]             
__________________________________________________________________________________________________
concatenate_65 (Concatenate)    (None, 107, 48, 48)  0           concatenate_64[0][0]             
                                                                 dense_1_2_conv2D[0][0]           
__________________________________________________________________________________________________
dense_1_3_bn (BatchNormalizatio (None, 107, 48, 48)  428         concatenate_65[0][0]             
__________________________________________________________________________________________________
activation_156 (Activation)     (None, 107, 48, 48)  0           dense_1_3_bn[0][0]               
__________________________________________________________________________________________________
dense_1_3_bottleneck_conv2D (Co (None, 72, 48, 48)   7704        activation_156[0][0]             
__________________________________________________________________________________________________
dense_1_3_bottleneck_bn (BatchN (None, 72, 48, 48)   288         dense_1_3_bottleneck_conv2D[0][0]
__________________________________________________________________________________________________
activation_157 (Activation)     (None, 72, 48, 48)   0           dense_1_3_bottleneck_bn[0][0]    
__________________________________________________________________________________________________
dense_1_3_conv2D (Conv2D)       (None, 18, 48, 48)   11664       activation_157[0][0]             
__________________________________________________________________________________________________
concatenate_66 (Concatenate)    (None, 125, 48, 48)  0           concatenate_65[0][0]             
                                                                 dense_1_3_conv2D[0][0]           
__________________________________________________________________________________________________
dense_1_4_bn (BatchNormalizatio (None, 125, 48, 48)  500         concatenate_66[0][0]             
__________________________________________________________________________________________________
activation_158 (Activation)     (None, 125, 48, 48)  0           dense_1_4_bn[0][0]               
__________________________________________________________________________________________________
dense_1_4_bottleneck_conv2D (Co (None, 72, 48, 48)   9000        activation_158[0][0]             
__________________________________________________________________________________________________
dense_1_4_bottleneck_bn (BatchN (None, 72, 48, 48)   288         dense_1_4_bottleneck_conv2D[0][0]
__________________________________________________________________________________________________
activation_159 (Activation)     (None, 72, 48, 48)   0           dense_1_4_bottleneck_bn[0][0]    
__________________________________________________________________________________________________
dense_1_4_conv2D (Conv2D)       (None, 18, 48, 48)   11664       activation_159[0][0]             
__________________________________________________________________________________________________
concatenate_67 (Concatenate)    (None, 143, 48, 48)  0           concatenate_66[0][0]             
                                                                 dense_1_4_conv2D[0][0]           
__________________________________________________________________________________________________
final_bn (BatchNormalization)   (None, 143, 48, 48)  572         concatenate_67[0][0]             
__________________________________________________________________________________________________
activation_160 (Activation)     (None, 143, 48, 48)  0           final_bn[0][0]                   
__________________________________________________________________________________________________
global_average_pooling2d_9 (Glo (None, 143)          0           activation_160[0][0]             
__________________________________________________________________________________________________
dense_9 (Dense)                 (None, 1)            144         global_average_pooling2d_9[0][0] 
==================================================================================================
Total params: 180,146
Trainable params: 176,798
Non-trainable params: 3,348
__________________________________________________________________________________________________
Train on 31872 samples, validate on 7968 samples
Epoch 1/50
 - 87s - loss: 0.6219 - acc: 0.7681 - val_loss: 0.5657 - val_acc: 0.7833
…
7296/7440 [============================>.] - ETA: 0s
7360/7440 [============================>.] - ETA: 0s
7424/7440 [============================>.] - ETA: 0s
7440/7440 [==============================] - 6s 796us/step
current Test accuracy: 0.7751344086021505
current auc_score ------------------>  0.8632000086715226
__________________________________________________________________________________________________
Layer (type)                    Output Shape         Param #     Connected to                     
==================================================================================================
input_10 (InputLayer)           (None, 2, 96, 96)    0                                            
__________________________________________________________________________________________________
initial_conv2D (Conv2D)         (None, 16, 96, 96)   288         input_10[0][0]                   
__________________________________________________________________________________________________
dense_0_0_bn (BatchNormalizatio (None, 16, 96, 96)   64          initial_conv2D[0][0]             
__________________________________________________________________________________________________
activation_161 (Activation)     (None, 16, 96, 96)   0           dense_0_0_bn[0][0]               
__________________________________________________________________________________________________
dense_0_0_bottleneck_conv2D (Co (None, 24, 96, 96)   384         activation_161[0][0]             
__________________________________________________________________________________________________
dense_0_0_bottleneck_bn (BatchN (None, 24, 96, 96)   96          dense_0_0_bottleneck_conv2D[0][0]
__________________________________________________________________________________________________
activation_162 (Activation)     (None, 24, 96, 96)   0           dense_0_0_bottleneck_bn[0][0]    
__________________________________________________________________________________________________
dense_0_0_conv2D (Conv2D)       (None, 6, 96, 96)    1296        activation_162[0][0]             
__________________________________________________________________________________________________
concatenate_68 (Concatenate)    (None, 22, 96, 96)   0           initial_conv2D[0][0]             
                                                                 dense_0_0_conv2D[0][0]           
__________________________________________________________________________________________________
dense_0_1_bn (BatchNormalizatio (None, 22, 96, 96)   88          concatenate_68[0][0]             
__________________________________________________________________________________________________
activation_163 (Activation)     (None, 22, 96, 96)   0           dense_0_1_bn[0][0]               
__________________________________________________________________________________________________
dense_0_1_bottleneck_conv2D (Co (None, 24, 96, 96)   528         activation_163[0][0]             
__________________________________________________________________________________________________
dense_0_1_bottleneck_bn (BatchN (None, 24, 96, 96)   96          dense_0_1_bottleneck_conv2D[0][0]
__________________________________________________________________________________________________
activation_164 (Activation)     (None, 24, 96, 96)   0           dense_0_1_bottleneck_bn[0][0]    
__________________________________________________________________________________________________
dense_0_1_conv2D (Conv2D)       (None, 6, 96, 96)    1296        activation_164[0][0]             
__________________________________________________________________________________________________
concatenate_69 (Concatenate)    (None, 28, 96, 96)   0           concatenate_68[0][0]             
                                                                 dense_0_1_conv2D[0][0]           
__________________________________________________________________________________________________
dense_0_2_bn (BatchNormalizatio (None, 28, 96, 96)   112         concatenate_69[0][0]             
__________________________________________________________________________________________________
activation_165 (Activation)     (None, 28, 96, 96)   0           dense_0_2_bn[0][0]               
__________________________________________________________________________________________________
dense_0_2_bottleneck_conv2D (Co (None, 24, 96, 96)   672         activation_165[0][0]             
__________________________________________________________________________________________________
dense_0_2_bottleneck_bn (BatchN (None, 24, 96, 96)   96          dense_0_2_bottleneck_conv2D[0][0]
__________________________________________________________________________________________________
activation_166 (Activation)     (None, 24, 96, 96)   0           dense_0_2_bottleneck_bn[0][0]    
__________________________________________________________________________________________________
dense_0_2_conv2D (Conv2D)       (None, 6, 96, 96)    1296        activation_166[0][0]             
__________________________________________________________________________________________________
concatenate_70 (Concatenate)    (None, 34, 96, 96)   0           concatenate_69[0][0]             
                                                                 dense_0_2_conv2D[0][0]           
__________________________________________________________________________________________________
dense_0_3_bn (BatchNormalizatio (None, 34, 96, 96)   136         concatenate_70[0][0]             
__________________________________________________________________________________________________
activation_167 (Activation)     (None, 34, 96, 96)   0           dense_0_3_bn[0][0]               
__________________________________________________________________________________________________
dense_0_3_bottleneck_conv2D (Co (None, 24, 96, 96)   816         activation_167[0][0]             
__________________________________________________________________________________________________
dense_0_3_bottleneck_bn (BatchN (None, 24, 96, 96)   96          dense_0_3_bottleneck_conv2D[0][0]
__________________________________________________________________________________________________
activation_168 (Activation)     (None, 24, 96, 96)   0           dense_0_3_bottleneck_bn[0][0]    
__________________________________________________________________________________________________
dense_0_3_conv2D (Conv2D)       (None, 6, 96, 96)    1296        activation_168[0][0]             
__________________________________________________________________________________________________
concatenate_71 (Concatenate)    (None, 40, 96, 96)   0           concatenate_70[0][0]             
                                                                 dense_0_3_conv2D[0][0]           
__________________________________________________________________________________________________
dense_0_4_bn (BatchNormalizatio (None, 40, 96, 96)   160         concatenate_71[0][0]             
__________________________________________________________________________________________________
activation_169 (Activation)     (None, 40, 96, 96)   0           dense_0_4_bn[0][0]               
__________________________________________________________________________________________________
dense_0_4_bottleneck_conv2D (Co (None, 24, 96, 96)   960         activation_169[0][0]             
__________________________________________________________________________________________________
dense_0_4_bottleneck_bn (BatchN (None, 24, 96, 96)   96          dense_0_4_bottleneck_conv2D[0][0]
__________________________________________________________________________________________________
activation_170 (Activation)     (None, 24, 96, 96)   0           dense_0_4_bottleneck_bn[0][0]    
__________________________________________________________________________________________________
dense_0_4_conv2D (Conv2D)       (None, 6, 96, 96)    1296        activation_170[0][0]             
__________________________________________________________________________________________________
concatenate_72 (Concatenate)    (None, 46, 96, 96)   0           concatenate_71[0][0]             
                                                                 dense_0_4_conv2D[0][0]           
__________________________________________________________________________________________________
tr_0_bn (BatchNormalization)    (None, 46, 96, 96)   184         concatenate_72[0][0]             
__________________________________________________________________________________________________
activation_171 (Activation)     (None, 46, 96, 96)   0           tr_0_bn[0][0]                    
__________________________________________________________________________________________________
tr_0_conv2D (Conv2D)            (None, 23, 96, 96)   1058        activation_171[0][0]             
__________________________________________________________________________________________________
average_pooling2d_18 (AveragePo (None, 23, 48, 48)   0           tr_0_conv2D[0][0]                
__________________________________________________________________________________________________
dense_1_0_bn (BatchNormalizatio (None, 23, 48, 48)   92          average_pooling2d_18[0][0]       
__________________________________________________________________________________________________
activation_172 (Activation)     (None, 23, 48, 48)   0           dense_1_0_bn[0][0]               
__________________________________________________________________________________________________
dense_1_0_bottleneck_conv2D (Co (None, 24, 48, 48)   552         activation_172[0][0]             
__________________________________________________________________________________________________
dense_1_0_bottleneck_bn (BatchN (None, 24, 48, 48)   96          dense_1_0_bottleneck_conv2D[0][0]
__________________________________________________________________________________________________
activation_173 (Activation)     (None, 24, 48, 48)   0           dense_1_0_bottleneck_bn[0][0]    
__________________________________________________________________________________________________
dense_1_0_conv2D (Conv2D)       (None, 6, 48, 48)    1296        activation_173[0][0]             
__________________________________________________________________________________________________
concatenate_73 (Concatenate)    (None, 29, 48, 48)   0           average_pooling2d_18[0][0]       
                                                                 dense_1_0_conv2D[0][0]           
__________________________________________________________________________________________________
dense_1_1_bn (BatchNormalizatio (None, 29, 48, 48)   116         concatenate_73[0][0]             
__________________________________________________________________________________________________
activation_174 (Activation)     (None, 29, 48, 48)   0           dense_1_1_bn[0][0]               
__________________________________________________________________________________________________
dense_1_1_bottleneck_conv2D (Co (None, 24, 48, 48)   696         activation_174[0][0]             
__________________________________________________________________________________________________
dense_1_1_bottleneck_bn (BatchN (None, 24, 48, 48)   96          dense_1_1_bottleneck_conv2D[0][0]
__________________________________________________________________________________________________
activation_175 (Activation)     (None, 24, 48, 48)   0           dense_1_1_bottleneck_bn[0][0]    
__________________________________________________________________________________________________
dense_1_1_conv2D (Conv2D)       (None, 6, 48, 48)    1296        activation_175[0][0]             
__________________________________________________________________________________________________
concatenate_74 (Concatenate)    (None, 35, 48, 48)   0           concatenate_73[0][0]             
                                                                 dense_1_1_conv2D[0][0]           
__________________________________________________________________________________________________
dense_1_2_bn (BatchNormalizatio (None, 35, 48, 48)   140         concatenate_74[0][0]             
__________________________________________________________________________________________________
activation_176 (Activation)     (None, 35, 48, 48)   0           dense_1_2_bn[0][0]               
__________________________________________________________________________________________________
dense_1_2_bottleneck_conv2D (Co (None, 24, 48, 48)   840         activation_176[0][0]             
__________________________________________________________________________________________________
dense_1_2_bottleneck_bn (BatchN (None, 24, 48, 48)   96          dense_1_2_bottleneck_conv2D[0][0]
__________________________________________________________________________________________________
activation_177 (Activation)     (None, 24, 48, 48)   0           dense_1_2_bottleneck_bn[0][0]    
__________________________________________________________________________________________________
dense_1_2_conv2D (Conv2D)       (None, 6, 48, 48)    1296        activation_177[0][0]             
__________________________________________________________________________________________________
concatenate_75 (Concatenate)    (None, 41, 48, 48)   0           concatenate_74[0][0]             
                                                                 dense_1_2_conv2D[0][0]           
__________________________________________________________________________________________________
dense_1_3_bn (BatchNormalizatio (None, 41, 48, 48)   164         concatenate_75[0][0]             
__________________________________________________________________________________________________
activation_178 (Activation)     (None, 41, 48, 48)   0           dense_1_3_bn[0][0]               
__________________________________________________________________________________________________
dense_1_3_bottleneck_conv2D (Co (None, 24, 48, 48)   984         activation_178[0][0]             
__________________________________________________________________________________________________
dense_1_3_bottleneck_bn (BatchN (None, 24, 48, 48)   96          dense_1_3_bottleneck_conv2D[0][0]
__________________________________________________________________________________________________
activation_179 (Activation)     (None, 24, 48, 48)   0           dense_1_3_bottleneck_bn[0][0]    
__________________________________________________________________________________________________
dense_1_3_conv2D (Conv2D)       (None, 6, 48, 48)    1296        activation_179[0][0]             
__________________________________________________________________________________________________
concatenate_76 (Concatenate)    (None, 47, 48, 48)   0           concatenate_75[0][0]             
                                                                 dense_1_3_conv2D[0][0]           
__________________________________________________________________________________________________
dense_1_4_bn (BatchNormalizatio (None, 47, 48, 48)   188         concatenate_76[0][0]             
__________________________________________________________________________________________________
activation_180 (Activation)     (None, 47, 48, 48)   0           dense_1_4_bn[0][0]               
__________________________________________________________________________________________________
dense_1_4_bottleneck_conv2D (Co (None, 24, 48, 48)   1128        activation_180[0][0]             
__________________________________________________________________________________________________
dense_1_4_bottleneck_bn (BatchN (None, 24, 48, 48)   96          dense_1_4_bottleneck_conv2D[0][0]
__________________________________________________________________________________________________
activation_181 (Activation)     (None, 24, 48, 48)   0           dense_1_4_bottleneck_bn[0][0]    
__________________________________________________________________________________________________
dense_1_4_conv2D (Conv2D)       (None, 6, 48, 48)    1296        activation_181[0][0]             
__________________________________________________________________________________________________
concatenate_77 (Concatenate)    (None, 53, 48, 48)   0           concatenate_76[0][0]             
                                                                 dense_1_4_conv2D[0][0]           
__________________________________________________________________________________________________
tr_1_bn (BatchNormalization)    (None, 53, 48, 48)   212         concatenate_77[0][0]             
__________________________________________________________________________________________________
activation_182 (Activation)     (None, 53, 48, 48)   0           tr_1_bn[0][0]                    
__________________________________________________________________________________________________
tr_1_conv2D (Conv2D)            (None, 26, 48, 48)   1378        activation_182[0][0]             
__________________________________________________________________________________________________
average_pooling2d_19 (AveragePo (None, 26, 24, 24)   0           tr_1_conv2D[0][0]                
__________________________________________________________________________________________________
dense_2_0_bn (BatchNormalizatio (None, 26, 24, 24)   104         average_pooling2d_19[0][0]       
__________________________________________________________________________________________________
activation_183 (Activation)     (None, 26, 24, 24)   0           dense_2_0_bn[0][0]               
__________________________________________________________________________________________________
dense_2_0_bottleneck_conv2D (Co (None, 24, 24, 24)   624         activation_183[0][0]             
__________________________________________________________________________________________________
dense_2_0_bottleneck_bn (BatchN (None, 24, 24, 24)   96          dense_2_0_bottleneck_conv2D[0][0]
__________________________________________________________________________________________________
activation_184 (Activation)     (None, 24, 24, 24)   0           dense_2_0_bottleneck_bn[0][0]    
__________________________________________________________________________________________________
dense_2_0_conv2D (Conv2D)       (None, 6, 24, 24)    1296        activation_184[0][0]             
__________________________________________________________________________________________________
concatenate_78 (Concatenate)    (None, 32, 24, 24)   0           average_pooling2d_19[0][0]       
                                                                 dense_2_0_conv2D[0][0]           
__________________________________________________________________________________________________
dense_2_1_bn (BatchNormalizatio (None, 32, 24, 24)   128         concatenate_78[0][0]             
__________________________________________________________________________________________________
activation_185 (Activation)     (None, 32, 24, 24)   0           dense_2_1_bn[0][0]               
__________________________________________________________________________________________________
dense_2_1_bottleneck_conv2D (Co (None, 24, 24, 24)   768         activation_185[0][0]             
__________________________________________________________________________________________________
dense_2_1_bottleneck_bn (BatchN (None, 24, 24, 24)   96          dense_2_1_bottleneck_conv2D[0][0]
__________________________________________________________________________________________________
activation_186 (Activation)     (None, 24, 24, 24)   0           dense_2_1_bottleneck_bn[0][0]    
…
activation_767 (Activation)     (None, 24, 96, 96)   0           dense_0_4_bottleneck_bn[0][0]    
__________________________________________________________________________________________________
dense_0_4_conv2D (Conv2D)       (None, 6, 96, 96)    1296        activation_767[0][0]             
__________________________________________________________________________________________________
concatenate_324 (Concatenate)   (None, 46, 96, 96)   0           concatenate_323[0][0]            
                                                                 dense_0_4_conv2D[0][0]           
__________________________________________________________________________________________________
tr_0_bn (BatchNormalization)    (None, 46, 96, 96)   184         concatenate_324[0][0]            
__________________________________________________________________________________________________
activation_768 (Activation)     (None, 46, 96, 96)   0           tr_0_bn[0][0]                    
__________________________________________________________________________________________________
tr_0_conv2D (Conv2D)            (None, 23, 96, 96)   1058        activation_768[0][0]             
__________________________________________________________________________________________________
average_pooling2d_83 (AveragePo (None, 23, 48, 48)   0           tr_0_conv2D[0][0]                
__________________________________________________________________________________________________
dense_1_0_bn (BatchNormalizatio (None, 23, 48, 48)   92          average_pooling2d_83[0][0]       
__________________________________________________________________________________________________
activation_769 (Activation)     (None, 23, 48, 48)   0           dense_1_0_bn[0][0]               
__________________________________________________________________________________________________
dense_1_0_bottleneck_conv2D (Co (None, 24, 48, 48)   552         activation_769[0][0]             
__________________________________________________________________________________________________
dense_1_0_bottleneck_bn (BatchN (None, 24, 48, 48)   96          dense_1_0_bottleneck_conv2D[0][0]
__________________________________________________________________________________________________
activation_770 (Activation)     (None, 24, 48, 48)   0           dense_1_0_bottleneck_bn[0][0]    
__________________________________________________________________________________________________
dense_1_0_conv2D (Conv2D)       (None, 6, 48, 48)    1296        activation_770[0][0]             
__________________________________________________________________________________________________
concatenate_325 (Concatenate)   (None, 29, 48, 48)   0           average_pooling2d_83[0][0]       
                                                                 dense_1_0_conv2D[0][0]           
__________________________________________________________________________________________________
dense_1_1_bn (BatchNormalizatio (None, 29, 48, 48)   116         concatenate_325[0][0]            
__________________________________________________________________________________________________
activation_771 (Activation)     (None, 29, 48, 48)   0           dense_1_1_bn[0][0]               
__________________________________________________________________________________________________
dense_1_1_bottleneck_conv2D (Co (None, 24, 48, 48)   696         activation_771[0][0]             
__________________________________________________________________________________________________
dense_1_1_bottleneck_bn (BatchN (None, 24, 48, 48)   96          dense_1_1_bottleneck_conv2D[0][0]
__________________________________________________________________________________________________
activation_772 (Activation)     (None, 24, 48, 48)   0           dense_1_1_bottleneck_bn[0][0]    
__________________________________________________________________________________________________
dense_1_1_conv2D (Conv2D)       (None, 6, 48, 48)    1296        activation_772[0][0]             
__________________________________________________________________________________________________
concatenate_326 (Concatenate)   (None, 35, 48, 48)   0           concatenate_325[0][0]            
                                                                 dense_1_1_conv2D[0][0]           
__________________________________________________________________________________________________
dense_1_2_bn (BatchNormalizatio (None, 35, 48, 48)   140         concatenate_326[0][0]            
__________________________________________________________________________________________________
activation_773 (Activation)     (None, 35, 48, 48)   0           dense_1_2_bn[0][0]               
__________________________________________________________________________________________________
dense_1_2_bottleneck_conv2D (Co (None, 24, 48, 48)   840         activation_773[0][0]             
__________________________________________________________________________________________________
dense_1_2_bottleneck_bn (BatchN (None, 24, 48, 48)   96          dense_1_2_bottleneck_conv2D[0][0]
__________________________________________________________________________________________________
activation_774 (Activation)     (None, 24, 48, 48)   0           dense_1_2_bottleneck_bn[0][0]    
__________________________________________________________________________________________________
dense_1_2_conv2D (Conv2D)       (None, 6, 48, 48)    1296        activation_774[0][0]             
__________________________________________________________________________________________________
concatenate_327 (Concatenate)   (None, 41, 48, 48)   0           concatenate_326[0][0]            
                                                                 dense_1_2_conv2D[0][0]           
__________________________________________________________________________________________________
dense_1_3_bn (BatchNormalizatio (None, 41, 48, 48)   164         concatenate_327[0][0]            
__________________________________________________________________________________________________
activation_775 (Activation)     (None, 41, 48, 48)   0           dense_1_3_bn[0][0]               
__________________________________________________________________________________________________
dense_1_3_bottleneck_conv2D (Co (None, 24, 48, 48)   984         activation_775[0][0]             
__________________________________________________________________________________________________
dense_1_3_bottleneck_bn (BatchN (None, 24, 48, 48)   96          dense_1_3_bottleneck_conv2D[0][0]
__________________________________________________________________________________________________
activation_776 (Activation)     (None, 24, 48, 48)   0           dense_1_3_bottleneck_bn[0][0]    
__________________________________________________________________________________________________
dense_1_3_conv2D (Conv2D)       (None, 6, 48, 48)    1296        activation_776[0][0]             
__________________________________________________________________________________________________
concatenate_328 (Concatenate)   (None, 47, 48, 48)   0           concatenate_327[0][0]            
                                                                 dense_1_3_conv2D[0][0]           
__________________________________________________________________________________________________
dense_1_4_bn (BatchNormalizatio (None, 47, 48, 48)   188         concatenate_328[0][0]            
__________________________________________________________________________________________________
activation_777 (Activation)     (None, 47, 48, 48)   0           dense_1_4_bn[0][0]               
__________________________________________________________________________________________________
dense_1_4_bottleneck_conv2D (Co (None, 24, 48, 48)   1128        activation_777[0][0]             
__________________________________________________________________________________________________
dense_1_4_bottleneck_bn (BatchN (None, 24, 48, 48)   96          dense_1_4_bottleneck_conv2D[0][0]
__________________________________________________________________________________________________
activation_778 (Activation)     (None, 24, 48, 48)   0           dense_1_4_bottleneck_bn[0][0]    
__________________________________________________________________________________________________
dense_1_4_conv2D (Conv2D)       (None, 6, 48, 48)    1296        activation_778[0][0]             
__________________________________________________________________________________________________
concatenate_329 (Concatenate)   (None, 53, 48, 48)   0           concatenate_328[0][0]            
                                                                 dense_1_4_conv2D[0][0]           
__________________________________________________________________________________________________
final_bn (BatchNormalization)   (None, 53, 48, 48)   212         concatenate_329[0][0]            
__________________________________________________________________________________________________
activation_779 (Activation)     (None, 53, 48, 48)   0           final_bn[0][0]                   
__________________________________________________________________________________________________
global_average_pooling2d_38 (Gl (None, 53)           0           activation_779[0][0]             
__________________________________________________________________________________________________
dense_38 (Dense)                (None, 1)            54          global_average_pooling2d_38[0][0]
==================================================================================================
Total params: 24,536
Trainable params: 23,228
Non-trainable params: 1,308
__________________________________________________________________________________________________
Train on 31872 samples, validate on 7968 samples
Epoch 1/50
 - 72s - loss: 0.5835 - acc: 0.7453 - val_loss: 0.5255 - val_acc: 0.7728
…
7200/7440 [============================>.] - ETA: 0s
7296/7440 [============================>.] - ETA: 0s
7424/7440 [============================>.] - ETA: 0s
7440/7440 [==============================] - 4s 513us/step
current Test accuracy: 0.8189516129032258
current auc_score ------------------>  0.9028006850502949
__________________________________________________________________________________________________
Layer (type)                    Output Shape         Param #     Connected to                     
==================================================================================================
input_39 (InputLayer)           (None, 2, 96, 96)    0                                            
__________________________________________________________________________________________________
initial_conv2D (Conv2D)         (None, 16, 96, 96)   288         input_39[0][0]                   
__________________________________________________________________________________________________
dense_0_0_bn (BatchNormalizatio (None, 16, 96, 96)   64          initial_conv2D[0][0]             
__________________________________________________________________________________________________
activation_780 (Activation)     (None, 16, 96, 96)   0           dense_0_0_bn[0][0]               
__________________________________________________________________________________________________
dense_0_0_bottleneck_conv2D (Co (None, 40, 96, 96)   640         activation_780[0][0]             
__________________________________________________________________________________________________
dense_0_0_bottleneck_bn (BatchN (None, 40, 96, 96)   160         dense_0_0_bottleneck_conv2D[0][0]
__________________________________________________________________________________________________
activation_781 (Activation)     (None, 40, 96, 96)   0           dense_0_0_bottleneck_bn[0][0]    
__________________________________________________________________________________________________
dense_0_0_conv2D (Conv2D)       (None, 10, 96, 96)   3600        activation_781[0][0]             
__________________________________________________________________________________________________
concatenate_330 (Concatenate)   (None, 26, 96, 96)   0           initial_conv2D[0][0]             
                                                                 dense_0_0_conv2D[0][0]           
__________________________________________________________________________________________________
dense_0_1_bn (BatchNormalizatio (None, 26, 96, 96)   104         concatenate_330[0][0]            
__________________________________________________________________________________________________
activation_782 (Activation)     (None, 26, 96, 96)   0           dense_0_1_bn[0][0]               
__________________________________________________________________________________________________
dense_0_1_bottleneck_conv2D (Co (None, 40, 96, 96)   1040        activation_782[0][0]             
__________________________________________________________________________________________________
dense_0_1_bottleneck_bn (BatchN (None, 40, 96, 96)   160         dense_0_1_bottleneck_conv2D[0][0]
__________________________________________________________________________________________________
activation_783 (Activation)     (None, 40, 96, 96)   0           dense_0_1_bottleneck_bn[0][0]    
__________________________________________________________________________________________________
dense_0_1_conv2D (Conv2D)       (None, 10, 96, 96)   3600        activation_783[0][0]             
__________________________________________________________________________________________________
concatenate_331 (Concatenate)   (None, 36, 96, 96)   0           concatenate_330[0][0]            
                                                                 dense_0_1_conv2D[0][0]           
__________________________________________________________________________________________________
dense_0_2_bn (BatchNormalizatio (None, 36, 96, 96)   144         concatenate_331[0][0]            
__________________________________________________________________________________________________
activation_784 (Activation)     (None, 36, 96, 96)   0           dense_0_2_bn[0][0]               
__________________________________________________________________________________________________
dense_0_2_bottleneck_conv2D (Co (None, 40, 96, 96)   1440        activation_784[0][0]             
__________________________________________________________________________________________________
dense_0_2_bottleneck_bn (BatchN (None, 40, 96, 96)   160         dense_0_2_bottleneck_conv2D[0][0]
__________________________________________________________________________________________________
activation_785 (Activation)     (None, 40, 96, 96)   0           dense_0_2_bottleneck_bn[0][0]    
__________________________________________________________________________________________________
dense_0_2_conv2D (Conv2D)       (None, 10, 96, 96)   3600        activation_785[0][0]             
__________________________________________________________________________________________________
concatenate_332 (Concatenate)   (None, 46, 96, 96)   0           concatenate_331[0][0]            
                                                                 dense_0_2_conv2D[0][0]           
__________________________________________________________________________________________________
tr_0_bn (BatchNormalization)    (None, 46, 96, 96)   184         concatenate_332[0][0]            
__________________________________________________________________________________________________
activation_786 (Activation)     (None, 46, 96, 96)   0           tr_0_bn[0][0]                    
__________________________________________________________________________________________________
tr_0_conv2D (Conv2D)            (None, 23, 96, 96)   1058        activation_786[0][0]             
__________________________________________________________________________________________________
average_pooling2d_84 (AveragePo (None, 23, 48, 48)   0           tr_0_conv2D[0][0]                
__________________________________________________________________________________________________
dense_1_0_bn (BatchNormalizatio (None, 23, 48, 48)   92          average_pooling2d_84[0][0]       
__________________________________________________________________________________________________
activation_787 (Activation)     (None, 23, 48, 48)   0           dense_1_0_bn[0][0]               
__________________________________________________________________________________________________
dense_1_0_bottleneck_conv2D (Co (None, 40, 48, 48)   920         activation_787[0][0]             
__________________________________________________________________________________________________
dense_1_0_bottleneck_bn (BatchN (None, 40, 48, 48)   160         dense_1_0_bottleneck_conv2D[0][0]
__________________________________________________________________________________________________
activation_788 (Activation)     (None, 40, 48, 48)   0           dense_1_0_bottleneck_bn[0][0]    
__________________________________________________________________________________________________
dense_1_0_conv2D (Conv2D)       (None, 10, 48, 48)   3600        activation_788[0][0]             
__________________________________________________________________________________________________
concatenate_333 (Concatenate)   (None, 33, 48, 48)   0           average_pooling2d_84[0][0]       
                                                                 dense_1_0_conv2D[0][0]           
__________________________________________________________________________________________________
dense_1_1_bn (BatchNormalizatio (None, 33, 48, 48)   132         concatenate_333[0][0]            
__________________________________________________________________________________________________
activation_789 (Activation)     (None, 33, 48, 48)   0           dense_1_1_bn[0][0]               
__________________________________________________________________________________________________
dense_1_1_bottleneck_conv2D (Co (None, 40, 48, 48)   1320        activation_789[0][0]             
__________________________________________________________________________________________________
dense_1_1_bottleneck_bn (BatchN (None, 40, 48, 48)   160         dense_1_1_bottleneck_conv2D[0][0]
__________________________________________________________________________________________________
activation_790 (Activation)     (None, 40, 48, 48)   0           dense_1_1_bottleneck_bn[0][0]    
__________________________________________________________________________________________________
dense_1_1_conv2D (Conv2D)       (None, 10, 48, 48)   3600        activation_790[0][0]             
__________________________________________________________________________________________________
concatenate_334 (Concatenate)   (None, 43, 48, 48)   0           concatenate_333[0][0]            
                                                                 dense_1_1_conv2D[0][0]           
__________________________________________________________________________________________________
dense_1_2_bn (BatchNormalizatio (None, 43, 48, 48)   172         concatenate_334[0][0]            
__________________________________________________________________________________________________
activation_791 (Activation)     (None, 43, 48, 48)   0           dense_1_2_bn[0][0]               
__________________________________________________________________________________________________
dense_1_2_bottleneck_conv2D (Co (None, 40, 48, 48)   1720        activation_791[0][0]             
__________________________________________________________________________________________________
dense_1_2_bottleneck_bn (BatchN (None, 40, 48, 48)   160         dense_1_2_bottleneck_conv2D[0][0]
__________________________________________________________________________________________________
activation_792 (Activation)     (None, 40, 48, 48)   0           dense_1_2_bottleneck_bn[0][0]    
__________________________________________________________________________________________________
dense_1_2_conv2D (Conv2D)       (None, 10, 48, 48)   3600        activation_792[0][0]             
__________________________________________________________________________________________________
concatenate_335 (Concatenate)   (None, 53, 48, 48)   0           concatenate_334[0][0]            
                                                                 dense_1_2_conv2D[0][0]           
__________________________________________________________________________________________________
tr_1_bn (BatchNormalization)    (None, 53, 48, 48)   212         concatenate_335[0][0]            
__________________________________________________________________________________________________
activation_793 (Activation)     (None, 53, 48, 48)   0           tr_1_bn[0][0]                    
__________________________________________________________________________________________________
tr_1_conv2D (Conv2D)            (None, 26, 48, 48)   1378        activation_793[0][0]             
__________________________________________________________________________________________________
average_pooling2d_85 (AveragePo (None, 26, 24, 24)   0           tr_1_conv2D[0][0]                
__________________________________________________________________________________________________
dense_2_0_bn (BatchNormalizatio (None, 26, 24, 24)   104         average_pooling2d_85[0][0]       
__________________________________________________________________________________________________
activation_794 (Activation)     (None, 26, 24, 24)   0           dense_2_0_bn[0][0]               
__________________________________________________________________________________________________
dense_2_0_bottleneck_conv2D (Co (None, 40, 24, 24)   1040        activation_794[0][0]             
__________________________________________________________________________________________________
dense_2_0_bottleneck_bn (BatchN (None, 40, 24, 24)   160         dense_2_0_bottleneck_conv2D[0][0]
__________________________________________________________________________________________________
activation_795 (Activation)     (None, 40, 24, 24)   0           dense_2_0_bottleneck_bn[0][0]    
__________________________________________________________________________________________________
dense_2_0_conv2D (Conv2D)       (None, 10, 24, 24)   3600        activation_795[0][0]             
__________________________________________________________________________________________________
concatenate_336 (Concatenate)   (None, 36, 24, 24)   0           average_pooling2d_85[0][0]       
                                                                 dense_2_0_conv2D[0][0]           
__________________________________________________________________________________________________
dense_2_1_bn (BatchNormalizatio (None, 36, 24, 24)   144         concatenate_336[0][0]            
__________________________________________________________________________________________________
activation_796 (Activation)     (None, 36, 24, 24)   0           dense_2_1_bn[0][0]               
__________________________________________________________________________________________________
dense_2_1_bottleneck_conv2D (Co (None, 40, 24, 24)   1440        activation_796[0][0]             
__________________________________________________________________________________________________
dense_2_1_bottleneck_bn (BatchN (None, 40, 24, 24)   160         dense_2_1_bottleneck_conv2D[0][0]
__________________________________________________________________________________________________
activation_797 (Activation)     (None, 40, 24, 24)   0           dense_2_1_bottleneck_bn[0][0]    
__________________________________________________________________________________________________
dense_2_1_conv2D (Conv2D)       (None, 10, 24, 24)   3600        activation_797[0][0]             
__________________________________________________________________________________________________
concatenate_337 (Concatenate)   (None, 46, 24, 24)   0           concatenate_336[0][0]            
                                                                 dense_2_1_conv2D[0][0]           
__________________________________________________________________________________________________
dense_2_2_bn (BatchNormalizatio (None, 46, 24, 24)   184         concatenate_337[0][0]            
__________________________________________________________________________________________________
activation_798 (Activation)     (None, 46, 24, 24)   0           dense_2_2_bn[0][0]               
__________________________________________________________________________________________________
dense_2_2_bottleneck_conv2D (Co (None, 40, 24, 24)   1840        activation_798[0][0]             
__________________________________________________________________________________________________
dense_2_2_bottleneck_bn (BatchN (None, 40, 24, 24)   160         dense_2_2_bottleneck_conv2D[0][0]
__________________________________________________________________________________________________
activation_799 (Activation)     (None, 40, 24, 24)   0           dense_2_2_bottleneck_bn[0][0]    
__________________________________________________________________________________________________
dense_2_2_conv2D (Conv2D)       (None, 10, 24, 24)   3600        activation_799[0][0]             
__________________________________________________________________________________________________
concatenate_338 (Concatenate)   (None, 56, 24, 24)   0           concatenate_337[0][0]            
                                                                 dense_2_2_conv2D[0][0]           
__________________________________________________________________________________________________
tr_2_bn (BatchNormalization)    (None, 56, 24, 24)   224         concatenate_338[0][0]            
__________________________________________________________________________________________________
activation_800 (Activation)     (None, 56, 24, 24)   0           tr_2_bn[0][0]                    
__________________________________________________________________________________________________
tr_2_conv2D (Conv2D)            (None, 28, 24, 24)   1568        activation_800[0][0]             
__________________________________________________________________________________________________
average_pooling2d_86 (AveragePo (None, 28, 12, 12)   0           tr_2_conv2D[0][0]                
__________________________________________________________________________________________________
dense_3_0_bn (BatchNormalizatio (None, 28, 12, 12)   112         average_pooling2d_86[0][0]       
__________________________________________________________________________________________________
activation_801 (Activation)     (None, 28, 12, 12)   0           dense_3_0_bn[0][0]               
__________________________________________________________________________________________________
dense_3_0_bottleneck_conv2D (Co (None, 40, 12, 12)   1120        activation_801[0][0]             
__________________________________________________________________________________________________
dense_3_0_bottleneck_bn (BatchN (None, 40, 12, 12)   160         dense_3_0_bottleneck_conv2D[0][0]
__________________________________________________________________________________________________
activation_802 (Activation)     (None, 40, 12, 12)   0           dense_3_0_bottleneck_bn[0][0]    
__________________________________________________________________________________________________
dense_3_0_conv2D (Conv2D)       (None, 10, 12, 12)   3600        activation_802[0][0]             
__________________________________________________________________________________________________
concatenate_339 (Concatenate)   (None, 38, 12, 12)   0           average_pooling2d_86[0][0]       
                                                                 dense_3_0_conv2D[0][0]           
__________________________________________________________________________________________________
dense_3_1_bn (BatchNormalizatio (None, 38, 12, 12)   152         concatenate_339[0][0]            
__________________________________________________________________________________________________
activation_803 (Activation)     (None, 38, 12, 12)   0           dense_3_1_bn[0][0]               
__________________________________________________________________________________________________
dense_3_1_bottleneck_conv2D (Co (None, 40, 12, 12)   1520        activation_803[0][0]             
__________________________________________________________________________________________________
dense_3_1_bottleneck_bn (BatchN (None, 40, 12, 12)   160         dense_3_1_bottleneck_conv2D[0][0]
__________________________________________________________________________________________________
activation_804 (Activation)     (None, 40, 12, 12)   0           dense_3_1_bottleneck_bn[0][0]    
__________________________________________________________________________________________________
dense_3_1_conv2D (Conv2D)       (None, 10, 12, 12)   3600        activation_804[0][0]             
__________________________________________________________________________________________________
concatenate_340 (Concatenate)   (None, 48, 12, 12)   0           concatenate_339[0][0]            
                                                                 dense_3_1_conv2D[0][0]           
__________________________________________________________________________________________________
dense_3_2_bn (BatchNormalizatio (None, 48, 12, 12)   192         concatenate_340[0][0]            
__________________________________________________________________________________________________
activation_805 (Activation)     (None, 48, 12, 12)   0           dense_3_2_bn[0][0]               
__________________________________________________________________________________________________
dense_3_2_bottleneck_conv2D (Co (None, 40, 12, 12)   1920        activation_805[0][0]             
__________________________________________________________________________________________________
dense_3_2_bottleneck_bn (BatchN (None, 40, 12, 12)   160         dense_3_2_bottleneck_conv2D[0][0]
__________________________________________________________________________________________________
activation_806 (Activation)     (None, 40, 12, 12)   0           dense_3_2_bottleneck_bn[0][0]    
__________________________________________________________________________________________________
dense_3_2_conv2D (Conv2D)       (None, 10, 12, 12)   3600        activation_806[0][0]             
__________________________________________________________________________________________________
concatenate_341 (Concatenate)   (None, 58, 12, 12)   0           concatenate_340[0][0]            
                                                                 dense_3_2_conv2D[0][0]           
__________________________________________________________________________________________________
final_bn (BatchNormalization)   (None, 58, 12, 12)   232         concatenate_341[0][0]            
__________________________________________________________________________________________________
activation_807 (Activation)     (None, 58, 12, 12)   0           final_bn[0][0]                   
__________________________________________________________________________________________________
global_average_pooling2d_39 (Gl (None, 58)           0           activation_807[0][0]             
__________________________________________________________________________________________________
dense_39 (Dense)                (None, 1)            59          global_average_pooling2d_39[0][0]
==================================================================================================
Total params: 67,879
Trainable params: 65,695
Non-trainable params: 2,184
__________________________________________________________________________________________________
Train on 31872 samples, validate on 7968 samples
Epoch 1/50
 - 75s - loss: 0.5665 - acc: 0.7761 - val_loss: 0.5054 - val_acc: 0.8048
…
7232/7440 [============================>.] - ETA: 0s
7328/7440 [============================>.] - ETA: 0s
7424/7440 [============================>.] - ETA: 0s
7440/7440 [==============================] - 4s 567us/step
current Test accuracy: 0.8141129032258064
current auc_score ------------------>  0.901358321771303
__________________________________________________________________________________________________
Layer (type)                    Output Shape         Param #     Connected to                     
==================================================================================================
input_41 (InputLayer)           (None, 2, 96, 96)    0                                            
__________________________________________________________________________________________________
initial_conv2D (Conv2D)         (None, 16, 96, 96)   288         input_41[0][0]                   
__________________________________________________________________________________________________
dense_0_0_bn (BatchNormalizatio (None, 16, 96, 96)   64          initial_conv2D[0][0]             
__________________________________________________________________________________________________
activation_841 (Activation)     (None, 16, 96, 96)   0           dense_0_0_bn[0][0]               
__________________________________________________________________________________________________
dense_0_0_bottleneck_conv2D (Co (None, 56, 96, 96)   896         activation_841[0][0]             
__________________________________________________________________________________________________
dense_0_0_bottleneck_bn (BatchN (None, 56, 96, 96)   224         dense_0_0_bottleneck_conv2D[0][0]
__________________________________________________________________________________________________
activation_842 (Activation)     (None, 56, 96, 96)   0           dense_0_0_bottleneck_bn[0][0]    
__________________________________________________________________________________________________
dense_0_0_conv2D (Conv2D)       (None, 14, 96, 96)   7056        activation_842[0][0]             
__________________________________________________________________________________________________
concatenate_357 (Concatenate)   (None, 30, 96, 96)   0           initial_conv2D[0][0]             
                                                                 dense_0_0_conv2D[0][0]           
__________________________________________________________________________________________________
dense_0_1_bn (BatchNormalizatio (None, 30, 96, 96)   120         concatenate_357[0][0]            
__________________________________________________________________________________________________
activation_843 (Activation)     (None, 30, 96, 96)   0           dense_0_1_bn[0][0]               
__________________________________________________________________________________________________
dense_0_1_bottleneck_conv2D (Co (None, 56, 96, 96)   1680        activation_843[0][0]             
__________________________________________________________________________________________________
dense_0_1_bottleneck_bn (BatchN (None, 56, 96, 96)   224         dense_0_1_bottleneck_conv2D[0][0]
__________________________________________________________________________________________________
activation_844 (Activation)     (None, 56, 96, 96)   0           dense_0_1_bottleneck_bn[0][0]    
__________________________________________________________________________________________________
dense_0_1_conv2D (Conv2D)       (None, 14, 96, 96)   7056        activation_844[0][0]             
__________________________________________________________________________________________________
concatenate_358 (Concatenate)   (None, 44, 96, 96)   0           concatenate_357[0][0]            
                                                                 dense_0_1_conv2D[0][0]           
__________________________________________________________________________________________________
dense_0_2_bn (BatchNormalizatio (None, 44, 96, 96)   176         concatenate_358[0][0]            
__________________________________________________________________________________________________
activation_845 (Activation)     (None, 44, 96, 96)   0           dense_0_2_bn[0][0]               
__________________________________________________________________________________________________
dense_0_2_bottleneck_conv2D (Co (None, 56, 96, 96)   2464        activation_845[0][0]             
__________________________________________________________________________________________________
dense_0_2_bottleneck_bn (BatchN (None, 56, 96, 96)   224         dense_0_2_bottleneck_conv2D[0][0]
__________________________________________________________________________________________________
activation_846 (Activation)     (None, 56, 96, 96)   0           dense_0_2_bottleneck_bn[0][0]    
__________________________________________________________________________________________________
dense_0_2_conv2D (Conv2D)       (None, 14, 96, 96)   7056        activation_846[0][0]             
__________________________________________________________________________________________________
concatenate_359 (Concatenate)   (None, 58, 96, 96)   0           concatenate_358[0][0]            
                                                                 dense_0_2_conv2D[0][0]           
__________________________________________________________________________________________________
dense_0_3_bn (BatchNormalizatio (None, 58, 96, 96)   232         concatenate_359[0][0]            
__________________________________________________________________________________________________
activation_847 (Activation)     (None, 58, 96, 96)   0           dense_0_3_bn[0][0]               
__________________________________________________________________________________________________
dense_0_3_bottleneck_conv2D (Co (None, 56, 96, 96)   3248        activation_847[0][0]             
__________________________________________________________________________________________________
dense_0_3_bottleneck_bn (BatchN (None, 56, 96, 96)   224         dense_0_3_bottleneck_conv2D[0][0]
__________________________________________________________________________________________________
activation_848 (Activation)     (None, 56, 96, 96)   0           dense_0_3_bottleneck_bn[0][0]    
__________________________________________________________________________________________________
dense_0_3_conv2D (Conv2D)       (None, 14, 96, 96)   7056        activation_848[0][0]             
__________________________________________________________________________________________________
concatenate_360 (Concatenate)   (None, 72, 96, 96)   0           concatenate_359[0][0]            
                                                                 dense_0_3_conv2D[0][0]           
__________________________________________________________________________________________________
dense_0_4_bn (BatchNormalizatio (None, 72, 96, 96)   288         concatenate_360[0][0]            
__________________________________________________________________________________________________
activation_849 (Activation)     (None, 72, 96, 96)   0           dense_0_4_bn[0][0]               
__________________________________________________________________________________________________
dense_0_4_bottleneck_conv2D (Co (None, 56, 96, 96)   4032        activation_849[0][0]             
__________________________________________________________________________________________________
dense_0_4_bottleneck_bn (BatchN (None, 56, 96, 96)   224         dense_0_4_bottleneck_conv2D[0][0]
__________________________________________________________________________________________________
activation_850 (Activation)     (None, 56, 96, 96)   0           dense_0_4_bottleneck_bn[0][0]    
__________________________________________________________________________________________________
dense_0_4_conv2D (Conv2D)       (None, 14, 96, 96)   7056        activation_850[0][0]             
__________________________________________________________________________________________________
concatenate_361 (Concatenate)   (None, 86, 96, 96)   0           concatenate_360[0][0]            
                                                                 dense_0_4_conv2D[0][0]           
__________________________________________________________________________________________________
tr_0_bn (BatchNormalization)    (None, 86, 96, 96)   344         concatenate_361[0][0]            
__________________________________________________________________________________________________
activation_851 (Activation)     (None, 86, 96, 96)   0           tr_0_bn[0][0]                    
__________________________________________________________________________________________________
tr_0_conv2D (Conv2D)            (None, 43, 96, 96)   3698        activation_851[0][0]             
__________________________________________________________________________________________________
average_pooling2d_89 (AveragePo (None, 43, 48, 48)   0           tr_0_conv2D[0][0]                
__________________________________________________________________________________________________
dense_1_0_bn (BatchNormalizatio (None, 43, 48, 48)   172         average_pooling2d_89[0][0]       
__________________________________________________________________________________________________
activation_852 (Activation)     (None, 43, 48, 48)   0           dense_1_0_bn[0][0]               
__________________________________________________________________________________________________
dense_1_0_bottleneck_conv2D (Co (None, 56, 48, 48)   2408        activation_852[0][0]             
__________________________________________________________________________________________________
dense_1_0_bottleneck_bn (BatchN (None, 56, 48, 48)   224         dense_1_0_bottleneck_conv2D[0][0]
__________________________________________________________________________________________________
activation_853 (Activation)     (None, 56, 48, 48)   0           dense_1_0_bottleneck_bn[0][0]    
__________________________________________________________________________________________________
dense_1_0_conv2D (Conv2D)       (None, 14, 48, 48)   7056        activation_853[0][0]             
__________________________________________________________________________________________________
concatenate_362 (Concatenate)   (None, 57, 48, 48)   0           average_pooling2d_89[0][0]       
                                                                 dense_1_0_conv2D[0][0]           
__________________________________________________________________________________________________
dense_1_1_bn (BatchNormalizatio (None, 57, 48, 48)   228         concatenate_362[0][0]            
__________________________________________________________________________________________________
activation_854 (Activation)     (None, 57, 48, 48)   0           dense_1_1_bn[0][0]               
__________________________________________________________________________________________________
dense_1_1_bottleneck_conv2D (Co (None, 56, 48, 48)   3192        activation_854[0][0]             
__________________________________________________________________________________________________
dense_1_1_bottleneck_bn (BatchN (None, 56, 48, 48)   224         dense_1_1_bottleneck_conv2D[0][0]
__________________________________________________________________________________________________
activation_855 (Activation)     (None, 56, 48, 48)   0           dense_1_1_bottleneck_bn[0][0]    
__________________________________________________________________________________________________
dense_1_1_conv2D (Conv2D)       (None, 14, 48, 48)   7056        activation_855[0][0]             
__________________________________________________________________________________________________
concatenate_363 (Concatenate)   (None, 71, 48, 48)   0           concatenate_362[0][0]            
                                                                 dense_1_1_conv2D[0][0]           
__________________________________________________________________________________________________
dense_1_2_bn (BatchNormalizatio (None, 71, 48, 48)   284         concatenate_363[0][0]            
__________________________________________________________________________________________________
activation_856 (Activation)     (None, 71, 48, 48)   0           dense_1_2_bn[0][0]               
__________________________________________________________________________________________________
dense_1_2_bottleneck_conv2D (Co (None, 56, 48, 48)   3976        activation_856[0][0]             
__________________________________________________________________________________________________
dense_1_2_bottleneck_bn (BatchN (None, 56, 48, 48)   224         dense_1_2_bottleneck_conv2D[0][0]
__________________________________________________________________________________________________
activation_857 (Activation)     (None, 56, 48, 48)   0           dense_1_2_bottleneck_bn[0][0]    
__________________________________________________________________________________________________
dense_1_2_conv2D (Conv2D)       (None, 14, 48, 48)   7056        activation_857[0][0]             
__________________________________________________________________________________________________
concatenate_364 (Concatenate)   (None, 85, 48, 48)   0           concatenate_363[0][0]            
                                                                 dense_1_2_conv2D[0][0]           
__________________________________________________________________________________________________
dense_1_3_bn (BatchNormalizatio (None, 85, 48, 48)   340         concatenate_364[0][0]            
__________________________________________________________________________________________________
activation_858 (Activation)     (None, 85, 48, 48)   0           dense_1_3_bn[0][0]               
__________________________________________________________________________________________________
dense_1_3_bottleneck_conv2D (Co (None, 56, 48, 48)   4760        activation_858[0][0]             
__________________________________________________________________________________________________
dense_1_3_bottleneck_bn (BatchN (None, 56, 48, 48)   224         dense_1_3_bottleneck_conv2D[0][0]
__________________________________________________________________________________________________
activation_859 (Activation)     (None, 56, 48, 48)   0           dense_1_3_bottleneck_bn[0][0]    
__________________________________________________________________________________________________
dense_1_3_conv2D (Conv2D)       (None, 14, 48, 48)   7056        activation_859[0][0]             
__________________________________________________________________________________________________
concatenate_365 (Concatenate)   (None, 99, 48, 48)   0           concatenate_364[0][0]            
                                                                 dense_1_3_conv2D[0][0]           
__________________________________________________________________________________________________
dense_1_4_bn (BatchNormalizatio (None, 99, 48, 48)   396         concatenate_365[0][0]            
__________________________________________________________________________________________________
activation_860 (Activation)     (None, 99, 48, 48)   0           dense_1_4_bn[0][0]               
__________________________________________________________________________________________________
dense_1_4_bottleneck_conv2D (Co (None, 56, 48, 48)   5544        activation_860[0][0]             
__________________________________________________________________________________________________
dense_1_4_bottleneck_bn (BatchN (None, 56, 48, 48)   224         dense_1_4_bottleneck_conv2D[0][0]
__________________________________________________________________________________________________
activation_861 (Activation)     (None, 56, 48, 48)   0           dense_1_4_bottleneck_bn[0][0]    
__________________________________________________________________________________________________
dense_1_4_conv2D (Conv2D)       (None, 14, 48, 48)   7056        activation_861[0][0]             
__________________________________________________________________________________________________
concatenate_366 (Concatenate)   (None, 113, 48, 48)  0           concatenate_365[0][0]            
                                                                 dense_1_4_conv2D[0][0]           
__________________________________________________________________________________________________
final_bn (BatchNormalization)   (None, 113, 48, 48)  452         concatenate_366[0][0]            
__________________________________________________________________________________________________
activation_862 (Activation)     (None, 113, 48, 48)  0           final_bn[0][0]                   
__________________________________________________________________________________________________
global_average_pooling2d_41 (Gl (None, 113)          0           activation_862[0][0]             
__________________________________________________________________________________________________
dense_41 (Dense)                (None, 1)            114         global_average_pooling2d_41[0][0]
==================================================================================================
Total params: 112,196
Trainable params: 109,528
Non-trainable params: 2,668
__________________________________________________________________________________________________
Train on 31872 samples, validate on 7968 samples
Epoch 1/50
 - 101s - loss: 0.6021 - acc: 0.7638 - val_loss: 0.5832 - val_acc: 0.7735
…
