python hello-world.py
python hyperas_contrastive_loss.py
python densenet_siamese_best_run.py
python hyperas_densenet.py
__________________________________________________________________________________________________
Layer (type)                    Output Shape         Param #     Connected to                     
==================================================================================================
input_1 (InputLayer)            (None, 2, 96, 96)    0                                            
__________________________________________________________________________________________________
initial_conv2D (Conv2D)         (None, 2, 96, 16)    13824       input_1[0][0]                    
__________________________________________________________________________________________________
batch_normalization_1 (BatchNor (None, 2, 96, 16)    64          initial_conv2D[0][0]             
__________________________________________________________________________________________________
activation_1 (Activation)       (None, 2, 96, 16)    0           batch_normalization_1[0][0]      
__________________________________________________________________________________________________
conv2d_1 (Conv2D)               (None, 2, 96, 6)     864         activation_1[0][0]               
__________________________________________________________________________________________________
dropout_1 (Dropout)             (None, 2, 96, 6)     0           conv2d_1[0][0]                   
__________________________________________________________________________________________________
concatenate_1 (Concatenate)     (None, 2, 96, 22)    0           initial_conv2D[0][0]             
                                                                 dropout_1[0][0]                  
__________________________________________________________________________________________________
batch_normalization_2 (BatchNor (None, 2, 96, 22)    88          concatenate_1[0][0]              
__________________________________________________________________________________________________
activation_2 (Activation)       (None, 2, 96, 22)    0           batch_normalization_2[0][0]      
__________________________________________________________________________________________________
conv2d_2 (Conv2D)               (None, 22, 96, 22)   44          activation_2[0][0]               
__________________________________________________________________________________________________
dropout_2 (Dropout)             (None, 22, 96, 22)   0           conv2d_2[0][0]                   
__________________________________________________________________________________________________
average_pooling2d_1 (AveragePoo (None, 11, 48, 22)   0           dropout_2[0][0]                  
__________________________________________________________________________________________________
batch_normalization_3 (BatchNor (None, 11, 48, 22)   88          average_pooling2d_1[0][0]        
__________________________________________________________________________________________________
activation_3 (Activation)       (None, 11, 48, 22)   0           batch_normalization_3[0][0]      
__________________________________________________________________________________________________
conv2d_3 (Conv2D)               (None, 11, 48, 6)    1188        activation_3[0][0]               
__________________________________________________________________________________________________
dropout_3 (Dropout)             (None, 11, 48, 6)    0           conv2d_3[0][0]                   
__________________________________________________________________________________________________
concatenate_2 (Concatenate)     (None, 11, 48, 28)   0           average_pooling2d_1[0][0]        
                                                                 dropout_3[0][0]                  
__________________________________________________________________________________________________
batch_normalization_4 (BatchNor (None, 11, 48, 28)   112         concatenate_2[0][0]              
__________________________________________________________________________________________________
activation_4 (Activation)       (None, 11, 48, 28)   0           batch_normalization_4[0][0]      
__________________________________________________________________________________________________
conv2d_4 (Conv2D)               (None, 28, 48, 28)   308         activation_4[0][0]               
__________________________________________________________________________________________________
dropout_4 (Dropout)             (None, 28, 48, 28)   0           conv2d_4[0][0]                   
__________________________________________________________________________________________________
average_pooling2d_2 (AveragePoo (None, 14, 24, 28)   0           dropout_4[0][0]                  
__________________________________________________________________________________________________
batch_normalization_5 (BatchNor (None, 14, 24, 28)   112         average_pooling2d_2[0][0]        
__________________________________________________________________________________________________
activation_5 (Activation)       (None, 14, 24, 28)   0           batch_normalization_5[0][0]      
__________________________________________________________________________________________________
conv2d_5 (Conv2D)               (None, 14, 24, 6)    1512        activation_5[0][0]               
__________________________________________________________________________________________________
dropout_5 (Dropout)             (None, 14, 24, 6)    0           conv2d_5[0][0]                   
__________________________________________________________________________________________________
concatenate_3 (Concatenate)     (None, 14, 24, 34)   0           average_pooling2d_2[0][0]        
                                                                 dropout_5[0][0]                  
__________________________________________________________________________________________________
batch_normalization_6 (BatchNor (None, 14, 24, 34)   136         concatenate_3[0][0]              
__________________________________________________________________________________________________
activation_6 (Activation)       (None, 14, 24, 34)   0           batch_normalization_6[0][0]      
__________________________________________________________________________________________________
global_average_pooling2d_1 (Glo (None, 34)           0           activation_6[0][0]               
__________________________________________________________________________________________________
dense_1 (Dense)                 (None, 64)           2240        global_average_pooling2d_1[0][0] 
__________________________________________________________________________________________________
activation_7 (Activation)       (None, 64)           0           dense_1[0][0]                    
__________________________________________________________________________________________________
batch_normalization_7 (BatchNor (None, 64)           256         activation_7[0][0]               
__________________________________________________________________________________________________
fc (Dense)                      (None, 1)            65          batch_normalization_7[0][0]      
==================================================================================================
Total params: 20,901
Trainable params: 20,473
Non-trainable params: 428
__________________________________________________________________________________________________
Train on 39840 samples, validate on 7440 samples
Epoch 1/4

  128/39840 [..............................] - ETA: 6:26 - loss: 0.9339 - acc: 0.4844
…
