…
  54:     score, acc = model.evaluate(X_val, y_val)
  55:     print('Best saved model Test accuracy:', acc)
  56:     pred = model.predict(X_val)
  57:     auc_score = roc_auc_score(y_val,pred)
  58:     print("best saved model auc_score ------------------> ",auc_score)
  59: 
  60:     
  61:     return {'loss': -auc_score, 'status': STATUS_OK, 'model': model}  
  62: 
_________________________________________________________________
Layer (type)                 Output Shape              Param #   
=================================================================
input_1 (InputLayer)         (None, 2, 96, 96)         0         
_________________________________________________________________
initial_conv2D (Conv2D)      (None, 16, 96, 96)        288       
_________________________________________________________________
tr_0_bn (BatchNormalization) (None, 16, 96, 96)        64        
_________________________________________________________________
activation_1 (Activation)    (None, 16, 96, 96)        0         
_________________________________________________________________
tr_0_conv2D (Conv2D)         (None, 8, 96, 96)         128       
_________________________________________________________________
average_pooling2d_1 (Average (None, 8, 48, 48)         0         
_________________________________________________________________
tr_1_bn (BatchNormalization) (None, 8, 48, 48)         32        
_________________________________________________________________
activation_2 (Activation)    (None, 8, 48, 48)         0         
_________________________________________________________________
tr_1_conv2D (Conv2D)         (None, 4, 48, 48)         32        
_________________________________________________________________
average_pooling2d_2 (Average (None, 4, 24, 24)         0         
_________________________________________________________________
final_bn (BatchNormalization (None, 4, 24, 24)         16        
_________________________________________________________________
activation_3 (Activation)    (None, 4, 24, 24)         0         
_________________________________________________________________
global_average_pooling2d_1 ( (None, 4)                 0         
_________________________________________________________________
dense_1 (Dense)              (None, 1)                 5         
=================================================================
Total params: 565
Trainable params: 509
Non-trainable params: 56
_________________________________________________________________
Train on 39840 samples, validate on 7440 samples
Epoch 1/30
 - 7s - loss: 0.6763 - acc: 0.6085 - val_loss: 0.6219 - val_acc: 0.7895

Epoch 00001: val_loss improved from inf to 0.62190, saving model to keras_densenet_simple_wt_28Sept_1352.h5
…
6688/7440 [=========================>....] - ETA: 0s
7296/7440 [============================>.] - ETA: 0s
7440/7440 [==============================] - 1s 97us/step
Best saved model Test accuracy: 0.8538978494623656
best saved model auc_score ------------------>  0.8753092481789803
__________________________________________________________________________________________________
Layer (type)                    Output Shape         Param #     Connected to                     
==================================================================================================
input_2 (InputLayer)            (None, 2, 96, 96)    0                                            
__________________________________________________________________________________________________
initial_conv2D (Conv2D)         (None, 16, 96, 96)   288         input_2[0][0]                    
__________________________________________________________________________________________________
dense_0_0_bn (BatchNormalizatio (None, 16, 96, 96)   64          initial_conv2D[0][0]             
__________________________________________________________________________________________________
activation_4 (Activation)       (None, 16, 96, 96)   0           dense_0_0_bn[0][0]               
__________________________________________________________________________________________________
dense_0_0_bottleneck_conv2D (Co (None, 32, 96, 96)   512         activation_4[0][0]               
__________________________________________________________________________________________________
dense_0_0_bottleneck_bn (BatchN (None, 32, 96, 96)   128         dense_0_0_bottleneck_conv2D[0][0]
__________________________________________________________________________________________________
activation_5 (Activation)       (None, 32, 96, 96)   0           dense_0_0_bottleneck_bn[0][0]    
__________________________________________________________________________________________________
dense_0_0_conv2D (Conv2D)       (None, 8, 96, 96)    2304        activation_5[0][0]               
__________________________________________________________________________________________________
concatenate_1 (Concatenate)     (None, 24, 96, 96)   0           initial_conv2D[0][0]             
                                                                 dense_0_0_conv2D[0][0]           
__________________________________________________________________________________________________
dense_0_1_bn (BatchNormalizatio (None, 24, 96, 96)   96          concatenate_1[0][0]              
__________________________________________________________________________________________________
activation_6 (Activation)       (None, 24, 96, 96)   0           dense_0_1_bn[0][0]               
__________________________________________________________________________________________________
dense_0_1_bottleneck_conv2D (Co (None, 32, 96, 96)   768         activation_6[0][0]               
__________________________________________________________________________________________________
dense_0_1_bottleneck_bn (BatchN (None, 32, 96, 96)   128         dense_0_1_bottleneck_conv2D[0][0]
__________________________________________________________________________________________________
activation_7 (Activation)       (None, 32, 96, 96)   0           dense_0_1_bottleneck_bn[0][0]    
__________________________________________________________________________________________________
dense_0_1_conv2D (Conv2D)       (None, 8, 96, 96)    2304        activation_7[0][0]               
__________________________________________________________________________________________________
concatenate_2 (Concatenate)     (None, 32, 96, 96)   0           concatenate_1[0][0]              
                                                                 dense_0_1_conv2D[0][0]           
__________________________________________________________________________________________________
final_bn (BatchNormalization)   (None, 32, 96, 96)   128         concatenate_2[0][0]              
__________________________________________________________________________________________________
activation_8 (Activation)       (None, 32, 96, 96)   0           final_bn[0][0]                   
__________________________________________________________________________________________________
global_average_pooling2d_2 (Glo (None, 32)           0           activation_8[0][0]               
__________________________________________________________________________________________________
dense_2 (Dense)                 (None, 1)            33          global_average_pooling2d_2[0][0] 
==================================================================================================
Total params: 6,753
Trainable params: 6,481
Non-trainable params: 272
__________________________________________________________________________________________________
Train on 39840 samples, validate on 7440 samples
Epoch 1/30
 - 18s - loss: 0.6211 - acc: 0.6996 - val_loss: 0.5684 - val_acc: 0.7610
…
7040/7440 [===========================>..] - ETA: 0s
7360/7440 [============================>.] - ETA: 0s
7440/7440 [==============================] - 1s 193us/step
Best saved model Test accuracy: 0.8278225806451613
best saved model auc_score ------------------>  0.8750587495664238
__________________________________________________________________________________________________
Layer (type)                    Output Shape         Param #     Connected to                     
==================================================================================================
input_3 (InputLayer)            (None, 2, 96, 96)    0                                            
__________________________________________________________________________________________________
initial_conv2D (Conv2D)         (None, 16, 96, 96)   288         input_3[0][0]                    
__________________________________________________________________________________________________
dense_0_0_bn (BatchNormalizatio (None, 16, 96, 96)   64          initial_conv2D[0][0]             
__________________________________________________________________________________________________
activation_9 (Activation)       (None, 16, 96, 96)   0           dense_0_0_bn[0][0]               
__________________________________________________________________________________________________
dense_0_0_bottleneck_conv2D (Co (None, 40, 96, 96)   640         activation_9[0][0]               
__________________________________________________________________________________________________
dense_0_0_bottleneck_bn (BatchN (None, 40, 96, 96)   160         dense_0_0_bottleneck_conv2D[0][0]
__________________________________________________________________________________________________
activation_10 (Activation)      (None, 40, 96, 96)   0           dense_0_0_bottleneck_bn[0][0]    
__________________________________________________________________________________________________
dense_0_0_conv2D (Conv2D)       (None, 10, 96, 96)   3600        activation_10[0][0]              
__________________________________________________________________________________________________
concatenate_3 (Concatenate)     (None, 26, 96, 96)   0           initial_conv2D[0][0]             
                                                                 dense_0_0_conv2D[0][0]           
__________________________________________________________________________________________________
dense_0_1_bn (BatchNormalizatio (None, 26, 96, 96)   104         concatenate_3[0][0]              
__________________________________________________________________________________________________
activation_11 (Activation)      (None, 26, 96, 96)   0           dense_0_1_bn[0][0]               
__________________________________________________________________________________________________
dense_0_1_bottleneck_conv2D (Co (None, 40, 96, 96)   1040        activation_11[0][0]              
__________________________________________________________________________________________________
dense_0_1_bottleneck_bn (BatchN (None, 40, 96, 96)   160         dense_0_1_bottleneck_conv2D[0][0]
__________________________________________________________________________________________________
activation_12 (Activation)      (None, 40, 96, 96)   0           dense_0_1_bottleneck_bn[0][0]    
__________________________________________________________________________________________________
dense_0_1_conv2D (Conv2D)       (None, 10, 96, 96)   3600        activation_12[0][0]              
__________________________________________________________________________________________________
concatenate_4 (Concatenate)     (None, 36, 96, 96)   0           concatenate_3[0][0]              
                                                                 dense_0_1_conv2D[0][0]           
__________________________________________________________________________________________________
dense_0_2_bn (BatchNormalizatio (None, 36, 96, 96)   144         concatenate_4[0][0]              
__________________________________________________________________________________________________
activation_13 (Activation)      (None, 36, 96, 96)   0           dense_0_2_bn[0][0]               
__________________________________________________________________________________________________
dense_0_2_bottleneck_conv2D (Co (None, 40, 96, 96)   1440        activation_13[0][0]              
__________________________________________________________________________________________________
dense_0_2_bottleneck_bn (BatchN (None, 40, 96, 96)   160         dense_0_2_bottleneck_conv2D[0][0]
__________________________________________________________________________________________________
activation_14 (Activation)      (None, 40, 96, 96)   0           dense_0_2_bottleneck_bn[0][0]    
__________________________________________________________________________________________________
dense_0_2_conv2D (Conv2D)       (None, 10, 96, 96)   3600        activation_14[0][0]              
__________________________________________________________________________________________________
concatenate_5 (Concatenate)     (None, 46, 96, 96)   0           concatenate_4[0][0]              
                                                                 dense_0_2_conv2D[0][0]           
__________________________________________________________________________________________________
tr_0_bn (BatchNormalization)    (None, 46, 96, 96)   184         concatenate_5[0][0]              
__________________________________________________________________________________________________
activation_15 (Activation)      (None, 46, 96, 96)   0           tr_0_bn[0][0]                    
__________________________________________________________________________________________________
tr_0_conv2D (Conv2D)            (None, 23, 96, 96)   1058        activation_15[0][0]              
__________________________________________________________________________________________________
average_pooling2d_3 (AveragePoo (None, 23, 48, 48)   0           tr_0_conv2D[0][0]                
__________________________________________________________________________________________________
dense_1_0_bn (BatchNormalizatio (None, 23, 48, 48)   92          average_pooling2d_3[0][0]        
__________________________________________________________________________________________________
activation_16 (Activation)      (None, 23, 48, 48)   0           dense_1_0_bn[0][0]               
__________________________________________________________________________________________________
dense_1_0_bottleneck_conv2D (Co (None, 40, 48, 48)   920         activation_16[0][0]              
__________________________________________________________________________________________________
dense_1_0_bottleneck_bn (BatchN (None, 40, 48, 48)   160         dense_1_0_bottleneck_conv2D[0][0]
__________________________________________________________________________________________________
activation_17 (Activation)      (None, 40, 48, 48)   0           dense_1_0_bottleneck_bn[0][0]    
__________________________________________________________________________________________________
dense_1_0_conv2D (Conv2D)       (None, 10, 48, 48)   3600        activation_17[0][0]              
__________________________________________________________________________________________________
concatenate_6 (Concatenate)     (None, 33, 48, 48)   0           average_pooling2d_3[0][0]        
                                                                 dense_1_0_conv2D[0][0]           
__________________________________________________________________________________________________
dense_1_1_bn (BatchNormalizatio (None, 33, 48, 48)   132         concatenate_6[0][0]              
__________________________________________________________________________________________________
activation_18 (Activation)      (None, 33, 48, 48)   0           dense_1_1_bn[0][0]               
__________________________________________________________________________________________________
dense_1_1_bottleneck_conv2D (Co (None, 40, 48, 48)   1320        activation_18[0][0]              
__________________________________________________________________________________________________
dense_1_1_bottleneck_bn (BatchN (None, 40, 48, 48)   160         dense_1_1_bottleneck_conv2D[0][0]
__________________________________________________________________________________________________
activation_19 (Activation)      (None, 40, 48, 48)   0           dense_1_1_bottleneck_bn[0][0]    
__________________________________________________________________________________________________
dense_1_1_conv2D (Conv2D)       (None, 10, 48, 48)   3600        activation_19[0][0]              
__________________________________________________________________________________________________
concatenate_7 (Concatenate)     (None, 43, 48, 48)   0           concatenate_6[0][0]              
                                                                 dense_1_1_conv2D[0][0]           
__________________________________________________________________________________________________
dense_1_2_bn (BatchNormalizatio (None, 43, 48, 48)   172         concatenate_7[0][0]              
__________________________________________________________________________________________________
activation_20 (Activation)      (None, 43, 48, 48)   0           dense_1_2_bn[0][0]               
__________________________________________________________________________________________________
dense_1_2_bottleneck_conv2D (Co (None, 40, 48, 48)   1720        activation_20[0][0]              
__________________________________________________________________________________________________
dense_1_2_bottleneck_bn (BatchN (None, 40, 48, 48)   160         dense_1_2_bottleneck_conv2D[0][0]
__________________________________________________________________________________________________
activation_21 (Activation)      (None, 40, 48, 48)   0           dense_1_2_bottleneck_bn[0][0]    
__________________________________________________________________________________________________
dense_1_2_conv2D (Conv2D)       (None, 10, 48, 48)   3600        activation_21[0][0]              
__________________________________________________________________________________________________
concatenate_8 (Concatenate)     (None, 53, 48, 48)   0           concatenate_7[0][0]              
                                                                 dense_1_2_conv2D[0][0]           
__________________________________________________________________________________________________
final_bn (BatchNormalization)   (None, 53, 48, 48)   212         concatenate_8[0][0]              
__________________________________________________________________________________________________
activation_22 (Activation)      (None, 53, 48, 48)   0           final_bn[0][0]                   
__________________________________________________________________________________________________
global_average_pooling2d_3 (Glo (None, 53)           0           activation_22[0][0]              
__________________________________________________________________________________________________
dense_3 (Dense)                 (None, 1)            54          global_average_pooling2d_3[0][0] 
==================================================================================================
Total params: 32,144
Trainable params: 31,112
Non-trainable params: 1,032
__________________________________________________________________________________________________
Train on 39840 samples, validate on 7440 samples
Epoch 1/30
 - 37s - loss: 0.5697 - acc: 0.7521 - val_loss: 0.5086 - val_acc: 0.8192
…
7136/7440 [===========================>..] - ETA: 0s
7328/7440 [============================>.] - ETA: 0s
7440/7440 [==============================] - 3s 373us/step
Best saved model Test accuracy: 0.8192204301075269
best saved model auc_score ------------------>  0.8799525956758006
__________________________________________________________________________________________________
Layer (type)                    Output Shape         Param #     Connected to                     
==================================================================================================
input_4 (InputLayer)            (None, 2, 96, 96)    0                                            
__________________________________________________________________________________________________
initial_conv2D (Conv2D)         (None, 16, 96, 96)   288         input_4[0][0]                    
__________________________________________________________________________________________________
dense_0_0_bn (BatchNormalizatio (None, 16, 96, 96)   64          initial_conv2D[0][0]             
__________________________________________________________________________________________________
activation_23 (Activation)      (None, 16, 96, 96)   0           dense_0_0_bn[0][0]               
__________________________________________________________________________________________________
dense_0_0_bottleneck_conv2D (Co (None, 64, 96, 96)   1024        activation_23[0][0]              
__________________________________________________________________________________________________
dense_0_0_bottleneck_bn (BatchN (None, 64, 96, 96)   256         dense_0_0_bottleneck_conv2D[0][0]
__________________________________________________________________________________________________
activation_24 (Activation)      (None, 64, 96, 96)   0           dense_0_0_bottleneck_bn[0][0]    
__________________________________________________________________________________________________
dense_0_0_conv2D (Conv2D)       (None, 16, 96, 96)   9216        activation_24[0][0]              
__________________________________________________________________________________________________
concatenate_9 (Concatenate)     (None, 32, 96, 96)   0           initial_conv2D[0][0]             
                                                                 dense_0_0_conv2D[0][0]           
__________________________________________________________________________________________________
dense_0_1_bn (BatchNormalizatio (None, 32, 96, 96)   128         concatenate_9[0][0]              
__________________________________________________________________________________________________
activation_25 (Activation)      (None, 32, 96, 96)   0           dense_0_1_bn[0][0]               
__________________________________________________________________________________________________
dense_0_1_bottleneck_conv2D (Co (None, 64, 96, 96)   2048        activation_25[0][0]              
__________________________________________________________________________________________________
dense_0_1_bottleneck_bn (BatchN (None, 64, 96, 96)   256         dense_0_1_bottleneck_conv2D[0][0]
__________________________________________________________________________________________________
activation_26 (Activation)      (None, 64, 96, 96)   0           dense_0_1_bottleneck_bn[0][0]    
__________________________________________________________________________________________________
dense_0_1_conv2D (Conv2D)       (None, 16, 96, 96)   9216        activation_26[0][0]              
__________________________________________________________________________________________________
concatenate_10 (Concatenate)    (None, 48, 96, 96)   0           concatenate_9[0][0]              
                                                                 dense_0_1_conv2D[0][0]           
__________________________________________________________________________________________________
dense_0_2_bn (BatchNormalizatio (None, 48, 96, 96)   192         concatenate_10[0][0]             
__________________________________________________________________________________________________
activation_27 (Activation)      (None, 48, 96, 96)   0           dense_0_2_bn[0][0]               
__________________________________________________________________________________________________
dense_0_2_bottleneck_conv2D (Co (None, 64, 96, 96)   3072        activation_27[0][0]              
__________________________________________________________________________________________________
dense_0_2_bottleneck_bn (BatchN (None, 64, 96, 96)   256         dense_0_2_bottleneck_conv2D[0][0]
__________________________________________________________________________________________________
activation_28 (Activation)      (None, 64, 96, 96)   0           dense_0_2_bottleneck_bn[0][0]    
__________________________________________________________________________________________________
dense_0_2_conv2D (Conv2D)       (None, 16, 96, 96)   9216        activation_28[0][0]              
__________________________________________________________________________________________________
concatenate_11 (Concatenate)    (None, 64, 96, 96)   0           concatenate_10[0][0]             
                                                                 dense_0_2_conv2D[0][0]           
__________________________________________________________________________________________________
tr_0_bn (BatchNormalization)    (None, 64, 96, 96)   256         concatenate_11[0][0]             
__________________________________________________________________________________________________
activation_29 (Activation)      (None, 64, 96, 96)   0           tr_0_bn[0][0]                    
__________________________________________________________________________________________________
tr_0_conv2D (Conv2D)            (None, 32, 96, 96)   2048        activation_29[0][0]              
__________________________________________________________________________________________________
average_pooling2d_4 (AveragePoo (None, 32, 48, 48)   0           tr_0_conv2D[0][0]                
__________________________________________________________________________________________________
dense_1_0_bn (BatchNormalizatio (None, 32, 48, 48)   128         average_pooling2d_4[0][0]        
__________________________________________________________________________________________________
activation_30 (Activation)      (None, 32, 48, 48)   0           dense_1_0_bn[0][0]               
__________________________________________________________________________________________________
dense_1_0_bottleneck_conv2D (Co (None, 64, 48, 48)   2048        activation_30[0][0]              
__________________________________________________________________________________________________
dense_1_0_bottleneck_bn (BatchN (None, 64, 48, 48)   256         dense_1_0_bottleneck_conv2D[0][0]
__________________________________________________________________________________________________
activation_31 (Activation)      (None, 64, 48, 48)   0           dense_1_0_bottleneck_bn[0][0]    
__________________________________________________________________________________________________
dense_1_0_conv2D (Conv2D)       (None, 16, 48, 48)   9216        activation_31[0][0]              
__________________________________________________________________________________________________
concatenate_12 (Concatenate)    (None, 48, 48, 48)   0           average_pooling2d_4[0][0]        
                                                                 dense_1_0_conv2D[0][0]           
__________________________________________________________________________________________________
dense_1_1_bn (BatchNormalizatio (None, 48, 48, 48)   192         concatenate_12[0][0]             
__________________________________________________________________________________________________
activation_32 (Activation)      (None, 48, 48, 48)   0           dense_1_1_bn[0][0]               
__________________________________________________________________________________________________
dense_1_1_bottleneck_conv2D (Co (None, 64, 48, 48)   3072        activation_32[0][0]              
__________________________________________________________________________________________________
dense_1_1_bottleneck_bn (BatchN (None, 64, 48, 48)   256         dense_1_1_bottleneck_conv2D[0][0]
__________________________________________________________________________________________________
activation_33 (Activation)      (None, 64, 48, 48)   0           dense_1_1_bottleneck_bn[0][0]    
__________________________________________________________________________________________________
dense_1_1_conv2D (Conv2D)       (None, 16, 48, 48)   9216        activation_33[0][0]              
__________________________________________________________________________________________________
concatenate_13 (Concatenate)    (None, 64, 48, 48)   0           concatenate_12[0][0]             
                                                                 dense_1_1_conv2D[0][0]           
__________________________________________________________________________________________________
dense_1_2_bn (BatchNormalizatio (None, 64, 48, 48)   256         concatenate_13[0][0]             
__________________________________________________________________________________________________
activation_34 (Activation)      (None, 64, 48, 48)   0           dense_1_2_bn[0][0]               
__________________________________________________________________________________________________
dense_1_2_bottleneck_conv2D (Co (None, 64, 48, 48)   4096        activation_34[0][0]              
__________________________________________________________________________________________________
dense_1_2_bottleneck_bn (BatchN (None, 64, 48, 48)   256         dense_1_2_bottleneck_conv2D[0][0]
__________________________________________________________________________________________________
activation_35 (Activation)      (None, 64, 48, 48)   0           dense_1_2_bottleneck_bn[0][0]    
__________________________________________________________________________________________________
dense_1_2_conv2D (Conv2D)       (None, 16, 48, 48)   9216        activation_35[0][0]              
__________________________________________________________________________________________________
concatenate_14 (Concatenate)    (None, 80, 48, 48)   0           concatenate_13[0][0]             
                                                                 dense_1_2_conv2D[0][0]           
__________________________________________________________________________________________________
final_bn (BatchNormalization)   (None, 80, 48, 48)   320         concatenate_14[0][0]             
__________________________________________________________________________________________________
activation_36 (Activation)      (None, 80, 48, 48)   0           final_bn[0][0]                   
__________________________________________________________________________________________________
global_average_pooling2d_4 (Glo (None, 80)           0           activation_36[0][0]              
__________________________________________________________________________________________________
dense_4 (Dense)                 (None, 1)            81          global_average_pooling2d_4[0][0] 
==================================================================================================
Total params: 76,145
Trainable params: 74,609
Non-trainable params: 1,536
__________________________________________________________________________________________________
Train on 39840 samples, validate on 7440 samples
Epoch 1/30
 - 48s - loss: 0.5777 - acc: 0.7619 - val_loss: 0.5325 - val_acc: 0.8454
…
7200/7440 [============================>.] - ETA: 0s
7328/7440 [============================>.] - ETA: 0s
7440/7440 [==============================] - 4s 494us/step
Best saved model Test accuracy: 0.7971774193548387
best saved model auc_score ------------------>  0.8951674326511735
__________________________________________________________________________________________________
Layer (type)                    Output Shape         Param #     Connected to                     
==================================================================================================
input_5 (InputLayer)            (None, 2, 96, 96)    0                                            
__________________________________________________________________________________________________
initial_conv2D (Conv2D)         (None, 16, 96, 96)   288         input_5[0][0]                    
__________________________________________________________________________________________________
dense_0_0_bn (BatchNormalizatio (None, 16, 96, 96)   64          initial_conv2D[0][0]             
__________________________________________________________________________________________________
activation_37 (Activation)      (None, 16, 96, 96)   0           dense_0_0_bn[0][0]               
__________________________________________________________________________________________________
dense_0_0_bottleneck_conv2D (Co (None, 48, 96, 96)   768         activation_37[0][0]              
__________________________________________________________________________________________________
dense_0_0_bottleneck_bn (BatchN (None, 48, 96, 96)   192         dense_0_0_bottleneck_conv2D[0][0]
__________________________________________________________________________________________________
activation_38 (Activation)      (None, 48, 96, 96)   0           dense_0_0_bottleneck_bn[0][0]    
__________________________________________________________________________________________________
dense_0_0_conv2D (Conv2D)       (None, 12, 96, 96)   5184        activation_38[0][0]              
__________________________________________________________________________________________________
concatenate_15 (Concatenate)    (None, 28, 96, 96)   0           initial_conv2D[0][0]             
                                                                 dense_0_0_conv2D[0][0]           
__________________________________________________________________________________________________
dense_0_1_bn (BatchNormalizatio (None, 28, 96, 96)   112         concatenate_15[0][0]             
__________________________________________________________________________________________________
activation_39 (Activation)      (None, 28, 96, 96)   0           dense_0_1_bn[0][0]               
__________________________________________________________________________________________________
dense_0_1_bottleneck_conv2D (Co (None, 48, 96, 96)   1344        activation_39[0][0]              
__________________________________________________________________________________________________
dense_0_1_bottleneck_bn (BatchN (None, 48, 96, 96)   192         dense_0_1_bottleneck_conv2D[0][0]
__________________________________________________________________________________________________
activation_40 (Activation)      (None, 48, 96, 96)   0           dense_0_1_bottleneck_bn[0][0]    
__________________________________________________________________________________________________
dense_0_1_conv2D (Conv2D)       (None, 12, 96, 96)   5184        activation_40[0][0]              
__________________________________________________________________________________________________
concatenate_16 (Concatenate)    (None, 40, 96, 96)   0           concatenate_15[0][0]             
                                                                 dense_0_1_conv2D[0][0]           
__________________________________________________________________________________________________
dense_0_2_bn (BatchNormalizatio (None, 40, 96, 96)   160         concatenate_16[0][0]             
__________________________________________________________________________________________________
activation_41 (Activation)      (None, 40, 96, 96)   0           dense_0_2_bn[0][0]               
__________________________________________________________________________________________________
dense_0_2_bottleneck_conv2D (Co (None, 48, 96, 96)   1920        activation_41[0][0]              
__________________________________________________________________________________________________
dense_0_2_bottleneck_bn (BatchN (None, 48, 96, 96)   192         dense_0_2_bottleneck_conv2D[0][0]
__________________________________________________________________________________________________
activation_42 (Activation)      (None, 48, 96, 96)   0           dense_0_2_bottleneck_bn[0][0]    
__________________________________________________________________________________________________
dense_0_2_conv2D (Conv2D)       (None, 12, 96, 96)   5184        activation_42[0][0]              
__________________________________________________________________________________________________
concatenate_17 (Concatenate)    (None, 52, 96, 96)   0           concatenate_16[0][0]             
                                                                 dense_0_2_conv2D[0][0]           
__________________________________________________________________________________________________
final_bn (BatchNormalization)   (None, 52, 96, 96)   208         concatenate_17[0][0]             
__________________________________________________________________________________________________
activation_43 (Activation)      (None, 52, 96, 96)   0           final_bn[0][0]                   
__________________________________________________________________________________________________
global_average_pooling2d_5 (Glo (None, 52)           0           activation_43[0][0]              
__________________________________________________________________________________________________
dense_5 (Dense)                 (None, 1)            53          global_average_pooling2d_5[0][0] 
==================================================================================================
Total params: 21,045
Trainable params: 20,485
Non-trainable params: 560
__________________________________________________________________________________________________
Train on 39840 samples, validate on 7440 samples
Epoch 1/30
 - 32s - loss: 0.5817 - acc: 0.7406 - val_loss: 0.5243 - val_acc: 0.8371
…
7136/7440 [===========================>..] - ETA: 0s
7328/7440 [============================>.] - ETA: 0s
7440/7440 [==============================] - 3s 385us/step
Best saved model Test accuracy: 0.8530913978494624
best saved model auc_score ------------------>  0.9266702436697885
__________________________________________________________________________________________________
Layer (type)                    Output Shape         Param #     Connected to                     
==================================================================================================
input_6 (InputLayer)            (None, 2, 96, 96)    0                                            
__________________________________________________________________________________________________
initial_conv2D (Conv2D)         (None, 16, 96, 96)   288         input_6[0][0]                    
__________________________________________________________________________________________________
dense_0_0_bn (BatchNormalizatio (None, 16, 96, 96)   64          initial_conv2D[0][0]             
__________________________________________________________________________________________________
activation_44 (Activation)      (None, 16, 96, 96)   0           dense_0_0_bn[0][0]               
__________________________________________________________________________________________________
dense_0_0_bottleneck_conv2D (Co (None, 40, 96, 96)   640         activation_44[0][0]              
__________________________________________________________________________________________________
dense_0_0_bottleneck_bn (BatchN (None, 40, 96, 96)   160         dense_0_0_bottleneck_conv2D[0][0]
__________________________________________________________________________________________________
activation_45 (Activation)      (None, 40, 96, 96)   0           dense_0_0_bottleneck_bn[0][0]    
__________________________________________________________________________________________________
dense_0_0_conv2D (Conv2D)       (None, 10, 96, 96)   3600        activation_45[0][0]              
__________________________________________________________________________________________________
concatenate_18 (Concatenate)    (None, 26, 96, 96)   0           initial_conv2D[0][0]             
                                                                 dense_0_0_conv2D[0][0]           
__________________________________________________________________________________________________
dense_0_1_bn (BatchNormalizatio (None, 26, 96, 96)   104         concatenate_18[0][0]             
__________________________________________________________________________________________________
activation_46 (Activation)      (None, 26, 96, 96)   0           dense_0_1_bn[0][0]               
__________________________________________________________________________________________________
dense_0_1_bottleneck_conv2D (Co (None, 40, 96, 96)   1040        activation_46[0][0]              
__________________________________________________________________________________________________
dense_0_1_bottleneck_bn (BatchN (None, 40, 96, 96)   160         dense_0_1_bottleneck_conv2D[0][0]
__________________________________________________________________________________________________
activation_47 (Activation)      (None, 40, 96, 96)   0           dense_0_1_bottleneck_bn[0][0]    
__________________________________________________________________________________________________
dense_0_1_conv2D (Conv2D)       (None, 10, 96, 96)   3600        activation_47[0][0]              
__________________________________________________________________________________________________
concatenate_19 (Concatenate)    (None, 36, 96, 96)   0           concatenate_18[0][0]             
                                                                 dense_0_1_conv2D[0][0]           
__________________________________________________________________________________________________
dense_0_2_bn (BatchNormalizatio (None, 36, 96, 96)   144         concatenate_19[0][0]             
__________________________________________________________________________________________________
activation_48 (Activation)      (None, 36, 96, 96)   0           dense_0_2_bn[0][0]               
__________________________________________________________________________________________________
dense_0_2_bottleneck_conv2D (Co (None, 40, 96, 96)   1440        activation_48[0][0]              
__________________________________________________________________________________________________
dense_0_2_bottleneck_bn (BatchN (None, 40, 96, 96)   160         dense_0_2_bottleneck_conv2D[0][0]
__________________________________________________________________________________________________
activation_49 (Activation)      (None, 40, 96, 96)   0           dense_0_2_bottleneck_bn[0][0]    
__________________________________________________________________________________________________
dense_0_2_conv2D (Conv2D)       (None, 10, 96, 96)   3600        activation_49[0][0]              
__________________________________________________________________________________________________
concatenate_20 (Concatenate)    (None, 46, 96, 96)   0           concatenate_19[0][0]             
                                                                 dense_0_2_conv2D[0][0]           
__________________________________________________________________________________________________
tr_0_bn (BatchNormalization)    (None, 46, 96, 96)   184         concatenate_20[0][0]             
__________________________________________________________________________________________________
activation_50 (Activation)      (None, 46, 96, 96)   0           tr_0_bn[0][0]                    
__________________________________________________________________________________________________
tr_0_conv2D (Conv2D)            (None, 23, 96, 96)   1058        activation_50[0][0]              
__________________________________________________________________________________________________
average_pooling2d_5 (AveragePoo (None, 23, 48, 48)   0           tr_0_conv2D[0][0]                
__________________________________________________________________________________________________
dense_1_0_bn (BatchNormalizatio (None, 23, 48, 48)   92          average_pooling2d_5[0][0]        
__________________________________________________________________________________________________
activation_51 (Activation)      (None, 23, 48, 48)   0           dense_1_0_bn[0][0]               
__________________________________________________________________________________________________
dense_1_0_bottleneck_conv2D (Co (None, 40, 48, 48)   920         activation_51[0][0]              
__________________________________________________________________________________________________
dense_1_0_bottleneck_bn (BatchN (None, 40, 48, 48)   160         dense_1_0_bottleneck_conv2D[0][0]
__________________________________________________________________________________________________
activation_52 (Activation)      (None, 40, 48, 48)   0           dense_1_0_bottleneck_bn[0][0]    
__________________________________________________________________________________________________
dense_1_0_conv2D (Conv2D)       (None, 10, 48, 48)   3600        activation_52[0][0]              
__________________________________________________________________________________________________
concatenate_21 (Concatenate)    (None, 33, 48, 48)   0           average_pooling2d_5[0][0]        
                                                                 dense_1_0_conv2D[0][0]           
__________________________________________________________________________________________________
dense_1_1_bn (BatchNormalizatio (None, 33, 48, 48)   132         concatenate_21[0][0]             
__________________________________________________________________________________________________
activation_53 (Activation)      (None, 33, 48, 48)   0           dense_1_1_bn[0][0]               
__________________________________________________________________________________________________
dense_1_1_bottleneck_conv2D (Co (None, 40, 48, 48)   1320        activation_53[0][0]              
__________________________________________________________________________________________________
dense_1_1_bottleneck_bn (BatchN (None, 40, 48, 48)   160         dense_1_1_bottleneck_conv2D[0][0]
__________________________________________________________________________________________________
activation_54 (Activation)      (None, 40, 48, 48)   0           dense_1_1_bottleneck_bn[0][0]    
__________________________________________________________________________________________________
dense_1_1_conv2D (Conv2D)       (None, 10, 48, 48)   3600        activation_54[0][0]              
__________________________________________________________________________________________________
concatenate_22 (Concatenate)    (None, 43, 48, 48)   0           concatenate_21[0][0]             
                                                                 dense_1_1_conv2D[0][0]           
__________________________________________________________________________________________________
dense_1_2_bn (BatchNormalizatio (None, 43, 48, 48)   172         concatenate_22[0][0]             
__________________________________________________________________________________________________
activation_55 (Activation)      (None, 43, 48, 48)   0           dense_1_2_bn[0][0]               
__________________________________________________________________________________________________
dense_1_2_bottleneck_conv2D (Co (None, 40, 48, 48)   1720        activation_55[0][0]              
__________________________________________________________________________________________________
dense_1_2_bottleneck_bn (BatchN (None, 40, 48, 48)   160         dense_1_2_bottleneck_conv2D[0][0]
__________________________________________________________________________________________________
activation_56 (Activation)      (None, 40, 48, 48)   0           dense_1_2_bottleneck_bn[0][0]    
__________________________________________________________________________________________________
dense_1_2_conv2D (Conv2D)       (None, 10, 48, 48)   3600        activation_56[0][0]              
__________________________________________________________________________________________________
concatenate_23 (Concatenate)    (None, 53, 48, 48)   0           concatenate_22[0][0]             
                                                                 dense_1_2_conv2D[0][0]           
__________________________________________________________________________________________________
tr_1_bn (BatchNormalization)    (None, 53, 48, 48)   212         concatenate_23[0][0]             
__________________________________________________________________________________________________
activation_57 (Activation)      (None, 53, 48, 48)   0           tr_1_bn[0][0]                    
__________________________________________________________________________________________________
tr_1_conv2D (Conv2D)            (None, 26, 48, 48)   1378        activation_57[0][0]              
__________________________________________________________________________________________________
average_pooling2d_6 (AveragePoo (None, 26, 24, 24)   0           tr_1_conv2D[0][0]                
__________________________________________________________________________________________________
dense_2_0_bn (BatchNormalizatio (None, 26, 24, 24)   104         average_pooling2d_6[0][0]        
__________________________________________________________________________________________________
activation_58 (Activation)      (None, 26, 24, 24)   0           dense_2_0_bn[0][0]               
__________________________________________________________________________________________________
dense_2_0_bottleneck_conv2D (Co (None, 40, 24, 24)   1040        activation_58[0][0]              
__________________________________________________________________________________________________
dense_2_0_bottleneck_bn (BatchN (None, 40, 24, 24)   160         dense_2_0_bottleneck_conv2D[0][0]
__________________________________________________________________________________________________
activation_59 (Activation)      (None, 40, 24, 24)   0           dense_2_0_bottleneck_bn[0][0]    
__________________________________________________________________________________________________
dense_2_0_conv2D (Conv2D)       (None, 10, 24, 24)   3600        activation_59[0][0]              
__________________________________________________________________________________________________
concatenate_24 (Concatenate)    (None, 36, 24, 24)   0           average_pooling2d_6[0][0]        
                                                                 dense_2_0_conv2D[0][0]           
__________________________________________________________________________________________________
dense_2_1_bn (BatchNormalizatio (None, 36, 24, 24)   144         concatenate_24[0][0]             
__________________________________________________________________________________________________
activation_60 (Activation)      (None, 36, 24, 24)   0           dense_2_1_bn[0][0]               
__________________________________________________________________________________________________
dense_2_1_bottleneck_conv2D (Co (None, 40, 24, 24)   1440        activation_60[0][0]              
__________________________________________________________________________________________________
dense_2_1_bottleneck_bn (BatchN (None, 40, 24, 24)   160         dense_2_1_bottleneck_conv2D[0][0]
__________________________________________________________________________________________________
activation_61 (Activation)      (None, 40, 24, 24)   0           dense_2_1_bottleneck_bn[0][0]    
__________________________________________________________________________________________________
dense_2_1_conv2D (Conv2D)       (None, 10, 24, 24)   3600        activation_61[0][0]              
__________________________________________________________________________________________________
concatenate_25 (Concatenate)    (None, 46, 24, 24)   0           concatenate_24[0][0]             
                                                                 dense_2_1_conv2D[0][0]           
__________________________________________________________________________________________________
dense_2_2_bn (BatchNormalizatio (None, 46, 24, 24)   184         concatenate_25[0][0]             
__________________________________________________________________________________________________
activation_62 (Activation)      (None, 46, 24, 24)   0           dense_2_2_bn[0][0]               
__________________________________________________________________________________________________
dense_2_2_bottleneck_conv2D (Co (None, 40, 24, 24)   1840        activation_62[0][0]              
__________________________________________________________________________________________________
dense_2_2_bottleneck_bn (BatchN (None, 40, 24, 24)   160         dense_2_2_bottleneck_conv2D[0][0]
__________________________________________________________________________________________________
activation_63 (Activation)      (None, 40, 24, 24)   0           dense_2_2_bottleneck_bn[0][0]    
__________________________________________________________________________________________________
dense_2_2_conv2D (Conv2D)       (None, 10, 24, 24)   3600        activation_63[0][0]              
__________________________________________________________________________________________________
concatenate_26 (Concatenate)    (None, 56, 24, 24)   0           concatenate_25[0][0]             
                                                                 dense_2_2_conv2D[0][0]           
__________________________________________________________________________________________________
final_bn (BatchNormalization)   (None, 56, 24, 24)   224         concatenate_26[0][0]             
__________________________________________________________________________________________________
activation_64 (Activation)      (None, 56, 24, 24)   0           final_bn[0][0]                   
__________________________________________________________________________________________________
global_average_pooling2d_6 (Glo (None, 56)           0           activation_64[0][0]              
__________________________________________________________________________________________________
dense_6 (Dense)                 (None, 1)            57          global_average_pooling2d_6[0][0] 
==================================================================================================
Total params: 49,781
Trainable params: 48,181
Non-trainable params: 1,600
__________________________________________________________________________________________________
Train on 39840 samples, validate on 7440 samples
Epoch 1/30
 - 42s - loss: 0.5617 - acc: 0.7701 - val_loss: 0.6273 - val_acc: 0.7234
…
7200/7440 [============================>.] - ETA: 0s
7360/7440 [============================>.] - ETA: 0s
7440/7440 [==============================] - 4s 522us/step
Best saved model Test accuracy: 0.819758064516129
best saved model auc_score ------------------>  0.9096786478205574
__________________________________________________________________________________________________
Layer (type)                    Output Shape         Param #     Connected to                     
==================================================================================================
input_7 (InputLayer)            (None, 2, 96, 96)    0                                            
__________________________________________________________________________________________________
initial_conv2D (Conv2D)         (None, 16, 96, 96)   288         input_7[0][0]                    
__________________________________________________________________________________________________
dense_0_0_bn (BatchNormalizatio (None, 16, 96, 96)   64          initial_conv2D[0][0]             
__________________________________________________________________________________________________
activation_65 (Activation)      (None, 16, 96, 96)   0           dense_0_0_bn[0][0]               
__________________________________________________________________________________________________
dense_0_0_bottleneck_conv2D (Co (None, 24, 96, 96)   384         activation_65[0][0]              
__________________________________________________________________________________________________
dense_0_0_bottleneck_bn (BatchN (None, 24, 96, 96)   96          dense_0_0_bottleneck_conv2D[0][0]
__________________________________________________________________________________________________
activation_66 (Activation)      (None, 24, 96, 96)   0           dense_0_0_bottleneck_bn[0][0]    
__________________________________________________________________________________________________
dense_0_0_conv2D (Conv2D)       (None, 6, 96, 96)    1296        activation_66[0][0]              
__________________________________________________________________________________________________
concatenate_27 (Concatenate)    (None, 22, 96, 96)   0           initial_conv2D[0][0]             
                                                                 dense_0_0_conv2D[0][0]           
__________________________________________________________________________________________________
dense_0_1_bn (BatchNormalizatio (None, 22, 96, 96)   88          concatenate_27[0][0]             
__________________________________________________________________________________________________
activation_67 (Activation)      (None, 22, 96, 96)   0           dense_0_1_bn[0][0]               
__________________________________________________________________________________________________
dense_0_1_bottleneck_conv2D (Co (None, 24, 96, 96)   528         activation_67[0][0]              
__________________________________________________________________________________________________
dense_0_1_bottleneck_bn (BatchN (None, 24, 96, 96)   96          dense_0_1_bottleneck_conv2D[0][0]
__________________________________________________________________________________________________
activation_68 (Activation)      (None, 24, 96, 96)   0           dense_0_1_bottleneck_bn[0][0]    
__________________________________________________________________________________________________
dense_0_1_conv2D (Conv2D)       (None, 6, 96, 96)    1296        activation_68[0][0]              
__________________________________________________________________________________________________
concatenate_28 (Concatenate)    (None, 28, 96, 96)   0           concatenate_27[0][0]             
                                                                 dense_0_1_conv2D[0][0]           
__________________________________________________________________________________________________
dense_0_2_bn (BatchNormalizatio (None, 28, 96, 96)   112         concatenate_28[0][0]             
__________________________________________________________________________________________________
activation_69 (Activation)      (None, 28, 96, 96)   0           dense_0_2_bn[0][0]               
__________________________________________________________________________________________________
dense_0_2_bottleneck_conv2D (Co (None, 24, 96, 96)   672         activation_69[0][0]              
__________________________________________________________________________________________________
dense_0_2_bottleneck_bn (BatchN (None, 24, 96, 96)   96          dense_0_2_bottleneck_conv2D[0][0]
__________________________________________________________________________________________________
activation_70 (Activation)      (None, 24, 96, 96)   0           dense_0_2_bottleneck_bn[0][0]    
__________________________________________________________________________________________________
dense_0_2_conv2D (Conv2D)       (None, 6, 96, 96)    1296        activation_70[0][0]              
__________________________________________________________________________________________________
concatenate_29 (Concatenate)    (None, 34, 96, 96)   0           concatenate_28[0][0]             
                                                                 dense_0_2_conv2D[0][0]           
__________________________________________________________________________________________________
final_bn (BatchNormalization)   (None, 34, 96, 96)   136         concatenate_29[0][0]             
__________________________________________________________________________________________________
activation_71 (Activation)      (None, 34, 96, 96)   0           final_bn[0][0]                   
__________________________________________________________________________________________________
global_average_pooling2d_7 (Glo (None, 34)           0           activation_71[0][0]              
__________________________________________________________________________________________________
dense_7 (Dense)                 (None, 1)            35          global_average_pooling2d_7[0][0] 
==================================================================================================
Total params: 6,483
Trainable params: 6,139
Non-trainable params: 344
__________________________________________________________________________________________________
Train on 39840 samples, validate on 7440 samples
Epoch 1/30
 - 25s - loss: 0.6297 - acc: 0.6845 - val_loss: 0.5413 - val_acc: 0.7606
…
7008/7440 [===========================>..] - ETA: 0s
7264/7440 [============================>.] - ETA: 0s
7440/7440 [==============================] - 3s 391us/step
Best saved model Test accuracy: 0.8314516129032258
best saved model auc_score ------------------>  0.9067802636142906
__________________________________________________________________________________________________
Layer (type)                    Output Shape         Param #     Connected to                     
==================================================================================================
input_8 (InputLayer)            (None, 2, 96, 96)    0                                            
__________________________________________________________________________________________________
initial_conv2D (Conv2D)         (None, 16, 96, 96)   288         input_8[0][0]                    
__________________________________________________________________________________________________
dense_0_0_bn (BatchNormalizatio (None, 16, 96, 96)   64          initial_conv2D[0][0]             
__________________________________________________________________________________________________
activation_72 (Activation)      (None, 16, 96, 96)   0           dense_0_0_bn[0][0]               
__________________________________________________________________________________________________
dense_0_0_bottleneck_conv2D (Co (None, 64, 96, 96)   1024        activation_72[0][0]              
__________________________________________________________________________________________________
dense_0_0_bottleneck_bn (BatchN (None, 64, 96, 96)   256         dense_0_0_bottleneck_conv2D[0][0]
__________________________________________________________________________________________________
activation_73 (Activation)      (None, 64, 96, 96)   0           dense_0_0_bottleneck_bn[0][0]    
__________________________________________________________________________________________________
dense_0_0_conv2D (Conv2D)       (None, 16, 96, 96)   9216        activation_73[0][0]              
__________________________________________________________________________________________________
concatenate_30 (Concatenate)    (None, 32, 96, 96)   0           initial_conv2D[0][0]             
                                                                 dense_0_0_conv2D[0][0]           
__________________________________________________________________________________________________
dense_0_1_bn (BatchNormalizatio (None, 32, 96, 96)   128         concatenate_30[0][0]             
__________________________________________________________________________________________________
activation_74 (Activation)      (None, 32, 96, 96)   0           dense_0_1_bn[0][0]               
__________________________________________________________________________________________________
dense_0_1_bottleneck_conv2D (Co (None, 64, 96, 96)   2048        activation_74[0][0]              
__________________________________________________________________________________________________
dense_0_1_bottleneck_bn (BatchN (None, 64, 96, 96)   256         dense_0_1_bottleneck_conv2D[0][0]
__________________________________________________________________________________________________
activation_75 (Activation)      (None, 64, 96, 96)   0           dense_0_1_bottleneck_bn[0][0]    
__________________________________________________________________________________________________
dense_0_1_conv2D (Conv2D)       (None, 16, 96, 96)   9216        activation_75[0][0]              
__________________________________________________________________________________________________
concatenate_31 (Concatenate)    (None, 48, 96, 96)   0           concatenate_30[0][0]             
                                                                 dense_0_1_conv2D[0][0]           
__________________________________________________________________________________________________
tr_0_bn (BatchNormalization)    (None, 48, 96, 96)   192         concatenate_31[0][0]             
__________________________________________________________________________________________________
activation_76 (Activation)      (None, 48, 96, 96)   0           tr_0_bn[0][0]                    
__________________________________________________________________________________________________
tr_0_conv2D (Conv2D)            (None, 24, 96, 96)   1152        activation_76[0][0]              
__________________________________________________________________________________________________
average_pooling2d_7 (AveragePoo (None, 24, 48, 48)   0           tr_0_conv2D[0][0]                
__________________________________________________________________________________________________
dense_1_0_bn (BatchNormalizatio (None, 24, 48, 48)   96          average_pooling2d_7[0][0]        
__________________________________________________________________________________________________
activation_77 (Activation)      (None, 24, 48, 48)   0           dense_1_0_bn[0][0]               
__________________________________________________________________________________________________
dense_1_0_bottleneck_conv2D (Co (None, 64, 48, 48)   1536        activation_77[0][0]              
__________________________________________________________________________________________________
dense_1_0_bottleneck_bn (BatchN (None, 64, 48, 48)   256         dense_1_0_bottleneck_conv2D[0][0]
__________________________________________________________________________________________________
activation_78 (Activation)      (None, 64, 48, 48)   0           dense_1_0_bottleneck_bn[0][0]    
__________________________________________________________________________________________________
dense_1_0_conv2D (Conv2D)       (None, 16, 48, 48)   9216        activation_78[0][0]              
__________________________________________________________________________________________________
concatenate_32 (Concatenate)    (None, 40, 48, 48)   0           average_pooling2d_7[0][0]        
                                                                 dense_1_0_conv2D[0][0]           
__________________________________________________________________________________________________
dense_1_1_bn (BatchNormalizatio (None, 40, 48, 48)   160         concatenate_32[0][0]             
__________________________________________________________________________________________________
activation_79 (Activation)      (None, 40, 48, 48)   0           dense_1_1_bn[0][0]               
__________________________________________________________________________________________________
dense_1_1_bottleneck_conv2D (Co (None, 64, 48, 48)   2560        activation_79[0][0]              
__________________________________________________________________________________________________
dense_1_1_bottleneck_bn (BatchN (None, 64, 48, 48)   256         dense_1_1_bottleneck_conv2D[0][0]
__________________________________________________________________________________________________
activation_80 (Activation)      (None, 64, 48, 48)   0           dense_1_1_bottleneck_bn[0][0]    
__________________________________________________________________________________________________
dense_1_1_conv2D (Conv2D)       (None, 16, 48, 48)   9216        activation_80[0][0]              
__________________________________________________________________________________________________
concatenate_33 (Concatenate)    (None, 56, 48, 48)   0           concatenate_32[0][0]             
                                                                 dense_1_1_conv2D[0][0]           
__________________________________________________________________________________________________
tr_1_bn (BatchNormalization)    (None, 56, 48, 48)   224         concatenate_33[0][0]             
__________________________________________________________________________________________________
activation_81 (Activation)      (None, 56, 48, 48)   0           tr_1_bn[0][0]                    
__________________________________________________________________________________________________
tr_1_conv2D (Conv2D)            (None, 28, 48, 48)   1568        activation_81[0][0]              
__________________________________________________________________________________________________
average_pooling2d_8 (AveragePoo (None, 28, 24, 24)   0           tr_1_conv2D[0][0]                
__________________________________________________________________________________________________
dense_2_0_bn (BatchNormalizatio (None, 28, 24, 24)   112         average_pooling2d_8[0][0]        
__________________________________________________________________________________________________
activation_82 (Activation)      (None, 28, 24, 24)   0           dense_2_0_bn[0][0]               
__________________________________________________________________________________________________
dense_2_0_bottleneck_conv2D (Co (None, 64, 24, 24)   1792        activation_82[0][0]              
__________________________________________________________________________________________________
dense_2_0_bottleneck_bn (BatchN (None, 64, 24, 24)   256         dense_2_0_bottleneck_conv2D[0][0]
__________________________________________________________________________________________________
activation_83 (Activation)      (None, 64, 24, 24)   0           dense_2_0_bottleneck_bn[0][0]    
__________________________________________________________________________________________________
dense_2_0_conv2D (Conv2D)       (None, 16, 24, 24)   9216        activation_83[0][0]              
__________________________________________________________________________________________________
concatenate_34 (Concatenate)    (None, 44, 24, 24)   0           average_pooling2d_8[0][0]        
                                                                 dense_2_0_conv2D[0][0]           
__________________________________________________________________________________________________
dense_2_1_bn (BatchNormalizatio (None, 44, 24, 24)   176         concatenate_34[0][0]             
__________________________________________________________________________________________________
activation_84 (Activation)      (None, 44, 24, 24)   0           dense_2_1_bn[0][0]               
__________________________________________________________________________________________________
dense_2_1_bottleneck_conv2D (Co (None, 64, 24, 24)   2816        activation_84[0][0]              
__________________________________________________________________________________________________
dense_2_1_bottleneck_bn (BatchN (None, 64, 24, 24)   256         dense_2_1_bottleneck_conv2D[0][0]
__________________________________________________________________________________________________
activation_85 (Activation)      (None, 64, 24, 24)   0           dense_2_1_bottleneck_bn[0][0]    
__________________________________________________________________________________________________
dense_2_1_conv2D (Conv2D)       (None, 16, 24, 24)   9216        activation_85[0][0]              
__________________________________________________________________________________________________
concatenate_35 (Concatenate)    (None, 60, 24, 24)   0           concatenate_34[0][0]             
                                                                 dense_2_1_conv2D[0][0]           
__________________________________________________________________________________________________
final_bn (BatchNormalization)   (None, 60, 24, 24)   240         concatenate_35[0][0]             
__________________________________________________________________________________________________
activation_86 (Activation)      (None, 60, 24, 24)   0           final_bn[0][0]                   
__________________________________________________________________________________________________
global_average_pooling2d_8 (Glo (None, 60)           0           activation_86[0][0]              
__________________________________________________________________________________________________
dense_8 (Dense)                 (None, 1)            61          global_average_pooling2d_8[0][0] 
==================================================================================================
Total params: 73,069
Trainable params: 71,605
Non-trainable params: 1,464
__________________________________________________________________________________________________
Train on 39840 samples, validate on 7440 samples
Epoch 1/30
 - 38s - loss: 0.5525 - acc: 0.7784 - val_loss: 0.5971 - val_acc: 0.7792
…
7232/7440 [============================>.] - ETA: 0s
7392/7440 [============================>.] - ETA: 0s
7440/7440 [==============================] - 4s 549us/step
Best saved model Test accuracy: 0.801747311827957
best saved model auc_score ------------------>  0.8927562073650134
__________________________________________________________________________________________________
Layer (type)                    Output Shape         Param #     Connected to                     
==================================================================================================
input_9 (InputLayer)            (None, 2, 96, 96)    0                                            
__________________________________________________________________________________________________
initial_conv2D (Conv2D)         (None, 16, 96, 96)   288         input_9[0][0]                    
__________________________________________________________________________________________________
dense_0_0_bn (BatchNormalizatio (None, 16, 96, 96)   64          initial_conv2D[0][0]             
__________________________________________________________________________________________________
activation_87 (Activation)      (None, 16, 96, 96)   0           dense_0_0_bn[0][0]               
__________________________________________________________________________________________________
dense_0_0_bottleneck_conv2D (Co (None, 40, 96, 96)   640         activation_87[0][0]              
__________________________________________________________________________________________________
dense_0_0_bottleneck_bn (BatchN (None, 40, 96, 96)   160         dense_0_0_bottleneck_conv2D[0][0]
__________________________________________________________________________________________________
activation_88 (Activation)      (None, 40, 96, 96)   0           dense_0_0_bottleneck_bn[0][0]    
__________________________________________________________________________________________________
dense_0_0_conv2D (Conv2D)       (None, 10, 96, 96)   3600        activation_88[0][0]              
__________________________________________________________________________________________________
concatenate_36 (Concatenate)    (None, 26, 96, 96)   0           initial_conv2D[0][0]             
                                                                 dense_0_0_conv2D[0][0]           
__________________________________________________________________________________________________
dense_0_1_bn (BatchNormalizatio (None, 26, 96, 96)   104         concatenate_36[0][0]             
__________________________________________________________________________________________________
activation_89 (Activation)      (None, 26, 96, 96)   0           dense_0_1_bn[0][0]               
__________________________________________________________________________________________________
dense_0_1_bottleneck_conv2D (Co (None, 40, 96, 96)   1040        activation_89[0][0]              
__________________________________________________________________________________________________
dense_0_1_bottleneck_bn (BatchN (None, 40, 96, 96)   160         dense_0_1_bottleneck_conv2D[0][0]
__________________________________________________________________________________________________
activation_90 (Activation)      (None, 40, 96, 96)   0           dense_0_1_bottleneck_bn[0][0]    
__________________________________________________________________________________________________
dense_0_1_conv2D (Conv2D)       (None, 10, 96, 96)   3600        activation_90[0][0]              
__________________________________________________________________________________________________
concatenate_37 (Concatenate)    (None, 36, 96, 96)   0           concatenate_36[0][0]             
                                                                 dense_0_1_conv2D[0][0]           
__________________________________________________________________________________________________
dense_0_2_bn (BatchNormalizatio (None, 36, 96, 96)   144         concatenate_37[0][0]             
__________________________________________________________________________________________________
activation_91 (Activation)      (None, 36, 96, 96)   0           dense_0_2_bn[0][0]               
__________________________________________________________________________________________________
dense_0_2_bottleneck_conv2D (Co (None, 40, 96, 96)   1440        activation_91[0][0]              
__________________________________________________________________________________________________
dense_0_2_bottleneck_bn (BatchN (None, 40, 96, 96)   160         dense_0_2_bottleneck_conv2D[0][0]
__________________________________________________________________________________________________
activation_92 (Activation)      (None, 40, 96, 96)   0           dense_0_2_bottleneck_bn[0][0]    
__________________________________________________________________________________________________
dense_0_2_conv2D (Conv2D)       (None, 10, 96, 96)   3600        activation_92[0][0]              
__________________________________________________________________________________________________
concatenate_38 (Concatenate)    (None, 46, 96, 96)   0           concatenate_37[0][0]             
                                                                 dense_0_2_conv2D[0][0]           
__________________________________________________________________________________________________
final_bn (BatchNormalization)   (None, 46, 96, 96)   184         concatenate_38[0][0]             
__________________________________________________________________________________________________
activation_93 (Activation)      (None, 46, 96, 96)   0           final_bn[0][0]                   
__________________________________________________________________________________________________
global_average_pooling2d_9 (Glo (None, 46)           0           activation_93[0][0]              
__________________________________________________________________________________________________
dense_9 (Dense)                 (None, 1)            47          global_average_pooling2d_9[0][0] 
==================================================================================================
Total params: 15,231
Trainable params: 14,743
Non-trainable params: 488
__________________________________________________________________________________________________
Train on 39840 samples, validate on 7440 samples
Epoch 1/30
 - 32s - loss: 0.5896 - acc: 0.7320 - val_loss: 0.6041 - val_acc: 0.7569
…
7104/7440 [===========================>..] - ETA: 0s
7296/7440 [============================>.] - ETA: 0s
7440/7440 [==============================] - 4s 523us/step
Best saved model Test accuracy: 0.8116935483870967
best saved model auc_score ------------------>  0.911146953405018
__________________________________________________________________________________________________
Layer (type)                    Output Shape         Param #     Connected to                     
==================================================================================================
input_10 (InputLayer)           (None, 2, 96, 96)    0                                            
__________________________________________________________________________________________________
initial_conv2D (Conv2D)         (None, 16, 96, 96)   288         input_10[0][0]                   
__________________________________________________________________________________________________
dense_0_0_bn (BatchNormalizatio (None, 16, 96, 96)   64          initial_conv2D[0][0]             
__________________________________________________________________________________________________
activation_94 (Activation)      (None, 16, 96, 96)   0           dense_0_0_bn[0][0]               
__________________________________________________________________________________________________
dense_0_0_bottleneck_conv2D (Co (None, 24, 96, 96)   384         activation_94[0][0]              
__________________________________________________________________________________________________
dense_0_0_bottleneck_bn (BatchN (None, 24, 96, 96)   96          dense_0_0_bottleneck_conv2D[0][0]
__________________________________________________________________________________________________
activation_95 (Activation)      (None, 24, 96, 96)   0           dense_0_0_bottleneck_bn[0][0]    
__________________________________________________________________________________________________
dense_0_0_conv2D (Conv2D)       (None, 6, 96, 96)    1296        activation_95[0][0]              
__________________________________________________________________________________________________
concatenate_39 (Concatenate)    (None, 22, 96, 96)   0           initial_conv2D[0][0]             
                                                                 dense_0_0_conv2D[0][0]           
__________________________________________________________________________________________________
dense_0_1_bn (BatchNormalizatio (None, 22, 96, 96)   88          concatenate_39[0][0]             
__________________________________________________________________________________________________
activation_96 (Activation)      (None, 22, 96, 96)   0           dense_0_1_bn[0][0]               
__________________________________________________________________________________________________
dense_0_1_bottleneck_conv2D (Co (None, 24, 96, 96)   528         activation_96[0][0]              
__________________________________________________________________________________________________
dense_0_1_bottleneck_bn (BatchN (None, 24, 96, 96)   96          dense_0_1_bottleneck_conv2D[0][0]
__________________________________________________________________________________________________
activation_97 (Activation)      (None, 24, 96, 96)   0           dense_0_1_bottleneck_bn[0][0]    
__________________________________________________________________________________________________
dense_0_1_conv2D (Conv2D)       (None, 6, 96, 96)    1296        activation_97[0][0]              
__________________________________________________________________________________________________
concatenate_40 (Concatenate)    (None, 28, 96, 96)   0           concatenate_39[0][0]             
                                                                 dense_0_1_conv2D[0][0]           
__________________________________________________________________________________________________
tr_0_bn (BatchNormalization)    (None, 28, 96, 96)   112         concatenate_40[0][0]             
__________________________________________________________________________________________________
activation_98 (Activation)      (None, 28, 96, 96)   0           tr_0_bn[0][0]                    
__________________________________________________________________________________________________
tr_0_conv2D (Conv2D)            (None, 14, 96, 96)   392         activation_98[0][0]              
__________________________________________________________________________________________________
average_pooling2d_9 (AveragePoo (None, 14, 48, 48)   0           tr_0_conv2D[0][0]                
__________________________________________________________________________________________________
dense_1_0_bn (BatchNormalizatio (None, 14, 48, 48)   56          average_pooling2d_9[0][0]        
__________________________________________________________________________________________________
activation_99 (Activation)      (None, 14, 48, 48)   0           dense_1_0_bn[0][0]               
__________________________________________________________________________________________________
dense_1_0_bottleneck_conv2D (Co (None, 24, 48, 48)   336         activation_99[0][0]              
__________________________________________________________________________________________________
dense_1_0_bottleneck_bn (BatchN (None, 24, 48, 48)   96          dense_1_0_bottleneck_conv2D[0][0]
__________________________________________________________________________________________________
activation_100 (Activation)     (None, 24, 48, 48)   0           dense_1_0_bottleneck_bn[0][0]    
__________________________________________________________________________________________________
dense_1_0_conv2D (Conv2D)       (None, 6, 48, 48)    1296        activation_100[0][0]             
__________________________________________________________________________________________________
concatenate_41 (Concatenate)    (None, 20, 48, 48)   0           average_pooling2d_9[0][0]        
                                                                 dense_1_0_conv2D[0][0]           
__________________________________________________________________________________________________
dense_1_1_bn (BatchNormalizatio (None, 20, 48, 48)   80          concatenate_41[0][0]             
__________________________________________________________________________________________________
activation_101 (Activation)     (None, 20, 48, 48)   0           dense_1_1_bn[0][0]               
__________________________________________________________________________________________________
dense_1_1_bottleneck_conv2D (Co (None, 24, 48, 48)   480         activation_101[0][0]             
__________________________________________________________________________________________________
dense_1_1_bottleneck_bn (BatchN (None, 24, 48, 48)   96          dense_1_1_bottleneck_conv2D[0][0]
__________________________________________________________________________________________________
activation_102 (Activation)     (None, 24, 48, 48)   0           dense_1_1_bottleneck_bn[0][0]    
__________________________________________________________________________________________________
dense_1_1_conv2D (Conv2D)       (None, 6, 48, 48)    1296        activation_102[0][0]             
__________________________________________________________________________________________________
concatenate_42 (Concatenate)    (None, 26, 48, 48)   0           concatenate_41[0][0]             
                                                                 dense_1_1_conv2D[0][0]           
__________________________________________________________________________________________________
final_bn (BatchNormalization)   (None, 26, 48, 48)   104         concatenate_42[0][0]             
__________________________________________________________________________________________________
activation_103 (Activation)     (None, 26, 48, 48)   0           final_bn[0][0]                   
__________________________________________________________________________________________________
global_average_pooling2d_10 (Gl (None, 26)           0           activation_103[0][0]             
__________________________________________________________________________________________________
dense_10 (Dense)                (None, 1)            27          global_average_pooling2d_10[0][0]
==================================================================================================
Total params: 8,507
Trainable params: 8,063
Non-trainable params: 444
__________________________________________________________________________________________________
Train on 39840 samples, validate on 7440 samples
Epoch 1/30
 - 26s - loss: 0.5985 - acc: 0.7078 - val_loss: 0.5168 - val_acc: 0.8177
…
7200/7440 [============================>.] - ETA: 0s
7424/7440 [============================>.] - ETA: 0s
7440/7440 [==============================] - 4s 498us/step
Best saved model Test accuracy: 0.810752688172043
best saved model auc_score ------------------>  0.9042452884726557
__________________________________________________________________________________________________
Layer (type)                    Output Shape         Param #     Connected to                     
==================================================================================================
input_11 (InputLayer)           (None, 2, 96, 96)    0                                            
__________________________________________________________________________________________________
initial_conv2D (Conv2D)         (None, 16, 96, 96)   288         input_11[0][0]                   
__________________________________________________________________________________________________
dense_0_0_bn (BatchNormalizatio (None, 16, 96, 96)   64          initial_conv2D[0][0]             
__________________________________________________________________________________________________
activation_104 (Activation)     (None, 16, 96, 96)   0           dense_0_0_bn[0][0]               
__________________________________________________________________________________________________
dense_0_0_bottleneck_conv2D (Co (None, 48, 96, 96)   768         activation_104[0][0]             
__________________________________________________________________________________________________
dense_0_0_bottleneck_bn (BatchN (None, 48, 96, 96)   192         dense_0_0_bottleneck_conv2D[0][0]
__________________________________________________________________________________________________
activation_105 (Activation)     (None, 48, 96, 96)   0           dense_0_0_bottleneck_bn[0][0]    
__________________________________________________________________________________________________
dense_0_0_conv2D (Conv2D)       (None, 12, 96, 96)   5184        activation_105[0][0]             
__________________________________________________________________________________________________
concatenate_43 (Concatenate)    (None, 28, 96, 96)   0           initial_conv2D[0][0]             
                                                                 dense_0_0_conv2D[0][0]           
__________________________________________________________________________________________________
dense_0_1_bn (BatchNormalizatio (None, 28, 96, 96)   112         concatenate_43[0][0]             
__________________________________________________________________________________________________
activation_106 (Activation)     (None, 28, 96, 96)   0           dense_0_1_bn[0][0]               
__________________________________________________________________________________________________
dense_0_1_bottleneck_conv2D (Co (None, 48, 96, 96)   1344        activation_106[0][0]             
__________________________________________________________________________________________________
dense_0_1_bottleneck_bn (BatchN (None, 48, 96, 96)   192         dense_0_1_bottleneck_conv2D[0][0]
__________________________________________________________________________________________________
activation_107 (Activation)     (None, 48, 96, 96)   0           dense_0_1_bottleneck_bn[0][0]    
__________________________________________________________________________________________________
dense_0_1_conv2D (Conv2D)       (None, 12, 96, 96)   5184        activation_107[0][0]             
__________________________________________________________________________________________________
concatenate_44 (Concatenate)    (None, 40, 96, 96)   0           concatenate_43[0][0]             
                                                                 dense_0_1_conv2D[0][0]           
__________________________________________________________________________________________________
tr_0_bn (BatchNormalization)    (None, 40, 96, 96)   160         concatenate_44[0][0]             
__________________________________________________________________________________________________
activation_108 (Activation)     (None, 40, 96, 96)   0           tr_0_bn[0][0]                    
__________________________________________________________________________________________________
tr_0_conv2D (Conv2D)            (None, 20, 96, 96)   800         activation_108[0][0]             
__________________________________________________________________________________________________
average_pooling2d_10 (AveragePo (None, 20, 48, 48)   0           tr_0_conv2D[0][0]                
__________________________________________________________________________________________________
dense_1_0_bn (BatchNormalizatio (None, 20, 48, 48)   80          average_pooling2d_10[0][0]       
__________________________________________________________________________________________________
activation_109 (Activation)     (None, 20, 48, 48)   0           dense_1_0_bn[0][0]               
__________________________________________________________________________________________________
dense_1_0_bottleneck_conv2D (Co (None, 48, 48, 48)   960         activation_109[0][0]             
__________________________________________________________________________________________________
dense_1_0_bottleneck_bn (BatchN (None, 48, 48, 48)   192         dense_1_0_bottleneck_conv2D[0][0]
__________________________________________________________________________________________________
activation_110 (Activation)     (None, 48, 48, 48)   0           dense_1_0_bottleneck_bn[0][0]    
__________________________________________________________________________________________________
dense_1_0_conv2D (Conv2D)       (None, 12, 48, 48)   5184        activation_110[0][0]             
__________________________________________________________________________________________________
concatenate_45 (Concatenate)    (None, 32, 48, 48)   0           average_pooling2d_10[0][0]       
                                                                 dense_1_0_conv2D[0][0]           
__________________________________________________________________________________________________
dense_1_1_bn (BatchNormalizatio (None, 32, 48, 48)   128         concatenate_45[0][0]             
__________________________________________________________________________________________________
activation_111 (Activation)     (None, 32, 48, 48)   0           dense_1_1_bn[0][0]               
__________________________________________________________________________________________________
dense_1_1_bottleneck_conv2D (Co (None, 48, 48, 48)   1536        activation_111[0][0]             
__________________________________________________________________________________________________
dense_1_1_bottleneck_bn (BatchN (None, 48, 48, 48)   192         dense_1_1_bottleneck_conv2D[0][0]
__________________________________________________________________________________________________
activation_112 (Activation)     (None, 48, 48, 48)   0           dense_1_1_bottleneck_bn[0][0]    
__________________________________________________________________________________________________
dense_1_1_conv2D (Conv2D)       (None, 12, 48, 48)   5184        activation_112[0][0]             
__________________________________________________________________________________________________
concatenate_46 (Concatenate)    (None, 44, 48, 48)   0           concatenate_45[0][0]             
                                                                 dense_1_1_conv2D[0][0]           
__________________________________________________________________________________________________
final_bn (BatchNormalization)   (None, 44, 48, 48)   176         concatenate_46[0][0]             
__________________________________________________________________________________________________
activation_113 (Activation)     (None, 44, 48, 48)   0           final_bn[0][0]                   
__________________________________________________________________________________________________
global_average_pooling2d_11 (Gl (None, 44)           0           activation_113[0][0]             
__________________________________________________________________________________________________
dense_11 (Dense)                (None, 1)            45          global_average_pooling2d_11[0][0]
==================================================================================================
Total params: 27,965
Trainable params: 27,221
Non-trainable params: 744
__________________________________________________________________________________________________
Train on 39840 samples, validate on 7440 samples
Epoch 1/30
 - 33s - loss: 0.5539 - acc: 0.7584 - val_loss: 0.5064 - val_acc: 0.8024
…
6720/7440 [==========================>...] - ETA: 0s
6912/7440 [==========================>...] - ETA: 0s
7104/7440 [===========================>..] - ETA: 0s
7296/7440 [============================>.] - ETA: 0s
7440/7440 [==============================] - 4s 585us/step
Best saved model Test accuracy: 0.8568548387096774
best saved model auc_score ------------------>  0.9026763932246501
_________________________________________________________________
Layer (type)                 Output Shape              Param #   
=================================================================
input_12 (InputLayer)        (None, 2, 96, 96)         0         
_________________________________________________________________
initial_conv2D (Conv2D)      (None, 16, 96, 96)        288       
_________________________________________________________________
tr_0_bn (BatchNormalization) (None, 16, 96, 96)        64        
_________________________________________________________________
activation_114 (Activation)  (None, 16, 96, 96)        0         
_________________________________________________________________
tr_0_conv2D (Conv2D)         (None, 8, 96, 96)         128       
_________________________________________________________________
average_pooling2d_11 (Averag (None, 8, 48, 48)         0         
_________________________________________________________________
final_bn (BatchNormalization (None, 8, 48, 48)         32        
_________________________________________________________________
activation_115 (Activation)  (None, 8, 48, 48)         0         
_________________________________________________________________
global_average_pooling2d_12  (None, 8)                 0         
_________________________________________________________________
dense_12 (Dense)             (None, 1)                 9         
=================================================================
Total params: 521
Trainable params: 473
Non-trainable params: 48
_________________________________________________________________
Train on 39840 samples, validate on 7440 samples
Epoch 1/30
 - 12s - loss: 0.6561 - acc: 0.6264 - val_loss: 0.5817 - val_acc: 0.8052

Epoch 00001: val_loss improved from inf to 0.58169, saving model to keras_densenet_simple_wt_28Sept_1352.h5
…
6656/7440 [=========================>....] - ETA: 0s
7072/7440 [===========================>..] - ETA: 0s
7440/7440 [==============================] - 3s 418us/step
Best saved model Test accuracy: 0.8384408602150538
best saved model auc_score ------------------>  0.8729434761244074
__________________________________________________________________________________________________
Layer (type)                    Output Shape         Param #     Connected to                     
==================================================================================================
input_13 (InputLayer)           (None, 2, 96, 96)    0                                            
__________________________________________________________________________________________________
initial_conv2D (Conv2D)         (None, 16, 96, 96)   288         input_13[0][0]                   
__________________________________________________________________________________________________
dense_0_0_bn (BatchNormalizatio (None, 16, 96, 96)   64          initial_conv2D[0][0]             
__________________________________________________________________________________________________
activation_116 (Activation)     (None, 16, 96, 96)   0           dense_0_0_bn[0][0]               
__________________________________________________________________________________________________
dense_0_0_bottleneck_conv2D (Co (None, 48, 96, 96)   768         activation_116[0][0]             
__________________________________________________________________________________________________
dense_0_0_bottleneck_bn (BatchN (None, 48, 96, 96)   192         dense_0_0_bottleneck_conv2D[0][0]
__________________________________________________________________________________________________
activation_117 (Activation)     (None, 48, 96, 96)   0           dense_0_0_bottleneck_bn[0][0]    
__________________________________________________________________________________________________
dense_0_0_conv2D (Conv2D)       (None, 12, 96, 96)   5184        activation_117[0][0]             
__________________________________________________________________________________________________
concatenate_47 (Concatenate)    (None, 28, 96, 96)   0           initial_conv2D[0][0]             
                                                                 dense_0_0_conv2D[0][0]           
__________________________________________________________________________________________________
tr_0_bn (BatchNormalization)    (None, 28, 96, 96)   112         concatenate_47[0][0]             
__________________________________________________________________________________________________
activation_118 (Activation)     (None, 28, 96, 96)   0           tr_0_bn[0][0]                    
__________________________________________________________________________________________________
tr_0_conv2D (Conv2D)            (None, 14, 96, 96)   392         activation_118[0][0]             
__________________________________________________________________________________________________
average_pooling2d_12 (AveragePo (None, 14, 48, 48)   0           tr_0_conv2D[0][0]                
__________________________________________________________________________________________________
dense_1_0_bn (BatchNormalizatio (None, 14, 48, 48)   56          average_pooling2d_12[0][0]       
__________________________________________________________________________________________________
activation_119 (Activation)     (None, 14, 48, 48)   0           dense_1_0_bn[0][0]               
__________________________________________________________________________________________________
dense_1_0_bottleneck_conv2D (Co (None, 48, 48, 48)   672         activation_119[0][0]             
__________________________________________________________________________________________________
dense_1_0_bottleneck_bn (BatchN (None, 48, 48, 48)   192         dense_1_0_bottleneck_conv2D[0][0]
__________________________________________________________________________________________________
activation_120 (Activation)     (None, 48, 48, 48)   0           dense_1_0_bottleneck_bn[0][0]    
__________________________________________________________________________________________________
dense_1_0_conv2D (Conv2D)       (None, 12, 48, 48)   5184        activation_120[0][0]             
__________________________________________________________________________________________________
concatenate_48 (Concatenate)    (None, 26, 48, 48)   0           average_pooling2d_12[0][0]       
                                                                 dense_1_0_conv2D[0][0]           
__________________________________________________________________________________________________
final_bn (BatchNormalization)   (None, 26, 48, 48)   104         concatenate_48[0][0]             
__________________________________________________________________________________________________
activation_121 (Activation)     (None, 26, 48, 48)   0           final_bn[0][0]                   
__________________________________________________________________________________________________
global_average_pooling2d_13 (Gl (None, 26)           0           activation_121[0][0]             
__________________________________________________________________________________________________
dense_13 (Dense)                (None, 1)            27          global_average_pooling2d_13[0][0]
==================================================================================================
Total params: 13,235
Trainable params: 12,875
Non-trainable params: 360
__________________________________________________________________________________________________
Train on 39840 samples, validate on 7440 samples
Epoch 1/30
 - 23s - loss: 0.5803 - acc: 0.7407 - val_loss: 0.5287 - val_acc: 0.8280
…
7168/7440 [===========================>..] - ETA: 0s
7392/7440 [============================>.] - ETA: 0s
7440/7440 [==============================] - 5s 633us/step
Best saved model Test accuracy: 0.8135752688172043
best saved model auc_score ------------------>  0.8940853711411725
__________________________________________________________________________________________________
Layer (type)                    Output Shape         Param #     Connected to                     
==================================================================================================
input_15 (InputLayer)           (None, 2, 96, 96)    0                                            
__________________________________________________________________________________________________
initial_conv2D (Conv2D)         (None, 16, 96, 96)   288         input_15[0][0]                   
__________________________________________________________________________________________________
dense_0_0_bn (BatchNormalizatio (None, 16, 96, 96)   64          initial_conv2D[0][0]             
__________________________________________________________________________________________________
activation_127 (Activation)     (None, 16, 96, 96)   0           dense_0_0_bn[0][0]               
__________________________________________________________________________________________________
dense_0_0_bottleneck_conv2D (Co (None, 24, 96, 96)   384         activation_127[0][0]             
__________________________________________________________________________________________________
dense_0_0_bottleneck_bn (BatchN (None, 24, 96, 96)   96          dense_0_0_bottleneck_conv2D[0][0]
__________________________________________________________________________________________________
activation_128 (Activation)     (None, 24, 96, 96)   0           dense_0_0_bottleneck_bn[0][0]    
__________________________________________________________________________________________________
dense_0_0_conv2D (Conv2D)       (None, 6, 96, 96)    1296        activation_128[0][0]             
__________________________________________________________________________________________________
concatenate_51 (Concatenate)    (None, 22, 96, 96)   0           initial_conv2D[0][0]             
                                                                 dense_0_0_conv2D[0][0]           
__________________________________________________________________________________________________
dense_0_1_bn (BatchNormalizatio (None, 22, 96, 96)   88          concatenate_51[0][0]             
__________________________________________________________________________________________________
activation_129 (Activation)     (None, 22, 96, 96)   0           dense_0_1_bn[0][0]               
__________________________________________________________________________________________________
dense_0_1_bottleneck_conv2D (Co (None, 24, 96, 96)   528         activation_129[0][0]             
__________________________________________________________________________________________________
dense_0_1_bottleneck_bn (BatchN (None, 24, 96, 96)   96          dense_0_1_bottleneck_conv2D[0][0]
__________________________________________________________________________________________________
activation_130 (Activation)     (None, 24, 96, 96)   0           dense_0_1_bottleneck_bn[0][0]    
__________________________________________________________________________________________________
dense_0_1_conv2D (Conv2D)       (None, 6, 96, 96)    1296        activation_130[0][0]             
__________________________________________________________________________________________________
concatenate_52 (Concatenate)    (None, 28, 96, 96)   0           concatenate_51[0][0]             
                                                                 dense_0_1_conv2D[0][0]           
__________________________________________________________________________________________________
dense_0_2_bn (BatchNormalizatio (None, 28, 96, 96)   112         concatenate_52[0][0]             
__________________________________________________________________________________________________
activation_131 (Activation)     (None, 28, 96, 96)   0           dense_0_2_bn[0][0]               
__________________________________________________________________________________________________
dense_0_2_bottleneck_conv2D (Co (None, 24, 96, 96)   672         activation_131[0][0]             
__________________________________________________________________________________________________
dense_0_2_bottleneck_bn (BatchN (None, 24, 96, 96)   96          dense_0_2_bottleneck_conv2D[0][0]
__________________________________________________________________________________________________
activation_132 (Activation)     (None, 24, 96, 96)   0           dense_0_2_bottleneck_bn[0][0]    
__________________________________________________________________________________________________
dense_0_2_conv2D (Conv2D)       (None, 6, 96, 96)    1296        activation_132[0][0]             
__________________________________________________________________________________________________
concatenate_53 (Concatenate)    (None, 34, 96, 96)   0           concatenate_52[0][0]             
                                                                 dense_0_2_conv2D[0][0]           
__________________________________________________________________________________________________
tr_0_bn (BatchNormalization)    (None, 34, 96, 96)   136         concatenate_53[0][0]             
__________________________________________________________________________________________________
activation_133 (Activation)     (None, 34, 96, 96)   0           tr_0_bn[0][0]                    
__________________________________________________________________________________________________
tr_0_conv2D (Conv2D)            (None, 17, 96, 96)   578         activation_133[0][0]             
__________________________________________________________________________________________________
average_pooling2d_13 (AveragePo (None, 17, 48, 48)   0           tr_0_conv2D[0][0]                
__________________________________________________________________________________________________
dense_1_0_bn (BatchNormalizatio (None, 17, 48, 48)   68          average_pooling2d_13[0][0]       
__________________________________________________________________________________________________
activation_134 (Activation)     (None, 17, 48, 48)   0           dense_1_0_bn[0][0]               
__________________________________________________________________________________________________
dense_1_0_bottleneck_conv2D (Co (None, 24, 48, 48)   408         activation_134[0][0]             
__________________________________________________________________________________________________
dense_1_0_bottleneck_bn (BatchN (None, 24, 48, 48)   96          dense_1_0_bottleneck_conv2D[0][0]
__________________________________________________________________________________________________
activation_135 (Activation)     (None, 24, 48, 48)   0           dense_1_0_bottleneck_bn[0][0]    
__________________________________________________________________________________________________
dense_1_0_conv2D (Conv2D)       (None, 6, 48, 48)    1296        activation_135[0][0]             
__________________________________________________________________________________________________
concatenate_54 (Concatenate)    (None, 23, 48, 48)   0           average_pooling2d_13[0][0]       
                                                                 dense_1_0_conv2D[0][0]           
__________________________________________________________________________________________________
dense_1_1_bn (BatchNormalizatio (None, 23, 48, 48)   92          concatenate_54[0][0]             
__________________________________________________________________________________________________
activation_136 (Activation)     (None, 23, 48, 48)   0           dense_1_1_bn[0][0]               
__________________________________________________________________________________________________
dense_1_1_bottleneck_conv2D (Co (None, 24, 48, 48)   552         activation_136[0][0]             
__________________________________________________________________________________________________
dense_1_1_bottleneck_bn (BatchN (None, 24, 48, 48)   96          dense_1_1_bottleneck_conv2D[0][0]
__________________________________________________________________________________________________
activation_137 (Activation)     (None, 24, 48, 48)   0           dense_1_1_bottleneck_bn[0][0]    
__________________________________________________________________________________________________
dense_1_1_conv2D (Conv2D)       (None, 6, 48, 48)    1296        activation_137[0][0]             
__________________________________________________________________________________________________
concatenate_55 (Concatenate)    (None, 29, 48, 48)   0           concatenate_54[0][0]             
                                                                 dense_1_1_conv2D[0][0]           
__________________________________________________________________________________________________
dense_1_2_bn (BatchNormalizatio (None, 29, 48, 48)   116         concatenate_55[0][0]             
__________________________________________________________________________________________________
activation_138 (Activation)     (None, 29, 48, 48)   0           dense_1_2_bn[0][0]               
__________________________________________________________________________________________________
dense_1_2_bottleneck_conv2D (Co (None, 24, 48, 48)   696         activation_138[0][0]             
__________________________________________________________________________________________________
dense_1_2_bottleneck_bn (BatchN (None, 24, 48, 48)   96          dense_1_2_bottleneck_conv2D[0][0]
__________________________________________________________________________________________________
activation_139 (Activation)     (None, 24, 48, 48)   0           dense_1_2_bottleneck_bn[0][0]    
__________________________________________________________________________________________________
dense_1_2_conv2D (Conv2D)       (None, 6, 48, 48)    1296        activation_139[0][0]             
__________________________________________________________________________________________________
concatenate_56 (Concatenate)    (None, 35, 48, 48)   0           concatenate_55[0][0]             
                                                                 dense_1_2_conv2D[0][0]           
__________________________________________________________________________________________________
final_bn (BatchNormalization)   (None, 35, 48, 48)   140         concatenate_56[0][0]             
__________________________________________________________________________________________________
activation_140 (Activation)     (None, 35, 48, 48)   0           final_bn[0][0]                   
__________________________________________________________________________________________________
global_average_pooling2d_15 (Gl (None, 35)           0           activation_140[0][0]             
__________________________________________________________________________________________________
dense_15 (Dense)                (None, 1)            36          global_average_pooling2d_15[0][0]
==================================================================================================
Total params: 13,310
Trainable params: 12,614
Non-trainable params: 696
__________________________________________________________________________________________________
Train on 39840 samples, validate on 7440 samples
Epoch 1/30
 - 37s - loss: 0.6382 - acc: 0.6977 - val_loss: 0.5582 - val_acc: 0.8152
…
7072/7440 [===========================>..] - ETA: 0s
7424/7440 [============================>.] - ETA: 0s
7440/7440 [==============================] - 4s 555us/step
Best saved model Test accuracy: 0.8568548387096774
best saved model auc_score ------------------>  0.8726360345126605
__________________________________________________________________________________________________
Layer (type)                    Output Shape         Param #     Connected to                     
==================================================================================================
input_17 (InputLayer)           (None, 2, 96, 96)    0                                            
__________________________________________________________________________________________________
initial_conv2D (Conv2D)         (None, 16, 96, 96)   288         input_17[0][0]                   
__________________________________________________________________________________________________
dense_0_0_bn (BatchNormalizatio (None, 16, 96, 96)   64          initial_conv2D[0][0]             
__________________________________________________________________________________________________
activation_143 (Activation)     (None, 16, 96, 96)   0           dense_0_0_bn[0][0]               
__________________________________________________________________________________________________
dense_0_0_bottleneck_conv2D (Co (None, 32, 96, 96)   512         activation_143[0][0]             
__________________________________________________________________________________________________
dense_0_0_bottleneck_bn (BatchN (None, 32, 96, 96)   128         dense_0_0_bottleneck_conv2D[0][0]
__________________________________________________________________________________________________
activation_144 (Activation)     (None, 32, 96, 96)   0           dense_0_0_bottleneck_bn[0][0]    
__________________________________________________________________________________________________
dense_0_0_conv2D (Conv2D)       (None, 8, 96, 96)    2304        activation_144[0][0]             
__________________________________________________________________________________________________
concatenate_57 (Concatenate)    (None, 24, 96, 96)   0           initial_conv2D[0][0]             
                                                                 dense_0_0_conv2D[0][0]           
__________________________________________________________________________________________________
dense_0_1_bn (BatchNormalizatio (None, 24, 96, 96)   96          concatenate_57[0][0]             
__________________________________________________________________________________________________
activation_145 (Activation)     (None, 24, 96, 96)   0           dense_0_1_bn[0][0]               
__________________________________________________________________________________________________
dense_0_1_bottleneck_conv2D (Co (None, 32, 96, 96)   768         activation_145[0][0]             
__________________________________________________________________________________________________
dense_0_1_bottleneck_bn (BatchN (None, 32, 96, 96)   128         dense_0_1_bottleneck_conv2D[0][0]
__________________________________________________________________________________________________
activation_146 (Activation)     (None, 32, 96, 96)   0           dense_0_1_bottleneck_bn[0][0]    
__________________________________________________________________________________________________
dense_0_1_conv2D (Conv2D)       (None, 8, 96, 96)    2304        activation_146[0][0]             
__________________________________________________________________________________________________
concatenate_58 (Concatenate)    (None, 32, 96, 96)   0           concatenate_57[0][0]             
                                                                 dense_0_1_conv2D[0][0]           
__________________________________________________________________________________________________
dense_0_2_bn (BatchNormalizatio (None, 32, 96, 96)   128         concatenate_58[0][0]             
__________________________________________________________________________________________________
activation_147 (Activation)     (None, 32, 96, 96)   0           dense_0_2_bn[0][0]               
__________________________________________________________________________________________________
dense_0_2_bottleneck_conv2D (Co (None, 32, 96, 96)   1024        activation_147[0][0]             
__________________________________________________________________________________________________
dense_0_2_bottleneck_bn (BatchN (None, 32, 96, 96)   128         dense_0_2_bottleneck_conv2D[0][0]
__________________________________________________________________________________________________
activation_148 (Activation)     (None, 32, 96, 96)   0           dense_0_2_bottleneck_bn[0][0]    
__________________________________________________________________________________________________
dense_0_2_conv2D (Conv2D)       (None, 8, 96, 96)    2304        activation_148[0][0]             
__________________________________________________________________________________________________
concatenate_59 (Concatenate)    (None, 40, 96, 96)   0           concatenate_58[0][0]             
                                                                 dense_0_2_conv2D[0][0]           
__________________________________________________________________________________________________
tr_0_bn (BatchNormalization)    (None, 40, 96, 96)   160         concatenate_59[0][0]             
__________________________________________________________________________________________________
activation_149 (Activation)     (None, 40, 96, 96)   0           tr_0_bn[0][0]                    
__________________________________________________________________________________________________
tr_0_conv2D (Conv2D)            (None, 20, 96, 96)   800         activation_149[0][0]             
__________________________________________________________________________________________________
average_pooling2d_15 (AveragePo (None, 20, 48, 48)   0           tr_0_conv2D[0][0]                
__________________________________________________________________________________________________
dense_1_0_bn (BatchNormalizatio (None, 20, 48, 48)   80          average_pooling2d_15[0][0]       
__________________________________________________________________________________________________
activation_150 (Activation)     (None, 20, 48, 48)   0           dense_1_0_bn[0][0]               
__________________________________________________________________________________________________
dense_1_0_bottleneck_conv2D (Co (None, 32, 48, 48)   640         activation_150[0][0]             
__________________________________________________________________________________________________
dense_1_0_bottleneck_bn (BatchN (None, 32, 48, 48)   128         dense_1_0_bottleneck_conv2D[0][0]
__________________________________________________________________________________________________
activation_151 (Activation)     (None, 32, 48, 48)   0           dense_1_0_bottleneck_bn[0][0]    
__________________________________________________________________________________________________
dense_1_0_conv2D (Conv2D)       (None, 8, 48, 48)    2304        activation_151[0][0]             
__________________________________________________________________________________________________
concatenate_60 (Concatenate)    (None, 28, 48, 48)   0           average_pooling2d_15[0][0]       
                                                                 dense_1_0_conv2D[0][0]           
__________________________________________________________________________________________________
dense_1_1_bn (BatchNormalizatio (None, 28, 48, 48)   112         concatenate_60[0][0]             
__________________________________________________________________________________________________
activation_152 (Activation)     (None, 28, 48, 48)   0           dense_1_1_bn[0][0]               
__________________________________________________________________________________________________
dense_1_1_bottleneck_conv2D (Co (None, 32, 48, 48)   896         activation_152[0][0]             
__________________________________________________________________________________________________
dense_1_1_bottleneck_bn (BatchN (None, 32, 48, 48)   128         dense_1_1_bottleneck_conv2D[0][0]
__________________________________________________________________________________________________
activation_153 (Activation)     (None, 32, 48, 48)   0           dense_1_1_bottleneck_bn[0][0]    
__________________________________________________________________________________________________
dense_1_1_conv2D (Conv2D)       (None, 8, 48, 48)    2304        activation_153[0][0]             
__________________________________________________________________________________________________
concatenate_61 (Concatenate)    (None, 36, 48, 48)   0           concatenate_60[0][0]             
                                                                 dense_1_1_conv2D[0][0]           
__________________________________________________________________________________________________
dense_1_2_bn (BatchNormalizatio (None, 36, 48, 48)   144         concatenate_61[0][0]             
__________________________________________________________________________________________________
activation_154 (Activation)     (None, 36, 48, 48)   0           dense_1_2_bn[0][0]               
__________________________________________________________________________________________________
dense_1_2_bottleneck_conv2D (Co (None, 32, 48, 48)   1152        activation_154[0][0]             
__________________________________________________________________________________________________
dense_1_2_bottleneck_bn (BatchN (None, 32, 48, 48)   128         dense_1_2_bottleneck_conv2D[0][0]
__________________________________________________________________________________________________
activation_155 (Activation)     (None, 32, 48, 48)   0           dense_1_2_bottleneck_bn[0][0]    
__________________________________________________________________________________________________
dense_1_2_conv2D (Conv2D)       (None, 8, 48, 48)    2304        activation_155[0][0]             
__________________________________________________________________________________________________
concatenate_62 (Concatenate)    (None, 44, 48, 48)   0           concatenate_61[0][0]             
                                                                 dense_1_2_conv2D[0][0]           
__________________________________________________________________________________________________
final_bn (BatchNormalization)   (None, 44, 48, 48)   176         concatenate_62[0][0]             
__________________________________________________________________________________________________
activation_156 (Activation)     (None, 44, 48, 48)   0           final_bn[0][0]                   
__________________________________________________________________________________________________
global_average_pooling2d_17 (Gl (None, 44)           0           activation_156[0][0]             
__________________________________________________________________________________________________
dense_17 (Dense)                (None, 1)            45          global_average_pooling2d_17[0][0]
==================================================================================================
Total params: 21,677
Trainable params: 20,813
Non-trainable params: 864
__________________________________________________________________________________________________
Train on 39840 samples, validate on 7440 samples
Epoch 1/30
 - 42s - loss: 0.5606 - acc: 0.7553 - val_loss: 0.4734 - val_acc: 0.8195
…
7200/7440 [============================>.] - ETA: 0s
7360/7440 [============================>.] - ETA: 0s
7440/7440 [==============================] - 7s 959us/step
Best saved model Test accuracy: 0.8055107526881721
best saved model auc_score ------------------>  0.8861611168921264
__________________________________________________________________________________________________
Layer (type)                    Output Shape         Param #     Connected to                     
==================================================================================================
input_22 (InputLayer)           (None, 2, 96, 96)    0                                            
__________________________________________________________________________________________________
initial_conv2D (Conv2D)         (None, 16, 96, 96)   288         input_22[0][0]                   
__________________________________________________________________________________________________
dense_0_0_bn (BatchNormalizatio (None, 16, 96, 96)   64          initial_conv2D[0][0]             
__________________________________________________________________________________________________
activation_188 (Activation)     (None, 16, 96, 96)   0           dense_0_0_bn[0][0]               
__________________________________________________________________________________________________
dense_0_0_bottleneck_conv2D (Co (None, 48, 96, 96)   768         activation_188[0][0]             
__________________________________________________________________________________________________
dense_0_0_bottleneck_bn (BatchN (None, 48, 96, 96)   192         dense_0_0_bottleneck_conv2D[0][0]
__________________________________________________________________________________________________
activation_189 (Activation)     (None, 48, 96, 96)   0           dense_0_0_bottleneck_bn[0][0]    
__________________________________________________________________________________________________
dense_0_0_conv2D (Conv2D)       (None, 12, 96, 96)   5184        activation_189[0][0]             
__________________________________________________________________________________________________
concatenate_76 (Concatenate)    (None, 28, 96, 96)   0           initial_conv2D[0][0]             
                                                                 dense_0_0_conv2D[0][0]           
__________________________________________________________________________________________________
final_bn (BatchNormalization)   (None, 28, 96, 96)   112         concatenate_76[0][0]             
__________________________________________________________________________________________________
activation_190 (Activation)     (None, 28, 96, 96)   0           final_bn[0][0]                   
__________________________________________________________________________________________________
global_average_pooling2d_22 (Gl (None, 28)           0           activation_190[0][0]             
__________________________________________________________________________________________________
dense_22 (Dense)                (None, 1)            29          global_average_pooling2d_22[0][0]
==================================================================================================
Total params: 6,637
Trainable params: 6,453
Non-trainable params: 184
__________________________________________________________________________________________________
Train on 39840 samples, validate on 7440 samples
Epoch 1/30
 - 26s - loss: 0.6436 - acc: 0.6681 - val_loss: 0.6258 - val_acc: 0.7047
…
6976/7440 [===========================>..] - ETA: 0s
7232/7440 [============================>.] - ETA: 0s
7440/7440 [==============================] - 6s 845us/step
Best saved model Test accuracy: 0.828763440860215
best saved model auc_score ------------------>  0.8636320672910163
__________________________________________________________________________________________________
Layer (type)                    Output Shape         Param #     Connected to                     
==================================================================================================
input_23 (InputLayer)           (None, 2, 96, 96)    0                                            
__________________________________________________________________________________________________
initial_conv2D (Conv2D)         (None, 16, 96, 96)   288         input_23[0][0]                   
__________________________________________________________________________________________________
dense_0_0_bn (BatchNormalizatio (None, 16, 96, 96)   64          initial_conv2D[0][0]             
__________________________________________________________________________________________________
activation_191 (Activation)     (None, 16, 96, 96)   0           dense_0_0_bn[0][0]               
__________________________________________________________________________________________________
dense_0_0_bottleneck_conv2D (Co (None, 56, 96, 96)   896         activation_191[0][0]             
__________________________________________________________________________________________________
dense_0_0_bottleneck_bn (BatchN (None, 56, 96, 96)   224         dense_0_0_bottleneck_conv2D[0][0]
__________________________________________________________________________________________________
activation_192 (Activation)     (None, 56, 96, 96)   0           dense_0_0_bottleneck_bn[0][0]    
__________________________________________________________________________________________________
dense_0_0_conv2D (Conv2D)       (None, 14, 96, 96)   7056        activation_192[0][0]             
__________________________________________________________________________________________________
concatenate_77 (Concatenate)    (None, 30, 96, 96)   0           initial_conv2D[0][0]             
                                                                 dense_0_0_conv2D[0][0]           
__________________________________________________________________________________________________
dense_0_1_bn (BatchNormalizatio (None, 30, 96, 96)   120         concatenate_77[0][0]             
__________________________________________________________________________________________________
activation_193 (Activation)     (None, 30, 96, 96)   0           dense_0_1_bn[0][0]               
__________________________________________________________________________________________________
dense_0_1_bottleneck_conv2D (Co (None, 56, 96, 96)   1680        activation_193[0][0]             
__________________________________________________________________________________________________
dense_0_1_bottleneck_bn (BatchN (None, 56, 96, 96)   224         dense_0_1_bottleneck_conv2D[0][0]
__________________________________________________________________________________________________
activation_194 (Activation)     (None, 56, 96, 96)   0           dense_0_1_bottleneck_bn[0][0]    
__________________________________________________________________________________________________
dense_0_1_conv2D (Conv2D)       (None, 14, 96, 96)   7056        activation_194[0][0]             
__________________________________________________________________________________________________
concatenate_78 (Concatenate)    (None, 44, 96, 96)   0           concatenate_77[0][0]             
                                                                 dense_0_1_conv2D[0][0]           
__________________________________________________________________________________________________
dense_0_2_bn (BatchNormalizatio (None, 44, 96, 96)   176         concatenate_78[0][0]             
__________________________________________________________________________________________________
activation_195 (Activation)     (None, 44, 96, 96)   0           dense_0_2_bn[0][0]               
__________________________________________________________________________________________________
dense_0_2_bottleneck_conv2D (Co (None, 56, 96, 96)   2464        activation_195[0][0]             
__________________________________________________________________________________________________
dense_0_2_bottleneck_bn (BatchN (None, 56, 96, 96)   224         dense_0_2_bottleneck_conv2D[0][0]
__________________________________________________________________________________________________
activation_196 (Activation)     (None, 56, 96, 96)   0           dense_0_2_bottleneck_bn[0][0]    
__________________________________________________________________________________________________
dense_0_2_conv2D (Conv2D)       (None, 14, 96, 96)   7056        activation_196[0][0]             
__________________________________________________________________________________________________
concatenate_79 (Concatenate)    (None, 58, 96, 96)   0           concatenate_78[0][0]             
                                                                 dense_0_2_conv2D[0][0]           
__________________________________________________________________________________________________
final_bn (BatchNormalization)   (None, 58, 96, 96)   232         concatenate_79[0][0]             
__________________________________________________________________________________________________
activation_197 (Activation)     (None, 58, 96, 96)   0           final_bn[0][0]                   
__________________________________________________________________________________________________
global_average_pooling2d_23 (Gl (None, 58)           0           activation_197[0][0]             
__________________________________________________________________________________________________
dense_23 (Dense)                (None, 1)            59          global_average_pooling2d_23[0][0]
==================================================================================================
Total params: 27,819
Trainable params: 27,187
Non-trainable params: 632
__________________________________________________________________________________________________
Train on 39840 samples, validate on 7440 samples
Epoch 1/30
 - 46s - loss: 0.5861 - acc: 0.7323 - val_loss: 0.5423 - val_acc: 0.7501
…
7200/7440 [============================>.] - ETA: 0s
7424/7440 [============================>.] - ETA: 0s
7440/7440 [==============================] - 7s 933us/step
Best saved model Test accuracy: 0.8043010752688172
best saved model auc_score ------------------>  0.863280870620881
__________________________________________________________________________________________________
Layer (type)                    Output Shape         Param #     Connected to                     
==================================================================================================
input_25 (InputLayer)           (None, 2, 96, 96)    0                                            
__________________________________________________________________________________________________
initial_conv2D (Conv2D)         (None, 16, 96, 96)   288         input_25[0][0]                   
__________________________________________________________________________________________________
dense_0_0_bn (BatchNormalizatio (None, 16, 96, 96)   64          initial_conv2D[0][0]             
__________________________________________________________________________________________________
activation_201 (Activation)     (None, 16, 96, 96)   0           dense_0_0_bn[0][0]               
__________________________________________________________________________________________________
dense_0_0_bottleneck_conv2D (Co (None, 40, 96, 96)   640         activation_201[0][0]             
__________________________________________________________________________________________________
dense_0_0_bottleneck_bn (BatchN (None, 40, 96, 96)   160         dense_0_0_bottleneck_conv2D[0][0]
__________________________________________________________________________________________________
activation_202 (Activation)     (None, 40, 96, 96)   0           dense_0_0_bottleneck_bn[0][0]    
__________________________________________________________________________________________________
dense_0_0_conv2D (Conv2D)       (None, 10, 96, 96)   3600        activation_202[0][0]             
__________________________________________________________________________________________________
concatenate_81 (Concatenate)    (None, 26, 96, 96)   0           initial_conv2D[0][0]             
                                                                 dense_0_0_conv2D[0][0]           
__________________________________________________________________________________________________
final_bn (BatchNormalization)   (None, 26, 96, 96)   104         concatenate_81[0][0]             
__________________________________________________________________________________________________
activation_203 (Activation)     (None, 26, 96, 96)   0           final_bn[0][0]                   
__________________________________________________________________________________________________
global_average_pooling2d_25 (Gl (None, 26)           0           activation_203[0][0]             
__________________________________________________________________________________________________
dense_25 (Dense)                (None, 1)            27          global_average_pooling2d_25[0][0]
==================================================================================================
Total params: 4,883
Trainable params: 4,719
Non-trainable params: 164
__________________________________________________________________________________________________
Train on 39840 samples, validate on 7440 samples
Epoch 1/30
 - 30s - loss: 0.6284 - acc: 0.6854 - val_loss: 0.5770 - val_acc: 0.7750
…
7232/7440 [============================>.] - ETA: 0s
7392/7440 [============================>.] - ETA: 0s
7440/7440 [==============================] - 8s 1ms/step
Best saved model Test accuracy: 0.8150537634408602
best saved model auc_score ------------------>  0.8954483538559371
__________________________________________________________________________________________________
Layer (type)                    Output Shape         Param #     Connected to                     
==================================================================================================
input_27 (InputLayer)           (None, 2, 96, 96)    0                                            
__________________________________________________________________________________________________
initial_conv2D (Conv2D)         (None, 16, 96, 96)   288         input_27[0][0]                   
__________________________________________________________________________________________________
dense_0_0_bn (BatchNormalizatio (None, 16, 96, 96)   64          initial_conv2D[0][0]             
__________________________________________________________________________________________________
activation_211 (Activation)     (None, 16, 96, 96)   0           dense_0_0_bn[0][0]               
__________________________________________________________________________________________________
dense_0_0_bottleneck_conv2D (Co (None, 48, 96, 96)   768         activation_211[0][0]             
__________________________________________________________________________________________________
dense_0_0_bottleneck_bn (BatchN (None, 48, 96, 96)   192         dense_0_0_bottleneck_conv2D[0][0]
__________________________________________________________________________________________________
activation_212 (Activation)     (None, 48, 96, 96)   0           dense_0_0_bottleneck_bn[0][0]    
__________________________________________________________________________________________________
dense_0_0_conv2D (Conv2D)       (None, 12, 96, 96)   5184        activation_212[0][0]             
__________________________________________________________________________________________________
concatenate_85 (Concatenate)    (None, 28, 96, 96)   0           initial_conv2D[0][0]             
                                                                 dense_0_0_conv2D[0][0]           
__________________________________________________________________________________________________
dense_0_1_bn (BatchNormalizatio (None, 28, 96, 96)   112         concatenate_85[0][0]             
__________________________________________________________________________________________________
activation_213 (Activation)     (None, 28, 96, 96)   0           dense_0_1_bn[0][0]               
__________________________________________________________________________________________________
dense_0_1_bottleneck_conv2D (Co (None, 48, 96, 96)   1344        activation_213[0][0]             
__________________________________________________________________________________________________
dense_0_1_bottleneck_bn (BatchN (None, 48, 96, 96)   192         dense_0_1_bottleneck_conv2D[0][0]
__________________________________________________________________________________________________
activation_214 (Activation)     (None, 48, 96, 96)   0           dense_0_1_bottleneck_bn[0][0]    
__________________________________________________________________________________________________
dense_0_1_conv2D (Conv2D)       (None, 12, 96, 96)   5184        activation_214[0][0]             
__________________________________________________________________________________________________
concatenate_86 (Concatenate)    (None, 40, 96, 96)   0           concatenate_85[0][0]             
                                                                 dense_0_1_conv2D[0][0]           
__________________________________________________________________________________________________
dense_0_2_bn (BatchNormalizatio (None, 40, 96, 96)   160         concatenate_86[0][0]             
__________________________________________________________________________________________________
activation_215 (Activation)     (None, 40, 96, 96)   0           dense_0_2_bn[0][0]               
__________________________________________________________________________________________________
dense_0_2_bottleneck_conv2D (Co (None, 48, 96, 96)   1920        activation_215[0][0]             
__________________________________________________________________________________________________
dense_0_2_bottleneck_bn (BatchN (None, 48, 96, 96)   192         dense_0_2_bottleneck_conv2D[0][0]
__________________________________________________________________________________________________
activation_216 (Activation)     (None, 48, 96, 96)   0           dense_0_2_bottleneck_bn[0][0]    
__________________________________________________________________________________________________
dense_0_2_conv2D (Conv2D)       (None, 12, 96, 96)   5184        activation_216[0][0]             
__________________________________________________________________________________________________
concatenate_87 (Concatenate)    (None, 52, 96, 96)   0           concatenate_86[0][0]             
                                                                 dense_0_2_conv2D[0][0]           
__________________________________________________________________________________________________
tr_0_bn (BatchNormalization)    (None, 52, 96, 96)   208         concatenate_87[0][0]             
__________________________________________________________________________________________________
activation_217 (Activation)     (None, 52, 96, 96)   0           tr_0_bn[0][0]                    
__________________________________________________________________________________________________
tr_0_conv2D (Conv2D)            (None, 26, 96, 96)   1352        activation_217[0][0]             
__________________________________________________________________________________________________
average_pooling2d_17 (AveragePo (None, 26, 48, 48)   0           tr_0_conv2D[0][0]                
__________________________________________________________________________________________________
dense_1_0_bn (BatchNormalizatio (None, 26, 48, 48)   104         average_pooling2d_17[0][0]       
__________________________________________________________________________________________________
…
dense_2_2_bottleneck_bn (BatchN (None, 56, 24, 24)   224         dense_2_2_bottleneck_conv2D[0][0]
__________________________________________________________________________________________________
activation_329 (Activation)     (None, 56, 24, 24)   0           dense_2_2_bottleneck_bn[0][0]    
__________________________________________________________________________________________________
dense_2_2_conv2D (Conv2D)       (None, 14, 24, 24)   7056        activation_329[0][0]             
__________________________________________________________________________________________________
concatenate_132 (Concatenate)   (None, 77, 24, 24)   0           concatenate_131[0][0]            
                                                                 dense_2_2_conv2D[0][0]           
__________________________________________________________________________________________________
final_bn (BatchNormalization)   (None, 77, 24, 24)   308         concatenate_132[0][0]            
__________________________________________________________________________________________________
activation_330 (Activation)     (None, 77, 24, 24)   0           final_bn[0][0]                   
__________________________________________________________________________________________________
global_average_pooling2d_34 (Gl (None, 77)           0           activation_330[0][0]             
__________________________________________________________________________________________________
dense_34 (Dense)                (None, 1)            78          global_average_pooling2d_34[0][0]
==================================================================================================
Total params: 92,837
Trainable params: 90,685
Non-trainable params: 2,152
__________________________________________________________________________________________________
Train on 39840 samples, validate on 7440 samples
Epoch 1/30
 - 75s - loss: 0.5758 - acc: 0.7758 - val_loss: 0.5986 - val_acc: 0.7875
…
7232/7440 [============================>.] - ETA: 0s
7360/7440 [============================>.] - ETA: 0s
7440/7440 [==============================] - 18s 2ms/step
Best saved model Test accuracy: 0.8405913978494624
best saved model auc_score ------------------>  0.9198371198982541
__________________________________________________________________________________________________
Layer (type)                    Output Shape         Param #     Connected to                     
==================================================================================================
input_38 (InputLayer)           (None, 2, 96, 96)    0                                            
__________________________________________________________________________________________________
initial_conv2D (Conv2D)         (None, 16, 96, 96)   288         input_38[0][0]                   
__________________________________________________________________________________________________
dense_0_0_bn (BatchNormalizatio (None, 16, 96, 96)   64          initial_conv2D[0][0]             
__________________________________________________________________________________________________
activation_388 (Activation)     (None, 16, 96, 96)   0           dense_0_0_bn[0][0]               
__________________________________________________________________________________________________
dense_0_0_bottleneck_conv2D (Co (None, 56, 96, 96)   896         activation_388[0][0]             
__________________________________________________________________________________________________
dense_0_0_bottleneck_bn (BatchN (None, 56, 96, 96)   224         dense_0_0_bottleneck_conv2D[0][0]
__________________________________________________________________________________________________
activation_389 (Activation)     (None, 56, 96, 96)   0           dense_0_0_bottleneck_bn[0][0]    
__________________________________________________________________________________________________
dense_0_0_conv2D (Conv2D)       (None, 14, 96, 96)   7056        activation_389[0][0]             
__________________________________________________________________________________________________
concatenate_157 (Concatenate)   (None, 30, 96, 96)   0           initial_conv2D[0][0]             
                                                                 dense_0_0_conv2D[0][0]           
__________________________________________________________________________________________________
final_bn (BatchNormalization)   (None, 30, 96, 96)   120         concatenate_157[0][0]            
__________________________________________________________________________________________________
activation_390 (Activation)     (None, 30, 96, 96)   0           final_bn[0][0]                   
__________________________________________________________________________________________________
global_average_pooling2d_38 (Gl (None, 30)           0           activation_390[0][0]             
__________________________________________________________________________________________________
dense_38 (Dense)                (None, 1)            31          global_average_pooling2d_38[0][0]
==================================================================================================
Total params: 8,679
Trainable params: 8,475
Non-trainable params: 204
__________________________________________________________________________________________________
Train on 39840 samples, validate on 7440 samples
Epoch 1/30
 - 50s - loss: 0.6284 - acc: 0.6857 - val_loss: 0.5342 - val_acc: 0.7918
…
7200/7440 [============================>.] - ETA: 0s
7360/7440 [============================>.] - ETA: 0s
7440/7440 [==============================] - 17s 2ms/step
Best saved model Test accuracy: 0.8290322580645161
best saved model auc_score ------------------>  0.8696114435194819
__________________________________________________________________________________________________
Layer (type)                    Output Shape         Param #     Connected to                     
==================================================================================================
input_39 (InputLayer)           (None, 2, 96, 96)    0                                            
__________________________________________________________________________________________________
initial_conv2D (Conv2D)         (None, 16, 96, 96)   288         input_39[0][0]                   
__________________________________________________________________________________________________
dense_0_0_bn (BatchNormalizatio (None, 16, 96, 96)   64          initial_conv2D[0][0]             
__________________________________________________________________________________________________
activation_391 (Activation)     (None, 16, 96, 96)   0           dense_0_0_bn[0][0]               
__________________________________________________________________________________________________
dense_0_0_bottleneck_conv2D (Co (None, 64, 96, 96)   1024        activation_391[0][0]             
__________________________________________________________________________________________________
dense_0_0_bottleneck_bn (BatchN (None, 64, 96, 96)   256         dense_0_0_bottleneck_conv2D[0][0]
__________________________________________________________________________________________________
activation_392 (Activation)     (None, 64, 96, 96)   0           dense_0_0_bottleneck_bn[0][0]    
__________________________________________________________________________________________________
dense_0_0_conv2D (Conv2D)       (None, 16, 96, 96)   9216        activation_392[0][0]             
__________________________________________________________________________________________________
concatenate_158 (Concatenate)   (None, 32, 96, 96)   0           initial_conv2D[0][0]             
                                                                 dense_0_0_conv2D[0][0]           
__________________________________________________________________________________________________
dense_0_1_bn (BatchNormalizatio (None, 32, 96, 96)   128         concatenate_158[0][0]            
__________________________________________________________________________________________________
activation_393 (Activation)     (None, 32, 96, 96)   0           dense_0_1_bn[0][0]               
__________________________________________________________________________________________________
dense_0_1_bottleneck_conv2D (Co (None, 64, 96, 96)   2048        activation_393[0][0]             
__________________________________________________________________________________________________
dense_0_1_bottleneck_bn (BatchN (None, 64, 96, 96)   256         dense_0_1_bottleneck_conv2D[0][0]
__________________________________________________________________________________________________
activation_394 (Activation)     (None, 64, 96, 96)   0           dense_0_1_bottleneck_bn[0][0]    
__________________________________________________________________________________________________
dense_0_1_conv2D (Conv2D)       (None, 16, 96, 96)   9216        activation_394[0][0]             
__________________________________________________________________________________________________
concatenate_159 (Concatenate)   (None, 48, 96, 96)   0           concatenate_158[0][0]            
                                                                 dense_0_1_conv2D[0][0]           
__________________________________________________________________________________________________
dense_0_2_bn (BatchNormalizatio (None, 48, 96, 96)   192         concatenate_159[0][0]            
__________________________________________________________________________________________________
activation_395 (Activation)     (None, 48, 96, 96)   0           dense_0_2_bn[0][0]               
__________________________________________________________________________________________________
dense_0_2_bottleneck_conv2D (Co (None, 64, 96, 96)   3072        activation_395[0][0]             
__________________________________________________________________________________________________
dense_0_2_bottleneck_bn (BatchN (None, 64, 96, 96)   256         dense_0_2_bottleneck_conv2D[0][0]
__________________________________________________________________________________________________
activation_396 (Activation)     (None, 64, 96, 96)   0           dense_0_2_bottleneck_bn[0][0]    
__________________________________________________________________________________________________
dense_0_2_conv2D (Conv2D)       (None, 16, 96, 96)   9216        activation_396[0][0]             
__________________________________________________________________________________________________
concatenate_160 (Concatenate)   (None, 64, 96, 96)   0           concatenate_159[0][0]            
                                                                 dense_0_2_conv2D[0][0]           
__________________________________________________________________________________________________
tr_0_bn (BatchNormalization)    (None, 64, 96, 96)   256         concatenate_160[0][0]            
__________________________________________________________________________________________________
activation_397 (Activation)     (None, 64, 96, 96)   0           tr_0_bn[0][0]                    
__________________________________________________________________________________________________
tr_0_conv2D (Conv2D)            (None, 32, 96, 96)   2048        activation_397[0][0]             
__________________________________________________________________________________________________
average_pooling2d_39 (AveragePo (None, 32, 48, 48)   0           tr_0_conv2D[0][0]                
__________________________________________________________________________________________________
dense_1_0_bn (BatchNormalizatio (None, 32, 48, 48)   128         average_pooling2d_39[0][0]       
__________________________________________________________________________________________________
activation_398 (Activation)     (None, 32, 48, 48)   0           dense_1_0_bn[0][0]               
__________________________________________________________________________________________________
dense_1_0_bottleneck_conv2D (Co (None, 64, 48, 48)   2048        activation_398[0][0]             
__________________________________________________________________________________________________
dense_1_0_bottleneck_bn (BatchN (None, 64, 48, 48)   256         dense_1_0_bottleneck_conv2D[0][0]
__________________________________________________________________________________________________
activation_399 (Activation)     (None, 64, 48, 48)   0           dense_1_0_bottleneck_bn[0][0]    
__________________________________________________________________________________________________
dense_1_0_conv2D (Conv2D)       (None, 16, 48, 48)   9216        activation_399[0][0]             
__________________________________________________________________________________________________
concatenate_161 (Concatenate)   (None, 48, 48, 48)   0           average_pooling2d_39[0][0]       
                                                                 dense_1_0_conv2D[0][0]           
__________________________________________________________________________________________________
dense_1_1_bn (BatchNormalizatio (None, 48, 48, 48)   192         concatenate_161[0][0]            
__________________________________________________________________________________________________
activation_400 (Activation)     (None, 48, 48, 48)   0           dense_1_1_bn[0][0]               
__________________________________________________________________________________________________
dense_1_1_bottleneck_conv2D (Co (None, 64, 48, 48)   3072        activation_400[0][0]             
__________________________________________________________________________________________________
dense_1_1_bottleneck_bn (BatchN (None, 64, 48, 48)   256         dense_1_1_bottleneck_conv2D[0][0]
__________________________________________________________________________________________________
activation_401 (Activation)     (None, 64, 48, 48)   0           dense_1_1_bottleneck_bn[0][0]    
__________________________________________________________________________________________________
dense_1_1_conv2D (Conv2D)       (None, 16, 48, 48)   9216        activation_401[0][0]             
__________________________________________________________________________________________________
concatenate_162 (Concatenate)   (None, 64, 48, 48)   0           concatenate_161[0][0]            
                                                                 dense_1_1_conv2D[0][0]           
__________________________________________________________________________________________________
dense_1_2_bn (BatchNormalizatio (None, 64, 48, 48)   256         concatenate_162[0][0]            
__________________________________________________________________________________________________
activation_402 (Activation)     (None, 64, 48, 48)   0           dense_1_2_bn[0][0]               
__________________________________________________________________________________________________
dense_1_2_bottleneck_conv2D (Co (None, 64, 48, 48)   4096        activation_402[0][0]             
__________________________________________________________________________________________________
dense_1_2_bottleneck_bn (BatchN (None, 64, 48, 48)   256         dense_1_2_bottleneck_conv2D[0][0]
__________________________________________________________________________________________________
activation_403 (Activation)     (None, 64, 48, 48)   0           dense_1_2_bottleneck_bn[0][0]    
__________________________________________________________________________________________________
dense_1_2_conv2D (Conv2D)       (None, 16, 48, 48)   9216        activation_403[0][0]             
__________________________________________________________________________________________________
concatenate_163 (Concatenate)   (None, 80, 48, 48)   0           concatenate_162[0][0]            
                                                                 dense_1_2_conv2D[0][0]           
__________________________________________________________________________________________________
tr_1_bn (BatchNormalization)    (None, 80, 48, 48)   320         concatenate_163[0][0]            
__________________________________________________________________________________________________
activation_404 (Activation)     (None, 80, 48, 48)   0           tr_1_bn[0][0]                    
__________________________________________________________________________________________________
tr_1_conv2D (Conv2D)            (None, 40, 48, 48)   3200        activation_404[0][0]             
__________________________________________________________________________________________________
average_pooling2d_40 (AveragePo (None, 40, 24, 24)   0           tr_1_conv2D[0][0]                
__________________________________________________________________________________________________
dense_2_0_bn (BatchNormalizatio (None, 40, 24, 24)   160         average_pooling2d_40[0][0]       
__________________________________________________________________________________________________
activation_405 (Activation)     (None, 40, 24, 24)   0           dense_2_0_bn[0][0]               
__________________________________________________________________________________________________
dense_2_0_bottleneck_conv2D (Co (None, 64, 24, 24)   2560        activation_405[0][0]             
__________________________________________________________________________________________________
dense_2_0_bottleneck_bn (BatchN (None, 64, 24, 24)   256         dense_2_0_bottleneck_conv2D[0][0]
__________________________________________________________________________________________________
activation_406 (Activation)     (None, 64, 24, 24)   0           dense_2_0_bottleneck_bn[0][0]    
__________________________________________________________________________________________________
dense_2_0_conv2D (Conv2D)       (None, 16, 24, 24)   9216        activation_406[0][0]             
__________________________________________________________________________________________________
concatenate_164 (Concatenate)   (None, 56, 24, 24)   0           average_pooling2d_40[0][0]       
                                                                 dense_2_0_conv2D[0][0]           
__________________________________________________________________________________________________
dense_2_1_bn (BatchNormalizatio (None, 56, 24, 24)   224         concatenate_164[0][0]            
__________________________________________________________________________________________________
activation_407 (Activation)     (None, 56, 24, 24)   0           dense_2_1_bn[0][0]               
__________________________________________________________________________________________________
dense_2_1_bottleneck_conv2D (Co (None, 64, 24, 24)   3584        activation_407[0][0]             
__________________________________________________________________________________________________
dense_2_1_bottleneck_bn (BatchN (None, 64, 24, 24)   256         dense_2_1_bottleneck_conv2D[0][0]
__________________________________________________________________________________________________
activation_408 (Activation)     (None, 64, 24, 24)   0           dense_2_1_bottleneck_bn[0][0]    
__________________________________________________________________________________________________
dense_2_1_conv2D (Conv2D)       (None, 16, 24, 24)   9216        activation_408[0][0]             
__________________________________________________________________________________________________
concatenate_165 (Concatenate)   (None, 72, 24, 24)   0           concatenate_164[0][0]            
                                                                 dense_2_1_conv2D[0][0]           
__________________________________________________________________________________________________
dense_2_2_bn (BatchNormalizatio (None, 72, 24, 24)   288         concatenate_165[0][0]            
__________________________________________________________________________________________________
activation_409 (Activation)     (None, 72, 24, 24)   0           dense_2_2_bn[0][0]               
__________________________________________________________________________________________________
dense_2_2_bottleneck_conv2D (Co (None, 64, 24, 24)   4608        activation_409[0][0]             
__________________________________________________________________________________________________
dense_2_2_bottleneck_bn (BatchN (None, 64, 24, 24)   256         dense_2_2_bottleneck_conv2D[0][0]
__________________________________________________________________________________________________
activation_410 (Activation)     (None, 64, 24, 24)   0           dense_2_2_bottleneck_bn[0][0]    
__________________________________________________________________________________________________
dense_2_2_conv2D (Conv2D)       (None, 16, 24, 24)   9216        activation_410[0][0]             
__________________________________________________________________________________________________
concatenate_166 (Concatenate)   (None, 88, 24, 24)   0           concatenate_165[0][0]            
                                                                 dense_2_2_conv2D[0][0]           
__________________________________________________________________________________________________
final_bn (BatchNormalization)   (None, 88, 24, 24)   352         concatenate_166[0][0]            
__________________________________________________________________________________________________
activation_411 (Activation)     (None, 88, 24, 24)   0           final_bn[0][0]                   
__________________________________________________________________________________________________
global_average_pooling2d_39 (Gl (None, 88)           0           activation_411[0][0]             
__________________________________________________________________________________________________
dense_39 (Dense)                (None, 1)            89          global_average_pooling2d_39[0][0]
==================================================================================================
Total params: 119,545
Trainable params: 117,113
Non-trainable params: 2,432
__________________________________________________________________________________________________
Train on 39840 samples, validate on 7440 samples
Epoch 1/30
 - 90s - loss: 0.5694 - acc: 0.7871 - val_loss: 0.6932 - val_acc: 0.7770
…
7104/7440 [===========================>..] - ETA: 0s
7200/7440 [============================>.] - ETA: 0s
7296/7440 [============================>.] - ETA: 0s
7392/7440 [============================>.] - ETA: 0s
7440/7440 [==============================] - 20s 3ms/step
Best saved model Test accuracy: 0.7903225806451613
best saved model auc_score ------------------>  0.8714810960804716
_________________________________________________________________
Layer (type)                 Output Shape              Param #   
=================================================================
input_40 (InputLayer)        (None, 2, 96, 96)         0         
_________________________________________________________________
initial_conv2D (Conv2D)      (None, 16, 96, 96)        288       
_________________________________________________________________
final_bn (BatchNormalization (None, 16, 96, 96)        64        
_________________________________________________________________
activation_412 (Activation)  (None, 16, 96, 96)        0         
_________________________________________________________________
global_average_pooling2d_40  (None, 16)                0         
_________________________________________________________________
dense_40 (Dense)             (None, 1)                 17        
=================================================================
Total params: 369
Trainable params: 337
Non-trainable params: 32
_________________________________________________________________
Train on 39840 samples, validate on 7440 samples
Epoch 1/30
 - 43s - loss: 0.6737 - acc: 0.6096 - val_loss: 0.6470 - val_acc: 0.6808

Epoch 00001: val_loss improved from inf to 0.64702, saving model to keras_densenet_simple_wt_28Sept_1352.h5
…
7136/7440 [===========================>..] - ETA: 0s
7360/7440 [============================>.] - ETA: 0s
7440/7440 [==============================] - 17s 2ms/step
Best saved model Test accuracy: 0.8165322580645161
best saved model auc_score ------------------>  0.8582301422129727
__________________________________________________________________________________________________
Layer (type)                    Output Shape         Param #     Connected to                     
==================================================================================================
input_41 (InputLayer)           (None, 2, 96, 96)    0                                            
__________________________________________________________________________________________________
initial_conv2D (Conv2D)         (None, 16, 96, 96)   288         input_41[0][0]                   
__________________________________________________________________________________________________
dense_0_0_bn (BatchNormalizatio (None, 16, 96, 96)   64          initial_conv2D[0][0]             
__________________________________________________________________________________________________
activation_413 (Activation)     (None, 16, 96, 96)   0           dense_0_0_bn[0][0]               
__________________________________________________________________________________________________
dense_0_0_bottleneck_conv2D (Co (None, 32, 96, 96)   512         activation_413[0][0]             
__________________________________________________________________________________________________
dense_0_0_bottleneck_bn (BatchN (None, 32, 96, 96)   128         dense_0_0_bottleneck_conv2D[0][0]
__________________________________________________________________________________________________
activation_414 (Activation)     (None, 32, 96, 96)   0           dense_0_0_bottleneck_bn[0][0]    
__________________________________________________________________________________________________
dense_0_0_conv2D (Conv2D)       (None, 8, 96, 96)    2304        activation_414[0][0]             
__________________________________________________________________________________________________
concatenate_167 (Concatenate)   (None, 24, 96, 96)   0           initial_conv2D[0][0]             
                                                                 dense_0_0_conv2D[0][0]           
__________________________________________________________________________________________________
tr_0_bn (BatchNormalization)    (None, 24, 96, 96)   96          concatenate_167[0][0]            
__________________________________________________________________________________________________
activation_415 (Activation)     (None, 24, 96, 96)   0           tr_0_bn[0][0]                    
__________________________________________________________________________________________________
tr_0_conv2D (Conv2D)            (None, 12, 96, 96)   288         activation_415[0][0]             
__________________________________________________________________________________________________
average_pooling2d_41 (AveragePo (None, 12, 48, 48)   0           tr_0_conv2D[0][0]                
__________________________________________________________________________________________________
dense_1_0_bn (BatchNormalizatio (None, 12, 48, 48)   48          average_pooling2d_41[0][0]       
__________________________________________________________________________________________________
activation_416 (Activation)     (None, 12, 48, 48)   0           dense_1_0_bn[0][0]               
__________________________________________________________________________________________________
dense_1_0_bottleneck_conv2D (Co (None, 32, 48, 48)   384         activation_416[0][0]             
__________________________________________________________________________________________________
dense_1_0_bottleneck_bn (BatchN (None, 32, 48, 48)   128         dense_1_0_bottleneck_conv2D[0][0]
__________________________________________________________________________________________________
activation_417 (Activation)     (None, 32, 48, 48)   0           dense_1_0_bottleneck_bn[0][0]    
__________________________________________________________________________________________________
dense_1_0_conv2D (Conv2D)       (None, 8, 48, 48)    2304        activation_417[0][0]             
__________________________________________________________________________________________________
concatenate_168 (Concatenate)   (None, 20, 48, 48)   0           average_pooling2d_41[0][0]       
                                                                 dense_1_0_conv2D[0][0]           
__________________________________________________________________________________________________
tr_1_bn (BatchNormalization)    (None, 20, 48, 48)   80          concatenate_168[0][0]            
__________________________________________________________________________________________________
activation_418 (Activation)     (None, 20, 48, 48)   0           tr_1_bn[0][0]                    
__________________________________________________________________________________________________
tr_1_conv2D (Conv2D)            (None, 10, 48, 48)   200         activation_418[0][0]             
__________________________________________________________________________________________________
average_pooling2d_42 (AveragePo (None, 10, 24, 24)   0           tr_1_conv2D[0][0]                
__________________________________________________________________________________________________
dense_2_0_bn (BatchNormalizatio (None, 10, 24, 24)   40          average_pooling2d_42[0][0]       
__________________________________________________________________________________________________
activation_419 (Activation)     (None, 10, 24, 24)   0           dense_2_0_bn[0][0]               
__________________________________________________________________________________________________
dense_2_0_bottleneck_conv2D (Co (None, 32, 24, 24)   320         activation_419[0][0]             
__________________________________________________________________________________________________
dense_2_0_bottleneck_bn (BatchN (None, 32, 24, 24)   128         dense_2_0_bottleneck_conv2D[0][0]
__________________________________________________________________________________________________
activation_420 (Activation)     (None, 32, 24, 24)   0           dense_2_0_bottleneck_bn[0][0]    
__________________________________________________________________________________________________
dense_2_0_conv2D (Conv2D)       (None, 8, 24, 24)    2304        activation_420[0][0]             
__________________________________________________________________________________________________
concatenate_169 (Concatenate)   (None, 18, 24, 24)   0           average_pooling2d_42[0][0]       
                                                                 dense_2_0_conv2D[0][0]           
__________________________________________________________________________________________________
final_bn (BatchNormalization)   (None, 18, 24, 24)   72          concatenate_169[0][0]            
__________________________________________________________________________________________________
activation_421 (Activation)     (None, 18, 24, 24)   0           final_bn[0][0]                   
__________________________________________________________________________________________________
global_average_pooling2d_41 (Gl (None, 18)           0           activation_421[0][0]             
__________________________________________________________________________________________________
dense_41 (Dense)                (None, 1)            19          global_average_pooling2d_41[0][0]
==================================================================================================
Total params: 9,707
Trainable params: 9,315
Non-trainable params: 392
__________________________________________________________________________________________________
Train on 39840 samples, validate on 7440 samples
Epoch 1/30
 - 54s - loss: 0.5953 - acc: 0.7163 - val_loss: 0.4786 - val_acc: 0.8344
…
7200/7440 [============================>.] - ETA: 0s
7360/7440 [============================>.] - ETA: 0s
7440/7440 [==============================] - 19s 2ms/step
Best saved model Test accuracy: 0.8244623655913978
best saved model auc_score ------------------>  0.8931658645508151
__________________________________________________________________________________________________
Layer (type)                    Output Shape         Param #     Connected to                     
==================================================================================================
input_42 (InputLayer)           (None, 2, 96, 96)    0                                            
__________________________________________________________________________________________________
initial_conv2D (Conv2D)         (None, 16, 96, 96)   288         input_42[0][0]                   
__________________________________________________________________________________________________
dense_0_0_bn (BatchNormalizatio (None, 16, 96, 96)   64          initial_conv2D[0][0]             
__________________________________________________________________________________________________
activation_422 (Activation)     (None, 16, 96, 96)   0           dense_0_0_bn[0][0]               
__________________________________________________________________________________________________
dense_0_0_bottleneck_conv2D (Co (None, 48, 96, 96)   768         activation_422[0][0]             
__________________________________________________________________________________________________
dense_0_0_bottleneck_bn (BatchN (None, 48, 96, 96)   192         dense_0_0_bottleneck_conv2D[0][0]
__________________________________________________________________________________________________
activation_423 (Activation)     (None, 48, 96, 96)   0           dense_0_0_bottleneck_bn[0][0]    
__________________________________________________________________________________________________
dense_0_0_conv2D (Conv2D)       (None, 12, 96, 96)   5184        activation_423[0][0]             
__________________________________________________________________________________________________
concatenate_170 (Concatenate)   (None, 28, 96, 96)   0           initial_conv2D[0][0]             
                                                                 dense_0_0_conv2D[0][0]           
__________________________________________________________________________________________________
dense_0_1_bn (BatchNormalizatio (None, 28, 96, 96)   112         concatenate_170[0][0]            
__________________________________________________________________________________________________
activation_424 (Activation)     (None, 28, 96, 96)   0           dense_0_1_bn[0][0]               
__________________________________________________________________________________________________
dense_0_1_bottleneck_conv2D (Co (None, 48, 96, 96)   1344        activation_424[0][0]             
__________________________________________________________________________________________________
dense_0_1_bottleneck_bn (BatchN (None, 48, 96, 96)   192         dense_0_1_bottleneck_conv2D[0][0]
__________________________________________________________________________________________________
activation_425 (Activation)     (None, 48, 96, 96)   0           dense_0_1_bottleneck_bn[0][0]    
__________________________________________________________________________________________________
dense_0_1_conv2D (Conv2D)       (None, 12, 96, 96)   5184        activation_425[0][0]             
__________________________________________________________________________________________________
concatenate_171 (Concatenate)   (None, 40, 96, 96)   0           concatenate_170[0][0]            
                                                                 dense_0_1_conv2D[0][0]           
__________________________________________________________________________________________________
final_bn (BatchNormalization)   (None, 40, 96, 96)   160         concatenate_171[0][0]            
__________________________________________________________________________________________________
activation_426 (Activation)     (None, 40, 96, 96)   0           final_bn[0][0]                   
__________________________________________________________________________________________________
global_average_pooling2d_42 (Gl (None, 40)           0           activation_426[0][0]             
__________________________________________________________________________________________________
dense_42 (Dense)                (None, 1)            41          global_average_pooling2d_42[0][0]
==================================================================================================
Total params: 13,529
Trainable params: 13,169
Non-trainable params: 360
__________________________________________________________________________________________________
Train on 39840 samples, validate on 7440 samples
Epoch 1/30
 - 60s - loss: 0.5981 - acc: 0.7230 - val_loss: 0.5111 - val_acc: 0.8069
…
7136/7440 [===========================>..] - ETA: 0s
7296/7440 [============================>.] - ETA: 0s
7440/7440 [==============================] - 18s 2ms/step
Best saved model Test accuracy: 0.8182795698924731
best saved model auc_score ------------------>  0.9027628555324315
__________________________________________________________________________________________________
Layer (type)                    Output Shape         Param #     Connected to                     
==================================================================================================
input_43 (InputLayer)           (None, 2, 96, 96)    0                                            
__________________________________________________________________________________________________
initial_conv2D (Conv2D)         (None, 16, 96, 96)   288         input_43[0][0]                   
__________________________________________________________________________________________________
dense_0_0_bn (BatchNormalizatio (None, 16, 96, 96)   64          initial_conv2D[0][0]             
__________________________________________________________________________________________________
activation_427 (Activation)     (None, 16, 96, 96)   0           dense_0_0_bn[0][0]               
__________________________________________________________________________________________________
dense_0_0_bottleneck_conv2D (Co (None, 48, 96, 96)   768         activation_427[0][0]             
__________________________________________________________________________________________________
dense_0_0_bottleneck_bn (BatchN (None, 48, 96, 96)   192         dense_0_0_bottleneck_conv2D[0][0]
__________________________________________________________________________________________________
activation_428 (Activation)     (None, 48, 96, 96)   0           dense_0_0_bottleneck_bn[0][0]    
__________________________________________________________________________________________________
dense_0_0_conv2D (Conv2D)       (None, 12, 96, 96)   5184        activation_428[0][0]             
__________________________________________________________________________________________________
concatenate_172 (Concatenate)   (None, 28, 96, 96)   0           initial_conv2D[0][0]             
                                                                 dense_0_0_conv2D[0][0]           
__________________________________________________________________________________________________
dense_0_1_bn (BatchNormalizatio (None, 28, 96, 96)   112         concatenate_172[0][0]            
__________________________________________________________________________________________________
activation_429 (Activation)     (None, 28, 96, 96)   0           dense_0_1_bn[0][0]               
__________________________________________________________________________________________________
dense_0_1_bottleneck_conv2D (Co (None, 48, 96, 96)   1344        activation_429[0][0]             
__________________________________________________________________________________________________
dense_0_1_bottleneck_bn (BatchN (None, 48, 96, 96)   192         dense_0_1_bottleneck_conv2D[0][0]
__________________________________________________________________________________________________
activation_430 (Activation)     (None, 48, 96, 96)   0           dense_0_1_bottleneck_bn[0][0]    
__________________________________________________________________________________________________
dense_0_1_conv2D (Conv2D)       (None, 12, 96, 96)   5184        activation_430[0][0]             
__________________________________________________________________________________________________
concatenate_173 (Concatenate)   (None, 40, 96, 96)   0           concatenate_172[0][0]            
                                                                 dense_0_1_conv2D[0][0]           
__________________________________________________________________________________________________
tr_0_bn (BatchNormalization)    (None, 40, 96, 96)   160         concatenate_173[0][0]            
__________________________________________________________________________________________________
activation_431 (Activation)     (None, 40, 96, 96)   0           tr_0_bn[0][0]                    
__________________________________________________________________________________________________
tr_0_conv2D (Conv2D)            (None, 20, 96, 96)   800         activation_431[0][0]             
__________________________________________________________________________________________________
average_pooling2d_43 (AveragePo (None, 20, 48, 48)   0           tr_0_conv2D[0][0]                
__________________________________________________________________________________________________
dense_1_0_bn (BatchNormalizatio (None, 20, 48, 48)   80          average_pooling2d_43[0][0]       
__________________________________________________________________________________________________
activation_432 (Activation)     (None, 20, 48, 48)   0           dense_1_0_bn[0][0]               
__________________________________________________________________________________________________
dense_1_0_bottleneck_conv2D (Co (None, 48, 48, 48)   960         activation_432[0][0]             
__________________________________________________________________________________________________
dense_1_0_bottleneck_bn (BatchN (None, 48, 48, 48)   192         dense_1_0_bottleneck_conv2D[0][0]
__________________________________________________________________________________________________
activation_433 (Activation)     (None, 48, 48, 48)   0           dense_1_0_bottleneck_bn[0][0]    
__________________________________________________________________________________________________
dense_1_0_conv2D (Conv2D)       (None, 12, 48, 48)   5184        activation_433[0][0]             
__________________________________________________________________________________________________
concatenate_174 (Concatenate)   (None, 32, 48, 48)   0           average_pooling2d_43[0][0]       
                                                                 dense_1_0_conv2D[0][0]           
__________________________________________________________________________________________________
dense_1_1_bn (BatchNormalizatio (None, 32, 48, 48)   128         concatenate_174[0][0]            
__________________________________________________________________________________________________
activation_434 (Activation)     (None, 32, 48, 48)   0           dense_1_1_bn[0][0]               
__________________________________________________________________________________________________
dense_1_1_bottleneck_conv2D (Co (None, 48, 48, 48)   1536        activation_434[0][0]             
__________________________________________________________________________________________________
dense_1_1_bottleneck_bn (BatchN (None, 48, 48, 48)   192         dense_1_1_bottleneck_conv2D[0][0]
__________________________________________________________________________________________________
activation_435 (Activation)     (None, 48, 48, 48)   0           dense_1_1_bottleneck_bn[0][0]    
__________________________________________________________________________________________________
dense_1_1_conv2D (Conv2D)       (None, 12, 48, 48)   5184        activation_435[0][0]             
__________________________________________________________________________________________________
concatenate_175 (Concatenate)   (None, 44, 48, 48)   0           concatenate_174[0][0]            
                                                                 dense_1_1_conv2D[0][0]           
__________________________________________________________________________________________________
tr_1_bn (BatchNormalization)    (None, 44, 48, 48)   176         concatenate_175[0][0]            
__________________________________________________________________________________________________
activation_436 (Activation)     (None, 44, 48, 48)   0           tr_1_bn[0][0]                    
__________________________________________________________________________________________________
tr_1_conv2D (Conv2D)            (None, 22, 48, 48)   968         activation_436[0][0]             
__________________________________________________________________________________________________
average_pooling2d_44 (AveragePo (None, 22, 24, 24)   0           tr_1_conv2D[0][0]                
__________________________________________________________________________________________________
dense_2_0_bn (BatchNormalizatio (None, 22, 24, 24)   88          average_pooling2d_44[0][0]       
__________________________________________________________________________________________________
activation_437 (Activation)     (None, 22, 24, 24)   0           dense_2_0_bn[0][0]               
__________________________________________________________________________________________________
dense_2_0_bottleneck_conv2D (Co (None, 48, 24, 24)   1056        activation_437[0][0]             
__________________________________________________________________________________________________
dense_2_0_bottleneck_bn (BatchN (None, 48, 24, 24)   192         dense_2_0_bottleneck_conv2D[0][0]
__________________________________________________________________________________________________
activation_438 (Activation)     (None, 48, 24, 24)   0           dense_2_0_bottleneck_bn[0][0]    
__________________________________________________________________________________________________
dense_2_0_conv2D (Conv2D)       (None, 12, 24, 24)   5184        activation_438[0][0]             
__________________________________________________________________________________________________
concatenate_176 (Concatenate)   (None, 34, 24, 24)   0           average_pooling2d_44[0][0]       
                                                                 dense_2_0_conv2D[0][0]           
__________________________________________________________________________________________________
dense_2_1_bn (BatchNormalizatio (None, 34, 24, 24)   136         concatenate_176[0][0]            
__________________________________________________________________________________________________
activation_439 (Activation)     (None, 34, 24, 24)   0           dense_2_1_bn[0][0]               
__________________________________________________________________________________________________
dense_2_1_bottleneck_conv2D (Co (None, 48, 24, 24)   1632        activation_439[0][0]             
__________________________________________________________________________________________________
dense_2_1_bottleneck_bn (BatchN (None, 48, 24, 24)   192         dense_2_1_bottleneck_conv2D[0][0]
__________________________________________________________________________________________________
activation_440 (Activation)     (None, 48, 24, 24)   0           dense_2_1_bottleneck_bn[0][0]    
__________________________________________________________________________________________________
dense_2_1_conv2D (Conv2D)       (None, 12, 24, 24)   5184        activation_440[0][0]             
__________________________________________________________________________________________________
concatenate_177 (Concatenate)   (None, 46, 24, 24)   0           concatenate_176[0][0]            
                                                                 dense_2_1_conv2D[0][0]           
__________________________________________________________________________________________________
final_bn (BatchNormalization)   (None, 46, 24, 24)   184         concatenate_177[0][0]            
__________________________________________________________________________________________________
activation_441 (Activation)     (None, 46, 24, 24)   0           final_bn[0][0]                   
__________________________________________________________________________________________________
global_average_pooling2d_43 (Gl (None, 46)           0           activation_441[0][0]             
__________________________________________________________________________________________________
dense_43 (Dense)                (None, 1)            47          global_average_pooling2d_43[0][0]
==================================================================================================
Total params: 42,783
Trainable params: 41,643
Non-trainable params: 1,140
__________________________________________________________________________________________________
Train on 39840 samples, validate on 7440 samples
Epoch 1/30
 - 71s - loss: 0.5435 - acc: 0.7723 - val_loss: 0.5322 - val_acc: 0.8020
…
