…
------------------------ current config for the test -------------------------
Layers:  [3, 4]  Growth_rate:  18  nb_filter:  16  dropout:  0.4
dense_block  2  reduction_:  0.7  bottleneck:  False
------------------------	  end of configs        -------------------------
pooling:flatten
__________________________________________________________________________________________________
Layer (type)                    Output Shape         Param #     Connected to                     
==================================================================================================
input_1 (InputLayer)            (None, 1, 96, 96)    0                                            
__________________________________________________________________________________________________
initial_conv2D (Conv2D)         (None, 16, 48, 48)   784         input_1[0][0]                    
__________________________________________________________________________________________________
initial_bn (BatchNormalization) (None, 16, 48, 48)   64          initial_conv2D[0][0]             
__________________________________________________________________________________________________
activation_1 (Activation)       (None, 16, 48, 48)   0           initial_bn[0][0]                 
__________________________________________________________________________________________________
max_pooling2d_1 (MaxPooling2D)  (None, 16, 24, 24)   0           activation_1[0][0]               
__________________________________________________________________________________________________
dense_0_0_bn (BatchNormalizatio (None, 16, 24, 24)   64          max_pooling2d_1[0][0]            
__________________________________________________________________________________________________
activation_2 (Activation)       (None, 16, 24, 24)   0           dense_0_0_bn[0][0]               
__________________________________________________________________________________________________
dense_0_0_conv2D (Conv2D)       (None, 18, 24, 24)   2592        activation_2[0][0]               
__________________________________________________________________________________________________
dropout_1 (Dropout)             (None, 18, 24, 24)   0           dense_0_0_conv2D[0][0]           
__________________________________________________________________________________________________
concatenate_1 (Concatenate)     (None, 34, 24, 24)   0           max_pooling2d_1[0][0]            
                                                                 dropout_1[0][0]                  
__________________________________________________________________________________________________
dense_0_1_bn (BatchNormalizatio (None, 34, 24, 24)   136         concatenate_1[0][0]              
__________________________________________________________________________________________________
activation_3 (Activation)       (None, 34, 24, 24)   0           dense_0_1_bn[0][0]               
__________________________________________________________________________________________________
dense_0_1_conv2D (Conv2D)       (None, 18, 24, 24)   5508        activation_3[0][0]               
__________________________________________________________________________________________________
dropout_2 (Dropout)             (None, 18, 24, 24)   0           dense_0_1_conv2D[0][0]           
__________________________________________________________________________________________________
concatenate_2 (Concatenate)     (None, 52, 24, 24)   0           concatenate_1[0][0]              
                                                                 dropout_2[0][0]                  
__________________________________________________________________________________________________
dense_0_2_bn (BatchNormalizatio (None, 52, 24, 24)   208         concatenate_2[0][0]              
__________________________________________________________________________________________________
activation_4 (Activation)       (None, 52, 24, 24)   0           dense_0_2_bn[0][0]               
__________________________________________________________________________________________________
dense_0_2_conv2D (Conv2D)       (None, 18, 24, 24)   8424        activation_4[0][0]               
__________________________________________________________________________________________________
dropout_3 (Dropout)             (None, 18, 24, 24)   0           dense_0_2_conv2D[0][0]           
__________________________________________________________________________________________________
concatenate_3 (Concatenate)     (None, 70, 24, 24)   0           concatenate_2[0][0]              
                                                                 dropout_3[0][0]                  
__________________________________________________________________________________________________
tr_0_bn (BatchNormalization)    (None, 70, 24, 24)   280         concatenate_3[0][0]              
__________________________________________________________________________________________________
activation_5 (Activation)       (None, 70, 24, 24)   0           tr_0_bn[0][0]                    
__________________________________________________________________________________________________
tr_0_conv2D (Conv2D)            (None, 21, 24, 24)   1470        activation_5[0][0]               
__________________________________________________________________________________________________
max_pooling2d_2 (MaxPooling2D)  (None, 21, 12, 12)   0           tr_0_conv2D[0][0]                
__________________________________________________________________________________________________
dense_1_0_bn (BatchNormalizatio (None, 21, 12, 12)   84          max_pooling2d_2[0][0]            
__________________________________________________________________________________________________
activation_6 (Activation)       (None, 21, 12, 12)   0           dense_1_0_bn[0][0]               
__________________________________________________________________________________________________
dense_1_0_conv2D (Conv2D)       (None, 18, 12, 12)   3402        activation_6[0][0]               
__________________________________________________________________________________________________
dropout_4 (Dropout)             (None, 18, 12, 12)   0           dense_1_0_conv2D[0][0]           
__________________________________________________________________________________________________
concatenate_4 (Concatenate)     (None, 39, 12, 12)   0           max_pooling2d_2[0][0]            
                                                                 dropout_4[0][0]                  
__________________________________________________________________________________________________
dense_1_1_bn (BatchNormalizatio (None, 39, 12, 12)   156         concatenate_4[0][0]              
__________________________________________________________________________________________________
activation_7 (Activation)       (None, 39, 12, 12)   0           dense_1_1_bn[0][0]               
__________________________________________________________________________________________________
dense_1_1_conv2D (Conv2D)       (None, 18, 12, 12)   6318        activation_7[0][0]               
__________________________________________________________________________________________________
dropout_5 (Dropout)             (None, 18, 12, 12)   0           dense_1_1_conv2D[0][0]           
__________________________________________________________________________________________________
concatenate_5 (Concatenate)     (None, 57, 12, 12)   0           concatenate_4[0][0]              
                                                                 dropout_5[0][0]                  
__________________________________________________________________________________________________
dense_1_2_bn (BatchNormalizatio (None, 57, 12, 12)   228         concatenate_5[0][0]              
__________________________________________________________________________________________________
activation_8 (Activation)       (None, 57, 12, 12)   0           dense_1_2_bn[0][0]               
__________________________________________________________________________________________________
dense_1_2_conv2D (Conv2D)       (None, 18, 12, 12)   9234        activation_8[0][0]               
__________________________________________________________________________________________________
dropout_6 (Dropout)             (None, 18, 12, 12)   0           dense_1_2_conv2D[0][0]           
__________________________________________________________________________________________________
concatenate_6 (Concatenate)     (None, 75, 12, 12)   0           concatenate_5[0][0]              
                                                                 dropout_6[0][0]                  
__________________________________________________________________________________________________
dense_1_3_bn (BatchNormalizatio (None, 75, 12, 12)   300         concatenate_6[0][0]              
__________________________________________________________________________________________________
activation_9 (Activation)       (None, 75, 12, 12)   0           dense_1_3_bn[0][0]               
__________________________________________________________________________________________________
dense_1_3_conv2D (Conv2D)       (None, 18, 12, 12)   12150       activation_9[0][0]               
__________________________________________________________________________________________________
dropout_7 (Dropout)             (None, 18, 12, 12)   0           dense_1_3_conv2D[0][0]           
__________________________________________________________________________________________________
concatenate_7 (Concatenate)     (None, 93, 12, 12)   0           concatenate_6[0][0]              
                                                                 dropout_7[0][0]                  
__________________________________________________________________________________________________
final_bn (BatchNormalization)   (None, 93, 12, 12)   372         concatenate_7[0][0]              
__________________________________________________________________________________________________
activation_10 (Activation)      (None, 93, 12, 12)   0           final_bn[0][0]                   
__________________________________________________________________________________________________
flatten_1 (Flatten)             (None, 13392)        0           activation_10[0][0]              
==================================================================================================
Total params: 51,774
Trainable params: 50,828
Non-trainable params: 946
__________________________________________________________________________________________________
__________________________________________________________________________________________________
Layer (type)                    Output Shape         Param #     Connected to                     
==================================================================================================
input_2 (InputLayer)            (None, 1, 96, 96)    0                                            
__________________________________________________________________________________________________
input_3 (InputLayer)            (None, 1, 96, 96)    0                                            
__________________________________________________________________________________________________
densenet (Model)                (None, 13392)        51774       input_2[0][0]                    
                                                                 input_3[0][0]                    
__________________________________________________________________________________________________
merge_features (Concatenate)    (None, 26784)        0           densenet[1][0]                   
                                                                 densenet[2][0]                   
__________________________________________________________________________________________________
dense_1 (Dense)                 (None, 512)          13713920    merge_features[0][0]             
__________________________________________________________________________________________________
activation_11 (Activation)      (None, 512)          0           dense_1[0][0]                    
__________________________________________________________________________________________________
batch_normalization_1 (BatchNor (None, 512)          2048        activation_11[0][0]              
__________________________________________________________________________________________________
dropout_8 (Dropout)             (None, 512)          0           batch_normalization_1[0][0]      
__________________________________________________________________________________________________
dense_2 (Dense)                 (None, 1)            513         dropout_8[0][0]                  
==================================================================================================
Total params: 13,768,255
Trainable params: 13,766,285
Non-trainable params: 1,970
__________________________________________________________________________________________________
Finished compiling
Train on 31872 samples, validate on 7968 samples
Epoch 1/13
…
------------------------ current config for the test -------------------------
Layers:  [3, 4]  Growth_rate:  30  nb_filter:  16  dropout:  0.4
dense_block  2  reduction_:  0.7  bottleneck:  False
------------------------	  end of configs        -------------------------
pooling:flatten
__________________________________________________________________________________________________
Layer (type)                    Output Shape         Param #     Connected to                     
==================================================================================================
input_1 (InputLayer)            (None, 1, 96, 96)    0                                            
__________________________________________________________________________________________________
initial_conv2D (Conv2D)         (None, 16, 48, 48)   784         input_1[0][0]                    
__________________________________________________________________________________________________
initial_bn (BatchNormalization) (None, 16, 48, 48)   64          initial_conv2D[0][0]             
__________________________________________________________________________________________________
activation_1 (Activation)       (None, 16, 48, 48)   0           initial_bn[0][0]                 
__________________________________________________________________________________________________
max_pooling2d_1 (MaxPooling2D)  (None, 16, 24, 24)   0           activation_1[0][0]               
__________________________________________________________________________________________________
dense_0_0_bn (BatchNormalizatio (None, 16, 24, 24)   64          max_pooling2d_1[0][0]            
__________________________________________________________________________________________________
activation_2 (Activation)       (None, 16, 24, 24)   0           dense_0_0_bn[0][0]               
__________________________________________________________________________________________________
dense_0_0_conv2D (Conv2D)       (None, 30, 24, 24)   4320        activation_2[0][0]               
__________________________________________________________________________________________________
dropout_1 (Dropout)             (None, 30, 24, 24)   0           dense_0_0_conv2D[0][0]           
__________________________________________________________________________________________________
concatenate_1 (Concatenate)     (None, 46, 24, 24)   0           max_pooling2d_1[0][0]            
                                                                 dropout_1[0][0]                  
__________________________________________________________________________________________________
dense_0_1_bn (BatchNormalizatio (None, 46, 24, 24)   184         concatenate_1[0][0]              
__________________________________________________________________________________________________
activation_3 (Activation)       (None, 46, 24, 24)   0           dense_0_1_bn[0][0]               
__________________________________________________________________________________________________
dense_0_1_conv2D (Conv2D)       (None, 30, 24, 24)   12420       activation_3[0][0]               
__________________________________________________________________________________________________
dropout_2 (Dropout)             (None, 30, 24, 24)   0           dense_0_1_conv2D[0][0]           
__________________________________________________________________________________________________
concatenate_2 (Concatenate)     (None, 76, 24, 24)   0           concatenate_1[0][0]              
                                                                 dropout_2[0][0]                  
__________________________________________________________________________________________________
dense_0_2_bn (BatchNormalizatio (None, 76, 24, 24)   304         concatenate_2[0][0]              
__________________________________________________________________________________________________
activation_4 (Activation)       (None, 76, 24, 24)   0           dense_0_2_bn[0][0]               
__________________________________________________________________________________________________
dense_0_2_conv2D (Conv2D)       (None, 30, 24, 24)   20520       activation_4[0][0]               
__________________________________________________________________________________________________
dropout_3 (Dropout)             (None, 30, 24, 24)   0           dense_0_2_conv2D[0][0]           
__________________________________________________________________________________________________
concatenate_3 (Concatenate)     (None, 106, 24, 24)  0           concatenate_2[0][0]              
                                                                 dropout_3[0][0]                  
__________________________________________________________________________________________________
tr_0_bn (BatchNormalization)    (None, 106, 24, 24)  424         concatenate_3[0][0]              
__________________________________________________________________________________________________
activation_5 (Activation)       (None, 106, 24, 24)  0           tr_0_bn[0][0]                    
__________________________________________________________________________________________________
tr_0_conv2D (Conv2D)            (None, 31, 24, 24)   3286        activation_5[0][0]               
__________________________________________________________________________________________________
max_pooling2d_2 (MaxPooling2D)  (None, 31, 12, 12)   0           tr_0_conv2D[0][0]                
__________________________________________________________________________________________________
dense_1_0_bn (BatchNormalizatio (None, 31, 12, 12)   124         max_pooling2d_2[0][0]            
__________________________________________________________________________________________________
activation_6 (Activation)       (None, 31, 12, 12)   0           dense_1_0_bn[0][0]               
__________________________________________________________________________________________________
dense_1_0_conv2D (Conv2D)       (None, 30, 12, 12)   8370        activation_6[0][0]               
__________________________________________________________________________________________________
dropout_4 (Dropout)             (None, 30, 12, 12)   0           dense_1_0_conv2D[0][0]           
__________________________________________________________________________________________________
concatenate_4 (Concatenate)     (None, 61, 12, 12)   0           max_pooling2d_2[0][0]            
                                                                 dropout_4[0][0]                  
__________________________________________________________________________________________________
dense_1_1_bn (BatchNormalizatio (None, 61, 12, 12)   244         concatenate_4[0][0]              
__________________________________________________________________________________________________
activation_7 (Activation)       (None, 61, 12, 12)   0           dense_1_1_bn[0][0]               
__________________________________________________________________________________________________
dense_1_1_conv2D (Conv2D)       (None, 30, 12, 12)   16470       activation_7[0][0]               
__________________________________________________________________________________________________
dropout_5 (Dropout)             (None, 30, 12, 12)   0           dense_1_1_conv2D[0][0]           
__________________________________________________________________________________________________
concatenate_5 (Concatenate)     (None, 91, 12, 12)   0           concatenate_4[0][0]              
                                                                 dropout_5[0][0]                  
__________________________________________________________________________________________________
dense_1_2_bn (BatchNormalizatio (None, 91, 12, 12)   364         concatenate_5[0][0]              
__________________________________________________________________________________________________
activation_8 (Activation)       (None, 91, 12, 12)   0           dense_1_2_bn[0][0]               
__________________________________________________________________________________________________
dense_1_2_conv2D (Conv2D)       (None, 30, 12, 12)   24570       activation_8[0][0]               
__________________________________________________________________________________________________
dropout_6 (Dropout)             (None, 30, 12, 12)   0           dense_1_2_conv2D[0][0]           
__________________________________________________________________________________________________
concatenate_6 (Concatenate)     (None, 121, 12, 12)  0           concatenate_5[0][0]              
                                                                 dropout_6[0][0]                  
__________________________________________________________________________________________________
dense_1_3_bn (BatchNormalizatio (None, 121, 12, 12)  484         concatenate_6[0][0]              
__________________________________________________________________________________________________
activation_9 (Activation)       (None, 121, 12, 12)  0           dense_1_3_bn[0][0]               
__________________________________________________________________________________________________
dense_1_3_conv2D (Conv2D)       (None, 30, 12, 12)   32670       activation_9[0][0]               
__________________________________________________________________________________________________
dropout_7 (Dropout)             (None, 30, 12, 12)   0           dense_1_3_conv2D[0][0]           
__________________________________________________________________________________________________
concatenate_7 (Concatenate)     (None, 151, 12, 12)  0           concatenate_6[0][0]              
                                                                 dropout_7[0][0]                  
__________________________________________________________________________________________________
final_bn (BatchNormalization)   (None, 151, 12, 12)  604         concatenate_7[0][0]              
__________________________________________________________________________________________________
activation_10 (Activation)      (None, 151, 12, 12)  0           final_bn[0][0]                   
__________________________________________________________________________________________________
flatten_1 (Flatten)             (None, 21744)        0           activation_10[0][0]              
==================================================================================================
Total params: 126,270
Trainable params: 124,840
Non-trainable params: 1,430
__________________________________________________________________________________________________
__________________________________________________________________________________________________
Layer (type)                    Output Shape         Param #     Connected to                     
==================================================================================================
input_2 (InputLayer)            (None, 1, 96, 96)    0                                            
__________________________________________________________________________________________________
input_3 (InputLayer)            (None, 1, 96, 96)    0                                            
__________________________________________________________________________________________________
densenet (Model)                (None, 21744)        126270      input_2[0][0]                    
                                                                 input_3[0][0]                    
__________________________________________________________________________________________________
merge_features (Concatenate)    (None, 43488)        0           densenet[1][0]                   
                                                                 densenet[2][0]                   
__________________________________________________________________________________________________
dense_1 (Dense)                 (None, 512)          22266368    merge_features[0][0]             
__________________________________________________________________________________________________
activation_11 (Activation)      (None, 512)          0           dense_1[0][0]                    
__________________________________________________________________________________________________
batch_normalization_1 (BatchNor (None, 512)          2048        activation_11[0][0]              
__________________________________________________________________________________________________
dropout_8 (Dropout)             (None, 512)          0           batch_normalization_1[0][0]      
__________________________________________________________________________________________________
dense_2 (Dense)                 (None, 1)            513         dropout_8[0][0]                  
==================================================================================================
Total params: 22,395,199
Trainable params: 22,392,745
Non-trainable params: 2,454
__________________________________________________________________________________________________
Finished compiling
Train on 31872 samples, validate on 7968 samples
Epoch 1/13
…
------------------------ current config for the test -------------------------
Layers:  [2, 2]  Growth_rate:  12  nb_filter:  16  dropout:  0.2
dense_block  2  reduction_:  0.3  bottleneck:  False
------------------------	  end of configs        -------------------------
pooling:flatten
__________________________________________________________________________________________________
Layer (type)                    Output Shape         Param #     Connected to                     
==================================================================================================
input_1 (InputLayer)            (None, 1, 96, 96)    0                                            
__________________________________________________________________________________________________
initial_conv2D (Conv2D)         (None, 16, 48, 48)   784         input_1[0][0]                    
__________________________________________________________________________________________________
initial_bn (BatchNormalization) (None, 16, 48, 48)   64          initial_conv2D[0][0]             
__________________________________________________________________________________________________
activation_1 (Activation)       (None, 16, 48, 48)   0           initial_bn[0][0]                 
__________________________________________________________________________________________________
max_pooling2d_1 (MaxPooling2D)  (None, 16, 24, 24)   0           activation_1[0][0]               
__________________________________________________________________________________________________
dense_0_0_bn (BatchNormalizatio (None, 16, 24, 24)   64          max_pooling2d_1[0][0]            
__________________________________________________________________________________________________
activation_2 (Activation)       (None, 16, 24, 24)   0           dense_0_0_bn[0][0]               
__________________________________________________________________________________________________
dense_0_0_conv2D (Conv2D)       (None, 12, 24, 24)   1728        activation_2[0][0]               
__________________________________________________________________________________________________
dropout_1 (Dropout)             (None, 12, 24, 24)   0           dense_0_0_conv2D[0][0]           
__________________________________________________________________________________________________
concatenate_1 (Concatenate)     (None, 28, 24, 24)   0           max_pooling2d_1[0][0]            
                                                                 dropout_1[0][0]                  
__________________________________________________________________________________________________
dense_0_1_bn (BatchNormalizatio (None, 28, 24, 24)   112         concatenate_1[0][0]              
__________________________________________________________________________________________________
activation_3 (Activation)       (None, 28, 24, 24)   0           dense_0_1_bn[0][0]               
__________________________________________________________________________________________________
dense_0_1_conv2D (Conv2D)       (None, 12, 24, 24)   3024        activation_3[0][0]               
__________________________________________________________________________________________________
dropout_2 (Dropout)             (None, 12, 24, 24)   0           dense_0_1_conv2D[0][0]           
__________________________________________________________________________________________________
concatenate_2 (Concatenate)     (None, 40, 24, 24)   0           concatenate_1[0][0]              
                                                                 dropout_2[0][0]                  
__________________________________________________________________________________________________
tr_0_bn (BatchNormalization)    (None, 40, 24, 24)   160         concatenate_2[0][0]              
__________________________________________________________________________________________________
activation_4 (Activation)       (None, 40, 24, 24)   0           tr_0_bn[0][0]                    
__________________________________________________________________________________________________
tr_0_conv2D (Conv2D)            (None, 28, 24, 24)   1120        activation_4[0][0]               
__________________________________________________________________________________________________
max_pooling2d_2 (MaxPooling2D)  (None, 28, 12, 12)   0           tr_0_conv2D[0][0]                
__________________________________________________________________________________________________
dense_1_0_bn (BatchNormalizatio (None, 28, 12, 12)   112         max_pooling2d_2[0][0]            
__________________________________________________________________________________________________
activation_5 (Activation)       (None, 28, 12, 12)   0           dense_1_0_bn[0][0]               
__________________________________________________________________________________________________
dense_1_0_conv2D (Conv2D)       (None, 12, 12, 12)   3024        activation_5[0][0]               
__________________________________________________________________________________________________
dropout_3 (Dropout)             (None, 12, 12, 12)   0           dense_1_0_conv2D[0][0]           
__________________________________________________________________________________________________
concatenate_3 (Concatenate)     (None, 40, 12, 12)   0           max_pooling2d_2[0][0]            
                                                                 dropout_3[0][0]                  
__________________________________________________________________________________________________
dense_1_1_bn (BatchNormalizatio (None, 40, 12, 12)   160         concatenate_3[0][0]              
__________________________________________________________________________________________________
activation_6 (Activation)       (None, 40, 12, 12)   0           dense_1_1_bn[0][0]               
__________________________________________________________________________________________________
dense_1_1_conv2D (Conv2D)       (None, 12, 12, 12)   4320        activation_6[0][0]               
__________________________________________________________________________________________________
dropout_4 (Dropout)             (None, 12, 12, 12)   0           dense_1_1_conv2D[0][0]           
__________________________________________________________________________________________________
concatenate_4 (Concatenate)     (None, 52, 12, 12)   0           concatenate_3[0][0]              
                                                                 dropout_4[0][0]                  
__________________________________________________________________________________________________
final_bn (BatchNormalization)   (None, 52, 12, 12)   208         concatenate_4[0][0]              
__________________________________________________________________________________________________
activation_7 (Activation)       (None, 52, 12, 12)   0           final_bn[0][0]                   
__________________________________________________________________________________________________
flatten_1 (Flatten)             (None, 7488)         0           activation_7[0][0]               
==================================================================================================
Total params: 14,880
Trainable params: 14,440
Non-trainable params: 440
__________________________________________________________________________________________________
__________________________________________________________________________________________________
Layer (type)                    Output Shape         Param #     Connected to                     
==================================================================================================
input_2 (InputLayer)            (None, 1, 96, 96)    0                                            
__________________________________________________________________________________________________
input_3 (InputLayer)            (None, 1, 96, 96)    0                                            
__________________________________________________________________________________________________
densenet (Model)                (None, 7488)         14880       input_2[0][0]                    
                                                                 input_3[0][0]                    
__________________________________________________________________________________________________
merge_features (Concatenate)    (None, 14976)        0           densenet[1][0]                   
                                                                 densenet[2][0]                   
__________________________________________________________________________________________________
dense_1 (Dense)                 (None, 512)          7668224     merge_features[0][0]             
__________________________________________________________________________________________________
activation_8 (Activation)       (None, 512)          0           dense_1[0][0]                    
__________________________________________________________________________________________________
batch_normalization_1 (BatchNor (None, 512)          2048        activation_8[0][0]               
__________________________________________________________________________________________________
dropout_5 (Dropout)             (None, 512)          0           batch_normalization_1[0][0]      
__________________________________________________________________________________________________
dense_2 (Dense)                 (None, 1)            513         dropout_5[0][0]                  
==================================================================================================
Total params: 7,685,665
Trainable params: 7,684,201
Non-trainable params: 1,464
__________________________________________________________________________________________________
Finished compiling
Train on 31872 samples, validate on 7968 samples
Epoch 1/12
 - 22s - loss: 0.6100 - acc: 0.7511 - val_loss: 0.3177 - val_acc: 0.8712
…
------------------------ current config for the test -------------------------
Layers:  [2, 2]  Growth_rate:  18  nb_filter:  16  dropout:  0.2
dense_block  2  reduction_:  0.3  bottleneck:  False
------------------------	  end of configs        -------------------------
pooling:flatten
__________________________________________________________________________________________________
Layer (type)                    Output Shape         Param #     Connected to                     
==================================================================================================
input_1 (InputLayer)            (None, 1, 96, 96)    0                                            
__________________________________________________________________________________________________
initial_conv2D (Conv2D)         (None, 16, 48, 48)   784         input_1[0][0]                    
__________________________________________________________________________________________________
initial_bn (BatchNormalization) (None, 16, 48, 48)   64          initial_conv2D[0][0]             
__________________________________________________________________________________________________
activation_1 (Activation)       (None, 16, 48, 48)   0           initial_bn[0][0]                 
__________________________________________________________________________________________________
max_pooling2d_1 (MaxPooling2D)  (None, 16, 24, 24)   0           activation_1[0][0]               
__________________________________________________________________________________________________
dense_0_0_bn (BatchNormalizatio (None, 16, 24, 24)   64          max_pooling2d_1[0][0]            
__________________________________________________________________________________________________
activation_2 (Activation)       (None, 16, 24, 24)   0           dense_0_0_bn[0][0]               
__________________________________________________________________________________________________
dense_0_0_conv2D (Conv2D)       (None, 18, 24, 24)   2592        activation_2[0][0]               
__________________________________________________________________________________________________
dropout_1 (Dropout)             (None, 18, 24, 24)   0           dense_0_0_conv2D[0][0]           
__________________________________________________________________________________________________
concatenate_1 (Concatenate)     (None, 34, 24, 24)   0           max_pooling2d_1[0][0]            
                                                                 dropout_1[0][0]                  
__________________________________________________________________________________________________
dense_0_1_bn (BatchNormalizatio (None, 34, 24, 24)   136         concatenate_1[0][0]              
__________________________________________________________________________________________________
activation_3 (Activation)       (None, 34, 24, 24)   0           dense_0_1_bn[0][0]               
__________________________________________________________________________________________________
dense_0_1_conv2D (Conv2D)       (None, 18, 24, 24)   5508        activation_3[0][0]               
__________________________________________________________________________________________________
dropout_2 (Dropout)             (None, 18, 24, 24)   0           dense_0_1_conv2D[0][0]           
__________________________________________________________________________________________________
concatenate_2 (Concatenate)     (None, 52, 24, 24)   0           concatenate_1[0][0]              
                                                                 dropout_2[0][0]                  
__________________________________________________________________________________________________
tr_0_bn (BatchNormalization)    (None, 52, 24, 24)   208         concatenate_2[0][0]              
__________________________________________________________________________________________________
activation_4 (Activation)       (None, 52, 24, 24)   0           tr_0_bn[0][0]                    
__________________________________________________________________________________________________
tr_0_conv2D (Conv2D)            (None, 36, 24, 24)   1872        activation_4[0][0]               
__________________________________________________________________________________________________
max_pooling2d_2 (MaxPooling2D)  (None, 36, 12, 12)   0           tr_0_conv2D[0][0]                
__________________________________________________________________________________________________
dense_1_0_bn (BatchNormalizatio (None, 36, 12, 12)   144         max_pooling2d_2[0][0]            
__________________________________________________________________________________________________
activation_5 (Activation)       (None, 36, 12, 12)   0           dense_1_0_bn[0][0]               
__________________________________________________________________________________________________
dense_1_0_conv2D (Conv2D)       (None, 18, 12, 12)   5832        activation_5[0][0]               
__________________________________________________________________________________________________
dropout_3 (Dropout)             (None, 18, 12, 12)   0           dense_1_0_conv2D[0][0]           
__________________________________________________________________________________________________
concatenate_3 (Concatenate)     (None, 54, 12, 12)   0           max_pooling2d_2[0][0]            
                                                                 dropout_3[0][0]                  
__________________________________________________________________________________________________
dense_1_1_bn (BatchNormalizatio (None, 54, 12, 12)   216         concatenate_3[0][0]              
__________________________________________________________________________________________________
activation_6 (Activation)       (None, 54, 12, 12)   0           dense_1_1_bn[0][0]               
__________________________________________________________________________________________________
dense_1_1_conv2D (Conv2D)       (None, 18, 12, 12)   8748        activation_6[0][0]               
__________________________________________________________________________________________________
dropout_4 (Dropout)             (None, 18, 12, 12)   0           dense_1_1_conv2D[0][0]           
__________________________________________________________________________________________________
concatenate_4 (Concatenate)     (None, 72, 12, 12)   0           concatenate_3[0][0]              
                                                                 dropout_4[0][0]                  
__________________________________________________________________________________________________
final_bn (BatchNormalization)   (None, 72, 12, 12)   288         concatenate_4[0][0]              
__________________________________________________________________________________________________
activation_7 (Activation)       (None, 72, 12, 12)   0           final_bn[0][0]                   
__________________________________________________________________________________________________
flatten_1 (Flatten)             (None, 10368)        0           activation_7[0][0]               
==================================================================================================
Total params: 26,456
Trainable params: 25,896
Non-trainable params: 560
__________________________________________________________________________________________________
__________________________________________________________________________________________________
Layer (type)                    Output Shape         Param #     Connected to                     
==================================================================================================
input_2 (InputLayer)            (None, 1, 96, 96)    0                                            
__________________________________________________________________________________________________
input_3 (InputLayer)            (None, 1, 96, 96)    0                                            
__________________________________________________________________________________________________
densenet (Model)                (None, 10368)        26456       input_2[0][0]                    
                                                                 input_3[0][0]                    
__________________________________________________________________________________________________
merge_features (Concatenate)    (None, 20736)        0           densenet[1][0]                   
                                                                 densenet[2][0]                   
__________________________________________________________________________________________________
dense_1 (Dense)                 (None, 512)          10617344    merge_features[0][0]             
__________________________________________________________________________________________________
activation_8 (Activation)       (None, 512)          0           dense_1[0][0]                    
__________________________________________________________________________________________________
batch_normalization_1 (BatchNor (None, 512)          2048        activation_8[0][0]               
__________________________________________________________________________________________________
dropout_5 (Dropout)             (None, 512)          0           batch_normalization_1[0][0]      
__________________________________________________________________________________________________
dense_2 (Dense)                 (None, 1)            513         dropout_5[0][0]                  
==================================================================================================
Total params: 10,646,361
Trainable params: 10,644,777
Non-trainable params: 1,584
__________________________________________________________________________________________________
Finished compiling
Train on 31872 samples, validate on 7968 samples
Epoch 1/12
…
------------------------ current config for the test -------------------------
Layers:  [2, 2]  Growth_rate:  30  nb_filter:  16  dropout:  0.2
dense_block  2  reduction_:  0.3  bottleneck:  False
------------------------	  end of configs        -------------------------
pooling:flatten
__________________________________________________________________________________________________
Layer (type)                    Output Shape         Param #     Connected to                     
==================================================================================================
input_1 (InputLayer)            (None, 1, 96, 96)    0                                            
__________________________________________________________________________________________________
initial_conv2D (Conv2D)         (None, 16, 48, 48)   784         input_1[0][0]                    
__________________________________________________________________________________________________
initial_bn (BatchNormalization) (None, 16, 48, 48)   64          initial_conv2D[0][0]             
__________________________________________________________________________________________________
activation_1 (Activation)       (None, 16, 48, 48)   0           initial_bn[0][0]                 
__________________________________________________________________________________________________
max_pooling2d_1 (MaxPooling2D)  (None, 16, 24, 24)   0           activation_1[0][0]               
__________________________________________________________________________________________________
dense_0_0_bn (BatchNormalizatio (None, 16, 24, 24)   64          max_pooling2d_1[0][0]            
__________________________________________________________________________________________________
activation_2 (Activation)       (None, 16, 24, 24)   0           dense_0_0_bn[0][0]               
__________________________________________________________________________________________________
dense_0_0_conv2D (Conv2D)       (None, 30, 24, 24)   4320        activation_2[0][0]               
__________________________________________________________________________________________________
dropout_1 (Dropout)             (None, 30, 24, 24)   0           dense_0_0_conv2D[0][0]           
__________________________________________________________________________________________________
concatenate_1 (Concatenate)     (None, 46, 24, 24)   0           max_pooling2d_1[0][0]            
                                                                 dropout_1[0][0]                  
__________________________________________________________________________________________________
dense_0_1_bn (BatchNormalizatio (None, 46, 24, 24)   184         concatenate_1[0][0]              
__________________________________________________________________________________________________
activation_3 (Activation)       (None, 46, 24, 24)   0           dense_0_1_bn[0][0]               
__________________________________________________________________________________________________
dense_0_1_conv2D (Conv2D)       (None, 30, 24, 24)   12420       activation_3[0][0]               
__________________________________________________________________________________________________
dropout_2 (Dropout)             (None, 30, 24, 24)   0           dense_0_1_conv2D[0][0]           
__________________________________________________________________________________________________
concatenate_2 (Concatenate)     (None, 76, 24, 24)   0           concatenate_1[0][0]              
                                                                 dropout_2[0][0]                  
__________________________________________________________________________________________________
tr_0_bn (BatchNormalization)    (None, 76, 24, 24)   304         concatenate_2[0][0]              
__________________________________________________________________________________________________
activation_4 (Activation)       (None, 76, 24, 24)   0           tr_0_bn[0][0]                    
__________________________________________________________________________________________________
tr_0_conv2D (Conv2D)            (None, 53, 24, 24)   4028        activation_4[0][0]               
__________________________________________________________________________________________________
max_pooling2d_2 (MaxPooling2D)  (None, 53, 12, 12)   0           tr_0_conv2D[0][0]                
__________________________________________________________________________________________________
dense_1_0_bn (BatchNormalizatio (None, 53, 12, 12)   212         max_pooling2d_2[0][0]            
__________________________________________________________________________________________________
activation_5 (Activation)       (None, 53, 12, 12)   0           dense_1_0_bn[0][0]               
__________________________________________________________________________________________________
dense_1_0_conv2D (Conv2D)       (None, 30, 12, 12)   14310       activation_5[0][0]               
__________________________________________________________________________________________________
dropout_3 (Dropout)             (None, 30, 12, 12)   0           dense_1_0_conv2D[0][0]           
__________________________________________________________________________________________________
concatenate_3 (Concatenate)     (None, 83, 12, 12)   0           max_pooling2d_2[0][0]            
                                                                 dropout_3[0][0]                  
__________________________________________________________________________________________________
dense_1_1_bn (BatchNormalizatio (None, 83, 12, 12)   332         concatenate_3[0][0]              
__________________________________________________________________________________________________
activation_6 (Activation)       (None, 83, 12, 12)   0           dense_1_1_bn[0][0]               
__________________________________________________________________________________________________
dense_1_1_conv2D (Conv2D)       (None, 30, 12, 12)   22410       activation_6[0][0]               
__________________________________________________________________________________________________
dropout_4 (Dropout)             (None, 30, 12, 12)   0           dense_1_1_conv2D[0][0]           
__________________________________________________________________________________________________
concatenate_4 (Concatenate)     (None, 113, 12, 12)  0           concatenate_3[0][0]              
                                                                 dropout_4[0][0]                  
__________________________________________________________________________________________________
final_bn (BatchNormalization)   (None, 113, 12, 12)  452         concatenate_4[0][0]              
__________________________________________________________________________________________________
activation_7 (Activation)       (None, 113, 12, 12)  0           final_bn[0][0]                   
__________________________________________________________________________________________________
flatten_1 (Flatten)             (None, 16272)        0           activation_7[0][0]               
==================================================================================================
Total params: 59,884
Trainable params: 59,078
Non-trainable params: 806
__________________________________________________________________________________________________
__________________________________________________________________________________________________
Layer (type)                    Output Shape         Param #     Connected to                     
==================================================================================================
input_2 (InputLayer)            (None, 1, 96, 96)    0                                            
__________________________________________________________________________________________________
input_3 (InputLayer)            (None, 1, 96, 96)    0                                            
__________________________________________________________________________________________________
densenet (Model)                (None, 16272)        59884       input_2[0][0]                    
                                                                 input_3[0][0]                    
__________________________________________________________________________________________________
merge_features (Concatenate)    (None, 32544)        0           densenet[1][0]                   
                                                                 densenet[2][0]                   
__________________________________________________________________________________________________
dense_1 (Dense)                 (None, 512)          16663040    merge_features[0][0]             
__________________________________________________________________________________________________
activation_8 (Activation)       (None, 512)          0           dense_1[0][0]                    
__________________________________________________________________________________________________
batch_normalization_1 (BatchNor (None, 512)          2048        activation_8[0][0]               
__________________________________________________________________________________________________
dropout_5 (Dropout)             (None, 512)          0           batch_normalization_1[0][0]      
__________________________________________________________________________________________________
dense_2 (Dense)                 (None, 1)            513         dropout_5[0][0]                  
==================================================================================================
Total params: 16,725,485
Trainable params: 16,723,655
Non-trainable params: 1,830
__________________________________________________________________________________________________
Finished compiling
Train on 31872 samples, validate on 7968 samples
Epoch 1/12
…
------------------------ current config for the test -------------------------
Layers:  [2, 2]  Growth_rate:  12  nb_filter:  16  dropout:  0.2
dense_block  2  reduction_:  0.7  bottleneck:  False
------------------------	  end of configs        -------------------------
pooling:flatten
__________________________________________________________________________________________________
Layer (type)                    Output Shape         Param #     Connected to                     
==================================================================================================
input_1 (InputLayer)            (None, 1, 96, 96)    0                                            
__________________________________________________________________________________________________
initial_conv2D (Conv2D)         (None, 16, 48, 48)   784         input_1[0][0]                    
__________________________________________________________________________________________________
initial_bn (BatchNormalization) (None, 16, 48, 48)   64          initial_conv2D[0][0]             
__________________________________________________________________________________________________
activation_1 (Activation)       (None, 16, 48, 48)   0           initial_bn[0][0]                 
__________________________________________________________________________________________________
max_pooling2d_1 (MaxPooling2D)  (None, 16, 24, 24)   0           activation_1[0][0]               
__________________________________________________________________________________________________
dense_0_0_bn (BatchNormalizatio (None, 16, 24, 24)   64          max_pooling2d_1[0][0]            
__________________________________________________________________________________________________
activation_2 (Activation)       (None, 16, 24, 24)   0           dense_0_0_bn[0][0]               
__________________________________________________________________________________________________
dense_0_0_conv2D (Conv2D)       (None, 12, 24, 24)   1728        activation_2[0][0]               
__________________________________________________________________________________________________
dropout_1 (Dropout)             (None, 12, 24, 24)   0           dense_0_0_conv2D[0][0]           
__________________________________________________________________________________________________
concatenate_1 (Concatenate)     (None, 28, 24, 24)   0           max_pooling2d_1[0][0]            
                                                                 dropout_1[0][0]                  
__________________________________________________________________________________________________
dense_0_1_bn (BatchNormalizatio (None, 28, 24, 24)   112         concatenate_1[0][0]              
__________________________________________________________________________________________________
activation_3 (Activation)       (None, 28, 24, 24)   0           dense_0_1_bn[0][0]               
__________________________________________________________________________________________________
dense_0_1_conv2D (Conv2D)       (None, 12, 24, 24)   3024        activation_3[0][0]               
__________________________________________________________________________________________________
dropout_2 (Dropout)             (None, 12, 24, 24)   0           dense_0_1_conv2D[0][0]           
__________________________________________________________________________________________________
concatenate_2 (Concatenate)     (None, 40, 24, 24)   0           concatenate_1[0][0]              
                                                                 dropout_2[0][0]                  
__________________________________________________________________________________________________
tr_0_bn (BatchNormalization)    (None, 40, 24, 24)   160         concatenate_2[0][0]              
__________________________________________________________________________________________________
activation_4 (Activation)       (None, 40, 24, 24)   0           tr_0_bn[0][0]                    
__________________________________________________________________________________________________
tr_0_conv2D (Conv2D)            (None, 12, 24, 24)   480         activation_4[0][0]               
__________________________________________________________________________________________________
max_pooling2d_2 (MaxPooling2D)  (None, 12, 12, 12)   0           tr_0_conv2D[0][0]                
__________________________________________________________________________________________________
dense_1_0_bn (BatchNormalizatio (None, 12, 12, 12)   48          max_pooling2d_2[0][0]            
__________________________________________________________________________________________________
activation_5 (Activation)       (None, 12, 12, 12)   0           dense_1_0_bn[0][0]               
__________________________________________________________________________________________________
dense_1_0_conv2D (Conv2D)       (None, 12, 12, 12)   1296        activation_5[0][0]               
__________________________________________________________________________________________________
dropout_3 (Dropout)             (None, 12, 12, 12)   0           dense_1_0_conv2D[0][0]           
__________________________________________________________________________________________________
concatenate_3 (Concatenate)     (None, 24, 12, 12)   0           max_pooling2d_2[0][0]            
                                                                 dropout_3[0][0]                  
__________________________________________________________________________________________________
dense_1_1_bn (BatchNormalizatio (None, 24, 12, 12)   96          concatenate_3[0][0]              
__________________________________________________________________________________________________
activation_6 (Activation)       (None, 24, 12, 12)   0           dense_1_1_bn[0][0]               
__________________________________________________________________________________________________
dense_1_1_conv2D (Conv2D)       (None, 12, 12, 12)   2592        activation_6[0][0]               
__________________________________________________________________________________________________
dropout_4 (Dropout)             (None, 12, 12, 12)   0           dense_1_1_conv2D[0][0]           
__________________________________________________________________________________________________
concatenate_4 (Concatenate)     (None, 36, 12, 12)   0           concatenate_3[0][0]              
                                                                 dropout_4[0][0]                  
__________________________________________________________________________________________________
final_bn (BatchNormalization)   (None, 36, 12, 12)   144         concatenate_4[0][0]              
__________________________________________________________________________________________________
activation_7 (Activation)       (None, 36, 12, 12)   0           final_bn[0][0]                   
__________________________________________________________________________________________________
flatten_1 (Flatten)             (None, 5184)         0           activation_7[0][0]               
==================================================================================================
Total params: 10,592
Trainable params: 10,248
Non-trainable params: 344
__________________________________________________________________________________________________
__________________________________________________________________________________________________
Layer (type)                    Output Shape         Param #     Connected to                     
==================================================================================================
input_2 (InputLayer)            (None, 1, 96, 96)    0                                            
__________________________________________________________________________________________________
input_3 (InputLayer)            (None, 1, 96, 96)    0                                            
__________________________________________________________________________________________________
densenet (Model)                (None, 5184)         10592       input_2[0][0]                    
                                                                 input_3[0][0]                    
__________________________________________________________________________________________________
merge_features (Concatenate)    (None, 10368)        0           densenet[1][0]                   
                                                                 densenet[2][0]                   
__________________________________________________________________________________________________
dense_1 (Dense)                 (None, 512)          5308928     merge_features[0][0]             
__________________________________________________________________________________________________
activation_8 (Activation)       (None, 512)          0           dense_1[0][0]                    
__________________________________________________________________________________________________
batch_normalization_1 (BatchNor (None, 512)          2048        activation_8[0][0]               
__________________________________________________________________________________________________
dropout_5 (Dropout)             (None, 512)          0           batch_normalization_1[0][0]      
__________________________________________________________________________________________________
dense_2 (Dense)                 (None, 1)            513         dropout_5[0][0]                  
==================================================================================================
Total params: 5,322,081
Trainable params: 5,320,713
Non-trainable params: 1,368
__________________________________________________________________________________________________
Finished compiling
Train on 31872 samples, validate on 7968 samples
Epoch 1/13
 - 21s - loss: 0.6125 - acc: 0.7439 - val_loss: 0.3019 - val_acc: 0.8754
…
------------------------ current config for the test -------------------------
Layers:  [2, 2]  Growth_rate:  18  nb_filter:  16  dropout:  0.2
dense_block  2  reduction_:  0.7  bottleneck:  False
------------------------	  end of configs        -------------------------
pooling:flatten
__________________________________________________________________________________________________
Layer (type)                    Output Shape         Param #     Connected to                     
==================================================================================================
input_1 (InputLayer)            (None, 1, 96, 96)    0                                            
__________________________________________________________________________________________________
initial_conv2D (Conv2D)         (None, 16, 48, 48)   784         input_1[0][0]                    
__________________________________________________________________________________________________
initial_bn (BatchNormalization) (None, 16, 48, 48)   64          initial_conv2D[0][0]             
__________________________________________________________________________________________________
activation_1 (Activation)       (None, 16, 48, 48)   0           initial_bn[0][0]                 
__________________________________________________________________________________________________
max_pooling2d_1 (MaxPooling2D)  (None, 16, 24, 24)   0           activation_1[0][0]               
__________________________________________________________________________________________________
dense_0_0_bn (BatchNormalizatio (None, 16, 24, 24)   64          max_pooling2d_1[0][0]            
__________________________________________________________________________________________________
activation_2 (Activation)       (None, 16, 24, 24)   0           dense_0_0_bn[0][0]               
__________________________________________________________________________________________________
dense_0_0_conv2D (Conv2D)       (None, 18, 24, 24)   2592        activation_2[0][0]               
__________________________________________________________________________________________________
dropout_1 (Dropout)             (None, 18, 24, 24)   0           dense_0_0_conv2D[0][0]           
__________________________________________________________________________________________________
concatenate_1 (Concatenate)     (None, 34, 24, 24)   0           max_pooling2d_1[0][0]            
                                                                 dropout_1[0][0]                  
__________________________________________________________________________________________________
dense_0_1_bn (BatchNormalizatio (None, 34, 24, 24)   136         concatenate_1[0][0]              
__________________________________________________________________________________________________
activation_3 (Activation)       (None, 34, 24, 24)   0           dense_0_1_bn[0][0]               
__________________________________________________________________________________________________
dense_0_1_conv2D (Conv2D)       (None, 18, 24, 24)   5508        activation_3[0][0]               
__________________________________________________________________________________________________
dropout_2 (Dropout)             (None, 18, 24, 24)   0           dense_0_1_conv2D[0][0]           
__________________________________________________________________________________________________
concatenate_2 (Concatenate)     (None, 52, 24, 24)   0           concatenate_1[0][0]              
                                                                 dropout_2[0][0]                  
__________________________________________________________________________________________________
tr_0_bn (BatchNormalization)    (None, 52, 24, 24)   208         concatenate_2[0][0]              
__________________________________________________________________________________________________
activation_4 (Activation)       (None, 52, 24, 24)   0           tr_0_bn[0][0]                    
__________________________________________________________________________________________________
tr_0_conv2D (Conv2D)            (None, 15, 24, 24)   780         activation_4[0][0]               
__________________________________________________________________________________________________
max_pooling2d_2 (MaxPooling2D)  (None, 15, 12, 12)   0           tr_0_conv2D[0][0]                
__________________________________________________________________________________________________
dense_1_0_bn (BatchNormalizatio (None, 15, 12, 12)   60          max_pooling2d_2[0][0]            
__________________________________________________________________________________________________
activation_5 (Activation)       (None, 15, 12, 12)   0           dense_1_0_bn[0][0]               
__________________________________________________________________________________________________
dense_1_0_conv2D (Conv2D)       (None, 18, 12, 12)   2430        activation_5[0][0]               
__________________________________________________________________________________________________
dropout_3 (Dropout)             (None, 18, 12, 12)   0           dense_1_0_conv2D[0][0]           
__________________________________________________________________________________________________
concatenate_3 (Concatenate)     (None, 33, 12, 12)   0           max_pooling2d_2[0][0]            
                                                                 dropout_3[0][0]                  
__________________________________________________________________________________________________
dense_1_1_bn (BatchNormalizatio (None, 33, 12, 12)   132         concatenate_3[0][0]              
__________________________________________________________________________________________________
activation_6 (Activation)       (None, 33, 12, 12)   0           dense_1_1_bn[0][0]               
__________________________________________________________________________________________________
dense_1_1_conv2D (Conv2D)       (None, 18, 12, 12)   5346        activation_6[0][0]               
__________________________________________________________________________________________________
dropout_4 (Dropout)             (None, 18, 12, 12)   0           dense_1_1_conv2D[0][0]           
__________________________________________________________________________________________________
concatenate_4 (Concatenate)     (None, 51, 12, 12)   0           concatenate_3[0][0]              
                                                                 dropout_4[0][0]                  
__________________________________________________________________________________________________
final_bn (BatchNormalization)   (None, 51, 12, 12)   204         concatenate_4[0][0]              
__________________________________________________________________________________________________
activation_7 (Activation)       (None, 51, 12, 12)   0           final_bn[0][0]                   
__________________________________________________________________________________________________
flatten_1 (Flatten)             (None, 7344)         0           activation_7[0][0]               
==================================================================================================
Total params: 18,308
Trainable params: 17,874
Non-trainable params: 434
__________________________________________________________________________________________________
__________________________________________________________________________________________________
Layer (type)                    Output Shape         Param #     Connected to                     
==================================================================================================
input_2 (InputLayer)            (None, 1, 96, 96)    0                                            
__________________________________________________________________________________________________
input_3 (InputLayer)            (None, 1, 96, 96)    0                                            
__________________________________________________________________________________________________
densenet (Model)                (None, 7344)         18308       input_2[0][0]                    
                                                                 input_3[0][0]                    
__________________________________________________________________________________________________
merge_features (Concatenate)    (None, 14688)        0           densenet[1][0]                   
                                                                 densenet[2][0]                   
__________________________________________________________________________________________________
dense_1 (Dense)                 (None, 512)          7520768     merge_features[0][0]             
__________________________________________________________________________________________________
activation_8 (Activation)       (None, 512)          0           dense_1[0][0]                    
__________________________________________________________________________________________________
batch_normalization_1 (BatchNor (None, 512)          2048        activation_8[0][0]               
__________________________________________________________________________________________________
dropout_5 (Dropout)             (None, 512)          0           batch_normalization_1[0][0]      
__________________________________________________________________________________________________
dense_2 (Dense)                 (None, 1)            513         dropout_5[0][0]                  
==================================================================================================
Total params: 7,541,637
Trainable params: 7,540,179
Non-trainable params: 1,458
__________________________________________________________________________________________________
Finished compiling
Train on 31872 samples, validate on 7968 samples
Epoch 1/13
 - 21s - loss: 0.6096 - acc: 0.7454 - val_loss: 0.3032 - val_acc: 0.8765
…
------------------------ current config for the test -------------------------
Layers:  [2, 2]  Growth_rate:  30  nb_filter:  16  dropout:  0.2
dense_block  2  reduction_:  0.7  bottleneck:  False
------------------------	  end of configs        -------------------------
pooling:flatten
__________________________________________________________________________________________________
Layer (type)                    Output Shape         Param #     Connected to                     
==================================================================================================
input_1 (InputLayer)            (None, 1, 96, 96)    0                                            
__________________________________________________________________________________________________
initial_conv2D (Conv2D)         (None, 16, 48, 48)   784         input_1[0][0]                    
__________________________________________________________________________________________________
initial_bn (BatchNormalization) (None, 16, 48, 48)   64          initial_conv2D[0][0]             
__________________________________________________________________________________________________
activation_1 (Activation)       (None, 16, 48, 48)   0           initial_bn[0][0]                 
__________________________________________________________________________________________________
max_pooling2d_1 (MaxPooling2D)  (None, 16, 24, 24)   0           activation_1[0][0]               
__________________________________________________________________________________________________
dense_0_0_bn (BatchNormalizatio (None, 16, 24, 24)   64          max_pooling2d_1[0][0]            
__________________________________________________________________________________________________
activation_2 (Activation)       (None, 16, 24, 24)   0           dense_0_0_bn[0][0]               
__________________________________________________________________________________________________
dense_0_0_conv2D (Conv2D)       (None, 30, 24, 24)   4320        activation_2[0][0]               
__________________________________________________________________________________________________
dropout_1 (Dropout)             (None, 30, 24, 24)   0           dense_0_0_conv2D[0][0]           
__________________________________________________________________________________________________
concatenate_1 (Concatenate)     (None, 46, 24, 24)   0           max_pooling2d_1[0][0]            
                                                                 dropout_1[0][0]                  
__________________________________________________________________________________________________
dense_0_1_bn (BatchNormalizatio (None, 46, 24, 24)   184         concatenate_1[0][0]              
__________________________________________________________________________________________________
activation_3 (Activation)       (None, 46, 24, 24)   0           dense_0_1_bn[0][0]               
__________________________________________________________________________________________________
dense_0_1_conv2D (Conv2D)       (None, 30, 24, 24)   12420       activation_3[0][0]               
__________________________________________________________________________________________________
dropout_2 (Dropout)             (None, 30, 24, 24)   0           dense_0_1_conv2D[0][0]           
__________________________________________________________________________________________________
concatenate_2 (Concatenate)     (None, 76, 24, 24)   0           concatenate_1[0][0]              
                                                                 dropout_2[0][0]                  
__________________________________________________________________________________________________
tr_0_bn (BatchNormalization)    (None, 76, 24, 24)   304         concatenate_2[0][0]              
__________________________________________________________________________________________________
activation_4 (Activation)       (None, 76, 24, 24)   0           tr_0_bn[0][0]                    
__________________________________________________________________________________________________
tr_0_conv2D (Conv2D)            (None, 22, 24, 24)   1672        activation_4[0][0]               
__________________________________________________________________________________________________
max_pooling2d_2 (MaxPooling2D)  (None, 22, 12, 12)   0           tr_0_conv2D[0][0]                
__________________________________________________________________________________________________
dense_1_0_bn (BatchNormalizatio (None, 22, 12, 12)   88          max_pooling2d_2[0][0]            
__________________________________________________________________________________________________
activation_5 (Activation)       (None, 22, 12, 12)   0           dense_1_0_bn[0][0]               
__________________________________________________________________________________________________
dense_1_0_conv2D (Conv2D)       (None, 30, 12, 12)   5940        activation_5[0][0]               
__________________________________________________________________________________________________
dropout_3 (Dropout)             (None, 30, 12, 12)   0           dense_1_0_conv2D[0][0]           
__________________________________________________________________________________________________
concatenate_3 (Concatenate)     (None, 52, 12, 12)   0           max_pooling2d_2[0][0]            
                                                                 dropout_3[0][0]                  
__________________________________________________________________________________________________
dense_1_1_bn (BatchNormalizatio (None, 52, 12, 12)   208         concatenate_3[0][0]              
__________________________________________________________________________________________________
activation_6 (Activation)       (None, 52, 12, 12)   0           dense_1_1_bn[0][0]               
__________________________________________________________________________________________________
dense_1_1_conv2D (Conv2D)       (None, 30, 12, 12)   14040       activation_6[0][0]               
__________________________________________________________________________________________________
dropout_4 (Dropout)             (None, 30, 12, 12)   0           dense_1_1_conv2D[0][0]           
__________________________________________________________________________________________________
concatenate_4 (Concatenate)     (None, 82, 12, 12)   0           concatenate_3[0][0]              
                                                                 dropout_4[0][0]                  
__________________________________________________________________________________________________
final_bn (BatchNormalization)   (None, 82, 12, 12)   328         concatenate_4[0][0]              
__________________________________________________________________________________________________
activation_7 (Activation)       (None, 82, 12, 12)   0           final_bn[0][0]                   
__________________________________________________________________________________________________
flatten_1 (Flatten)             (None, 11808)        0           activation_7[0][0]               
==================================================================================================
Total params: 40,416
Trainable params: 39,796
Non-trainable params: 620
__________________________________________________________________________________________________
__________________________________________________________________________________________________
Layer (type)                    Output Shape         Param #     Connected to                     
==================================================================================================
input_2 (InputLayer)            (None, 1, 96, 96)    0                                            
__________________________________________________________________________________________________
input_3 (InputLayer)            (None, 1, 96, 96)    0                                            
__________________________________________________________________________________________________
densenet (Model)                (None, 11808)        40416       input_2[0][0]                    
                                                                 input_3[0][0]                    
__________________________________________________________________________________________________
merge_features (Concatenate)    (None, 23616)        0           densenet[1][0]                   
                                                                 densenet[2][0]                   
__________________________________________________________________________________________________
dense_1 (Dense)                 (None, 512)          12091904    merge_features[0][0]             
__________________________________________________________________________________________________
activation_8 (Activation)       (None, 512)          0           dense_1[0][0]                    
__________________________________________________________________________________________________
batch_normalization_1 (BatchNor (None, 512)          2048        activation_8[0][0]               
__________________________________________________________________________________________________
dropout_5 (Dropout)             (None, 512)          0           batch_normalization_1[0][0]      
__________________________________________________________________________________________________
dense_2 (Dense)                 (None, 1)            513         dropout_5[0][0]                  
==================================================================================================
Total params: 12,134,881
Trainable params: 12,133,237
Non-trainable params: 1,644
__________________________________________________________________________________________________
Finished compiling
Train on 31872 samples, validate on 7968 samples
Epoch 1/13
…
