…
Layers:  [2, 2, 2]  Growth_rate:  30  nb_filter:  16  dropout:  0.2
dense_block  3  reduction:  0.5  bottleneck:  False
Epochs  21  batch_size:  64  lr:  0.07  optimizer:  adadelta
 es_patience:  4  lr_patience:  3
------------------------	  end of configs        -------------------------
pooling:avg
__________________________________________________________________________________________________
Layer (type)                    Output Shape         Param #     Connected to                     
==================================================================================================
input_1 (InputLayer)            (None, 2, 96, 96)    0                                            
__________________________________________________________________________________________________
initial_conv2D (Conv2D)         (None, 16, 48, 48)   1568        input_1[0][0]                    
__________________________________________________________________________________________________
initial_bn (BatchNormalization) (None, 16, 48, 48)   64          initial_conv2D[0][0]             
__________________________________________________________________________________________________
activation_1 (Activation)       (None, 16, 48, 48)   0           initial_bn[0][0]                 
__________________________________________________________________________________________________
max_pooling2d_1 (MaxPooling2D)  (None, 16, 24, 24)   0           activation_1[0][0]               
__________________________________________________________________________________________________
dense_0_0_bn (BatchNormalizatio (None, 16, 24, 24)   64          max_pooling2d_1[0][0]            
__________________________________________________________________________________________________
activation_2 (Activation)       (None, 16, 24, 24)   0           dense_0_0_bn[0][0]               
__________________________________________________________________________________________________
dense_0_0_conv2D (Conv2D)       (None, 30, 24, 24)   4320        activation_2[0][0]               
__________________________________________________________________________________________________
dropout_1 (Dropout)             (None, 30, 24, 24)   0           dense_0_0_conv2D[0][0]           
__________________________________________________________________________________________________
concatenate_1 (Concatenate)     (None, 46, 24, 24)   0           max_pooling2d_1[0][0]            
                                                                 dropout_1[0][0]                  
__________________________________________________________________________________________________
dense_0_1_bn (BatchNormalizatio (None, 46, 24, 24)   184         concatenate_1[0][0]              
__________________________________________________________________________________________________
activation_3 (Activation)       (None, 46, 24, 24)   0           dense_0_1_bn[0][0]               
__________________________________________________________________________________________________
dense_0_1_conv2D (Conv2D)       (None, 30, 24, 24)   12420       activation_3[0][0]               
__________________________________________________________________________________________________
dropout_2 (Dropout)             (None, 30, 24, 24)   0           dense_0_1_conv2D[0][0]           
__________________________________________________________________________________________________
concatenate_2 (Concatenate)     (None, 76, 24, 24)   0           concatenate_1[0][0]              
                                                                 dropout_2[0][0]                  
__________________________________________________________________________________________________
tr_0_bn (BatchNormalization)    (None, 76, 24, 24)   304         concatenate_2[0][0]              
__________________________________________________________________________________________________
activation_4 (Activation)       (None, 76, 24, 24)   0           tr_0_bn[0][0]                    
__________________________________________________________________________________________________
tr_0_conv2D (Conv2D)            (None, 38, 24, 24)   2888        activation_4[0][0]               
__________________________________________________________________________________________________
average_pooling2d_1 (AveragePoo (None, 38, 12, 12)   0           tr_0_conv2D[0][0]                
__________________________________________________________________________________________________
dense_1_0_bn (BatchNormalizatio (None, 38, 12, 12)   152         average_pooling2d_1[0][0]        
__________________________________________________________________________________________________
activation_5 (Activation)       (None, 38, 12, 12)   0           dense_1_0_bn[0][0]               
__________________________________________________________________________________________________
dense_1_0_conv2D (Conv2D)       (None, 30, 12, 12)   10260       activation_5[0][0]               
__________________________________________________________________________________________________
dropout_3 (Dropout)             (None, 30, 12, 12)   0           dense_1_0_conv2D[0][0]           
__________________________________________________________________________________________________
concatenate_3 (Concatenate)     (None, 68, 12, 12)   0           average_pooling2d_1[0][0]        
                                                                 dropout_3[0][0]                  
__________________________________________________________________________________________________
dense_1_1_bn (BatchNormalizatio (None, 68, 12, 12)   272         concatenate_3[0][0]              
__________________________________________________________________________________________________
activation_6 (Activation)       (None, 68, 12, 12)   0           dense_1_1_bn[0][0]               
__________________________________________________________________________________________________
dense_1_1_conv2D (Conv2D)       (None, 30, 12, 12)   18360       activation_6[0][0]               
__________________________________________________________________________________________________
dropout_4 (Dropout)             (None, 30, 12, 12)   0           dense_1_1_conv2D[0][0]           
__________________________________________________________________________________________________
concatenate_4 (Concatenate)     (None, 98, 12, 12)   0           concatenate_3[0][0]              
                                                                 dropout_4[0][0]                  
__________________________________________________________________________________________________
tr_1_bn (BatchNormalization)    (None, 98, 12, 12)   392         concatenate_4[0][0]              
__________________________________________________________________________________________________
activation_7 (Activation)       (None, 98, 12, 12)   0           tr_1_bn[0][0]                    
__________________________________________________________________________________________________
tr_1_conv2D (Conv2D)            (None, 49, 12, 12)   4802        activation_7[0][0]               
__________________________________________________________________________________________________
average_pooling2d_2 (AveragePoo (None, 49, 6, 6)     0           tr_1_conv2D[0][0]                
__________________________________________________________________________________________________
dense_2_0_bn (BatchNormalizatio (None, 49, 6, 6)     196         average_pooling2d_2[0][0]        
__________________________________________________________________________________________________
activation_8 (Activation)       (None, 49, 6, 6)     0           dense_2_0_bn[0][0]               
__________________________________________________________________________________________________
dense_2_0_conv2D (Conv2D)       (None, 30, 6, 6)     13230       activation_8[0][0]               
__________________________________________________________________________________________________
dropout_5 (Dropout)             (None, 30, 6, 6)     0           dense_2_0_conv2D[0][0]           
__________________________________________________________________________________________________
concatenate_5 (Concatenate)     (None, 79, 6, 6)     0           average_pooling2d_2[0][0]        
                                                                 dropout_5[0][0]                  
__________________________________________________________________________________________________
dense_2_1_bn (BatchNormalizatio (None, 79, 6, 6)     316         concatenate_5[0][0]              
__________________________________________________________________________________________________
activation_9 (Activation)       (None, 79, 6, 6)     0           dense_2_1_bn[0][0]               
__________________________________________________________________________________________________
dense_2_1_conv2D (Conv2D)       (None, 30, 6, 6)     21330       activation_9[0][0]               
__________________________________________________________________________________________________
dropout_6 (Dropout)             (None, 30, 6, 6)     0           dense_2_1_conv2D[0][0]           
__________________________________________________________________________________________________
concatenate_6 (Concatenate)     (None, 109, 6, 6)    0           concatenate_5[0][0]              
                                                                 dropout_6[0][0]                  
__________________________________________________________________________________________________
final_bn (BatchNormalization)   (None, 109, 6, 6)    436         concatenate_6[0][0]              
__________________________________________________________________________________________________
activation_10 (Activation)      (None, 109, 6, 6)    0           final_bn[0][0]                   
__________________________________________________________________________________________________
global_average_pooling2d_1 (Glo (None, 109)          0           activation_10[0][0]              
__________________________________________________________________________________________________
dense_1 (Dense)                 (None, 1)            110         global_average_pooling2d_1[0][0] 
==================================================================================================
Total params: 91,668
Trainable params: 90,478
Non-trainable params: 1,190
__________________________________________________________________________________________________
Finished compiling
Train on 39840 samples, validate on 7968 samples
Epoch 1/21
 - 25s - loss: 0.5013 - acc: 0.7580 - val_loss: 0.4362 - val_acc: 0.7917
…
Layers:  [6, 6, 6]  Growth_rate:  30  nb_filter:  16  dropout:  0.2
dense_block  3  reduction:  0.5  bottleneck:  False
Epochs  15  batch_size:  64  lr:  0.07  optimizer:  adadelta
 es_patience:  4  lr_patience:  3
------------------------	  end of configs        -------------------------
pooling:avg
__________________________________________________________________________________________________
Layer (type)                    Output Shape         Param #     Connected to                     
==================================================================================================
input_1 (InputLayer)            (None, 2, 96, 96)    0                                            
__________________________________________________________________________________________________
initial_conv2D (Conv2D)         (None, 16, 48, 48)   1568        input_1[0][0]                    
__________________________________________________________________________________________________
initial_bn (BatchNormalization) (None, 16, 48, 48)   64          initial_conv2D[0][0]             
__________________________________________________________________________________________________
activation_1 (Activation)       (None, 16, 48, 48)   0           initial_bn[0][0]                 
__________________________________________________________________________________________________
max_pooling2d_1 (MaxPooling2D)  (None, 16, 24, 24)   0           activation_1[0][0]               
__________________________________________________________________________________________________
dense_0_0_bn (BatchNormalizatio (None, 16, 24, 24)   64          max_pooling2d_1[0][0]            
__________________________________________________________________________________________________
activation_2 (Activation)       (None, 16, 24, 24)   0           dense_0_0_bn[0][0]               
__________________________________________________________________________________________________
dense_0_0_conv2D (Conv2D)       (None, 30, 24, 24)   4320        activation_2[0][0]               
__________________________________________________________________________________________________
dropout_1 (Dropout)             (None, 30, 24, 24)   0           dense_0_0_conv2D[0][0]           
__________________________________________________________________________________________________
concatenate_1 (Concatenate)     (None, 46, 24, 24)   0           max_pooling2d_1[0][0]            
                                                                 dropout_1[0][0]                  
__________________________________________________________________________________________________
dense_0_1_bn (BatchNormalizatio (None, 46, 24, 24)   184         concatenate_1[0][0]              
__________________________________________________________________________________________________
activation_3 (Activation)       (None, 46, 24, 24)   0           dense_0_1_bn[0][0]               
__________________________________________________________________________________________________
dense_0_1_conv2D (Conv2D)       (None, 30, 24, 24)   12420       activation_3[0][0]               
__________________________________________________________________________________________________
dropout_2 (Dropout)             (None, 30, 24, 24)   0           dense_0_1_conv2D[0][0]           
__________________________________________________________________________________________________
concatenate_2 (Concatenate)     (None, 76, 24, 24)   0           concatenate_1[0][0]              
                                                                 dropout_2[0][0]                  
__________________________________________________________________________________________________
dense_0_2_bn (BatchNormalizatio (None, 76, 24, 24)   304         concatenate_2[0][0]              
__________________________________________________________________________________________________
activation_4 (Activation)       (None, 76, 24, 24)   0           dense_0_2_bn[0][0]               
__________________________________________________________________________________________________
dense_0_2_conv2D (Conv2D)       (None, 30, 24, 24)   20520       activation_4[0][0]               
__________________________________________________________________________________________________
dropout_3 (Dropout)             (None, 30, 24, 24)   0           dense_0_2_conv2D[0][0]           
__________________________________________________________________________________________________
concatenate_3 (Concatenate)     (None, 106, 24, 24)  0           concatenate_2[0][0]              
                                                                 dropout_3[0][0]                  
__________________________________________________________________________________________________
dense_0_3_bn (BatchNormalizatio (None, 106, 24, 24)  424         concatenate_3[0][0]              
__________________________________________________________________________________________________
activation_5 (Activation)       (None, 106, 24, 24)  0           dense_0_3_bn[0][0]               
__________________________________________________________________________________________________
dense_0_3_conv2D (Conv2D)       (None, 30, 24, 24)   28620       activation_5[0][0]               
__________________________________________________________________________________________________
dropout_4 (Dropout)             (None, 30, 24, 24)   0           dense_0_3_conv2D[0][0]           
__________________________________________________________________________________________________
concatenate_4 (Concatenate)     (None, 136, 24, 24)  0           concatenate_3[0][0]              
                                                                 dropout_4[0][0]                  
__________________________________________________________________________________________________
dense_0_4_bn (BatchNormalizatio (None, 136, 24, 24)  544         concatenate_4[0][0]              
__________________________________________________________________________________________________
activation_6 (Activation)       (None, 136, 24, 24)  0           dense_0_4_bn[0][0]               
__________________________________________________________________________________________________
dense_0_4_conv2D (Conv2D)       (None, 30, 24, 24)   36720       activation_6[0][0]               
__________________________________________________________________________________________________
dropout_5 (Dropout)             (None, 30, 24, 24)   0           dense_0_4_conv2D[0][0]           
__________________________________________________________________________________________________
concatenate_5 (Concatenate)     (None, 166, 24, 24)  0           concatenate_4[0][0]              
                                                                 dropout_5[0][0]                  
__________________________________________________________________________________________________
dense_0_5_bn (BatchNormalizatio (None, 166, 24, 24)  664         concatenate_5[0][0]              
__________________________________________________________________________________________________
activation_7 (Activation)       (None, 166, 24, 24)  0           dense_0_5_bn[0][0]               
__________________________________________________________________________________________________
dense_0_5_conv2D (Conv2D)       (None, 30, 24, 24)   44820       activation_7[0][0]               
__________________________________________________________________________________________________
dropout_6 (Dropout)             (None, 30, 24, 24)   0           dense_0_5_conv2D[0][0]           
__________________________________________________________________________________________________
concatenate_6 (Concatenate)     (None, 196, 24, 24)  0           concatenate_5[0][0]              
                                                                 dropout_6[0][0]                  
__________________________________________________________________________________________________
tr_0_bn (BatchNormalization)    (None, 196, 24, 24)  784         concatenate_6[0][0]              
__________________________________________________________________________________________________
activation_8 (Activation)       (None, 196, 24, 24)  0           tr_0_bn[0][0]                    
__________________________________________________________________________________________________
tr_0_conv2D (Conv2D)            (None, 98, 24, 24)   19208       activation_8[0][0]               
__________________________________________________________________________________________________
average_pooling2d_1 (AveragePoo (None, 98, 12, 12)   0           tr_0_conv2D[0][0]                
__________________________________________________________________________________________________
dense_1_0_bn (BatchNormalizatio (None, 98, 12, 12)   392         average_pooling2d_1[0][0]        
__________________________________________________________________________________________________
activation_9 (Activation)       (None, 98, 12, 12)   0           dense_1_0_bn[0][0]               
__________________________________________________________________________________________________
dense_1_0_conv2D (Conv2D)       (None, 30, 12, 12)   26460       activation_9[0][0]               
__________________________________________________________________________________________________
dropout_7 (Dropout)             (None, 30, 12, 12)   0           dense_1_0_conv2D[0][0]           
__________________________________________________________________________________________________
concatenate_7 (Concatenate)     (None, 128, 12, 12)  0           average_pooling2d_1[0][0]        
                                                                 dropout_7[0][0]                  
__________________________________________________________________________________________________
dense_1_1_bn (BatchNormalizatio (None, 128, 12, 12)  512         concatenate_7[0][0]              
__________________________________________________________________________________________________
activation_10 (Activation)      (None, 128, 12, 12)  0           dense_1_1_bn[0][0]               
__________________________________________________________________________________________________
dense_1_1_conv2D (Conv2D)       (None, 30, 12, 12)   34560       activation_10[0][0]              
__________________________________________________________________________________________________
dropout_8 (Dropout)             (None, 30, 12, 12)   0           dense_1_1_conv2D[0][0]           
__________________________________________________________________________________________________
concatenate_8 (Concatenate)     (None, 158, 12, 12)  0           concatenate_7[0][0]              
                                                                 dropout_8[0][0]                  
__________________________________________________________________________________________________
dense_1_2_bn (BatchNormalizatio (None, 158, 12, 12)  632         concatenate_8[0][0]              
__________________________________________________________________________________________________
activation_11 (Activation)      (None, 158, 12, 12)  0           dense_1_2_bn[0][0]               
__________________________________________________________________________________________________
dense_1_2_conv2D (Conv2D)       (None, 30, 12, 12)   42660       activation_11[0][0]              
__________________________________________________________________________________________________
dropout_9 (Dropout)             (None, 30, 12, 12)   0           dense_1_2_conv2D[0][0]           
__________________________________________________________________________________________________
concatenate_9 (Concatenate)     (None, 188, 12, 12)  0           concatenate_8[0][0]              
                                                                 dropout_9[0][0]                  
__________________________________________________________________________________________________
dense_1_3_bn (BatchNormalizatio (None, 188, 12, 12)  752         concatenate_9[0][0]              
__________________________________________________________________________________________________
activation_12 (Activation)      (None, 188, 12, 12)  0           dense_1_3_bn[0][0]               
__________________________________________________________________________________________________
dense_1_3_conv2D (Conv2D)       (None, 30, 12, 12)   50760       activation_12[0][0]              
__________________________________________________________________________________________________
dropout_10 (Dropout)            (None, 30, 12, 12)   0           dense_1_3_conv2D[0][0]           
__________________________________________________________________________________________________
concatenate_10 (Concatenate)    (None, 218, 12, 12)  0           concatenate_9[0][0]              
                                                                 dropout_10[0][0]                 
__________________________________________________________________________________________________
dense_1_4_bn (BatchNormalizatio (None, 218, 12, 12)  872         concatenate_10[0][0]             
__________________________________________________________________________________________________
activation_13 (Activation)      (None, 218, 12, 12)  0           dense_1_4_bn[0][0]               
__________________________________________________________________________________________________
dense_1_4_conv2D (Conv2D)       (None, 30, 12, 12)   58860       activation_13[0][0]              
__________________________________________________________________________________________________
dropout_11 (Dropout)            (None, 30, 12, 12)   0           dense_1_4_conv2D[0][0]           
__________________________________________________________________________________________________
concatenate_11 (Concatenate)    (None, 248, 12, 12)  0           concatenate_10[0][0]             
                                                                 dropout_11[0][0]                 
__________________________________________________________________________________________________
dense_1_5_bn (BatchNormalizatio (None, 248, 12, 12)  992         concatenate_11[0][0]             
__________________________________________________________________________________________________
activation_14 (Activation)      (None, 248, 12, 12)  0           dense_1_5_bn[0][0]               
__________________________________________________________________________________________________
dense_1_5_conv2D (Conv2D)       (None, 30, 12, 12)   66960       activation_14[0][0]              
__________________________________________________________________________________________________
dropout_12 (Dropout)            (None, 30, 12, 12)   0           dense_1_5_conv2D[0][0]           
__________________________________________________________________________________________________
concatenate_12 (Concatenate)    (None, 278, 12, 12)  0           concatenate_11[0][0]             
                                                                 dropout_12[0][0]                 
__________________________________________________________________________________________________
tr_1_bn (BatchNormalization)    (None, 278, 12, 12)  1112        concatenate_12[0][0]             
__________________________________________________________________________________________________
activation_15 (Activation)      (None, 278, 12, 12)  0           tr_1_bn[0][0]                    
__________________________________________________________________________________________________
tr_1_conv2D (Conv2D)            (None, 139, 12, 12)  38642       activation_15[0][0]              
__________________________________________________________________________________________________
average_pooling2d_2 (AveragePoo (None, 139, 6, 6)    0           tr_1_conv2D[0][0]                
__________________________________________________________________________________________________
dense_2_0_bn (BatchNormalizatio (None, 139, 6, 6)    556         average_pooling2d_2[0][0]        
__________________________________________________________________________________________________
activation_16 (Activation)      (None, 139, 6, 6)    0           dense_2_0_bn[0][0]               
__________________________________________________________________________________________________
dense_2_0_conv2D (Conv2D)       (None, 30, 6, 6)     37530       activation_16[0][0]              
__________________________________________________________________________________________________
dropout_13 (Dropout)            (None, 30, 6, 6)     0           dense_2_0_conv2D[0][0]           
__________________________________________________________________________________________________
concatenate_13 (Concatenate)    (None, 169, 6, 6)    0           average_pooling2d_2[0][0]        
                                                                 dropout_13[0][0]                 
__________________________________________________________________________________________________
dense_2_1_bn (BatchNormalizatio (None, 169, 6, 6)    676         concatenate_13[0][0]             
__________________________________________________________________________________________________
activation_17 (Activation)      (None, 169, 6, 6)    0           dense_2_1_bn[0][0]               
__________________________________________________________________________________________________
dense_2_1_conv2D (Conv2D)       (None, 30, 6, 6)     45630       activation_17[0][0]              
__________________________________________________________________________________________________
dropout_14 (Dropout)            (None, 30, 6, 6)     0           dense_2_1_conv2D[0][0]           
__________________________________________________________________________________________________
concatenate_14 (Concatenate)    (None, 199, 6, 6)    0           concatenate_13[0][0]             
                                                                 dropout_14[0][0]                 
__________________________________________________________________________________________________
dense_2_2_bn (BatchNormalizatio (None, 199, 6, 6)    796         concatenate_14[0][0]             
__________________________________________________________________________________________________
activation_18 (Activation)      (None, 199, 6, 6)    0           dense_2_2_bn[0][0]               
__________________________________________________________________________________________________
dense_2_2_conv2D (Conv2D)       (None, 30, 6, 6)     53730       activation_18[0][0]              
__________________________________________________________________________________________________
dropout_15 (Dropout)            (None, 30, 6, 6)     0           dense_2_2_conv2D[0][0]           
__________________________________________________________________________________________________
concatenate_15 (Concatenate)    (None, 229, 6, 6)    0           concatenate_14[0][0]             
                                                                 dropout_15[0][0]                 
__________________________________________________________________________________________________
dense_2_3_bn (BatchNormalizatio (None, 229, 6, 6)    916         concatenate_15[0][0]             
__________________________________________________________________________________________________
activation_19 (Activation)      (None, 229, 6, 6)    0           dense_2_3_bn[0][0]               
__________________________________________________________________________________________________
dense_2_3_conv2D (Conv2D)       (None, 30, 6, 6)     61830       activation_19[0][0]              
__________________________________________________________________________________________________
dropout_16 (Dropout)            (None, 30, 6, 6)     0           dense_2_3_conv2D[0][0]           
__________________________________________________________________________________________________
concatenate_16 (Concatenate)    (None, 259, 6, 6)    0           concatenate_15[0][0]             
                                                                 dropout_16[0][0]                 
__________________________________________________________________________________________________
dense_2_4_bn (BatchNormalizatio (None, 259, 6, 6)    1036        concatenate_16[0][0]             
__________________________________________________________________________________________________
activation_20 (Activation)      (None, 259, 6, 6)    0           dense_2_4_bn[0][0]               
__________________________________________________________________________________________________
dense_2_4_conv2D (Conv2D)       (None, 30, 6, 6)     69930       activation_20[0][0]              
__________________________________________________________________________________________________
dropout_17 (Dropout)            (None, 30, 6, 6)     0           dense_2_4_conv2D[0][0]           
__________________________________________________________________________________________________
concatenate_17 (Concatenate)    (None, 289, 6, 6)    0           concatenate_16[0][0]             
                                                                 dropout_17[0][0]                 
__________________________________________________________________________________________________
dense_2_5_bn (BatchNormalizatio (None, 289, 6, 6)    1156        concatenate_17[0][0]             
__________________________________________________________________________________________________
activation_21 (Activation)      (None, 289, 6, 6)    0           dense_2_5_bn[0][0]               
__________________________________________________________________________________________________
dense_2_5_conv2D (Conv2D)       (None, 30, 6, 6)     78030       activation_21[0][0]              
__________________________________________________________________________________________________
dropout_18 (Dropout)            (None, 30, 6, 6)     0           dense_2_5_conv2D[0][0]           
__________________________________________________________________________________________________
concatenate_18 (Concatenate)    (None, 319, 6, 6)    0           concatenate_17[0][0]             
                                                                 dropout_18[0][0]                 
__________________________________________________________________________________________________
final_bn (BatchNormalization)   (None, 319, 6, 6)    1276        concatenate_18[0][0]             
__________________________________________________________________________________________________
activation_22 (Activation)      (None, 319, 6, 6)    0           final_bn[0][0]                   
__________________________________________________________________________________________________
global_average_pooling2d_1 (Glo (None, 319)          0           activation_22[0][0]              
__________________________________________________________________________________________________
dense_1 (Dense)                 (None, 1)            320         global_average_pooling2d_1[0][0] 
==================================================================================================
Total params: 848,806
Trainable params: 841,452
Non-trainable params: 7,354
__________________________________________________________________________________________________
Finished compiling
Train on 39840 samples, validate on 7968 samples
Epoch 1/15
 - 38s - loss: 0.4757 - acc: 0.7894 - val_loss: 0.4089 - val_acc: 0.8199
…
Layers:  [2, 2, 2, 2]  Growth_rate:  30  nb_filter:  16  dropout:  0.2
dense_block  4  reduction:  0.5  bottleneck:  False
Epochs  20  batch_size:  64  lr:  0.07  optimizer:  adadelta
 es_patience:  4  lr_patience:  3
------------------------	  end of configs        -------------------------
pooling:avg
__________________________________________________________________________________________________
Layer (type)                    Output Shape         Param #     Connected to                     
==================================================================================================
input_1 (InputLayer)            (None, 2, 96, 96)    0                                            
__________________________________________________________________________________________________
initial_conv2D (Conv2D)         (None, 16, 48, 48)   1568        input_1[0][0]                    
__________________________________________________________________________________________________
initial_bn (BatchNormalization) (None, 16, 48, 48)   64          initial_conv2D[0][0]             
__________________________________________________________________________________________________
activation_1 (Activation)       (None, 16, 48, 48)   0           initial_bn[0][0]                 
__________________________________________________________________________________________________
max_pooling2d_1 (MaxPooling2D)  (None, 16, 24, 24)   0           activation_1[0][0]               
__________________________________________________________________________________________________
dense_0_0_bn (BatchNormalizatio (None, 16, 24, 24)   64          max_pooling2d_1[0][0]            
__________________________________________________________________________________________________
activation_2 (Activation)       (None, 16, 24, 24)   0           dense_0_0_bn[0][0]               
__________________________________________________________________________________________________
dense_0_0_conv2D (Conv2D)       (None, 30, 24, 24)   4320        activation_2[0][0]               
__________________________________________________________________________________________________
dropout_1 (Dropout)             (None, 30, 24, 24)   0           dense_0_0_conv2D[0][0]           
__________________________________________________________________________________________________
concatenate_1 (Concatenate)     (None, 46, 24, 24)   0           max_pooling2d_1[0][0]            
                                                                 dropout_1[0][0]                  
__________________________________________________________________________________________________
dense_0_1_bn (BatchNormalizatio (None, 46, 24, 24)   184         concatenate_1[0][0]              
__________________________________________________________________________________________________
activation_3 (Activation)       (None, 46, 24, 24)   0           dense_0_1_bn[0][0]               
__________________________________________________________________________________________________
dense_0_1_conv2D (Conv2D)       (None, 30, 24, 24)   12420       activation_3[0][0]               
__________________________________________________________________________________________________
dropout_2 (Dropout)             (None, 30, 24, 24)   0           dense_0_1_conv2D[0][0]           
__________________________________________________________________________________________________
concatenate_2 (Concatenate)     (None, 76, 24, 24)   0           concatenate_1[0][0]              
                                                                 dropout_2[0][0]                  
__________________________________________________________________________________________________
tr_0_bn (BatchNormalization)    (None, 76, 24, 24)   304         concatenate_2[0][0]              
__________________________________________________________________________________________________
activation_4 (Activation)       (None, 76, 24, 24)   0           tr_0_bn[0][0]                    
__________________________________________________________________________________________________
tr_0_conv2D (Conv2D)            (None, 38, 24, 24)   2888        activation_4[0][0]               
__________________________________________________________________________________________________
average_pooling2d_1 (AveragePoo (None, 38, 12, 12)   0           tr_0_conv2D[0][0]                
__________________________________________________________________________________________________
dense_1_0_bn (BatchNormalizatio (None, 38, 12, 12)   152         average_pooling2d_1[0][0]        
__________________________________________________________________________________________________
activation_5 (Activation)       (None, 38, 12, 12)   0           dense_1_0_bn[0][0]               
__________________________________________________________________________________________________
dense_1_0_conv2D (Conv2D)       (None, 30, 12, 12)   10260       activation_5[0][0]               
__________________________________________________________________________________________________
dropout_3 (Dropout)             (None, 30, 12, 12)   0           dense_1_0_conv2D[0][0]           
__________________________________________________________________________________________________
concatenate_3 (Concatenate)     (None, 68, 12, 12)   0           average_pooling2d_1[0][0]        
                                                                 dropout_3[0][0]                  
__________________________________________________________________________________________________
dense_1_1_bn (BatchNormalizatio (None, 68, 12, 12)   272         concatenate_3[0][0]              
__________________________________________________________________________________________________
activation_6 (Activation)       (None, 68, 12, 12)   0           dense_1_1_bn[0][0]               
__________________________________________________________________________________________________
dense_1_1_conv2D (Conv2D)       (None, 30, 12, 12)   18360       activation_6[0][0]               
__________________________________________________________________________________________________
dropout_4 (Dropout)             (None, 30, 12, 12)   0           dense_1_1_conv2D[0][0]           
__________________________________________________________________________________________________
concatenate_4 (Concatenate)     (None, 98, 12, 12)   0           concatenate_3[0][0]              
                                                                 dropout_4[0][0]                  
__________________________________________________________________________________________________
tr_1_bn (BatchNormalization)    (None, 98, 12, 12)   392         concatenate_4[0][0]              
__________________________________________________________________________________________________
activation_7 (Activation)       (None, 98, 12, 12)   0           tr_1_bn[0][0]                    
__________________________________________________________________________________________________
tr_1_conv2D (Conv2D)            (None, 49, 12, 12)   4802        activation_7[0][0]               
__________________________________________________________________________________________________
average_pooling2d_2 (AveragePoo (None, 49, 6, 6)     0           tr_1_conv2D[0][0]                
__________________________________________________________________________________________________
dense_2_0_bn (BatchNormalizatio (None, 49, 6, 6)     196         average_pooling2d_2[0][0]        
__________________________________________________________________________________________________
activation_8 (Activation)       (None, 49, 6, 6)     0           dense_2_0_bn[0][0]               
__________________________________________________________________________________________________
dense_2_0_conv2D (Conv2D)       (None, 30, 6, 6)     13230       activation_8[0][0]               
__________________________________________________________________________________________________
dropout_5 (Dropout)             (None, 30, 6, 6)     0           dense_2_0_conv2D[0][0]           
__________________________________________________________________________________________________
concatenate_5 (Concatenate)     (None, 79, 6, 6)     0           average_pooling2d_2[0][0]        
                                                                 dropout_5[0][0]                  
__________________________________________________________________________________________________
dense_2_1_bn (BatchNormalizatio (None, 79, 6, 6)     316         concatenate_5[0][0]              
__________________________________________________________________________________________________
activation_9 (Activation)       (None, 79, 6, 6)     0           dense_2_1_bn[0][0]               
__________________________________________________________________________________________________
dense_2_1_conv2D (Conv2D)       (None, 30, 6, 6)     21330       activation_9[0][0]               
__________________________________________________________________________________________________
dropout_6 (Dropout)             (None, 30, 6, 6)     0           dense_2_1_conv2D[0][0]           
__________________________________________________________________________________________________
concatenate_6 (Concatenate)     (None, 109, 6, 6)    0           concatenate_5[0][0]              
                                                                 dropout_6[0][0]                  
__________________________________________________________________________________________________
tr_2_bn (BatchNormalization)    (None, 109, 6, 6)    436         concatenate_6[0][0]              
__________________________________________________________________________________________________
activation_10 (Activation)      (None, 109, 6, 6)    0           tr_2_bn[0][0]                    
__________________________________________________________________________________________________
tr_2_conv2D (Conv2D)            (None, 54, 6, 6)     5886        activation_10[0][0]              
__________________________________________________________________________________________________
average_pooling2d_3 (AveragePoo (None, 54, 3, 3)     0           tr_2_conv2D[0][0]                
__________________________________________________________________________________________________
dense_3_0_bn (BatchNormalizatio (None, 54, 3, 3)     216         average_pooling2d_3[0][0]        
__________________________________________________________________________________________________
activation_11 (Activation)      (None, 54, 3, 3)     0           dense_3_0_bn[0][0]               
__________________________________________________________________________________________________
dense_3_0_conv2D (Conv2D)       (None, 30, 3, 3)     14580       activation_11[0][0]              
__________________________________________________________________________________________________
dropout_7 (Dropout)             (None, 30, 3, 3)     0           dense_3_0_conv2D[0][0]           
__________________________________________________________________________________________________
concatenate_7 (Concatenate)     (None, 84, 3, 3)     0           average_pooling2d_3[0][0]        
                                                                 dropout_7[0][0]                  
__________________________________________________________________________________________________
dense_3_1_bn (BatchNormalizatio (None, 84, 3, 3)     336         concatenate_7[0][0]              
__________________________________________________________________________________________________
activation_12 (Activation)      (None, 84, 3, 3)     0           dense_3_1_bn[0][0]               
__________________________________________________________________________________________________
dense_3_1_conv2D (Conv2D)       (None, 30, 3, 3)     22680       activation_12[0][0]              
__________________________________________________________________________________________________
dropout_8 (Dropout)             (None, 30, 3, 3)     0           dense_3_1_conv2D[0][0]           
__________________________________________________________________________________________________
concatenate_8 (Concatenate)     (None, 114, 3, 3)    0           concatenate_7[0][0]              
                                                                 dropout_8[0][0]                  
__________________________________________________________________________________________________
final_bn (BatchNormalization)   (None, 114, 3, 3)    456         concatenate_8[0][0]              
__________________________________________________________________________________________________
activation_13 (Activation)      (None, 114, 3, 3)    0           final_bn[0][0]                   
__________________________________________________________________________________________________
global_average_pooling2d_1 (Glo (None, 114)          0           activation_13[0][0]              
__________________________________________________________________________________________________
dense_1 (Dense)                 (None, 1)            115         global_average_pooling2d_1[0][0] 
==================================================================================================
Total params: 135,827
Trainable params: 134,133
Non-trainable params: 1,694
__________________________________________________________________________________________________
Finished compiling
Train on 39840 samples, validate on 7968 samples
Epoch 1/20
 - 27s - loss: 0.4877 - acc: 0.7732 - val_loss: 0.6171 - val_acc: 0.6916
…
Layers:  [6, 6, 6, 6]  Growth_rate:  30  nb_filter:  16  dropout:  0.2
dense_block  4  reduction:  0.5  bottleneck:  False
Epochs  14  batch_size:  64  lr:  0.07  optimizer:  adadelta
 es_patience:  4  lr_patience:  3
------------------------	  end of configs        -------------------------
pooling:avg
__________________________________________________________________________________________________
Layer (type)                    Output Shape         Param #     Connected to                     
==================================================================================================
input_1 (InputLayer)            (None, 2, 96, 96)    0                                            
__________________________________________________________________________________________________
initial_conv2D (Conv2D)         (None, 16, 48, 48)   1568        input_1[0][0]                    
__________________________________________________________________________________________________
initial_bn (BatchNormalization) (None, 16, 48, 48)   64          initial_conv2D[0][0]             
__________________________________________________________________________________________________
activation_1 (Activation)       (None, 16, 48, 48)   0           initial_bn[0][0]                 
__________________________________________________________________________________________________
max_pooling2d_1 (MaxPooling2D)  (None, 16, 24, 24)   0           activation_1[0][0]               
__________________________________________________________________________________________________
dense_0_0_bn (BatchNormalizatio (None, 16, 24, 24)   64          max_pooling2d_1[0][0]            
__________________________________________________________________________________________________
activation_2 (Activation)       (None, 16, 24, 24)   0           dense_0_0_bn[0][0]               
__________________________________________________________________________________________________
dense_0_0_conv2D (Conv2D)       (None, 30, 24, 24)   4320        activation_2[0][0]               
__________________________________________________________________________________________________
dropout_1 (Dropout)             (None, 30, 24, 24)   0           dense_0_0_conv2D[0][0]           
__________________________________________________________________________________________________
concatenate_1 (Concatenate)     (None, 46, 24, 24)   0           max_pooling2d_1[0][0]            
                                                                 dropout_1[0][0]                  
__________________________________________________________________________________________________
dense_0_1_bn (BatchNormalizatio (None, 46, 24, 24)   184         concatenate_1[0][0]              
__________________________________________________________________________________________________
activation_3 (Activation)       (None, 46, 24, 24)   0           dense_0_1_bn[0][0]               
__________________________________________________________________________________________________
dense_0_1_conv2D (Conv2D)       (None, 30, 24, 24)   12420       activation_3[0][0]               
__________________________________________________________________________________________________
dropout_2 (Dropout)             (None, 30, 24, 24)   0           dense_0_1_conv2D[0][0]           
__________________________________________________________________________________________________
concatenate_2 (Concatenate)     (None, 76, 24, 24)   0           concatenate_1[0][0]              
                                                                 dropout_2[0][0]                  
__________________________________________________________________________________________________
dense_0_2_bn (BatchNormalizatio (None, 76, 24, 24)   304         concatenate_2[0][0]              
__________________________________________________________________________________________________
activation_4 (Activation)       (None, 76, 24, 24)   0           dense_0_2_bn[0][0]               
__________________________________________________________________________________________________
dense_0_2_conv2D (Conv2D)       (None, 30, 24, 24)   20520       activation_4[0][0]               
__________________________________________________________________________________________________
dropout_3 (Dropout)             (None, 30, 24, 24)   0           dense_0_2_conv2D[0][0]           
__________________________________________________________________________________________________
concatenate_3 (Concatenate)     (None, 106, 24, 24)  0           concatenate_2[0][0]              
                                                                 dropout_3[0][0]                  
__________________________________________________________________________________________________
dense_0_3_bn (BatchNormalizatio (None, 106, 24, 24)  424         concatenate_3[0][0]              
__________________________________________________________________________________________________
activation_5 (Activation)       (None, 106, 24, 24)  0           dense_0_3_bn[0][0]               
__________________________________________________________________________________________________
dense_0_3_conv2D (Conv2D)       (None, 30, 24, 24)   28620       activation_5[0][0]               
__________________________________________________________________________________________________
dropout_4 (Dropout)             (None, 30, 24, 24)   0           dense_0_3_conv2D[0][0]           
__________________________________________________________________________________________________
concatenate_4 (Concatenate)     (None, 136, 24, 24)  0           concatenate_3[0][0]              
                                                                 dropout_4[0][0]                  
__________________________________________________________________________________________________
dense_0_4_bn (BatchNormalizatio (None, 136, 24, 24)  544         concatenate_4[0][0]              
__________________________________________________________________________________________________
activation_6 (Activation)       (None, 136, 24, 24)  0           dense_0_4_bn[0][0]               
__________________________________________________________________________________________________
dense_0_4_conv2D (Conv2D)       (None, 30, 24, 24)   36720       activation_6[0][0]               
__________________________________________________________________________________________________
dropout_5 (Dropout)             (None, 30, 24, 24)   0           dense_0_4_conv2D[0][0]           
__________________________________________________________________________________________________
concatenate_5 (Concatenate)     (None, 166, 24, 24)  0           concatenate_4[0][0]              
                                                                 dropout_5[0][0]                  
__________________________________________________________________________________________________
dense_0_5_bn (BatchNormalizatio (None, 166, 24, 24)  664         concatenate_5[0][0]              
__________________________________________________________________________________________________
activation_7 (Activation)       (None, 166, 24, 24)  0           dense_0_5_bn[0][0]               
__________________________________________________________________________________________________
dense_0_5_conv2D (Conv2D)       (None, 30, 24, 24)   44820       activation_7[0][0]               
__________________________________________________________________________________________________
dropout_6 (Dropout)             (None, 30, 24, 24)   0           dense_0_5_conv2D[0][0]           
__________________________________________________________________________________________________
concatenate_6 (Concatenate)     (None, 196, 24, 24)  0           concatenate_5[0][0]              
                                                                 dropout_6[0][0]                  
__________________________________________________________________________________________________
tr_0_bn (BatchNormalization)    (None, 196, 24, 24)  784         concatenate_6[0][0]              
__________________________________________________________________________________________________
activation_8 (Activation)       (None, 196, 24, 24)  0           tr_0_bn[0][0]                    
__________________________________________________________________________________________________
tr_0_conv2D (Conv2D)            (None, 98, 24, 24)   19208       activation_8[0][0]               
__________________________________________________________________________________________________
average_pooling2d_1 (AveragePoo (None, 98, 12, 12)   0           tr_0_conv2D[0][0]                
__________________________________________________________________________________________________
dense_1_0_bn (BatchNormalizatio (None, 98, 12, 12)   392         average_pooling2d_1[0][0]        
__________________________________________________________________________________________________
activation_9 (Activation)       (None, 98, 12, 12)   0           dense_1_0_bn[0][0]               
__________________________________________________________________________________________________
dense_1_0_conv2D (Conv2D)       (None, 30, 12, 12)   26460       activation_9[0][0]               
__________________________________________________________________________________________________
dropout_7 (Dropout)             (None, 30, 12, 12)   0           dense_1_0_conv2D[0][0]           
__________________________________________________________________________________________________
concatenate_7 (Concatenate)     (None, 128, 12, 12)  0           average_pooling2d_1[0][0]        
                                                                 dropout_7[0][0]                  
__________________________________________________________________________________________________
dense_1_1_bn (BatchNormalizatio (None, 128, 12, 12)  512         concatenate_7[0][0]              
__________________________________________________________________________________________________
activation_10 (Activation)      (None, 128, 12, 12)  0           dense_1_1_bn[0][0]               
__________________________________________________________________________________________________
dense_1_1_conv2D (Conv2D)       (None, 30, 12, 12)   34560       activation_10[0][0]              
__________________________________________________________________________________________________
dropout_8 (Dropout)             (None, 30, 12, 12)   0           dense_1_1_conv2D[0][0]           
__________________________________________________________________________________________________
concatenate_8 (Concatenate)     (None, 158, 12, 12)  0           concatenate_7[0][0]              
                                                                 dropout_8[0][0]                  
__________________________________________________________________________________________________
dense_1_2_bn (BatchNormalizatio (None, 158, 12, 12)  632         concatenate_8[0][0]              
__________________________________________________________________________________________________
activation_11 (Activation)      (None, 158, 12, 12)  0           dense_1_2_bn[0][0]               
__________________________________________________________________________________________________
dense_1_2_conv2D (Conv2D)       (None, 30, 12, 12)   42660       activation_11[0][0]              
__________________________________________________________________________________________________
dropout_9 (Dropout)             (None, 30, 12, 12)   0           dense_1_2_conv2D[0][0]           
__________________________________________________________________________________________________
concatenate_9 (Concatenate)     (None, 188, 12, 12)  0           concatenate_8[0][0]              
                                                                 dropout_9[0][0]                  
__________________________________________________________________________________________________
dense_1_3_bn (BatchNormalizatio (None, 188, 12, 12)  752         concatenate_9[0][0]              
__________________________________________________________________________________________________
activation_12 (Activation)      (None, 188, 12, 12)  0           dense_1_3_bn[0][0]               
__________________________________________________________________________________________________
dense_1_3_conv2D (Conv2D)       (None, 30, 12, 12)   50760       activation_12[0][0]              
__________________________________________________________________________________________________
dropout_10 (Dropout)            (None, 30, 12, 12)   0           dense_1_3_conv2D[0][0]           
__________________________________________________________________________________________________
concatenate_10 (Concatenate)    (None, 218, 12, 12)  0           concatenate_9[0][0]              
                                                                 dropout_10[0][0]                 
__________________________________________________________________________________________________
dense_1_4_bn (BatchNormalizatio (None, 218, 12, 12)  872         concatenate_10[0][0]             
__________________________________________________________________________________________________
activation_13 (Activation)      (None, 218, 12, 12)  0           dense_1_4_bn[0][0]               
__________________________________________________________________________________________________
dense_1_4_conv2D (Conv2D)       (None, 30, 12, 12)   58860       activation_13[0][0]              
__________________________________________________________________________________________________
dropout_11 (Dropout)            (None, 30, 12, 12)   0           dense_1_4_conv2D[0][0]           
__________________________________________________________________________________________________
concatenate_11 (Concatenate)    (None, 248, 12, 12)  0           concatenate_10[0][0]             
                                                                 dropout_11[0][0]                 
__________________________________________________________________________________________________
dense_1_5_bn (BatchNormalizatio (None, 248, 12, 12)  992         concatenate_11[0][0]             
__________________________________________________________________________________________________
activation_14 (Activation)      (None, 248, 12, 12)  0           dense_1_5_bn[0][0]               
__________________________________________________________________________________________________
dense_1_5_conv2D (Conv2D)       (None, 30, 12, 12)   66960       activation_14[0][0]              
__________________________________________________________________________________________________
dropout_12 (Dropout)            (None, 30, 12, 12)   0           dense_1_5_conv2D[0][0]           
__________________________________________________________________________________________________
concatenate_12 (Concatenate)    (None, 278, 12, 12)  0           concatenate_11[0][0]             
                                                                 dropout_12[0][0]                 
__________________________________________________________________________________________________
tr_1_bn (BatchNormalization)    (None, 278, 12, 12)  1112        concatenate_12[0][0]             
__________________________________________________________________________________________________
activation_15 (Activation)      (None, 278, 12, 12)  0           tr_1_bn[0][0]                    
__________________________________________________________________________________________________
tr_1_conv2D (Conv2D)            (None, 139, 12, 12)  38642       activation_15[0][0]              
__________________________________________________________________________________________________
average_pooling2d_2 (AveragePoo (None, 139, 6, 6)    0           tr_1_conv2D[0][0]                
__________________________________________________________________________________________________
dense_2_0_bn (BatchNormalizatio (None, 139, 6, 6)    556         average_pooling2d_2[0][0]        
__________________________________________________________________________________________________
activation_16 (Activation)      (None, 139, 6, 6)    0           dense_2_0_bn[0][0]               
__________________________________________________________________________________________________
dense_2_0_conv2D (Conv2D)       (None, 30, 6, 6)     37530       activation_16[0][0]              
__________________________________________________________________________________________________
dropout_13 (Dropout)            (None, 30, 6, 6)     0           dense_2_0_conv2D[0][0]           
__________________________________________________________________________________________________
concatenate_13 (Concatenate)    (None, 169, 6, 6)    0           average_pooling2d_2[0][0]        
                                                                 dropout_13[0][0]                 
__________________________________________________________________________________________________
dense_2_1_bn (BatchNormalizatio (None, 169, 6, 6)    676         concatenate_13[0][0]             
__________________________________________________________________________________________________
activation_17 (Activation)      (None, 169, 6, 6)    0           dense_2_1_bn[0][0]               
__________________________________________________________________________________________________
dense_2_1_conv2D (Conv2D)       (None, 30, 6, 6)     45630       activation_17[0][0]              
__________________________________________________________________________________________________
dropout_14 (Dropout)            (None, 30, 6, 6)     0           dense_2_1_conv2D[0][0]           
__________________________________________________________________________________________________
concatenate_14 (Concatenate)    (None, 199, 6, 6)    0           concatenate_13[0][0]             
                                                                 dropout_14[0][0]                 
__________________________________________________________________________________________________
dense_2_2_bn (BatchNormalizatio (None, 199, 6, 6)    796         concatenate_14[0][0]             
__________________________________________________________________________________________________
activation_18 (Activation)      (None, 199, 6, 6)    0           dense_2_2_bn[0][0]               
__________________________________________________________________________________________________
dense_2_2_conv2D (Conv2D)       (None, 30, 6, 6)     53730       activation_18[0][0]              
__________________________________________________________________________________________________
dropout_15 (Dropout)            (None, 30, 6, 6)     0           dense_2_2_conv2D[0][0]           
__________________________________________________________________________________________________
concatenate_15 (Concatenate)    (None, 229, 6, 6)    0           concatenate_14[0][0]             
                                                                 dropout_15[0][0]                 
__________________________________________________________________________________________________
dense_2_3_bn (BatchNormalizatio (None, 229, 6, 6)    916         concatenate_15[0][0]             
__________________________________________________________________________________________________
activation_19 (Activation)      (None, 229, 6, 6)    0           dense_2_3_bn[0][0]               
__________________________________________________________________________________________________
dense_2_3_conv2D (Conv2D)       (None, 30, 6, 6)     61830       activation_19[0][0]              
__________________________________________________________________________________________________
dropout_16 (Dropout)            (None, 30, 6, 6)     0           dense_2_3_conv2D[0][0]           
__________________________________________________________________________________________________
concatenate_16 (Concatenate)    (None, 259, 6, 6)    0           concatenate_15[0][0]             
                                                                 dropout_16[0][0]                 
__________________________________________________________________________________________________
dense_2_4_bn (BatchNormalizatio (None, 259, 6, 6)    1036        concatenate_16[0][0]             
__________________________________________________________________________________________________
activation_20 (Activation)      (None, 259, 6, 6)    0           dense_2_4_bn[0][0]               
__________________________________________________________________________________________________
dense_2_4_conv2D (Conv2D)       (None, 30, 6, 6)     69930       activation_20[0][0]              
__________________________________________________________________________________________________
dropout_17 (Dropout)            (None, 30, 6, 6)     0           dense_2_4_conv2D[0][0]           
__________________________________________________________________________________________________
concatenate_17 (Concatenate)    (None, 289, 6, 6)    0           concatenate_16[0][0]             
                                                                 dropout_17[0][0]                 
__________________________________________________________________________________________________
dense_2_5_bn (BatchNormalizatio (None, 289, 6, 6)    1156        concatenate_17[0][0]             
__________________________________________________________________________________________________
activation_21 (Activation)      (None, 289, 6, 6)    0           dense_2_5_bn[0][0]               
__________________________________________________________________________________________________
dense_2_5_conv2D (Conv2D)       (None, 30, 6, 6)     78030       activation_21[0][0]              
__________________________________________________________________________________________________
dropout_18 (Dropout)            (None, 30, 6, 6)     0           dense_2_5_conv2D[0][0]           
__________________________________________________________________________________________________
concatenate_18 (Concatenate)    (None, 319, 6, 6)    0           concatenate_17[0][0]             
                                                                 dropout_18[0][0]                 
__________________________________________________________________________________________________
tr_2_bn (BatchNormalization)    (None, 319, 6, 6)    1276        concatenate_18[0][0]             
__________________________________________________________________________________________________
activation_22 (Activation)      (None, 319, 6, 6)    0           tr_2_bn[0][0]                    
__________________________________________________________________________________________________
tr_2_conv2D (Conv2D)            (None, 159, 6, 6)    50721       activation_22[0][0]              
__________________________________________________________________________________________________
average_pooling2d_3 (AveragePoo (None, 159, 3, 3)    0           tr_2_conv2D[0][0]                
__________________________________________________________________________________________________
dense_3_0_bn (BatchNormalizatio (None, 159, 3, 3)    636         average_pooling2d_3[0][0]        
__________________________________________________________________________________________________
activation_23 (Activation)      (None, 159, 3, 3)    0           dense_3_0_bn[0][0]               
__________________________________________________________________________________________________
dense_3_0_conv2D (Conv2D)       (None, 30, 3, 3)     42930       activation_23[0][0]              
__________________________________________________________________________________________________
dropout_19 (Dropout)            (None, 30, 3, 3)     0           dense_3_0_conv2D[0][0]           
__________________________________________________________________________________________________
concatenate_19 (Concatenate)    (None, 189, 3, 3)    0           average_pooling2d_3[0][0]        
                                                                 dropout_19[0][0]                 
__________________________________________________________________________________________________
dense_3_1_bn (BatchNormalizatio (None, 189, 3, 3)    756         concatenate_19[0][0]             
__________________________________________________________________________________________________
activation_24 (Activation)      (None, 189, 3, 3)    0           dense_3_1_bn[0][0]               
__________________________________________________________________________________________________
dense_3_1_conv2D (Conv2D)       (None, 30, 3, 3)     51030       activation_24[0][0]              
__________________________________________________________________________________________________
dropout_20 (Dropout)            (None, 30, 3, 3)     0           dense_3_1_conv2D[0][0]           
__________________________________________________________________________________________________
concatenate_20 (Concatenate)    (None, 219, 3, 3)    0           concatenate_19[0][0]             
                                                                 dropout_20[0][0]                 
__________________________________________________________________________________________________
dense_3_2_bn (BatchNormalizatio (None, 219, 3, 3)    876         concatenate_20[0][0]             
__________________________________________________________________________________________________
activation_25 (Activation)      (None, 219, 3, 3)    0           dense_3_2_bn[0][0]               
__________________________________________________________________________________________________
dense_3_2_conv2D (Conv2D)       (None, 30, 3, 3)     59130       activation_25[0][0]              
__________________________________________________________________________________________________
dropout_21 (Dropout)            (None, 30, 3, 3)     0           dense_3_2_conv2D[0][0]           
__________________________________________________________________________________________________
concatenate_21 (Concatenate)    (None, 249, 3, 3)    0           concatenate_20[0][0]             
                                                                 dropout_21[0][0]                 
__________________________________________________________________________________________________
dense_3_3_bn (BatchNormalizatio (None, 249, 3, 3)    996         concatenate_21[0][0]             
__________________________________________________________________________________________________
activation_26 (Activation)      (None, 249, 3, 3)    0           dense_3_3_bn[0][0]               
__________________________________________________________________________________________________
dense_3_3_conv2D (Conv2D)       (None, 30, 3, 3)     67230       activation_26[0][0]              
__________________________________________________________________________________________________
dropout_22 (Dropout)            (None, 30, 3, 3)     0           dense_3_3_conv2D[0][0]           
__________________________________________________________________________________________________
concatenate_22 (Concatenate)    (None, 279, 3, 3)    0           concatenate_21[0][0]             
                                                                 dropout_22[0][0]                 
__________________________________________________________________________________________________
dense_3_4_bn (BatchNormalizatio (None, 279, 3, 3)    1116        concatenate_22[0][0]             
__________________________________________________________________________________________________
activation_27 (Activation)      (None, 279, 3, 3)    0           dense_3_4_bn[0][0]               
__________________________________________________________________________________________________
dense_3_4_conv2D (Conv2D)       (None, 30, 3, 3)     75330       activation_27[0][0]              
__________________________________________________________________________________________________
dropout_23 (Dropout)            (None, 30, 3, 3)     0           dense_3_4_conv2D[0][0]           
__________________________________________________________________________________________________
concatenate_23 (Concatenate)    (None, 309, 3, 3)    0           concatenate_22[0][0]             
                                                                 dropout_23[0][0]                 
__________________________________________________________________________________________________
dense_3_5_bn (BatchNormalizatio (None, 309, 3, 3)    1236        concatenate_23[0][0]             
__________________________________________________________________________________________________
activation_28 (Activation)      (None, 309, 3, 3)    0           dense_3_5_bn[0][0]               
__________________________________________________________________________________________________
dense_3_5_conv2D (Conv2D)       (None, 30, 3, 3)     83430       activation_28[0][0]              
__________________________________________________________________________________________________
dropout_24 (Dropout)            (None, 30, 3, 3)     0           dense_3_5_conv2D[0][0]           
__________________________________________________________________________________________________
concatenate_24 (Concatenate)    (None, 339, 3, 3)    0           concatenate_23[0][0]             
                                                                 dropout_24[0][0]                 
__________________________________________________________________________________________________
final_bn (BatchNormalization)   (None, 339, 3, 3)    1356        concatenate_24[0][0]             
__________________________________________________________________________________________________
activation_29 (Activation)      (None, 339, 3, 3)    0           final_bn[0][0]                   
__________________________________________________________________________________________________
global_average_pooling2d_1 (Glo (None, 339)          0           activation_29[0][0]              
__________________________________________________________________________________________________
dense_1 (Dense)                 (None, 1)            340         global_average_pooling2d_1[0][0] 
==================================================================================================
Total params: 1,285,599
Trainable params: 1,274,759
Non-trainable params: 10,840
__________________________________________________________________________________________________
Finished compiling
Train on 39840 samples, validate on 7968 samples
Epoch 1/14
…
