…
  53:     print("Best saved model val accuracy:%0.3f"% acc)
  54:     pred = model.predict(X_val)
  55:     auc_score = roc_auc_score(y_val,pred)
  56:     print("best saved model auc_score ------------------> %0.3f"%auc_score)
  57: 
  58:     
  59:     return {'loss': -auc_score, 'status': STATUS_OK, 'model': model}  
  60: 
__________________________________________________________________________________________________
Layer (type)                    Output Shape         Param #     Connected to                     
==================================================================================================
input_1 (InputLayer)            (None, 2, 96, 96)    0                                            
__________________________________________________________________________________________________
initial_conv2D (Conv2D)         (None, 16, 96, 96)   288         input_1[0][0]                    
__________________________________________________________________________________________________
dense_0_0_bn (BatchNormalizatio (None, 16, 96, 96)   64          initial_conv2D[0][0]             
__________________________________________________________________________________________________
activation_1 (Activation)       (None, 16, 96, 96)   0           dense_0_0_bn[0][0]               
__________________________________________________________________________________________________
dense_0_0_bottleneck_conv2D (Co (None, 72, 96, 96)   1152        activation_1[0][0]               
__________________________________________________________________________________________________
dense_0_0_bottleneck_bn (BatchN (None, 72, 96, 96)   288         dense_0_0_bottleneck_conv2D[0][0]
__________________________________________________________________________________________________
activation_2 (Activation)       (None, 72, 96, 96)   0           dense_0_0_bottleneck_bn[0][0]    
__________________________________________________________________________________________________
dense_0_0_conv2D (Conv2D)       (None, 18, 96, 96)   11664       activation_2[0][0]               
__________________________________________________________________________________________________
concatenate_1 (Concatenate)     (None, 34, 96, 96)   0           initial_conv2D[0][0]             
                                                                 dense_0_0_conv2D[0][0]           
__________________________________________________________________________________________________
dense_0_1_bn (BatchNormalizatio (None, 34, 96, 96)   136         concatenate_1[0][0]              
__________________________________________________________________________________________________
activation_3 (Activation)       (None, 34, 96, 96)   0           dense_0_1_bn[0][0]               
__________________________________________________________________________________________________
dense_0_1_bottleneck_conv2D (Co (None, 72, 96, 96)   2448        activation_3[0][0]               
__________________________________________________________________________________________________
dense_0_1_bottleneck_bn (BatchN (None, 72, 96, 96)   288         dense_0_1_bottleneck_conv2D[0][0]
__________________________________________________________________________________________________
activation_4 (Activation)       (None, 72, 96, 96)   0           dense_0_1_bottleneck_bn[0][0]    
__________________________________________________________________________________________________
dense_0_1_conv2D (Conv2D)       (None, 18, 96, 96)   11664       activation_4[0][0]               
__________________________________________________________________________________________________
concatenate_2 (Concatenate)     (None, 52, 96, 96)   0           concatenate_1[0][0]              
                                                                 dense_0_1_conv2D[0][0]           
__________________________________________________________________________________________________
dense_0_2_bn (BatchNormalizatio (None, 52, 96, 96)   208         concatenate_2[0][0]              
__________________________________________________________________________________________________
activation_5 (Activation)       (None, 52, 96, 96)   0           dense_0_2_bn[0][0]               
__________________________________________________________________________________________________
dense_0_2_bottleneck_conv2D (Co (None, 72, 96, 96)   3744        activation_5[0][0]               
__________________________________________________________________________________________________
dense_0_2_bottleneck_bn (BatchN (None, 72, 96, 96)   288         dense_0_2_bottleneck_conv2D[0][0]
__________________________________________________________________________________________________
activation_6 (Activation)       (None, 72, 96, 96)   0           dense_0_2_bottleneck_bn[0][0]    
__________________________________________________________________________________________________
dense_0_2_conv2D (Conv2D)       (None, 18, 96, 96)   11664       activation_6[0][0]               
__________________________________________________________________________________________________
concatenate_3 (Concatenate)     (None, 70, 96, 96)   0           concatenate_2[0][0]              
                                                                 dense_0_2_conv2D[0][0]           
__________________________________________________________________________________________________
tr_0_bn (BatchNormalization)    (None, 70, 96, 96)   280         concatenate_3[0][0]              
__________________________________________________________________________________________________
activation_7 (Activation)       (None, 70, 96, 96)   0           tr_0_bn[0][0]                    
__________________________________________________________________________________________________
tr_0_conv2D (Conv2D)            (None, 35, 96, 96)   2450        activation_7[0][0]               
__________________________________________________________________________________________________
average_pooling2d_1 (AveragePoo (None, 35, 48, 48)   0           tr_0_conv2D[0][0]                
__________________________________________________________________________________________________
dense_1_0_bn (BatchNormalizatio (None, 35, 48, 48)   140         average_pooling2d_1[0][0]        
__________________________________________________________________________________________________
activation_8 (Activation)       (None, 35, 48, 48)   0           dense_1_0_bn[0][0]               
__________________________________________________________________________________________________
dense_1_0_bottleneck_conv2D (Co (None, 72, 48, 48)   2520        activation_8[0][0]               
__________________________________________________________________________________________________
dense_1_0_bottleneck_bn (BatchN (None, 72, 48, 48)   288         dense_1_0_bottleneck_conv2D[0][0]
__________________________________________________________________________________________________
activation_9 (Activation)       (None, 72, 48, 48)   0           dense_1_0_bottleneck_bn[0][0]    
__________________________________________________________________________________________________
dense_1_0_conv2D (Conv2D)       (None, 18, 48, 48)   11664       activation_9[0][0]               
__________________________________________________________________________________________________
concatenate_4 (Concatenate)     (None, 53, 48, 48)   0           average_pooling2d_1[0][0]        
                                                                 dense_1_0_conv2D[0][0]           
__________________________________________________________________________________________________
dense_1_1_bn (BatchNormalizatio (None, 53, 48, 48)   212         concatenate_4[0][0]              
__________________________________________________________________________________________________
activation_10 (Activation)      (None, 53, 48, 48)   0           dense_1_1_bn[0][0]               
__________________________________________________________________________________________________
dense_1_1_bottleneck_conv2D (Co (None, 72, 48, 48)   3816        activation_10[0][0]              
__________________________________________________________________________________________________
dense_1_1_bottleneck_bn (BatchN (None, 72, 48, 48)   288         dense_1_1_bottleneck_conv2D[0][0]
__________________________________________________________________________________________________
activation_11 (Activation)      (None, 72, 48, 48)   0           dense_1_1_bottleneck_bn[0][0]    
__________________________________________________________________________________________________
dense_1_1_conv2D (Conv2D)       (None, 18, 48, 48)   11664       activation_11[0][0]              
__________________________________________________________________________________________________
concatenate_5 (Concatenate)     (None, 71, 48, 48)   0           concatenate_4[0][0]              
                                                                 dense_1_1_conv2D[0][0]           
__________________________________________________________________________________________________
dense_1_2_bn (BatchNormalizatio (None, 71, 48, 48)   284         concatenate_5[0][0]              
__________________________________________________________________________________________________
activation_12 (Activation)      (None, 71, 48, 48)   0           dense_1_2_bn[0][0]               
__________________________________________________________________________________________________
dense_1_2_bottleneck_conv2D (Co (None, 72, 48, 48)   5112        activation_12[0][0]              
__________________________________________________________________________________________________
dense_1_2_bottleneck_bn (BatchN (None, 72, 48, 48)   288         dense_1_2_bottleneck_conv2D[0][0]
__________________________________________________________________________________________________
activation_13 (Activation)      (None, 72, 48, 48)   0           dense_1_2_bottleneck_bn[0][0]    
__________________________________________________________________________________________________
dense_1_2_conv2D (Conv2D)       (None, 18, 48, 48)   11664       activation_13[0][0]              
__________________________________________________________________________________________________
concatenate_6 (Concatenate)     (None, 89, 48, 48)   0           concatenate_5[0][0]              
                                                                 dense_1_2_conv2D[0][0]           
__________________________________________________________________________________________________
tr_1_bn (BatchNormalization)    (None, 89, 48, 48)   356         concatenate_6[0][0]              
__________________________________________________________________________________________________
activation_14 (Activation)      (None, 89, 48, 48)   0           tr_1_bn[0][0]                    
__________________________________________________________________________________________________
tr_1_conv2D (Conv2D)            (None, 44, 48, 48)   3916        activation_14[0][0]              
__________________________________________________________________________________________________
average_pooling2d_2 (AveragePoo (None, 44, 24, 24)   0           tr_1_conv2D[0][0]                
__________________________________________________________________________________________________
dense_2_0_bn (BatchNormalizatio (None, 44, 24, 24)   176         average_pooling2d_2[0][0]        
__________________________________________________________________________________________________
activation_15 (Activation)      (None, 44, 24, 24)   0           dense_2_0_bn[0][0]               
__________________________________________________________________________________________________
dense_2_0_bottleneck_conv2D (Co (None, 72, 24, 24)   3168        activation_15[0][0]              
__________________________________________________________________________________________________
dense_2_0_bottleneck_bn (BatchN (None, 72, 24, 24)   288         dense_2_0_bottleneck_conv2D[0][0]
__________________________________________________________________________________________________
activation_16 (Activation)      (None, 72, 24, 24)   0           dense_2_0_bottleneck_bn[0][0]    
__________________________________________________________________________________________________
dense_2_0_conv2D (Conv2D)       (None, 18, 24, 24)   11664       activation_16[0][0]              
__________________________________________________________________________________________________
concatenate_7 (Concatenate)     (None, 62, 24, 24)   0           average_pooling2d_2[0][0]        
                                                                 dense_2_0_conv2D[0][0]           
__________________________________________________________________________________________________
dense_2_1_bn (BatchNormalizatio (None, 62, 24, 24)   248         concatenate_7[0][0]              
__________________________________________________________________________________________________
activation_17 (Activation)      (None, 62, 24, 24)   0           dense_2_1_bn[0][0]               
__________________________________________________________________________________________________
dense_2_1_bottleneck_conv2D (Co (None, 72, 24, 24)   4464        activation_17[0][0]              
__________________________________________________________________________________________________
dense_2_1_bottleneck_bn (BatchN (None, 72, 24, 24)   288         dense_2_1_bottleneck_conv2D[0][0]
__________________________________________________________________________________________________
activation_18 (Activation)      (None, 72, 24, 24)   0           dense_2_1_bottleneck_bn[0][0]    
__________________________________________________________________________________________________
dense_2_1_conv2D (Conv2D)       (None, 18, 24, 24)   11664       activation_18[0][0]              
__________________________________________________________________________________________________
concatenate_8 (Concatenate)     (None, 80, 24, 24)   0           concatenate_7[0][0]              
                                                                 dense_2_1_conv2D[0][0]           
__________________________________________________________________________________________________
dense_2_2_bn (BatchNormalizatio (None, 80, 24, 24)   320         concatenate_8[0][0]              
__________________________________________________________________________________________________
activation_19 (Activation)      (None, 80, 24, 24)   0           dense_2_2_bn[0][0]               
__________________________________________________________________________________________________
dense_2_2_bottleneck_conv2D (Co (None, 72, 24, 24)   5760        activation_19[0][0]              
__________________________________________________________________________________________________
dense_2_2_bottleneck_bn (BatchN (None, 72, 24, 24)   288         dense_2_2_bottleneck_conv2D[0][0]
__________________________________________________________________________________________________
activation_20 (Activation)      (None, 72, 24, 24)   0           dense_2_2_bottleneck_bn[0][0]    
__________________________________________________________________________________________________
dense_2_2_conv2D (Conv2D)       (None, 18, 24, 24)   11664       activation_20[0][0]              
__________________________________________________________________________________________________
concatenate_9 (Concatenate)     (None, 98, 24, 24)   0           concatenate_8[0][0]              
                                                                 dense_2_2_conv2D[0][0]           
__________________________________________________________________________________________________
final_bn (BatchNormalization)   (None, 98, 24, 24)   392         concatenate_9[0][0]              
__________________________________________________________________________________________________
activation_21 (Activation)      (None, 98, 24, 24)   0           final_bn[0][0]                   
__________________________________________________________________________________________________
global_average_pooling2d_1 (Glo (None, 98)           0           activation_21[0][0]              
__________________________________________________________________________________________________
dense_1 (Dense)                 (None, 1)            99          global_average_pooling2d_1[0][0] 
==================================================================================================
Total params: 149,321
Trainable params: 146,617
Non-trainable params: 2,704
__________________________________________________________________________________________________
Train on 31872 samples, validate on 7968 samples
Epoch 1/25
 - 54s - loss: 0.5386 - acc: 0.7500 - val_loss: 1.0599 - val_acc: 0.6445
…
