python hello-world.py
python hyperas_contrastive_loss.py
__________________________________________________________________________________________________
Layer (type)                    Output Shape         Param #     Connected to                     
==================================================================================================
input_2 (InputLayer)            (None, 1, 96, 96)    0                                            
__________________________________________________________________________________________________
input_3 (InputLayer)            (None, 1, 96, 96)    0                                            
__________________________________________________________________________________________________
DenseNet (Model)                (None, 2688)         15728       input_2[0][0]                    
                                                                 input_3[0][0]                    
__________________________________________________________________________________________________
merge_features (Concatenate)    (None, 5376)         0           DenseNet[1][0]                   
                                                                 DenseNet[2][0]                   
__________________________________________________________________________________________________
dense_1 (Dense)                 (None, 512)          2753024     merge_features[0][0]             
__________________________________________________________________________________________________
dropout_2 (Dropout)             (None, 512)          0           dense_1[0][0]                    
__________________________________________________________________________________________________
dense_2 (Dense)                 (None, 512)          262656      dropout_2[0][0]                  
__________________________________________________________________________________________________
activation_3 (Activation)       (None, 512)          0           dense_2[0][0]                    
__________________________________________________________________________________________________
dropout_3 (Dropout)             (None, 512)          0           activation_3[0][0]               
__________________________________________________________________________________________________
dense_3 (Dense)                 (None, 1)            513         dropout_3[0][0]                  
==================================================================================================
Total params: 3,031,921
Trainable params: 3,031,833
Non-trainable params: 88
__________________________________________________________________________________________________
Train on 31872 samples, validate on 7968 samples
Epoch 1/5

   64/31872 [..............................] - ETA: 5:17 - loss: 0.7544 - acc: 0.5312
…
