…
Layers:  [2, 2, 2]  Growth_rate:  30  nb_filter:  16  dropout:  0.2
dense_block:  3  reduction:  0.0  bottleneck:  False
Epochs:  21  batch_size:  64  lr:  0.07  optimizer:  adadelta
 es_patience:  4  lr_patience:  3  pooling:  avg
------------------------	  end of configs        -------------------------
pooling:avg
__________________________________________________________________________________________________
Layer (type)                    Output Shape         Param #     Connected to                     
==================================================================================================
input_1 (InputLayer)            (None, 2, 96, 96)    0                                            
__________________________________________________________________________________________________
initial_conv2D (Conv2D)         (None, 16, 48, 48)   1568        input_1[0][0]                    
__________________________________________________________________________________________________
initial_bn (BatchNormalization) (None, 16, 48, 48)   64          initial_conv2D[0][0]             
__________________________________________________________________________________________________
activation_1 (Activation)       (None, 16, 48, 48)   0           initial_bn[0][0]                 
__________________________________________________________________________________________________
max_pooling2d_1 (MaxPooling2D)  (None, 16, 24, 24)   0           activation_1[0][0]               
__________________________________________________________________________________________________
dense_0_0_bn (BatchNormalizatio (None, 16, 24, 24)   64          max_pooling2d_1[0][0]            
__________________________________________________________________________________________________
activation_2 (Activation)       (None, 16, 24, 24)   0           dense_0_0_bn[0][0]               
__________________________________________________________________________________________________
dense_0_0_conv2D (Conv2D)       (None, 30, 24, 24)   4320        activation_2[0][0]               
__________________________________________________________________________________________________
dropout_1 (Dropout)             (None, 30, 24, 24)   0           dense_0_0_conv2D[0][0]           
__________________________________________________________________________________________________
concatenate_1 (Concatenate)     (None, 46, 24, 24)   0           max_pooling2d_1[0][0]            
                                                                 dropout_1[0][0]                  
__________________________________________________________________________________________________
dense_0_1_bn (BatchNormalizatio (None, 46, 24, 24)   184         concatenate_1[0][0]              
__________________________________________________________________________________________________
activation_3 (Activation)       (None, 46, 24, 24)   0           dense_0_1_bn[0][0]               
__________________________________________________________________________________________________
dense_0_1_conv2D (Conv2D)       (None, 30, 24, 24)   12420       activation_3[0][0]               
__________________________________________________________________________________________________
dropout_2 (Dropout)             (None, 30, 24, 24)   0           dense_0_1_conv2D[0][0]           
__________________________________________________________________________________________________
concatenate_2 (Concatenate)     (None, 76, 24, 24)   0           concatenate_1[0][0]              
                                                                 dropout_2[0][0]                  
__________________________________________________________________________________________________
tr_0_bn (BatchNormalization)    (None, 76, 24, 24)   304         concatenate_2[0][0]              
__________________________________________________________________________________________________
activation_4 (Activation)       (None, 76, 24, 24)   0           tr_0_bn[0][0]                    
__________________________________________________________________________________________________
tr_0_conv2D (Conv2D)            (None, 76, 24, 24)   5776        activation_4[0][0]               
__________________________________________________________________________________________________
average_pooling2d_1 (AveragePoo (None, 76, 12, 12)   0           tr_0_conv2D[0][0]                
__________________________________________________________________________________________________
dense_1_0_bn (BatchNormalizatio (None, 76, 12, 12)   304         average_pooling2d_1[0][0]        
__________________________________________________________________________________________________
activation_5 (Activation)       (None, 76, 12, 12)   0           dense_1_0_bn[0][0]               
__________________________________________________________________________________________________
dense_1_0_conv2D (Conv2D)       (None, 30, 12, 12)   20520       activation_5[0][0]               
__________________________________________________________________________________________________
dropout_3 (Dropout)             (None, 30, 12, 12)   0           dense_1_0_conv2D[0][0]           
__________________________________________________________________________________________________
concatenate_3 (Concatenate)     (None, 106, 12, 12)  0           average_pooling2d_1[0][0]        
                                                                 dropout_3[0][0]                  
__________________________________________________________________________________________________
dense_1_1_bn (BatchNormalizatio (None, 106, 12, 12)  424         concatenate_3[0][0]              
__________________________________________________________________________________________________
activation_6 (Activation)       (None, 106, 12, 12)  0           dense_1_1_bn[0][0]               
__________________________________________________________________________________________________
dense_1_1_conv2D (Conv2D)       (None, 30, 12, 12)   28620       activation_6[0][0]               
__________________________________________________________________________________________________
dropout_4 (Dropout)             (None, 30, 12, 12)   0           dense_1_1_conv2D[0][0]           
__________________________________________________________________________________________________
concatenate_4 (Concatenate)     (None, 136, 12, 12)  0           concatenate_3[0][0]              
                                                                 dropout_4[0][0]                  
__________________________________________________________________________________________________
tr_1_bn (BatchNormalization)    (None, 136, 12, 12)  544         concatenate_4[0][0]              
__________________________________________________________________________________________________
activation_7 (Activation)       (None, 136, 12, 12)  0           tr_1_bn[0][0]                    
__________________________________________________________________________________________________
tr_1_conv2D (Conv2D)            (None, 136, 12, 12)  18496       activation_7[0][0]               
__________________________________________________________________________________________________
average_pooling2d_2 (AveragePoo (None, 136, 6, 6)    0           tr_1_conv2D[0][0]                
__________________________________________________________________________________________________
dense_2_0_bn (BatchNormalizatio (None, 136, 6, 6)    544         average_pooling2d_2[0][0]        
__________________________________________________________________________________________________
activation_8 (Activation)       (None, 136, 6, 6)    0           dense_2_0_bn[0][0]               
__________________________________________________________________________________________________
dense_2_0_conv2D (Conv2D)       (None, 30, 6, 6)     36720       activation_8[0][0]               
__________________________________________________________________________________________________
dropout_5 (Dropout)             (None, 30, 6, 6)     0           dense_2_0_conv2D[0][0]           
__________________________________________________________________________________________________
concatenate_5 (Concatenate)     (None, 166, 6, 6)    0           average_pooling2d_2[0][0]        
                                                                 dropout_5[0][0]                  
__________________________________________________________________________________________________
dense_2_1_bn (BatchNormalizatio (None, 166, 6, 6)    664         concatenate_5[0][0]              
__________________________________________________________________________________________________
activation_9 (Activation)       (None, 166, 6, 6)    0           dense_2_1_bn[0][0]               
__________________________________________________________________________________________________
dense_2_1_conv2D (Conv2D)       (None, 30, 6, 6)     44820       activation_9[0][0]               
__________________________________________________________________________________________________
dropout_6 (Dropout)             (None, 30, 6, 6)     0           dense_2_1_conv2D[0][0]           
__________________________________________________________________________________________________
concatenate_6 (Concatenate)     (None, 196, 6, 6)    0           concatenate_5[0][0]              
                                                                 dropout_6[0][0]                  
__________________________________________________________________________________________________
final_bn (BatchNormalization)   (None, 196, 6, 6)    784         concatenate_6[0][0]              
__________________________________________________________________________________________________
activation_10 (Activation)      (None, 196, 6, 6)    0           final_bn[0][0]                   
__________________________________________________________________________________________________
global_average_pooling2d_1 (Glo (None, 196)          0           activation_10[0][0]              
__________________________________________________________________________________________________
dense_1 (Dense)                 (None, 1)            197         global_average_pooling2d_1[0][0] 
==================================================================================================
Total params: 177,337
Trainable params: 175,397
Non-trainable params: 1,940
__________________________________________________________________________________________________
Finished compiling
Train on 39840 samples, validate on 7968 samples
Epoch 1/21
 - 26s - loss: 0.5165 - acc: 0.7633 - val_loss: 0.4756 - val_acc: 0.7864
…
Layers:  [2, 2, 2]  Growth_rate:  30  nb_filter:  16  dropout:  0.2
dense_block:  3  reduction:  0.2  bottleneck:  False
Epochs:  21  batch_size:  64  lr:  0.07  optimizer:  adadelta
 es_patience:  4  lr_patience:  3  pooling:  avg
------------------------	  end of configs        -------------------------
pooling:avg
__________________________________________________________________________________________________
Layer (type)                    Output Shape         Param #     Connected to                     
==================================================================================================
input_1 (InputLayer)            (None, 2, 96, 96)    0                                            
__________________________________________________________________________________________________
initial_conv2D (Conv2D)         (None, 16, 48, 48)   1568        input_1[0][0]                    
__________________________________________________________________________________________________
initial_bn (BatchNormalization) (None, 16, 48, 48)   64          initial_conv2D[0][0]             
__________________________________________________________________________________________________
activation_1 (Activation)       (None, 16, 48, 48)   0           initial_bn[0][0]                 
__________________________________________________________________________________________________
max_pooling2d_1 (MaxPooling2D)  (None, 16, 24, 24)   0           activation_1[0][0]               
__________________________________________________________________________________________________
dense_0_0_bn (BatchNormalizatio (None, 16, 24, 24)   64          max_pooling2d_1[0][0]            
__________________________________________________________________________________________________
activation_2 (Activation)       (None, 16, 24, 24)   0           dense_0_0_bn[0][0]               
__________________________________________________________________________________________________
dense_0_0_conv2D (Conv2D)       (None, 30, 24, 24)   4320        activation_2[0][0]               
__________________________________________________________________________________________________
dropout_1 (Dropout)             (None, 30, 24, 24)   0           dense_0_0_conv2D[0][0]           
__________________________________________________________________________________________________
concatenate_1 (Concatenate)     (None, 46, 24, 24)   0           max_pooling2d_1[0][0]            
                                                                 dropout_1[0][0]                  
__________________________________________________________________________________________________
dense_0_1_bn (BatchNormalizatio (None, 46, 24, 24)   184         concatenate_1[0][0]              
__________________________________________________________________________________________________
activation_3 (Activation)       (None, 46, 24, 24)   0           dense_0_1_bn[0][0]               
__________________________________________________________________________________________________
dense_0_1_conv2D (Conv2D)       (None, 30, 24, 24)   12420       activation_3[0][0]               
__________________________________________________________________________________________________
dropout_2 (Dropout)             (None, 30, 24, 24)   0           dense_0_1_conv2D[0][0]           
__________________________________________________________________________________________________
concatenate_2 (Concatenate)     (None, 76, 24, 24)   0           concatenate_1[0][0]              
                                                                 dropout_2[0][0]                  
__________________________________________________________________________________________________
tr_0_bn (BatchNormalization)    (None, 76, 24, 24)   304         concatenate_2[0][0]              
__________________________________________________________________________________________________
activation_4 (Activation)       (None, 76, 24, 24)   0           tr_0_bn[0][0]                    
__________________________________________________________________________________________________
tr_0_conv2D (Conv2D)            (None, 60, 24, 24)   4560        activation_4[0][0]               
__________________________________________________________________________________________________
average_pooling2d_1 (AveragePoo (None, 60, 12, 12)   0           tr_0_conv2D[0][0]                
__________________________________________________________________________________________________
dense_1_0_bn (BatchNormalizatio (None, 60, 12, 12)   240         average_pooling2d_1[0][0]        
__________________________________________________________________________________________________
activation_5 (Activation)       (None, 60, 12, 12)   0           dense_1_0_bn[0][0]               
__________________________________________________________________________________________________
dense_1_0_conv2D (Conv2D)       (None, 30, 12, 12)   16200       activation_5[0][0]               
__________________________________________________________________________________________________
dropout_3 (Dropout)             (None, 30, 12, 12)   0           dense_1_0_conv2D[0][0]           
__________________________________________________________________________________________________
concatenate_3 (Concatenate)     (None, 90, 12, 12)   0           average_pooling2d_1[0][0]        
                                                                 dropout_3[0][0]                  
__________________________________________________________________________________________________
dense_1_1_bn (BatchNormalizatio (None, 90, 12, 12)   360         concatenate_3[0][0]              
__________________________________________________________________________________________________
activation_6 (Activation)       (None, 90, 12, 12)   0           dense_1_1_bn[0][0]               
__________________________________________________________________________________________________
dense_1_1_conv2D (Conv2D)       (None, 30, 12, 12)   24300       activation_6[0][0]               
__________________________________________________________________________________________________
dropout_4 (Dropout)             (None, 30, 12, 12)   0           dense_1_1_conv2D[0][0]           
__________________________________________________________________________________________________
concatenate_4 (Concatenate)     (None, 120, 12, 12)  0           concatenate_3[0][0]              
                                                                 dropout_4[0][0]                  
__________________________________________________________________________________________________
tr_1_bn (BatchNormalization)    (None, 120, 12, 12)  480         concatenate_4[0][0]              
__________________________________________________________________________________________________
activation_7 (Activation)       (None, 120, 12, 12)  0           tr_1_bn[0][0]                    
__________________________________________________________________________________________________
tr_1_conv2D (Conv2D)            (None, 96, 12, 12)   11520       activation_7[0][0]               
__________________________________________________________________________________________________
average_pooling2d_2 (AveragePoo (None, 96, 6, 6)     0           tr_1_conv2D[0][0]                
__________________________________________________________________________________________________
dense_2_0_bn (BatchNormalizatio (None, 96, 6, 6)     384         average_pooling2d_2[0][0]        
__________________________________________________________________________________________________
activation_8 (Activation)       (None, 96, 6, 6)     0           dense_2_0_bn[0][0]               
__________________________________________________________________________________________________
dense_2_0_conv2D (Conv2D)       (None, 30, 6, 6)     25920       activation_8[0][0]               
__________________________________________________________________________________________________
dropout_5 (Dropout)             (None, 30, 6, 6)     0           dense_2_0_conv2D[0][0]           
__________________________________________________________________________________________________
concatenate_5 (Concatenate)     (None, 126, 6, 6)    0           average_pooling2d_2[0][0]        
                                                                 dropout_5[0][0]                  
__________________________________________________________________________________________________
dense_2_1_bn (BatchNormalizatio (None, 126, 6, 6)    504         concatenate_5[0][0]              
__________________________________________________________________________________________________
activation_9 (Activation)       (None, 126, 6, 6)    0           dense_2_1_bn[0][0]               
__________________________________________________________________________________________________
dense_2_1_conv2D (Conv2D)       (None, 30, 6, 6)     34020       activation_9[0][0]               
__________________________________________________________________________________________________
dropout_6 (Dropout)             (None, 30, 6, 6)     0           dense_2_1_conv2D[0][0]           
__________________________________________________________________________________________________
concatenate_6 (Concatenate)     (None, 156, 6, 6)    0           concatenate_5[0][0]              
                                                                 dropout_6[0][0]                  
__________________________________________________________________________________________________
final_bn (BatchNormalization)   (None, 156, 6, 6)    624         concatenate_6[0][0]              
__________________________________________________________________________________________________
activation_10 (Activation)      (None, 156, 6, 6)    0           final_bn[0][0]                   
__________________________________________________________________________________________________
global_average_pooling2d_1 (Glo (None, 156)          0           activation_10[0][0]              
__________________________________________________________________________________________________
dense_1 (Dense)                 (None, 1)            157         global_average_pooling2d_1[0][0] 
==================================================================================================
Total params: 138,193
Trainable params: 136,589
Non-trainable params: 1,604
__________________________________________________________________________________________________
Finished compiling
Train on 39840 samples, validate on 7968 samples
Epoch 1/21
 - 22s - loss: 0.5330 - acc: 0.7488 - val_loss: 0.4602 - val_acc: 0.7853
…
Layers:  [2, 2, 2]  Growth_rate:  30  nb_filter:  16  dropout:  0.2
dense_block:  3  reduction:  0.3  bottleneck:  False
Epochs:  21  batch_size:  64  lr:  0.07  optimizer:  adadelta
 es_patience:  4  lr_patience:  3  pooling:  avg
------------------------	  end of configs        -------------------------
pooling:avg
__________________________________________________________________________________________________
Layer (type)                    Output Shape         Param #     Connected to                     
==================================================================================================
input_1 (InputLayer)            (None, 2, 96, 96)    0                                            
__________________________________________________________________________________________________
initial_conv2D (Conv2D)         (None, 16, 48, 48)   1568        input_1[0][0]                    
__________________________________________________________________________________________________
initial_bn (BatchNormalization) (None, 16, 48, 48)   64          initial_conv2D[0][0]             
__________________________________________________________________________________________________
activation_1 (Activation)       (None, 16, 48, 48)   0           initial_bn[0][0]                 
__________________________________________________________________________________________________
max_pooling2d_1 (MaxPooling2D)  (None, 16, 24, 24)   0           activation_1[0][0]               
__________________________________________________________________________________________________
dense_0_0_bn (BatchNormalizatio (None, 16, 24, 24)   64          max_pooling2d_1[0][0]            
__________________________________________________________________________________________________
activation_2 (Activation)       (None, 16, 24, 24)   0           dense_0_0_bn[0][0]               
__________________________________________________________________________________________________
dense_0_0_conv2D (Conv2D)       (None, 30, 24, 24)   4320        activation_2[0][0]               
__________________________________________________________________________________________________
dropout_1 (Dropout)             (None, 30, 24, 24)   0           dense_0_0_conv2D[0][0]           
__________________________________________________________________________________________________
concatenate_1 (Concatenate)     (None, 46, 24, 24)   0           max_pooling2d_1[0][0]            
                                                                 dropout_1[0][0]                  
__________________________________________________________________________________________________
dense_0_1_bn (BatchNormalizatio (None, 46, 24, 24)   184         concatenate_1[0][0]              
__________________________________________________________________________________________________
activation_3 (Activation)       (None, 46, 24, 24)   0           dense_0_1_bn[0][0]               
__________________________________________________________________________________________________
dense_0_1_conv2D (Conv2D)       (None, 30, 24, 24)   12420       activation_3[0][0]               
__________________________________________________________________________________________________
dropout_2 (Dropout)             (None, 30, 24, 24)   0           dense_0_1_conv2D[0][0]           
__________________________________________________________________________________________________
concatenate_2 (Concatenate)     (None, 76, 24, 24)   0           concatenate_1[0][0]              
                                                                 dropout_2[0][0]                  
__________________________________________________________________________________________________
tr_0_bn (BatchNormalization)    (None, 76, 24, 24)   304         concatenate_2[0][0]              
__________________________________________________________________________________________________
activation_4 (Activation)       (None, 76, 24, 24)   0           tr_0_bn[0][0]                    
__________________________________________________________________________________________________
tr_0_conv2D (Conv2D)            (None, 53, 24, 24)   4028        activation_4[0][0]               
__________________________________________________________________________________________________
average_pooling2d_1 (AveragePoo (None, 53, 12, 12)   0           tr_0_conv2D[0][0]                
__________________________________________________________________________________________________
dense_1_0_bn (BatchNormalizatio (None, 53, 12, 12)   212         average_pooling2d_1[0][0]        
__________________________________________________________________________________________________
activation_5 (Activation)       (None, 53, 12, 12)   0           dense_1_0_bn[0][0]               
__________________________________________________________________________________________________
dense_1_0_conv2D (Conv2D)       (None, 30, 12, 12)   14310       activation_5[0][0]               
__________________________________________________________________________________________________
dropout_3 (Dropout)             (None, 30, 12, 12)   0           dense_1_0_conv2D[0][0]           
__________________________________________________________________________________________________
concatenate_3 (Concatenate)     (None, 83, 12, 12)   0           average_pooling2d_1[0][0]        
                                                                 dropout_3[0][0]                  
__________________________________________________________________________________________________
dense_1_1_bn (BatchNormalizatio (None, 83, 12, 12)   332         concatenate_3[0][0]              
__________________________________________________________________________________________________
activation_6 (Activation)       (None, 83, 12, 12)   0           dense_1_1_bn[0][0]               
__________________________________________________________________________________________________
dense_1_1_conv2D (Conv2D)       (None, 30, 12, 12)   22410       activation_6[0][0]               
__________________________________________________________________________________________________
dropout_4 (Dropout)             (None, 30, 12, 12)   0           dense_1_1_conv2D[0][0]           
__________________________________________________________________________________________________
concatenate_4 (Concatenate)     (None, 113, 12, 12)  0           concatenate_3[0][0]              
                                                                 dropout_4[0][0]                  
__________________________________________________________________________________________________
tr_1_bn (BatchNormalization)    (None, 113, 12, 12)  452         concatenate_4[0][0]              
__________________________________________________________________________________________________
activation_7 (Activation)       (None, 113, 12, 12)  0           tr_1_bn[0][0]                    
__________________________________________________________________________________________________
tr_1_conv2D (Conv2D)            (None, 79, 12, 12)   8927        activation_7[0][0]               
__________________________________________________________________________________________________
average_pooling2d_2 (AveragePoo (None, 79, 6, 6)     0           tr_1_conv2D[0][0]                
__________________________________________________________________________________________________
dense_2_0_bn (BatchNormalizatio (None, 79, 6, 6)     316         average_pooling2d_2[0][0]        
__________________________________________________________________________________________________
activation_8 (Activation)       (None, 79, 6, 6)     0           dense_2_0_bn[0][0]               
__________________________________________________________________________________________________
dense_2_0_conv2D (Conv2D)       (None, 30, 6, 6)     21330       activation_8[0][0]               
__________________________________________________________________________________________________
dropout_5 (Dropout)             (None, 30, 6, 6)     0           dense_2_0_conv2D[0][0]           
__________________________________________________________________________________________________
concatenate_5 (Concatenate)     (None, 109, 6, 6)    0           average_pooling2d_2[0][0]        
                                                                 dropout_5[0][0]                  
__________________________________________________________________________________________________
dense_2_1_bn (BatchNormalizatio (None, 109, 6, 6)    436         concatenate_5[0][0]              
__________________________________________________________________________________________________
activation_9 (Activation)       (None, 109, 6, 6)    0           dense_2_1_bn[0][0]               
__________________________________________________________________________________________________
dense_2_1_conv2D (Conv2D)       (None, 30, 6, 6)     29430       activation_9[0][0]               
__________________________________________________________________________________________________
dropout_6 (Dropout)             (None, 30, 6, 6)     0           dense_2_1_conv2D[0][0]           
__________________________________________________________________________________________________
concatenate_6 (Concatenate)     (None, 139, 6, 6)    0           concatenate_5[0][0]              
                                                                 dropout_6[0][0]                  
__________________________________________________________________________________________________
final_bn (BatchNormalization)   (None, 139, 6, 6)    556         concatenate_6[0][0]              
__________________________________________________________________________________________________
activation_10 (Activation)      (None, 139, 6, 6)    0           final_bn[0][0]                   
__________________________________________________________________________________________________
global_average_pooling2d_1 (Glo (None, 139)          0           activation_10[0][0]              
__________________________________________________________________________________________________
dense_1 (Dense)                 (None, 1)            140         global_average_pooling2d_1[0][0] 
==================================================================================================
Total params: 121,803
Trainable params: 120,343
Non-trainable params: 1,460
__________________________________________________________________________________________________
Finished compiling
Train on 39840 samples, validate on 7968 samples
Epoch 1/21
 - 22s - loss: 0.5045 - acc: 0.7655 - val_loss: 0.4939 - val_acc: 0.7762
…
Layers:  [2, 2, 2]  Growth_rate:  30  nb_filter:  16  dropout:  0.2
dense_block:  3  reduction:  0.7  bottleneck:  False
Epochs:  21  batch_size:  64  lr:  0.07  optimizer:  adadelta
 es_patience:  4  lr_patience:  3  pooling:  avg
------------------------	  end of configs        -------------------------
pooling:avg
__________________________________________________________________________________________________
Layer (type)                    Output Shape         Param #     Connected to                     
==================================================================================================
input_1 (InputLayer)            (None, 2, 96, 96)    0                                            
__________________________________________________________________________________________________
initial_conv2D (Conv2D)         (None, 16, 48, 48)   1568        input_1[0][0]                    
__________________________________________________________________________________________________
initial_bn (BatchNormalization) (None, 16, 48, 48)   64          initial_conv2D[0][0]             
__________________________________________________________________________________________________
activation_1 (Activation)       (None, 16, 48, 48)   0           initial_bn[0][0]                 
__________________________________________________________________________________________________
max_pooling2d_1 (MaxPooling2D)  (None, 16, 24, 24)   0           activation_1[0][0]               
__________________________________________________________________________________________________
dense_0_0_bn (BatchNormalizatio (None, 16, 24, 24)   64          max_pooling2d_1[0][0]            
__________________________________________________________________________________________________
activation_2 (Activation)       (None, 16, 24, 24)   0           dense_0_0_bn[0][0]               
__________________________________________________________________________________________________
dense_0_0_conv2D (Conv2D)       (None, 30, 24, 24)   4320        activation_2[0][0]               
__________________________________________________________________________________________________
dropout_1 (Dropout)             (None, 30, 24, 24)   0           dense_0_0_conv2D[0][0]           
__________________________________________________________________________________________________
concatenate_1 (Concatenate)     (None, 46, 24, 24)   0           max_pooling2d_1[0][0]            
                                                                 dropout_1[0][0]                  
__________________________________________________________________________________________________
dense_0_1_bn (BatchNormalizatio (None, 46, 24, 24)   184         concatenate_1[0][0]              
__________________________________________________________________________________________________
activation_3 (Activation)       (None, 46, 24, 24)   0           dense_0_1_bn[0][0]               
__________________________________________________________________________________________________
dense_0_1_conv2D (Conv2D)       (None, 30, 24, 24)   12420       activation_3[0][0]               
__________________________________________________________________________________________________
dropout_2 (Dropout)             (None, 30, 24, 24)   0           dense_0_1_conv2D[0][0]           
__________________________________________________________________________________________________
concatenate_2 (Concatenate)     (None, 76, 24, 24)   0           concatenate_1[0][0]              
                                                                 dropout_2[0][0]                  
__________________________________________________________________________________________________
tr_0_bn (BatchNormalization)    (None, 76, 24, 24)   304         concatenate_2[0][0]              
__________________________________________________________________________________________________
activation_4 (Activation)       (None, 76, 24, 24)   0           tr_0_bn[0][0]                    
__________________________________________________________________________________________________
tr_0_conv2D (Conv2D)            (None, 22, 24, 24)   1672        activation_4[0][0]               
__________________________________________________________________________________________________
average_pooling2d_1 (AveragePoo (None, 22, 12, 12)   0           tr_0_conv2D[0][0]                
__________________________________________________________________________________________________
dense_1_0_bn (BatchNormalizatio (None, 22, 12, 12)   88          average_pooling2d_1[0][0]        
__________________________________________________________________________________________________
activation_5 (Activation)       (None, 22, 12, 12)   0           dense_1_0_bn[0][0]               
__________________________________________________________________________________________________
dense_1_0_conv2D (Conv2D)       (None, 30, 12, 12)   5940        activation_5[0][0]               
__________________________________________________________________________________________________
dropout_3 (Dropout)             (None, 30, 12, 12)   0           dense_1_0_conv2D[0][0]           
__________________________________________________________________________________________________
concatenate_3 (Concatenate)     (None, 52, 12, 12)   0           average_pooling2d_1[0][0]        
                                                                 dropout_3[0][0]                  
__________________________________________________________________________________________________
dense_1_1_bn (BatchNormalizatio (None, 52, 12, 12)   208         concatenate_3[0][0]              
__________________________________________________________________________________________________
activation_6 (Activation)       (None, 52, 12, 12)   0           dense_1_1_bn[0][0]               
__________________________________________________________________________________________________
dense_1_1_conv2D (Conv2D)       (None, 30, 12, 12)   14040       activation_6[0][0]               
__________________________________________________________________________________________________
dropout_4 (Dropout)             (None, 30, 12, 12)   0           dense_1_1_conv2D[0][0]           
__________________________________________________________________________________________________
concatenate_4 (Concatenate)     (None, 82, 12, 12)   0           concatenate_3[0][0]              
                                                                 dropout_4[0][0]                  
__________________________________________________________________________________________________
tr_1_bn (BatchNormalization)    (None, 82, 12, 12)   328         concatenate_4[0][0]              
__________________________________________________________________________________________________
activation_7 (Activation)       (None, 82, 12, 12)   0           tr_1_bn[0][0]                    
__________________________________________________________________________________________________
tr_1_conv2D (Conv2D)            (None, 24, 12, 12)   1968        activation_7[0][0]               
__________________________________________________________________________________________________
average_pooling2d_2 (AveragePoo (None, 24, 6, 6)     0           tr_1_conv2D[0][0]                
__________________________________________________________________________________________________
dense_2_0_bn (BatchNormalizatio (None, 24, 6, 6)     96          average_pooling2d_2[0][0]        
__________________________________________________________________________________________________
activation_8 (Activation)       (None, 24, 6, 6)     0           dense_2_0_bn[0][0]               
__________________________________________________________________________________________________
dense_2_0_conv2D (Conv2D)       (None, 30, 6, 6)     6480        activation_8[0][0]               
__________________________________________________________________________________________________
dropout_5 (Dropout)             (None, 30, 6, 6)     0           dense_2_0_conv2D[0][0]           
__________________________________________________________________________________________________
concatenate_5 (Concatenate)     (None, 54, 6, 6)     0           average_pooling2d_2[0][0]        
                                                                 dropout_5[0][0]                  
__________________________________________________________________________________________________
dense_2_1_bn (BatchNormalizatio (None, 54, 6, 6)     216         concatenate_5[0][0]              
__________________________________________________________________________________________________
activation_9 (Activation)       (None, 54, 6, 6)     0           dense_2_1_bn[0][0]               
__________________________________________________________________________________________________
dense_2_1_conv2D (Conv2D)       (None, 30, 6, 6)     14580       activation_9[0][0]               
__________________________________________________________________________________________________
dropout_6 (Dropout)             (None, 30, 6, 6)     0           dense_2_1_conv2D[0][0]           
__________________________________________________________________________________________________
concatenate_6 (Concatenate)     (None, 84, 6, 6)     0           concatenate_5[0][0]              
                                                                 dropout_6[0][0]                  
__________________________________________________________________________________________________
final_bn (BatchNormalization)   (None, 84, 6, 6)     336         concatenate_6[0][0]              
__________________________________________________________________________________________________
activation_10 (Activation)      (None, 84, 6, 6)     0           final_bn[0][0]                   
__________________________________________________________________________________________________
global_average_pooling2d_1 (Glo (None, 84)           0           activation_10[0][0]              
__________________________________________________________________________________________________
dense_1 (Dense)                 (None, 1)            85          global_average_pooling2d_1[0][0] 
==================================================================================================
Total params: 64,961
Trainable params: 64,017
Non-trainable params: 944
__________________________________________________________________________________________________
Finished compiling
Train on 39840 samples, validate on 7968 samples
Epoch 1/21
 - 21s - loss: 0.5027 - acc: 0.7534 - val_loss: 0.4848 - val_acc: 0.7442
…
Layers:  [2, 2, 2]  Growth_rate:  30  nb_filter:  16  dropout:  0.2
dense_block:  3  reduction:  0.0  bottleneck:  True
Epochs:  21  batch_size:  64  lr:  0.07  optimizer:  adadelta
 es_patience:  4  lr_patience:  3  pooling:  avg
------------------------	  end of configs        -------------------------
pooling:avg
__________________________________________________________________________________________________
Layer (type)                    Output Shape         Param #     Connected to                     
==================================================================================================
input_1 (InputLayer)            (None, 2, 96, 96)    0                                            
__________________________________________________________________________________________________
initial_conv2D (Conv2D)         (None, 16, 48, 48)   1568        input_1[0][0]                    
__________________________________________________________________________________________________
initial_bn (BatchNormalization) (None, 16, 48, 48)   64          initial_conv2D[0][0]             
__________________________________________________________________________________________________
activation_1 (Activation)       (None, 16, 48, 48)   0           initial_bn[0][0]                 
__________________________________________________________________________________________________
max_pooling2d_1 (MaxPooling2D)  (None, 16, 24, 24)   0           activation_1[0][0]               
__________________________________________________________________________________________________
dense_0_0_bn (BatchNormalizatio (None, 16, 24, 24)   64          max_pooling2d_1[0][0]            
__________________________________________________________________________________________________
activation_2 (Activation)       (None, 16, 24, 24)   0           dense_0_0_bn[0][0]               
__________________________________________________________________________________________________
dense_0_0_bottleneck_conv2D (Co (None, 120, 24, 24)  1920        activation_2[0][0]               
__________________________________________________________________________________________________
dense_0_0_bottleneck_bn (BatchN (None, 120, 24, 24)  480         dense_0_0_bottleneck_conv2D[0][0]
__________________________________________________________________________________________________
activation_3 (Activation)       (None, 120, 24, 24)  0           dense_0_0_bottleneck_bn[0][0]    
__________________________________________________________________________________________________
dense_0_0_conv2D (Conv2D)       (None, 30, 24, 24)   32400       activation_3[0][0]               
__________________________________________________________________________________________________
dropout_1 (Dropout)             (None, 30, 24, 24)   0           dense_0_0_conv2D[0][0]           
__________________________________________________________________________________________________
concatenate_1 (Concatenate)     (None, 46, 24, 24)   0           max_pooling2d_1[0][0]            
                                                                 dropout_1[0][0]                  
__________________________________________________________________________________________________
dense_0_1_bn (BatchNormalizatio (None, 46, 24, 24)   184         concatenate_1[0][0]              
__________________________________________________________________________________________________
activation_4 (Activation)       (None, 46, 24, 24)   0           dense_0_1_bn[0][0]               
__________________________________________________________________________________________________
dense_0_1_bottleneck_conv2D (Co (None, 120, 24, 24)  5520        activation_4[0][0]               
__________________________________________________________________________________________________
dense_0_1_bottleneck_bn (BatchN (None, 120, 24, 24)  480         dense_0_1_bottleneck_conv2D[0][0]
__________________________________________________________________________________________________
activation_5 (Activation)       (None, 120, 24, 24)  0           dense_0_1_bottleneck_bn[0][0]    
__________________________________________________________________________________________________
dense_0_1_conv2D (Conv2D)       (None, 30, 24, 24)   32400       activation_5[0][0]               
__________________________________________________________________________________________________
dropout_2 (Dropout)             (None, 30, 24, 24)   0           dense_0_1_conv2D[0][0]           
__________________________________________________________________________________________________
concatenate_2 (Concatenate)     (None, 76, 24, 24)   0           concatenate_1[0][0]              
                                                                 dropout_2[0][0]                  
__________________________________________________________________________________________________
tr_0_bn (BatchNormalization)    (None, 76, 24, 24)   304         concatenate_2[0][0]              
__________________________________________________________________________________________________
activation_6 (Activation)       (None, 76, 24, 24)   0           tr_0_bn[0][0]                    
__________________________________________________________________________________________________
tr_0_conv2D (Conv2D)            (None, 76, 24, 24)   5776        activation_6[0][0]               
__________________________________________________________________________________________________
average_pooling2d_1 (AveragePoo (None, 76, 12, 12)   0           tr_0_conv2D[0][0]                
__________________________________________________________________________________________________
dense_1_0_bn (BatchNormalizatio (None, 76, 12, 12)   304         average_pooling2d_1[0][0]        
__________________________________________________________________________________________________
activation_7 (Activation)       (None, 76, 12, 12)   0           dense_1_0_bn[0][0]               
__________________________________________________________________________________________________
dense_1_0_bottleneck_conv2D (Co (None, 120, 12, 12)  9120        activation_7[0][0]               
__________________________________________________________________________________________________
dense_1_0_bottleneck_bn (BatchN (None, 120, 12, 12)  480         dense_1_0_bottleneck_conv2D[0][0]
__________________________________________________________________________________________________
activation_8 (Activation)       (None, 120, 12, 12)  0           dense_1_0_bottleneck_bn[0][0]    
__________________________________________________________________________________________________
dense_1_0_conv2D (Conv2D)       (None, 30, 12, 12)   32400       activation_8[0][0]               
__________________________________________________________________________________________________
dropout_3 (Dropout)             (None, 30, 12, 12)   0           dense_1_0_conv2D[0][0]           
__________________________________________________________________________________________________
concatenate_3 (Concatenate)     (None, 106, 12, 12)  0           average_pooling2d_1[0][0]        
                                                                 dropout_3[0][0]                  
__________________________________________________________________________________________________
dense_1_1_bn (BatchNormalizatio (None, 106, 12, 12)  424         concatenate_3[0][0]              
__________________________________________________________________________________________________
activation_9 (Activation)       (None, 106, 12, 12)  0           dense_1_1_bn[0][0]               
__________________________________________________________________________________________________
dense_1_1_bottleneck_conv2D (Co (None, 120, 12, 12)  12720       activation_9[0][0]               
__________________________________________________________________________________________________
dense_1_1_bottleneck_bn (BatchN (None, 120, 12, 12)  480         dense_1_1_bottleneck_conv2D[0][0]
__________________________________________________________________________________________________
activation_10 (Activation)      (None, 120, 12, 12)  0           dense_1_1_bottleneck_bn[0][0]    
__________________________________________________________________________________________________
dense_1_1_conv2D (Conv2D)       (None, 30, 12, 12)   32400       activation_10[0][0]              
__________________________________________________________________________________________________
dropout_4 (Dropout)             (None, 30, 12, 12)   0           dense_1_1_conv2D[0][0]           
__________________________________________________________________________________________________
concatenate_4 (Concatenate)     (None, 136, 12, 12)  0           concatenate_3[0][0]              
                                                                 dropout_4[0][0]                  
__________________________________________________________________________________________________
tr_1_bn (BatchNormalization)    (None, 136, 12, 12)  544         concatenate_4[0][0]              
__________________________________________________________________________________________________
activation_11 (Activation)      (None, 136, 12, 12)  0           tr_1_bn[0][0]                    
__________________________________________________________________________________________________
tr_1_conv2D (Conv2D)            (None, 136, 12, 12)  18496       activation_11[0][0]              
__________________________________________________________________________________________________
average_pooling2d_2 (AveragePoo (None, 136, 6, 6)    0           tr_1_conv2D[0][0]                
__________________________________________________________________________________________________
dense_2_0_bn (BatchNormalizatio (None, 136, 6, 6)    544         average_pooling2d_2[0][0]        
__________________________________________________________________________________________________
activation_12 (Activation)      (None, 136, 6, 6)    0           dense_2_0_bn[0][0]               
__________________________________________________________________________________________________
dense_2_0_bottleneck_conv2D (Co (None, 120, 6, 6)    16320       activation_12[0][0]              
__________________________________________________________________________________________________
dense_2_0_bottleneck_bn (BatchN (None, 120, 6, 6)    480         dense_2_0_bottleneck_conv2D[0][0]
__________________________________________________________________________________________________
activation_13 (Activation)      (None, 120, 6, 6)    0           dense_2_0_bottleneck_bn[0][0]    
__________________________________________________________________________________________________
dense_2_0_conv2D (Conv2D)       (None, 30, 6, 6)     32400       activation_13[0][0]              
__________________________________________________________________________________________________
dropout_5 (Dropout)             (None, 30, 6, 6)     0           dense_2_0_conv2D[0][0]           
__________________________________________________________________________________________________
concatenate_5 (Concatenate)     (None, 166, 6, 6)    0           average_pooling2d_2[0][0]        
                                                                 dropout_5[0][0]                  
__________________________________________________________________________________________________
dense_2_1_bn (BatchNormalizatio (None, 166, 6, 6)    664         concatenate_5[0][0]              
__________________________________________________________________________________________________
activation_14 (Activation)      (None, 166, 6, 6)    0           dense_2_1_bn[0][0]               
__________________________________________________________________________________________________
dense_2_1_bottleneck_conv2D (Co (None, 120, 6, 6)    19920       activation_14[0][0]              
__________________________________________________________________________________________________
dense_2_1_bottleneck_bn (BatchN (None, 120, 6, 6)    480         dense_2_1_bottleneck_conv2D[0][0]
__________________________________________________________________________________________________
activation_15 (Activation)      (None, 120, 6, 6)    0           dense_2_1_bottleneck_bn[0][0]    
__________________________________________________________________________________________________
dense_2_1_conv2D (Conv2D)       (None, 30, 6, 6)     32400       activation_15[0][0]              
__________________________________________________________________________________________________
dropout_6 (Dropout)             (None, 30, 6, 6)     0           dense_2_1_conv2D[0][0]           
__________________________________________________________________________________________________
concatenate_6 (Concatenate)     (None, 196, 6, 6)    0           concatenate_5[0][0]              
                                                                 dropout_6[0][0]                  
__________________________________________________________________________________________________
final_bn (BatchNormalization)   (None, 196, 6, 6)    784         concatenate_6[0][0]              
__________________________________________________________________________________________________
activation_16 (Activation)      (None, 196, 6, 6)    0           final_bn[0][0]                   
__________________________________________________________________________________________________
global_average_pooling2d_1 (Glo (None, 196)          0           activation_16[0][0]              
__________________________________________________________________________________________________
dense_1 (Dense)                 (None, 1)            197         global_average_pooling2d_1[0][0] 
==================================================================================================
Total params: 292,717
Trainable params: 289,337
Non-trainable params: 3,380
__________________________________________________________________________________________________
Finished compiling
Train on 39840 samples, validate on 7968 samples
Epoch 1/21
 - 28s - loss: 0.6622 - acc: 0.7679 - val_loss: 0.7515 - val_acc: 0.7472
…
Layers:  [2, 2, 2]  Growth_rate:  30  nb_filter:  16  dropout:  0.2
dense_block:  3  reduction:  0.2  bottleneck:  True
Epochs:  21  batch_size:  64  lr:  0.07  optimizer:  adadelta
 es_patience:  4  lr_patience:  3  pooling:  avg
------------------------	  end of configs        -------------------------
pooling:avg
__________________________________________________________________________________________________
Layer (type)                    Output Shape         Param #     Connected to                     
==================================================================================================
input_1 (InputLayer)            (None, 2, 96, 96)    0                                            
__________________________________________________________________________________________________
initial_conv2D (Conv2D)         (None, 16, 48, 48)   1568        input_1[0][0]                    
__________________________________________________________________________________________________
initial_bn (BatchNormalization) (None, 16, 48, 48)   64          initial_conv2D[0][0]             
__________________________________________________________________________________________________
activation_1 (Activation)       (None, 16, 48, 48)   0           initial_bn[0][0]                 
__________________________________________________________________________________________________
max_pooling2d_1 (MaxPooling2D)  (None, 16, 24, 24)   0           activation_1[0][0]               
__________________________________________________________________________________________________
dense_0_0_bn (BatchNormalizatio (None, 16, 24, 24)   64          max_pooling2d_1[0][0]            
__________________________________________________________________________________________________
activation_2 (Activation)       (None, 16, 24, 24)   0           dense_0_0_bn[0][0]               
__________________________________________________________________________________________________
dense_0_0_bottleneck_conv2D (Co (None, 120, 24, 24)  1920        activation_2[0][0]               
__________________________________________________________________________________________________
dense_0_0_bottleneck_bn (BatchN (None, 120, 24, 24)  480         dense_0_0_bottleneck_conv2D[0][0]
__________________________________________________________________________________________________
activation_3 (Activation)       (None, 120, 24, 24)  0           dense_0_0_bottleneck_bn[0][0]    
__________________________________________________________________________________________________
dense_0_0_conv2D (Conv2D)       (None, 30, 24, 24)   32400       activation_3[0][0]               
__________________________________________________________________________________________________
dropout_1 (Dropout)             (None, 30, 24, 24)   0           dense_0_0_conv2D[0][0]           
__________________________________________________________________________________________________
concatenate_1 (Concatenate)     (None, 46, 24, 24)   0           max_pooling2d_1[0][0]            
                                                                 dropout_1[0][0]                  
__________________________________________________________________________________________________
dense_0_1_bn (BatchNormalizatio (None, 46, 24, 24)   184         concatenate_1[0][0]              
__________________________________________________________________________________________________
activation_4 (Activation)       (None, 46, 24, 24)   0           dense_0_1_bn[0][0]               
__________________________________________________________________________________________________
dense_0_1_bottleneck_conv2D (Co (None, 120, 24, 24)  5520        activation_4[0][0]               
__________________________________________________________________________________________________
dense_0_1_bottleneck_bn (BatchN (None, 120, 24, 24)  480         dense_0_1_bottleneck_conv2D[0][0]
__________________________________________________________________________________________________
activation_5 (Activation)       (None, 120, 24, 24)  0           dense_0_1_bottleneck_bn[0][0]    
__________________________________________________________________________________________________
dense_0_1_conv2D (Conv2D)       (None, 30, 24, 24)   32400       activation_5[0][0]               
__________________________________________________________________________________________________
dropout_2 (Dropout)             (None, 30, 24, 24)   0           dense_0_1_conv2D[0][0]           
__________________________________________________________________________________________________
concatenate_2 (Concatenate)     (None, 76, 24, 24)   0           concatenate_1[0][0]              
                                                                 dropout_2[0][0]                  
__________________________________________________________________________________________________
tr_0_bn (BatchNormalization)    (None, 76, 24, 24)   304         concatenate_2[0][0]              
__________________________________________________________________________________________________
activation_6 (Activation)       (None, 76, 24, 24)   0           tr_0_bn[0][0]                    
__________________________________________________________________________________________________
tr_0_conv2D (Conv2D)            (None, 60, 24, 24)   4560        activation_6[0][0]               
__________________________________________________________________________________________________
average_pooling2d_1 (AveragePoo (None, 60, 12, 12)   0           tr_0_conv2D[0][0]                
__________________________________________________________________________________________________
dense_1_0_bn (BatchNormalizatio (None, 60, 12, 12)   240         average_pooling2d_1[0][0]        
__________________________________________________________________________________________________
activation_7 (Activation)       (None, 60, 12, 12)   0           dense_1_0_bn[0][0]               
__________________________________________________________________________________________________
dense_1_0_bottleneck_conv2D (Co (None, 120, 12, 12)  7200        activation_7[0][0]               
__________________________________________________________________________________________________
dense_1_0_bottleneck_bn (BatchN (None, 120, 12, 12)  480         dense_1_0_bottleneck_conv2D[0][0]
__________________________________________________________________________________________________
activation_8 (Activation)       (None, 120, 12, 12)  0           dense_1_0_bottleneck_bn[0][0]    
__________________________________________________________________________________________________
dense_1_0_conv2D (Conv2D)       (None, 30, 12, 12)   32400       activation_8[0][0]               
__________________________________________________________________________________________________
dropout_3 (Dropout)             (None, 30, 12, 12)   0           dense_1_0_conv2D[0][0]           
__________________________________________________________________________________________________
concatenate_3 (Concatenate)     (None, 90, 12, 12)   0           average_pooling2d_1[0][0]        
                                                                 dropout_3[0][0]                  
__________________________________________________________________________________________________
dense_1_1_bn (BatchNormalizatio (None, 90, 12, 12)   360         concatenate_3[0][0]              
__________________________________________________________________________________________________
activation_9 (Activation)       (None, 90, 12, 12)   0           dense_1_1_bn[0][0]               
__________________________________________________________________________________________________
dense_1_1_bottleneck_conv2D (Co (None, 120, 12, 12)  10800       activation_9[0][0]               
__________________________________________________________________________________________________
dense_1_1_bottleneck_bn (BatchN (None, 120, 12, 12)  480         dense_1_1_bottleneck_conv2D[0][0]
__________________________________________________________________________________________________
activation_10 (Activation)      (None, 120, 12, 12)  0           dense_1_1_bottleneck_bn[0][0]    
__________________________________________________________________________________________________
dense_1_1_conv2D (Conv2D)       (None, 30, 12, 12)   32400       activation_10[0][0]              
__________________________________________________________________________________________________
dropout_4 (Dropout)             (None, 30, 12, 12)   0           dense_1_1_conv2D[0][0]           
__________________________________________________________________________________________________
concatenate_4 (Concatenate)     (None, 120, 12, 12)  0           concatenate_3[0][0]              
                                                                 dropout_4[0][0]                  
__________________________________________________________________________________________________
tr_1_bn (BatchNormalization)    (None, 120, 12, 12)  480         concatenate_4[0][0]              
__________________________________________________________________________________________________
activation_11 (Activation)      (None, 120, 12, 12)  0           tr_1_bn[0][0]                    
__________________________________________________________________________________________________
tr_1_conv2D (Conv2D)            (None, 96, 12, 12)   11520       activation_11[0][0]              
__________________________________________________________________________________________________
average_pooling2d_2 (AveragePoo (None, 96, 6, 6)     0           tr_1_conv2D[0][0]                
__________________________________________________________________________________________________
dense_2_0_bn (BatchNormalizatio (None, 96, 6, 6)     384         average_pooling2d_2[0][0]        
__________________________________________________________________________________________________
activation_12 (Activation)      (None, 96, 6, 6)     0           dense_2_0_bn[0][0]               
__________________________________________________________________________________________________
dense_2_0_bottleneck_conv2D (Co (None, 120, 6, 6)    11520       activation_12[0][0]              
__________________________________________________________________________________________________
dense_2_0_bottleneck_bn (BatchN (None, 120, 6, 6)    480         dense_2_0_bottleneck_conv2D[0][0]
__________________________________________________________________________________________________
activation_13 (Activation)      (None, 120, 6, 6)    0           dense_2_0_bottleneck_bn[0][0]    
__________________________________________________________________________________________________
dense_2_0_conv2D (Conv2D)       (None, 30, 6, 6)     32400       activation_13[0][0]              
__________________________________________________________________________________________________
dropout_5 (Dropout)             (None, 30, 6, 6)     0           dense_2_0_conv2D[0][0]           
__________________________________________________________________________________________________
concatenate_5 (Concatenate)     (None, 126, 6, 6)    0           average_pooling2d_2[0][0]        
                                                                 dropout_5[0][0]                  
__________________________________________________________________________________________________
dense_2_1_bn (BatchNormalizatio (None, 126, 6, 6)    504         concatenate_5[0][0]              
__________________________________________________________________________________________________
activation_14 (Activation)      (None, 126, 6, 6)    0           dense_2_1_bn[0][0]               
__________________________________________________________________________________________________
dense_2_1_bottleneck_conv2D (Co (None, 120, 6, 6)    15120       activation_14[0][0]              
__________________________________________________________________________________________________
dense_2_1_bottleneck_bn (BatchN (None, 120, 6, 6)    480         dense_2_1_bottleneck_conv2D[0][0]
__________________________________________________________________________________________________
activation_15 (Activation)      (None, 120, 6, 6)    0           dense_2_1_bottleneck_bn[0][0]    
__________________________________________________________________________________________________
dense_2_1_conv2D (Conv2D)       (None, 30, 6, 6)     32400       activation_15[0][0]              
__________________________________________________________________________________________________
dropout_6 (Dropout)             (None, 30, 6, 6)     0           dense_2_1_conv2D[0][0]           
__________________________________________________________________________________________________
concatenate_6 (Concatenate)     (None, 156, 6, 6)    0           concatenate_5[0][0]              
                                                                 dropout_6[0][0]                  
__________________________________________________________________________________________________
final_bn (BatchNormalization)   (None, 156, 6, 6)    624         concatenate_6[0][0]              
__________________________________________________________________________________________________
activation_16 (Activation)      (None, 156, 6, 6)    0           final_bn[0][0]                   
__________________________________________________________________________________________________
global_average_pooling2d_1 (Glo (None, 156)          0           activation_16[0][0]              
__________________________________________________________________________________________________
dense_1 (Dense)                 (None, 1)            157         global_average_pooling2d_1[0][0] 
==================================================================================================
Total params: 270,373
Trainable params: 267,329
Non-trainable params: 3,044
__________________________________________________________________________________________________
Finished compiling
Train on 39840 samples, validate on 7968 samples
Epoch 1/21
 - 29s - loss: 0.6302 - acc: 0.7836 - val_loss: 0.7152 - val_acc: 0.7367
…
Layers:  [2, 2, 2]  Growth_rate:  30  nb_filter:  16  dropout:  0.2
dense_block:  3  reduction:  0.3  bottleneck:  True
Epochs:  21  batch_size:  64  lr:  0.07  optimizer:  adadelta
 es_patience:  4  lr_patience:  3  pooling:  avg
------------------------	  end of configs        -------------------------
pooling:avg
__________________________________________________________________________________________________
Layer (type)                    Output Shape         Param #     Connected to                     
==================================================================================================
input_1 (InputLayer)            (None, 2, 96, 96)    0                                            
__________________________________________________________________________________________________
initial_conv2D (Conv2D)         (None, 16, 48, 48)   1568        input_1[0][0]                    
__________________________________________________________________________________________________
initial_bn (BatchNormalization) (None, 16, 48, 48)   64          initial_conv2D[0][0]             
__________________________________________________________________________________________________
activation_1 (Activation)       (None, 16, 48, 48)   0           initial_bn[0][0]                 
__________________________________________________________________________________________________
max_pooling2d_1 (MaxPooling2D)  (None, 16, 24, 24)   0           activation_1[0][0]               
__________________________________________________________________________________________________
dense_0_0_bn (BatchNormalizatio (None, 16, 24, 24)   64          max_pooling2d_1[0][0]            
__________________________________________________________________________________________________
activation_2 (Activation)       (None, 16, 24, 24)   0           dense_0_0_bn[0][0]               
__________________________________________________________________________________________________
dense_0_0_bottleneck_conv2D (Co (None, 120, 24, 24)  1920        activation_2[0][0]               
__________________________________________________________________________________________________
dense_0_0_bottleneck_bn (BatchN (None, 120, 24, 24)  480         dense_0_0_bottleneck_conv2D[0][0]
__________________________________________________________________________________________________
activation_3 (Activation)       (None, 120, 24, 24)  0           dense_0_0_bottleneck_bn[0][0]    
__________________________________________________________________________________________________
dense_0_0_conv2D (Conv2D)       (None, 30, 24, 24)   32400       activation_3[0][0]               
__________________________________________________________________________________________________
dropout_1 (Dropout)             (None, 30, 24, 24)   0           dense_0_0_conv2D[0][0]           
__________________________________________________________________________________________________
concatenate_1 (Concatenate)     (None, 46, 24, 24)   0           max_pooling2d_1[0][0]            
                                                                 dropout_1[0][0]                  
__________________________________________________________________________________________________
dense_0_1_bn (BatchNormalizatio (None, 46, 24, 24)   184         concatenate_1[0][0]              
__________________________________________________________________________________________________
activation_4 (Activation)       (None, 46, 24, 24)   0           dense_0_1_bn[0][0]               
__________________________________________________________________________________________________
dense_0_1_bottleneck_conv2D (Co (None, 120, 24, 24)  5520        activation_4[0][0]               
__________________________________________________________________________________________________
dense_0_1_bottleneck_bn (BatchN (None, 120, 24, 24)  480         dense_0_1_bottleneck_conv2D[0][0]
__________________________________________________________________________________________________
activation_5 (Activation)       (None, 120, 24, 24)  0           dense_0_1_bottleneck_bn[0][0]    
__________________________________________________________________________________________________
dense_0_1_conv2D (Conv2D)       (None, 30, 24, 24)   32400       activation_5[0][0]               
__________________________________________________________________________________________________
dropout_2 (Dropout)             (None, 30, 24, 24)   0           dense_0_1_conv2D[0][0]           
__________________________________________________________________________________________________
concatenate_2 (Concatenate)     (None, 76, 24, 24)   0           concatenate_1[0][0]              
                                                                 dropout_2[0][0]                  
__________________________________________________________________________________________________
tr_0_bn (BatchNormalization)    (None, 76, 24, 24)   304         concatenate_2[0][0]              
__________________________________________________________________________________________________
activation_6 (Activation)       (None, 76, 24, 24)   0           tr_0_bn[0][0]                    
__________________________________________________________________________________________________
tr_0_conv2D (Conv2D)            (None, 53, 24, 24)   4028        activation_6[0][0]               
__________________________________________________________________________________________________
average_pooling2d_1 (AveragePoo (None, 53, 12, 12)   0           tr_0_conv2D[0][0]                
__________________________________________________________________________________________________
dense_1_0_bn (BatchNormalizatio (None, 53, 12, 12)   212         average_pooling2d_1[0][0]        
__________________________________________________________________________________________________
activation_7 (Activation)       (None, 53, 12, 12)   0           dense_1_0_bn[0][0]               
__________________________________________________________________________________________________
dense_1_0_bottleneck_conv2D (Co (None, 120, 12, 12)  6360        activation_7[0][0]               
__________________________________________________________________________________________________
dense_1_0_bottleneck_bn (BatchN (None, 120, 12, 12)  480         dense_1_0_bottleneck_conv2D[0][0]
__________________________________________________________________________________________________
activation_8 (Activation)       (None, 120, 12, 12)  0           dense_1_0_bottleneck_bn[0][0]    
__________________________________________________________________________________________________
dense_1_0_conv2D (Conv2D)       (None, 30, 12, 12)   32400       activation_8[0][0]               
__________________________________________________________________________________________________
dropout_3 (Dropout)             (None, 30, 12, 12)   0           dense_1_0_conv2D[0][0]           
__________________________________________________________________________________________________
concatenate_3 (Concatenate)     (None, 83, 12, 12)   0           average_pooling2d_1[0][0]        
                                                                 dropout_3[0][0]                  
__________________________________________________________________________________________________
dense_1_1_bn (BatchNormalizatio (None, 83, 12, 12)   332         concatenate_3[0][0]              
__________________________________________________________________________________________________
activation_9 (Activation)       (None, 83, 12, 12)   0           dense_1_1_bn[0][0]               
__________________________________________________________________________________________________
dense_1_1_bottleneck_conv2D (Co (None, 120, 12, 12)  9960        activation_9[0][0]               
__________________________________________________________________________________________________
dense_1_1_bottleneck_bn (BatchN (None, 120, 12, 12)  480         dense_1_1_bottleneck_conv2D[0][0]
__________________________________________________________________________________________________
activation_10 (Activation)      (None, 120, 12, 12)  0           dense_1_1_bottleneck_bn[0][0]    
__________________________________________________________________________________________________
dense_1_1_conv2D (Conv2D)       (None, 30, 12, 12)   32400       activation_10[0][0]              
__________________________________________________________________________________________________
dropout_4 (Dropout)             (None, 30, 12, 12)   0           dense_1_1_conv2D[0][0]           
__________________________________________________________________________________________________
concatenate_4 (Concatenate)     (None, 113, 12, 12)  0           concatenate_3[0][0]              
                                                                 dropout_4[0][0]                  
__________________________________________________________________________________________________
tr_1_bn (BatchNormalization)    (None, 113, 12, 12)  452         concatenate_4[0][0]              
__________________________________________________________________________________________________
activation_11 (Activation)      (None, 113, 12, 12)  0           tr_1_bn[0][0]                    
__________________________________________________________________________________________________
tr_1_conv2D (Conv2D)            (None, 79, 12, 12)   8927        activation_11[0][0]              
__________________________________________________________________________________________________
average_pooling2d_2 (AveragePoo (None, 79, 6, 6)     0           tr_1_conv2D[0][0]                
__________________________________________________________________________________________________
dense_2_0_bn (BatchNormalizatio (None, 79, 6, 6)     316         average_pooling2d_2[0][0]        
__________________________________________________________________________________________________
activation_12 (Activation)      (None, 79, 6, 6)     0           dense_2_0_bn[0][0]               
__________________________________________________________________________________________________
dense_2_0_bottleneck_conv2D (Co (None, 120, 6, 6)    9480        activation_12[0][0]              
__________________________________________________________________________________________________
dense_2_0_bottleneck_bn (BatchN (None, 120, 6, 6)    480         dense_2_0_bottleneck_conv2D[0][0]
__________________________________________________________________________________________________
activation_13 (Activation)      (None, 120, 6, 6)    0           dense_2_0_bottleneck_bn[0][0]    
__________________________________________________________________________________________________
dense_2_0_conv2D (Conv2D)       (None, 30, 6, 6)     32400       activation_13[0][0]              
__________________________________________________________________________________________________
dropout_5 (Dropout)             (None, 30, 6, 6)     0           dense_2_0_conv2D[0][0]           
__________________________________________________________________________________________________
concatenate_5 (Concatenate)     (None, 109, 6, 6)    0           average_pooling2d_2[0][0]        
                                                                 dropout_5[0][0]                  
__________________________________________________________________________________________________
dense_2_1_bn (BatchNormalizatio (None, 109, 6, 6)    436         concatenate_5[0][0]              
__________________________________________________________________________________________________
activation_14 (Activation)      (None, 109, 6, 6)    0           dense_2_1_bn[0][0]               
__________________________________________________________________________________________________
dense_2_1_bottleneck_conv2D (Co (None, 120, 6, 6)    13080       activation_14[0][0]              
__________________________________________________________________________________________________
dense_2_1_bottleneck_bn (BatchN (None, 120, 6, 6)    480         dense_2_1_bottleneck_conv2D[0][0]
__________________________________________________________________________________________________
activation_15 (Activation)      (None, 120, 6, 6)    0           dense_2_1_bottleneck_bn[0][0]    
__________________________________________________________________________________________________
dense_2_1_conv2D (Conv2D)       (None, 30, 6, 6)     32400       activation_15[0][0]              
__________________________________________________________________________________________________
dropout_6 (Dropout)             (None, 30, 6, 6)     0           dense_2_1_conv2D[0][0]           
__________________________________________________________________________________________________
concatenate_6 (Concatenate)     (None, 139, 6, 6)    0           concatenate_5[0][0]              
                                                                 dropout_6[0][0]                  
__________________________________________________________________________________________________
final_bn (BatchNormalization)   (None, 139, 6, 6)    556         concatenate_6[0][0]              
__________________________________________________________________________________________________
activation_16 (Activation)      (None, 139, 6, 6)    0           final_bn[0][0]                   
__________________________________________________________________________________________________
global_average_pooling2d_1 (Glo (None, 139)          0           activation_16[0][0]              
__________________________________________________________________________________________________
dense_1 (Dense)                 (None, 1)            140         global_average_pooling2d_1[0][0] 
==================================================================================================
Total params: 261,183
Trainable params: 258,283
Non-trainable params: 2,900
__________________________________________________________________________________________________
Finished compiling
Train on 39840 samples, validate on 7968 samples
Epoch 1/21
 - 29s - loss: 0.6175 - acc: 0.7822 - val_loss: 0.7128 - val_acc: 0.7376
…
Layers:  [2, 2, 2]  Growth_rate:  30  nb_filter:  16  dropout:  0.2
dense_block:  3  reduction:  0.5  bottleneck:  True
Epochs:  21  batch_size:  64  lr:  0.07  optimizer:  adadelta
 es_patience:  4  lr_patience:  3  pooling:  avg
------------------------	  end of configs        -------------------------
pooling:avg
__________________________________________________________________________________________________
Layer (type)                    Output Shape         Param #     Connected to                     
==================================================================================================
input_1 (InputLayer)            (None, 2, 96, 96)    0                                            
__________________________________________________________________________________________________
initial_conv2D (Conv2D)         (None, 16, 48, 48)   1568        input_1[0][0]                    
__________________________________________________________________________________________________
initial_bn (BatchNormalization) (None, 16, 48, 48)   64          initial_conv2D[0][0]             
__________________________________________________________________________________________________
activation_1 (Activation)       (None, 16, 48, 48)   0           initial_bn[0][0]                 
__________________________________________________________________________________________________
max_pooling2d_1 (MaxPooling2D)  (None, 16, 24, 24)   0           activation_1[0][0]               
__________________________________________________________________________________________________
dense_0_0_bn (BatchNormalizatio (None, 16, 24, 24)   64          max_pooling2d_1[0][0]            
__________________________________________________________________________________________________
activation_2 (Activation)       (None, 16, 24, 24)   0           dense_0_0_bn[0][0]               
__________________________________________________________________________________________________
dense_0_0_bottleneck_conv2D (Co (None, 120, 24, 24)  1920        activation_2[0][0]               
__________________________________________________________________________________________________
dense_0_0_bottleneck_bn (BatchN (None, 120, 24, 24)  480         dense_0_0_bottleneck_conv2D[0][0]
__________________________________________________________________________________________________
activation_3 (Activation)       (None, 120, 24, 24)  0           dense_0_0_bottleneck_bn[0][0]    
__________________________________________________________________________________________________
dense_0_0_conv2D (Conv2D)       (None, 30, 24, 24)   32400       activation_3[0][0]               
__________________________________________________________________________________________________
dropout_1 (Dropout)             (None, 30, 24, 24)   0           dense_0_0_conv2D[0][0]           
__________________________________________________________________________________________________
concatenate_1 (Concatenate)     (None, 46, 24, 24)   0           max_pooling2d_1[0][0]            
                                                                 dropout_1[0][0]                  
__________________________________________________________________________________________________
dense_0_1_bn (BatchNormalizatio (None, 46, 24, 24)   184         concatenate_1[0][0]              
__________________________________________________________________________________________________
activation_4 (Activation)       (None, 46, 24, 24)   0           dense_0_1_bn[0][0]               
__________________________________________________________________________________________________
dense_0_1_bottleneck_conv2D (Co (None, 120, 24, 24)  5520        activation_4[0][0]               
__________________________________________________________________________________________________
dense_0_1_bottleneck_bn (BatchN (None, 120, 24, 24)  480         dense_0_1_bottleneck_conv2D[0][0]
__________________________________________________________________________________________________
activation_5 (Activation)       (None, 120, 24, 24)  0           dense_0_1_bottleneck_bn[0][0]    
__________________________________________________________________________________________________
dense_0_1_conv2D (Conv2D)       (None, 30, 24, 24)   32400       activation_5[0][0]               
__________________________________________________________________________________________________
dropout_2 (Dropout)             (None, 30, 24, 24)   0           dense_0_1_conv2D[0][0]           
__________________________________________________________________________________________________
concatenate_2 (Concatenate)     (None, 76, 24, 24)   0           concatenate_1[0][0]              
                                                                 dropout_2[0][0]                  
__________________________________________________________________________________________________
tr_0_bn (BatchNormalization)    (None, 76, 24, 24)   304         concatenate_2[0][0]              
__________________________________________________________________________________________________
activation_6 (Activation)       (None, 76, 24, 24)   0           tr_0_bn[0][0]                    
__________________________________________________________________________________________________
tr_0_conv2D (Conv2D)            (None, 38, 24, 24)   2888        activation_6[0][0]               
__________________________________________________________________________________________________
average_pooling2d_1 (AveragePoo (None, 38, 12, 12)   0           tr_0_conv2D[0][0]                
__________________________________________________________________________________________________
dense_1_0_bn (BatchNormalizatio (None, 38, 12, 12)   152         average_pooling2d_1[0][0]        
__________________________________________________________________________________________________
activation_7 (Activation)       (None, 38, 12, 12)   0           dense_1_0_bn[0][0]               
__________________________________________________________________________________________________
dense_1_0_bottleneck_conv2D (Co (None, 120, 12, 12)  4560        activation_7[0][0]               
__________________________________________________________________________________________________
dense_1_0_bottleneck_bn (BatchN (None, 120, 12, 12)  480         dense_1_0_bottleneck_conv2D[0][0]
__________________________________________________________________________________________________
activation_8 (Activation)       (None, 120, 12, 12)  0           dense_1_0_bottleneck_bn[0][0]    
__________________________________________________________________________________________________
dense_1_0_conv2D (Conv2D)       (None, 30, 12, 12)   32400       activation_8[0][0]               
__________________________________________________________________________________________________
dropout_3 (Dropout)             (None, 30, 12, 12)   0           dense_1_0_conv2D[0][0]           
__________________________________________________________________________________________________
concatenate_3 (Concatenate)     (None, 68, 12, 12)   0           average_pooling2d_1[0][0]        
                                                                 dropout_3[0][0]                  
__________________________________________________________________________________________________
dense_1_1_bn (BatchNormalizatio (None, 68, 12, 12)   272         concatenate_3[0][0]              
__________________________________________________________________________________________________
activation_9 (Activation)       (None, 68, 12, 12)   0           dense_1_1_bn[0][0]               
__________________________________________________________________________________________________
dense_1_1_bottleneck_conv2D (Co (None, 120, 12, 12)  8160        activation_9[0][0]               
__________________________________________________________________________________________________
dense_1_1_bottleneck_bn (BatchN (None, 120, 12, 12)  480         dense_1_1_bottleneck_conv2D[0][0]
__________________________________________________________________________________________________
activation_10 (Activation)      (None, 120, 12, 12)  0           dense_1_1_bottleneck_bn[0][0]    
__________________________________________________________________________________________________
dense_1_1_conv2D (Conv2D)       (None, 30, 12, 12)   32400       activation_10[0][0]              
__________________________________________________________________________________________________
dropout_4 (Dropout)             (None, 30, 12, 12)   0           dense_1_1_conv2D[0][0]           
__________________________________________________________________________________________________
concatenate_4 (Concatenate)     (None, 98, 12, 12)   0           concatenate_3[0][0]              
                                                                 dropout_4[0][0]                  
__________________________________________________________________________________________________
tr_1_bn (BatchNormalization)    (None, 98, 12, 12)   392         concatenate_4[0][0]              
__________________________________________________________________________________________________
activation_11 (Activation)      (None, 98, 12, 12)   0           tr_1_bn[0][0]                    
__________________________________________________________________________________________________
tr_1_conv2D (Conv2D)            (None, 49, 12, 12)   4802        activation_11[0][0]              
__________________________________________________________________________________________________
average_pooling2d_2 (AveragePoo (None, 49, 6, 6)     0           tr_1_conv2D[0][0]                
__________________________________________________________________________________________________
dense_2_0_bn (BatchNormalizatio (None, 49, 6, 6)     196         average_pooling2d_2[0][0]        
__________________________________________________________________________________________________
activation_12 (Activation)      (None, 49, 6, 6)     0           dense_2_0_bn[0][0]               
__________________________________________________________________________________________________
dense_2_0_bottleneck_conv2D (Co (None, 120, 6, 6)    5880        activation_12[0][0]              
__________________________________________________________________________________________________
dense_2_0_bottleneck_bn (BatchN (None, 120, 6, 6)    480         dense_2_0_bottleneck_conv2D[0][0]
__________________________________________________________________________________________________
activation_13 (Activation)      (None, 120, 6, 6)    0           dense_2_0_bottleneck_bn[0][0]    
__________________________________________________________________________________________________
dense_2_0_conv2D (Conv2D)       (None, 30, 6, 6)     32400       activation_13[0][0]              
__________________________________________________________________________________________________
dropout_5 (Dropout)             (None, 30, 6, 6)     0           dense_2_0_conv2D[0][0]           
__________________________________________________________________________________________________
concatenate_5 (Concatenate)     (None, 79, 6, 6)     0           average_pooling2d_2[0][0]        
                                                                 dropout_5[0][0]                  
__________________________________________________________________________________________________
dense_2_1_bn (BatchNormalizatio (None, 79, 6, 6)     316         concatenate_5[0][0]              
__________________________________________________________________________________________________
activation_14 (Activation)      (None, 79, 6, 6)     0           dense_2_1_bn[0][0]               
__________________________________________________________________________________________________
dense_2_1_bottleneck_conv2D (Co (None, 120, 6, 6)    9480        activation_14[0][0]              
__________________________________________________________________________________________________
dense_2_1_bottleneck_bn (BatchN (None, 120, 6, 6)    480         dense_2_1_bottleneck_conv2D[0][0]
__________________________________________________________________________________________________
activation_15 (Activation)      (None, 120, 6, 6)    0           dense_2_1_bottleneck_bn[0][0]    
__________________________________________________________________________________________________
dense_2_1_conv2D (Conv2D)       (None, 30, 6, 6)     32400       activation_15[0][0]              
__________________________________________________________________________________________________
dropout_6 (Dropout)             (None, 30, 6, 6)     0           dense_2_1_conv2D[0][0]           
__________________________________________________________________________________________________
concatenate_6 (Concatenate)     (None, 109, 6, 6)    0           concatenate_5[0][0]              
                                                                 dropout_6[0][0]                  
__________________________________________________________________________________________________
final_bn (BatchNormalization)   (None, 109, 6, 6)    436         concatenate_6[0][0]              
__________________________________________________________________________________________________
activation_16 (Activation)      (None, 109, 6, 6)    0           final_bn[0][0]                   
__________________________________________________________________________________________________
global_average_pooling2d_1 (Glo (None, 109)          0           activation_16[0][0]              
__________________________________________________________________________________________________
dense_1 (Dense)                 (None, 1)            110         global_average_pooling2d_1[0][0] 
==================================================================================================
Total params: 244,548
Trainable params: 241,918
Non-trainable params: 2,630
__________________________________________________________________________________________________
Finished compiling
Train on 39840 samples, validate on 7968 samples
Epoch 1/21
 - 29s - loss: 0.6184 - acc: 0.7761 - val_loss: 0.5266 - val_acc: 0.8186
…
Layers:  [2, 2, 2]  Growth_rate:  30  nb_filter:  16  dropout:  0.2
dense_block:  3  reduction:  0.7  bottleneck:  True
Epochs:  21  batch_size:  64  lr:  0.07  optimizer:  adadelta
 es_patience:  4  lr_patience:  3  pooling:  avg
------------------------	  end of configs        -------------------------
pooling:avg
__________________________________________________________________________________________________
Layer (type)                    Output Shape         Param #     Connected to                     
==================================================================================================
input_1 (InputLayer)            (None, 2, 96, 96)    0                                            
__________________________________________________________________________________________________
initial_conv2D (Conv2D)         (None, 16, 48, 48)   1568        input_1[0][0]                    
__________________________________________________________________________________________________
initial_bn (BatchNormalization) (None, 16, 48, 48)   64          initial_conv2D[0][0]             
__________________________________________________________________________________________________
activation_1 (Activation)       (None, 16, 48, 48)   0           initial_bn[0][0]                 
__________________________________________________________________________________________________
max_pooling2d_1 (MaxPooling2D)  (None, 16, 24, 24)   0           activation_1[0][0]               
__________________________________________________________________________________________________
dense_0_0_bn (BatchNormalizatio (None, 16, 24, 24)   64          max_pooling2d_1[0][0]            
__________________________________________________________________________________________________
activation_2 (Activation)       (None, 16, 24, 24)   0           dense_0_0_bn[0][0]               
__________________________________________________________________________________________________
dense_0_0_bottleneck_conv2D (Co (None, 120, 24, 24)  1920        activation_2[0][0]               
__________________________________________________________________________________________________
dense_0_0_bottleneck_bn (BatchN (None, 120, 24, 24)  480         dense_0_0_bottleneck_conv2D[0][0]
__________________________________________________________________________________________________
activation_3 (Activation)       (None, 120, 24, 24)  0           dense_0_0_bottleneck_bn[0][0]    
__________________________________________________________________________________________________
dense_0_0_conv2D (Conv2D)       (None, 30, 24, 24)   32400       activation_3[0][0]               
__________________________________________________________________________________________________
dropout_1 (Dropout)             (None, 30, 24, 24)   0           dense_0_0_conv2D[0][0]           
__________________________________________________________________________________________________
concatenate_1 (Concatenate)     (None, 46, 24, 24)   0           max_pooling2d_1[0][0]            
                                                                 dropout_1[0][0]                  
__________________________________________________________________________________________________
dense_0_1_bn (BatchNormalizatio (None, 46, 24, 24)   184         concatenate_1[0][0]              
__________________________________________________________________________________________________
activation_4 (Activation)       (None, 46, 24, 24)   0           dense_0_1_bn[0][0]               
__________________________________________________________________________________________________
dense_0_1_bottleneck_conv2D (Co (None, 120, 24, 24)  5520        activation_4[0][0]               
__________________________________________________________________________________________________
dense_0_1_bottleneck_bn (BatchN (None, 120, 24, 24)  480         dense_0_1_bottleneck_conv2D[0][0]
__________________________________________________________________________________________________
activation_5 (Activation)       (None, 120, 24, 24)  0           dense_0_1_bottleneck_bn[0][0]    
__________________________________________________________________________________________________
dense_0_1_conv2D (Conv2D)       (None, 30, 24, 24)   32400       activation_5[0][0]               
__________________________________________________________________________________________________
dropout_2 (Dropout)             (None, 30, 24, 24)   0           dense_0_1_conv2D[0][0]           
__________________________________________________________________________________________________
concatenate_2 (Concatenate)     (None, 76, 24, 24)   0           concatenate_1[0][0]              
                                                                 dropout_2[0][0]                  
__________________________________________________________________________________________________
tr_0_bn (BatchNormalization)    (None, 76, 24, 24)   304         concatenate_2[0][0]              
__________________________________________________________________________________________________
activation_6 (Activation)       (None, 76, 24, 24)   0           tr_0_bn[0][0]                    
__________________________________________________________________________________________________
tr_0_conv2D (Conv2D)            (None, 22, 24, 24)   1672        activation_6[0][0]               
__________________________________________________________________________________________________
average_pooling2d_1 (AveragePoo (None, 22, 12, 12)   0           tr_0_conv2D[0][0]                
__________________________________________________________________________________________________
dense_1_0_bn (BatchNormalizatio (None, 22, 12, 12)   88          average_pooling2d_1[0][0]        
__________________________________________________________________________________________________
activation_7 (Activation)       (None, 22, 12, 12)   0           dense_1_0_bn[0][0]               
__________________________________________________________________________________________________
dense_1_0_bottleneck_conv2D (Co (None, 120, 12, 12)  2640        activation_7[0][0]               
__________________________________________________________________________________________________
dense_1_0_bottleneck_bn (BatchN (None, 120, 12, 12)  480         dense_1_0_bottleneck_conv2D[0][0]
__________________________________________________________________________________________________
activation_8 (Activation)       (None, 120, 12, 12)  0           dense_1_0_bottleneck_bn[0][0]    
__________________________________________________________________________________________________
dense_1_0_conv2D (Conv2D)       (None, 30, 12, 12)   32400       activation_8[0][0]               
__________________________________________________________________________________________________
dropout_3 (Dropout)             (None, 30, 12, 12)   0           dense_1_0_conv2D[0][0]           
__________________________________________________________________________________________________
concatenate_3 (Concatenate)     (None, 52, 12, 12)   0           average_pooling2d_1[0][0]        
                                                                 dropout_3[0][0]                  
__________________________________________________________________________________________________
dense_1_1_bn (BatchNormalizatio (None, 52, 12, 12)   208         concatenate_3[0][0]              
__________________________________________________________________________________________________
activation_9 (Activation)       (None, 52, 12, 12)   0           dense_1_1_bn[0][0]               
__________________________________________________________________________________________________
dense_1_1_bottleneck_conv2D (Co (None, 120, 12, 12)  6240        activation_9[0][0]               
__________________________________________________________________________________________________
dense_1_1_bottleneck_bn (BatchN (None, 120, 12, 12)  480         dense_1_1_bottleneck_conv2D[0][0]
__________________________________________________________________________________________________
activation_10 (Activation)      (None, 120, 12, 12)  0           dense_1_1_bottleneck_bn[0][0]    
__________________________________________________________________________________________________
dense_1_1_conv2D (Conv2D)       (None, 30, 12, 12)   32400       activation_10[0][0]              
__________________________________________________________________________________________________
dropout_4 (Dropout)             (None, 30, 12, 12)   0           dense_1_1_conv2D[0][0]           
__________________________________________________________________________________________________
concatenate_4 (Concatenate)     (None, 82, 12, 12)   0           concatenate_3[0][0]              
                                                                 dropout_4[0][0]                  
__________________________________________________________________________________________________
tr_1_bn (BatchNormalization)    (None, 82, 12, 12)   328         concatenate_4[0][0]              
__________________________________________________________________________________________________
activation_11 (Activation)      (None, 82, 12, 12)   0           tr_1_bn[0][0]                    
__________________________________________________________________________________________________
tr_1_conv2D (Conv2D)            (None, 24, 12, 12)   1968        activation_11[0][0]              
__________________________________________________________________________________________________
average_pooling2d_2 (AveragePoo (None, 24, 6, 6)     0           tr_1_conv2D[0][0]                
__________________________________________________________________________________________________
dense_2_0_bn (BatchNormalizatio (None, 24, 6, 6)     96          average_pooling2d_2[0][0]        
__________________________________________________________________________________________________
activation_12 (Activation)      (None, 24, 6, 6)     0           dense_2_0_bn[0][0]               
__________________________________________________________________________________________________
dense_2_0_bottleneck_conv2D (Co (None, 120, 6, 6)    2880        activation_12[0][0]              
__________________________________________________________________________________________________
dense_2_0_bottleneck_bn (BatchN (None, 120, 6, 6)    480         dense_2_0_bottleneck_conv2D[0][0]
__________________________________________________________________________________________________
activation_13 (Activation)      (None, 120, 6, 6)    0           dense_2_0_bottleneck_bn[0][0]    
__________________________________________________________________________________________________
dense_2_0_conv2D (Conv2D)       (None, 30, 6, 6)     32400       activation_13[0][0]              
__________________________________________________________________________________________________
dropout_5 (Dropout)             (None, 30, 6, 6)     0           dense_2_0_conv2D[0][0]           
__________________________________________________________________________________________________
concatenate_5 (Concatenate)     (None, 54, 6, 6)     0           average_pooling2d_2[0][0]        
                                                                 dropout_5[0][0]                  
__________________________________________________________________________________________________
dense_2_1_bn (BatchNormalizatio (None, 54, 6, 6)     216         concatenate_5[0][0]              
__________________________________________________________________________________________________
activation_14 (Activation)      (None, 54, 6, 6)     0           dense_2_1_bn[0][0]               
__________________________________________________________________________________________________
dense_2_1_bottleneck_conv2D (Co (None, 120, 6, 6)    6480        activation_14[0][0]              
__________________________________________________________________________________________________
dense_2_1_bottleneck_bn (BatchN (None, 120, 6, 6)    480         dense_2_1_bottleneck_conv2D[0][0]
__________________________________________________________________________________________________
activation_15 (Activation)      (None, 120, 6, 6)    0           dense_2_1_bottleneck_bn[0][0]    
__________________________________________________________________________________________________
dense_2_1_conv2D (Conv2D)       (None, 30, 6, 6)     32400       activation_15[0][0]              
__________________________________________________________________________________________________
dropout_6 (Dropout)             (None, 30, 6, 6)     0           dense_2_1_conv2D[0][0]           
__________________________________________________________________________________________________
concatenate_6 (Concatenate)     (None, 84, 6, 6)     0           concatenate_5[0][0]              
                                                                 dropout_6[0][0]                  
__________________________________________________________________________________________________
final_bn (BatchNormalization)   (None, 84, 6, 6)     336         concatenate_6[0][0]              
__________________________________________________________________________________________________
activation_16 (Activation)      (None, 84, 6, 6)     0           final_bn[0][0]                   
__________________________________________________________________________________________________
global_average_pooling2d_1 (Glo (None, 84)           0           activation_16[0][0]              
__________________________________________________________________________________________________
dense_1 (Dense)                 (None, 1)            85          global_average_pooling2d_1[0][0] 
==================================================================================================
Total params: 230,141
Trainable params: 227,757
Non-trainable params: 2,384
__________________________________________________________________________________________________
Finished compiling
Train on 39840 samples, validate on 7968 samples
Epoch 1/21
 - 29s - loss: 0.6003 - acc: 0.7793 - val_loss: 0.5919 - val_acc: 0.7801
…
Layers:  [2, 2, 2]  Growth_rate:  30  nb_filter:  16  dropout:  0.0
dense_block:  3  reduction:  0.5  bottleneck:  False
Epochs:  21  batch_size:  64  lr:  0.07  optimizer:  adadelta
 es_patience:  4  lr_patience:  3  pooling:  avg
------------------------	  end of configs        -------------------------
pooling:avg
__________________________________________________________________________________________________
Layer (type)                    Output Shape         Param #     Connected to                     
==================================================================================================
input_1 (InputLayer)            (None, 2, 96, 96)    0                                            
__________________________________________________________________________________________________
initial_conv2D (Conv2D)         (None, 16, 48, 48)   1568        input_1[0][0]                    
__________________________________________________________________________________________________
initial_bn (BatchNormalization) (None, 16, 48, 48)   64          initial_conv2D[0][0]             
__________________________________________________________________________________________________
activation_1 (Activation)       (None, 16, 48, 48)   0           initial_bn[0][0]                 
__________________________________________________________________________________________________
max_pooling2d_1 (MaxPooling2D)  (None, 16, 24, 24)   0           activation_1[0][0]               
__________________________________________________________________________________________________
dense_0_0_bn (BatchNormalizatio (None, 16, 24, 24)   64          max_pooling2d_1[0][0]            
__________________________________________________________________________________________________
activation_2 (Activation)       (None, 16, 24, 24)   0           dense_0_0_bn[0][0]               
__________________________________________________________________________________________________
dense_0_0_conv2D (Conv2D)       (None, 30, 24, 24)   4320        activation_2[0][0]               
__________________________________________________________________________________________________
concatenate_1 (Concatenate)     (None, 46, 24, 24)   0           max_pooling2d_1[0][0]            
                                                                 dense_0_0_conv2D[0][0]           
__________________________________________________________________________________________________
dense_0_1_bn (BatchNormalizatio (None, 46, 24, 24)   184         concatenate_1[0][0]              
__________________________________________________________________________________________________
activation_3 (Activation)       (None, 46, 24, 24)   0           dense_0_1_bn[0][0]               
__________________________________________________________________________________________________
dense_0_1_conv2D (Conv2D)       (None, 30, 24, 24)   12420       activation_3[0][0]               
__________________________________________________________________________________________________
concatenate_2 (Concatenate)     (None, 76, 24, 24)   0           concatenate_1[0][0]              
                                                                 dense_0_1_conv2D[0][0]           
__________________________________________________________________________________________________
tr_0_bn (BatchNormalization)    (None, 76, 24, 24)   304         concatenate_2[0][0]              
__________________________________________________________________________________________________
activation_4 (Activation)       (None, 76, 24, 24)   0           tr_0_bn[0][0]                    
__________________________________________________________________________________________________
tr_0_conv2D (Conv2D)            (None, 38, 24, 24)   2888        activation_4[0][0]               
__________________________________________________________________________________________________
average_pooling2d_1 (AveragePoo (None, 38, 12, 12)   0           tr_0_conv2D[0][0]                
__________________________________________________________________________________________________
dense_1_0_bn (BatchNormalizatio (None, 38, 12, 12)   152         average_pooling2d_1[0][0]        
__________________________________________________________________________________________________
activation_5 (Activation)       (None, 38, 12, 12)   0           dense_1_0_bn[0][0]               
__________________________________________________________________________________________________
dense_1_0_conv2D (Conv2D)       (None, 30, 12, 12)   10260       activation_5[0][0]               
__________________________________________________________________________________________________
concatenate_3 (Concatenate)     (None, 68, 12, 12)   0           average_pooling2d_1[0][0]        
                                                                 dense_1_0_conv2D[0][0]           
__________________________________________________________________________________________________
dense_1_1_bn (BatchNormalizatio (None, 68, 12, 12)   272         concatenate_3[0][0]              
__________________________________________________________________________________________________
activation_6 (Activation)       (None, 68, 12, 12)   0           dense_1_1_bn[0][0]               
__________________________________________________________________________________________________
dense_1_1_conv2D (Conv2D)       (None, 30, 12, 12)   18360       activation_6[0][0]               
__________________________________________________________________________________________________
concatenate_4 (Concatenate)     (None, 98, 12, 12)   0           concatenate_3[0][0]              
                                                                 dense_1_1_conv2D[0][0]           
__________________________________________________________________________________________________
tr_1_bn (BatchNormalization)    (None, 98, 12, 12)   392         concatenate_4[0][0]              
__________________________________________________________________________________________________
activation_7 (Activation)       (None, 98, 12, 12)   0           tr_1_bn[0][0]                    
__________________________________________________________________________________________________
tr_1_conv2D (Conv2D)            (None, 49, 12, 12)   4802        activation_7[0][0]               
__________________________________________________________________________________________________
average_pooling2d_2 (AveragePoo (None, 49, 6, 6)     0           tr_1_conv2D[0][0]                
__________________________________________________________________________________________________
dense_2_0_bn (BatchNormalizatio (None, 49, 6, 6)     196         average_pooling2d_2[0][0]        
__________________________________________________________________________________________________
activation_8 (Activation)       (None, 49, 6, 6)     0           dense_2_0_bn[0][0]               
__________________________________________________________________________________________________
dense_2_0_conv2D (Conv2D)       (None, 30, 6, 6)     13230       activation_8[0][0]               
__________________________________________________________________________________________________
concatenate_5 (Concatenate)     (None, 79, 6, 6)     0           average_pooling2d_2[0][0]        
                                                                 dense_2_0_conv2D[0][0]           
__________________________________________________________________________________________________
dense_2_1_bn (BatchNormalizatio (None, 79, 6, 6)     316         concatenate_5[0][0]              
__________________________________________________________________________________________________
activation_9 (Activation)       (None, 79, 6, 6)     0           dense_2_1_bn[0][0]               
__________________________________________________________________________________________________
dense_2_1_conv2D (Conv2D)       (None, 30, 6, 6)     21330       activation_9[0][0]               
__________________________________________________________________________________________________
concatenate_6 (Concatenate)     (None, 109, 6, 6)    0           concatenate_5[0][0]              
                                                                 dense_2_1_conv2D[0][0]           
__________________________________________________________________________________________________
final_bn (BatchNormalization)   (None, 109, 6, 6)    436         concatenate_6[0][0]              
__________________________________________________________________________________________________
activation_10 (Activation)      (None, 109, 6, 6)    0           final_bn[0][0]                   
__________________________________________________________________________________________________
global_average_pooling2d_1 (Glo (None, 109)          0           activation_10[0][0]              
__________________________________________________________________________________________________
dense_1 (Dense)                 (None, 1)            110         global_average_pooling2d_1[0][0] 
==================================================================================================
Total params: 91,668
Trainable params: 90,478
Non-trainable params: 1,190
__________________________________________________________________________________________________
Finished compiling
Train on 39840 samples, validate on 7968 samples
Epoch 1/21
 - 21s - loss: 0.4896 - acc: 0.7707 - val_loss: 0.4291 - val_acc: 0.7997
…
Layers:  [2, 2, 2]  Growth_rate:  30  nb_filter:  16  dropout:  0.1
dense_block:  3  reduction:  0.5  bottleneck:  False
Epochs:  21  batch_size:  64  lr:  0.07  optimizer:  adadelta
 es_patience:  4  lr_patience:  3  pooling:  avg
------------------------	  end of configs        -------------------------
pooling:avg
__________________________________________________________________________________________________
Layer (type)                    Output Shape         Param #     Connected to                     
==================================================================================================
input_1 (InputLayer)            (None, 2, 96, 96)    0                                            
__________________________________________________________________________________________________
initial_conv2D (Conv2D)         (None, 16, 48, 48)   1568        input_1[0][0]                    
__________________________________________________________________________________________________
initial_bn (BatchNormalization) (None, 16, 48, 48)   64          initial_conv2D[0][0]             
__________________________________________________________________________________________________
activation_1 (Activation)       (None, 16, 48, 48)   0           initial_bn[0][0]                 
__________________________________________________________________________________________________
max_pooling2d_1 (MaxPooling2D)  (None, 16, 24, 24)   0           activation_1[0][0]               
__________________________________________________________________________________________________
dense_0_0_bn (BatchNormalizatio (None, 16, 24, 24)   64          max_pooling2d_1[0][0]            
__________________________________________________________________________________________________
activation_2 (Activation)       (None, 16, 24, 24)   0           dense_0_0_bn[0][0]               
__________________________________________________________________________________________________
dense_0_0_conv2D (Conv2D)       (None, 30, 24, 24)   4320        activation_2[0][0]               
__________________________________________________________________________________________________
dropout_1 (Dropout)             (None, 30, 24, 24)   0           dense_0_0_conv2D[0][0]           
__________________________________________________________________________________________________
concatenate_1 (Concatenate)     (None, 46, 24, 24)   0           max_pooling2d_1[0][0]            
                                                                 dropout_1[0][0]                  
__________________________________________________________________________________________________
dense_0_1_bn (BatchNormalizatio (None, 46, 24, 24)   184         concatenate_1[0][0]              
__________________________________________________________________________________________________
activation_3 (Activation)       (None, 46, 24, 24)   0           dense_0_1_bn[0][0]               
__________________________________________________________________________________________________
dense_0_1_conv2D (Conv2D)       (None, 30, 24, 24)   12420       activation_3[0][0]               
__________________________________________________________________________________________________
dropout_2 (Dropout)             (None, 30, 24, 24)   0           dense_0_1_conv2D[0][0]           
__________________________________________________________________________________________________
concatenate_2 (Concatenate)     (None, 76, 24, 24)   0           concatenate_1[0][0]              
                                                                 dropout_2[0][0]                  
__________________________________________________________________________________________________
tr_0_bn (BatchNormalization)    (None, 76, 24, 24)   304         concatenate_2[0][0]              
__________________________________________________________________________________________________
activation_4 (Activation)       (None, 76, 24, 24)   0           tr_0_bn[0][0]                    
__________________________________________________________________________________________________
tr_0_conv2D (Conv2D)            (None, 38, 24, 24)   2888        activation_4[0][0]               
__________________________________________________________________________________________________
average_pooling2d_1 (AveragePoo (None, 38, 12, 12)   0           tr_0_conv2D[0][0]                
__________________________________________________________________________________________________
dense_1_0_bn (BatchNormalizatio (None, 38, 12, 12)   152         average_pooling2d_1[0][0]        
__________________________________________________________________________________________________
activation_5 (Activation)       (None, 38, 12, 12)   0           dense_1_0_bn[0][0]               
__________________________________________________________________________________________________
dense_1_0_conv2D (Conv2D)       (None, 30, 12, 12)   10260       activation_5[0][0]               
__________________________________________________________________________________________________
dropout_3 (Dropout)             (None, 30, 12, 12)   0           dense_1_0_conv2D[0][0]           
__________________________________________________________________________________________________
concatenate_3 (Concatenate)     (None, 68, 12, 12)   0           average_pooling2d_1[0][0]        
                                                                 dropout_3[0][0]                  
__________________________________________________________________________________________________
dense_1_1_bn (BatchNormalizatio (None, 68, 12, 12)   272         concatenate_3[0][0]              
__________________________________________________________________________________________________
activation_6 (Activation)       (None, 68, 12, 12)   0           dense_1_1_bn[0][0]               
__________________________________________________________________________________________________
dense_1_1_conv2D (Conv2D)       (None, 30, 12, 12)   18360       activation_6[0][0]               
__________________________________________________________________________________________________
dropout_4 (Dropout)             (None, 30, 12, 12)   0           dense_1_1_conv2D[0][0]           
__________________________________________________________________________________________________
concatenate_4 (Concatenate)     (None, 98, 12, 12)   0           concatenate_3[0][0]              
                                                                 dropout_4[0][0]                  
__________________________________________________________________________________________________
tr_1_bn (BatchNormalization)    (None, 98, 12, 12)   392         concatenate_4[0][0]              
__________________________________________________________________________________________________
activation_7 (Activation)       (None, 98, 12, 12)   0           tr_1_bn[0][0]                    
__________________________________________________________________________________________________
tr_1_conv2D (Conv2D)            (None, 49, 12, 12)   4802        activation_7[0][0]               
__________________________________________________________________________________________________
average_pooling2d_2 (AveragePoo (None, 49, 6, 6)     0           tr_1_conv2D[0][0]                
__________________________________________________________________________________________________
dense_2_0_bn (BatchNormalizatio (None, 49, 6, 6)     196         average_pooling2d_2[0][0]        
__________________________________________________________________________________________________
activation_8 (Activation)       (None, 49, 6, 6)     0           dense_2_0_bn[0][0]               
__________________________________________________________________________________________________
dense_2_0_conv2D (Conv2D)       (None, 30, 6, 6)     13230       activation_8[0][0]               
__________________________________________________________________________________________________
dropout_5 (Dropout)             (None, 30, 6, 6)     0           dense_2_0_conv2D[0][0]           
__________________________________________________________________________________________________
concatenate_5 (Concatenate)     (None, 79, 6, 6)     0           average_pooling2d_2[0][0]        
                                                                 dropout_5[0][0]                  
__________________________________________________________________________________________________
dense_2_1_bn (BatchNormalizatio (None, 79, 6, 6)     316         concatenate_5[0][0]              
__________________________________________________________________________________________________
activation_9 (Activation)       (None, 79, 6, 6)     0           dense_2_1_bn[0][0]               
__________________________________________________________________________________________________
dense_2_1_conv2D (Conv2D)       (None, 30, 6, 6)     21330       activation_9[0][0]               
__________________________________________________________________________________________________
dropout_6 (Dropout)             (None, 30, 6, 6)     0           dense_2_1_conv2D[0][0]           
__________________________________________________________________________________________________
concatenate_6 (Concatenate)     (None, 109, 6, 6)    0           concatenate_5[0][0]              
                                                                 dropout_6[0][0]                  
__________________________________________________________________________________________________
final_bn (BatchNormalization)   (None, 109, 6, 6)    436         concatenate_6[0][0]              
__________________________________________________________________________________________________
activation_10 (Activation)      (None, 109, 6, 6)    0           final_bn[0][0]                   
__________________________________________________________________________________________________
global_average_pooling2d_1 (Glo (None, 109)          0           activation_10[0][0]              
__________________________________________________________________________________________________
dense_1 (Dense)                 (None, 1)            110         global_average_pooling2d_1[0][0] 
==================================================================================================
Total params: 91,668
Trainable params: 90,478
Non-trainable params: 1,190
__________________________________________________________________________________________________
Finished compiling
Train on 39840 samples, validate on 7968 samples
Epoch 1/21
 - 22s - loss: 0.4919 - acc: 0.7637 - val_loss: 0.4499 - val_acc: 0.7884
…
Layers:  [2, 2, 2]  Growth_rate:  30  nb_filter:  8  dropout:  0.2
dense_block:  3  reduction:  0.5  bottleneck:  False
Epochs:  21  batch_size:  64  lr:  0.07  optimizer:  adadelta
 es_patience:  4  lr_patience:  3  pooling:  avg
------------------------	  end of configs        -------------------------
pooling:avg
__________________________________________________________________________________________________
Layer (type)                    Output Shape         Param #     Connected to                     
==================================================================================================
input_1 (InputLayer)            (None, 2, 96, 96)    0                                            
__________________________________________________________________________________________________
initial_conv2D (Conv2D)         (None, 8, 48, 48)    784         input_1[0][0]                    
__________________________________________________________________________________________________
initial_bn (BatchNormalization) (None, 8, 48, 48)    32          initial_conv2D[0][0]             
__________________________________________________________________________________________________
activation_1 (Activation)       (None, 8, 48, 48)    0           initial_bn[0][0]                 
__________________________________________________________________________________________________
max_pooling2d_1 (MaxPooling2D)  (None, 8, 24, 24)    0           activation_1[0][0]               
__________________________________________________________________________________________________
dense_0_0_bn (BatchNormalizatio (None, 8, 24, 24)    32          max_pooling2d_1[0][0]            
__________________________________________________________________________________________________
activation_2 (Activation)       (None, 8, 24, 24)    0           dense_0_0_bn[0][0]               
__________________________________________________________________________________________________
dense_0_0_conv2D (Conv2D)       (None, 30, 24, 24)   2160        activation_2[0][0]               
__________________________________________________________________________________________________
dropout_1 (Dropout)             (None, 30, 24, 24)   0           dense_0_0_conv2D[0][0]           
__________________________________________________________________________________________________
concatenate_1 (Concatenate)     (None, 38, 24, 24)   0           max_pooling2d_1[0][0]            
                                                                 dropout_1[0][0]                  
__________________________________________________________________________________________________
dense_0_1_bn (BatchNormalizatio (None, 38, 24, 24)   152         concatenate_1[0][0]              
__________________________________________________________________________________________________
activation_3 (Activation)       (None, 38, 24, 24)   0           dense_0_1_bn[0][0]               
__________________________________________________________________________________________________
dense_0_1_conv2D (Conv2D)       (None, 30, 24, 24)   10260       activation_3[0][0]               
__________________________________________________________________________________________________
dropout_2 (Dropout)             (None, 30, 24, 24)   0           dense_0_1_conv2D[0][0]           
__________________________________________________________________________________________________
concatenate_2 (Concatenate)     (None, 68, 24, 24)   0           concatenate_1[0][0]              
                                                                 dropout_2[0][0]                  
__________________________________________________________________________________________________
tr_0_bn (BatchNormalization)    (None, 68, 24, 24)   272         concatenate_2[0][0]              
__________________________________________________________________________________________________
activation_4 (Activation)       (None, 68, 24, 24)   0           tr_0_bn[0][0]                    
__________________________________________________________________________________________________
tr_0_conv2D (Conv2D)            (None, 34, 24, 24)   2312        activation_4[0][0]               
__________________________________________________________________________________________________
average_pooling2d_1 (AveragePoo (None, 34, 12, 12)   0           tr_0_conv2D[0][0]                
__________________________________________________________________________________________________
dense_1_0_bn (BatchNormalizatio (None, 34, 12, 12)   136         average_pooling2d_1[0][0]        
__________________________________________________________________________________________________
activation_5 (Activation)       (None, 34, 12, 12)   0           dense_1_0_bn[0][0]               
__________________________________________________________________________________________________
dense_1_0_conv2D (Conv2D)       (None, 30, 12, 12)   9180        activation_5[0][0]               
__________________________________________________________________________________________________
dropout_3 (Dropout)             (None, 30, 12, 12)   0           dense_1_0_conv2D[0][0]           
__________________________________________________________________________________________________
concatenate_3 (Concatenate)     (None, 64, 12, 12)   0           average_pooling2d_1[0][0]        
                                                                 dropout_3[0][0]                  
__________________________________________________________________________________________________
dense_1_1_bn (BatchNormalizatio (None, 64, 12, 12)   256         concatenate_3[0][0]              
__________________________________________________________________________________________________
activation_6 (Activation)       (None, 64, 12, 12)   0           dense_1_1_bn[0][0]               
__________________________________________________________________________________________________
dense_1_1_conv2D (Conv2D)       (None, 30, 12, 12)   17280       activation_6[0][0]               
__________________________________________________________________________________________________
dropout_4 (Dropout)             (None, 30, 12, 12)   0           dense_1_1_conv2D[0][0]           
__________________________________________________________________________________________________
concatenate_4 (Concatenate)     (None, 94, 12, 12)   0           concatenate_3[0][0]              
                                                                 dropout_4[0][0]                  
__________________________________________________________________________________________________
tr_1_bn (BatchNormalization)    (None, 94, 12, 12)   376         concatenate_4[0][0]              
__________________________________________________________________________________________________
activation_7 (Activation)       (None, 94, 12, 12)   0           tr_1_bn[0][0]                    
__________________________________________________________________________________________________
tr_1_conv2D (Conv2D)            (None, 47, 12, 12)   4418        activation_7[0][0]               
__________________________________________________________________________________________________
average_pooling2d_2 (AveragePoo (None, 47, 6, 6)     0           tr_1_conv2D[0][0]                
__________________________________________________________________________________________________
dense_2_0_bn (BatchNormalizatio (None, 47, 6, 6)     188         average_pooling2d_2[0][0]        
__________________________________________________________________________________________________
activation_8 (Activation)       (None, 47, 6, 6)     0           dense_2_0_bn[0][0]               
__________________________________________________________________________________________________
dense_2_0_conv2D (Conv2D)       (None, 30, 6, 6)     12690       activation_8[0][0]               
__________________________________________________________________________________________________
dropout_5 (Dropout)             (None, 30, 6, 6)     0           dense_2_0_conv2D[0][0]           
__________________________________________________________________________________________________
concatenate_5 (Concatenate)     (None, 77, 6, 6)     0           average_pooling2d_2[0][0]        
                                                                 dropout_5[0][0]                  
__________________________________________________________________________________________________
dense_2_1_bn (BatchNormalizatio (None, 77, 6, 6)     308         concatenate_5[0][0]              
__________________________________________________________________________________________________
activation_9 (Activation)       (None, 77, 6, 6)     0           dense_2_1_bn[0][0]               
__________________________________________________________________________________________________
dense_2_1_conv2D (Conv2D)       (None, 30, 6, 6)     20790       activation_9[0][0]               
__________________________________________________________________________________________________
dropout_6 (Dropout)             (None, 30, 6, 6)     0           dense_2_1_conv2D[0][0]           
__________________________________________________________________________________________________
concatenate_6 (Concatenate)     (None, 107, 6, 6)    0           concatenate_5[0][0]              
                                                                 dropout_6[0][0]                  
__________________________________________________________________________________________________
final_bn (BatchNormalization)   (None, 107, 6, 6)    428         concatenate_6[0][0]              
__________________________________________________________________________________________________
activation_10 (Activation)      (None, 107, 6, 6)    0           final_bn[0][0]                   
__________________________________________________________________________________________________
global_average_pooling2d_1 (Glo (None, 107)          0           activation_10[0][0]              
__________________________________________________________________________________________________
dense_1 (Dense)                 (None, 1)            108         global_average_pooling2d_1[0][0] 
==================================================================================================
Total params: 82,162
Trainable params: 81,072
Non-trainable params: 1,090
__________________________________________________________________________________________________
Finished compiling
Train on 39840 samples, validate on 7968 samples
Epoch 1/21
 - 22s - loss: 0.5134 - acc: 0.7547 - val_loss: 0.5037 - val_acc: 0.7538
…
Layers:  [2, 2, 2]  Growth_rate:  30  nb_filter:  32  dropout:  0.2
dense_block:  3  reduction:  0.5  bottleneck:  False
Epochs:  21  batch_size:  64  lr:  0.07  optimizer:  adadelta
 es_patience:  4  lr_patience:  3  pooling:  avg
------------------------	  end of configs        -------------------------
pooling:avg
__________________________________________________________________________________________________
Layer (type)                    Output Shape         Param #     Connected to                     
==================================================================================================
input_1 (InputLayer)            (None, 2, 96, 96)    0                                            
__________________________________________________________________________________________________
initial_conv2D (Conv2D)         (None, 32, 48, 48)   3136        input_1[0][0]                    
__________________________________________________________________________________________________
initial_bn (BatchNormalization) (None, 32, 48, 48)   128         initial_conv2D[0][0]             
__________________________________________________________________________________________________
activation_1 (Activation)       (None, 32, 48, 48)   0           initial_bn[0][0]                 
__________________________________________________________________________________________________
max_pooling2d_1 (MaxPooling2D)  (None, 32, 24, 24)   0           activation_1[0][0]               
__________________________________________________________________________________________________
dense_0_0_bn (BatchNormalizatio (None, 32, 24, 24)   128         max_pooling2d_1[0][0]            
__________________________________________________________________________________________________
activation_2 (Activation)       (None, 32, 24, 24)   0           dense_0_0_bn[0][0]               
__________________________________________________________________________________________________
dense_0_0_conv2D (Conv2D)       (None, 30, 24, 24)   8640        activation_2[0][0]               
__________________________________________________________________________________________________
dropout_1 (Dropout)             (None, 30, 24, 24)   0           dense_0_0_conv2D[0][0]           
__________________________________________________________________________________________________
concatenate_1 (Concatenate)     (None, 62, 24, 24)   0           max_pooling2d_1[0][0]            
                                                                 dropout_1[0][0]                  
__________________________________________________________________________________________________
dense_0_1_bn (BatchNormalizatio (None, 62, 24, 24)   248         concatenate_1[0][0]              
__________________________________________________________________________________________________
activation_3 (Activation)       (None, 62, 24, 24)   0           dense_0_1_bn[0][0]               
__________________________________________________________________________________________________
dense_0_1_conv2D (Conv2D)       (None, 30, 24, 24)   16740       activation_3[0][0]               
…
tr_0_conv2D (Conv2D)            (None, 62, 24, 24)   7688        activation_4[0][0]               
__________________________________________________________________________________________________
average_pooling2d_1 (AveragePoo (None, 62, 12, 12)   0           tr_0_conv2D[0][0]                
__________________________________________________________________________________________________
dense_1_0_bn (BatchNormalizatio (None, 62, 12, 12)   248         average_pooling2d_1[0][0]        
__________________________________________________________________________________________________
activation_5 (Activation)       (None, 62, 12, 12)   0           dense_1_0_bn[0][0]               
__________________________________________________________________________________________________
dense_1_0_conv2D (Conv2D)       (None, 30, 12, 12)   16740       activation_5[0][0]               
__________________________________________________________________________________________________
dropout_3 (Dropout)             (None, 30, 12, 12)   0           dense_1_0_conv2D[0][0]           
__________________________________________________________________________________________________
concatenate_3 (Concatenate)     (None, 92, 12, 12)   0           average_pooling2d_1[0][0]        
                                                                 dropout_3[0][0]                  
__________________________________________________________________________________________________
dense_1_1_bn (BatchNormalizatio (None, 92, 12, 12)   368         concatenate_3[0][0]              
__________________________________________________________________________________________________
activation_6 (Activation)       (None, 92, 12, 12)   0           dense_1_1_bn[0][0]               
__________________________________________________________________________________________________
dense_1_1_conv2D (Conv2D)       (None, 30, 12, 12)   24840       activation_6[0][0]               
__________________________________________________________________________________________________
dropout_4 (Dropout)             (None, 30, 12, 12)   0           dense_1_1_conv2D[0][0]           
__________________________________________________________________________________________________
concatenate_4 (Concatenate)     (None, 122, 12, 12)  0           concatenate_3[0][0]              
                                                                 dropout_4[0][0]                  
__________________________________________________________________________________________________
tr_1_bn (BatchNormalization)    (None, 122, 12, 12)  488         concatenate_4[0][0]              
__________________________________________________________________________________________________
activation_7 (Activation)       (None, 122, 12, 12)  0           tr_1_bn[0][0]                    
__________________________________________________________________________________________________
tr_1_conv2D (Conv2D)            (None, 61, 12, 12)   7442        activation_7[0][0]               
__________________________________________________________________________________________________
average_pooling2d_2 (AveragePoo (None, 61, 6, 6)     0           tr_1_conv2D[0][0]                
__________________________________________________________________________________________________
dense_2_0_bn (BatchNormalizatio (None, 61, 6, 6)     244         average_pooling2d_2[0][0]        
__________________________________________________________________________________________________
activation_8 (Activation)       (None, 61, 6, 6)     0           dense_2_0_bn[0][0]               
__________________________________________________________________________________________________
dense_2_0_conv2D (Conv2D)       (None, 30, 6, 6)     16470       activation_8[0][0]               
__________________________________________________________________________________________________
dropout_5 (Dropout)             (None, 30, 6, 6)     0           dense_2_0_conv2D[0][0]           
__________________________________________________________________________________________________
concatenate_5 (Concatenate)     (None, 91, 6, 6)     0           average_pooling2d_2[0][0]        
                                                                 dropout_5[0][0]                  
__________________________________________________________________________________________________
dense_2_1_bn (BatchNormalizatio (None, 91, 6, 6)     364         concatenate_5[0][0]              
__________________________________________________________________________________________________
activation_9 (Activation)       (None, 91, 6, 6)     0           dense_2_1_bn[0][0]               
__________________________________________________________________________________________________
dense_2_1_conv2D (Conv2D)       (None, 30, 6, 6)     24570       activation_9[0][0]               
__________________________________________________________________________________________________
dropout_6 (Dropout)             (None, 30, 6, 6)     0           dense_2_1_conv2D[0][0]           
__________________________________________________________________________________________________
concatenate_6 (Concatenate)     (None, 121, 6, 6)    0           concatenate_5[0][0]              
                                                                 dropout_6[0][0]                  
__________________________________________________________________________________________________
final_bn (BatchNormalization)   (None, 121, 6, 6)    484         concatenate_6[0][0]              
__________________________________________________________________________________________________
activation_10 (Activation)      (None, 121, 6, 6)    0           final_bn[0][0]                   
__________________________________________________________________________________________________
global_average_pooling2d_1 (Glo (None, 121)          0           activation_10[0][0]              
__________________________________________________________________________________________________
dense_1 (Dense)                 (None, 1)            122         global_average_pooling2d_1[0][0] 
==================================================================================================
Total params: 150,384
Trainable params: 148,594
Non-trainable params: 1,790
__________________________________________________________________________________________________
Finished compiling
Train on 39840 samples, validate on 7968 samples
Epoch 1/21
 - 24s - loss: 0.5108 - acc: 0.7647 - val_loss: 0.4383 - val_acc: 0.8030
…
Layers:  [2, 2, 2]  Growth_rate:  18  nb_filter:  8  dropout:  0.2
dense_block:  3  reduction:  0.5  bottleneck:  False
Epochs:  21  batch_size:  64  lr:  0.07  optimizer:  adadelta
 es_patience:  4  lr_patience:  3  pooling:  avg
------------------------	  end of configs        -------------------------
pooling:avg
__________________________________________________________________________________________________
Layer (type)                    Output Shape         Param #     Connected to                     
==================================================================================================
input_1 (InputLayer)            (None, 2, 96, 96)    0                                            
__________________________________________________________________________________________________
initial_conv2D (Conv2D)         (None, 8, 48, 48)    784         input_1[0][0]                    
__________________________________________________________________________________________________
initial_bn (BatchNormalization) (None, 8, 48, 48)    32          initial_conv2D[0][0]             
__________________________________________________________________________________________________
activation_1 (Activation)       (None, 8, 48, 48)    0           initial_bn[0][0]                 
__________________________________________________________________________________________________
max_pooling2d_1 (MaxPooling2D)  (None, 8, 24, 24)    0           activation_1[0][0]               
__________________________________________________________________________________________________
dense_0_0_bn (BatchNormalizatio (None, 8, 24, 24)    32          max_pooling2d_1[0][0]            
__________________________________________________________________________________________________
activation_2 (Activation)       (None, 8, 24, 24)    0           dense_0_0_bn[0][0]               
__________________________________________________________________________________________________
dense_0_0_conv2D (Conv2D)       (None, 18, 24, 24)   1296        activation_2[0][0]               
__________________________________________________________________________________________________
dropout_1 (Dropout)             (None, 18, 24, 24)   0           dense_0_0_conv2D[0][0]           
__________________________________________________________________________________________________
concatenate_1 (Concatenate)     (None, 26, 24, 24)   0           max_pooling2d_1[0][0]            
                                                                 dropout_1[0][0]                  
__________________________________________________________________________________________________
dense_0_1_bn (BatchNormalizatio (None, 26, 24, 24)   104         concatenate_1[0][0]              
__________________________________________________________________________________________________
activation_3 (Activation)       (None, 26, 24, 24)   0           dense_0_1_bn[0][0]               
__________________________________________________________________________________________________
dense_0_1_conv2D (Conv2D)       (None, 18, 24, 24)   4212        activation_3[0][0]               
__________________________________________________________________________________________________
dropout_2 (Dropout)             (None, 18, 24, 24)   0           dense_0_1_conv2D[0][0]           
__________________________________________________________________________________________________
concatenate_2 (Concatenate)     (None, 44, 24, 24)   0           concatenate_1[0][0]              
                                                                 dropout_2[0][0]                  
__________________________________________________________________________________________________
tr_0_bn (BatchNormalization)    (None, 44, 24, 24)   176         concatenate_2[0][0]              
__________________________________________________________________________________________________
activation_4 (Activation)       (None, 44, 24, 24)   0           tr_0_bn[0][0]                    
__________________________________________________________________________________________________
tr_0_conv2D (Conv2D)            (None, 22, 24, 24)   968         activation_4[0][0]               
__________________________________________________________________________________________________
average_pooling2d_1 (AveragePoo (None, 22, 12, 12)   0           tr_0_conv2D[0][0]                
__________________________________________________________________________________________________
dense_1_0_bn (BatchNormalizatio (None, 22, 12, 12)   88          average_pooling2d_1[0][0]        
__________________________________________________________________________________________________
activation_5 (Activation)       (None, 22, 12, 12)   0           dense_1_0_bn[0][0]               
__________________________________________________________________________________________________
dense_1_0_conv2D (Conv2D)       (None, 18, 12, 12)   3564        activation_5[0][0]               
__________________________________________________________________________________________________
dropout_3 (Dropout)             (None, 18, 12, 12)   0           dense_1_0_conv2D[0][0]           
__________________________________________________________________________________________________
concatenate_3 (Concatenate)     (None, 40, 12, 12)   0           average_pooling2d_1[0][0]        
                                                                 dropout_3[0][0]                  
__________________________________________________________________________________________________
dense_1_1_bn (BatchNormalizatio (None, 40, 12, 12)   160         concatenate_3[0][0]              
__________________________________________________________________________________________________
activation_6 (Activation)       (None, 40, 12, 12)   0           dense_1_1_bn[0][0]               
__________________________________________________________________________________________________
dense_1_1_conv2D (Conv2D)       (None, 18, 12, 12)   6480        activation_6[0][0]               
__________________________________________________________________________________________________
dropout_4 (Dropout)             (None, 18, 12, 12)   0           dense_1_1_conv2D[0][0]           
__________________________________________________________________________________________________
concatenate_4 (Concatenate)     (None, 58, 12, 12)   0           concatenate_3[0][0]              
                                                                 dropout_4[0][0]                  
__________________________________________________________________________________________________
tr_1_bn (BatchNormalization)    (None, 58, 12, 12)   232         concatenate_4[0][0]              
__________________________________________________________________________________________________
activation_7 (Activation)       (None, 58, 12, 12)   0           tr_1_bn[0][0]                    
__________________________________________________________________________________________________
tr_1_conv2D (Conv2D)            (None, 29, 12, 12)   1682        activation_7[0][0]               
__________________________________________________________________________________________________
average_pooling2d_2 (AveragePoo (None, 29, 6, 6)     0           tr_1_conv2D[0][0]                
__________________________________________________________________________________________________
dense_2_0_bn (BatchNormalizatio (None, 29, 6, 6)     116         average_pooling2d_2[0][0]        
__________________________________________________________________________________________________
activation_8 (Activation)       (None, 29, 6, 6)     0           dense_2_0_bn[0][0]               
__________________________________________________________________________________________________
dense_2_0_conv2D (Conv2D)       (None, 18, 6, 6)     4698        activation_8[0][0]               
__________________________________________________________________________________________________
dropout_5 (Dropout)             (None, 18, 6, 6)     0           dense_2_0_conv2D[0][0]           
__________________________________________________________________________________________________
concatenate_5 (Concatenate)     (None, 47, 6, 6)     0           average_pooling2d_2[0][0]        
                                                                 dropout_5[0][0]                  
__________________________________________________________________________________________________
dense_2_1_bn (BatchNormalizatio (None, 47, 6, 6)     188         concatenate_5[0][0]              
__________________________________________________________________________________________________
activation_9 (Activation)       (None, 47, 6, 6)     0           dense_2_1_bn[0][0]               
__________________________________________________________________________________________________
dense_2_1_conv2D (Conv2D)       (None, 18, 6, 6)     7614        activation_9[0][0]               
__________________________________________________________________________________________________
dropout_6 (Dropout)             (None, 18, 6, 6)     0           dense_2_1_conv2D[0][0]           
__________________________________________________________________________________________________
concatenate_6 (Concatenate)     (None, 65, 6, 6)     0           concatenate_5[0][0]              
                                                                 dropout_6[0][0]                  
__________________________________________________________________________________________________
final_bn (BatchNormalization)   (None, 65, 6, 6)     260         concatenate_6[0][0]              
__________________________________________________________________________________________________
activation_10 (Activation)      (None, 65, 6, 6)     0           final_bn[0][0]                   
__________________________________________________________________________________________________
global_average_pooling2d_1 (Glo (None, 65)           0           activation_10[0][0]              
__________________________________________________________________________________________________
dense_1 (Dense)                 (None, 1)            66          global_average_pooling2d_1[0][0] 
==================================================================================================
Total params: 32,752
Trainable params: 32,058
Non-trainable params: 694
__________________________________________________________________________________________________
Finished compiling
Train on 39840 samples, validate on 7968 samples
Epoch 1/21
 - 22s - loss: 0.5502 - acc: 0.7206 - val_loss: 0.9055 - val_acc: 0.5959
…
Layers:  [2, 2, 2]  Growth_rate:  18  nb_filter:  16  dropout:  0.2
dense_block:  3  reduction:  0.5  bottleneck:  False
Epochs:  21  batch_size:  64  lr:  0.07  optimizer:  adadelta
 es_patience:  4  lr_patience:  3  pooling:  avg
------------------------	  end of configs        -------------------------
pooling:avg
__________________________________________________________________________________________________
Layer (type)                    Output Shape         Param #     Connected to                     
==================================================================================================
input_1 (InputLayer)            (None, 2, 96, 96)    0                                            
__________________________________________________________________________________________________
initial_conv2D (Conv2D)         (None, 16, 48, 48)   1568        input_1[0][0]                    
__________________________________________________________________________________________________
initial_bn (BatchNormalization) (None, 16, 48, 48)   64          initial_conv2D[0][0]             
__________________________________________________________________________________________________
activation_1 (Activation)       (None, 16, 48, 48)   0           initial_bn[0][0]                 
__________________________________________________________________________________________________
max_pooling2d_1 (MaxPooling2D)  (None, 16, 24, 24)   0           activation_1[0][0]               
__________________________________________________________________________________________________
dense_0_0_bn (BatchNormalizatio (None, 16, 24, 24)   64          max_pooling2d_1[0][0]            
__________________________________________________________________________________________________
activation_2 (Activation)       (None, 16, 24, 24)   0           dense_0_0_bn[0][0]               
__________________________________________________________________________________________________
dense_0_0_conv2D (Conv2D)       (None, 18, 24, 24)   2592        activation_2[0][0]               
__________________________________________________________________________________________________
dropout_1 (Dropout)             (None, 18, 24, 24)   0           dense_0_0_conv2D[0][0]           
__________________________________________________________________________________________________
concatenate_1 (Concatenate)     (None, 34, 24, 24)   0           max_pooling2d_1[0][0]            
                                                                 dropout_1[0][0]                  
__________________________________________________________________________________________________
dense_0_1_bn (BatchNormalizatio (None, 34, 24, 24)   136         concatenate_1[0][0]              
__________________________________________________________________________________________________
activation_3 (Activation)       (None, 34, 24, 24)   0           dense_0_1_bn[0][0]               
__________________________________________________________________________________________________
dense_0_1_conv2D (Conv2D)       (None, 18, 24, 24)   5508        activation_3[0][0]               
__________________________________________________________________________________________________
dropout_2 (Dropout)             (None, 18, 24, 24)   0           dense_0_1_conv2D[0][0]           
__________________________________________________________________________________________________
concatenate_2 (Concatenate)     (None, 52, 24, 24)   0           concatenate_1[0][0]              
                                                                 dropout_2[0][0]                  
__________________________________________________________________________________________________
tr_0_bn (BatchNormalization)    (None, 52, 24, 24)   208         concatenate_2[0][0]              
__________________________________________________________________________________________________
activation_4 (Activation)       (None, 52, 24, 24)   0           tr_0_bn[0][0]                    
__________________________________________________________________________________________________
tr_0_conv2D (Conv2D)            (None, 26, 24, 24)   1352        activation_4[0][0]               
__________________________________________________________________________________________________
average_pooling2d_1 (AveragePoo (None, 26, 12, 12)   0           tr_0_conv2D[0][0]                
__________________________________________________________________________________________________
dense_1_0_bn (BatchNormalizatio (None, 26, 12, 12)   104         average_pooling2d_1[0][0]        
__________________________________________________________________________________________________
activation_5 (Activation)       (None, 26, 12, 12)   0           dense_1_0_bn[0][0]               
__________________________________________________________________________________________________
dense_1_0_conv2D (Conv2D)       (None, 18, 12, 12)   4212        activation_5[0][0]               
__________________________________________________________________________________________________
dropout_3 (Dropout)             (None, 18, 12, 12)   0           dense_1_0_conv2D[0][0]           
__________________________________________________________________________________________________
concatenate_3 (Concatenate)     (None, 44, 12, 12)   0           average_pooling2d_1[0][0]        
                                                                 dropout_3[0][0]                  
__________________________________________________________________________________________________
dense_1_1_bn (BatchNormalizatio (None, 44, 12, 12)   176         concatenate_3[0][0]              
__________________________________________________________________________________________________
activation_6 (Activation)       (None, 44, 12, 12)   0           dense_1_1_bn[0][0]               
__________________________________________________________________________________________________
dense_1_1_conv2D (Conv2D)       (None, 18, 12, 12)   7128        activation_6[0][0]               
__________________________________________________________________________________________________
dropout_4 (Dropout)             (None, 18, 12, 12)   0           dense_1_1_conv2D[0][0]           
__________________________________________________________________________________________________
concatenate_4 (Concatenate)     (None, 62, 12, 12)   0           concatenate_3[0][0]              
                                                                 dropout_4[0][0]                  
__________________________________________________________________________________________________
tr_1_bn (BatchNormalization)    (None, 62, 12, 12)   248         concatenate_4[0][0]              
__________________________________________________________________________________________________
activation_7 (Activation)       (None, 62, 12, 12)   0           tr_1_bn[0][0]                    
__________________________________________________________________________________________________
tr_1_conv2D (Conv2D)            (None, 31, 12, 12)   1922        activation_7[0][0]               
__________________________________________________________________________________________________
average_pooling2d_2 (AveragePoo (None, 31, 6, 6)     0           tr_1_conv2D[0][0]                
__________________________________________________________________________________________________
dense_2_0_bn (BatchNormalizatio (None, 31, 6, 6)     124         average_pooling2d_2[0][0]        
__________________________________________________________________________________________________
activation_8 (Activation)       (None, 31, 6, 6)     0           dense_2_0_bn[0][0]               
__________________________________________________________________________________________________
dense_2_0_conv2D (Conv2D)       (None, 18, 6, 6)     5022        activation_8[0][0]               
__________________________________________________________________________________________________
dropout_5 (Dropout)             (None, 18, 6, 6)     0           dense_2_0_conv2D[0][0]           
__________________________________________________________________________________________________
concatenate_5 (Concatenate)     (None, 49, 6, 6)     0           average_pooling2d_2[0][0]        
                                                                 dropout_5[0][0]                  
__________________________________________________________________________________________________
dense_2_1_bn (BatchNormalizatio (None, 49, 6, 6)     196         concatenate_5[0][0]              
__________________________________________________________________________________________________
activation_9 (Activation)       (None, 49, 6, 6)     0           dense_2_1_bn[0][0]               
__________________________________________________________________________________________________
dense_2_1_conv2D (Conv2D)       (None, 18, 6, 6)     7938        activation_9[0][0]               
__________________________________________________________________________________________________
dropout_6 (Dropout)             (None, 18, 6, 6)     0           dense_2_1_conv2D[0][0]           
__________________________________________________________________________________________________
concatenate_6 (Concatenate)     (None, 67, 6, 6)     0           concatenate_5[0][0]              
                                                                 dropout_6[0][0]                  
__________________________________________________________________________________________________
final_bn (BatchNormalization)   (None, 67, 6, 6)     268         concatenate_6[0][0]              
__________________________________________________________________________________________________
activation_10 (Activation)      (None, 67, 6, 6)     0           final_bn[0][0]                   
__________________________________________________________________________________________________
global_average_pooling2d_1 (Glo (None, 67)           0           activation_10[0][0]              
__________________________________________________________________________________________________
dense_1 (Dense)                 (None, 1)            68          global_average_pooling2d_1[0][0] 
==================================================================================================
Total params: 38,898
Trainable params: 38,104
Non-trainable params: 794
__________________________________________________________________________________________________
Finished compiling
Train on 39840 samples, validate on 7968 samples
Epoch 1/21
 - 23s - loss: 0.5382 - acc: 0.7343 - val_loss: 0.4805 - val_acc: 0.7644
…
Layers:  [2, 2, 2]  Growth_rate:  18  nb_filter:  32  dropout:  0.2
dense_block:  3  reduction:  0.5  bottleneck:  False
Epochs:  21  batch_size:  64  lr:  0.07  optimizer:  adadelta
 es_patience:  4  lr_patience:  3  pooling:  avg
------------------------	  end of configs        -------------------------
pooling:avg
__________________________________________________________________________________________________
Layer (type)                    Output Shape         Param #     Connected to                     
==================================================================================================
input_1 (InputLayer)            (None, 2, 96, 96)    0                                            
__________________________________________________________________________________________________
initial_conv2D (Conv2D)         (None, 32, 48, 48)   3136        input_1[0][0]                    
__________________________________________________________________________________________________
initial_bn (BatchNormalization) (None, 32, 48, 48)   128         initial_conv2D[0][0]             
__________________________________________________________________________________________________
activation_1 (Activation)       (None, 32, 48, 48)   0           initial_bn[0][0]                 
__________________________________________________________________________________________________
max_pooling2d_1 (MaxPooling2D)  (None, 32, 24, 24)   0           activation_1[0][0]               
__________________________________________________________________________________________________
dense_0_0_bn (BatchNormalizatio (None, 32, 24, 24)   128         max_pooling2d_1[0][0]            
__________________________________________________________________________________________________
activation_2 (Activation)       (None, 32, 24, 24)   0           dense_0_0_bn[0][0]               
__________________________________________________________________________________________________
dense_0_0_conv2D (Conv2D)       (None, 18, 24, 24)   5184        activation_2[0][0]               
__________________________________________________________________________________________________
dropout_1 (Dropout)             (None, 18, 24, 24)   0           dense_0_0_conv2D[0][0]           
__________________________________________________________________________________________________
concatenate_1 (Concatenate)     (None, 50, 24, 24)   0           max_pooling2d_1[0][0]            
                                                                 dropout_1[0][0]                  
__________________________________________________________________________________________________
dense_0_1_bn (BatchNormalizatio (None, 50, 24, 24)   200         concatenate_1[0][0]              
__________________________________________________________________________________________________
activation_3 (Activation)       (None, 50, 24, 24)   0           dense_0_1_bn[0][0]               
__________________________________________________________________________________________________
dense_0_1_conv2D (Conv2D)       (None, 18, 24, 24)   8100        activation_3[0][0]               
__________________________________________________________________________________________________
dropout_2 (Dropout)             (None, 18, 24, 24)   0           dense_0_1_conv2D[0][0]           
__________________________________________________________________________________________________
concatenate_2 (Concatenate)     (None, 68, 24, 24)   0           concatenate_1[0][0]              
                                                                 dropout_2[0][0]                  
__________________________________________________________________________________________________
tr_0_bn (BatchNormalization)    (None, 68, 24, 24)   272         concatenate_2[0][0]              
__________________________________________________________________________________________________
activation_4 (Activation)       (None, 68, 24, 24)   0           tr_0_bn[0][0]                    
__________________________________________________________________________________________________
tr_0_conv2D (Conv2D)            (None, 34, 24, 24)   2312        activation_4[0][0]               
__________________________________________________________________________________________________
average_pooling2d_1 (AveragePoo (None, 34, 12, 12)   0           tr_0_conv2D[0][0]                
__________________________________________________________________________________________________
dense_1_0_bn (BatchNormalizatio (None, 34, 12, 12)   136         average_pooling2d_1[0][0]        
__________________________________________________________________________________________________
activation_5 (Activation)       (None, 34, 12, 12)   0           dense_1_0_bn[0][0]               
__________________________________________________________________________________________________
dense_1_0_conv2D (Conv2D)       (None, 18, 12, 12)   5508        activation_5[0][0]               
__________________________________________________________________________________________________
dropout_3 (Dropout)             (None, 18, 12, 12)   0           dense_1_0_conv2D[0][0]           
__________________________________________________________________________________________________
concatenate_3 (Concatenate)     (None, 52, 12, 12)   0           average_pooling2d_1[0][0]        
                                                                 dropout_3[0][0]                  
__________________________________________________________________________________________________
dense_1_1_bn (BatchNormalizatio (None, 52, 12, 12)   208         concatenate_3[0][0]              
__________________________________________________________________________________________________
activation_6 (Activation)       (None, 52, 12, 12)   0           dense_1_1_bn[0][0]               
__________________________________________________________________________________________________
dense_1_1_conv2D (Conv2D)       (None, 18, 12, 12)   8424        activation_6[0][0]               
__________________________________________________________________________________________________
dropout_4 (Dropout)             (None, 18, 12, 12)   0           dense_1_1_conv2D[0][0]           
__________________________________________________________________________________________________
concatenate_4 (Concatenate)     (None, 70, 12, 12)   0           concatenate_3[0][0]              
                                                                 dropout_4[0][0]                  
__________________________________________________________________________________________________
tr_1_bn (BatchNormalization)    (None, 70, 12, 12)   280         concatenate_4[0][0]              
__________________________________________________________________________________________________
activation_7 (Activation)       (None, 70, 12, 12)   0           tr_1_bn[0][0]                    
__________________________________________________________________________________________________
tr_1_conv2D (Conv2D)            (None, 35, 12, 12)   2450        activation_7[0][0]               
__________________________________________________________________________________________________
average_pooling2d_2 (AveragePoo (None, 35, 6, 6)     0           tr_1_conv2D[0][0]                
__________________________________________________________________________________________________
dense_2_0_bn (BatchNormalizatio (None, 35, 6, 6)     140         average_pooling2d_2[0][0]        
__________________________________________________________________________________________________
activation_8 (Activation)       (None, 35, 6, 6)     0           dense_2_0_bn[0][0]               
__________________________________________________________________________________________________
dense_2_0_conv2D (Conv2D)       (None, 18, 6, 6)     5670        activation_8[0][0]               
__________________________________________________________________________________________________
dropout_5 (Dropout)             (None, 18, 6, 6)     0           dense_2_0_conv2D[0][0]           
__________________________________________________________________________________________________
concatenate_5 (Concatenate)     (None, 53, 6, 6)     0           average_pooling2d_2[0][0]        
                                                                 dropout_5[0][0]                  
__________________________________________________________________________________________________
dense_2_1_bn (BatchNormalizatio (None, 53, 6, 6)     212         concatenate_5[0][0]              
__________________________________________________________________________________________________
activation_9 (Activation)       (None, 53, 6, 6)     0           dense_2_1_bn[0][0]               
__________________________________________________________________________________________________
dense_2_1_conv2D (Conv2D)       (None, 18, 6, 6)     8586        activation_9[0][0]               
__________________________________________________________________________________________________
dropout_6 (Dropout)             (None, 18, 6, 6)     0           dense_2_1_conv2D[0][0]           
__________________________________________________________________________________________________
concatenate_6 (Concatenate)     (None, 71, 6, 6)     0           concatenate_5[0][0]              
                                                                 dropout_6[0][0]                  
__________________________________________________________________________________________________
final_bn (BatchNormalization)   (None, 71, 6, 6)     284         concatenate_6[0][0]              
__________________________________________________________________________________________________
activation_10 (Activation)      (None, 71, 6, 6)     0           final_bn[0][0]                   
__________________________________________________________________________________________________
global_average_pooling2d_1 (Glo (None, 71)           0           activation_10[0][0]              
__________________________________________________________________________________________________
dense_1 (Dense)                 (None, 1)            72          global_average_pooling2d_1[0][0] 
==================================================================================================
Total params: 51,430
Trainable params: 50,436
Non-trainable params: 994
__________________________________________________________________________________________________
Finished compiling
Train on 39840 samples, validate on 7968 samples
Epoch 1/21
 - 23s - loss: 0.5346 - acc: 0.7458 - val_loss: 0.4835 - val_acc: 0.7666
…
Layers:  [2, 2, 2]  Growth_rate:  18  nb_filter:  64  dropout:  0.2
dense_block:  3  reduction:  0.5  bottleneck:  False
Epochs:  21  batch_size:  64  lr:  0.07  optimizer:  adadelta
 es_patience:  4  lr_patience:  3  pooling:  avg
------------------------	  end of configs        -------------------------
pooling:avg
__________________________________________________________________________________________________
Layer (type)                    Output Shape         Param #     Connected to                     
==================================================================================================
input_1 (InputLayer)            (None, 2, 96, 96)    0                                            
__________________________________________________________________________________________________
initial_conv2D (Conv2D)         (None, 64, 48, 48)   6272        input_1[0][0]                    
__________________________________________________________________________________________________
initial_bn (BatchNormalization) (None, 64, 48, 48)   256         initial_conv2D[0][0]             
__________________________________________________________________________________________________
activation_1 (Activation)       (None, 64, 48, 48)   0           initial_bn[0][0]                 
__________________________________________________________________________________________________
max_pooling2d_1 (MaxPooling2D)  (None, 64, 24, 24)   0           activation_1[0][0]               
__________________________________________________________________________________________________
dense_0_0_bn (BatchNormalizatio (None, 64, 24, 24)   256         max_pooling2d_1[0][0]            
__________________________________________________________________________________________________
activation_2 (Activation)       (None, 64, 24, 24)   0           dense_0_0_bn[0][0]               
__________________________________________________________________________________________________
dense_0_0_conv2D (Conv2D)       (None, 18, 24, 24)   10368       activation_2[0][0]               
__________________________________________________________________________________________________
dropout_1 (Dropout)             (None, 18, 24, 24)   0           dense_0_0_conv2D[0][0]           
__________________________________________________________________________________________________
concatenate_1 (Concatenate)     (None, 82, 24, 24)   0           max_pooling2d_1[0][0]            
                                                                 dropout_1[0][0]                  
__________________________________________________________________________________________________
dense_0_1_bn (BatchNormalizatio (None, 82, 24, 24)   328         concatenate_1[0][0]              
__________________________________________________________________________________________________
activation_3 (Activation)       (None, 82, 24, 24)   0           dense_0_1_bn[0][0]               
__________________________________________________________________________________________________
dense_0_1_conv2D (Conv2D)       (None, 18, 24, 24)   13284       activation_3[0][0]               
__________________________________________________________________________________________________
dropout_2 (Dropout)             (None, 18, 24, 24)   0           dense_0_1_conv2D[0][0]           
__________________________________________________________________________________________________
concatenate_2 (Concatenate)     (None, 100, 24, 24)  0           concatenate_1[0][0]              
                                                                 dropout_2[0][0]                  
__________________________________________________________________________________________________
tr_0_bn (BatchNormalization)    (None, 100, 24, 24)  400         concatenate_2[0][0]              
__________________________________________________________________________________________________
activation_4 (Activation)       (None, 100, 24, 24)  0           tr_0_bn[0][0]                    
__________________________________________________________________________________________________
tr_0_conv2D (Conv2D)            (None, 50, 24, 24)   5000        activation_4[0][0]               
__________________________________________________________________________________________________
average_pooling2d_1 (AveragePoo (None, 50, 12, 12)   0           tr_0_conv2D[0][0]                
__________________________________________________________________________________________________
dense_1_0_bn (BatchNormalizatio (None, 50, 12, 12)   200         average_pooling2d_1[0][0]        
__________________________________________________________________________________________________
activation_5 (Activation)       (None, 50, 12, 12)   0           dense_1_0_bn[0][0]               
__________________________________________________________________________________________________
dense_1_0_conv2D (Conv2D)       (None, 18, 12, 12)   8100        activation_5[0][0]               
__________________________________________________________________________________________________
dropout_3 (Dropout)             (None, 18, 12, 12)   0           dense_1_0_conv2D[0][0]           
__________________________________________________________________________________________________
concatenate_3 (Concatenate)     (None, 68, 12, 12)   0           average_pooling2d_1[0][0]        
                                                                 dropout_3[0][0]                  
__________________________________________________________________________________________________
dense_1_1_bn (BatchNormalizatio (None, 68, 12, 12)   272         concatenate_3[0][0]              
__________________________________________________________________________________________________
activation_6 (Activation)       (None, 68, 12, 12)   0           dense_1_1_bn[0][0]               
__________________________________________________________________________________________________
dense_1_1_conv2D (Conv2D)       (None, 18, 12, 12)   11016       activation_6[0][0]               
__________________________________________________________________________________________________
dropout_4 (Dropout)             (None, 18, 12, 12)   0           dense_1_1_conv2D[0][0]           
__________________________________________________________________________________________________
concatenate_4 (Concatenate)     (None, 86, 12, 12)   0           concatenate_3[0][0]              
                                                                 dropout_4[0][0]                  
__________________________________________________________________________________________________
tr_1_bn (BatchNormalization)    (None, 86, 12, 12)   344         concatenate_4[0][0]              
__________________________________________________________________________________________________
activation_7 (Activation)       (None, 86, 12, 12)   0           tr_1_bn[0][0]                    
__________________________________________________________________________________________________
tr_1_conv2D (Conv2D)            (None, 43, 12, 12)   3698        activation_7[0][0]               
__________________________________________________________________________________________________
average_pooling2d_2 (AveragePoo (None, 43, 6, 6)     0           tr_1_conv2D[0][0]                
__________________________________________________________________________________________________
dense_2_0_bn (BatchNormalizatio (None, 43, 6, 6)     172         average_pooling2d_2[0][0]        
__________________________________________________________________________________________________
activation_8 (Activation)       (None, 43, 6, 6)     0           dense_2_0_bn[0][0]               
__________________________________________________________________________________________________
dense_2_0_conv2D (Conv2D)       (None, 18, 6, 6)     6966        activation_8[0][0]               
__________________________________________________________________________________________________
dropout_5 (Dropout)             (None, 18, 6, 6)     0           dense_2_0_conv2D[0][0]           
__________________________________________________________________________________________________
concatenate_5 (Concatenate)     (None, 61, 6, 6)     0           average_pooling2d_2[0][0]        
                                                                 dropout_5[0][0]                  
__________________________________________________________________________________________________
dense_2_1_bn (BatchNormalizatio (None, 61, 6, 6)     244         concatenate_5[0][0]              
__________________________________________________________________________________________________
activation_9 (Activation)       (None, 61, 6, 6)     0           dense_2_1_bn[0][0]               
__________________________________________________________________________________________________
dense_2_1_conv2D (Conv2D)       (None, 18, 6, 6)     9882        activation_9[0][0]               
__________________________________________________________________________________________________
dropout_6 (Dropout)             (None, 18, 6, 6)     0           dense_2_1_conv2D[0][0]           
__________________________________________________________________________________________________
concatenate_6 (Concatenate)     (None, 79, 6, 6)     0           concatenate_5[0][0]              
                                                                 dropout_6[0][0]                  
__________________________________________________________________________________________________
final_bn (BatchNormalization)   (None, 79, 6, 6)     316         concatenate_6[0][0]              
__________________________________________________________________________________________________
activation_10 (Activation)      (None, 79, 6, 6)     0           final_bn[0][0]                   
__________________________________________________________________________________________________
global_average_pooling2d_1 (Glo (None, 79)           0           activation_10[0][0]              
__________________________________________________________________________________________________
dense_1 (Dense)                 (None, 1)            80          global_average_pooling2d_1[0][0] 
==================================================================================================
Total params: 77,454
Trainable params: 76,060
Non-trainable params: 1,394
__________________________________________________________________________________________________
Finished compiling
Train on 39840 samples, validate on 7968 samples
Epoch 1/21
 - 23s - loss: 0.5185 - acc: 0.7665 - val_loss: 0.4882 - val_acc: 0.7764
…
