python keras_densenet_siamese.py
__________________________________________________________________________________________________
Layer (type)                    Output Shape         Param #     Connected to                     
==================================================================================================
input_1 (InputLayer)            (None, 2, 96, 96)    0                                            
__________________________________________________________________________________________________
initial_conv2D (Conv2D)         (None, 18, 96, 96)   324         input_1[0][0]                    
__________________________________________________________________________________________________
dense_0_0_bn (BatchNormalizatio (None, 18, 96, 96)   72          initial_conv2D[0][0]             
__________________________________________________________________________________________________
activation_1 (Activation)       (None, 18, 96, 96)   0           dense_0_0_bn[0][0]               
__________________________________________________________________________________________________
dense_0_0_bottleneck_conv2D (Co (None, 136, 96, 96)  2448        activation_1[0][0]               
__________________________________________________________________________________________________
dense_0_0_bottleneck_bn (BatchN (None, 136, 96, 96)  544         dense_0_0_bottleneck_conv2D[0][0]
__________________________________________________________________________________________________
activation_2 (Activation)       (None, 136, 96, 96)  0           dense_0_0_bottleneck_bn[0][0]    
__________________________________________________________________________________________________
dense_0_0_conv2D (Conv2D)       (None, 34, 96, 96)   41616       activation_2[0][0]               
__________________________________________________________________________________________________
concatenate_1 (Concatenate)     (None, 52, 96, 96)   0           initial_conv2D[0][0]             
                                                                 dense_0_0_conv2D[0][0]           
__________________________________________________________________________________________________
dense_0_1_bn (BatchNormalizatio (None, 52, 96, 96)   208         concatenate_1[0][0]              
__________________________________________________________________________________________________
activation_3 (Activation)       (None, 52, 96, 96)   0           dense_0_1_bn[0][0]               
__________________________________________________________________________________________________
dense_0_1_bottleneck_conv2D (Co (None, 136, 96, 96)  7072        activation_3[0][0]               
__________________________________________________________________________________________________
dense_0_1_bottleneck_bn (BatchN (None, 136, 96, 96)  544         dense_0_1_bottleneck_conv2D[0][0]
__________________________________________________________________________________________________
activation_4 (Activation)       (None, 136, 96, 96)  0           dense_0_1_bottleneck_bn[0][0]    
__________________________________________________________________________________________________
dense_0_1_conv2D (Conv2D)       (None, 34, 96, 96)   41616       activation_4[0][0]               
__________________________________________________________________________________________________
concatenate_2 (Concatenate)     (None, 86, 96, 96)   0           concatenate_1[0][0]              
                                                                 dense_0_1_conv2D[0][0]           
__________________________________________________________________________________________________
dense_0_2_bn (BatchNormalizatio (None, 86, 96, 96)   344         concatenate_2[0][0]              
__________________________________________________________________________________________________
activation_5 (Activation)       (None, 86, 96, 96)   0           dense_0_2_bn[0][0]               
__________________________________________________________________________________________________
dense_0_2_bottleneck_conv2D (Co (None, 136, 96, 96)  11696       activation_5[0][0]               
__________________________________________________________________________________________________
dense_0_2_bottleneck_bn (BatchN (None, 136, 96, 96)  544         dense_0_2_bottleneck_conv2D[0][0]
__________________________________________________________________________________________________
activation_6 (Activation)       (None, 136, 96, 96)  0           dense_0_2_bottleneck_bn[0][0]    
__________________________________________________________________________________________________
dense_0_2_conv2D (Conv2D)       (None, 34, 96, 96)   41616       activation_6[0][0]               
__________________________________________________________________________________________________
concatenate_3 (Concatenate)     (None, 120, 96, 96)  0           concatenate_2[0][0]              
                                                                 dense_0_2_conv2D[0][0]           
__________________________________________________________________________________________________
dense_0_3_bn (BatchNormalizatio (None, 120, 96, 96)  480         concatenate_3[0][0]              
__________________________________________________________________________________________________
activation_7 (Activation)       (None, 120, 96, 96)  0           dense_0_3_bn[0][0]               
__________________________________________________________________________________________________
dense_0_3_bottleneck_conv2D (Co (None, 136, 96, 96)  16320       activation_7[0][0]               
__________________________________________________________________________________________________
dense_0_3_bottleneck_bn (BatchN (None, 136, 96, 96)  544         dense_0_3_bottleneck_conv2D[0][0]
__________________________________________________________________________________________________
activation_8 (Activation)       (None, 136, 96, 96)  0           dense_0_3_bottleneck_bn[0][0]    
__________________________________________________________________________________________________
dense_0_3_conv2D (Conv2D)       (None, 34, 96, 96)   41616       activation_8[0][0]               
__________________________________________________________________________________________________
concatenate_4 (Concatenate)     (None, 154, 96, 96)  0           concatenate_3[0][0]              
                                                                 dense_0_3_conv2D[0][0]           
__________________________________________________________________________________________________
dense_0_4_bn (BatchNormalizatio (None, 154, 96, 96)  616         concatenate_4[0][0]              
__________________________________________________________________________________________________
activation_9 (Activation)       (None, 154, 96, 96)  0           dense_0_4_bn[0][0]               
__________________________________________________________________________________________________
dense_0_4_bottleneck_conv2D (Co (None, 136, 96, 96)  20944       activation_9[0][0]               
__________________________________________________________________________________________________
dense_0_4_bottleneck_bn (BatchN (None, 136, 96, 96)  544         dense_0_4_bottleneck_conv2D[0][0]
__________________________________________________________________________________________________
activation_10 (Activation)      (None, 136, 96, 96)  0           dense_0_4_bottleneck_bn[0][0]    
__________________________________________________________________________________________________
dense_0_4_conv2D (Conv2D)       (None, 34, 96, 96)   41616       activation_10[0][0]              
__________________________________________________________________________________________________
concatenate_5 (Concatenate)     (None, 188, 96, 96)  0           concatenate_4[0][0]              
                                                                 dense_0_4_conv2D[0][0]           
__________________________________________________________________________________________________
tr_0_bn (BatchNormalization)    (None, 188, 96, 96)  752         concatenate_5[0][0]              
__________________________________________________________________________________________________
activation_11 (Activation)      (None, 188, 96, 96)  0           tr_0_bn[0][0]                    
__________________________________________________________________________________________________
tr_0_conv2D (Conv2D)            (None, 94, 96, 96)   17672       activation_11[0][0]              
__________________________________________________________________________________________________
average_pooling2d_1 (AveragePoo (None, 94, 48, 48)   0           tr_0_conv2D[0][0]                
__________________________________________________________________________________________________
dense_1_0_bn (BatchNormalizatio (None, 94, 48, 48)   376         average_pooling2d_1[0][0]        
__________________________________________________________________________________________________
activation_12 (Activation)      (None, 94, 48, 48)   0           dense_1_0_bn[0][0]               
__________________________________________________________________________________________________
dense_1_0_bottleneck_conv2D (Co (None, 136, 48, 48)  12784       activation_12[0][0]              
__________________________________________________________________________________________________
dense_1_0_bottleneck_bn (BatchN (None, 136, 48, 48)  544         dense_1_0_bottleneck_conv2D[0][0]
__________________________________________________________________________________________________
activation_13 (Activation)      (None, 136, 48, 48)  0           dense_1_0_bottleneck_bn[0][0]    
__________________________________________________________________________________________________
dense_1_0_conv2D (Conv2D)       (None, 34, 48, 48)   41616       activation_13[0][0]              
__________________________________________________________________________________________________
concatenate_6 (Concatenate)     (None, 128, 48, 48)  0           average_pooling2d_1[0][0]        
                                                                 dense_1_0_conv2D[0][0]           
__________________________________________________________________________________________________
dense_1_1_bn (BatchNormalizatio (None, 128, 48, 48)  512         concatenate_6[0][0]              
__________________________________________________________________________________________________
activation_14 (Activation)      (None, 128, 48, 48)  0           dense_1_1_bn[0][0]               
__________________________________________________________________________________________________
dense_1_1_bottleneck_conv2D (Co (None, 136, 48, 48)  17408       activation_14[0][0]              
__________________________________________________________________________________________________
dense_1_1_bottleneck_bn (BatchN (None, 136, 48, 48)  544         dense_1_1_bottleneck_conv2D[0][0]
__________________________________________________________________________________________________
activation_15 (Activation)      (None, 136, 48, 48)  0           dense_1_1_bottleneck_bn[0][0]    
__________________________________________________________________________________________________
dense_1_1_conv2D (Conv2D)       (None, 34, 48, 48)   41616       activation_15[0][0]              
__________________________________________________________________________________________________
concatenate_7 (Concatenate)     (None, 162, 48, 48)  0           concatenate_6[0][0]              
                                                                 dense_1_1_conv2D[0][0]           
__________________________________________________________________________________________________
dense_1_2_bn (BatchNormalizatio (None, 162, 48, 48)  648         concatenate_7[0][0]              
__________________________________________________________________________________________________
activation_16 (Activation)      (None, 162, 48, 48)  0           dense_1_2_bn[0][0]               
__________________________________________________________________________________________________
dense_1_2_bottleneck_conv2D (Co (None, 136, 48, 48)  22032       activation_16[0][0]              
__________________________________________________________________________________________________
dense_1_2_bottleneck_bn (BatchN (None, 136, 48, 48)  544         dense_1_2_bottleneck_conv2D[0][0]
__________________________________________________________________________________________________
activation_17 (Activation)      (None, 136, 48, 48)  0           dense_1_2_bottleneck_bn[0][0]    
__________________________________________________________________________________________________
dense_1_2_conv2D (Conv2D)       (None, 34, 48, 48)   41616       activation_17[0][0]              
__________________________________________________________________________________________________
concatenate_8 (Concatenate)     (None, 196, 48, 48)  0           concatenate_7[0][0]              
                                                                 dense_1_2_conv2D[0][0]           
__________________________________________________________________________________________________
dense_1_3_bn (BatchNormalizatio (None, 196, 48, 48)  784         concatenate_8[0][0]              
__________________________________________________________________________________________________
activation_18 (Activation)      (None, 196, 48, 48)  0           dense_1_3_bn[0][0]               
__________________________________________________________________________________________________
dense_1_3_bottleneck_conv2D (Co (None, 136, 48, 48)  26656       activation_18[0][0]              
__________________________________________________________________________________________________
dense_1_3_bottleneck_bn (BatchN (None, 136, 48, 48)  544         dense_1_3_bottleneck_conv2D[0][0]
__________________________________________________________________________________________________
activation_19 (Activation)      (None, 136, 48, 48)  0           dense_1_3_bottleneck_bn[0][0]    
__________________________________________________________________________________________________
dense_1_3_conv2D (Conv2D)       (None, 34, 48, 48)   41616       activation_19[0][0]              
__________________________________________________________________________________________________
concatenate_9 (Concatenate)     (None, 230, 48, 48)  0           concatenate_8[0][0]              
                                                                 dense_1_3_conv2D[0][0]           
__________________________________________________________________________________________________
dense_1_4_bn (BatchNormalizatio (None, 230, 48, 48)  920         concatenate_9[0][0]              
__________________________________________________________________________________________________
activation_20 (Activation)      (None, 230, 48, 48)  0           dense_1_4_bn[0][0]               
__________________________________________________________________________________________________
dense_1_4_bottleneck_conv2D (Co (None, 136, 48, 48)  31280       activation_20[0][0]              
__________________________________________________________________________________________________
dense_1_4_bottleneck_bn (BatchN (None, 136, 48, 48)  544         dense_1_4_bottleneck_conv2D[0][0]
__________________________________________________________________________________________________
activation_21 (Activation)      (None, 136, 48, 48)  0           dense_1_4_bottleneck_bn[0][0]    
__________________________________________________________________________________________________
dense_1_4_conv2D (Conv2D)       (None, 34, 48, 48)   41616       activation_21[0][0]              
__________________________________________________________________________________________________
concatenate_10 (Concatenate)    (None, 264, 48, 48)  0           concatenate_9[0][0]              
                                                                 dense_1_4_conv2D[0][0]           
__________________________________________________________________________________________________
tr_1_bn (BatchNormalization)    (None, 264, 48, 48)  1056        concatenate_10[0][0]             
__________________________________________________________________________________________________
activation_22 (Activation)      (None, 264, 48, 48)  0           tr_1_bn[0][0]                    
__________________________________________________________________________________________________
tr_1_conv2D (Conv2D)            (None, 132, 48, 48)  34848       activation_22[0][0]              
__________________________________________________________________________________________________
average_pooling2d_2 (AveragePoo (None, 132, 24, 24)  0           tr_1_conv2D[0][0]                
__________________________________________________________________________________________________
dense_2_0_bn (BatchNormalizatio (None, 132, 24, 24)  528         average_pooling2d_2[0][0]        
__________________________________________________________________________________________________
activation_23 (Activation)      (None, 132, 24, 24)  0           dense_2_0_bn[0][0]               
__________________________________________________________________________________________________
dense_2_0_bottleneck_conv2D (Co (None, 136, 24, 24)  17952       activation_23[0][0]              
__________________________________________________________________________________________________
dense_2_0_bottleneck_bn (BatchN (None, 136, 24, 24)  544         dense_2_0_bottleneck_conv2D[0][0]
__________________________________________________________________________________________________
activation_24 (Activation)      (None, 136, 24, 24)  0           dense_2_0_bottleneck_bn[0][0]    
__________________________________________________________________________________________________
dense_2_0_conv2D (Conv2D)       (None, 34, 24, 24)   41616       activation_24[0][0]              
__________________________________________________________________________________________________
concatenate_11 (Concatenate)    (None, 166, 24, 24)  0           average_pooling2d_2[0][0]        
                                                                 dense_2_0_conv2D[0][0]           
__________________________________________________________________________________________________
dense_2_1_bn (BatchNormalizatio (None, 166, 24, 24)  664         concatenate_11[0][0]             
__________________________________________________________________________________________________
activation_25 (Activation)      (None, 166, 24, 24)  0           dense_2_1_bn[0][0]               
__________________________________________________________________________________________________
dense_2_1_bottleneck_conv2D (Co (None, 136, 24, 24)  22576       activation_25[0][0]              
__________________________________________________________________________________________________
dense_2_1_bottleneck_bn (BatchN (None, 136, 24, 24)  544         dense_2_1_bottleneck_conv2D[0][0]
__________________________________________________________________________________________________
activation_26 (Activation)      (None, 136, 24, 24)  0           dense_2_1_bottleneck_bn[0][0]    
__________________________________________________________________________________________________
dense_2_1_conv2D (Conv2D)       (None, 34, 24, 24)   41616       activation_26[0][0]              
__________________________________________________________________________________________________
concatenate_12 (Concatenate)    (None, 200, 24, 24)  0           concatenate_11[0][0]             
                                                                 dense_2_1_conv2D[0][0]           
__________________________________________________________________________________________________
dense_2_2_bn (BatchNormalizatio (None, 200, 24, 24)  800         concatenate_12[0][0]             
__________________________________________________________________________________________________
activation_27 (Activation)      (None, 200, 24, 24)  0           dense_2_2_bn[0][0]               
__________________________________________________________________________________________________
dense_2_2_bottleneck_conv2D (Co (None, 136, 24, 24)  27200       activation_27[0][0]              
__________________________________________________________________________________________________
dense_2_2_bottleneck_bn (BatchN (None, 136, 24, 24)  544         dense_2_2_bottleneck_conv2D[0][0]
__________________________________________________________________________________________________
activation_28 (Activation)      (None, 136, 24, 24)  0           dense_2_2_bottleneck_bn[0][0]    
__________________________________________________________________________________________________
dense_2_2_conv2D (Conv2D)       (None, 34, 24, 24)   41616       activation_28[0][0]              
__________________________________________________________________________________________________
concatenate_13 (Concatenate)    (None, 234, 24, 24)  0           concatenate_12[0][0]             
                                                                 dense_2_2_conv2D[0][0]           
__________________________________________________________________________________________________
dense_2_3_bn (BatchNormalizatio (None, 234, 24, 24)  936         concatenate_13[0][0]             
__________________________________________________________________________________________________
activation_29 (Activation)      (None, 234, 24, 24)  0           dense_2_3_bn[0][0]               
__________________________________________________________________________________________________
dense_2_3_bottleneck_conv2D (Co (None, 136, 24, 24)  31824       activation_29[0][0]              
__________________________________________________________________________________________________
dense_2_3_bottleneck_bn (BatchN (None, 136, 24, 24)  544         dense_2_3_bottleneck_conv2D[0][0]
__________________________________________________________________________________________________
activation_30 (Activation)      (None, 136, 24, 24)  0           dense_2_3_bottleneck_bn[0][0]    
__________________________________________________________________________________________________
dense_2_3_conv2D (Conv2D)       (None, 34, 24, 24)   41616       activation_30[0][0]              
__________________________________________________________________________________________________
concatenate_14 (Concatenate)    (None, 268, 24, 24)  0           concatenate_13[0][0]             
                                                                 dense_2_3_conv2D[0][0]           
__________________________________________________________________________________________________
dense_2_4_bn (BatchNormalizatio (None, 268, 24, 24)  1072        concatenate_14[0][0]             
__________________________________________________________________________________________________
activation_31 (Activation)      (None, 268, 24, 24)  0           dense_2_4_bn[0][0]               
__________________________________________________________________________________________________
dense_2_4_bottleneck_conv2D (Co (None, 136, 24, 24)  36448       activation_31[0][0]              
__________________________________________________________________________________________________
dense_2_4_bottleneck_bn (BatchN (None, 136, 24, 24)  544         dense_2_4_bottleneck_conv2D[0][0]
__________________________________________________________________________________________________
activation_32 (Activation)      (None, 136, 24, 24)  0           dense_2_4_bottleneck_bn[0][0]    
__________________________________________________________________________________________________
dense_2_4_conv2D (Conv2D)       (None, 34, 24, 24)   41616       activation_32[0][0]              
__________________________________________________________________________________________________
concatenate_15 (Concatenate)    (None, 302, 24, 24)  0           concatenate_14[0][0]             
                                                                 dense_2_4_conv2D[0][0]           
__________________________________________________________________________________________________
tr_2_bn (BatchNormalization)    (None, 302, 24, 24)  1208        concatenate_15[0][0]             
__________________________________________________________________________________________________
activation_33 (Activation)      (None, 302, 24, 24)  0           tr_2_bn[0][0]                    
__________________________________________________________________________________________________
tr_2_conv2D (Conv2D)            (None, 151, 24, 24)  45602       activation_33[0][0]              
__________________________________________________________________________________________________
average_pooling2d_3 (AveragePoo (None, 151, 12, 12)  0           tr_2_conv2D[0][0]                
__________________________________________________________________________________________________
dense_3_0_bn (BatchNormalizatio (None, 151, 12, 12)  604         average_pooling2d_3[0][0]        
__________________________________________________________________________________________________
activation_34 (Activation)      (None, 151, 12, 12)  0           dense_3_0_bn[0][0]               
__________________________________________________________________________________________________
dense_3_0_bottleneck_conv2D (Co (None, 136, 12, 12)  20536       activation_34[0][0]              
__________________________________________________________________________________________________
dense_3_0_bottleneck_bn (BatchN (None, 136, 12, 12)  544         dense_3_0_bottleneck_conv2D[0][0]
__________________________________________________________________________________________________
activation_35 (Activation)      (None, 136, 12, 12)  0           dense_3_0_bottleneck_bn[0][0]    
__________________________________________________________________________________________________
dense_3_0_conv2D (Conv2D)       (None, 34, 12, 12)   41616       activation_35[0][0]              
__________________________________________________________________________________________________
concatenate_16 (Concatenate)    (None, 185, 12, 12)  0           average_pooling2d_3[0][0]        
                                                                 dense_3_0_conv2D[0][0]           
__________________________________________________________________________________________________
dense_3_1_bn (BatchNormalizatio (None, 185, 12, 12)  740         concatenate_16[0][0]             
__________________________________________________________________________________________________
activation_36 (Activation)      (None, 185, 12, 12)  0           dense_3_1_bn[0][0]               
__________________________________________________________________________________________________
dense_3_1_bottleneck_conv2D (Co (None, 136, 12, 12)  25160       activation_36[0][0]              
__________________________________________________________________________________________________
dense_3_1_bottleneck_bn (BatchN (None, 136, 12, 12)  544         dense_3_1_bottleneck_conv2D[0][0]
__________________________________________________________________________________________________
activation_37 (Activation)      (None, 136, 12, 12)  0           dense_3_1_bottleneck_bn[0][0]    
__________________________________________________________________________________________________
dense_3_1_conv2D (Conv2D)       (None, 34, 12, 12)   41616       activation_37[0][0]              
__________________________________________________________________________________________________
concatenate_17 (Concatenate)    (None, 219, 12, 12)  0           concatenate_16[0][0]             
                                                                 dense_3_1_conv2D[0][0]           
__________________________________________________________________________________________________
dense_3_2_bn (BatchNormalizatio (None, 219, 12, 12)  876         concatenate_17[0][0]             
__________________________________________________________________________________________________
activation_38 (Activation)      (None, 219, 12, 12)  0           dense_3_2_bn[0][0]               
__________________________________________________________________________________________________
dense_3_2_bottleneck_conv2D (Co (None, 136, 12, 12)  29784       activation_38[0][0]              
__________________________________________________________________________________________________
dense_3_2_bottleneck_bn (BatchN (None, 136, 12, 12)  544         dense_3_2_bottleneck_conv2D[0][0]
__________________________________________________________________________________________________
activation_39 (Activation)      (None, 136, 12, 12)  0           dense_3_2_bottleneck_bn[0][0]    
__________________________________________________________________________________________________
dense_3_2_conv2D (Conv2D)       (None, 34, 12, 12)   41616       activation_39[0][0]              
__________________________________________________________________________________________________
concatenate_18 (Concatenate)    (None, 253, 12, 12)  0           concatenate_17[0][0]             
                                                                 dense_3_2_conv2D[0][0]           
__________________________________________________________________________________________________
dense_3_3_bn (BatchNormalizatio (None, 253, 12, 12)  1012        concatenate_18[0][0]             
__________________________________________________________________________________________________
activation_40 (Activation)      (None, 253, 12, 12)  0           dense_3_3_bn[0][0]               
__________________________________________________________________________________________________
dense_3_3_bottleneck_conv2D (Co (None, 136, 12, 12)  34408       activation_40[0][0]              
__________________________________________________________________________________________________
dense_3_3_bottleneck_bn (BatchN (None, 136, 12, 12)  544         dense_3_3_bottleneck_conv2D[0][0]
__________________________________________________________________________________________________
activation_41 (Activation)      (None, 136, 12, 12)  0           dense_3_3_bottleneck_bn[0][0]    
__________________________________________________________________________________________________
dense_3_3_conv2D (Conv2D)       (None, 34, 12, 12)   41616       activation_41[0][0]              
__________________________________________________________________________________________________
concatenate_19 (Concatenate)    (None, 287, 12, 12)  0           concatenate_18[0][0]             
                                                                 dense_3_3_conv2D[0][0]           
__________________________________________________________________________________________________
dense_3_4_bn (BatchNormalizatio (None, 287, 12, 12)  1148        concatenate_19[0][0]             
__________________________________________________________________________________________________
activation_42 (Activation)      (None, 287, 12, 12)  0           dense_3_4_bn[0][0]               
__________________________________________________________________________________________________
dense_3_4_bottleneck_conv2D (Co (None, 136, 12, 12)  39032       activation_42[0][0]              
__________________________________________________________________________________________________
dense_3_4_bottleneck_bn (BatchN (None, 136, 12, 12)  544         dense_3_4_bottleneck_conv2D[0][0]
__________________________________________________________________________________________________
activation_43 (Activation)      (None, 136, 12, 12)  0           dense_3_4_bottleneck_bn[0][0]    
__________________________________________________________________________________________________
dense_3_4_conv2D (Conv2D)       (None, 34, 12, 12)   41616       activation_43[0][0]              
__________________________________________________________________________________________________
concatenate_20 (Concatenate)    (None, 321, 12, 12)  0           concatenate_19[0][0]             
                                                                 dense_3_4_conv2D[0][0]           
__________________________________________________________________________________________________
final_bn (BatchNormalization)   (None, 321, 12, 12)  1284        concatenate_20[0][0]             
__________________________________________________________________________________________________
activation_44 (Activation)      (None, 321, 12, 12)  0           final_bn[0][0]                   
__________________________________________________________________________________________________
global_average_pooling2d_1 (Glo (None, 321)          0           activation_44[0][0]              
__________________________________________________________________________________________________
dense_1 (Dense)                 (None, 1)            322         global_average_pooling2d_1[0][0] 
==================================================================================================
Total params: 1,413,168
Trainable params: 1,398,908
Non-trainable params: 14,260
__________________________________________________________________________________________________
Train on 39840 samples, validate on 7440 samples
Epoch 1/50
 - 216s - loss: 0.6833 - acc: 0.7416 - val_loss: 0.9763 - val_acc: 0.6379
…
