…
  54:     score, acc = model.evaluate(X_val, y_val)
  55:     print('Best saved model Test accuracy:', acc)
  56:     pred = model.predict(X_val)
  57:     auc_score = roc_auc_score(y_val,pred)
  58:     print("best saved model auc_score ------------------> ",auc_score)
  59: 
  60:     
  61:     return {'loss': -auc_score, 'status': STATUS_OK, 'model': model}  
  62: 
_________________________________________________________________
Layer (type)                 Output Shape              Param #   
=================================================================
input_1 (InputLayer)         (None, 2, 96, 96)         0         
_________________________________________________________________
initial_conv2D (Conv2D)      (None, 16, 96, 96)        288       
_________________________________________________________________
tr_0_bn (BatchNormalization) (None, 16, 96, 96)        64        
_________________________________________________________________
activation_1 (Activation)    (None, 16, 96, 96)        0         
_________________________________________________________________
tr_0_conv2D (Conv2D)         (None, 8, 96, 96)         128       
_________________________________________________________________
average_pooling2d_1 (Average (None, 8, 48, 48)         0         
_________________________________________________________________
tr_1_bn (BatchNormalization) (None, 8, 48, 48)         32        
_________________________________________________________________
activation_2 (Activation)    (None, 8, 48, 48)         0         
_________________________________________________________________
tr_1_conv2D (Conv2D)         (None, 4, 48, 48)         32        
_________________________________________________________________
average_pooling2d_2 (Average (None, 4, 24, 24)         0         
_________________________________________________________________
final_bn (BatchNormalization (None, 4, 24, 24)         16        
_________________________________________________________________
activation_3 (Activation)    (None, 4, 24, 24)         0         
_________________________________________________________________
global_average_pooling2d_1 ( (None, 4)                 0         
_________________________________________________________________
dense_1 (Dense)              (None, 1)                 5         
=================================================================
Total params: 565
Trainable params: 509
Non-trainable params: 56
_________________________________________________________________
Train on 39840 samples, validate on 7440 samples
Epoch 1/30
 - 10s - loss: 0.6763 - acc: 0.6085 - val_loss: 0.6219 - val_acc: 0.7895

Epoch 00001: val_loss improved from inf to 0.62190, saving model to keras_densenet_simple_wt_28Sept_1340.h5
…
7072/7440 [===========================>..] - ETA: 0s
7392/7440 [============================>.] - ETA: 0s
7440/7440 [==============================] - 1s 186us/step
Best saved model Test accuracy: 0.831989247311828
best saved model auc_score ------------------>  0.873588420626662
__________________________________________________________________________________________________
Layer (type)                    Output Shape         Param #     Connected to                     
==================================================================================================
input_2 (InputLayer)            (None, 2, 96, 96)    0                                            
__________________________________________________________________________________________________
initial_conv2D (Conv2D)         (None, 16, 96, 96)   288         input_2[0][0]                    
__________________________________________________________________________________________________
dense_0_0_bn (BatchNormalizatio (None, 16, 96, 96)   64          initial_conv2D[0][0]             
__________________________________________________________________________________________________
activation_4 (Activation)       (None, 16, 96, 96)   0           dense_0_0_bn[0][0]               
__________________________________________________________________________________________________
dense_0_0_bottleneck_conv2D (Co (None, 32, 96, 96)   512         activation_4[0][0]               
__________________________________________________________________________________________________
dense_0_0_bottleneck_bn (BatchN (None, 32, 96, 96)   128         dense_0_0_bottleneck_conv2D[0][0]
__________________________________________________________________________________________________
activation_5 (Activation)       (None, 32, 96, 96)   0           dense_0_0_bottleneck_bn[0][0]    
__________________________________________________________________________________________________
dense_0_0_conv2D (Conv2D)       (None, 8, 96, 96)    2304        activation_5[0][0]               
__________________________________________________________________________________________________
concatenate_1 (Concatenate)     (None, 24, 96, 96)   0           initial_conv2D[0][0]             
                                                                 dense_0_0_conv2D[0][0]           
__________________________________________________________________________________________________
dense_0_1_bn (BatchNormalizatio (None, 24, 96, 96)   96          concatenate_1[0][0]              
__________________________________________________________________________________________________
activation_6 (Activation)       (None, 24, 96, 96)   0           dense_0_1_bn[0][0]               
__________________________________________________________________________________________________
dense_0_1_bottleneck_conv2D (Co (None, 32, 96, 96)   768         activation_6[0][0]               
__________________________________________________________________________________________________
dense_0_1_bottleneck_bn (BatchN (None, 32, 96, 96)   128         dense_0_1_bottleneck_conv2D[0][0]
__________________________________________________________________________________________________
activation_7 (Activation)       (None, 32, 96, 96)   0           dense_0_1_bottleneck_bn[0][0]    
__________________________________________________________________________________________________
dense_0_1_conv2D (Conv2D)       (None, 8, 96, 96)    2304        activation_7[0][0]               
__________________________________________________________________________________________________
concatenate_2 (Concatenate)     (None, 32, 96, 96)   0           concatenate_1[0][0]              
                                                                 dense_0_1_conv2D[0][0]           
__________________________________________________________________________________________________
final_bn (BatchNormalization)   (None, 32, 96, 96)   128         concatenate_2[0][0]              
__________________________________________________________________________________________________
activation_8 (Activation)       (None, 32, 96, 96)   0           final_bn[0][0]                   
__________________________________________________________________________________________________
global_average_pooling2d_2 (Glo (None, 32)           0           activation_8[0][0]               
__________________________________________________________________________________________________
dense_2 (Dense)                 (None, 1)            33          global_average_pooling2d_2[0][0] 
==================================================================================================
Total params: 6,753
Trainable params: 6,481
Non-trainable params: 272
__________________________________________________________________________________________________
Train on 39840 samples, validate on 7440 samples
Epoch 1/30
 - 18s - loss: 0.6168 - acc: 0.7045 - val_loss: 0.5483 - val_acc: 0.7931
…
6848/7440 [==========================>...] - ETA: 0s
7136/7440 [===========================>..] - ETA: 0s
7440/7440 [==============================] - 1s 199us/step
Best saved model Test accuracy: 0.8154569892473118
best saved model auc_score ------------------>  0.8693138657648283
__________________________________________________________________________________________________
Layer (type)                    Output Shape         Param #     Connected to                     
==================================================================================================
input_3 (InputLayer)            (None, 2, 96, 96)    0                                            
__________________________________________________________________________________________________
initial_conv2D (Conv2D)         (None, 16, 96, 96)   288         input_3[0][0]                    
__________________________________________________________________________________________________
dense_0_0_bn (BatchNormalizatio (None, 16, 96, 96)   64          initial_conv2D[0][0]             
__________________________________________________________________________________________________
activation_9 (Activation)       (None, 16, 96, 96)   0           dense_0_0_bn[0][0]               
__________________________________________________________________________________________________
dense_0_0_bottleneck_conv2D (Co (None, 40, 96, 96)   640         activation_9[0][0]               
__________________________________________________________________________________________________
dense_0_0_bottleneck_bn (BatchN (None, 40, 96, 96)   160         dense_0_0_bottleneck_conv2D[0][0]
__________________________________________________________________________________________________
activation_10 (Activation)      (None, 40, 96, 96)   0           dense_0_0_bottleneck_bn[0][0]    
__________________________________________________________________________________________________
dense_0_0_conv2D (Conv2D)       (None, 10, 96, 96)   3600        activation_10[0][0]              
__________________________________________________________________________________________________
concatenate_3 (Concatenate)     (None, 26, 96, 96)   0           initial_conv2D[0][0]             
                                                                 dense_0_0_conv2D[0][0]           
__________________________________________________________________________________________________
dense_0_1_bn (BatchNormalizatio (None, 26, 96, 96)   104         concatenate_3[0][0]              
__________________________________________________________________________________________________
activation_11 (Activation)      (None, 26, 96, 96)   0           dense_0_1_bn[0][0]               
__________________________________________________________________________________________________
dense_0_1_bottleneck_conv2D (Co (None, 40, 96, 96)   1040        activation_11[0][0]              
__________________________________________________________________________________________________
dense_0_1_bottleneck_bn (BatchN (None, 40, 96, 96)   160         dense_0_1_bottleneck_conv2D[0][0]
__________________________________________________________________________________________________
activation_12 (Activation)      (None, 40, 96, 96)   0           dense_0_1_bottleneck_bn[0][0]    
__________________________________________________________________________________________________
dense_0_1_conv2D (Conv2D)       (None, 10, 96, 96)   3600        activation_12[0][0]              
__________________________________________________________________________________________________
concatenate_4 (Concatenate)     (None, 36, 96, 96)   0           concatenate_3[0][0]              
                                                                 dense_0_1_conv2D[0][0]           
__________________________________________________________________________________________________
dense_0_2_bn (BatchNormalizatio (None, 36, 96, 96)   144         concatenate_4[0][0]              
__________________________________________________________________________________________________
activation_13 (Activation)      (None, 36, 96, 96)   0           dense_0_2_bn[0][0]               
__________________________________________________________________________________________________
dense_0_2_bottleneck_conv2D (Co (None, 40, 96, 96)   1440        activation_13[0][0]              
__________________________________________________________________________________________________
dense_0_2_bottleneck_bn (BatchN (None, 40, 96, 96)   160         dense_0_2_bottleneck_conv2D[0][0]
__________________________________________________________________________________________________
activation_14 (Activation)      (None, 40, 96, 96)   0           dense_0_2_bottleneck_bn[0][0]    
__________________________________________________________________________________________________
dense_0_2_conv2D (Conv2D)       (None, 10, 96, 96)   3600        activation_14[0][0]              
__________________________________________________________________________________________________
concatenate_5 (Concatenate)     (None, 46, 96, 96)   0           concatenate_4[0][0]              
                                                                 dense_0_2_conv2D[0][0]           
__________________________________________________________________________________________________
tr_0_bn (BatchNormalization)    (None, 46, 96, 96)   184         concatenate_5[0][0]              
__________________________________________________________________________________________________
activation_15 (Activation)      (None, 46, 96, 96)   0           tr_0_bn[0][0]                    
__________________________________________________________________________________________________
tr_0_conv2D (Conv2D)            (None, 23, 96, 96)   1058        activation_15[0][0]              
__________________________________________________________________________________________________
average_pooling2d_3 (AveragePoo (None, 23, 48, 48)   0           tr_0_conv2D[0][0]                
__________________________________________________________________________________________________
dense_1_0_bn (BatchNormalizatio (None, 23, 48, 48)   92          average_pooling2d_3[0][0]        
__________________________________________________________________________________________________
activation_16 (Activation)      (None, 23, 48, 48)   0           dense_1_0_bn[0][0]               
__________________________________________________________________________________________________
dense_1_0_bottleneck_conv2D (Co (None, 40, 48, 48)   920         activation_16[0][0]              
__________________________________________________________________________________________________
dense_1_0_bottleneck_bn (BatchN (None, 40, 48, 48)   160         dense_1_0_bottleneck_conv2D[0][0]
__________________________________________________________________________________________________
activation_17 (Activation)      (None, 40, 48, 48)   0           dense_1_0_bottleneck_bn[0][0]    
__________________________________________________________________________________________________
dense_1_0_conv2D (Conv2D)       (None, 10, 48, 48)   3600        activation_17[0][0]              
__________________________________________________________________________________________________
concatenate_6 (Concatenate)     (None, 33, 48, 48)   0           average_pooling2d_3[0][0]        
                                                                 dense_1_0_conv2D[0][0]           
__________________________________________________________________________________________________
dense_1_1_bn (BatchNormalizatio (None, 33, 48, 48)   132         concatenate_6[0][0]              
__________________________________________________________________________________________________
activation_18 (Activation)      (None, 33, 48, 48)   0           dense_1_1_bn[0][0]               
__________________________________________________________________________________________________
dense_1_1_bottleneck_conv2D (Co (None, 40, 48, 48)   1320        activation_18[0][0]              
__________________________________________________________________________________________________
dense_1_1_bottleneck_bn (BatchN (None, 40, 48, 48)   160         dense_1_1_bottleneck_conv2D[0][0]
__________________________________________________________________________________________________
activation_19 (Activation)      (None, 40, 48, 48)   0           dense_1_1_bottleneck_bn[0][0]    
__________________________________________________________________________________________________
dense_1_1_conv2D (Conv2D)       (None, 10, 48, 48)   3600        activation_19[0][0]              
__________________________________________________________________________________________________
concatenate_7 (Concatenate)     (None, 43, 48, 48)   0           concatenate_6[0][0]              
                                                                 dense_1_1_conv2D[0][0]           
__________________________________________________________________________________________________
dense_1_2_bn (BatchNormalizatio (None, 43, 48, 48)   172         concatenate_7[0][0]              
__________________________________________________________________________________________________
activation_20 (Activation)      (None, 43, 48, 48)   0           dense_1_2_bn[0][0]               
__________________________________________________________________________________________________
dense_1_2_bottleneck_conv2D (Co (None, 40, 48, 48)   1720        activation_20[0][0]              
__________________________________________________________________________________________________
dense_1_2_bottleneck_bn (BatchN (None, 40, 48, 48)   160         dense_1_2_bottleneck_conv2D[0][0]
__________________________________________________________________________________________________
activation_21 (Activation)      (None, 40, 48, 48)   0           dense_1_2_bottleneck_bn[0][0]    
__________________________________________________________________________________________________
dense_1_2_conv2D (Conv2D)       (None, 10, 48, 48)   3600        activation_21[0][0]              
__________________________________________________________________________________________________
concatenate_8 (Concatenate)     (None, 53, 48, 48)   0           concatenate_7[0][0]              
                                                                 dense_1_2_conv2D[0][0]           
__________________________________________________________________________________________________
final_bn (BatchNormalization)   (None, 53, 48, 48)   212         concatenate_8[0][0]              
__________________________________________________________________________________________________
activation_22 (Activation)      (None, 53, 48, 48)   0           final_bn[0][0]                   
__________________________________________________________________________________________________
global_average_pooling2d_3 (Glo (None, 53)           0           activation_22[0][0]              
__________________________________________________________________________________________________
dense_3 (Dense)                 (None, 1)            54          global_average_pooling2d_3[0][0] 
==================================================================================================
Total params: 32,144
Trainable params: 31,112
Non-trainable params: 1,032
__________________________________________________________________________________________________
Train on 39840 samples, validate on 7440 samples
Epoch 1/30
 - 37s - loss: 0.5508 - acc: 0.7648 - val_loss: 0.5093 - val_acc: 0.8172
…
7104/7440 [===========================>..] - ETA: 0s
7296/7440 [============================>.] - ETA: 0s
7440/7440 [==============================] - 3s 376us/step
Best saved model Test accuracy: 0.8029569892473118
best saved model auc_score ------------------>  0.8958453289397619
__________________________________________________________________________________________________
Layer (type)                    Output Shape         Param #     Connected to                     
==================================================================================================
input_4 (InputLayer)            (None, 2, 96, 96)    0                                            
__________________________________________________________________________________________________
initial_conv2D (Conv2D)         (None, 16, 96, 96)   288         input_4[0][0]                    
__________________________________________________________________________________________________
dense_0_0_bn (BatchNormalizatio (None, 16, 96, 96)   64          initial_conv2D[0][0]             
__________________________________________________________________________________________________
activation_23 (Activation)      (None, 16, 96, 96)   0           dense_0_0_bn[0][0]               
__________________________________________________________________________________________________
dense_0_0_bottleneck_conv2D (Co (None, 64, 96, 96)   1024        activation_23[0][0]              
__________________________________________________________________________________________________
dense_0_0_bottleneck_bn (BatchN (None, 64, 96, 96)   256         dense_0_0_bottleneck_conv2D[0][0]
__________________________________________________________________________________________________
activation_24 (Activation)      (None, 64, 96, 96)   0           dense_0_0_bottleneck_bn[0][0]    
__________________________________________________________________________________________________
dense_0_0_conv2D (Conv2D)       (None, 16, 96, 96)   9216        activation_24[0][0]              
__________________________________________________________________________________________________
concatenate_9 (Concatenate)     (None, 32, 96, 96)   0           initial_conv2D[0][0]             
                                                                 dense_0_0_conv2D[0][0]           
__________________________________________________________________________________________________
dense_0_1_bn (BatchNormalizatio (None, 32, 96, 96)   128         concatenate_9[0][0]              
__________________________________________________________________________________________________
activation_25 (Activation)      (None, 32, 96, 96)   0           dense_0_1_bn[0][0]               
__________________________________________________________________________________________________
dense_0_1_bottleneck_conv2D (Co (None, 64, 96, 96)   2048        activation_25[0][0]              
__________________________________________________________________________________________________
dense_0_1_bottleneck_bn (BatchN (None, 64, 96, 96)   256         dense_0_1_bottleneck_conv2D[0][0]
__________________________________________________________________________________________________
activation_26 (Activation)      (None, 64, 96, 96)   0           dense_0_1_bottleneck_bn[0][0]    
__________________________________________________________________________________________________
dense_0_1_conv2D (Conv2D)       (None, 16, 96, 96)   9216        activation_26[0][0]              
__________________________________________________________________________________________________
concatenate_10 (Concatenate)    (None, 48, 96, 96)   0           concatenate_9[0][0]              
                                                                 dense_0_1_conv2D[0][0]           
__________________________________________________________________________________________________
dense_0_2_bn (BatchNormalizatio (None, 48, 96, 96)   192         concatenate_10[0][0]             
__________________________________________________________________________________________________
activation_27 (Activation)      (None, 48, 96, 96)   0           dense_0_2_bn[0][0]               
__________________________________________________________________________________________________
dense_0_2_bottleneck_conv2D (Co (None, 64, 96, 96)   3072        activation_27[0][0]              
__________________________________________________________________________________________________
dense_0_2_bottleneck_bn (BatchN (None, 64, 96, 96)   256         dense_0_2_bottleneck_conv2D[0][0]
__________________________________________________________________________________________________
activation_28 (Activation)      (None, 64, 96, 96)   0           dense_0_2_bottleneck_bn[0][0]    
__________________________________________________________________________________________________
dense_0_2_conv2D (Conv2D)       (None, 16, 96, 96)   9216        activation_28[0][0]              
__________________________________________________________________________________________________
concatenate_11 (Concatenate)    (None, 64, 96, 96)   0           concatenate_10[0][0]             
                                                                 dense_0_2_conv2D[0][0]           
__________________________________________________________________________________________________
tr_0_bn (BatchNormalization)    (None, 64, 96, 96)   256         concatenate_11[0][0]             
__________________________________________________________________________________________________
activation_29 (Activation)      (None, 64, 96, 96)   0           tr_0_bn[0][0]                    
__________________________________________________________________________________________________
tr_0_conv2D (Conv2D)            (None, 32, 96, 96)   2048        activation_29[0][0]              
__________________________________________________________________________________________________
average_pooling2d_4 (AveragePoo (None, 32, 48, 48)   0           tr_0_conv2D[0][0]                
__________________________________________________________________________________________________
dense_1_0_bn (BatchNormalizatio (None, 32, 48, 48)   128         average_pooling2d_4[0][0]        
__________________________________________________________________________________________________
activation_30 (Activation)      (None, 32, 48, 48)   0           dense_1_0_bn[0][0]               
__________________________________________________________________________________________________
dense_1_0_bottleneck_conv2D (Co (None, 64, 48, 48)   2048        activation_30[0][0]              
__________________________________________________________________________________________________
dense_1_0_bottleneck_bn (BatchN (None, 64, 48, 48)   256         dense_1_0_bottleneck_conv2D[0][0]
__________________________________________________________________________________________________
activation_31 (Activation)      (None, 64, 48, 48)   0           dense_1_0_bottleneck_bn[0][0]    
__________________________________________________________________________________________________
dense_1_0_conv2D (Conv2D)       (None, 16, 48, 48)   9216        activation_31[0][0]              
__________________________________________________________________________________________________
concatenate_12 (Concatenate)    (None, 48, 48, 48)   0           average_pooling2d_4[0][0]        
                                                                 dense_1_0_conv2D[0][0]           
__________________________________________________________________________________________________
dense_1_1_bn (BatchNormalizatio (None, 48, 48, 48)   192         concatenate_12[0][0]             
__________________________________________________________________________________________________
activation_32 (Activation)      (None, 48, 48, 48)   0           dense_1_1_bn[0][0]               
__________________________________________________________________________________________________
dense_1_1_bottleneck_conv2D (Co (None, 64, 48, 48)   3072        activation_32[0][0]              
__________________________________________________________________________________________________
dense_1_1_bottleneck_bn (BatchN (None, 64, 48, 48)   256         dense_1_1_bottleneck_conv2D[0][0]
__________________________________________________________________________________________________
activation_33 (Activation)      (None, 64, 48, 48)   0           dense_1_1_bottleneck_bn[0][0]    
__________________________________________________________________________________________________
dense_1_1_conv2D (Conv2D)       (None, 16, 48, 48)   9216        activation_33[0][0]              
__________________________________________________________________________________________________
concatenate_13 (Concatenate)    (None, 64, 48, 48)   0           concatenate_12[0][0]             
                                                                 dense_1_1_conv2D[0][0]           
__________________________________________________________________________________________________
dense_1_2_bn (BatchNormalizatio (None, 64, 48, 48)   256         concatenate_13[0][0]             
__________________________________________________________________________________________________
activation_34 (Activation)      (None, 64, 48, 48)   0           dense_1_2_bn[0][0]               
__________________________________________________________________________________________________
dense_1_2_bottleneck_conv2D (Co (None, 64, 48, 48)   4096        activation_34[0][0]              
__________________________________________________________________________________________________
dense_1_2_bottleneck_bn (BatchN (None, 64, 48, 48)   256         dense_1_2_bottleneck_conv2D[0][0]
__________________________________________________________________________________________________
activation_35 (Activation)      (None, 64, 48, 48)   0           dense_1_2_bottleneck_bn[0][0]    
__________________________________________________________________________________________________
dense_1_2_conv2D (Conv2D)       (None, 16, 48, 48)   9216        activation_35[0][0]              
__________________________________________________________________________________________________
concatenate_14 (Concatenate)    (None, 80, 48, 48)   0           concatenate_13[0][0]             
                                                                 dense_1_2_conv2D[0][0]           
__________________________________________________________________________________________________
final_bn (BatchNormalization)   (None, 80, 48, 48)   320         concatenate_14[0][0]             
__________________________________________________________________________________________________
activation_36 (Activation)      (None, 80, 48, 48)   0           final_bn[0][0]                   
__________________________________________________________________________________________________
global_average_pooling2d_4 (Glo (None, 80)           0           activation_36[0][0]              
__________________________________________________________________________________________________
dense_4 (Dense)                 (None, 1)            81          global_average_pooling2d_4[0][0] 
==================================================================================================
Total params: 76,145
Trainable params: 74,609
Non-trainable params: 1,536
__________________________________________________________________________________________________
Train on 39840 samples, validate on 7440 samples
Epoch 1/30
 - 48s - loss: 0.5777 - acc: 0.7619 - val_loss: 0.5336 - val_acc: 0.8429
…
7296/7440 [============================>.] - ETA: 0s
7424/7440 [============================>.] - ETA: 0s
7440/7440 [==============================] - 4s 493us/step
Best saved model Test accuracy: 0.8002688172043011
best saved model auc_score ------------------>  0.8976694198751303
__________________________________________________________________________________________________
Layer (type)                    Output Shape         Param #     Connected to                     
==================================================================================================
input_5 (InputLayer)            (None, 2, 96, 96)    0                                            
__________________________________________________________________________________________________
initial_conv2D (Conv2D)         (None, 16, 96, 96)   288         input_5[0][0]                    
__________________________________________________________________________________________________
dense_0_0_bn (BatchNormalizatio (None, 16, 96, 96)   64          initial_conv2D[0][0]             
__________________________________________________________________________________________________
activation_37 (Activation)      (None, 16, 96, 96)   0           dense_0_0_bn[0][0]               
__________________________________________________________________________________________________
dense_0_0_bottleneck_conv2D (Co (None, 48, 96, 96)   768         activation_37[0][0]              
__________________________________________________________________________________________________
dense_0_0_bottleneck_bn (BatchN (None, 48, 96, 96)   192         dense_0_0_bottleneck_conv2D[0][0]
__________________________________________________________________________________________________
activation_38 (Activation)      (None, 48, 96, 96)   0           dense_0_0_bottleneck_bn[0][0]    
__________________________________________________________________________________________________
dense_0_0_conv2D (Conv2D)       (None, 12, 96, 96)   5184        activation_38[0][0]              
__________________________________________________________________________________________________
concatenate_15 (Concatenate)    (None, 28, 96, 96)   0           initial_conv2D[0][0]             
                                                                 dense_0_0_conv2D[0][0]           
__________________________________________________________________________________________________
dense_0_1_bn (BatchNormalizatio (None, 28, 96, 96)   112         concatenate_15[0][0]             
__________________________________________________________________________________________________
activation_39 (Activation)      (None, 28, 96, 96)   0           dense_0_1_bn[0][0]               
__________________________________________________________________________________________________
dense_0_1_bottleneck_conv2D (Co (None, 48, 96, 96)   1344        activation_39[0][0]              
__________________________________________________________________________________________________
dense_0_1_bottleneck_bn (BatchN (None, 48, 96, 96)   192         dense_0_1_bottleneck_conv2D[0][0]
__________________________________________________________________________________________________
activation_40 (Activation)      (None, 48, 96, 96)   0           dense_0_1_bottleneck_bn[0][0]    
__________________________________________________________________________________________________
dense_0_1_conv2D (Conv2D)       (None, 12, 96, 96)   5184        activation_40[0][0]              
__________________________________________________________________________________________________
concatenate_16 (Concatenate)    (None, 40, 96, 96)   0           concatenate_15[0][0]             
                                                                 dense_0_1_conv2D[0][0]           
__________________________________________________________________________________________________
dense_0_2_bn (BatchNormalizatio (None, 40, 96, 96)   160         concatenate_16[0][0]             
__________________________________________________________________________________________________
activation_41 (Activation)      (None, 40, 96, 96)   0           dense_0_2_bn[0][0]               
__________________________________________________________________________________________________
dense_0_2_bottleneck_conv2D (Co (None, 48, 96, 96)   1920        activation_41[0][0]              
__________________________________________________________________________________________________
dense_0_2_bottleneck_bn (BatchN (None, 48, 96, 96)   192         dense_0_2_bottleneck_conv2D[0][0]
__________________________________________________________________________________________________
activation_42 (Activation)      (None, 48, 96, 96)   0           dense_0_2_bottleneck_bn[0][0]    
__________________________________________________________________________________________________
dense_0_2_conv2D (Conv2D)       (None, 12, 96, 96)   5184        activation_42[0][0]              
__________________________________________________________________________________________________
concatenate_17 (Concatenate)    (None, 52, 96, 96)   0           concatenate_16[0][0]             
                                                                 dense_0_2_conv2D[0][0]           
__________________________________________________________________________________________________
final_bn (BatchNormalization)   (None, 52, 96, 96)   208         concatenate_17[0][0]             
__________________________________________________________________________________________________
activation_43 (Activation)      (None, 52, 96, 96)   0           final_bn[0][0]                   
__________________________________________________________________________________________________
global_average_pooling2d_5 (Glo (None, 52)           0           activation_43[0][0]              
__________________________________________________________________________________________________
dense_5 (Dense)                 (None, 1)            53          global_average_pooling2d_5[0][0] 
==================================================================================================
Total params: 21,045
Trainable params: 20,485
Non-trainable params: 560
__________________________________________________________________________________________________
Train on 39840 samples, validate on 7440 samples
Epoch 1/30
 - 31s - loss: 0.5817 - acc: 0.7406 - val_loss: 0.5243 - val_acc: 0.8372
…
7136/7440 [===========================>..] - ETA: 0s
7328/7440 [============================>.] - ETA: 0s
7440/7440 [==============================] - 3s 386us/step
Best saved model Test accuracy: 0.8522849462365591
best saved model auc_score ------------------>  0.9266712192160944
__________________________________________________________________________________________________
Layer (type)                    Output Shape         Param #     Connected to                     
==================================================================================================
input_6 (InputLayer)            (None, 2, 96, 96)    0                                            
__________________________________________________________________________________________________
initial_conv2D (Conv2D)         (None, 16, 96, 96)   288         input_6[0][0]                    
__________________________________________________________________________________________________
dense_0_0_bn (BatchNormalizatio (None, 16, 96, 96)   64          initial_conv2D[0][0]             
__________________________________________________________________________________________________
activation_44 (Activation)      (None, 16, 96, 96)   0           dense_0_0_bn[0][0]               
__________________________________________________________________________________________________
dense_0_0_bottleneck_conv2D (Co (None, 40, 96, 96)   640         activation_44[0][0]              
__________________________________________________________________________________________________
dense_0_0_bottleneck_bn (BatchN (None, 40, 96, 96)   160         dense_0_0_bottleneck_conv2D[0][0]
__________________________________________________________________________________________________
activation_45 (Activation)      (None, 40, 96, 96)   0           dense_0_0_bottleneck_bn[0][0]    
__________________________________________________________________________________________________
dense_0_0_conv2D (Conv2D)       (None, 10, 96, 96)   3600        activation_45[0][0]              
__________________________________________________________________________________________________
concatenate_18 (Concatenate)    (None, 26, 96, 96)   0           initial_conv2D[0][0]             
                                                                 dense_0_0_conv2D[0][0]           
__________________________________________________________________________________________________
dense_0_1_bn (BatchNormalizatio (None, 26, 96, 96)   104         concatenate_18[0][0]             
__________________________________________________________________________________________________
activation_46 (Activation)      (None, 26, 96, 96)   0           dense_0_1_bn[0][0]               
__________________________________________________________________________________________________
dense_0_1_bottleneck_conv2D (Co (None, 40, 96, 96)   1040        activation_46[0][0]              
__________________________________________________________________________________________________
dense_0_1_bottleneck_bn (BatchN (None, 40, 96, 96)   160         dense_0_1_bottleneck_conv2D[0][0]
__________________________________________________________________________________________________
activation_47 (Activation)      (None, 40, 96, 96)   0           dense_0_1_bottleneck_bn[0][0]    
__________________________________________________________________________________________________
dense_0_1_conv2D (Conv2D)       (None, 10, 96, 96)   3600        activation_47[0][0]              
__________________________________________________________________________________________________
concatenate_19 (Concatenate)    (None, 36, 96, 96)   0           concatenate_18[0][0]             
                                                                 dense_0_1_conv2D[0][0]           
__________________________________________________________________________________________________
dense_0_2_bn (BatchNormalizatio (None, 36, 96, 96)   144         concatenate_19[0][0]             
__________________________________________________________________________________________________
activation_48 (Activation)      (None, 36, 96, 96)   0           dense_0_2_bn[0][0]               
__________________________________________________________________________________________________
dense_0_2_bottleneck_conv2D (Co (None, 40, 96, 96)   1440        activation_48[0][0]              
__________________________________________________________________________________________________
dense_0_2_bottleneck_bn (BatchN (None, 40, 96, 96)   160         dense_0_2_bottleneck_conv2D[0][0]
__________________________________________________________________________________________________
activation_49 (Activation)      (None, 40, 96, 96)   0           dense_0_2_bottleneck_bn[0][0]    
__________________________________________________________________________________________________
dense_0_2_conv2D (Conv2D)       (None, 10, 96, 96)   3600        activation_49[0][0]              
__________________________________________________________________________________________________
concatenate_20 (Concatenate)    (None, 46, 96, 96)   0           concatenate_19[0][0]             
                                                                 dense_0_2_conv2D[0][0]           
__________________________________________________________________________________________________
tr_0_bn (BatchNormalization)    (None, 46, 96, 96)   184         concatenate_20[0][0]             
__________________________________________________________________________________________________
activation_50 (Activation)      (None, 46, 96, 96)   0           tr_0_bn[0][0]                    
__________________________________________________________________________________________________
tr_0_conv2D (Conv2D)            (None, 23, 96, 96)   1058        activation_50[0][0]              
__________________________________________________________________________________________________
average_pooling2d_5 (AveragePoo (None, 23, 48, 48)   0           tr_0_conv2D[0][0]                
__________________________________________________________________________________________________
dense_1_0_bn (BatchNormalizatio (None, 23, 48, 48)   92          average_pooling2d_5[0][0]        
__________________________________________________________________________________________________
activation_51 (Activation)      (None, 23, 48, 48)   0           dense_1_0_bn[0][0]               
__________________________________________________________________________________________________
dense_1_0_bottleneck_conv2D (Co (None, 40, 48, 48)   920         activation_51[0][0]              
__________________________________________________________________________________________________
dense_1_0_bottleneck_bn (BatchN (None, 40, 48, 48)   160         dense_1_0_bottleneck_conv2D[0][0]
__________________________________________________________________________________________________
activation_52 (Activation)      (None, 40, 48, 48)   0           dense_1_0_bottleneck_bn[0][0]    
__________________________________________________________________________________________________
dense_1_0_conv2D (Conv2D)       (None, 10, 48, 48)   3600        activation_52[0][0]              
__________________________________________________________________________________________________
concatenate_21 (Concatenate)    (None, 33, 48, 48)   0           average_pooling2d_5[0][0]        
                                                                 dense_1_0_conv2D[0][0]           
__________________________________________________________________________________________________
dense_1_1_bn (BatchNormalizatio (None, 33, 48, 48)   132         concatenate_21[0][0]             
__________________________________________________________________________________________________
activation_53 (Activation)      (None, 33, 48, 48)   0           dense_1_1_bn[0][0]               
__________________________________________________________________________________________________
dense_1_1_bottleneck_conv2D (Co (None, 40, 48, 48)   1320        activation_53[0][0]              
__________________________________________________________________________________________________
dense_1_1_bottleneck_bn (BatchN (None, 40, 48, 48)   160         dense_1_1_bottleneck_conv2D[0][0]
__________________________________________________________________________________________________
activation_54 (Activation)      (None, 40, 48, 48)   0           dense_1_1_bottleneck_bn[0][0]    
__________________________________________________________________________________________________
dense_1_1_conv2D (Conv2D)       (None, 10, 48, 48)   3600        activation_54[0][0]              
__________________________________________________________________________________________________
concatenate_22 (Concatenate)    (None, 43, 48, 48)   0           concatenate_21[0][0]             
                                                                 dense_1_1_conv2D[0][0]           
__________________________________________________________________________________________________
dense_1_2_bn (BatchNormalizatio (None, 43, 48, 48)   172         concatenate_22[0][0]             
__________________________________________________________________________________________________
activation_55 (Activation)      (None, 43, 48, 48)   0           dense_1_2_bn[0][0]               
__________________________________________________________________________________________________
dense_1_2_bottleneck_conv2D (Co (None, 40, 48, 48)   1720        activation_55[0][0]              
__________________________________________________________________________________________________
dense_1_2_bottleneck_bn (BatchN (None, 40, 48, 48)   160         dense_1_2_bottleneck_conv2D[0][0]
__________________________________________________________________________________________________
activation_56 (Activation)      (None, 40, 48, 48)   0           dense_1_2_bottleneck_bn[0][0]    
__________________________________________________________________________________________________
dense_1_2_conv2D (Conv2D)       (None, 10, 48, 48)   3600        activation_56[0][0]              
__________________________________________________________________________________________________
concatenate_23 (Concatenate)    (None, 53, 48, 48)   0           concatenate_22[0][0]             
                                                                 dense_1_2_conv2D[0][0]           
__________________________________________________________________________________________________
tr_1_bn (BatchNormalization)    (None, 53, 48, 48)   212         concatenate_23[0][0]             
__________________________________________________________________________________________________
activation_57 (Activation)      (None, 53, 48, 48)   0           tr_1_bn[0][0]                    
__________________________________________________________________________________________________
tr_1_conv2D (Conv2D)            (None, 26, 48, 48)   1378        activation_57[0][0]              
__________________________________________________________________________________________________
average_pooling2d_6 (AveragePoo (None, 26, 24, 24)   0           tr_1_conv2D[0][0]                
__________________________________________________________________________________________________
dense_2_0_bn (BatchNormalizatio (None, 26, 24, 24)   104         average_pooling2d_6[0][0]        
__________________________________________________________________________________________________
activation_58 (Activation)      (None, 26, 24, 24)   0           dense_2_0_bn[0][0]               
__________________________________________________________________________________________________
dense_2_0_bottleneck_conv2D (Co (None, 40, 24, 24)   1040        activation_58[0][0]              
__________________________________________________________________________________________________
dense_2_0_bottleneck_bn (BatchN (None, 40, 24, 24)   160         dense_2_0_bottleneck_conv2D[0][0]
__________________________________________________________________________________________________
activation_59 (Activation)      (None, 40, 24, 24)   0           dense_2_0_bottleneck_bn[0][0]    
__________________________________________________________________________________________________
dense_2_0_conv2D (Conv2D)       (None, 10, 24, 24)   3600        activation_59[0][0]              
__________________________________________________________________________________________________
concatenate_24 (Concatenate)    (None, 36, 24, 24)   0           average_pooling2d_6[0][0]        
                                                                 dense_2_0_conv2D[0][0]           
__________________________________________________________________________________________________
dense_2_1_bn (BatchNormalizatio (None, 36, 24, 24)   144         concatenate_24[0][0]             
__________________________________________________________________________________________________
activation_60 (Activation)      (None, 36, 24, 24)   0           dense_2_1_bn[0][0]               
__________________________________________________________________________________________________
dense_2_1_bottleneck_conv2D (Co (None, 40, 24, 24)   1440        activation_60[0][0]              
__________________________________________________________________________________________________
dense_2_1_bottleneck_bn (BatchN (None, 40, 24, 24)   160         dense_2_1_bottleneck_conv2D[0][0]
__________________________________________________________________________________________________
activation_61 (Activation)      (None, 40, 24, 24)   0           dense_2_1_bottleneck_bn[0][0]    
__________________________________________________________________________________________________
dense_2_1_conv2D (Conv2D)       (None, 10, 24, 24)   3600        activation_61[0][0]              
__________________________________________________________________________________________________
concatenate_25 (Concatenate)    (None, 46, 24, 24)   0           concatenate_24[0][0]             
                                                                 dense_2_1_conv2D[0][0]           
__________________________________________________________________________________________________
dense_2_2_bn (BatchNormalizatio (None, 46, 24, 24)   184         concatenate_25[0][0]             
__________________________________________________________________________________________________
activation_62 (Activation)      (None, 46, 24, 24)   0           dense_2_2_bn[0][0]               
__________________________________________________________________________________________________
dense_2_2_bottleneck_conv2D (Co (None, 40, 24, 24)   1840        activation_62[0][0]              
__________________________________________________________________________________________________
dense_2_2_bottleneck_bn (BatchN (None, 40, 24, 24)   160         dense_2_2_bottleneck_conv2D[0][0]
__________________________________________________________________________________________________
activation_63 (Activation)      (None, 40, 24, 24)   0           dense_2_2_bottleneck_bn[0][0]    
__________________________________________________________________________________________________
dense_2_2_conv2D (Conv2D)       (None, 10, 24, 24)   3600        activation_63[0][0]              
__________________________________________________________________________________________________
concatenate_26 (Concatenate)    (None, 56, 24, 24)   0           concatenate_25[0][0]             
                                                                 dense_2_2_conv2D[0][0]           
__________________________________________________________________________________________________
final_bn (BatchNormalization)   (None, 56, 24, 24)   224         concatenate_26[0][0]             
__________________________________________________________________________________________________
activation_64 (Activation)      (None, 56, 24, 24)   0           final_bn[0][0]                   
__________________________________________________________________________________________________
global_average_pooling2d_6 (Glo (None, 56)           0           activation_64[0][0]              
__________________________________________________________________________________________________
dense_6 (Dense)                 (None, 1)            57          global_average_pooling2d_6[0][0] 
==================================================================================================
Total params: 49,781
Trainable params: 48,181
Non-trainable params: 1,600
__________________________________________________________________________________________________
Train on 39840 samples, validate on 7440 samples
Epoch 1/30
 - 42s - loss: 0.5616 - acc: 0.7702 - val_loss: 0.6238 - val_acc: 0.7250
…
7232/7440 [============================>.] - ETA: 0s
7392/7440 [============================>.] - ETA: 0s
7440/7440 [==============================] - 4s 523us/step
Best saved model Test accuracy: 0.7923387096774194
best saved model auc_score ------------------>  0.8882807260955023
__________________________________________________________________________________________________
Layer (type)                    Output Shape         Param #     Connected to                     
==================================================================================================
input_7 (InputLayer)            (None, 2, 96, 96)    0                                            
__________________________________________________________________________________________________
initial_conv2D (Conv2D)         (None, 16, 96, 96)   288         input_7[0][0]                    
__________________________________________________________________________________________________
dense_0_0_bn (BatchNormalizatio (None, 16, 96, 96)   64          initial_conv2D[0][0]             
__________________________________________________________________________________________________
activation_65 (Activation)      (None, 16, 96, 96)   0           dense_0_0_bn[0][0]               
__________________________________________________________________________________________________
dense_0_0_bottleneck_conv2D (Co (None, 24, 96, 96)   384         activation_65[0][0]              
__________________________________________________________________________________________________
dense_0_0_bottleneck_bn (BatchN (None, 24, 96, 96)   96          dense_0_0_bottleneck_conv2D[0][0]
__________________________________________________________________________________________________
activation_66 (Activation)      (None, 24, 96, 96)   0           dense_0_0_bottleneck_bn[0][0]    
__________________________________________________________________________________________________
dense_0_0_conv2D (Conv2D)       (None, 6, 96, 96)    1296        activation_66[0][0]              
__________________________________________________________________________________________________
concatenate_27 (Concatenate)    (None, 22, 96, 96)   0           initial_conv2D[0][0]             
                                                                 dense_0_0_conv2D[0][0]           
__________________________________________________________________________________________________
dense_0_1_bn (BatchNormalizatio (None, 22, 96, 96)   88          concatenate_27[0][0]             
__________________________________________________________________________________________________
activation_67 (Activation)      (None, 22, 96, 96)   0           dense_0_1_bn[0][0]               
__________________________________________________________________________________________________
dense_0_1_bottleneck_conv2D (Co (None, 24, 96, 96)   528         activation_67[0][0]              
__________________________________________________________________________________________________
dense_0_1_bottleneck_bn (BatchN (None, 24, 96, 96)   96          dense_0_1_bottleneck_conv2D[0][0]
__________________________________________________________________________________________________
activation_68 (Activation)      (None, 24, 96, 96)   0           dense_0_1_bottleneck_bn[0][0]    
__________________________________________________________________________________________________
dense_0_1_conv2D (Conv2D)       (None, 6, 96, 96)    1296        activation_68[0][0]              
__________________________________________________________________________________________________
concatenate_28 (Concatenate)    (None, 28, 96, 96)   0           concatenate_27[0][0]             
                                                                 dense_0_1_conv2D[0][0]           
__________________________________________________________________________________________________
dense_0_2_bn (BatchNormalizatio (None, 28, 96, 96)   112         concatenate_28[0][0]             
__________________________________________________________________________________________________
activation_69 (Activation)      (None, 28, 96, 96)   0           dense_0_2_bn[0][0]               
__________________________________________________________________________________________________
dense_0_2_bottleneck_conv2D (Co (None, 24, 96, 96)   672         activation_69[0][0]              
__________________________________________________________________________________________________
dense_0_2_bottleneck_bn (BatchN (None, 24, 96, 96)   96          dense_0_2_bottleneck_conv2D[0][0]
__________________________________________________________________________________________________
activation_70 (Activation)      (None, 24, 96, 96)   0           dense_0_2_bottleneck_bn[0][0]    
__________________________________________________________________________________________________
dense_0_2_conv2D (Conv2D)       (None, 6, 96, 96)    1296        activation_70[0][0]              
__________________________________________________________________________________________________
concatenate_29 (Concatenate)    (None, 34, 96, 96)   0           concatenate_28[0][0]             
                                                                 dense_0_2_conv2D[0][0]           
__________________________________________________________________________________________________
final_bn (BatchNormalization)   (None, 34, 96, 96)   136         concatenate_29[0][0]             
__________________________________________________________________________________________________
activation_71 (Activation)      (None, 34, 96, 96)   0           final_bn[0][0]                   
__________________________________________________________________________________________________
global_average_pooling2d_7 (Glo (None, 34)           0           activation_71[0][0]              
__________________________________________________________________________________________________
dense_7 (Dense)                 (None, 1)            35          global_average_pooling2d_7[0][0] 
==================================================================================================
Total params: 6,483
Trainable params: 6,139
Non-trainable params: 344
__________________________________________________________________________________________________
Train on 39840 samples, validate on 7440 samples
Epoch 1/30
 - 25s - loss: 0.6297 - acc: 0.6845 - val_loss: 0.5413 - val_acc: 0.7606
…
7104/7440 [===========================>..] - ETA: 0s
7328/7440 [============================>.] - ETA: 0s
7440/7440 [==============================] - 3s 399us/step
Best saved model Test accuracy: 0.8309139784946237
best saved model auc_score ------------------>  0.9067685570586196
__________________________________________________________________________________________________
Layer (type)                    Output Shape         Param #     Connected to                     
==================================================================================================
input_8 (InputLayer)            (None, 2, 96, 96)    0                                            
__________________________________________________________________________________________________
initial_conv2D (Conv2D)         (None, 16, 96, 96)   288         input_8[0][0]                    
__________________________________________________________________________________________________
dense_0_0_bn (BatchNormalizatio (None, 16, 96, 96)   64          initial_conv2D[0][0]             
__________________________________________________________________________________________________
activation_72 (Activation)      (None, 16, 96, 96)   0           dense_0_0_bn[0][0]               
__________________________________________________________________________________________________
dense_0_0_bottleneck_conv2D (Co (None, 64, 96, 96)   1024        activation_72[0][0]              
__________________________________________________________________________________________________
dense_0_0_bottleneck_bn (BatchN (None, 64, 96, 96)   256         dense_0_0_bottleneck_conv2D[0][0]
__________________________________________________________________________________________________
activation_73 (Activation)      (None, 64, 96, 96)   0           dense_0_0_bottleneck_bn[0][0]    
__________________________________________________________________________________________________
dense_0_0_conv2D (Conv2D)       (None, 16, 96, 96)   9216        activation_73[0][0]              
__________________________________________________________________________________________________
concatenate_30 (Concatenate)    (None, 32, 96, 96)   0           initial_conv2D[0][0]             
                                                                 dense_0_0_conv2D[0][0]           
__________________________________________________________________________________________________
dense_0_1_bn (BatchNormalizatio (None, 32, 96, 96)   128         concatenate_30[0][0]             
__________________________________________________________________________________________________
activation_74 (Activation)      (None, 32, 96, 96)   0           dense_0_1_bn[0][0]               
__________________________________________________________________________________________________
dense_0_1_bottleneck_conv2D (Co (None, 64, 96, 96)   2048        activation_74[0][0]              
__________________________________________________________________________________________________
dense_0_1_bottleneck_bn (BatchN (None, 64, 96, 96)   256         dense_0_1_bottleneck_conv2D[0][0]
__________________________________________________________________________________________________
activation_75 (Activation)      (None, 64, 96, 96)   0           dense_0_1_bottleneck_bn[0][0]    
__________________________________________________________________________________________________
dense_0_1_conv2D (Conv2D)       (None, 16, 96, 96)   9216        activation_75[0][0]              
__________________________________________________________________________________________________
concatenate_31 (Concatenate)    (None, 48, 96, 96)   0           concatenate_30[0][0]             
                                                                 dense_0_1_conv2D[0][0]           
__________________________________________________________________________________________________
tr_0_bn (BatchNormalization)    (None, 48, 96, 96)   192         concatenate_31[0][0]             
__________________________________________________________________________________________________
activation_76 (Activation)      (None, 48, 96, 96)   0           tr_0_bn[0][0]                    
__________________________________________________________________________________________________
tr_0_conv2D (Conv2D)            (None, 24, 96, 96)   1152        activation_76[0][0]              
__________________________________________________________________________________________________
average_pooling2d_7 (AveragePoo (None, 24, 48, 48)   0           tr_0_conv2D[0][0]                
__________________________________________________________________________________________________
dense_1_0_bn (BatchNormalizatio (None, 24, 48, 48)   96          average_pooling2d_7[0][0]        
__________________________________________________________________________________________________
activation_77 (Activation)      (None, 24, 48, 48)   0           dense_1_0_bn[0][0]               
__________________________________________________________________________________________________
dense_1_0_bottleneck_conv2D (Co (None, 64, 48, 48)   1536        activation_77[0][0]              
__________________________________________________________________________________________________
dense_1_0_bottleneck_bn (BatchN (None, 64, 48, 48)   256         dense_1_0_bottleneck_conv2D[0][0]
__________________________________________________________________________________________________
activation_78 (Activation)      (None, 64, 48, 48)   0           dense_1_0_bottleneck_bn[0][0]    
__________________________________________________________________________________________________
dense_1_0_conv2D (Conv2D)       (None, 16, 48, 48)   9216        activation_78[0][0]              
__________________________________________________________________________________________________
concatenate_32 (Concatenate)    (None, 40, 48, 48)   0           average_pooling2d_7[0][0]        
                                                                 dense_1_0_conv2D[0][0]           
__________________________________________________________________________________________________
dense_1_1_bn (BatchNormalizatio (None, 40, 48, 48)   160         concatenate_32[0][0]             
__________________________________________________________________________________________________
activation_79 (Activation)      (None, 40, 48, 48)   0           dense_1_1_bn[0][0]               
__________________________________________________________________________________________________
dense_1_1_bottleneck_conv2D (Co (None, 64, 48, 48)   2560        activation_79[0][0]              
__________________________________________________________________________________________________
dense_1_1_bottleneck_bn (BatchN (None, 64, 48, 48)   256         dense_1_1_bottleneck_conv2D[0][0]
__________________________________________________________________________________________________
activation_80 (Activation)      (None, 64, 48, 48)   0           dense_1_1_bottleneck_bn[0][0]    
__________________________________________________________________________________________________
dense_1_1_conv2D (Conv2D)       (None, 16, 48, 48)   9216        activation_80[0][0]              
__________________________________________________________________________________________________
concatenate_33 (Concatenate)    (None, 56, 48, 48)   0           concatenate_32[0][0]             
                                                                 dense_1_1_conv2D[0][0]           
__________________________________________________________________________________________________
tr_1_bn (BatchNormalization)    (None, 56, 48, 48)   224         concatenate_33[0][0]             
__________________________________________________________________________________________________
activation_81 (Activation)      (None, 56, 48, 48)   0           tr_1_bn[0][0]                    
__________________________________________________________________________________________________
tr_1_conv2D (Conv2D)            (None, 28, 48, 48)   1568        activation_81[0][0]              
__________________________________________________________________________________________________
average_pooling2d_8 (AveragePoo (None, 28, 24, 24)   0           tr_1_conv2D[0][0]                
__________________________________________________________________________________________________
dense_2_0_bn (BatchNormalizatio (None, 28, 24, 24)   112         average_pooling2d_8[0][0]        
__________________________________________________________________________________________________
activation_82 (Activation)      (None, 28, 24, 24)   0           dense_2_0_bn[0][0]               
__________________________________________________________________________________________________
dense_2_0_bottleneck_conv2D (Co (None, 64, 24, 24)   1792        activation_82[0][0]              
__________________________________________________________________________________________________
dense_2_0_bottleneck_bn (BatchN (None, 64, 24, 24)   256         dense_2_0_bottleneck_conv2D[0][0]
__________________________________________________________________________________________________
activation_83 (Activation)      (None, 64, 24, 24)   0           dense_2_0_bottleneck_bn[0][0]    
__________________________________________________________________________________________________
dense_2_0_conv2D (Conv2D)       (None, 16, 24, 24)   9216        activation_83[0][0]              
__________________________________________________________________________________________________
concatenate_34 (Concatenate)    (None, 44, 24, 24)   0           average_pooling2d_8[0][0]        
                                                                 dense_2_0_conv2D[0][0]           
__________________________________________________________________________________________________
dense_2_1_bn (BatchNormalizatio (None, 44, 24, 24)   176         concatenate_34[0][0]             
__________________________________________________________________________________________________
activation_84 (Activation)      (None, 44, 24, 24)   0           dense_2_1_bn[0][0]               
__________________________________________________________________________________________________
dense_2_1_bottleneck_conv2D (Co (None, 64, 24, 24)   2816        activation_84[0][0]              
__________________________________________________________________________________________________
dense_2_1_bottleneck_bn (BatchN (None, 64, 24, 24)   256         dense_2_1_bottleneck_conv2D[0][0]
__________________________________________________________________________________________________
activation_85 (Activation)      (None, 64, 24, 24)   0           dense_2_1_bottleneck_bn[0][0]    
__________________________________________________________________________________________________
dense_2_1_conv2D (Conv2D)       (None, 16, 24, 24)   9216        activation_85[0][0]              
__________________________________________________________________________________________________
concatenate_35 (Concatenate)    (None, 60, 24, 24)   0           concatenate_34[0][0]             
                                                                 dense_2_1_conv2D[0][0]           
__________________________________________________________________________________________________
final_bn (BatchNormalization)   (None, 60, 24, 24)   240         concatenate_35[0][0]             
__________________________________________________________________________________________________
activation_86 (Activation)      (None, 60, 24, 24)   0           final_bn[0][0]                   
__________________________________________________________________________________________________
global_average_pooling2d_8 (Glo (None, 60)           0           activation_86[0][0]              
__________________________________________________________________________________________________
dense_8 (Dense)                 (None, 1)            61          global_average_pooling2d_8[0][0] 
==================================================================================================
Total params: 73,069
Trainable params: 71,605
Non-trainable params: 1,464
__________________________________________________________________________________________________
Train on 39840 samples, validate on 7440 samples
Epoch 1/30
 - 38s - loss: 0.5526 - acc: 0.7786 - val_loss: 0.5788 - val_acc: 0.7769
…
7232/7440 [============================>.] - ETA: 0s
7392/7440 [============================>.] - ETA: 0s
7440/7440 [==============================] - 4s 543us/step
Best saved model Test accuracy: 0.8248655913978494
best saved model auc_score ------------------>  0.9064028355879292
__________________________________________________________________________________________________
Layer (type)                    Output Shape         Param #     Connected to                     
==================================================================================================
input_9 (InputLayer)            (None, 2, 96, 96)    0                                            
__________________________________________________________________________________________________
initial_conv2D (Conv2D)         (None, 16, 96, 96)   288         input_9[0][0]                    
__________________________________________________________________________________________________
dense_0_0_bn (BatchNormalizatio (None, 16, 96, 96)   64          initial_conv2D[0][0]             
__________________________________________________________________________________________________
activation_87 (Activation)      (None, 16, 96, 96)   0           dense_0_0_bn[0][0]               
__________________________________________________________________________________________________
dense_0_0_bottleneck_conv2D (Co (None, 40, 96, 96)   640         activation_87[0][0]              
__________________________________________________________________________________________________
dense_0_0_bottleneck_bn (BatchN (None, 40, 96, 96)   160         dense_0_0_bottleneck_conv2D[0][0]
__________________________________________________________________________________________________
activation_88 (Activation)      (None, 40, 96, 96)   0           dense_0_0_bottleneck_bn[0][0]    
__________________________________________________________________________________________________
dense_0_0_conv2D (Conv2D)       (None, 10, 96, 96)   3600        activation_88[0][0]              
__________________________________________________________________________________________________
concatenate_36 (Concatenate)    (None, 26, 96, 96)   0           initial_conv2D[0][0]             
                                                                 dense_0_0_conv2D[0][0]           
__________________________________________________________________________________________________
dense_0_1_bn (BatchNormalizatio (None, 26, 96, 96)   104         concatenate_36[0][0]             
__________________________________________________________________________________________________
activation_89 (Activation)      (None, 26, 96, 96)   0           dense_0_1_bn[0][0]               
__________________________________________________________________________________________________
dense_0_1_bottleneck_conv2D (Co (None, 40, 96, 96)   1040        activation_89[0][0]              
__________________________________________________________________________________________________
dense_0_1_bottleneck_bn (BatchN (None, 40, 96, 96)   160         dense_0_1_bottleneck_conv2D[0][0]
__________________________________________________________________________________________________
activation_90 (Activation)      (None, 40, 96, 96)   0           dense_0_1_bottleneck_bn[0][0]    
__________________________________________________________________________________________________
dense_0_1_conv2D (Conv2D)       (None, 10, 96, 96)   3600        activation_90[0][0]              
__________________________________________________________________________________________________
concatenate_37 (Concatenate)    (None, 36, 96, 96)   0           concatenate_36[0][0]             
                                                                 dense_0_1_conv2D[0][0]           
__________________________________________________________________________________________________
dense_0_2_bn (BatchNormalizatio (None, 36, 96, 96)   144         concatenate_37[0][0]             
__________________________________________________________________________________________________
activation_91 (Activation)      (None, 36, 96, 96)   0           dense_0_2_bn[0][0]               
__________________________________________________________________________________________________
dense_0_2_bottleneck_conv2D (Co (None, 40, 96, 96)   1440        activation_91[0][0]              
__________________________________________________________________________________________________
dense_0_2_bottleneck_bn (BatchN (None, 40, 96, 96)   160         dense_0_2_bottleneck_conv2D[0][0]
__________________________________________________________________________________________________
activation_92 (Activation)      (None, 40, 96, 96)   0           dense_0_2_bottleneck_bn[0][0]    
__________________________________________________________________________________________________
dense_0_2_conv2D (Conv2D)       (None, 10, 96, 96)   3600        activation_92[0][0]              
__________________________________________________________________________________________________
concatenate_38 (Concatenate)    (None, 46, 96, 96)   0           concatenate_37[0][0]             
                                                                 dense_0_2_conv2D[0][0]           
__________________________________________________________________________________________________
final_bn (BatchNormalization)   (None, 46, 96, 96)   184         concatenate_38[0][0]             
__________________________________________________________________________________________________
activation_93 (Activation)      (None, 46, 96, 96)   0           final_bn[0][0]                   
__________________________________________________________________________________________________
global_average_pooling2d_9 (Glo (None, 46)           0           activation_93[0][0]              
__________________________________________________________________________________________________
dense_9 (Dense)                 (None, 1)            47          global_average_pooling2d_9[0][0] 
==================================================================================================
Total params: 15,231
Trainable params: 14,743
Non-trainable params: 488
__________________________________________________________________________________________________
Train on 39840 samples, validate on 7440 samples
Epoch 1/30
 - 32s - loss: 0.5914 - acc: 0.7298 - val_loss: 0.5570 - val_acc: 0.7789
…
7104/7440 [===========================>..] - ETA: 0s
7296/7440 [============================>.] - ETA: 0s
7440/7440 [==============================] - 5s 611us/step
Best saved model Test accuracy: 0.8186827956989248
best saved model auc_score ------------------>  0.888152315296566
__________________________________________________________________________________________________
Layer (type)                    Output Shape         Param #     Connected to                     
==================================================================================================
input_10 (InputLayer)           (None, 2, 96, 96)    0                                            
__________________________________________________________________________________________________
initial_conv2D (Conv2D)         (None, 16, 96, 96)   288         input_10[0][0]                   
__________________________________________________________________________________________________
dense_0_0_bn (BatchNormalizatio (None, 16, 96, 96)   64          initial_conv2D[0][0]             
__________________________________________________________________________________________________
activation_94 (Activation)      (None, 16, 96, 96)   0           dense_0_0_bn[0][0]               
__________________________________________________________________________________________________
dense_0_0_bottleneck_conv2D (Co (None, 24, 96, 96)   384         activation_94[0][0]              
__________________________________________________________________________________________________
dense_0_0_bottleneck_bn (BatchN (None, 24, 96, 96)   96          dense_0_0_bottleneck_conv2D[0][0]
__________________________________________________________________________________________________
activation_95 (Activation)      (None, 24, 96, 96)   0           dense_0_0_bottleneck_bn[0][0]    
__________________________________________________________________________________________________
dense_0_0_conv2D (Conv2D)       (None, 6, 96, 96)    1296        activation_95[0][0]              
__________________________________________________________________________________________________
concatenate_39 (Concatenate)    (None, 22, 96, 96)   0           initial_conv2D[0][0]             
                                                                 dense_0_0_conv2D[0][0]           
__________________________________________________________________________________________________
dense_0_1_bn (BatchNormalizatio (None, 22, 96, 96)   88          concatenate_39[0][0]             
__________________________________________________________________________________________________
activation_96 (Activation)      (None, 22, 96, 96)   0           dense_0_1_bn[0][0]               
__________________________________________________________________________________________________
dense_0_1_bottleneck_conv2D (Co (None, 24, 96, 96)   528         activation_96[0][0]              
__________________________________________________________________________________________________
dense_0_1_bottleneck_bn (BatchN (None, 24, 96, 96)   96          dense_0_1_bottleneck_conv2D[0][0]
__________________________________________________________________________________________________
activation_97 (Activation)      (None, 24, 96, 96)   0           dense_0_1_bottleneck_bn[0][0]    
__________________________________________________________________________________________________
dense_0_1_conv2D (Conv2D)       (None, 6, 96, 96)    1296        activation_97[0][0]              
__________________________________________________________________________________________________
concatenate_40 (Concatenate)    (None, 28, 96, 96)   0           concatenate_39[0][0]             
                                                                 dense_0_1_conv2D[0][0]           
__________________________________________________________________________________________________
tr_0_bn (BatchNormalization)    (None, 28, 96, 96)   112         concatenate_40[0][0]             
__________________________________________________________________________________________________
activation_98 (Activation)      (None, 28, 96, 96)   0           tr_0_bn[0][0]                    
__________________________________________________________________________________________________
tr_0_conv2D (Conv2D)            (None, 14, 96, 96)   392         activation_98[0][0]              
__________________________________________________________________________________________________
average_pooling2d_9 (AveragePoo (None, 14, 48, 48)   0           tr_0_conv2D[0][0]                
__________________________________________________________________________________________________
dense_1_0_bn (BatchNormalizatio (None, 14, 48, 48)   56          average_pooling2d_9[0][0]        
__________________________________________________________________________________________________
activation_99 (Activation)      (None, 14, 48, 48)   0           dense_1_0_bn[0][0]               
__________________________________________________________________________________________________
dense_1_0_bottleneck_conv2D (Co (None, 24, 48, 48)   336         activation_99[0][0]              
__________________________________________________________________________________________________
dense_1_0_bottleneck_bn (BatchN (None, 24, 48, 48)   96          dense_1_0_bottleneck_conv2D[0][0]
__________________________________________________________________________________________________
activation_100 (Activation)     (None, 24, 48, 48)   0           dense_1_0_bottleneck_bn[0][0]    
__________________________________________________________________________________________________
dense_1_0_conv2D (Conv2D)       (None, 6, 48, 48)    1296        activation_100[0][0]             
__________________________________________________________________________________________________
concatenate_41 (Concatenate)    (None, 20, 48, 48)   0           average_pooling2d_9[0][0]        
                                                                 dense_1_0_conv2D[0][0]           
__________________________________________________________________________________________________
dense_1_1_bn (BatchNormalizatio (None, 20, 48, 48)   80          concatenate_41[0][0]             
__________________________________________________________________________________________________
activation_101 (Activation)     (None, 20, 48, 48)   0           dense_1_1_bn[0][0]               
__________________________________________________________________________________________________
dense_1_1_bottleneck_conv2D (Co (None, 24, 48, 48)   480         activation_101[0][0]             
__________________________________________________________________________________________________
dense_1_1_bottleneck_bn (BatchN (None, 24, 48, 48)   96          dense_1_1_bottleneck_conv2D[0][0]
__________________________________________________________________________________________________
activation_102 (Activation)     (None, 24, 48, 48)   0           dense_1_1_bottleneck_bn[0][0]    
__________________________________________________________________________________________________
dense_1_1_conv2D (Conv2D)       (None, 6, 48, 48)    1296        activation_102[0][0]             
__________________________________________________________________________________________________
concatenate_42 (Concatenate)    (None, 26, 48, 48)   0           concatenate_41[0][0]             
                                                                 dense_1_1_conv2D[0][0]           
__________________________________________________________________________________________________
final_bn (BatchNormalization)   (None, 26, 48, 48)   104         concatenate_42[0][0]             
__________________________________________________________________________________________________
activation_103 (Activation)     (None, 26, 48, 48)   0           final_bn[0][0]                   
__________________________________________________________________________________________________
global_average_pooling2d_10 (Gl (None, 26)           0           activation_103[0][0]             
__________________________________________________________________________________________________
dense_10 (Dense)                (None, 1)            27          global_average_pooling2d_10[0][0]
==================================================================================================
Total params: 8,507
Trainable params: 8,063
Non-trainable params: 444
__________________________________________________________________________________________________
Train on 39840 samples, validate on 7440 samples
Epoch 1/30
 - 26s - loss: 0.5849 - acc: 0.7339 - val_loss: 0.5569 - val_acc: 0.8036
…
7168/7440 [===========================>..] - ETA: 0s
7424/7440 [============================>.] - ETA: 0s
7440/7440 [==============================] - 4s 491us/step
Best saved model Test accuracy: 0.8368279569892473
best saved model auc_score ------------------>  0.9179976008787143
__________________________________________________________________________________________________
Layer (type)                    Output Shape         Param #     Connected to                     
==================================================================================================
input_11 (InputLayer)           (None, 2, 96, 96)    0                                            
__________________________________________________________________________________________________
initial_conv2D (Conv2D)         (None, 16, 96, 96)   288         input_11[0][0]                   
__________________________________________________________________________________________________
dense_0_0_bn (BatchNormalizatio (None, 16, 96, 96)   64          initial_conv2D[0][0]             
__________________________________________________________________________________________________
activation_104 (Activation)     (None, 16, 96, 96)   0           dense_0_0_bn[0][0]               
__________________________________________________________________________________________________
dense_0_0_bottleneck_conv2D (Co (None, 48, 96, 96)   768         activation_104[0][0]             
__________________________________________________________________________________________________
dense_0_0_bottleneck_bn (BatchN (None, 48, 96, 96)   192         dense_0_0_bottleneck_conv2D[0][0]
__________________________________________________________________________________________________
activation_105 (Activation)     (None, 48, 96, 96)   0           dense_0_0_bottleneck_bn[0][0]    
__________________________________________________________________________________________________
dense_0_0_conv2D (Conv2D)       (None, 12, 96, 96)   5184        activation_105[0][0]             
__________________________________________________________________________________________________
concatenate_43 (Concatenate)    (None, 28, 96, 96)   0           initial_conv2D[0][0]             
                                                                 dense_0_0_conv2D[0][0]           
__________________________________________________________________________________________________
dense_0_1_bn (BatchNormalizatio (None, 28, 96, 96)   112         concatenate_43[0][0]             
__________________________________________________________________________________________________
activation_106 (Activation)     (None, 28, 96, 96)   0           dense_0_1_bn[0][0]               
__________________________________________________________________________________________________
dense_0_1_bottleneck_conv2D (Co (None, 48, 96, 96)   1344        activation_106[0][0]             
__________________________________________________________________________________________________
dense_0_1_bottleneck_bn (BatchN (None, 48, 96, 96)   192         dense_0_1_bottleneck_conv2D[0][0]
__________________________________________________________________________________________________
activation_107 (Activation)     (None, 48, 96, 96)   0           dense_0_1_bottleneck_bn[0][0]    
__________________________________________________________________________________________________
dense_0_1_conv2D (Conv2D)       (None, 12, 96, 96)   5184        activation_107[0][0]             
__________________________________________________________________________________________________
concatenate_44 (Concatenate)    (None, 40, 96, 96)   0           concatenate_43[0][0]             
                                                                 dense_0_1_conv2D[0][0]           
__________________________________________________________________________________________________
tr_0_bn (BatchNormalization)    (None, 40, 96, 96)   160         concatenate_44[0][0]             
__________________________________________________________________________________________________
activation_108 (Activation)     (None, 40, 96, 96)   0           tr_0_bn[0][0]                    
__________________________________________________________________________________________________
tr_0_conv2D (Conv2D)            (None, 20, 96, 96)   800         activation_108[0][0]             
__________________________________________________________________________________________________
average_pooling2d_10 (AveragePo (None, 20, 48, 48)   0           tr_0_conv2D[0][0]                
__________________________________________________________________________________________________
dense_1_0_bn (BatchNormalizatio (None, 20, 48, 48)   80          average_pooling2d_10[0][0]       
__________________________________________________________________________________________________
activation_109 (Activation)     (None, 20, 48, 48)   0           dense_1_0_bn[0][0]               
__________________________________________________________________________________________________
dense_1_0_bottleneck_conv2D (Co (None, 48, 48, 48)   960         activation_109[0][0]             
__________________________________________________________________________________________________
dense_1_0_bottleneck_bn (BatchN (None, 48, 48, 48)   192         dense_1_0_bottleneck_conv2D[0][0]
__________________________________________________________________________________________________
activation_110 (Activation)     (None, 48, 48, 48)   0           dense_1_0_bottleneck_bn[0][0]    
__________________________________________________________________________________________________
dense_1_0_conv2D (Conv2D)       (None, 12, 48, 48)   5184        activation_110[0][0]             
__________________________________________________________________________________________________
concatenate_45 (Concatenate)    (None, 32, 48, 48)   0           average_pooling2d_10[0][0]       
                                                                 dense_1_0_conv2D[0][0]           
__________________________________________________________________________________________________
dense_1_1_bn (BatchNormalizatio (None, 32, 48, 48)   128         concatenate_45[0][0]             
__________________________________________________________________________________________________
activation_111 (Activation)     (None, 32, 48, 48)   0           dense_1_1_bn[0][0]               
__________________________________________________________________________________________________
dense_1_1_bottleneck_conv2D (Co (None, 48, 48, 48)   1536        activation_111[0][0]             
__________________________________________________________________________________________________
dense_1_1_bottleneck_bn (BatchN (None, 48, 48, 48)   192         dense_1_1_bottleneck_conv2D[0][0]
__________________________________________________________________________________________________
activation_112 (Activation)     (None, 48, 48, 48)   0           dense_1_1_bottleneck_bn[0][0]    
__________________________________________________________________________________________________
dense_1_1_conv2D (Conv2D)       (None, 12, 48, 48)   5184        activation_112[0][0]             
__________________________________________________________________________________________________
concatenate_46 (Concatenate)    (None, 44, 48, 48)   0           concatenate_45[0][0]             
                                                                 dense_1_1_conv2D[0][0]           
__________________________________________________________________________________________________
final_bn (BatchNormalization)   (None, 44, 48, 48)   176         concatenate_46[0][0]             
__________________________________________________________________________________________________
activation_113 (Activation)     (None, 44, 48, 48)   0           final_bn[0][0]                   
__________________________________________________________________________________________________
global_average_pooling2d_11 (Gl (None, 44)           0           activation_113[0][0]             
__________________________________________________________________________________________________
dense_11 (Dense)                (None, 1)            45          global_average_pooling2d_11[0][0]
==================================================================================================
Total params: 27,965
Trainable params: 27,221
Non-trainable params: 744
__________________________________________________________________________________________________
Train on 39840 samples, validate on 7440 samples
Epoch 1/30
 - 33s - loss: 0.5686 - acc: 0.7495 - val_loss: 0.5266 - val_acc: 0.8008
…
6720/7440 [==========================>...] - ETA: 0s
6912/7440 [==========================>...] - ETA: 0s
7104/7440 [===========================>..] - ETA: 0s
7296/7440 [============================>.] - ETA: 0s
7440/7440 [==============================] - 4s 583us/step
Best saved model Test accuracy: 0.8202956989247312
best saved model auc_score ------------------>  0.9009206989247311
_________________________________________________________________
Layer (type)                 Output Shape              Param #   
=================================================================
input_12 (InputLayer)        (None, 2, 96, 96)         0         
_________________________________________________________________
initial_conv2D (Conv2D)      (None, 16, 96, 96)        288       
_________________________________________________________________
tr_0_bn (BatchNormalization) (None, 16, 96, 96)        64        
_________________________________________________________________
activation_114 (Activation)  (None, 16, 96, 96)        0         
_________________________________________________________________
tr_0_conv2D (Conv2D)         (None, 8, 96, 96)         128       
_________________________________________________________________
average_pooling2d_11 (Averag (None, 8, 48, 48)         0         
_________________________________________________________________
final_bn (BatchNormalization (None, 8, 48, 48)         32        
_________________________________________________________________
activation_115 (Activation)  (None, 8, 48, 48)         0         
_________________________________________________________________
global_average_pooling2d_12  (None, 8)                 0         
_________________________________________________________________
dense_12 (Dense)             (None, 1)                 9         
=================================================================
Total params: 521
Trainable params: 473
Non-trainable params: 48
_________________________________________________________________
Train on 39840 samples, validate on 7440 samples
Epoch 1/30
 - 13s - loss: 0.6655 - acc: 0.6210 - val_loss: 0.6154 - val_acc: 0.8019

Epoch 00001: val_loss improved from inf to 0.61539, saving model to keras_densenet_simple_wt_28Sept_1340.h5
…
6784/7440 [==========================>...] - ETA: 0s
7168/7440 [===========================>..] - ETA: 0s
7440/7440 [==============================] - 3s 426us/step
Best saved model Test accuracy: 0.8520161290322581
best saved model auc_score ------------------>  0.8675780437044744
__________________________________________________________________________________________________
Layer (type)                    Output Shape         Param #     Connected to                     
==================================================================================================
input_13 (InputLayer)           (None, 2, 96, 96)    0                                            
__________________________________________________________________________________________________
initial_conv2D (Conv2D)         (None, 16, 96, 96)   288         input_13[0][0]                   
__________________________________________________________________________________________________
dense_0_0_bn (BatchNormalizatio (None, 16, 96, 96)   64          initial_conv2D[0][0]             
__________________________________________________________________________________________________
activation_116 (Activation)     (None, 16, 96, 96)   0           dense_0_0_bn[0][0]               
__________________________________________________________________________________________________
dense_0_0_bottleneck_conv2D (Co (None, 48, 96, 96)   768         activation_116[0][0]             
__________________________________________________________________________________________________
dense_0_0_bottleneck_bn (BatchN (None, 48, 96, 96)   192         dense_0_0_bottleneck_conv2D[0][0]
__________________________________________________________________________________________________
activation_117 (Activation)     (None, 48, 96, 96)   0           dense_0_0_bottleneck_bn[0][0]    
__________________________________________________________________________________________________
dense_0_0_conv2D (Conv2D)       (None, 12, 96, 96)   5184        activation_117[0][0]             
__________________________________________________________________________________________________
concatenate_47 (Concatenate)    (None, 28, 96, 96)   0           initial_conv2D[0][0]             
                                                                 dense_0_0_conv2D[0][0]           
__________________________________________________________________________________________________
tr_0_bn (BatchNormalization)    (None, 28, 96, 96)   112         concatenate_47[0][0]             
__________________________________________________________________________________________________
activation_118 (Activation)     (None, 28, 96, 96)   0           tr_0_bn[0][0]                    
__________________________________________________________________________________________________
tr_0_conv2D (Conv2D)            (None, 14, 96, 96)   392         activation_118[0][0]             
__________________________________________________________________________________________________
average_pooling2d_12 (AveragePo (None, 14, 48, 48)   0           tr_0_conv2D[0][0]                
__________________________________________________________________________________________________
dense_1_0_bn (BatchNormalizatio (None, 14, 48, 48)   56          average_pooling2d_12[0][0]       
__________________________________________________________________________________________________
activation_119 (Activation)     (None, 14, 48, 48)   0           dense_1_0_bn[0][0]               
__________________________________________________________________________________________________
dense_1_0_bottleneck_conv2D (Co (None, 48, 48, 48)   672         activation_119[0][0]             
__________________________________________________________________________________________________
dense_1_0_bottleneck_bn (BatchN (None, 48, 48, 48)   192         dense_1_0_bottleneck_conv2D[0][0]
__________________________________________________________________________________________________
activation_120 (Activation)     (None, 48, 48, 48)   0           dense_1_0_bottleneck_bn[0][0]    
__________________________________________________________________________________________________
dense_1_0_conv2D (Conv2D)       (None, 12, 48, 48)   5184        activation_120[0][0]             
__________________________________________________________________________________________________
concatenate_48 (Concatenate)    (None, 26, 48, 48)   0           average_pooling2d_12[0][0]       
                                                                 dense_1_0_conv2D[0][0]           
__________________________________________________________________________________________________
final_bn (BatchNormalization)   (None, 26, 48, 48)   104         concatenate_48[0][0]             
__________________________________________________________________________________________________
activation_121 (Activation)     (None, 26, 48, 48)   0           final_bn[0][0]                   
__________________________________________________________________________________________________
global_average_pooling2d_13 (Gl (None, 26)           0           activation_121[0][0]             
__________________________________________________________________________________________________
dense_13 (Dense)                (None, 1)            27          global_average_pooling2d_13[0][0]
==================================================================================================
Total params: 13,235
Trainable params: 12,875
Non-trainable params: 360
__________________________________________________________________________________________________
Train on 39840 samples, validate on 7440 samples
Epoch 1/30
 - 23s - loss: 0.5881 - acc: 0.7281 - val_loss: 0.6196 - val_acc: 0.7062
…
7200/7440 [============================>.] - ETA: 0s
7424/7440 [============================>.] - ETA: 0s
7440/7440 [==============================] - 4s 571us/step
Best saved model Test accuracy: 0.833736559139785
best saved model auc_score ------------------>  0.91810346571858
__________________________________________________________________________________________________
Layer (type)                    Output Shape         Param #     Connected to                     
==================================================================================================
input_15 (InputLayer)           (None, 2, 96, 96)    0                                            
__________________________________________________________________________________________________
initial_conv2D (Conv2D)         (None, 16, 96, 96)   288         input_15[0][0]                   
__________________________________________________________________________________________________
dense_0_0_bn (BatchNormalizatio (None, 16, 96, 96)   64          initial_conv2D[0][0]             
__________________________________________________________________________________________________
activation_127 (Activation)     (None, 16, 96, 96)   0           dense_0_0_bn[0][0]               
__________________________________________________________________________________________________
dense_0_0_bottleneck_conv2D (Co (None, 24, 96, 96)   384         activation_127[0][0]             
__________________________________________________________________________________________________
dense_0_0_bottleneck_bn (BatchN (None, 24, 96, 96)   96          dense_0_0_bottleneck_conv2D[0][0]
__________________________________________________________________________________________________
activation_128 (Activation)     (None, 24, 96, 96)   0           dense_0_0_bottleneck_bn[0][0]    
__________________________________________________________________________________________________
dense_0_0_conv2D (Conv2D)       (None, 6, 96, 96)    1296        activation_128[0][0]             
__________________________________________________________________________________________________
concatenate_51 (Concatenate)    (None, 22, 96, 96)   0           initial_conv2D[0][0]             
                                                                 dense_0_0_conv2D[0][0]           
__________________________________________________________________________________________________
dense_0_1_bn (BatchNormalizatio (None, 22, 96, 96)   88          concatenate_51[0][0]             
__________________________________________________________________________________________________
activation_129 (Activation)     (None, 22, 96, 96)   0           dense_0_1_bn[0][0]               
__________________________________________________________________________________________________
dense_0_1_bottleneck_conv2D (Co (None, 24, 96, 96)   528         activation_129[0][0]             
__________________________________________________________________________________________________
dense_0_1_bottleneck_bn (BatchN (None, 24, 96, 96)   96          dense_0_1_bottleneck_conv2D[0][0]
__________________________________________________________________________________________________
activation_130 (Activation)     (None, 24, 96, 96)   0           dense_0_1_bottleneck_bn[0][0]    
__________________________________________________________________________________________________
dense_0_1_conv2D (Conv2D)       (None, 6, 96, 96)    1296        activation_130[0][0]             
__________________________________________________________________________________________________
concatenate_52 (Concatenate)    (None, 28, 96, 96)   0           concatenate_51[0][0]             
                                                                 dense_0_1_conv2D[0][0]           
__________________________________________________________________________________________________
dense_0_2_bn (BatchNormalizatio (None, 28, 96, 96)   112         concatenate_52[0][0]             
__________________________________________________________________________________________________
activation_131 (Activation)     (None, 28, 96, 96)   0           dense_0_2_bn[0][0]               
__________________________________________________________________________________________________
dense_0_2_bottleneck_conv2D (Co (None, 24, 96, 96)   672         activation_131[0][0]             
__________________________________________________________________________________________________
dense_0_2_bottleneck_bn (BatchN (None, 24, 96, 96)   96          dense_0_2_bottleneck_conv2D[0][0]
__________________________________________________________________________________________________
activation_132 (Activation)     (None, 24, 96, 96)   0           dense_0_2_bottleneck_bn[0][0]    
__________________________________________________________________________________________________
dense_0_2_conv2D (Conv2D)       (None, 6, 96, 96)    1296        activation_132[0][0]             
__________________________________________________________________________________________________
concatenate_53 (Concatenate)    (None, 34, 96, 96)   0           concatenate_52[0][0]             
                                                                 dense_0_2_conv2D[0][0]           
__________________________________________________________________________________________________
tr_0_bn (BatchNormalization)    (None, 34, 96, 96)   136         concatenate_53[0][0]             
__________________________________________________________________________________________________
activation_133 (Activation)     (None, 34, 96, 96)   0           tr_0_bn[0][0]                    
__________________________________________________________________________________________________
tr_0_conv2D (Conv2D)            (None, 17, 96, 96)   578         activation_133[0][0]             
__________________________________________________________________________________________________
average_pooling2d_13 (AveragePo (None, 17, 48, 48)   0           tr_0_conv2D[0][0]                
__________________________________________________________________________________________________
dense_1_0_bn (BatchNormalizatio (None, 17, 48, 48)   68          average_pooling2d_13[0][0]       
__________________________________________________________________________________________________
activation_134 (Activation)     (None, 17, 48, 48)   0           dense_1_0_bn[0][0]               
__________________________________________________________________________________________________
dense_1_0_bottleneck_conv2D (Co (None, 24, 48, 48)   408         activation_134[0][0]             
__________________________________________________________________________________________________
dense_1_0_bottleneck_bn (BatchN (None, 24, 48, 48)   96          dense_1_0_bottleneck_conv2D[0][0]
__________________________________________________________________________________________________
activation_135 (Activation)     (None, 24, 48, 48)   0           dense_1_0_bottleneck_bn[0][0]    
__________________________________________________________________________________________________
dense_1_0_conv2D (Conv2D)       (None, 6, 48, 48)    1296        activation_135[0][0]             
__________________________________________________________________________________________________
concatenate_54 (Concatenate)    (None, 23, 48, 48)   0           average_pooling2d_13[0][0]       
                                                                 dense_1_0_conv2D[0][0]           
__________________________________________________________________________________________________
dense_1_1_bn (BatchNormalizatio (None, 23, 48, 48)   92          concatenate_54[0][0]             
__________________________________________________________________________________________________
activation_136 (Activation)     (None, 23, 48, 48)   0           dense_1_1_bn[0][0]               
__________________________________________________________________________________________________
dense_1_1_bottleneck_conv2D (Co (None, 24, 48, 48)   552         activation_136[0][0]             
__________________________________________________________________________________________________
dense_1_1_bottleneck_bn (BatchN (None, 24, 48, 48)   96          dense_1_1_bottleneck_conv2D[0][0]
__________________________________________________________________________________________________
activation_137 (Activation)     (None, 24, 48, 48)   0           dense_1_1_bottleneck_bn[0][0]    
__________________________________________________________________________________________________
dense_1_1_conv2D (Conv2D)       (None, 6, 48, 48)    1296        activation_137[0][0]             
__________________________________________________________________________________________________
concatenate_55 (Concatenate)    (None, 29, 48, 48)   0           concatenate_54[0][0]             
                                                                 dense_1_1_conv2D[0][0]           
__________________________________________________________________________________________________
dense_1_2_bn (BatchNormalizatio (None, 29, 48, 48)   116         concatenate_55[0][0]             
__________________________________________________________________________________________________
activation_138 (Activation)     (None, 29, 48, 48)   0           dense_1_2_bn[0][0]               
__________________________________________________________________________________________________
dense_1_2_bottleneck_conv2D (Co (None, 24, 48, 48)   696         activation_138[0][0]             
__________________________________________________________________________________________________
dense_1_2_bottleneck_bn (BatchN (None, 24, 48, 48)   96          dense_1_2_bottleneck_conv2D[0][0]
__________________________________________________________________________________________________
activation_139 (Activation)     (None, 24, 48, 48)   0           dense_1_2_bottleneck_bn[0][0]    
__________________________________________________________________________________________________
dense_1_2_conv2D (Conv2D)       (None, 6, 48, 48)    1296        activation_139[0][0]             
__________________________________________________________________________________________________
concatenate_56 (Concatenate)    (None, 35, 48, 48)   0           concatenate_55[0][0]             
                                                                 dense_1_2_conv2D[0][0]           
__________________________________________________________________________________________________
final_bn (BatchNormalization)   (None, 35, 48, 48)   140         concatenate_56[0][0]             
__________________________________________________________________________________________________
activation_140 (Activation)     (None, 35, 48, 48)   0           final_bn[0][0]                   
__________________________________________________________________________________________________
global_average_pooling2d_15 (Gl (None, 35)           0           activation_140[0][0]             
__________________________________________________________________________________________________
dense_15 (Dense)                (None, 1)            36          global_average_pooling2d_15[0][0]
==================================================================================================
Total params: 13,310
Trainable params: 12,614
Non-trainable params: 696
__________________________________________________________________________________________________
Train on 39840 samples, validate on 7440 samples
Epoch 1/30
 - 36s - loss: 0.5884 - acc: 0.7363 - val_loss: 0.5684 - val_acc: 0.7907
…
7040/7440 [===========================>..] - ETA: 0s
7392/7440 [============================>.] - ETA: 0s
7440/7440 [==============================] - 4s 569us/step
Best saved model Test accuracy: 0.7559139784946236
best saved model auc_score ------------------>  0.8401779107411261
__________________________________________________________________________________________________
Layer (type)                    Output Shape         Param #     Connected to                     
==================================================================================================
input_17 (InputLayer)           (None, 2, 96, 96)    0                                            
__________________________________________________________________________________________________
initial_conv2D (Conv2D)         (None, 16, 96, 96)   288         input_17[0][0]                   
__________________________________________________________________________________________________
dense_0_0_bn (BatchNormalizatio (None, 16, 96, 96)   64          initial_conv2D[0][0]             
__________________________________________________________________________________________________
activation_143 (Activation)     (None, 16, 96, 96)   0           dense_0_0_bn[0][0]               
__________________________________________________________________________________________________
dense_0_0_bottleneck_conv2D (Co (None, 32, 96, 96)   512         activation_143[0][0]             
__________________________________________________________________________________________________
dense_0_0_bottleneck_bn (BatchN (None, 32, 96, 96)   128         dense_0_0_bottleneck_conv2D[0][0]
__________________________________________________________________________________________________
activation_144 (Activation)     (None, 32, 96, 96)   0           dense_0_0_bottleneck_bn[0][0]    
__________________________________________________________________________________________________
dense_0_0_conv2D (Conv2D)       (None, 8, 96, 96)    2304        activation_144[0][0]             
__________________________________________________________________________________________________
concatenate_57 (Concatenate)    (None, 24, 96, 96)   0           initial_conv2D[0][0]             
                                                                 dense_0_0_conv2D[0][0]           
__________________________________________________________________________________________________
dense_0_1_bn (BatchNormalizatio (None, 24, 96, 96)   96          concatenate_57[0][0]             
__________________________________________________________________________________________________
activation_145 (Activation)     (None, 24, 96, 96)   0           dense_0_1_bn[0][0]               
__________________________________________________________________________________________________
dense_0_1_bottleneck_conv2D (Co (None, 32, 96, 96)   768         activation_145[0][0]             
__________________________________________________________________________________________________
dense_0_1_bottleneck_bn (BatchN (None, 32, 96, 96)   128         dense_0_1_bottleneck_conv2D[0][0]
__________________________________________________________________________________________________
activation_146 (Activation)     (None, 32, 96, 96)   0           dense_0_1_bottleneck_bn[0][0]    
__________________________________________________________________________________________________
dense_0_1_conv2D (Conv2D)       (None, 8, 96, 96)    2304        activation_146[0][0]             
__________________________________________________________________________________________________
concatenate_58 (Concatenate)    (None, 32, 96, 96)   0           concatenate_57[0][0]             
                                                                 dense_0_1_conv2D[0][0]           
__________________________________________________________________________________________________
dense_0_2_bn (BatchNormalizatio (None, 32, 96, 96)   128         concatenate_58[0][0]             
__________________________________________________________________________________________________
activation_147 (Activation)     (None, 32, 96, 96)   0           dense_0_2_bn[0][0]               
__________________________________________________________________________________________________
dense_0_2_bottleneck_conv2D (Co (None, 32, 96, 96)   1024        activation_147[0][0]             
__________________________________________________________________________________________________
dense_0_2_bottleneck_bn (BatchN (None, 32, 96, 96)   128         dense_0_2_bottleneck_conv2D[0][0]
__________________________________________________________________________________________________
activation_148 (Activation)     (None, 32, 96, 96)   0           dense_0_2_bottleneck_bn[0][0]    
__________________________________________________________________________________________________
dense_0_2_conv2D (Conv2D)       (None, 8, 96, 96)    2304        activation_148[0][0]             
__________________________________________________________________________________________________
concatenate_59 (Concatenate)    (None, 40, 96, 96)   0           concatenate_58[0][0]             
                                                                 dense_0_2_conv2D[0][0]           
__________________________________________________________________________________________________
tr_0_bn (BatchNormalization)    (None, 40, 96, 96)   160         concatenate_59[0][0]             
__________________________________________________________________________________________________
activation_149 (Activation)     (None, 40, 96, 96)   0           tr_0_bn[0][0]                    
__________________________________________________________________________________________________
tr_0_conv2D (Conv2D)            (None, 20, 96, 96)   800         activation_149[0][0]             
__________________________________________________________________________________________________
average_pooling2d_15 (AveragePo (None, 20, 48, 48)   0           tr_0_conv2D[0][0]                
__________________________________________________________________________________________________
dense_1_0_bn (BatchNormalizatio (None, 20, 48, 48)   80          average_pooling2d_15[0][0]       
__________________________________________________________________________________________________
activation_150 (Activation)     (None, 20, 48, 48)   0           dense_1_0_bn[0][0]               
__________________________________________________________________________________________________
dense_1_0_bottleneck_conv2D (Co (None, 32, 48, 48)   640         activation_150[0][0]             
__________________________________________________________________________________________________
dense_1_0_bottleneck_bn (BatchN (None, 32, 48, 48)   128         dense_1_0_bottleneck_conv2D[0][0]
__________________________________________________________________________________________________
activation_151 (Activation)     (None, 32, 48, 48)   0           dense_1_0_bottleneck_bn[0][0]    
__________________________________________________________________________________________________
dense_1_0_conv2D (Conv2D)       (None, 8, 48, 48)    2304        activation_151[0][0]             
__________________________________________________________________________________________________
concatenate_60 (Concatenate)    (None, 28, 48, 48)   0           average_pooling2d_15[0][0]       
                                                                 dense_1_0_conv2D[0][0]           
__________________________________________________________________________________________________
dense_1_1_bn (BatchNormalizatio (None, 28, 48, 48)   112         concatenate_60[0][0]             
__________________________________________________________________________________________________
activation_152 (Activation)     (None, 28, 48, 48)   0           dense_1_1_bn[0][0]               
__________________________________________________________________________________________________
dense_1_1_bottleneck_conv2D (Co (None, 32, 48, 48)   896         activation_152[0][0]             
__________________________________________________________________________________________________
dense_1_1_bottleneck_bn (BatchN (None, 32, 48, 48)   128         dense_1_1_bottleneck_conv2D[0][0]
__________________________________________________________________________________________________
activation_153 (Activation)     (None, 32, 48, 48)   0           dense_1_1_bottleneck_bn[0][0]    
__________________________________________________________________________________________________
dense_1_1_conv2D (Conv2D)       (None, 8, 48, 48)    2304        activation_153[0][0]             
__________________________________________________________________________________________________
concatenate_61 (Concatenate)    (None, 36, 48, 48)   0           concatenate_60[0][0]             
                                                                 dense_1_1_conv2D[0][0]           
__________________________________________________________________________________________________
dense_1_2_bn (BatchNormalizatio (None, 36, 48, 48)   144         concatenate_61[0][0]             
__________________________________________________________________________________________________
activation_154 (Activation)     (None, 36, 48, 48)   0           dense_1_2_bn[0][0]               
__________________________________________________________________________________________________
dense_1_2_bottleneck_conv2D (Co (None, 32, 48, 48)   1152        activation_154[0][0]             
__________________________________________________________________________________________________
dense_1_2_bottleneck_bn (BatchN (None, 32, 48, 48)   128         dense_1_2_bottleneck_conv2D[0][0]
__________________________________________________________________________________________________
activation_155 (Activation)     (None, 32, 48, 48)   0           dense_1_2_bottleneck_bn[0][0]    
__________________________________________________________________________________________________
dense_1_2_conv2D (Conv2D)       (None, 8, 48, 48)    2304        activation_155[0][0]             
__________________________________________________________________________________________________
concatenate_62 (Concatenate)    (None, 44, 48, 48)   0           concatenate_61[0][0]             
                                                                 dense_1_2_conv2D[0][0]           
__________________________________________________________________________________________________
final_bn (BatchNormalization)   (None, 44, 48, 48)   176         concatenate_62[0][0]             
__________________________________________________________________________________________________
activation_156 (Activation)     (None, 44, 48, 48)   0           final_bn[0][0]                   
__________________________________________________________________________________________________
global_average_pooling2d_17 (Gl (None, 44)           0           activation_156[0][0]             
__________________________________________________________________________________________________
dense_17 (Dense)                (None, 1)            45          global_average_pooling2d_17[0][0]
==================================================================================================
Total params: 21,677
Trainable params: 20,813
Non-trainable params: 864
__________________________________________________________________________________________________
Train on 39840 samples, validate on 7440 samples
Epoch 1/30
 - 41s - loss: 0.5792 - acc: 0.7417 - val_loss: 0.5242 - val_acc: 0.8468
…
7040/7440 [===========================>..] - ETA: 0s
7232/7440 [============================>.] - ETA: 0s
7440/7440 [==============================] - 6s 850us/step
Best saved model Test accuracy: 0.810752688172043
best saved model auc_score ------------------>  0.9011987657532663
__________________________________________________________________________________________________
Layer (type)                    Output Shape         Param #     Connected to                     
==================================================================================================
input_21 (InputLayer)           (None, 2, 96, 96)    0                                            
__________________________________________________________________________________________________
initial_conv2D (Conv2D)         (None, 16, 96, 96)   288         input_21[0][0]                   
__________________________________________________________________________________________________
dense_0_0_bn (BatchNormalizatio (None, 16, 96, 96)   64          initial_conv2D[0][0]             
__________________________________________________________________________________________________
activation_181 (Activation)     (None, 16, 96, 96)   0           dense_0_0_bn[0][0]               
__________________________________________________________________________________________________
dense_0_0_bottleneck_conv2D (Co (None, 48, 96, 96)   768         activation_181[0][0]             
__________________________________________________________________________________________________
dense_0_0_bottleneck_bn (BatchN (None, 48, 96, 96)   192         dense_0_0_bottleneck_conv2D[0][0]
__________________________________________________________________________________________________
activation_182 (Activation)     (None, 48, 96, 96)   0           dense_0_0_bottleneck_bn[0][0]    
__________________________________________________________________________________________________
dense_0_0_conv2D (Conv2D)       (None, 12, 96, 96)   5184        activation_182[0][0]             
__________________________________________________________________________________________________
concatenate_73 (Concatenate)    (None, 28, 96, 96)   0           initial_conv2D[0][0]             
                                                                 dense_0_0_conv2D[0][0]           
__________________________________________________________________________________________________
final_bn (BatchNormalization)   (None, 28, 96, 96)   112         concatenate_73[0][0]             
__________________________________________________________________________________________________
activation_183 (Activation)     (None, 28, 96, 96)   0           final_bn[0][0]                   
__________________________________________________________________________________________________
global_average_pooling2d_21 (Gl (None, 28)           0           activation_183[0][0]             
__________________________________________________________________________________________________
dense_21 (Dense)                (None, 1)            29          global_average_pooling2d_21[0][0]
==================================================================================================
Total params: 6,637
Trainable params: 6,453
Non-trainable params: 184
__________________________________________________________________________________________________
Train on 39840 samples, validate on 7440 samples
Epoch 1/30
 - 25s - loss: 0.6360 - acc: 0.6829 - val_loss: 0.5381 - val_acc: 0.8300
…
7136/7440 [===========================>..] - ETA: 0s
7392/7440 [============================>.] - ETA: 0s
7440/7440 [==============================] - 6s 823us/step
Best saved model Test accuracy: 0.8291666666666667
best saved model auc_score ------------------>  0.8724172230893744
__________________________________________________________________________________________________
Layer (type)                    Output Shape         Param #     Connected to                     
==================================================================================================
input_22 (InputLayer)           (None, 2, 96, 96)    0                                            
__________________________________________________________________________________________________
initial_conv2D (Conv2D)         (None, 16, 96, 96)   288         input_22[0][0]                   
__________________________________________________________________________________________________
dense_0_0_bn (BatchNormalizatio (None, 16, 96, 96)   64          initial_conv2D[0][0]             
__________________________________________________________________________________________________
activation_184 (Activation)     (None, 16, 96, 96)   0           dense_0_0_bn[0][0]               
__________________________________________________________________________________________________
dense_0_0_bottleneck_conv2D (Co (None, 56, 96, 96)   896         activation_184[0][0]             
__________________________________________________________________________________________________
dense_0_0_bottleneck_bn (BatchN (None, 56, 96, 96)   224         dense_0_0_bottleneck_conv2D[0][0]
__________________________________________________________________________________________________
activation_185 (Activation)     (None, 56, 96, 96)   0           dense_0_0_bottleneck_bn[0][0]    
__________________________________________________________________________________________________
dense_0_0_conv2D (Conv2D)       (None, 14, 96, 96)   7056        activation_185[0][0]             
__________________________________________________________________________________________________
concatenate_74 (Concatenate)    (None, 30, 96, 96)   0           initial_conv2D[0][0]             
                                                                 dense_0_0_conv2D[0][0]           
__________________________________________________________________________________________________
tr_0_bn (BatchNormalization)    (None, 30, 96, 96)   120         concatenate_74[0][0]             
__________________________________________________________________________________________________
activation_186 (Activation)     (None, 30, 96, 96)   0           tr_0_bn[0][0]                    
__________________________________________________________________________________________________
tr_0_conv2D (Conv2D)            (None, 15, 96, 96)   450         activation_186[0][0]             
__________________________________________________________________________________________________
average_pooling2d_17 (AveragePo (None, 15, 48, 48)   0           tr_0_conv2D[0][0]                
__________________________________________________________________________________________________
dense_1_0_bn (BatchNormalizatio (None, 15, 48, 48)   60          average_pooling2d_17[0][0]       
__________________________________________________________________________________________________
activation_187 (Activation)     (None, 15, 48, 48)   0           dense_1_0_bn[0][0]               
__________________________________________________________________________________________________
dense_1_0_bottleneck_conv2D (Co (None, 56, 48, 48)   840         activation_187[0][0]             
__________________________________________________________________________________________________
dense_1_0_bottleneck_bn (BatchN (None, 56, 48, 48)   224         dense_1_0_bottleneck_conv2D[0][0]
__________________________________________________________________________________________________
activation_188 (Activation)     (None, 56, 48, 48)   0           dense_1_0_bottleneck_bn[0][0]    
__________________________________________________________________________________________________
dense_1_0_conv2D (Conv2D)       (None, 14, 48, 48)   7056        activation_188[0][0]             
__________________________________________________________________________________________________
concatenate_75 (Concatenate)    (None, 29, 48, 48)   0           average_pooling2d_17[0][0]       
                                                                 dense_1_0_conv2D[0][0]           
__________________________________________________________________________________________________
tr_1_bn (BatchNormalization)    (None, 29, 48, 48)   116         concatenate_75[0][0]             
__________________________________________________________________________________________________
activation_189 (Activation)     (None, 29, 48, 48)   0           tr_1_bn[0][0]                    
__________________________________________________________________________________________________
tr_1_conv2D (Conv2D)            (None, 14, 48, 48)   406         activation_189[0][0]             
__________________________________________________________________________________________________
average_pooling2d_18 (AveragePo (None, 14, 24, 24)   0           tr_1_conv2D[0][0]                
__________________________________________________________________________________________________
dense_2_0_bn (BatchNormalizatio (None, 14, 24, 24)   56          average_pooling2d_18[0][0]       
__________________________________________________________________________________________________
activation_190 (Activation)     (None, 14, 24, 24)   0           dense_2_0_bn[0][0]               
__________________________________________________________________________________________________
dense_2_0_bottleneck_conv2D (Co (None, 56, 24, 24)   784         activation_190[0][0]             
__________________________________________________________________________________________________
dense_2_0_bottleneck_bn (BatchN (None, 56, 24, 24)   224         dense_2_0_bottleneck_conv2D[0][0]
__________________________________________________________________________________________________
activation_191 (Activation)     (None, 56, 24, 24)   0           dense_2_0_bottleneck_bn[0][0]    
__________________________________________________________________________________________________
dense_2_0_conv2D (Conv2D)       (None, 14, 24, 24)   7056        activation_191[0][0]             
__________________________________________________________________________________________________
concatenate_76 (Concatenate)    (None, 28, 24, 24)   0           average_pooling2d_18[0][0]       
                                                                 dense_2_0_conv2D[0][0]           
__________________________________________________________________________________________________
final_bn (BatchNormalization)   (None, 28, 24, 24)   112         concatenate_76[0][0]             
__________________________________________________________________________________________________
activation_192 (Activation)     (None, 28, 24, 24)   0           final_bn[0][0]                   
__________________________________________________________________________________________________
global_average_pooling2d_22 (Gl (None, 28)           0           activation_192[0][0]             
__________________________________________________________________________________________________
dense_22 (Dense)                (None, 1)            29          global_average_pooling2d_22[0][0]
==================================================================================================
Total params: 26,061
Trainable params: 25,461
Non-trainable params: 600
__________________________________________________________________________________________________
Train on 39840 samples, validate on 7440 samples
Epoch 1/30
 - 32s - loss: 0.5451 - acc: 0.7603 - val_loss: 0.4934 - val_acc: 0.8109
…
7200/7440 [============================>.] - ETA: 0s
7360/7440 [============================>.] - ETA: 0s
7440/7440 [==============================] - 8s 1ms/step
Best saved model Test accuracy: 0.8060483870967742
best saved model auc_score ------------------>  0.8842333289975719
__________________________________________________________________________________________________
Layer (type)                    Output Shape         Param #     Connected to                     
==================================================================================================
input_24 (InputLayer)           (None, 2, 96, 96)    0                                            
__________________________________________________________________________________________________
initial_conv2D (Conv2D)         (None, 16, 96, 96)   288         input_24[0][0]                   
__________________________________________________________________________________________________
dense_0_0_bn (BatchNormalizatio (None, 16, 96, 96)   64          initial_conv2D[0][0]             
__________________________________________________________________________________________________
activation_200 (Activation)     (None, 16, 96, 96)   0           dense_0_0_bn[0][0]               
__________________________________________________________________________________________________
dense_0_0_bottleneck_conv2D (Co (None, 32, 96, 96)   512         activation_200[0][0]             
__________________________________________________________________________________________________
dense_0_0_bottleneck_bn (BatchN (None, 32, 96, 96)   128         dense_0_0_bottleneck_conv2D[0][0]
__________________________________________________________________________________________________
activation_201 (Activation)     (None, 32, 96, 96)   0           dense_0_0_bottleneck_bn[0][0]    
__________________________________________________________________________________________________
dense_0_0_conv2D (Conv2D)       (None, 8, 96, 96)    2304        activation_201[0][0]             
__________________________________________________________________________________________________
concatenate_80 (Concatenate)    (None, 24, 96, 96)   0           initial_conv2D[0][0]             
                                                                 dense_0_0_conv2D[0][0]           
__________________________________________________________________________________________________
final_bn (BatchNormalization)   (None, 24, 96, 96)   96          concatenate_80[0][0]             
__________________________________________________________________________________________________
activation_202 (Activation)     (None, 24, 96, 96)   0           final_bn[0][0]                   
__________________________________________________________________________________________________
global_average_pooling2d_24 (Gl (None, 24)           0           activation_202[0][0]             
__________________________________________________________________________________________________
dense_24 (Dense)                (None, 1)            25          global_average_pooling2d_24[0][0]
==================================================================================================
Total params: 3,417
Trainable params: 3,273
Non-trainable params: 144
__________________________________________________________________________________________________
Train on 39840 samples, validate on 7440 samples
Epoch 1/30
 - 25s - loss: 0.6324 - acc: 0.6758 - val_loss: 0.5430 - val_acc: 0.8171
…
7200/7440 [============================>.] - ETA: 0s
7360/7440 [============================>.] - ETA: 0s
7440/7440 [==============================] - 8s 1ms/step
Best saved model Test accuracy: 0.8286290322580645
best saved model auc_score ------------------>  0.9006471123829344
__________________________________________________________________________________________________
Layer (type)                    Output Shape         Param #     Connected to                     
==================================================================================================
input_26 (InputLayer)           (None, 2, 96, 96)    0                                            
__________________________________________________________________________________________________
initial_conv2D (Conv2D)         (None, 16, 96, 96)   288         input_26[0][0]                   
__________________________________________________________________________________________________
dense_0_0_bn (BatchNormalizatio (None, 16, 96, 96)   64          initial_conv2D[0][0]             
__________________________________________________________________________________________________
activation_210 (Activation)     (None, 16, 96, 96)   0           dense_0_0_bn[0][0]               
__________________________________________________________________________________________________
dense_0_0_bottleneck_conv2D (Co (None, 48, 96, 96)   768         activation_210[0][0]             
__________________________________________________________________________________________________
dense_0_0_bottleneck_bn (BatchN (None, 48, 96, 96)   192         dense_0_0_bottleneck_conv2D[0][0]
__________________________________________________________________________________________________
activation_211 (Activation)     (None, 48, 96, 96)   0           dense_0_0_bottleneck_bn[0][0]    
__________________________________________________________________________________________________
dense_0_0_conv2D (Conv2D)       (None, 12, 96, 96)   5184        activation_211[0][0]             
__________________________________________________________________________________________________
concatenate_84 (Concatenate)    (None, 28, 96, 96)   0           initial_conv2D[0][0]             
                                                                 dense_0_0_conv2D[0][0]           
__________________________________________________________________________________________________
dense_0_1_bn (BatchNormalizatio (None, 28, 96, 96)   112         concatenate_84[0][0]             
__________________________________________________________________________________________________
activation_212 (Activation)     (None, 28, 96, 96)   0           dense_0_1_bn[0][0]               
__________________________________________________________________________________________________
dense_0_1_bottleneck_conv2D (Co (None, 48, 96, 96)   1344        activation_212[0][0]             
__________________________________________________________________________________________________
dense_0_1_bottleneck_bn (BatchN (None, 48, 96, 96)   192         dense_0_1_bottleneck_conv2D[0][0]
__________________________________________________________________________________________________
activation_213 (Activation)     (None, 48, 96, 96)   0           dense_0_1_bottleneck_bn[0][0]    
__________________________________________________________________________________________________
dense_0_1_conv2D (Conv2D)       (None, 12, 96, 96)   5184        activation_213[0][0]             
__________________________________________________________________________________________________
concatenate_85 (Concatenate)    (None, 40, 96, 96)   0           concatenate_84[0][0]             
                                                                 dense_0_1_conv2D[0][0]           
__________________________________________________________________________________________________
dense_0_2_bn (BatchNormalizatio (None, 40, 96, 96)   160         concatenate_85[0][0]             
__________________________________________________________________________________________________
activation_214 (Activation)     (None, 40, 96, 96)   0           dense_0_2_bn[0][0]               
__________________________________________________________________________________________________
dense_0_2_bottleneck_conv2D (Co (None, 48, 96, 96)   1920        activation_214[0][0]             
__________________________________________________________________________________________________
dense_0_2_bottleneck_bn (BatchN (None, 48, 96, 96)   192         dense_0_2_bottleneck_conv2D[0][0]
__________________________________________________________________________________________________
activation_215 (Activation)     (None, 48, 96, 96)   0           dense_0_2_bottleneck_bn[0][0]    
…
                                                                 dense_0_2_conv2D[0][0]           
__________________________________________________________________________________________________
tr_0_bn (BatchNormalization)    (None, 52, 96, 96)   208         concatenate_86[0][0]             
__________________________________________________________________________________________________
activation_216 (Activation)     (None, 52, 96, 96)   0           tr_0_bn[0][0]                    
__________________________________________________________________________________________________
tr_0_conv2D (Conv2D)            (None, 26, 96, 96)   1352        activation_216[0][0]             
__________________________________________________________________________________________________
average_pooling2d_19 (AveragePo (None, 26, 48, 48)   0           tr_0_conv2D[0][0]                
__________________________________________________________________________________________________
dense_1_0_bn (BatchNormalizatio (None, 26, 48, 48)   104         average_pooling2d_19[0][0]       
__________________________________________________________________________________________________
activation_217 (Activation)     (None, 26, 48, 48)   0           dense_1_0_bn[0][0]               
__________________________________________________________________________________________________
dense_1_0_bottleneck_conv2D (Co (None, 48, 48, 48)   1248        activation_217[0][0]             
__________________________________________________________________________________________________
dense_1_0_bottleneck_bn (BatchN (None, 48, 48, 48)   192         dense_1_0_bottleneck_conv2D[0][0]
__________________________________________________________________________________________________
activation_218 (Activation)     (None, 48, 48, 48)   0           dense_1_0_bottleneck_bn[0][0]    
__________________________________________________________________________________________________
dense_1_0_conv2D (Conv2D)       (None, 12, 48, 48)   5184        activation_218[0][0]             
__________________________________________________________________________________________________
concatenate_87 (Concatenate)    (None, 38, 48, 48)   0           average_pooling2d_19[0][0]       
                                                                 dense_1_0_conv2D[0][0]           
__________________________________________________________________________________________________
dense_1_1_bn (BatchNormalizatio (None, 38, 48, 48)   152         concatenate_87[0][0]             
__________________________________________________________________________________________________
activation_219 (Activation)     (None, 38, 48, 48)   0           dense_1_1_bn[0][0]               
__________________________________________________________________________________________________
dense_1_1_bottleneck_conv2D (Co (None, 48, 48, 48)   1824        activation_219[0][0]             
__________________________________________________________________________________________________
dense_1_1_bottleneck_bn (BatchN (None, 48, 48, 48)   192         dense_1_1_bottleneck_conv2D[0][0]
__________________________________________________________________________________________________
activation_220 (Activation)     (None, 48, 48, 48)   0           dense_1_1_bottleneck_bn[0][0]    
__________________________________________________________________________________________________
dense_1_1_conv2D (Conv2D)       (None, 12, 48, 48)   5184        activation_220[0][0]             
__________________________________________________________________________________________________
concatenate_88 (Concatenate)    (None, 50, 48, 48)   0           concatenate_87[0][0]             
                                                                 dense_1_1_conv2D[0][0]           
__________________________________________________________________________________________________
dense_1_2_bn (BatchNormalizatio (None, 50, 48, 48)   200         concatenate_88[0][0]             
__________________________________________________________________________________________________
activation_221 (Activation)     (None, 50, 48, 48)   0           dense_1_2_bn[0][0]               
__________________________________________________________________________________________________
dense_1_2_bottleneck_conv2D (Co (None, 48, 48, 48)   2400        activation_221[0][0]             
__________________________________________________________________________________________________
dense_1_2_bottleneck_bn (BatchN (None, 48, 48, 48)   192         dense_1_2_bottleneck_conv2D[0][0]
__________________________________________________________________________________________________
activation_222 (Activation)     (None, 48, 48, 48)   0           dense_1_2_bottleneck_bn[0][0]    
__________________________________________________________________________________________________
dense_1_2_conv2D (Conv2D)       (None, 12, 48, 48)   5184        activation_222[0][0]             
__________________________________________________________________________________________________
concatenate_89 (Concatenate)    (None, 62, 48, 48)   0           concatenate_88[0][0]             
                                                                 dense_1_2_conv2D[0][0]           
__________________________________________________________________________________________________
final_bn (BatchNormalization)   (None, 62, 48, 48)   248         concatenate_89[0][0]             
__________________________________________________________________________________________________
activation_223 (Activation)     (None, 62, 48, 48)   0           final_bn[0][0]                   
__________________________________________________________________________________________________
global_average_pooling2d_26 (Gl (None, 62)           0           activation_223[0][0]             
__________________________________________________________________________________________________
dense_26 (Dense)                (None, 1)            63          global_average_pooling2d_26[0][0]
==================================================================================================
Total params: 44,711
Trainable params: 43,511
Non-trainable params: 1,200
__________________________________________________________________________________________________
Train on 39840 samples, validate on 7440 samples
Epoch 1/30
 - 54s - loss: 0.5791 - acc: 0.7532 - val_loss: 0.5540 - val_acc: 0.8156
…
7200/7440 [============================>.] - ETA: 0s
7424/7440 [============================>.] - ETA: 0s
7440/7440 [==============================] - 8s 1ms/step
Best saved model Test accuracy: 0.8377688172043011
best saved model auc_score ------------------>  0.9177841368944386
__________________________________________________________________________________________________
Layer (type)                    Output Shape         Param #     Connected to                     
==================================================================================================
input_28 (InputLayer)           (None, 2, 96, 96)    0                                            
__________________________________________________________________________________________________
initial_conv2D (Conv2D)         (None, 16, 96, 96)   288         input_28[0][0]                   
__________________________________________________________________________________________________
dense_0_0_bn (BatchNormalizatio (None, 16, 96, 96)   64          initial_conv2D[0][0]             
__________________________________________________________________________________________________
activation_233 (Activation)     (None, 16, 96, 96)   0           dense_0_0_bn[0][0]               
__________________________________________________________________________________________________
dense_0_0_bottleneck_conv2D (Co (None, 64, 96, 96)   1024        activation_233[0][0]             
__________________________________________________________________________________________________
dense_0_0_bottleneck_bn (BatchN (None, 64, 96, 96)   256         dense_0_0_bottleneck_conv2D[0][0]
__________________________________________________________________________________________________
activation_234 (Activation)     (None, 64, 96, 96)   0           dense_0_0_bottleneck_bn[0][0]    
__________________________________________________________________________________________________
dense_0_0_conv2D (Conv2D)       (None, 16, 96, 96)   9216        activation_234[0][0]             
__________________________________________________________________________________________________
concatenate_93 (Concatenate)    (None, 32, 96, 96)   0           initial_conv2D[0][0]             
                                                                 dense_0_0_conv2D[0][0]           
__________________________________________________________________________________________________
tr_0_bn (BatchNormalization)    (None, 32, 96, 96)   128         concatenate_93[0][0]             
__________________________________________________________________________________________________
activation_235 (Activation)     (None, 32, 96, 96)   0           tr_0_bn[0][0]                    
__________________________________________________________________________________________________
tr_0_conv2D (Conv2D)            (None, 16, 96, 96)   512         activation_235[0][0]             
__________________________________________________________________________________________________
average_pooling2d_22 (AveragePo (None, 16, 48, 48)   0           tr_0_conv2D[0][0]                
__________________________________________________________________________________________________
dense_1_0_bn (BatchNormalizatio (None, 16, 48, 48)   64          average_pooling2d_22[0][0]       
__________________________________________________________________________________________________
activation_236 (Activation)     (None, 16, 48, 48)   0           dense_1_0_bn[0][0]               
__________________________________________________________________________________________________
dense_1_0_bottleneck_conv2D (Co (None, 64, 48, 48)   1024        activation_236[0][0]             
__________________________________________________________________________________________________
dense_1_0_bottleneck_bn (BatchN (None, 64, 48, 48)   256         dense_1_0_bottleneck_conv2D[0][0]
__________________________________________________________________________________________________
activation_237 (Activation)     (None, 64, 48, 48)   0           dense_1_0_bottleneck_bn[0][0]    
__________________________________________________________________________________________________
dense_1_0_conv2D (Conv2D)       (None, 16, 48, 48)   9216        activation_237[0][0]             
__________________________________________________________________________________________________
concatenate_94 (Concatenate)    (None, 32, 48, 48)   0           average_pooling2d_22[0][0]       
                                                                 dense_1_0_conv2D[0][0]           
__________________________________________________________________________________________________
final_bn (BatchNormalization)   (None, 32, 48, 48)   128         concatenate_94[0][0]             
__________________________________________________________________________________________________
activation_238 (Activation)     (None, 32, 48, 48)   0           final_bn[0][0]                   
__________________________________________________________________________________________________
global_average_pooling2d_28 (Gl (None, 32)           0           activation_238[0][0]             
__________________________________________________________________________________________________
dense_28 (Dense)                (None, 1)            33          global_average_pooling2d_28[0][0]
==================================================================================================
Total params: 22,209
Trainable params: 21,761
Non-trainable params: 448
__________________________________________________________________________________________________
Train on 39840 samples, validate on 7440 samples
Epoch 1/30
 - 35s - loss: 0.5706 - acc: 0.7376 - val_loss: 0.5278 - val_acc: 0.7907
…
7104/7440 [===========================>..] - ETA: 0s
7296/7440 [============================>.] - ETA: 0s
7440/7440 [==============================] - 9s 1ms/step
Best saved model Test accuracy: 0.8211021505376344
best saved model auc_score ------------------>  0.8946490201179328
__________________________________________________________________________________________________
Layer (type)                    Output Shape         Param #     Connected to                     
==================================================================================================
input_29 (InputLayer)           (None, 2, 96, 96)    0                                            
__________________________________________________________________________________________________
initial_conv2D (Conv2D)         (None, 16, 96, 96)   288         input_29[0][0]                   
__________________________________________________________________________________________________
dense_0_0_bn (BatchNormalizatio (None, 16, 96, 96)   64          initial_conv2D[0][0]             
__________________________________________________________________________________________________
activation_239 (Activation)     (None, 16, 96, 96)   0           dense_0_0_bn[0][0]               
__________________________________________________________________________________________________
dense_0_0_bottleneck_conv2D (Co (None, 32, 96, 96)   512         activation_239[0][0]             
__________________________________________________________________________________________________
dense_0_0_bottleneck_bn (BatchN (None, 32, 96, 96)   128         dense_0_0_bottleneck_conv2D[0][0]
__________________________________________________________________________________________________
activation_240 (Activation)     (None, 32, 96, 96)   0           dense_0_0_bottleneck_bn[0][0]    
__________________________________________________________________________________________________
dense_0_0_conv2D (Conv2D)       (None, 8, 96, 96)    2304        activation_240[0][0]             
__________________________________________________________________________________________________
concatenate_95 (Concatenate)    (None, 24, 96, 96)   0           initial_conv2D[0][0]             
                                                                 dense_0_0_conv2D[0][0]           
__________________________________________________________________________________________________
dense_0_1_bn (BatchNormalizatio (None, 24, 96, 96)   96          concatenate_95[0][0]             
__________________________________________________________________________________________________
activation_241 (Activation)     (None, 24, 96, 96)   0           dense_0_1_bn[0][0]               
__________________________________________________________________________________________________
dense_0_1_bottleneck_conv2D (Co (None, 32, 96, 96)   768         activation_241[0][0]             
__________________________________________________________________________________________________
dense_0_1_bottleneck_bn (BatchN (None, 32, 96, 96)   128         dense_0_1_bottleneck_conv2D[0][0]
__________________________________________________________________________________________________
activation_242 (Activation)     (None, 32, 96, 96)   0           dense_0_1_bottleneck_bn[0][0]    
__________________________________________________________________________________________________
dense_0_1_conv2D (Conv2D)       (None, 8, 96, 96)    2304        activation_242[0][0]             
__________________________________________________________________________________________________
concatenate_96 (Concatenate)    (None, 32, 96, 96)   0           concatenate_95[0][0]             
                                                                 dense_0_1_conv2D[0][0]           
__________________________________________________________________________________________________
dense_0_2_bn (BatchNormalizatio (None, 32, 96, 96)   128         concatenate_96[0][0]             
__________________________________________________________________________________________________
activation_243 (Activation)     (None, 32, 96, 96)   0           dense_0_2_bn[0][0]               
__________________________________________________________________________________________________
dense_0_2_bottleneck_conv2D (Co (None, 32, 96, 96)   1024        activation_243[0][0]             
__________________________________________________________________________________________________
dense_0_2_bottleneck_bn (BatchN (None, 32, 96, 96)   128         dense_0_2_bottleneck_conv2D[0][0]
__________________________________________________________________________________________________
activation_244 (Activation)     (None, 32, 96, 96)   0           dense_0_2_bottleneck_bn[0][0]    
__________________________________________________________________________________________________
dense_0_2_conv2D (Conv2D)       (None, 8, 96, 96)    2304        activation_244[0][0]             
__________________________________________________________________________________________________
concatenate_97 (Concatenate)    (None, 40, 96, 96)   0           concatenate_96[0][0]             
                                                                 dense_0_2_conv2D[0][0]           
__________________________________________________________________________________________________
tr_0_bn (BatchNormalization)    (None, 40, 96, 96)   160         concatenate_97[0][0]             
__________________________________________________________________________________________________
activation_245 (Activation)     (None, 40, 96, 96)   0           tr_0_bn[0][0]                    
__________________________________________________________________________________________________
tr_0_conv2D (Conv2D)            (None, 20, 96, 96)   800         activation_245[0][0]             
__________________________________________________________________________________________________
average_pooling2d_23 (AveragePo (None, 20, 48, 48)   0           tr_0_conv2D[0][0]                
__________________________________________________________________________________________________
dense_1_0_bn (BatchNormalizatio (None, 20, 48, 48)   80          average_pooling2d_23[0][0]       
__________________________________________________________________________________________________
activation_246 (Activation)     (None, 20, 48, 48)   0           dense_1_0_bn[0][0]               
__________________________________________________________________________________________________
dense_1_0_bottleneck_conv2D (Co (None, 32, 48, 48)   640         activation_246[0][0]             
__________________________________________________________________________________________________
dense_1_0_bottleneck_bn (BatchN (None, 32, 48, 48)   128         dense_1_0_bottleneck_conv2D[0][0]
__________________________________________________________________________________________________
activation_247 (Activation)     (None, 32, 48, 48)   0           dense_1_0_bottleneck_bn[0][0]    
__________________________________________________________________________________________________
dense_1_0_conv2D (Conv2D)       (None, 8, 48, 48)    2304        activation_247[0][0]             
__________________________________________________________________________________________________
concatenate_98 (Concatenate)    (None, 28, 48, 48)   0           average_pooling2d_23[0][0]       
                                                                 dense_1_0_conv2D[0][0]           
__________________________________________________________________________________________________
dense_1_1_bn (BatchNormalizatio (None, 28, 48, 48)   112         concatenate_98[0][0]             
__________________________________________________________________________________________________
activation_248 (Activation)     (None, 28, 48, 48)   0           dense_1_1_bn[0][0]               
__________________________________________________________________________________________________
dense_1_1_bottleneck_conv2D (Co (None, 32, 48, 48)   896         activation_248[0][0]             
__________________________________________________________________________________________________
dense_1_1_bottleneck_bn (BatchN (None, 32, 48, 48)   128         dense_1_1_bottleneck_conv2D[0][0]
__________________________________________________________________________________________________
activation_249 (Activation)     (None, 32, 48, 48)   0           dense_1_1_bottleneck_bn[0][0]    
__________________________________________________________________________________________________
dense_1_1_conv2D (Conv2D)       (None, 8, 48, 48)    2304        activation_249[0][0]             
__________________________________________________________________________________________________
concatenate_99 (Concatenate)    (None, 36, 48, 48)   0           concatenate_98[0][0]             
                                                                 dense_1_1_conv2D[0][0]           
__________________________________________________________________________________________________
dense_1_2_bn (BatchNormalizatio (None, 36, 48, 48)   144         concatenate_99[0][0]             
__________________________________________________________________________________________________
activation_250 (Activation)     (None, 36, 48, 48)   0           dense_1_2_bn[0][0]               
__________________________________________________________________________________________________
dense_1_2_bottleneck_conv2D (Co (None, 32, 48, 48)   1152        activation_250[0][0]             
__________________________________________________________________________________________________
dense_1_2_bottleneck_bn (BatchN (None, 32, 48, 48)   128         dense_1_2_bottleneck_conv2D[0][0]
__________________________________________________________________________________________________
activation_251 (Activation)     (None, 32, 48, 48)   0           dense_1_2_bottleneck_bn[0][0]    
__________________________________________________________________________________________________
dense_1_2_conv2D (Conv2D)       (None, 8, 48, 48)    2304        activation_251[0][0]             
__________________________________________________________________________________________________
concatenate_100 (Concatenate)   (None, 44, 48, 48)   0           concatenate_99[0][0]             
                                                                 dense_1_2_conv2D[0][0]           
__________________________________________________________________________________________________
tr_1_bn (BatchNormalization)    (None, 44, 48, 48)   176         concatenate_100[0][0]            
__________________________________________________________________________________________________
activation_252 (Activation)     (None, 44, 48, 48)   0           tr_1_bn[0][0]                    
__________________________________________________________________________________________________
tr_1_conv2D (Conv2D)            (None, 22, 48, 48)   968         activation_252[0][0]             
__________________________________________________________________________________________________
average_pooling2d_24 (AveragePo (None, 22, 24, 24)   0           tr_1_conv2D[0][0]                
__________________________________________________________________________________________________
dense_2_0_bn (BatchNormalizatio (None, 22, 24, 24)   88          average_pooling2d_24[0][0]       
__________________________________________________________________________________________________
activation_253 (Activation)     (None, 22, 24, 24)   0           dense_2_0_bn[0][0]               
__________________________________________________________________________________________________
dense_2_0_bottleneck_conv2D (Co (None, 32, 24, 24)   704         activation_253[0][0]             
__________________________________________________________________________________________________
dense_2_0_bottleneck_bn (BatchN (None, 32, 24, 24)   128         dense_2_0_bottleneck_conv2D[0][0]
__________________________________________________________________________________________________
activation_254 (Activation)     (None, 32, 24, 24)   0           dense_2_0_bottleneck_bn[0][0]    
__________________________________________________________________________________________________
dense_2_0_conv2D (Conv2D)       (None, 8, 24, 24)    2304        activation_254[0][0]             
__________________________________________________________________________________________________
concatenate_101 (Concatenate)   (None, 30, 24, 24)   0           average_pooling2d_24[0][0]       
                                                                 dense_2_0_conv2D[0][0]           
__________________________________________________________________________________________________
dense_2_1_bn (BatchNormalizatio (None, 30, 24, 24)   120         concatenate_101[0][0]            
__________________________________________________________________________________________________
activation_255 (Activation)     (None, 30, 24, 24)   0           dense_2_1_bn[0][0]               
__________________________________________________________________________________________________
dense_2_1_bottleneck_conv2D (Co (None, 32, 24, 24)   960         activation_255[0][0]             
__________________________________________________________________________________________________
dense_2_1_bottleneck_bn (BatchN (None, 32, 24, 24)   128         dense_2_1_bottleneck_conv2D[0][0]
__________________________________________________________________________________________________
activation_256 (Activation)     (None, 32, 24, 24)   0           dense_2_1_bottleneck_bn[0][0]    
__________________________________________________________________________________________________
dense_2_1_conv2D (Conv2D)       (None, 8, 24, 24)    2304        activation_256[0][0]             
__________________________________________________________________________________________________
concatenate_102 (Concatenate)   (None, 38, 24, 24)   0           concatenate_101[0][0]            
                                                                 dense_2_1_conv2D[0][0]           
__________________________________________________________________________________________________
dense_2_2_bn (BatchNormalizatio (None, 38, 24, 24)   152         concatenate_102[0][0]            
__________________________________________________________________________________________________
activation_257 (Activation)     (None, 38, 24, 24)   0           dense_2_2_bn[0][0]               
__________________________________________________________________________________________________
dense_2_2_bottleneck_conv2D (Co (None, 32, 24, 24)   1216        activation_257[0][0]             
__________________________________________________________________________________________________
dense_2_2_bottleneck_bn (BatchN (None, 32, 24, 24)   128         dense_2_2_bottleneck_conv2D[0][0]
__________________________________________________________________________________________________
activation_258 (Activation)     (None, 32, 24, 24)   0           dense_2_2_bottleneck_bn[0][0]    
__________________________________________________________________________________________________
dense_2_2_conv2D (Conv2D)       (None, 8, 24, 24)    2304        activation_258[0][0]             
__________________________________________________________________________________________________
concatenate_103 (Concatenate)   (None, 46, 24, 24)   0           concatenate_102[0][0]            
                                                                 dense_2_2_conv2D[0][0]           
__________________________________________________________________________________________________
final_bn (BatchNormalization)   (None, 46, 24, 24)   184         concatenate_103[0][0]            
__________________________________________________________________________________________________
activation_259 (Activation)     (None, 46, 24, 24)   0           final_bn[0][0]                   
__________________________________________________________________________________________________
global_average_pooling2d_29 (Gl (None, 46)           0           activation_259[0][0]             
__________________________________________________________________________________________________
dense_29 (Dense)                (None, 1)            47          global_average_pooling2d_29[0][0]
==================================================================================================
Total params: 33,367
Trainable params: 32,039
Non-trainable params: 1,328
__________________________________________________________________________________________________
Train on 39840 samples, validate on 7440 samples
Epoch 1/30
 - 55s - loss: 0.5565 - acc: 0.7637 - val_loss: 0.5047 - val_acc: 0.8181
…
7296/7440 [============================>.] - ETA: 0s
7424/7440 [============================>.] - ETA: 0s
7440/7440 [==============================] - 16s 2ms/step
Best saved model Test accuracy: 0.8401881720430108
best saved model auc_score ------------------>  0.9258607208925889
__________________________________________________________________________________________________
Layer (type)                    Output Shape         Param #     Connected to                     
==================================================================================================
input_36 (InputLayer)           (None, 2, 96, 96)    0                                            
__________________________________________________________________________________________________
initial_conv2D (Conv2D)         (None, 16, 96, 96)   288         input_36[0][0]                   
__________________________________________________________________________________________________
dense_0_0_bn (BatchNormalizatio (None, 16, 96, 96)   64          initial_conv2D[0][0]             
__________________________________________________________________________________________________
activation_368 (Activation)     (None, 16, 96, 96)   0           dense_0_0_bn[0][0]               
__________________________________________________________________________________________________
dense_0_0_bottleneck_conv2D (Co (None, 40, 96, 96)   640         activation_368[0][0]             
__________________________________________________________________________________________________
dense_0_0_bottleneck_bn (BatchN (None, 40, 96, 96)   160         dense_0_0_bottleneck_conv2D[0][0]
__________________________________________________________________________________________________
activation_369 (Activation)     (None, 40, 96, 96)   0           dense_0_0_bottleneck_bn[0][0]    
__________________________________________________________________________________________________
dense_0_0_conv2D (Conv2D)       (None, 10, 96, 96)   3600        activation_369[0][0]             
__________________________________________________________________________________________________
concatenate_149 (Concatenate)   (None, 26, 96, 96)   0           initial_conv2D[0][0]             
                                                                 dense_0_0_conv2D[0][0]           
__________________________________________________________________________________________________
dense_0_1_bn (BatchNormalizatio (None, 26, 96, 96)   104         concatenate_149[0][0]            
__________________________________________________________________________________________________
activation_370 (Activation)     (None, 26, 96, 96)   0           dense_0_1_bn[0][0]               
__________________________________________________________________________________________________
dense_0_1_bottleneck_conv2D (Co (None, 40, 96, 96)   1040        activation_370[0][0]             
__________________________________________________________________________________________________
dense_0_1_bottleneck_bn (BatchN (None, 40, 96, 96)   160         dense_0_1_bottleneck_conv2D[0][0]
__________________________________________________________________________________________________
activation_371 (Activation)     (None, 40, 96, 96)   0           dense_0_1_bottleneck_bn[0][0]    
__________________________________________________________________________________________________
dense_0_1_conv2D (Conv2D)       (None, 10, 96, 96)   3600        activation_371[0][0]             
__________________________________________________________________________________________________
concatenate_150 (Concatenate)   (None, 36, 96, 96)   0           concatenate_149[0][0]            
                                                                 dense_0_1_conv2D[0][0]           
__________________________________________________________________________________________________
tr_0_bn (BatchNormalization)    (None, 36, 96, 96)   144         concatenate_150[0][0]            
__________________________________________________________________________________________________
activation_372 (Activation)     (None, 36, 96, 96)   0           tr_0_bn[0][0]                    
__________________________________________________________________________________________________
tr_0_conv2D (Conv2D)            (None, 18, 96, 96)   648         activation_372[0][0]             
__________________________________________________________________________________________________
average_pooling2d_37 (AveragePo (None, 18, 48, 48)   0           tr_0_conv2D[0][0]                
__________________________________________________________________________________________________
dense_1_0_bn (BatchNormalizatio (None, 18, 48, 48)   72          average_pooling2d_37[0][0]       
__________________________________________________________________________________________________
activation_373 (Activation)     (None, 18, 48, 48)   0           dense_1_0_bn[0][0]               
__________________________________________________________________________________________________
dense_1_0_bottleneck_conv2D (Co (None, 40, 48, 48)   720         activation_373[0][0]             
__________________________________________________________________________________________________
dense_1_0_bottleneck_bn (BatchN (None, 40, 48, 48)   160         dense_1_0_bottleneck_conv2D[0][0]
__________________________________________________________________________________________________
activation_374 (Activation)     (None, 40, 48, 48)   0           dense_1_0_bottleneck_bn[0][0]    
__________________________________________________________________________________________________
dense_1_0_conv2D (Conv2D)       (None, 10, 48, 48)   3600        activation_374[0][0]             
__________________________________________________________________________________________________
concatenate_151 (Concatenate)   (None, 28, 48, 48)   0           average_pooling2d_37[0][0]       
                                                                 dense_1_0_conv2D[0][0]           
__________________________________________________________________________________________________
dense_1_1_bn (BatchNormalizatio (None, 28, 48, 48)   112         concatenate_151[0][0]            
__________________________________________________________________________________________________
activation_375 (Activation)     (None, 28, 48, 48)   0           dense_1_1_bn[0][0]               
__________________________________________________________________________________________________
dense_1_1_bottleneck_conv2D (Co (None, 40, 48, 48)   1120        activation_375[0][0]             
__________________________________________________________________________________________________
dense_1_1_bottleneck_bn (BatchN (None, 40, 48, 48)   160         dense_1_1_bottleneck_conv2D[0][0]
__________________________________________________________________________________________________
activation_376 (Activation)     (None, 40, 48, 48)   0           dense_1_1_bottleneck_bn[0][0]    
__________________________________________________________________________________________________
dense_1_1_conv2D (Conv2D)       (None, 10, 48, 48)   3600        activation_376[0][0]             
__________________________________________________________________________________________________
concatenate_152 (Concatenate)   (None, 38, 48, 48)   0           concatenate_151[0][0]            
                                                                 dense_1_1_conv2D[0][0]           
__________________________________________________________________________________________________
tr_1_bn (BatchNormalization)    (None, 38, 48, 48)   152         concatenate_152[0][0]            
__________________________________________________________________________________________________
activation_377 (Activation)     (None, 38, 48, 48)   0           tr_1_bn[0][0]                    
__________________________________________________________________________________________________
tr_1_conv2D (Conv2D)            (None, 19, 48, 48)   722         activation_377[0][0]             
__________________________________________________________________________________________________
average_pooling2d_38 (AveragePo (None, 19, 24, 24)   0           tr_1_conv2D[0][0]                
__________________________________________________________________________________________________
dense_2_0_bn (BatchNormalizatio (None, 19, 24, 24)   76          average_pooling2d_38[0][0]       
__________________________________________________________________________________________________
activation_378 (Activation)     (None, 19, 24, 24)   0           dense_2_0_bn[0][0]               
__________________________________________________________________________________________________
dense_2_0_bottleneck_conv2D (Co (None, 40, 24, 24)   760         activation_378[0][0]             
__________________________________________________________________________________________________
dense_2_0_bottleneck_bn (BatchN (None, 40, 24, 24)   160         dense_2_0_bottleneck_conv2D[0][0]
__________________________________________________________________________________________________
activation_379 (Activation)     (None, 40, 24, 24)   0           dense_2_0_bottleneck_bn[0][0]    
__________________________________________________________________________________________________
dense_2_0_conv2D (Conv2D)       (None, 10, 24, 24)   3600        activation_379[0][0]             
__________________________________________________________________________________________________
concatenate_153 (Concatenate)   (None, 29, 24, 24)   0           average_pooling2d_38[0][0]       
                                                                 dense_2_0_conv2D[0][0]           
__________________________________________________________________________________________________
dense_2_1_bn (BatchNormalizatio (None, 29, 24, 24)   116         concatenate_153[0][0]            
__________________________________________________________________________________________________
activation_380 (Activation)     (None, 29, 24, 24)   0           dense_2_1_bn[0][0]               
__________________________________________________________________________________________________
dense_2_1_bottleneck_conv2D (Co (None, 40, 24, 24)   1160        activation_380[0][0]             
__________________________________________________________________________________________________
dense_2_1_bottleneck_bn (BatchN (None, 40, 24, 24)   160         dense_2_1_bottleneck_conv2D[0][0]
__________________________________________________________________________________________________
activation_381 (Activation)     (None, 40, 24, 24)   0           dense_2_1_bottleneck_bn[0][0]    
__________________________________________________________________________________________________
dense_2_1_conv2D (Conv2D)       (None, 10, 24, 24)   3600        activation_381[0][0]             
__________________________________________________________________________________________________
concatenate_154 (Concatenate)   (None, 39, 24, 24)   0           concatenate_153[0][0]            
                                                                 dense_2_1_conv2D[0][0]           
__________________________________________________________________________________________________
final_bn (BatchNormalization)   (None, 39, 24, 24)   156         concatenate_154[0][0]            
__________________________________________________________________________________________________
activation_382 (Activation)     (None, 39, 24, 24)   0           final_bn[0][0]                   
__________________________________________________________________________________________________
global_average_pooling2d_36 (Gl (None, 39)           0           activation_382[0][0]             
__________________________________________________________________________________________________
dense_36 (Dense)                (None, 1)            40          global_average_pooling2d_36[0][0]
==================================================================================================
Total params: 30,694
Trainable params: 29,716
Non-trainable params: 978
__________________________________________________________________________________________________
Train on 39840 samples, validate on 7440 samples
Epoch 1/30
 - 62s - loss: 0.5616 - acc: 0.7594 - val_loss: 0.4764 - val_acc: 0.8364
…
7328/7440 [============================>.] - ETA: 0s
7424/7440 [============================>.] - ETA: 0s
7440/7440 [==============================] - 21s 3ms/step
Best saved model Test accuracy: 0.8591397849462366
best saved model auc_score ------------------>  0.9358772690484449
__________________________________________________________________________________________________
Layer (type)                    Output Shape         Param #     Connected to                     
==================================================================================================
input_40 (InputLayer)           (None, 2, 96, 96)    0                                            
__________________________________________________________________________________________________
initial_conv2D (Conv2D)         (None, 16, 96, 96)   288         input_40[0][0]                   
__________________________________________________________________________________________________
dense_0_0_bn (BatchNormalizatio (None, 16, 96, 96)   64          initial_conv2D[0][0]             
__________________________________________________________________________________________________
activation_440 (Activation)     (None, 16, 96, 96)   0           dense_0_0_bn[0][0]               
__________________________________________________________________________________________________
dense_0_0_bottleneck_conv2D (Co (None, 40, 96, 96)   640         activation_440[0][0]             
__________________________________________________________________________________________________
dense_0_0_bottleneck_bn (BatchN (None, 40, 96, 96)   160         dense_0_0_bottleneck_conv2D[0][0]
__________________________________________________________________________________________________
activation_441 (Activation)     (None, 40, 96, 96)   0           dense_0_0_bottleneck_bn[0][0]    
__________________________________________________________________________________________________
dense_0_0_conv2D (Conv2D)       (None, 10, 96, 96)   3600        activation_441[0][0]             
__________________________________________________________________________________________________
concatenate_179 (Concatenate)   (None, 26, 96, 96)   0           initial_conv2D[0][0]             
                                                                 dense_0_0_conv2D[0][0]           
__________________________________________________________________________________________________
tr_0_bn (BatchNormalization)    (None, 26, 96, 96)   104         concatenate_179[0][0]            
__________________________________________________________________________________________________
activation_442 (Activation)     (None, 26, 96, 96)   0           tr_0_bn[0][0]                    
__________________________________________________________________________________________________
tr_0_conv2D (Conv2D)            (None, 13, 96, 96)   338         activation_442[0][0]             
__________________________________________________________________________________________________
average_pooling2d_45 (AveragePo (None, 13, 48, 48)   0           tr_0_conv2D[0][0]                
__________________________________________________________________________________________________
dense_1_0_bn (BatchNormalizatio (None, 13, 48, 48)   52          average_pooling2d_45[0][0]       
__________________________________________________________________________________________________
activation_443 (Activation)     (None, 13, 48, 48)   0           dense_1_0_bn[0][0]               
__________________________________________________________________________________________________
dense_1_0_bottleneck_conv2D (Co (None, 40, 48, 48)   520         activation_443[0][0]             
__________________________________________________________________________________________________
dense_1_0_bottleneck_bn (BatchN (None, 40, 48, 48)   160         dense_1_0_bottleneck_conv2D[0][0]
__________________________________________________________________________________________________
activation_444 (Activation)     (None, 40, 48, 48)   0           dense_1_0_bottleneck_bn[0][0]    
__________________________________________________________________________________________________
dense_1_0_conv2D (Conv2D)       (None, 10, 48, 48)   3600        activation_444[0][0]             
__________________________________________________________________________________________________
concatenate_180 (Concatenate)   (None, 23, 48, 48)   0           average_pooling2d_45[0][0]       
                                                                 dense_1_0_conv2D[0][0]           
__________________________________________________________________________________________________
tr_1_bn (BatchNormalization)    (None, 23, 48, 48)   92          concatenate_180[0][0]            
__________________________________________________________________________________________________
activation_445 (Activation)     (None, 23, 48, 48)   0           tr_1_bn[0][0]                    
__________________________________________________________________________________________________
tr_1_conv2D (Conv2D)            (None, 11, 48, 48)   253         activation_445[0][0]             
__________________________________________________________________________________________________
average_pooling2d_46 (AveragePo (None, 11, 24, 24)   0           tr_1_conv2D[0][0]                
__________________________________________________________________________________________________
dense_2_0_bn (BatchNormalizatio (None, 11, 24, 24)   44          average_pooling2d_46[0][0]       
__________________________________________________________________________________________________
activation_446 (Activation)     (None, 11, 24, 24)   0           dense_2_0_bn[0][0]               
__________________________________________________________________________________________________
dense_2_0_bottleneck_conv2D (Co (None, 40, 24, 24)   440         activation_446[0][0]             
__________________________________________________________________________________________________
dense_2_0_bottleneck_bn (BatchN (None, 40, 24, 24)   160         dense_2_0_bottleneck_conv2D[0][0]
__________________________________________________________________________________________________
activation_447 (Activation)     (None, 40, 24, 24)   0           dense_2_0_bottleneck_bn[0][0]    
__________________________________________________________________________________________________
dense_2_0_conv2D (Conv2D)       (None, 10, 24, 24)   3600        activation_447[0][0]             
__________________________________________________________________________________________________
concatenate_181 (Concatenate)   (None, 21, 24, 24)   0           average_pooling2d_46[0][0]       
                                                                 dense_2_0_conv2D[0][0]           
__________________________________________________________________________________________________
final_bn (BatchNormalization)   (None, 21, 24, 24)   84          concatenate_181[0][0]            
__________________________________________________________________________________________________
activation_448 (Activation)     (None, 21, 24, 24)   0           final_bn[0][0]                   
__________________________________________________________________________________________________
global_average_pooling2d_40 (Gl (None, 21)           0           activation_448[0][0]             
__________________________________________________________________________________________________
dense_40 (Dense)                (None, 1)            22          global_average_pooling2d_40[0][0]
==================================================================================================
Total params: 14,221
Trainable params: 13,761
Non-trainable params: 460
__________________________________________________________________________________________________
Train on 39840 samples, validate on 7440 samples
Epoch 1/30
 - 59s - loss: 0.5695 - acc: 0.7347 - val_loss: 0.5142 - val_acc: 0.8112
…
