python hello-world.py
python hyperas_simple.py
python hyperas_contrastive_loss.py
python densenet_siamese_best_run.py
python hyperas_densenet.py
python hyperas_densenet_siamese.py
python densenet_simple.py
python keras_densenet_siamese.py
__________________________________________________________________________________________________
Layer (type)                    Output Shape         Param #     Connected to                     
==================================================================================================
input_1 (InputLayer)            (None, 2, 96, 96)    0                                            
__________________________________________________________________________________________________
initial_conv2D (Conv2D)         (None, 18, 96, 96)   324         input_1[0][0]                    
__________________________________________________________________________________________________
dense_0_0_bn (BatchNormalizatio (None, 18, 96, 96)   72          initial_conv2D[0][0]             
__________________________________________________________________________________________________
activation_1 (Activation)       (None, 18, 96, 96)   0           dense_0_0_bn[0][0]               
__________________________________________________________________________________________________
dense_0_0_conv2D (Conv2D)       (None, 12, 96, 96)   1944        activation_1[0][0]               
__________________________________________________________________________________________________
concatenate_1 (Concatenate)     (None, 30, 96, 96)   0           initial_conv2D[0][0]             
                                                                 dense_0_0_conv2D[0][0]           
__________________________________________________________________________________________________
dense_0_1_bn (BatchNormalizatio (None, 30, 96, 96)   120         concatenate_1[0][0]              
__________________________________________________________________________________________________
activation_2 (Activation)       (None, 30, 96, 96)   0           dense_0_1_bn[0][0]               
__________________________________________________________________________________________________
dense_0_1_conv2D (Conv2D)       (None, 12, 96, 96)   3240        activation_2[0][0]               
__________________________________________________________________________________________________
concatenate_2 (Concatenate)     (None, 42, 96, 96)   0           concatenate_1[0][0]              
                                                                 dense_0_1_conv2D[0][0]           
__________________________________________________________________________________________________
dense_0_2_bn (BatchNormalizatio (None, 42, 96, 96)   168         concatenate_2[0][0]              
__________________________________________________________________________________________________
activation_3 (Activation)       (None, 42, 96, 96)   0           dense_0_2_bn[0][0]               
__________________________________________________________________________________________________
dense_0_2_conv2D (Conv2D)       (None, 12, 96, 96)   4536        activation_3[0][0]               
__________________________________________________________________________________________________
concatenate_3 (Concatenate)     (None, 54, 96, 96)   0           concatenate_2[0][0]              
                                                                 dense_0_2_conv2D[0][0]           
__________________________________________________________________________________________________
final_bn (BatchNormalization)   (None, 54, 96, 96)   216         concatenate_3[0][0]              
__________________________________________________________________________________________________
activation_4 (Activation)       (None, 54, 96, 96)   0           final_bn[0][0]                   
__________________________________________________________________________________________________
global_average_pooling2d_1 (Glo (None, 54)           0           activation_4[0][0]               
__________________________________________________________________________________________________
dense_1 (Dense)                 (None, 1)            55          global_average_pooling2d_1[0][0] 
==================================================================================================
Total params: 10,675
Trainable params: 10,387
Non-trainable params: 288
__________________________________________________________________________________________________
Train on 39840 samples, validate on 7440 samples
Epoch 1/10
 - 37s - loss: 0.5277 - acc: 0.7399 - val_loss: 0.6696 - val_acc: 0.7952
…
