…
  56:     #auc_score = roc_auc_score(y_val,pred)
  57:     #print("best saved model auc_score ------------------> ",auc_score)
  58: 
  59:     
  60:     return {'loss': -auc_score, 'status': STATUS_OK, 'model': model}  
  61: 
Depth:  25  Growth_rate:  6  Nb_dense_block:  4  lr:  0.05
__________________________________________________________________________________________________
Layer (type)                    Output Shape         Param #     Connected to                     
==================================================================================================
input_1 (InputLayer)            (None, 2, 96, 96)    0                                            
__________________________________________________________________________________________________
initial_conv2D (Conv2D)         (None, 16, 96, 96)   288         input_1[0][0]                    
__________________________________________________________________________________________________
dense_0_0_bn (BatchNormalizatio (None, 16, 96, 96)   64          initial_conv2D[0][0]             
__________________________________________________________________________________________________
activation_1 (Activation)       (None, 16, 96, 96)   0           dense_0_0_bn[0][0]               
__________________________________________________________________________________________________
dense_0_0_bottleneck_conv2D (Co (None, 24, 96, 96)   384         activation_1[0][0]               
__________________________________________________________________________________________________
dense_0_0_bottleneck_bn (BatchN (None, 24, 96, 96)   96          dense_0_0_bottleneck_conv2D[0][0]
__________________________________________________________________________________________________
activation_2 (Activation)       (None, 24, 96, 96)   0           dense_0_0_bottleneck_bn[0][0]    
__________________________________________________________________________________________________
dense_0_0_conv2D (Conv2D)       (None, 6, 96, 96)    1296        activation_2[0][0]               
__________________________________________________________________________________________________
concatenate_1 (Concatenate)     (None, 22, 96, 96)   0           initial_conv2D[0][0]             
                                                                 dense_0_0_conv2D[0][0]           
__________________________________________________________________________________________________
dense_0_1_bn (BatchNormalizatio (None, 22, 96, 96)   88          concatenate_1[0][0]              
__________________________________________________________________________________________________
activation_3 (Activation)       (None, 22, 96, 96)   0           dense_0_1_bn[0][0]               
__________________________________________________________________________________________________
dense_0_1_bottleneck_conv2D (Co (None, 24, 96, 96)   528         activation_3[0][0]               
__________________________________________________________________________________________________
dense_0_1_bottleneck_bn (BatchN (None, 24, 96, 96)   96          dense_0_1_bottleneck_conv2D[0][0]
__________________________________________________________________________________________________
activation_4 (Activation)       (None, 24, 96, 96)   0           dense_0_1_bottleneck_bn[0][0]    
__________________________________________________________________________________________________
dense_0_1_conv2D (Conv2D)       (None, 6, 96, 96)    1296        activation_4[0][0]               
__________________________________________________________________________________________________
concatenate_2 (Concatenate)     (None, 28, 96, 96)   0           concatenate_1[0][0]              
                                                                 dense_0_1_conv2D[0][0]           
__________________________________________________________________________________________________
dense_0_2_bn (BatchNormalizatio (None, 28, 96, 96)   112         concatenate_2[0][0]              
__________________________________________________________________________________________________
activation_5 (Activation)       (None, 28, 96, 96)   0           dense_0_2_bn[0][0]               
__________________________________________________________________________________________________
dense_0_2_bottleneck_conv2D (Co (None, 24, 96, 96)   672         activation_5[0][0]               
__________________________________________________________________________________________________
dense_0_2_bottleneck_bn (BatchN (None, 24, 96, 96)   96          dense_0_2_bottleneck_conv2D[0][0]
__________________________________________________________________________________________________
activation_6 (Activation)       (None, 24, 96, 96)   0           dense_0_2_bottleneck_bn[0][0]    
__________________________________________________________________________________________________
dense_0_2_conv2D (Conv2D)       (None, 6, 96, 96)    1296        activation_6[0][0]               
__________________________________________________________________________________________________
concatenate_3 (Concatenate)     (None, 34, 96, 96)   0           concatenate_2[0][0]              
                                                                 dense_0_2_conv2D[0][0]           
__________________________________________________________________________________________________
tr_0_bn (BatchNormalization)    (None, 34, 96, 96)   136         concatenate_3[0][0]              
__________________________________________________________________________________________________
activation_7 (Activation)       (None, 34, 96, 96)   0           tr_0_bn[0][0]                    
__________________________________________________________________________________________________
tr_0_conv2D (Conv2D)            (None, 17, 96, 96)   578         activation_7[0][0]               
__________________________________________________________________________________________________
average_pooling2d_1 (AveragePoo (None, 17, 48, 48)   0           tr_0_conv2D[0][0]                
__________________________________________________________________________________________________
dense_1_0_bn (BatchNormalizatio (None, 17, 48, 48)   68          average_pooling2d_1[0][0]        
__________________________________________________________________________________________________
activation_8 (Activation)       (None, 17, 48, 48)   0           dense_1_0_bn[0][0]               
__________________________________________________________________________________________________
dense_1_0_bottleneck_conv2D (Co (None, 24, 48, 48)   408         activation_8[0][0]               
__________________________________________________________________________________________________
dense_1_0_bottleneck_bn (BatchN (None, 24, 48, 48)   96          dense_1_0_bottleneck_conv2D[0][0]
__________________________________________________________________________________________________
activation_9 (Activation)       (None, 24, 48, 48)   0           dense_1_0_bottleneck_bn[0][0]    
__________________________________________________________________________________________________
dense_1_0_conv2D (Conv2D)       (None, 6, 48, 48)    1296        activation_9[0][0]               
__________________________________________________________________________________________________
concatenate_4 (Concatenate)     (None, 23, 48, 48)   0           average_pooling2d_1[0][0]        
                                                                 dense_1_0_conv2D[0][0]           
__________________________________________________________________________________________________
dense_1_1_bn (BatchNormalizatio (None, 23, 48, 48)   92          concatenate_4[0][0]              
__________________________________________________________________________________________________
activation_10 (Activation)      (None, 23, 48, 48)   0           dense_1_1_bn[0][0]               
__________________________________________________________________________________________________
dense_1_1_bottleneck_conv2D (Co (None, 24, 48, 48)   552         activation_10[0][0]              
__________________________________________________________________________________________________
dense_1_1_bottleneck_bn (BatchN (None, 24, 48, 48)   96          dense_1_1_bottleneck_conv2D[0][0]
__________________________________________________________________________________________________
activation_11 (Activation)      (None, 24, 48, 48)   0           dense_1_1_bottleneck_bn[0][0]    
__________________________________________________________________________________________________
dense_1_1_conv2D (Conv2D)       (None, 6, 48, 48)    1296        activation_11[0][0]              
__________________________________________________________________________________________________
concatenate_5 (Concatenate)     (None, 29, 48, 48)   0           concatenate_4[0][0]              
                                                                 dense_1_1_conv2D[0][0]           
__________________________________________________________________________________________________
dense_1_2_bn (BatchNormalizatio (None, 29, 48, 48)   116         concatenate_5[0][0]              
__________________________________________________________________________________________________
activation_12 (Activation)      (None, 29, 48, 48)   0           dense_1_2_bn[0][0]               
__________________________________________________________________________________________________
dense_1_2_bottleneck_conv2D (Co (None, 24, 48, 48)   696         activation_12[0][0]              
__________________________________________________________________________________________________
dense_1_2_bottleneck_bn (BatchN (None, 24, 48, 48)   96          dense_1_2_bottleneck_conv2D[0][0]
__________________________________________________________________________________________________
activation_13 (Activation)      (None, 24, 48, 48)   0           dense_1_2_bottleneck_bn[0][0]    
__________________________________________________________________________________________________
dense_1_2_conv2D (Conv2D)       (None, 6, 48, 48)    1296        activation_13[0][0]              
__________________________________________________________________________________________________
concatenate_6 (Concatenate)     (None, 35, 48, 48)   0           concatenate_5[0][0]              
                                                                 dense_1_2_conv2D[0][0]           
__________________________________________________________________________________________________
tr_1_bn (BatchNormalization)    (None, 35, 48, 48)   140         concatenate_6[0][0]              
__________________________________________________________________________________________________
activation_14 (Activation)      (None, 35, 48, 48)   0           tr_1_bn[0][0]                    
__________________________________________________________________________________________________
tr_1_conv2D (Conv2D)            (None, 17, 48, 48)   595         activation_14[0][0]              
__________________________________________________________________________________________________
average_pooling2d_2 (AveragePoo (None, 17, 24, 24)   0           tr_1_conv2D[0][0]                
__________________________________________________________________________________________________
dense_2_0_bn (BatchNormalizatio (None, 17, 24, 24)   68          average_pooling2d_2[0][0]        
__________________________________________________________________________________________________
activation_15 (Activation)      (None, 17, 24, 24)   0           dense_2_0_bn[0][0]               
__________________________________________________________________________________________________
dense_2_0_bottleneck_conv2D (Co (None, 24, 24, 24)   408         activation_15[0][0]              
__________________________________________________________________________________________________
dense_2_0_bottleneck_bn (BatchN (None, 24, 24, 24)   96          dense_2_0_bottleneck_conv2D[0][0]
__________________________________________________________________________________________________
activation_16 (Activation)      (None, 24, 24, 24)   0           dense_2_0_bottleneck_bn[0][0]    
__________________________________________________________________________________________________
dense_2_0_conv2D (Conv2D)       (None, 6, 24, 24)    1296        activation_16[0][0]              
__________________________________________________________________________________________________
concatenate_7 (Concatenate)     (None, 23, 24, 24)   0           average_pooling2d_2[0][0]        
                                                                 dense_2_0_conv2D[0][0]           
__________________________________________________________________________________________________
dense_2_1_bn (BatchNormalizatio (None, 23, 24, 24)   92          concatenate_7[0][0]              
__________________________________________________________________________________________________
activation_17 (Activation)      (None, 23, 24, 24)   0           dense_2_1_bn[0][0]               
__________________________________________________________________________________________________
dense_2_1_bottleneck_conv2D (Co (None, 24, 24, 24)   552         activation_17[0][0]              
__________________________________________________________________________________________________
dense_2_1_bottleneck_bn (BatchN (None, 24, 24, 24)   96          dense_2_1_bottleneck_conv2D[0][0]
__________________________________________________________________________________________________
activation_18 (Activation)      (None, 24, 24, 24)   0           dense_2_1_bottleneck_bn[0][0]    
__________________________________________________________________________________________________
dense_2_1_conv2D (Conv2D)       (None, 6, 24, 24)    1296        activation_18[0][0]              
__________________________________________________________________________________________________
concatenate_8 (Concatenate)     (None, 29, 24, 24)   0           concatenate_7[0][0]              
                                                                 dense_2_1_conv2D[0][0]           
__________________________________________________________________________________________________
dense_2_2_bn (BatchNormalizatio (None, 29, 24, 24)   116         concatenate_8[0][0]              
__________________________________________________________________________________________________
activation_19 (Activation)      (None, 29, 24, 24)   0           dense_2_2_bn[0][0]               
__________________________________________________________________________________________________
dense_2_2_bottleneck_conv2D (Co (None, 24, 24, 24)   696         activation_19[0][0]              
__________________________________________________________________________________________________
dense_2_2_bottleneck_bn (BatchN (None, 24, 24, 24)   96          dense_2_2_bottleneck_conv2D[0][0]
__________________________________________________________________________________________________
activation_20 (Activation)      (None, 24, 24, 24)   0           dense_2_2_bottleneck_bn[0][0]    
__________________________________________________________________________________________________
dense_2_2_conv2D (Conv2D)       (None, 6, 24, 24)    1296        activation_20[0][0]              
__________________________________________________________________________________________________
concatenate_9 (Concatenate)     (None, 35, 24, 24)   0           concatenate_8[0][0]              
                                                                 dense_2_2_conv2D[0][0]           
__________________________________________________________________________________________________
tr_2_bn (BatchNormalization)    (None, 35, 24, 24)   140         concatenate_9[0][0]              
__________________________________________________________________________________________________
activation_21 (Activation)      (None, 35, 24, 24)   0           tr_2_bn[0][0]                    
__________________________________________________________________________________________________
tr_2_conv2D (Conv2D)            (None, 17, 24, 24)   595         activation_21[0][0]              
__________________________________________________________________________________________________
average_pooling2d_3 (AveragePoo (None, 17, 12, 12)   0           tr_2_conv2D[0][0]                
__________________________________________________________________________________________________
dense_3_0_bn (BatchNormalizatio (None, 17, 12, 12)   68          average_pooling2d_3[0][0]        
__________________________________________________________________________________________________
activation_22 (Activation)      (None, 17, 12, 12)   0           dense_3_0_bn[0][0]               
__________________________________________________________________________________________________
dense_3_0_bottleneck_conv2D (Co (None, 24, 12, 12)   408         activation_22[0][0]              
__________________________________________________________________________________________________
dense_3_0_bottleneck_bn (BatchN (None, 24, 12, 12)   96          dense_3_0_bottleneck_conv2D[0][0]
__________________________________________________________________________________________________
activation_23 (Activation)      (None, 24, 12, 12)   0           dense_3_0_bottleneck_bn[0][0]    
__________________________________________________________________________________________________
dense_3_0_conv2D (Conv2D)       (None, 6, 12, 12)    1296        activation_23[0][0]              
__________________________________________________________________________________________________
concatenate_10 (Concatenate)    (None, 23, 12, 12)   0           average_pooling2d_3[0][0]        
                                                                 dense_3_0_conv2D[0][0]           
__________________________________________________________________________________________________
dense_3_1_bn (BatchNormalizatio (None, 23, 12, 12)   92          concatenate_10[0][0]             
__________________________________________________________________________________________________
activation_24 (Activation)      (None, 23, 12, 12)   0           dense_3_1_bn[0][0]               
__________________________________________________________________________________________________
dense_3_1_bottleneck_conv2D (Co (None, 24, 12, 12)   552         activation_24[0][0]              
__________________________________________________________________________________________________
dense_3_1_bottleneck_bn (BatchN (None, 24, 12, 12)   96          dense_3_1_bottleneck_conv2D[0][0]
__________________________________________________________________________________________________
activation_25 (Activation)      (None, 24, 12, 12)   0           dense_3_1_bottleneck_bn[0][0]    
__________________________________________________________________________________________________
dense_3_1_conv2D (Conv2D)       (None, 6, 12, 12)    1296        activation_25[0][0]              
__________________________________________________________________________________________________
concatenate_11 (Concatenate)    (None, 29, 12, 12)   0           concatenate_10[0][0]             
                                                                 dense_3_1_conv2D[0][0]           
__________________________________________________________________________________________________
dense_3_2_bn (BatchNormalizatio (None, 29, 12, 12)   116         concatenate_11[0][0]             
__________________________________________________________________________________________________
activation_26 (Activation)      (None, 29, 12, 12)   0           dense_3_2_bn[0][0]               
__________________________________________________________________________________________________
dense_3_2_bottleneck_conv2D (Co (None, 24, 12, 12)   696         activation_26[0][0]              
__________________________________________________________________________________________________
dense_3_2_bottleneck_bn (BatchN (None, 24, 12, 12)   96          dense_3_2_bottleneck_conv2D[0][0]
__________________________________________________________________________________________________
activation_27 (Activation)      (None, 24, 12, 12)   0           dense_3_2_bottleneck_bn[0][0]    
__________________________________________________________________________________________________
dense_3_2_conv2D (Conv2D)       (None, 6, 12, 12)    1296        activation_27[0][0]              
__________________________________________________________________________________________________
concatenate_12 (Concatenate)    (None, 35, 12, 12)   0           concatenate_11[0][0]             
                                                                 dense_3_2_conv2D[0][0]           
__________________________________________________________________________________________________
final_bn (BatchNormalization)   (None, 35, 12, 12)   140         concatenate_12[0][0]             
__________________________________________________________________________________________________
activation_28 (Activation)      (None, 35, 12, 12)   0           final_bn[0][0]                   
__________________________________________________________________________________________________
global_average_pooling2d_1 (Glo (None, 35)           0           activation_28[0][0]              
__________________________________________________________________________________________________
dense_1 (Dense)                 (None, 1)            36          global_average_pooling2d_1[0][0] 
==================================================================================================
Total params: 26,996
Trainable params: 25,596
Non-trainable params: 1,400
__________________________________________________________________________________________________
Train on 31872 samples, validate on 7968 samples
Epoch 1/1
 - 42s - loss: 0.5355 - acc: 0.7473 - val_loss: 0.5239 - val_acc: 0.7288
…
7520/7968 [===========================>..] - ETA: 0s
7712/7968 [============================>.] - ETA: 0s
7904/7968 [============================>.] - ETA: 0s
7968/7968 [==============================] - 2s 281us/step
current val accuracy: 0.7287901606425703
current auc_score ------------------>  0.860086386442291
Depth:  7  Growth_rate:  14  Nb_dense_block:  2  lr:  1e-05
_________________________________________________________________
Layer (type)                 Output Shape              Param #   
=================================================================
input_2 (InputLayer)         (None, 2, 96, 96)         0         
_________________________________________________________________
initial_conv2D (Conv2D)      (None, 16, 96, 96)        288       
_________________________________________________________________
tr_0_bn (BatchNormalization) (None, 16, 96, 96)        64        
_________________________________________________________________
activation_29 (Activation)   (None, 16, 96, 96)        0         
_________________________________________________________________
tr_0_conv2D (Conv2D)         (None, 8, 96, 96)         128       
_________________________________________________________________
average_pooling2d_4 (Average (None, 8, 48, 48)         0         
_________________________________________________________________
final_bn (BatchNormalization (None, 8, 48, 48)         32        
_________________________________________________________________
activation_30 (Activation)   (None, 8, 48, 48)         0         
_________________________________________________________________
global_average_pooling2d_2 ( (None, 8)                 0         
_________________________________________________________________
dense_2 (Dense)              (None, 1)                 9         
=================================================================
Total params: 521
Trainable params: 473
Non-trainable params: 48
_________________________________________________________________
Train on 31872 samples, validate on 7968 samples
Epoch 1/1
 - 7s - loss: 0.6950 - acc: 0.5622 - val_loss: 0.6897 - val_acc: 0.5713

  32/7968 [..............................] - ETA: 0s
 704/7968 [=>............................] - ETA: 0s
…
6336/7968 [======================>.......] - ETA: 0s
7008/7968 [=========================>....] - ETA: 0s
7680/7968 [===========================>..] - ETA: 0s
7968/7968 [==============================] - 1s 73us/step
current val accuracy: 0.571285140562249
current auc_score ------------------>  0.581087784422264
Depth:  7  Growth_rate:  22  Nb_dense_block:  3  lr:  0.001
_________________________________________________________________
Layer (type)                 Output Shape              Param #   
=================================================================
input_3 (InputLayer)         (None, 2, 96, 96)         0         
_________________________________________________________________
initial_conv2D (Conv2D)      (None, 16, 96, 96)        288       
_________________________________________________________________
tr_0_bn (BatchNormalization) (None, 16, 96, 96)        64        
_________________________________________________________________
activation_31 (Activation)   (None, 16, 96, 96)        0         
_________________________________________________________________
tr_0_conv2D (Conv2D)         (None, 8, 96, 96)         128       
_________________________________________________________________
average_pooling2d_5 (Average (None, 8, 48, 48)         0         
_________________________________________________________________
tr_1_bn (BatchNormalization) (None, 8, 48, 48)         32        
_________________________________________________________________
activation_32 (Activation)   (None, 8, 48, 48)         0         
_________________________________________________________________
tr_1_conv2D (Conv2D)         (None, 4, 48, 48)         32        
_________________________________________________________________
average_pooling2d_6 (Average (None, 4, 24, 24)         0         
_________________________________________________________________
final_bn (BatchNormalization (None, 4, 24, 24)         16        
_________________________________________________________________
activation_33 (Activation)   (None, 4, 24, 24)         0         
_________________________________________________________________
global_average_pooling2d_3 ( (None, 4)                 0         
_________________________________________________________________
dense_3 (Dense)              (None, 1)                 5         
=================================================================
Total params: 565
Trainable params: 509
Non-trainable params: 56
_________________________________________________________________
Train on 31872 samples, validate on 7968 samples
Epoch 1/1
 - 8s - loss: 0.6225 - acc: 0.6970 - val_loss: 0.6049 - val_acc: 0.7058

  32/7968 [..............................] - ETA: 0s
 672/7968 [=>............................] - ETA: 0s
…
7808/7968 [============================>.] - ETA: 0s
7968/7968 [==============================] - 1s 79us/step
current val accuracy: 0.7058232931726908
current auc_score ------------------>  0.7813644191288621
Depth:  16  Growth_rate:  14  Nb_dense_block:  3  lr:  0.0005
__________________________________________________________________________________________________
Layer (type)                    Output Shape         Param #     Connected to                     
==================================================================================================
input_4 (InputLayer)            (None, 2, 96, 96)    0                                            
__________________________________________________________________________________________________
initial_conv2D (Conv2D)         (None, 16, 96, 96)   288         input_4[0][0]                    
__________________________________________________________________________________________________
dense_0_0_bn (BatchNormalizatio (None, 16, 96, 96)   64          initial_conv2D[0][0]             
__________________________________________________________________________________________________
activation_34 (Activation)      (None, 16, 96, 96)   0           dense_0_0_bn[0][0]               
__________________________________________________________________________________________________
dense_0_0_bottleneck_conv2D (Co (None, 56, 96, 96)   896         activation_34[0][0]              
__________________________________________________________________________________________________
dense_0_0_bottleneck_bn (BatchN (None, 56, 96, 96)   224         dense_0_0_bottleneck_conv2D[0][0]
__________________________________________________________________________________________________
activation_35 (Activation)      (None, 56, 96, 96)   0           dense_0_0_bottleneck_bn[0][0]    
__________________________________________________________________________________________________
dense_0_0_conv2D (Conv2D)       (None, 14, 96, 96)   7056        activation_35[0][0]              
__________________________________________________________________________________________________
concatenate_13 (Concatenate)    (None, 30, 96, 96)   0           initial_conv2D[0][0]             
                                                                 dense_0_0_conv2D[0][0]           
__________________________________________________________________________________________________
dense_0_1_bn (BatchNormalizatio (None, 30, 96, 96)   120         concatenate_13[0][0]             
__________________________________________________________________________________________________
activation_36 (Activation)      (None, 30, 96, 96)   0           dense_0_1_bn[0][0]               
__________________________________________________________________________________________________
dense_0_1_bottleneck_conv2D (Co (None, 56, 96, 96)   1680        activation_36[0][0]              
__________________________________________________________________________________________________
dense_0_1_bottleneck_bn (BatchN (None, 56, 96, 96)   224         dense_0_1_bottleneck_conv2D[0][0]
__________________________________________________________________________________________________
activation_37 (Activation)      (None, 56, 96, 96)   0           dense_0_1_bottleneck_bn[0][0]    
__________________________________________________________________________________________________
dense_0_1_conv2D (Conv2D)       (None, 14, 96, 96)   7056        activation_37[0][0]              
__________________________________________________________________________________________________
concatenate_14 (Concatenate)    (None, 44, 96, 96)   0           concatenate_13[0][0]             
                                                                 dense_0_1_conv2D[0][0]           
__________________________________________________________________________________________________
tr_0_bn (BatchNormalization)    (None, 44, 96, 96)   176         concatenate_14[0][0]             
__________________________________________________________________________________________________
activation_38 (Activation)      (None, 44, 96, 96)   0           tr_0_bn[0][0]                    
__________________________________________________________________________________________________
tr_0_conv2D (Conv2D)            (None, 22, 96, 96)   968         activation_38[0][0]              
__________________________________________________________________________________________________
average_pooling2d_7 (AveragePoo (None, 22, 48, 48)   0           tr_0_conv2D[0][0]                
__________________________________________________________________________________________________
dense_1_0_bn (BatchNormalizatio (None, 22, 48, 48)   88          average_pooling2d_7[0][0]        
__________________________________________________________________________________________________
activation_39 (Activation)      (None, 22, 48, 48)   0           dense_1_0_bn[0][0]               
__________________________________________________________________________________________________
dense_1_0_bottleneck_conv2D (Co (None, 56, 48, 48)   1232        activation_39[0][0]              
__________________________________________________________________________________________________
dense_1_0_bottleneck_bn (BatchN (None, 56, 48, 48)   224         dense_1_0_bottleneck_conv2D[0][0]
__________________________________________________________________________________________________
activation_40 (Activation)      (None, 56, 48, 48)   0           dense_1_0_bottleneck_bn[0][0]    
__________________________________________________________________________________________________
dense_1_0_conv2D (Conv2D)       (None, 14, 48, 48)   7056        activation_40[0][0]              
__________________________________________________________________________________________________
concatenate_15 (Concatenate)    (None, 36, 48, 48)   0           average_pooling2d_7[0][0]        
                                                                 dense_1_0_conv2D[0][0]           
__________________________________________________________________________________________________
dense_1_1_bn (BatchNormalizatio (None, 36, 48, 48)   144         concatenate_15[0][0]             
__________________________________________________________________________________________________
activation_41 (Activation)      (None, 36, 48, 48)   0           dense_1_1_bn[0][0]               
__________________________________________________________________________________________________
dense_1_1_bottleneck_conv2D (Co (None, 56, 48, 48)   2016        activation_41[0][0]              
__________________________________________________________________________________________________
dense_1_1_bottleneck_bn (BatchN (None, 56, 48, 48)   224         dense_1_1_bottleneck_conv2D[0][0]
__________________________________________________________________________________________________
activation_42 (Activation)      (None, 56, 48, 48)   0           dense_1_1_bottleneck_bn[0][0]    
__________________________________________________________________________________________________
dense_1_1_conv2D (Conv2D)       (None, 14, 48, 48)   7056        activation_42[0][0]              
__________________________________________________________________________________________________
concatenate_16 (Concatenate)    (None, 50, 48, 48)   0           concatenate_15[0][0]             
                                                                 dense_1_1_conv2D[0][0]           
__________________________________________________________________________________________________
tr_1_bn (BatchNormalization)    (None, 50, 48, 48)   200         concatenate_16[0][0]             
__________________________________________________________________________________________________
activation_43 (Activation)      (None, 50, 48, 48)   0           tr_1_bn[0][0]                    
__________________________________________________________________________________________________
tr_1_conv2D (Conv2D)            (None, 25, 48, 48)   1250        activation_43[0][0]              
__________________________________________________________________________________________________
average_pooling2d_8 (AveragePoo (None, 25, 24, 24)   0           tr_1_conv2D[0][0]                
__________________________________________________________________________________________________
dense_2_0_bn (BatchNormalizatio (None, 25, 24, 24)   100         average_pooling2d_8[0][0]        
__________________________________________________________________________________________________
activation_44 (Activation)      (None, 25, 24, 24)   0           dense_2_0_bn[0][0]               
__________________________________________________________________________________________________
dense_2_0_bottleneck_conv2D (Co (None, 56, 24, 24)   1400        activation_44[0][0]              
__________________________________________________________________________________________________
dense_2_0_bottleneck_bn (BatchN (None, 56, 24, 24)   224         dense_2_0_bottleneck_conv2D[0][0]
__________________________________________________________________________________________________
activation_45 (Activation)      (None, 56, 24, 24)   0           dense_2_0_bottleneck_bn[0][0]    
__________________________________________________________________________________________________
dense_2_0_conv2D (Conv2D)       (None, 14, 24, 24)   7056        activation_45[0][0]              
__________________________________________________________________________________________________
concatenate_17 (Concatenate)    (None, 39, 24, 24)   0           average_pooling2d_8[0][0]        
                                                                 dense_2_0_conv2D[0][0]           
__________________________________________________________________________________________________
dense_2_1_bn (BatchNormalizatio (None, 39, 24, 24)   156         concatenate_17[0][0]             
__________________________________________________________________________________________________
activation_46 (Activation)      (None, 39, 24, 24)   0           dense_2_1_bn[0][0]               
__________________________________________________________________________________________________
dense_2_1_bottleneck_conv2D (Co (None, 56, 24, 24)   2184        activation_46[0][0]              
__________________________________________________________________________________________________
dense_2_1_bottleneck_bn (BatchN (None, 56, 24, 24)   224         dense_2_1_bottleneck_conv2D[0][0]
__________________________________________________________________________________________________
activation_47 (Activation)      (None, 56, 24, 24)   0           dense_2_1_bottleneck_bn[0][0]    
__________________________________________________________________________________________________
dense_2_1_conv2D (Conv2D)       (None, 14, 24, 24)   7056        activation_47[0][0]              
__________________________________________________________________________________________________
concatenate_18 (Concatenate)    (None, 53, 24, 24)   0           concatenate_17[0][0]             
                                                                 dense_2_1_conv2D[0][0]           
__________________________________________________________________________________________________
final_bn (BatchNormalization)   (None, 53, 24, 24)   212         concatenate_18[0][0]             
__________________________________________________________________________________________________
activation_48 (Activation)      (None, 53, 24, 24)   0           final_bn[0][0]                   
__________________________________________________________________________________________________
global_average_pooling2d_4 (Glo (None, 53)           0           activation_48[0][0]              
__________________________________________________________________________________________________
dense_4 (Dense)                 (None, 1)            54          global_average_pooling2d_4[0][0] 
==================================================================================================
Total params: 56,908
Trainable params: 55,606
Non-trainable params: 1,302
__________________________________________________________________________________________________
Train on 31872 samples, validate on 7968 samples
Epoch 1/1
 - 31s - loss: 0.5354 - acc: 0.7748 - val_loss: 0.5970 - val_acc: 0.7628
…
7904/7968 [============================>.] - ETA: 0s
7968/7968 [==============================] - 2s 278us/step
current val accuracy: 0.7628012048192772
current auc_score ------------------>  0.8813654461287522
Depth:  34  Growth_rate:  22  Nb_dense_block:  2  lr:  0.005
__________________________________________________________________________________________________
Layer (type)                    Output Shape         Param #     Connected to                     
==================================================================================================
input_5 (InputLayer)            (None, 2, 96, 96)    0                                            
__________________________________________________________________________________________________
initial_conv2D (Conv2D)         (None, 16, 96, 96)   288         input_5[0][0]                    
__________________________________________________________________________________________________
dense_0_0_bn (BatchNormalizatio (None, 16, 96, 96)   64          initial_conv2D[0][0]             
__________________________________________________________________________________________________
activation_49 (Activation)      (None, 16, 96, 96)   0           dense_0_0_bn[0][0]               
__________________________________________________________________________________________________
dense_0_0_bottleneck_conv2D (Co (None, 88, 96, 96)   1408        activation_49[0][0]              
__________________________________________________________________________________________________
dense_0_0_bottleneck_bn (BatchN (None, 88, 96, 96)   352         dense_0_0_bottleneck_conv2D[0][0]
__________________________________________________________________________________________________
activation_50 (Activation)      (None, 88, 96, 96)   0           dense_0_0_bottleneck_bn[0][0]    
__________________________________________________________________________________________________
dense_0_0_conv2D (Conv2D)       (None, 22, 96, 96)   17424       activation_50[0][0]              
__________________________________________________________________________________________________
concatenate_19 (Concatenate)    (None, 38, 96, 96)   0           initial_conv2D[0][0]             
                                                                 dense_0_0_conv2D[0][0]           
__________________________________________________________________________________________________
dense_0_1_bn (BatchNormalizatio (None, 38, 96, 96)   152         concatenate_19[0][0]             
__________________________________________________________________________________________________
activation_51 (Activation)      (None, 38, 96, 96)   0           dense_0_1_bn[0][0]               
__________________________________________________________________________________________________
dense_0_1_bottleneck_conv2D (Co (None, 88, 96, 96)   3344        activation_51[0][0]              
__________________________________________________________________________________________________
dense_0_1_bottleneck_bn (BatchN (None, 88, 96, 96)   352         dense_0_1_bottleneck_conv2D[0][0]
__________________________________________________________________________________________________
activation_52 (Activation)      (None, 88, 96, 96)   0           dense_0_1_bottleneck_bn[0][0]    
__________________________________________________________________________________________________
dense_0_1_conv2D (Conv2D)       (None, 22, 96, 96)   17424       activation_52[0][0]              
__________________________________________________________________________________________________
concatenate_20 (Concatenate)    (None, 60, 96, 96)   0           concatenate_19[0][0]             
                                                                 dense_0_1_conv2D[0][0]           
__________________________________________________________________________________________________
dense_0_2_bn (BatchNormalizatio (None, 60, 96, 96)   240         concatenate_20[0][0]             
__________________________________________________________________________________________________
activation_53 (Activation)      (None, 60, 96, 96)   0           dense_0_2_bn[0][0]               
__________________________________________________________________________________________________
dense_0_2_bottleneck_conv2D (Co (None, 88, 96, 96)   5280        activation_53[0][0]              
__________________________________________________________________________________________________
dense_0_2_bottleneck_bn (BatchN (None, 88, 96, 96)   352         dense_0_2_bottleneck_conv2D[0][0]
__________________________________________________________________________________________________
activation_54 (Activation)      (None, 88, 96, 96)   0           dense_0_2_bottleneck_bn[0][0]    
__________________________________________________________________________________________________
dense_0_2_conv2D (Conv2D)       (None, 22, 96, 96)   17424       activation_54[0][0]              
__________________________________________________________________________________________________
concatenate_21 (Concatenate)    (None, 82, 96, 96)   0           concatenate_20[0][0]             
                                                                 dense_0_2_conv2D[0][0]           
__________________________________________________________________________________________________
dense_0_3_bn (BatchNormalizatio (None, 82, 96, 96)   328         concatenate_21[0][0]             
__________________________________________________________________________________________________
activation_55 (Activation)      (None, 82, 96, 96)   0           dense_0_3_bn[0][0]               
__________________________________________________________________________________________________
dense_0_3_bottleneck_conv2D (Co (None, 88, 96, 96)   7216        activation_55[0][0]              
__________________________________________________________________________________________________
dense_0_3_bottleneck_bn (BatchN (None, 88, 96, 96)   352         dense_0_3_bottleneck_conv2D[0][0]
__________________________________________________________________________________________________
activation_56 (Activation)      (None, 88, 96, 96)   0           dense_0_3_bottleneck_bn[0][0]    
__________________________________________________________________________________________________
dense_0_3_conv2D (Conv2D)       (None, 22, 96, 96)   17424       activation_56[0][0]              
__________________________________________________________________________________________________
concatenate_22 (Concatenate)    (None, 104, 96, 96)  0           concatenate_21[0][0]             
                                                                 dense_0_3_conv2D[0][0]           
__________________________________________________________________________________________________
dense_0_4_bn (BatchNormalizatio (None, 104, 96, 96)  416         concatenate_22[0][0]             
__________________________________________________________________________________________________
activation_57 (Activation)      (None, 104, 96, 96)  0           dense_0_4_bn[0][0]               
__________________________________________________________________________________________________
dense_0_4_bottleneck_conv2D (Co (None, 88, 96, 96)   9152        activation_57[0][0]              
__________________________________________________________________________________________________
dense_0_4_bottleneck_bn (BatchN (None, 88, 96, 96)   352         dense_0_4_bottleneck_conv2D[0][0]
__________________________________________________________________________________________________
activation_58 (Activation)      (None, 88, 96, 96)   0           dense_0_4_bottleneck_bn[0][0]    
__________________________________________________________________________________________________
dense_0_4_conv2D (Conv2D)       (None, 22, 96, 96)   17424       activation_58[0][0]              
__________________________________________________________________________________________________
concatenate_23 (Concatenate)    (None, 126, 96, 96)  0           concatenate_22[0][0]             
                                                                 dense_0_4_conv2D[0][0]           
__________________________________________________________________________________________________
tr_0_bn (BatchNormalization)    (None, 126, 96, 96)  504         concatenate_23[0][0]             
__________________________________________________________________________________________________
activation_59 (Activation)      (None, 126, 96, 96)  0           tr_0_bn[0][0]                    
__________________________________________________________________________________________________
tr_0_conv2D (Conv2D)            (None, 63, 96, 96)   7938        activation_59[0][0]              
__________________________________________________________________________________________________
average_pooling2d_9 (AveragePoo (None, 63, 48, 48)   0           tr_0_conv2D[0][0]                
__________________________________________________________________________________________________
dense_1_0_bn (BatchNormalizatio (None, 63, 48, 48)   252         average_pooling2d_9[0][0]        
__________________________________________________________________________________________________
activation_60 (Activation)      (None, 63, 48, 48)   0           dense_1_0_bn[0][0]               
__________________________________________________________________________________________________
dense_1_0_bottleneck_conv2D (Co (None, 88, 48, 48)   5544        activation_60[0][0]              
__________________________________________________________________________________________________
dense_1_0_bottleneck_bn (BatchN (None, 88, 48, 48)   352         dense_1_0_bottleneck_conv2D[0][0]
__________________________________________________________________________________________________
activation_61 (Activation)      (None, 88, 48, 48)   0           dense_1_0_bottleneck_bn[0][0]    
__________________________________________________________________________________________________
dense_1_0_conv2D (Conv2D)       (None, 22, 48, 48)   17424       activation_61[0][0]              
__________________________________________________________________________________________________
concatenate_24 (Concatenate)    (None, 85, 48, 48)   0           average_pooling2d_9[0][0]        
                                                                 dense_1_0_conv2D[0][0]           
__________________________________________________________________________________________________
dense_1_1_bn (BatchNormalizatio (None, 85, 48, 48)   340         concatenate_24[0][0]             
__________________________________________________________________________________________________
activation_62 (Activation)      (None, 85, 48, 48)   0           dense_1_1_bn[0][0]               
__________________________________________________________________________________________________
dense_1_1_bottleneck_conv2D (Co (None, 88, 48, 48)   7480        activation_62[0][0]              
__________________________________________________________________________________________________
dense_1_1_bottleneck_bn (BatchN (None, 88, 48, 48)   352         dense_1_1_bottleneck_conv2D[0][0]
__________________________________________________________________________________________________
activation_63 (Activation)      (None, 88, 48, 48)   0           dense_1_1_bottleneck_bn[0][0]    
__________________________________________________________________________________________________
dense_1_1_conv2D (Conv2D)       (None, 22, 48, 48)   17424       activation_63[0][0]              
__________________________________________________________________________________________________
concatenate_25 (Concatenate)    (None, 107, 48, 48)  0           concatenate_24[0][0]             
                                                                 dense_1_1_conv2D[0][0]           
__________________________________________________________________________________________________
dense_1_2_bn (BatchNormalizatio (None, 107, 48, 48)  428         concatenate_25[0][0]             
__________________________________________________________________________________________________
activation_64 (Activation)      (None, 107, 48, 48)  0           dense_1_2_bn[0][0]               
__________________________________________________________________________________________________
dense_1_2_bottleneck_conv2D (Co (None, 88, 48, 48)   9416        activation_64[0][0]              
__________________________________________________________________________________________________
dense_1_2_bottleneck_bn (BatchN (None, 88, 48, 48)   352         dense_1_2_bottleneck_conv2D[0][0]
__________________________________________________________________________________________________
activation_65 (Activation)      (None, 88, 48, 48)   0           dense_1_2_bottleneck_bn[0][0]    
__________________________________________________________________________________________________
dense_1_2_conv2D (Conv2D)       (None, 22, 48, 48)   17424       activation_65[0][0]              
__________________________________________________________________________________________________
concatenate_26 (Concatenate)    (None, 129, 48, 48)  0           concatenate_25[0][0]             
                                                                 dense_1_2_conv2D[0][0]           
__________________________________________________________________________________________________
dense_1_3_bn (BatchNormalizatio (None, 129, 48, 48)  516         concatenate_26[0][0]             
__________________________________________________________________________________________________
activation_66 (Activation)      (None, 129, 48, 48)  0           dense_1_3_bn[0][0]               
__________________________________________________________________________________________________
dense_1_3_bottleneck_conv2D (Co (None, 88, 48, 48)   11352       activation_66[0][0]              
__________________________________________________________________________________________________
dense_1_3_bottleneck_bn (BatchN (None, 88, 48, 48)   352         dense_1_3_bottleneck_conv2D[0][0]
__________________________________________________________________________________________________
activation_67 (Activation)      (None, 88, 48, 48)   0           dense_1_3_bottleneck_bn[0][0]    
__________________________________________________________________________________________________
dense_1_3_conv2D (Conv2D)       (None, 22, 48, 48)   17424       activation_67[0][0]              
__________________________________________________________________________________________________
concatenate_27 (Concatenate)    (None, 151, 48, 48)  0           concatenate_26[0][0]             
                                                                 dense_1_3_conv2D[0][0]           
__________________________________________________________________________________________________
dense_1_4_bn (BatchNormalizatio (None, 151, 48, 48)  604         concatenate_27[0][0]             
__________________________________________________________________________________________________
activation_68 (Activation)      (None, 151, 48, 48)  0           dense_1_4_bn[0][0]               
__________________________________________________________________________________________________
dense_1_4_bottleneck_conv2D (Co (None, 88, 48, 48)   13288       activation_68[0][0]              
__________________________________________________________________________________________________
dense_1_4_bottleneck_bn (BatchN (None, 88, 48, 48)   352         dense_1_4_bottleneck_conv2D[0][0]
__________________________________________________________________________________________________
activation_69 (Activation)      (None, 88, 48, 48)   0           dense_1_4_bottleneck_bn[0][0]    
__________________________________________________________________________________________________
dense_1_4_conv2D (Conv2D)       (None, 22, 48, 48)   17424       activation_69[0][0]              
__________________________________________________________________________________________________
concatenate_28 (Concatenate)    (None, 173, 48, 48)  0           concatenate_27[0][0]             
                                                                 dense_1_4_conv2D[0][0]           
__________________________________________________________________________________________________
final_bn (BatchNormalization)   (None, 173, 48, 48)  692         concatenate_28[0][0]             
__________________________________________________________________________________________________
activation_70 (Activation)      (None, 173, 48, 48)  0           final_bn[0][0]                   
__________________________________________________________________________________________________
global_average_pooling2d_5 (Glo (None, 173)          0           activation_70[0][0]              
__________________________________________________________________________________________________
dense_5 (Dense)                 (None, 1)            174         global_average_pooling2d_5[0][0] 
==================================================================================================
Total params: 264,176
Trainable params: 260,148
Non-trainable params: 4,028
__________________________________________________________________________________________________
Train on 31872 samples, validate on 7968 samples
Epoch 1/1
 - 96s - loss: 0.5594 - acc: 0.7475 - val_loss: 4.1298 - val_acc: 0.5606
…
7904/7968 [============================>.] - ETA: 0s
7968/7968 [==============================] - 7s 897us/step
current val accuracy: 0.5606174698795181
current auc_score ------------------>  0.7157749136311995
Depth:  25  Growth_rate:  22  Nb_dense_block:  4  lr:  5e-05
__________________________________________________________________________________________________
Layer (type)                    Output Shape         Param #     Connected to                     
==================================================================================================
input_6 (InputLayer)            (None, 2, 96, 96)    0                                            
__________________________________________________________________________________________________
initial_conv2D (Conv2D)         (None, 16, 96, 96)   288         input_6[0][0]                    
__________________________________________________________________________________________________
dense_0_0_bn (BatchNormalizatio (None, 16, 96, 96)   64          initial_conv2D[0][0]             
__________________________________________________________________________________________________
activation_71 (Activation)      (None, 16, 96, 96)   0           dense_0_0_bn[0][0]               
__________________________________________________________________________________________________
dense_0_0_bottleneck_conv2D (Co (None, 88, 96, 96)   1408        activation_71[0][0]              
__________________________________________________________________________________________________
dense_0_0_bottleneck_bn (BatchN (None, 88, 96, 96)   352         dense_0_0_bottleneck_conv2D[0][0]
__________________________________________________________________________________________________
activation_72 (Activation)      (None, 88, 96, 96)   0           dense_0_0_bottleneck_bn[0][0]    
__________________________________________________________________________________________________
dense_0_0_conv2D (Conv2D)       (None, 22, 96, 96)   17424       activation_72[0][0]              
__________________________________________________________________________________________________
concatenate_29 (Concatenate)    (None, 38, 96, 96)   0           initial_conv2D[0][0]             
                                                                 dense_0_0_conv2D[0][0]           
__________________________________________________________________________________________________
dense_0_1_bn (BatchNormalizatio (None, 38, 96, 96)   152         concatenate_29[0][0]             
__________________________________________________________________________________________________
activation_73 (Activation)      (None, 38, 96, 96)   0           dense_0_1_bn[0][0]               
__________________________________________________________________________________________________
dense_0_1_bottleneck_conv2D (Co (None, 88, 96, 96)   3344        activation_73[0][0]              
__________________________________________________________________________________________________
dense_0_1_bottleneck_bn (BatchN (None, 88, 96, 96)   352         dense_0_1_bottleneck_conv2D[0][0]
__________________________________________________________________________________________________
activation_74 (Activation)      (None, 88, 96, 96)   0           dense_0_1_bottleneck_bn[0][0]    
__________________________________________________________________________________________________
dense_0_1_conv2D (Conv2D)       (None, 22, 96, 96)   17424       activation_74[0][0]              
__________________________________________________________________________________________________
concatenate_30 (Concatenate)    (None, 60, 96, 96)   0           concatenate_29[0][0]             
                                                                 dense_0_1_conv2D[0][0]           
__________________________________________________________________________________________________
dense_0_2_bn (BatchNormalizatio (None, 60, 96, 96)   240         concatenate_30[0][0]             
__________________________________________________________________________________________________
activation_75 (Activation)      (None, 60, 96, 96)   0           dense_0_2_bn[0][0]               
__________________________________________________________________________________________________
dense_0_2_bottleneck_conv2D (Co (None, 88, 96, 96)   5280        activation_75[0][0]              
__________________________________________________________________________________________________
dense_0_2_bottleneck_bn (BatchN (None, 88, 96, 96)   352         dense_0_2_bottleneck_conv2D[0][0]
__________________________________________________________________________________________________
activation_76 (Activation)      (None, 88, 96, 96)   0           dense_0_2_bottleneck_bn[0][0]    
__________________________________________________________________________________________________
dense_0_2_conv2D (Conv2D)       (None, 22, 96, 96)   17424       activation_76[0][0]              
__________________________________________________________________________________________________
concatenate_31 (Concatenate)    (None, 82, 96, 96)   0           concatenate_30[0][0]             
                                                                 dense_0_2_conv2D[0][0]           
__________________________________________________________________________________________________
tr_0_bn (BatchNormalization)    (None, 82, 96, 96)   328         concatenate_31[0][0]             
__________________________________________________________________________________________________
activation_77 (Activation)      (None, 82, 96, 96)   0           tr_0_bn[0][0]                    
__________________________________________________________________________________________________
tr_0_conv2D (Conv2D)            (None, 41, 96, 96)   3362        activation_77[0][0]              
__________________________________________________________________________________________________
average_pooling2d_10 (AveragePo (None, 41, 48, 48)   0           tr_0_conv2D[0][0]                
__________________________________________________________________________________________________
dense_1_0_bn (BatchNormalizatio (None, 41, 48, 48)   164         average_pooling2d_10[0][0]       
__________________________________________________________________________________________________
activation_78 (Activation)      (None, 41, 48, 48)   0           dense_1_0_bn[0][0]               
__________________________________________________________________________________________________
dense_1_0_bottleneck_conv2D (Co (None, 88, 48, 48)   3608        activation_78[0][0]              
__________________________________________________________________________________________________
dense_1_0_bottleneck_bn (BatchN (None, 88, 48, 48)   352         dense_1_0_bottleneck_conv2D[0][0]
__________________________________________________________________________________________________
activation_79 (Activation)      (None, 88, 48, 48)   0           dense_1_0_bottleneck_bn[0][0]    
__________________________________________________________________________________________________
dense_1_0_conv2D (Conv2D)       (None, 22, 48, 48)   17424       activation_79[0][0]              
__________________________________________________________________________________________________
concatenate_32 (Concatenate)    (None, 63, 48, 48)   0           average_pooling2d_10[0][0]       
                                                                 dense_1_0_conv2D[0][0]           
__________________________________________________________________________________________________
dense_1_1_bn (BatchNormalizatio (None, 63, 48, 48)   252         concatenate_32[0][0]             
__________________________________________________________________________________________________
activation_80 (Activation)      (None, 63, 48, 48)   0           dense_1_1_bn[0][0]               
__________________________________________________________________________________________________
dense_1_1_bottleneck_conv2D (Co (None, 88, 48, 48)   5544        activation_80[0][0]              
__________________________________________________________________________________________________
dense_1_1_bottleneck_bn (BatchN (None, 88, 48, 48)   352         dense_1_1_bottleneck_conv2D[0][0]
__________________________________________________________________________________________________
activation_81 (Activation)      (None, 88, 48, 48)   0           dense_1_1_bottleneck_bn[0][0]    
__________________________________________________________________________________________________
dense_1_1_conv2D (Conv2D)       (None, 22, 48, 48)   17424       activation_81[0][0]              
__________________________________________________________________________________________________
concatenate_33 (Concatenate)    (None, 85, 48, 48)   0           concatenate_32[0][0]             
                                                                 dense_1_1_conv2D[0][0]           
__________________________________________________________________________________________________
dense_1_2_bn (BatchNormalizatio (None, 85, 48, 48)   340         concatenate_33[0][0]             
__________________________________________________________________________________________________
activation_82 (Activation)      (None, 85, 48, 48)   0           dense_1_2_bn[0][0]               
__________________________________________________________________________________________________
dense_1_2_bottleneck_conv2D (Co (None, 88, 48, 48)   7480        activation_82[0][0]              
__________________________________________________________________________________________________
dense_1_2_bottleneck_bn (BatchN (None, 88, 48, 48)   352         dense_1_2_bottleneck_conv2D[0][0]
__________________________________________________________________________________________________
activation_83 (Activation)      (None, 88, 48, 48)   0           dense_1_2_bottleneck_bn[0][0]    
__________________________________________________________________________________________________
dense_1_2_conv2D (Conv2D)       (None, 22, 48, 48)   17424       activation_83[0][0]              
__________________________________________________________________________________________________
concatenate_34 (Concatenate)    (None, 107, 48, 48)  0           concatenate_33[0][0]             
                                                                 dense_1_2_conv2D[0][0]           
__________________________________________________________________________________________________
tr_1_bn (BatchNormalization)    (None, 107, 48, 48)  428         concatenate_34[0][0]             
__________________________________________________________________________________________________
activation_84 (Activation)      (None, 107, 48, 48)  0           tr_1_bn[0][0]                    
__________________________________________________________________________________________________
tr_1_conv2D (Conv2D)            (None, 53, 48, 48)   5671        activation_84[0][0]              
__________________________________________________________________________________________________
average_pooling2d_11 (AveragePo (None, 53, 24, 24)   0           tr_1_conv2D[0][0]                
__________________________________________________________________________________________________
dense_2_0_bn (BatchNormalizatio (None, 53, 24, 24)   212         average_pooling2d_11[0][0]       
__________________________________________________________________________________________________
activation_85 (Activation)      (None, 53, 24, 24)   0           dense_2_0_bn[0][0]               
__________________________________________________________________________________________________
dense_2_0_bottleneck_conv2D (Co (None, 88, 24, 24)   4664        activation_85[0][0]              
__________________________________________________________________________________________________
dense_2_0_bottleneck_bn (BatchN (None, 88, 24, 24)   352         dense_2_0_bottleneck_conv2D[0][0]
__________________________________________________________________________________________________
activation_86 (Activation)      (None, 88, 24, 24)   0           dense_2_0_bottleneck_bn[0][0]    
__________________________________________________________________________________________________
dense_2_0_conv2D (Conv2D)       (None, 22, 24, 24)   17424       activation_86[0][0]              
__________________________________________________________________________________________________
concatenate_35 (Concatenate)    (None, 75, 24, 24)   0           average_pooling2d_11[0][0]       
                                                                 dense_2_0_conv2D[0][0]           
__________________________________________________________________________________________________
dense_2_1_bn (BatchNormalizatio (None, 75, 24, 24)   300         concatenate_35[0][0]             
__________________________________________________________________________________________________
activation_87 (Activation)      (None, 75, 24, 24)   0           dense_2_1_bn[0][0]               
__________________________________________________________________________________________________
dense_2_1_bottleneck_conv2D (Co (None, 88, 24, 24)   6600        activation_87[0][0]              
__________________________________________________________________________________________________
dense_2_1_bottleneck_bn (BatchN (None, 88, 24, 24)   352         dense_2_1_bottleneck_conv2D[0][0]
__________________________________________________________________________________________________
activation_88 (Activation)      (None, 88, 24, 24)   0           dense_2_1_bottleneck_bn[0][0]    
__________________________________________________________________________________________________
dense_2_1_conv2D (Conv2D)       (None, 22, 24, 24)   17424       activation_88[0][0]              
__________________________________________________________________________________________________
concatenate_36 (Concatenate)    (None, 97, 24, 24)   0           concatenate_35[0][0]             
                                                                 dense_2_1_conv2D[0][0]           
__________________________________________________________________________________________________
dense_2_2_bn (BatchNormalizatio (None, 97, 24, 24)   388         concatenate_36[0][0]             
__________________________________________________________________________________________________
activation_89 (Activation)      (None, 97, 24, 24)   0           dense_2_2_bn[0][0]               
__________________________________________________________________________________________________
dense_2_2_bottleneck_conv2D (Co (None, 88, 24, 24)   8536        activation_89[0][0]              
__________________________________________________________________________________________________
dense_2_2_bottleneck_bn (BatchN (None, 88, 24, 24)   352         dense_2_2_bottleneck_conv2D[0][0]
__________________________________________________________________________________________________
activation_90 (Activation)      (None, 88, 24, 24)   0           dense_2_2_bottleneck_bn[0][0]    
__________________________________________________________________________________________________
dense_2_2_conv2D (Conv2D)       (None, 22, 24, 24)   17424       activation_90[0][0]              
__________________________________________________________________________________________________
concatenate_37 (Concatenate)    (None, 119, 24, 24)  0           concatenate_36[0][0]             
                                                                 dense_2_2_conv2D[0][0]           
__________________________________________________________________________________________________
tr_2_bn (BatchNormalization)    (None, 119, 24, 24)  476         concatenate_37[0][0]             
__________________________________________________________________________________________________
activation_91 (Activation)      (None, 119, 24, 24)  0           tr_2_bn[0][0]                    
__________________________________________________________________________________________________
tr_2_conv2D (Conv2D)            (None, 59, 24, 24)   7021        activation_91[0][0]              
__________________________________________________________________________________________________
average_pooling2d_12 (AveragePo (None, 59, 12, 12)   0           tr_2_conv2D[0][0]                
__________________________________________________________________________________________________
dense_3_0_bn (BatchNormalizatio (None, 59, 12, 12)   236         average_pooling2d_12[0][0]       
__________________________________________________________________________________________________
activation_92 (Activation)      (None, 59, 12, 12)   0           dense_3_0_bn[0][0]               
__________________________________________________________________________________________________
dense_3_0_bottleneck_conv2D (Co (None, 88, 12, 12)   5192        activation_92[0][0]              
__________________________________________________________________________________________________
dense_3_0_bottleneck_bn (BatchN (None, 88, 12, 12)   352         dense_3_0_bottleneck_conv2D[0][0]
__________________________________________________________________________________________________
activation_93 (Activation)      (None, 88, 12, 12)   0           dense_3_0_bottleneck_bn[0][0]    
__________________________________________________________________________________________________
dense_3_0_conv2D (Conv2D)       (None, 22, 12, 12)   17424       activation_93[0][0]              
__________________________________________________________________________________________________
concatenate_38 (Concatenate)    (None, 81, 12, 12)   0           average_pooling2d_12[0][0]       
                                                                 dense_3_0_conv2D[0][0]           
__________________________________________________________________________________________________
dense_3_1_bn (BatchNormalizatio (None, 81, 12, 12)   324         concatenate_38[0][0]             
__________________________________________________________________________________________________
activation_94 (Activation)      (None, 81, 12, 12)   0           dense_3_1_bn[0][0]               
__________________________________________________________________________________________________
dense_3_1_bottleneck_conv2D (Co (None, 88, 12, 12)   7128        activation_94[0][0]              
__________________________________________________________________________________________________
dense_3_1_bottleneck_bn (BatchN (None, 88, 12, 12)   352         dense_3_1_bottleneck_conv2D[0][0]
__________________________________________________________________________________________________
activation_95 (Activation)      (None, 88, 12, 12)   0           dense_3_1_bottleneck_bn[0][0]    
__________________________________________________________________________________________________
dense_3_1_conv2D (Conv2D)       (None, 22, 12, 12)   17424       activation_95[0][0]              
__________________________________________________________________________________________________
concatenate_39 (Concatenate)    (None, 103, 12, 12)  0           concatenate_38[0][0]             
                                                                 dense_3_1_conv2D[0][0]           
__________________________________________________________________________________________________
dense_3_2_bn (BatchNormalizatio (None, 103, 12, 12)  412         concatenate_39[0][0]             
__________________________________________________________________________________________________
activation_96 (Activation)      (None, 103, 12, 12)  0           dense_3_2_bn[0][0]               
__________________________________________________________________________________________________
dense_3_2_bottleneck_conv2D (Co (None, 88, 12, 12)   9064        activation_96[0][0]              
__________________________________________________________________________________________________
dense_3_2_bottleneck_bn (BatchN (None, 88, 12, 12)   352         dense_3_2_bottleneck_conv2D[0][0]
__________________________________________________________________________________________________
activation_97 (Activation)      (None, 88, 12, 12)   0           dense_3_2_bottleneck_bn[0][0]    
__________________________________________________________________________________________________
dense_3_2_conv2D (Conv2D)       (None, 22, 12, 12)   17424       activation_97[0][0]              
__________________________________________________________________________________________________
concatenate_40 (Concatenate)    (None, 125, 12, 12)  0           concatenate_39[0][0]             
                                                                 dense_3_2_conv2D[0][0]           
__________________________________________________________________________________________________
final_bn (BatchNormalization)   (None, 125, 12, 12)  500         concatenate_40[0][0]             
__________________________________________________________________________________________________
activation_98 (Activation)      (None, 125, 12, 12)  0           final_bn[0][0]                   
__________________________________________________________________________________________________
global_average_pooling2d_6 (Glo (None, 125)          0           activation_98[0][0]              
__________________________________________________________________________________________________
dense_6 (Dense)                 (None, 1)            126         global_average_pooling2d_6[0][0] 
==================================================================================================
Total params: 302,444
Trainable params: 297,924
Non-trainable params: 4,520
__________________________________________________________________________________________________
Train on 31872 samples, validate on 7968 samples
Epoch 1/1
 - 68s - loss: 0.7048 - acc: 0.7748 - val_loss: 0.6540 - val_acc: 0.8023
…
7904/7968 [============================>.] - ETA: 0s
7968/7968 [==============================] - 5s 579us/step
current val accuracy: 0.8023343373493976
current auc_score ------------------>  0.8944058244881129
Depth:  25  Growth_rate:  6  Nb_dense_block:  2  lr:  5e-05
__________________________________________________________________________________________________
Layer (type)                    Output Shape         Param #     Connected to                     
==================================================================================================
input_7 (InputLayer)            (None, 2, 96, 96)    0                                            
__________________________________________________________________________________________________
initial_conv2D (Conv2D)         (None, 16, 96, 96)   288         input_7[0][0]                    
__________________________________________________________________________________________________
dense_0_0_bn (BatchNormalizatio (None, 16, 96, 96)   64          initial_conv2D[0][0]             
__________________________________________________________________________________________________
activation_99 (Activation)      (None, 16, 96, 96)   0           dense_0_0_bn[0][0]               
__________________________________________________________________________________________________
dense_0_0_bottleneck_conv2D (Co (None, 24, 96, 96)   384         activation_99[0][0]              
__________________________________________________________________________________________________
dense_0_0_bottleneck_bn (BatchN (None, 24, 96, 96)   96          dense_0_0_bottleneck_conv2D[0][0]
__________________________________________________________________________________________________
activation_100 (Activation)     (None, 24, 96, 96)   0           dense_0_0_bottleneck_bn[0][0]    
__________________________________________________________________________________________________
dense_0_0_conv2D (Conv2D)       (None, 6, 96, 96)    1296        activation_100[0][0]             
__________________________________________________________________________________________________
concatenate_41 (Concatenate)    (None, 22, 96, 96)   0           initial_conv2D[0][0]             
                                                                 dense_0_0_conv2D[0][0]           
__________________________________________________________________________________________________
dense_0_1_bn (BatchNormalizatio (None, 22, 96, 96)   88          concatenate_41[0][0]             
__________________________________________________________________________________________________
activation_101 (Activation)     (None, 22, 96, 96)   0           dense_0_1_bn[0][0]               
__________________________________________________________________________________________________
dense_0_1_bottleneck_conv2D (Co (None, 24, 96, 96)   528         activation_101[0][0]             
__________________________________________________________________________________________________
dense_0_1_bottleneck_bn (BatchN (None, 24, 96, 96)   96          dense_0_1_bottleneck_conv2D[0][0]
__________________________________________________________________________________________________
activation_102 (Activation)     (None, 24, 96, 96)   0           dense_0_1_bottleneck_bn[0][0]    
__________________________________________________________________________________________________
dense_0_1_conv2D (Conv2D)       (None, 6, 96, 96)    1296        activation_102[0][0]             
__________________________________________________________________________________________________
concatenate_42 (Concatenate)    (None, 28, 96, 96)   0           concatenate_41[0][0]             
                                                                 dense_0_1_conv2D[0][0]           
__________________________________________________________________________________________________
dense_0_2_bn (BatchNormalizatio (None, 28, 96, 96)   112         concatenate_42[0][0]             
__________________________________________________________________________________________________
activation_103 (Activation)     (None, 28, 96, 96)   0           dense_0_2_bn[0][0]               
__________________________________________________________________________________________________
dense_0_2_bottleneck_conv2D (Co (None, 24, 96, 96)   672         activation_103[0][0]             
__________________________________________________________________________________________________
dense_0_2_bottleneck_bn (BatchN (None, 24, 96, 96)   96          dense_0_2_bottleneck_conv2D[0][0]
__________________________________________________________________________________________________
activation_104 (Activation)     (None, 24, 96, 96)   0           dense_0_2_bottleneck_bn[0][0]    
__________________________________________________________________________________________________
dense_0_2_conv2D (Conv2D)       (None, 6, 96, 96)    1296        activation_104[0][0]             
__________________________________________________________________________________________________
concatenate_43 (Concatenate)    (None, 34, 96, 96)   0           concatenate_42[0][0]             
                                                                 dense_0_2_conv2D[0][0]           
__________________________________________________________________________________________________
tr_0_bn (BatchNormalization)    (None, 34, 96, 96)   136         concatenate_43[0][0]             
__________________________________________________________________________________________________
activation_105 (Activation)     (None, 34, 96, 96)   0           tr_0_bn[0][0]                    
__________________________________________________________________________________________________
tr_0_conv2D (Conv2D)            (None, 17, 96, 96)   578         activation_105[0][0]             
__________________________________________________________________________________________________
average_pooling2d_13 (AveragePo (None, 17, 48, 48)   0           tr_0_conv2D[0][0]                
__________________________________________________________________________________________________
dense_1_0_bn (BatchNormalizatio (None, 17, 48, 48)   68          average_pooling2d_13[0][0]       
__________________________________________________________________________________________________
activation_106 (Activation)     (None, 17, 48, 48)   0           dense_1_0_bn[0][0]               
__________________________________________________________________________________________________
dense_1_0_bottleneck_conv2D (Co (None, 24, 48, 48)   408         activation_106[0][0]             
__________________________________________________________________________________________________
dense_1_0_bottleneck_bn (BatchN (None, 24, 48, 48)   96          dense_1_0_bottleneck_conv2D[0][0]
__________________________________________________________________________________________________
activation_107 (Activation)     (None, 24, 48, 48)   0           dense_1_0_bottleneck_bn[0][0]    
__________________________________________________________________________________________________
dense_1_0_conv2D (Conv2D)       (None, 6, 48, 48)    1296        activation_107[0][0]             
__________________________________________________________________________________________________
concatenate_44 (Concatenate)    (None, 23, 48, 48)   0           average_pooling2d_13[0][0]       
                                                                 dense_1_0_conv2D[0][0]           
__________________________________________________________________________________________________
dense_1_1_bn (BatchNormalizatio (None, 23, 48, 48)   92          concatenate_44[0][0]             
__________________________________________________________________________________________________
activation_108 (Activation)     (None, 23, 48, 48)   0           dense_1_1_bn[0][0]               
__________________________________________________________________________________________________
dense_1_1_bottleneck_conv2D (Co (None, 24, 48, 48)   552         activation_108[0][0]             
__________________________________________________________________________________________________
dense_1_1_bottleneck_bn (BatchN (None, 24, 48, 48)   96          dense_1_1_bottleneck_conv2D[0][0]
__________________________________________________________________________________________________
activation_109 (Activation)     (None, 24, 48, 48)   0           dense_1_1_bottleneck_bn[0][0]    
__________________________________________________________________________________________________
dense_1_1_conv2D (Conv2D)       (None, 6, 48, 48)    1296        activation_109[0][0]             
__________________________________________________________________________________________________
concatenate_45 (Concatenate)    (None, 29, 48, 48)   0           concatenate_44[0][0]             
                                                                 dense_1_1_conv2D[0][0]           
__________________________________________________________________________________________________
dense_1_2_bn (BatchNormalizatio (None, 29, 48, 48)   116         concatenate_45[0][0]             
__________________________________________________________________________________________________
activation_110 (Activation)     (None, 29, 48, 48)   0           dense_1_2_bn[0][0]               
__________________________________________________________________________________________________
dense_1_2_bottleneck_conv2D (Co (None, 24, 48, 48)   696         activation_110[0][0]             
__________________________________________________________________________________________________
dense_1_2_bottleneck_bn (BatchN (None, 24, 48, 48)   96          dense_1_2_bottleneck_conv2D[0][0]
__________________________________________________________________________________________________
activation_111 (Activation)     (None, 24, 48, 48)   0           dense_1_2_bottleneck_bn[0][0]    
__________________________________________________________________________________________________
dense_1_2_conv2D (Conv2D)       (None, 6, 48, 48)    1296        activation_111[0][0]             
__________________________________________________________________________________________________
concatenate_46 (Concatenate)    (None, 35, 48, 48)   0           concatenate_45[0][0]             
                                                                 dense_1_2_conv2D[0][0]           
__________________________________________________________________________________________________
final_bn (BatchNormalization)   (None, 35, 48, 48)   140         concatenate_46[0][0]             
__________________________________________________________________________________________________
activation_112 (Activation)     (None, 35, 48, 48)   0           final_bn[0][0]                   
__________________________________________________________________________________________________
global_average_pooling2d_7 (Glo (None, 35)           0           activation_112[0][0]             
__________________________________________________________________________________________________
dense_7 (Dense)                 (None, 1)            36          global_average_pooling2d_7[0][0] 
==================================================================================================
Total params: 13,310
Trainable params: 12,614
Non-trainable params: 696
__________________________________________________________________________________________________
Train on 31872 samples, validate on 7968 samples
Epoch 1/1
 - 29s - loss: 0.6500 - acc: 0.6864 - val_loss: 0.6100 - val_acc: 0.7285
…
7776/7968 [============================>.] - ETA: 0s
7968/7968 [==============================] - 2s 260us/step
current val accuracy: 0.728539156626506
current auc_score ------------------>  0.7896662325964472
Depth:  16  Growth_rate:  30  Nb_dense_block:  4  lr:  0.0005
__________________________________________________________________________________________________
Layer (type)                    Output Shape         Param #     Connected to                     
==================================================================================================
input_8 (InputLayer)            (None, 2, 96, 96)    0                                            
__________________________________________________________________________________________________
initial_conv2D (Conv2D)         (None, 16, 96, 96)   288         input_8[0][0]                    
__________________________________________________________________________________________________
dense_0_0_bn (BatchNormalizatio (None, 16, 96, 96)   64          initial_conv2D[0][0]             
__________________________________________________________________________________________________
activation_113 (Activation)     (None, 16, 96, 96)   0           dense_0_0_bn[0][0]               
__________________________________________________________________________________________________
dense_0_0_bottleneck_conv2D (Co (None, 120, 96, 96)  1920        activation_113[0][0]             
__________________________________________________________________________________________________
dense_0_0_bottleneck_bn (BatchN (None, 120, 96, 96)  480         dense_0_0_bottleneck_conv2D[0][0]
__________________________________________________________________________________________________
activation_114 (Activation)     (None, 120, 96, 96)  0           dense_0_0_bottleneck_bn[0][0]    
__________________________________________________________________________________________________
dense_0_0_conv2D (Conv2D)       (None, 30, 96, 96)   32400       activation_114[0][0]             
__________________________________________________________________________________________________
concatenate_47 (Concatenate)    (None, 46, 96, 96)   0           initial_conv2D[0][0]             
                                                                 dense_0_0_conv2D[0][0]           
__________________________________________________________________________________________________
dense_0_1_bn (BatchNormalizatio (None, 46, 96, 96)   184         concatenate_47[0][0]             
__________________________________________________________________________________________________
activation_115 (Activation)     (None, 46, 96, 96)   0           dense_0_1_bn[0][0]               
__________________________________________________________________________________________________
dense_0_1_bottleneck_conv2D (Co (None, 120, 96, 96)  5520        activation_115[0][0]             
__________________________________________________________________________________________________
dense_0_1_bottleneck_bn (BatchN (None, 120, 96, 96)  480         dense_0_1_bottleneck_conv2D[0][0]
__________________________________________________________________________________________________
activation_116 (Activation)     (None, 120, 96, 96)  0           dense_0_1_bottleneck_bn[0][0]    
__________________________________________________________________________________________________
dense_0_1_conv2D (Conv2D)       (None, 30, 96, 96)   32400       activation_116[0][0]             
__________________________________________________________________________________________________
concatenate_48 (Concatenate)    (None, 76, 96, 96)   0           concatenate_47[0][0]             
                                                                 dense_0_1_conv2D[0][0]           
__________________________________________________________________________________________________
tr_0_bn (BatchNormalization)    (None, 76, 96, 96)   304         concatenate_48[0][0]             
__________________________________________________________________________________________________
activation_117 (Activation)     (None, 76, 96, 96)   0           tr_0_bn[0][0]                    
__________________________________________________________________________________________________
tr_0_conv2D (Conv2D)            (None, 38, 96, 96)   2888        activation_117[0][0]             
__________________________________________________________________________________________________
average_pooling2d_14 (AveragePo (None, 38, 48, 48)   0           tr_0_conv2D[0][0]                
__________________________________________________________________________________________________
dense_1_0_bn (BatchNormalizatio (None, 38, 48, 48)   152         average_pooling2d_14[0][0]       
__________________________________________________________________________________________________
activation_118 (Activation)     (None, 38, 48, 48)   0           dense_1_0_bn[0][0]               
__________________________________________________________________________________________________
dense_1_0_bottleneck_conv2D (Co (None, 120, 48, 48)  4560        activation_118[0][0]             
__________________________________________________________________________________________________
dense_1_0_bottleneck_bn (BatchN (None, 120, 48, 48)  480         dense_1_0_bottleneck_conv2D[0][0]
__________________________________________________________________________________________________
activation_119 (Activation)     (None, 120, 48, 48)  0           dense_1_0_bottleneck_bn[0][0]    
__________________________________________________________________________________________________
dense_1_0_conv2D (Conv2D)       (None, 30, 48, 48)   32400       activation_119[0][0]             
__________________________________________________________________________________________________
concatenate_49 (Concatenate)    (None, 68, 48, 48)   0           average_pooling2d_14[0][0]       
                                                                 dense_1_0_conv2D[0][0]           
__________________________________________________________________________________________________
dense_1_1_bn (BatchNormalizatio (None, 68, 48, 48)   272         concatenate_49[0][0]             
__________________________________________________________________________________________________
activation_120 (Activation)     (None, 68, 48, 48)   0           dense_1_1_bn[0][0]               
__________________________________________________________________________________________________
dense_1_1_bottleneck_conv2D (Co (None, 120, 48, 48)  8160        activation_120[0][0]             
__________________________________________________________________________________________________
dense_1_1_bottleneck_bn (BatchN (None, 120, 48, 48)  480         dense_1_1_bottleneck_conv2D[0][0]
__________________________________________________________________________________________________
activation_121 (Activation)     (None, 120, 48, 48)  0           dense_1_1_bottleneck_bn[0][0]    
__________________________________________________________________________________________________
dense_1_1_conv2D (Conv2D)       (None, 30, 48, 48)   32400       activation_121[0][0]             
__________________________________________________________________________________________________
concatenate_50 (Concatenate)    (None, 98, 48, 48)   0           concatenate_49[0][0]             
                                                                 dense_1_1_conv2D[0][0]           
__________________________________________________________________________________________________
tr_1_bn (BatchNormalization)    (None, 98, 48, 48)   392         concatenate_50[0][0]             
__________________________________________________________________________________________________
activation_122 (Activation)     (None, 98, 48, 48)   0           tr_1_bn[0][0]                    
__________________________________________________________________________________________________
tr_1_conv2D (Conv2D)            (None, 49, 48, 48)   4802        activation_122[0][0]             
__________________________________________________________________________________________________
average_pooling2d_15 (AveragePo (None, 49, 24, 24)   0           tr_1_conv2D[0][0]                
__________________________________________________________________________________________________
dense_2_0_bn (BatchNormalizatio (None, 49, 24, 24)   196         average_pooling2d_15[0][0]       
__________________________________________________________________________________________________
activation_123 (Activation)     (None, 49, 24, 24)   0           dense_2_0_bn[0][0]               
__________________________________________________________________________________________________
dense_2_0_bottleneck_conv2D (Co (None, 120, 24, 24)  5880        activation_123[0][0]             
__________________________________________________________________________________________________
dense_2_0_bottleneck_bn (BatchN (None, 120, 24, 24)  480         dense_2_0_bottleneck_conv2D[0][0]
__________________________________________________________________________________________________
activation_124 (Activation)     (None, 120, 24, 24)  0           dense_2_0_bottleneck_bn[0][0]    
__________________________________________________________________________________________________
dense_2_0_conv2D (Conv2D)       (None, 30, 24, 24)   32400       activation_124[0][0]             
__________________________________________________________________________________________________
concatenate_51 (Concatenate)    (None, 79, 24, 24)   0           average_pooling2d_15[0][0]       
                                                                 dense_2_0_conv2D[0][0]           
__________________________________________________________________________________________________
dense_2_1_bn (BatchNormalizatio (None, 79, 24, 24)   316         concatenate_51[0][0]             
__________________________________________________________________________________________________
activation_125 (Activation)     (None, 79, 24, 24)   0           dense_2_1_bn[0][0]               
__________________________________________________________________________________________________
dense_2_1_bottleneck_conv2D (Co (None, 120, 24, 24)  9480        activation_125[0][0]             
__________________________________________________________________________________________________
dense_2_1_bottleneck_bn (BatchN (None, 120, 24, 24)  480         dense_2_1_bottleneck_conv2D[0][0]
__________________________________________________________________________________________________
activation_126 (Activation)     (None, 120, 24, 24)  0           dense_2_1_bottleneck_bn[0][0]    
__________________________________________________________________________________________________
dense_2_1_conv2D (Conv2D)       (None, 30, 24, 24)   32400       activation_126[0][0]             
__________________________________________________________________________________________________
concatenate_52 (Concatenate)    (None, 109, 24, 24)  0           concatenate_51[0][0]             
                                                                 dense_2_1_conv2D[0][0]           
__________________________________________________________________________________________________
tr_2_bn (BatchNormalization)    (None, 109, 24, 24)  436         concatenate_52[0][0]             
__________________________________________________________________________________________________
activation_127 (Activation)     (None, 109, 24, 24)  0           tr_2_bn[0][0]                    
__________________________________________________________________________________________________
tr_2_conv2D (Conv2D)            (None, 54, 24, 24)   5886        activation_127[0][0]             
__________________________________________________________________________________________________
average_pooling2d_16 (AveragePo (None, 54, 12, 12)   0           tr_2_conv2D[0][0]                
__________________________________________________________________________________________________
dense_3_0_bn (BatchNormalizatio (None, 54, 12, 12)   216         average_pooling2d_16[0][0]       
__________________________________________________________________________________________________
activation_128 (Activation)     (None, 54, 12, 12)   0           dense_3_0_bn[0][0]               
__________________________________________________________________________________________________
dense_3_0_bottleneck_conv2D (Co (None, 120, 12, 12)  6480        activation_128[0][0]             
__________________________________________________________________________________________________
dense_3_0_bottleneck_bn (BatchN (None, 120, 12, 12)  480         dense_3_0_bottleneck_conv2D[0][0]
__________________________________________________________________________________________________
activation_129 (Activation)     (None, 120, 12, 12)  0           dense_3_0_bottleneck_bn[0][0]    
__________________________________________________________________________________________________
dense_3_0_conv2D (Conv2D)       (None, 30, 12, 12)   32400       activation_129[0][0]             
__________________________________________________________________________________________________
concatenate_53 (Concatenate)    (None, 84, 12, 12)   0           average_pooling2d_16[0][0]       
                                                                 dense_3_0_conv2D[0][0]           
__________________________________________________________________________________________________
dense_3_1_bn (BatchNormalizatio (None, 84, 12, 12)   336         concatenate_53[0][0]             
__________________________________________________________________________________________________
activation_130 (Activation)     (None, 84, 12, 12)   0           dense_3_1_bn[0][0]               
__________________________________________________________________________________________________
dense_3_1_bottleneck_conv2D (Co (None, 120, 12, 12)  10080       activation_130[0][0]             
__________________________________________________________________________________________________
dense_3_1_bottleneck_bn (BatchN (None, 120, 12, 12)  480         dense_3_1_bottleneck_conv2D[0][0]
__________________________________________________________________________________________________
activation_131 (Activation)     (None, 120, 12, 12)  0           dense_3_1_bottleneck_bn[0][0]    
__________________________________________________________________________________________________
dense_3_1_conv2D (Conv2D)       (None, 30, 12, 12)   32400       activation_131[0][0]             
__________________________________________________________________________________________________
concatenate_54 (Concatenate)    (None, 114, 12, 12)  0           concatenate_53[0][0]             
                                                                 dense_3_1_conv2D[0][0]           
__________________________________________________________________________________________________
final_bn (BatchNormalization)   (None, 114, 12, 12)  456         concatenate_54[0][0]             
__________________________________________________________________________________________________
activation_132 (Activation)     (None, 114, 12, 12)  0           final_bn[0][0]                   
__________________________________________________________________________________________________
global_average_pooling2d_8 (Glo (None, 114)          0           activation_132[0][0]             
__________________________________________________________________________________________________
dense_8 (Dense)                 (None, 1)            115         global_average_pooling2d_8[0][0] 
==================================================================================================
Total params: 332,423
Trainable params: 328,841
Non-trainable params: 3,582
__________________________________________________________________________________________________
Train on 31872 samples, validate on 7968 samples
Epoch 1/1
 - 56s - loss: 0.6073 - acc: 0.8033 - val_loss: 0.5893 - val_acc: 0.8159
…
7936/7968 [============================>.] - ETA: 0s
7968/7968 [==============================] - 4s 494us/step
current val accuracy: 0.8158885542168675
current auc_score ------------------>  0.9039587191408586
Depth:  34  Growth_rate:  30  Nb_dense_block:  2  lr:  5e-05
__________________________________________________________________________________________________
Layer (type)                    Output Shape         Param #     Connected to                     
==================================================================================================
input_9 (InputLayer)            (None, 2, 96, 96)    0                                            
__________________________________________________________________________________________________
initial_conv2D (Conv2D)         (None, 16, 96, 96)   288         input_9[0][0]                    
__________________________________________________________________________________________________
dense_0_0_bn (BatchNormalizatio (None, 16, 96, 96)   64          initial_conv2D[0][0]             
__________________________________________________________________________________________________
activation_133 (Activation)     (None, 16, 96, 96)   0           dense_0_0_bn[0][0]               
__________________________________________________________________________________________________
dense_0_0_bottleneck_conv2D (Co (None, 120, 96, 96)  1920        activation_133[0][0]             
__________________________________________________________________________________________________
dense_0_0_bottleneck_bn (BatchN (None, 120, 96, 96)  480         dense_0_0_bottleneck_conv2D[0][0]
__________________________________________________________________________________________________
activation_134 (Activation)     (None, 120, 96, 96)  0           dense_0_0_bottleneck_bn[0][0]    
__________________________________________________________________________________________________
dense_0_0_conv2D (Conv2D)       (None, 30, 96, 96)   32400       activation_134[0][0]             
__________________________________________________________________________________________________
concatenate_55 (Concatenate)    (None, 46, 96, 96)   0           initial_conv2D[0][0]             
                                                                 dense_0_0_conv2D[0][0]           
__________________________________________________________________________________________________
dense_0_1_bn (BatchNormalizatio (None, 46, 96, 96)   184         concatenate_55[0][0]             
__________________________________________________________________________________________________
activation_135 (Activation)     (None, 46, 96, 96)   0           dense_0_1_bn[0][0]               
__________________________________________________________________________________________________
dense_0_1_bottleneck_conv2D (Co (None, 120, 96, 96)  5520        activation_135[0][0]             
__________________________________________________________________________________________________
dense_0_1_bottleneck_bn (BatchN (None, 120, 96, 96)  480         dense_0_1_bottleneck_conv2D[0][0]
__________________________________________________________________________________________________
activation_136 (Activation)     (None, 120, 96, 96)  0           dense_0_1_bottleneck_bn[0][0]    
__________________________________________________________________________________________________
dense_0_1_conv2D (Conv2D)       (None, 30, 96, 96)   32400       activation_136[0][0]             
__________________________________________________________________________________________________
concatenate_56 (Concatenate)    (None, 76, 96, 96)   0           concatenate_55[0][0]             
                                                                 dense_0_1_conv2D[0][0]           
__________________________________________________________________________________________________
dense_0_2_bn (BatchNormalizatio (None, 76, 96, 96)   304         concatenate_56[0][0]             
__________________________________________________________________________________________________
activation_137 (Activation)     (None, 76, 96, 96)   0           dense_0_2_bn[0][0]               
__________________________________________________________________________________________________
dense_0_2_bottleneck_conv2D (Co (None, 120, 96, 96)  9120        activation_137[0][0]             
__________________________________________________________________________________________________
dense_0_2_bottleneck_bn (BatchN (None, 120, 96, 96)  480         dense_0_2_bottleneck_conv2D[0][0]
__________________________________________________________________________________________________
activation_138 (Activation)     (None, 120, 96, 96)  0           dense_0_2_bottleneck_bn[0][0]    
__________________________________________________________________________________________________
dense_0_2_conv2D (Conv2D)       (None, 30, 96, 96)   32400       activation_138[0][0]             
__________________________________________________________________________________________________
concatenate_57 (Concatenate)    (None, 106, 96, 96)  0           concatenate_56[0][0]             
                                                                 dense_0_2_conv2D[0][0]           
__________________________________________________________________________________________________
dense_0_3_bn (BatchNormalizatio (None, 106, 96, 96)  424         concatenate_57[0][0]             
__________________________________________________________________________________________________
activation_139 (Activation)     (None, 106, 96, 96)  0           dense_0_3_bn[0][0]               
__________________________________________________________________________________________________
dense_0_3_bottleneck_conv2D (Co (None, 120, 96, 96)  12720       activation_139[0][0]             
__________________________________________________________________________________________________
dense_0_3_bottleneck_bn (BatchN (None, 120, 96, 96)  480         dense_0_3_bottleneck_conv2D[0][0]
__________________________________________________________________________________________________
activation_140 (Activation)     (None, 120, 96, 96)  0           dense_0_3_bottleneck_bn[0][0]    
__________________________________________________________________________________________________
dense_0_3_conv2D (Conv2D)       (None, 30, 96, 96)   32400       activation_140[0][0]             
__________________________________________________________________________________________________
concatenate_58 (Concatenate)    (None, 136, 96, 96)  0           concatenate_57[0][0]             
                                                                 dense_0_3_conv2D[0][0]           
__________________________________________________________________________________________________
dense_0_4_bn (BatchNormalizatio (None, 136, 96, 96)  544         concatenate_58[0][0]             
__________________________________________________________________________________________________
activation_141 (Activation)     (None, 136, 96, 96)  0           dense_0_4_bn[0][0]               
__________________________________________________________________________________________________
dense_0_4_bottleneck_conv2D (Co (None, 120, 96, 96)  16320       activation_141[0][0]             
__________________________________________________________________________________________________
dense_0_4_bottleneck_bn (BatchN (None, 120, 96, 96)  480         dense_0_4_bottleneck_conv2D[0][0]
__________________________________________________________________________________________________
activation_142 (Activation)     (None, 120, 96, 96)  0           dense_0_4_bottleneck_bn[0][0]    
__________________________________________________________________________________________________
dense_0_4_conv2D (Conv2D)       (None, 30, 96, 96)   32400       activation_142[0][0]             
__________________________________________________________________________________________________
concatenate_59 (Concatenate)    (None, 166, 96, 96)  0           concatenate_58[0][0]             
                                                                 dense_0_4_conv2D[0][0]           
__________________________________________________________________________________________________
tr_0_bn (BatchNormalization)    (None, 166, 96, 96)  664         concatenate_59[0][0]             
__________________________________________________________________________________________________
activation_143 (Activation)     (None, 166, 96, 96)  0           tr_0_bn[0][0]                    
__________________________________________________________________________________________________
tr_0_conv2D (Conv2D)            (None, 83, 96, 96)   13778       activation_143[0][0]             
__________________________________________________________________________________________________
average_pooling2d_17 (AveragePo (None, 83, 48, 48)   0           tr_0_conv2D[0][0]                
__________________________________________________________________________________________________
dense_1_0_bn (BatchNormalizatio (None, 83, 48, 48)   332         average_pooling2d_17[0][0]       
__________________________________________________________________________________________________
activation_144 (Activation)     (None, 83, 48, 48)   0           dense_1_0_bn[0][0]               
__________________________________________________________________________________________________
dense_1_0_bottleneck_conv2D (Co (None, 120, 48, 48)  9960        activation_144[0][0]             
__________________________________________________________________________________________________
dense_1_0_bottleneck_bn (BatchN (None, 120, 48, 48)  480         dense_1_0_bottleneck_conv2D[0][0]
__________________________________________________________________________________________________
activation_145 (Activation)     (None, 120, 48, 48)  0           dense_1_0_bottleneck_bn[0][0]    
__________________________________________________________________________________________________
dense_1_0_conv2D (Conv2D)       (None, 30, 48, 48)   32400       activation_145[0][0]             
__________________________________________________________________________________________________
concatenate_60 (Concatenate)    (None, 113, 48, 48)  0           average_pooling2d_17[0][0]       
                                                                 dense_1_0_conv2D[0][0]           
__________________________________________________________________________________________________
dense_1_1_bn (BatchNormalizatio (None, 113, 48, 48)  452         concatenate_60[0][0]             
__________________________________________________________________________________________________
activation_146 (Activation)     (None, 113, 48, 48)  0           dense_1_1_bn[0][0]               
__________________________________________________________________________________________________
dense_1_1_bottleneck_conv2D (Co (None, 120, 48, 48)  13560       activation_146[0][0]             
__________________________________________________________________________________________________
dense_1_1_bottleneck_bn (BatchN (None, 120, 48, 48)  480         dense_1_1_bottleneck_conv2D[0][0]
__________________________________________________________________________________________________
activation_147 (Activation)     (None, 120, 48, 48)  0           dense_1_1_bottleneck_bn[0][0]    
__________________________________________________________________________________________________
dense_1_1_conv2D (Conv2D)       (None, 30, 48, 48)   32400       activation_147[0][0]             
__________________________________________________________________________________________________
concatenate_61 (Concatenate)    (None, 143, 48, 48)  0           concatenate_60[0][0]             
                                                                 dense_1_1_conv2D[0][0]           
__________________________________________________________________________________________________
dense_1_2_bn (BatchNormalizatio (None, 143, 48, 48)  572         concatenate_61[0][0]             
__________________________________________________________________________________________________
activation_148 (Activation)     (None, 143, 48, 48)  0           dense_1_2_bn[0][0]               
__________________________________________________________________________________________________
dense_1_2_bottleneck_conv2D (Co (None, 120, 48, 48)  17160       activation_148[0][0]             
__________________________________________________________________________________________________
dense_1_2_bottleneck_bn (BatchN (None, 120, 48, 48)  480         dense_1_2_bottleneck_conv2D[0][0]
__________________________________________________________________________________________________
activation_149 (Activation)     (None, 120, 48, 48)  0           dense_1_2_bottleneck_bn[0][0]    
__________________________________________________________________________________________________
dense_1_2_conv2D (Conv2D)       (None, 30, 48, 48)   32400       activation_149[0][0]             
__________________________________________________________________________________________________
concatenate_62 (Concatenate)    (None, 173, 48, 48)  0           concatenate_61[0][0]             
                                                                 dense_1_2_conv2D[0][0]           
__________________________________________________________________________________________________
dense_1_3_bn (BatchNormalizatio (None, 173, 48, 48)  692         concatenate_62[0][0]             
__________________________________________________________________________________________________
activation_150 (Activation)     (None, 173, 48, 48)  0           dense_1_3_bn[0][0]               
__________________________________________________________________________________________________
dense_1_3_bottleneck_conv2D (Co (None, 120, 48, 48)  20760       activation_150[0][0]             
__________________________________________________________________________________________________
dense_1_3_bottleneck_bn (BatchN (None, 120, 48, 48)  480         dense_1_3_bottleneck_conv2D[0][0]
__________________________________________________________________________________________________
activation_151 (Activation)     (None, 120, 48, 48)  0           dense_1_3_bottleneck_bn[0][0]    
__________________________________________________________________________________________________
dense_1_3_conv2D (Conv2D)       (None, 30, 48, 48)   32400       activation_151[0][0]             
__________________________________________________________________________________________________
concatenate_63 (Concatenate)    (None, 203, 48, 48)  0           concatenate_62[0][0]             
                                                                 dense_1_3_conv2D[0][0]           
__________________________________________________________________________________________________
dense_1_4_bn (BatchNormalizatio (None, 203, 48, 48)  812         concatenate_63[0][0]             
__________________________________________________________________________________________________
activation_152 (Activation)     (None, 203, 48, 48)  0           dense_1_4_bn[0][0]               
__________________________________________________________________________________________________
dense_1_4_bottleneck_conv2D (Co (None, 120, 48, 48)  24360       activation_152[0][0]             
__________________________________________________________________________________________________
dense_1_4_bottleneck_bn (BatchN (None, 120, 48, 48)  480         dense_1_4_bottleneck_conv2D[0][0]
__________________________________________________________________________________________________
activation_153 (Activation)     (None, 120, 48, 48)  0           dense_1_4_bottleneck_bn[0][0]    
__________________________________________________________________________________________________
dense_1_4_conv2D (Conv2D)       (None, 30, 48, 48)   32400       activation_153[0][0]             
__________________________________________________________________________________________________
concatenate_64 (Concatenate)    (None, 233, 48, 48)  0           concatenate_63[0][0]             
                                                                 dense_1_4_conv2D[0][0]           
__________________________________________________________________________________________________
final_bn (BatchNormalization)   (None, 233, 48, 48)  932         concatenate_64[0][0]             
__________________________________________________________________________________________________
activation_154 (Activation)     (None, 233, 48, 48)  0           final_bn[0][0]                   
__________________________________________________________________________________________________
global_average_pooling2d_9 (Glo (None, 233)          0           activation_154[0][0]             
__________________________________________________________________________________________________
dense_9 (Dense)                 (None, 1)            234         global_average_pooling2d_9[0][0] 
==================================================================================================
Total params: 480,476
Trainable params: 475,088
Non-trainable params: 5,388
__________________________________________________________________________________________________
Train on 31872 samples, validate on 7968 samples
Epoch 1/1
 - 124s - loss: 0.7506 - acc: 0.7573 - val_loss: 0.6815 - val_acc: 0.7873
…
7840/7968 [============================>.] - ETA: 0s
7904/7968 [============================>.] - ETA: 0s
7968/7968 [==============================] - 9s 1ms/step
current val accuracy: 0.7872740963855421
current auc_score ------------------>  0.8798976868686156
Depth:  34  Growth_rate:  30  Nb_dense_block:  3  lr:  0.01
__________________________________________________________________________________________________
Layer (type)                    Output Shape         Param #     Connected to                     
==================================================================================================
input_10 (InputLayer)           (None, 2, 96, 96)    0                                            
__________________________________________________________________________________________________
initial_conv2D (Conv2D)         (None, 16, 96, 96)   288         input_10[0][0]                   
__________________________________________________________________________________________________
dense_0_0_bn (BatchNormalizatio (None, 16, 96, 96)   64          initial_conv2D[0][0]             
__________________________________________________________________________________________________
activation_155 (Activation)     (None, 16, 96, 96)   0           dense_0_0_bn[0][0]               
__________________________________________________________________________________________________
dense_0_0_bottleneck_conv2D (Co (None, 120, 96, 96)  1920        activation_155[0][0]             
__________________________________________________________________________________________________
dense_0_0_bottleneck_bn (BatchN (None, 120, 96, 96)  480         dense_0_0_bottleneck_conv2D[0][0]
__________________________________________________________________________________________________
activation_156 (Activation)     (None, 120, 96, 96)  0           dense_0_0_bottleneck_bn[0][0]    
__________________________________________________________________________________________________
dense_0_0_conv2D (Conv2D)       (None, 30, 96, 96)   32400       activation_156[0][0]             
__________________________________________________________________________________________________
concatenate_65 (Concatenate)    (None, 46, 96, 96)   0           initial_conv2D[0][0]             
                                                                 dense_0_0_conv2D[0][0]           
__________________________________________________________________________________________________
dense_0_1_bn (BatchNormalizatio (None, 46, 96, 96)   184         concatenate_65[0][0]             
__________________________________________________________________________________________________
activation_157 (Activation)     (None, 46, 96, 96)   0           dense_0_1_bn[0][0]               
__________________________________________________________________________________________________
dense_0_1_bottleneck_conv2D (Co (None, 120, 96, 96)  5520        activation_157[0][0]             
__________________________________________________________________________________________________
dense_0_1_bottleneck_bn (BatchN (None, 120, 96, 96)  480         dense_0_1_bottleneck_conv2D[0][0]
__________________________________________________________________________________________________
activation_158 (Activation)     (None, 120, 96, 96)  0           dense_0_1_bottleneck_bn[0][0]    
__________________________________________________________________________________________________
dense_0_1_conv2D (Conv2D)       (None, 30, 96, 96)   32400       activation_158[0][0]             
__________________________________________________________________________________________________
concatenate_66 (Concatenate)    (None, 76, 96, 96)   0           concatenate_65[0][0]             
                                                                 dense_0_1_conv2D[0][0]           
__________________________________________________________________________________________________
dense_0_2_bn (BatchNormalizatio (None, 76, 96, 96)   304         concatenate_66[0][0]             
__________________________________________________________________________________________________
activation_159 (Activation)     (None, 76, 96, 96)   0           dense_0_2_bn[0][0]               
__________________________________________________________________________________________________
dense_0_2_bottleneck_conv2D (Co (None, 120, 96, 96)  9120        activation_159[0][0]             
__________________________________________________________________________________________________
dense_0_2_bottleneck_bn (BatchN (None, 120, 96, 96)  480         dense_0_2_bottleneck_conv2D[0][0]
__________________________________________________________________________________________________
activation_160 (Activation)     (None, 120, 96, 96)  0           dense_0_2_bottleneck_bn[0][0]    
__________________________________________________________________________________________________
dense_0_2_conv2D (Conv2D)       (None, 30, 96, 96)   32400       activation_160[0][0]             
__________________________________________________________________________________________________
concatenate_67 (Concatenate)    (None, 106, 96, 96)  0           concatenate_66[0][0]             
                                                                 dense_0_2_conv2D[0][0]           
__________________________________________________________________________________________________
dense_0_3_bn (BatchNormalizatio (None, 106, 96, 96)  424         concatenate_67[0][0]             
__________________________________________________________________________________________________
activation_161 (Activation)     (None, 106, 96, 96)  0           dense_0_3_bn[0][0]               
__________________________________________________________________________________________________
dense_0_3_bottleneck_conv2D (Co (None, 120, 96, 96)  12720       activation_161[0][0]             
__________________________________________________________________________________________________
dense_0_3_bottleneck_bn (BatchN (None, 120, 96, 96)  480         dense_0_3_bottleneck_conv2D[0][0]
__________________________________________________________________________________________________
activation_162 (Activation)     (None, 120, 96, 96)  0           dense_0_3_bottleneck_bn[0][0]    
__________________________________________________________________________________________________
dense_0_3_conv2D (Conv2D)       (None, 30, 96, 96)   32400       activation_162[0][0]             
__________________________________________________________________________________________________
concatenate_68 (Concatenate)    (None, 136, 96, 96)  0           concatenate_67[0][0]             
                                                                 dense_0_3_conv2D[0][0]           
__________________________________________________________________________________________________
dense_0_4_bn (BatchNormalizatio (None, 136, 96, 96)  544         concatenate_68[0][0]             
__________________________________________________________________________________________________
activation_163 (Activation)     (None, 136, 96, 96)  0           dense_0_4_bn[0][0]               
__________________________________________________________________________________________________
dense_0_4_bottleneck_conv2D (Co (None, 120, 96, 96)  16320       activation_163[0][0]             
__________________________________________________________________________________________________
dense_0_4_bottleneck_bn (BatchN (None, 120, 96, 96)  480         dense_0_4_bottleneck_conv2D[0][0]
__________________________________________________________________________________________________
activation_164 (Activation)     (None, 120, 96, 96)  0           dense_0_4_bottleneck_bn[0][0]    
__________________________________________________________________________________________________
dense_0_4_conv2D (Conv2D)       (None, 30, 96, 96)   32400       activation_164[0][0]             
__________________________________________________________________________________________________
concatenate_69 (Concatenate)    (None, 166, 96, 96)  0           concatenate_68[0][0]             
                                                                 dense_0_4_conv2D[0][0]           
__________________________________________________________________________________________________
tr_0_bn (BatchNormalization)    (None, 166, 96, 96)  664         concatenate_69[0][0]             
__________________________________________________________________________________________________
activation_165 (Activation)     (None, 166, 96, 96)  0           tr_0_bn[0][0]                    
__________________________________________________________________________________________________
tr_0_conv2D (Conv2D)            (None, 83, 96, 96)   13778       activation_165[0][0]             
__________________________________________________________________________________________________
average_pooling2d_18 (AveragePo (None, 83, 48, 48)   0           tr_0_conv2D[0][0]                
__________________________________________________________________________________________________
dense_1_0_bn (BatchNormalizatio (None, 83, 48, 48)   332         average_pooling2d_18[0][0]       
__________________________________________________________________________________________________
activation_166 (Activation)     (None, 83, 48, 48)   0           dense_1_0_bn[0][0]               
__________________________________________________________________________________________________
dense_1_0_bottleneck_conv2D (Co (None, 120, 48, 48)  9960        activation_166[0][0]             
__________________________________________________________________________________________________
dense_1_0_bottleneck_bn (BatchN (None, 120, 48, 48)  480         dense_1_0_bottleneck_conv2D[0][0]
__________________________________________________________________________________________________
activation_167 (Activation)     (None, 120, 48, 48)  0           dense_1_0_bottleneck_bn[0][0]    
__________________________________________________________________________________________________
dense_1_0_conv2D (Conv2D)       (None, 30, 48, 48)   32400       activation_167[0][0]             
__________________________________________________________________________________________________
concatenate_70 (Concatenate)    (None, 113, 48, 48)  0           average_pooling2d_18[0][0]       
                                                                 dense_1_0_conv2D[0][0]           
__________________________________________________________________________________________________
dense_1_1_bn (BatchNormalizatio (None, 113, 48, 48)  452         concatenate_70[0][0]             
__________________________________________________________________________________________________
activation_168 (Activation)     (None, 113, 48, 48)  0           dense_1_1_bn[0][0]               
__________________________________________________________________________________________________
dense_1_1_bottleneck_conv2D (Co (None, 120, 48, 48)  13560       activation_168[0][0]             
__________________________________________________________________________________________________
dense_1_1_bottleneck_bn (BatchN (None, 120, 48, 48)  480         dense_1_1_bottleneck_conv2D[0][0]
__________________________________________________________________________________________________
activation_169 (Activation)     (None, 120, 48, 48)  0           dense_1_1_bottleneck_bn[0][0]    
__________________________________________________________________________________________________
dense_1_1_conv2D (Conv2D)       (None, 30, 48, 48)   32400       activation_169[0][0]             
__________________________________________________________________________________________________
concatenate_71 (Concatenate)    (None, 143, 48, 48)  0           concatenate_70[0][0]             
                                                                 dense_1_1_conv2D[0][0]           
__________________________________________________________________________________________________
dense_1_2_bn (BatchNormalizatio (None, 143, 48, 48)  572         concatenate_71[0][0]             
__________________________________________________________________________________________________
activation_170 (Activation)     (None, 143, 48, 48)  0           dense_1_2_bn[0][0]               
__________________________________________________________________________________________________
dense_1_2_bottleneck_conv2D (Co (None, 120, 48, 48)  17160       activation_170[0][0]             
__________________________________________________________________________________________________
dense_1_2_bottleneck_bn (BatchN (None, 120, 48, 48)  480         dense_1_2_bottleneck_conv2D[0][0]
__________________________________________________________________________________________________
activation_171 (Activation)     (None, 120, 48, 48)  0           dense_1_2_bottleneck_bn[0][0]    
__________________________________________________________________________________________________
dense_1_2_conv2D (Conv2D)       (None, 30, 48, 48)   32400       activation_171[0][0]             
__________________________________________________________________________________________________
concatenate_72 (Concatenate)    (None, 173, 48, 48)  0           concatenate_71[0][0]             
                                                                 dense_1_2_conv2D[0][0]           
__________________________________________________________________________________________________
dense_1_3_bn (BatchNormalizatio (None, 173, 48, 48)  692         concatenate_72[0][0]             
__________________________________________________________________________________________________
activation_172 (Activation)     (None, 173, 48, 48)  0           dense_1_3_bn[0][0]               
__________________________________________________________________________________________________
dense_1_3_bottleneck_conv2D (Co (None, 120, 48, 48)  20760       activation_172[0][0]             
__________________________________________________________________________________________________
dense_1_3_bottleneck_bn (BatchN (None, 120, 48, 48)  480         dense_1_3_bottleneck_conv2D[0][0]
__________________________________________________________________________________________________
activation_173 (Activation)     (None, 120, 48, 48)  0           dense_1_3_bottleneck_bn[0][0]    
__________________________________________________________________________________________________
dense_1_3_conv2D (Conv2D)       (None, 30, 48, 48)   32400       activation_173[0][0]             
__________________________________________________________________________________________________
concatenate_73 (Concatenate)    (None, 203, 48, 48)  0           concatenate_72[0][0]             
                                                                 dense_1_3_conv2D[0][0]           
__________________________________________________________________________________________________
dense_1_4_bn (BatchNormalizatio (None, 203, 48, 48)  812         concatenate_73[0][0]             
__________________________________________________________________________________________________
activation_174 (Activation)     (None, 203, 48, 48)  0           dense_1_4_bn[0][0]               
__________________________________________________________________________________________________
dense_1_4_bottleneck_conv2D (Co (None, 120, 48, 48)  24360       activation_174[0][0]             
__________________________________________________________________________________________________
dense_1_4_bottleneck_bn (BatchN (None, 120, 48, 48)  480         dense_1_4_bottleneck_conv2D[0][0]
__________________________________________________________________________________________________
activation_175 (Activation)     (None, 120, 48, 48)  0           dense_1_4_bottleneck_bn[0][0]    
__________________________________________________________________________________________________
dense_1_4_conv2D (Conv2D)       (None, 30, 48, 48)   32400       activation_175[0][0]             
__________________________________________________________________________________________________
concatenate_74 (Concatenate)    (None, 233, 48, 48)  0           concatenate_73[0][0]             
                                                                 dense_1_4_conv2D[0][0]           
__________________________________________________________________________________________________
tr_1_bn (BatchNormalization)    (None, 233, 48, 48)  932         concatenate_74[0][0]             
__________________________________________________________________________________________________
activation_176 (Activation)     (None, 233, 48, 48)  0           tr_1_bn[0][0]                    
__________________________________________________________________________________________________
tr_1_conv2D (Conv2D)            (None, 116, 48, 48)  27028       activation_176[0][0]             
__________________________________________________________________________________________________
average_pooling2d_19 (AveragePo (None, 116, 24, 24)  0           tr_1_conv2D[0][0]                
__________________________________________________________________________________________________
dense_2_0_bn (BatchNormalizatio (None, 116, 24, 24)  464         average_pooling2d_19[0][0]       
__________________________________________________________________________________________________
activation_177 (Activation)     (None, 116, 24, 24)  0           dense_2_0_bn[0][0]               
__________________________________________________________________________________________________
dense_2_0_bottleneck_conv2D (Co (None, 120, 24, 24)  13920       activation_177[0][0]             
__________________________________________________________________________________________________
dense_2_0_bottleneck_bn (BatchN (None, 120, 24, 24)  480         dense_2_0_bottleneck_conv2D[0][0]
__________________________________________________________________________________________________
activation_178 (Activation)     (None, 120, 24, 24)  0           dense_2_0_bottleneck_bn[0][0]    
__________________________________________________________________________________________________
dense_2_0_conv2D (Conv2D)       (None, 30, 24, 24)   32400       activation_178[0][0]             
__________________________________________________________________________________________________
concatenate_75 (Concatenate)    (None, 146, 24, 24)  0           average_pooling2d_19[0][0]       
                                                                 dense_2_0_conv2D[0][0]           
__________________________________________________________________________________________________
dense_2_1_bn (BatchNormalizatio (None, 146, 24, 24)  584         concatenate_75[0][0]             
__________________________________________________________________________________________________
activation_179 (Activation)     (None, 146, 24, 24)  0           dense_2_1_bn[0][0]               
__________________________________________________________________________________________________
dense_2_1_bottleneck_conv2D (Co (None, 120, 24, 24)  17520       activation_179[0][0]             
__________________________________________________________________________________________________
dense_2_1_bottleneck_bn (BatchN (None, 120, 24, 24)  480         dense_2_1_bottleneck_conv2D[0][0]
__________________________________________________________________________________________________
activation_180 (Activation)     (None, 120, 24, 24)  0           dense_2_1_bottleneck_bn[0][0]    
__________________________________________________________________________________________________
dense_2_1_conv2D (Conv2D)       (None, 30, 24, 24)   32400       activation_180[0][0]             
__________________________________________________________________________________________________
concatenate_76 (Concatenate)    (None, 176, 24, 24)  0           concatenate_75[0][0]             
                                                                 dense_2_1_conv2D[0][0]           
__________________________________________________________________________________________________
dense_2_2_bn (BatchNormalizatio (None, 176, 24, 24)  704         concatenate_76[0][0]             
__________________________________________________________________________________________________
activation_181 (Activation)     (None, 176, 24, 24)  0           dense_2_2_bn[0][0]               
__________________________________________________________________________________________________
dense_2_2_bottleneck_conv2D (Co (None, 120, 24, 24)  21120       activation_181[0][0]             
__________________________________________________________________________________________________
dense_2_2_bottleneck_bn (BatchN (None, 120, 24, 24)  480         dense_2_2_bottleneck_conv2D[0][0]
__________________________________________________________________________________________________
activation_182 (Activation)     (None, 120, 24, 24)  0           dense_2_2_bottleneck_bn[0][0]    
__________________________________________________________________________________________________
dense_2_2_conv2D (Conv2D)       (None, 30, 24, 24)   32400       activation_182[0][0]             
__________________________________________________________________________________________________
concatenate_77 (Concatenate)    (None, 206, 24, 24)  0           concatenate_76[0][0]             
                                                                 dense_2_2_conv2D[0][0]           
__________________________________________________________________________________________________
dense_2_3_bn (BatchNormalizatio (None, 206, 24, 24)  824         concatenate_77[0][0]             
__________________________________________________________________________________________________
activation_183 (Activation)     (None, 206, 24, 24)  0           dense_2_3_bn[0][0]               
__________________________________________________________________________________________________
dense_2_3_bottleneck_conv2D (Co (None, 120, 24, 24)  24720       activation_183[0][0]             
__________________________________________________________________________________________________
dense_2_3_bottleneck_bn (BatchN (None, 120, 24, 24)  480         dense_2_3_bottleneck_conv2D[0][0]
__________________________________________________________________________________________________
activation_184 (Activation)     (None, 120, 24, 24)  0           dense_2_3_bottleneck_bn[0][0]    
__________________________________________________________________________________________________
dense_2_3_conv2D (Conv2D)       (None, 30, 24, 24)   32400       activation_184[0][0]             
__________________________________________________________________________________________________
concatenate_78 (Concatenate)    (None, 236, 24, 24)  0           concatenate_77[0][0]             
                                                                 dense_2_3_conv2D[0][0]           
__________________________________________________________________________________________________
dense_2_4_bn (BatchNormalizatio (None, 236, 24, 24)  944         concatenate_78[0][0]             
__________________________________________________________________________________________________
activation_185 (Activation)     (None, 236, 24, 24)  0           dense_2_4_bn[0][0]               
__________________________________________________________________________________________________
dense_2_4_bottleneck_conv2D (Co (None, 120, 24, 24)  28320       activation_185[0][0]             
__________________________________________________________________________________________________
dense_2_4_bottleneck_bn (BatchN (None, 120, 24, 24)  480         dense_2_4_bottleneck_conv2D[0][0]
__________________________________________________________________________________________________
activation_186 (Activation)     (None, 120, 24, 24)  0           dense_2_4_bottleneck_bn[0][0]    
…
concatenate_326 (Concatenate)   (None, 152, 24, 24)  0           concatenate_325[0][0]            
                                                                 dense_2_2_conv2D[0][0]           
__________________________________________________________________________________________________
dense_2_3_bn (BatchNormalizatio (None, 152, 24, 24)  608         concatenate_326[0][0]            
__________________________________________________________________________________________________
activation_743 (Activation)     (None, 152, 24, 24)  0           dense_2_3_bn[0][0]               
__________________________________________________________________________________________________
dense_2_3_bottleneck_conv2D (Co (None, 88, 24, 24)   13376       activation_743[0][0]             
__________________________________________________________________________________________________
dense_2_3_bottleneck_bn (BatchN (None, 88, 24, 24)   352         dense_2_3_bottleneck_conv2D[0][0]
__________________________________________________________________________________________________
activation_744 (Activation)     (None, 88, 24, 24)   0           dense_2_3_bottleneck_bn[0][0]    
__________________________________________________________________________________________________
dense_2_3_conv2D (Conv2D)       (None, 22, 24, 24)   17424       activation_744[0][0]             
__________________________________________________________________________________________________
concatenate_327 (Concatenate)   (None, 174, 24, 24)  0           concatenate_326[0][0]            
                                                                 dense_2_3_conv2D[0][0]           
__________________________________________________________________________________________________
dense_2_4_bn (BatchNormalizatio (None, 174, 24, 24)  696         concatenate_327[0][0]            
__________________________________________________________________________________________________
activation_745 (Activation)     (None, 174, 24, 24)  0           dense_2_4_bn[0][0]               
__________________________________________________________________________________________________
dense_2_4_bottleneck_conv2D (Co (None, 88, 24, 24)   15312       activation_745[0][0]             
__________________________________________________________________________________________________
dense_2_4_bottleneck_bn (BatchN (None, 88, 24, 24)   352         dense_2_4_bottleneck_conv2D[0][0]
__________________________________________________________________________________________________
activation_746 (Activation)     (None, 88, 24, 24)   0           dense_2_4_bottleneck_bn[0][0]    
__________________________________________________________________________________________________
dense_2_4_conv2D (Conv2D)       (None, 22, 24, 24)   17424       activation_746[0][0]             
__________________________________________________________________________________________________
concatenate_328 (Concatenate)   (None, 196, 24, 24)  0           concatenate_327[0][0]            
                                                                 dense_2_4_conv2D[0][0]           
__________________________________________________________________________________________________
tr_2_bn (BatchNormalization)    (None, 196, 24, 24)  784         concatenate_328[0][0]            
__________________________________________________________________________________________________
activation_747 (Activation)     (None, 196, 24, 24)  0           tr_2_bn[0][0]                    
__________________________________________________________________________________________________
tr_2_conv2D (Conv2D)            (None, 98, 24, 24)   19208       activation_747[0][0]             
__________________________________________________________________________________________________
average_pooling2d_63 (AveragePo (None, 98, 12, 12)   0           tr_2_conv2D[0][0]                
__________________________________________________________________________________________________
dense_3_0_bn (BatchNormalizatio (None, 98, 12, 12)   392         average_pooling2d_63[0][0]       
__________________________________________________________________________________________________
activation_748 (Activation)     (None, 98, 12, 12)   0           dense_3_0_bn[0][0]               
__________________________________________________________________________________________________
dense_3_0_bottleneck_conv2D (Co (None, 88, 12, 12)   8624        activation_748[0][0]             
__________________________________________________________________________________________________
dense_3_0_bottleneck_bn (BatchN (None, 88, 12, 12)   352         dense_3_0_bottleneck_conv2D[0][0]
__________________________________________________________________________________________________
activation_749 (Activation)     (None, 88, 12, 12)   0           dense_3_0_bottleneck_bn[0][0]    
__________________________________________________________________________________________________
dense_3_0_conv2D (Conv2D)       (None, 22, 12, 12)   17424       activation_749[0][0]             
__________________________________________________________________________________________________
concatenate_329 (Concatenate)   (None, 120, 12, 12)  0           average_pooling2d_63[0][0]       
                                                                 dense_3_0_conv2D[0][0]           
__________________________________________________________________________________________________
dense_3_1_bn (BatchNormalizatio (None, 120, 12, 12)  480         concatenate_329[0][0]            
__________________________________________________________________________________________________
activation_750 (Activation)     (None, 120, 12, 12)  0           dense_3_1_bn[0][0]               
__________________________________________________________________________________________________
dense_3_1_bottleneck_conv2D (Co (None, 88, 12, 12)   10560       activation_750[0][0]             
__________________________________________________________________________________________________
dense_3_1_bottleneck_bn (BatchN (None, 88, 12, 12)   352         dense_3_1_bottleneck_conv2D[0][0]
__________________________________________________________________________________________________
activation_751 (Activation)     (None, 88, 12, 12)   0           dense_3_1_bottleneck_bn[0][0]    
__________________________________________________________________________________________________
dense_3_1_conv2D (Conv2D)       (None, 22, 12, 12)   17424       activation_751[0][0]             
__________________________________________________________________________________________________
concatenate_330 (Concatenate)   (None, 142, 12, 12)  0           concatenate_329[0][0]            
                                                                 dense_3_1_conv2D[0][0]           
__________________________________________________________________________________________________
dense_3_2_bn (BatchNormalizatio (None, 142, 12, 12)  568         concatenate_330[0][0]            
__________________________________________________________________________________________________
activation_752 (Activation)     (None, 142, 12, 12)  0           dense_3_2_bn[0][0]               
__________________________________________________________________________________________________
dense_3_2_bottleneck_conv2D (Co (None, 88, 12, 12)   12496       activation_752[0][0]             
__________________________________________________________________________________________________
dense_3_2_bottleneck_bn (BatchN (None, 88, 12, 12)   352         dense_3_2_bottleneck_conv2D[0][0]
__________________________________________________________________________________________________
activation_753 (Activation)     (None, 88, 12, 12)   0           dense_3_2_bottleneck_bn[0][0]    
__________________________________________________________________________________________________
dense_3_2_conv2D (Conv2D)       (None, 22, 12, 12)   17424       activation_753[0][0]             
__________________________________________________________________________________________________
concatenate_331 (Concatenate)   (None, 164, 12, 12)  0           concatenate_330[0][0]            
                                                                 dense_3_2_conv2D[0][0]           
__________________________________________________________________________________________________
dense_3_3_bn (BatchNormalizatio (None, 164, 12, 12)  656         concatenate_331[0][0]            
__________________________________________________________________________________________________
activation_754 (Activation)     (None, 164, 12, 12)  0           dense_3_3_bn[0][0]               
__________________________________________________________________________________________________
dense_3_3_bottleneck_conv2D (Co (None, 88, 12, 12)   14432       activation_754[0][0]             
__________________________________________________________________________________________________
dense_3_3_bottleneck_bn (BatchN (None, 88, 12, 12)   352         dense_3_3_bottleneck_conv2D[0][0]
__________________________________________________________________________________________________
activation_755 (Activation)     (None, 88, 12, 12)   0           dense_3_3_bottleneck_bn[0][0]    
__________________________________________________________________________________________________
dense_3_3_conv2D (Conv2D)       (None, 22, 12, 12)   17424       activation_755[0][0]             
__________________________________________________________________________________________________
concatenate_332 (Concatenate)   (None, 186, 12, 12)  0           concatenate_331[0][0]            
                                                                 dense_3_3_conv2D[0][0]           
__________________________________________________________________________________________________
dense_3_4_bn (BatchNormalizatio (None, 186, 12, 12)  744         concatenate_332[0][0]            
__________________________________________________________________________________________________
activation_756 (Activation)     (None, 186, 12, 12)  0           dense_3_4_bn[0][0]               
__________________________________________________________________________________________________
dense_3_4_bottleneck_conv2D (Co (None, 88, 12, 12)   16368       activation_756[0][0]             
__________________________________________________________________________________________________
dense_3_4_bottleneck_bn (BatchN (None, 88, 12, 12)   352         dense_3_4_bottleneck_conv2D[0][0]
__________________________________________________________________________________________________
activation_757 (Activation)     (None, 88, 12, 12)   0           dense_3_4_bottleneck_bn[0][0]    
__________________________________________________________________________________________________
dense_3_4_conv2D (Conv2D)       (None, 22, 12, 12)   17424       activation_757[0][0]             
__________________________________________________________________________________________________
concatenate_333 (Concatenate)   (None, 208, 12, 12)  0           concatenate_332[0][0]            
                                                                 dense_3_4_conv2D[0][0]           
__________________________________________________________________________________________________
final_bn (BatchNormalization)   (None, 208, 12, 12)  832         concatenate_333[0][0]            
__________________________________________________________________________________________________
activation_758 (Activation)     (None, 208, 12, 12)  0           final_bn[0][0]                   
__________________________________________________________________________________________________
global_average_pooling2d_29 (Gl (None, 208)          0           activation_758[0][0]             
__________________________________________________________________________________________________
dense_29 (Dense)                (None, 1)            209         global_average_pooling2d_29[0][0]
==================================================================================================
Total params: 602,793
Trainable params: 593,477
Non-trainable params: 9,316
__________________________________________________________________________________________________
Train on 31872 samples, validate on 7968 samples
Epoch 1/1
 - 146s - loss: 0.7273 - acc: 0.8113 - val_loss: 0.6106 - val_acc: 0.8476
…
7776/7968 [============================>.] - ETA: 0s
7840/7968 [============================>.] - ETA: 0s
7904/7968 [============================>.] - ETA: 0s
7968/7968 [==============================] - 9s 1ms/step
current val accuracy: 0.847640562248996
current auc_score ------------------>  0.9330690310262336
Depth:  7  Growth_rate:  30  Nb_dense_block:  4  lr:  0.0005
_________________________________________________________________
Layer (type)                 Output Shape              Param #   
=================================================================
input_30 (InputLayer)        (None, 2, 96, 96)         0         
_________________________________________________________________
initial_conv2D (Conv2D)      (None, 16, 96, 96)        288       
_________________________________________________________________
tr_0_bn (BatchNormalization) (None, 16, 96, 96)        64        
_________________________________________________________________
activation_759 (Activation)  (None, 16, 96, 96)        0         
_________________________________________________________________
tr_0_conv2D (Conv2D)         (None, 8, 96, 96)         128       
_________________________________________________________________
average_pooling2d_64 (Averag (None, 8, 48, 48)         0         
_________________________________________________________________
tr_1_bn (BatchNormalization) (None, 8, 48, 48)         32        
_________________________________________________________________
activation_760 (Activation)  (None, 8, 48, 48)         0         
_________________________________________________________________
tr_1_conv2D (Conv2D)         (None, 4, 48, 48)         32        
_________________________________________________________________
average_pooling2d_65 (Averag (None, 4, 24, 24)         0         
_________________________________________________________________
tr_2_bn (BatchNormalization) (None, 4, 24, 24)         16        
_________________________________________________________________
activation_761 (Activation)  (None, 4, 24, 24)         0         
_________________________________________________________________
tr_2_conv2D (Conv2D)         (None, 2, 24, 24)         8         
_________________________________________________________________
average_pooling2d_66 (Averag (None, 2, 12, 12)         0         
_________________________________________________________________
final_bn (BatchNormalization (None, 2, 12, 12)         8         
_________________________________________________________________
activation_762 (Activation)  (None, 2, 12, 12)         0         
_________________________________________________________________
global_average_pooling2d_30  (None, 2)                 0         
_________________________________________________________________
dense_30 (Dense)             (None, 1)                 3         
=================================================================
Total params: 579
Trainable params: 519
Non-trainable params: 60
_________________________________________________________________
Train on 31872 samples, validate on 7968 samples
Epoch 1/1
 - 37s - loss: 0.6540 - acc: 0.6537 - val_loss: 0.6265 - val_acc: 0.6998

  32/7968 [..............................] - ETA: 3s
 256/7968 [..............................] - ETA: 2s
…
7936/7968 [============================>.] - ETA: 0s
7968/7968 [==============================] - 2s 231us/step
current val accuracy: 0.6997991967871486
current auc_score ------------------>  0.7562612654957273
Depth:  34  Growth_rate:  14  Nb_dense_block:  4  lr:  1e-05
__________________________________________________________________________________________________
Layer (type)                    Output Shape         Param #     Connected to                     
==================================================================================================
input_31 (InputLayer)           (None, 2, 96, 96)    0                                            
__________________________________________________________________________________________________
initial_conv2D (Conv2D)         (None, 16, 96, 96)   288         input_31[0][0]                   
__________________________________________________________________________________________________
dense_0_0_bn (BatchNormalizatio (None, 16, 96, 96)   64          initial_conv2D[0][0]             
__________________________________________________________________________________________________
activation_763 (Activation)     (None, 16, 96, 96)   0           dense_0_0_bn[0][0]               
__________________________________________________________________________________________________
dense_0_0_bottleneck_conv2D (Co (None, 56, 96, 96)   896         activation_763[0][0]             
__________________________________________________________________________________________________
dense_0_0_bottleneck_bn (BatchN (None, 56, 96, 96)   224         dense_0_0_bottleneck_conv2D[0][0]
__________________________________________________________________________________________________
activation_764 (Activation)     (None, 56, 96, 96)   0           dense_0_0_bottleneck_bn[0][0]    
__________________________________________________________________________________________________
dense_0_0_conv2D (Conv2D)       (None, 14, 96, 96)   7056        activation_764[0][0]             
__________________________________________________________________________________________________
concatenate_334 (Concatenate)   (None, 30, 96, 96)   0           initial_conv2D[0][0]             
                                                                 dense_0_0_conv2D[0][0]           
__________________________________________________________________________________________________
dense_0_1_bn (BatchNormalizatio (None, 30, 96, 96)   120         concatenate_334[0][0]            
__________________________________________________________________________________________________
activation_765 (Activation)     (None, 30, 96, 96)   0           dense_0_1_bn[0][0]               
__________________________________________________________________________________________________
dense_0_1_bottleneck_conv2D (Co (None, 56, 96, 96)   1680        activation_765[0][0]             
__________________________________________________________________________________________________
dense_0_1_bottleneck_bn (BatchN (None, 56, 96, 96)   224         dense_0_1_bottleneck_conv2D[0][0]
__________________________________________________________________________________________________
activation_766 (Activation)     (None, 56, 96, 96)   0           dense_0_1_bottleneck_bn[0][0]    
__________________________________________________________________________________________________
dense_0_1_conv2D (Conv2D)       (None, 14, 96, 96)   7056        activation_766[0][0]             
__________________________________________________________________________________________________
concatenate_335 (Concatenate)   (None, 44, 96, 96)   0           concatenate_334[0][0]            
                                                                 dense_0_1_conv2D[0][0]           
__________________________________________________________________________________________________
dense_0_2_bn (BatchNormalizatio (None, 44, 96, 96)   176         concatenate_335[0][0]            
__________________________________________________________________________________________________
activation_767 (Activation)     (None, 44, 96, 96)   0           dense_0_2_bn[0][0]               
__________________________________________________________________________________________________
dense_0_2_bottleneck_conv2D (Co (None, 56, 96, 96)   2464        activation_767[0][0]             
__________________________________________________________________________________________________
dense_0_2_bottleneck_bn (BatchN (None, 56, 96, 96)   224         dense_0_2_bottleneck_conv2D[0][0]
__________________________________________________________________________________________________
activation_768 (Activation)     (None, 56, 96, 96)   0           dense_0_2_bottleneck_bn[0][0]    
__________________________________________________________________________________________________
dense_0_2_conv2D (Conv2D)       (None, 14, 96, 96)   7056        activation_768[0][0]             
__________________________________________________________________________________________________
concatenate_336 (Concatenate)   (None, 58, 96, 96)   0           concatenate_335[0][0]            
                                                                 dense_0_2_conv2D[0][0]           
__________________________________________________________________________________________________
dense_0_3_bn (BatchNormalizatio (None, 58, 96, 96)   232         concatenate_336[0][0]            
__________________________________________________________________________________________________
activation_769 (Activation)     (None, 58, 96, 96)   0           dense_0_3_bn[0][0]               
__________________________________________________________________________________________________
dense_0_3_bottleneck_conv2D (Co (None, 56, 96, 96)   3248        activation_769[0][0]             
__________________________________________________________________________________________________
dense_0_3_bottleneck_bn (BatchN (None, 56, 96, 96)   224         dense_0_3_bottleneck_conv2D[0][0]
__________________________________________________________________________________________________
activation_770 (Activation)     (None, 56, 96, 96)   0           dense_0_3_bottleneck_bn[0][0]    
__________________________________________________________________________________________________
dense_0_3_conv2D (Conv2D)       (None, 14, 96, 96)   7056        activation_770[0][0]             
__________________________________________________________________________________________________
concatenate_337 (Concatenate)   (None, 72, 96, 96)   0           concatenate_336[0][0]            
                                                                 dense_0_3_conv2D[0][0]           
__________________________________________________________________________________________________
dense_0_4_bn (BatchNormalizatio (None, 72, 96, 96)   288         concatenate_337[0][0]            
__________________________________________________________________________________________________
activation_771 (Activation)     (None, 72, 96, 96)   0           dense_0_4_bn[0][0]               
__________________________________________________________________________________________________
dense_0_4_bottleneck_conv2D (Co (None, 56, 96, 96)   4032        activation_771[0][0]             
__________________________________________________________________________________________________
dense_0_4_bottleneck_bn (BatchN (None, 56, 96, 96)   224         dense_0_4_bottleneck_conv2D[0][0]
__________________________________________________________________________________________________
activation_772 (Activation)     (None, 56, 96, 96)   0           dense_0_4_bottleneck_bn[0][0]    
__________________________________________________________________________________________________
dense_0_4_conv2D (Conv2D)       (None, 14, 96, 96)   7056        activation_772[0][0]             
__________________________________________________________________________________________________
concatenate_338 (Concatenate)   (None, 86, 96, 96)   0           concatenate_337[0][0]            
                                                                 dense_0_4_conv2D[0][0]           
__________________________________________________________________________________________________
tr_0_bn (BatchNormalization)    (None, 86, 96, 96)   344         concatenate_338[0][0]            
__________________________________________________________________________________________________
activation_773 (Activation)     (None, 86, 96, 96)   0           tr_0_bn[0][0]                    
__________________________________________________________________________________________________
tr_0_conv2D (Conv2D)            (None, 43, 96, 96)   3698        activation_773[0][0]             
__________________________________________________________________________________________________
average_pooling2d_67 (AveragePo (None, 43, 48, 48)   0           tr_0_conv2D[0][0]                
__________________________________________________________________________________________________
dense_1_0_bn (BatchNormalizatio (None, 43, 48, 48)   172         average_pooling2d_67[0][0]       
__________________________________________________________________________________________________
activation_774 (Activation)     (None, 43, 48, 48)   0           dense_1_0_bn[0][0]               
__________________________________________________________________________________________________
dense_1_0_bottleneck_conv2D (Co (None, 56, 48, 48)   2408        activation_774[0][0]             
__________________________________________________________________________________________________
dense_1_0_bottleneck_bn (BatchN (None, 56, 48, 48)   224         dense_1_0_bottleneck_conv2D[0][0]
__________________________________________________________________________________________________
activation_775 (Activation)     (None, 56, 48, 48)   0           dense_1_0_bottleneck_bn[0][0]    
__________________________________________________________________________________________________
dense_1_0_conv2D (Conv2D)       (None, 14, 48, 48)   7056        activation_775[0][0]             
__________________________________________________________________________________________________
concatenate_339 (Concatenate)   (None, 57, 48, 48)   0           average_pooling2d_67[0][0]       
                                                                 dense_1_0_conv2D[0][0]           
__________________________________________________________________________________________________
dense_1_1_bn (BatchNormalizatio (None, 57, 48, 48)   228         concatenate_339[0][0]            
__________________________________________________________________________________________________
activation_776 (Activation)     (None, 57, 48, 48)   0           dense_1_1_bn[0][0]               
__________________________________________________________________________________________________
dense_1_1_bottleneck_conv2D (Co (None, 56, 48, 48)   3192        activation_776[0][0]             
__________________________________________________________________________________________________
dense_1_1_bottleneck_bn (BatchN (None, 56, 48, 48)   224         dense_1_1_bottleneck_conv2D[0][0]
__________________________________________________________________________________________________
activation_777 (Activation)     (None, 56, 48, 48)   0           dense_1_1_bottleneck_bn[0][0]    
__________________________________________________________________________________________________
dense_1_1_conv2D (Conv2D)       (None, 14, 48, 48)   7056        activation_777[0][0]             
__________________________________________________________________________________________________
concatenate_340 (Concatenate)   (None, 71, 48, 48)   0           concatenate_339[0][0]            
                                                                 dense_1_1_conv2D[0][0]           
__________________________________________________________________________________________________
dense_1_2_bn (BatchNormalizatio (None, 71, 48, 48)   284         concatenate_340[0][0]            
__________________________________________________________________________________________________
activation_778 (Activation)     (None, 71, 48, 48)   0           dense_1_2_bn[0][0]               
__________________________________________________________________________________________________
dense_1_2_bottleneck_conv2D (Co (None, 56, 48, 48)   3976        activation_778[0][0]             
__________________________________________________________________________________________________
dense_1_2_bottleneck_bn (BatchN (None, 56, 48, 48)   224         dense_1_2_bottleneck_conv2D[0][0]
__________________________________________________________________________________________________
activation_779 (Activation)     (None, 56, 48, 48)   0           dense_1_2_bottleneck_bn[0][0]    
__________________________________________________________________________________________________
dense_1_2_conv2D (Conv2D)       (None, 14, 48, 48)   7056        activation_779[0][0]             
__________________________________________________________________________________________________
concatenate_341 (Concatenate)   (None, 85, 48, 48)   0           concatenate_340[0][0]            
                                                                 dense_1_2_conv2D[0][0]           
__________________________________________________________________________________________________
dense_1_3_bn (BatchNormalizatio (None, 85, 48, 48)   340         concatenate_341[0][0]            
__________________________________________________________________________________________________
activation_780 (Activation)     (None, 85, 48, 48)   0           dense_1_3_bn[0][0]               
__________________________________________________________________________________________________
dense_1_3_bottleneck_conv2D (Co (None, 56, 48, 48)   4760        activation_780[0][0]             
__________________________________________________________________________________________________
dense_1_3_bottleneck_bn (BatchN (None, 56, 48, 48)   224         dense_1_3_bottleneck_conv2D[0][0]
__________________________________________________________________________________________________
activation_781 (Activation)     (None, 56, 48, 48)   0           dense_1_3_bottleneck_bn[0][0]    
__________________________________________________________________________________________________
dense_1_3_conv2D (Conv2D)       (None, 14, 48, 48)   7056        activation_781[0][0]             
__________________________________________________________________________________________________
concatenate_342 (Concatenate)   (None, 99, 48, 48)   0           concatenate_341[0][0]            
                                                                 dense_1_3_conv2D[0][0]           
__________________________________________________________________________________________________
dense_1_4_bn (BatchNormalizatio (None, 99, 48, 48)   396         concatenate_342[0][0]            
__________________________________________________________________________________________________
activation_782 (Activation)     (None, 99, 48, 48)   0           dense_1_4_bn[0][0]               
__________________________________________________________________________________________________
dense_1_4_bottleneck_conv2D (Co (None, 56, 48, 48)   5544        activation_782[0][0]             
__________________________________________________________________________________________________
dense_1_4_bottleneck_bn (BatchN (None, 56, 48, 48)   224         dense_1_4_bottleneck_conv2D[0][0]
__________________________________________________________________________________________________
activation_783 (Activation)     (None, 56, 48, 48)   0           dense_1_4_bottleneck_bn[0][0]    
__________________________________________________________________________________________________
dense_1_4_conv2D (Conv2D)       (None, 14, 48, 48)   7056        activation_783[0][0]             
__________________________________________________________________________________________________
concatenate_343 (Concatenate)   (None, 113, 48, 48)  0           concatenate_342[0][0]            
                                                                 dense_1_4_conv2D[0][0]           
__________________________________________________________________________________________________
tr_1_bn (BatchNormalization)    (None, 113, 48, 48)  452         concatenate_343[0][0]            
__________________________________________________________________________________________________
activation_784 (Activation)     (None, 113, 48, 48)  0           tr_1_bn[0][0]                    
__________________________________________________________________________________________________
tr_1_conv2D (Conv2D)            (None, 56, 48, 48)   6328        activation_784[0][0]             
__________________________________________________________________________________________________
average_pooling2d_68 (AveragePo (None, 56, 24, 24)   0           tr_1_conv2D[0][0]                
__________________________________________________________________________________________________
dense_2_0_bn (BatchNormalizatio (None, 56, 24, 24)   224         average_pooling2d_68[0][0]       
__________________________________________________________________________________________________
activation_785 (Activation)     (None, 56, 24, 24)   0           dense_2_0_bn[0][0]               
__________________________________________________________________________________________________
dense_2_0_bottleneck_conv2D (Co (None, 56, 24, 24)   3136        activation_785[0][0]             
__________________________________________________________________________________________________
dense_2_0_bottleneck_bn (BatchN (None, 56, 24, 24)   224         dense_2_0_bottleneck_conv2D[0][0]
__________________________________________________________________________________________________
activation_786 (Activation)     (None, 56, 24, 24)   0           dense_2_0_bottleneck_bn[0][0]    
__________________________________________________________________________________________________
dense_2_0_conv2D (Conv2D)       (None, 14, 24, 24)   7056        activation_786[0][0]             
__________________________________________________________________________________________________
concatenate_344 (Concatenate)   (None, 70, 24, 24)   0           average_pooling2d_68[0][0]       
                                                                 dense_2_0_conv2D[0][0]           
__________________________________________________________________________________________________
dense_2_1_bn (BatchNormalizatio (None, 70, 24, 24)   280         concatenate_344[0][0]            
__________________________________________________________________________________________________
activation_787 (Activation)     (None, 70, 24, 24)   0           dense_2_1_bn[0][0]               
__________________________________________________________________________________________________
dense_2_1_bottleneck_conv2D (Co (None, 56, 24, 24)   3920        activation_787[0][0]             
__________________________________________________________________________________________________
dense_2_1_bottleneck_bn (BatchN (None, 56, 24, 24)   224         dense_2_1_bottleneck_conv2D[0][0]
__________________________________________________________________________________________________
activation_788 (Activation)     (None, 56, 24, 24)   0           dense_2_1_bottleneck_bn[0][0]    
__________________________________________________________________________________________________
dense_2_1_conv2D (Conv2D)       (None, 14, 24, 24)   7056        activation_788[0][0]             
__________________________________________________________________________________________________
concatenate_345 (Concatenate)   (None, 84, 24, 24)   0           concatenate_344[0][0]            
                                                                 dense_2_1_conv2D[0][0]           
__________________________________________________________________________________________________
dense_2_2_bn (BatchNormalizatio (None, 84, 24, 24)   336         concatenate_345[0][0]            
__________________________________________________________________________________________________
activation_789 (Activation)     (None, 84, 24, 24)   0           dense_2_2_bn[0][0]               
__________________________________________________________________________________________________
dense_2_2_bottleneck_conv2D (Co (None, 56, 24, 24)   4704        activation_789[0][0]             
__________________________________________________________________________________________________
dense_2_2_bottleneck_bn (BatchN (None, 56, 24, 24)   224         dense_2_2_bottleneck_conv2D[0][0]
__________________________________________________________________________________________________
activation_790 (Activation)     (None, 56, 24, 24)   0           dense_2_2_bottleneck_bn[0][0]    
__________________________________________________________________________________________________
dense_2_2_conv2D (Conv2D)       (None, 14, 24, 24)   7056        activation_790[0][0]             
__________________________________________________________________________________________________
concatenate_346 (Concatenate)   (None, 98, 24, 24)   0           concatenate_345[0][0]            
                                                                 dense_2_2_conv2D[0][0]           
__________________________________________________________________________________________________
dense_2_3_bn (BatchNormalizatio (None, 98, 24, 24)   392         concatenate_346[0][0]            
__________________________________________________________________________________________________
activation_791 (Activation)     (None, 98, 24, 24)   0           dense_2_3_bn[0][0]               
__________________________________________________________________________________________________
dense_2_3_bottleneck_conv2D (Co (None, 56, 24, 24)   5488        activation_791[0][0]             
__________________________________________________________________________________________________
dense_2_3_bottleneck_bn (BatchN (None, 56, 24, 24)   224         dense_2_3_bottleneck_conv2D[0][0]
__________________________________________________________________________________________________
activation_792 (Activation)     (None, 56, 24, 24)   0           dense_2_3_bottleneck_bn[0][0]    
__________________________________________________________________________________________________
dense_2_3_conv2D (Conv2D)       (None, 14, 24, 24)   7056        activation_792[0][0]             
__________________________________________________________________________________________________
concatenate_347 (Concatenate)   (None, 112, 24, 24)  0           concatenate_346[0][0]            
                                                                 dense_2_3_conv2D[0][0]           
__________________________________________________________________________________________________
dense_2_4_bn (BatchNormalizatio (None, 112, 24, 24)  448         concatenate_347[0][0]            
__________________________________________________________________________________________________
activation_793 (Activation)     (None, 112, 24, 24)  0           dense_2_4_bn[0][0]               
__________________________________________________________________________________________________
dense_2_4_bottleneck_conv2D (Co (None, 56, 24, 24)   6272        activation_793[0][0]             
__________________________________________________________________________________________________
dense_2_4_bottleneck_bn (BatchN (None, 56, 24, 24)   224         dense_2_4_bottleneck_conv2D[0][0]
__________________________________________________________________________________________________
activation_794 (Activation)     (None, 56, 24, 24)   0           dense_2_4_bottleneck_bn[0][0]    
__________________________________________________________________________________________________
dense_2_4_conv2D (Conv2D)       (None, 14, 24, 24)   7056        activation_794[0][0]             
__________________________________________________________________________________________________
concatenate_348 (Concatenate)   (None, 126, 24, 24)  0           concatenate_347[0][0]            
                                                                 dense_2_4_conv2D[0][0]           
__________________________________________________________________________________________________
tr_2_bn (BatchNormalization)    (None, 126, 24, 24)  504         concatenate_348[0][0]            
__________________________________________________________________________________________________
activation_795 (Activation)     (None, 126, 24, 24)  0           tr_2_bn[0][0]                    
__________________________________________________________________________________________________
tr_2_conv2D (Conv2D)            (None, 63, 24, 24)   7938        activation_795[0][0]             
__________________________________________________________________________________________________
average_pooling2d_69 (AveragePo (None, 63, 12, 12)   0           tr_2_conv2D[0][0]                
__________________________________________________________________________________________________
dense_3_0_bn (BatchNormalizatio (None, 63, 12, 12)   252         average_pooling2d_69[0][0]       
__________________________________________________________________________________________________
activation_796 (Activation)     (None, 63, 12, 12)   0           dense_3_0_bn[0][0]               
__________________________________________________________________________________________________
dense_3_0_bottleneck_conv2D (Co (None, 56, 12, 12)   3528        activation_796[0][0]             
__________________________________________________________________________________________________
dense_3_0_bottleneck_bn (BatchN (None, 56, 12, 12)   224         dense_3_0_bottleneck_conv2D[0][0]
__________________________________________________________________________________________________
activation_797 (Activation)     (None, 56, 12, 12)   0           dense_3_0_bottleneck_bn[0][0]    
__________________________________________________________________________________________________
dense_3_0_conv2D (Conv2D)       (None, 14, 12, 12)   7056        activation_797[0][0]             
__________________________________________________________________________________________________
concatenate_349 (Concatenate)   (None, 77, 12, 12)   0           average_pooling2d_69[0][0]       
                                                                 dense_3_0_conv2D[0][0]           
__________________________________________________________________________________________________
dense_3_1_bn (BatchNormalizatio (None, 77, 12, 12)   308         concatenate_349[0][0]            
__________________________________________________________________________________________________
activation_798 (Activation)     (None, 77, 12, 12)   0           dense_3_1_bn[0][0]               
__________________________________________________________________________________________________
dense_3_1_bottleneck_conv2D (Co (None, 56, 12, 12)   4312        activation_798[0][0]             
__________________________________________________________________________________________________
dense_3_1_bottleneck_bn (BatchN (None, 56, 12, 12)   224         dense_3_1_bottleneck_conv2D[0][0]
__________________________________________________________________________________________________
activation_799 (Activation)     (None, 56, 12, 12)   0           dense_3_1_bottleneck_bn[0][0]    
__________________________________________________________________________________________________
dense_3_1_conv2D (Conv2D)       (None, 14, 12, 12)   7056        activation_799[0][0]             
__________________________________________________________________________________________________
concatenate_350 (Concatenate)   (None, 91, 12, 12)   0           concatenate_349[0][0]            
                                                                 dense_3_1_conv2D[0][0]           
__________________________________________________________________________________________________
dense_3_2_bn (BatchNormalizatio (None, 91, 12, 12)   364         concatenate_350[0][0]            
__________________________________________________________________________________________________
activation_800 (Activation)     (None, 91, 12, 12)   0           dense_3_2_bn[0][0]               
__________________________________________________________________________________________________
dense_3_2_bottleneck_conv2D (Co (None, 56, 12, 12)   5096        activation_800[0][0]             
__________________________________________________________________________________________________
dense_3_2_bottleneck_bn (BatchN (None, 56, 12, 12)   224         dense_3_2_bottleneck_conv2D[0][0]
__________________________________________________________________________________________________
activation_801 (Activation)     (None, 56, 12, 12)   0           dense_3_2_bottleneck_bn[0][0]    
__________________________________________________________________________________________________
dense_3_2_conv2D (Conv2D)       (None, 14, 12, 12)   7056        activation_801[0][0]             
__________________________________________________________________________________________________
concatenate_351 (Concatenate)   (None, 105, 12, 12)  0           concatenate_350[0][0]            
                                                                 dense_3_2_conv2D[0][0]           
__________________________________________________________________________________________________
dense_3_3_bn (BatchNormalizatio (None, 105, 12, 12)  420         concatenate_351[0][0]            
__________________________________________________________________________________________________
activation_802 (Activation)     (None, 105, 12, 12)  0           dense_3_3_bn[0][0]               
__________________________________________________________________________________________________
dense_3_3_bottleneck_conv2D (Co (None, 56, 12, 12)   5880        activation_802[0][0]             
__________________________________________________________________________________________________
dense_3_3_bottleneck_bn (BatchN (None, 56, 12, 12)   224         dense_3_3_bottleneck_conv2D[0][0]
__________________________________________________________________________________________________
activation_803 (Activation)     (None, 56, 12, 12)   0           dense_3_3_bottleneck_bn[0][0]    
__________________________________________________________________________________________________
dense_3_3_conv2D (Conv2D)       (None, 14, 12, 12)   7056        activation_803[0][0]             
__________________________________________________________________________________________________
concatenate_352 (Concatenate)   (None, 119, 12, 12)  0           concatenate_351[0][0]            
                                                                 dense_3_3_conv2D[0][0]           
__________________________________________________________________________________________________
dense_3_4_bn (BatchNormalizatio (None, 119, 12, 12)  476         concatenate_352[0][0]            
__________________________________________________________________________________________________
activation_804 (Activation)     (None, 119, 12, 12)  0           dense_3_4_bn[0][0]               
__________________________________________________________________________________________________
dense_3_4_bottleneck_conv2D (Co (None, 56, 12, 12)   6664        activation_804[0][0]             
__________________________________________________________________________________________________
dense_3_4_bottleneck_bn (BatchN (None, 56, 12, 12)   224         dense_3_4_bottleneck_conv2D[0][0]
__________________________________________________________________________________________________
activation_805 (Activation)     (None, 56, 12, 12)   0           dense_3_4_bottleneck_bn[0][0]    
__________________________________________________________________________________________________
dense_3_4_conv2D (Conv2D)       (None, 14, 12, 12)   7056        activation_805[0][0]             
__________________________________________________________________________________________________
concatenate_353 (Concatenate)   (None, 133, 12, 12)  0           concatenate_352[0][0]            
                                                                 dense_3_4_conv2D[0][0]           
__________________________________________________________________________________________________
final_bn (BatchNormalization)   (None, 133, 12, 12)  532         concatenate_353[0][0]            
__________________________________________________________________________________________________
activation_806 (Activation)     (None, 133, 12, 12)  0           final_bn[0][0]                   
__________________________________________________________________________________________________
global_average_pooling2d_31 (Gl (None, 133)          0           activation_806[0][0]             
__________________________________________________________________________________________________
dense_31 (Dense)                (None, 1)            134         global_average_pooling2d_31[0][0]
==================================================================================================
Total params: 252,818
Trainable params: 246,762
Non-trainable params: 6,056
__________________________________________________________________________________________________
Train on 31872 samples, validate on 7968 samples
Epoch 1/1
 - 119s - loss: 0.8472 - acc: 0.7063 - val_loss: 0.7756 - val_acc: 0.7523
…
