…
Layers:  [2, 2, 2, 2]  Growth_rate:  12  nb_filter:  16  dropout:  0.2
dense_block:  4  reduction:  0.5  bottleneck:  False
Epochs:  25  batch_size:  64  lr:  0.07  optimizer:  adadelta
 es_patience:  4  lr_patience:  3  pooling:  avg
------------------------	  end of configs        -------------------------
pooling:avg
__________________________________________________________________________________________________
Layer (type)                    Output Shape         Param #     Connected to                     
==================================================================================================
input_1 (InputLayer)            (None, 2, 96, 96)    0                                            
__________________________________________________________________________________________________
initial_conv2D (Conv2D)         (None, 16, 48, 48)   1568        input_1[0][0]                    
__________________________________________________________________________________________________
initial_bn (BatchNormalization) (None, 16, 48, 48)   64          initial_conv2D[0][0]             
__________________________________________________________________________________________________
activation_1 (Activation)       (None, 16, 48, 48)   0           initial_bn[0][0]                 
__________________________________________________________________________________________________
max_pooling2d_1 (MaxPooling2D)  (None, 16, 24, 24)   0           activation_1[0][0]               
__________________________________________________________________________________________________
dense_0_0_bn (BatchNormalizatio (None, 16, 24, 24)   64          max_pooling2d_1[0][0]            
__________________________________________________________________________________________________
activation_2 (Activation)       (None, 16, 24, 24)   0           dense_0_0_bn[0][0]               
__________________________________________________________________________________________________
dense_0_0_conv2D (Conv2D)       (None, 12, 24, 24)   1728        activation_2[0][0]               
__________________________________________________________________________________________________
dropout_1 (Dropout)             (None, 12, 24, 24)   0           dense_0_0_conv2D[0][0]           
__________________________________________________________________________________________________
concatenate_1 (Concatenate)     (None, 28, 24, 24)   0           max_pooling2d_1[0][0]            
                                                                 dropout_1[0][0]                  
__________________________________________________________________________________________________
dense_0_1_bn (BatchNormalizatio (None, 28, 24, 24)   112         concatenate_1[0][0]              
__________________________________________________________________________________________________
activation_3 (Activation)       (None, 28, 24, 24)   0           dense_0_1_bn[0][0]               
__________________________________________________________________________________________________
dense_0_1_conv2D (Conv2D)       (None, 12, 24, 24)   3024        activation_3[0][0]               
__________________________________________________________________________________________________
dropout_2 (Dropout)             (None, 12, 24, 24)   0           dense_0_1_conv2D[0][0]           
__________________________________________________________________________________________________
concatenate_2 (Concatenate)     (None, 40, 24, 24)   0           concatenate_1[0][0]              
                                                                 dropout_2[0][0]                  
__________________________________________________________________________________________________
tr_0_bn (BatchNormalization)    (None, 40, 24, 24)   160         concatenate_2[0][0]              
__________________________________________________________________________________________________
activation_4 (Activation)       (None, 40, 24, 24)   0           tr_0_bn[0][0]                    
__________________________________________________________________________________________________
tr_0_conv2D (Conv2D)            (None, 20, 24, 24)   800         activation_4[0][0]               
__________________________________________________________________________________________________
average_pooling2d_1 (AveragePoo (None, 20, 12, 12)   0           tr_0_conv2D[0][0]                
__________________________________________________________________________________________________
dense_1_0_bn (BatchNormalizatio (None, 20, 12, 12)   80          average_pooling2d_1[0][0]        
__________________________________________________________________________________________________
activation_5 (Activation)       (None, 20, 12, 12)   0           dense_1_0_bn[0][0]               
__________________________________________________________________________________________________
dense_1_0_conv2D (Conv2D)       (None, 12, 12, 12)   2160        activation_5[0][0]               
__________________________________________________________________________________________________
dropout_3 (Dropout)             (None, 12, 12, 12)   0           dense_1_0_conv2D[0][0]           
__________________________________________________________________________________________________
concatenate_3 (Concatenate)     (None, 32, 12, 12)   0           average_pooling2d_1[0][0]        
                                                                 dropout_3[0][0]                  
__________________________________________________________________________________________________
dense_1_1_bn (BatchNormalizatio (None, 32, 12, 12)   128         concatenate_3[0][0]              
__________________________________________________________________________________________________
activation_6 (Activation)       (None, 32, 12, 12)   0           dense_1_1_bn[0][0]               
__________________________________________________________________________________________________
dense_1_1_conv2D (Conv2D)       (None, 12, 12, 12)   3456        activation_6[0][0]               
__________________________________________________________________________________________________
dropout_4 (Dropout)             (None, 12, 12, 12)   0           dense_1_1_conv2D[0][0]           
__________________________________________________________________________________________________
concatenate_4 (Concatenate)     (None, 44, 12, 12)   0           concatenate_3[0][0]              
                                                                 dropout_4[0][0]                  
__________________________________________________________________________________________________
tr_1_bn (BatchNormalization)    (None, 44, 12, 12)   176         concatenate_4[0][0]              
__________________________________________________________________________________________________
activation_7 (Activation)       (None, 44, 12, 12)   0           tr_1_bn[0][0]                    
__________________________________________________________________________________________________
tr_1_conv2D (Conv2D)            (None, 22, 12, 12)   968         activation_7[0][0]               
__________________________________________________________________________________________________
average_pooling2d_2 (AveragePoo (None, 22, 6, 6)     0           tr_1_conv2D[0][0]                
__________________________________________________________________________________________________
dense_2_0_bn (BatchNormalizatio (None, 22, 6, 6)     88          average_pooling2d_2[0][0]        
__________________________________________________________________________________________________
activation_8 (Activation)       (None, 22, 6, 6)     0           dense_2_0_bn[0][0]               
__________________________________________________________________________________________________
dense_2_0_conv2D (Conv2D)       (None, 12, 6, 6)     2376        activation_8[0][0]               
__________________________________________________________________________________________________
dropout_5 (Dropout)             (None, 12, 6, 6)     0           dense_2_0_conv2D[0][0]           
__________________________________________________________________________________________________
concatenate_5 (Concatenate)     (None, 34, 6, 6)     0           average_pooling2d_2[0][0]        
                                                                 dropout_5[0][0]                  
__________________________________________________________________________________________________
dense_2_1_bn (BatchNormalizatio (None, 34, 6, 6)     136         concatenate_5[0][0]              
__________________________________________________________________________________________________
activation_9 (Activation)       (None, 34, 6, 6)     0           dense_2_1_bn[0][0]               
__________________________________________________________________________________________________
dense_2_1_conv2D (Conv2D)       (None, 12, 6, 6)     3672        activation_9[0][0]               
__________________________________________________________________________________________________
dropout_6 (Dropout)             (None, 12, 6, 6)     0           dense_2_1_conv2D[0][0]           
__________________________________________________________________________________________________
concatenate_6 (Concatenate)     (None, 46, 6, 6)     0           concatenate_5[0][0]              
                                                                 dropout_6[0][0]                  
__________________________________________________________________________________________________
tr_2_bn (BatchNormalization)    (None, 46, 6, 6)     184         concatenate_6[0][0]              
__________________________________________________________________________________________________
activation_10 (Activation)      (None, 46, 6, 6)     0           tr_2_bn[0][0]                    
__________________________________________________________________________________________________
tr_2_conv2D (Conv2D)            (None, 23, 6, 6)     1058        activation_10[0][0]              
__________________________________________________________________________________________________
average_pooling2d_3 (AveragePoo (None, 23, 3, 3)     0           tr_2_conv2D[0][0]                
__________________________________________________________________________________________________
dense_3_0_bn (BatchNormalizatio (None, 23, 3, 3)     92          average_pooling2d_3[0][0]        
__________________________________________________________________________________________________
activation_11 (Activation)      (None, 23, 3, 3)     0           dense_3_0_bn[0][0]               
__________________________________________________________________________________________________
dense_3_0_conv2D (Conv2D)       (None, 12, 3, 3)     2484        activation_11[0][0]              
__________________________________________________________________________________________________
dropout_7 (Dropout)             (None, 12, 3, 3)     0           dense_3_0_conv2D[0][0]           
__________________________________________________________________________________________________
concatenate_7 (Concatenate)     (None, 35, 3, 3)     0           average_pooling2d_3[0][0]        
                                                                 dropout_7[0][0]                  
__________________________________________________________________________________________________
dense_3_1_bn (BatchNormalizatio (None, 35, 3, 3)     140         concatenate_7[0][0]              
__________________________________________________________________________________________________
activation_12 (Activation)      (None, 35, 3, 3)     0           dense_3_1_bn[0][0]               
__________________________________________________________________________________________________
dense_3_1_conv2D (Conv2D)       (None, 12, 3, 3)     3780        activation_12[0][0]              
__________________________________________________________________________________________________
dropout_8 (Dropout)             (None, 12, 3, 3)     0           dense_3_1_conv2D[0][0]           
__________________________________________________________________________________________________
concatenate_8 (Concatenate)     (None, 47, 3, 3)     0           concatenate_7[0][0]              
                                                                 dropout_8[0][0]                  
__________________________________________________________________________________________________
final_bn (BatchNormalization)   (None, 47, 3, 3)     188         concatenate_8[0][0]              
__________________________________________________________________________________________________
activation_13 (Activation)      (None, 47, 3, 3)     0           final_bn[0][0]                   
__________________________________________________________________________________________________
global_average_pooling2d_1 (Glo (None, 47)           0           activation_13[0][0]              
__________________________________________________________________________________________________
dense_1 (Dense)                 (None, 1)            48          global_average_pooling2d_1[0][0] 
==================================================================================================
Total params: 28,734
Trainable params: 27,928
Non-trainable params: 806
__________________________________________________________________________________________________
Finished compiling
Train on 39840 samples, validate on 7968 samples
Epoch 1/25
 - 26s - loss: 0.5352 - acc: 0.7436 - val_loss: 0.4776 - val_acc: 0.7656
…
Layers:  [2, 2, 2, 2]  Growth_rate:  18  nb_filter:  16  dropout:  0.2
dense_block:  4  reduction:  0.5  bottleneck:  False
Epochs:  22  batch_size:  64  lr:  0.07  optimizer:  adadelta
 es_patience:  4  lr_patience:  3  pooling:  avg
------------------------	  end of configs        -------------------------
pooling:avg
__________________________________________________________________________________________________
Layer (type)                    Output Shape         Param #     Connected to                     
==================================================================================================
input_1 (InputLayer)            (None, 2, 96, 96)    0                                            
__________________________________________________________________________________________________
initial_conv2D (Conv2D)         (None, 16, 48, 48)   1568        input_1[0][0]                    
__________________________________________________________________________________________________
initial_bn (BatchNormalization) (None, 16, 48, 48)   64          initial_conv2D[0][0]             
__________________________________________________________________________________________________
activation_1 (Activation)       (None, 16, 48, 48)   0           initial_bn[0][0]                 
__________________________________________________________________________________________________
max_pooling2d_1 (MaxPooling2D)  (None, 16, 24, 24)   0           activation_1[0][0]               
__________________________________________________________________________________________________
dense_0_0_bn (BatchNormalizatio (None, 16, 24, 24)   64          max_pooling2d_1[0][0]            
__________________________________________________________________________________________________
activation_2 (Activation)       (None, 16, 24, 24)   0           dense_0_0_bn[0][0]               
__________________________________________________________________________________________________
dense_0_0_conv2D (Conv2D)       (None, 18, 24, 24)   2592        activation_2[0][0]               
__________________________________________________________________________________________________
dropout_1 (Dropout)             (None, 18, 24, 24)   0           dense_0_0_conv2D[0][0]           
__________________________________________________________________________________________________
concatenate_1 (Concatenate)     (None, 34, 24, 24)   0           max_pooling2d_1[0][0]            
                                                                 dropout_1[0][0]                  
__________________________________________________________________________________________________
dense_0_1_bn (BatchNormalizatio (None, 34, 24, 24)   136         concatenate_1[0][0]              
__________________________________________________________________________________________________
activation_3 (Activation)       (None, 34, 24, 24)   0           dense_0_1_bn[0][0]               
__________________________________________________________________________________________________
dense_0_1_conv2D (Conv2D)       (None, 18, 24, 24)   5508        activation_3[0][0]               
__________________________________________________________________________________________________
dropout_2 (Dropout)             (None, 18, 24, 24)   0           dense_0_1_conv2D[0][0]           
__________________________________________________________________________________________________
concatenate_2 (Concatenate)     (None, 52, 24, 24)   0           concatenate_1[0][0]              
                                                                 dropout_2[0][0]                  
__________________________________________________________________________________________________
tr_0_bn (BatchNormalization)    (None, 52, 24, 24)   208         concatenate_2[0][0]              
__________________________________________________________________________________________________
activation_4 (Activation)       (None, 52, 24, 24)   0           tr_0_bn[0][0]                    
__________________________________________________________________________________________________
tr_0_conv2D (Conv2D)            (None, 26, 24, 24)   1352        activation_4[0][0]               
__________________________________________________________________________________________________
average_pooling2d_1 (AveragePoo (None, 26, 12, 12)   0           tr_0_conv2D[0][0]                
__________________________________________________________________________________________________
dense_1_0_bn (BatchNormalizatio (None, 26, 12, 12)   104         average_pooling2d_1[0][0]        
__________________________________________________________________________________________________
activation_5 (Activation)       (None, 26, 12, 12)   0           dense_1_0_bn[0][0]               
__________________________________________________________________________________________________
dense_1_0_conv2D (Conv2D)       (None, 18, 12, 12)   4212        activation_5[0][0]               
__________________________________________________________________________________________________
dropout_3 (Dropout)             (None, 18, 12, 12)   0           dense_1_0_conv2D[0][0]           
__________________________________________________________________________________________________
concatenate_3 (Concatenate)     (None, 44, 12, 12)   0           average_pooling2d_1[0][0]        
                                                                 dropout_3[0][0]                  
__________________________________________________________________________________________________
dense_1_1_bn (BatchNormalizatio (None, 44, 12, 12)   176         concatenate_3[0][0]              
__________________________________________________________________________________________________
activation_6 (Activation)       (None, 44, 12, 12)   0           dense_1_1_bn[0][0]               
__________________________________________________________________________________________________
dense_1_1_conv2D (Conv2D)       (None, 18, 12, 12)   7128        activation_6[0][0]               
__________________________________________________________________________________________________
dropout_4 (Dropout)             (None, 18, 12, 12)   0           dense_1_1_conv2D[0][0]           
__________________________________________________________________________________________________
concatenate_4 (Concatenate)     (None, 62, 12, 12)   0           concatenate_3[0][0]              
                                                                 dropout_4[0][0]                  
__________________________________________________________________________________________________
tr_1_bn (BatchNormalization)    (None, 62, 12, 12)   248         concatenate_4[0][0]              
__________________________________________________________________________________________________
activation_7 (Activation)       (None, 62, 12, 12)   0           tr_1_bn[0][0]                    
__________________________________________________________________________________________________
tr_1_conv2D (Conv2D)            (None, 31, 12, 12)   1922        activation_7[0][0]               
__________________________________________________________________________________________________
average_pooling2d_2 (AveragePoo (None, 31, 6, 6)     0           tr_1_conv2D[0][0]                
__________________________________________________________________________________________________
dense_2_0_bn (BatchNormalizatio (None, 31, 6, 6)     124         average_pooling2d_2[0][0]        
__________________________________________________________________________________________________
activation_8 (Activation)       (None, 31, 6, 6)     0           dense_2_0_bn[0][0]               
__________________________________________________________________________________________________
dense_2_0_conv2D (Conv2D)       (None, 18, 6, 6)     5022        activation_8[0][0]               
__________________________________________________________________________________________________
dropout_5 (Dropout)             (None, 18, 6, 6)     0           dense_2_0_conv2D[0][0]           
__________________________________________________________________________________________________
concatenate_5 (Concatenate)     (None, 49, 6, 6)     0           average_pooling2d_2[0][0]        
                                                                 dropout_5[0][0]                  
__________________________________________________________________________________________________
dense_2_1_bn (BatchNormalizatio (None, 49, 6, 6)     196         concatenate_5[0][0]              
__________________________________________________________________________________________________
activation_9 (Activation)       (None, 49, 6, 6)     0           dense_2_1_bn[0][0]               
__________________________________________________________________________________________________
dense_2_1_conv2D (Conv2D)       (None, 18, 6, 6)     7938        activation_9[0][0]               
__________________________________________________________________________________________________
dropout_6 (Dropout)             (None, 18, 6, 6)     0           dense_2_1_conv2D[0][0]           
__________________________________________________________________________________________________
concatenate_6 (Concatenate)     (None, 67, 6, 6)     0           concatenate_5[0][0]              
                                                                 dropout_6[0][0]                  
__________________________________________________________________________________________________
tr_2_bn (BatchNormalization)    (None, 67, 6, 6)     268         concatenate_6[0][0]              
__________________________________________________________________________________________________
activation_10 (Activation)      (None, 67, 6, 6)     0           tr_2_bn[0][0]                    
__________________________________________________________________________________________________
tr_2_conv2D (Conv2D)            (None, 33, 6, 6)     2211        activation_10[0][0]              
__________________________________________________________________________________________________
average_pooling2d_3 (AveragePoo (None, 33, 3, 3)     0           tr_2_conv2D[0][0]                
__________________________________________________________________________________________________
dense_3_0_bn (BatchNormalizatio (None, 33, 3, 3)     132         average_pooling2d_3[0][0]        
__________________________________________________________________________________________________
activation_11 (Activation)      (None, 33, 3, 3)     0           dense_3_0_bn[0][0]               
__________________________________________________________________________________________________
dense_3_0_conv2D (Conv2D)       (None, 18, 3, 3)     5346        activation_11[0][0]              
__________________________________________________________________________________________________
dropout_7 (Dropout)             (None, 18, 3, 3)     0           dense_3_0_conv2D[0][0]           
__________________________________________________________________________________________________
concatenate_7 (Concatenate)     (None, 51, 3, 3)     0           average_pooling2d_3[0][0]        
                                                                 dropout_7[0][0]                  
__________________________________________________________________________________________________
dense_3_1_bn (BatchNormalizatio (None, 51, 3, 3)     204         concatenate_7[0][0]              
__________________________________________________________________________________________________
activation_12 (Activation)      (None, 51, 3, 3)     0           dense_3_1_bn[0][0]               
__________________________________________________________________________________________________
dense_3_1_conv2D (Conv2D)       (None, 18, 3, 3)     8262        activation_12[0][0]              
__________________________________________________________________________________________________
dropout_8 (Dropout)             (None, 18, 3, 3)     0           dense_3_1_conv2D[0][0]           
__________________________________________________________________________________________________
concatenate_8 (Concatenate)     (None, 69, 3, 3)     0           concatenate_7[0][0]              
                                                                 dropout_8[0][0]                  
__________________________________________________________________________________________________
final_bn (BatchNormalization)   (None, 69, 3, 3)     276         concatenate_8[0][0]              
__________________________________________________________________________________________________
activation_13 (Activation)      (None, 69, 3, 3)     0           final_bn[0][0]                   
__________________________________________________________________________________________________
global_average_pooling2d_1 (Glo (None, 69)           0           activation_13[0][0]              
__________________________________________________________________________________________________
dense_1 (Dense)                 (None, 1)            70          global_average_pooling2d_1[0][0] 
==================================================================================================
Total params: 55,331
Trainable params: 54,231
Non-trainable params: 1,100
__________________________________________________________________________________________________
Finished compiling
Train on 39840 samples, validate on 7968 samples
Epoch 1/22
 - 26s - loss: 0.5247 - acc: 0.7457 - val_loss: 0.4592 - val_acc: 0.7697
…
Layers:  [2, 2, 2, 2]  Growth_rate:  24  nb_filter:  16  dropout:  0.2
dense_block:  4  reduction:  0.5  bottleneck:  False
Epochs:  20  batch_size:  64  lr:  0.07  optimizer:  adadelta
 es_patience:  4  lr_patience:  3  pooling:  avg
------------------------	  end of configs        -------------------------
pooling:avg
__________________________________________________________________________________________________
Layer (type)                    Output Shape         Param #     Connected to                     
==================================================================================================
input_1 (InputLayer)            (None, 2, 96, 96)    0                                            
__________________________________________________________________________________________________
initial_conv2D (Conv2D)         (None, 16, 48, 48)   1568        input_1[0][0]                    
__________________________________________________________________________________________________
initial_bn (BatchNormalization) (None, 16, 48, 48)   64          initial_conv2D[0][0]             
__________________________________________________________________________________________________
activation_1 (Activation)       (None, 16, 48, 48)   0           initial_bn[0][0]                 
__________________________________________________________________________________________________
max_pooling2d_1 (MaxPooling2D)  (None, 16, 24, 24)   0           activation_1[0][0]               
__________________________________________________________________________________________________
dense_0_0_bn (BatchNormalizatio (None, 16, 24, 24)   64          max_pooling2d_1[0][0]            
__________________________________________________________________________________________________
activation_2 (Activation)       (None, 16, 24, 24)   0           dense_0_0_bn[0][0]               
__________________________________________________________________________________________________
dense_0_0_conv2D (Conv2D)       (None, 24, 24, 24)   3456        activation_2[0][0]               
__________________________________________________________________________________________________
dropout_1 (Dropout)             (None, 24, 24, 24)   0           dense_0_0_conv2D[0][0]           
__________________________________________________________________________________________________
concatenate_1 (Concatenate)     (None, 40, 24, 24)   0           max_pooling2d_1[0][0]            
                                                                 dropout_1[0][0]                  
__________________________________________________________________________________________________
dense_0_1_bn (BatchNormalizatio (None, 40, 24, 24)   160         concatenate_1[0][0]              
__________________________________________________________________________________________________
activation_3 (Activation)       (None, 40, 24, 24)   0           dense_0_1_bn[0][0]               
__________________________________________________________________________________________________
dense_0_1_conv2D (Conv2D)       (None, 24, 24, 24)   8640        activation_3[0][0]               
__________________________________________________________________________________________________
dropout_2 (Dropout)             (None, 24, 24, 24)   0           dense_0_1_conv2D[0][0]           
__________________________________________________________________________________________________
concatenate_2 (Concatenate)     (None, 64, 24, 24)   0           concatenate_1[0][0]              
                                                                 dropout_2[0][0]                  
__________________________________________________________________________________________________
tr_0_bn (BatchNormalization)    (None, 64, 24, 24)   256         concatenate_2[0][0]              
__________________________________________________________________________________________________
activation_4 (Activation)       (None, 64, 24, 24)   0           tr_0_bn[0][0]                    
__________________________________________________________________________________________________
tr_0_conv2D (Conv2D)            (None, 32, 24, 24)   2048        activation_4[0][0]               
__________________________________________________________________________________________________
average_pooling2d_1 (AveragePoo (None, 32, 12, 12)   0           tr_0_conv2D[0][0]                
__________________________________________________________________________________________________
dense_1_0_bn (BatchNormalizatio (None, 32, 12, 12)   128         average_pooling2d_1[0][0]        
__________________________________________________________________________________________________
activation_5 (Activation)       (None, 32, 12, 12)   0           dense_1_0_bn[0][0]               
__________________________________________________________________________________________________
dense_1_0_conv2D (Conv2D)       (None, 24, 12, 12)   6912        activation_5[0][0]               
__________________________________________________________________________________________________
dropout_3 (Dropout)             (None, 24, 12, 12)   0           dense_1_0_conv2D[0][0]           
__________________________________________________________________________________________________
concatenate_3 (Concatenate)     (None, 56, 12, 12)   0           average_pooling2d_1[0][0]        
                                                                 dropout_3[0][0]                  
__________________________________________________________________________________________________
dense_1_1_bn (BatchNormalizatio (None, 56, 12, 12)   224         concatenate_3[0][0]              
__________________________________________________________________________________________________
activation_6 (Activation)       (None, 56, 12, 12)   0           dense_1_1_bn[0][0]               
__________________________________________________________________________________________________
dense_1_1_conv2D (Conv2D)       (None, 24, 12, 12)   12096       activation_6[0][0]               
__________________________________________________________________________________________________
dropout_4 (Dropout)             (None, 24, 12, 12)   0           dense_1_1_conv2D[0][0]           
__________________________________________________________________________________________________
concatenate_4 (Concatenate)     (None, 80, 12, 12)   0           concatenate_3[0][0]              
                                                                 dropout_4[0][0]                  
__________________________________________________________________________________________________
tr_1_bn (BatchNormalization)    (None, 80, 12, 12)   320         concatenate_4[0][0]              
__________________________________________________________________________________________________
activation_7 (Activation)       (None, 80, 12, 12)   0           tr_1_bn[0][0]                    
__________________________________________________________________________________________________
tr_1_conv2D (Conv2D)            (None, 40, 12, 12)   3200        activation_7[0][0]               
__________________________________________________________________________________________________
average_pooling2d_2 (AveragePoo (None, 40, 6, 6)     0           tr_1_conv2D[0][0]                
__________________________________________________________________________________________________
dense_2_0_bn (BatchNormalizatio (None, 40, 6, 6)     160         average_pooling2d_2[0][0]        
__________________________________________________________________________________________________
activation_8 (Activation)       (None, 40, 6, 6)     0           dense_2_0_bn[0][0]               
__________________________________________________________________________________________________
dense_2_0_conv2D (Conv2D)       (None, 24, 6, 6)     8640        activation_8[0][0]               
__________________________________________________________________________________________________
dropout_5 (Dropout)             (None, 24, 6, 6)     0           dense_2_0_conv2D[0][0]           
__________________________________________________________________________________________________
concatenate_5 (Concatenate)     (None, 64, 6, 6)     0           average_pooling2d_2[0][0]        
                                                                 dropout_5[0][0]                  
__________________________________________________________________________________________________
dense_2_1_bn (BatchNormalizatio (None, 64, 6, 6)     256         concatenate_5[0][0]              
__________________________________________________________________________________________________
activation_9 (Activation)       (None, 64, 6, 6)     0           dense_2_1_bn[0][0]               
__________________________________________________________________________________________________
dense_2_1_conv2D (Conv2D)       (None, 24, 6, 6)     13824       activation_9[0][0]               
__________________________________________________________________________________________________
dropout_6 (Dropout)             (None, 24, 6, 6)     0           dense_2_1_conv2D[0][0]           
__________________________________________________________________________________________________
concatenate_6 (Concatenate)     (None, 88, 6, 6)     0           concatenate_5[0][0]              
                                                                 dropout_6[0][0]                  
__________________________________________________________________________________________________
tr_2_bn (BatchNormalization)    (None, 88, 6, 6)     352         concatenate_6[0][0]              
__________________________________________________________________________________________________
activation_10 (Activation)      (None, 88, 6, 6)     0           tr_2_bn[0][0]                    
__________________________________________________________________________________________________
tr_2_conv2D (Conv2D)            (None, 44, 6, 6)     3872        activation_10[0][0]              
__________________________________________________________________________________________________
average_pooling2d_3 (AveragePoo (None, 44, 3, 3)     0           tr_2_conv2D[0][0]                
__________________________________________________________________________________________________
dense_3_0_bn (BatchNormalizatio (None, 44, 3, 3)     176         average_pooling2d_3[0][0]        
__________________________________________________________________________________________________
activation_11 (Activation)      (None, 44, 3, 3)     0           dense_3_0_bn[0][0]               
__________________________________________________________________________________________________
dense_3_0_conv2D (Conv2D)       (None, 24, 3, 3)     9504        activation_11[0][0]              
__________________________________________________________________________________________________
dropout_7 (Dropout)             (None, 24, 3, 3)     0           dense_3_0_conv2D[0][0]           
__________________________________________________________________________________________________
concatenate_7 (Concatenate)     (None, 68, 3, 3)     0           average_pooling2d_3[0][0]        
                                                                 dropout_7[0][0]                  
__________________________________________________________________________________________________
dense_3_1_bn (BatchNormalizatio (None, 68, 3, 3)     272         concatenate_7[0][0]              
__________________________________________________________________________________________________
activation_12 (Activation)      (None, 68, 3, 3)     0           dense_3_1_bn[0][0]               
__________________________________________________________________________________________________
dense_3_1_conv2D (Conv2D)       (None, 24, 3, 3)     14688       activation_12[0][0]              
__________________________________________________________________________________________________
dropout_8 (Dropout)             (None, 24, 3, 3)     0           dense_3_1_conv2D[0][0]           
__________________________________________________________________________________________________
concatenate_8 (Concatenate)     (None, 92, 3, 3)     0           concatenate_7[0][0]              
                                                                 dropout_8[0][0]                  
__________________________________________________________________________________________________
final_bn (BatchNormalization)   (None, 92, 3, 3)     368         concatenate_8[0][0]              
__________________________________________________________________________________________________
activation_13 (Activation)      (None, 92, 3, 3)     0           final_bn[0][0]                   
__________________________________________________________________________________________________
global_average_pooling2d_1 (Glo (None, 92)           0           activation_13[0][0]              
__________________________________________________________________________________________________
dense_1 (Dense)                 (None, 1)            93          global_average_pooling2d_1[0][0] 
==================================================================================================
Total params: 91,341
Trainable params: 89,941
Non-trainable params: 1,400
__________________________________________________________________________________________________
Finished compiling
Train on 39840 samples, validate on 7968 samples
Epoch 1/20
 - 25s - loss: 0.5188 - acc: 0.7529 - val_loss: 0.4998 - val_acc: 0.7500
…
Layers:  [2, 2, 2, 2]  Growth_rate:  30  nb_filter:  16  dropout:  0.2
dense_block:  4  reduction:  0.5  bottleneck:  False
Epochs:  20  batch_size:  64  lr:  0.07  optimizer:  adadelta
 es_patience:  4  lr_patience:  3  pooling:  avg
------------------------	  end of configs        -------------------------
pooling:avg
__________________________________________________________________________________________________
Layer (type)                    Output Shape         Param #     Connected to                     
==================================================================================================
input_1 (InputLayer)            (None, 2, 96, 96)    0                                            
__________________________________________________________________________________________________
initial_conv2D (Conv2D)         (None, 16, 48, 48)   1568        input_1[0][0]                    
__________________________________________________________________________________________________
initial_bn (BatchNormalization) (None, 16, 48, 48)   64          initial_conv2D[0][0]             
__________________________________________________________________________________________________
activation_1 (Activation)       (None, 16, 48, 48)   0           initial_bn[0][0]                 
__________________________________________________________________________________________________
max_pooling2d_1 (MaxPooling2D)  (None, 16, 24, 24)   0           activation_1[0][0]               
__________________________________________________________________________________________________
dense_0_0_bn (BatchNormalizatio (None, 16, 24, 24)   64          max_pooling2d_1[0][0]            
__________________________________________________________________________________________________
activation_2 (Activation)       (None, 16, 24, 24)   0           dense_0_0_bn[0][0]               
__________________________________________________________________________________________________
dense_0_0_conv2D (Conv2D)       (None, 30, 24, 24)   4320        activation_2[0][0]               
__________________________________________________________________________________________________
dropout_1 (Dropout)             (None, 30, 24, 24)   0           dense_0_0_conv2D[0][0]           
__________________________________________________________________________________________________
concatenate_1 (Concatenate)     (None, 46, 24, 24)   0           max_pooling2d_1[0][0]            
                                                                 dropout_1[0][0]                  
__________________________________________________________________________________________________
dense_0_1_bn (BatchNormalizatio (None, 46, 24, 24)   184         concatenate_1[0][0]              
__________________________________________________________________________________________________
activation_3 (Activation)       (None, 46, 24, 24)   0           dense_0_1_bn[0][0]               
__________________________________________________________________________________________________
dense_0_1_conv2D (Conv2D)       (None, 30, 24, 24)   12420       activation_3[0][0]               
__________________________________________________________________________________________________
dropout_2 (Dropout)             (None, 30, 24, 24)   0           dense_0_1_conv2D[0][0]           
__________________________________________________________________________________________________
concatenate_2 (Concatenate)     (None, 76, 24, 24)   0           concatenate_1[0][0]              
                                                                 dropout_2[0][0]                  
__________________________________________________________________________________________________
tr_0_bn (BatchNormalization)    (None, 76, 24, 24)   304         concatenate_2[0][0]              
__________________________________________________________________________________________________
activation_4 (Activation)       (None, 76, 24, 24)   0           tr_0_bn[0][0]                    
__________________________________________________________________________________________________
tr_0_conv2D (Conv2D)            (None, 38, 24, 24)   2888        activation_4[0][0]               
__________________________________________________________________________________________________
average_pooling2d_1 (AveragePoo (None, 38, 12, 12)   0           tr_0_conv2D[0][0]                
__________________________________________________________________________________________________
dense_1_0_bn (BatchNormalizatio (None, 38, 12, 12)   152         average_pooling2d_1[0][0]        
__________________________________________________________________________________________________
activation_5 (Activation)       (None, 38, 12, 12)   0           dense_1_0_bn[0][0]               
__________________________________________________________________________________________________
dense_1_0_conv2D (Conv2D)       (None, 30, 12, 12)   10260       activation_5[0][0]               
__________________________________________________________________________________________________
dropout_3 (Dropout)             (None, 30, 12, 12)   0           dense_1_0_conv2D[0][0]           
__________________________________________________________________________________________________
concatenate_3 (Concatenate)     (None, 68, 12, 12)   0           average_pooling2d_1[0][0]        
                                                                 dropout_3[0][0]                  
__________________________________________________________________________________________________
dense_1_1_bn (BatchNormalizatio (None, 68, 12, 12)   272         concatenate_3[0][0]              
__________________________________________________________________________________________________
activation_6 (Activation)       (None, 68, 12, 12)   0           dense_1_1_bn[0][0]               
__________________________________________________________________________________________________
dense_1_1_conv2D (Conv2D)       (None, 30, 12, 12)   18360       activation_6[0][0]               
__________________________________________________________________________________________________
dropout_4 (Dropout)             (None, 30, 12, 12)   0           dense_1_1_conv2D[0][0]           
__________________________________________________________________________________________________
concatenate_4 (Concatenate)     (None, 98, 12, 12)   0           concatenate_3[0][0]              
                                                                 dropout_4[0][0]                  
__________________________________________________________________________________________________
tr_1_bn (BatchNormalization)    (None, 98, 12, 12)   392         concatenate_4[0][0]              
__________________________________________________________________________________________________
activation_7 (Activation)       (None, 98, 12, 12)   0           tr_1_bn[0][0]                    
__________________________________________________________________________________________________
tr_1_conv2D (Conv2D)            (None, 49, 12, 12)   4802        activation_7[0][0]               
__________________________________________________________________________________________________
average_pooling2d_2 (AveragePoo (None, 49, 6, 6)     0           tr_1_conv2D[0][0]                
__________________________________________________________________________________________________
dense_2_0_bn (BatchNormalizatio (None, 49, 6, 6)     196         average_pooling2d_2[0][0]        
__________________________________________________________________________________________________
activation_8 (Activation)       (None, 49, 6, 6)     0           dense_2_0_bn[0][0]               
__________________________________________________________________________________________________
dense_2_0_conv2D (Conv2D)       (None, 30, 6, 6)     13230       activation_8[0][0]               
__________________________________________________________________________________________________
dropout_5 (Dropout)             (None, 30, 6, 6)     0           dense_2_0_conv2D[0][0]           
__________________________________________________________________________________________________
concatenate_5 (Concatenate)     (None, 79, 6, 6)     0           average_pooling2d_2[0][0]        
                                                                 dropout_5[0][0]                  
__________________________________________________________________________________________________
dense_2_1_bn (BatchNormalizatio (None, 79, 6, 6)     316         concatenate_5[0][0]              
__________________________________________________________________________________________________
activation_9 (Activation)       (None, 79, 6, 6)     0           dense_2_1_bn[0][0]               
__________________________________________________________________________________________________
dense_2_1_conv2D (Conv2D)       (None, 30, 6, 6)     21330       activation_9[0][0]               
__________________________________________________________________________________________________
dropout_6 (Dropout)             (None, 30, 6, 6)     0           dense_2_1_conv2D[0][0]           
__________________________________________________________________________________________________
concatenate_6 (Concatenate)     (None, 109, 6, 6)    0           concatenate_5[0][0]              
                                                                 dropout_6[0][0]                  
__________________________________________________________________________________________________
tr_2_bn (BatchNormalization)    (None, 109, 6, 6)    436         concatenate_6[0][0]              
__________________________________________________________________________________________________
activation_10 (Activation)      (None, 109, 6, 6)    0           tr_2_bn[0][0]                    
__________________________________________________________________________________________________
tr_2_conv2D (Conv2D)            (None, 54, 6, 6)     5886        activation_10[0][0]              
__________________________________________________________________________________________________
average_pooling2d_3 (AveragePoo (None, 54, 3, 3)     0           tr_2_conv2D[0][0]                
__________________________________________________________________________________________________
dense_3_0_bn (BatchNormalizatio (None, 54, 3, 3)     216         average_pooling2d_3[0][0]        
__________________________________________________________________________________________________
activation_11 (Activation)      (None, 54, 3, 3)     0           dense_3_0_bn[0][0]               
__________________________________________________________________________________________________
dense_3_0_conv2D (Conv2D)       (None, 30, 3, 3)     14580       activation_11[0][0]              
__________________________________________________________________________________________________
dropout_7 (Dropout)             (None, 30, 3, 3)     0           dense_3_0_conv2D[0][0]           
__________________________________________________________________________________________________
concatenate_7 (Concatenate)     (None, 84, 3, 3)     0           average_pooling2d_3[0][0]        
                                                                 dropout_7[0][0]                  
__________________________________________________________________________________________________
dense_3_1_bn (BatchNormalizatio (None, 84, 3, 3)     336         concatenate_7[0][0]              
__________________________________________________________________________________________________
activation_12 (Activation)      (None, 84, 3, 3)     0           dense_3_1_bn[0][0]               
__________________________________________________________________________________________________
dense_3_1_conv2D (Conv2D)       (None, 30, 3, 3)     22680       activation_12[0][0]              
__________________________________________________________________________________________________
dropout_8 (Dropout)             (None, 30, 3, 3)     0           dense_3_1_conv2D[0][0]           
__________________________________________________________________________________________________
concatenate_8 (Concatenate)     (None, 114, 3, 3)    0           concatenate_7[0][0]              
                                                                 dropout_8[0][0]                  
__________________________________________________________________________________________________
final_bn (BatchNormalization)   (None, 114, 3, 3)    456         concatenate_8[0][0]              
__________________________________________________________________________________________________
activation_13 (Activation)      (None, 114, 3, 3)    0           final_bn[0][0]                   
__________________________________________________________________________________________________
global_average_pooling2d_1 (Glo (None, 114)          0           activation_13[0][0]              
__________________________________________________________________________________________________
dense_1 (Dense)                 (None, 1)            115         global_average_pooling2d_1[0][0] 
==================================================================================================
Total params: 135,827
Trainable params: 134,133
Non-trainable params: 1,694
__________________________________________________________________________________________________
Finished compiling
Train on 39840 samples, validate on 7968 samples
Epoch 1/20
 - 26s - loss: 0.4868 - acc: 0.7746 - val_loss: 0.4264 - val_acc: 0.8016
…
Layers:  [4, 4, 4, 4]  Growth_rate:  12  nb_filter:  16  dropout:  0.2
dense_block:  4  reduction:  0.5  bottleneck:  False
Epochs:  25  batch_size:  64  lr:  0.07  optimizer:  adadelta
 es_patience:  4  lr_patience:  3  pooling:  avg
------------------------	  end of configs        -------------------------
pooling:avg
__________________________________________________________________________________________________
Layer (type)                    Output Shape         Param #     Connected to                     
==================================================================================================
input_1 (InputLayer)            (None, 2, 96, 96)    0                                            
__________________________________________________________________________________________________
initial_conv2D (Conv2D)         (None, 16, 48, 48)   1568        input_1[0][0]                    
__________________________________________________________________________________________________
initial_bn (BatchNormalization) (None, 16, 48, 48)   64          initial_conv2D[0][0]             
__________________________________________________________________________________________________
activation_1 (Activation)       (None, 16, 48, 48)   0           initial_bn[0][0]                 
__________________________________________________________________________________________________
max_pooling2d_1 (MaxPooling2D)  (None, 16, 24, 24)   0           activation_1[0][0]               
__________________________________________________________________________________________________
dense_0_0_bn (BatchNormalizatio (None, 16, 24, 24)   64          max_pooling2d_1[0][0]            
__________________________________________________________________________________________________
activation_2 (Activation)       (None, 16, 24, 24)   0           dense_0_0_bn[0][0]               
__________________________________________________________________________________________________
dense_0_0_conv2D (Conv2D)       (None, 12, 24, 24)   1728        activation_2[0][0]               
__________________________________________________________________________________________________
dropout_1 (Dropout)             (None, 12, 24, 24)   0           dense_0_0_conv2D[0][0]           
__________________________________________________________________________________________________
concatenate_1 (Concatenate)     (None, 28, 24, 24)   0           max_pooling2d_1[0][0]            
                                                                 dropout_1[0][0]                  
__________________________________________________________________________________________________
dense_0_1_bn (BatchNormalizatio (None, 28, 24, 24)   112         concatenate_1[0][0]              
__________________________________________________________________________________________________
activation_3 (Activation)       (None, 28, 24, 24)   0           dense_0_1_bn[0][0]               
__________________________________________________________________________________________________
dense_0_1_conv2D (Conv2D)       (None, 12, 24, 24)   3024        activation_3[0][0]               
__________________________________________________________________________________________________
dropout_2 (Dropout)             (None, 12, 24, 24)   0           dense_0_1_conv2D[0][0]           
__________________________________________________________________________________________________
concatenate_2 (Concatenate)     (None, 40, 24, 24)   0           concatenate_1[0][0]              
                                                                 dropout_2[0][0]                  
__________________________________________________________________________________________________
dense_0_2_bn (BatchNormalizatio (None, 40, 24, 24)   160         concatenate_2[0][0]              
__________________________________________________________________________________________________
activation_4 (Activation)       (None, 40, 24, 24)   0           dense_0_2_bn[0][0]               
__________________________________________________________________________________________________
dense_0_2_conv2D (Conv2D)       (None, 12, 24, 24)   4320        activation_4[0][0]               
__________________________________________________________________________________________________
dropout_3 (Dropout)             (None, 12, 24, 24)   0           dense_0_2_conv2D[0][0]           
__________________________________________________________________________________________________
concatenate_3 (Concatenate)     (None, 52, 24, 24)   0           concatenate_2[0][0]              
                                                                 dropout_3[0][0]                  
__________________________________________________________________________________________________
dense_0_3_bn (BatchNormalizatio (None, 52, 24, 24)   208         concatenate_3[0][0]              
__________________________________________________________________________________________________
activation_5 (Activation)       (None, 52, 24, 24)   0           dense_0_3_bn[0][0]               
__________________________________________________________________________________________________
dense_0_3_conv2D (Conv2D)       (None, 12, 24, 24)   5616        activation_5[0][0]               
__________________________________________________________________________________________________
dropout_4 (Dropout)             (None, 12, 24, 24)   0           dense_0_3_conv2D[0][0]           
__________________________________________________________________________________________________
concatenate_4 (Concatenate)     (None, 64, 24, 24)   0           concatenate_3[0][0]              
                                                                 dropout_4[0][0]                  
__________________________________________________________________________________________________
tr_0_bn (BatchNormalization)    (None, 64, 24, 24)   256         concatenate_4[0][0]              
__________________________________________________________________________________________________
activation_6 (Activation)       (None, 64, 24, 24)   0           tr_0_bn[0][0]                    
__________________________________________________________________________________________________
tr_0_conv2D (Conv2D)            (None, 32, 24, 24)   2048        activation_6[0][0]               
__________________________________________________________________________________________________
average_pooling2d_1 (AveragePoo (None, 32, 12, 12)   0           tr_0_conv2D[0][0]                
__________________________________________________________________________________________________
dense_1_0_bn (BatchNormalizatio (None, 32, 12, 12)   128         average_pooling2d_1[0][0]        
__________________________________________________________________________________________________
activation_7 (Activation)       (None, 32, 12, 12)   0           dense_1_0_bn[0][0]               
__________________________________________________________________________________________________
dense_1_0_conv2D (Conv2D)       (None, 12, 12, 12)   3456        activation_7[0][0]               
__________________________________________________________________________________________________
dropout_5 (Dropout)             (None, 12, 12, 12)   0           dense_1_0_conv2D[0][0]           
__________________________________________________________________________________________________
concatenate_5 (Concatenate)     (None, 44, 12, 12)   0           average_pooling2d_1[0][0]        
                                                                 dropout_5[0][0]                  
__________________________________________________________________________________________________
dense_1_1_bn (BatchNormalizatio (None, 44, 12, 12)   176         concatenate_5[0][0]              
__________________________________________________________________________________________________
activation_8 (Activation)       (None, 44, 12, 12)   0           dense_1_1_bn[0][0]               
__________________________________________________________________________________________________
dense_1_1_conv2D (Conv2D)       (None, 12, 12, 12)   4752        activation_8[0][0]               
__________________________________________________________________________________________________
dropout_6 (Dropout)             (None, 12, 12, 12)   0           dense_1_1_conv2D[0][0]           
__________________________________________________________________________________________________
concatenate_6 (Concatenate)     (None, 56, 12, 12)   0           concatenate_5[0][0]              
                                                                 dropout_6[0][0]                  
__________________________________________________________________________________________________
dense_1_2_bn (BatchNormalizatio (None, 56, 12, 12)   224         concatenate_6[0][0]              
__________________________________________________________________________________________________
activation_9 (Activation)       (None, 56, 12, 12)   0           dense_1_2_bn[0][0]               
__________________________________________________________________________________________________
dense_1_2_conv2D (Conv2D)       (None, 12, 12, 12)   6048        activation_9[0][0]               
__________________________________________________________________________________________________
dropout_7 (Dropout)             (None, 12, 12, 12)   0           dense_1_2_conv2D[0][0]           
__________________________________________________________________________________________________
concatenate_7 (Concatenate)     (None, 68, 12, 12)   0           concatenate_6[0][0]              
                                                                 dropout_7[0][0]                  
__________________________________________________________________________________________________
dense_1_3_bn (BatchNormalizatio (None, 68, 12, 12)   272         concatenate_7[0][0]              
__________________________________________________________________________________________________
activation_10 (Activation)      (None, 68, 12, 12)   0           dense_1_3_bn[0][0]               
__________________________________________________________________________________________________
dense_1_3_conv2D (Conv2D)       (None, 12, 12, 12)   7344        activation_10[0][0]              
__________________________________________________________________________________________________
dropout_8 (Dropout)             (None, 12, 12, 12)   0           dense_1_3_conv2D[0][0]           
__________________________________________________________________________________________________
concatenate_8 (Concatenate)     (None, 80, 12, 12)   0           concatenate_7[0][0]              
                                                                 dropout_8[0][0]                  
__________________________________________________________________________________________________
tr_1_bn (BatchNormalization)    (None, 80, 12, 12)   320         concatenate_8[0][0]              
__________________________________________________________________________________________________
activation_11 (Activation)      (None, 80, 12, 12)   0           tr_1_bn[0][0]                    
__________________________________________________________________________________________________
tr_1_conv2D (Conv2D)            (None, 40, 12, 12)   3200        activation_11[0][0]              
__________________________________________________________________________________________________
average_pooling2d_2 (AveragePoo (None, 40, 6, 6)     0           tr_1_conv2D[0][0]                
__________________________________________________________________________________________________
dense_2_0_bn (BatchNormalizatio (None, 40, 6, 6)     160         average_pooling2d_2[0][0]        
__________________________________________________________________________________________________
activation_12 (Activation)      (None, 40, 6, 6)     0           dense_2_0_bn[0][0]               
__________________________________________________________________________________________________
dense_2_0_conv2D (Conv2D)       (None, 12, 6, 6)     4320        activation_12[0][0]              
__________________________________________________________________________________________________
dropout_9 (Dropout)             (None, 12, 6, 6)     0           dense_2_0_conv2D[0][0]           
__________________________________________________________________________________________________
concatenate_9 (Concatenate)     (None, 52, 6, 6)     0           average_pooling2d_2[0][0]        
                                                                 dropout_9[0][0]                  
__________________________________________________________________________________________________
dense_2_1_bn (BatchNormalizatio (None, 52, 6, 6)     208         concatenate_9[0][0]              
__________________________________________________________________________________________________
activation_13 (Activation)      (None, 52, 6, 6)     0           dense_2_1_bn[0][0]               
__________________________________________________________________________________________________
dense_2_1_conv2D (Conv2D)       (None, 12, 6, 6)     5616        activation_13[0][0]              
__________________________________________________________________________________________________
dropout_10 (Dropout)            (None, 12, 6, 6)     0           dense_2_1_conv2D[0][0]           
__________________________________________________________________________________________________
concatenate_10 (Concatenate)    (None, 64, 6, 6)     0           concatenate_9[0][0]              
                                                                 dropout_10[0][0]                 
__________________________________________________________________________________________________
dense_2_2_bn (BatchNormalizatio (None, 64, 6, 6)     256         concatenate_10[0][0]             
__________________________________________________________________________________________________
activation_14 (Activation)      (None, 64, 6, 6)     0           dense_2_2_bn[0][0]               
__________________________________________________________________________________________________
dense_2_2_conv2D (Conv2D)       (None, 12, 6, 6)     6912        activation_14[0][0]              
__________________________________________________________________________________________________
dropout_11 (Dropout)            (None, 12, 6, 6)     0           dense_2_2_conv2D[0][0]           
__________________________________________________________________________________________________
concatenate_11 (Concatenate)    (None, 76, 6, 6)     0           concatenate_10[0][0]             
                                                                 dropout_11[0][0]                 
__________________________________________________________________________________________________
dense_2_3_bn (BatchNormalizatio (None, 76, 6, 6)     304         concatenate_11[0][0]             
__________________________________________________________________________________________________
activation_15 (Activation)      (None, 76, 6, 6)     0           dense_2_3_bn[0][0]               
__________________________________________________________________________________________________
dense_2_3_conv2D (Conv2D)       (None, 12, 6, 6)     8208        activation_15[0][0]              
__________________________________________________________________________________________________
dropout_12 (Dropout)            (None, 12, 6, 6)     0           dense_2_3_conv2D[0][0]           
__________________________________________________________________________________________________
concatenate_12 (Concatenate)    (None, 88, 6, 6)     0           concatenate_11[0][0]             
                                                                 dropout_12[0][0]                 
__________________________________________________________________________________________________
tr_2_bn (BatchNormalization)    (None, 88, 6, 6)     352         concatenate_12[0][0]             
__________________________________________________________________________________________________
activation_16 (Activation)      (None, 88, 6, 6)     0           tr_2_bn[0][0]                    
__________________________________________________________________________________________________
tr_2_conv2D (Conv2D)            (None, 44, 6, 6)     3872        activation_16[0][0]              
__________________________________________________________________________________________________
average_pooling2d_3 (AveragePoo (None, 44, 3, 3)     0           tr_2_conv2D[0][0]                
__________________________________________________________________________________________________
dense_3_0_bn (BatchNormalizatio (None, 44, 3, 3)     176         average_pooling2d_3[0][0]        
__________________________________________________________________________________________________
activation_17 (Activation)      (None, 44, 3, 3)     0           dense_3_0_bn[0][0]               
__________________________________________________________________________________________________
dense_3_0_conv2D (Conv2D)       (None, 12, 3, 3)     4752        activation_17[0][0]              
__________________________________________________________________________________________________
dropout_13 (Dropout)            (None, 12, 3, 3)     0           dense_3_0_conv2D[0][0]           
__________________________________________________________________________________________________
concatenate_13 (Concatenate)    (None, 56, 3, 3)     0           average_pooling2d_3[0][0]        
                                                                 dropout_13[0][0]                 
__________________________________________________________________________________________________
dense_3_1_bn (BatchNormalizatio (None, 56, 3, 3)     224         concatenate_13[0][0]             
__________________________________________________________________________________________________
activation_18 (Activation)      (None, 56, 3, 3)     0           dense_3_1_bn[0][0]               
__________________________________________________________________________________________________
dense_3_1_conv2D (Conv2D)       (None, 12, 3, 3)     6048        activation_18[0][0]              
__________________________________________________________________________________________________
dropout_14 (Dropout)            (None, 12, 3, 3)     0           dense_3_1_conv2D[0][0]           
__________________________________________________________________________________________________
concatenate_14 (Concatenate)    (None, 68, 3, 3)     0           concatenate_13[0][0]             
                                                                 dropout_14[0][0]                 
__________________________________________________________________________________________________
dense_3_2_bn (BatchNormalizatio (None, 68, 3, 3)     272         concatenate_14[0][0]             
__________________________________________________________________________________________________
activation_19 (Activation)      (None, 68, 3, 3)     0           dense_3_2_bn[0][0]               
__________________________________________________________________________________________________
dense_3_2_conv2D (Conv2D)       (None, 12, 3, 3)     7344        activation_19[0][0]              
__________________________________________________________________________________________________
dropout_15 (Dropout)            (None, 12, 3, 3)     0           dense_3_2_conv2D[0][0]           
__________________________________________________________________________________________________
concatenate_15 (Concatenate)    (None, 80, 3, 3)     0           concatenate_14[0][0]             
                                                                 dropout_15[0][0]                 
__________________________________________________________________________________________________
dense_3_3_bn (BatchNormalizatio (None, 80, 3, 3)     320         concatenate_15[0][0]             
__________________________________________________________________________________________________
activation_20 (Activation)      (None, 80, 3, 3)     0           dense_3_3_bn[0][0]               
__________________________________________________________________________________________________
dense_3_3_conv2D (Conv2D)       (None, 12, 3, 3)     8640        activation_20[0][0]              
__________________________________________________________________________________________________
dropout_16 (Dropout)            (None, 12, 3, 3)     0           dense_3_3_conv2D[0][0]           
__________________________________________________________________________________________________
concatenate_16 (Concatenate)    (None, 92, 3, 3)     0           concatenate_15[0][0]             
                                                                 dropout_16[0][0]                 
__________________________________________________________________________________________________
final_bn (BatchNormalization)   (None, 92, 3, 3)     368         concatenate_16[0][0]             
__________________________________________________________________________________________________
activation_21 (Activation)      (None, 92, 3, 3)     0           final_bn[0][0]                   
__________________________________________________________________________________________________
global_average_pooling2d_1 (Glo (None, 92)           0           activation_21[0][0]              
__________________________________________________________________________________________________
dense_1 (Dense)                 (None, 1)            93          global_average_pooling2d_1[0][0] 
==================================================================================================
Total params: 103,533
Trainable params: 101,221
Non-trainable params: 2,312
__________________________________________________________________________________________________
Finished compiling
Train on 39840 samples, validate on 7968 samples
Epoch 1/25
 - 35s - loss: 0.4933 - acc: 0.7631 - val_loss: 0.4332 - val_acc: 0.8038
…
Layers:  [4, 4, 4, 4]  Growth_rate:  18  nb_filter:  16  dropout:  0.2
dense_block:  4  reduction:  0.5  bottleneck:  False
Epochs:  20  batch_size:  64  lr:  0.07  optimizer:  adadelta
 es_patience:  4  lr_patience:  3  pooling:  avg
------------------------	  end of configs        -------------------------
pooling:avg
__________________________________________________________________________________________________
Layer (type)                    Output Shape         Param #     Connected to                     
==================================================================================================
input_1 (InputLayer)            (None, 2, 96, 96)    0                                            
__________________________________________________________________________________________________
initial_conv2D (Conv2D)         (None, 16, 48, 48)   1568        input_1[0][0]                    
__________________________________________________________________________________________________
initial_bn (BatchNormalization) (None, 16, 48, 48)   64          initial_conv2D[0][0]             
__________________________________________________________________________________________________
activation_1 (Activation)       (None, 16, 48, 48)   0           initial_bn[0][0]                 
__________________________________________________________________________________________________
max_pooling2d_1 (MaxPooling2D)  (None, 16, 24, 24)   0           activation_1[0][0]               
__________________________________________________________________________________________________
dense_0_0_bn (BatchNormalizatio (None, 16, 24, 24)   64          max_pooling2d_1[0][0]            
__________________________________________________________________________________________________
activation_2 (Activation)       (None, 16, 24, 24)   0           dense_0_0_bn[0][0]               
__________________________________________________________________________________________________
dense_0_0_conv2D (Conv2D)       (None, 18, 24, 24)   2592        activation_2[0][0]               
__________________________________________________________________________________________________
dropout_1 (Dropout)             (None, 18, 24, 24)   0           dense_0_0_conv2D[0][0]           
__________________________________________________________________________________________________
concatenate_1 (Concatenate)     (None, 34, 24, 24)   0           max_pooling2d_1[0][0]            
                                                                 dropout_1[0][0]                  
__________________________________________________________________________________________________
dense_0_1_bn (BatchNormalizatio (None, 34, 24, 24)   136         concatenate_1[0][0]              
__________________________________________________________________________________________________
activation_3 (Activation)       (None, 34, 24, 24)   0           dense_0_1_bn[0][0]               
__________________________________________________________________________________________________
dense_0_1_conv2D (Conv2D)       (None, 18, 24, 24)   5508        activation_3[0][0]               
__________________________________________________________________________________________________
dropout_2 (Dropout)             (None, 18, 24, 24)   0           dense_0_1_conv2D[0][0]           
__________________________________________________________________________________________________
concatenate_2 (Concatenate)     (None, 52, 24, 24)   0           concatenate_1[0][0]              
                                                                 dropout_2[0][0]                  
__________________________________________________________________________________________________
dense_0_2_bn (BatchNormalizatio (None, 52, 24, 24)   208         concatenate_2[0][0]              
__________________________________________________________________________________________________
activation_4 (Activation)       (None, 52, 24, 24)   0           dense_0_2_bn[0][0]               
__________________________________________________________________________________________________
dense_0_2_conv2D (Conv2D)       (None, 18, 24, 24)   8424        activation_4[0][0]               
__________________________________________________________________________________________________
dropout_3 (Dropout)             (None, 18, 24, 24)   0           dense_0_2_conv2D[0][0]           
__________________________________________________________________________________________________
concatenate_3 (Concatenate)     (None, 70, 24, 24)   0           concatenate_2[0][0]              
                                                                 dropout_3[0][0]                  
__________________________________________________________________________________________________
dense_0_3_bn (BatchNormalizatio (None, 70, 24, 24)   280         concatenate_3[0][0]              
__________________________________________________________________________________________________
activation_5 (Activation)       (None, 70, 24, 24)   0           dense_0_3_bn[0][0]               
__________________________________________________________________________________________________
dense_0_3_conv2D (Conv2D)       (None, 18, 24, 24)   11340       activation_5[0][0]               
__________________________________________________________________________________________________
dropout_4 (Dropout)             (None, 18, 24, 24)   0           dense_0_3_conv2D[0][0]           
__________________________________________________________________________________________________
concatenate_4 (Concatenate)     (None, 88, 24, 24)   0           concatenate_3[0][0]              
                                                                 dropout_4[0][0]                  
__________________________________________________________________________________________________
tr_0_bn (BatchNormalization)    (None, 88, 24, 24)   352         concatenate_4[0][0]              
__________________________________________________________________________________________________
activation_6 (Activation)       (None, 88, 24, 24)   0           tr_0_bn[0][0]                    
__________________________________________________________________________________________________
tr_0_conv2D (Conv2D)            (None, 44, 24, 24)   3872        activation_6[0][0]               
__________________________________________________________________________________________________
average_pooling2d_1 (AveragePoo (None, 44, 12, 12)   0           tr_0_conv2D[0][0]                
__________________________________________________________________________________________________
dense_1_0_bn (BatchNormalizatio (None, 44, 12, 12)   176         average_pooling2d_1[0][0]        
__________________________________________________________________________________________________
activation_7 (Activation)       (None, 44, 12, 12)   0           dense_1_0_bn[0][0]               
__________________________________________________________________________________________________
dense_1_0_conv2D (Conv2D)       (None, 18, 12, 12)   7128        activation_7[0][0]               
__________________________________________________________________________________________________
dropout_5 (Dropout)             (None, 18, 12, 12)   0           dense_1_0_conv2D[0][0]           
__________________________________________________________________________________________________
concatenate_5 (Concatenate)     (None, 62, 12, 12)   0           average_pooling2d_1[0][0]        
                                                                 dropout_5[0][0]                  
__________________________________________________________________________________________________
dense_1_1_bn (BatchNormalizatio (None, 62, 12, 12)   248         concatenate_5[0][0]              
__________________________________________________________________________________________________
activation_8 (Activation)       (None, 62, 12, 12)   0           dense_1_1_bn[0][0]               
__________________________________________________________________________________________________
dense_1_1_conv2D (Conv2D)       (None, 18, 12, 12)   10044       activation_8[0][0]               
__________________________________________________________________________________________________
dropout_6 (Dropout)             (None, 18, 12, 12)   0           dense_1_1_conv2D[0][0]           
__________________________________________________________________________________________________
concatenate_6 (Concatenate)     (None, 80, 12, 12)   0           concatenate_5[0][0]              
                                                                 dropout_6[0][0]                  
__________________________________________________________________________________________________
dense_1_2_bn (BatchNormalizatio (None, 80, 12, 12)   320         concatenate_6[0][0]              
__________________________________________________________________________________________________
activation_9 (Activation)       (None, 80, 12, 12)   0           dense_1_2_bn[0][0]               
__________________________________________________________________________________________________
dense_1_2_conv2D (Conv2D)       (None, 18, 12, 12)   12960       activation_9[0][0]               
__________________________________________________________________________________________________
dropout_7 (Dropout)             (None, 18, 12, 12)   0           dense_1_2_conv2D[0][0]           
__________________________________________________________________________________________________
concatenate_7 (Concatenate)     (None, 98, 12, 12)   0           concatenate_6[0][0]              
                                                                 dropout_7[0][0]                  
__________________________________________________________________________________________________
dense_1_3_bn (BatchNormalizatio (None, 98, 12, 12)   392         concatenate_7[0][0]              
__________________________________________________________________________________________________
activation_10 (Activation)      (None, 98, 12, 12)   0           dense_1_3_bn[0][0]               
__________________________________________________________________________________________________
dense_1_3_conv2D (Conv2D)       (None, 18, 12, 12)   15876       activation_10[0][0]              
__________________________________________________________________________________________________
dropout_8 (Dropout)             (None, 18, 12, 12)   0           dense_1_3_conv2D[0][0]           
__________________________________________________________________________________________________
concatenate_8 (Concatenate)     (None, 116, 12, 12)  0           concatenate_7[0][0]              
                                                                 dropout_8[0][0]                  
__________________________________________________________________________________________________
tr_1_bn (BatchNormalization)    (None, 116, 12, 12)  464         concatenate_8[0][0]              
__________________________________________________________________________________________________
activation_11 (Activation)      (None, 116, 12, 12)  0           tr_1_bn[0][0]                    
__________________________________________________________________________________________________
tr_1_conv2D (Conv2D)            (None, 58, 12, 12)   6728        activation_11[0][0]              
__________________________________________________________________________________________________
average_pooling2d_2 (AveragePoo (None, 58, 6, 6)     0           tr_1_conv2D[0][0]                
__________________________________________________________________________________________________
dense_2_0_bn (BatchNormalizatio (None, 58, 6, 6)     232         average_pooling2d_2[0][0]        
__________________________________________________________________________________________________
activation_12 (Activation)      (None, 58, 6, 6)     0           dense_2_0_bn[0][0]               
__________________________________________________________________________________________________
dense_2_0_conv2D (Conv2D)       (None, 18, 6, 6)     9396        activation_12[0][0]              
__________________________________________________________________________________________________
dropout_9 (Dropout)             (None, 18, 6, 6)     0           dense_2_0_conv2D[0][0]           
__________________________________________________________________________________________________
concatenate_9 (Concatenate)     (None, 76, 6, 6)     0           average_pooling2d_2[0][0]        
                                                                 dropout_9[0][0]                  
__________________________________________________________________________________________________
dense_2_1_bn (BatchNormalizatio (None, 76, 6, 6)     304         concatenate_9[0][0]              
__________________________________________________________________________________________________
activation_13 (Activation)      (None, 76, 6, 6)     0           dense_2_1_bn[0][0]               
__________________________________________________________________________________________________
dense_2_1_conv2D (Conv2D)       (None, 18, 6, 6)     12312       activation_13[0][0]              
__________________________________________________________________________________________________
dropout_10 (Dropout)            (None, 18, 6, 6)     0           dense_2_1_conv2D[0][0]           
__________________________________________________________________________________________________
concatenate_10 (Concatenate)    (None, 94, 6, 6)     0           concatenate_9[0][0]              
                                                                 dropout_10[0][0]                 
__________________________________________________________________________________________________
dense_2_2_bn (BatchNormalizatio (None, 94, 6, 6)     376         concatenate_10[0][0]             
__________________________________________________________________________________________________
activation_14 (Activation)      (None, 94, 6, 6)     0           dense_2_2_bn[0][0]               
__________________________________________________________________________________________________
dense_2_2_conv2D (Conv2D)       (None, 18, 6, 6)     15228       activation_14[0][0]              
__________________________________________________________________________________________________
dropout_11 (Dropout)            (None, 18, 6, 6)     0           dense_2_2_conv2D[0][0]           
__________________________________________________________________________________________________
concatenate_11 (Concatenate)    (None, 112, 6, 6)    0           concatenate_10[0][0]             
                                                                 dropout_11[0][0]                 
__________________________________________________________________________________________________
dense_2_3_bn (BatchNormalizatio (None, 112, 6, 6)    448         concatenate_11[0][0]             
__________________________________________________________________________________________________
activation_15 (Activation)      (None, 112, 6, 6)    0           dense_2_3_bn[0][0]               
__________________________________________________________________________________________________
dense_2_3_conv2D (Conv2D)       (None, 18, 6, 6)     18144       activation_15[0][0]              
__________________________________________________________________________________________________
dropout_12 (Dropout)            (None, 18, 6, 6)     0           dense_2_3_conv2D[0][0]           
__________________________________________________________________________________________________
concatenate_12 (Concatenate)    (None, 130, 6, 6)    0           concatenate_11[0][0]             
                                                                 dropout_12[0][0]                 
__________________________________________________________________________________________________
tr_2_bn (BatchNormalization)    (None, 130, 6, 6)    520         concatenate_12[0][0]             
__________________________________________________________________________________________________
activation_16 (Activation)      (None, 130, 6, 6)    0           tr_2_bn[0][0]                    
__________________________________________________________________________________________________
tr_2_conv2D (Conv2D)            (None, 65, 6, 6)     8450        activation_16[0][0]              
__________________________________________________________________________________________________
average_pooling2d_3 (AveragePoo (None, 65, 3, 3)     0           tr_2_conv2D[0][0]                
__________________________________________________________________________________________________
dense_3_0_bn (BatchNormalizatio (None, 65, 3, 3)     260         average_pooling2d_3[0][0]        
__________________________________________________________________________________________________
activation_17 (Activation)      (None, 65, 3, 3)     0           dense_3_0_bn[0][0]               
__________________________________________________________________________________________________
dense_3_0_conv2D (Conv2D)       (None, 18, 3, 3)     10530       activation_17[0][0]              
__________________________________________________________________________________________________
dropout_13 (Dropout)            (None, 18, 3, 3)     0           dense_3_0_conv2D[0][0]           
__________________________________________________________________________________________________
concatenate_13 (Concatenate)    (None, 83, 3, 3)     0           average_pooling2d_3[0][0]        
                                                                 dropout_13[0][0]                 
__________________________________________________________________________________________________
dense_3_1_bn (BatchNormalizatio (None, 83, 3, 3)     332         concatenate_13[0][0]             
__________________________________________________________________________________________________
activation_18 (Activation)      (None, 83, 3, 3)     0           dense_3_1_bn[0][0]               
__________________________________________________________________________________________________
dense_3_1_conv2D (Conv2D)       (None, 18, 3, 3)     13446       activation_18[0][0]              
__________________________________________________________________________________________________
dropout_14 (Dropout)            (None, 18, 3, 3)     0           dense_3_1_conv2D[0][0]           
__________________________________________________________________________________________________
concatenate_14 (Concatenate)    (None, 101, 3, 3)    0           concatenate_13[0][0]             
                                                                 dropout_14[0][0]                 
__________________________________________________________________________________________________
dense_3_2_bn (BatchNormalizatio (None, 101, 3, 3)    404         concatenate_14[0][0]             
__________________________________________________________________________________________________
activation_19 (Activation)      (None, 101, 3, 3)    0           dense_3_2_bn[0][0]               
__________________________________________________________________________________________________
dense_3_2_conv2D (Conv2D)       (None, 18, 3, 3)     16362       activation_19[0][0]              
__________________________________________________________________________________________________
dropout_15 (Dropout)            (None, 18, 3, 3)     0           dense_3_2_conv2D[0][0]           
__________________________________________________________________________________________________
concatenate_15 (Concatenate)    (None, 119, 3, 3)    0           concatenate_14[0][0]             
                                                                 dropout_15[0][0]                 
__________________________________________________________________________________________________
dense_3_3_bn (BatchNormalizatio (None, 119, 3, 3)    476         concatenate_15[0][0]             
__________________________________________________________________________________________________
activation_20 (Activation)      (None, 119, 3, 3)    0           dense_3_3_bn[0][0]               
__________________________________________________________________________________________________
dense_3_3_conv2D (Conv2D)       (None, 18, 3, 3)     19278       activation_20[0][0]              
__________________________________________________________________________________________________
dropout_16 (Dropout)            (None, 18, 3, 3)     0           dense_3_3_conv2D[0][0]           
__________________________________________________________________________________________________
concatenate_16 (Concatenate)    (None, 137, 3, 3)    0           concatenate_15[0][0]             
                                                                 dropout_16[0][0]                 
__________________________________________________________________________________________________
final_bn (BatchNormalization)   (None, 137, 3, 3)    548         concatenate_16[0][0]             
__________________________________________________________________________________________________
activation_21 (Activation)      (None, 137, 3, 3)    0           final_bn[0][0]                   
__________________________________________________________________________________________________
global_average_pooling2d_1 (Glo (None, 137)          0           activation_21[0][0]              
__________________________________________________________________________________________________
dense_1 (Dense)                 (None, 1)            138         global_average_pooling2d_1[0][0] 
==================================================================================================
Total params: 215,928
Trainable params: 212,626
Non-trainable params: 3,302
__________________________________________________________________________________________________
Finished compiling
Train on 39840 samples, validate on 7968 samples
Epoch 1/20
 - 37s - loss: 0.4725 - acc: 0.7870 - val_loss: 0.5427 - val_acc: 0.7676
…
Layers:  [4, 4, 4, 4]  Growth_rate:  24  nb_filter:  16  dropout:  0.2
dense_block:  4  reduction:  0.5  bottleneck:  False
Epochs:  18  batch_size:  64  lr:  0.07  optimizer:  adadelta
 es_patience:  4  lr_patience:  3  pooling:  avg
------------------------	  end of configs        -------------------------
pooling:avg
__________________________________________________________________________________________________
Layer (type)                    Output Shape         Param #     Connected to                     
==================================================================================================
input_1 (InputLayer)            (None, 2, 96, 96)    0                                            
__________________________________________________________________________________________________
initial_conv2D (Conv2D)         (None, 16, 48, 48)   1568        input_1[0][0]                    
__________________________________________________________________________________________________
initial_bn (BatchNormalization) (None, 16, 48, 48)   64          initial_conv2D[0][0]             
__________________________________________________________________________________________________
activation_1 (Activation)       (None, 16, 48, 48)   0           initial_bn[0][0]                 
__________________________________________________________________________________________________
max_pooling2d_1 (MaxPooling2D)  (None, 16, 24, 24)   0           activation_1[0][0]               
__________________________________________________________________________________________________
dense_0_0_bn (BatchNormalizatio (None, 16, 24, 24)   64          max_pooling2d_1[0][0]            
__________________________________________________________________________________________________
activation_2 (Activation)       (None, 16, 24, 24)   0           dense_0_0_bn[0][0]               
__________________________________________________________________________________________________
dense_0_0_conv2D (Conv2D)       (None, 24, 24, 24)   3456        activation_2[0][0]               
__________________________________________________________________________________________________
dropout_1 (Dropout)             (None, 24, 24, 24)   0           dense_0_0_conv2D[0][0]           
__________________________________________________________________________________________________
concatenate_1 (Concatenate)     (None, 40, 24, 24)   0           max_pooling2d_1[0][0]            
                                                                 dropout_1[0][0]                  
__________________________________________________________________________________________________
dense_0_1_bn (BatchNormalizatio (None, 40, 24, 24)   160         concatenate_1[0][0]              
__________________________________________________________________________________________________
activation_3 (Activation)       (None, 40, 24, 24)   0           dense_0_1_bn[0][0]               
__________________________________________________________________________________________________
dense_0_1_conv2D (Conv2D)       (None, 24, 24, 24)   8640        activation_3[0][0]               
__________________________________________________________________________________________________
dropout_2 (Dropout)             (None, 24, 24, 24)   0           dense_0_1_conv2D[0][0]           
__________________________________________________________________________________________________
concatenate_2 (Concatenate)     (None, 64, 24, 24)   0           concatenate_1[0][0]              
                                                                 dropout_2[0][0]                  
__________________________________________________________________________________________________
dense_0_2_bn (BatchNormalizatio (None, 64, 24, 24)   256         concatenate_2[0][0]              
__________________________________________________________________________________________________
activation_4 (Activation)       (None, 64, 24, 24)   0           dense_0_2_bn[0][0]               
__________________________________________________________________________________________________
dense_0_2_conv2D (Conv2D)       (None, 24, 24, 24)   13824       activation_4[0][0]               
__________________________________________________________________________________________________
dropout_3 (Dropout)             (None, 24, 24, 24)   0           dense_0_2_conv2D[0][0]           
__________________________________________________________________________________________________
concatenate_3 (Concatenate)     (None, 88, 24, 24)   0           concatenate_2[0][0]              
                                                                 dropout_3[0][0]                  
__________________________________________________________________________________________________
dense_0_3_bn (BatchNormalizatio (None, 88, 24, 24)   352         concatenate_3[0][0]              
__________________________________________________________________________________________________
activation_5 (Activation)       (None, 88, 24, 24)   0           dense_0_3_bn[0][0]               
__________________________________________________________________________________________________
dense_0_3_conv2D (Conv2D)       (None, 24, 24, 24)   19008       activation_5[0][0]               
__________________________________________________________________________________________________
dropout_4 (Dropout)             (None, 24, 24, 24)   0           dense_0_3_conv2D[0][0]           
__________________________________________________________________________________________________
concatenate_4 (Concatenate)     (None, 112, 24, 24)  0           concatenate_3[0][0]              
                                                                 dropout_4[0][0]                  
__________________________________________________________________________________________________
tr_0_bn (BatchNormalization)    (None, 112, 24, 24)  448         concatenate_4[0][0]              
__________________________________________________________________________________________________
activation_6 (Activation)       (None, 112, 24, 24)  0           tr_0_bn[0][0]                    
__________________________________________________________________________________________________
tr_0_conv2D (Conv2D)            (None, 56, 24, 24)   6272        activation_6[0][0]               
__________________________________________________________________________________________________
average_pooling2d_1 (AveragePoo (None, 56, 12, 12)   0           tr_0_conv2D[0][0]                
__________________________________________________________________________________________________
dense_1_0_bn (BatchNormalizatio (None, 56, 12, 12)   224         average_pooling2d_1[0][0]        
__________________________________________________________________________________________________
activation_7 (Activation)       (None, 56, 12, 12)   0           dense_1_0_bn[0][0]               
__________________________________________________________________________________________________
dense_1_0_conv2D (Conv2D)       (None, 24, 12, 12)   12096       activation_7[0][0]               
__________________________________________________________________________________________________
dropout_5 (Dropout)             (None, 24, 12, 12)   0           dense_1_0_conv2D[0][0]           
__________________________________________________________________________________________________
concatenate_5 (Concatenate)     (None, 80, 12, 12)   0           average_pooling2d_1[0][0]        
                                                                 dropout_5[0][0]                  
__________________________________________________________________________________________________
dense_1_1_bn (BatchNormalizatio (None, 80, 12, 12)   320         concatenate_5[0][0]              
__________________________________________________________________________________________________
activation_8 (Activation)       (None, 80, 12, 12)   0           dense_1_1_bn[0][0]               
__________________________________________________________________________________________________
dense_1_1_conv2D (Conv2D)       (None, 24, 12, 12)   17280       activation_8[0][0]               
__________________________________________________________________________________________________
dropout_6 (Dropout)             (None, 24, 12, 12)   0           dense_1_1_conv2D[0][0]           
__________________________________________________________________________________________________
concatenate_6 (Concatenate)     (None, 104, 12, 12)  0           concatenate_5[0][0]              
                                                                 dropout_6[0][0]                  
__________________________________________________________________________________________________
dense_1_2_bn (BatchNormalizatio (None, 104, 12, 12)  416         concatenate_6[0][0]              
__________________________________________________________________________________________________
activation_9 (Activation)       (None, 104, 12, 12)  0           dense_1_2_bn[0][0]               
__________________________________________________________________________________________________
dense_1_2_conv2D (Conv2D)       (None, 24, 12, 12)   22464       activation_9[0][0]               
__________________________________________________________________________________________________
dropout_7 (Dropout)             (None, 24, 12, 12)   0           dense_1_2_conv2D[0][0]           
__________________________________________________________________________________________________
concatenate_7 (Concatenate)     (None, 128, 12, 12)  0           concatenate_6[0][0]              
                                                                 dropout_7[0][0]                  
__________________________________________________________________________________________________
dense_1_3_bn (BatchNormalizatio (None, 128, 12, 12)  512         concatenate_7[0][0]              
__________________________________________________________________________________________________
activation_10 (Activation)      (None, 128, 12, 12)  0           dense_1_3_bn[0][0]               
__________________________________________________________________________________________________
dense_1_3_conv2D (Conv2D)       (None, 24, 12, 12)   27648       activation_10[0][0]              
__________________________________________________________________________________________________
dropout_8 (Dropout)             (None, 24, 12, 12)   0           dense_1_3_conv2D[0][0]           
__________________________________________________________________________________________________
concatenate_8 (Concatenate)     (None, 152, 12, 12)  0           concatenate_7[0][0]              
                                                                 dropout_8[0][0]                  
__________________________________________________________________________________________________
tr_1_bn (BatchNormalization)    (None, 152, 12, 12)  608         concatenate_8[0][0]              
__________________________________________________________________________________________________
activation_11 (Activation)      (None, 152, 12, 12)  0           tr_1_bn[0][0]                    
__________________________________________________________________________________________________
tr_1_conv2D (Conv2D)            (None, 76, 12, 12)   11552       activation_11[0][0]              
__________________________________________________________________________________________________
average_pooling2d_2 (AveragePoo (None, 76, 6, 6)     0           tr_1_conv2D[0][0]                
__________________________________________________________________________________________________
dense_2_0_bn (BatchNormalizatio (None, 76, 6, 6)     304         average_pooling2d_2[0][0]        
__________________________________________________________________________________________________
activation_12 (Activation)      (None, 76, 6, 6)     0           dense_2_0_bn[0][0]               
__________________________________________________________________________________________________
dense_2_0_conv2D (Conv2D)       (None, 24, 6, 6)     16416       activation_12[0][0]              
__________________________________________________________________________________________________
dropout_9 (Dropout)             (None, 24, 6, 6)     0           dense_2_0_conv2D[0][0]           
__________________________________________________________________________________________________
concatenate_9 (Concatenate)     (None, 100, 6, 6)    0           average_pooling2d_2[0][0]        
                                                                 dropout_9[0][0]                  
__________________________________________________________________________________________________
dense_2_1_bn (BatchNormalizatio (None, 100, 6, 6)    400         concatenate_9[0][0]              
__________________________________________________________________________________________________
activation_13 (Activation)      (None, 100, 6, 6)    0           dense_2_1_bn[0][0]               
__________________________________________________________________________________________________
dense_2_1_conv2D (Conv2D)       (None, 24, 6, 6)     21600       activation_13[0][0]              
__________________________________________________________________________________________________
dropout_10 (Dropout)            (None, 24, 6, 6)     0           dense_2_1_conv2D[0][0]           
__________________________________________________________________________________________________
concatenate_10 (Concatenate)    (None, 124, 6, 6)    0           concatenate_9[0][0]              
                                                                 dropout_10[0][0]                 
__________________________________________________________________________________________________
dense_2_2_bn (BatchNormalizatio (None, 124, 6, 6)    496         concatenate_10[0][0]             
__________________________________________________________________________________________________
activation_14 (Activation)      (None, 124, 6, 6)    0           dense_2_2_bn[0][0]               
__________________________________________________________________________________________________
dense_2_2_conv2D (Conv2D)       (None, 24, 6, 6)     26784       activation_14[0][0]              
__________________________________________________________________________________________________
dropout_11 (Dropout)            (None, 24, 6, 6)     0           dense_2_2_conv2D[0][0]           
__________________________________________________________________________________________________
concatenate_11 (Concatenate)    (None, 148, 6, 6)    0           concatenate_10[0][0]             
                                                                 dropout_11[0][0]                 
__________________________________________________________________________________________________
dense_2_3_bn (BatchNormalizatio (None, 148, 6, 6)    592         concatenate_11[0][0]             
__________________________________________________________________________________________________
activation_15 (Activation)      (None, 148, 6, 6)    0           dense_2_3_bn[0][0]               
__________________________________________________________________________________________________
dense_2_3_conv2D (Conv2D)       (None, 24, 6, 6)     31968       activation_15[0][0]              
__________________________________________________________________________________________________
dropout_12 (Dropout)            (None, 24, 6, 6)     0           dense_2_3_conv2D[0][0]           
__________________________________________________________________________________________________
concatenate_12 (Concatenate)    (None, 172, 6, 6)    0           concatenate_11[0][0]             
                                                                 dropout_12[0][0]                 
__________________________________________________________________________________________________
tr_2_bn (BatchNormalization)    (None, 172, 6, 6)    688         concatenate_12[0][0]             
__________________________________________________________________________________________________
activation_16 (Activation)      (None, 172, 6, 6)    0           tr_2_bn[0][0]                    
__________________________________________________________________________________________________
tr_2_conv2D (Conv2D)            (None, 86, 6, 6)     14792       activation_16[0][0]              
__________________________________________________________________________________________________
average_pooling2d_3 (AveragePoo (None, 86, 3, 3)     0           tr_2_conv2D[0][0]                
__________________________________________________________________________________________________
dense_3_0_bn (BatchNormalizatio (None, 86, 3, 3)     344         average_pooling2d_3[0][0]        
__________________________________________________________________________________________________
activation_17 (Activation)      (None, 86, 3, 3)     0           dense_3_0_bn[0][0]               
__________________________________________________________________________________________________
dense_3_0_conv2D (Conv2D)       (None, 24, 3, 3)     18576       activation_17[0][0]              
__________________________________________________________________________________________________
dropout_13 (Dropout)            (None, 24, 3, 3)     0           dense_3_0_conv2D[0][0]           
__________________________________________________________________________________________________
concatenate_13 (Concatenate)    (None, 110, 3, 3)    0           average_pooling2d_3[0][0]        
                                                                 dropout_13[0][0]                 
__________________________________________________________________________________________________
dense_3_1_bn (BatchNormalizatio (None, 110, 3, 3)    440         concatenate_13[0][0]             
__________________________________________________________________________________________________
activation_18 (Activation)      (None, 110, 3, 3)    0           dense_3_1_bn[0][0]               
__________________________________________________________________________________________________
dense_3_1_conv2D (Conv2D)       (None, 24, 3, 3)     23760       activation_18[0][0]              
__________________________________________________________________________________________________
dropout_14 (Dropout)            (None, 24, 3, 3)     0           dense_3_1_conv2D[0][0]           
__________________________________________________________________________________________________
concatenate_14 (Concatenate)    (None, 134, 3, 3)    0           concatenate_13[0][0]             
                                                                 dropout_14[0][0]                 
__________________________________________________________________________________________________
dense_3_2_bn (BatchNormalizatio (None, 134, 3, 3)    536         concatenate_14[0][0]             
__________________________________________________________________________________________________
activation_19 (Activation)      (None, 134, 3, 3)    0           dense_3_2_bn[0][0]               
__________________________________________________________________________________________________
dense_3_2_conv2D (Conv2D)       (None, 24, 3, 3)     28944       activation_19[0][0]              
__________________________________________________________________________________________________
dropout_15 (Dropout)            (None, 24, 3, 3)     0           dense_3_2_conv2D[0][0]           
__________________________________________________________________________________________________
concatenate_15 (Concatenate)    (None, 158, 3, 3)    0           concatenate_14[0][0]             
                                                                 dropout_15[0][0]                 
__________________________________________________________________________________________________
dense_3_3_bn (BatchNormalizatio (None, 158, 3, 3)    632         concatenate_15[0][0]             
__________________________________________________________________________________________________
activation_20 (Activation)      (None, 158, 3, 3)    0           dense_3_3_bn[0][0]               
__________________________________________________________________________________________________
dense_3_3_conv2D (Conv2D)       (None, 24, 3, 3)     34128       activation_20[0][0]              
__________________________________________________________________________________________________
dropout_16 (Dropout)            (None, 24, 3, 3)     0           dense_3_3_conv2D[0][0]           
__________________________________________________________________________________________________
concatenate_16 (Concatenate)    (None, 182, 3, 3)    0           concatenate_15[0][0]             
                                                                 dropout_16[0][0]                 
__________________________________________________________________________________________________
final_bn (BatchNormalization)   (None, 182, 3, 3)    728         concatenate_16[0][0]             
__________________________________________________________________________________________________
activation_21 (Activation)      (None, 182, 3, 3)    0           final_bn[0][0]                   
__________________________________________________________________________________________________
global_average_pooling2d_1 (Glo (None, 182)          0           activation_21[0][0]              
__________________________________________________________________________________________________
dense_1 (Dense)                 (None, 1)            183         global_average_pooling2d_1[0][0] 
==================================================================================================
Total params: 369,543
Trainable params: 365,251
Non-trainable params: 4,292
__________________________________________________________________________________________________
Finished compiling
Train on 39840 samples, validate on 7968 samples
Epoch 1/18
 - 38s - loss: 0.4677 - acc: 0.7908 - val_loss: 0.5079 - val_acc: 0.7845
…
Layers:  [4, 4, 4, 4]  Growth_rate:  30  nb_filter:  16  dropout:  0.2
dense_block:  4  reduction:  0.5  bottleneck:  False
Epochs:  18  batch_size:  64  lr:  0.07  optimizer:  adadelta
 es_patience:  4  lr_patience:  3  pooling:  avg
------------------------	  end of configs        -------------------------
pooling:avg
__________________________________________________________________________________________________
Layer (type)                    Output Shape         Param #     Connected to                     
==================================================================================================
input_1 (InputLayer)            (None, 2, 96, 96)    0                                            
__________________________________________________________________________________________________
initial_conv2D (Conv2D)         (None, 16, 48, 48)   1568        input_1[0][0]                    
__________________________________________________________________________________________________
initial_bn (BatchNormalization) (None, 16, 48, 48)   64          initial_conv2D[0][0]             
__________________________________________________________________________________________________
activation_1 (Activation)       (None, 16, 48, 48)   0           initial_bn[0][0]                 
__________________________________________________________________________________________________
max_pooling2d_1 (MaxPooling2D)  (None, 16, 24, 24)   0           activation_1[0][0]               
__________________________________________________________________________________________________
dense_0_0_bn (BatchNormalizatio (None, 16, 24, 24)   64          max_pooling2d_1[0][0]            
__________________________________________________________________________________________________
activation_2 (Activation)       (None, 16, 24, 24)   0           dense_0_0_bn[0][0]               
__________________________________________________________________________________________________
dense_0_0_conv2D (Conv2D)       (None, 30, 24, 24)   4320        activation_2[0][0]               
__________________________________________________________________________________________________
dropout_1 (Dropout)             (None, 30, 24, 24)   0           dense_0_0_conv2D[0][0]           
__________________________________________________________________________________________________
concatenate_1 (Concatenate)     (None, 46, 24, 24)   0           max_pooling2d_1[0][0]            
                                                                 dropout_1[0][0]                  
__________________________________________________________________________________________________
dense_0_1_bn (BatchNormalizatio (None, 46, 24, 24)   184         concatenate_1[0][0]              
__________________________________________________________________________________________________
activation_3 (Activation)       (None, 46, 24, 24)   0           dense_0_1_bn[0][0]               
__________________________________________________________________________________________________
dense_0_1_conv2D (Conv2D)       (None, 30, 24, 24)   12420       activation_3[0][0]               
__________________________________________________________________________________________________
dropout_2 (Dropout)             (None, 30, 24, 24)   0           dense_0_1_conv2D[0][0]           
__________________________________________________________________________________________________
concatenate_2 (Concatenate)     (None, 76, 24, 24)   0           concatenate_1[0][0]              
                                                                 dropout_2[0][0]                  
__________________________________________________________________________________________________
dense_0_2_bn (BatchNormalizatio (None, 76, 24, 24)   304         concatenate_2[0][0]              
__________________________________________________________________________________________________
activation_4 (Activation)       (None, 76, 24, 24)   0           dense_0_2_bn[0][0]               
__________________________________________________________________________________________________
dense_0_2_conv2D (Conv2D)       (None, 30, 24, 24)   20520       activation_4[0][0]               
__________________________________________________________________________________________________
dropout_3 (Dropout)             (None, 30, 24, 24)   0           dense_0_2_conv2D[0][0]           
__________________________________________________________________________________________________
concatenate_3 (Concatenate)     (None, 106, 24, 24)  0           concatenate_2[0][0]              
                                                                 dropout_3[0][0]                  
__________________________________________________________________________________________________
dense_0_3_bn (BatchNormalizatio (None, 106, 24, 24)  424         concatenate_3[0][0]              
__________________________________________________________________________________________________
activation_5 (Activation)       (None, 106, 24, 24)  0           dense_0_3_bn[0][0]               
__________________________________________________________________________________________________
dense_0_3_conv2D (Conv2D)       (None, 30, 24, 24)   28620       activation_5[0][0]               
__________________________________________________________________________________________________
dropout_4 (Dropout)             (None, 30, 24, 24)   0           dense_0_3_conv2D[0][0]           
__________________________________________________________________________________________________
concatenate_4 (Concatenate)     (None, 136, 24, 24)  0           concatenate_3[0][0]              
                                                                 dropout_4[0][0]                  
__________________________________________________________________________________________________
tr_0_bn (BatchNormalization)    (None, 136, 24, 24)  544         concatenate_4[0][0]              
__________________________________________________________________________________________________
activation_6 (Activation)       (None, 136, 24, 24)  0           tr_0_bn[0][0]                    
__________________________________________________________________________________________________
tr_0_conv2D (Conv2D)            (None, 68, 24, 24)   9248        activation_6[0][0]               
__________________________________________________________________________________________________
average_pooling2d_1 (AveragePoo (None, 68, 12, 12)   0           tr_0_conv2D[0][0]                
__________________________________________________________________________________________________
dense_1_0_bn (BatchNormalizatio (None, 68, 12, 12)   272         average_pooling2d_1[0][0]        
__________________________________________________________________________________________________
activation_7 (Activation)       (None, 68, 12, 12)   0           dense_1_0_bn[0][0]               
__________________________________________________________________________________________________
dense_1_0_conv2D (Conv2D)       (None, 30, 12, 12)   18360       activation_7[0][0]               
__________________________________________________________________________________________________
dropout_5 (Dropout)             (None, 30, 12, 12)   0           dense_1_0_conv2D[0][0]           
__________________________________________________________________________________________________
concatenate_5 (Concatenate)     (None, 98, 12, 12)   0           average_pooling2d_1[0][0]        
                                                                 dropout_5[0][0]                  
__________________________________________________________________________________________________
dense_1_1_bn (BatchNormalizatio (None, 98, 12, 12)   392         concatenate_5[0][0]              
__________________________________________________________________________________________________
activation_8 (Activation)       (None, 98, 12, 12)   0           dense_1_1_bn[0][0]               
__________________________________________________________________________________________________
dense_1_1_conv2D (Conv2D)       (None, 30, 12, 12)   26460       activation_8[0][0]               
__________________________________________________________________________________________________
dropout_6 (Dropout)             (None, 30, 12, 12)   0           dense_1_1_conv2D[0][0]           
__________________________________________________________________________________________________
concatenate_6 (Concatenate)     (None, 128, 12, 12)  0           concatenate_5[0][0]              
                                                                 dropout_6[0][0]                  
__________________________________________________________________________________________________
dense_1_2_bn (BatchNormalizatio (None, 128, 12, 12)  512         concatenate_6[0][0]              
__________________________________________________________________________________________________
activation_9 (Activation)       (None, 128, 12, 12)  0           dense_1_2_bn[0][0]               
__________________________________________________________________________________________________
dense_1_2_conv2D (Conv2D)       (None, 30, 12, 12)   34560       activation_9[0][0]               
__________________________________________________________________________________________________
dropout_7 (Dropout)             (None, 30, 12, 12)   0           dense_1_2_conv2D[0][0]           
__________________________________________________________________________________________________
concatenate_7 (Concatenate)     (None, 158, 12, 12)  0           concatenate_6[0][0]              
                                                                 dropout_7[0][0]                  
__________________________________________________________________________________________________
dense_1_3_bn (BatchNormalizatio (None, 158, 12, 12)  632         concatenate_7[0][0]              
__________________________________________________________________________________________________
activation_10 (Activation)      (None, 158, 12, 12)  0           dense_1_3_bn[0][0]               
__________________________________________________________________________________________________
dense_1_3_conv2D (Conv2D)       (None, 30, 12, 12)   42660       activation_10[0][0]              
__________________________________________________________________________________________________
dropout_8 (Dropout)             (None, 30, 12, 12)   0           dense_1_3_conv2D[0][0]           
__________________________________________________________________________________________________
concatenate_8 (Concatenate)     (None, 188, 12, 12)  0           concatenate_7[0][0]              
                                                                 dropout_8[0][0]                  
__________________________________________________________________________________________________
tr_1_bn (BatchNormalization)    (None, 188, 12, 12)  752         concatenate_8[0][0]              
__________________________________________________________________________________________________
activation_11 (Activation)      (None, 188, 12, 12)  0           tr_1_bn[0][0]                    
__________________________________________________________________________________________________
tr_1_conv2D (Conv2D)            (None, 94, 12, 12)   17672       activation_11[0][0]              
__________________________________________________________________________________________________
average_pooling2d_2 (AveragePoo (None, 94, 6, 6)     0           tr_1_conv2D[0][0]                
__________________________________________________________________________________________________
dense_2_0_bn (BatchNormalizatio (None, 94, 6, 6)     376         average_pooling2d_2[0][0]        
__________________________________________________________________________________________________
activation_12 (Activation)      (None, 94, 6, 6)     0           dense_2_0_bn[0][0]               
__________________________________________________________________________________________________
dense_2_0_conv2D (Conv2D)       (None, 30, 6, 6)     25380       activation_12[0][0]              
__________________________________________________________________________________________________
dropout_9 (Dropout)             (None, 30, 6, 6)     0           dense_2_0_conv2D[0][0]           
__________________________________________________________________________________________________
concatenate_9 (Concatenate)     (None, 124, 6, 6)    0           average_pooling2d_2[0][0]        
                                                                 dropout_9[0][0]                  
__________________________________________________________________________________________________
dense_2_1_bn (BatchNormalizatio (None, 124, 6, 6)    496         concatenate_9[0][0]              
__________________________________________________________________________________________________
activation_13 (Activation)      (None, 124, 6, 6)    0           dense_2_1_bn[0][0]               
__________________________________________________________________________________________________
dense_2_1_conv2D (Conv2D)       (None, 30, 6, 6)     33480       activation_13[0][0]              
__________________________________________________________________________________________________
dropout_10 (Dropout)            (None, 30, 6, 6)     0           dense_2_1_conv2D[0][0]           
__________________________________________________________________________________________________
concatenate_10 (Concatenate)    (None, 154, 6, 6)    0           concatenate_9[0][0]              
                                                                 dropout_10[0][0]                 
__________________________________________________________________________________________________
dense_2_2_bn (BatchNormalizatio (None, 154, 6, 6)    616         concatenate_10[0][0]             
__________________________________________________________________________________________________
activation_14 (Activation)      (None, 154, 6, 6)    0           dense_2_2_bn[0][0]               
__________________________________________________________________________________________________
dense_2_2_conv2D (Conv2D)       (None, 30, 6, 6)     41580       activation_14[0][0]              
__________________________________________________________________________________________________
dropout_11 (Dropout)            (None, 30, 6, 6)     0           dense_2_2_conv2D[0][0]           
__________________________________________________________________________________________________
concatenate_11 (Concatenate)    (None, 184, 6, 6)    0           concatenate_10[0][0]             
                                                                 dropout_11[0][0]                 
__________________________________________________________________________________________________
dense_2_3_bn (BatchNormalizatio (None, 184, 6, 6)    736         concatenate_11[0][0]             
__________________________________________________________________________________________________
activation_15 (Activation)      (None, 184, 6, 6)    0           dense_2_3_bn[0][0]               
__________________________________________________________________________________________________
dense_2_3_conv2D (Conv2D)       (None, 30, 6, 6)     49680       activation_15[0][0]              
__________________________________________________________________________________________________
dropout_12 (Dropout)            (None, 30, 6, 6)     0           dense_2_3_conv2D[0][0]           
__________________________________________________________________________________________________
concatenate_12 (Concatenate)    (None, 214, 6, 6)    0           concatenate_11[0][0]             
                                                                 dropout_12[0][0]                 
__________________________________________________________________________________________________
tr_2_bn (BatchNormalization)    (None, 214, 6, 6)    856         concatenate_12[0][0]             
__________________________________________________________________________________________________
activation_16 (Activation)      (None, 214, 6, 6)    0           tr_2_bn[0][0]                    
__________________________________________________________________________________________________
tr_2_conv2D (Conv2D)            (None, 107, 6, 6)    22898       activation_16[0][0]              
__________________________________________________________________________________________________
average_pooling2d_3 (AveragePoo (None, 107, 3, 3)    0           tr_2_conv2D[0][0]                
__________________________________________________________________________________________________
dense_3_0_bn (BatchNormalizatio (None, 107, 3, 3)    428         average_pooling2d_3[0][0]        
__________________________________________________________________________________________________
activation_17 (Activation)      (None, 107, 3, 3)    0           dense_3_0_bn[0][0]               
__________________________________________________________________________________________________
dense_3_0_conv2D (Conv2D)       (None, 30, 3, 3)     28890       activation_17[0][0]              
__________________________________________________________________________________________________
dropout_13 (Dropout)            (None, 30, 3, 3)     0           dense_3_0_conv2D[0][0]           
__________________________________________________________________________________________________
concatenate_13 (Concatenate)    (None, 137, 3, 3)    0           average_pooling2d_3[0][0]        
                                                                 dropout_13[0][0]                 
__________________________________________________________________________________________________
dense_3_1_bn (BatchNormalizatio (None, 137, 3, 3)    548         concatenate_13[0][0]             
__________________________________________________________________________________________________
activation_18 (Activation)      (None, 137, 3, 3)    0           dense_3_1_bn[0][0]               
__________________________________________________________________________________________________
dense_3_1_conv2D (Conv2D)       (None, 30, 3, 3)     36990       activation_18[0][0]              
__________________________________________________________________________________________________
dropout_14 (Dropout)            (None, 30, 3, 3)     0           dense_3_1_conv2D[0][0]           
__________________________________________________________________________________________________
concatenate_14 (Concatenate)    (None, 167, 3, 3)    0           concatenate_13[0][0]             
                                                                 dropout_14[0][0]                 
__________________________________________________________________________________________________
dense_3_2_bn (BatchNormalizatio (None, 167, 3, 3)    668         concatenate_14[0][0]             
__________________________________________________________________________________________________
activation_19 (Activation)      (None, 167, 3, 3)    0           dense_3_2_bn[0][0]               
__________________________________________________________________________________________________
dense_3_2_conv2D (Conv2D)       (None, 30, 3, 3)     45090       activation_19[0][0]              
__________________________________________________________________________________________________
dropout_15 (Dropout)            (None, 30, 3, 3)     0           dense_3_2_conv2D[0][0]           
__________________________________________________________________________________________________
concatenate_15 (Concatenate)    (None, 197, 3, 3)    0           concatenate_14[0][0]             
                                                                 dropout_15[0][0]                 
__________________________________________________________________________________________________
dense_3_3_bn (BatchNormalizatio (None, 197, 3, 3)    788         concatenate_15[0][0]             
__________________________________________________________________________________________________
activation_20 (Activation)      (None, 197, 3, 3)    0           dense_3_3_bn[0][0]               
__________________________________________________________________________________________________
dense_3_3_conv2D (Conv2D)       (None, 30, 3, 3)     53190       activation_20[0][0]              
__________________________________________________________________________________________________
dropout_16 (Dropout)            (None, 30, 3, 3)     0           dense_3_3_conv2D[0][0]           
__________________________________________________________________________________________________
concatenate_16 (Concatenate)    (None, 227, 3, 3)    0           concatenate_15[0][0]             
                                                                 dropout_16[0][0]                 
__________________________________________________________________________________________________
final_bn (BatchNormalization)   (None, 227, 3, 3)    908         concatenate_16[0][0]             
__________________________________________________________________________________________________
activation_21 (Activation)      (None, 227, 3, 3)    0           final_bn[0][0]                   
__________________________________________________________________________________________________
global_average_pooling2d_1 (Glo (None, 227)          0           activation_21[0][0]              
__________________________________________________________________________________________________
dense_1 (Dense)                 (None, 1)            228         global_average_pooling2d_1[0][0] 
==================================================================================================
Total params: 564,378
Trainable params: 559,096
Non-trainable params: 5,282
__________________________________________________________________________________________________
Finished compiling
Train on 39840 samples, validate on 7968 samples
Epoch 1/18
 - 37s - loss: 0.4724 - acc: 0.7971 - val_loss: 0.4043 - val_acc: 0.8470
…
Layers:  [6, 6, 6, 6]  Growth_rate:  12  nb_filter:  16  dropout:  0.2
dense_block:  4  reduction:  0.5  bottleneck:  False
Epochs:  17  batch_size:  64  lr:  0.07  optimizer:  adadelta
 es_patience:  4  lr_patience:  3  pooling:  avg
------------------------	  end of configs        -------------------------
pooling:avg
__________________________________________________________________________________________________
Layer (type)                    Output Shape         Param #     Connected to                     
==================================================================================================
input_1 (InputLayer)            (None, 2, 96, 96)    0                                            
__________________________________________________________________________________________________
initial_conv2D (Conv2D)         (None, 16, 48, 48)   1568        input_1[0][0]                    
__________________________________________________________________________________________________
initial_bn (BatchNormalization) (None, 16, 48, 48)   64          initial_conv2D[0][0]             
__________________________________________________________________________________________________
activation_1 (Activation)       (None, 16, 48, 48)   0           initial_bn[0][0]                 
__________________________________________________________________________________________________
max_pooling2d_1 (MaxPooling2D)  (None, 16, 24, 24)   0           activation_1[0][0]               
__________________________________________________________________________________________________
dense_0_0_bn (BatchNormalizatio (None, 16, 24, 24)   64          max_pooling2d_1[0][0]            
__________________________________________________________________________________________________
activation_2 (Activation)       (None, 16, 24, 24)   0           dense_0_0_bn[0][0]               
__________________________________________________________________________________________________
dense_0_0_conv2D (Conv2D)       (None, 12, 24, 24)   1728        activation_2[0][0]               
__________________________________________________________________________________________________
dropout_1 (Dropout)             (None, 12, 24, 24)   0           dense_0_0_conv2D[0][0]           
__________________________________________________________________________________________________
concatenate_1 (Concatenate)     (None, 28, 24, 24)   0           max_pooling2d_1[0][0]            
                                                                 dropout_1[0][0]                  
__________________________________________________________________________________________________
dense_0_1_bn (BatchNormalizatio (None, 28, 24, 24)   112         concatenate_1[0][0]              
__________________________________________________________________________________________________
activation_3 (Activation)       (None, 28, 24, 24)   0           dense_0_1_bn[0][0]               
__________________________________________________________________________________________________
dense_0_1_conv2D (Conv2D)       (None, 12, 24, 24)   3024        activation_3[0][0]               
__________________________________________________________________________________________________
dropout_2 (Dropout)             (None, 12, 24, 24)   0           dense_0_1_conv2D[0][0]           
__________________________________________________________________________________________________
concatenate_2 (Concatenate)     (None, 40, 24, 24)   0           concatenate_1[0][0]              
                                                                 dropout_2[0][0]                  
__________________________________________________________________________________________________
dense_0_2_bn (BatchNormalizatio (None, 40, 24, 24)   160         concatenate_2[0][0]              
__________________________________________________________________________________________________
activation_4 (Activation)       (None, 40, 24, 24)   0           dense_0_2_bn[0][0]               
__________________________________________________________________________________________________
dense_0_2_conv2D (Conv2D)       (None, 12, 24, 24)   4320        activation_4[0][0]               
__________________________________________________________________________________________________
dropout_3 (Dropout)             (None, 12, 24, 24)   0           dense_0_2_conv2D[0][0]           
__________________________________________________________________________________________________
…
activation_12 (Activation)      (None, 152, 12, 12)  0           dense_1_3_bn[0][0]               
__________________________________________________________________________________________________
dense_1_3_conv2D (Conv2D)       (None, 24, 12, 12)   32832       activation_12[0][0]              
__________________________________________________________________________________________________
dropout_10 (Dropout)            (None, 24, 12, 12)   0           dense_1_3_conv2D[0][0]           
__________________________________________________________________________________________________
concatenate_10 (Concatenate)    (None, 176, 12, 12)  0           concatenate_9[0][0]              
                                                                 dropout_10[0][0]                 
__________________________________________________________________________________________________
dense_1_4_bn (BatchNormalizatio (None, 176, 12, 12)  704         concatenate_10[0][0]             
__________________________________________________________________________________________________
activation_13 (Activation)      (None, 176, 12, 12)  0           dense_1_4_bn[0][0]               
__________________________________________________________________________________________________
dense_1_4_conv2D (Conv2D)       (None, 24, 12, 12)   38016       activation_13[0][0]              
__________________________________________________________________________________________________
dropout_11 (Dropout)            (None, 24, 12, 12)   0           dense_1_4_conv2D[0][0]           
__________________________________________________________________________________________________
concatenate_11 (Concatenate)    (None, 200, 12, 12)  0           concatenate_10[0][0]             
                                                                 dropout_11[0][0]                 
__________________________________________________________________________________________________
dense_1_5_bn (BatchNormalizatio (None, 200, 12, 12)  800         concatenate_11[0][0]             
__________________________________________________________________________________________________
activation_14 (Activation)      (None, 200, 12, 12)  0           dense_1_5_bn[0][0]               
__________________________________________________________________________________________________
dense_1_5_conv2D (Conv2D)       (None, 24, 12, 12)   43200       activation_14[0][0]              
__________________________________________________________________________________________________
dropout_12 (Dropout)            (None, 24, 12, 12)   0           dense_1_5_conv2D[0][0]           
__________________________________________________________________________________________________
concatenate_12 (Concatenate)    (None, 224, 12, 12)  0           concatenate_11[0][0]             
                                                                 dropout_12[0][0]                 
__________________________________________________________________________________________________
tr_1_bn (BatchNormalization)    (None, 224, 12, 12)  896         concatenate_12[0][0]             
__________________________________________________________________________________________________
activation_15 (Activation)      (None, 224, 12, 12)  0           tr_1_bn[0][0]                    
__________________________________________________________________________________________________
tr_1_conv2D (Conv2D)            (None, 112, 12, 12)  25088       activation_15[0][0]              
__________________________________________________________________________________________________
average_pooling2d_2 (AveragePoo (None, 112, 6, 6)    0           tr_1_conv2D[0][0]                
__________________________________________________________________________________________________
dense_2_0_bn (BatchNormalizatio (None, 112, 6, 6)    448         average_pooling2d_2[0][0]        
__________________________________________________________________________________________________
activation_16 (Activation)      (None, 112, 6, 6)    0           dense_2_0_bn[0][0]               
__________________________________________________________________________________________________
dense_2_0_conv2D (Conv2D)       (None, 24, 6, 6)     24192       activation_16[0][0]              
__________________________________________________________________________________________________
dropout_13 (Dropout)            (None, 24, 6, 6)     0           dense_2_0_conv2D[0][0]           
__________________________________________________________________________________________________
concatenate_13 (Concatenate)    (None, 136, 6, 6)    0           average_pooling2d_2[0][0]        
                                                                 dropout_13[0][0]                 
__________________________________________________________________________________________________
dense_2_1_bn (BatchNormalizatio (None, 136, 6, 6)    544         concatenate_13[0][0]             
__________________________________________________________________________________________________
activation_17 (Activation)      (None, 136, 6, 6)    0           dense_2_1_bn[0][0]               
__________________________________________________________________________________________________
dense_2_1_conv2D (Conv2D)       (None, 24, 6, 6)     29376       activation_17[0][0]              
__________________________________________________________________________________________________
dropout_14 (Dropout)            (None, 24, 6, 6)     0           dense_2_1_conv2D[0][0]           
__________________________________________________________________________________________________
concatenate_14 (Concatenate)    (None, 160, 6, 6)    0           concatenate_13[0][0]             
                                                                 dropout_14[0][0]                 
__________________________________________________________________________________________________
dense_2_2_bn (BatchNormalizatio (None, 160, 6, 6)    640         concatenate_14[0][0]             
__________________________________________________________________________________________________
activation_18 (Activation)      (None, 160, 6, 6)    0           dense_2_2_bn[0][0]               
__________________________________________________________________________________________________
dense_2_2_conv2D (Conv2D)       (None, 24, 6, 6)     34560       activation_18[0][0]              
__________________________________________________________________________________________________
dropout_15 (Dropout)            (None, 24, 6, 6)     0           dense_2_2_conv2D[0][0]           
__________________________________________________________________________________________________
concatenate_15 (Concatenate)    (None, 184, 6, 6)    0           concatenate_14[0][0]             
                                                                 dropout_15[0][0]                 
__________________________________________________________________________________________________
dense_2_3_bn (BatchNormalizatio (None, 184, 6, 6)    736         concatenate_15[0][0]             
__________________________________________________________________________________________________
activation_19 (Activation)      (None, 184, 6, 6)    0           dense_2_3_bn[0][0]               
__________________________________________________________________________________________________
dense_2_3_conv2D (Conv2D)       (None, 24, 6, 6)     39744       activation_19[0][0]              
__________________________________________________________________________________________________
dropout_16 (Dropout)            (None, 24, 6, 6)     0           dense_2_3_conv2D[0][0]           
__________________________________________________________________________________________________
concatenate_16 (Concatenate)    (None, 208, 6, 6)    0           concatenate_15[0][0]             
                                                                 dropout_16[0][0]                 
__________________________________________________________________________________________________
dense_2_4_bn (BatchNormalizatio (None, 208, 6, 6)    832         concatenate_16[0][0]             
__________________________________________________________________________________________________
activation_20 (Activation)      (None, 208, 6, 6)    0           dense_2_4_bn[0][0]               
__________________________________________________________________________________________________
dense_2_4_conv2D (Conv2D)       (None, 24, 6, 6)     44928       activation_20[0][0]              
__________________________________________________________________________________________________
dropout_17 (Dropout)            (None, 24, 6, 6)     0           dense_2_4_conv2D[0][0]           
__________________________________________________________________________________________________
concatenate_17 (Concatenate)    (None, 232, 6, 6)    0           concatenate_16[0][0]             
                                                                 dropout_17[0][0]                 
__________________________________________________________________________________________________
dense_2_5_bn (BatchNormalizatio (None, 232, 6, 6)    928         concatenate_17[0][0]             
__________________________________________________________________________________________________
activation_21 (Activation)      (None, 232, 6, 6)    0           dense_2_5_bn[0][0]               
__________________________________________________________________________________________________
dense_2_5_conv2D (Conv2D)       (None, 24, 6, 6)     50112       activation_21[0][0]              
__________________________________________________________________________________________________
dropout_18 (Dropout)            (None, 24, 6, 6)     0           dense_2_5_conv2D[0][0]           
__________________________________________________________________________________________________
concatenate_18 (Concatenate)    (None, 256, 6, 6)    0           concatenate_17[0][0]             
                                                                 dropout_18[0][0]                 
__________________________________________________________________________________________________
tr_2_bn (BatchNormalization)    (None, 256, 6, 6)    1024        concatenate_18[0][0]             
__________________________________________________________________________________________________
activation_22 (Activation)      (None, 256, 6, 6)    0           tr_2_bn[0][0]                    
__________________________________________________________________________________________________
tr_2_conv2D (Conv2D)            (None, 128, 6, 6)    32768       activation_22[0][0]              
__________________________________________________________________________________________________
average_pooling2d_3 (AveragePoo (None, 128, 3, 3)    0           tr_2_conv2D[0][0]                
__________________________________________________________________________________________________
dense_3_0_bn (BatchNormalizatio (None, 128, 3, 3)    512         average_pooling2d_3[0][0]        
__________________________________________________________________________________________________
activation_23 (Activation)      (None, 128, 3, 3)    0           dense_3_0_bn[0][0]               
__________________________________________________________________________________________________
dense_3_0_conv2D (Conv2D)       (None, 24, 3, 3)     27648       activation_23[0][0]              
__________________________________________________________________________________________________
dropout_19 (Dropout)            (None, 24, 3, 3)     0           dense_3_0_conv2D[0][0]           
__________________________________________________________________________________________________
concatenate_19 (Concatenate)    (None, 152, 3, 3)    0           average_pooling2d_3[0][0]        
                                                                 dropout_19[0][0]                 
__________________________________________________________________________________________________
dense_3_1_bn (BatchNormalizatio (None, 152, 3, 3)    608         concatenate_19[0][0]             
__________________________________________________________________________________________________
activation_24 (Activation)      (None, 152, 3, 3)    0           dense_3_1_bn[0][0]               
__________________________________________________________________________________________________
dense_3_1_conv2D (Conv2D)       (None, 24, 3, 3)     32832       activation_24[0][0]              
__________________________________________________________________________________________________
dropout_20 (Dropout)            (None, 24, 3, 3)     0           dense_3_1_conv2D[0][0]           
__________________________________________________________________________________________________
concatenate_20 (Concatenate)    (None, 176, 3, 3)    0           concatenate_19[0][0]             
                                                                 dropout_20[0][0]                 
__________________________________________________________________________________________________
dense_3_2_bn (BatchNormalizatio (None, 176, 3, 3)    704         concatenate_20[0][0]             
__________________________________________________________________________________________________
activation_25 (Activation)      (None, 176, 3, 3)    0           dense_3_2_bn[0][0]               
__________________________________________________________________________________________________
dense_3_2_conv2D (Conv2D)       (None, 24, 3, 3)     38016       activation_25[0][0]              
__________________________________________________________________________________________________
dropout_21 (Dropout)            (None, 24, 3, 3)     0           dense_3_2_conv2D[0][0]           
__________________________________________________________________________________________________
concatenate_21 (Concatenate)    (None, 200, 3, 3)    0           concatenate_20[0][0]             
                                                                 dropout_21[0][0]                 
__________________________________________________________________________________________________
dense_3_3_bn (BatchNormalizatio (None, 200, 3, 3)    800         concatenate_21[0][0]             
__________________________________________________________________________________________________
activation_26 (Activation)      (None, 200, 3, 3)    0           dense_3_3_bn[0][0]               
__________________________________________________________________________________________________
dense_3_3_conv2D (Conv2D)       (None, 24, 3, 3)     43200       activation_26[0][0]              
__________________________________________________________________________________________________
dropout_22 (Dropout)            (None, 24, 3, 3)     0           dense_3_3_conv2D[0][0]           
__________________________________________________________________________________________________
concatenate_22 (Concatenate)    (None, 224, 3, 3)    0           concatenate_21[0][0]             
                                                                 dropout_22[0][0]                 
__________________________________________________________________________________________________
dense_3_4_bn (BatchNormalizatio (None, 224, 3, 3)    896         concatenate_22[0][0]             
__________________________________________________________________________________________________
activation_27 (Activation)      (None, 224, 3, 3)    0           dense_3_4_bn[0][0]               
__________________________________________________________________________________________________
dense_3_4_conv2D (Conv2D)       (None, 24, 3, 3)     48384       activation_27[0][0]              
__________________________________________________________________________________________________
dropout_23 (Dropout)            (None, 24, 3, 3)     0           dense_3_4_conv2D[0][0]           
__________________________________________________________________________________________________
concatenate_23 (Concatenate)    (None, 248, 3, 3)    0           concatenate_22[0][0]             
                                                                 dropout_23[0][0]                 
__________________________________________________________________________________________________
dense_3_5_bn (BatchNormalizatio (None, 248, 3, 3)    992         concatenate_23[0][0]             
__________________________________________________________________________________________________
activation_28 (Activation)      (None, 248, 3, 3)    0           dense_3_5_bn[0][0]               
__________________________________________________________________________________________________
dense_3_5_conv2D (Conv2D)       (None, 24, 3, 3)     53568       activation_28[0][0]              
__________________________________________________________________________________________________
dropout_24 (Dropout)            (None, 24, 3, 3)     0           dense_3_5_conv2D[0][0]           
__________________________________________________________________________________________________
concatenate_24 (Concatenate)    (None, 272, 3, 3)    0           concatenate_23[0][0]             
                                                                 dropout_24[0][0]                 
__________________________________________________________________________________________________
final_bn (BatchNormalization)   (None, 272, 3, 3)    1088        concatenate_24[0][0]             
__________________________________________________________________________________________________
activation_29 (Activation)      (None, 272, 3, 3)    0           final_bn[0][0]                   
__________________________________________________________________________________________________
global_average_pooling2d_1 (Glo (None, 272)          0           activation_29[0][0]              
__________________________________________________________________________________________________
dense_1 (Dense)                 (None, 1)            273         global_average_pooling2d_1[0][0] 
==================================================================================================
Total params: 836,529
Trainable params: 827,761
Non-trainable params: 8,768
__________________________________________________________________________________________________
Finished compiling
Train on 39840 samples, validate on 7968 samples
Epoch 1/16
 - 49s - loss: 0.4605 - acc: 0.8100 - val_loss: 0.4001 - val_acc: 0.8476
…
Layers:  [6, 6, 6, 6]  Growth_rate:  30  nb_filter:  16  dropout:  0.2
dense_block:  4  reduction:  0.5  bottleneck:  False
Epochs:  14  batch_size:  64  lr:  0.07  optimizer:  adadelta
 es_patience:  4  lr_patience:  3  pooling:  avg
------------------------	  end of configs        -------------------------
pooling:avg
__________________________________________________________________________________________________
Layer (type)                    Output Shape         Param #     Connected to                     
==================================================================================================
input_1 (InputLayer)            (None, 2, 96, 96)    0                                            
__________________________________________________________________________________________________
initial_conv2D (Conv2D)         (None, 16, 48, 48)   1568        input_1[0][0]                    
__________________________________________________________________________________________________
initial_bn (BatchNormalization) (None, 16, 48, 48)   64          initial_conv2D[0][0]             
__________________________________________________________________________________________________
activation_1 (Activation)       (None, 16, 48, 48)   0           initial_bn[0][0]                 
__________________________________________________________________________________________________
max_pooling2d_1 (MaxPooling2D)  (None, 16, 24, 24)   0           activation_1[0][0]               
__________________________________________________________________________________________________
dense_0_0_bn (BatchNormalizatio (None, 16, 24, 24)   64          max_pooling2d_1[0][0]            
__________________________________________________________________________________________________
activation_2 (Activation)       (None, 16, 24, 24)   0           dense_0_0_bn[0][0]               
__________________________________________________________________________________________________
dense_0_0_conv2D (Conv2D)       (None, 30, 24, 24)   4320        activation_2[0][0]               
__________________________________________________________________________________________________
dropout_1 (Dropout)             (None, 30, 24, 24)   0           dense_0_0_conv2D[0][0]           
__________________________________________________________________________________________________
concatenate_1 (Concatenate)     (None, 46, 24, 24)   0           max_pooling2d_1[0][0]            
                                                                 dropout_1[0][0]                  
__________________________________________________________________________________________________
dense_0_1_bn (BatchNormalizatio (None, 46, 24, 24)   184         concatenate_1[0][0]              
__________________________________________________________________________________________________
activation_3 (Activation)       (None, 46, 24, 24)   0           dense_0_1_bn[0][0]               
__________________________________________________________________________________________________
dense_0_1_conv2D (Conv2D)       (None, 30, 24, 24)   12420       activation_3[0][0]               
__________________________________________________________________________________________________
dropout_2 (Dropout)             (None, 30, 24, 24)   0           dense_0_1_conv2D[0][0]           
__________________________________________________________________________________________________
concatenate_2 (Concatenate)     (None, 76, 24, 24)   0           concatenate_1[0][0]              
                                                                 dropout_2[0][0]                  
__________________________________________________________________________________________________
dense_0_2_bn (BatchNormalizatio (None, 76, 24, 24)   304         concatenate_2[0][0]              
__________________________________________________________________________________________________
activation_4 (Activation)       (None, 76, 24, 24)   0           dense_0_2_bn[0][0]               
__________________________________________________________________________________________________
dense_0_2_conv2D (Conv2D)       (None, 30, 24, 24)   20520       activation_4[0][0]               
__________________________________________________________________________________________________
dropout_3 (Dropout)             (None, 30, 24, 24)   0           dense_0_2_conv2D[0][0]           
__________________________________________________________________________________________________
concatenate_3 (Concatenate)     (None, 106, 24, 24)  0           concatenate_2[0][0]              
                                                                 dropout_3[0][0]                  
__________________________________________________________________________________________________
dense_0_3_bn (BatchNormalizatio (None, 106, 24, 24)  424         concatenate_3[0][0]              
__________________________________________________________________________________________________
activation_5 (Activation)       (None, 106, 24, 24)  0           dense_0_3_bn[0][0]               
__________________________________________________________________________________________________
dense_0_3_conv2D (Conv2D)       (None, 30, 24, 24)   28620       activation_5[0][0]               
__________________________________________________________________________________________________
dropout_4 (Dropout)             (None, 30, 24, 24)   0           dense_0_3_conv2D[0][0]           
__________________________________________________________________________________________________
concatenate_4 (Concatenate)     (None, 136, 24, 24)  0           concatenate_3[0][0]              
                                                                 dropout_4[0][0]                  
__________________________________________________________________________________________________
dense_0_4_bn (BatchNormalizatio (None, 136, 24, 24)  544         concatenate_4[0][0]              
__________________________________________________________________________________________________
activation_6 (Activation)       (None, 136, 24, 24)  0           dense_0_4_bn[0][0]               
__________________________________________________________________________________________________
dense_0_4_conv2D (Conv2D)       (None, 30, 24, 24)   36720       activation_6[0][0]               
__________________________________________________________________________________________________
dropout_5 (Dropout)             (None, 30, 24, 24)   0           dense_0_4_conv2D[0][0]           
__________________________________________________________________________________________________
concatenate_5 (Concatenate)     (None, 166, 24, 24)  0           concatenate_4[0][0]              
                                                                 dropout_5[0][0]                  
__________________________________________________________________________________________________
dense_0_5_bn (BatchNormalizatio (None, 166, 24, 24)  664         concatenate_5[0][0]              
__________________________________________________________________________________________________
activation_7 (Activation)       (None, 166, 24, 24)  0           dense_0_5_bn[0][0]               
__________________________________________________________________________________________________
dense_0_5_conv2D (Conv2D)       (None, 30, 24, 24)   44820       activation_7[0][0]               
__________________________________________________________________________________________________
dropout_6 (Dropout)             (None, 30, 24, 24)   0           dense_0_5_conv2D[0][0]           
__________________________________________________________________________________________________
concatenate_6 (Concatenate)     (None, 196, 24, 24)  0           concatenate_5[0][0]              
                                                                 dropout_6[0][0]                  
__________________________________________________________________________________________________
tr_0_bn (BatchNormalization)    (None, 196, 24, 24)  784         concatenate_6[0][0]              
__________________________________________________________________________________________________
activation_8 (Activation)       (None, 196, 24, 24)  0           tr_0_bn[0][0]                    
__________________________________________________________________________________________________
tr_0_conv2D (Conv2D)            (None, 98, 24, 24)   19208       activation_8[0][0]               
__________________________________________________________________________________________________
average_pooling2d_1 (AveragePoo (None, 98, 12, 12)   0           tr_0_conv2D[0][0]                
__________________________________________________________________________________________________
dense_1_0_bn (BatchNormalizatio (None, 98, 12, 12)   392         average_pooling2d_1[0][0]        
__________________________________________________________________________________________________
activation_9 (Activation)       (None, 98, 12, 12)   0           dense_1_0_bn[0][0]               
__________________________________________________________________________________________________
dense_1_0_conv2D (Conv2D)       (None, 30, 12, 12)   26460       activation_9[0][0]               
__________________________________________________________________________________________________
dropout_7 (Dropout)             (None, 30, 12, 12)   0           dense_1_0_conv2D[0][0]           
__________________________________________________________________________________________________
concatenate_7 (Concatenate)     (None, 128, 12, 12)  0           average_pooling2d_1[0][0]        
                                                                 dropout_7[0][0]                  
__________________________________________________________________________________________________
dense_1_1_bn (BatchNormalizatio (None, 128, 12, 12)  512         concatenate_7[0][0]              
__________________________________________________________________________________________________
activation_10 (Activation)      (None, 128, 12, 12)  0           dense_1_1_bn[0][0]               
__________________________________________________________________________________________________
dense_1_1_conv2D (Conv2D)       (None, 30, 12, 12)   34560       activation_10[0][0]              
__________________________________________________________________________________________________
dropout_8 (Dropout)             (None, 30, 12, 12)   0           dense_1_1_conv2D[0][0]           
__________________________________________________________________________________________________
concatenate_8 (Concatenate)     (None, 158, 12, 12)  0           concatenate_7[0][0]              
                                                                 dropout_8[0][0]                  
__________________________________________________________________________________________________
dense_1_2_bn (BatchNormalizatio (None, 158, 12, 12)  632         concatenate_8[0][0]              
__________________________________________________________________________________________________
activation_11 (Activation)      (None, 158, 12, 12)  0           dense_1_2_bn[0][0]               
__________________________________________________________________________________________________
dense_1_2_conv2D (Conv2D)       (None, 30, 12, 12)   42660       activation_11[0][0]              
__________________________________________________________________________________________________
dropout_9 (Dropout)             (None, 30, 12, 12)   0           dense_1_2_conv2D[0][0]           
__________________________________________________________________________________________________
concatenate_9 (Concatenate)     (None, 188, 12, 12)  0           concatenate_8[0][0]              
                                                                 dropout_9[0][0]                  
__________________________________________________________________________________________________
dense_1_3_bn (BatchNormalizatio (None, 188, 12, 12)  752         concatenate_9[0][0]              
__________________________________________________________________________________________________
activation_12 (Activation)      (None, 188, 12, 12)  0           dense_1_3_bn[0][0]               
__________________________________________________________________________________________________
dense_1_3_conv2D (Conv2D)       (None, 30, 12, 12)   50760       activation_12[0][0]              
__________________________________________________________________________________________________
dropout_10 (Dropout)            (None, 30, 12, 12)   0           dense_1_3_conv2D[0][0]           
__________________________________________________________________________________________________
concatenate_10 (Concatenate)    (None, 218, 12, 12)  0           concatenate_9[0][0]              
                                                                 dropout_10[0][0]                 
__________________________________________________________________________________________________
dense_1_4_bn (BatchNormalizatio (None, 218, 12, 12)  872         concatenate_10[0][0]             
__________________________________________________________________________________________________
activation_13 (Activation)      (None, 218, 12, 12)  0           dense_1_4_bn[0][0]               
__________________________________________________________________________________________________
dense_1_4_conv2D (Conv2D)       (None, 30, 12, 12)   58860       activation_13[0][0]              
__________________________________________________________________________________________________
dropout_11 (Dropout)            (None, 30, 12, 12)   0           dense_1_4_conv2D[0][0]           
__________________________________________________________________________________________________
concatenate_11 (Concatenate)    (None, 248, 12, 12)  0           concatenate_10[0][0]             
                                                                 dropout_11[0][0]                 
__________________________________________________________________________________________________
dense_1_5_bn (BatchNormalizatio (None, 248, 12, 12)  992         concatenate_11[0][0]             
__________________________________________________________________________________________________
activation_14 (Activation)      (None, 248, 12, 12)  0           dense_1_5_bn[0][0]               
__________________________________________________________________________________________________
dense_1_5_conv2D (Conv2D)       (None, 30, 12, 12)   66960       activation_14[0][0]              
__________________________________________________________________________________________________
dropout_12 (Dropout)            (None, 30, 12, 12)   0           dense_1_5_conv2D[0][0]           
__________________________________________________________________________________________________
concatenate_12 (Concatenate)    (None, 278, 12, 12)  0           concatenate_11[0][0]             
                                                                 dropout_12[0][0]                 
__________________________________________________________________________________________________
tr_1_bn (BatchNormalization)    (None, 278, 12, 12)  1112        concatenate_12[0][0]             
__________________________________________________________________________________________________
activation_15 (Activation)      (None, 278, 12, 12)  0           tr_1_bn[0][0]                    
__________________________________________________________________________________________________
tr_1_conv2D (Conv2D)            (None, 139, 12, 12)  38642       activation_15[0][0]              
__________________________________________________________________________________________________
average_pooling2d_2 (AveragePoo (None, 139, 6, 6)    0           tr_1_conv2D[0][0]                
__________________________________________________________________________________________________
dense_2_0_bn (BatchNormalizatio (None, 139, 6, 6)    556         average_pooling2d_2[0][0]        
__________________________________________________________________________________________________
activation_16 (Activation)      (None, 139, 6, 6)    0           dense_2_0_bn[0][0]               
__________________________________________________________________________________________________
dense_2_0_conv2D (Conv2D)       (None, 30, 6, 6)     37530       activation_16[0][0]              
__________________________________________________________________________________________________
dropout_13 (Dropout)            (None, 30, 6, 6)     0           dense_2_0_conv2D[0][0]           
__________________________________________________________________________________________________
concatenate_13 (Concatenate)    (None, 169, 6, 6)    0           average_pooling2d_2[0][0]        
                                                                 dropout_13[0][0]                 
__________________________________________________________________________________________________
dense_2_1_bn (BatchNormalizatio (None, 169, 6, 6)    676         concatenate_13[0][0]             
__________________________________________________________________________________________________
activation_17 (Activation)      (None, 169, 6, 6)    0           dense_2_1_bn[0][0]               
__________________________________________________________________________________________________
dense_2_1_conv2D (Conv2D)       (None, 30, 6, 6)     45630       activation_17[0][0]              
__________________________________________________________________________________________________
dropout_14 (Dropout)            (None, 30, 6, 6)     0           dense_2_1_conv2D[0][0]           
__________________________________________________________________________________________________
concatenate_14 (Concatenate)    (None, 199, 6, 6)    0           concatenate_13[0][0]             
                                                                 dropout_14[0][0]                 
__________________________________________________________________________________________________
dense_2_2_bn (BatchNormalizatio (None, 199, 6, 6)    796         concatenate_14[0][0]             
__________________________________________________________________________________________________
activation_18 (Activation)      (None, 199, 6, 6)    0           dense_2_2_bn[0][0]               
__________________________________________________________________________________________________
dense_2_2_conv2D (Conv2D)       (None, 30, 6, 6)     53730       activation_18[0][0]              
__________________________________________________________________________________________________
dropout_15 (Dropout)            (None, 30, 6, 6)     0           dense_2_2_conv2D[0][0]           
__________________________________________________________________________________________________
concatenate_15 (Concatenate)    (None, 229, 6, 6)    0           concatenate_14[0][0]             
                                                                 dropout_15[0][0]                 
__________________________________________________________________________________________________
dense_2_3_bn (BatchNormalizatio (None, 229, 6, 6)    916         concatenate_15[0][0]             
__________________________________________________________________________________________________
activation_19 (Activation)      (None, 229, 6, 6)    0           dense_2_3_bn[0][0]               
__________________________________________________________________________________________________
dense_2_3_conv2D (Conv2D)       (None, 30, 6, 6)     61830       activation_19[0][0]              
__________________________________________________________________________________________________
dropout_16 (Dropout)            (None, 30, 6, 6)     0           dense_2_3_conv2D[0][0]           
__________________________________________________________________________________________________
concatenate_16 (Concatenate)    (None, 259, 6, 6)    0           concatenate_15[0][0]             
                                                                 dropout_16[0][0]                 
__________________________________________________________________________________________________
dense_2_4_bn (BatchNormalizatio (None, 259, 6, 6)    1036        concatenate_16[0][0]             
__________________________________________________________________________________________________
activation_20 (Activation)      (None, 259, 6, 6)    0           dense_2_4_bn[0][0]               
__________________________________________________________________________________________________
dense_2_4_conv2D (Conv2D)       (None, 30, 6, 6)     69930       activation_20[0][0]              
__________________________________________________________________________________________________
dropout_17 (Dropout)            (None, 30, 6, 6)     0           dense_2_4_conv2D[0][0]           
__________________________________________________________________________________________________
concatenate_17 (Concatenate)    (None, 289, 6, 6)    0           concatenate_16[0][0]             
                                                                 dropout_17[0][0]                 
__________________________________________________________________________________________________
dense_2_5_bn (BatchNormalizatio (None, 289, 6, 6)    1156        concatenate_17[0][0]             
__________________________________________________________________________________________________
activation_21 (Activation)      (None, 289, 6, 6)    0           dense_2_5_bn[0][0]               
__________________________________________________________________________________________________
dense_2_5_conv2D (Conv2D)       (None, 30, 6, 6)     78030       activation_21[0][0]              
__________________________________________________________________________________________________
dropout_18 (Dropout)            (None, 30, 6, 6)     0           dense_2_5_conv2D[0][0]           
__________________________________________________________________________________________________
concatenate_18 (Concatenate)    (None, 319, 6, 6)    0           concatenate_17[0][0]             
                                                                 dropout_18[0][0]                 
__________________________________________________________________________________________________
tr_2_bn (BatchNormalization)    (None, 319, 6, 6)    1276        concatenate_18[0][0]             
__________________________________________________________________________________________________
activation_22 (Activation)      (None, 319, 6, 6)    0           tr_2_bn[0][0]                    
__________________________________________________________________________________________________
tr_2_conv2D (Conv2D)            (None, 159, 6, 6)    50721       activation_22[0][0]              
__________________________________________________________________________________________________
average_pooling2d_3 (AveragePoo (None, 159, 3, 3)    0           tr_2_conv2D[0][0]                
__________________________________________________________________________________________________
dense_3_0_bn (BatchNormalizatio (None, 159, 3, 3)    636         average_pooling2d_3[0][0]        
__________________________________________________________________________________________________
activation_23 (Activation)      (None, 159, 3, 3)    0           dense_3_0_bn[0][0]               
__________________________________________________________________________________________________
dense_3_0_conv2D (Conv2D)       (None, 30, 3, 3)     42930       activation_23[0][0]              
__________________________________________________________________________________________________
dropout_19 (Dropout)            (None, 30, 3, 3)     0           dense_3_0_conv2D[0][0]           
__________________________________________________________________________________________________
concatenate_19 (Concatenate)    (None, 189, 3, 3)    0           average_pooling2d_3[0][0]        
                                                                 dropout_19[0][0]                 
__________________________________________________________________________________________________
dense_3_1_bn (BatchNormalizatio (None, 189, 3, 3)    756         concatenate_19[0][0]             
__________________________________________________________________________________________________
activation_24 (Activation)      (None, 189, 3, 3)    0           dense_3_1_bn[0][0]               
__________________________________________________________________________________________________
dense_3_1_conv2D (Conv2D)       (None, 30, 3, 3)     51030       activation_24[0][0]              
__________________________________________________________________________________________________
dropout_20 (Dropout)            (None, 30, 3, 3)     0           dense_3_1_conv2D[0][0]           
__________________________________________________________________________________________________
concatenate_20 (Concatenate)    (None, 219, 3, 3)    0           concatenate_19[0][0]             
                                                                 dropout_20[0][0]                 
__________________________________________________________________________________________________
dense_3_2_bn (BatchNormalizatio (None, 219, 3, 3)    876         concatenate_20[0][0]             
__________________________________________________________________________________________________
activation_25 (Activation)      (None, 219, 3, 3)    0           dense_3_2_bn[0][0]               
__________________________________________________________________________________________________
dense_3_2_conv2D (Conv2D)       (None, 30, 3, 3)     59130       activation_25[0][0]              
__________________________________________________________________________________________________
dropout_21 (Dropout)            (None, 30, 3, 3)     0           dense_3_2_conv2D[0][0]           
__________________________________________________________________________________________________
concatenate_21 (Concatenate)    (None, 249, 3, 3)    0           concatenate_20[0][0]             
                                                                 dropout_21[0][0]                 
__________________________________________________________________________________________________
dense_3_3_bn (BatchNormalizatio (None, 249, 3, 3)    996         concatenate_21[0][0]             
__________________________________________________________________________________________________
activation_26 (Activation)      (None, 249, 3, 3)    0           dense_3_3_bn[0][0]               
__________________________________________________________________________________________________
dense_3_3_conv2D (Conv2D)       (None, 30, 3, 3)     67230       activation_26[0][0]              
__________________________________________________________________________________________________
dropout_22 (Dropout)            (None, 30, 3, 3)     0           dense_3_3_conv2D[0][0]           
__________________________________________________________________________________________________
concatenate_22 (Concatenate)    (None, 279, 3, 3)    0           concatenate_21[0][0]             
                                                                 dropout_22[0][0]                 
__________________________________________________________________________________________________
dense_3_4_bn (BatchNormalizatio (None, 279, 3, 3)    1116        concatenate_22[0][0]             
__________________________________________________________________________________________________
activation_27 (Activation)      (None, 279, 3, 3)    0           dense_3_4_bn[0][0]               
__________________________________________________________________________________________________
dense_3_4_conv2D (Conv2D)       (None, 30, 3, 3)     75330       activation_27[0][0]              
__________________________________________________________________________________________________
dropout_23 (Dropout)            (None, 30, 3, 3)     0           dense_3_4_conv2D[0][0]           
__________________________________________________________________________________________________
concatenate_23 (Concatenate)    (None, 309, 3, 3)    0           concatenate_22[0][0]             
                                                                 dropout_23[0][0]                 
__________________________________________________________________________________________________
dense_3_5_bn (BatchNormalizatio (None, 309, 3, 3)    1236        concatenate_23[0][0]             
__________________________________________________________________________________________________
activation_28 (Activation)      (None, 309, 3, 3)    0           dense_3_5_bn[0][0]               
__________________________________________________________________________________________________
dense_3_5_conv2D (Conv2D)       (None, 30, 3, 3)     83430       activation_28[0][0]              
__________________________________________________________________________________________________
dropout_24 (Dropout)            (None, 30, 3, 3)     0           dense_3_5_conv2D[0][0]           
__________________________________________________________________________________________________
concatenate_24 (Concatenate)    (None, 339, 3, 3)    0           concatenate_23[0][0]             
                                                                 dropout_24[0][0]                 
__________________________________________________________________________________________________
final_bn (BatchNormalization)   (None, 339, 3, 3)    1356        concatenate_24[0][0]             
__________________________________________________________________________________________________
activation_29 (Activation)      (None, 339, 3, 3)    0           final_bn[0][0]                   
__________________________________________________________________________________________________
global_average_pooling2d_1 (Glo (None, 339)          0           activation_29[0][0]              
__________________________________________________________________________________________________
dense_1 (Dense)                 (None, 1)            340         global_average_pooling2d_1[0][0] 
==================================================================================================
Total params: 1,285,599
Trainable params: 1,274,759
Non-trainable params: 10,840
__________________________________________________________________________________________________
Finished compiling
Train on 39840 samples, validate on 7968 samples
Epoch 1/14
…
