…
7440/7440 [==============================] - 1s 146us/step
[0.2000599504158061, 0.7055107526881721]
val roc_auc_score 0.883
python densenet_siamese_best_run.py
python hyperas_densenet.py
python hyperas_densenet_siamese.py
python densenet_simple.py
python keras_densenet_siamese.py
__________________________________________________________________________________________________
Layer (type)                    Output Shape         Param #     Connected to                     
==================================================================================================
input_1 (InputLayer)            (None, 2, 96, 96)    0                                            
__________________________________________________________________________________________________
initial_conv2D (Conv2D)         (None, 18, 96, 96)   324         input_1[0][0]                    
__________________________________________________________________________________________________
dense_0_0_bn (BatchNormalizatio (None, 18, 96, 96)   72          initial_conv2D[0][0]             
__________________________________________________________________________________________________
activation_1 (Activation)       (None, 18, 96, 96)   0           dense_0_0_bn[0][0]               
__________________________________________________________________________________________________
dense_0_0_bottleneck_conv2D (Co (None, 48, 96, 96)   864         activation_1[0][0]               
__________________________________________________________________________________________________
dense_0_0_bottleneck_bn (BatchN (None, 48, 96, 96)   192         dense_0_0_bottleneck_conv2D[0][0]
__________________________________________________________________________________________________
activation_2 (Activation)       (None, 48, 96, 96)   0           dense_0_0_bottleneck_bn[0][0]    
__________________________________________________________________________________________________
dense_0_0_conv2D (Conv2D)       (None, 12, 96, 96)   5184        activation_2[0][0]               
__________________________________________________________________________________________________
concatenate_1 (Concatenate)     (None, 30, 96, 96)   0           initial_conv2D[0][0]             
                                                                 dense_0_0_conv2D[0][0]           
__________________________________________________________________________________________________
final_bn (BatchNormalization)   (None, 30, 96, 96)   120         concatenate_1[0][0]              
__________________________________________________________________________________________________
activation_3 (Activation)       (None, 30, 96, 96)   0           final_bn[0][0]                   
__________________________________________________________________________________________________
global_average_pooling2d_1 (Glo (None, 30)           0           activation_3[0][0]               
__________________________________________________________________________________________________
dense_1 (Dense)                 (None, 1)            31          global_average_pooling2d_1[0][0] 
==================================================================================================
Total params: 6,787
Trainable params: 6,595
Non-trainable params: 192
__________________________________________________________________________________________________
Train on 39840 samples, validate on 7440 samples
Epoch 1/20
 - 15s - loss: 0.5685 - acc: 0.7280 - val_loss: 0.5495 - val_acc: 0.8078
…
