…
  54:     score, acc = model.evaluate(X_val, y_val)
  55:     print('Best saved model Test accuracy:', acc)
  56:     pred = model.predict(X_val)
  57:     auc_score = roc_auc_score(y_val,pred)
  58:     print("best saved model auc_score ------------------> ",auc_score)
  59: 
  60:     
  61:     return {'loss': -auc_score, 'status': STATUS_OK, 'model': model}  
  62: 
_________________________________________________________________
Layer (type)                 Output Shape              Param #   
=================================================================
input_1 (InputLayer)         (None, 2, 96, 96)         0         
_________________________________________________________________
initial_conv2D (Conv2D)      (None, 16, 96, 96)        288       
_________________________________________________________________
tr_0_bn (BatchNormalization) (None, 16, 96, 96)        64        
_________________________________________________________________
activation_1 (Activation)    (None, 16, 96, 96)        0         
_________________________________________________________________
tr_0_conv2D (Conv2D)         (None, 8, 96, 96)         128       
_________________________________________________________________
average_pooling2d_1 (Average (None, 8, 48, 48)         0         
_________________________________________________________________
tr_1_bn (BatchNormalization) (None, 8, 48, 48)         32        
_________________________________________________________________
activation_2 (Activation)    (None, 8, 48, 48)         0         
_________________________________________________________________
tr_1_conv2D (Conv2D)         (None, 4, 48, 48)         32        
_________________________________________________________________
average_pooling2d_2 (Average (None, 4, 24, 24)         0         
_________________________________________________________________
final_bn (BatchNormalization (None, 4, 24, 24)         16        
_________________________________________________________________
activation_3 (Activation)    (None, 4, 24, 24)         0         
_________________________________________________________________
global_average_pooling2d_1 ( (None, 4)                 0         
_________________________________________________________________
dense_1 (Dense)              (None, 1)                 5         
=================================================================
Total params: 565
Trainable params: 509
Non-trainable params: 56
_________________________________________________________________
Train on 39840 samples, validate on 7440 samples
Epoch 1/30
 - 8s - loss: 0.6763 - acc: 0.6085 - val_loss: 0.6219 - val_acc: 0.7895

Epoch 00001: val_loss improved from inf to 0.62190, saving model to keras_densenet_simple_wt_28Sept_519am.h5
…
6176/7440 [=======================>......] - ETA: 0s
6848/7440 [==========================>...] - ETA: 0s
7440/7440 [==============================] - 1s 88us/step
Best saved model Test accuracy: 0.853763440860215
best saved model auc_score ------------------>  0.8752982281188576
__________________________________________________________________________________________________
Layer (type)                    Output Shape         Param #     Connected to                     
==================================================================================================
input_2 (InputLayer)            (None, 2, 96, 96)    0                                            
__________________________________________________________________________________________________
initial_conv2D (Conv2D)         (None, 16, 96, 96)   288         input_2[0][0]                    
__________________________________________________________________________________________________
dense_0_0_bn (BatchNormalizatio (None, 16, 96, 96)   64          initial_conv2D[0][0]             
__________________________________________________________________________________________________
activation_4 (Activation)       (None, 16, 96, 96)   0           dense_0_0_bn[0][0]               
__________________________________________________________________________________________________
dense_0_0_bottleneck_conv2D (Co (None, 56, 96, 96)   896         activation_4[0][0]               
__________________________________________________________________________________________________
dense_0_0_bottleneck_bn (BatchN (None, 56, 96, 96)   224         dense_0_0_bottleneck_conv2D[0][0]
__________________________________________________________________________________________________
activation_5 (Activation)       (None, 56, 96, 96)   0           dense_0_0_bottleneck_bn[0][0]    
__________________________________________________________________________________________________
dense_0_0_conv2D (Conv2D)       (None, 14, 96, 96)   7056        activation_5[0][0]               
__________________________________________________________________________________________________
concatenate_1 (Concatenate)     (None, 30, 96, 96)   0           initial_conv2D[0][0]             
                                                                 dense_0_0_conv2D[0][0]           
__________________________________________________________________________________________________
dense_0_1_bn (BatchNormalizatio (None, 30, 96, 96)   120         concatenate_1[0][0]              
__________________________________________________________________________________________________
activation_6 (Activation)       (None, 30, 96, 96)   0           dense_0_1_bn[0][0]               
__________________________________________________________________________________________________
dense_0_1_bottleneck_conv2D (Co (None, 56, 96, 96)   1680        activation_6[0][0]               
__________________________________________________________________________________________________
dense_0_1_bottleneck_bn (BatchN (None, 56, 96, 96)   224         dense_0_1_bottleneck_conv2D[0][0]
__________________________________________________________________________________________________
activation_7 (Activation)       (None, 56, 96, 96)   0           dense_0_1_bottleneck_bn[0][0]    
__________________________________________________________________________________________________
dense_0_1_conv2D (Conv2D)       (None, 14, 96, 96)   7056        activation_7[0][0]               
__________________________________________________________________________________________________
concatenate_2 (Concatenate)     (None, 44, 96, 96)   0           concatenate_1[0][0]              
                                                                 dense_0_1_conv2D[0][0]           
__________________________________________________________________________________________________
dense_0_2_bn (BatchNormalizatio (None, 44, 96, 96)   176         concatenate_2[0][0]              
__________________________________________________________________________________________________
activation_8 (Activation)       (None, 44, 96, 96)   0           dense_0_2_bn[0][0]               
__________________________________________________________________________________________________
dense_0_2_bottleneck_conv2D (Co (None, 56, 96, 96)   2464        activation_8[0][0]               
__________________________________________________________________________________________________
dense_0_2_bottleneck_bn (BatchN (None, 56, 96, 96)   224         dense_0_2_bottleneck_conv2D[0][0]
__________________________________________________________________________________________________
activation_9 (Activation)       (None, 56, 96, 96)   0           dense_0_2_bottleneck_bn[0][0]    
__________________________________________________________________________________________________
dense_0_2_conv2D (Conv2D)       (None, 14, 96, 96)   7056        activation_9[0][0]               
__________________________________________________________________________________________________
concatenate_3 (Concatenate)     (None, 58, 96, 96)   0           concatenate_2[0][0]              
                                                                 dense_0_2_conv2D[0][0]           
__________________________________________________________________________________________________
tr_0_bn (BatchNormalization)    (None, 58, 96, 96)   232         concatenate_3[0][0]              
__________________________________________________________________________________________________
activation_10 (Activation)      (None, 58, 96, 96)   0           tr_0_bn[0][0]                    
__________________________________________________________________________________________________
tr_0_conv2D (Conv2D)            (None, 29, 96, 96)   1682        activation_10[0][0]              
__________________________________________________________________________________________________
average_pooling2d_3 (AveragePoo (None, 29, 48, 48)   0           tr_0_conv2D[0][0]                
__________________________________________________________________________________________________
dense_1_0_bn (BatchNormalizatio (None, 29, 48, 48)   116         average_pooling2d_3[0][0]        
__________________________________________________________________________________________________
activation_11 (Activation)      (None, 29, 48, 48)   0           dense_1_0_bn[0][0]               
__________________________________________________________________________________________________
dense_1_0_bottleneck_conv2D (Co (None, 56, 48, 48)   1624        activation_11[0][0]              
__________________________________________________________________________________________________
dense_1_0_bottleneck_bn (BatchN (None, 56, 48, 48)   224         dense_1_0_bottleneck_conv2D[0][0]
__________________________________________________________________________________________________
activation_12 (Activation)      (None, 56, 48, 48)   0           dense_1_0_bottleneck_bn[0][0]    
__________________________________________________________________________________________________
dense_1_0_conv2D (Conv2D)       (None, 14, 48, 48)   7056        activation_12[0][0]              
__________________________________________________________________________________________________
concatenate_4 (Concatenate)     (None, 43, 48, 48)   0           average_pooling2d_3[0][0]        
                                                                 dense_1_0_conv2D[0][0]           
__________________________________________________________________________________________________
dense_1_1_bn (BatchNormalizatio (None, 43, 48, 48)   172         concatenate_4[0][0]              
__________________________________________________________________________________________________
activation_13 (Activation)      (None, 43, 48, 48)   0           dense_1_1_bn[0][0]               
__________________________________________________________________________________________________
dense_1_1_bottleneck_conv2D (Co (None, 56, 48, 48)   2408        activation_13[0][0]              
__________________________________________________________________________________________________
dense_1_1_bottleneck_bn (BatchN (None, 56, 48, 48)   224         dense_1_1_bottleneck_conv2D[0][0]
__________________________________________________________________________________________________
activation_14 (Activation)      (None, 56, 48, 48)   0           dense_1_1_bottleneck_bn[0][0]    
__________________________________________________________________________________________________
dense_1_1_conv2D (Conv2D)       (None, 14, 48, 48)   7056        activation_14[0][0]              
__________________________________________________________________________________________________
concatenate_5 (Concatenate)     (None, 57, 48, 48)   0           concatenate_4[0][0]              
                                                                 dense_1_1_conv2D[0][0]           
__________________________________________________________________________________________________
dense_1_2_bn (BatchNormalizatio (None, 57, 48, 48)   228         concatenate_5[0][0]              
__________________________________________________________________________________________________
activation_15 (Activation)      (None, 57, 48, 48)   0           dense_1_2_bn[0][0]               
__________________________________________________________________________________________________
dense_1_2_bottleneck_conv2D (Co (None, 56, 48, 48)   3192        activation_15[0][0]              
__________________________________________________________________________________________________
dense_1_2_bottleneck_bn (BatchN (None, 56, 48, 48)   224         dense_1_2_bottleneck_conv2D[0][0]
__________________________________________________________________________________________________
activation_16 (Activation)      (None, 56, 48, 48)   0           dense_1_2_bottleneck_bn[0][0]    
__________________________________________________________________________________________________
dense_1_2_conv2D (Conv2D)       (None, 14, 48, 48)   7056        activation_16[0][0]              
__________________________________________________________________________________________________
concatenate_6 (Concatenate)     (None, 71, 48, 48)   0           concatenate_5[0][0]              
                                                                 dense_1_2_conv2D[0][0]           
__________________________________________________________________________________________________
tr_1_bn (BatchNormalization)    (None, 71, 48, 48)   284         concatenate_6[0][0]              
__________________________________________________________________________________________________
activation_17 (Activation)      (None, 71, 48, 48)   0           tr_1_bn[0][0]                    
__________________________________________________________________________________________________
tr_1_conv2D (Conv2D)            (None, 35, 48, 48)   2485        activation_17[0][0]              
__________________________________________________________________________________________________
average_pooling2d_4 (AveragePoo (None, 35, 24, 24)   0           tr_1_conv2D[0][0]                
__________________________________________________________________________________________________
dense_2_0_bn (BatchNormalizatio (None, 35, 24, 24)   140         average_pooling2d_4[0][0]        
__________________________________________________________________________________________________
activation_18 (Activation)      (None, 35, 24, 24)   0           dense_2_0_bn[0][0]               
__________________________________________________________________________________________________
dense_2_0_bottleneck_conv2D (Co (None, 56, 24, 24)   1960        activation_18[0][0]              
__________________________________________________________________________________________________
dense_2_0_bottleneck_bn (BatchN (None, 56, 24, 24)   224         dense_2_0_bottleneck_conv2D[0][0]
__________________________________________________________________________________________________
activation_19 (Activation)      (None, 56, 24, 24)   0           dense_2_0_bottleneck_bn[0][0]    
__________________________________________________________________________________________________
dense_2_0_conv2D (Conv2D)       (None, 14, 24, 24)   7056        activation_19[0][0]              
__________________________________________________________________________________________________
concatenate_7 (Concatenate)     (None, 49, 24, 24)   0           average_pooling2d_4[0][0]        
                                                                 dense_2_0_conv2D[0][0]           
__________________________________________________________________________________________________
dense_2_1_bn (BatchNormalizatio (None, 49, 24, 24)   196         concatenate_7[0][0]              
__________________________________________________________________________________________________
activation_20 (Activation)      (None, 49, 24, 24)   0           dense_2_1_bn[0][0]               
__________________________________________________________________________________________________
dense_2_1_bottleneck_conv2D (Co (None, 56, 24, 24)   2744        activation_20[0][0]              
__________________________________________________________________________________________________
dense_2_1_bottleneck_bn (BatchN (None, 56, 24, 24)   224         dense_2_1_bottleneck_conv2D[0][0]
__________________________________________________________________________________________________
activation_21 (Activation)      (None, 56, 24, 24)   0           dense_2_1_bottleneck_bn[0][0]    
__________________________________________________________________________________________________
dense_2_1_conv2D (Conv2D)       (None, 14, 24, 24)   7056        activation_21[0][0]              
__________________________________________________________________________________________________
concatenate_8 (Concatenate)     (None, 63, 24, 24)   0           concatenate_7[0][0]              
                                                                 dense_2_1_conv2D[0][0]           
__________________________________________________________________________________________________
dense_2_2_bn (BatchNormalizatio (None, 63, 24, 24)   252         concatenate_8[0][0]              
__________________________________________________________________________________________________
activation_22 (Activation)      (None, 63, 24, 24)   0           dense_2_2_bn[0][0]               
__________________________________________________________________________________________________
dense_2_2_bottleneck_conv2D (Co (None, 56, 24, 24)   3528        activation_22[0][0]              
__________________________________________________________________________________________________
dense_2_2_bottleneck_bn (BatchN (None, 56, 24, 24)   224         dense_2_2_bottleneck_conv2D[0][0]
__________________________________________________________________________________________________
activation_23 (Activation)      (None, 56, 24, 24)   0           dense_2_2_bottleneck_bn[0][0]    
__________________________________________________________________________________________________
dense_2_2_conv2D (Conv2D)       (None, 14, 24, 24)   7056        activation_23[0][0]              
__________________________________________________________________________________________________
concatenate_9 (Concatenate)     (None, 77, 24, 24)   0           concatenate_8[0][0]              
                                                                 dense_2_2_conv2D[0][0]           
__________________________________________________________________________________________________
final_bn (BatchNormalization)   (None, 77, 24, 24)   308         concatenate_9[0][0]              
__________________________________________________________________________________________________
activation_24 (Activation)      (None, 77, 24, 24)   0           final_bn[0][0]                   
__________________________________________________________________________________________________
global_average_pooling2d_2 (Glo (None, 77)           0           activation_24[0][0]              
__________________________________________________________________________________________________
dense_2 (Dense)                 (None, 1)            78          global_average_pooling2d_2[0][0] 
==================================================================================================
Total params: 92,837
Trainable params: 90,685
Non-trainable params: 2,152
__________________________________________________________________________________________________
Train on 39840 samples, validate on 7440 samples
Epoch 1/30
 - 46s - loss: 0.5933 - acc: 0.7696 - val_loss: 0.5426 - val_acc: 0.8089
…
7232/7440 [============================>.] - ETA: 0s
7360/7440 [============================>.] - ETA: 0s
7440/7440 [==============================] - 3s 468us/step
Best saved model Test accuracy: 0.8331989247311828
best saved model auc_score ------------------>  0.9094721210544572
__________________________________________________________________________________________________
Layer (type)                    Output Shape         Param #     Connected to                     
==================================================================================================
input_3 (InputLayer)            (None, 2, 96, 96)    0                                            
__________________________________________________________________________________________________
initial_conv2D (Conv2D)         (None, 16, 96, 96)   288         input_3[0][0]                    
__________________________________________________________________________________________________
dense_0_0_bn (BatchNormalizatio (None, 16, 96, 96)   64          initial_conv2D[0][0]             
__________________________________________________________________________________________________
activation_25 (Activation)      (None, 16, 96, 96)   0           dense_0_0_bn[0][0]               
__________________________________________________________________________________________________
dense_0_0_bottleneck_conv2D (Co (None, 64, 96, 96)   1024        activation_25[0][0]              
__________________________________________________________________________________________________
dense_0_0_bottleneck_bn (BatchN (None, 64, 96, 96)   256         dense_0_0_bottleneck_conv2D[0][0]
__________________________________________________________________________________________________
activation_26 (Activation)      (None, 64, 96, 96)   0           dense_0_0_bottleneck_bn[0][0]    
__________________________________________________________________________________________________
dense_0_0_conv2D (Conv2D)       (None, 16, 96, 96)   9216        activation_26[0][0]              
__________________________________________________________________________________________________
concatenate_10 (Concatenate)    (None, 32, 96, 96)   0           initial_conv2D[0][0]             
                                                                 dense_0_0_conv2D[0][0]           
__________________________________________________________________________________________________
tr_0_bn (BatchNormalization)    (None, 32, 96, 96)   128         concatenate_10[0][0]             
__________________________________________________________________________________________________
activation_27 (Activation)      (None, 32, 96, 96)   0           tr_0_bn[0][0]                    
__________________________________________________________________________________________________
tr_0_conv2D (Conv2D)            (None, 16, 96, 96)   512         activation_27[0][0]              
__________________________________________________________________________________________________
average_pooling2d_5 (AveragePoo (None, 16, 48, 48)   0           tr_0_conv2D[0][0]                
__________________________________________________________________________________________________
dense_1_0_bn (BatchNormalizatio (None, 16, 48, 48)   64          average_pooling2d_5[0][0]        
__________________________________________________________________________________________________
activation_28 (Activation)      (None, 16, 48, 48)   0           dense_1_0_bn[0][0]               
__________________________________________________________________________________________________
dense_1_0_bottleneck_conv2D (Co (None, 64, 48, 48)   1024        activation_28[0][0]              
__________________________________________________________________________________________________
dense_1_0_bottleneck_bn (BatchN (None, 64, 48, 48)   256         dense_1_0_bottleneck_conv2D[0][0]
__________________________________________________________________________________________________
activation_29 (Activation)      (None, 64, 48, 48)   0           dense_1_0_bottleneck_bn[0][0]    
__________________________________________________________________________________________________
dense_1_0_conv2D (Conv2D)       (None, 16, 48, 48)   9216        activation_29[0][0]              
__________________________________________________________________________________________________
concatenate_11 (Concatenate)    (None, 32, 48, 48)   0           average_pooling2d_5[0][0]        
                                                                 dense_1_0_conv2D[0][0]           
__________________________________________________________________________________________________
tr_1_bn (BatchNormalization)    (None, 32, 48, 48)   128         concatenate_11[0][0]             
__________________________________________________________________________________________________
activation_30 (Activation)      (None, 32, 48, 48)   0           tr_1_bn[0][0]                    
__________________________________________________________________________________________________
tr_1_conv2D (Conv2D)            (None, 16, 48, 48)   512         activation_30[0][0]              
__________________________________________________________________________________________________
average_pooling2d_6 (AveragePoo (None, 16, 24, 24)   0           tr_1_conv2D[0][0]                
__________________________________________________________________________________________________
dense_2_0_bn (BatchNormalizatio (None, 16, 24, 24)   64          average_pooling2d_6[0][0]        
__________________________________________________________________________________________________
activation_31 (Activation)      (None, 16, 24, 24)   0           dense_2_0_bn[0][0]               
__________________________________________________________________________________________________
dense_2_0_bottleneck_conv2D (Co (None, 64, 24, 24)   1024        activation_31[0][0]              
__________________________________________________________________________________________________
dense_2_0_bottleneck_bn (BatchN (None, 64, 24, 24)   256         dense_2_0_bottleneck_conv2D[0][0]
__________________________________________________________________________________________________
activation_32 (Activation)      (None, 64, 24, 24)   0           dense_2_0_bottleneck_bn[0][0]    
__________________________________________________________________________________________________
dense_2_0_conv2D (Conv2D)       (None, 16, 24, 24)   9216        activation_32[0][0]              
__________________________________________________________________________________________________
concatenate_12 (Concatenate)    (None, 32, 24, 24)   0           average_pooling2d_6[0][0]        
                                                                 dense_2_0_conv2D[0][0]           
__________________________________________________________________________________________________
final_bn (BatchNormalization)   (None, 32, 24, 24)   128         concatenate_12[0][0]             
__________________________________________________________________________________________________
activation_33 (Activation)      (None, 32, 24, 24)   0           final_bn[0][0]                   
__________________________________________________________________________________________________
global_average_pooling2d_3 (Glo (None, 32)           0           activation_33[0][0]              
__________________________________________________________________________________________________
dense_3 (Dense)                 (None, 1)            33          global_average_pooling2d_3[0][0] 
==================================================================================================
Total params: 33,409
Trainable params: 32,737
Non-trainable params: 672
__________________________________________________________________________________________________
Train on 39840 samples, validate on 7440 samples
Epoch 1/30
 - 22s - loss: 0.5444 - acc: 0.7621 - val_loss: 0.4931 - val_acc: 0.7839
…
6624/7440 [=========================>....] - ETA: 0s
7232/7440 [============================>.] - ETA: 0s
7440/7440 [==============================] - 1s 150us/step
Best saved model Test accuracy: 0.8538978494623656
best saved model auc_score ------------------>  0.8753010463637415
__________________________________________________________________________________________________
Layer (type)                    Output Shape         Param #     Connected to                     
==================================================================================================
input_4 (InputLayer)            (None, 2, 96, 96)    0                                            
__________________________________________________________________________________________________
initial_conv2D (Conv2D)         (None, 16, 96, 96)   288         input_4[0][0]                    
__________________________________________________________________________________________________
dense_0_0_bn (BatchNormalizatio (None, 16, 96, 96)   64          initial_conv2D[0][0]             
__________________________________________________________________________________________________
activation_34 (Activation)      (None, 16, 96, 96)   0           dense_0_0_bn[0][0]               
__________________________________________________________________________________________________
dense_0_0_bottleneck_conv2D (Co (None, 64, 96, 96)   1024        activation_34[0][0]              
__________________________________________________________________________________________________
dense_0_0_bottleneck_bn (BatchN (None, 64, 96, 96)   256         dense_0_0_bottleneck_conv2D[0][0]
__________________________________________________________________________________________________
activation_35 (Activation)      (None, 64, 96, 96)   0           dense_0_0_bottleneck_bn[0][0]    
__________________________________________________________________________________________________
dense_0_0_conv2D (Conv2D)       (None, 16, 96, 96)   9216        activation_35[0][0]              
__________________________________________________________________________________________________
concatenate_13 (Concatenate)    (None, 32, 96, 96)   0           initial_conv2D[0][0]             
                                                                 dense_0_0_conv2D[0][0]           
__________________________________________________________________________________________________
dense_0_1_bn (BatchNormalizatio (None, 32, 96, 96)   128         concatenate_13[0][0]             
__________________________________________________________________________________________________
activation_36 (Activation)      (None, 32, 96, 96)   0           dense_0_1_bn[0][0]               
__________________________________________________________________________________________________
dense_0_1_bottleneck_conv2D (Co (None, 64, 96, 96)   2048        activation_36[0][0]              
__________________________________________________________________________________________________
dense_0_1_bottleneck_bn (BatchN (None, 64, 96, 96)   256         dense_0_1_bottleneck_conv2D[0][0]
__________________________________________________________________________________________________
activation_37 (Activation)      (None, 64, 96, 96)   0           dense_0_1_bottleneck_bn[0][0]    
__________________________________________________________________________________________________
dense_0_1_conv2D (Conv2D)       (None, 16, 96, 96)   9216        activation_37[0][0]              
__________________________________________________________________________________________________
concatenate_14 (Concatenate)    (None, 48, 96, 96)   0           concatenate_13[0][0]             
                                                                 dense_0_1_conv2D[0][0]           
__________________________________________________________________________________________________
dense_0_2_bn (BatchNormalizatio (None, 48, 96, 96)   192         concatenate_14[0][0]             
__________________________________________________________________________________________________
activation_38 (Activation)      (None, 48, 96, 96)   0           dense_0_2_bn[0][0]               
__________________________________________________________________________________________________
dense_0_2_bottleneck_conv2D (Co (None, 64, 96, 96)   3072        activation_38[0][0]              
__________________________________________________________________________________________________
dense_0_2_bottleneck_bn (BatchN (None, 64, 96, 96)   256         dense_0_2_bottleneck_conv2D[0][0]
__________________________________________________________________________________________________
activation_39 (Activation)      (None, 64, 96, 96)   0           dense_0_2_bottleneck_bn[0][0]    
__________________________________________________________________________________________________
dense_0_2_conv2D (Conv2D)       (None, 16, 96, 96)   9216        activation_39[0][0]              
__________________________________________________________________________________________________
concatenate_15 (Concatenate)    (None, 64, 96, 96)   0           concatenate_14[0][0]             
                                                                 dense_0_2_conv2D[0][0]           
__________________________________________________________________________________________________
tr_0_bn (BatchNormalization)    (None, 64, 96, 96)   256         concatenate_15[0][0]             
__________________________________________________________________________________________________
activation_40 (Activation)      (None, 64, 96, 96)   0           tr_0_bn[0][0]                    
__________________________________________________________________________________________________
tr_0_conv2D (Conv2D)            (None, 32, 96, 96)   2048        activation_40[0][0]              
__________________________________________________________________________________________________
average_pooling2d_7 (AveragePoo (None, 32, 48, 48)   0           tr_0_conv2D[0][0]                
__________________________________________________________________________________________________
dense_1_0_bn (BatchNormalizatio (None, 32, 48, 48)   128         average_pooling2d_7[0][0]        
__________________________________________________________________________________________________
activation_41 (Activation)      (None, 32, 48, 48)   0           dense_1_0_bn[0][0]               
__________________________________________________________________________________________________
dense_1_0_bottleneck_conv2D (Co (None, 64, 48, 48)   2048        activation_41[0][0]              
__________________________________________________________________________________________________
dense_1_0_bottleneck_bn (BatchN (None, 64, 48, 48)   256         dense_1_0_bottleneck_conv2D[0][0]
__________________________________________________________________________________________________
activation_42 (Activation)      (None, 64, 48, 48)   0           dense_1_0_bottleneck_bn[0][0]    
__________________________________________________________________________________________________
dense_1_0_conv2D (Conv2D)       (None, 16, 48, 48)   9216        activation_42[0][0]              
__________________________________________________________________________________________________
concatenate_16 (Concatenate)    (None, 48, 48, 48)   0           average_pooling2d_7[0][0]        
                                                                 dense_1_0_conv2D[0][0]           
__________________________________________________________________________________________________
dense_1_1_bn (BatchNormalizatio (None, 48, 48, 48)   192         concatenate_16[0][0]             
__________________________________________________________________________________________________
activation_43 (Activation)      (None, 48, 48, 48)   0           dense_1_1_bn[0][0]               
__________________________________________________________________________________________________
dense_1_1_bottleneck_conv2D (Co (None, 64, 48, 48)   3072        activation_43[0][0]              
__________________________________________________________________________________________________
dense_1_1_bottleneck_bn (BatchN (None, 64, 48, 48)   256         dense_1_1_bottleneck_conv2D[0][0]
__________________________________________________________________________________________________
activation_44 (Activation)      (None, 64, 48, 48)   0           dense_1_1_bottleneck_bn[0][0]    
__________________________________________________________________________________________________
dense_1_1_conv2D (Conv2D)       (None, 16, 48, 48)   9216        activation_44[0][0]              
__________________________________________________________________________________________________
concatenate_17 (Concatenate)    (None, 64, 48, 48)   0           concatenate_16[0][0]             
                                                                 dense_1_1_conv2D[0][0]           
__________________________________________________________________________________________________
dense_1_2_bn (BatchNormalizatio (None, 64, 48, 48)   256         concatenate_17[0][0]             
__________________________________________________________________________________________________
activation_45 (Activation)      (None, 64, 48, 48)   0           dense_1_2_bn[0][0]               
__________________________________________________________________________________________________
dense_1_2_bottleneck_conv2D (Co (None, 64, 48, 48)   4096        activation_45[0][0]              
__________________________________________________________________________________________________
dense_1_2_bottleneck_bn (BatchN (None, 64, 48, 48)   256         dense_1_2_bottleneck_conv2D[0][0]
__________________________________________________________________________________________________
activation_46 (Activation)      (None, 64, 48, 48)   0           dense_1_2_bottleneck_bn[0][0]    
__________________________________________________________________________________________________
dense_1_2_conv2D (Conv2D)       (None, 16, 48, 48)   9216        activation_46[0][0]              
__________________________________________________________________________________________________
concatenate_18 (Concatenate)    (None, 80, 48, 48)   0           concatenate_17[0][0]             
                                                                 dense_1_2_conv2D[0][0]           
__________________________________________________________________________________________________
tr_1_bn (BatchNormalization)    (None, 80, 48, 48)   320         concatenate_18[0][0]             
__________________________________________________________________________________________________
activation_47 (Activation)      (None, 80, 48, 48)   0           tr_1_bn[0][0]                    
__________________________________________________________________________________________________
tr_1_conv2D (Conv2D)            (None, 40, 48, 48)   3200        activation_47[0][0]              
__________________________________________________________________________________________________
average_pooling2d_8 (AveragePoo (None, 40, 24, 24)   0           tr_1_conv2D[0][0]                
__________________________________________________________________________________________________
dense_2_0_bn (BatchNormalizatio (None, 40, 24, 24)   160         average_pooling2d_8[0][0]        
__________________________________________________________________________________________________
activation_48 (Activation)      (None, 40, 24, 24)   0           dense_2_0_bn[0][0]               
__________________________________________________________________________________________________
dense_2_0_bottleneck_conv2D (Co (None, 64, 24, 24)   2560        activation_48[0][0]              
__________________________________________________________________________________________________
dense_2_0_bottleneck_bn (BatchN (None, 64, 24, 24)   256         dense_2_0_bottleneck_conv2D[0][0]
__________________________________________________________________________________________________
activation_49 (Activation)      (None, 64, 24, 24)   0           dense_2_0_bottleneck_bn[0][0]    
__________________________________________________________________________________________________
dense_2_0_conv2D (Conv2D)       (None, 16, 24, 24)   9216        activation_49[0][0]              
__________________________________________________________________________________________________
concatenate_19 (Concatenate)    (None, 56, 24, 24)   0           average_pooling2d_8[0][0]        
                                                                 dense_2_0_conv2D[0][0]           
__________________________________________________________________________________________________
dense_2_1_bn (BatchNormalizatio (None, 56, 24, 24)   224         concatenate_19[0][0]             
__________________________________________________________________________________________________
activation_50 (Activation)      (None, 56, 24, 24)   0           dense_2_1_bn[0][0]               
__________________________________________________________________________________________________
dense_2_1_bottleneck_conv2D (Co (None, 64, 24, 24)   3584        activation_50[0][0]              
__________________________________________________________________________________________________
dense_2_1_bottleneck_bn (BatchN (None, 64, 24, 24)   256         dense_2_1_bottleneck_conv2D[0][0]
__________________________________________________________________________________________________
activation_51 (Activation)      (None, 64, 24, 24)   0           dense_2_1_bottleneck_bn[0][0]    
__________________________________________________________________________________________________
dense_2_1_conv2D (Conv2D)       (None, 16, 24, 24)   9216        activation_51[0][0]              
__________________________________________________________________________________________________
concatenate_20 (Concatenate)    (None, 72, 24, 24)   0           concatenate_19[0][0]             
                                                                 dense_2_1_conv2D[0][0]           
__________________________________________________________________________________________________
dense_2_2_bn (BatchNormalizatio (None, 72, 24, 24)   288         concatenate_20[0][0]             
__________________________________________________________________________________________________
activation_52 (Activation)      (None, 72, 24, 24)   0           dense_2_2_bn[0][0]               
__________________________________________________________________________________________________
dense_2_2_bottleneck_conv2D (Co (None, 64, 24, 24)   4608        activation_52[0][0]              
__________________________________________________________________________________________________
dense_2_2_bottleneck_bn (BatchN (None, 64, 24, 24)   256         dense_2_2_bottleneck_conv2D[0][0]
__________________________________________________________________________________________________
activation_53 (Activation)      (None, 64, 24, 24)   0           dense_2_2_bottleneck_bn[0][0]    
__________________________________________________________________________________________________
dense_2_2_conv2D (Conv2D)       (None, 16, 24, 24)   9216        activation_53[0][0]              
__________________________________________________________________________________________________
concatenate_21 (Concatenate)    (None, 88, 24, 24)   0           concatenate_20[0][0]             
                                                                 dense_2_2_conv2D[0][0]           
__________________________________________________________________________________________________
final_bn (BatchNormalization)   (None, 88, 24, 24)   352         concatenate_21[0][0]             
__________________________________________________________________________________________________
activation_54 (Activation)      (None, 88, 24, 24)   0           final_bn[0][0]                   
__________________________________________________________________________________________________
global_average_pooling2d_4 (Glo (None, 88)           0           activation_54[0][0]              
__________________________________________________________________________________________________
dense_4 (Dense)                 (None, 1)            89          global_average_pooling2d_4[0][0] 
==================================================================================================
Total params: 119,545
Trainable params: 117,113
Non-trainable params: 2,432
__________________________________________________________________________________________________
Train on 39840 samples, validate on 7440 samples
Epoch 1/30
 - 51s - loss: 0.6041 - acc: 0.7660 - val_loss: 0.6228 - val_acc: 0.7996
…
7200/7440 [============================>.] - ETA: 0s
7328/7440 [============================>.] - ETA: 0s
7440/7440 [==============================] - 4s 575us/step
Best saved model Test accuracy: 0.8245967741935484
best saved model auc_score ------------------>  0.9195556205919759
__________________________________________________________________________________________________
Layer (type)                    Output Shape         Param #     Connected to                     
==================================================================================================
input_5 (InputLayer)            (None, 2, 96, 96)    0                                            
__________________________________________________________________________________________________
initial_conv2D (Conv2D)         (None, 16, 96, 96)   288         input_5[0][0]                    
__________________________________________________________________________________________________
dense_0_0_bn (BatchNormalizatio (None, 16, 96, 96)   64          initial_conv2D[0][0]             
__________________________________________________________________________________________________
activation_55 (Activation)      (None, 16, 96, 96)   0           dense_0_0_bn[0][0]               
__________________________________________________________________________________________________
dense_0_0_bottleneck_conv2D (Co (None, 48, 96, 96)   768         activation_55[0][0]              
__________________________________________________________________________________________________
dense_0_0_bottleneck_bn (BatchN (None, 48, 96, 96)   192         dense_0_0_bottleneck_conv2D[0][0]
__________________________________________________________________________________________________
activation_56 (Activation)      (None, 48, 96, 96)   0           dense_0_0_bottleneck_bn[0][0]    
__________________________________________________________________________________________________
dense_0_0_conv2D (Conv2D)       (None, 12, 96, 96)   5184        activation_56[0][0]              
__________________________________________________________________________________________________
concatenate_22 (Concatenate)    (None, 28, 96, 96)   0           initial_conv2D[0][0]             
                                                                 dense_0_0_conv2D[0][0]           
__________________________________________________________________________________________________
dense_0_1_bn (BatchNormalizatio (None, 28, 96, 96)   112         concatenate_22[0][0]             
__________________________________________________________________________________________________
activation_57 (Activation)      (None, 28, 96, 96)   0           dense_0_1_bn[0][0]               
__________________________________________________________________________________________________
dense_0_1_bottleneck_conv2D (Co (None, 48, 96, 96)   1344        activation_57[0][0]              
__________________________________________________________________________________________________
dense_0_1_bottleneck_bn (BatchN (None, 48, 96, 96)   192         dense_0_1_bottleneck_conv2D[0][0]
__________________________________________________________________________________________________
activation_58 (Activation)      (None, 48, 96, 96)   0           dense_0_1_bottleneck_bn[0][0]    
__________________________________________________________________________________________________
dense_0_1_conv2D (Conv2D)       (None, 12, 96, 96)   5184        activation_58[0][0]              
__________________________________________________________________________________________________
concatenate_23 (Concatenate)    (None, 40, 96, 96)   0           concatenate_22[0][0]             
                                                                 dense_0_1_conv2D[0][0]           
__________________________________________________________________________________________________
dense_0_2_bn (BatchNormalizatio (None, 40, 96, 96)   160         concatenate_23[0][0]             
__________________________________________________________________________________________________
activation_59 (Activation)      (None, 40, 96, 96)   0           dense_0_2_bn[0][0]               
__________________________________________________________________________________________________
dense_0_2_bottleneck_conv2D (Co (None, 48, 96, 96)   1920        activation_59[0][0]              
__________________________________________________________________________________________________
dense_0_2_bottleneck_bn (BatchN (None, 48, 96, 96)   192         dense_0_2_bottleneck_conv2D[0][0]
__________________________________________________________________________________________________
activation_60 (Activation)      (None, 48, 96, 96)   0           dense_0_2_bottleneck_bn[0][0]    
__________________________________________________________________________________________________
dense_0_2_conv2D (Conv2D)       (None, 12, 96, 96)   5184        activation_60[0][0]              
__________________________________________________________________________________________________
concatenate_24 (Concatenate)    (None, 52, 96, 96)   0           concatenate_23[0][0]             
                                                                 dense_0_2_conv2D[0][0]           
__________________________________________________________________________________________________
dense_0_3_bn (BatchNormalizatio (None, 52, 96, 96)   208         concatenate_24[0][0]             
__________________________________________________________________________________________________
activation_61 (Activation)      (None, 52, 96, 96)   0           dense_0_3_bn[0][0]               
__________________________________________________________________________________________________
dense_0_3_bottleneck_conv2D (Co (None, 48, 96, 96)   2496        activation_61[0][0]              
__________________________________________________________________________________________________
dense_0_3_bottleneck_bn (BatchN (None, 48, 96, 96)   192         dense_0_3_bottleneck_conv2D[0][0]
__________________________________________________________________________________________________
activation_62 (Activation)      (None, 48, 96, 96)   0           dense_0_3_bottleneck_bn[0][0]    
__________________________________________________________________________________________________
dense_0_3_conv2D (Conv2D)       (None, 12, 96, 96)   5184        activation_62[0][0]              
__________________________________________________________________________________________________
concatenate_25 (Concatenate)    (None, 64, 96, 96)   0           concatenate_24[0][0]             
                                                                 dense_0_3_conv2D[0][0]           
__________________________________________________________________________________________________
dense_0_4_bn (BatchNormalizatio (None, 64, 96, 96)   256         concatenate_25[0][0]             
__________________________________________________________________________________________________
activation_63 (Activation)      (None, 64, 96, 96)   0           dense_0_4_bn[0][0]               
__________________________________________________________________________________________________
dense_0_4_bottleneck_conv2D (Co (None, 48, 96, 96)   3072        activation_63[0][0]              
__________________________________________________________________________________________________
dense_0_4_bottleneck_bn (BatchN (None, 48, 96, 96)   192         dense_0_4_bottleneck_conv2D[0][0]
__________________________________________________________________________________________________
activation_64 (Activation)      (None, 48, 96, 96)   0           dense_0_4_bottleneck_bn[0][0]    
__________________________________________________________________________________________________
dense_0_4_conv2D (Conv2D)       (None, 12, 96, 96)   5184        activation_64[0][0]              
__________________________________________________________________________________________________
concatenate_26 (Concatenate)    (None, 76, 96, 96)   0           concatenate_25[0][0]             
                                                                 dense_0_4_conv2D[0][0]           
__________________________________________________________________________________________________
dense_0_5_bn (BatchNormalizatio (None, 76, 96, 96)   304         concatenate_26[0][0]             
__________________________________________________________________________________________________
activation_65 (Activation)      (None, 76, 96, 96)   0           dense_0_5_bn[0][0]               
__________________________________________________________________________________________________
dense_0_5_bottleneck_conv2D (Co (None, 48, 96, 96)   3648        activation_65[0][0]              
__________________________________________________________________________________________________
dense_0_5_bottleneck_bn (BatchN (None, 48, 96, 96)   192         dense_0_5_bottleneck_conv2D[0][0]
__________________________________________________________________________________________________
activation_66 (Activation)      (None, 48, 96, 96)   0           dense_0_5_bottleneck_bn[0][0]    
__________________________________________________________________________________________________
dense_0_5_conv2D (Conv2D)       (None, 12, 96, 96)   5184        activation_66[0][0]              
__________________________________________________________________________________________________
concatenate_27 (Concatenate)    (None, 88, 96, 96)   0           concatenate_26[0][0]             
                                                                 dense_0_5_conv2D[0][0]           
__________________________________________________________________________________________________
tr_0_bn (BatchNormalization)    (None, 88, 96, 96)   352         concatenate_27[0][0]             
__________________________________________________________________________________________________
activation_67 (Activation)      (None, 88, 96, 96)   0           tr_0_bn[0][0]                    
__________________________________________________________________________________________________
tr_0_conv2D (Conv2D)            (None, 44, 96, 96)   3872        activation_67[0][0]              
__________________________________________________________________________________________________
average_pooling2d_9 (AveragePoo (None, 44, 48, 48)   0           tr_0_conv2D[0][0]                
__________________________________________________________________________________________________
dense_1_0_bn (BatchNormalizatio (None, 44, 48, 48)   176         average_pooling2d_9[0][0]        
__________________________________________________________________________________________________
activation_68 (Activation)      (None, 44, 48, 48)   0           dense_1_0_bn[0][0]               
__________________________________________________________________________________________________
dense_1_0_bottleneck_conv2D (Co (None, 48, 48, 48)   2112        activation_68[0][0]              
__________________________________________________________________________________________________
dense_1_0_bottleneck_bn (BatchN (None, 48, 48, 48)   192         dense_1_0_bottleneck_conv2D[0][0]
__________________________________________________________________________________________________
activation_69 (Activation)      (None, 48, 48, 48)   0           dense_1_0_bottleneck_bn[0][0]    
__________________________________________________________________________________________________
dense_1_0_conv2D (Conv2D)       (None, 12, 48, 48)   5184        activation_69[0][0]              
__________________________________________________________________________________________________
concatenate_28 (Concatenate)    (None, 56, 48, 48)   0           average_pooling2d_9[0][0]        
                                                                 dense_1_0_conv2D[0][0]           
__________________________________________________________________________________________________
dense_1_1_bn (BatchNormalizatio (None, 56, 48, 48)   224         concatenate_28[0][0]             
__________________________________________________________________________________________________
activation_70 (Activation)      (None, 56, 48, 48)   0           dense_1_1_bn[0][0]               
__________________________________________________________________________________________________
dense_1_1_bottleneck_conv2D (Co (None, 48, 48, 48)   2688        activation_70[0][0]              
__________________________________________________________________________________________________
dense_1_1_bottleneck_bn (BatchN (None, 48, 48, 48)   192         dense_1_1_bottleneck_conv2D[0][0]
__________________________________________________________________________________________________
activation_71 (Activation)      (None, 48, 48, 48)   0           dense_1_1_bottleneck_bn[0][0]    
__________________________________________________________________________________________________
dense_1_1_conv2D (Conv2D)       (None, 12, 48, 48)   5184        activation_71[0][0]              
__________________________________________________________________________________________________
concatenate_29 (Concatenate)    (None, 68, 48, 48)   0           concatenate_28[0][0]             
                                                                 dense_1_1_conv2D[0][0]           
__________________________________________________________________________________________________
dense_1_2_bn (BatchNormalizatio (None, 68, 48, 48)   272         concatenate_29[0][0]             
__________________________________________________________________________________________________
activation_72 (Activation)      (None, 68, 48, 48)   0           dense_1_2_bn[0][0]               
__________________________________________________________________________________________________
dense_1_2_bottleneck_conv2D (Co (None, 48, 48, 48)   3264        activation_72[0][0]              
__________________________________________________________________________________________________
dense_1_2_bottleneck_bn (BatchN (None, 48, 48, 48)   192         dense_1_2_bottleneck_conv2D[0][0]
__________________________________________________________________________________________________
activation_73 (Activation)      (None, 48, 48, 48)   0           dense_1_2_bottleneck_bn[0][0]    
__________________________________________________________________________________________________
dense_1_2_conv2D (Conv2D)       (None, 12, 48, 48)   5184        activation_73[0][0]              
__________________________________________________________________________________________________
concatenate_30 (Concatenate)    (None, 80, 48, 48)   0           concatenate_29[0][0]             
                                                                 dense_1_2_conv2D[0][0]           
__________________________________________________________________________________________________
dense_1_3_bn (BatchNormalizatio (None, 80, 48, 48)   320         concatenate_30[0][0]             
__________________________________________________________________________________________________
activation_74 (Activation)      (None, 80, 48, 48)   0           dense_1_3_bn[0][0]               
__________________________________________________________________________________________________
dense_1_3_bottleneck_conv2D (Co (None, 48, 48, 48)   3840        activation_74[0][0]              
__________________________________________________________________________________________________
dense_1_3_bottleneck_bn (BatchN (None, 48, 48, 48)   192         dense_1_3_bottleneck_conv2D[0][0]
__________________________________________________________________________________________________
activation_75 (Activation)      (None, 48, 48, 48)   0           dense_1_3_bottleneck_bn[0][0]    
__________________________________________________________________________________________________
dense_1_3_conv2D (Conv2D)       (None, 12, 48, 48)   5184        activation_75[0][0]              
__________________________________________________________________________________________________
concatenate_31 (Concatenate)    (None, 92, 48, 48)   0           concatenate_30[0][0]             
                                                                 dense_1_3_conv2D[0][0]           
__________________________________________________________________________________________________
dense_1_4_bn (BatchNormalizatio (None, 92, 48, 48)   368         concatenate_31[0][0]             
__________________________________________________________________________________________________
activation_76 (Activation)      (None, 92, 48, 48)   0           dense_1_4_bn[0][0]               
__________________________________________________________________________________________________
dense_1_4_bottleneck_conv2D (Co (None, 48, 48, 48)   4416        activation_76[0][0]              
__________________________________________________________________________________________________
dense_1_4_bottleneck_bn (BatchN (None, 48, 48, 48)   192         dense_1_4_bottleneck_conv2D[0][0]
__________________________________________________________________________________________________
activation_77 (Activation)      (None, 48, 48, 48)   0           dense_1_4_bottleneck_bn[0][0]    
__________________________________________________________________________________________________
dense_1_4_conv2D (Conv2D)       (None, 12, 48, 48)   5184        activation_77[0][0]              
__________________________________________________________________________________________________
concatenate_32 (Concatenate)    (None, 104, 48, 48)  0           concatenate_31[0][0]             
                                                                 dense_1_4_conv2D[0][0]           
__________________________________________________________________________________________________
dense_1_5_bn (BatchNormalizatio (None, 104, 48, 48)  416         concatenate_32[0][0]             
__________________________________________________________________________________________________
activation_78 (Activation)      (None, 104, 48, 48)  0           dense_1_5_bn[0][0]               
__________________________________________________________________________________________________
dense_1_5_bottleneck_conv2D (Co (None, 48, 48, 48)   4992        activation_78[0][0]              
__________________________________________________________________________________________________
dense_1_5_bottleneck_bn (BatchN (None, 48, 48, 48)   192         dense_1_5_bottleneck_conv2D[0][0]
__________________________________________________________________________________________________
activation_79 (Activation)      (None, 48, 48, 48)   0           dense_1_5_bottleneck_bn[0][0]    
__________________________________________________________________________________________________
dense_1_5_conv2D (Conv2D)       (None, 12, 48, 48)   5184        activation_79[0][0]              
__________________________________________________________________________________________________
concatenate_33 (Concatenate)    (None, 116, 48, 48)  0           concatenate_32[0][0]             
                                                                 dense_1_5_conv2D[0][0]           
__________________________________________________________________________________________________
tr_1_bn (BatchNormalization)    (None, 116, 48, 48)  464         concatenate_33[0][0]             
__________________________________________________________________________________________________
activation_80 (Activation)      (None, 116, 48, 48)  0           tr_1_bn[0][0]                    
__________________________________________________________________________________________________
tr_1_conv2D (Conv2D)            (None, 58, 48, 48)   6728        activation_80[0][0]              
__________________________________________________________________________________________________
average_pooling2d_10 (AveragePo (None, 58, 24, 24)   0           tr_1_conv2D[0][0]                
__________________________________________________________________________________________________
dense_2_0_bn (BatchNormalizatio (None, 58, 24, 24)   232         average_pooling2d_10[0][0]       
__________________________________________________________________________________________________
activation_81 (Activation)      (None, 58, 24, 24)   0           dense_2_0_bn[0][0]               
__________________________________________________________________________________________________
dense_2_0_bottleneck_conv2D (Co (None, 48, 24, 24)   2784        activation_81[0][0]              
__________________________________________________________________________________________________
dense_2_0_bottleneck_bn (BatchN (None, 48, 24, 24)   192         dense_2_0_bottleneck_conv2D[0][0]
__________________________________________________________________________________________________
activation_82 (Activation)      (None, 48, 24, 24)   0           dense_2_0_bottleneck_bn[0][0]    
__________________________________________________________________________________________________
dense_2_0_conv2D (Conv2D)       (None, 12, 24, 24)   5184        activation_82[0][0]              
__________________________________________________________________________________________________
concatenate_34 (Concatenate)    (None, 70, 24, 24)   0           average_pooling2d_10[0][0]       
                                                                 dense_2_0_conv2D[0][0]           
__________________________________________________________________________________________________
dense_2_1_bn (BatchNormalizatio (None, 70, 24, 24)   280         concatenate_34[0][0]             
__________________________________________________________________________________________________
activation_83 (Activation)      (None, 70, 24, 24)   0           dense_2_1_bn[0][0]               
__________________________________________________________________________________________________
dense_2_1_bottleneck_conv2D (Co (None, 48, 24, 24)   3360        activation_83[0][0]              
__________________________________________________________________________________________________
dense_2_1_bottleneck_bn (BatchN (None, 48, 24, 24)   192         dense_2_1_bottleneck_conv2D[0][0]
__________________________________________________________________________________________________
activation_84 (Activation)      (None, 48, 24, 24)   0           dense_2_1_bottleneck_bn[0][0]    
__________________________________________________________________________________________________
dense_2_1_conv2D (Conv2D)       (None, 12, 24, 24)   5184        activation_84[0][0]              
__________________________________________________________________________________________________
concatenate_35 (Concatenate)    (None, 82, 24, 24)   0           concatenate_34[0][0]             
                                                                 dense_2_1_conv2D[0][0]           
__________________________________________________________________________________________________
dense_2_2_bn (BatchNormalizatio (None, 82, 24, 24)   328         concatenate_35[0][0]             
__________________________________________________________________________________________________
activation_85 (Activation)      (None, 82, 24, 24)   0           dense_2_2_bn[0][0]               
__________________________________________________________________________________________________
dense_2_2_bottleneck_conv2D (Co (None, 48, 24, 24)   3936        activation_85[0][0]              
__________________________________________________________________________________________________
dense_2_2_bottleneck_bn (BatchN (None, 48, 24, 24)   192         dense_2_2_bottleneck_conv2D[0][0]
__________________________________________________________________________________________________
activation_86 (Activation)      (None, 48, 24, 24)   0           dense_2_2_bottleneck_bn[0][0]    
__________________________________________________________________________________________________
dense_2_2_conv2D (Conv2D)       (None, 12, 24, 24)   5184        activation_86[0][0]              
__________________________________________________________________________________________________
concatenate_36 (Concatenate)    (None, 94, 24, 24)   0           concatenate_35[0][0]             
                                                                 dense_2_2_conv2D[0][0]           
__________________________________________________________________________________________________
dense_2_3_bn (BatchNormalizatio (None, 94, 24, 24)   376         concatenate_36[0][0]             
__________________________________________________________________________________________________
activation_87 (Activation)      (None, 94, 24, 24)   0           dense_2_3_bn[0][0]               
__________________________________________________________________________________________________
dense_2_3_bottleneck_conv2D (Co (None, 48, 24, 24)   4512        activation_87[0][0]              
__________________________________________________________________________________________________
dense_2_3_bottleneck_bn (BatchN (None, 48, 24, 24)   192         dense_2_3_bottleneck_conv2D[0][0]
__________________________________________________________________________________________________
activation_88 (Activation)      (None, 48, 24, 24)   0           dense_2_3_bottleneck_bn[0][0]    
__________________________________________________________________________________________________
dense_2_3_conv2D (Conv2D)       (None, 12, 24, 24)   5184        activation_88[0][0]              
__________________________________________________________________________________________________
concatenate_37 (Concatenate)    (None, 106, 24, 24)  0           concatenate_36[0][0]             
                                                                 dense_2_3_conv2D[0][0]           
__________________________________________________________________________________________________
dense_2_4_bn (BatchNormalizatio (None, 106, 24, 24)  424         concatenate_37[0][0]             
__________________________________________________________________________________________________
activation_89 (Activation)      (None, 106, 24, 24)  0           dense_2_4_bn[0][0]               
__________________________________________________________________________________________________
dense_2_4_bottleneck_conv2D (Co (None, 48, 24, 24)   5088        activation_89[0][0]              
__________________________________________________________________________________________________
dense_2_4_bottleneck_bn (BatchN (None, 48, 24, 24)   192         dense_2_4_bottleneck_conv2D[0][0]
__________________________________________________________________________________________________
activation_90 (Activation)      (None, 48, 24, 24)   0           dense_2_4_bottleneck_bn[0][0]    
__________________________________________________________________________________________________
dense_2_4_conv2D (Conv2D)       (None, 12, 24, 24)   5184        activation_90[0][0]              
__________________________________________________________________________________________________
concatenate_38 (Concatenate)    (None, 118, 24, 24)  0           concatenate_37[0][0]             
                                                                 dense_2_4_conv2D[0][0]           
__________________________________________________________________________________________________
dense_2_5_bn (BatchNormalizatio (None, 118, 24, 24)  472         concatenate_38[0][0]             
__________________________________________________________________________________________________
activation_91 (Activation)      (None, 118, 24, 24)  0           dense_2_5_bn[0][0]               
__________________________________________________________________________________________________
dense_2_5_bottleneck_conv2D (Co (None, 48, 24, 24)   5664        activation_91[0][0]              
__________________________________________________________________________________________________
dense_2_5_bottleneck_bn (BatchN (None, 48, 24, 24)   192         dense_2_5_bottleneck_conv2D[0][0]
__________________________________________________________________________________________________
activation_92 (Activation)      (None, 48, 24, 24)   0           dense_2_5_bottleneck_bn[0][0]    
__________________________________________________________________________________________________
dense_2_5_conv2D (Conv2D)       (None, 12, 24, 24)   5184        activation_92[0][0]              
__________________________________________________________________________________________________
concatenate_39 (Concatenate)    (None, 130, 24, 24)  0           concatenate_38[0][0]             
                                                                 dense_2_5_conv2D[0][0]           
__________________________________________________________________________________________________
final_bn (BatchNormalization)   (None, 130, 24, 24)  520         concatenate_39[0][0]             
__________________________________________________________________________________________________
activation_93 (Activation)      (None, 130, 24, 24)  0           final_bn[0][0]                   
__________________________________________________________________________________________________
global_average_pooling2d_5 (Glo (None, 130)          0           activation_93[0][0]              
__________________________________________________________________________________________________
dense_5 (Dense)                 (None, 1)            131         global_average_pooling2d_5[0][0] 
==================================================================================================
Total params: 174,019
Trainable params: 169,127
Non-trainable params: 4,892
__________________________________________________________________________________________________
Train on 39840 samples, validate on 7440 samples
Epoch 1/30
 - 98s - loss: 0.6172 - acc: 0.7889 - val_loss: 0.5960 - val_acc: 0.7696
…
7264/7440 [============================>.] - ETA: 0s
7360/7440 [============================>.] - ETA: 0s
7440/7440 [==============================] - 7s 1ms/step
Best saved model Test accuracy: 0.8114247311827957
best saved model auc_score ------------------>  0.909010868308475
__________________________________________________________________________________________________
Layer (type)                    Output Shape         Param #     Connected to                     
==================================================================================================
input_6 (InputLayer)            (None, 2, 96, 96)    0                                            
__________________________________________________________________________________________________
initial_conv2D (Conv2D)         (None, 16, 96, 96)   288         input_6[0][0]                    
__________________________________________________________________________________________________
dense_0_0_bn (BatchNormalizatio (None, 16, 96, 96)   64          initial_conv2D[0][0]             
__________________________________________________________________________________________________
activation_94 (Activation)      (None, 16, 96, 96)   0           dense_0_0_bn[0][0]               
__________________________________________________________________________________________________
dense_0_0_bottleneck_conv2D (Co (None, 40, 96, 96)   640         activation_94[0][0]              
__________________________________________________________________________________________________
dense_0_0_bottleneck_bn (BatchN (None, 40, 96, 96)   160         dense_0_0_bottleneck_conv2D[0][0]
__________________________________________________________________________________________________
activation_95 (Activation)      (None, 40, 96, 96)   0           dense_0_0_bottleneck_bn[0][0]    
__________________________________________________________________________________________________
dense_0_0_conv2D (Conv2D)       (None, 10, 96, 96)   3600        activation_95[0][0]              
__________________________________________________________________________________________________
concatenate_40 (Concatenate)    (None, 26, 96, 96)   0           initial_conv2D[0][0]             
                                                                 dense_0_0_conv2D[0][0]           
__________________________________________________________________________________________________
dense_0_1_bn (BatchNormalizatio (None, 26, 96, 96)   104         concatenate_40[0][0]             
__________________________________________________________________________________________________
activation_96 (Activation)      (None, 26, 96, 96)   0           dense_0_1_bn[0][0]               
__________________________________________________________________________________________________
dense_0_1_bottleneck_conv2D (Co (None, 40, 96, 96)   1040        activation_96[0][0]              
__________________________________________________________________________________________________
dense_0_1_bottleneck_bn (BatchN (None, 40, 96, 96)   160         dense_0_1_bottleneck_conv2D[0][0]
__________________________________________________________________________________________________
activation_97 (Activation)      (None, 40, 96, 96)   0           dense_0_1_bottleneck_bn[0][0]    
__________________________________________________________________________________________________
dense_0_1_conv2D (Conv2D)       (None, 10, 96, 96)   3600        activation_97[0][0]              
__________________________________________________________________________________________________
concatenate_41 (Concatenate)    (None, 36, 96, 96)   0           concatenate_40[0][0]             
                                                                 dense_0_1_conv2D[0][0]           
__________________________________________________________________________________________________
dense_0_2_bn (BatchNormalizatio (None, 36, 96, 96)   144         concatenate_41[0][0]             
__________________________________________________________________________________________________
activation_98 (Activation)      (None, 36, 96, 96)   0           dense_0_2_bn[0][0]               
__________________________________________________________________________________________________
dense_0_2_bottleneck_conv2D (Co (None, 40, 96, 96)   1440        activation_98[0][0]              
__________________________________________________________________________________________________
dense_0_2_bottleneck_bn (BatchN (None, 40, 96, 96)   160         dense_0_2_bottleneck_conv2D[0][0]
__________________________________________________________________________________________________
activation_99 (Activation)      (None, 40, 96, 96)   0           dense_0_2_bottleneck_bn[0][0]    
__________________________________________________________________________________________________
dense_0_2_conv2D (Conv2D)       (None, 10, 96, 96)   3600        activation_99[0][0]              
__________________________________________________________________________________________________
concatenate_42 (Concatenate)    (None, 46, 96, 96)   0           concatenate_41[0][0]             
                                                                 dense_0_2_conv2D[0][0]           
__________________________________________________________________________________________________
dense_0_3_bn (BatchNormalizatio (None, 46, 96, 96)   184         concatenate_42[0][0]             
__________________________________________________________________________________________________
activation_100 (Activation)     (None, 46, 96, 96)   0           dense_0_3_bn[0][0]               
__________________________________________________________________________________________________
dense_0_3_bottleneck_conv2D (Co (None, 40, 96, 96)   1840        activation_100[0][0]             
__________________________________________________________________________________________________
dense_0_3_bottleneck_bn (BatchN (None, 40, 96, 96)   160         dense_0_3_bottleneck_conv2D[0][0]
__________________________________________________________________________________________________
activation_101 (Activation)     (None, 40, 96, 96)   0           dense_0_3_bottleneck_bn[0][0]    
__________________________________________________________________________________________________
dense_0_3_conv2D (Conv2D)       (None, 10, 96, 96)   3600        activation_101[0][0]             
__________________________________________________________________________________________________
concatenate_43 (Concatenate)    (None, 56, 96, 96)   0           concatenate_42[0][0]             
                                                                 dense_0_3_conv2D[0][0]           
__________________________________________________________________________________________________
dense_0_4_bn (BatchNormalizatio (None, 56, 96, 96)   224         concatenate_43[0][0]             
__________________________________________________________________________________________________
activation_102 (Activation)     (None, 56, 96, 96)   0           dense_0_4_bn[0][0]               
__________________________________________________________________________________________________
dense_0_4_bottleneck_conv2D (Co (None, 40, 96, 96)   2240        activation_102[0][0]             
__________________________________________________________________________________________________
dense_0_4_bottleneck_bn (BatchN (None, 40, 96, 96)   160         dense_0_4_bottleneck_conv2D[0][0]
__________________________________________________________________________________________________
activation_103 (Activation)     (None, 40, 96, 96)   0           dense_0_4_bottleneck_bn[0][0]    
__________________________________________________________________________________________________
dense_0_4_conv2D (Conv2D)       (None, 10, 96, 96)   3600        activation_103[0][0]             
__________________________________________________________________________________________________
concatenate_44 (Concatenate)    (None, 66, 96, 96)   0           concatenate_43[0][0]             
                                                                 dense_0_4_conv2D[0][0]           
__________________________________________________________________________________________________
tr_0_bn (BatchNormalization)    (None, 66, 96, 96)   264         concatenate_44[0][0]             
__________________________________________________________________________________________________
activation_104 (Activation)     (None, 66, 96, 96)   0           tr_0_bn[0][0]                    
__________________________________________________________________________________________________
tr_0_conv2D (Conv2D)            (None, 33, 96, 96)   2178        activation_104[0][0]             
__________________________________________________________________________________________________
average_pooling2d_11 (AveragePo (None, 33, 48, 48)   0           tr_0_conv2D[0][0]                
__________________________________________________________________________________________________
dense_1_0_bn (BatchNormalizatio (None, 33, 48, 48)   132         average_pooling2d_11[0][0]       
__________________________________________________________________________________________________
activation_105 (Activation)     (None, 33, 48, 48)   0           dense_1_0_bn[0][0]               
__________________________________________________________________________________________________
dense_1_0_bottleneck_conv2D (Co (None, 40, 48, 48)   1320        activation_105[0][0]             
__________________________________________________________________________________________________
dense_1_0_bottleneck_bn (BatchN (None, 40, 48, 48)   160         dense_1_0_bottleneck_conv2D[0][0]
__________________________________________________________________________________________________
activation_106 (Activation)     (None, 40, 48, 48)   0           dense_1_0_bottleneck_bn[0][0]    
__________________________________________________________________________________________________
dense_1_0_conv2D (Conv2D)       (None, 10, 48, 48)   3600        activation_106[0][0]             
__________________________________________________________________________________________________
concatenate_45 (Concatenate)    (None, 43, 48, 48)   0           average_pooling2d_11[0][0]       
                                                                 dense_1_0_conv2D[0][0]           
__________________________________________________________________________________________________
dense_1_1_bn (BatchNormalizatio (None, 43, 48, 48)   172         concatenate_45[0][0]             
__________________________________________________________________________________________________
activation_107 (Activation)     (None, 43, 48, 48)   0           dense_1_1_bn[0][0]               
__________________________________________________________________________________________________
dense_1_1_bottleneck_conv2D (Co (None, 40, 48, 48)   1720        activation_107[0][0]             
__________________________________________________________________________________________________
dense_1_1_bottleneck_bn (BatchN (None, 40, 48, 48)   160         dense_1_1_bottleneck_conv2D[0][0]
__________________________________________________________________________________________________
activation_108 (Activation)     (None, 40, 48, 48)   0           dense_1_1_bottleneck_bn[0][0]    
__________________________________________________________________________________________________
dense_1_1_conv2D (Conv2D)       (None, 10, 48, 48)   3600        activation_108[0][0]             
__________________________________________________________________________________________________
concatenate_46 (Concatenate)    (None, 53, 48, 48)   0           concatenate_45[0][0]             
                                                                 dense_1_1_conv2D[0][0]           
__________________________________________________________________________________________________
dense_1_2_bn (BatchNormalizatio (None, 53, 48, 48)   212         concatenate_46[0][0]             
__________________________________________________________________________________________________
activation_109 (Activation)     (None, 53, 48, 48)   0           dense_1_2_bn[0][0]               
__________________________________________________________________________________________________
dense_1_2_bottleneck_conv2D (Co (None, 40, 48, 48)   2120        activation_109[0][0]             
__________________________________________________________________________________________________
dense_1_2_bottleneck_bn (BatchN (None, 40, 48, 48)   160         dense_1_2_bottleneck_conv2D[0][0]
__________________________________________________________________________________________________
activation_110 (Activation)     (None, 40, 48, 48)   0           dense_1_2_bottleneck_bn[0][0]    
__________________________________________________________________________________________________
dense_1_2_conv2D (Conv2D)       (None, 10, 48, 48)   3600        activation_110[0][0]             
__________________________________________________________________________________________________
concatenate_47 (Concatenate)    (None, 63, 48, 48)   0           concatenate_46[0][0]             
                                                                 dense_1_2_conv2D[0][0]           
__________________________________________________________________________________________________
dense_1_3_bn (BatchNormalizatio (None, 63, 48, 48)   252         concatenate_47[0][0]             
__________________________________________________________________________________________________
activation_111 (Activation)     (None, 63, 48, 48)   0           dense_1_3_bn[0][0]               
__________________________________________________________________________________________________
dense_1_3_bottleneck_conv2D (Co (None, 40, 48, 48)   2520        activation_111[0][0]             
__________________________________________________________________________________________________
dense_1_3_bottleneck_bn (BatchN (None, 40, 48, 48)   160         dense_1_3_bottleneck_conv2D[0][0]
__________________________________________________________________________________________________
activation_112 (Activation)     (None, 40, 48, 48)   0           dense_1_3_bottleneck_bn[0][0]    
__________________________________________________________________________________________________
dense_1_3_conv2D (Conv2D)       (None, 10, 48, 48)   3600        activation_112[0][0]             
__________________________________________________________________________________________________
concatenate_48 (Concatenate)    (None, 73, 48, 48)   0           concatenate_47[0][0]             
                                                                 dense_1_3_conv2D[0][0]           
__________________________________________________________________________________________________
dense_1_4_bn (BatchNormalizatio (None, 73, 48, 48)   292         concatenate_48[0][0]             
__________________________________________________________________________________________________
activation_113 (Activation)     (None, 73, 48, 48)   0           dense_1_4_bn[0][0]               
__________________________________________________________________________________________________
dense_1_4_bottleneck_conv2D (Co (None, 40, 48, 48)   2920        activation_113[0][0]             
__________________________________________________________________________________________________
dense_1_4_bottleneck_bn (BatchN (None, 40, 48, 48)   160         dense_1_4_bottleneck_conv2D[0][0]
__________________________________________________________________________________________________
activation_114 (Activation)     (None, 40, 48, 48)   0           dense_1_4_bottleneck_bn[0][0]    
__________________________________________________________________________________________________
dense_1_4_conv2D (Conv2D)       (None, 10, 48, 48)   3600        activation_114[0][0]             
__________________________________________________________________________________________________
concatenate_49 (Concatenate)    (None, 83, 48, 48)   0           concatenate_48[0][0]             
                                                                 dense_1_4_conv2D[0][0]           
__________________________________________________________________________________________________
tr_1_bn (BatchNormalization)    (None, 83, 48, 48)   332         concatenate_49[0][0]             
__________________________________________________________________________________________________
activation_115 (Activation)     (None, 83, 48, 48)   0           tr_1_bn[0][0]                    
__________________________________________________________________________________________________
tr_1_conv2D (Conv2D)            (None, 41, 48, 48)   3403        activation_115[0][0]             
__________________________________________________________________________________________________
average_pooling2d_12 (AveragePo (None, 41, 24, 24)   0           tr_1_conv2D[0][0]                
__________________________________________________________________________________________________
dense_2_0_bn (BatchNormalizatio (None, 41, 24, 24)   164         average_pooling2d_12[0][0]       
__________________________________________________________________________________________________
activation_116 (Activation)     (None, 41, 24, 24)   0           dense_2_0_bn[0][0]               
__________________________________________________________________________________________________
dense_2_0_bottleneck_conv2D (Co (None, 40, 24, 24)   1640        activation_116[0][0]             
__________________________________________________________________________________________________
dense_2_0_bottleneck_bn (BatchN (None, 40, 24, 24)   160         dense_2_0_bottleneck_conv2D[0][0]
__________________________________________________________________________________________________
activation_117 (Activation)     (None, 40, 24, 24)   0           dense_2_0_bottleneck_bn[0][0]    
__________________________________________________________________________________________________
dense_2_0_conv2D (Conv2D)       (None, 10, 24, 24)   3600        activation_117[0][0]             
__________________________________________________________________________________________________
concatenate_50 (Concatenate)    (None, 51, 24, 24)   0           average_pooling2d_12[0][0]       
                                                                 dense_2_0_conv2D[0][0]           
__________________________________________________________________________________________________
dense_2_1_bn (BatchNormalizatio (None, 51, 24, 24)   204         concatenate_50[0][0]             
__________________________________________________________________________________________________
activation_118 (Activation)     (None, 51, 24, 24)   0           dense_2_1_bn[0][0]               
__________________________________________________________________________________________________
dense_2_1_bottleneck_conv2D (Co (None, 40, 24, 24)   2040        activation_118[0][0]             
__________________________________________________________________________________________________
dense_2_1_bottleneck_bn (BatchN (None, 40, 24, 24)   160         dense_2_1_bottleneck_conv2D[0][0]
__________________________________________________________________________________________________
activation_119 (Activation)     (None, 40, 24, 24)   0           dense_2_1_bottleneck_bn[0][0]    
__________________________________________________________________________________________________
dense_2_1_conv2D (Conv2D)       (None, 10, 24, 24)   3600        activation_119[0][0]             
__________________________________________________________________________________________________
concatenate_51 (Concatenate)    (None, 61, 24, 24)   0           concatenate_50[0][0]             
                                                                 dense_2_1_conv2D[0][0]           
__________________________________________________________________________________________________
dense_2_2_bn (BatchNormalizatio (None, 61, 24, 24)   244         concatenate_51[0][0]             
__________________________________________________________________________________________________
activation_120 (Activation)     (None, 61, 24, 24)   0           dense_2_2_bn[0][0]               
__________________________________________________________________________________________________
dense_2_2_bottleneck_conv2D (Co (None, 40, 24, 24)   2440        activation_120[0][0]             
__________________________________________________________________________________________________
dense_2_2_bottleneck_bn (BatchN (None, 40, 24, 24)   160         dense_2_2_bottleneck_conv2D[0][0]
__________________________________________________________________________________________________
activation_121 (Activation)     (None, 40, 24, 24)   0           dense_2_2_bottleneck_bn[0][0]    
__________________________________________________________________________________________________
dense_2_2_conv2D (Conv2D)       (None, 10, 24, 24)   3600        activation_121[0][0]             
__________________________________________________________________________________________________
concatenate_52 (Concatenate)    (None, 71, 24, 24)   0           concatenate_51[0][0]             
                                                                 dense_2_2_conv2D[0][0]           
__________________________________________________________________________________________________
dense_2_3_bn (BatchNormalizatio (None, 71, 24, 24)   284         concatenate_52[0][0]             
__________________________________________________________________________________________________
activation_122 (Activation)     (None, 71, 24, 24)   0           dense_2_3_bn[0][0]               
__________________________________________________________________________________________________
dense_2_3_bottleneck_conv2D (Co (None, 40, 24, 24)   2840        activation_122[0][0]             
__________________________________________________________________________________________________
dense_2_3_bottleneck_bn (BatchN (None, 40, 24, 24)   160         dense_2_3_bottleneck_conv2D[0][0]
__________________________________________________________________________________________________
activation_123 (Activation)     (None, 40, 24, 24)   0           dense_2_3_bottleneck_bn[0][0]    
__________________________________________________________________________________________________
dense_2_3_conv2D (Conv2D)       (None, 10, 24, 24)   3600        activation_123[0][0]             
__________________________________________________________________________________________________
concatenate_53 (Concatenate)    (None, 81, 24, 24)   0           concatenate_52[0][0]             
                                                                 dense_2_3_conv2D[0][0]           
__________________________________________________________________________________________________
dense_2_4_bn (BatchNormalizatio (None, 81, 24, 24)   324         concatenate_53[0][0]             
__________________________________________________________________________________________________
activation_124 (Activation)     (None, 81, 24, 24)   0           dense_2_4_bn[0][0]               
__________________________________________________________________________________________________
dense_2_4_bottleneck_conv2D (Co (None, 40, 24, 24)   3240        activation_124[0][0]             
__________________________________________________________________________________________________
dense_2_4_bottleneck_bn (BatchN (None, 40, 24, 24)   160         dense_2_4_bottleneck_conv2D[0][0]
__________________________________________________________________________________________________
activation_125 (Activation)     (None, 40, 24, 24)   0           dense_2_4_bottleneck_bn[0][0]    
__________________________________________________________________________________________________
dense_2_4_conv2D (Conv2D)       (None, 10, 24, 24)   3600        activation_125[0][0]             
__________________________________________________________________________________________________
concatenate_54 (Concatenate)    (None, 91, 24, 24)   0           concatenate_53[0][0]             
                                                                 dense_2_4_conv2D[0][0]           
__________________________________________________________________________________________________
final_bn (BatchNormalization)   (None, 91, 24, 24)   364         concatenate_54[0][0]             
__________________________________________________________________________________________________
activation_126 (Activation)     (None, 91, 24, 24)   0           final_bn[0][0]                   
__________________________________________________________________________________________________
global_average_pooling2d_6 (Glo (None, 91)           0           activation_126[0][0]             
__________________________________________________________________________________________________
dense_6 (Dense)                 (None, 1)            92          global_average_pooling2d_6[0][0] 
==================================================================================================
Total params: 96,321
Trainable params: 93,141
Non-trainable params: 3,180
__________________________________________________________________________________________________
Train on 39840 samples, validate on 7440 samples
Epoch 1/30
 - 74s - loss: 0.5739 - acc: 0.7829 - val_loss: 0.9541 - val_acc: 0.6731
…
7328/7440 [============================>.] - ETA: 0s
7424/7440 [============================>.] - ETA: 0s
7440/7440 [==============================] - 7s 939us/step
Best saved model Test accuracy: 0.8498655913978495
best saved model auc_score ------------------>  0.9220523326396115
__________________________________________________________________________________________________
Layer (type)                    Output Shape         Param #     Connected to                     
==================================================================================================
input_7 (InputLayer)            (None, 2, 96, 96)    0                                            
__________________________________________________________________________________________________
initial_conv2D (Conv2D)         (None, 16, 96, 96)   288         input_7[0][0]                    
__________________________________________________________________________________________________
dense_0_0_bn (BatchNormalizatio (None, 16, 96, 96)   64          initial_conv2D[0][0]             
__________________________________________________________________________________________________
activation_127 (Activation)     (None, 16, 96, 96)   0           dense_0_0_bn[0][0]               
__________________________________________________________________________________________________
dense_0_0_bottleneck_conv2D (Co (None, 48, 96, 96)   768         activation_127[0][0]             
__________________________________________________________________________________________________
dense_0_0_bottleneck_bn (BatchN (None, 48, 96, 96)   192         dense_0_0_bottleneck_conv2D[0][0]
__________________________________________________________________________________________________
activation_128 (Activation)     (None, 48, 96, 96)   0           dense_0_0_bottleneck_bn[0][0]    
__________________________________________________________________________________________________
dense_0_0_conv2D (Conv2D)       (None, 12, 96, 96)   5184        activation_128[0][0]             
__________________________________________________________________________________________________
concatenate_55 (Concatenate)    (None, 28, 96, 96)   0           initial_conv2D[0][0]             
                                                                 dense_0_0_conv2D[0][0]           
__________________________________________________________________________________________________
dense_0_1_bn (BatchNormalizatio (None, 28, 96, 96)   112         concatenate_55[0][0]             
__________________________________________________________________________________________________
activation_129 (Activation)     (None, 28, 96, 96)   0           dense_0_1_bn[0][0]               
__________________________________________________________________________________________________
dense_0_1_bottleneck_conv2D (Co (None, 48, 96, 96)   1344        activation_129[0][0]             
__________________________________________________________________________________________________
dense_0_1_bottleneck_bn (BatchN (None, 48, 96, 96)   192         dense_0_1_bottleneck_conv2D[0][0]
__________________________________________________________________________________________________
activation_130 (Activation)     (None, 48, 96, 96)   0           dense_0_1_bottleneck_bn[0][0]    
__________________________________________________________________________________________________
dense_0_1_conv2D (Conv2D)       (None, 12, 96, 96)   5184        activation_130[0][0]             
__________________________________________________________________________________________________
concatenate_56 (Concatenate)    (None, 40, 96, 96)   0           concatenate_55[0][0]             
                                                                 dense_0_1_conv2D[0][0]           
__________________________________________________________________________________________________
tr_0_bn (BatchNormalization)    (None, 40, 96, 96)   160         concatenate_56[0][0]             
__________________________________________________________________________________________________
activation_131 (Activation)     (None, 40, 96, 96)   0           tr_0_bn[0][0]                    
__________________________________________________________________________________________________
tr_0_conv2D (Conv2D)            (None, 20, 96, 96)   800         activation_131[0][0]             
__________________________________________________________________________________________________
average_pooling2d_13 (AveragePo (None, 20, 48, 48)   0           tr_0_conv2D[0][0]                
__________________________________________________________________________________________________
dense_1_0_bn (BatchNormalizatio (None, 20, 48, 48)   80          average_pooling2d_13[0][0]       
__________________________________________________________________________________________________
activation_132 (Activation)     (None, 20, 48, 48)   0           dense_1_0_bn[0][0]               
__________________________________________________________________________________________________
dense_1_0_bottleneck_conv2D (Co (None, 48, 48, 48)   960         activation_132[0][0]             
__________________________________________________________________________________________________
dense_1_0_bottleneck_bn (BatchN (None, 48, 48, 48)   192         dense_1_0_bottleneck_conv2D[0][0]
__________________________________________________________________________________________________
activation_133 (Activation)     (None, 48, 48, 48)   0           dense_1_0_bottleneck_bn[0][0]    
__________________________________________________________________________________________________
dense_1_0_conv2D (Conv2D)       (None, 12, 48, 48)   5184        activation_133[0][0]             
__________________________________________________________________________________________________
concatenate_57 (Concatenate)    (None, 32, 48, 48)   0           average_pooling2d_13[0][0]       
                                                                 dense_1_0_conv2D[0][0]           
__________________________________________________________________________________________________
dense_1_1_bn (BatchNormalizatio (None, 32, 48, 48)   128         concatenate_57[0][0]             
__________________________________________________________________________________________________
activation_134 (Activation)     (None, 32, 48, 48)   0           dense_1_1_bn[0][0]               
__________________________________________________________________________________________________
dense_1_1_bottleneck_conv2D (Co (None, 48, 48, 48)   1536        activation_134[0][0]             
__________________________________________________________________________________________________
dense_1_1_bottleneck_bn (BatchN (None, 48, 48, 48)   192         dense_1_1_bottleneck_conv2D[0][0]
__________________________________________________________________________________________________
activation_135 (Activation)     (None, 48, 48, 48)   0           dense_1_1_bottleneck_bn[0][0]    
__________________________________________________________________________________________________
dense_1_1_conv2D (Conv2D)       (None, 12, 48, 48)   5184        activation_135[0][0]             
__________________________________________________________________________________________________
concatenate_58 (Concatenate)    (None, 44, 48, 48)   0           concatenate_57[0][0]             
                                                                 dense_1_1_conv2D[0][0]           
__________________________________________________________________________________________________
tr_1_bn (BatchNormalization)    (None, 44, 48, 48)   176         concatenate_58[0][0]             
__________________________________________________________________________________________________
activation_136 (Activation)     (None, 44, 48, 48)   0           tr_1_bn[0][0]                    
__________________________________________________________________________________________________
tr_1_conv2D (Conv2D)            (None, 22, 48, 48)   968         activation_136[0][0]             
__________________________________________________________________________________________________
average_pooling2d_14 (AveragePo (None, 22, 24, 24)   0           tr_1_conv2D[0][0]                
__________________________________________________________________________________________________
dense_2_0_bn (BatchNormalizatio (None, 22, 24, 24)   88          average_pooling2d_14[0][0]       
__________________________________________________________________________________________________
activation_137 (Activation)     (None, 22, 24, 24)   0           dense_2_0_bn[0][0]               
__________________________________________________________________________________________________
dense_2_0_bottleneck_conv2D (Co (None, 48, 24, 24)   1056        activation_137[0][0]             
__________________________________________________________________________________________________
dense_2_0_bottleneck_bn (BatchN (None, 48, 24, 24)   192         dense_2_0_bottleneck_conv2D[0][0]
__________________________________________________________________________________________________
activation_138 (Activation)     (None, 48, 24, 24)   0           dense_2_0_bottleneck_bn[0][0]    
__________________________________________________________________________________________________
dense_2_0_conv2D (Conv2D)       (None, 12, 24, 24)   5184        activation_138[0][0]             
__________________________________________________________________________________________________
concatenate_59 (Concatenate)    (None, 34, 24, 24)   0           average_pooling2d_14[0][0]       
                                                                 dense_2_0_conv2D[0][0]           
__________________________________________________________________________________________________
dense_2_1_bn (BatchNormalizatio (None, 34, 24, 24)   136         concatenate_59[0][0]             
__________________________________________________________________________________________________
activation_139 (Activation)     (None, 34, 24, 24)   0           dense_2_1_bn[0][0]               
__________________________________________________________________________________________________
dense_2_1_bottleneck_conv2D (Co (None, 48, 24, 24)   1632        activation_139[0][0]             
__________________________________________________________________________________________________
dense_2_1_bottleneck_bn (BatchN (None, 48, 24, 24)   192         dense_2_1_bottleneck_conv2D[0][0]
__________________________________________________________________________________________________
activation_140 (Activation)     (None, 48, 24, 24)   0           dense_2_1_bottleneck_bn[0][0]    
__________________________________________________________________________________________________
dense_2_1_conv2D (Conv2D)       (None, 12, 24, 24)   5184        activation_140[0][0]             
__________________________________________________________________________________________________
concatenate_60 (Concatenate)    (None, 46, 24, 24)   0           concatenate_59[0][0]             
                                                                 dense_2_1_conv2D[0][0]           
__________________________________________________________________________________________________
final_bn (BatchNormalization)   (None, 46, 24, 24)   184         concatenate_60[0][0]             
__________________________________________________________________________________________________
activation_141 (Activation)     (None, 46, 24, 24)   0           final_bn[0][0]                   
__________________________________________________________________________________________________
global_average_pooling2d_7 (Glo (None, 46)           0           activation_141[0][0]             
__________________________________________________________________________________________________
dense_7 (Dense)                 (None, 1)            47          global_average_pooling2d_7[0][0] 
==================================================================================================
Total params: 42,783
Trainable params: 41,643
Non-trainable params: 1,140
__________________________________________________________________________________________________
Train on 39840 samples, validate on 7440 samples
Epoch 1/30
 - 37s - loss: 0.5577 - acc: 0.7613 - val_loss: 0.6642 - val_acc: 0.7206
…
7232/7440 [============================>.] - ETA: 0s
7392/7440 [============================>.] - ETA: 0s
7440/7440 [==============================] - 5s 685us/step
Best saved model Test accuracy: 0.8581989247311828
best saved model auc_score ------------------>  0.9154249046132501
__________________________________________________________________________________________________
Layer (type)                    Output Shape         Param #     Connected to                     
==================================================================================================
input_8 (InputLayer)            (None, 2, 96, 96)    0                                            
__________________________________________________________________________________________________
initial_conv2D (Conv2D)         (None, 16, 96, 96)   288         input_8[0][0]                    
__________________________________________________________________________________________________
dense_0_0_bn (BatchNormalizatio (None, 16, 96, 96)   64          initial_conv2D[0][0]             
__________________________________________________________________________________________________
activation_142 (Activation)     (None, 16, 96, 96)   0           dense_0_0_bn[0][0]               
__________________________________________________________________________________________________
dense_0_0_bottleneck_conv2D (Co (None, 40, 96, 96)   640         activation_142[0][0]             
__________________________________________________________________________________________________
dense_0_0_bottleneck_bn (BatchN (None, 40, 96, 96)   160         dense_0_0_bottleneck_conv2D[0][0]
__________________________________________________________________________________________________
activation_143 (Activation)     (None, 40, 96, 96)   0           dense_0_0_bottleneck_bn[0][0]    
__________________________________________________________________________________________________
dense_0_0_conv2D (Conv2D)       (None, 10, 96, 96)   3600        activation_143[0][0]             
__________________________________________________________________________________________________
concatenate_61 (Concatenate)    (None, 26, 96, 96)   0           initial_conv2D[0][0]             
                                                                 dense_0_0_conv2D[0][0]           
__________________________________________________________________________________________________
dense_0_1_bn (BatchNormalizatio (None, 26, 96, 96)   104         concatenate_61[0][0]             
__________________________________________________________________________________________________
activation_144 (Activation)     (None, 26, 96, 96)   0           dense_0_1_bn[0][0]               
__________________________________________________________________________________________________
dense_0_1_bottleneck_conv2D (Co (None, 40, 96, 96)   1040        activation_144[0][0]             
__________________________________________________________________________________________________
dense_0_1_bottleneck_bn (BatchN (None, 40, 96, 96)   160         dense_0_1_bottleneck_conv2D[0][0]
__________________________________________________________________________________________________
activation_145 (Activation)     (None, 40, 96, 96)   0           dense_0_1_bottleneck_bn[0][0]    
__________________________________________________________________________________________________
dense_0_1_conv2D (Conv2D)       (None, 10, 96, 96)   3600        activation_145[0][0]             
__________________________________________________________________________________________________
concatenate_62 (Concatenate)    (None, 36, 96, 96)   0           concatenate_61[0][0]             
                                                                 dense_0_1_conv2D[0][0]           
__________________________________________________________________________________________________
dense_0_2_bn (BatchNormalizatio (None, 36, 96, 96)   144         concatenate_62[0][0]             
__________________________________________________________________________________________________
activation_146 (Activation)     (None, 36, 96, 96)   0           dense_0_2_bn[0][0]               
__________________________________________________________________________________________________
dense_0_2_bottleneck_conv2D (Co (None, 40, 96, 96)   1440        activation_146[0][0]             
__________________________________________________________________________________________________
dense_0_2_bottleneck_bn (BatchN (None, 40, 96, 96)   160         dense_0_2_bottleneck_conv2D[0][0]
__________________________________________________________________________________________________
activation_147 (Activation)     (None, 40, 96, 96)   0           dense_0_2_bottleneck_bn[0][0]    
__________________________________________________________________________________________________
dense_0_2_conv2D (Conv2D)       (None, 10, 96, 96)   3600        activation_147[0][0]             
__________________________________________________________________________________________________
concatenate_63 (Concatenate)    (None, 46, 96, 96)   0           concatenate_62[0][0]             
                                                                 dense_0_2_conv2D[0][0]           
__________________________________________________________________________________________________
tr_0_bn (BatchNormalization)    (None, 46, 96, 96)   184         concatenate_63[0][0]             
__________________________________________________________________________________________________
activation_148 (Activation)     (None, 46, 96, 96)   0           tr_0_bn[0][0]                    
__________________________________________________________________________________________________
tr_0_conv2D (Conv2D)            (None, 23, 96, 96)   1058        activation_148[0][0]             
__________________________________________________________________________________________________
average_pooling2d_15 (AveragePo (None, 23, 48, 48)   0           tr_0_conv2D[0][0]                
__________________________________________________________________________________________________
dense_1_0_bn (BatchNormalizatio (None, 23, 48, 48)   92          average_pooling2d_15[0][0]       
__________________________________________________________________________________________________
activation_149 (Activation)     (None, 23, 48, 48)   0           dense_1_0_bn[0][0]               
__________________________________________________________________________________________________
dense_1_0_bottleneck_conv2D (Co (None, 40, 48, 48)   920         activation_149[0][0]             
__________________________________________________________________________________________________
dense_1_0_bottleneck_bn (BatchN (None, 40, 48, 48)   160         dense_1_0_bottleneck_conv2D[0][0]
__________________________________________________________________________________________________
activation_150 (Activation)     (None, 40, 48, 48)   0           dense_1_0_bottleneck_bn[0][0]    
__________________________________________________________________________________________________
dense_1_0_conv2D (Conv2D)       (None, 10, 48, 48)   3600        activation_150[0][0]             
__________________________________________________________________________________________________
concatenate_64 (Concatenate)    (None, 33, 48, 48)   0           average_pooling2d_15[0][0]       
                                                                 dense_1_0_conv2D[0][0]           
__________________________________________________________________________________________________
dense_1_1_bn (BatchNormalizatio (None, 33, 48, 48)   132         concatenate_64[0][0]             
__________________________________________________________________________________________________
activation_151 (Activation)     (None, 33, 48, 48)   0           dense_1_1_bn[0][0]               
__________________________________________________________________________________________________
dense_1_1_bottleneck_conv2D (Co (None, 40, 48, 48)   1320        activation_151[0][0]             
__________________________________________________________________________________________________
dense_1_1_bottleneck_bn (BatchN (None, 40, 48, 48)   160         dense_1_1_bottleneck_conv2D[0][0]
__________________________________________________________________________________________________
activation_152 (Activation)     (None, 40, 48, 48)   0           dense_1_1_bottleneck_bn[0][0]    
__________________________________________________________________________________________________
dense_1_1_conv2D (Conv2D)       (None, 10, 48, 48)   3600        activation_152[0][0]             
__________________________________________________________________________________________________
concatenate_65 (Concatenate)    (None, 43, 48, 48)   0           concatenate_64[0][0]             
                                                                 dense_1_1_conv2D[0][0]           
__________________________________________________________________________________________________
dense_1_2_bn (BatchNormalizatio (None, 43, 48, 48)   172         concatenate_65[0][0]             
__________________________________________________________________________________________________
activation_153 (Activation)     (None, 43, 48, 48)   0           dense_1_2_bn[0][0]               
__________________________________________________________________________________________________
dense_1_2_bottleneck_conv2D (Co (None, 40, 48, 48)   1720        activation_153[0][0]             
__________________________________________________________________________________________________
dense_1_2_bottleneck_bn (BatchN (None, 40, 48, 48)   160         dense_1_2_bottleneck_conv2D[0][0]
__________________________________________________________________________________________________
activation_154 (Activation)     (None, 40, 48, 48)   0           dense_1_2_bottleneck_bn[0][0]    
__________________________________________________________________________________________________
dense_1_2_conv2D (Conv2D)       (None, 10, 48, 48)   3600        activation_154[0][0]             
__________________________________________________________________________________________________
concatenate_66 (Concatenate)    (None, 53, 48, 48)   0           concatenate_65[0][0]             
                                                                 dense_1_2_conv2D[0][0]           
__________________________________________________________________________________________________
tr_1_bn (BatchNormalization)    (None, 53, 48, 48)   212         concatenate_66[0][0]             
__________________________________________________________________________________________________
activation_155 (Activation)     (None, 53, 48, 48)   0           tr_1_bn[0][0]                    
__________________________________________________________________________________________________
tr_1_conv2D (Conv2D)            (None, 26, 48, 48)   1378        activation_155[0][0]             
__________________________________________________________________________________________________
average_pooling2d_16 (AveragePo (None, 26, 24, 24)   0           tr_1_conv2D[0][0]                
__________________________________________________________________________________________________
dense_2_0_bn (BatchNormalizatio (None, 26, 24, 24)   104         average_pooling2d_16[0][0]       
__________________________________________________________________________________________________
activation_156 (Activation)     (None, 26, 24, 24)   0           dense_2_0_bn[0][0]               
__________________________________________________________________________________________________
dense_2_0_bottleneck_conv2D (Co (None, 40, 24, 24)   1040        activation_156[0][0]             
__________________________________________________________________________________________________
dense_2_0_bottleneck_bn (BatchN (None, 40, 24, 24)   160         dense_2_0_bottleneck_conv2D[0][0]
__________________________________________________________________________________________________
activation_157 (Activation)     (None, 40, 24, 24)   0           dense_2_0_bottleneck_bn[0][0]    
__________________________________________________________________________________________________
dense_2_0_conv2D (Conv2D)       (None, 10, 24, 24)   3600        activation_157[0][0]             
__________________________________________________________________________________________________
concatenate_67 (Concatenate)    (None, 36, 24, 24)   0           average_pooling2d_16[0][0]       
                                                                 dense_2_0_conv2D[0][0]           
__________________________________________________________________________________________________
dense_2_1_bn (BatchNormalizatio (None, 36, 24, 24)   144         concatenate_67[0][0]             
__________________________________________________________________________________________________
activation_158 (Activation)     (None, 36, 24, 24)   0           dense_2_1_bn[0][0]               
__________________________________________________________________________________________________
dense_2_1_bottleneck_conv2D (Co (None, 40, 24, 24)   1440        activation_158[0][0]             
__________________________________________________________________________________________________
dense_2_1_bottleneck_bn (BatchN (None, 40, 24, 24)   160         dense_2_1_bottleneck_conv2D[0][0]
__________________________________________________________________________________________________
activation_159 (Activation)     (None, 40, 24, 24)   0           dense_2_1_bottleneck_bn[0][0]    
__________________________________________________________________________________________________
dense_2_1_conv2D (Conv2D)       (None, 10, 24, 24)   3600        activation_159[0][0]             
__________________________________________________________________________________________________
concatenate_68 (Concatenate)    (None, 46, 24, 24)   0           concatenate_67[0][0]             
                                                                 dense_2_1_conv2D[0][0]           
__________________________________________________________________________________________________
dense_2_2_bn (BatchNormalizatio (None, 46, 24, 24)   184         concatenate_68[0][0]             
__________________________________________________________________________________________________
activation_160 (Activation)     (None, 46, 24, 24)   0           dense_2_2_bn[0][0]               
__________________________________________________________________________________________________
dense_2_2_bottleneck_conv2D (Co (None, 40, 24, 24)   1840        activation_160[0][0]             
__________________________________________________________________________________________________
dense_2_2_bottleneck_bn (BatchN (None, 40, 24, 24)   160         dense_2_2_bottleneck_conv2D[0][0]
__________________________________________________________________________________________________
activation_161 (Activation)     (None, 40, 24, 24)   0           dense_2_2_bottleneck_bn[0][0]    
__________________________________________________________________________________________________
dense_2_2_conv2D (Conv2D)       (None, 10, 24, 24)   3600        activation_161[0][0]             
__________________________________________________________________________________________________
concatenate_69 (Concatenate)    (None, 56, 24, 24)   0           concatenate_68[0][0]             
                                                                 dense_2_2_conv2D[0][0]           
__________________________________________________________________________________________________
final_bn (BatchNormalization)   (None, 56, 24, 24)   224         concatenate_69[0][0]             
__________________________________________________________________________________________________
activation_162 (Activation)     (None, 56, 24, 24)   0           final_bn[0][0]                   
__________________________________________________________________________________________________
global_average_pooling2d_8 (Glo (None, 56)           0           activation_162[0][0]             
__________________________________________________________________________________________________
dense_8 (Dense)                 (None, 1)            57          global_average_pooling2d_8[0][0] 
==================================================================================================
Total params: 49,781
Trainable params: 48,181
Non-trainable params: 1,600
__________________________________________________________________________________________________
Train on 39840 samples, validate on 7440 samples
Epoch 1/30
 - 45s - loss: 0.5757 - acc: 0.7621 - val_loss: 1.1725 - val_acc: 0.6122
…
7200/7440 [============================>.] - ETA: 0s
7328/7440 [============================>.] - ETA: 0s
7440/7440 [==============================] - 6s 868us/step
Best saved model Test accuracy: 0.8411290322580646
best saved model auc_score ------------------>  0.9043967872008325
__________________________________________________________________________________________________
Layer (type)                    Output Shape         Param #     Connected to                     
==================================================================================================
input_9 (InputLayer)            (None, 2, 96, 96)    0                                            
__________________________________________________________________________________________________
initial_conv2D (Conv2D)         (None, 16, 96, 96)   288         input_9[0][0]                    
__________________________________________________________________________________________________
dense_0_0_bn (BatchNormalizatio (None, 16, 96, 96)   64          initial_conv2D[0][0]             
__________________________________________________________________________________________________
activation_163 (Activation)     (None, 16, 96, 96)   0           dense_0_0_bn[0][0]               
__________________________________________________________________________________________________
dense_0_0_bottleneck_conv2D (Co (None, 56, 96, 96)   896         activation_163[0][0]             
__________________________________________________________________________________________________
dense_0_0_bottleneck_bn (BatchN (None, 56, 96, 96)   224         dense_0_0_bottleneck_conv2D[0][0]
__________________________________________________________________________________________________
activation_164 (Activation)     (None, 56, 96, 96)   0           dense_0_0_bottleneck_bn[0][0]    
__________________________________________________________________________________________________
dense_0_0_conv2D (Conv2D)       (None, 14, 96, 96)   7056        activation_164[0][0]             
__________________________________________________________________________________________________
concatenate_70 (Concatenate)    (None, 30, 96, 96)   0           initial_conv2D[0][0]             
                                                                 dense_0_0_conv2D[0][0]           
__________________________________________________________________________________________________
dense_0_1_bn (BatchNormalizatio (None, 30, 96, 96)   120         concatenate_70[0][0]             
__________________________________________________________________________________________________
activation_165 (Activation)     (None, 30, 96, 96)   0           dense_0_1_bn[0][0]               
__________________________________________________________________________________________________
dense_0_1_bottleneck_conv2D (Co (None, 56, 96, 96)   1680        activation_165[0][0]             
__________________________________________________________________________________________________
dense_0_1_bottleneck_bn (BatchN (None, 56, 96, 96)   224         dense_0_1_bottleneck_conv2D[0][0]
__________________________________________________________________________________________________
activation_166 (Activation)     (None, 56, 96, 96)   0           dense_0_1_bottleneck_bn[0][0]    
__________________________________________________________________________________________________
dense_0_1_conv2D (Conv2D)       (None, 14, 96, 96)   7056        activation_166[0][0]             
__________________________________________________________________________________________________
concatenate_71 (Concatenate)    (None, 44, 96, 96)   0           concatenate_70[0][0]             
                                                                 dense_0_1_conv2D[0][0]           
__________________________________________________________________________________________________
dense_0_2_bn (BatchNormalizatio (None, 44, 96, 96)   176         concatenate_71[0][0]             
__________________________________________________________________________________________________
activation_167 (Activation)     (None, 44, 96, 96)   0           dense_0_2_bn[0][0]               
__________________________________________________________________________________________________
dense_0_2_bottleneck_conv2D (Co (None, 56, 96, 96)   2464        activation_167[0][0]             
__________________________________________________________________________________________________
dense_0_2_bottleneck_bn (BatchN (None, 56, 96, 96)   224         dense_0_2_bottleneck_conv2D[0][0]
__________________________________________________________________________________________________
activation_168 (Activation)     (None, 56, 96, 96)   0           dense_0_2_bottleneck_bn[0][0]    
__________________________________________________________________________________________________
dense_0_2_conv2D (Conv2D)       (None, 14, 96, 96)   7056        activation_168[0][0]             
__________________________________________________________________________________________________
concatenate_72 (Concatenate)    (None, 58, 96, 96)   0           concatenate_71[0][0]             
                                                                 dense_0_2_conv2D[0][0]           
__________________________________________________________________________________________________
dense_0_3_bn (BatchNormalizatio (None, 58, 96, 96)   232         concatenate_72[0][0]             
__________________________________________________________________________________________________
activation_169 (Activation)     (None, 58, 96, 96)   0           dense_0_3_bn[0][0]               
__________________________________________________________________________________________________
dense_0_3_bottleneck_conv2D (Co (None, 56, 96, 96)   3248        activation_169[0][0]             
__________________________________________________________________________________________________
dense_0_3_bottleneck_bn (BatchN (None, 56, 96, 96)   224         dense_0_3_bottleneck_conv2D[0][0]
__________________________________________________________________________________________________
activation_170 (Activation)     (None, 56, 96, 96)   0           dense_0_3_bottleneck_bn[0][0]    
__________________________________________________________________________________________________
dense_0_3_conv2D (Conv2D)       (None, 14, 96, 96)   7056        activation_170[0][0]             
__________________________________________________________________________________________________
concatenate_73 (Concatenate)    (None, 72, 96, 96)   0           concatenate_72[0][0]             
                                                                 dense_0_3_conv2D[0][0]           
__________________________________________________________________________________________________
tr_0_bn (BatchNormalization)    (None, 72, 96, 96)   288         concatenate_73[0][0]             
__________________________________________________________________________________________________
activation_171 (Activation)     (None, 72, 96, 96)   0           tr_0_bn[0][0]                    
__________________________________________________________________________________________________
tr_0_conv2D (Conv2D)            (None, 36, 96, 96)   2592        activation_171[0][0]             
__________________________________________________________________________________________________
average_pooling2d_17 (AveragePo (None, 36, 48, 48)   0           tr_0_conv2D[0][0]                
__________________________________________________________________________________________________
dense_1_0_bn (BatchNormalizatio (None, 36, 48, 48)   144         average_pooling2d_17[0][0]       
__________________________________________________________________________________________________
activation_172 (Activation)     (None, 36, 48, 48)   0           dense_1_0_bn[0][0]               
__________________________________________________________________________________________________
dense_1_0_bottleneck_conv2D (Co (None, 56, 48, 48)   2016        activation_172[0][0]             
__________________________________________________________________________________________________
dense_1_0_bottleneck_bn (BatchN (None, 56, 48, 48)   224         dense_1_0_bottleneck_conv2D[0][0]
__________________________________________________________________________________________________
activation_173 (Activation)     (None, 56, 48, 48)   0           dense_1_0_bottleneck_bn[0][0]    
__________________________________________________________________________________________________
dense_1_0_conv2D (Conv2D)       (None, 14, 48, 48)   7056        activation_173[0][0]             
__________________________________________________________________________________________________
concatenate_74 (Concatenate)    (None, 50, 48, 48)   0           average_pooling2d_17[0][0]       
                                                                 dense_1_0_conv2D[0][0]           
__________________________________________________________________________________________________
dense_1_1_bn (BatchNormalizatio (None, 50, 48, 48)   200         concatenate_74[0][0]             
__________________________________________________________________________________________________
activation_174 (Activation)     (None, 50, 48, 48)   0           dense_1_1_bn[0][0]               
__________________________________________________________________________________________________
dense_1_1_bottleneck_conv2D (Co (None, 56, 48, 48)   2800        activation_174[0][0]             
__________________________________________________________________________________________________
dense_1_1_bottleneck_bn (BatchN (None, 56, 48, 48)   224         dense_1_1_bottleneck_conv2D[0][0]
__________________________________________________________________________________________________
activation_175 (Activation)     (None, 56, 48, 48)   0           dense_1_1_bottleneck_bn[0][0]    
__________________________________________________________________________________________________
dense_1_1_conv2D (Conv2D)       (None, 14, 48, 48)   7056        activation_175[0][0]             
__________________________________________________________________________________________________
concatenate_75 (Concatenate)    (None, 64, 48, 48)   0           concatenate_74[0][0]             
                                                                 dense_1_1_conv2D[0][0]           
__________________________________________________________________________________________________
dense_1_2_bn (BatchNormalizatio (None, 64, 48, 48)   256         concatenate_75[0][0]             
__________________________________________________________________________________________________
activation_176 (Activation)     (None, 64, 48, 48)   0           dense_1_2_bn[0][0]               
__________________________________________________________________________________________________
dense_1_2_bottleneck_conv2D (Co (None, 56, 48, 48)   3584        activation_176[0][0]             
__________________________________________________________________________________________________
dense_1_2_bottleneck_bn (BatchN (None, 56, 48, 48)   224         dense_1_2_bottleneck_conv2D[0][0]
__________________________________________________________________________________________________
activation_177 (Activation)     (None, 56, 48, 48)   0           dense_1_2_bottleneck_bn[0][0]    
__________________________________________________________________________________________________
dense_1_2_conv2D (Conv2D)       (None, 14, 48, 48)   7056        activation_177[0][0]             
__________________________________________________________________________________________________
concatenate_76 (Concatenate)    (None, 78, 48, 48)   0           concatenate_75[0][0]             
                                                                 dense_1_2_conv2D[0][0]           
__________________________________________________________________________________________________
dense_1_3_bn (BatchNormalizatio (None, 78, 48, 48)   312         concatenate_76[0][0]             
__________________________________________________________________________________________________
activation_178 (Activation)     (None, 78, 48, 48)   0           dense_1_3_bn[0][0]               
__________________________________________________________________________________________________
dense_1_3_bottleneck_conv2D (Co (None, 56, 48, 48)   4368        activation_178[0][0]             
__________________________________________________________________________________________________
dense_1_3_bottleneck_bn (BatchN (None, 56, 48, 48)   224         dense_1_3_bottleneck_conv2D[0][0]
__________________________________________________________________________________________________
activation_179 (Activation)     (None, 56, 48, 48)   0           dense_1_3_bottleneck_bn[0][0]    
__________________________________________________________________________________________________
dense_1_3_conv2D (Conv2D)       (None, 14, 48, 48)   7056        activation_179[0][0]             
__________________________________________________________________________________________________
concatenate_77 (Concatenate)    (None, 92, 48, 48)   0           concatenate_76[0][0]             
                                                                 dense_1_3_conv2D[0][0]           
__________________________________________________________________________________________________
tr_1_bn (BatchNormalization)    (None, 92, 48, 48)   368         concatenate_77[0][0]             
__________________________________________________________________________________________________
activation_180 (Activation)     (None, 92, 48, 48)   0           tr_1_bn[0][0]                    
__________________________________________________________________________________________________
tr_1_conv2D (Conv2D)            (None, 46, 48, 48)   4232        activation_180[0][0]             
__________________________________________________________________________________________________
average_pooling2d_18 (AveragePo (None, 46, 24, 24)   0           tr_1_conv2D[0][0]                
__________________________________________________________________________________________________
dense_2_0_bn (BatchNormalizatio (None, 46, 24, 24)   184         average_pooling2d_18[0][0]       
__________________________________________________________________________________________________
activation_181 (Activation)     (None, 46, 24, 24)   0           dense_2_0_bn[0][0]               
__________________________________________________________________________________________________
dense_2_0_bottleneck_conv2D (Co (None, 56, 24, 24)   2576        activation_181[0][0]             
__________________________________________________________________________________________________
dense_2_0_bottleneck_bn (BatchN (None, 56, 24, 24)   224         dense_2_0_bottleneck_conv2D[0][0]
__________________________________________________________________________________________________
activation_182 (Activation)     (None, 56, 24, 24)   0           dense_2_0_bottleneck_bn[0][0]    
__________________________________________________________________________________________________
dense_2_0_conv2D (Conv2D)       (None, 14, 24, 24)   7056        activation_182[0][0]             
__________________________________________________________________________________________________
concatenate_78 (Concatenate)    (None, 60, 24, 24)   0           average_pooling2d_18[0][0]       
                                                                 dense_2_0_conv2D[0][0]           
__________________________________________________________________________________________________
dense_2_1_bn (BatchNormalizatio (None, 60, 24, 24)   240         concatenate_78[0][0]             
__________________________________________________________________________________________________
activation_183 (Activation)     (None, 60, 24, 24)   0           dense_2_1_bn[0][0]               
__________________________________________________________________________________________________
dense_2_1_bottleneck_conv2D (Co (None, 56, 24, 24)   3360        activation_183[0][0]             
__________________________________________________________________________________________________
dense_2_1_bottleneck_bn (BatchN (None, 56, 24, 24)   224         dense_2_1_bottleneck_conv2D[0][0]
__________________________________________________________________________________________________
activation_184 (Activation)     (None, 56, 24, 24)   0           dense_2_1_bottleneck_bn[0][0]    
__________________________________________________________________________________________________
dense_2_1_conv2D (Conv2D)       (None, 14, 24, 24)   7056        activation_184[0][0]             
__________________________________________________________________________________________________
concatenate_79 (Concatenate)    (None, 74, 24, 24)   0           concatenate_78[0][0]             
                                                                 dense_2_1_conv2D[0][0]           
__________________________________________________________________________________________________
dense_2_2_bn (BatchNormalizatio (None, 74, 24, 24)   296         concatenate_79[0][0]             
__________________________________________________________________________________________________
activation_185 (Activation)     (None, 74, 24, 24)   0           dense_2_2_bn[0][0]               
__________________________________________________________________________________________________
dense_2_2_bottleneck_conv2D (Co (None, 56, 24, 24)   4144        activation_185[0][0]             
__________________________________________________________________________________________________
dense_2_2_bottleneck_bn (BatchN (None, 56, 24, 24)   224         dense_2_2_bottleneck_conv2D[0][0]
__________________________________________________________________________________________________
activation_186 (Activation)     (None, 56, 24, 24)   0           dense_2_2_bottleneck_bn[0][0]    
__________________________________________________________________________________________________
dense_2_2_conv2D (Conv2D)       (None, 14, 24, 24)   7056        activation_186[0][0]             
__________________________________________________________________________________________________
concatenate_80 (Concatenate)    (None, 88, 24, 24)   0           concatenate_79[0][0]             
                                                                 dense_2_2_conv2D[0][0]           
__________________________________________________________________________________________________
dense_2_3_bn (BatchNormalizatio (None, 88, 24, 24)   352         concatenate_80[0][0]             
__________________________________________________________________________________________________
…
dense_0_3_bn (BatchNormalizatio (None, 40, 96, 96)   160         concatenate_132[0][0]            
__________________________________________________________________________________________________
activation_307 (Activation)     (None, 40, 96, 96)   0           dense_0_3_bn[0][0]               
__________________________________________________________________________________________________
dense_0_3_bottleneck_conv2D (Co (None, 32, 96, 96)   1280        activation_307[0][0]             
__________________________________________________________________________________________________
dense_0_3_bottleneck_bn (BatchN (None, 32, 96, 96)   128         dense_0_3_bottleneck_conv2D[0][0]
__________________________________________________________________________________________________
activation_308 (Activation)     (None, 32, 96, 96)   0           dense_0_3_bottleneck_bn[0][0]    
__________________________________________________________________________________________________
dense_0_3_conv2D (Conv2D)       (None, 8, 96, 96)    2304        activation_308[0][0]             
__________________________________________________________________________________________________
concatenate_133 (Concatenate)   (None, 48, 96, 96)   0           concatenate_132[0][0]            
                                                                 dense_0_3_conv2D[0][0]           
__________________________________________________________________________________________________
tr_0_bn (BatchNormalization)    (None, 48, 96, 96)   192         concatenate_133[0][0]            
__________________________________________________________________________________________________
activation_309 (Activation)     (None, 48, 96, 96)   0           tr_0_bn[0][0]                    
__________________________________________________________________________________________________
tr_0_conv2D (Conv2D)            (None, 24, 96, 96)   1152        activation_309[0][0]             
__________________________________________________________________________________________________
average_pooling2d_29 (AveragePo (None, 24, 48, 48)   0           tr_0_conv2D[0][0]                
__________________________________________________________________________________________________
dense_1_0_bn (BatchNormalizatio (None, 24, 48, 48)   96          average_pooling2d_29[0][0]       
__________________________________________________________________________________________________
activation_310 (Activation)     (None, 24, 48, 48)   0           dense_1_0_bn[0][0]               
__________________________________________________________________________________________________
dense_1_0_bottleneck_conv2D (Co (None, 32, 48, 48)   768         activation_310[0][0]             
__________________________________________________________________________________________________
dense_1_0_bottleneck_bn (BatchN (None, 32, 48, 48)   128         dense_1_0_bottleneck_conv2D[0][0]
__________________________________________________________________________________________________
activation_311 (Activation)     (None, 32, 48, 48)   0           dense_1_0_bottleneck_bn[0][0]    
__________________________________________________________________________________________________
dense_1_0_conv2D (Conv2D)       (None, 8, 48, 48)    2304        activation_311[0][0]             
__________________________________________________________________________________________________
concatenate_134 (Concatenate)   (None, 32, 48, 48)   0           average_pooling2d_29[0][0]       
                                                                 dense_1_0_conv2D[0][0]           
__________________________________________________________________________________________________
dense_1_1_bn (BatchNormalizatio (None, 32, 48, 48)   128         concatenate_134[0][0]            
__________________________________________________________________________________________________
activation_312 (Activation)     (None, 32, 48, 48)   0           dense_1_1_bn[0][0]               
__________________________________________________________________________________________________
dense_1_1_bottleneck_conv2D (Co (None, 32, 48, 48)   1024        activation_312[0][0]             
__________________________________________________________________________________________________
dense_1_1_bottleneck_bn (BatchN (None, 32, 48, 48)   128         dense_1_1_bottleneck_conv2D[0][0]
__________________________________________________________________________________________________
activation_313 (Activation)     (None, 32, 48, 48)   0           dense_1_1_bottleneck_bn[0][0]    
__________________________________________________________________________________________________
dense_1_1_conv2D (Conv2D)       (None, 8, 48, 48)    2304        activation_313[0][0]             
__________________________________________________________________________________________________
concatenate_135 (Concatenate)   (None, 40, 48, 48)   0           concatenate_134[0][0]            
                                                                 dense_1_1_conv2D[0][0]           
__________________________________________________________________________________________________
dense_1_2_bn (BatchNormalizatio (None, 40, 48, 48)   160         concatenate_135[0][0]            
__________________________________________________________________________________________________
activation_314 (Activation)     (None, 40, 48, 48)   0           dense_1_2_bn[0][0]               
__________________________________________________________________________________________________
dense_1_2_bottleneck_conv2D (Co (None, 32, 48, 48)   1280        activation_314[0][0]             
__________________________________________________________________________________________________
dense_1_2_bottleneck_bn (BatchN (None, 32, 48, 48)   128         dense_1_2_bottleneck_conv2D[0][0]
__________________________________________________________________________________________________
activation_315 (Activation)     (None, 32, 48, 48)   0           dense_1_2_bottleneck_bn[0][0]    
__________________________________________________________________________________________________
dense_1_2_conv2D (Conv2D)       (None, 8, 48, 48)    2304        activation_315[0][0]             
__________________________________________________________________________________________________
concatenate_136 (Concatenate)   (None, 48, 48, 48)   0           concatenate_135[0][0]            
                                                                 dense_1_2_conv2D[0][0]           
__________________________________________________________________________________________________
dense_1_3_bn (BatchNormalizatio (None, 48, 48, 48)   192         concatenate_136[0][0]            
__________________________________________________________________________________________________
activation_316 (Activation)     (None, 48, 48, 48)   0           dense_1_3_bn[0][0]               
__________________________________________________________________________________________________
dense_1_3_bottleneck_conv2D (Co (None, 32, 48, 48)   1536        activation_316[0][0]             
__________________________________________________________________________________________________
dense_1_3_bottleneck_bn (BatchN (None, 32, 48, 48)   128         dense_1_3_bottleneck_conv2D[0][0]
__________________________________________________________________________________________________
activation_317 (Activation)     (None, 32, 48, 48)   0           dense_1_3_bottleneck_bn[0][0]    
__________________________________________________________________________________________________
dense_1_3_conv2D (Conv2D)       (None, 8, 48, 48)    2304        activation_317[0][0]             
__________________________________________________________________________________________________
concatenate_137 (Concatenate)   (None, 56, 48, 48)   0           concatenate_136[0][0]            
                                                                 dense_1_3_conv2D[0][0]           
__________________________________________________________________________________________________
tr_1_bn (BatchNormalization)    (None, 56, 48, 48)   224         concatenate_137[0][0]            
__________________________________________________________________________________________________
activation_318 (Activation)     (None, 56, 48, 48)   0           tr_1_bn[0][0]                    
__________________________________________________________________________________________________
tr_1_conv2D (Conv2D)            (None, 28, 48, 48)   1568        activation_318[0][0]             
__________________________________________________________________________________________________
average_pooling2d_30 (AveragePo (None, 28, 24, 24)   0           tr_1_conv2D[0][0]                
__________________________________________________________________________________________________
dense_2_0_bn (BatchNormalizatio (None, 28, 24, 24)   112         average_pooling2d_30[0][0]       
__________________________________________________________________________________________________
activation_319 (Activation)     (None, 28, 24, 24)   0           dense_2_0_bn[0][0]               
__________________________________________________________________________________________________
dense_2_0_bottleneck_conv2D (Co (None, 32, 24, 24)   896         activation_319[0][0]             
__________________________________________________________________________________________________
dense_2_0_bottleneck_bn (BatchN (None, 32, 24, 24)   128         dense_2_0_bottleneck_conv2D[0][0]
__________________________________________________________________________________________________
activation_320 (Activation)     (None, 32, 24, 24)   0           dense_2_0_bottleneck_bn[0][0]    
__________________________________________________________________________________________________
dense_2_0_conv2D (Conv2D)       (None, 8, 24, 24)    2304        activation_320[0][0]             
__________________________________________________________________________________________________
concatenate_138 (Concatenate)   (None, 36, 24, 24)   0           average_pooling2d_30[0][0]       
                                                                 dense_2_0_conv2D[0][0]           
__________________________________________________________________________________________________
dense_2_1_bn (BatchNormalizatio (None, 36, 24, 24)   144         concatenate_138[0][0]            
__________________________________________________________________________________________________
activation_321 (Activation)     (None, 36, 24, 24)   0           dense_2_1_bn[0][0]               
__________________________________________________________________________________________________
dense_2_1_bottleneck_conv2D (Co (None, 32, 24, 24)   1152        activation_321[0][0]             
__________________________________________________________________________________________________
dense_2_1_bottleneck_bn (BatchN (None, 32, 24, 24)   128         dense_2_1_bottleneck_conv2D[0][0]
__________________________________________________________________________________________________
activation_322 (Activation)     (None, 32, 24, 24)   0           dense_2_1_bottleneck_bn[0][0]    
__________________________________________________________________________________________________
dense_2_1_conv2D (Conv2D)       (None, 8, 24, 24)    2304        activation_322[0][0]             
__________________________________________________________________________________________________
concatenate_139 (Concatenate)   (None, 44, 24, 24)   0           concatenate_138[0][0]            
                                                                 dense_2_1_conv2D[0][0]           
__________________________________________________________________________________________________
dense_2_2_bn (BatchNormalizatio (None, 44, 24, 24)   176         concatenate_139[0][0]            
__________________________________________________________________________________________________
activation_323 (Activation)     (None, 44, 24, 24)   0           dense_2_2_bn[0][0]               
__________________________________________________________________________________________________
dense_2_2_bottleneck_conv2D (Co (None, 32, 24, 24)   1408        activation_323[0][0]             
__________________________________________________________________________________________________
dense_2_2_bottleneck_bn (BatchN (None, 32, 24, 24)   128         dense_2_2_bottleneck_conv2D[0][0]
__________________________________________________________________________________________________
activation_324 (Activation)     (None, 32, 24, 24)   0           dense_2_2_bottleneck_bn[0][0]    
__________________________________________________________________________________________________
dense_2_2_conv2D (Conv2D)       (None, 8, 24, 24)    2304        activation_324[0][0]             
__________________________________________________________________________________________________
concatenate_140 (Concatenate)   (None, 52, 24, 24)   0           concatenate_139[0][0]            
                                                                 dense_2_2_conv2D[0][0]           
__________________________________________________________________________________________________
dense_2_3_bn (BatchNormalizatio (None, 52, 24, 24)   208         concatenate_140[0][0]            
__________________________________________________________________________________________________
activation_325 (Activation)     (None, 52, 24, 24)   0           dense_2_3_bn[0][0]               
__________________________________________________________________________________________________
dense_2_3_bottleneck_conv2D (Co (None, 32, 24, 24)   1664        activation_325[0][0]             
__________________________________________________________________________________________________
dense_2_3_bottleneck_bn (BatchN (None, 32, 24, 24)   128         dense_2_3_bottleneck_conv2D[0][0]
__________________________________________________________________________________________________
activation_326 (Activation)     (None, 32, 24, 24)   0           dense_2_3_bottleneck_bn[0][0]    
__________________________________________________________________________________________________
dense_2_3_conv2D (Conv2D)       (None, 8, 24, 24)    2304        activation_326[0][0]             
__________________________________________________________________________________________________
concatenate_141 (Concatenate)   (None, 60, 24, 24)   0           concatenate_140[0][0]            
                                                                 dense_2_3_conv2D[0][0]           
__________________________________________________________________________________________________
final_bn (BatchNormalization)   (None, 60, 24, 24)   240         concatenate_141[0][0]            
__________________________________________________________________________________________________
activation_327 (Activation)     (None, 60, 24, 24)   0           final_bn[0][0]                   
__________________________________________________________________________________________________
global_average_pooling2d_15 (Gl (None, 60)           0           activation_327[0][0]             
__________________________________________________________________________________________________
dense_15 (Dense)                (None, 1)            61          global_average_pooling2d_15[0][0]
==================================================================================================
Total params: 47,885
Trainable params: 45,957
Non-trainable params: 1,928
__________________________________________________________________________________________________
Train on 39840 samples, validate on 7440 samples
Epoch 1/30
 - 67s - loss: 0.5990 - acc: 0.7517 - val_loss: 0.6044 - val_acc: 0.7278
…
7296/7440 [============================>.] - ETA: 0s
7392/7440 [============================>.] - ETA: 0s
7440/7440 [==============================] - 14s 2ms/step
Best saved model Test accuracy: 0.8010752688172043
best saved model auc_score ------------------>  0.8889096282807261
__________________________________________________________________________________________________
Layer (type)                    Output Shape         Param #     Connected to                     
==================================================================================================
input_16 (InputLayer)           (None, 2, 96, 96)    0                                            
__________________________________________________________________________________________________
initial_conv2D (Conv2D)         (None, 16, 96, 96)   288         input_16[0][0]                   
__________________________________________________________________________________________________
dense_0_0_bn (BatchNormalizatio (None, 16, 96, 96)   64          initial_conv2D[0][0]             
__________________________________________________________________________________________________
activation_328 (Activation)     (None, 16, 96, 96)   0           dense_0_0_bn[0][0]               
__________________________________________________________________________________________________
dense_0_0_bottleneck_conv2D (Co (None, 32, 96, 96)   512         activation_328[0][0]             
__________________________________________________________________________________________________
dense_0_0_bottleneck_bn (BatchN (None, 32, 96, 96)   128         dense_0_0_bottleneck_conv2D[0][0]
__________________________________________________________________________________________________
activation_329 (Activation)     (None, 32, 96, 96)   0           dense_0_0_bottleneck_bn[0][0]    
__________________________________________________________________________________________________
dense_0_0_conv2D (Conv2D)       (None, 8, 96, 96)    2304        activation_329[0][0]             
__________________________________________________________________________________________________
concatenate_142 (Concatenate)   (None, 24, 96, 96)   0           initial_conv2D[0][0]             
                                                                 dense_0_0_conv2D[0][0]           
__________________________________________________________________________________________________
tr_0_bn (BatchNormalization)    (None, 24, 96, 96)   96          concatenate_142[0][0]            
__________________________________________________________________________________________________
activation_330 (Activation)     (None, 24, 96, 96)   0           tr_0_bn[0][0]                    
__________________________________________________________________________________________________
tr_0_conv2D (Conv2D)            (None, 12, 96, 96)   288         activation_330[0][0]             
__________________________________________________________________________________________________
average_pooling2d_31 (AveragePo (None, 12, 48, 48)   0           tr_0_conv2D[0][0]                
__________________________________________________________________________________________________
dense_1_0_bn (BatchNormalizatio (None, 12, 48, 48)   48          average_pooling2d_31[0][0]       
__________________________________________________________________________________________________
activation_331 (Activation)     (None, 12, 48, 48)   0           dense_1_0_bn[0][0]               
__________________________________________________________________________________________________
dense_1_0_bottleneck_conv2D (Co (None, 32, 48, 48)   384         activation_331[0][0]             
__________________________________________________________________________________________________
dense_1_0_bottleneck_bn (BatchN (None, 32, 48, 48)   128         dense_1_0_bottleneck_conv2D[0][0]
__________________________________________________________________________________________________
activation_332 (Activation)     (None, 32, 48, 48)   0           dense_1_0_bottleneck_bn[0][0]    
__________________________________________________________________________________________________
dense_1_0_conv2D (Conv2D)       (None, 8, 48, 48)    2304        activation_332[0][0]             
__________________________________________________________________________________________________
concatenate_143 (Concatenate)   (None, 20, 48, 48)   0           average_pooling2d_31[0][0]       
                                                                 dense_1_0_conv2D[0][0]           
__________________________________________________________________________________________________
tr_1_bn (BatchNormalization)    (None, 20, 48, 48)   80          concatenate_143[0][0]            
__________________________________________________________________________________________________
activation_333 (Activation)     (None, 20, 48, 48)   0           tr_1_bn[0][0]                    
__________________________________________________________________________________________________
tr_1_conv2D (Conv2D)            (None, 10, 48, 48)   200         activation_333[0][0]             
__________________________________________________________________________________________________
average_pooling2d_32 (AveragePo (None, 10, 24, 24)   0           tr_1_conv2D[0][0]                
__________________________________________________________________________________________________
dense_2_0_bn (BatchNormalizatio (None, 10, 24, 24)   40          average_pooling2d_32[0][0]       
__________________________________________________________________________________________________
activation_334 (Activation)     (None, 10, 24, 24)   0           dense_2_0_bn[0][0]               
__________________________________________________________________________________________________
dense_2_0_bottleneck_conv2D (Co (None, 32, 24, 24)   320         activation_334[0][0]             
__________________________________________________________________________________________________
dense_2_0_bottleneck_bn (BatchN (None, 32, 24, 24)   128         dense_2_0_bottleneck_conv2D[0][0]
__________________________________________________________________________________________________
activation_335 (Activation)     (None, 32, 24, 24)   0           dense_2_0_bottleneck_bn[0][0]    
__________________________________________________________________________________________________
dense_2_0_conv2D (Conv2D)       (None, 8, 24, 24)    2304        activation_335[0][0]             
__________________________________________________________________________________________________
concatenate_144 (Concatenate)   (None, 18, 24, 24)   0           average_pooling2d_32[0][0]       
                                                                 dense_2_0_conv2D[0][0]           
__________________________________________________________________________________________________
final_bn (BatchNormalization)   (None, 18, 24, 24)   72          concatenate_144[0][0]            
__________________________________________________________________________________________________
activation_336 (Activation)     (None, 18, 24, 24)   0           final_bn[0][0]                   
__________________________________________________________________________________________________
global_average_pooling2d_16 (Gl (None, 18)           0           activation_336[0][0]             
__________________________________________________________________________________________________
dense_16 (Dense)                (None, 1)            19          global_average_pooling2d_16[0][0]
==================================================================================================
Total params: 9,707
Trainable params: 9,315
Non-trainable params: 392
__________________________________________________________________________________________________
Train on 39840 samples, validate on 7440 samples
Epoch 1/30
 - 41s - loss: 0.6034 - acc: 0.7188 - val_loss: 0.5377 - val_acc: 0.7746
…
7296/7440 [============================>.] - ETA: 0s
7424/7440 [============================>.] - ETA: 0s
7440/7440 [==============================] - 18s 2ms/step
Best saved model Test accuracy: 0.8172043010752689
best saved model auc_score ------------------>  0.8966767834431725
__________________________________________________________________________________________________
Layer (type)                    Output Shape         Param #     Connected to                     
==================================================================================================
input_23 (InputLayer)           (None, 2, 96, 96)    0                                            
__________________________________________________________________________________________________
initial_conv2D (Conv2D)         (None, 16, 96, 96)   288         input_23[0][0]                   
__________________________________________________________________________________________________
dense_0_0_bn (BatchNormalizatio (None, 16, 96, 96)   64          initial_conv2D[0][0]             
__________________________________________________________________________________________________
activation_409 (Activation)     (None, 16, 96, 96)   0           dense_0_0_bn[0][0]               
__________________________________________________________________________________________________
dense_0_0_bottleneck_conv2D (Co (None, 64, 96, 96)   1024        activation_409[0][0]             
__________________________________________________________________________________________________
dense_0_0_bottleneck_bn (BatchN (None, 64, 96, 96)   256         dense_0_0_bottleneck_conv2D[0][0]
__________________________________________________________________________________________________
activation_410 (Activation)     (None, 64, 96, 96)   0           dense_0_0_bottleneck_bn[0][0]    
__________________________________________________________________________________________________
dense_0_0_conv2D (Conv2D)       (None, 16, 96, 96)   9216        activation_410[0][0]             
__________________________________________________________________________________________________
concatenate_172 (Concatenate)   (None, 32, 96, 96)   0           initial_conv2D[0][0]             
                                                                 dense_0_0_conv2D[0][0]           
__________________________________________________________________________________________________
dense_0_1_bn (BatchNormalizatio (None, 32, 96, 96)   128         concatenate_172[0][0]            
__________________________________________________________________________________________________
activation_411 (Activation)     (None, 32, 96, 96)   0           dense_0_1_bn[0][0]               
__________________________________________________________________________________________________
dense_0_1_bottleneck_conv2D (Co (None, 64, 96, 96)   2048        activation_411[0][0]             
__________________________________________________________________________________________________
dense_0_1_bottleneck_bn (BatchN (None, 64, 96, 96)   256         dense_0_1_bottleneck_conv2D[0][0]
__________________________________________________________________________________________________
activation_412 (Activation)     (None, 64, 96, 96)   0           dense_0_1_bottleneck_bn[0][0]    
__________________________________________________________________________________________________
dense_0_1_conv2D (Conv2D)       (None, 16, 96, 96)   9216        activation_412[0][0]             
__________________________________________________________________________________________________
concatenate_173 (Concatenate)   (None, 48, 96, 96)   0           concatenate_172[0][0]            
                                                                 dense_0_1_conv2D[0][0]           
__________________________________________________________________________________________________
dense_0_2_bn (BatchNormalizatio (None, 48, 96, 96)   192         concatenate_173[0][0]            
__________________________________________________________________________________________________
activation_413 (Activation)     (None, 48, 96, 96)   0           dense_0_2_bn[0][0]               
__________________________________________________________________________________________________
dense_0_2_bottleneck_conv2D (Co (None, 64, 96, 96)   3072        activation_413[0][0]             
__________________________________________________________________________________________________
dense_0_2_bottleneck_bn (BatchN (None, 64, 96, 96)   256         dense_0_2_bottleneck_conv2D[0][0]
__________________________________________________________________________________________________
activation_414 (Activation)     (None, 64, 96, 96)   0           dense_0_2_bottleneck_bn[0][0]    
__________________________________________________________________________________________________
dense_0_2_conv2D (Conv2D)       (None, 16, 96, 96)   9216        activation_414[0][0]             
__________________________________________________________________________________________________
concatenate_174 (Concatenate)   (None, 64, 96, 96)   0           concatenate_173[0][0]            
                                                                 dense_0_2_conv2D[0][0]           
__________________________________________________________________________________________________
dense_0_3_bn (BatchNormalizatio (None, 64, 96, 96)   256         concatenate_174[0][0]            
__________________________________________________________________________________________________
activation_415 (Activation)     (None, 64, 96, 96)   0           dense_0_3_bn[0][0]               
__________________________________________________________________________________________________
dense_0_3_bottleneck_conv2D (Co (None, 64, 96, 96)   4096        activation_415[0][0]             
__________________________________________________________________________________________________
dense_0_3_bottleneck_bn (BatchN (None, 64, 96, 96)   256         dense_0_3_bottleneck_conv2D[0][0]
__________________________________________________________________________________________________
activation_416 (Activation)     (None, 64, 96, 96)   0           dense_0_3_bottleneck_bn[0][0]    
__________________________________________________________________________________________________
dense_0_3_conv2D (Conv2D)       (None, 16, 96, 96)   9216        activation_416[0][0]             
__________________________________________________________________________________________________
concatenate_175 (Concatenate)   (None, 80, 96, 96)   0           concatenate_174[0][0]            
                                                                 dense_0_3_conv2D[0][0]           
__________________________________________________________________________________________________
dense_0_4_bn (BatchNormalizatio (None, 80, 96, 96)   320         concatenate_175[0][0]            
__________________________________________________________________________________________________
activation_417 (Activation)     (None, 80, 96, 96)   0           dense_0_4_bn[0][0]               
__________________________________________________________________________________________________
dense_0_4_bottleneck_conv2D (Co (None, 64, 96, 96)   5120        activation_417[0][0]             
__________________________________________________________________________________________________
dense_0_4_bottleneck_bn (BatchN (None, 64, 96, 96)   256         dense_0_4_bottleneck_conv2D[0][0]
__________________________________________________________________________________________________
activation_418 (Activation)     (None, 64, 96, 96)   0           dense_0_4_bottleneck_bn[0][0]    
__________________________________________________________________________________________________
dense_0_4_conv2D (Conv2D)       (None, 16, 96, 96)   9216        activation_418[0][0]             
__________________________________________________________________________________________________
concatenate_176 (Concatenate)   (None, 96, 96, 96)   0           concatenate_175[0][0]            
                                                                 dense_0_4_conv2D[0][0]           
__________________________________________________________________________________________________
tr_0_bn (BatchNormalization)    (None, 96, 96, 96)   384         concatenate_176[0][0]            
__________________________________________________________________________________________________
activation_419 (Activation)     (None, 96, 96, 96)   0           tr_0_bn[0][0]                    
__________________________________________________________________________________________________
tr_0_conv2D (Conv2D)            (None, 48, 96, 96)   4608        activation_419[0][0]             
__________________________________________________________________________________________________
average_pooling2d_45 (AveragePo (None, 48, 48, 48)   0           tr_0_conv2D[0][0]                
__________________________________________________________________________________________________
dense_1_0_bn (BatchNormalizatio (None, 48, 48, 48)   192         average_pooling2d_45[0][0]       
__________________________________________________________________________________________________
activation_420 (Activation)     (None, 48, 48, 48)   0           dense_1_0_bn[0][0]               
__________________________________________________________________________________________________
dense_1_0_bottleneck_conv2D (Co (None, 64, 48, 48)   3072        activation_420[0][0]             
__________________________________________________________________________________________________
dense_1_0_bottleneck_bn (BatchN (None, 64, 48, 48)   256         dense_1_0_bottleneck_conv2D[0][0]
__________________________________________________________________________________________________
activation_421 (Activation)     (None, 64, 48, 48)   0           dense_1_0_bottleneck_bn[0][0]    
__________________________________________________________________________________________________
dense_1_0_conv2D (Conv2D)       (None, 16, 48, 48)   9216        activation_421[0][0]             
__________________________________________________________________________________________________
concatenate_177 (Concatenate)   (None, 64, 48, 48)   0           average_pooling2d_45[0][0]       
                                                                 dense_1_0_conv2D[0][0]           
__________________________________________________________________________________________________
dense_1_1_bn (BatchNormalizatio (None, 64, 48, 48)   256         concatenate_177[0][0]            
__________________________________________________________________________________________________
activation_422 (Activation)     (None, 64, 48, 48)   0           dense_1_1_bn[0][0]               
__________________________________________________________________________________________________
dense_1_1_bottleneck_conv2D (Co (None, 64, 48, 48)   4096        activation_422[0][0]             
__________________________________________________________________________________________________
dense_1_1_bottleneck_bn (BatchN (None, 64, 48, 48)   256         dense_1_1_bottleneck_conv2D[0][0]
__________________________________________________________________________________________________
activation_423 (Activation)     (None, 64, 48, 48)   0           dense_1_1_bottleneck_bn[0][0]    
__________________________________________________________________________________________________
dense_1_1_conv2D (Conv2D)       (None, 16, 48, 48)   9216        activation_423[0][0]             
__________________________________________________________________________________________________
concatenate_178 (Concatenate)   (None, 80, 48, 48)   0           concatenate_177[0][0]            
                                                                 dense_1_1_conv2D[0][0]           
__________________________________________________________________________________________________
dense_1_2_bn (BatchNormalizatio (None, 80, 48, 48)   320         concatenate_178[0][0]            
__________________________________________________________________________________________________
activation_424 (Activation)     (None, 80, 48, 48)   0           dense_1_2_bn[0][0]               
__________________________________________________________________________________________________
dense_1_2_bottleneck_conv2D (Co (None, 64, 48, 48)   5120        activation_424[0][0]             
__________________________________________________________________________________________________
dense_1_2_bottleneck_bn (BatchN (None, 64, 48, 48)   256         dense_1_2_bottleneck_conv2D[0][0]
__________________________________________________________________________________________________
activation_425 (Activation)     (None, 64, 48, 48)   0           dense_1_2_bottleneck_bn[0][0]    
__________________________________________________________________________________________________
dense_1_2_conv2D (Conv2D)       (None, 16, 48, 48)   9216        activation_425[0][0]             
__________________________________________________________________________________________________
concatenate_179 (Concatenate)   (None, 96, 48, 48)   0           concatenate_178[0][0]            
                                                                 dense_1_2_conv2D[0][0]           
__________________________________________________________________________________________________
dense_1_3_bn (BatchNormalizatio (None, 96, 48, 48)   384         concatenate_179[0][0]            
__________________________________________________________________________________________________
activation_426 (Activation)     (None, 96, 48, 48)   0           dense_1_3_bn[0][0]               
__________________________________________________________________________________________________
dense_1_3_bottleneck_conv2D (Co (None, 64, 48, 48)   6144        activation_426[0][0]             
__________________________________________________________________________________________________
dense_1_3_bottleneck_bn (BatchN (None, 64, 48, 48)   256         dense_1_3_bottleneck_conv2D[0][0]
__________________________________________________________________________________________________
activation_427 (Activation)     (None, 64, 48, 48)   0           dense_1_3_bottleneck_bn[0][0]    
__________________________________________________________________________________________________
dense_1_3_conv2D (Conv2D)       (None, 16, 48, 48)   9216        activation_427[0][0]             
__________________________________________________________________________________________________
concatenate_180 (Concatenate)   (None, 112, 48, 48)  0           concatenate_179[0][0]            
                                                                 dense_1_3_conv2D[0][0]           
__________________________________________________________________________________________________
dense_1_4_bn (BatchNormalizatio (None, 112, 48, 48)  448         concatenate_180[0][0]            
__________________________________________________________________________________________________
activation_428 (Activation)     (None, 112, 48, 48)  0           dense_1_4_bn[0][0]               
__________________________________________________________________________________________________
dense_1_4_bottleneck_conv2D (Co (None, 64, 48, 48)   7168        activation_428[0][0]             
__________________________________________________________________________________________________
dense_1_4_bottleneck_bn (BatchN (None, 64, 48, 48)   256         dense_1_4_bottleneck_conv2D[0][0]
__________________________________________________________________________________________________
activation_429 (Activation)     (None, 64, 48, 48)   0           dense_1_4_bottleneck_bn[0][0]    
__________________________________________________________________________________________________
dense_1_4_conv2D (Conv2D)       (None, 16, 48, 48)   9216        activation_429[0][0]             
__________________________________________________________________________________________________
concatenate_181 (Concatenate)   (None, 128, 48, 48)  0           concatenate_180[0][0]            
                                                                 dense_1_4_conv2D[0][0]           
__________________________________________________________________________________________________
tr_1_bn (BatchNormalization)    (None, 128, 48, 48)  512         concatenate_181[0][0]            
__________________________________________________________________________________________________
activation_430 (Activation)     (None, 128, 48, 48)  0           tr_1_bn[0][0]                    
__________________________________________________________________________________________________
tr_1_conv2D (Conv2D)            (None, 64, 48, 48)   8192        activation_430[0][0]             
__________________________________________________________________________________________________
average_pooling2d_46 (AveragePo (None, 64, 24, 24)   0           tr_1_conv2D[0][0]                
__________________________________________________________________________________________________
dense_2_0_bn (BatchNormalizatio (None, 64, 24, 24)   256         average_pooling2d_46[0][0]       
__________________________________________________________________________________________________
activation_431 (Activation)     (None, 64, 24, 24)   0           dense_2_0_bn[0][0]               
__________________________________________________________________________________________________
dense_2_0_bottleneck_conv2D (Co (None, 64, 24, 24)   4096        activation_431[0][0]             
__________________________________________________________________________________________________
dense_2_0_bottleneck_bn (BatchN (None, 64, 24, 24)   256         dense_2_0_bottleneck_conv2D[0][0]
__________________________________________________________________________________________________
activation_432 (Activation)     (None, 64, 24, 24)   0           dense_2_0_bottleneck_bn[0][0]    
__________________________________________________________________________________________________
dense_2_0_conv2D (Conv2D)       (None, 16, 24, 24)   9216        activation_432[0][0]             
__________________________________________________________________________________________________
concatenate_182 (Concatenate)   (None, 80, 24, 24)   0           average_pooling2d_46[0][0]       
                                                                 dense_2_0_conv2D[0][0]           
__________________________________________________________________________________________________
dense_2_1_bn (BatchNormalizatio (None, 80, 24, 24)   320         concatenate_182[0][0]            
__________________________________________________________________________________________________
activation_433 (Activation)     (None, 80, 24, 24)   0           dense_2_1_bn[0][0]               
__________________________________________________________________________________________________
dense_2_1_bottleneck_conv2D (Co (None, 64, 24, 24)   5120        activation_433[0][0]             
__________________________________________________________________________________________________
dense_2_1_bottleneck_bn (BatchN (None, 64, 24, 24)   256         dense_2_1_bottleneck_conv2D[0][0]
__________________________________________________________________________________________________
activation_434 (Activation)     (None, 64, 24, 24)   0           dense_2_1_bottleneck_bn[0][0]    
__________________________________________________________________________________________________
dense_2_1_conv2D (Conv2D)       (None, 16, 24, 24)   9216        activation_434[0][0]             
__________________________________________________________________________________________________
concatenate_183 (Concatenate)   (None, 96, 24, 24)   0           concatenate_182[0][0]            
                                                                 dense_2_1_conv2D[0][0]           
__________________________________________________________________________________________________
dense_2_2_bn (BatchNormalizatio (None, 96, 24, 24)   384         concatenate_183[0][0]            
__________________________________________________________________________________________________
activation_435 (Activation)     (None, 96, 24, 24)   0           dense_2_2_bn[0][0]               
__________________________________________________________________________________________________
dense_2_2_bottleneck_conv2D (Co (None, 64, 24, 24)   6144        activation_435[0][0]             
__________________________________________________________________________________________________
dense_2_2_bottleneck_bn (BatchN (None, 64, 24, 24)   256         dense_2_2_bottleneck_conv2D[0][0]
__________________________________________________________________________________________________
activation_436 (Activation)     (None, 64, 24, 24)   0           dense_2_2_bottleneck_bn[0][0]    
__________________________________________________________________________________________________
dense_2_2_conv2D (Conv2D)       (None, 16, 24, 24)   9216        activation_436[0][0]             
__________________________________________________________________________________________________
concatenate_184 (Concatenate)   (None, 112, 24, 24)  0           concatenate_183[0][0]            
                                                                 dense_2_2_conv2D[0][0]           
__________________________________________________________________________________________________
dense_2_3_bn (BatchNormalizatio (None, 112, 24, 24)  448         concatenate_184[0][0]            
__________________________________________________________________________________________________
activation_437 (Activation)     (None, 112, 24, 24)  0           dense_2_3_bn[0][0]               
__________________________________________________________________________________________________
dense_2_3_bottleneck_conv2D (Co (None, 64, 24, 24)   7168        activation_437[0][0]             
__________________________________________________________________________________________________
dense_2_3_bottleneck_bn (BatchN (None, 64, 24, 24)   256         dense_2_3_bottleneck_conv2D[0][0]
__________________________________________________________________________________________________
activation_438 (Activation)     (None, 64, 24, 24)   0           dense_2_3_bottleneck_bn[0][0]    
__________________________________________________________________________________________________
dense_2_3_conv2D (Conv2D)       (None, 16, 24, 24)   9216        activation_438[0][0]             
__________________________________________________________________________________________________
concatenate_185 (Concatenate)   (None, 128, 24, 24)  0           concatenate_184[0][0]            
                                                                 dense_2_3_conv2D[0][0]           
__________________________________________________________________________________________________
dense_2_4_bn (BatchNormalizatio (None, 128, 24, 24)  512         concatenate_185[0][0]            
__________________________________________________________________________________________________
activation_439 (Activation)     (None, 128, 24, 24)  0           dense_2_4_bn[0][0]               
__________________________________________________________________________________________________
dense_2_4_bottleneck_conv2D (Co (None, 64, 24, 24)   8192        activation_439[0][0]             
__________________________________________________________________________________________________
dense_2_4_bottleneck_bn (BatchN (None, 64, 24, 24)   256         dense_2_4_bottleneck_conv2D[0][0]
__________________________________________________________________________________________________
activation_440 (Activation)     (None, 64, 24, 24)   0           dense_2_4_bottleneck_bn[0][0]    
__________________________________________________________________________________________________
dense_2_4_conv2D (Conv2D)       (None, 16, 24, 24)   9216        activation_440[0][0]             
__________________________________________________________________________________________________
concatenate_186 (Concatenate)   (None, 144, 24, 24)  0           concatenate_185[0][0]            
                                                                 dense_2_4_conv2D[0][0]           
__________________________________________________________________________________________________
final_bn (BatchNormalization)   (None, 144, 24, 24)  576         concatenate_186[0][0]            
__________________________________________________________________________________________________
activation_441 (Activation)     (None, 144, 24, 24)  0           final_bn[0][0]                   
__________________________________________________________________________________________________
global_average_pooling2d_23 (Gl (None, 144)          0           activation_441[0][0]             
__________________________________________________________________________________________________
dense_23 (Dense)                (None, 1)            145         global_average_pooling2d_23[0][0]
==================================================================================================
Total params: 232,945
Trainable params: 228,049
Non-trainable params: 4,896
__________________________________________________________________________________________________
Train on 39840 samples, validate on 7440 samples
Epoch 1/30
 - 129s - loss: 0.6267 - acc: 0.7937 - val_loss: 0.7881 - val_acc: 0.7921
…
