…
  59:     test_acc2 = accuracy_score(y_test,pred_scores2)
  60: 
  61:     auc_score = roc_auc_score(y_test,pred)
  62:     print("score new --------------- >",test_acc2)
  63:     print("auc_score ------------------> ",auc_score)
  64: 
  65: 
  66:     return {'loss': -auc_score, 'status': STATUS_OK, 'model': model}
  67: 
__________________________________________________________________________________________________
Layer (type)                    Output Shape         Param #     Connected to                     
==================================================================================================
input_2 (InputLayer)            (None, 1, 96, 96)    0                                            
__________________________________________________________________________________________________
input_3 (InputLayer)            (None, 1, 96, 96)    0                                            
__________________________________________________________________________________________________
DenseNet (Model)                (None, 57600)        30880       input_2[0][0]                    
                                                                 input_3[0][0]                    
__________________________________________________________________________________________________
merge_features (Concatenate)    (None, 115200)       0           DenseNet[1][0]                   
                                                                 DenseNet[2][0]                   
__________________________________________________________________________________________________
dense_1 (Dense)                 (None, 512)          58982912    merge_features[0][0]             
__________________________________________________________________________________________________
dropout_6 (Dropout)             (None, 512)          0           dense_1[0][0]                    
__________________________________________________________________________________________________
dense_2 (Dense)                 (None, 512)          262656      dropout_6[0][0]                  
__________________________________________________________________________________________________
activation_7 (Activation)       (None, 512)          0           dense_2[0][0]                    
__________________________________________________________________________________________________
batch_normalization_7 (BatchNor (None, 512)          2048        activation_7[0][0]               
__________________________________________________________________________________________________
dense_3 (Dense)                 (None, 1)            513         batch_normalization_7[0][0]      
==================================================================================================
Total params: 59,279,009
Trainable params: 59,277,505
Non-trainable params: 1,504
__________________________________________________________________________________________________
Test accuracy: 0.7201612903225807
score new --------------- > 0.730510752688172
auc_score ------------------>  0.8473544990750376
__________________________________________________________________________________________________
Layer (type)                    Output Shape         Param #     Connected to                     
==================================================================================================
input_5 (InputLayer)            (None, 1, 96, 96)    0                                            
__________________________________________________________________________________________________
input_6 (InputLayer)            (None, 1, 96, 96)    0                                            
__________________________________________________________________________________________________
DenseNet (Model)                (None, 48384)        25884       input_5[0][0]                    
                                                                 input_6[0][0]                    
__________________________________________________________________________________________________
merge_features (Concatenate)    (None, 96768)        0           DenseNet[1][0]                   
                                                                 DenseNet[2][0]                   
__________________________________________________________________________________________________
dense_4 (Dense)                 (None, 512)          49545728    merge_features[0][0]             
__________________________________________________________________________________________________
dropout_12 (Dropout)            (None, 512)          0           dense_4[0][0]                    
__________________________________________________________________________________________________
dense_5 (Dense)                 (None, 512)          262656      dropout_12[0][0]                 
__________________________________________________________________________________________________
activation_14 (Activation)      (None, 512)          0           dense_5[0][0]                    
__________________________________________________________________________________________________
batch_normalization_14 (BatchNo (None, 512)          2048        activation_14[0][0]              
__________________________________________________________________________________________________
dense_6 (Dense)                 (None, 1)            513         batch_normalization_14[0][0]     
==================================================================================================
Total params: 49,836,829
Trainable params: 49,835,373
Non-trainable params: 1,456
__________________________________________________________________________________________________
Test accuracy: 0.7569892473118279
score new --------------- > 0.766263440860215
auc_score ------------------>  0.8633754624812118
__________________________________________________________________________________________________
Layer (type)                    Output Shape         Param #     Connected to                     
==================================================================================================
input_8 (InputLayer)            (None, 1, 96, 96)    0                                            
__________________________________________________________________________________________________
input_9 (InputLayer)            (None, 1, 96, 96)    0                                            
__________________________________________________________________________________________________
DenseNet (Model)                (None, 52896)        28382       input_8[0][0]                    
                                                                 input_9[0][0]                    
__________________________________________________________________________________________________
merge_features (Concatenate)    (None, 105792)       0           DenseNet[1][0]                   
                                                                 DenseNet[2][0]                   
__________________________________________________________________________________________________
dense_7 (Dense)                 (None, 512)          54166016    merge_features[0][0]             
__________________________________________________________________________________________________
dropout_18 (Dropout)            (None, 512)          0           dense_7[0][0]                    
__________________________________________________________________________________________________
dense_8 (Dense)                 (None, 512)          262656      dropout_18[0][0]                 
__________________________________________________________________________________________________
activation_21 (Activation)      (None, 512)          0           dense_8[0][0]                    
__________________________________________________________________________________________________
batch_normalization_21 (BatchNo (None, 512)          2048        activation_21[0][0]              
__________________________________________________________________________________________________
dense_9 (Dense)                 (None, 1)            513         batch_normalization_21[0][0]     
==================================================================================================
Total params: 54,459,615
Trainable params: 54,458,135
Non-trainable params: 1,480
__________________________________________________________________________________________________
Test accuracy: 0.6104838709677419
score new --------------- > 0.6358870967741935
auc_score ------------------>  0.7201372268470344
__________________________________________________________________________________________________
Layer (type)                    Output Shape         Param #     Connected to                     
==================================================================================================
input_11 (InputLayer)           (None, 1, 96, 96)    0                                            
__________________________________________________________________________________________________
input_12 (InputLayer)           (None, 1, 96, 96)    0                                            
__________________________________________________________________________________________________
DenseNet (Model)                (None, 62496)        33378       input_11[0][0]                   
                                                                 input_12[0][0]                   
__________________________________________________________________________________________________
merge_features (Concatenate)    (None, 124992)       0           DenseNet[1][0]                   
                                                                 DenseNet[2][0]                   
__________________________________________________________________________________________________
dense_10 (Dense)                (None, 512)          63996416    merge_features[0][0]             
__________________________________________________________________________________________________
dropout_24 (Dropout)            (None, 512)          0           dense_10[0][0]                   
__________________________________________________________________________________________________
dense_11 (Dense)                (None, 512)          262656      dropout_24[0][0]                 
__________________________________________________________________________________________________
activation_28 (Activation)      (None, 512)          0           dense_11[0][0]                   
__________________________________________________________________________________________________
batch_normalization_28 (BatchNo (None, 512)          2048        activation_28[0][0]              
__________________________________________________________________________________________________
dense_12 (Dense)                (None, 1)            513         batch_normalization_28[0][0]     
==================================================================================================
Total params: 64,295,011
Trainable params: 64,293,483
Non-trainable params: 1,528
__________________________________________________________________________________________________
Epoch 00003: early stopping
Test accuracy: 0.5502688172043011
score new --------------- > 0.5900537634408602
auc_score ------------------>  0.7736133151231356
__________________________________________________________________________________________________
Layer (type)                    Output Shape         Param #     Connected to                     
==================================================================================================
input_14 (InputLayer)           (None, 1, 96, 96)    0                                            
__________________________________________________________________________________________________
input_15 (InputLayer)           (None, 1, 96, 96)    0                                            
__________________________________________________________________________________________________
DenseNet (Model)                (None, 62496)        33378       input_14[0][0]                   
                                                                 input_15[0][0]                   
__________________________________________________________________________________________________
merge_features (Concatenate)    (None, 124992)       0           DenseNet[1][0]                   
                                                                 DenseNet[2][0]                   
__________________________________________________________________________________________________
dense_13 (Dense)                (None, 512)          63996416    merge_features[0][0]             
__________________________________________________________________________________________________
dropout_30 (Dropout)            (None, 512)          0           dense_13[0][0]                   
__________________________________________________________________________________________________
dense_14 (Dense)                (None, 512)          262656      dropout_30[0][0]                 
__________________________________________________________________________________________________
activation_35 (Activation)      (None, 512)          0           dense_14[0][0]                   
__________________________________________________________________________________________________
batch_normalization_35 (BatchNo (None, 512)          2048        activation_35[0][0]              
__________________________________________________________________________________________________
dense_15 (Dense)                (None, 1)            513         batch_normalization_35[0][0]     
==================================================================================================
Total params: 64,295,011
Trainable params: 64,293,483
Non-trainable params: 1,528
__________________________________________________________________________________________________
Test accuracy: 0.7345430107526881
score new --------------- > 0.7311827956989247
auc_score ------------------>  0.8337195774077929
__________________________________________________________________________________________________
Layer (type)                    Output Shape         Param #     Connected to                     
==================================================================================================
input_17 (InputLayer)           (None, 1, 96, 96)    0                                            
__________________________________________________________________________________________________
input_18 (InputLayer)           (None, 1, 96, 96)    0                                            
__________________________________________________________________________________________________
DenseNet (Model)                (None, 57600)        30880       input_17[0][0]                   
                                                                 input_18[0][0]                   
__________________________________________________________________________________________________
merge_features (Concatenate)    (None, 115200)       0           DenseNet[1][0]                   
                                                                 DenseNet[2][0]                   
__________________________________________________________________________________________________
dense_16 (Dense)                (None, 512)          58982912    merge_features[0][0]             
__________________________________________________________________________________________________
dropout_36 (Dropout)            (None, 512)          0           dense_16[0][0]                   
__________________________________________________________________________________________________
dense_17 (Dense)                (None, 512)          262656      dropout_36[0][0]                 
__________________________________________________________________________________________________
activation_42 (Activation)      (None, 512)          0           dense_17[0][0]                   
__________________________________________________________________________________________________
batch_normalization_42 (BatchNo (None, 512)          2048        activation_42[0][0]              
__________________________________________________________________________________________________
dense_18 (Dense)                (None, 1)            513         batch_normalization_42[0][0]     
==================================================================================================
Total params: 59,279,009
Trainable params: 59,277,505
Non-trainable params: 1,504
__________________________________________________________________________________________________
Test accuracy: 0.7295698924731183
score new --------------- > 0.7307795698924732
auc_score ------------------>  0.7991044123598103
__________________________________________________________________________________________________
Layer (type)                    Output Shape         Param #     Connected to                     
==================================================================================================
input_20 (InputLayer)           (None, 1, 96, 96)    0                                            
__________________________________________________________________________________________________
input_21 (InputLayer)           (None, 1, 96, 96)    0                                            
__________________________________________________________________________________________________
DenseNet (Model)                (None, 62496)        33378       input_20[0][0]                   
                                                                 input_21[0][0]                   
__________________________________________________________________________________________________
merge_features (Concatenate)    (None, 124992)       0           DenseNet[1][0]                   
                                                                 DenseNet[2][0]                   
__________________________________________________________________________________________________
dense_19 (Dense)                (None, 512)          63996416    merge_features[0][0]             
__________________________________________________________________________________________________
dropout_42 (Dropout)            (None, 512)          0           dense_19[0][0]                   
__________________________________________________________________________________________________
dense_20 (Dense)                (None, 512)          262656      dropout_42[0][0]                 
__________________________________________________________________________________________________
activation_49 (Activation)      (None, 512)          0           dense_20[0][0]                   
__________________________________________________________________________________________________
batch_normalization_49 (BatchNo (None, 512)          2048        activation_49[0][0]              
__________________________________________________________________________________________________
dense_21 (Dense)                (None, 1)            513         batch_normalization_49[0][0]     
==================================================================================================
Total params: 64,295,011
Trainable params: 64,293,483
Non-trainable params: 1,528
__________________________________________________________________________________________________
Test accuracy: 0.6990591397849463
score new --------------- > 0.7208333333333333
auc_score ------------------>  0.8588695947508382
__________________________________________________________________________________________________
Layer (type)                    Output Shape         Param #     Connected to                     
==================================================================================================
input_23 (InputLayer)           (None, 1, 96, 96)    0                                            
__________________________________________________________________________________________________
input_24 (InputLayer)           (None, 1, 96, 96)    0                                            
__________________________________________________________________________________________________
DenseNet (Model)                (None, 57600)        30880       input_23[0][0]                   
                                                                 input_24[0][0]                   
__________________________________________________________________________________________________
merge_features (Concatenate)    (None, 115200)       0           DenseNet[1][0]                   
                                                                 DenseNet[2][0]                   
__________________________________________________________________________________________________
dense_22 (Dense)                (None, 512)          58982912    merge_features[0][0]             
__________________________________________________________________________________________________
dropout_48 (Dropout)            (None, 512)          0           dense_22[0][0]                   
__________________________________________________________________________________________________
dense_23 (Dense)                (None, 512)          262656      dropout_48[0][0]                 
__________________________________________________________________________________________________
activation_56 (Activation)      (None, 512)          0           dense_23[0][0]                   
__________________________________________________________________________________________________
batch_normalization_56 (BatchNo (None, 512)          2048        activation_56[0][0]              
__________________________________________________________________________________________________
dense_24 (Dense)                (None, 1)            513         batch_normalization_56[0][0]     
==================================================================================================
Total params: 59,279,009
Trainable params: 59,277,505
Non-trainable params: 1,504
__________________________________________________________________________________________________
Test accuracy: 0.7172043010752688
score new --------------- > 0.7321236559139785
auc_score ------------------>  0.8524051552202567
__________________________________________________________________________________________________
Layer (type)                    Output Shape         Param #     Connected to                     
==================================================================================================
input_26 (InputLayer)           (None, 1, 96, 96)    0                                            
__________________________________________________________________________________________________
input_27 (InputLayer)           (None, 1, 96, 96)    0                                            
__________________________________________________________________________________________________
DenseNet (Model)                (None, 48384)        25884       input_26[0][0]                   
                                                                 input_27[0][0]                   
__________________________________________________________________________________________________
merge_features (Concatenate)    (None, 96768)        0           DenseNet[1][0]                   
                                                                 DenseNet[2][0]                   
__________________________________________________________________________________________________
dense_25 (Dense)                (None, 512)          49545728    merge_features[0][0]             
__________________________________________________________________________________________________
dropout_54 (Dropout)            (None, 512)          0           dense_25[0][0]                   
__________________________________________________________________________________________________
dense_26 (Dense)                (None, 512)          262656      dropout_54[0][0]                 
__________________________________________________________________________________________________
activation_63 (Activation)      (None, 512)          0           dense_26[0][0]                   
__________________________________________________________________________________________________
batch_normalization_63 (BatchNo (None, 512)          2048        activation_63[0][0]              
__________________________________________________________________________________________________
dense_27 (Dense)                (None, 1)            513         batch_normalization_63[0][0]     
==================================================================================================
Total params: 49,836,829
Trainable params: 49,835,373
Non-trainable params: 1,456
__________________________________________________________________________________________________
Test accuracy: 0.646236559139785
score new --------------- > 0.6743279569892473
auc_score ------------------>  0.8116263440860215
__________________________________________________________________________________________________
Layer (type)                    Output Shape         Param #     Connected to                     
==================================================================================================
input_29 (InputLayer)           (None, 1, 96, 96)    0                                            
__________________________________________________________________________________________________
input_30 (InputLayer)           (None, 1, 96, 96)    0                                            
__________________________________________________________________________________________________
DenseNet (Model)                (None, 52896)        28382       input_29[0][0]                   
                                                                 input_30[0][0]                   
__________________________________________________________________________________________________
merge_features (Concatenate)    (None, 105792)       0           DenseNet[1][0]                   
                                                                 DenseNet[2][0]                   
__________________________________________________________________________________________________
dense_28 (Dense)                (None, 512)          54166016    merge_features[0][0]             
__________________________________________________________________________________________________
dropout_60 (Dropout)            (None, 512)          0           dense_28[0][0]                   
__________________________________________________________________________________________________
dense_29 (Dense)                (None, 512)          262656      dropout_60[0][0]                 
__________________________________________________________________________________________________
activation_70 (Activation)      (None, 512)          0           dense_29[0][0]                   
__________________________________________________________________________________________________
batch_normalization_70 (BatchNo (None, 512)          2048        activation_70[0][0]              
__________________________________________________________________________________________________
dense_30 (Dense)                (None, 1)            513         batch_normalization_70[0][0]     
==================================================================================================
Total params: 54,459,615
Trainable params: 54,458,135
Non-trainable params: 1,480
__________________________________________________________________________________________________
Test accuracy: 0.7426075268817204
score new --------------- > 0.7416666666666667
auc_score ------------------>  0.864634350791999
__________________________________________________________________________________________________
Layer (type)                    Output Shape         Param #     Connected to                     
==================================================================================================
input_32 (InputLayer)           (None, 1, 96, 96)    0                                            
__________________________________________________________________________________________________
input_33 (InputLayer)           (None, 1, 96, 96)    0                                            
__________________________________________________________________________________________________
DenseNet (Model)                (None, 62496)        33378       input_32[0][0]                   
                                                                 input_33[0][0]                   
__________________________________________________________________________________________________
merge_features (Concatenate)    (None, 124992)       0           DenseNet[1][0]                   
                                                                 DenseNet[2][0]                   
__________________________________________________________________________________________________
dense_31 (Dense)                (None, 512)          63996416    merge_features[0][0]             
__________________________________________________________________________________________________
dropout_66 (Dropout)            (None, 512)          0           dense_31[0][0]                   
__________________________________________________________________________________________________
dense_32 (Dense)                (None, 512)          262656      dropout_66[0][0]                 
__________________________________________________________________________________________________
activation_77 (Activation)      (None, 512)          0           dense_32[0][0]                   
__________________________________________________________________________________________________
batch_normalization_77 (BatchNo (None, 512)          2048        activation_77[0][0]              
__________________________________________________________________________________________________
dense_33 (Dense)                (None, 1)            513         batch_normalization_77[0][0]     
==================================================================================================
Total params: 64,295,011
Trainable params: 64,293,483
Non-trainable params: 1,528
__________________________________________________________________________________________________
Epoch 00003: early stopping
Test accuracy: 0.5618279569892473
score new --------------- > 0.6030913978494624
auc_score ------------------>  0.8058391143484797
__________________________________________________________________________________________________
Layer (type)                    Output Shape         Param #     Connected to                     
==================================================================================================
input_35 (InputLayer)           (None, 1, 96, 96)    0                                            
__________________________________________________________________________________________________
input_36 (InputLayer)           (None, 1, 96, 96)    0                                            
__________________________________________________________________________________________________
DenseNet (Model)                (None, 52896)        28382       input_35[0][0]                   
                                                                 input_36[0][0]                   
__________________________________________________________________________________________________
merge_features (Concatenate)    (None, 105792)       0           DenseNet[1][0]                   
                                                                 DenseNet[2][0]                   
__________________________________________________________________________________________________
dense_34 (Dense)                (None, 512)          54166016    merge_features[0][0]             
__________________________________________________________________________________________________
dropout_72 (Dropout)            (None, 512)          0           dense_34[0][0]                   
__________________________________________________________________________________________________
dense_35 (Dense)                (None, 512)          262656      dropout_72[0][0]                 
__________________________________________________________________________________________________
activation_84 (Activation)      (None, 512)          0           dense_35[0][0]                   
__________________________________________________________________________________________________
batch_normalization_84 (BatchNo (None, 512)          2048        activation_84[0][0]              
__________________________________________________________________________________________________
dense_36 (Dense)                (None, 1)            513         batch_normalization_84[0][0]     
==================================================================================================
Total params: 54,459,615
Trainable params: 54,458,135
Non-trainable params: 1,480
__________________________________________________________________________________________________
Test accuracy: 0.7548387096774194
score new --------------- > 0.7690860215053763
…
