…
  63:     test_acc2 = accuracy_score(y_test,pred_scores2)
  64: 
  65:     auc_score = roc_auc_score(y_test,pred)
  66:     print("score new --------------- >",test_acc2)
  67:     print("auc_score ------------------> ",auc_score)
  68: 
  69: 
  70:     return {'loss': -auc_score, 'status': STATUS_OK, 'model': model}
  71: 
__________________________________________________________________________________________________
Layer (type)                    Output Shape         Param #     Connected to                     
==================================================================================================
input_2 (InputLayer)            (None, 1, 96, 96)    0                                            
__________________________________________________________________________________________________
input_3 (InputLayer)            (None, 1, 96, 96)    0                                            
__________________________________________________________________________________________________
DenseNet (Model)                (None, 2688)         15728       input_2[0][0]                    
                                                                 input_3[0][0]                    
__________________________________________________________________________________________________
merge_features (Concatenate)    (None, 5376)         0           DenseNet[1][0]                   
                                                                 DenseNet[2][0]                   
__________________________________________________________________________________________________
dense_1 (Dense)                 (None, 512)          2753024     merge_features[0][0]             
__________________________________________________________________________________________________
dropout_2 (Dropout)             (None, 512)          0           dense_1[0][0]                    
__________________________________________________________________________________________________
dense_2 (Dense)                 (None, 512)          262656      dropout_2[0][0]                  
__________________________________________________________________________________________________
activation_3 (Activation)       (None, 512)          0           dense_2[0][0]                    
__________________________________________________________________________________________________
dropout_3 (Dropout)             (None, 512)          0           activation_3[0][0]               
__________________________________________________________________________________________________
dense_3 (Dense)                 (None, 1)            513         dropout_3[0][0]                  
==================================================================================================
Total params: 3,031,921
Trainable params: 3,031,833
Non-trainable params: 88
__________________________________________________________________________________________________
Test accuracy: 0.8216397849462366
score new --------------- > 0.8349462365591398
auc_score ------------------>  0.9311106052722857
__________________________________________________________________________________________________
Layer (type)                    Output Shape         Param #     Connected to                     
==================================================================================================
input_5 (InputLayer)            (None, 1, 96, 96)    0                                            
__________________________________________________________________________________________________
input_6 (InputLayer)            (None, 1, 96, 96)    0                                            
__________________________________________________________________________________________________
DenseNet (Model)                (None, 2688)         15728       input_5[0][0]                    
                                                                 input_6[0][0]                    
__________________________________________________________________________________________________
merge_features (Concatenate)    (None, 5376)         0           DenseNet[1][0]                   
                                                                 DenseNet[2][0]                   
__________________________________________________________________________________________________
dense_4 (Dense)                 (None, 512)          2753024     merge_features[0][0]             
__________________________________________________________________________________________________
dropout_5 (Dropout)             (None, 512)          0           dense_4[0][0]                    
__________________________________________________________________________________________________
dense_5 (Dense)                 (None, 512)          262656      dropout_5[0][0]                  
__________________________________________________________________________________________________
activation_6 (Activation)       (None, 512)          0           dense_5[0][0]                    
__________________________________________________________________________________________________
dropout_6 (Dropout)             (None, 512)          0           activation_6[0][0]               
__________________________________________________________________________________________________
dense_6 (Dense)                 (None, 1)            513         dropout_6[0][0]                  
==================================================================================================
Total params: 3,031,921
Trainable params: 3,031,833
Non-trainable params: 88
__________________________________________________________________________________________________
Test accuracy: 0.6944892473118279
score new --------------- > 0.7081989247311828
auc_score ------------------>  0.7334879754884958
__________________________________________________________________________________________________
Layer (type)                    Output Shape         Param #     Connected to                     
==================================================================================================
input_8 (InputLayer)            (None, 1, 96, 96)    0                                            
__________________________________________________________________________________________________
input_9 (InputLayer)            (None, 1, 96, 96)    0                                            
__________________________________________________________________________________________________
DenseNet (Model)                (None, 2688)         15728       input_8[0][0]                    
                                                                 input_9[0][0]                    
__________________________________________________________________________________________________
merge_features (Concatenate)    (None, 5376)         0           DenseNet[1][0]                   
                                                                 DenseNet[2][0]                   
__________________________________________________________________________________________________
dense_7 (Dense)                 (None, 512)          2753024     merge_features[0][0]             
__________________________________________________________________________________________________
dropout_8 (Dropout)             (None, 512)          0           dense_7[0][0]                    
__________________________________________________________________________________________________
dense_8 (Dense)                 (None, 512)          262656      dropout_8[0][0]                  
__________________________________________________________________________________________________
activation_9 (Activation)       (None, 512)          0           dense_8[0][0]                    
__________________________________________________________________________________________________
dropout_9 (Dropout)             (None, 512)          0           activation_9[0][0]               
__________________________________________________________________________________________________
dense_9 (Dense)                 (None, 1)            513         dropout_9[0][0]                  
==================================================================================================
Total params: 3,031,921
Trainable params: 3,031,833
Non-trainable params: 88
__________________________________________________________________________________________________
Epoch 00005: early stopping
Test accuracy: 0.6463709677419355
score new --------------- > 0.6565860215053764
auc_score ------------------>  0.6991147459243843
__________________________________________________________________________________________________
Layer (type)                    Output Shape         Param #     Connected to                     
==================================================================================================
input_11 (InputLayer)           (None, 1, 96, 96)    0                                            
__________________________________________________________________________________________________
input_12 (InputLayer)           (None, 1, 96, 96)    0                                            
__________________________________________________________________________________________________
DenseNet (Model)                (None, 2688)         15728       input_11[0][0]                   
                                                                 input_12[0][0]                   
__________________________________________________________________________________________________
merge_features (Concatenate)    (None, 5376)         0           DenseNet[1][0]                   
                                                                 DenseNet[2][0]                   
__________________________________________________________________________________________________
dense_10 (Dense)                (None, 512)          2753024     merge_features[0][0]             
__________________________________________________________________________________________________
dropout_11 (Dropout)            (None, 512)          0           dense_10[0][0]                   
__________________________________________________________________________________________________
dense_11 (Dense)                (None, 512)          262656      dropout_11[0][0]                 
__________________________________________________________________________________________________
activation_12 (Activation)      (None, 512)          0           dense_11[0][0]                   
__________________________________________________________________________________________________
dropout_12 (Dropout)            (None, 512)          0           activation_12[0][0]              
__________________________________________________________________________________________________
dense_12 (Dense)                (None, 1)            513         dropout_12[0][0]                 
==================================================================================================
Total params: 3,031,921
Trainable params: 3,031,833
Non-trainable params: 88
__________________________________________________________________________________________________
Test accuracy: 0.8028225806451613
score new --------------- > 0.8104838709677419
auc_score ------------------>  0.9157521823332176
__________________________________________________________________________________________________
Layer (type)                    Output Shape         Param #     Connected to                     
==================================================================================================
input_14 (InputLayer)           (None, 1, 96, 96)    0                                            
__________________________________________________________________________________________________
input_15 (InputLayer)           (None, 1, 96, 96)    0                                            
__________________________________________________________________________________________________
DenseNet (Model)                (None, 2688)         15728       input_14[0][0]                   
                                                                 input_15[0][0]                   
__________________________________________________________________________________________________
merge_features (Concatenate)    (None, 5376)         0           DenseNet[1][0]                   
                                                                 DenseNet[2][0]                   
__________________________________________________________________________________________________
dense_13 (Dense)                (None, 512)          2753024     merge_features[0][0]             
__________________________________________________________________________________________________
dropout_14 (Dropout)            (None, 512)          0           dense_13[0][0]                   
__________________________________________________________________________________________________
dense_14 (Dense)                (None, 512)          262656      dropout_14[0][0]                 
__________________________________________________________________________________________________
activation_15 (Activation)      (None, 512)          0           dense_14[0][0]                   
__________________________________________________________________________________________________
dropout_15 (Dropout)            (None, 512)          0           activation_15[0][0]              
__________________________________________________________________________________________________
dense_15 (Dense)                (None, 1)            513         dropout_15[0][0]                 
==================================================================================================
Total params: 3,031,921
Trainable params: 3,031,833
Non-trainable params: 88
__________________________________________________________________________________________________
Test accuracy: 0.6803763440860215
score new --------------- > 0.6631720430107527
auc_score ------------------>  0.7142638599838131
__________________________________________________________________________________________________
Layer (type)                    Output Shape         Param #     Connected to                     
==================================================================================================
input_17 (InputLayer)           (None, 1, 96, 96)    0                                            
__________________________________________________________________________________________________
input_18 (InputLayer)           (None, 1, 96, 96)    0                                            
__________________________________________________________________________________________________
DenseNet (Model)                (None, 2688)         15728       input_17[0][0]                   
                                                                 input_18[0][0]                   
__________________________________________________________________________________________________
merge_features (Concatenate)    (None, 5376)         0           DenseNet[1][0]                   
                                                                 DenseNet[2][0]                   
__________________________________________________________________________________________________
dense_16 (Dense)                (None, 512)          2753024     merge_features[0][0]             
__________________________________________________________________________________________________
dropout_17 (Dropout)            (None, 512)          0           dense_16[0][0]                   
__________________________________________________________________________________________________
dense_17 (Dense)                (None, 512)          262656      dropout_17[0][0]                 
__________________________________________________________________________________________________
activation_18 (Activation)      (None, 512)          0           dense_17[0][0]                   
__________________________________________________________________________________________________
dropout_18 (Dropout)            (None, 512)          0           activation_18[0][0]              
__________________________________________________________________________________________________
dense_18 (Dense)                (None, 1)            513         dropout_18[0][0]                 
==================================================================================================
Total params: 3,031,921
Trainable params: 3,031,833
Non-trainable params: 88
__________________________________________________________________________________________________
Test accuracy: 0.7900537634408602
score new --------------- > 0.8051075268817204
auc_score ------------------>  0.8816732425713956
__________________________________________________________________________________________________
Layer (type)                    Output Shape         Param #     Connected to                     
==================================================================================================
input_20 (InputLayer)           (None, 1, 96, 96)    0                                            
__________________________________________________________________________________________________
input_21 (InputLayer)           (None, 1, 96, 96)    0                                            
__________________________________________________________________________________________________
DenseNet (Model)                (None, 2688)         15728       input_20[0][0]                   
                                                                 input_21[0][0]                   
__________________________________________________________________________________________________
merge_features (Concatenate)    (None, 5376)         0           DenseNet[1][0]                   
                                                                 DenseNet[2][0]                   
__________________________________________________________________________________________________
dense_19 (Dense)                (None, 512)          2753024     merge_features[0][0]             
__________________________________________________________________________________________________
dropout_20 (Dropout)            (None, 512)          0           dense_19[0][0]                   
__________________________________________________________________________________________________
dense_20 (Dense)                (None, 512)          262656      dropout_20[0][0]                 
__________________________________________________________________________________________________
activation_21 (Activation)      (None, 512)          0           dense_20[0][0]                   
__________________________________________________________________________________________________
dropout_21 (Dropout)            (None, 512)          0           activation_21[0][0]              
__________________________________________________________________________________________________
dense_21 (Dense)                (None, 1)            513         dropout_21[0][0]                 
==================================================================================================
Total params: 3,031,921
Trainable params: 3,031,833
Non-trainable params: 88
__________________________________________________________________________________________________
Test accuracy: 0.8192204301075269
score new --------------- > 0.832258064516129
auc_score ------------------>  0.9356613481327322
__________________________________________________________________________________________________
Layer (type)                    Output Shape         Param #     Connected to                     
==================================================================================================
input_23 (InputLayer)           (None, 1, 96, 96)    0                                            
__________________________________________________________________________________________________
input_24 (InputLayer)           (None, 1, 96, 96)    0                                            
__________________________________________________________________________________________________
DenseNet (Model)                (None, 2688)         15728       input_23[0][0]                   
                                                                 input_24[0][0]                   
__________________________________________________________________________________________________
merge_features (Concatenate)    (None, 5376)         0           DenseNet[1][0]                   
                                                                 DenseNet[2][0]                   
__________________________________________________________________________________________________
dense_22 (Dense)                (None, 512)          2753024     merge_features[0][0]             
__________________________________________________________________________________________________
dropout_23 (Dropout)            (None, 512)          0           dense_22[0][0]                   
__________________________________________________________________________________________________
dense_23 (Dense)                (None, 512)          262656      dropout_23[0][0]                 
__________________________________________________________________________________________________
activation_24 (Activation)      (None, 512)          0           dense_23[0][0]                   
__________________________________________________________________________________________________
dropout_24 (Dropout)            (None, 512)          0           activation_24[0][0]              
__________________________________________________________________________________________________
dense_24 (Dense)                (None, 1)            513         dropout_24[0][0]                 
==================================================================================================
Total params: 3,031,921
Trainable params: 3,031,833
Non-trainable params: 88
__________________________________________________________________________________________________
Epoch 00007: early stopping
Test accuracy: 0.8030913978494624
score new --------------- > 0.8104838709677419
auc_score ------------------>  0.9238865764828305
__________________________________________________________________________________________________
Layer (type)                    Output Shape         Param #     Connected to                     
==================================================================================================
input_26 (InputLayer)           (None, 1, 96, 96)    0                                            
__________________________________________________________________________________________________
input_27 (InputLayer)           (None, 1, 96, 96)    0                                            
__________________________________________________________________________________________________
DenseNet (Model)                (None, 2688)         15728       input_26[0][0]                   
                                                                 input_27[0][0]                   
__________________________________________________________________________________________________
merge_features (Concatenate)    (None, 5376)         0           DenseNet[1][0]                   
                                                                 DenseNet[2][0]                   
__________________________________________________________________________________________________
dense_25 (Dense)                (None, 512)          2753024     merge_features[0][0]             
__________________________________________________________________________________________________
dropout_26 (Dropout)            (None, 512)          0           dense_25[0][0]                   
__________________________________________________________________________________________________
dense_26 (Dense)                (None, 512)          262656      dropout_26[0][0]                 
__________________________________________________________________________________________________
activation_27 (Activation)      (None, 512)          0           dense_26[0][0]                   
__________________________________________________________________________________________________
dropout_27 (Dropout)            (None, 512)          0           activation_27[0][0]              
__________________________________________________________________________________________________
dense_27 (Dense)                (None, 1)            513         dropout_27[0][0]                 
==================================================================================================
Total params: 3,031,921
Trainable params: 3,031,833
Non-trainable params: 88
__________________________________________________________________________________________________
Test accuracy: 0.8240591397849463
score new --------------- > 0.8329301075268817
auc_score ------------------>  0.9265979809804603
__________________________________________________________________________________________________
Layer (type)                    Output Shape         Param #     Connected to                     
==================================================================================================
input_29 (InputLayer)           (None, 1, 96, 96)    0                                            
__________________________________________________________________________________________________
input_30 (InputLayer)           (None, 1, 96, 96)    0                                            
__________________________________________________________________________________________________
DenseNet (Model)                (None, 2688)         15728       input_29[0][0]                   
                                                                 input_30[0][0]                   
__________________________________________________________________________________________________
merge_features (Concatenate)    (None, 5376)         0           DenseNet[1][0]                   
                                                                 DenseNet[2][0]                   
__________________________________________________________________________________________________
dense_28 (Dense)                (None, 512)          2753024     merge_features[0][0]             
__________________________________________________________________________________________________
dropout_29 (Dropout)            (None, 512)          0           dense_28[0][0]                   
__________________________________________________________________________________________________
dense_29 (Dense)                (None, 512)          262656      dropout_29[0][0]                 
__________________________________________________________________________________________________
activation_30 (Activation)      (None, 512)          0           dense_29[0][0]                   
__________________________________________________________________________________________________
dropout_30 (Dropout)            (None, 512)          0           activation_30[0][0]              
__________________________________________________________________________________________________
dense_30 (Dense)                (None, 1)            513         dropout_30[0][0]                 
==================================================================================================
Total params: 3,031,921
Trainable params: 3,031,833
Non-trainable params: 88
__________________________________________________________________________________________________
Test accuracy: 0.7551075268817204
score new --------------- > 0.7661290322580645
auc_score ------------------>  0.8883913964042086
__________________________________________________________________________________________________
Layer (type)                    Output Shape         Param #     Connected to                     
==================================================================================================
input_32 (InputLayer)           (None, 1, 96, 96)    0                                            
__________________________________________________________________________________________________
input_33 (InputLayer)           (None, 1, 96, 96)    0                                            
__________________________________________________________________________________________________
DenseNet (Model)                (None, 2688)         15728       input_32[0][0]                   
                                                                 input_33[0][0]                   
__________________________________________________________________________________________________
merge_features (Concatenate)    (None, 5376)         0           DenseNet[1][0]                   
                                                                 DenseNet[2][0]                   
__________________________________________________________________________________________________
dense_31 (Dense)                (None, 512)          2753024     merge_features[0][0]             
__________________________________________________________________________________________________
dropout_32 (Dropout)            (None, 512)          0           dense_31[0][0]                   
__________________________________________________________________________________________________
dense_32 (Dense)                (None, 512)          262656      dropout_32[0][0]                 
__________________________________________________________________________________________________
activation_33 (Activation)      (None, 512)          0           dense_32[0][0]                   
__________________________________________________________________________________________________
dropout_33 (Dropout)            (None, 512)          0           activation_33[0][0]              
__________________________________________________________________________________________________
dense_33 (Dense)                (None, 1)            513         dropout_33[0][0]                 
==================================================================================================
Total params: 3,031,921
Trainable params: 3,031,833
Non-trainable params: 88
__________________________________________________________________________________________________
Test accuracy: 0.8157258064516129
score new --------------- > 0.8204301075268817
auc_score ------------------>  0.9311399800554976
__________________________________________________________________________________________________
Layer (type)                    Output Shape         Param #     Connected to                     
==================================================================================================
input_35 (InputLayer)           (None, 1, 96, 96)    0                                            
__________________________________________________________________________________________________
input_36 (InputLayer)           (None, 1, 96, 96)    0                                            
__________________________________________________________________________________________________
DenseNet (Model)                (None, 2688)         15728       input_35[0][0]                   
                                                                 input_36[0][0]                   
__________________________________________________________________________________________________
merge_features (Concatenate)    (None, 5376)         0           DenseNet[1][0]                   
                                                                 DenseNet[2][0]                   
__________________________________________________________________________________________________
dense_34 (Dense)                (None, 512)          2753024     merge_features[0][0]             
__________________________________________________________________________________________________
dropout_35 (Dropout)            (None, 512)          0           dense_34[0][0]                   
__________________________________________________________________________________________________
dense_35 (Dense)                (None, 512)          262656      dropout_35[0][0]                 
__________________________________________________________________________________________________
activation_36 (Activation)      (None, 512)          0           dense_35[0][0]                   
__________________________________________________________________________________________________
dropout_36 (Dropout)            (None, 512)          0           activation_36[0][0]              
__________________________________________________________________________________________________
dense_36 (Dense)                (None, 1)            513         dropout_36[0][0]                 
==================================================================================================
Total params: 3,031,921
Trainable params: 3,031,833
Non-trainable params: 88
__________________________________________________________________________________________________
Epoch 00006: early stopping
Test accuracy: 0.6579301075268817
score new --------------- > 0.6686827956989247
auc_score ------------------>  0.7178509798820674
__________________________________________________________________________________________________
Layer (type)                    Output Shape         Param #     Connected to                     
==================================================================================================
input_38 (InputLayer)           (None, 1, 96, 96)    0                                            
__________________________________________________________________________________________________
input_39 (InputLayer)           (None, 1, 96, 96)    0                                            
__________________________________________________________________________________________________
DenseNet (Model)                (None, 2688)         15728       input_38[0][0]                   
                                                                 input_39[0][0]                   
__________________________________________________________________________________________________
merge_features (Concatenate)    (None, 5376)         0           DenseNet[1][0]                   
                                                                 DenseNet[2][0]                   
__________________________________________________________________________________________________
dense_37 (Dense)                (None, 512)          2753024     merge_features[0][0]             
__________________________________________________________________________________________________
dropout_38 (Dropout)            (None, 512)          0           dense_37[0][0]                   
__________________________________________________________________________________________________
dense_38 (Dense)                (None, 512)          262656      dropout_38[0][0]                 
__________________________________________________________________________________________________
activation_39 (Activation)      (None, 512)          0           dense_38[0][0]                   
__________________________________________________________________________________________________
dropout_39 (Dropout)            (None, 512)          0           activation_39[0][0]              
__________________________________________________________________________________________________
dense_39 (Dense)                (None, 1)            513         dropout_39[0][0]                 
==================================================================================================
Total params: 3,031,921
Trainable params: 3,031,833
Non-trainable params: 88
__________________________________________________________________________________________________
Test accuracy: 0.7440860215053764
score new --------------- > 0.7541666666666667
auc_score ------------------>  0.8384297317608971
__________________________________________________________________________________________________
Layer (type)                    Output Shape         Param #     Connected to                     
==================================================================================================
input_41 (InputLayer)           (None, 1, 96, 96)    0                                            
__________________________________________________________________________________________________
input_42 (InputLayer)           (None, 1, 96, 96)    0                                            
__________________________________________________________________________________________________
DenseNet (Model)                (None, 2688)         15728       input_41[0][0]                   
                                                                 input_42[0][0]                   
__________________________________________________________________________________________________
merge_features (Concatenate)    (None, 5376)         0           DenseNet[1][0]                   
                                                                 DenseNet[2][0]                   
__________________________________________________________________________________________________
dense_40 (Dense)                (None, 512)          2753024     merge_features[0][0]             
__________________________________________________________________________________________________
dropout_41 (Dropout)            (None, 512)          0           dense_40[0][0]                   
__________________________________________________________________________________________________
dense_41 (Dense)                (None, 512)          262656      dropout_41[0][0]                 
__________________________________________________________________________________________________
activation_42 (Activation)      (None, 512)          0           dense_41[0][0]                   
__________________________________________________________________________________________________
dropout_42 (Dropout)            (None, 512)          0           activation_42[0][0]              
__________________________________________________________________________________________________
dense_42 (Dense)                (None, 1)            513         dropout_42[0][0]                 
==================================================================================================
Total params: 3,031,921
Trainable params: 3,031,833
Non-trainable params: 88
__________________________________________________________________________________________________
Epoch 00005: early stopping
Test accuracy: 0.6165322580645162
score new --------------- > 0.6334677419354838
auc_score ------------------>  0.6435650075153196
__________________________________________________________________________________________________
Layer (type)                    Output Shape         Param #     Connected to                     
==================================================================================================
input_44 (InputLayer)           (None, 1, 96, 96)    0                                            
__________________________________________________________________________________________________
input_45 (InputLayer)           (None, 1, 96, 96)    0                                            
__________________________________________________________________________________________________
DenseNet (Model)                (None, 2688)         15728       input_44[0][0]                   
                                                                 input_45[0][0]                   
__________________________________________________________________________________________________
merge_features (Concatenate)    (None, 5376)         0           DenseNet[1][0]                   
                                                                 DenseNet[2][0]                   
__________________________________________________________________________________________________
dense_43 (Dense)                (None, 512)          2753024     merge_features[0][0]             
__________________________________________________________________________________________________
dropout_44 (Dropout)            (None, 512)          0           dense_43[0][0]                   
__________________________________________________________________________________________________
dense_44 (Dense)                (None, 512)          262656      dropout_44[0][0]                 
__________________________________________________________________________________________________
activation_45 (Activation)      (None, 512)          0           dense_44[0][0]                   
__________________________________________________________________________________________________
dropout_45 (Dropout)            (None, 512)          0           activation_45[0][0]              
__________________________________________________________________________________________________
dense_45 (Dense)                (None, 1)            513         dropout_45[0][0]                 
==================================================================================================
Total params: 3,031,921
Trainable params: 3,031,833
Non-trainable params: 88
__________________________________________________________________________________________________
Epoch 00003: early stopping
Test accuracy: 0.6120967741935484
score new --------------- > 0.6157258064516129
auc_score ------------------>  0.7290222858133889
__________________________________________________________________________________________________
Layer (type)                    Output Shape         Param #     Connected to                     
==================================================================================================
input_47 (InputLayer)           (None, 1, 96, 96)    0                                            
__________________________________________________________________________________________________
input_48 (InputLayer)           (None, 1, 96, 96)    0                                            
__________________________________________________________________________________________________
DenseNet (Model)                (None, 2688)         15728       input_47[0][0]                   
                                                                 input_48[0][0]                   
__________________________________________________________________________________________________
merge_features (Concatenate)    (None, 5376)         0           DenseNet[1][0]                   
                                                                 DenseNet[2][0]                   
__________________________________________________________________________________________________
dense_46 (Dense)                (None, 512)          2753024     merge_features[0][0]             
__________________________________________________________________________________________________
dropout_47 (Dropout)            (None, 512)          0           dense_46[0][0]                   
__________________________________________________________________________________________________
dense_47 (Dense)                (None, 512)          262656      dropout_47[0][0]                 
__________________________________________________________________________________________________
activation_48 (Activation)      (None, 512)          0           dense_47[0][0]                   
__________________________________________________________________________________________________
dropout_48 (Dropout)            (None, 512)          0           activation_48[0][0]              
__________________________________________________________________________________________________
dense_48 (Dense)                (None, 1)            513         dropout_48[0][0]                 
==================================================================================================
Total params: 3,031,921
Trainable params: 3,031,833
Non-trainable params: 88
__________________________________________________________________________________________________
Test accuracy: 0.6373655913978494
score new --------------- > 0.6364247311827957
auc_score ------------------>  0.6919988582495087
__________________________________________________________________________________________________
Layer (type)                    Output Shape         Param #     Connected to                     
==================================================================================================
input_50 (InputLayer)           (None, 1, 96, 96)    0                                            
__________________________________________________________________________________________________
input_51 (InputLayer)           (None, 1, 96, 96)    0                                            
__________________________________________________________________________________________________
DenseNet (Model)                (None, 2688)         15728       input_50[0][0]                   
                                                                 input_51[0][0]                   
__________________________________________________________________________________________________
merge_features (Concatenate)    (None, 5376)         0           DenseNet[1][0]                   
                                                                 DenseNet[2][0]                   
__________________________________________________________________________________________________
dense_49 (Dense)                (None, 512)          2753024     merge_features[0][0]             
__________________________________________________________________________________________________
dropout_50 (Dropout)            (None, 512)          0           dense_49[0][0]                   
__________________________________________________________________________________________________
dense_50 (Dense)                (None, 512)          262656      dropout_50[0][0]                 
__________________________________________________________________________________________________
activation_51 (Activation)      (None, 512)          0           dense_50[0][0]                   
__________________________________________________________________________________________________
dropout_51 (Dropout)            (None, 512)          0           activation_51[0][0]              
__________________________________________________________________________________________________
dense_51 (Dense)                (None, 1)            513         dropout_51[0][0]                 
==================================================================================================
Total params: 3,031,921
Trainable params: 3,031,833
Non-trainable params: 88
__________________________________________________________________________________________________
Test accuracy: 0.7725806451612903
score new --------------- > 0.7778225806451613
auc_score ------------------>  0.8862484824835241
__________________________________________________________________________________________________
Layer (type)                    Output Shape         Param #     Connected to                     
==================================================================================================
input_53 (InputLayer)           (None, 1, 96, 96)    0                                            
__________________________________________________________________________________________________
input_54 (InputLayer)           (None, 1, 96, 96)    0                                            
__________________________________________________________________________________________________
DenseNet (Model)                (None, 2688)         15728       input_53[0][0]                   
                                                                 input_54[0][0]                   
__________________________________________________________________________________________________
merge_features (Concatenate)    (None, 5376)         0           DenseNet[1][0]                   
                                                                 DenseNet[2][0]                   
__________________________________________________________________________________________________
dense_52 (Dense)                (None, 512)          2753024     merge_features[0][0]             
__________________________________________________________________________________________________
dropout_53 (Dropout)            (None, 512)          0           dense_52[0][0]                   
__________________________________________________________________________________________________
dense_53 (Dense)                (None, 512)          262656      dropout_53[0][0]                 
__________________________________________________________________________________________________
activation_54 (Activation)      (None, 512)          0           dense_53[0][0]                   
__________________________________________________________________________________________________
dropout_54 (Dropout)            (None, 512)          0           activation_54[0][0]              
__________________________________________________________________________________________________
dense_54 (Dense)                (None, 1)            513         dropout_54[0][0]                 
==================================================================================================
Total params: 3,031,921
Trainable params: 3,031,833
Non-trainable params: 88
__________________________________________________________________________________________________
Test accuracy: 0.7975806451612903
score new --------------- > 0.8079301075268818
auc_score ------------------>  0.9035228783674413
__________________________________________________________________________________________________
Layer (type)                    Output Shape         Param #     Connected to                     
==================================================================================================
input_56 (InputLayer)           (None, 1, 96, 96)    0                                            
__________________________________________________________________________________________________
input_57 (InputLayer)           (None, 1, 96, 96)    0                                            
__________________________________________________________________________________________________
DenseNet (Model)                (None, 2688)         15728       input_56[0][0]                   
                                                                 input_57[0][0]                   
__________________________________________________________________________________________________
merge_features (Concatenate)    (None, 5376)         0           DenseNet[1][0]                   
                                                                 DenseNet[2][0]                   
__________________________________________________________________________________________________
dense_55 (Dense)                (None, 512)          2753024     merge_features[0][0]             
__________________________________________________________________________________________________
dropout_56 (Dropout)            (None, 512)          0           dense_55[0][0]                   
__________________________________________________________________________________________________
dense_56 (Dense)                (None, 512)          262656      dropout_56[0][0]                 
__________________________________________________________________________________________________
activation_57 (Activation)      (None, 512)          0           dense_56[0][0]                   
__________________________________________________________________________________________________
dropout_57 (Dropout)            (None, 512)          0           activation_57[0][0]              
__________________________________________________________________________________________________
dense_57 (Dense)                (None, 1)            513         dropout_57[0][0]                 
==================================================================================================
Total params: 3,031,921
Trainable params: 3,031,833
Non-trainable params: 88
__________________________________________________________________________________________________
Test accuracy: 0.7666666666666667
score new --------------- > 0.782258064516129
auc_score ------------------>  0.9168910061856863
__________________________________________________________________________________________________
Layer (type)                    Output Shape         Param #     Connected to                     
==================================================================================================
input_59 (InputLayer)           (None, 1, 96, 96)    0                                            
__________________________________________________________________________________________________
input_60 (InputLayer)           (None, 1, 96, 96)    0                                            
__________________________________________________________________________________________________
DenseNet (Model)                (None, 2688)         15728       input_59[0][0]                   
                                                                 input_60[0][0]                   
__________________________________________________________________________________________________
merge_features (Concatenate)    (None, 5376)         0           DenseNet[1][0]                   
                                                                 DenseNet[2][0]                   
__________________________________________________________________________________________________
dense_58 (Dense)                (None, 512)          2753024     merge_features[0][0]             
__________________________________________________________________________________________________
dropout_59 (Dropout)            (None, 512)          0           dense_58[0][0]                   
__________________________________________________________________________________________________
dense_59 (Dense)                (None, 512)          262656      dropout_59[0][0]                 
__________________________________________________________________________________________________
activation_60 (Activation)      (None, 512)          0           dense_59[0][0]                   
__________________________________________________________________________________________________
dropout_60 (Dropout)            (None, 512)          0           activation_60[0][0]              
__________________________________________________________________________________________________
dense_60 (Dense)                (None, 1)            513         dropout_60[0][0]                 
==================================================================================================
Total params: 3,031,921
Trainable params: 3,031,833
Non-trainable params: 88
__________________________________________________________________________________________________
Epoch 00004: early stopping
Test accuracy: 0.6491935483870968
score new --------------- > 0.5970430107526882
auc_score ------------------>  0.5155552665047982
__________________________________________________________________________________________________
Layer (type)                    Output Shape         Param #     Connected to                     
==================================================================================================
input_62 (InputLayer)           (None, 1, 96, 96)    0                                            
__________________________________________________________________________________________________
input_63 (InputLayer)           (None, 1, 96, 96)    0                                            
__________________________________________________________________________________________________
DenseNet (Model)                (None, 2688)         15728       input_62[0][0]                   
                                                                 input_63[0][0]                   
__________________________________________________________________________________________________
merge_features (Concatenate)    (None, 5376)         0           DenseNet[1][0]                   
                                                                 DenseNet[2][0]                   
__________________________________________________________________________________________________
dense_61 (Dense)                (None, 512)          2753024     merge_features[0][0]             
__________________________________________________________________________________________________
dropout_62 (Dropout)            (None, 512)          0           dense_61[0][0]                   
__________________________________________________________________________________________________
dense_62 (Dense)                (None, 512)          262656      dropout_62[0][0]                 
__________________________________________________________________________________________________
activation_63 (Activation)      (None, 512)          0           dense_62[0][0]                   
__________________________________________________________________________________________________
dropout_63 (Dropout)            (None, 512)          0           activation_63[0][0]              
__________________________________________________________________________________________________
dense_63 (Dense)                (None, 1)            513         dropout_63[0][0]                 
==================================================================================================
Total params: 3,031,921
Trainable params: 3,031,833
Non-trainable params: 88
__________________________________________________________________________________________________
Test accuracy: 0.6951612903225807
score new --------------- > 0.7178763440860215
auc_score ------------------>  0.9022509105098855
__________________________________________________________________________________________________
Layer (type)                    Output Shape         Param #     Connected to                     
==================================================================================================
input_65 (InputLayer)           (None, 1, 96, 96)    0                                            
__________________________________________________________________________________________________
input_66 (InputLayer)           (None, 1, 96, 96)    0                                            
__________________________________________________________________________________________________
DenseNet (Model)                (None, 2688)         15728       input_65[0][0]                   
                                                                 input_66[0][0]                   
__________________________________________________________________________________________________
merge_features (Concatenate)    (None, 5376)         0           DenseNet[1][0]                   
                                                                 DenseNet[2][0]                   
__________________________________________________________________________________________________
dense_64 (Dense)                (None, 512)          2753024     merge_features[0][0]             
__________________________________________________________________________________________________
dropout_65 (Dropout)            (None, 512)          0           dense_64[0][0]                   
__________________________________________________________________________________________________
dense_65 (Dense)                (None, 512)          262656      dropout_65[0][0]                 
__________________________________________________________________________________________________
activation_66 (Activation)      (None, 512)          0           dense_65[0][0]                   
__________________________________________________________________________________________________
dropout_66 (Dropout)            (None, 512)          0           activation_66[0][0]              
__________________________________________________________________________________________________
dense_66 (Dense)                (None, 1)            513         dropout_66[0][0]                 
==================================================================================================
Total params: 3,031,921
Trainable params: 3,031,833
Non-trainable params: 88
__________________________________________________________________________________________________
Test accuracy: 0.7674731182795699
score new --------------- > 0.7833333333333333
auc_score ------------------>  0.9137570817435543
__________________________________________________________________________________________________
Layer (type)                    Output Shape         Param #     Connected to                     
==================================================================================================
input_68 (InputLayer)           (None, 1, 96, 96)    0                                            
__________________________________________________________________________________________________
input_69 (InputLayer)           (None, 1, 96, 96)    0                                            
__________________________________________________________________________________________________
DenseNet (Model)                (None, 2688)         15728       input_68[0][0]                   
                                                                 input_69[0][0]                   
__________________________________________________________________________________________________
merge_features (Concatenate)    (None, 5376)         0           DenseNet[1][0]                   
                                                                 DenseNet[2][0]                   
__________________________________________________________________________________________________
dense_67 (Dense)                (None, 512)          2753024     merge_features[0][0]             
__________________________________________________________________________________________________
dropout_68 (Dropout)            (None, 512)          0           dense_67[0][0]                   
__________________________________________________________________________________________________
dense_68 (Dense)                (None, 512)          262656      dropout_68[0][0]                 
__________________________________________________________________________________________________
activation_69 (Activation)      (None, 512)          0           dense_68[0][0]                   
__________________________________________________________________________________________________
dropout_69 (Dropout)            (None, 512)          0           activation_69[0][0]              
__________________________________________________________________________________________________
dense_69 (Dense)                (None, 1)            513         dropout_69[0][0]                 
==================================================================================================
Total params: 3,031,921
Trainable params: 3,031,833
Non-trainable params: 88
__________________________________________________________________________________________________
Test accuracy: 0.701747311827957
score new --------------- > 0.7135752688172043
auc_score ------------------>  0.7549254971673026
__________________________________________________________________________________________________
Layer (type)                    Output Shape         Param #     Connected to                     
==================================================================================================
input_71 (InputLayer)           (None, 1, 96, 96)    0                                            
__________________________________________________________________________________________________
input_72 (InputLayer)           (None, 1, 96, 96)    0                                            
__________________________________________________________________________________________________
DenseNet (Model)                (None, 2688)         15728       input_71[0][0]                   
                                                                 input_72[0][0]                   
__________________________________________________________________________________________________
merge_features (Concatenate)    (None, 5376)         0           DenseNet[1][0]                   
                                                                 DenseNet[2][0]                   
__________________________________________________________________________________________________
dense_70 (Dense)                (None, 512)          2753024     merge_features[0][0]             
__________________________________________________________________________________________________
dropout_71 (Dropout)            (None, 512)          0           dense_70[0][0]                   
__________________________________________________________________________________________________
dense_71 (Dense)                (None, 512)          262656      dropout_71[0][0]                 
__________________________________________________________________________________________________
activation_72 (Activation)      (None, 512)          0           dense_71[0][0]                   
__________________________________________________________________________________________________
dropout_72 (Dropout)            (None, 512)          0           activation_72[0][0]              
__________________________________________________________________________________________________
dense_72 (Dense)                (None, 1)            513         dropout_72[0][0]                 
==================================================================================================
Total params: 3,031,921
Trainable params: 3,031,833
Non-trainable params: 88
__________________________________________________________________________________________________
Test accuracy: 0.782258064516129
score new --------------- > 0.793010752688172
auc_score ------------------>  0.8801360345126604
__________________________________________________________________________________________________
Layer (type)                    Output Shape         Param #     Connected to                     
==================================================================================================
input_74 (InputLayer)           (None, 1, 96, 96)    0                                            
__________________________________________________________________________________________________
input_75 (InputLayer)           (None, 1, 96, 96)    0                                            
__________________________________________________________________________________________________
DenseNet (Model)                (None, 2688)         15728       input_74[0][0]                   
                                                                 input_75[0][0]                   
__________________________________________________________________________________________________
merge_features (Concatenate)    (None, 5376)         0           DenseNet[1][0]                   
                                                                 DenseNet[2][0]                   
__________________________________________________________________________________________________
dense_73 (Dense)                (None, 512)          2753024     merge_features[0][0]             
__________________________________________________________________________________________________
dropout_74 (Dropout)            (None, 512)          0           dense_73[0][0]                   
__________________________________________________________________________________________________
dense_74 (Dense)                (None, 512)          262656      dropout_74[0][0]                 
__________________________________________________________________________________________________
activation_75 (Activation)      (None, 512)          0           dense_74[0][0]                   
__________________________________________________________________________________________________
dropout_75 (Dropout)            (None, 512)          0           activation_75[0][0]              
__________________________________________________________________________________________________
dense_75 (Dense)                (None, 1)            513         dropout_75[0][0]                 
==================================================================================================
Total params: 3,031,921
Trainable params: 3,031,833
Non-trainable params: 88
__________________________________________________________________________________________________
Test accuracy: 0.8068548387096774
score new --------------- > 0.8193548387096774
auc_score ------------------>  0.9307593363394611
__________________________________________________________________________________________________
Layer (type)                    Output Shape         Param #     Connected to                     
==================================================================================================
input_77 (InputLayer)           (None, 1, 96, 96)    0                                            
__________________________________________________________________________________________________
input_78 (InputLayer)           (None, 1, 96, 96)    0                                            
__________________________________________________________________________________________________
DenseNet (Model)                (None, 2688)         15728       input_77[0][0]                   
                                                                 input_78[0][0]                   
__________________________________________________________________________________________________
merge_features (Concatenate)    (None, 5376)         0           DenseNet[1][0]                   
                                                                 DenseNet[2][0]                   
__________________________________________________________________________________________________
dense_76 (Dense)                (None, 512)          2753024     merge_features[0][0]             
__________________________________________________________________________________________________
dropout_77 (Dropout)            (None, 512)          0           dense_76[0][0]                   
__________________________________________________________________________________________________
dense_77 (Dense)                (None, 512)          262656      dropout_77[0][0]                 
__________________________________________________________________________________________________
activation_78 (Activation)      (None, 512)          0           dense_77[0][0]                   
__________________________________________________________________________________________________
dropout_78 (Dropout)            (None, 512)          0           activation_78[0][0]              
__________________________________________________________________________________________________
dense_78 (Dense)                (None, 1)            513         dropout_78[0][0]                 
==================================================================================================
Total params: 3,031,921
Trainable params: 3,031,833
Non-trainable params: 88
__________________________________________________________________________________________________
Test accuracy: 0.8005376344086022
score new --------------- > 0.8137096774193548
auc_score ------------------>  0.9204176783443173
__________________________________________________________________________________________________
Layer (type)                    Output Shape         Param #     Connected to                     
==================================================================================================
input_80 (InputLayer)           (None, 1, 96, 96)    0                                            
__________________________________________________________________________________________________
input_81 (InputLayer)           (None, 1, 96, 96)    0                                            
__________________________________________________________________________________________________
DenseNet (Model)                (None, 2688)         15728       input_80[0][0]                   
                                                                 input_81[0][0]                   
__________________________________________________________________________________________________
merge_features (Concatenate)    (None, 5376)         0           DenseNet[1][0]                   
                                                                 DenseNet[2][0]                   
__________________________________________________________________________________________________
dense_79 (Dense)                (None, 512)          2753024     merge_features[0][0]             
__________________________________________________________________________________________________
dropout_80 (Dropout)            (None, 512)          0           dense_79[0][0]                   
__________________________________________________________________________________________________
dense_80 (Dense)                (None, 512)          262656      dropout_80[0][0]                 
__________________________________________________________________________________________________
activation_81 (Activation)      (None, 512)          0           dense_80[0][0]                   
__________________________________________________________________________________________________
dropout_81 (Dropout)            (None, 512)          0           activation_81[0][0]              
__________________________________________________________________________________________________
dense_81 (Dense)                (None, 1)            513         dropout_81[0][0]                 
==================================================================================================
Total params: 3,031,921
Trainable params: 3,031,833
Non-trainable params: 88
__________________________________________________________________________________________________
Test accuracy: 0.8129032258064516
score new --------------- > 0.8236559139784946
auc_score ------------------>  0.92920287027402
__________________________________________________________________________________________________
Layer (type)                    Output Shape         Param #     Connected to                     
==================================================================================================
input_83 (InputLayer)           (None, 1, 96, 96)    0                                            
__________________________________________________________________________________________________
input_84 (InputLayer)           (None, 1, 96, 96)    0                                            
__________________________________________________________________________________________________
DenseNet (Model)                (None, 2688)         15728       input_83[0][0]                   
                                                                 input_84[0][0]                   
__________________________________________________________________________________________________
merge_features (Concatenate)    (None, 5376)         0           DenseNet[1][0]                   
                                                                 DenseNet[2][0]                   
__________________________________________________________________________________________________
dense_82 (Dense)                (None, 512)          2753024     merge_features[0][0]             
__________________________________________________________________________________________________
dropout_83 (Dropout)            (None, 512)          0           dense_82[0][0]                   
__________________________________________________________________________________________________
dense_83 (Dense)                (None, 512)          262656      dropout_83[0][0]                 
__________________________________________________________________________________________________
activation_84 (Activation)      (None, 512)          0           dense_83[0][0]                   
__________________________________________________________________________________________________
dropout_84 (Dropout)            (None, 512)          0           activation_84[0][0]              
__________________________________________________________________________________________________
dense_84 (Dense)                (None, 1)            513         dropout_84[0][0]                 
==================================================================================================
Total params: 3,031,921
Trainable params: 3,031,833
Non-trainable params: 88
__________________________________________________________________________________________________
Test accuracy: 0.7475806451612903
score new --------------- > 0.7538978494623656
auc_score ------------------>  0.9055085486761477
__________________________________________________________________________________________________
Layer (type)                    Output Shape         Param #     Connected to                     
==================================================================================================
input_86 (InputLayer)           (None, 1, 96, 96)    0                                            
__________________________________________________________________________________________________
input_87 (InputLayer)           (None, 1, 96, 96)    0                                            
__________________________________________________________________________________________________
DenseNet (Model)                (None, 2688)         15728       input_86[0][0]                   
                                                                 input_87[0][0]                   
__________________________________________________________________________________________________
merge_features (Concatenate)    (None, 5376)         0           DenseNet[1][0]                   
                                                                 DenseNet[2][0]                   
__________________________________________________________________________________________________
dense_85 (Dense)                (None, 512)          2753024     merge_features[0][0]             
__________________________________________________________________________________________________
dropout_86 (Dropout)            (None, 512)          0           dense_85[0][0]                   
__________________________________________________________________________________________________
dense_86 (Dense)                (None, 512)          262656      dropout_86[0][0]                 
__________________________________________________________________________________________________
activation_87 (Activation)      (None, 512)          0           dense_86[0][0]                   
__________________________________________________________________________________________________
dropout_87 (Dropout)            (None, 512)          0           activation_87[0][0]              
__________________________________________________________________________________________________
dense_87 (Dense)                (None, 1)            513         dropout_87[0][0]                 
==================================================================================================
Total params: 3,031,921
Trainable params: 3,031,833
Non-trainable params: 88
__________________________________________________________________________________________________
Test accuracy: 0.8098118279569892
score new --------------- > 0.8158602150537635
auc_score ------------------>  0.9221281000693722
__________________________________________________________________________________________________
Layer (type)                    Output Shape         Param #     Connected to                     
==================================================================================================
input_89 (InputLayer)           (None, 1, 96, 96)    0                                            
__________________________________________________________________________________________________
input_90 (InputLayer)           (None, 1, 96, 96)    0                                            
__________________________________________________________________________________________________
DenseNet (Model)                (None, 2688)         15728       input_89[0][0]                   
                                                                 input_90[0][0]                   
__________________________________________________________________________________________________
merge_features (Concatenate)    (None, 5376)         0           DenseNet[1][0]                   
                                                                 DenseNet[2][0]                   
__________________________________________________________________________________________________
dense_88 (Dense)                (None, 512)          2753024     merge_features[0][0]             
__________________________________________________________________________________________________
dropout_89 (Dropout)            (None, 512)          0           dense_88[0][0]                   
__________________________________________________________________________________________________
dense_89 (Dense)                (None, 512)          262656      dropout_89[0][0]                 
__________________________________________________________________________________________________
activation_90 (Activation)      (None, 512)          0           dense_89[0][0]                   
__________________________________________________________________________________________________
dropout_90 (Dropout)            (None, 512)          0           activation_90[0][0]              
__________________________________________________________________________________________________
dense_90 (Dense)                (None, 1)            513         dropout_90[0][0]                 
==================================================================================================
Total params: 3,031,921
Trainable params: 3,031,833
Non-trainable params: 88
__________________________________________________________________________________________________
Test accuracy: 0.7138440860215054
score new --------------- > 0.7280913978494624
auc_score ------------------>  0.8589688114232858
__________________________________________________________________________________________________
Layer (type)                    Output Shape         Param #     Connected to                     
==================================================================================================
input_92 (InputLayer)           (None, 1, 96, 96)    0                                            
__________________________________________________________________________________________________
input_93 (InputLayer)           (None, 1, 96, 96)    0                                            
__________________________________________________________________________________________________
DenseNet (Model)                (None, 2688)         15728       input_92[0][0]                   
                                                                 input_93[0][0]                   
__________________________________________________________________________________________________
merge_features (Concatenate)    (None, 5376)         0           DenseNet[1][0]                   
                                                                 DenseNet[2][0]                   
__________________________________________________________________________________________________
dense_91 (Dense)                (None, 512)          2753024     merge_features[0][0]             
__________________________________________________________________________________________________
dropout_92 (Dropout)            (None, 512)          0           dense_91[0][0]                   
__________________________________________________________________________________________________
dense_92 (Dense)                (None, 512)          262656      dropout_92[0][0]                 
__________________________________________________________________________________________________
activation_93 (Activation)      (None, 512)          0           dense_92[0][0]                   
__________________________________________________________________________________________________
dropout_93 (Dropout)            (None, 512)          0           activation_93[0][0]              
__________________________________________________________________________________________________
dense_93 (Dense)                (None, 1)            513         dropout_93[0][0]                 
==================================================================================================
Total params: 3,031,921
Trainable params: 3,031,833
Non-trainable params: 88
__________________________________________________________________________________________________
Test accuracy: 0.7477150537634408
score new --------------- > 0.7618279569892473
auc_score ------------------>  0.8782565903572667
__________________________________________________________________________________________________
Layer (type)                    Output Shape         Param #     Connected to                     
==================================================================================================
input_95 (InputLayer)           (None, 1, 96, 96)    0                                            
__________________________________________________________________________________________________
input_96 (InputLayer)           (None, 1, 96, 96)    0                                            
__________________________________________________________________________________________________
DenseNet (Model)                (None, 2688)         15728       input_95[0][0]                   
                                                                 input_96[0][0]                   
__________________________________________________________________________________________________
merge_features (Concatenate)    (None, 5376)         0           DenseNet[1][0]                   
                                                                 DenseNet[2][0]                   
__________________________________________________________________________________________________
dense_94 (Dense)                (None, 512)          2753024     merge_features[0][0]             
__________________________________________________________________________________________________
dropout_95 (Dropout)            (None, 512)          0           dense_94[0][0]                   
__________________________________________________________________________________________________
dense_95 (Dense)                (None, 512)          262656      dropout_95[0][0]                 
__________________________________________________________________________________________________
activation_96 (Activation)      (None, 512)          0           dense_95[0][0]                   
__________________________________________________________________________________________________
dropout_96 (Dropout)            (None, 512)          0           activation_96[0][0]              
__________________________________________________________________________________________________
dense_96 (Dense)                (None, 1)            513         dropout_96[0][0]                 
==================================================================================================
Total params: 3,031,921
Trainable params: 3,031,833
Non-trainable params: 88
__________________________________________________________________________________________________
Test accuracy: 0.7655913978494624
score new --------------- > 0.769758064516129
auc_score ------------------>  0.8943846109376806
__________________________________________________________________________________________________
Layer (type)                    Output Shape         Param #     Connected to                     
==================================================================================================
input_98 (InputLayer)           (None, 1, 96, 96)    0                                            
__________________________________________________________________________________________________
input_99 (InputLayer)           (None, 1, 96, 96)    0                                            
__________________________________________________________________________________________________
DenseNet (Model)                (None, 2688)         15728       input_98[0][0]                   
                                                                 input_99[0][0]                   
__________________________________________________________________________________________________
merge_features (Concatenate)    (None, 5376)         0           DenseNet[1][0]                   
                                                                 DenseNet[2][0]                   
__________________________________________________________________________________________________
dense_97 (Dense)                (None, 512)          2753024     merge_features[0][0]             
__________________________________________________________________________________________________
dropout_98 (Dropout)            (None, 512)          0           dense_97[0][0]                   
__________________________________________________________________________________________________
dense_98 (Dense)                (None, 512)          262656      dropout_98[0][0]                 
__________________________________________________________________________________________________
activation_99 (Activation)      (None, 512)          0           dense_98[0][0]                   
__________________________________________________________________________________________________
dropout_99 (Dropout)            (None, 512)          0           activation_99[0][0]              
__________________________________________________________________________________________________
dense_99 (Dense)                (None, 1)            513         dropout_99[0][0]                 
==================================================================================================
Total params: 3,031,921
Trainable params: 3,031,833
Non-trainable params: 88
__________________________________________________________________________________________________
Test accuracy: 0.7721774193548387
score new --------------- > 0.7861559139784946
auc_score ------------------>  0.8989051841253323
__________________________________________________________________________________________________
Layer (type)                    Output Shape         Param #     Connected to                     
==================================================================================================
input_101 (InputLayer)          (None, 1, 96, 96)    0                                            
__________________________________________________________________________________________________
input_102 (InputLayer)          (None, 1, 96, 96)    0                                            
__________________________________________________________________________________________________
DenseNet (Model)                (None, 2688)         15728       input_101[0][0]                  
                                                                 input_102[0][0]                  
__________________________________________________________________________________________________
merge_features (Concatenate)    (None, 5376)         0           DenseNet[1][0]                   
                                                                 DenseNet[2][0]                   
__________________________________________________________________________________________________
dense_100 (Dense)               (None, 512)          2753024     merge_features[0][0]             
__________________________________________________________________________________________________
dropout_101 (Dropout)           (None, 512)          0           dense_100[0][0]                  
__________________________________________________________________________________________________
dense_101 (Dense)               (None, 512)          262656      dropout_101[0][0]                
__________________________________________________________________________________________________
activation_102 (Activation)     (None, 512)          0           dense_101[0][0]                  
__________________________________________________________________________________________________
dropout_102 (Dropout)           (None, 512)          0           activation_102[0][0]             
__________________________________________________________________________________________________
dense_102 (Dense)               (None, 1)            513         dropout_102[0][0]                
==================================================================================================
Total params: 3,031,921
Trainable params: 3,031,833
Non-trainable params: 88
__________________________________________________________________________________________________
Test accuracy: 0.8547043010752688
score new --------------- > 0.8666666666666667
auc_score ------------------>  0.9394457451728524
__________________________________________________________________________________________________
Layer (type)                    Output Shape         Param #     Connected to                     
==================================================================================================
input_104 (InputLayer)          (None, 1, 96, 96)    0                                            
__________________________________________________________________________________________________
input_105 (InputLayer)          (None, 1, 96, 96)    0                                            
__________________________________________________________________________________________________
DenseNet (Model)                (None, 2688)         15728       input_104[0][0]                  
                                                                 input_105[0][0]                  
__________________________________________________________________________________________________
merge_features (Concatenate)    (None, 5376)         0           DenseNet[1][0]                   
                                                                 DenseNet[2][0]                   
__________________________________________________________________________________________________
dense_103 (Dense)               (None, 512)          2753024     merge_features[0][0]             
__________________________________________________________________________________________________
dropout_104 (Dropout)           (None, 512)          0           dense_103[0][0]                  
__________________________________________________________________________________________________
dense_104 (Dense)               (None, 512)          262656      dropout_104[0][0]                
__________________________________________________________________________________________________
activation_105 (Activation)     (None, 512)          0           dense_104[0][0]                  
__________________________________________________________________________________________________
dropout_105 (Dropout)           (None, 512)          0           activation_105[0][0]             
__________________________________________________________________________________________________
dense_105 (Dense)               (None, 1)            513         dropout_105[0][0]                
==================================================================================================
Total params: 3,031,921
Trainable params: 3,031,833
Non-trainable params: 88
__________________________________________________________________________________________________
Test accuracy: 0.7446236559139785
score new --------------- > 0.7670698924731183
auc_score ------------------>  0.8907898673257023
__________________________________________________________________________________________________
Layer (type)                    Output Shape         Param #     Connected to                     
==================================================================================================
input_107 (InputLayer)          (None, 1, 96, 96)    0                                            
__________________________________________________________________________________________________
input_108 (InputLayer)          (None, 1, 96, 96)    0                                            
__________________________________________________________________________________________________
DenseNet (Model)                (None, 2688)         15728       input_107[0][0]                  
                                                                 input_108[0][0]                  
__________________________________________________________________________________________________
merge_features (Concatenate)    (None, 5376)         0           DenseNet[1][0]                   
                                                                 DenseNet[2][0]                   
__________________________________________________________________________________________________
dense_106 (Dense)               (None, 512)          2753024     merge_features[0][0]             
__________________________________________________________________________________________________
dropout_107 (Dropout)           (None, 512)          0           dense_106[0][0]                  
__________________________________________________________________________________________________
dense_107 (Dense)               (None, 512)          262656      dropout_107[0][0]                
__________________________________________________________________________________________________
activation_108 (Activation)     (None, 512)          0           dense_107[0][0]                  
__________________________________________________________________________________________________
dropout_108 (Dropout)           (None, 512)          0           activation_108[0][0]             
__________________________________________________________________________________________________
dense_108 (Dense)               (None, 1)            513         dropout_108[0][0]                
==================================================================================================
Total params: 3,031,921
Trainable params: 3,031,833
Non-trainable params: 88
__________________________________________________________________________________________________
Test accuracy: 0.7354838709677419
score new --------------- > 0.7426075268817204
auc_score ------------------>  0.8191954994797087
__________________________________________________________________________________________________
Layer (type)                    Output Shape         Param #     Connected to                     
==================================================================================================
input_110 (InputLayer)          (None, 1, 96, 96)    0                                            
__________________________________________________________________________________________________
input_111 (InputLayer)          (None, 1, 96, 96)    0                                            
__________________________________________________________________________________________________
DenseNet (Model)                (None, 2688)         15728       input_110[0][0]                  
                                                                 input_111[0][0]                  
__________________________________________________________________________________________________
merge_features (Concatenate)    (None, 5376)         0           DenseNet[1][0]                   
                                                                 DenseNet[2][0]                   
__________________________________________________________________________________________________
dense_109 (Dense)               (None, 512)          2753024     merge_features[0][0]             
__________________________________________________________________________________________________
dropout_110 (Dropout)           (None, 512)          0           dense_109[0][0]                  
__________________________________________________________________________________________________
dense_110 (Dense)               (None, 512)          262656      dropout_110[0][0]                
__________________________________________________________________________________________________
activation_111 (Activation)     (None, 512)          0           dense_110[0][0]                  
__________________________________________________________________________________________________
dropout_111 (Dropout)           (None, 512)          0           activation_111[0][0]             
__________________________________________________________________________________________________
dense_111 (Dense)               (None, 1)            513         dropout_111[0][0]                
==================================================================================================
Total params: 3,031,921
Trainable params: 3,031,833
Non-trainable params: 88
__________________________________________________________________________________________________
Test accuracy: 0.6805107526881721
score new --------------- > 0.7073924731182796
auc_score ------------------>  0.8225142357497977
__________________________________________________________________________________________________
Layer (type)                    Output Shape         Param #     Connected to                     
==================================================================================================
input_113 (InputLayer)          (None, 1, 96, 96)    0                                            
__________________________________________________________________________________________________
input_114 (InputLayer)          (None, 1, 96, 96)    0                                            
__________________________________________________________________________________________________
DenseNet (Model)                (None, 2688)         15728       input_113[0][0]                  
                                                                 input_114[0][0]                  
__________________________________________________________________________________________________
merge_features (Concatenate)    (None, 5376)         0           DenseNet[1][0]                   
                                                                 DenseNet[2][0]                   
__________________________________________________________________________________________________
dense_112 (Dense)               (None, 512)          2753024     merge_features[0][0]             
__________________________________________________________________________________________________
dropout_113 (Dropout)           (None, 512)          0           dense_112[0][0]                  
__________________________________________________________________________________________________
dense_113 (Dense)               (None, 512)          262656      dropout_113[0][0]                
__________________________________________________________________________________________________
activation_114 (Activation)     (None, 512)          0           dense_113[0][0]                  
__________________________________________________________________________________________________
dropout_114 (Dropout)           (None, 512)          0           activation_114[0][0]             
__________________________________________________________________________________________________
dense_114 (Dense)               (None, 1)            513         dropout_114[0][0]                
==================================================================================================
Total params: 3,031,921
Trainable params: 3,031,833
Non-trainable params: 88
__________________________________________________________________________________________________
Epoch 00002: early stopping
Test accuracy: 0.521774193548387
score new --------------- > 0.5340053763440861
auc_score ------------------>  0.59923300381547
__________________________________________________________________________________________________
Layer (type)                    Output Shape         Param #     Connected to                     
==================================================================================================
input_116 (InputLayer)          (None, 1, 96, 96)    0                                            
__________________________________________________________________________________________________
input_117 (InputLayer)          (None, 1, 96, 96)    0                                            
__________________________________________________________________________________________________
DenseNet (Model)                (None, 2688)         15728       input_116[0][0]                  
                                                                 input_117[0][0]                  
__________________________________________________________________________________________________
merge_features (Concatenate)    (None, 5376)         0           DenseNet[1][0]                   
                                                                 DenseNet[2][0]                   
__________________________________________________________________________________________________
dense_115 (Dense)               (None, 512)          2753024     merge_features[0][0]             
__________________________________________________________________________________________________
dropout_116 (Dropout)           (None, 512)          0           dense_115[0][0]                  
__________________________________________________________________________________________________
dense_116 (Dense)               (None, 512)          262656      dropout_116[0][0]                
__________________________________________________________________________________________________
activation_117 (Activation)     (None, 512)          0           dense_116[0][0]                  
__________________________________________________________________________________________________
dropout_117 (Dropout)           (None, 512)          0           activation_117[0][0]             
__________________________________________________________________________________________________
dense_117 (Dense)               (None, 1)            513         dropout_117[0][0]                
==================================================================================================
Total params: 3,031,921
Trainable params: 3,031,833
Non-trainable params: 88
__________________________________________________________________________________________________
Test accuracy: 0.7573924731182796
score new --------------- > 0.7736559139784946
auc_score ------------------>  0.8986484347901491
__________________________________________________________________________________________________
Layer (type)                    Output Shape         Param #     Connected to                     
==================================================================================================
input_119 (InputLayer)          (None, 1, 96, 96)    0                                            
__________________________________________________________________________________________________
input_120 (InputLayer)          (None, 1, 96, 96)    0                                            
__________________________________________________________________________________________________
DenseNet (Model)                (None, 2688)         15728       input_119[0][0]                  
                                                                 input_120[0][0]                  
__________________________________________________________________________________________________
merge_features (Concatenate)    (None, 5376)         0           DenseNet[1][0]                   
                                                                 DenseNet[2][0]                   
__________________________________________________________________________________________________
dense_118 (Dense)               (None, 512)          2753024     merge_features[0][0]             
__________________________________________________________________________________________________
dropout_119 (Dropout)           (None, 512)          0           dense_118[0][0]                  
__________________________________________________________________________________________________
dense_119 (Dense)               (None, 512)          262656      dropout_119[0][0]                
__________________________________________________________________________________________________
activation_120 (Activation)     (None, 512)          0           dense_119[0][0]                  
__________________________________________________________________________________________________
dropout_120 (Dropout)           (None, 512)          0           activation_120[0][0]             
__________________________________________________________________________________________________
dense_120 (Dense)               (None, 1)            513         dropout_120[0][0]                
==================================================================================================
Total params: 3,031,921
Trainable params: 3,031,833
Non-trainable params: 88
__________________________________________________________________________________________________
Test accuracy: 0.757258064516129
score new --------------- > 0.7629032258064516
auc_score ------------------>  0.8816548155856168
__________________________________________________________________________________________________
Layer (type)                    Output Shape         Param #     Connected to                     
==================================================================================================
input_122 (InputLayer)          (None, 1, 96, 96)    0                                            
__________________________________________________________________________________________________
input_123 (InputLayer)          (None, 1, 96, 96)    0                                            
__________________________________________________________________________________________________
DenseNet (Model)                (None, 2688)         15728       input_122[0][0]                  
                                                                 input_123[0][0]                  
__________________________________________________________________________________________________
merge_features (Concatenate)    (None, 5376)         0           DenseNet[1][0]                   
                                                                 DenseNet[2][0]                   
__________________________________________________________________________________________________
dense_121 (Dense)               (None, 512)          2753024     merge_features[0][0]             
__________________________________________________________________________________________________
dropout_122 (Dropout)           (None, 512)          0           dense_121[0][0]                  
__________________________________________________________________________________________________
dense_122 (Dense)               (None, 512)          262656      dropout_122[0][0]                
__________________________________________________________________________________________________
activation_123 (Activation)     (None, 512)          0           dense_122[0][0]                  
__________________________________________________________________________________________________
dropout_123 (Dropout)           (None, 512)          0           activation_123[0][0]             
__________________________________________________________________________________________________
dense_123 (Dense)               (None, 1)            513         dropout_123[0][0]                
==================================================================================================
Total params: 3,031,921
Trainable params: 3,031,833
Non-trainable params: 88
__________________________________________________________________________________________________
Test accuracy: 0.6772849462365591
score new --------------- > 0.6622311827956989
auc_score ------------------>  0.7626537388715457
__________________________________________________________________________________________________
Layer (type)                    Output Shape         Param #     Connected to                     
==================================================================================================
input_125 (InputLayer)          (None, 1, 96, 96)    0                                            
__________________________________________________________________________________________________
input_126 (InputLayer)          (None, 1, 96, 96)    0                                            
__________________________________________________________________________________________________
DenseNet (Model)                (None, 2688)         15728       input_125[0][0]                  
                                                                 input_126[0][0]                  
__________________________________________________________________________________________________
merge_features (Concatenate)    (None, 5376)         0           DenseNet[1][0]                   
                                                                 DenseNet[2][0]                   
__________________________________________________________________________________________________
dense_124 (Dense)               (None, 512)          2753024     merge_features[0][0]             
__________________________________________________________________________________________________
dropout_125 (Dropout)           (None, 512)          0           dense_124[0][0]                  
__________________________________________________________________________________________________
dense_125 (Dense)               (None, 512)          262656      dropout_125[0][0]                
__________________________________________________________________________________________________
activation_126 (Activation)     (None, 512)          0           dense_125[0][0]                  
__________________________________________________________________________________________________
dropout_126 (Dropout)           (None, 512)          0           activation_126[0][0]             
__________________________________________________________________________________________________
dense_126 (Dense)               (None, 1)            513         dropout_126[0][0]                
==================================================================================================
Total params: 3,031,921
Trainable params: 3,031,833
Non-trainable params: 88
__________________________________________________________________________________________________
Epoch 00006: early stopping
Test accuracy: 0.7775537634408602
score new --------------- > 0.7864247311827957
auc_score ------------------>  0.9137071843565729
__________________________________________________________________________________________________
Layer (type)                    Output Shape         Param #     Connected to                     
==================================================================================================
input_128 (InputLayer)          (None, 1, 96, 96)    0                                            
__________________________________________________________________________________________________
input_129 (InputLayer)          (None, 1, 96, 96)    0                                            
__________________________________________________________________________________________________
DenseNet (Model)                (None, 2688)         15728       input_128[0][0]                  
                                                                 input_129[0][0]                  
__________________________________________________________________________________________________
merge_features (Concatenate)    (None, 5376)         0           DenseNet[1][0]                   
                                                                 DenseNet[2][0]                   
__________________________________________________________________________________________________
dense_127 (Dense)               (None, 512)          2753024     merge_features[0][0]             
__________________________________________________________________________________________________
dropout_128 (Dropout)           (None, 512)          0           dense_127[0][0]                  
__________________________________________________________________________________________________
dense_128 (Dense)               (None, 512)          262656      dropout_128[0][0]                
__________________________________________________________________________________________________
activation_129 (Activation)     (None, 512)          0           dense_128[0][0]                  
__________________________________________________________________________________________________
dropout_129 (Dropout)           (None, 512)          0           activation_129[0][0]             
__________________________________________________________________________________________________
dense_129 (Dense)               (None, 1)            513         dropout_129[0][0]                
==================================================================================================
Total params: 3,031,921
Trainable params: 3,031,833
Non-trainable params: 88
__________________________________________________________________________________________________
Test accuracy: 0.665994623655914
score new --------------- > 0.6876344086021505
auc_score ------------------>  0.8065848291710024
__________________________________________________________________________________________________
Layer (type)                    Output Shape         Param #     Connected to                     
==================================================================================================
input_131 (InputLayer)          (None, 1, 96, 96)    0                                            
__________________________________________________________________________________________________
input_132 (InputLayer)          (None, 1, 96, 96)    0                                            
__________________________________________________________________________________________________
DenseNet (Model)                (None, 2688)         15728       input_131[0][0]                  
                                                                 input_132[0][0]                  
__________________________________________________________________________________________________
merge_features (Concatenate)    (None, 5376)         0           DenseNet[1][0]                   
                                                                 DenseNet[2][0]                   
__________________________________________________________________________________________________
dense_130 (Dense)               (None, 512)          2753024     merge_features[0][0]             
__________________________________________________________________________________________________
dropout_131 (Dropout)           (None, 512)          0           dense_130[0][0]                  
__________________________________________________________________________________________________
dense_131 (Dense)               (None, 512)          262656      dropout_131[0][0]                
__________________________________________________________________________________________________
activation_132 (Activation)     (None, 512)          0           dense_131[0][0]                  
__________________________________________________________________________________________________
dropout_132 (Dropout)           (None, 512)          0           activation_132[0][0]             
__________________________________________________________________________________________________
dense_132 (Dense)               (None, 1)            513         dropout_132[0][0]                
==================================================================================================
Total params: 3,031,921
Trainable params: 3,031,833
Non-trainable params: 88
__________________________________________________________________________________________________
Test accuracy: 0.7915322580645161
score new --------------- > 0.7983870967741935
auc_score ------------------>  0.9099867036651638
__________________________________________________________________________________________________
Layer (type)                    Output Shape         Param #     Connected to                     
==================================================================================================
input_134 (InputLayer)          (None, 1, 96, 96)    0                                            
__________________________________________________________________________________________________
input_135 (InputLayer)          (None, 1, 96, 96)    0                                            
__________________________________________________________________________________________________
DenseNet (Model)                (None, 2688)         15728       input_134[0][0]                  
                                                                 input_135[0][0]                  
__________________________________________________________________________________________________
merge_features (Concatenate)    (None, 5376)         0           DenseNet[1][0]                   
                                                                 DenseNet[2][0]                   
__________________________________________________________________________________________________
dense_133 (Dense)               (None, 512)          2753024     merge_features[0][0]             
__________________________________________________________________________________________________
dropout_134 (Dropout)           (None, 512)          0           dense_133[0][0]                  
__________________________________________________________________________________________________
dense_134 (Dense)               (None, 512)          262656      dropout_134[0][0]                
__________________________________________________________________________________________________
activation_135 (Activation)     (None, 512)          0           dense_134[0][0]                  
__________________________________________________________________________________________________
dropout_135 (Dropout)           (None, 512)          0           activation_135[0][0]             
__________________________________________________________________________________________________
dense_135 (Dense)               (None, 1)            513         dropout_135[0][0]                
==================================================================================================
Total params: 3,031,921
Trainable params: 3,031,833
Non-trainable params: 88
__________________________________________________________________________________________________
Epoch 00004: early stopping
Test accuracy: 0.7400537634408603
score new --------------- > 0.733736559139785
auc_score ------------------>  0.7825120678691178
__________________________________________________________________________________________________
Layer (type)                    Output Shape         Param #     Connected to                     
==================================================================================================
input_137 (InputLayer)          (None, 1, 96, 96)    0                                            
__________________________________________________________________________________________________
input_138 (InputLayer)          (None, 1, 96, 96)    0                                            
__________________________________________________________________________________________________
DenseNet (Model)                (None, 2688)         15728       input_137[0][0]                  
                                                                 input_138[0][0]                  
__________________________________________________________________________________________________
merge_features (Concatenate)    (None, 5376)         0           DenseNet[1][0]                   
                                                                 DenseNet[2][0]                   
__________________________________________________________________________________________________
dense_136 (Dense)               (None, 512)          2753024     merge_features[0][0]             
__________________________________________________________________________________________________
dropout_137 (Dropout)           (None, 512)          0           dense_136[0][0]                  
__________________________________________________________________________________________________
dense_137 (Dense)               (None, 512)          262656      dropout_137[0][0]                
__________________________________________________________________________________________________
activation_138 (Activation)     (None, 512)          0           dense_137[0][0]                  
__________________________________________________________________________________________________
dropout_138 (Dropout)           (None, 512)          0           activation_138[0][0]             
__________________________________________________________________________________________________
dense_138 (Dense)               (None, 1)            513         dropout_138[0][0]                
==================================================================================================
Total params: 3,031,921
Trainable params: 3,031,833
Non-trainable params: 88
__________________________________________________________________________________________________
Test accuracy: 0.8077956989247311
score new --------------- > 0.8145161290322581
auc_score ------------------>  0.9170474187767372
__________________________________________________________________________________________________
Layer (type)                    Output Shape         Param #     Connected to                     
==================================================================================================
input_140 (InputLayer)          (None, 1, 96, 96)    0                                            
__________________________________________________________________________________________________
input_141 (InputLayer)          (None, 1, 96, 96)    0                                            
__________________________________________________________________________________________________
DenseNet (Model)                (None, 2688)         15728       input_140[0][0]                  
                                                                 input_141[0][0]                  
__________________________________________________________________________________________________
merge_features (Concatenate)    (None, 5376)         0           DenseNet[1][0]                   
                                                                 DenseNet[2][0]                   
__________________________________________________________________________________________________
dense_139 (Dense)               (None, 512)          2753024     merge_features[0][0]             
__________________________________________________________________________________________________
dropout_140 (Dropout)           (None, 512)          0           dense_139[0][0]                  
__________________________________________________________________________________________________
dense_140 (Dense)               (None, 512)          262656      dropout_140[0][0]                
__________________________________________________________________________________________________
activation_141 (Activation)     (None, 512)          0           dense_140[0][0]                  
__________________________________________________________________________________________________
dropout_141 (Dropout)           (None, 512)          0           activation_141[0][0]             
__________________________________________________________________________________________________
dense_141 (Dense)               (None, 1)            513         dropout_141[0][0]                
==================================================================================================
Total params: 3,031,921
Trainable params: 3,031,833
Non-trainable params: 88
__________________________________________________________________________________________________
Test accuracy: 0.7100806451612903
score new --------------- > 0.725268817204301
auc_score ------------------>  0.8468919094693027
__________________________________________________________________________________________________
Layer (type)                    Output Shape         Param #     Connected to                     
==================================================================================================
input_143 (InputLayer)          (None, 1, 96, 96)    0                                            
__________________________________________________________________________________________________
input_144 (InputLayer)          (None, 1, 96, 96)    0                                            
__________________________________________________________________________________________________
DenseNet (Model)                (None, 2688)         15728       input_143[0][0]                  
                                                                 input_144[0][0]                  
__________________________________________________________________________________________________
merge_features (Concatenate)    (None, 5376)         0           DenseNet[1][0]                   
                                                                 DenseNet[2][0]                   
__________________________________________________________________________________________________
dense_142 (Dense)               (None, 512)          2753024     merge_features[0][0]             
__________________________________________________________________________________________________
dropout_143 (Dropout)           (None, 512)          0           dense_142[0][0]                  
__________________________________________________________________________________________________
dense_143 (Dense)               (None, 512)          262656      dropout_143[0][0]                
__________________________________________________________________________________________________
activation_144 (Activation)     (None, 512)          0           dense_143[0][0]                  
__________________________________________________________________________________________________
dropout_144 (Dropout)           (None, 512)          0           activation_144[0][0]             
__________________________________________________________________________________________________
dense_144 (Dense)               (None, 1)            513         dropout_144[0][0]                
==================================================================================================
Total params: 3,031,921
Trainable params: 3,031,833
Non-trainable params: 88
__________________________________________________________________________________________________
Epoch 00006: early stopping
Test accuracy: 0.6862903225806452
score new --------------- > 0.685752688172043
auc_score ------------------>  0.7783357902647704
__________________________________________________________________________________________________
Layer (type)                    Output Shape         Param #     Connected to                     
==================================================================================================
input_146 (InputLayer)          (None, 1, 96, 96)    0                                            
__________________________________________________________________________________________________
input_147 (InputLayer)          (None, 1, 96, 96)    0                                            
__________________________________________________________________________________________________
DenseNet (Model)                (None, 2688)         15728       input_146[0][0]                  
                                                                 input_147[0][0]                  
__________________________________________________________________________________________________
merge_features (Concatenate)    (None, 5376)         0           DenseNet[1][0]                   
                                                                 DenseNet[2][0]                   
__________________________________________________________________________________________________
dense_145 (Dense)               (None, 512)          2753024     merge_features[0][0]             
__________________________________________________________________________________________________
dropout_146 (Dropout)           (None, 512)          0           dense_145[0][0]                  
__________________________________________________________________________________________________
dense_146 (Dense)               (None, 512)          262656      dropout_146[0][0]                
__________________________________________________________________________________________________
activation_147 (Activation)     (None, 512)          0           dense_146[0][0]                  
__________________________________________________________________________________________________
dropout_147 (Dropout)           (None, 512)          0           activation_147[0][0]             
__________________________________________________________________________________________________
dense_147 (Dense)               (None, 1)            513         dropout_147[0][0]                
==================================================================================================
Total params: 3,031,921
Trainable params: 3,031,833
Non-trainable params: 88
__________________________________________________________________________________________________
Test accuracy: 0.6940860215053763
score new --------------- > 0.7024193548387097
auc_score ------------------>  0.8357568794080241
__________________________________________________________________________________________________
Layer (type)                    Output Shape         Param #     Connected to                     
==================================================================================================
input_149 (InputLayer)          (None, 1, 96, 96)    0                                            
__________________________________________________________________________________________________
input_150 (InputLayer)          (None, 1, 96, 96)    0                                            
__________________________________________________________________________________________________
DenseNet (Model)                (None, 2688)         15728       input_149[0][0]                  
                                                                 input_150[0][0]                  
__________________________________________________________________________________________________
merge_features (Concatenate)    (None, 5376)         0           DenseNet[1][0]                   
                                                                 DenseNet[2][0]                   
__________________________________________________________________________________________________
dense_148 (Dense)               (None, 512)          2753024     merge_features[0][0]             
__________________________________________________________________________________________________
dropout_149 (Dropout)           (None, 512)          0           dense_148[0][0]                  
__________________________________________________________________________________________________
dense_149 (Dense)               (None, 512)          262656      dropout_149[0][0]                
__________________________________________________________________________________________________
activation_150 (Activation)     (None, 512)          0           dense_149[0][0]                  
__________________________________________________________________________________________________
dropout_150 (Dropout)           (None, 512)          0           activation_150[0][0]             
__________________________________________________________________________________________________
dense_150 (Dense)               (None, 1)            513         dropout_150[0][0]                
==================================================================================================
Total params: 3,031,921
Trainable params: 3,031,833
Non-trainable params: 88
__________________________________________________________________________________________________
Epoch 00003: early stopping
Test accuracy: 0.6200268817204301
score new --------------- > 0.6415322580645161
auc_score ------------------>  0.7108270464793618
__________________________________________________________________________________________________
Layer (type)                    Output Shape         Param #     Connected to                     
==================================================================================================
input_152 (InputLayer)          (None, 1, 96, 96)    0                                            
__________________________________________________________________________________________________
input_153 (InputLayer)          (None, 1, 96, 96)    0                                            
__________________________________________________________________________________________________
DenseNet (Model)                (None, 2688)         15728       input_152[0][0]                  
                                                                 input_153[0][0]                  
__________________________________________________________________________________________________
merge_features (Concatenate)    (None, 5376)         0           DenseNet[1][0]                   
                                                                 DenseNet[2][0]                   
__________________________________________________________________________________________________
dense_151 (Dense)               (None, 512)          2753024     merge_features[0][0]             
__________________________________________________________________________________________________
dropout_152 (Dropout)           (None, 512)          0           dense_151[0][0]                  
__________________________________________________________________________________________________
dense_152 (Dense)               (None, 512)          262656      dropout_152[0][0]                
__________________________________________________________________________________________________
activation_153 (Activation)     (None, 512)          0           dense_152[0][0]                  
__________________________________________________________________________________________________
dropout_153 (Dropout)           (None, 512)          0           activation_153[0][0]             
__________________________________________________________________________________________________
dense_153 (Dense)               (None, 1)            513         dropout_153[0][0]                
==================================================================================================
Total params: 3,031,921
Trainable params: 3,031,833
Non-trainable params: 88
__________________________________________________________________________________________________
Test accuracy: 0.7579301075268817
score new --------------- > 0.7598118279569892
auc_score ------------------>  0.8482178936871314
__________________________________________________________________________________________________
Layer (type)                    Output Shape         Param #     Connected to                     
==================================================================================================
input_155 (InputLayer)          (None, 1, 96, 96)    0                                            
__________________________________________________________________________________________________
input_156 (InputLayer)          (None, 1, 96, 96)    0                                            
__________________________________________________________________________________________________
DenseNet (Model)                (None, 2688)         15728       input_155[0][0]                  
                                                                 input_156[0][0]                  
__________________________________________________________________________________________________
merge_features (Concatenate)    (None, 5376)         0           DenseNet[1][0]                   
                                                                 DenseNet[2][0]                   
__________________________________________________________________________________________________
dense_154 (Dense)               (None, 512)          2753024     merge_features[0][0]             
__________________________________________________________________________________________________
dropout_155 (Dropout)           (None, 512)          0           dense_154[0][0]                  
__________________________________________________________________________________________________
dense_155 (Dense)               (None, 512)          262656      dropout_155[0][0]                
__________________________________________________________________________________________________
activation_156 (Activation)     (None, 512)          0           dense_155[0][0]                  
__________________________________________________________________________________________________
dropout_156 (Dropout)           (None, 512)          0           activation_156[0][0]             
__________________________________________________________________________________________________
dense_156 (Dense)               (None, 1)            513         dropout_156[0][0]                
==================================================================================================
Total params: 3,031,921
Trainable params: 3,031,833
Non-trainable params: 88
__________________________________________________________________________________________________
Test accuracy: 0.7323924731182796
score new --------------- > 0.7641129032258065
auc_score ------------------>  0.9188269958954791
__________________________________________________________________________________________________
Layer (type)                    Output Shape         Param #     Connected to                     
==================================================================================================
input_158 (InputLayer)          (None, 1, 96, 96)    0                                            
__________________________________________________________________________________________________
input_159 (InputLayer)          (None, 1, 96, 96)    0                                            
__________________________________________________________________________________________________
DenseNet (Model)                (None, 2688)         15728       input_158[0][0]                  
                                                                 input_159[0][0]                  
__________________________________________________________________________________________________
merge_features (Concatenate)    (None, 5376)         0           DenseNet[1][0]                   
                                                                 DenseNet[2][0]                   
__________________________________________________________________________________________________
dense_157 (Dense)               (None, 512)          2753024     merge_features[0][0]             
__________________________________________________________________________________________________
dropout_158 (Dropout)           (None, 512)          0           dense_157[0][0]                  
__________________________________________________________________________________________________
dense_158 (Dense)               (None, 512)          262656      dropout_158[0][0]                
__________________________________________________________________________________________________
activation_159 (Activation)     (None, 512)          0           dense_158[0][0]                  
__________________________________________________________________________________________________
dropout_159 (Dropout)           (None, 512)          0           activation_159[0][0]             
__________________________________________________________________________________________________
dense_159 (Dense)               (None, 1)            513         dropout_159[0][0]                
==================================================================================================
Total params: 3,031,921
Trainable params: 3,031,833
Non-trainable params: 88
__________________________________________________________________________________________________
Epoch 00003: early stopping
Test accuracy: 0.6399193548387097
score new --------------- > 0.6434139784946237
auc_score ------------------>  0.704658233610822
__________________________________________________________________________________________________
Layer (type)                    Output Shape         Param #     Connected to                     
==================================================================================================
input_161 (InputLayer)          (None, 1, 96, 96)    0                                            
__________________________________________________________________________________________________
input_162 (InputLayer)          (None, 1, 96, 96)    0                                            
__________________________________________________________________________________________________
DenseNet (Model)                (None, 2688)         15728       input_161[0][0]                  
                                                                 input_162[0][0]                  
__________________________________________________________________________________________________
merge_features (Concatenate)    (None, 5376)         0           DenseNet[1][0]                   
                                                                 DenseNet[2][0]                   
__________________________________________________________________________________________________
dense_160 (Dense)               (None, 512)          2753024     merge_features[0][0]             
__________________________________________________________________________________________________
dropout_161 (Dropout)           (None, 512)          0           dense_160[0][0]                  
__________________________________________________________________________________________________
dense_161 (Dense)               (None, 512)          262656      dropout_161[0][0]                
__________________________________________________________________________________________________
…
Layer (type)                    Output Shape         Param #     Connected to                     
==================================================================================================
input_248 (InputLayer)          (None, 1, 96, 96)    0                                            
__________________________________________________________________________________________________
input_249 (InputLayer)          (None, 1, 96, 96)    0                                            
__________________________________________________________________________________________________
DenseNet (Model)                (None, 2688)         15728       input_248[0][0]                  
                                                                 input_249[0][0]                  
__________________________________________________________________________________________________
merge_features (Concatenate)    (None, 5376)         0           DenseNet[1][0]                   
                                                                 DenseNet[2][0]                   
__________________________________________________________________________________________________
dense_247 (Dense)               (None, 512)          2753024     merge_features[0][0]             
__________________________________________________________________________________________________
dropout_248 (Dropout)           (None, 512)          0           dense_247[0][0]                  
__________________________________________________________________________________________________
dense_248 (Dense)               (None, 512)          262656      dropout_248[0][0]                
__________________________________________________________________________________________________
activation_249 (Activation)     (None, 512)          0           dense_248[0][0]                  
__________________________________________________________________________________________________
dropout_249 (Dropout)           (None, 512)          0           activation_249[0][0]             
__________________________________________________________________________________________________
dense_249 (Dense)               (None, 1)            513         dropout_249[0][0]                
==================================================================================================
Total params: 3,031,921
Trainable params: 3,031,833
Non-trainable params: 88
__________________________________________________________________________________________________
Test accuracy: 0.7682795698924731
score new --------------- > 0.7853494623655914
auc_score ------------------>  0.9185807969129378
__________________________________________________________________________________________________
Layer (type)                    Output Shape         Param #     Connected to                     
==================================================================================================
input_251 (InputLayer)          (None, 1, 96, 96)    0                                            
__________________________________________________________________________________________________
input_252 (InputLayer)          (None, 1, 96, 96)    0                                            
__________________________________________________________________________________________________
DenseNet (Model)                (None, 2688)         15728       input_251[0][0]                  
                                                                 input_252[0][0]                  
__________________________________________________________________________________________________
merge_features (Concatenate)    (None, 5376)         0           DenseNet[1][0]                   
                                                                 DenseNet[2][0]                   
__________________________________________________________________________________________________
dense_250 (Dense)               (None, 512)          2753024     merge_features[0][0]             
__________________________________________________________________________________________________
dropout_251 (Dropout)           (None, 512)          0           dense_250[0][0]                  
__________________________________________________________________________________________________
dense_251 (Dense)               (None, 512)          262656      dropout_251[0][0]                
__________________________________________________________________________________________________
activation_252 (Activation)     (None, 512)          0           dense_251[0][0]                  
__________________________________________________________________________________________________
dropout_252 (Dropout)           (None, 512)          0           activation_252[0][0]             
__________________________________________________________________________________________________
dense_252 (Dense)               (None, 1)            513         dropout_252[0][0]                
==================================================================================================
Total params: 3,031,921
Trainable params: 3,031,833
Non-trainable params: 88
__________________________________________________________________________________________________
Test accuracy: 0.8004032258064516
score new --------------- > 0.8092741935483871
auc_score ------------------>  0.911026780552665
__________________________________________________________________________________________________
Layer (type)                    Output Shape         Param #     Connected to                     
==================================================================================================
input_254 (InputLayer)          (None, 1, 96, 96)    0                                            
__________________________________________________________________________________________________
input_255 (InputLayer)          (None, 1, 96, 96)    0                                            
__________________________________________________________________________________________________
DenseNet (Model)                (None, 2688)         15728       input_254[0][0]                  
                                                                 input_255[0][0]                  
__________________________________________________________________________________________________
merge_features (Concatenate)    (None, 5376)         0           DenseNet[1][0]                   
                                                                 DenseNet[2][0]                   
__________________________________________________________________________________________________
dense_253 (Dense)               (None, 512)          2753024     merge_features[0][0]             
__________________________________________________________________________________________________
dropout_254 (Dropout)           (None, 512)          0           dense_253[0][0]                  
__________________________________________________________________________________________________
dense_254 (Dense)               (None, 512)          262656      dropout_254[0][0]                
__________________________________________________________________________________________________
activation_255 (Activation)     (None, 512)          0           dense_254[0][0]                  
__________________________________________________________________________________________________
dropout_255 (Dropout)           (None, 512)          0           activation_255[0][0]             
__________________________________________________________________________________________________
dense_255 (Dense)               (None, 1)            513         dropout_255[0][0]                
==================================================================================================
Total params: 3,031,921
Trainable params: 3,031,833
Non-trainable params: 88
__________________________________________________________________________________________________
Test accuracy: 0.7696236559139785
score new --------------- > 0.7794354838709677
auc_score ------------------>  0.9062633685975257
__________________________________________________________________________________________________
Layer (type)                    Output Shape         Param #     Connected to                     
==================================================================================================
input_257 (InputLayer)          (None, 1, 96, 96)    0                                            
__________________________________________________________________________________________________
input_258 (InputLayer)          (None, 1, 96, 96)    0                                            
__________________________________________________________________________________________________
DenseNet (Model)                (None, 2688)         15728       input_257[0][0]                  
                                                                 input_258[0][0]                  
__________________________________________________________________________________________________
merge_features (Concatenate)    (None, 5376)         0           DenseNet[1][0]                   
                                                                 DenseNet[2][0]                   
__________________________________________________________________________________________________
dense_256 (Dense)               (None, 512)          2753024     merge_features[0][0]             
__________________________________________________________________________________________________
dropout_257 (Dropout)           (None, 512)          0           dense_256[0][0]                  
__________________________________________________________________________________________________
dense_257 (Dense)               (None, 512)          262656      dropout_257[0][0]                
__________________________________________________________________________________________________
activation_258 (Activation)     (None, 512)          0           dense_257[0][0]                  
__________________________________________________________________________________________________
dropout_258 (Dropout)           (None, 512)          0           activation_258[0][0]             
__________________________________________________________________________________________________
dense_258 (Dense)               (None, 1)            513         dropout_258[0][0]                
==================================================================================================
Total params: 3,031,921
Trainable params: 3,031,833
Non-trainable params: 88
__________________________________________________________________________________________________
Test accuracy: 0.6850806451612903
score new --------------- > 0.7047043010752688
auc_score ------------------>  0.8575865345704705
__________________________________________________________________________________________________
Layer (type)                    Output Shape         Param #     Connected to                     
==================================================================================================
input_260 (InputLayer)          (None, 1, 96, 96)    0                                            
__________________________________________________________________________________________________
input_261 (InputLayer)          (None, 1, 96, 96)    0                                            
__________________________________________________________________________________________________
DenseNet (Model)                (None, 2688)         15728       input_260[0][0]                  
                                                                 input_261[0][0]                  
__________________________________________________________________________________________________
merge_features (Concatenate)    (None, 5376)         0           DenseNet[1][0]                   
                                                                 DenseNet[2][0]                   
__________________________________________________________________________________________________
dense_259 (Dense)               (None, 512)          2753024     merge_features[0][0]             
__________________________________________________________________________________________________
dropout_260 (Dropout)           (None, 512)          0           dense_259[0][0]                  
__________________________________________________________________________________________________
dense_260 (Dense)               (None, 512)          262656      dropout_260[0][0]                
__________________________________________________________________________________________________
activation_261 (Activation)     (None, 512)          0           dense_260[0][0]                  
__________________________________________________________________________________________________
dropout_261 (Dropout)           (None, 512)          0           activation_261[0][0]             
__________________________________________________________________________________________________
dense_261 (Dense)               (None, 1)            513         dropout_261[0][0]                
==================================================================================================
Total params: 3,031,921
Trainable params: 3,031,833
Non-trainable params: 88
__________________________________________________________________________________________________
Test accuracy: 0.7533602150537635
score new --------------- > 0.7661290322580645
auc_score ------------------>  0.9210407272517054
__________________________________________________________________________________________________
Layer (type)                    Output Shape         Param #     Connected to                     
==================================================================================================
input_263 (InputLayer)          (None, 1, 96, 96)    0                                            
__________________________________________________________________________________________________
input_264 (InputLayer)          (None, 1, 96, 96)    0                                            
__________________________________________________________________________________________________
DenseNet (Model)                (None, 2688)         15728       input_263[0][0]                  
                                                                 input_264[0][0]                  
__________________________________________________________________________________________________
merge_features (Concatenate)    (None, 5376)         0           DenseNet[1][0]                   
                                                                 DenseNet[2][0]                   
__________________________________________________________________________________________________
dense_262 (Dense)               (None, 512)          2753024     merge_features[0][0]             
__________________________________________________________________________________________________
dropout_263 (Dropout)           (None, 512)          0           dense_262[0][0]                  
__________________________________________________________________________________________________
dense_263 (Dense)               (None, 512)          262656      dropout_263[0][0]                
__________________________________________________________________________________________________
activation_264 (Activation)     (None, 512)          0           dense_263[0][0]                  
__________________________________________________________________________________________________
dropout_264 (Dropout)           (None, 512)          0           activation_264[0][0]             
__________________________________________________________________________________________________
dense_264 (Dense)               (None, 1)            513         dropout_264[0][0]                
==================================================================================================
Total params: 3,031,921
Trainable params: 3,031,833
Non-trainable params: 88
__________________________________________________________________________________________________
Test accuracy: 0.7858870967741935
score new --------------- > 0.7946236559139785
auc_score ------------------>  0.8919161174702278
__________________________________________________________________________________________________
Layer (type)                    Output Shape         Param #     Connected to                     
==================================================================================================
input_266 (InputLayer)          (None, 1, 96, 96)    0                                            
__________________________________________________________________________________________________
input_267 (InputLayer)          (None, 1, 96, 96)    0                                            
__________________________________________________________________________________________________
DenseNet (Model)                (None, 2688)         15728       input_266[0][0]                  
                                                                 input_267[0][0]                  
__________________________________________________________________________________________________
merge_features (Concatenate)    (None, 5376)         0           DenseNet[1][0]                   
                                                                 DenseNet[2][0]                   
__________________________________________________________________________________________________
dense_265 (Dense)               (None, 512)          2753024     merge_features[0][0]             
__________________________________________________________________________________________________
dropout_266 (Dropout)           (None, 512)          0           dense_265[0][0]                  
__________________________________________________________________________________________________
dense_266 (Dense)               (None, 512)          262656      dropout_266[0][0]                
__________________________________________________________________________________________________
activation_267 (Activation)     (None, 512)          0           dense_266[0][0]                  
__________________________________________________________________________________________________
dropout_267 (Dropout)           (None, 512)          0           activation_267[0][0]             
__________________________________________________________________________________________________
dense_267 (Dense)               (None, 1)            513         dropout_267[0][0]                
==================================================================================================
Total params: 3,031,921
Trainable params: 3,031,833
Non-trainable params: 88
__________________________________________________________________________________________________
Test accuracy: 0.8033602150537634
score new --------------- > 0.8123655913978495
auc_score ------------------>  0.8917356775349752
__________________________________________________________________________________________________
Layer (type)                    Output Shape         Param #     Connected to                     
==================================================================================================
input_269 (InputLayer)          (None, 1, 96, 96)    0                                            
__________________________________________________________________________________________________
input_270 (InputLayer)          (None, 1, 96, 96)    0                                            
__________________________________________________________________________________________________
DenseNet (Model)                (None, 2688)         15728       input_269[0][0]                  
                                                                 input_270[0][0]                  
__________________________________________________________________________________________________
merge_features (Concatenate)    (None, 5376)         0           DenseNet[1][0]                   
                                                                 DenseNet[2][0]                   
__________________________________________________________________________________________________
dense_268 (Dense)               (None, 512)          2753024     merge_features[0][0]             
__________________________________________________________________________________________________
dropout_269 (Dropout)           (None, 512)          0           dense_268[0][0]                  
__________________________________________________________________________________________________
dense_269 (Dense)               (None, 512)          262656      dropout_269[0][0]                
__________________________________________________________________________________________________
activation_270 (Activation)     (None, 512)          0           dense_269[0][0]                  
__________________________________________________________________________________________________
dropout_270 (Dropout)           (None, 512)          0           activation_270[0][0]             
__________________________________________________________________________________________________
dense_270 (Dense)               (None, 1)            513         dropout_270[0][0]                
==================================================================================================
Total params: 3,031,921
Trainable params: 3,031,833
Non-trainable params: 88
__________________________________________________________________________________________________
Test accuracy: 0.815994623655914
score new --------------- > 0.825
auc_score ------------------>  0.9264829749103942
__________________________________________________________________________________________________
Layer (type)                    Output Shape         Param #     Connected to                     
==================================================================================================
input_272 (InputLayer)          (None, 1, 96, 96)    0                                            
__________________________________________________________________________________________________
input_273 (InputLayer)          (None, 1, 96, 96)    0                                            
__________________________________________________________________________________________________
DenseNet (Model)                (None, 2688)         15728       input_272[0][0]                  
                                                                 input_273[0][0]                  
__________________________________________________________________________________________________
merge_features (Concatenate)    (None, 5376)         0           DenseNet[1][0]                   
                                                                 DenseNet[2][0]                   
__________________________________________________________________________________________________
dense_271 (Dense)               (None, 512)          2753024     merge_features[0][0]             
__________________________________________________________________________________________________
dropout_272 (Dropout)           (None, 512)          0           dense_271[0][0]                  
__________________________________________________________________________________________________
dense_272 (Dense)               (None, 512)          262656      dropout_272[0][0]                
__________________________________________________________________________________________________
activation_273 (Activation)     (None, 512)          0           dense_272[0][0]                  
__________________________________________________________________________________________________
dropout_273 (Dropout)           (None, 512)          0           activation_273[0][0]             
__________________________________________________________________________________________________
dense_273 (Dense)               (None, 1)            513         dropout_273[0][0]                
==================================================================================================
Total params: 3,031,921
Trainable params: 3,031,833
Non-trainable params: 88
__________________________________________________________________________________________________
Epoch 00006: early stopping
Test accuracy: 0.725
score new --------------- > 0.7176075268817205
auc_score ------------------>  0.7669360619724824
__________________________________________________________________________________________________
Layer (type)                    Output Shape         Param #     Connected to                     
==================================================================================================
input_275 (InputLayer)          (None, 1, 96, 96)    0                                            
__________________________________________________________________________________________________
input_276 (InputLayer)          (None, 1, 96, 96)    0                                            
__________________________________________________________________________________________________
DenseNet (Model)                (None, 2688)         15728       input_275[0][0]                  
                                                                 input_276[0][0]                  
__________________________________________________________________________________________________
merge_features (Concatenate)    (None, 5376)         0           DenseNet[1][0]                   
                                                                 DenseNet[2][0]                   
__________________________________________________________________________________________________
dense_274 (Dense)               (None, 512)          2753024     merge_features[0][0]             
__________________________________________________________________________________________________
dropout_275 (Dropout)           (None, 512)          0           dense_274[0][0]                  
__________________________________________________________________________________________________
dense_275 (Dense)               (None, 512)          262656      dropout_275[0][0]                
__________________________________________________________________________________________________
activation_276 (Activation)     (None, 512)          0           dense_275[0][0]                  
__________________________________________________________________________________________________
dropout_276 (Dropout)           (None, 512)          0           activation_276[0][0]             
__________________________________________________________________________________________________
dense_276 (Dense)               (None, 1)            513         dropout_276[0][0]                
==================================================================================================
Total params: 3,031,921
Trainable params: 3,031,833
Non-trainable params: 88
__________________________________________________________________________________________________
Test accuracy: 0.7758064516129032
score new --------------- > 0.7837365591397849
auc_score ------------------>  0.894257428604463
__________________________________________________________________________________________________
Layer (type)                    Output Shape         Param #     Connected to                     
==================================================================================================
input_278 (InputLayer)          (None, 1, 96, 96)    0                                            
__________________________________________________________________________________________________
input_279 (InputLayer)          (None, 1, 96, 96)    0                                            
__________________________________________________________________________________________________
DenseNet (Model)                (None, 2688)         15728       input_278[0][0]                  
                                                                 input_279[0][0]                  
__________________________________________________________________________________________________
merge_features (Concatenate)    (None, 5376)         0           DenseNet[1][0]                   
                                                                 DenseNet[2][0]                   
__________________________________________________________________________________________________
dense_277 (Dense)               (None, 512)          2753024     merge_features[0][0]             
__________________________________________________________________________________________________
dropout_278 (Dropout)           (None, 512)          0           dense_277[0][0]                  
__________________________________________________________________________________________________
dense_278 (Dense)               (None, 512)          262656      dropout_278[0][0]                
__________________________________________________________________________________________________
activation_279 (Activation)     (None, 512)          0           dense_278[0][0]                  
__________________________________________________________________________________________________
dropout_279 (Dropout)           (None, 512)          0           activation_279[0][0]             
__________________________________________________________________________________________________
dense_279 (Dense)               (None, 1)            513         dropout_279[0][0]                
==================================================================================================
Total params: 3,031,921
Trainable params: 3,031,833
Non-trainable params: 88
__________________________________________________________________________________________________
Test accuracy: 0.8073924731182796
score new --------------- > 0.8102150537634408
auc_score ------------------>  0.9055299384321887
__________________________________________________________________________________________________
Layer (type)                    Output Shape         Param #     Connected to                     
==================================================================================================
input_281 (InputLayer)          (None, 1, 96, 96)    0                                            
__________________________________________________________________________________________________
input_282 (InputLayer)          (None, 1, 96, 96)    0                                            
__________________________________________________________________________________________________
DenseNet (Model)                (None, 2688)         15728       input_281[0][0]                  
                                                                 input_282[0][0]                  
__________________________________________________________________________________________________
merge_features (Concatenate)    (None, 5376)         0           DenseNet[1][0]                   
                                                                 DenseNet[2][0]                   
__________________________________________________________________________________________________
dense_280 (Dense)               (None, 512)          2753024     merge_features[0][0]             
__________________________________________________________________________________________________
dropout_281 (Dropout)           (None, 512)          0           dense_280[0][0]                  
__________________________________________________________________________________________________
dense_281 (Dense)               (None, 512)          262656      dropout_281[0][0]                
__________________________________________________________________________________________________
activation_282 (Activation)     (None, 512)          0           dense_281[0][0]                  
__________________________________________________________________________________________________
dropout_282 (Dropout)           (None, 512)          0           activation_282[0][0]             
__________________________________________________________________________________________________
dense_282 (Dense)               (None, 1)            513         dropout_282[0][0]                
==================================================================================================
Total params: 3,031,921
Trainable params: 3,031,833
Non-trainable params: 88
__________________________________________________________________________________________________
Epoch 00004: early stopping
Test accuracy: 0.6942204301075269
score new --------------- > 0.7055107526881721
auc_score ------------------>  0.7831569762400278
__________________________________________________________________________________________________
Layer (type)                    Output Shape         Param #     Connected to                     
==================================================================================================
input_284 (InputLayer)          (None, 1, 96, 96)    0                                            
__________________________________________________________________________________________________
input_285 (InputLayer)          (None, 1, 96, 96)    0                                            
__________________________________________________________________________________________________
DenseNet (Model)                (None, 2688)         15728       input_284[0][0]                  
                                                                 input_285[0][0]                  
__________________________________________________________________________________________________
merge_features (Concatenate)    (None, 5376)         0           DenseNet[1][0]                   
                                                                 DenseNet[2][0]                   
__________________________________________________________________________________________________
dense_283 (Dense)               (None, 512)          2753024     merge_features[0][0]             
__________________________________________________________________________________________________
dropout_284 (Dropout)           (None, 512)          0           dense_283[0][0]                  
__________________________________________________________________________________________________
dense_284 (Dense)               (None, 512)          262656      dropout_284[0][0]                
__________________________________________________________________________________________________
activation_285 (Activation)     (None, 512)          0           dense_284[0][0]                  
__________________________________________________________________________________________________
dropout_285 (Dropout)           (None, 512)          0           activation_285[0][0]             
__________________________________________________________________________________________________
dense_285 (Dense)               (None, 1)            513         dropout_285[0][0]                
==================================================================================================
Total params: 3,031,921
Trainable params: 3,031,833
Non-trainable params: 88
__________________________________________________________________________________________________
Epoch 00006: early stopping
Test accuracy: 0.6063172043010753
score new --------------- > 0.6176075268817204
auc_score ------------------>  0.6990395565961383
__________________________________________________________________________________________________
Layer (type)                    Output Shape         Param #     Connected to                     
==================================================================================================
input_287 (InputLayer)          (None, 1, 96, 96)    0                                            
__________________________________________________________________________________________________
input_288 (InputLayer)          (None, 1, 96, 96)    0                                            
__________________________________________________________________________________________________
DenseNet (Model)                (None, 2688)         15728       input_287[0][0]                  
                                                                 input_288[0][0]                  
__________________________________________________________________________________________________
merge_features (Concatenate)    (None, 5376)         0           DenseNet[1][0]                   
                                                                 DenseNet[2][0]                   
__________________________________________________________________________________________________
dense_286 (Dense)               (None, 512)          2753024     merge_features[0][0]             
__________________________________________________________________________________________________
dropout_287 (Dropout)           (None, 512)          0           dense_286[0][0]                  
__________________________________________________________________________________________________
dense_287 (Dense)               (None, 512)          262656      dropout_287[0][0]                
__________________________________________________________________________________________________
activation_288 (Activation)     (None, 512)          0           dense_287[0][0]                  
__________________________________________________________________________________________________
dropout_288 (Dropout)           (None, 512)          0           activation_288[0][0]             
__________________________________________________________________________________________________
dense_288 (Dense)               (None, 1)            513         dropout_288[0][0]                
==================================================================================================
Total params: 3,031,921
Trainable params: 3,031,833
Non-trainable params: 88
__________________________________________________________________________________________________
Test accuracy: 0.8185483870967742
score new --------------- > 0.8255376344086022
auc_score ------------------>  0.925440296566077
__________________________________________________________________________________________________
Layer (type)                    Output Shape         Param #     Connected to                     
==================================================================================================
input_290 (InputLayer)          (None, 1, 96, 96)    0                                            
__________________________________________________________________________________________________
input_291 (InputLayer)          (None, 1, 96, 96)    0                                            
__________________________________________________________________________________________________
DenseNet (Model)                (None, 2688)         15728       input_290[0][0]                  
                                                                 input_291[0][0]                  
__________________________________________________________________________________________________
merge_features (Concatenate)    (None, 5376)         0           DenseNet[1][0]                   
                                                                 DenseNet[2][0]                   
__________________________________________________________________________________________________
dense_289 (Dense)               (None, 512)          2753024     merge_features[0][0]             
__________________________________________________________________________________________________
dropout_290 (Dropout)           (None, 512)          0           dense_289[0][0]                  
__________________________________________________________________________________________________
dense_290 (Dense)               (None, 512)          262656      dropout_290[0][0]                
__________________________________________________________________________________________________
activation_291 (Activation)     (None, 512)          0           dense_290[0][0]                  
__________________________________________________________________________________________________
dropout_291 (Dropout)           (None, 512)          0           activation_291[0][0]             
__________________________________________________________________________________________________
dense_291 (Dense)               (None, 1)            513         dropout_291[0][0]                
==================================================================================================
Total params: 3,031,921
Trainable params: 3,031,833
Non-trainable params: 88
__________________________________________________________________________________________________
Test accuracy: 0.7563172043010753
score new --------------- > 0.7701612903225806
auc_score ------------------>  0.900635550352642
__________________________________________________________________________________________________
Layer (type)                    Output Shape         Param #     Connected to                     
==================================================================================================
input_293 (InputLayer)          (None, 1, 96, 96)    0                                            
__________________________________________________________________________________________________
input_294 (InputLayer)          (None, 1, 96, 96)    0                                            
__________________________________________________________________________________________________
DenseNet (Model)                (None, 2688)         15728       input_293[0][0]                  
                                                                 input_294[0][0]                  
__________________________________________________________________________________________________
merge_features (Concatenate)    (None, 5376)         0           DenseNet[1][0]                   
                                                                 DenseNet[2][0]                   
__________________________________________________________________________________________________
dense_292 (Dense)               (None, 512)          2753024     merge_features[0][0]             
__________________________________________________________________________________________________
dropout_293 (Dropout)           (None, 512)          0           dense_292[0][0]                  
__________________________________________________________________________________________________
dense_293 (Dense)               (None, 512)          262656      dropout_293[0][0]                
__________________________________________________________________________________________________
activation_294 (Activation)     (None, 512)          0           dense_293[0][0]                  
__________________________________________________________________________________________________
dropout_294 (Dropout)           (None, 512)          0           activation_294[0][0]             
__________________________________________________________________________________________________
dense_294 (Dense)               (None, 1)            513         dropout_294[0][0]                
==================================================================================================
Total params: 3,031,921
Trainable params: 3,031,833
Non-trainable params: 88
__________________________________________________________________________________________________
Test accuracy: 0.7600806451612904
score new --------------- > 0.7557795698924731
auc_score ------------------>  0.8170187304890739
__________________________________________________________________________________________________
Layer (type)                    Output Shape         Param #     Connected to                     
==================================================================================================
input_296 (InputLayer)          (None, 1, 96, 96)    0                                            
__________________________________________________________________________________________________
input_297 (InputLayer)          (None, 1, 96, 96)    0                                            
__________________________________________________________________________________________________
DenseNet (Model)                (None, 2688)         15728       input_296[0][0]                  
                                                                 input_297[0][0]                  
__________________________________________________________________________________________________
merge_features (Concatenate)    (None, 5376)         0           DenseNet[1][0]                   
                                                                 DenseNet[2][0]                   
__________________________________________________________________________________________________
dense_295 (Dense)               (None, 512)          2753024     merge_features[0][0]             
__________________________________________________________________________________________________
dropout_296 (Dropout)           (None, 512)          0           dense_295[0][0]                  
__________________________________________________________________________________________________
dense_296 (Dense)               (None, 512)          262656      dropout_296[0][0]                
__________________________________________________________________________________________________
activation_297 (Activation)     (None, 512)          0           dense_296[0][0]                  
__________________________________________________________________________________________________
dropout_297 (Dropout)           (None, 512)          0           activation_297[0][0]             
__________________________________________________________________________________________________
dense_297 (Dense)               (None, 1)            513         dropout_297[0][0]                
==================================================================================================
Total params: 3,031,921
Trainable params: 3,031,833
Non-trainable params: 88
__________________________________________________________________________________________________
Test accuracy: 0.7182795698924731
score new --------------- > 0.738978494623656
auc_score ------------------>  0.8273358914325355
__________________________________________________________________________________________________
Layer (type)                    Output Shape         Param #     Connected to                     
==================================================================================================
input_299 (InputLayer)          (None, 1, 96, 96)    0                                            
__________________________________________________________________________________________________
input_300 (InputLayer)          (None, 1, 96, 96)    0                                            
__________________________________________________________________________________________________
DenseNet (Model)                (None, 2688)         15728       input_299[0][0]                  
                                                                 input_300[0][0]                  
__________________________________________________________________________________________________
merge_features (Concatenate)    (None, 5376)         0           DenseNet[1][0]                   
                                                                 DenseNet[2][0]                   
__________________________________________________________________________________________________
dense_298 (Dense)               (None, 512)          2753024     merge_features[0][0]             
__________________________________________________________________________________________________
dropout_299 (Dropout)           (None, 512)          0           dense_298[0][0]                  
__________________________________________________________________________________________________
dense_299 (Dense)               (None, 512)          262656      dropout_299[0][0]                
__________________________________________________________________________________________________
activation_300 (Activation)     (None, 512)          0           dense_299[0][0]                  
__________________________________________________________________________________________________
dropout_300 (Dropout)           (None, 512)          0           activation_300[0][0]             
__________________________________________________________________________________________________
dense_300 (Dense)               (None, 1)            513         dropout_300[0][0]                
==================================================================================================
Total params: 3,031,921
Trainable params: 3,031,833
Non-trainable params: 88
__________________________________________________________________________________________________
Test accuracy: 0.8110215053763441
score new --------------- > 0.8233870967741935
auc_score ------------------>  0.9260288039079663
…
