python hello-world.py
python hyperas_simple.py
python hyperas_contrastive_loss.py
python densenet_siamese_best_run.py
python hyperas_densenet.py
python hyperas_densenet_siamese.py
python densenet_simple.py
python keras_densenet_siamese.py
__________________________________________________________________________________________________
Layer (type)                    Output Shape         Param #     Connected to                     
==================================================================================================
input_1 (InputLayer)            (None, 2, 96, 96)    0                                            
__________________________________________________________________________________________________
initial_conv2D (Conv2D)         (None, 18, 96, 96)   324         input_1[0][0]                    
__________________________________________________________________________________________________
dense_0_0_bn (BatchNormalizatio (None, 18, 96, 96)   72          initial_conv2D[0][0]             
__________________________________________________________________________________________________
activation_1 (Activation)       (None, 18, 96, 96)   0           dense_0_0_bn[0][0]               
__________________________________________________________________________________________________
dense_0_0_bottleneck_conv2D (Co (None, 48, 96, 96)   864         activation_1[0][0]               
__________________________________________________________________________________________________
dense_0_0_bottleneck_bn (BatchN (None, 48, 96, 96)   192         dense_0_0_bottleneck_conv2D[0][0]
__________________________________________________________________________________________________
activation_2 (Activation)       (None, 48, 96, 96)   0           dense_0_0_bottleneck_bn[0][0]    
__________________________________________________________________________________________________
dense_0_0_conv2D (Conv2D)       (None, 12, 96, 96)   5184        activation_2[0][0]               
__________________________________________________________________________________________________
concatenate_1 (Concatenate)     (None, 30, 96, 96)   0           initial_conv2D[0][0]             
                                                                 dense_0_0_conv2D[0][0]           
__________________________________________________________________________________________________
tr_0_bn (BatchNormalization)    (None, 30, 96, 96)   120         concatenate_1[0][0]              
__________________________________________________________________________________________________
activation_3 (Activation)       (None, 30, 96, 96)   0           tr_0_bn[0][0]                    
__________________________________________________________________________________________________
tr_0_conv2D (Conv2D)            (None, 15, 96, 96)   450         activation_3[0][0]               
__________________________________________________________________________________________________
average_pooling2d_1 (AveragePoo (None, 15, 48, 48)   0           tr_0_conv2D[0][0]                
__________________________________________________________________________________________________
dense_1_0_bn (BatchNormalizatio (None, 15, 48, 48)   60          average_pooling2d_1[0][0]        
__________________________________________________________________________________________________
activation_4 (Activation)       (None, 15, 48, 48)   0           dense_1_0_bn[0][0]               
__________________________________________________________________________________________________
dense_1_0_bottleneck_conv2D (Co (None, 48, 48, 48)   720         activation_4[0][0]               
__________________________________________________________________________________________________
dense_1_0_bottleneck_bn (BatchN (None, 48, 48, 48)   192         dense_1_0_bottleneck_conv2D[0][0]
__________________________________________________________________________________________________
activation_5 (Activation)       (None, 48, 48, 48)   0           dense_1_0_bottleneck_bn[0][0]    
__________________________________________________________________________________________________
dense_1_0_conv2D (Conv2D)       (None, 12, 48, 48)   5184        activation_5[0][0]               
__________________________________________________________________________________________________
concatenate_2 (Concatenate)     (None, 27, 48, 48)   0           average_pooling2d_1[0][0]        
                                                                 dense_1_0_conv2D[0][0]           
__________________________________________________________________________________________________
tr_1_bn (BatchNormalization)    (None, 27, 48, 48)   108         concatenate_2[0][0]              
__________________________________________________________________________________________________
activation_6 (Activation)       (None, 27, 48, 48)   0           tr_1_bn[0][0]                    
__________________________________________________________________________________________________
tr_1_conv2D (Conv2D)            (None, 13, 48, 48)   351         activation_6[0][0]               
__________________________________________________________________________________________________
average_pooling2d_2 (AveragePoo (None, 13, 24, 24)   0           tr_1_conv2D[0][0]                
__________________________________________________________________________________________________
dense_2_0_bn (BatchNormalizatio (None, 13, 24, 24)   52          average_pooling2d_2[0][0]        
__________________________________________________________________________________________________
activation_7 (Activation)       (None, 13, 24, 24)   0           dense_2_0_bn[0][0]               
__________________________________________________________________________________________________
dense_2_0_bottleneck_conv2D (Co (None, 48, 24, 24)   624         activation_7[0][0]               
__________________________________________________________________________________________________
dense_2_0_bottleneck_bn (BatchN (None, 48, 24, 24)   192         dense_2_0_bottleneck_conv2D[0][0]
__________________________________________________________________________________________________
activation_8 (Activation)       (None, 48, 24, 24)   0           dense_2_0_bottleneck_bn[0][0]    
__________________________________________________________________________________________________
dense_2_0_conv2D (Conv2D)       (None, 12, 24, 24)   5184        activation_8[0][0]               
__________________________________________________________________________________________________
concatenate_3 (Concatenate)     (None, 25, 24, 24)   0           average_pooling2d_2[0][0]        
                                                                 dense_2_0_conv2D[0][0]           
__________________________________________________________________________________________________
final_bn (BatchNormalization)   (None, 25, 24, 24)   100         concatenate_3[0][0]              
__________________________________________________________________________________________________
activation_9 (Activation)       (None, 25, 24, 24)   0           final_bn[0][0]                   
__________________________________________________________________________________________________
global_average_pooling2d_1 (Glo (None, 25)           0           activation_9[0][0]               
__________________________________________________________________________________________________
dense_1 (Dense)                 (None, 1)            26          global_average_pooling2d_1[0][0] 
==================================================================================================
Total params: 19,999
Trainable params: 19,455
Non-trainable params: 544
__________________________________________________________________________________________________
Train on 39840 samples, validate on 7440 samples
Epoch 1/20
 - 20s - loss: 0.6452 - acc: 0.7103 - val_loss: 0.5695 - val_acc: 0.8188
…
