…
  54:     score, acc = model.evaluate(X_val, y_val)
  55:     print('Best saved model Test accuracy:', acc)
  56:     pred = model.predict(X_val)
  57:     auc_score = roc_auc_score(y_val,pred)
  58:     print("best saved model auc_score ------------------> ",auc_score)
  59: 
  60:     
  61:     return {'loss': -auc_score, 'status': STATUS_OK, 'model': model}  
  62: 
_________________________________________________________________
Layer (type)                 Output Shape              Param #   
=================================================================
input_1 (InputLayer)         (None, 2, 96, 96)         0         
_________________________________________________________________
initial_conv2D (Conv2D)      (None, 16, 96, 96)        288       
_________________________________________________________________
tr_0_bn (BatchNormalization) (None, 16, 96, 96)        64        
_________________________________________________________________
activation_1 (Activation)    (None, 16, 96, 96)        0         
_________________________________________________________________
tr_0_conv2D (Conv2D)         (None, 8, 96, 96)         128       
_________________________________________________________________
average_pooling2d_1 (Average (None, 8, 48, 48)         0         
_________________________________________________________________
final_bn (BatchNormalization (None, 8, 48, 48)         32        
_________________________________________________________________
activation_2 (Activation)    (None, 8, 48, 48)         0         
_________________________________________________________________
global_average_pooling2d_1 ( (None, 8)                 0         
_________________________________________________________________
dense_1 (Dense)              (None, 1)                 9         
=================================================================
Total params: 521
Trainable params: 473
Non-trainable params: 48
_________________________________________________________________
Train on 39840 samples, validate on 7440 samples
Epoch 1/40
 - 11s - loss: 0.6973 - acc: 0.5255 - val_loss: 0.6923 - val_acc: 0.5579

Epoch 00001: val_loss improved from inf to 0.69235, saving model to keras_densenet_simple_wt_29Sept_1404.h5
…
6336/7440 [========================>.....] - ETA: 0s
6976/7440 [===========================>..] - ETA: 0s
7440/7440 [==============================] - 1s 91us/step
Best saved model Test accuracy: 0.8294354838709678
best saved model auc_score ------------------>  0.8749584489536363
__________________________________________________________________________________________________
Layer (type)                    Output Shape         Param #     Connected to                     
==================================================================================================
input_2 (InputLayer)            (None, 2, 96, 96)    0                                            
__________________________________________________________________________________________________
initial_conv2D (Conv2D)         (None, 16, 96, 96)   288         input_2[0][0]                    
__________________________________________________________________________________________________
dense_0_0_bn (BatchNormalizatio (None, 16, 96, 96)   64          initial_conv2D[0][0]             
__________________________________________________________________________________________________
activation_3 (Activation)       (None, 16, 96, 96)   0           dense_0_0_bn[0][0]               
__________________________________________________________________________________________________
dense_0_0_bottleneck_conv2D (Co (None, 56, 96, 96)   896         activation_3[0][0]               
__________________________________________________________________________________________________
dense_0_0_bottleneck_bn (BatchN (None, 56, 96, 96)   224         dense_0_0_bottleneck_conv2D[0][0]
__________________________________________________________________________________________________
activation_4 (Activation)       (None, 56, 96, 96)   0           dense_0_0_bottleneck_bn[0][0]    
__________________________________________________________________________________________________
dense_0_0_conv2D (Conv2D)       (None, 14, 96, 96)   7056        activation_4[0][0]               
__________________________________________________________________________________________________
concatenate_1 (Concatenate)     (None, 30, 96, 96)   0           initial_conv2D[0][0]             
                                                                 dense_0_0_conv2D[0][0]           
__________________________________________________________________________________________________
dense_0_1_bn (BatchNormalizatio (None, 30, 96, 96)   120         concatenate_1[0][0]              
__________________________________________________________________________________________________
activation_5 (Activation)       (None, 30, 96, 96)   0           dense_0_1_bn[0][0]               
__________________________________________________________________________________________________
dense_0_1_bottleneck_conv2D (Co (None, 56, 96, 96)   1680        activation_5[0][0]               
__________________________________________________________________________________________________
dense_0_1_bottleneck_bn (BatchN (None, 56, 96, 96)   224         dense_0_1_bottleneck_conv2D[0][0]
__________________________________________________________________________________________________
activation_6 (Activation)       (None, 56, 96, 96)   0           dense_0_1_bottleneck_bn[0][0]    
__________________________________________________________________________________________________
dense_0_1_conv2D (Conv2D)       (None, 14, 96, 96)   7056        activation_6[0][0]               
__________________________________________________________________________________________________
concatenate_2 (Concatenate)     (None, 44, 96, 96)   0           concatenate_1[0][0]              
                                                                 dense_0_1_conv2D[0][0]           
__________________________________________________________________________________________________
dense_0_2_bn (BatchNormalizatio (None, 44, 96, 96)   176         concatenate_2[0][0]              
__________________________________________________________________________________________________
activation_7 (Activation)       (None, 44, 96, 96)   0           dense_0_2_bn[0][0]               
__________________________________________________________________________________________________
dense_0_2_bottleneck_conv2D (Co (None, 56, 96, 96)   2464        activation_7[0][0]               
__________________________________________________________________________________________________
dense_0_2_bottleneck_bn (BatchN (None, 56, 96, 96)   224         dense_0_2_bottleneck_conv2D[0][0]
__________________________________________________________________________________________________
activation_8 (Activation)       (None, 56, 96, 96)   0           dense_0_2_bottleneck_bn[0][0]    
__________________________________________________________________________________________________
dense_0_2_conv2D (Conv2D)       (None, 14, 96, 96)   7056        activation_8[0][0]               
__________________________________________________________________________________________________
concatenate_3 (Concatenate)     (None, 58, 96, 96)   0           concatenate_2[0][0]              
                                                                 dense_0_2_conv2D[0][0]           
__________________________________________________________________________________________________
tr_0_bn (BatchNormalization)    (None, 58, 96, 96)   232         concatenate_3[0][0]              
__________________________________________________________________________________________________
activation_9 (Activation)       (None, 58, 96, 96)   0           tr_0_bn[0][0]                    
__________________________________________________________________________________________________
tr_0_conv2D (Conv2D)            (None, 29, 96, 96)   1682        activation_9[0][0]               
__________________________________________________________________________________________________
average_pooling2d_2 (AveragePoo (None, 29, 48, 48)   0           tr_0_conv2D[0][0]                
__________________________________________________________________________________________________
dense_1_0_bn (BatchNormalizatio (None, 29, 48, 48)   116         average_pooling2d_2[0][0]        
__________________________________________________________________________________________________
activation_10 (Activation)      (None, 29, 48, 48)   0           dense_1_0_bn[0][0]               
__________________________________________________________________________________________________
dense_1_0_bottleneck_conv2D (Co (None, 56, 48, 48)   1624        activation_10[0][0]              
__________________________________________________________________________________________________
dense_1_0_bottleneck_bn (BatchN (None, 56, 48, 48)   224         dense_1_0_bottleneck_conv2D[0][0]
__________________________________________________________________________________________________
activation_11 (Activation)      (None, 56, 48, 48)   0           dense_1_0_bottleneck_bn[0][0]    
__________________________________________________________________________________________________
dense_1_0_conv2D (Conv2D)       (None, 14, 48, 48)   7056        activation_11[0][0]              
__________________________________________________________________________________________________
concatenate_4 (Concatenate)     (None, 43, 48, 48)   0           average_pooling2d_2[0][0]        
                                                                 dense_1_0_conv2D[0][0]           
__________________________________________________________________________________________________
dense_1_1_bn (BatchNormalizatio (None, 43, 48, 48)   172         concatenate_4[0][0]              
__________________________________________________________________________________________________
activation_12 (Activation)      (None, 43, 48, 48)   0           dense_1_1_bn[0][0]               
__________________________________________________________________________________________________
dense_1_1_bottleneck_conv2D (Co (None, 56, 48, 48)   2408        activation_12[0][0]              
__________________________________________________________________________________________________
dense_1_1_bottleneck_bn (BatchN (None, 56, 48, 48)   224         dense_1_1_bottleneck_conv2D[0][0]
__________________________________________________________________________________________________
activation_13 (Activation)      (None, 56, 48, 48)   0           dense_1_1_bottleneck_bn[0][0]    
__________________________________________________________________________________________________
dense_1_1_conv2D (Conv2D)       (None, 14, 48, 48)   7056        activation_13[0][0]              
__________________________________________________________________________________________________
concatenate_5 (Concatenate)     (None, 57, 48, 48)   0           concatenate_4[0][0]              
                                                                 dense_1_1_conv2D[0][0]           
__________________________________________________________________________________________________
dense_1_2_bn (BatchNormalizatio (None, 57, 48, 48)   228         concatenate_5[0][0]              
__________________________________________________________________________________________________
activation_14 (Activation)      (None, 57, 48, 48)   0           dense_1_2_bn[0][0]               
__________________________________________________________________________________________________
dense_1_2_bottleneck_conv2D (Co (None, 56, 48, 48)   3192        activation_14[0][0]              
__________________________________________________________________________________________________
dense_1_2_bottleneck_bn (BatchN (None, 56, 48, 48)   224         dense_1_2_bottleneck_conv2D[0][0]
__________________________________________________________________________________________________
activation_15 (Activation)      (None, 56, 48, 48)   0           dense_1_2_bottleneck_bn[0][0]    
__________________________________________________________________________________________________
dense_1_2_conv2D (Conv2D)       (None, 14, 48, 48)   7056        activation_15[0][0]              
__________________________________________________________________________________________________
concatenate_6 (Concatenate)     (None, 71, 48, 48)   0           concatenate_5[0][0]              
                                                                 dense_1_2_conv2D[0][0]           
__________________________________________________________________________________________________
final_bn (BatchNormalization)   (None, 71, 48, 48)   284         concatenate_6[0][0]              
__________________________________________________________________________________________________
activation_16 (Activation)      (None, 71, 48, 48)   0           final_bn[0][0]                   
__________________________________________________________________________________________________
global_average_pooling2d_2 (Glo (None, 71)           0           activation_16[0][0]              
__________________________________________________________________________________________________
dense_2 (Dense)                 (None, 1)            72          global_average_pooling2d_2[0][0] 
==================================================================================================
Total params: 59,378
Trainable params: 58,010
Non-trainable params: 1,368
__________________________________________________________________________________________________
Train on 39840 samples, validate on 7440 samples
Epoch 1/40
 - 45s - loss: 0.6560 - acc: 0.7055 - val_loss: 0.5535 - val_acc: 0.8344
…
7232/7440 [============================>.] - ETA: 0s
7392/7440 [============================>.] - ETA: 0s
7440/7440 [==============================] - 3s 416us/step
Best saved model Test accuracy: 0.801747311827957
best saved model auc_score ------------------>  0.8853878699849693
__________________________________________________________________________________________________
Layer (type)                    Output Shape         Param #     Connected to                     
==================================================================================================
input_3 (InputLayer)            (None, 2, 96, 96)    0                                            
__________________________________________________________________________________________________
initial_conv2D (Conv2D)         (None, 16, 96, 96)   288         input_3[0][0]                    
__________________________________________________________________________________________________
dense_0_0_bn (BatchNormalizatio (None, 16, 96, 96)   64          initial_conv2D[0][0]             
__________________________________________________________________________________________________
activation_17 (Activation)      (None, 16, 96, 96)   0           dense_0_0_bn[0][0]               
__________________________________________________________________________________________________
dense_0_0_bottleneck_conv2D (Co (None, 64, 96, 96)   1024        activation_17[0][0]              
__________________________________________________________________________________________________
dense_0_0_bottleneck_bn (BatchN (None, 64, 96, 96)   256         dense_0_0_bottleneck_conv2D[0][0]
__________________________________________________________________________________________________
activation_18 (Activation)      (None, 64, 96, 96)   0           dense_0_0_bottleneck_bn[0][0]    
__________________________________________________________________________________________________
dense_0_0_conv2D (Conv2D)       (None, 16, 96, 96)   9216        activation_18[0][0]              
__________________________________________________________________________________________________
concatenate_7 (Concatenate)     (None, 32, 96, 96)   0           initial_conv2D[0][0]             
                                                                 dense_0_0_conv2D[0][0]           
__________________________________________________________________________________________________
tr_0_bn (BatchNormalization)    (None, 32, 96, 96)   128         concatenate_7[0][0]              
__________________________________________________________________________________________________
activation_19 (Activation)      (None, 32, 96, 96)   0           tr_0_bn[0][0]                    
__________________________________________________________________________________________________
tr_0_conv2D (Conv2D)            (None, 16, 96, 96)   512         activation_19[0][0]              
__________________________________________________________________________________________________
average_pooling2d_3 (AveragePoo (None, 16, 48, 48)   0           tr_0_conv2D[0][0]                
__________________________________________________________________________________________________
dense_1_0_bn (BatchNormalizatio (None, 16, 48, 48)   64          average_pooling2d_3[0][0]        
__________________________________________________________________________________________________
activation_20 (Activation)      (None, 16, 48, 48)   0           dense_1_0_bn[0][0]               
__________________________________________________________________________________________________
dense_1_0_bottleneck_conv2D (Co (None, 64, 48, 48)   1024        activation_20[0][0]              
__________________________________________________________________________________________________
dense_1_0_bottleneck_bn (BatchN (None, 64, 48, 48)   256         dense_1_0_bottleneck_conv2D[0][0]
__________________________________________________________________________________________________
activation_21 (Activation)      (None, 64, 48, 48)   0           dense_1_0_bottleneck_bn[0][0]    
__________________________________________________________________________________________________
dense_1_0_conv2D (Conv2D)       (None, 16, 48, 48)   9216        activation_21[0][0]              
__________________________________________________________________________________________________
concatenate_8 (Concatenate)     (None, 32, 48, 48)   0           average_pooling2d_3[0][0]        
                                                                 dense_1_0_conv2D[0][0]           
__________________________________________________________________________________________________
final_bn (BatchNormalization)   (None, 32, 48, 48)   128         concatenate_8[0][0]              
__________________________________________________________________________________________________
activation_22 (Activation)      (None, 32, 48, 48)   0           final_bn[0][0]                   
__________________________________________________________________________________________________
global_average_pooling2d_3 (Glo (None, 32)           0           activation_22[0][0]              
__________________________________________________________________________________________________
dense_3 (Dense)                 (None, 1)            33          global_average_pooling2d_3[0][0] 
==================================================================================================
Total params: 22,209
Trainable params: 21,761
Non-trainable params: 448
__________________________________________________________________________________________________
Train on 39840 samples, validate on 7440 samples
Epoch 1/40
 - 21s - loss: 0.6325 - acc: 0.6939 - val_loss: 0.5441 - val_acc: 0.8367
…
6944/7440 [===========================>..] - ETA: 0s
7264/7440 [============================>.] - ETA: 0s
7440/7440 [==============================] - 2s 224us/step
Best saved model Test accuracy: 0.8299731182795699
best saved model auc_score ------------------>  0.8927244840443982
__________________________________________________________________________________________________
Layer (type)                    Output Shape         Param #     Connected to                     
==================================================================================================
input_4 (InputLayer)            (None, 2, 96, 96)    0                                            
__________________________________________________________________________________________________
initial_conv2D (Conv2D)         (None, 16, 96, 96)   288         input_4[0][0]                    
__________________________________________________________________________________________________
dense_0_0_bn (BatchNormalizatio (None, 16, 96, 96)   64          initial_conv2D[0][0]             
__________________________________________________________________________________________________
activation_23 (Activation)      (None, 16, 96, 96)   0           dense_0_0_bn[0][0]               
__________________________________________________________________________________________________
dense_0_0_bottleneck_conv2D (Co (None, 64, 96, 96)   1024        activation_23[0][0]              
__________________________________________________________________________________________________
dense_0_0_bottleneck_bn (BatchN (None, 64, 96, 96)   256         dense_0_0_bottleneck_conv2D[0][0]
__________________________________________________________________________________________________
activation_24 (Activation)      (None, 64, 96, 96)   0           dense_0_0_bottleneck_bn[0][0]    
__________________________________________________________________________________________________
dense_0_0_conv2D (Conv2D)       (None, 16, 96, 96)   9216        activation_24[0][0]              
__________________________________________________________________________________________________
concatenate_9 (Concatenate)     (None, 32, 96, 96)   0           initial_conv2D[0][0]             
                                                                 dense_0_0_conv2D[0][0]           
__________________________________________________________________________________________________
dense_0_1_bn (BatchNormalizatio (None, 32, 96, 96)   128         concatenate_9[0][0]              
__________________________________________________________________________________________________
activation_25 (Activation)      (None, 32, 96, 96)   0           dense_0_1_bn[0][0]               
__________________________________________________________________________________________________
dense_0_1_bottleneck_conv2D (Co (None, 64, 96, 96)   2048        activation_25[0][0]              
__________________________________________________________________________________________________
dense_0_1_bottleneck_bn (BatchN (None, 64, 96, 96)   256         dense_0_1_bottleneck_conv2D[0][0]
__________________________________________________________________________________________________
activation_26 (Activation)      (None, 64, 96, 96)   0           dense_0_1_bottleneck_bn[0][0]    
__________________________________________________________________________________________________
dense_0_1_conv2D (Conv2D)       (None, 16, 96, 96)   9216        activation_26[0][0]              
__________________________________________________________________________________________________
concatenate_10 (Concatenate)    (None, 48, 96, 96)   0           concatenate_9[0][0]              
                                                                 dense_0_1_conv2D[0][0]           
__________________________________________________________________________________________________
dense_0_2_bn (BatchNormalizatio (None, 48, 96, 96)   192         concatenate_10[0][0]             
__________________________________________________________________________________________________
activation_27 (Activation)      (None, 48, 96, 96)   0           dense_0_2_bn[0][0]               
__________________________________________________________________________________________________
dense_0_2_bottleneck_conv2D (Co (None, 64, 96, 96)   3072        activation_27[0][0]              
__________________________________________________________________________________________________
dense_0_2_bottleneck_bn (BatchN (None, 64, 96, 96)   256         dense_0_2_bottleneck_conv2D[0][0]
__________________________________________________________________________________________________
activation_28 (Activation)      (None, 64, 96, 96)   0           dense_0_2_bottleneck_bn[0][0]    
__________________________________________________________________________________________________
dense_0_2_conv2D (Conv2D)       (None, 16, 96, 96)   9216        activation_28[0][0]              
__________________________________________________________________________________________________
concatenate_11 (Concatenate)    (None, 64, 96, 96)   0           concatenate_10[0][0]             
                                                                 dense_0_2_conv2D[0][0]           
__________________________________________________________________________________________________
tr_0_bn (BatchNormalization)    (None, 64, 96, 96)   256         concatenate_11[0][0]             
__________________________________________________________________________________________________
activation_29 (Activation)      (None, 64, 96, 96)   0           tr_0_bn[0][0]                    
__________________________________________________________________________________________________
tr_0_conv2D (Conv2D)            (None, 32, 96, 96)   2048        activation_29[0][0]              
__________________________________________________________________________________________________
average_pooling2d_4 (AveragePoo (None, 32, 48, 48)   0           tr_0_conv2D[0][0]                
__________________________________________________________________________________________________
dense_1_0_bn (BatchNormalizatio (None, 32, 48, 48)   128         average_pooling2d_4[0][0]        
__________________________________________________________________________________________________
activation_30 (Activation)      (None, 32, 48, 48)   0           dense_1_0_bn[0][0]               
__________________________________________________________________________________________________
dense_1_0_bottleneck_conv2D (Co (None, 64, 48, 48)   2048        activation_30[0][0]              
__________________________________________________________________________________________________
dense_1_0_bottleneck_bn (BatchN (None, 64, 48, 48)   256         dense_1_0_bottleneck_conv2D[0][0]
__________________________________________________________________________________________________
activation_31 (Activation)      (None, 64, 48, 48)   0           dense_1_0_bottleneck_bn[0][0]    
__________________________________________________________________________________________________
dense_1_0_conv2D (Conv2D)       (None, 16, 48, 48)   9216        activation_31[0][0]              
__________________________________________________________________________________________________
concatenate_12 (Concatenate)    (None, 48, 48, 48)   0           average_pooling2d_4[0][0]        
                                                                 dense_1_0_conv2D[0][0]           
__________________________________________________________________________________________________
dense_1_1_bn (BatchNormalizatio (None, 48, 48, 48)   192         concatenate_12[0][0]             
__________________________________________________________________________________________________
activation_32 (Activation)      (None, 48, 48, 48)   0           dense_1_1_bn[0][0]               
__________________________________________________________________________________________________
dense_1_1_bottleneck_conv2D (Co (None, 64, 48, 48)   3072        activation_32[0][0]              
__________________________________________________________________________________________________
dense_1_1_bottleneck_bn (BatchN (None, 64, 48, 48)   256         dense_1_1_bottleneck_conv2D[0][0]
__________________________________________________________________________________________________
activation_33 (Activation)      (None, 64, 48, 48)   0           dense_1_1_bottleneck_bn[0][0]    
__________________________________________________________________________________________________
dense_1_1_conv2D (Conv2D)       (None, 16, 48, 48)   9216        activation_33[0][0]              
__________________________________________________________________________________________________
concatenate_13 (Concatenate)    (None, 64, 48, 48)   0           concatenate_12[0][0]             
                                                                 dense_1_1_conv2D[0][0]           
__________________________________________________________________________________________________
dense_1_2_bn (BatchNormalizatio (None, 64, 48, 48)   256         concatenate_13[0][0]             
__________________________________________________________________________________________________
activation_34 (Activation)      (None, 64, 48, 48)   0           dense_1_2_bn[0][0]               
__________________________________________________________________________________________________
dense_1_2_bottleneck_conv2D (Co (None, 64, 48, 48)   4096        activation_34[0][0]              
__________________________________________________________________________________________________
dense_1_2_bottleneck_bn (BatchN (None, 64, 48, 48)   256         dense_1_2_bottleneck_conv2D[0][0]
__________________________________________________________________________________________________
activation_35 (Activation)      (None, 64, 48, 48)   0           dense_1_2_bottleneck_bn[0][0]    
__________________________________________________________________________________________________
dense_1_2_conv2D (Conv2D)       (None, 16, 48, 48)   9216        activation_35[0][0]              
__________________________________________________________________________________________________
concatenate_14 (Concatenate)    (None, 80, 48, 48)   0           concatenate_13[0][0]             
                                                                 dense_1_2_conv2D[0][0]           
__________________________________________________________________________________________________
final_bn (BatchNormalization)   (None, 80, 48, 48)   320         concatenate_14[0][0]             
__________________________________________________________________________________________________
activation_36 (Activation)      (None, 80, 48, 48)   0           final_bn[0][0]                   
__________________________________________________________________________________________________
global_average_pooling2d_4 (Glo (None, 80)           0           activation_36[0][0]              
__________________________________________________________________________________________________
dense_4 (Dense)                 (None, 1)            81          global_average_pooling2d_4[0][0] 
==================================================================================================
Total params: 76,145
Trainable params: 74,609
Non-trainable params: 1,536
__________________________________________________________________________________________________
Train on 39840 samples, validate on 7440 samples
Epoch 1/40
 - 49s - loss: 0.6450 - acc: 0.7242 - val_loss: 0.5870 - val_acc: 0.8363
…
7264/7440 [============================>.] - ETA: 0s
7392/7440 [============================>.] - ETA: 0s
7440/7440 [==============================] - 4s 488us/step
Best saved model Test accuracy: 0.828763440860215
best saved model auc_score ------------------>  0.8938374378540872
__________________________________________________________________________________________________
Layer (type)                    Output Shape         Param #     Connected to                     
==================================================================================================
input_5 (InputLayer)            (None, 2, 96, 96)    0                                            
__________________________________________________________________________________________________
initial_conv2D (Conv2D)         (None, 16, 96, 96)   288         input_5[0][0]                    
__________________________________________________________________________________________________
dense_0_0_bn (BatchNormalizatio (None, 16, 96, 96)   64          initial_conv2D[0][0]             
__________________________________________________________________________________________________
activation_37 (Activation)      (None, 16, 96, 96)   0           dense_0_0_bn[0][0]               
__________________________________________________________________________________________________
dense_0_0_bottleneck_conv2D (Co (None, 48, 96, 96)   768         activation_37[0][0]              
__________________________________________________________________________________________________
dense_0_0_bottleneck_bn (BatchN (None, 48, 96, 96)   192         dense_0_0_bottleneck_conv2D[0][0]
__________________________________________________________________________________________________
activation_38 (Activation)      (None, 48, 96, 96)   0           dense_0_0_bottleneck_bn[0][0]    
__________________________________________________________________________________________________
dense_0_0_conv2D (Conv2D)       (None, 12, 96, 96)   5184        activation_38[0][0]              
__________________________________________________________________________________________________
concatenate_15 (Concatenate)    (None, 28, 96, 96)   0           initial_conv2D[0][0]             
                                                                 dense_0_0_conv2D[0][0]           
__________________________________________________________________________________________________
dense_0_1_bn (BatchNormalizatio (None, 28, 96, 96)   112         concatenate_15[0][0]             
__________________________________________________________________________________________________
activation_39 (Activation)      (None, 28, 96, 96)   0           dense_0_1_bn[0][0]               
__________________________________________________________________________________________________
dense_0_1_bottleneck_conv2D (Co (None, 48, 96, 96)   1344        activation_39[0][0]              
__________________________________________________________________________________________________
dense_0_1_bottleneck_bn (BatchN (None, 48, 96, 96)   192         dense_0_1_bottleneck_conv2D[0][0]
__________________________________________________________________________________________________
activation_40 (Activation)      (None, 48, 96, 96)   0           dense_0_1_bottleneck_bn[0][0]    
__________________________________________________________________________________________________
dense_0_1_conv2D (Conv2D)       (None, 12, 96, 96)   5184        activation_40[0][0]              
__________________________________________________________________________________________________
concatenate_16 (Concatenate)    (None, 40, 96, 96)   0           concatenate_15[0][0]             
                                                                 dense_0_1_conv2D[0][0]           
__________________________________________________________________________________________________
tr_0_bn (BatchNormalization)    (None, 40, 96, 96)   160         concatenate_16[0][0]             
__________________________________________________________________________________________________
activation_41 (Activation)      (None, 40, 96, 96)   0           tr_0_bn[0][0]                    
__________________________________________________________________________________________________
tr_0_conv2D (Conv2D)            (None, 20, 96, 96)   800         activation_41[0][0]              
__________________________________________________________________________________________________
average_pooling2d_5 (AveragePoo (None, 20, 48, 48)   0           tr_0_conv2D[0][0]                
__________________________________________________________________________________________________
dense_1_0_bn (BatchNormalizatio (None, 20, 48, 48)   80          average_pooling2d_5[0][0]        
__________________________________________________________________________________________________
activation_42 (Activation)      (None, 20, 48, 48)   0           dense_1_0_bn[0][0]               
__________________________________________________________________________________________________
dense_1_0_bottleneck_conv2D (Co (None, 48, 48, 48)   960         activation_42[0][0]              
__________________________________________________________________________________________________
dense_1_0_bottleneck_bn (BatchN (None, 48, 48, 48)   192         dense_1_0_bottleneck_conv2D[0][0]
__________________________________________________________________________________________________
activation_43 (Activation)      (None, 48, 48, 48)   0           dense_1_0_bottleneck_bn[0][0]    
__________________________________________________________________________________________________
dense_1_0_conv2D (Conv2D)       (None, 12, 48, 48)   5184        activation_43[0][0]              
__________________________________________________________________________________________________
concatenate_17 (Concatenate)    (None, 32, 48, 48)   0           average_pooling2d_5[0][0]        
                                                                 dense_1_0_conv2D[0][0]           
__________________________________________________________________________________________________
dense_1_1_bn (BatchNormalizatio (None, 32, 48, 48)   128         concatenate_17[0][0]             
__________________________________________________________________________________________________
activation_44 (Activation)      (None, 32, 48, 48)   0           dense_1_1_bn[0][0]               
__________________________________________________________________________________________________
dense_1_1_bottleneck_conv2D (Co (None, 48, 48, 48)   1536        activation_44[0][0]              
__________________________________________________________________________________________________
dense_1_1_bottleneck_bn (BatchN (None, 48, 48, 48)   192         dense_1_1_bottleneck_conv2D[0][0]
__________________________________________________________________________________________________
activation_45 (Activation)      (None, 48, 48, 48)   0           dense_1_1_bottleneck_bn[0][0]    
__________________________________________________________________________________________________
dense_1_1_conv2D (Conv2D)       (None, 12, 48, 48)   5184        activation_45[0][0]              
__________________________________________________________________________________________________
concatenate_18 (Concatenate)    (None, 44, 48, 48)   0           concatenate_17[0][0]             
                                                                 dense_1_1_conv2D[0][0]           
__________________________________________________________________________________________________
final_bn (BatchNormalization)   (None, 44, 48, 48)   176         concatenate_18[0][0]             
__________________________________________________________________________________________________
activation_46 (Activation)      (None, 44, 48, 48)   0           final_bn[0][0]                   
__________________________________________________________________________________________________
global_average_pooling2d_5 (Glo (None, 44)           0           activation_46[0][0]              
__________________________________________________________________________________________________
dense_5 (Dense)                 (None, 1)            45          global_average_pooling2d_5[0][0] 
==================================================================================================
Total params: 27,965
Trainable params: 27,221
Non-trainable params: 744
__________________________________________________________________________________________________
Train on 39840 samples, validate on 7440 samples
Epoch 1/40
 - 31s - loss: 0.6375 - acc: 0.7050 - val_loss: 0.5358 - val_acc: 0.8548
…
7136/7440 [===========================>..] - ETA: 0s
7360/7440 [============================>.] - ETA: 0s
7440/7440 [==============================] - 3s 358us/step
Best saved model Test accuracy: 0.8329301075268817
best saved model auc_score ------------------>  0.894537663313678
__________________________________________________________________________________________________
Layer (type)                    Output Shape         Param #     Connected to                     
==================================================================================================
input_6 (InputLayer)            (None, 2, 96, 96)    0                                            
__________________________________________________________________________________________________
initial_conv2D (Conv2D)         (None, 16, 96, 96)   288         input_6[0][0]                    
__________________________________________________________________________________________________
dense_0_0_bn (BatchNormalizatio (None, 16, 96, 96)   64          initial_conv2D[0][0]             
__________________________________________________________________________________________________
activation_47 (Activation)      (None, 16, 96, 96)   0           dense_0_0_bn[0][0]               
__________________________________________________________________________________________________
dense_0_0_bottleneck_conv2D (Co (None, 40, 96, 96)   640         activation_47[0][0]              
__________________________________________________________________________________________________
dense_0_0_bottleneck_bn (BatchN (None, 40, 96, 96)   160         dense_0_0_bottleneck_conv2D[0][0]
__________________________________________________________________________________________________
activation_48 (Activation)      (None, 40, 96, 96)   0           dense_0_0_bottleneck_bn[0][0]    
__________________________________________________________________________________________________
dense_0_0_conv2D (Conv2D)       (None, 10, 96, 96)   3600        activation_48[0][0]              
__________________________________________________________________________________________________
concatenate_19 (Concatenate)    (None, 26, 96, 96)   0           initial_conv2D[0][0]             
                                                                 dense_0_0_conv2D[0][0]           
__________________________________________________________________________________________________
tr_0_bn (BatchNormalization)    (None, 26, 96, 96)   104         concatenate_19[0][0]             
__________________________________________________________________________________________________
activation_49 (Activation)      (None, 26, 96, 96)   0           tr_0_bn[0][0]                    
__________________________________________________________________________________________________
tr_0_conv2D (Conv2D)            (None, 13, 96, 96)   338         activation_49[0][0]              
__________________________________________________________________________________________________
average_pooling2d_6 (AveragePoo (None, 13, 48, 48)   0           tr_0_conv2D[0][0]                
__________________________________________________________________________________________________
dense_1_0_bn (BatchNormalizatio (None, 13, 48, 48)   52          average_pooling2d_6[0][0]        
__________________________________________________________________________________________________
activation_50 (Activation)      (None, 13, 48, 48)   0           dense_1_0_bn[0][0]               
__________________________________________________________________________________________________
dense_1_0_bottleneck_conv2D (Co (None, 40, 48, 48)   520         activation_50[0][0]              
__________________________________________________________________________________________________
dense_1_0_bottleneck_bn (BatchN (None, 40, 48, 48)   160         dense_1_0_bottleneck_conv2D[0][0]
__________________________________________________________________________________________________
activation_51 (Activation)      (None, 40, 48, 48)   0           dense_1_0_bottleneck_bn[0][0]    
__________________________________________________________________________________________________
dense_1_0_conv2D (Conv2D)       (None, 10, 48, 48)   3600        activation_51[0][0]              
__________________________________________________________________________________________________
concatenate_20 (Concatenate)    (None, 23, 48, 48)   0           average_pooling2d_6[0][0]        
                                                                 dense_1_0_conv2D[0][0]           
__________________________________________________________________________________________________
final_bn (BatchNormalization)   (None, 23, 48, 48)   92          concatenate_20[0][0]             
__________________________________________________________________________________________________
activation_52 (Activation)      (None, 23, 48, 48)   0           final_bn[0][0]                   
__________________________________________________________________________________________________
global_average_pooling2d_6 (Glo (None, 23)           0           activation_52[0][0]              
__________________________________________________________________________________________________
dense_6 (Dense)                 (None, 1)            24          global_average_pooling2d_6[0][0] 
==================================================================================================
Total params: 9,642
Trainable params: 9,326
Non-trainable params: 316
__________________________________________________________________________________________________
Train on 39840 samples, validate on 7440 samples
Epoch 1/40
 - 19s - loss: 0.6445 - acc: 0.6752 - val_loss: 0.5625 - val_acc: 0.8056
…
7168/7440 [===========================>..] - ETA: 0s
7360/7440 [============================>.] - ETA: 0s
7440/7440 [==============================] - 3s 414us/step
Best saved model Test accuracy: 0.8063172043010752
best saved model auc_score ------------------>  0.8717293906810035
__________________________________________________________________________________________________
Layer (type)                    Output Shape         Param #     Connected to                     
==================================================================================================
input_8 (InputLayer)            (None, 2, 96, 96)    0                                            
__________________________________________________________________________________________________
initial_conv2D (Conv2D)         (None, 16, 96, 96)   288         input_8[0][0]                    
__________________________________________________________________________________________________
dense_0_0_bn (BatchNormalizatio (None, 16, 96, 96)   64          initial_conv2D[0][0]             
__________________________________________________________________________________________________
activation_63 (Activation)      (None, 16, 96, 96)   0           dense_0_0_bn[0][0]               
__________________________________________________________________________________________________
dense_0_0_bottleneck_conv2D (Co (None, 40, 96, 96)   640         activation_63[0][0]              
__________________________________________________________________________________________________
dense_0_0_bottleneck_bn (BatchN (None, 40, 96, 96)   160         dense_0_0_bottleneck_conv2D[0][0]
__________________________________________________________________________________________________
activation_64 (Activation)      (None, 40, 96, 96)   0           dense_0_0_bottleneck_bn[0][0]    
__________________________________________________________________________________________________
dense_0_0_conv2D (Conv2D)       (None, 10, 96, 96)   3600        activation_64[0][0]              
__________________________________________________________________________________________________
concatenate_25 (Concatenate)    (None, 26, 96, 96)   0           initial_conv2D[0][0]             
                                                                 dense_0_0_conv2D[0][0]           
__________________________________________________________________________________________________
dense_0_1_bn (BatchNormalizatio (None, 26, 96, 96)   104         concatenate_25[0][0]             
__________________________________________________________________________________________________
activation_65 (Activation)      (None, 26, 96, 96)   0           dense_0_1_bn[0][0]               
__________________________________________________________________________________________________
dense_0_1_bottleneck_conv2D (Co (None, 40, 96, 96)   1040        activation_65[0][0]              
__________________________________________________________________________________________________
dense_0_1_bottleneck_bn (BatchN (None, 40, 96, 96)   160         dense_0_1_bottleneck_conv2D[0][0]
__________________________________________________________________________________________________
activation_66 (Activation)      (None, 40, 96, 96)   0           dense_0_1_bottleneck_bn[0][0]    
__________________________________________________________________________________________________
dense_0_1_conv2D (Conv2D)       (None, 10, 96, 96)   3600        activation_66[0][0]              
__________________________________________________________________________________________________
concatenate_26 (Concatenate)    (None, 36, 96, 96)   0           concatenate_25[0][0]             
                                                                 dense_0_1_conv2D[0][0]           
__________________________________________________________________________________________________
dense_0_2_bn (BatchNormalizatio (None, 36, 96, 96)   144         concatenate_26[0][0]             
__________________________________________________________________________________________________
activation_67 (Activation)      (None, 36, 96, 96)   0           dense_0_2_bn[0][0]               
__________________________________________________________________________________________________
dense_0_2_bottleneck_conv2D (Co (None, 40, 96, 96)   1440        activation_67[0][0]              
__________________________________________________________________________________________________
dense_0_2_bottleneck_bn (BatchN (None, 40, 96, 96)   160         dense_0_2_bottleneck_conv2D[0][0]
__________________________________________________________________________________________________
activation_68 (Activation)      (None, 40, 96, 96)   0           dense_0_2_bottleneck_bn[0][0]    
__________________________________________________________________________________________________
dense_0_2_conv2D (Conv2D)       (None, 10, 96, 96)   3600        activation_68[0][0]              
__________________________________________________________________________________________________
concatenate_27 (Concatenate)    (None, 46, 96, 96)   0           concatenate_26[0][0]             
                                                                 dense_0_2_conv2D[0][0]           
__________________________________________________________________________________________________
tr_0_bn (BatchNormalization)    (None, 46, 96, 96)   184         concatenate_27[0][0]             
__________________________________________________________________________________________________
activation_69 (Activation)      (None, 46, 96, 96)   0           tr_0_bn[0][0]                    
__________________________________________________________________________________________________
tr_0_conv2D (Conv2D)            (None, 23, 96, 96)   1058        activation_69[0][0]              
__________________________________________________________________________________________________
average_pooling2d_8 (AveragePoo (None, 23, 48, 48)   0           tr_0_conv2D[0][0]                
__________________________________________________________________________________________________
dense_1_0_bn (BatchNormalizatio (None, 23, 48, 48)   92          average_pooling2d_8[0][0]        
__________________________________________________________________________________________________
activation_70 (Activation)      (None, 23, 48, 48)   0           dense_1_0_bn[0][0]               
__________________________________________________________________________________________________
dense_1_0_bottleneck_conv2D (Co (None, 40, 48, 48)   920         activation_70[0][0]              
__________________________________________________________________________________________________
dense_1_0_bottleneck_bn (BatchN (None, 40, 48, 48)   160         dense_1_0_bottleneck_conv2D[0][0]
__________________________________________________________________________________________________
activation_71 (Activation)      (None, 40, 48, 48)   0           dense_1_0_bottleneck_bn[0][0]    
__________________________________________________________________________________________________
dense_1_0_conv2D (Conv2D)       (None, 10, 48, 48)   3600        activation_71[0][0]              
__________________________________________________________________________________________________
concatenate_28 (Concatenate)    (None, 33, 48, 48)   0           average_pooling2d_8[0][0]        
                                                                 dense_1_0_conv2D[0][0]           
__________________________________________________________________________________________________
dense_1_1_bn (BatchNormalizatio (None, 33, 48, 48)   132         concatenate_28[0][0]             
__________________________________________________________________________________________________
activation_72 (Activation)      (None, 33, 48, 48)   0           dense_1_1_bn[0][0]               
__________________________________________________________________________________________________
dense_1_1_bottleneck_conv2D (Co (None, 40, 48, 48)   1320        activation_72[0][0]              
__________________________________________________________________________________________________
dense_1_1_bottleneck_bn (BatchN (None, 40, 48, 48)   160         dense_1_1_bottleneck_conv2D[0][0]
__________________________________________________________________________________________________
activation_73 (Activation)      (None, 40, 48, 48)   0           dense_1_1_bottleneck_bn[0][0]    
__________________________________________________________________________________________________
dense_1_1_conv2D (Conv2D)       (None, 10, 48, 48)   3600        activation_73[0][0]              
__________________________________________________________________________________________________
concatenate_29 (Concatenate)    (None, 43, 48, 48)   0           concatenate_28[0][0]             
                                                                 dense_1_1_conv2D[0][0]           
__________________________________________________________________________________________________
dense_1_2_bn (BatchNormalizatio (None, 43, 48, 48)   172         concatenate_29[0][0]             
__________________________________________________________________________________________________
activation_74 (Activation)      (None, 43, 48, 48)   0           dense_1_2_bn[0][0]               
__________________________________________________________________________________________________
dense_1_2_bottleneck_conv2D (Co (None, 40, 48, 48)   1720        activation_74[0][0]              
__________________________________________________________________________________________________
dense_1_2_bottleneck_bn (BatchN (None, 40, 48, 48)   160         dense_1_2_bottleneck_conv2D[0][0]
__________________________________________________________________________________________________
activation_75 (Activation)      (None, 40, 48, 48)   0           dense_1_2_bottleneck_bn[0][0]    
__________________________________________________________________________________________________
dense_1_2_conv2D (Conv2D)       (None, 10, 48, 48)   3600        activation_75[0][0]              
__________________________________________________________________________________________________
concatenate_30 (Concatenate)    (None, 53, 48, 48)   0           concatenate_29[0][0]             
                                                                 dense_1_2_conv2D[0][0]           
__________________________________________________________________________________________________
final_bn (BatchNormalization)   (None, 53, 48, 48)   212         concatenate_30[0][0]             
__________________________________________________________________________________________________
activation_76 (Activation)      (None, 53, 48, 48)   0           final_bn[0][0]                   
__________________________________________________________________________________________________
global_average_pooling2d_8 (Glo (None, 53)           0           activation_76[0][0]              
__________________________________________________________________________________________________
dense_8 (Dense)                 (None, 1)            54          global_average_pooling2d_8[0][0] 
==================================================================================================
Total params: 32,144
Trainable params: 31,112
Non-trainable params: 1,032
__________________________________________________________________________________________________
Train on 39840 samples, validate on 7440 samples
Epoch 1/40
 - 43s - loss: 0.6821 - acc: 0.6586 - val_loss: 0.5750 - val_acc: 0.8227
…
7232/7440 [============================>.] - ETA: 0s
7392/7440 [============================>.] - ETA: 0s
7440/7440 [==============================] - 4s 559us/step
Best saved model Test accuracy: 0.812231182795699
best saved model auc_score ------------------>  0.8819493583073188
__________________________________________________________________________________________________
Layer (type)                    Output Shape         Param #     Connected to                     
==================================================================================================
input_9 (InputLayer)            (None, 2, 96, 96)    0                                            
__________________________________________________________________________________________________
initial_conv2D (Conv2D)         (None, 16, 96, 96)   288         input_9[0][0]                    
__________________________________________________________________________________________________
dense_0_0_bn (BatchNormalizatio (None, 16, 96, 96)   64          initial_conv2D[0][0]             
__________________________________________________________________________________________________
activation_77 (Activation)      (None, 16, 96, 96)   0           dense_0_0_bn[0][0]               
__________________________________________________________________________________________________
dense_0_0_bottleneck_conv2D (Co (None, 56, 96, 96)   896         activation_77[0][0]              
__________________________________________________________________________________________________
dense_0_0_bottleneck_bn (BatchN (None, 56, 96, 96)   224         dense_0_0_bottleneck_conv2D[0][0]
__________________________________________________________________________________________________
activation_78 (Activation)      (None, 56, 96, 96)   0           dense_0_0_bottleneck_bn[0][0]    
__________________________________________________________________________________________________
dense_0_0_conv2D (Conv2D)       (None, 14, 96, 96)   7056        activation_78[0][0]              
__________________________________________________________________________________________________
concatenate_31 (Concatenate)    (None, 30, 96, 96)   0           initial_conv2D[0][0]             
                                                                 dense_0_0_conv2D[0][0]           
__________________________________________________________________________________________________
tr_0_bn (BatchNormalization)    (None, 30, 96, 96)   120         concatenate_31[0][0]             
__________________________________________________________________________________________________
activation_79 (Activation)      (None, 30, 96, 96)   0           tr_0_bn[0][0]                    
__________________________________________________________________________________________________
tr_0_conv2D (Conv2D)            (None, 15, 96, 96)   450         activation_79[0][0]              
__________________________________________________________________________________________________
average_pooling2d_9 (AveragePoo (None, 15, 48, 48)   0           tr_0_conv2D[0][0]                
__________________________________________________________________________________________________
dense_1_0_bn (BatchNormalizatio (None, 15, 48, 48)   60          average_pooling2d_9[0][0]        
__________________________________________________________________________________________________
activation_80 (Activation)      (None, 15, 48, 48)   0           dense_1_0_bn[0][0]               
__________________________________________________________________________________________________
dense_1_0_bottleneck_conv2D (Co (None, 56, 48, 48)   840         activation_80[0][0]              
__________________________________________________________________________________________________
dense_1_0_bottleneck_bn (BatchN (None, 56, 48, 48)   224         dense_1_0_bottleneck_conv2D[0][0]
__________________________________________________________________________________________________
activation_81 (Activation)      (None, 56, 48, 48)   0           dense_1_0_bottleneck_bn[0][0]    
__________________________________________________________________________________________________
dense_1_0_conv2D (Conv2D)       (None, 14, 48, 48)   7056        activation_81[0][0]              
__________________________________________________________________________________________________
concatenate_32 (Concatenate)    (None, 29, 48, 48)   0           average_pooling2d_9[0][0]        
                                                                 dense_1_0_conv2D[0][0]           
__________________________________________________________________________________________________
final_bn (BatchNormalization)   (None, 29, 48, 48)   116         concatenate_32[0][0]             
__________________________________________________________________________________________________
activation_82 (Activation)      (None, 29, 48, 48)   0           final_bn[0][0]                   
__________________________________________________________________________________________________
global_average_pooling2d_9 (Glo (None, 29)           0           activation_82[0][0]              
__________________________________________________________________________________________________
dense_9 (Dense)                 (None, 1)            30          global_average_pooling2d_9[0][0] 
==================================================================================================
Total params: 17,424
Trainable params: 17,020
Non-trainable params: 404
__________________________________________________________________________________________________
Train on 39840 samples, validate on 7440 samples
Epoch 1/40
 - 24s - loss: 0.6421 - acc: 0.6929 - val_loss: 0.5447 - val_acc: 0.8411
…
6720/7440 [==========================>...] - ETA: 0s
7200/7440 [============================>.] - ETA: 0s
7440/7440 [==============================] - 2s 313us/step
Best saved model Test accuracy: 0.8150537634408602
best saved model auc_score ------------------>  0.8705430179789571
__________________________________________________________________________________________________
Layer (type)                    Output Shape         Param #     Connected to                     
==================================================================================================
input_11 (InputLayer)           (None, 2, 96, 96)    0                                            
__________________________________________________________________________________________________
initial_conv2D (Conv2D)         (None, 16, 96, 96)   288         input_11[0][0]                   
__________________________________________________________________________________________________
dense_0_0_bn (BatchNormalizatio (None, 16, 96, 96)   64          initial_conv2D[0][0]             
__________________________________________________________________________________________________
activation_85 (Activation)      (None, 16, 96, 96)   0           dense_0_0_bn[0][0]               
__________________________________________________________________________________________________
dense_0_0_bottleneck_conv2D (Co (None, 32, 96, 96)   512         activation_85[0][0]              
__________________________________________________________________________________________________
dense_0_0_bottleneck_bn (BatchN (None, 32, 96, 96)   128         dense_0_0_bottleneck_conv2D[0][0]
__________________________________________________________________________________________________
activation_86 (Activation)      (None, 32, 96, 96)   0           dense_0_0_bottleneck_bn[0][0]    
__________________________________________________________________________________________________
dense_0_0_conv2D (Conv2D)       (None, 8, 96, 96)    2304        activation_86[0][0]              
__________________________________________________________________________________________________
concatenate_33 (Concatenate)    (None, 24, 96, 96)   0           initial_conv2D[0][0]             
                                                                 dense_0_0_conv2D[0][0]           
__________________________________________________________________________________________________
dense_0_1_bn (BatchNormalizatio (None, 24, 96, 96)   96          concatenate_33[0][0]             
__________________________________________________________________________________________________
activation_87 (Activation)      (None, 24, 96, 96)   0           dense_0_1_bn[0][0]               
__________________________________________________________________________________________________
dense_0_1_bottleneck_conv2D (Co (None, 32, 96, 96)   768         activation_87[0][0]              
__________________________________________________________________________________________________
dense_0_1_bottleneck_bn (BatchN (None, 32, 96, 96)   128         dense_0_1_bottleneck_conv2D[0][0]
__________________________________________________________________________________________________
activation_88 (Activation)      (None, 32, 96, 96)   0           dense_0_1_bottleneck_bn[0][0]    
__________________________________________________________________________________________________
dense_0_1_conv2D (Conv2D)       (None, 8, 96, 96)    2304        activation_88[0][0]              
__________________________________________________________________________________________________
concatenate_34 (Concatenate)    (None, 32, 96, 96)   0           concatenate_33[0][0]             
                                                                 dense_0_1_conv2D[0][0]           
__________________________________________________________________________________________________
tr_0_bn (BatchNormalization)    (None, 32, 96, 96)   128         concatenate_34[0][0]             
__________________________________________________________________________________________________
activation_89 (Activation)      (None, 32, 96, 96)   0           tr_0_bn[0][0]                    
__________________________________________________________________________________________________
tr_0_conv2D (Conv2D)            (None, 16, 96, 96)   512         activation_89[0][0]              
__________________________________________________________________________________________________
average_pooling2d_11 (AveragePo (None, 16, 48, 48)   0           tr_0_conv2D[0][0]                
__________________________________________________________________________________________________
dense_1_0_bn (BatchNormalizatio (None, 16, 48, 48)   64          average_pooling2d_11[0][0]       
__________________________________________________________________________________________________
activation_90 (Activation)      (None, 16, 48, 48)   0           dense_1_0_bn[0][0]               
__________________________________________________________________________________________________
dense_1_0_bottleneck_conv2D (Co (None, 32, 48, 48)   512         activation_90[0][0]              
__________________________________________________________________________________________________
dense_1_0_bottleneck_bn (BatchN (None, 32, 48, 48)   128         dense_1_0_bottleneck_conv2D[0][0]
__________________________________________________________________________________________________
activation_91 (Activation)      (None, 32, 48, 48)   0           dense_1_0_bottleneck_bn[0][0]    
__________________________________________________________________________________________________
dense_1_0_conv2D (Conv2D)       (None, 8, 48, 48)    2304        activation_91[0][0]              
__________________________________________________________________________________________________
concatenate_35 (Concatenate)    (None, 24, 48, 48)   0           average_pooling2d_11[0][0]       
                                                                 dense_1_0_conv2D[0][0]           
__________________________________________________________________________________________________
dense_1_1_bn (BatchNormalizatio (None, 24, 48, 48)   96          concatenate_35[0][0]             
__________________________________________________________________________________________________
activation_92 (Activation)      (None, 24, 48, 48)   0           dense_1_1_bn[0][0]               
__________________________________________________________________________________________________
dense_1_1_bottleneck_conv2D (Co (None, 32, 48, 48)   768         activation_92[0][0]              
__________________________________________________________________________________________________
dense_1_1_bottleneck_bn (BatchN (None, 32, 48, 48)   128         dense_1_1_bottleneck_conv2D[0][0]
__________________________________________________________________________________________________
activation_93 (Activation)      (None, 32, 48, 48)   0           dense_1_1_bottleneck_bn[0][0]    
__________________________________________________________________________________________________
dense_1_1_conv2D (Conv2D)       (None, 8, 48, 48)    2304        activation_93[0][0]              
__________________________________________________________________________________________________
concatenate_36 (Concatenate)    (None, 32, 48, 48)   0           concatenate_35[0][0]             
                                                                 dense_1_1_conv2D[0][0]           
__________________________________________________________________________________________________
final_bn (BatchNormalization)   (None, 32, 48, 48)   128         concatenate_36[0][0]             
__________________________________________________________________________________________________
activation_94 (Activation)      (None, 32, 48, 48)   0           final_bn[0][0]                   
__________________________________________________________________________________________________
global_average_pooling2d_11 (Gl (None, 32)           0           activation_94[0][0]              
__________________________________________________________________________________________________
dense_11 (Dense)                (None, 1)            33          global_average_pooling2d_11[0][0]
==================================================================================================
Total params: 13,697
Trainable params: 13,153
Non-trainable params: 544
__________________________________________________________________________________________________
Train on 39840 samples, validate on 7440 samples
Epoch 1/40
 - 31s - loss: 0.6424 - acc: 0.6979 - val_loss: 0.5629 - val_acc: 0.8302
…
7168/7440 [===========================>..] - ETA: 0s
7392/7440 [============================>.] - ETA: 0s
7440/7440 [==============================] - 4s 519us/step
Best saved model Test accuracy: 0.8162634408602151
best saved model auc_score ------------------>  0.8799135738235634
__________________________________________________________________________________________________
Layer (type)                    Output Shape         Param #     Connected to                     
==================================================================================================
input_13 (InputLayer)           (None, 2, 96, 96)    0                                            
__________________________________________________________________________________________________
initial_conv2D (Conv2D)         (None, 16, 96, 96)   288         input_13[0][0]                   
__________________________________________________________________________________________________
dense_0_0_bn (BatchNormalizatio (None, 16, 96, 96)   64          initial_conv2D[0][0]             
__________________________________________________________________________________________________
activation_105 (Activation)     (None, 16, 96, 96)   0           dense_0_0_bn[0][0]               
__________________________________________________________________________________________________
dense_0_0_bottleneck_conv2D (Co (None, 48, 96, 96)   768         activation_105[0][0]             
__________________________________________________________________________________________________
dense_0_0_bottleneck_bn (BatchN (None, 48, 96, 96)   192         dense_0_0_bottleneck_conv2D[0][0]
__________________________________________________________________________________________________
activation_106 (Activation)     (None, 48, 96, 96)   0           dense_0_0_bottleneck_bn[0][0]    
__________________________________________________________________________________________________
dense_0_0_conv2D (Conv2D)       (None, 12, 96, 96)   5184        activation_106[0][0]             
__________________________________________________________________________________________________
concatenate_41 (Concatenate)    (None, 28, 96, 96)   0           initial_conv2D[0][0]             
                                                                 dense_0_0_conv2D[0][0]           
__________________________________________________________________________________________________
tr_0_bn (BatchNormalization)    (None, 28, 96, 96)   112         concatenate_41[0][0]             
__________________________________________________________________________________________________
activation_107 (Activation)     (None, 28, 96, 96)   0           tr_0_bn[0][0]                    
__________________________________________________________________________________________________
tr_0_conv2D (Conv2D)            (None, 14, 96, 96)   392         activation_107[0][0]             
__________________________________________________________________________________________________
average_pooling2d_13 (AveragePo (None, 14, 48, 48)   0           tr_0_conv2D[0][0]                
__________________________________________________________________________________________________
dense_1_0_bn (BatchNormalizatio (None, 14, 48, 48)   56          average_pooling2d_13[0][0]       
__________________________________________________________________________________________________
activation_108 (Activation)     (None, 14, 48, 48)   0           dense_1_0_bn[0][0]               
__________________________________________________________________________________________________
dense_1_0_bottleneck_conv2D (Co (None, 48, 48, 48)   672         activation_108[0][0]             
__________________________________________________________________________________________________
dense_1_0_bottleneck_bn (BatchN (None, 48, 48, 48)   192         dense_1_0_bottleneck_conv2D[0][0]
__________________________________________________________________________________________________
activation_109 (Activation)     (None, 48, 48, 48)   0           dense_1_0_bottleneck_bn[0][0]    
__________________________________________________________________________________________________
dense_1_0_conv2D (Conv2D)       (None, 12, 48, 48)   5184        activation_109[0][0]             
__________________________________________________________________________________________________
concatenate_42 (Concatenate)    (None, 26, 48, 48)   0           average_pooling2d_13[0][0]       
                                                                 dense_1_0_conv2D[0][0]           
__________________________________________________________________________________________________
final_bn (BatchNormalization)   (None, 26, 48, 48)   104         concatenate_42[0][0]             
__________________________________________________________________________________________________
activation_110 (Activation)     (None, 26, 48, 48)   0           final_bn[0][0]                   
__________________________________________________________________________________________________
global_average_pooling2d_13 (Gl (None, 26)           0           activation_110[0][0]             
__________________________________________________________________________________________________
dense_13 (Dense)                (None, 1)            27          global_average_pooling2d_13[0][0]
==================================================================================================
Total params: 13,235
Trainable params: 12,875
Non-trainable params: 360
__________________________________________________________________________________________________
Train on 39840 samples, validate on 7440 samples
Epoch 1/40
 - 25s - loss: 0.6568 - acc: 0.6569 - val_loss: 0.5590 - val_acc: 0.8094
…
6976/7440 [===========================>..] - ETA: 0s
7264/7440 [============================>.] - ETA: 0s
7440/7440 [==============================] - 4s 491us/step
Best saved model Test accuracy: 0.8252688172043011
best saved model auc_score ------------------>  0.8770868380737658
__________________________________________________________________________________________________
Layer (type)                    Output Shape         Param #     Connected to                     
==================================================================================================
input_14 (InputLayer)           (None, 2, 96, 96)    0                                            
__________________________________________________________________________________________________
initial_conv2D (Conv2D)         (None, 16, 96, 96)   288         input_14[0][0]                   
__________________________________________________________________________________________________
dense_0_0_bn (BatchNormalizatio (None, 16, 96, 96)   64          initial_conv2D[0][0]             
__________________________________________________________________________________________________
activation_111 (Activation)     (None, 16, 96, 96)   0           dense_0_0_bn[0][0]               
__________________________________________________________________________________________________
dense_0_0_bottleneck_conv2D (Co (None, 24, 96, 96)   384         activation_111[0][0]             
__________________________________________________________________________________________________
dense_0_0_bottleneck_bn (BatchN (None, 24, 96, 96)   96          dense_0_0_bottleneck_conv2D[0][0]
__________________________________________________________________________________________________
activation_112 (Activation)     (None, 24, 96, 96)   0           dense_0_0_bottleneck_bn[0][0]    
__________________________________________________________________________________________________
dense_0_0_conv2D (Conv2D)       (None, 6, 96, 96)    1296        activation_112[0][0]             
__________________________________________________________________________________________________
concatenate_43 (Concatenate)    (None, 22, 96, 96)   0           initial_conv2D[0][0]             
                                                                 dense_0_0_conv2D[0][0]           
__________________________________________________________________________________________________
tr_0_bn (BatchNormalization)    (None, 22, 96, 96)   88          concatenate_43[0][0]             
__________________________________________________________________________________________________
activation_113 (Activation)     (None, 22, 96, 96)   0           tr_0_bn[0][0]                    
__________________________________________________________________________________________________
tr_0_conv2D (Conv2D)            (None, 11, 96, 96)   242         activation_113[0][0]             
__________________________________________________________________________________________________
average_pooling2d_14 (AveragePo (None, 11, 48, 48)   0           tr_0_conv2D[0][0]                
__________________________________________________________________________________________________
dense_1_0_bn (BatchNormalizatio (None, 11, 48, 48)   44          average_pooling2d_14[0][0]       
__________________________________________________________________________________________________
activation_114 (Activation)     (None, 11, 48, 48)   0           dense_1_0_bn[0][0]               
__________________________________________________________________________________________________
dense_1_0_bottleneck_conv2D (Co (None, 24, 48, 48)   264         activation_114[0][0]             
__________________________________________________________________________________________________
dense_1_0_bottleneck_bn (BatchN (None, 24, 48, 48)   96          dense_1_0_bottleneck_conv2D[0][0]
__________________________________________________________________________________________________
activation_115 (Activation)     (None, 24, 48, 48)   0           dense_1_0_bottleneck_bn[0][0]    
__________________________________________________________________________________________________
dense_1_0_conv2D (Conv2D)       (None, 6, 48, 48)    1296        activation_115[0][0]             
__________________________________________________________________________________________________
concatenate_44 (Concatenate)    (None, 17, 48, 48)   0           average_pooling2d_14[0][0]       
                                                                 dense_1_0_conv2D[0][0]           
__________________________________________________________________________________________________
final_bn (BatchNormalization)   (None, 17, 48, 48)   68          concatenate_44[0][0]             
__________________________________________________________________________________________________
activation_116 (Activation)     (None, 17, 48, 48)   0           final_bn[0][0]                   
__________________________________________________________________________________________________
global_average_pooling2d_14 (Gl (None, 17)           0           activation_116[0][0]             
__________________________________________________________________________________________________
dense_14 (Dense)                (None, 1)            18          global_average_pooling2d_14[0][0]
==================================================================================================
Total params: 4,244
Trainable params: 4,016
Non-trainable params: 228
__________________________________________________________________________________________________
Train on 39840 samples, validate on 7440 samples
Epoch 1/40
 - 22s - loss: 0.6634 - acc: 0.6597 - val_loss: 0.5739 - val_acc: 0.8277
…
6656/7440 [=========================>....] - ETA: 0s
7072/7440 [===========================>..] - ETA: 0s
7440/7440 [==============================] - 3s 446us/step
Best saved model Test accuracy: 0.8224462365591397
best saved model auc_score ------------------>  0.8655809558908544
__________________________________________________________________________________________________
Layer (type)                    Output Shape         Param #     Connected to                     
==================================================================================================
input_16 (InputLayer)           (None, 2, 96, 96)    0                                            
__________________________________________________________________________________________________
initial_conv2D (Conv2D)         (None, 16, 96, 96)   288         input_16[0][0]                   
__________________________________________________________________________________________________
dense_0_0_bn (BatchNormalizatio (None, 16, 96, 96)   64          initial_conv2D[0][0]             
__________________________________________________________________________________________________
activation_119 (Activation)     (None, 16, 96, 96)   0           dense_0_0_bn[0][0]               
__________________________________________________________________________________________________
dense_0_0_bottleneck_conv2D (Co (None, 32, 96, 96)   512         activation_119[0][0]             
__________________________________________________________________________________________________
dense_0_0_bottleneck_bn (BatchN (None, 32, 96, 96)   128         dense_0_0_bottleneck_conv2D[0][0]
__________________________________________________________________________________________________
activation_120 (Activation)     (None, 32, 96, 96)   0           dense_0_0_bottleneck_bn[0][0]    
__________________________________________________________________________________________________
dense_0_0_conv2D (Conv2D)       (None, 8, 96, 96)    2304        activation_120[0][0]             
__________________________________________________________________________________________________
concatenate_45 (Concatenate)    (None, 24, 96, 96)   0           initial_conv2D[0][0]             
                                                                 dense_0_0_conv2D[0][0]           
__________________________________________________________________________________________________
tr_0_bn (BatchNormalization)    (None, 24, 96, 96)   96          concatenate_45[0][0]             
__________________________________________________________________________________________________
activation_121 (Activation)     (None, 24, 96, 96)   0           tr_0_bn[0][0]                    
__________________________________________________________________________________________________
tr_0_conv2D (Conv2D)            (None, 12, 96, 96)   288         activation_121[0][0]             
__________________________________________________________________________________________________
average_pooling2d_16 (AveragePo (None, 12, 48, 48)   0           tr_0_conv2D[0][0]                
__________________________________________________________________________________________________
dense_1_0_bn (BatchNormalizatio (None, 12, 48, 48)   48          average_pooling2d_16[0][0]       
__________________________________________________________________________________________________
activation_122 (Activation)     (None, 12, 48, 48)   0           dense_1_0_bn[0][0]               
__________________________________________________________________________________________________
dense_1_0_bottleneck_conv2D (Co (None, 32, 48, 48)   384         activation_122[0][0]             
__________________________________________________________________________________________________
dense_1_0_bottleneck_bn (BatchN (None, 32, 48, 48)   128         dense_1_0_bottleneck_conv2D[0][0]
__________________________________________________________________________________________________
activation_123 (Activation)     (None, 32, 48, 48)   0           dense_1_0_bottleneck_bn[0][0]    
__________________________________________________________________________________________________
dense_1_0_conv2D (Conv2D)       (None, 8, 48, 48)    2304        activation_123[0][0]             
__________________________________________________________________________________________________
concatenate_46 (Concatenate)    (None, 20, 48, 48)   0           average_pooling2d_16[0][0]       
                                                                 dense_1_0_conv2D[0][0]           
__________________________________________________________________________________________________
final_bn (BatchNormalization)   (None, 20, 48, 48)   80          concatenate_46[0][0]             
__________________________________________________________________________________________________
activation_124 (Activation)     (None, 20, 48, 48)   0           final_bn[0][0]                   
__________________________________________________________________________________________________
global_average_pooling2d_16 (Gl (None, 20)           0           activation_124[0][0]             
__________________________________________________________________________________________________
dense_16 (Dense)                (None, 1)            21          global_average_pooling2d_16[0][0]
==================================================================================================
Total params: 6,645
Trainable params: 6,373
Non-trainable params: 272
__________________________________________________________________________________________________
Train on 39840 samples, validate on 7440 samples
Epoch 1/40
 - 24s - loss: 0.6678 - acc: 0.6482 - val_loss: 0.5944 - val_acc: 0.8132
…
6656/7440 [=========================>....] - ETA: 0s
7072/7440 [===========================>..] - ETA: 0s
7440/7440 [==============================] - 4s 516us/step
Best saved model Test accuracy: 0.8248655913978494
best saved model auc_score ------------------>  0.8666598739738697
__________________________________________________________________________________________________
Layer (type)                    Output Shape         Param #     Connected to                     
==================================================================================================
input_20 (InputLayer)           (None, 2, 96, 96)    0                                            
__________________________________________________________________________________________________
initial_conv2D (Conv2D)         (None, 16, 96, 96)   288         input_20[0][0]                   
__________________________________________________________________________________________________
dense_0_0_bn (BatchNormalizatio (None, 16, 96, 96)   64          initial_conv2D[0][0]             
__________________________________________________________________________________________________
activation_135 (Activation)     (None, 16, 96, 96)   0           dense_0_0_bn[0][0]               
__________________________________________________________________________________________________
dense_0_0_bottleneck_conv2D (Co (None, 32, 96, 96)   512         activation_135[0][0]             
__________________________________________________________________________________________________
dense_0_0_bottleneck_bn (BatchN (None, 32, 96, 96)   128         dense_0_0_bottleneck_conv2D[0][0]
__________________________________________________________________________________________________
activation_136 (Activation)     (None, 32, 96, 96)   0           dense_0_0_bottleneck_bn[0][0]    
__________________________________________________________________________________________________
dense_0_0_conv2D (Conv2D)       (None, 8, 96, 96)    2304        activation_136[0][0]             
__________________________________________________________________________________________________
concatenate_49 (Concatenate)    (None, 24, 96, 96)   0           initial_conv2D[0][0]             
                                                                 dense_0_0_conv2D[0][0]           
__________________________________________________________________________________________________
dense_0_1_bn (BatchNormalizatio (None, 24, 96, 96)   96          concatenate_49[0][0]             
__________________________________________________________________________________________________
activation_137 (Activation)     (None, 24, 96, 96)   0           dense_0_1_bn[0][0]               
__________________________________________________________________________________________________
dense_0_1_bottleneck_conv2D (Co (None, 32, 96, 96)   768         activation_137[0][0]             
__________________________________________________________________________________________________
dense_0_1_bottleneck_bn (BatchN (None, 32, 96, 96)   128         dense_0_1_bottleneck_conv2D[0][0]
__________________________________________________________________________________________________
activation_138 (Activation)     (None, 32, 96, 96)   0           dense_0_1_bottleneck_bn[0][0]    
__________________________________________________________________________________________________
dense_0_1_conv2D (Conv2D)       (None, 8, 96, 96)    2304        activation_138[0][0]             
__________________________________________________________________________________________________
concatenate_50 (Concatenate)    (None, 32, 96, 96)   0           concatenate_49[0][0]             
                                                                 dense_0_1_conv2D[0][0]           
__________________________________________________________________________________________________
dense_0_2_bn (BatchNormalizatio (None, 32, 96, 96)   128         concatenate_50[0][0]             
__________________________________________________________________________________________________
activation_139 (Activation)     (None, 32, 96, 96)   0           dense_0_2_bn[0][0]               
__________________________________________________________________________________________________
dense_0_2_bottleneck_conv2D (Co (None, 32, 96, 96)   1024        activation_139[0][0]             
__________________________________________________________________________________________________
dense_0_2_bottleneck_bn (BatchN (None, 32, 96, 96)   128         dense_0_2_bottleneck_conv2D[0][0]
__________________________________________________________________________________________________
activation_140 (Activation)     (None, 32, 96, 96)   0           dense_0_2_bottleneck_bn[0][0]    
__________________________________________________________________________________________________
dense_0_2_conv2D (Conv2D)       (None, 8, 96, 96)    2304        activation_140[0][0]             
__________________________________________________________________________________________________
concatenate_51 (Concatenate)    (None, 40, 96, 96)   0           concatenate_50[0][0]             
                                                                 dense_0_2_conv2D[0][0]           
__________________________________________________________________________________________________
tr_0_bn (BatchNormalization)    (None, 40, 96, 96)   160         concatenate_51[0][0]             
__________________________________________________________________________________________________
activation_141 (Activation)     (None, 40, 96, 96)   0           tr_0_bn[0][0]                    
__________________________________________________________________________________________________
tr_0_conv2D (Conv2D)            (None, 20, 96, 96)   800         activation_141[0][0]             
__________________________________________________________________________________________________
average_pooling2d_20 (AveragePo (None, 20, 48, 48)   0           tr_0_conv2D[0][0]                
__________________________________________________________________________________________________
dense_1_0_bn (BatchNormalizatio (None, 20, 48, 48)   80          average_pooling2d_20[0][0]       
__________________________________________________________________________________________________
activation_142 (Activation)     (None, 20, 48, 48)   0           dense_1_0_bn[0][0]               
__________________________________________________________________________________________________
dense_1_0_bottleneck_conv2D (Co (None, 32, 48, 48)   640         activation_142[0][0]             
__________________________________________________________________________________________________
dense_1_0_bottleneck_bn (BatchN (None, 32, 48, 48)   128         dense_1_0_bottleneck_conv2D[0][0]
__________________________________________________________________________________________________
activation_143 (Activation)     (None, 32, 48, 48)   0           dense_1_0_bottleneck_bn[0][0]    
__________________________________________________________________________________________________
dense_1_0_conv2D (Conv2D)       (None, 8, 48, 48)    2304        activation_143[0][0]             
__________________________________________________________________________________________________
concatenate_52 (Concatenate)    (None, 28, 48, 48)   0           average_pooling2d_20[0][0]       
                                                                 dense_1_0_conv2D[0][0]           
__________________________________________________________________________________________________
dense_1_1_bn (BatchNormalizatio (None, 28, 48, 48)   112         concatenate_52[0][0]             
__________________________________________________________________________________________________
activation_144 (Activation)     (None, 28, 48, 48)   0           dense_1_1_bn[0][0]               
__________________________________________________________________________________________________
dense_1_1_bottleneck_conv2D (Co (None, 32, 48, 48)   896         activation_144[0][0]             
__________________________________________________________________________________________________
dense_1_1_bottleneck_bn (BatchN (None, 32, 48, 48)   128         dense_1_1_bottleneck_conv2D[0][0]
__________________________________________________________________________________________________
activation_145 (Activation)     (None, 32, 48, 48)   0           dense_1_1_bottleneck_bn[0][0]    
__________________________________________________________________________________________________
dense_1_1_conv2D (Conv2D)       (None, 8, 48, 48)    2304        activation_145[0][0]             
__________________________________________________________________________________________________
concatenate_53 (Concatenate)    (None, 36, 48, 48)   0           concatenate_52[0][0]             
                                                                 dense_1_1_conv2D[0][0]           
__________________________________________________________________________________________________
dense_1_2_bn (BatchNormalizatio (None, 36, 48, 48)   144         concatenate_53[0][0]             
__________________________________________________________________________________________________
activation_146 (Activation)     (None, 36, 48, 48)   0           dense_1_2_bn[0][0]               
__________________________________________________________________________________________________
dense_1_2_bottleneck_conv2D (Co (None, 32, 48, 48)   1152        activation_146[0][0]             
__________________________________________________________________________________________________
dense_1_2_bottleneck_bn (BatchN (None, 32, 48, 48)   128         dense_1_2_bottleneck_conv2D[0][0]
__________________________________________________________________________________________________
activation_147 (Activation)     (None, 32, 48, 48)   0           dense_1_2_bottleneck_bn[0][0]    
__________________________________________________________________________________________________
dense_1_2_conv2D (Conv2D)       (None, 8, 48, 48)    2304        activation_147[0][0]             
__________________________________________________________________________________________________
concatenate_54 (Concatenate)    (None, 44, 48, 48)   0           concatenate_53[0][0]             
                                                                 dense_1_2_conv2D[0][0]           
__________________________________________________________________________________________________
final_bn (BatchNormalization)   (None, 44, 48, 48)   176         concatenate_54[0][0]             
__________________________________________________________________________________________________
activation_148 (Activation)     (None, 44, 48, 48)   0           final_bn[0][0]                   
__________________________________________________________________________________________________
global_average_pooling2d_20 (Gl (None, 44)           0           activation_148[0][0]             
__________________________________________________________________________________________________
dense_20 (Dense)                (None, 1)            45          global_average_pooling2d_20[0][0]
==================================================================================================
Total params: 21,677
Trainable params: 20,813
Non-trainable params: 864
__________________________________________________________________________________________________
Train on 39840 samples, validate on 7440 samples
Epoch 1/40
 - 46s - loss: 0.6483 - acc: 0.7059 - val_loss: 0.5624 - val_acc: 0.8336
…
7232/7440 [============================>.] - ETA: 0s
7392/7440 [============================>.] - ETA: 0s
7440/7440 [==============================] - 6s 794us/step
Best saved model Test accuracy: 0.8091397849462365
best saved model auc_score ------------------>  0.8752563880217366
__________________________________________________________________________________________________
Layer (type)                    Output Shape         Param #     Connected to                     
==================================================================================================
input_21 (InputLayer)           (None, 2, 96, 96)    0                                            
__________________________________________________________________________________________________
initial_conv2D (Conv2D)         (None, 16, 96, 96)   288         input_21[0][0]                   
__________________________________________________________________________________________________
dense_0_0_bn (BatchNormalizatio (None, 16, 96, 96)   64          initial_conv2D[0][0]             
__________________________________________________________________________________________________
activation_149 (Activation)     (None, 16, 96, 96)   0           dense_0_0_bn[0][0]               
__________________________________________________________________________________________________
dense_0_0_bottleneck_conv2D (Co (None, 24, 96, 96)   384         activation_149[0][0]             
__________________________________________________________________________________________________
dense_0_0_bottleneck_bn (BatchN (None, 24, 96, 96)   96          dense_0_0_bottleneck_conv2D[0][0]
__________________________________________________________________________________________________
activation_150 (Activation)     (None, 24, 96, 96)   0           dense_0_0_bottleneck_bn[0][0]    
__________________________________________________________________________________________________
dense_0_0_conv2D (Conv2D)       (None, 6, 96, 96)    1296        activation_150[0][0]             
__________________________________________________________________________________________________
concatenate_55 (Concatenate)    (None, 22, 96, 96)   0           initial_conv2D[0][0]             
                                                                 dense_0_0_conv2D[0][0]           
__________________________________________________________________________________________________
dense_0_1_bn (BatchNormalizatio (None, 22, 96, 96)   88          concatenate_55[0][0]             
__________________________________________________________________________________________________
activation_151 (Activation)     (None, 22, 96, 96)   0           dense_0_1_bn[0][0]               
__________________________________________________________________________________________________
dense_0_1_bottleneck_conv2D (Co (None, 24, 96, 96)   528         activation_151[0][0]             
__________________________________________________________________________________________________
dense_0_1_bottleneck_bn (BatchN (None, 24, 96, 96)   96          dense_0_1_bottleneck_conv2D[0][0]
__________________________________________________________________________________________________
activation_152 (Activation)     (None, 24, 96, 96)   0           dense_0_1_bottleneck_bn[0][0]    
__________________________________________________________________________________________________
dense_0_1_conv2D (Conv2D)       (None, 6, 96, 96)    1296        activation_152[0][0]             
__________________________________________________________________________________________________
concatenate_56 (Concatenate)    (None, 28, 96, 96)   0           concatenate_55[0][0]             
                                                                 dense_0_1_conv2D[0][0]           
__________________________________________________________________________________________________
tr_0_bn (BatchNormalization)    (None, 28, 96, 96)   112         concatenate_56[0][0]             
__________________________________________________________________________________________________
activation_153 (Activation)     (None, 28, 96, 96)   0           tr_0_bn[0][0]                    
__________________________________________________________________________________________________
tr_0_conv2D (Conv2D)            (None, 14, 96, 96)   392         activation_153[0][0]             
__________________________________________________________________________________________________
average_pooling2d_21 (AveragePo (None, 14, 48, 48)   0           tr_0_conv2D[0][0]                
__________________________________________________________________________________________________
dense_1_0_bn (BatchNormalizatio (None, 14, 48, 48)   56          average_pooling2d_21[0][0]       
__________________________________________________________________________________________________
activation_154 (Activation)     (None, 14, 48, 48)   0           dense_1_0_bn[0][0]               
__________________________________________________________________________________________________
dense_1_0_bottleneck_conv2D (Co (None, 24, 48, 48)   336         activation_154[0][0]             
__________________________________________________________________________________________________
dense_1_0_bottleneck_bn (BatchN (None, 24, 48, 48)   96          dense_1_0_bottleneck_conv2D[0][0]
__________________________________________________________________________________________________
activation_155 (Activation)     (None, 24, 48, 48)   0           dense_1_0_bottleneck_bn[0][0]    
__________________________________________________________________________________________________
dense_1_0_conv2D (Conv2D)       (None, 6, 48, 48)    1296        activation_155[0][0]             
__________________________________________________________________________________________________
concatenate_57 (Concatenate)    (None, 20, 48, 48)   0           average_pooling2d_21[0][0]       
                                                                 dense_1_0_conv2D[0][0]           
__________________________________________________________________________________________________
dense_1_1_bn (BatchNormalizatio (None, 20, 48, 48)   80          concatenate_57[0][0]             
__________________________________________________________________________________________________
activation_156 (Activation)     (None, 20, 48, 48)   0           dense_1_1_bn[0][0]               
__________________________________________________________________________________________________
dense_1_1_bottleneck_conv2D (Co (None, 24, 48, 48)   480         activation_156[0][0]             
__________________________________________________________________________________________________
dense_1_1_bottleneck_bn (BatchN (None, 24, 48, 48)   96          dense_1_1_bottleneck_conv2D[0][0]
__________________________________________________________________________________________________
activation_157 (Activation)     (None, 24, 48, 48)   0           dense_1_1_bottleneck_bn[0][0]    
__________________________________________________________________________________________________
dense_1_1_conv2D (Conv2D)       (None, 6, 48, 48)    1296        activation_157[0][0]             
__________________________________________________________________________________________________
concatenate_58 (Concatenate)    (None, 26, 48, 48)   0           concatenate_57[0][0]             
                                                                 dense_1_1_conv2D[0][0]           
__________________________________________________________________________________________________
final_bn (BatchNormalization)   (None, 26, 48, 48)   104         concatenate_58[0][0]             
__________________________________________________________________________________________________
activation_158 (Activation)     (None, 26, 48, 48)   0           final_bn[0][0]                   
__________________________________________________________________________________________________
global_average_pooling2d_21 (Gl (None, 26)           0           activation_158[0][0]             
__________________________________________________________________________________________________
dense_21 (Dense)                (None, 1)            27          global_average_pooling2d_21[0][0]
==================================================================================================
Total params: 8,507
Trainable params: 8,063
Non-trainable params: 444
__________________________________________________________________________________________________
Train on 39840 samples, validate on 7440 samples
Epoch 1/40
 - 33s - loss: 0.6657 - acc: 0.6284 - val_loss: 0.5708 - val_acc: 0.7837
…
7136/7440 [===========================>..] - ETA: 0s
7360/7440 [============================>.] - ETA: 0s
7440/7440 [==============================] - 8s 1ms/step
Best saved model Test accuracy: 0.8512096774193548
best saved model auc_score ------------------>  0.8987713536246964
__________________________________________________________________________________________________
Layer (type)                    Output Shape         Param #     Connected to                     
==================================================================================================
input_29 (InputLayer)           (None, 2, 96, 96)    0                                            
__________________________________________________________________________________________________
initial_conv2D (Conv2D)         (None, 16, 96, 96)   288         input_29[0][0]                   
__________________________________________________________________________________________________
dense_0_0_bn (BatchNormalizatio (None, 16, 96, 96)   64          initial_conv2D[0][0]             
__________________________________________________________________________________________________
activation_229 (Activation)     (None, 16, 96, 96)   0           dense_0_0_bn[0][0]               
__________________________________________________________________________________________________
dense_0_0_bottleneck_conv2D (Co (None, 40, 96, 96)   640         activation_229[0][0]             
__________________________________________________________________________________________________
dense_0_0_bottleneck_bn (BatchN (None, 40, 96, 96)   160         dense_0_0_bottleneck_conv2D[0][0]
__________________________________________________________________________________________________
activation_230 (Activation)     (None, 40, 96, 96)   0           dense_0_0_bottleneck_bn[0][0]    
__________________________________________________________________________________________________
dense_0_0_conv2D (Conv2D)       (None, 10, 96, 96)   3600        activation_230[0][0]             
__________________________________________________________________________________________________
concatenate_87 (Concatenate)    (None, 26, 96, 96)   0           initial_conv2D[0][0]             
                                                                 dense_0_0_conv2D[0][0]           
__________________________________________________________________________________________________
dense_0_1_bn (BatchNormalizatio (None, 26, 96, 96)   104         concatenate_87[0][0]             
__________________________________________________________________________________________________
activation_231 (Activation)     (None, 26, 96, 96)   0           dense_0_1_bn[0][0]               
__________________________________________________________________________________________________
dense_0_1_bottleneck_conv2D (Co (None, 40, 96, 96)   1040        activation_231[0][0]             
__________________________________________________________________________________________________
dense_0_1_bottleneck_bn (BatchN (None, 40, 96, 96)   160         dense_0_1_bottleneck_conv2D[0][0]
__________________________________________________________________________________________________
activation_232 (Activation)     (None, 40, 96, 96)   0           dense_0_1_bottleneck_bn[0][0]    
__________________________________________________________________________________________________
dense_0_1_conv2D (Conv2D)       (None, 10, 96, 96)   3600        activation_232[0][0]             
__________________________________________________________________________________________________
concatenate_88 (Concatenate)    (None, 36, 96, 96)   0           concatenate_87[0][0]             
                                                                 dense_0_1_conv2D[0][0]           
__________________________________________________________________________________________________
tr_0_bn (BatchNormalization)    (None, 36, 96, 96)   144         concatenate_88[0][0]             
__________________________________________________________________________________________________
activation_233 (Activation)     (None, 36, 96, 96)   0           tr_0_bn[0][0]                    
__________________________________________________________________________________________________
tr_0_conv2D (Conv2D)            (None, 18, 96, 96)   648         activation_233[0][0]             
__________________________________________________________________________________________________
average_pooling2d_29 (AveragePo (None, 18, 48, 48)   0           tr_0_conv2D[0][0]                
__________________________________________________________________________________________________
dense_1_0_bn (BatchNormalizatio (None, 18, 48, 48)   72          average_pooling2d_29[0][0]       
__________________________________________________________________________________________________
activation_234 (Activation)     (None, 18, 48, 48)   0           dense_1_0_bn[0][0]               
__________________________________________________________________________________________________
dense_1_0_bottleneck_conv2D (Co (None, 40, 48, 48)   720         activation_234[0][0]             
__________________________________________________________________________________________________
dense_1_0_bottleneck_bn (BatchN (None, 40, 48, 48)   160         dense_1_0_bottleneck_conv2D[0][0]
__________________________________________________________________________________________________
activation_235 (Activation)     (None, 40, 48, 48)   0           dense_1_0_bottleneck_bn[0][0]    
__________________________________________________________________________________________________
dense_1_0_conv2D (Conv2D)       (None, 10, 48, 48)   3600        activation_235[0][0]             
__________________________________________________________________________________________________
concatenate_89 (Concatenate)    (None, 28, 48, 48)   0           average_pooling2d_29[0][0]       
                                                                 dense_1_0_conv2D[0][0]           
__________________________________________________________________________________________________
dense_1_1_bn (BatchNormalizatio (None, 28, 48, 48)   112         concatenate_89[0][0]             
__________________________________________________________________________________________________
activation_236 (Activation)     (None, 28, 48, 48)   0           dense_1_1_bn[0][0]               
__________________________________________________________________________________________________
dense_1_1_bottleneck_conv2D (Co (None, 40, 48, 48)   1120        activation_236[0][0]             
__________________________________________________________________________________________________
dense_1_1_bottleneck_bn (BatchN (None, 40, 48, 48)   160         dense_1_1_bottleneck_conv2D[0][0]
__________________________________________________________________________________________________
activation_237 (Activation)     (None, 40, 48, 48)   0           dense_1_1_bottleneck_bn[0][0]    
__________________________________________________________________________________________________
dense_1_1_conv2D (Conv2D)       (None, 10, 48, 48)   3600        activation_237[0][0]             
__________________________________________________________________________________________________
concatenate_90 (Concatenate)    (None, 38, 48, 48)   0           concatenate_89[0][0]             
                                                                 dense_1_1_conv2D[0][0]           
__________________________________________________________________________________________________
final_bn (BatchNormalization)   (None, 38, 48, 48)   152         concatenate_90[0][0]             
__________________________________________________________________________________________________
activation_238 (Activation)     (None, 38, 48, 48)   0           final_bn[0][0]                   
__________________________________________________________________________________________________
global_average_pooling2d_29 (Gl (None, 38)           0           activation_238[0][0]             
__________________________________________________________________________________________________
dense_29 (Dense)                (None, 1)            39          global_average_pooling2d_29[0][0]
==================================================================================================
Total params: 20,183
Trainable params: 19,539
Non-trainable params: 644
__________________________________________________________________________________________________
Train on 39840 samples, validate on 7440 samples
Epoch 1/40
 - 45s - loss: 0.6687 - acc: 0.6599 - val_loss: 0.5637 - val_acc: 0.8144
…
7232/7440 [============================>.] - ETA: 0s
7392/7440 [============================>.] - ETA: 0s
7440/7440 [==============================] - 10s 1ms/step
Best saved model Test accuracy: 0.8260752688172043
best saved model auc_score ------------------>  0.8848267863336802
__________________________________________________________________________________________________
Layer (type)                    Output Shape         Param #     Connected to                     
==================================================================================================
input_31 (InputLayer)           (None, 2, 96, 96)    0                                            
__________________________________________________________________________________________________
initial_conv2D (Conv2D)         (None, 16, 96, 96)   288         input_31[0][0]                   
__________________________________________________________________________________________________
dense_0_0_bn (BatchNormalizatio (None, 16, 96, 96)   64          initial_conv2D[0][0]             
__________________________________________________________________________________________________
activation_249 (Activation)     (None, 16, 96, 96)   0           dense_0_0_bn[0][0]               
__________________________________________________________________________________________________
dense_0_0_bottleneck_conv2D (Co (None, 48, 96, 96)   768         activation_249[0][0]             
__________________________________________________________________________________________________
dense_0_0_bottleneck_bn (BatchN (None, 48, 96, 96)   192         dense_0_0_bottleneck_conv2D[0][0]
__________________________________________________________________________________________________
activation_250 (Activation)     (None, 48, 96, 96)   0           dense_0_0_bottleneck_bn[0][0]    
__________________________________________________________________________________________________
dense_0_0_conv2D (Conv2D)       (None, 12, 96, 96)   5184        activation_250[0][0]             
__________________________________________________________________________________________________
concatenate_95 (Concatenate)    (None, 28, 96, 96)   0           initial_conv2D[0][0]             
                                                                 dense_0_0_conv2D[0][0]           
__________________________________________________________________________________________________
dense_0_1_bn (BatchNormalizatio (None, 28, 96, 96)   112         concatenate_95[0][0]             
__________________________________________________________________________________________________
activation_251 (Activation)     (None, 28, 96, 96)   0           dense_0_1_bn[0][0]               
__________________________________________________________________________________________________
dense_0_1_bottleneck_conv2D (Co (None, 48, 96, 96)   1344        activation_251[0][0]             
__________________________________________________________________________________________________
dense_0_1_bottleneck_bn (BatchN (None, 48, 96, 96)   192         dense_0_1_bottleneck_conv2D[0][0]
__________________________________________________________________________________________________
activation_252 (Activation)     (None, 48, 96, 96)   0           dense_0_1_bottleneck_bn[0][0]    
__________________________________________________________________________________________________
dense_0_1_conv2D (Conv2D)       (None, 12, 96, 96)   5184        activation_252[0][0]             
__________________________________________________________________________________________________
concatenate_96 (Concatenate)    (None, 40, 96, 96)   0           concatenate_95[0][0]             
                                                                 dense_0_1_conv2D[0][0]           
__________________________________________________________________________________________________
dense_0_2_bn (BatchNormalizatio (None, 40, 96, 96)   160         concatenate_96[0][0]             
__________________________________________________________________________________________________
activation_253 (Activation)     (None, 40, 96, 96)   0           dense_0_2_bn[0][0]               
__________________________________________________________________________________________________
dense_0_2_bottleneck_conv2D (Co (None, 48, 96, 96)   1920        activation_253[0][0]             
__________________________________________________________________________________________________
dense_0_2_bottleneck_bn (BatchN (None, 48, 96, 96)   192         dense_0_2_bottleneck_conv2D[0][0]
__________________________________________________________________________________________________
activation_254 (Activation)     (None, 48, 96, 96)   0           dense_0_2_bottleneck_bn[0][0]    
__________________________________________________________________________________________________
dense_0_2_conv2D (Conv2D)       (None, 12, 96, 96)   5184        activation_254[0][0]             
__________________________________________________________________________________________________
concatenate_97 (Concatenate)    (None, 52, 96, 96)   0           concatenate_96[0][0]             
                                                                 dense_0_2_conv2D[0][0]           
__________________________________________________________________________________________________
tr_0_bn (BatchNormalization)    (None, 52, 96, 96)   208         concatenate_97[0][0]             
__________________________________________________________________________________________________
activation_255 (Activation)     (None, 52, 96, 96)   0           tr_0_bn[0][0]                    
__________________________________________________________________________________________________
tr_0_conv2D (Conv2D)            (None, 26, 96, 96)   1352        activation_255[0][0]             
__________________________________________________________________________________________________
average_pooling2d_31 (AveragePo (None, 26, 48, 48)   0           tr_0_conv2D[0][0]                
__________________________________________________________________________________________________
dense_1_0_bn (BatchNormalizatio (None, 26, 48, 48)   104         average_pooling2d_31[0][0]       
__________________________________________________________________________________________________
activation_256 (Activation)     (None, 26, 48, 48)   0           dense_1_0_bn[0][0]               
__________________________________________________________________________________________________
dense_1_0_bottleneck_conv2D (Co (None, 48, 48, 48)   1248        activation_256[0][0]             
__________________________________________________________________________________________________
dense_1_0_bottleneck_bn (BatchN (None, 48, 48, 48)   192         dense_1_0_bottleneck_conv2D[0][0]
__________________________________________________________________________________________________
activation_257 (Activation)     (None, 48, 48, 48)   0           dense_1_0_bottleneck_bn[0][0]    
__________________________________________________________________________________________________
dense_1_0_conv2D (Conv2D)       (None, 12, 48, 48)   5184        activation_257[0][0]             
__________________________________________________________________________________________________
concatenate_98 (Concatenate)    (None, 38, 48, 48)   0           average_pooling2d_31[0][0]       
                                                                 dense_1_0_conv2D[0][0]           
__________________________________________________________________________________________________
dense_1_1_bn (BatchNormalizatio (None, 38, 48, 48)   152         concatenate_98[0][0]             
__________________________________________________________________________________________________
activation_258 (Activation)     (None, 38, 48, 48)   0           dense_1_1_bn[0][0]               
__________________________________________________________________________________________________
dense_1_1_bottleneck_conv2D (Co (None, 48, 48, 48)   1824        activation_258[0][0]             
__________________________________________________________________________________________________
dense_1_1_bottleneck_bn (BatchN (None, 48, 48, 48)   192         dense_1_1_bottleneck_conv2D[0][0]
__________________________________________________________________________________________________
activation_259 (Activation)     (None, 48, 48, 48)   0           dense_1_1_bottleneck_bn[0][0]    
__________________________________________________________________________________________________
dense_1_1_conv2D (Conv2D)       (None, 12, 48, 48)   5184        activation_259[0][0]             
__________________________________________________________________________________________________
concatenate_99 (Concatenate)    (None, 50, 48, 48)   0           concatenate_98[0][0]             
                                                                 dense_1_1_conv2D[0][0]           
__________________________________________________________________________________________________
dense_1_2_bn (BatchNormalizatio (None, 50, 48, 48)   200         concatenate_99[0][0]             
__________________________________________________________________________________________________
activation_260 (Activation)     (None, 50, 48, 48)   0           dense_1_2_bn[0][0]               
__________________________________________________________________________________________________
dense_1_2_bottleneck_conv2D (Co (None, 48, 48, 48)   2400        activation_260[0][0]             
__________________________________________________________________________________________________
dense_1_2_bottleneck_bn (BatchN (None, 48, 48, 48)   192         dense_1_2_bottleneck_conv2D[0][0]
__________________________________________________________________________________________________
activation_261 (Activation)     (None, 48, 48, 48)   0           dense_1_2_bottleneck_bn[0][0]    
__________________________________________________________________________________________________
dense_1_2_conv2D (Conv2D)       (None, 12, 48, 48)   5184        activation_261[0][0]             
__________________________________________________________________________________________________
concatenate_100 (Concatenate)   (None, 62, 48, 48)   0           concatenate_99[0][0]             
                                                                 dense_1_2_conv2D[0][0]           
__________________________________________________________________________________________________
final_bn (BatchNormalization)   (None, 62, 48, 48)   248         concatenate_100[0][0]            
__________________________________________________________________________________________________
activation_262 (Activation)     (None, 62, 48, 48)   0           final_bn[0][0]                   
__________________________________________________________________________________________________
global_average_pooling2d_31 (Gl (None, 62)           0           activation_262[0][0]             
__________________________________________________________________________________________________
dense_31 (Dense)                (None, 1)            63          global_average_pooling2d_31[0][0]
==================================================================================================
Total params: 44,711
Trainable params: 43,511
Non-trainable params: 1,200
__________________________________________________________________________________________________
Train on 39840 samples, validate on 7440 samples
Epoch 1/40
 - 64s - loss: 0.6448 - acc: 0.7193 - val_loss: 0.5504 - val_acc: 0.8173
…
7072/7440 [===========================>..] - ETA: 0s
7264/7440 [============================>.] - ETA: 0s
7440/7440 [==============================] - 13s 2ms/step
Best saved model Test accuracy: 0.8193548387096774
best saved model auc_score ------------------>  0.8724796580529541
__________________________________________________________________________________________________
Layer (type)                    Output Shape         Param #     Connected to                     
==================================================================================================
input_38 (InputLayer)           (None, 2, 96, 96)    0                                            
__________________________________________________________________________________________________
initial_conv2D (Conv2D)         (None, 16, 96, 96)   288         input_38[0][0]                   
__________________________________________________________________________________________________
dense_0_0_bn (BatchNormalizatio (None, 16, 96, 96)   64          initial_conv2D[0][0]             
__________________________________________________________________________________________________
activation_339 (Activation)     (None, 16, 96, 96)   0           dense_0_0_bn[0][0]               
__________________________________________________________________________________________________
dense_0_0_bottleneck_conv2D (Co (None, 24, 96, 96)   384         activation_339[0][0]             
__________________________________________________________________________________________________
dense_0_0_bottleneck_bn (BatchN (None, 24, 96, 96)   96          dense_0_0_bottleneck_conv2D[0][0]
__________________________________________________________________________________________________
activation_340 (Activation)     (None, 24, 96, 96)   0           dense_0_0_bottleneck_bn[0][0]    
__________________________________________________________________________________________________
dense_0_0_conv2D (Conv2D)       (None, 6, 96, 96)    1296        activation_340[0][0]             
__________________________________________________________________________________________________
concatenate_133 (Concatenate)   (None, 22, 96, 96)   0           initial_conv2D[0][0]             
                                                                 dense_0_0_conv2D[0][0]           
__________________________________________________________________________________________________
dense_0_1_bn (BatchNormalizatio (None, 22, 96, 96)   88          concatenate_133[0][0]            
__________________________________________________________________________________________________
activation_341 (Activation)     (None, 22, 96, 96)   0           dense_0_1_bn[0][0]               
__________________________________________________________________________________________________
dense_0_1_bottleneck_conv2D (Co (None, 24, 96, 96)   528         activation_341[0][0]             
__________________________________________________________________________________________________
dense_0_1_bottleneck_bn (BatchN (None, 24, 96, 96)   96          dense_0_1_bottleneck_conv2D[0][0]
__________________________________________________________________________________________________
activation_342 (Activation)     (None, 24, 96, 96)   0           dense_0_1_bottleneck_bn[0][0]    
__________________________________________________________________________________________________
dense_0_1_conv2D (Conv2D)       (None, 6, 96, 96)    1296        activation_342[0][0]             
__________________________________________________________________________________________________
concatenate_134 (Concatenate)   (None, 28, 96, 96)   0           concatenate_133[0][0]            
                                                                 dense_0_1_conv2D[0][0]           
__________________________________________________________________________________________________
dense_0_2_bn (BatchNormalizatio (None, 28, 96, 96)   112         concatenate_134[0][0]            
__________________________________________________________________________________________________
activation_343 (Activation)     (None, 28, 96, 96)   0           dense_0_2_bn[0][0]               
__________________________________________________________________________________________________
dense_0_2_bottleneck_conv2D (Co (None, 24, 96, 96)   672         activation_343[0][0]             
__________________________________________________________________________________________________
dense_0_2_bottleneck_bn (BatchN (None, 24, 96, 96)   96          dense_0_2_bottleneck_conv2D[0][0]
__________________________________________________________________________________________________
activation_344 (Activation)     (None, 24, 96, 96)   0           dense_0_2_bottleneck_bn[0][0]    
__________________________________________________________________________________________________
dense_0_2_conv2D (Conv2D)       (None, 6, 96, 96)    1296        activation_344[0][0]             
__________________________________________________________________________________________________
concatenate_135 (Concatenate)   (None, 34, 96, 96)   0           concatenate_134[0][0]            
                                                                 dense_0_2_conv2D[0][0]           
__________________________________________________________________________________________________
tr_0_bn (BatchNormalization)    (None, 34, 96, 96)   136         concatenate_135[0][0]            
__________________________________________________________________________________________________
activation_345 (Activation)     (None, 34, 96, 96)   0           tr_0_bn[0][0]                    
__________________________________________________________________________________________________
tr_0_conv2D (Conv2D)            (None, 17, 96, 96)   578         activation_345[0][0]             
__________________________________________________________________________________________________
average_pooling2d_38 (AveragePo (None, 17, 48, 48)   0           tr_0_conv2D[0][0]                
__________________________________________________________________________________________________
dense_1_0_bn (BatchNormalizatio (None, 17, 48, 48)   68          average_pooling2d_38[0][0]       
__________________________________________________________________________________________________
activation_346 (Activation)     (None, 17, 48, 48)   0           dense_1_0_bn[0][0]               
__________________________________________________________________________________________________
dense_1_0_bottleneck_conv2D (Co (None, 24, 48, 48)   408         activation_346[0][0]             
__________________________________________________________________________________________________
dense_1_0_bottleneck_bn (BatchN (None, 24, 48, 48)   96          dense_1_0_bottleneck_conv2D[0][0]
__________________________________________________________________________________________________
activation_347 (Activation)     (None, 24, 48, 48)   0           dense_1_0_bottleneck_bn[0][0]    
__________________________________________________________________________________________________
dense_1_0_conv2D (Conv2D)       (None, 6, 48, 48)    1296        activation_347[0][0]             
__________________________________________________________________________________________________
concatenate_136 (Concatenate)   (None, 23, 48, 48)   0           average_pooling2d_38[0][0]       
                                                                 dense_1_0_conv2D[0][0]           
__________________________________________________________________________________________________
dense_1_1_bn (BatchNormalizatio (None, 23, 48, 48)   92          concatenate_136[0][0]            
__________________________________________________________________________________________________
activation_348 (Activation)     (None, 23, 48, 48)   0           dense_1_1_bn[0][0]               
__________________________________________________________________________________________________
dense_1_1_bottleneck_conv2D (Co (None, 24, 48, 48)   552         activation_348[0][0]             
__________________________________________________________________________________________________
dense_1_1_bottleneck_bn (BatchN (None, 24, 48, 48)   96          dense_1_1_bottleneck_conv2D[0][0]
__________________________________________________________________________________________________
activation_349 (Activation)     (None, 24, 48, 48)   0           dense_1_1_bottleneck_bn[0][0]    
__________________________________________________________________________________________________
dense_1_1_conv2D (Conv2D)       (None, 6, 48, 48)    1296        activation_349[0][0]             
__________________________________________________________________________________________________
concatenate_137 (Concatenate)   (None, 29, 48, 48)   0           concatenate_136[0][0]            
                                                                 dense_1_1_conv2D[0][0]           
__________________________________________________________________________________________________
dense_1_2_bn (BatchNormalizatio (None, 29, 48, 48)   116         concatenate_137[0][0]            
__________________________________________________________________________________________________
activation_350 (Activation)     (None, 29, 48, 48)   0           dense_1_2_bn[0][0]               
__________________________________________________________________________________________________
dense_1_2_bottleneck_conv2D (Co (None, 24, 48, 48)   696         activation_350[0][0]             
__________________________________________________________________________________________________
dense_1_2_bottleneck_bn (BatchN (None, 24, 48, 48)   96          dense_1_2_bottleneck_conv2D[0][0]
__________________________________________________________________________________________________
activation_351 (Activation)     (None, 24, 48, 48)   0           dense_1_2_bottleneck_bn[0][0]    
__________________________________________________________________________________________________
dense_1_2_conv2D (Conv2D)       (None, 6, 48, 48)    1296        activation_351[0][0]             
__________________________________________________________________________________________________
concatenate_138 (Concatenate)   (None, 35, 48, 48)   0           concatenate_137[0][0]            
                                                                 dense_1_2_conv2D[0][0]           
__________________________________________________________________________________________________
final_bn (BatchNormalization)   (None, 35, 48, 48)   140         concatenate_138[0][0]            
__________________________________________________________________________________________________
activation_352 (Activation)     (None, 35, 48, 48)   0           final_bn[0][0]                   
__________________________________________________________________________________________________
global_average_pooling2d_38 (Gl (None, 35)           0           activation_352[0][0]             
__________________________________________________________________________________________________
dense_38 (Dense)                (None, 1)            36          global_average_pooling2d_38[0][0]
==================================================================================================
Total params: 13,310
Trainable params: 12,614
Non-trainable params: 696
__________________________________________________________________________________________________
Train on 39840 samples, validate on 7440 samples
Epoch 1/40
 - 64s - loss: 0.6492 - acc: 0.6793 - val_loss: 0.5545 - val_acc: 0.8368
…
