…
Layers:  [2, 2, 2]  Growth_rate:  30  nb_filter:  16  dropout:  0.2
dense_block:  3  reduction:  0.5  bottleneck:  False
Epochs:  20  batch_size:  64  lr:  1.0  optimizer:  adadelta
 es_patience:  4  lr_patience:  3  pooling:  avg
------------------------	  end of configs        -------------------------
pooling:avg
__________________________________________________________________________________________________
Layer (type)                    Output Shape         Param #     Connected to                     
==================================================================================================
input_1 (InputLayer)            (None, 2, 96, 96)    0                                            
__________________________________________________________________________________________________
initial_conv2D (Conv2D)         (None, 16, 48, 48)   1568        input_1[0][0]                    
__________________________________________________________________________________________________
initial_bn (BatchNormalization) (None, 16, 48, 48)   64          initial_conv2D[0][0]             
__________________________________________________________________________________________________
activation_1 (Activation)       (None, 16, 48, 48)   0           initial_bn[0][0]                 
__________________________________________________________________________________________________
max_pooling2d_1 (MaxPooling2D)  (None, 16, 24, 24)   0           activation_1[0][0]               
__________________________________________________________________________________________________
dense_0_0_bn (BatchNormalizatio (None, 16, 24, 24)   64          max_pooling2d_1[0][0]            
__________________________________________________________________________________________________
activation_2 (Activation)       (None, 16, 24, 24)   0           dense_0_0_bn[0][0]               
__________________________________________________________________________________________________
dense_0_0_conv2D (Conv2D)       (None, 30, 24, 24)   4320        activation_2[0][0]               
__________________________________________________________________________________________________
dropout_1 (Dropout)             (None, 30, 24, 24)   0           dense_0_0_conv2D[0][0]           
__________________________________________________________________________________________________
concatenate_1 (Concatenate)     (None, 46, 24, 24)   0           max_pooling2d_1[0][0]            
                                                                 dropout_1[0][0]                  
__________________________________________________________________________________________________
dense_0_1_bn (BatchNormalizatio (None, 46, 24, 24)   184         concatenate_1[0][0]              
__________________________________________________________________________________________________
activation_3 (Activation)       (None, 46, 24, 24)   0           dense_0_1_bn[0][0]               
__________________________________________________________________________________________________
dense_0_1_conv2D (Conv2D)       (None, 30, 24, 24)   12420       activation_3[0][0]               
__________________________________________________________________________________________________
dropout_2 (Dropout)             (None, 30, 24, 24)   0           dense_0_1_conv2D[0][0]           
__________________________________________________________________________________________________
concatenate_2 (Concatenate)     (None, 76, 24, 24)   0           concatenate_1[0][0]              
                                                                 dropout_2[0][0]                  
__________________________________________________________________________________________________
tr_0_bn (BatchNormalization)    (None, 76, 24, 24)   304         concatenate_2[0][0]              
__________________________________________________________________________________________________
activation_4 (Activation)       (None, 76, 24, 24)   0           tr_0_bn[0][0]                    
__________________________________________________________________________________________________
tr_0_conv2D (Conv2D)            (None, 38, 24, 24)   2888        activation_4[0][0]               
__________________________________________________________________________________________________
average_pooling2d_1 (AveragePoo (None, 38, 12, 12)   0           tr_0_conv2D[0][0]                
__________________________________________________________________________________________________
dense_1_0_bn (BatchNormalizatio (None, 38, 12, 12)   152         average_pooling2d_1[0][0]        
__________________________________________________________________________________________________
activation_5 (Activation)       (None, 38, 12, 12)   0           dense_1_0_bn[0][0]               
__________________________________________________________________________________________________
dense_1_0_conv2D (Conv2D)       (None, 30, 12, 12)   10260       activation_5[0][0]               
__________________________________________________________________________________________________
dropout_3 (Dropout)             (None, 30, 12, 12)   0           dense_1_0_conv2D[0][0]           
__________________________________________________________________________________________________
concatenate_3 (Concatenate)     (None, 68, 12, 12)   0           average_pooling2d_1[0][0]        
                                                                 dropout_3[0][0]                  
__________________________________________________________________________________________________
dense_1_1_bn (BatchNormalizatio (None, 68, 12, 12)   272         concatenate_3[0][0]              
__________________________________________________________________________________________________
activation_6 (Activation)       (None, 68, 12, 12)   0           dense_1_1_bn[0][0]               
__________________________________________________________________________________________________
dense_1_1_conv2D (Conv2D)       (None, 30, 12, 12)   18360       activation_6[0][0]               
__________________________________________________________________________________________________
dropout_4 (Dropout)             (None, 30, 12, 12)   0           dense_1_1_conv2D[0][0]           
__________________________________________________________________________________________________
concatenate_4 (Concatenate)     (None, 98, 12, 12)   0           concatenate_3[0][0]              
                                                                 dropout_4[0][0]                  
__________________________________________________________________________________________________
tr_1_bn (BatchNormalization)    (None, 98, 12, 12)   392         concatenate_4[0][0]              
__________________________________________________________________________________________________
activation_7 (Activation)       (None, 98, 12, 12)   0           tr_1_bn[0][0]                    
__________________________________________________________________________________________________
tr_1_conv2D (Conv2D)            (None, 49, 12, 12)   4802        activation_7[0][0]               
__________________________________________________________________________________________________
average_pooling2d_2 (AveragePoo (None, 49, 6, 6)     0           tr_1_conv2D[0][0]                
__________________________________________________________________________________________________
dense_2_0_bn (BatchNormalizatio (None, 49, 6, 6)     196         average_pooling2d_2[0][0]        
__________________________________________________________________________________________________
activation_8 (Activation)       (None, 49, 6, 6)     0           dense_2_0_bn[0][0]               
__________________________________________________________________________________________________
dense_2_0_conv2D (Conv2D)       (None, 30, 6, 6)     13230       activation_8[0][0]               
__________________________________________________________________________________________________
dropout_5 (Dropout)             (None, 30, 6, 6)     0           dense_2_0_conv2D[0][0]           
__________________________________________________________________________________________________
concatenate_5 (Concatenate)     (None, 79, 6, 6)     0           average_pooling2d_2[0][0]        
                                                                 dropout_5[0][0]                  
__________________________________________________________________________________________________
dense_2_1_bn (BatchNormalizatio (None, 79, 6, 6)     316         concatenate_5[0][0]              
__________________________________________________________________________________________________
activation_9 (Activation)       (None, 79, 6, 6)     0           dense_2_1_bn[0][0]               
__________________________________________________________________________________________________
dense_2_1_conv2D (Conv2D)       (None, 30, 6, 6)     21330       activation_9[0][0]               
__________________________________________________________________________________________________
dropout_6 (Dropout)             (None, 30, 6, 6)     0           dense_2_1_conv2D[0][0]           
__________________________________________________________________________________________________
concatenate_6 (Concatenate)     (None, 109, 6, 6)    0           concatenate_5[0][0]              
                                                                 dropout_6[0][0]                  
__________________________________________________________________________________________________
final_bn (BatchNormalization)   (None, 109, 6, 6)    436         concatenate_6[0][0]              
__________________________________________________________________________________________________
activation_10 (Activation)      (None, 109, 6, 6)    0           final_bn[0][0]                   
__________________________________________________________________________________________________
global_average_pooling2d_1 (Glo (None, 109)          0           activation_10[0][0]              
__________________________________________________________________________________________________
dense_1 (Dense)                 (None, 1)            110         global_average_pooling2d_1[0][0] 
==================================================================================================
Total params: 91,668
Trainable params: 90,478
Non-trainable params: 1,190
__________________________________________________________________________________________________
Finished compiling
Train on 39840 samples, validate on 7968 samples
Epoch 1/20
 - 24s - loss: 0.3884 - acc: 0.8208 - val_loss: 0.3776 - val_acc: 0.8237
…
