…
------------------------ current config for the test -------------------------
Layers:  [4, 4, 4]  Growth_rate:  6  nb_filter:  16  dropout:  0.2
dense_block  3  reduction_:  0.5  bottleneck:  True
------------------------	  end of configs        -------------------------
pooling:flatten
__________________________________________________________________________________________________
Layer (type)                    Output Shape         Param #     Connected to                     
==================================================================================================
input_1 (InputLayer)            (None, 1, 96, 96)    0                                            
__________________________________________________________________________________________________
initial_conv2D (Conv2D)         (None, 16, 48, 48)   784         input_1[0][0]                    
__________________________________________________________________________________________________
initial_bn (BatchNormalization) (None, 16, 48, 48)   64          initial_conv2D[0][0]             
__________________________________________________________________________________________________
activation_1 (Activation)       (None, 16, 48, 48)   0           initial_bn[0][0]                 
__________________________________________________________________________________________________
max_pooling2d_1 (MaxPooling2D)  (None, 16, 24, 24)   0           activation_1[0][0]               
__________________________________________________________________________________________________
dense_0_0_bn (BatchNormalizatio (None, 16, 24, 24)   64          max_pooling2d_1[0][0]            
__________________________________________________________________________________________________
activation_2 (Activation)       (None, 16, 24, 24)   0           dense_0_0_bn[0][0]               
__________________________________________________________________________________________________
dense_0_0_bottleneck_conv2D (Co (None, 24, 24, 24)   384         activation_2[0][0]               
__________________________________________________________________________________________________
dense_0_0_bottleneck_bn (BatchN (None, 24, 24, 24)   96          dense_0_0_bottleneck_conv2D[0][0]
__________________________________________________________________________________________________
activation_3 (Activation)       (None, 24, 24, 24)   0           dense_0_0_bottleneck_bn[0][0]    
__________________________________________________________________________________________________
dense_0_0_conv2D (Conv2D)       (None, 6, 24, 24)    1296        activation_3[0][0]               
__________________________________________________________________________________________________
dropout_1 (Dropout)             (None, 6, 24, 24)    0           dense_0_0_conv2D[0][0]           
__________________________________________________________________________________________________
concatenate_1 (Concatenate)     (None, 22, 24, 24)   0           max_pooling2d_1[0][0]            
                                                                 dropout_1[0][0]                  
__________________________________________________________________________________________________
dense_0_1_bn (BatchNormalizatio (None, 22, 24, 24)   88          concatenate_1[0][0]              
__________________________________________________________________________________________________
activation_4 (Activation)       (None, 22, 24, 24)   0           dense_0_1_bn[0][0]               
__________________________________________________________________________________________________
dense_0_1_bottleneck_conv2D (Co (None, 24, 24, 24)   528         activation_4[0][0]               
__________________________________________________________________________________________________
dense_0_1_bottleneck_bn (BatchN (None, 24, 24, 24)   96          dense_0_1_bottleneck_conv2D[0][0]
__________________________________________________________________________________________________
activation_5 (Activation)       (None, 24, 24, 24)   0           dense_0_1_bottleneck_bn[0][0]    
__________________________________________________________________________________________________
dense_0_1_conv2D (Conv2D)       (None, 6, 24, 24)    1296        activation_5[0][0]               
__________________________________________________________________________________________________
dropout_2 (Dropout)             (None, 6, 24, 24)    0           dense_0_1_conv2D[0][0]           
__________________________________________________________________________________________________
concatenate_2 (Concatenate)     (None, 28, 24, 24)   0           concatenate_1[0][0]              
                                                                 dropout_2[0][0]                  
__________________________________________________________________________________________________
dense_0_2_bn (BatchNormalizatio (None, 28, 24, 24)   112         concatenate_2[0][0]              
__________________________________________________________________________________________________
activation_6 (Activation)       (None, 28, 24, 24)   0           dense_0_2_bn[0][0]               
__________________________________________________________________________________________________
dense_0_2_bottleneck_conv2D (Co (None, 24, 24, 24)   672         activation_6[0][0]               
__________________________________________________________________________________________________
dense_0_2_bottleneck_bn (BatchN (None, 24, 24, 24)   96          dense_0_2_bottleneck_conv2D[0][0]
__________________________________________________________________________________________________
activation_7 (Activation)       (None, 24, 24, 24)   0           dense_0_2_bottleneck_bn[0][0]    
__________________________________________________________________________________________________
dense_0_2_conv2D (Conv2D)       (None, 6, 24, 24)    1296        activation_7[0][0]               
__________________________________________________________________________________________________
dropout_3 (Dropout)             (None, 6, 24, 24)    0           dense_0_2_conv2D[0][0]           
__________________________________________________________________________________________________
concatenate_3 (Concatenate)     (None, 34, 24, 24)   0           concatenate_2[0][0]              
                                                                 dropout_3[0][0]                  
__________________________________________________________________________________________________
dense_0_3_bn (BatchNormalizatio (None, 34, 24, 24)   136         concatenate_3[0][0]              
__________________________________________________________________________________________________
activation_8 (Activation)       (None, 34, 24, 24)   0           dense_0_3_bn[0][0]               
__________________________________________________________________________________________________
dense_0_3_bottleneck_conv2D (Co (None, 24, 24, 24)   816         activation_8[0][0]               
__________________________________________________________________________________________________
dense_0_3_bottleneck_bn (BatchN (None, 24, 24, 24)   96          dense_0_3_bottleneck_conv2D[0][0]
__________________________________________________________________________________________________
activation_9 (Activation)       (None, 24, 24, 24)   0           dense_0_3_bottleneck_bn[0][0]    
__________________________________________________________________________________________________
dense_0_3_conv2D (Conv2D)       (None, 6, 24, 24)    1296        activation_9[0][0]               
__________________________________________________________________________________________________
dropout_4 (Dropout)             (None, 6, 24, 24)    0           dense_0_3_conv2D[0][0]           
__________________________________________________________________________________________________
concatenate_4 (Concatenate)     (None, 40, 24, 24)   0           concatenate_3[0][0]              
                                                                 dropout_4[0][0]                  
__________________________________________________________________________________________________
tr_0_bn (BatchNormalization)    (None, 40, 24, 24)   160         concatenate_4[0][0]              
__________________________________________________________________________________________________
activation_10 (Activation)      (None, 40, 24, 24)   0           tr_0_bn[0][0]                    
__________________________________________________________________________________________________
tr_0_conv2D (Conv2D)            (None, 20, 24, 24)   800         activation_10[0][0]              
__________________________________________________________________________________________________
max_pooling2d_2 (MaxPooling2D)  (None, 20, 12, 12)   0           tr_0_conv2D[0][0]                
__________________________________________________________________________________________________
dense_1_0_bn (BatchNormalizatio (None, 20, 12, 12)   80          max_pooling2d_2[0][0]            
__________________________________________________________________________________________________
activation_11 (Activation)      (None, 20, 12, 12)   0           dense_1_0_bn[0][0]               
__________________________________________________________________________________________________
dense_1_0_bottleneck_conv2D (Co (None, 24, 12, 12)   480         activation_11[0][0]              
__________________________________________________________________________________________________
dense_1_0_bottleneck_bn (BatchN (None, 24, 12, 12)   96          dense_1_0_bottleneck_conv2D[0][0]
__________________________________________________________________________________________________
activation_12 (Activation)      (None, 24, 12, 12)   0           dense_1_0_bottleneck_bn[0][0]    
__________________________________________________________________________________________________
dense_1_0_conv2D (Conv2D)       (None, 6, 12, 12)    1296        activation_12[0][0]              
__________________________________________________________________________________________________
dropout_5 (Dropout)             (None, 6, 12, 12)    0           dense_1_0_conv2D[0][0]           
__________________________________________________________________________________________________
concatenate_5 (Concatenate)     (None, 26, 12, 12)   0           max_pooling2d_2[0][0]            
                                                                 dropout_5[0][0]                  
__________________________________________________________________________________________________
dense_1_1_bn (BatchNormalizatio (None, 26, 12, 12)   104         concatenate_5[0][0]              
__________________________________________________________________________________________________
activation_13 (Activation)      (None, 26, 12, 12)   0           dense_1_1_bn[0][0]               
__________________________________________________________________________________________________
dense_1_1_bottleneck_conv2D (Co (None, 24, 12, 12)   624         activation_13[0][0]              
__________________________________________________________________________________________________
dense_1_1_bottleneck_bn (BatchN (None, 24, 12, 12)   96          dense_1_1_bottleneck_conv2D[0][0]
__________________________________________________________________________________________________
activation_14 (Activation)      (None, 24, 12, 12)   0           dense_1_1_bottleneck_bn[0][0]    
__________________________________________________________________________________________________
dense_1_1_conv2D (Conv2D)       (None, 6, 12, 12)    1296        activation_14[0][0]              
__________________________________________________________________________________________________
dropout_6 (Dropout)             (None, 6, 12, 12)    0           dense_1_1_conv2D[0][0]           
__________________________________________________________________________________________________
concatenate_6 (Concatenate)     (None, 32, 12, 12)   0           concatenate_5[0][0]              
                                                                 dropout_6[0][0]                  
__________________________________________________________________________________________________
dense_1_2_bn (BatchNormalizatio (None, 32, 12, 12)   128         concatenate_6[0][0]              
__________________________________________________________________________________________________
activation_15 (Activation)      (None, 32, 12, 12)   0           dense_1_2_bn[0][0]               
__________________________________________________________________________________________________
dense_1_2_bottleneck_conv2D (Co (None, 24, 12, 12)   768         activation_15[0][0]              
__________________________________________________________________________________________________
dense_1_2_bottleneck_bn (BatchN (None, 24, 12, 12)   96          dense_1_2_bottleneck_conv2D[0][0]
__________________________________________________________________________________________________
activation_16 (Activation)      (None, 24, 12, 12)   0           dense_1_2_bottleneck_bn[0][0]    
__________________________________________________________________________________________________
dense_1_2_conv2D (Conv2D)       (None, 6, 12, 12)    1296        activation_16[0][0]              
__________________________________________________________________________________________________
dropout_7 (Dropout)             (None, 6, 12, 12)    0           dense_1_2_conv2D[0][0]           
__________________________________________________________________________________________________
concatenate_7 (Concatenate)     (None, 38, 12, 12)   0           concatenate_6[0][0]              
                                                                 dropout_7[0][0]                  
__________________________________________________________________________________________________
dense_1_3_bn (BatchNormalizatio (None, 38, 12, 12)   152         concatenate_7[0][0]              
__________________________________________________________________________________________________
activation_17 (Activation)      (None, 38, 12, 12)   0           dense_1_3_bn[0][0]               
__________________________________________________________________________________________________
dense_1_3_bottleneck_conv2D (Co (None, 24, 12, 12)   912         activation_17[0][0]              
__________________________________________________________________________________________________
dense_1_3_bottleneck_bn (BatchN (None, 24, 12, 12)   96          dense_1_3_bottleneck_conv2D[0][0]
__________________________________________________________________________________________________
activation_18 (Activation)      (None, 24, 12, 12)   0           dense_1_3_bottleneck_bn[0][0]    
__________________________________________________________________________________________________
dense_1_3_conv2D (Conv2D)       (None, 6, 12, 12)    1296        activation_18[0][0]              
__________________________________________________________________________________________________
dropout_8 (Dropout)             (None, 6, 12, 12)    0           dense_1_3_conv2D[0][0]           
__________________________________________________________________________________________________
concatenate_8 (Concatenate)     (None, 44, 12, 12)   0           concatenate_7[0][0]              
                                                                 dropout_8[0][0]                  
__________________________________________________________________________________________________
tr_1_bn (BatchNormalization)    (None, 44, 12, 12)   176         concatenate_8[0][0]              
__________________________________________________________________________________________________
activation_19 (Activation)      (None, 44, 12, 12)   0           tr_1_bn[0][0]                    
__________________________________________________________________________________________________
tr_1_conv2D (Conv2D)            (None, 22, 12, 12)   968         activation_19[0][0]              
__________________________________________________________________________________________________
max_pooling2d_3 (MaxPooling2D)  (None, 22, 6, 6)     0           tr_1_conv2D[0][0]                
__________________________________________________________________________________________________
dense_2_0_bn (BatchNormalizatio (None, 22, 6, 6)     88          max_pooling2d_3[0][0]            
__________________________________________________________________________________________________
activation_20 (Activation)      (None, 22, 6, 6)     0           dense_2_0_bn[0][0]               
__________________________________________________________________________________________________
dense_2_0_bottleneck_conv2D (Co (None, 24, 6, 6)     528         activation_20[0][0]              
__________________________________________________________________________________________________
dense_2_0_bottleneck_bn (BatchN (None, 24, 6, 6)     96          dense_2_0_bottleneck_conv2D[0][0]
__________________________________________________________________________________________________
activation_21 (Activation)      (None, 24, 6, 6)     0           dense_2_0_bottleneck_bn[0][0]    
__________________________________________________________________________________________________
dense_2_0_conv2D (Conv2D)       (None, 6, 6, 6)      1296        activation_21[0][0]              
__________________________________________________________________________________________________
dropout_9 (Dropout)             (None, 6, 6, 6)      0           dense_2_0_conv2D[0][0]           
__________________________________________________________________________________________________
concatenate_9 (Concatenate)     (None, 28, 6, 6)     0           max_pooling2d_3[0][0]            
                                                                 dropout_9[0][0]                  
__________________________________________________________________________________________________
dense_2_1_bn (BatchNormalizatio (None, 28, 6, 6)     112         concatenate_9[0][0]              
__________________________________________________________________________________________________
activation_22 (Activation)      (None, 28, 6, 6)     0           dense_2_1_bn[0][0]               
__________________________________________________________________________________________________
dense_2_1_bottleneck_conv2D (Co (None, 24, 6, 6)     672         activation_22[0][0]              
__________________________________________________________________________________________________
dense_2_1_bottleneck_bn (BatchN (None, 24, 6, 6)     96          dense_2_1_bottleneck_conv2D[0][0]
__________________________________________________________________________________________________
activation_23 (Activation)      (None, 24, 6, 6)     0           dense_2_1_bottleneck_bn[0][0]    
__________________________________________________________________________________________________
dense_2_1_conv2D (Conv2D)       (None, 6, 6, 6)      1296        activation_23[0][0]              
__________________________________________________________________________________________________
dropout_10 (Dropout)            (None, 6, 6, 6)      0           dense_2_1_conv2D[0][0]           
__________________________________________________________________________________________________
concatenate_10 (Concatenate)    (None, 34, 6, 6)     0           concatenate_9[0][0]              
                                                                 dropout_10[0][0]                 
__________________________________________________________________________________________________
dense_2_2_bn (BatchNormalizatio (None, 34, 6, 6)     136         concatenate_10[0][0]             
__________________________________________________________________________________________________
activation_24 (Activation)      (None, 34, 6, 6)     0           dense_2_2_bn[0][0]               
__________________________________________________________________________________________________
dense_2_2_bottleneck_conv2D (Co (None, 24, 6, 6)     816         activation_24[0][0]              
__________________________________________________________________________________________________
dense_2_2_bottleneck_bn (BatchN (None, 24, 6, 6)     96          dense_2_2_bottleneck_conv2D[0][0]
__________________________________________________________________________________________________
activation_25 (Activation)      (None, 24, 6, 6)     0           dense_2_2_bottleneck_bn[0][0]    
__________________________________________________________________________________________________
dense_2_2_conv2D (Conv2D)       (None, 6, 6, 6)      1296        activation_25[0][0]              
__________________________________________________________________________________________________
dropout_11 (Dropout)            (None, 6, 6, 6)      0           dense_2_2_conv2D[0][0]           
__________________________________________________________________________________________________
concatenate_11 (Concatenate)    (None, 40, 6, 6)     0           concatenate_10[0][0]             
                                                                 dropout_11[0][0]                 
__________________________________________________________________________________________________
dense_2_3_bn (BatchNormalizatio (None, 40, 6, 6)     160         concatenate_11[0][0]             
__________________________________________________________________________________________________
activation_26 (Activation)      (None, 40, 6, 6)     0           dense_2_3_bn[0][0]               
__________________________________________________________________________________________________
dense_2_3_bottleneck_conv2D (Co (None, 24, 6, 6)     960         activation_26[0][0]              
__________________________________________________________________________________________________
dense_2_3_bottleneck_bn (BatchN (None, 24, 6, 6)     96          dense_2_3_bottleneck_conv2D[0][0]
__________________________________________________________________________________________________
activation_27 (Activation)      (None, 24, 6, 6)     0           dense_2_3_bottleneck_bn[0][0]    
__________________________________________________________________________________________________
dense_2_3_conv2D (Conv2D)       (None, 6, 6, 6)      1296        activation_27[0][0]              
__________________________________________________________________________________________________
dropout_12 (Dropout)            (None, 6, 6, 6)      0           dense_2_3_conv2D[0][0]           
__________________________________________________________________________________________________
concatenate_12 (Concatenate)    (None, 46, 6, 6)     0           concatenate_11[0][0]             
                                                                 dropout_12[0][0]                 
__________________________________________________________________________________________________
final_bn (BatchNormalization)   (None, 46, 6, 6)     184         concatenate_12[0][0]             
__________________________________________________________________________________________________
activation_28 (Activation)      (None, 46, 6, 6)     0           final_bn[0][0]                   
__________________________________________________________________________________________________
flatten_1 (Flatten)             (None, 1656)         0           activation_28[0][0]              
==================================================================================================
Total params: 29,360
Trainable params: 27,812
Non-trainable params: 1,548
__________________________________________________________________________________________________
__________________________________________________________________________________________________
Layer (type)                    Output Shape         Param #     Connected to                     
==================================================================================================
input_2 (InputLayer)            (None, 1, 96, 96)    0                                            
__________________________________________________________________________________________________
input_3 (InputLayer)            (None, 1, 96, 96)    0                                            
__________________________________________________________________________________________________
densenet (Model)                (None, 1656)         29360       input_2[0][0]                    
                                                                 input_3[0][0]                    
__________________________________________________________________________________________________
merge_features (Concatenate)    (None, 3312)         0           densenet[1][0]                   
                                                                 densenet[2][0]                   
__________________________________________________________________________________________________
dense_1 (Dense)                 (None, 512)          1696256     merge_features[0][0]             
__________________________________________________________________________________________________
activation_29 (Activation)      (None, 512)          0           dense_1[0][0]                    
__________________________________________________________________________________________________
batch_normalization_1 (BatchNor (None, 512)          2048        activation_29[0][0]              
__________________________________________________________________________________________________
dropout_13 (Dropout)            (None, 512)          0           batch_normalization_1[0][0]      
__________________________________________________________________________________________________
dense_2 (Dense)                 (None, 1)            513         dropout_13[0][0]                 
==================================================================================================
Total params: 1,728,177
Trainable params: 1,725,605
Non-trainable params: 2,572
__________________________________________________________________________________________________
Finished compiling
Train on 31872 samples, validate on 7968 samples
Epoch 1/7
 - 75s - loss: 0.5821 - acc: 0.7682 - val_loss: 1.0698 - val_acc: 0.5543
…
------------------------ current config for the test -------------------------
Layers:  [4, 4, 4]  Growth_rate:  12  nb_filter:  16  dropout:  0.2
dense_block  3  reduction_:  0.5  bottleneck:  True
------------------------	  end of configs        -------------------------
pooling:flatten
__________________________________________________________________________________________________
Layer (type)                    Output Shape         Param #     Connected to                     
==================================================================================================
input_1 (InputLayer)            (None, 1, 96, 96)    0                                            
__________________________________________________________________________________________________
initial_conv2D (Conv2D)         (None, 16, 48, 48)   784         input_1[0][0]                    
__________________________________________________________________________________________________
initial_bn (BatchNormalization) (None, 16, 48, 48)   64          initial_conv2D[0][0]             
__________________________________________________________________________________________________
activation_1 (Activation)       (None, 16, 48, 48)   0           initial_bn[0][0]                 
__________________________________________________________________________________________________
max_pooling2d_1 (MaxPooling2D)  (None, 16, 24, 24)   0           activation_1[0][0]               
__________________________________________________________________________________________________
dense_0_0_bn (BatchNormalizatio (None, 16, 24, 24)   64          max_pooling2d_1[0][0]            
__________________________________________________________________________________________________
activation_2 (Activation)       (None, 16, 24, 24)   0           dense_0_0_bn[0][0]               
__________________________________________________________________________________________________
dense_0_0_bottleneck_conv2D (Co (None, 48, 24, 24)   768         activation_2[0][0]               
__________________________________________________________________________________________________
dense_0_0_bottleneck_bn (BatchN (None, 48, 24, 24)   192         dense_0_0_bottleneck_conv2D[0][0]
__________________________________________________________________________________________________
activation_3 (Activation)       (None, 48, 24, 24)   0           dense_0_0_bottleneck_bn[0][0]    
__________________________________________________________________________________________________
dense_0_0_conv2D (Conv2D)       (None, 12, 24, 24)   5184        activation_3[0][0]               
__________________________________________________________________________________________________
dropout_1 (Dropout)             (None, 12, 24, 24)   0           dense_0_0_conv2D[0][0]           
__________________________________________________________________________________________________
concatenate_1 (Concatenate)     (None, 28, 24, 24)   0           max_pooling2d_1[0][0]            
                                                                 dropout_1[0][0]                  
__________________________________________________________________________________________________
dense_0_1_bn (BatchNormalizatio (None, 28, 24, 24)   112         concatenate_1[0][0]              
__________________________________________________________________________________________________
activation_4 (Activation)       (None, 28, 24, 24)   0           dense_0_1_bn[0][0]               
__________________________________________________________________________________________________
dense_0_1_bottleneck_conv2D (Co (None, 48, 24, 24)   1344        activation_4[0][0]               
__________________________________________________________________________________________________
dense_0_1_bottleneck_bn (BatchN (None, 48, 24, 24)   192         dense_0_1_bottleneck_conv2D[0][0]
__________________________________________________________________________________________________
activation_5 (Activation)       (None, 48, 24, 24)   0           dense_0_1_bottleneck_bn[0][0]    
__________________________________________________________________________________________________
dense_0_1_conv2D (Conv2D)       (None, 12, 24, 24)   5184        activation_5[0][0]               
__________________________________________________________________________________________________
dropout_2 (Dropout)             (None, 12, 24, 24)   0           dense_0_1_conv2D[0][0]           
__________________________________________________________________________________________________
concatenate_2 (Concatenate)     (None, 40, 24, 24)   0           concatenate_1[0][0]              
                                                                 dropout_2[0][0]                  
__________________________________________________________________________________________________
dense_0_2_bn (BatchNormalizatio (None, 40, 24, 24)   160         concatenate_2[0][0]              
__________________________________________________________________________________________________
activation_6 (Activation)       (None, 40, 24, 24)   0           dense_0_2_bn[0][0]               
__________________________________________________________________________________________________
dense_0_2_bottleneck_conv2D (Co (None, 48, 24, 24)   1920        activation_6[0][0]               
__________________________________________________________________________________________________
dense_0_2_bottleneck_bn (BatchN (None, 48, 24, 24)   192         dense_0_2_bottleneck_conv2D[0][0]
__________________________________________________________________________________________________
activation_7 (Activation)       (None, 48, 24, 24)   0           dense_0_2_bottleneck_bn[0][0]    
__________________________________________________________________________________________________
dense_0_2_conv2D (Conv2D)       (None, 12, 24, 24)   5184        activation_7[0][0]               
__________________________________________________________________________________________________
dropout_3 (Dropout)             (None, 12, 24, 24)   0           dense_0_2_conv2D[0][0]           
__________________________________________________________________________________________________
concatenate_3 (Concatenate)     (None, 52, 24, 24)   0           concatenate_2[0][0]              
                                                                 dropout_3[0][0]                  
__________________________________________________________________________________________________
dense_0_3_bn (BatchNormalizatio (None, 52, 24, 24)   208         concatenate_3[0][0]              
__________________________________________________________________________________________________
activation_8 (Activation)       (None, 52, 24, 24)   0           dense_0_3_bn[0][0]               
__________________________________________________________________________________________________
dense_0_3_bottleneck_conv2D (Co (None, 48, 24, 24)   2496        activation_8[0][0]               
__________________________________________________________________________________________________
dense_0_3_bottleneck_bn (BatchN (None, 48, 24, 24)   192         dense_0_3_bottleneck_conv2D[0][0]
__________________________________________________________________________________________________
activation_9 (Activation)       (None, 48, 24, 24)   0           dense_0_3_bottleneck_bn[0][0]    
__________________________________________________________________________________________________
dense_0_3_conv2D (Conv2D)       (None, 12, 24, 24)   5184        activation_9[0][0]               
__________________________________________________________________________________________________
dropout_4 (Dropout)             (None, 12, 24, 24)   0           dense_0_3_conv2D[0][0]           
__________________________________________________________________________________________________
concatenate_4 (Concatenate)     (None, 64, 24, 24)   0           concatenate_3[0][0]              
                                                                 dropout_4[0][0]                  
__________________________________________________________________________________________________
tr_0_bn (BatchNormalization)    (None, 64, 24, 24)   256         concatenate_4[0][0]              
__________________________________________________________________________________________________
activation_10 (Activation)      (None, 64, 24, 24)   0           tr_0_bn[0][0]                    
__________________________________________________________________________________________________
tr_0_conv2D (Conv2D)            (None, 32, 24, 24)   2048        activation_10[0][0]              
__________________________________________________________________________________________________
max_pooling2d_2 (MaxPooling2D)  (None, 32, 12, 12)   0           tr_0_conv2D[0][0]                
__________________________________________________________________________________________________
dense_1_0_bn (BatchNormalizatio (None, 32, 12, 12)   128         max_pooling2d_2[0][0]            
__________________________________________________________________________________________________
activation_11 (Activation)      (None, 32, 12, 12)   0           dense_1_0_bn[0][0]               
__________________________________________________________________________________________________
dense_1_0_bottleneck_conv2D (Co (None, 48, 12, 12)   1536        activation_11[0][0]              
__________________________________________________________________________________________________
dense_1_0_bottleneck_bn (BatchN (None, 48, 12, 12)   192         dense_1_0_bottleneck_conv2D[0][0]
__________________________________________________________________________________________________
activation_12 (Activation)      (None, 48, 12, 12)   0           dense_1_0_bottleneck_bn[0][0]    
__________________________________________________________________________________________________
dense_1_0_conv2D (Conv2D)       (None, 12, 12, 12)   5184        activation_12[0][0]              
__________________________________________________________________________________________________
dropout_5 (Dropout)             (None, 12, 12, 12)   0           dense_1_0_conv2D[0][0]           
__________________________________________________________________________________________________
concatenate_5 (Concatenate)     (None, 44, 12, 12)   0           max_pooling2d_2[0][0]            
                                                                 dropout_5[0][0]                  
__________________________________________________________________________________________________
dense_1_1_bn (BatchNormalizatio (None, 44, 12, 12)   176         concatenate_5[0][0]              
__________________________________________________________________________________________________
activation_13 (Activation)      (None, 44, 12, 12)   0           dense_1_1_bn[0][0]               
__________________________________________________________________________________________________
dense_1_1_bottleneck_conv2D (Co (None, 48, 12, 12)   2112        activation_13[0][0]              
__________________________________________________________________________________________________
dense_1_1_bottleneck_bn (BatchN (None, 48, 12, 12)   192         dense_1_1_bottleneck_conv2D[0][0]
__________________________________________________________________________________________________
activation_14 (Activation)      (None, 48, 12, 12)   0           dense_1_1_bottleneck_bn[0][0]    
__________________________________________________________________________________________________
dense_1_1_conv2D (Conv2D)       (None, 12, 12, 12)   5184        activation_14[0][0]              
__________________________________________________________________________________________________
dropout_6 (Dropout)             (None, 12, 12, 12)   0           dense_1_1_conv2D[0][0]           
__________________________________________________________________________________________________
concatenate_6 (Concatenate)     (None, 56, 12, 12)   0           concatenate_5[0][0]              
                                                                 dropout_6[0][0]                  
__________________________________________________________________________________________________
dense_1_2_bn (BatchNormalizatio (None, 56, 12, 12)   224         concatenate_6[0][0]              
__________________________________________________________________________________________________
activation_15 (Activation)      (None, 56, 12, 12)   0           dense_1_2_bn[0][0]               
__________________________________________________________________________________________________
dense_1_2_bottleneck_conv2D (Co (None, 48, 12, 12)   2688        activation_15[0][0]              
__________________________________________________________________________________________________
dense_1_2_bottleneck_bn (BatchN (None, 48, 12, 12)   192         dense_1_2_bottleneck_conv2D[0][0]
__________________________________________________________________________________________________
activation_16 (Activation)      (None, 48, 12, 12)   0           dense_1_2_bottleneck_bn[0][0]    
__________________________________________________________________________________________________
dense_1_2_conv2D (Conv2D)       (None, 12, 12, 12)   5184        activation_16[0][0]              
__________________________________________________________________________________________________
dropout_7 (Dropout)             (None, 12, 12, 12)   0           dense_1_2_conv2D[0][0]           
__________________________________________________________________________________________________
concatenate_7 (Concatenate)     (None, 68, 12, 12)   0           concatenate_6[0][0]              
                                                                 dropout_7[0][0]                  
__________________________________________________________________________________________________
dense_1_3_bn (BatchNormalizatio (None, 68, 12, 12)   272         concatenate_7[0][0]              
__________________________________________________________________________________________________
activation_17 (Activation)      (None, 68, 12, 12)   0           dense_1_3_bn[0][0]               
__________________________________________________________________________________________________
dense_1_3_bottleneck_conv2D (Co (None, 48, 12, 12)   3264        activation_17[0][0]              
__________________________________________________________________________________________________
dense_1_3_bottleneck_bn (BatchN (None, 48, 12, 12)   192         dense_1_3_bottleneck_conv2D[0][0]
__________________________________________________________________________________________________
activation_18 (Activation)      (None, 48, 12, 12)   0           dense_1_3_bottleneck_bn[0][0]    
__________________________________________________________________________________________________
dense_1_3_conv2D (Conv2D)       (None, 12, 12, 12)   5184        activation_18[0][0]              
__________________________________________________________________________________________________
dropout_8 (Dropout)             (None, 12, 12, 12)   0           dense_1_3_conv2D[0][0]           
__________________________________________________________________________________________________
concatenate_8 (Concatenate)     (None, 80, 12, 12)   0           concatenate_7[0][0]              
                                                                 dropout_8[0][0]                  
__________________________________________________________________________________________________
tr_1_bn (BatchNormalization)    (None, 80, 12, 12)   320         concatenate_8[0][0]              
__________________________________________________________________________________________________
activation_19 (Activation)      (None, 80, 12, 12)   0           tr_1_bn[0][0]                    
__________________________________________________________________________________________________
tr_1_conv2D (Conv2D)            (None, 40, 12, 12)   3200        activation_19[0][0]              
__________________________________________________________________________________________________
max_pooling2d_3 (MaxPooling2D)  (None, 40, 6, 6)     0           tr_1_conv2D[0][0]                
__________________________________________________________________________________________________
dense_2_0_bn (BatchNormalizatio (None, 40, 6, 6)     160         max_pooling2d_3[0][0]            
__________________________________________________________________________________________________
activation_20 (Activation)      (None, 40, 6, 6)     0           dense_2_0_bn[0][0]               
__________________________________________________________________________________________________
dense_2_0_bottleneck_conv2D (Co (None, 48, 6, 6)     1920        activation_20[0][0]              
__________________________________________________________________________________________________
dense_2_0_bottleneck_bn (BatchN (None, 48, 6, 6)     192         dense_2_0_bottleneck_conv2D[0][0]
__________________________________________________________________________________________________
activation_21 (Activation)      (None, 48, 6, 6)     0           dense_2_0_bottleneck_bn[0][0]    
__________________________________________________________________________________________________
dense_2_0_conv2D (Conv2D)       (None, 12, 6, 6)     5184        activation_21[0][0]              
__________________________________________________________________________________________________
dropout_9 (Dropout)             (None, 12, 6, 6)     0           dense_2_0_conv2D[0][0]           
__________________________________________________________________________________________________
concatenate_9 (Concatenate)     (None, 52, 6, 6)     0           max_pooling2d_3[0][0]            
                                                                 dropout_9[0][0]                  
__________________________________________________________________________________________________
dense_2_1_bn (BatchNormalizatio (None, 52, 6, 6)     208         concatenate_9[0][0]              
__________________________________________________________________________________________________
activation_22 (Activation)      (None, 52, 6, 6)     0           dense_2_1_bn[0][0]               
__________________________________________________________________________________________________
dense_2_1_bottleneck_conv2D (Co (None, 48, 6, 6)     2496        activation_22[0][0]              
__________________________________________________________________________________________________
dense_2_1_bottleneck_bn (BatchN (None, 48, 6, 6)     192         dense_2_1_bottleneck_conv2D[0][0]
__________________________________________________________________________________________________
activation_23 (Activation)      (None, 48, 6, 6)     0           dense_2_1_bottleneck_bn[0][0]    
__________________________________________________________________________________________________
dense_2_1_conv2D (Conv2D)       (None, 12, 6, 6)     5184        activation_23[0][0]              
__________________________________________________________________________________________________
dropout_10 (Dropout)            (None, 12, 6, 6)     0           dense_2_1_conv2D[0][0]           
__________________________________________________________________________________________________
concatenate_10 (Concatenate)    (None, 64, 6, 6)     0           concatenate_9[0][0]              
                                                                 dropout_10[0][0]                 
__________________________________________________________________________________________________
dense_2_2_bn (BatchNormalizatio (None, 64, 6, 6)     256         concatenate_10[0][0]             
__________________________________________________________________________________________________
activation_24 (Activation)      (None, 64, 6, 6)     0           dense_2_2_bn[0][0]               
__________________________________________________________________________________________________
dense_2_2_bottleneck_conv2D (Co (None, 48, 6, 6)     3072        activation_24[0][0]              
__________________________________________________________________________________________________
dense_2_2_bottleneck_bn (BatchN (None, 48, 6, 6)     192         dense_2_2_bottleneck_conv2D[0][0]
__________________________________________________________________________________________________
activation_25 (Activation)      (None, 48, 6, 6)     0           dense_2_2_bottleneck_bn[0][0]    
__________________________________________________________________________________________________
dense_2_2_conv2D (Conv2D)       (None, 12, 6, 6)     5184        activation_25[0][0]              
__________________________________________________________________________________________________
dropout_11 (Dropout)            (None, 12, 6, 6)     0           dense_2_2_conv2D[0][0]           
__________________________________________________________________________________________________
concatenate_11 (Concatenate)    (None, 76, 6, 6)     0           concatenate_10[0][0]             
                                                                 dropout_11[0][0]                 
__________________________________________________________________________________________________
dense_2_3_bn (BatchNormalizatio (None, 76, 6, 6)     304         concatenate_11[0][0]             
__________________________________________________________________________________________________
activation_26 (Activation)      (None, 76, 6, 6)     0           dense_2_3_bn[0][0]               
__________________________________________________________________________________________________
dense_2_3_bottleneck_conv2D (Co (None, 48, 6, 6)     3648        activation_26[0][0]              
__________________________________________________________________________________________________
dense_2_3_bottleneck_bn (BatchN (None, 48, 6, 6)     192         dense_2_3_bottleneck_conv2D[0][0]
__________________________________________________________________________________________________
activation_27 (Activation)      (None, 48, 6, 6)     0           dense_2_3_bottleneck_bn[0][0]    
__________________________________________________________________________________________________
dense_2_3_conv2D (Conv2D)       (None, 12, 6, 6)     5184        activation_27[0][0]              
__________________________________________________________________________________________________
dropout_12 (Dropout)            (None, 12, 6, 6)     0           dense_2_3_conv2D[0][0]           
__________________________________________________________________________________________________
concatenate_12 (Concatenate)    (None, 88, 6, 6)     0           concatenate_11[0][0]             
                                                                 dropout_12[0][0]                 
__________________________________________________________________________________________________
final_bn (BatchNormalization)   (None, 88, 6, 6)     352         concatenate_12[0][0]             
__________________________________________________________________________________________________
activation_28 (Activation)      (None, 88, 6, 6)     0           final_bn[0][0]                   
__________________________________________________________________________________________________
flatten_1 (Flatten)             (None, 3168)         0           activation_28[0][0]              
==================================================================================================
Total params: 101,072
Trainable params: 98,288
Non-trainable params: 2,784
__________________________________________________________________________________________________
__________________________________________________________________________________________________
Layer (type)                    Output Shape         Param #     Connected to                     
==================================================================================================
input_2 (InputLayer)            (None, 1, 96, 96)    0                                            
__________________________________________________________________________________________________
input_3 (InputLayer)            (None, 1, 96, 96)    0                                            
__________________________________________________________________________________________________
densenet (Model)                (None, 3168)         101072      input_2[0][0]                    
                                                                 input_3[0][0]                    
__________________________________________________________________________________________________
merge_features (Concatenate)    (None, 6336)         0           densenet[1][0]                   
                                                                 densenet[2][0]                   
__________________________________________________________________________________________________
dense_1 (Dense)                 (None, 512)          3244544     merge_features[0][0]             
__________________________________________________________________________________________________
activation_29 (Activation)      (None, 512)          0           dense_1[0][0]                    
__________________________________________________________________________________________________
batch_normalization_1 (BatchNor (None, 512)          2048        activation_29[0][0]              
__________________________________________________________________________________________________
dropout_13 (Dropout)            (None, 512)          0           batch_normalization_1[0][0]      
__________________________________________________________________________________________________
dense_2 (Dense)                 (None, 1)            513         dropout_13[0][0]                 
==================================================================================================
Total params: 3,348,177
Trainable params: 3,344,369
Non-trainable params: 3,808
__________________________________________________________________________________________________
Finished compiling
Train on 31872 samples, validate on 7968 samples
Epoch 1/7
 - 82s - loss: 0.6344 - acc: 0.7781 - val_loss: 0.9334 - val_acc: 0.5995
…
------------------------ current config for the test -------------------------
Layers:  [4, 4, 4]  Growth_rate:  18  nb_filter:  16  dropout:  0.2
dense_block  3  reduction_:  0.5  bottleneck:  True
------------------------	  end of configs        -------------------------
pooling:flatten
__________________________________________________________________________________________________
Layer (type)                    Output Shape         Param #     Connected to                     
==================================================================================================
input_1 (InputLayer)            (None, 1, 96, 96)    0                                            
__________________________________________________________________________________________________
initial_conv2D (Conv2D)         (None, 16, 48, 48)   784         input_1[0][0]                    
__________________________________________________________________________________________________
initial_bn (BatchNormalization) (None, 16, 48, 48)   64          initial_conv2D[0][0]             
__________________________________________________________________________________________________
activation_1 (Activation)       (None, 16, 48, 48)   0           initial_bn[0][0]                 
__________________________________________________________________________________________________
max_pooling2d_1 (MaxPooling2D)  (None, 16, 24, 24)   0           activation_1[0][0]               
__________________________________________________________________________________________________
dense_0_0_bn (BatchNormalizatio (None, 16, 24, 24)   64          max_pooling2d_1[0][0]            
__________________________________________________________________________________________________
activation_2 (Activation)       (None, 16, 24, 24)   0           dense_0_0_bn[0][0]               
__________________________________________________________________________________________________
dense_0_0_bottleneck_conv2D (Co (None, 72, 24, 24)   1152        activation_2[0][0]               
__________________________________________________________________________________________________
dense_0_0_bottleneck_bn (BatchN (None, 72, 24, 24)   288         dense_0_0_bottleneck_conv2D[0][0]
__________________________________________________________________________________________________
activation_3 (Activation)       (None, 72, 24, 24)   0           dense_0_0_bottleneck_bn[0][0]    
__________________________________________________________________________________________________
dense_0_0_conv2D (Conv2D)       (None, 18, 24, 24)   11664       activation_3[0][0]               
__________________________________________________________________________________________________
dropout_1 (Dropout)             (None, 18, 24, 24)   0           dense_0_0_conv2D[0][0]           
__________________________________________________________________________________________________
concatenate_1 (Concatenate)     (None, 34, 24, 24)   0           max_pooling2d_1[0][0]            
                                                                 dropout_1[0][0]                  
__________________________________________________________________________________________________
dense_0_1_bn (BatchNormalizatio (None, 34, 24, 24)   136         concatenate_1[0][0]              
__________________________________________________________________________________________________
activation_4 (Activation)       (None, 34, 24, 24)   0           dense_0_1_bn[0][0]               
__________________________________________________________________________________________________
dense_0_1_bottleneck_conv2D (Co (None, 72, 24, 24)   2448        activation_4[0][0]               
__________________________________________________________________________________________________
dense_0_1_bottleneck_bn (BatchN (None, 72, 24, 24)   288         dense_0_1_bottleneck_conv2D[0][0]
__________________________________________________________________________________________________
activation_5 (Activation)       (None, 72, 24, 24)   0           dense_0_1_bottleneck_bn[0][0]    
__________________________________________________________________________________________________
dense_0_1_conv2D (Conv2D)       (None, 18, 24, 24)   11664       activation_5[0][0]               
__________________________________________________________________________________________________
dropout_2 (Dropout)             (None, 18, 24, 24)   0           dense_0_1_conv2D[0][0]           
__________________________________________________________________________________________________
concatenate_2 (Concatenate)     (None, 52, 24, 24)   0           concatenate_1[0][0]              
                                                                 dropout_2[0][0]                  
__________________________________________________________________________________________________
dense_0_2_bn (BatchNormalizatio (None, 52, 24, 24)   208         concatenate_2[0][0]              
__________________________________________________________________________________________________
activation_6 (Activation)       (None, 52, 24, 24)   0           dense_0_2_bn[0][0]               
__________________________________________________________________________________________________
dense_0_2_bottleneck_conv2D (Co (None, 72, 24, 24)   3744        activation_6[0][0]               
__________________________________________________________________________________________________
dense_0_2_bottleneck_bn (BatchN (None, 72, 24, 24)   288         dense_0_2_bottleneck_conv2D[0][0]
__________________________________________________________________________________________________
activation_7 (Activation)       (None, 72, 24, 24)   0           dense_0_2_bottleneck_bn[0][0]    
__________________________________________________________________________________________________
dense_0_2_conv2D (Conv2D)       (None, 18, 24, 24)   11664       activation_7[0][0]               
__________________________________________________________________________________________________
dropout_3 (Dropout)             (None, 18, 24, 24)   0           dense_0_2_conv2D[0][0]           
__________________________________________________________________________________________________
concatenate_3 (Concatenate)     (None, 70, 24, 24)   0           concatenate_2[0][0]              
                                                                 dropout_3[0][0]                  
__________________________________________________________________________________________________
dense_0_3_bn (BatchNormalizatio (None, 70, 24, 24)   280         concatenate_3[0][0]              
__________________________________________________________________________________________________
activation_8 (Activation)       (None, 70, 24, 24)   0           dense_0_3_bn[0][0]               
__________________________________________________________________________________________________
dense_0_3_bottleneck_conv2D (Co (None, 72, 24, 24)   5040        activation_8[0][0]               
__________________________________________________________________________________________________
dense_0_3_bottleneck_bn (BatchN (None, 72, 24, 24)   288         dense_0_3_bottleneck_conv2D[0][0]
__________________________________________________________________________________________________
activation_9 (Activation)       (None, 72, 24, 24)   0           dense_0_3_bottleneck_bn[0][0]    
__________________________________________________________________________________________________
dense_0_3_conv2D (Conv2D)       (None, 18, 24, 24)   11664       activation_9[0][0]               
__________________________________________________________________________________________________
dropout_4 (Dropout)             (None, 18, 24, 24)   0           dense_0_3_conv2D[0][0]           
__________________________________________________________________________________________________
concatenate_4 (Concatenate)     (None, 88, 24, 24)   0           concatenate_3[0][0]              
                                                                 dropout_4[0][0]                  
__________________________________________________________________________________________________
tr_0_bn (BatchNormalization)    (None, 88, 24, 24)   352         concatenate_4[0][0]              
__________________________________________________________________________________________________
activation_10 (Activation)      (None, 88, 24, 24)   0           tr_0_bn[0][0]                    
__________________________________________________________________________________________________
tr_0_conv2D (Conv2D)            (None, 44, 24, 24)   3872        activation_10[0][0]              
__________________________________________________________________________________________________
max_pooling2d_2 (MaxPooling2D)  (None, 44, 12, 12)   0           tr_0_conv2D[0][0]                
__________________________________________________________________________________________________
dense_1_0_bn (BatchNormalizatio (None, 44, 12, 12)   176         max_pooling2d_2[0][0]            
__________________________________________________________________________________________________
activation_11 (Activation)      (None, 44, 12, 12)   0           dense_1_0_bn[0][0]               
__________________________________________________________________________________________________
dense_1_0_bottleneck_conv2D (Co (None, 72, 12, 12)   3168        activation_11[0][0]              
__________________________________________________________________________________________________
dense_1_0_bottleneck_bn (BatchN (None, 72, 12, 12)   288         dense_1_0_bottleneck_conv2D[0][0]
__________________________________________________________________________________________________
activation_12 (Activation)      (None, 72, 12, 12)   0           dense_1_0_bottleneck_bn[0][0]    
__________________________________________________________________________________________________
dense_1_0_conv2D (Conv2D)       (None, 18, 12, 12)   11664       activation_12[0][0]              
__________________________________________________________________________________________________
dropout_5 (Dropout)             (None, 18, 12, 12)   0           dense_1_0_conv2D[0][0]           
__________________________________________________________________________________________________
concatenate_5 (Concatenate)     (None, 62, 12, 12)   0           max_pooling2d_2[0][0]            
                                                                 dropout_5[0][0]                  
__________________________________________________________________________________________________
dense_1_1_bn (BatchNormalizatio (None, 62, 12, 12)   248         concatenate_5[0][0]              
__________________________________________________________________________________________________
activation_13 (Activation)      (None, 62, 12, 12)   0           dense_1_1_bn[0][0]               
__________________________________________________________________________________________________
dense_1_1_bottleneck_conv2D (Co (None, 72, 12, 12)   4464        activation_13[0][0]              
__________________________________________________________________________________________________
dense_1_1_bottleneck_bn (BatchN (None, 72, 12, 12)   288         dense_1_1_bottleneck_conv2D[0][0]
__________________________________________________________________________________________________
activation_14 (Activation)      (None, 72, 12, 12)   0           dense_1_1_bottleneck_bn[0][0]    
__________________________________________________________________________________________________
dense_1_1_conv2D (Conv2D)       (None, 18, 12, 12)   11664       activation_14[0][0]              
__________________________________________________________________________________________________
dropout_6 (Dropout)             (None, 18, 12, 12)   0           dense_1_1_conv2D[0][0]           
__________________________________________________________________________________________________
concatenate_6 (Concatenate)     (None, 80, 12, 12)   0           concatenate_5[0][0]              
                                                                 dropout_6[0][0]                  
__________________________________________________________________________________________________
dense_1_2_bn (BatchNormalizatio (None, 80, 12, 12)   320         concatenate_6[0][0]              
__________________________________________________________________________________________________
activation_15 (Activation)      (None, 80, 12, 12)   0           dense_1_2_bn[0][0]               
__________________________________________________________________________________________________
dense_1_2_bottleneck_conv2D (Co (None, 72, 12, 12)   5760        activation_15[0][0]              
__________________________________________________________________________________________________
dense_1_2_bottleneck_bn (BatchN (None, 72, 12, 12)   288         dense_1_2_bottleneck_conv2D[0][0]
__________________________________________________________________________________________________
activation_16 (Activation)      (None, 72, 12, 12)   0           dense_1_2_bottleneck_bn[0][0]    
__________________________________________________________________________________________________
dense_1_2_conv2D (Conv2D)       (None, 18, 12, 12)   11664       activation_16[0][0]              
__________________________________________________________________________________________________
dropout_7 (Dropout)             (None, 18, 12, 12)   0           dense_1_2_conv2D[0][0]           
__________________________________________________________________________________________________
concatenate_7 (Concatenate)     (None, 98, 12, 12)   0           concatenate_6[0][0]              
                                                                 dropout_7[0][0]                  
__________________________________________________________________________________________________
dense_1_3_bn (BatchNormalizatio (None, 98, 12, 12)   392         concatenate_7[0][0]              
__________________________________________________________________________________________________
activation_17 (Activation)      (None, 98, 12, 12)   0           dense_1_3_bn[0][0]               
__________________________________________________________________________________________________
dense_1_3_bottleneck_conv2D (Co (None, 72, 12, 12)   7056        activation_17[0][0]              
__________________________________________________________________________________________________
dense_1_3_bottleneck_bn (BatchN (None, 72, 12, 12)   288         dense_1_3_bottleneck_conv2D[0][0]
__________________________________________________________________________________________________
activation_18 (Activation)      (None, 72, 12, 12)   0           dense_1_3_bottleneck_bn[0][0]    
__________________________________________________________________________________________________
dense_1_3_conv2D (Conv2D)       (None, 18, 12, 12)   11664       activation_18[0][0]              
__________________________________________________________________________________________________
dropout_8 (Dropout)             (None, 18, 12, 12)   0           dense_1_3_conv2D[0][0]           
__________________________________________________________________________________________________
concatenate_8 (Concatenate)     (None, 116, 12, 12)  0           concatenate_7[0][0]              
                                                                 dropout_8[0][0]                  
__________________________________________________________________________________________________
tr_1_bn (BatchNormalization)    (None, 116, 12, 12)  464         concatenate_8[0][0]              
__________________________________________________________________________________________________
activation_19 (Activation)      (None, 116, 12, 12)  0           tr_1_bn[0][0]                    
__________________________________________________________________________________________________
tr_1_conv2D (Conv2D)            (None, 58, 12, 12)   6728        activation_19[0][0]              
__________________________________________________________________________________________________
max_pooling2d_3 (MaxPooling2D)  (None, 58, 6, 6)     0           tr_1_conv2D[0][0]                
__________________________________________________________________________________________________
dense_2_0_bn (BatchNormalizatio (None, 58, 6, 6)     232         max_pooling2d_3[0][0]            
__________________________________________________________________________________________________
activation_20 (Activation)      (None, 58, 6, 6)     0           dense_2_0_bn[0][0]               
__________________________________________________________________________________________________
dense_2_0_bottleneck_conv2D (Co (None, 72, 6, 6)     4176        activation_20[0][0]              
__________________________________________________________________________________________________
dense_2_0_bottleneck_bn (BatchN (None, 72, 6, 6)     288         dense_2_0_bottleneck_conv2D[0][0]
__________________________________________________________________________________________________
activation_21 (Activation)      (None, 72, 6, 6)     0           dense_2_0_bottleneck_bn[0][0]    
__________________________________________________________________________________________________
dense_2_0_conv2D (Conv2D)       (None, 18, 6, 6)     11664       activation_21[0][0]              
__________________________________________________________________________________________________
dropout_9 (Dropout)             (None, 18, 6, 6)     0           dense_2_0_conv2D[0][0]           
__________________________________________________________________________________________________
concatenate_9 (Concatenate)     (None, 76, 6, 6)     0           max_pooling2d_3[0][0]            
                                                                 dropout_9[0][0]                  
__________________________________________________________________________________________________
dense_2_1_bn (BatchNormalizatio (None, 76, 6, 6)     304         concatenate_9[0][0]              
__________________________________________________________________________________________________
activation_22 (Activation)      (None, 76, 6, 6)     0           dense_2_1_bn[0][0]               
__________________________________________________________________________________________________
dense_2_1_bottleneck_conv2D (Co (None, 72, 6, 6)     5472        activation_22[0][0]              
__________________________________________________________________________________________________
dense_2_1_bottleneck_bn (BatchN (None, 72, 6, 6)     288         dense_2_1_bottleneck_conv2D[0][0]
__________________________________________________________________________________________________
activation_23 (Activation)      (None, 72, 6, 6)     0           dense_2_1_bottleneck_bn[0][0]    
__________________________________________________________________________________________________
dense_2_1_conv2D (Conv2D)       (None, 18, 6, 6)     11664       activation_23[0][0]              
__________________________________________________________________________________________________
dropout_10 (Dropout)            (None, 18, 6, 6)     0           dense_2_1_conv2D[0][0]           
__________________________________________________________________________________________________
concatenate_10 (Concatenate)    (None, 94, 6, 6)     0           concatenate_9[0][0]              
                                                                 dropout_10[0][0]                 
__________________________________________________________________________________________________
dense_2_2_bn (BatchNormalizatio (None, 94, 6, 6)     376         concatenate_10[0][0]             
__________________________________________________________________________________________________
activation_24 (Activation)      (None, 94, 6, 6)     0           dense_2_2_bn[0][0]               
__________________________________________________________________________________________________
dense_2_2_bottleneck_conv2D (Co (None, 72, 6, 6)     6768        activation_24[0][0]              
__________________________________________________________________________________________________
dense_2_2_bottleneck_bn (BatchN (None, 72, 6, 6)     288         dense_2_2_bottleneck_conv2D[0][0]
__________________________________________________________________________________________________
activation_25 (Activation)      (None, 72, 6, 6)     0           dense_2_2_bottleneck_bn[0][0]    
__________________________________________________________________________________________________
dense_2_2_conv2D (Conv2D)       (None, 18, 6, 6)     11664       activation_25[0][0]              
__________________________________________________________________________________________________
dropout_11 (Dropout)            (None, 18, 6, 6)     0           dense_2_2_conv2D[0][0]           
__________________________________________________________________________________________________
concatenate_11 (Concatenate)    (None, 112, 6, 6)    0           concatenate_10[0][0]             
                                                                 dropout_11[0][0]                 
__________________________________________________________________________________________________
dense_2_3_bn (BatchNormalizatio (None, 112, 6, 6)    448         concatenate_11[0][0]             
__________________________________________________________________________________________________
activation_26 (Activation)      (None, 112, 6, 6)    0           dense_2_3_bn[0][0]               
__________________________________________________________________________________________________
dense_2_3_bottleneck_conv2D (Co (None, 72, 6, 6)     8064        activation_26[0][0]              
__________________________________________________________________________________________________
dense_2_3_bottleneck_bn (BatchN (None, 72, 6, 6)     288         dense_2_3_bottleneck_conv2D[0][0]
__________________________________________________________________________________________________
activation_27 (Activation)      (None, 72, 6, 6)     0           dense_2_3_bottleneck_bn[0][0]    
__________________________________________________________________________________________________
dense_2_3_conv2D (Conv2D)       (None, 18, 6, 6)     11664       activation_27[0][0]              
__________________________________________________________________________________________________
dropout_12 (Dropout)            (None, 18, 6, 6)     0           dense_2_3_conv2D[0][0]           
__________________________________________________________________________________________________
concatenate_12 (Concatenate)    (None, 130, 6, 6)    0           concatenate_11[0][0]             
                                                                 dropout_12[0][0]                 
__________________________________________________________________________________________________
final_bn (BatchNormalization)   (None, 130, 6, 6)    520         concatenate_12[0][0]             
__________________________________________________________________________________________________
activation_28 (Activation)      (None, 130, 6, 6)    0           final_bn[0][0]                   
__________________________________________________________________________________________________
flatten_1 (Flatten)             (None, 4680)         0           activation_28[0][0]              
==================================================================================================
Total params: 216,704
Trainable params: 212,684
Non-trainable params: 4,020
__________________________________________________________________________________________________
__________________________________________________________________________________________________
Layer (type)                    Output Shape         Param #     Connected to                     
==================================================================================================
input_2 (InputLayer)            (None, 1, 96, 96)    0                                            
__________________________________________________________________________________________________
input_3 (InputLayer)            (None, 1, 96, 96)    0                                            
__________________________________________________________________________________________________
densenet (Model)                (None, 4680)         216704      input_2[0][0]                    
                                                                 input_3[0][0]                    
__________________________________________________________________________________________________
merge_features (Concatenate)    (None, 9360)         0           densenet[1][0]                   
                                                                 densenet[2][0]                   
__________________________________________________________________________________________________
dense_1 (Dense)                 (None, 512)          4792832     merge_features[0][0]             
__________________________________________________________________________________________________
activation_29 (Activation)      (None, 512)          0           dense_1[0][0]                    
__________________________________________________________________________________________________
batch_normalization_1 (BatchNor (None, 512)          2048        activation_29[0][0]              
__________________________________________________________________________________________________
dropout_13 (Dropout)            (None, 512)          0           batch_normalization_1[0][0]      
__________________________________________________________________________________________________
dense_2 (Dense)                 (None, 1)            513         dropout_13[0][0]                 
==================================================================================================
Total params: 5,012,097
Trainable params: 5,007,053
Non-trainable params: 5,044
__________________________________________________________________________________________________
Finished compiling
Train on 31872 samples, validate on 7968 samples
Epoch 1/7
 - 100s - loss: 0.7084 - acc: 0.7699 - val_loss: 1.1446 - val_acc: 0.5163
…
------------------------ current config for the test -------------------------
Layers:  [6, 6, 6]  Growth_rate:  6  nb_filter:  16  dropout:  0.2
dense_block  3  reduction_:  0.5  bottleneck:  True
------------------------	  end of configs        -------------------------
pooling:flatten
__________________________________________________________________________________________________
Layer (type)                    Output Shape         Param #     Connected to                     
==================================================================================================
input_1 (InputLayer)            (None, 1, 96, 96)    0                                            
__________________________________________________________________________________________________
initial_conv2D (Conv2D)         (None, 16, 48, 48)   784         input_1[0][0]                    
__________________________________________________________________________________________________
initial_bn (BatchNormalization) (None, 16, 48, 48)   64          initial_conv2D[0][0]             
__________________________________________________________________________________________________
activation_1 (Activation)       (None, 16, 48, 48)   0           initial_bn[0][0]                 
__________________________________________________________________________________________________
max_pooling2d_1 (MaxPooling2D)  (None, 16, 24, 24)   0           activation_1[0][0]               
__________________________________________________________________________________________________
dense_0_0_bn (BatchNormalizatio (None, 16, 24, 24)   64          max_pooling2d_1[0][0]            
__________________________________________________________________________________________________
activation_2 (Activation)       (None, 16, 24, 24)   0           dense_0_0_bn[0][0]               
__________________________________________________________________________________________________
dense_0_0_bottleneck_conv2D (Co (None, 24, 24, 24)   384         activation_2[0][0]               
__________________________________________________________________________________________________
dense_0_0_bottleneck_bn (BatchN (None, 24, 24, 24)   96          dense_0_0_bottleneck_conv2D[0][0]
__________________________________________________________________________________________________
activation_3 (Activation)       (None, 24, 24, 24)   0           dense_0_0_bottleneck_bn[0][0]    
__________________________________________________________________________________________________
dense_0_0_conv2D (Conv2D)       (None, 6, 24, 24)    1296        activation_3[0][0]               
__________________________________________________________________________________________________
dropout_1 (Dropout)             (None, 6, 24, 24)    0           dense_0_0_conv2D[0][0]           
__________________________________________________________________________________________________
concatenate_1 (Concatenate)     (None, 22, 24, 24)   0           max_pooling2d_1[0][0]            
                                                                 dropout_1[0][0]                  
__________________________________________________________________________________________________
dense_0_1_bn (BatchNormalizatio (None, 22, 24, 24)   88          concatenate_1[0][0]              
__________________________________________________________________________________________________
activation_4 (Activation)       (None, 22, 24, 24)   0           dense_0_1_bn[0][0]               
__________________________________________________________________________________________________
dense_0_1_bottleneck_conv2D (Co (None, 24, 24, 24)   528         activation_4[0][0]               
__________________________________________________________________________________________________
dense_0_1_bottleneck_bn (BatchN (None, 24, 24, 24)   96          dense_0_1_bottleneck_conv2D[0][0]
__________________________________________________________________________________________________
activation_5 (Activation)       (None, 24, 24, 24)   0           dense_0_1_bottleneck_bn[0][0]    
__________________________________________________________________________________________________
dense_0_1_conv2D (Conv2D)       (None, 6, 24, 24)    1296        activation_5[0][0]               
__________________________________________________________________________________________________
dropout_2 (Dropout)             (None, 6, 24, 24)    0           dense_0_1_conv2D[0][0]           
__________________________________________________________________________________________________
concatenate_2 (Concatenate)     (None, 28, 24, 24)   0           concatenate_1[0][0]              
                                                                 dropout_2[0][0]                  
__________________________________________________________________________________________________
dense_0_2_bn (BatchNormalizatio (None, 28, 24, 24)   112         concatenate_2[0][0]              
__________________________________________________________________________________________________
activation_6 (Activation)       (None, 28, 24, 24)   0           dense_0_2_bn[0][0]               
__________________________________________________________________________________________________
dense_0_2_bottleneck_conv2D (Co (None, 24, 24, 24)   672         activation_6[0][0]               
__________________________________________________________________________________________________
dense_0_2_bottleneck_bn (BatchN (None, 24, 24, 24)   96          dense_0_2_bottleneck_conv2D[0][0]
__________________________________________________________________________________________________
activation_7 (Activation)       (None, 24, 24, 24)   0           dense_0_2_bottleneck_bn[0][0]    
__________________________________________________________________________________________________
dense_0_2_conv2D (Conv2D)       (None, 6, 24, 24)    1296        activation_7[0][0]               
__________________________________________________________________________________________________
dropout_3 (Dropout)             (None, 6, 24, 24)    0           dense_0_2_conv2D[0][0]           
__________________________________________________________________________________________________
concatenate_3 (Concatenate)     (None, 34, 24, 24)   0           concatenate_2[0][0]              
                                                                 dropout_3[0][0]                  
__________________________________________________________________________________________________
dense_0_3_bn (BatchNormalizatio (None, 34, 24, 24)   136         concatenate_3[0][0]              
__________________________________________________________________________________________________
activation_8 (Activation)       (None, 34, 24, 24)   0           dense_0_3_bn[0][0]               
__________________________________________________________________________________________________
dense_0_3_bottleneck_conv2D (Co (None, 24, 24, 24)   816         activation_8[0][0]               
__________________________________________________________________________________________________
dense_0_3_bottleneck_bn (BatchN (None, 24, 24, 24)   96          dense_0_3_bottleneck_conv2D[0][0]
__________________________________________________________________________________________________
activation_9 (Activation)       (None, 24, 24, 24)   0           dense_0_3_bottleneck_bn[0][0]    
__________________________________________________________________________________________________
dense_0_3_conv2D (Conv2D)       (None, 6, 24, 24)    1296        activation_9[0][0]               
__________________________________________________________________________________________________
dropout_4 (Dropout)             (None, 6, 24, 24)    0           dense_0_3_conv2D[0][0]           
__________________________________________________________________________________________________
concatenate_4 (Concatenate)     (None, 40, 24, 24)   0           concatenate_3[0][0]              
                                                                 dropout_4[0][0]                  
__________________________________________________________________________________________________
dense_0_4_bn (BatchNormalizatio (None, 40, 24, 24)   160         concatenate_4[0][0]              
__________________________________________________________________________________________________
activation_10 (Activation)      (None, 40, 24, 24)   0           dense_0_4_bn[0][0]               
__________________________________________________________________________________________________
dense_0_4_bottleneck_conv2D (Co (None, 24, 24, 24)   960         activation_10[0][0]              
__________________________________________________________________________________________________
dense_0_4_bottleneck_bn (BatchN (None, 24, 24, 24)   96          dense_0_4_bottleneck_conv2D[0][0]
__________________________________________________________________________________________________
activation_11 (Activation)      (None, 24, 24, 24)   0           dense_0_4_bottleneck_bn[0][0]    
__________________________________________________________________________________________________
dense_0_4_conv2D (Conv2D)       (None, 6, 24, 24)    1296        activation_11[0][0]              
__________________________________________________________________________________________________
dropout_5 (Dropout)             (None, 6, 24, 24)    0           dense_0_4_conv2D[0][0]           
__________________________________________________________________________________________________
concatenate_5 (Concatenate)     (None, 46, 24, 24)   0           concatenate_4[0][0]              
                                                                 dropout_5[0][0]                  
__________________________________________________________________________________________________
dense_0_5_bn (BatchNormalizatio (None, 46, 24, 24)   184         concatenate_5[0][0]              
__________________________________________________________________________________________________
activation_12 (Activation)      (None, 46, 24, 24)   0           dense_0_5_bn[0][0]               
__________________________________________________________________________________________________
dense_0_5_bottleneck_conv2D (Co (None, 24, 24, 24)   1104        activation_12[0][0]              
__________________________________________________________________________________________________
dense_0_5_bottleneck_bn (BatchN (None, 24, 24, 24)   96          dense_0_5_bottleneck_conv2D[0][0]
__________________________________________________________________________________________________
activation_13 (Activation)      (None, 24, 24, 24)   0           dense_0_5_bottleneck_bn[0][0]    
__________________________________________________________________________________________________
dense_0_5_conv2D (Conv2D)       (None, 6, 24, 24)    1296        activation_13[0][0]              
__________________________________________________________________________________________________
dropout_6 (Dropout)             (None, 6, 24, 24)    0           dense_0_5_conv2D[0][0]           
__________________________________________________________________________________________________
concatenate_6 (Concatenate)     (None, 52, 24, 24)   0           concatenate_5[0][0]              
                                                                 dropout_6[0][0]                  
__________________________________________________________________________________________________
tr_0_bn (BatchNormalization)    (None, 52, 24, 24)   208         concatenate_6[0][0]              
__________________________________________________________________________________________________
activation_14 (Activation)      (None, 52, 24, 24)   0           tr_0_bn[0][0]                    
__________________________________________________________________________________________________
tr_0_conv2D (Conv2D)            (None, 26, 24, 24)   1352        activation_14[0][0]              
__________________________________________________________________________________________________
max_pooling2d_2 (MaxPooling2D)  (None, 26, 12, 12)   0           tr_0_conv2D[0][0]                
__________________________________________________________________________________________________
dense_1_0_bn (BatchNormalizatio (None, 26, 12, 12)   104         max_pooling2d_2[0][0]            
__________________________________________________________________________________________________
activation_15 (Activation)      (None, 26, 12, 12)   0           dense_1_0_bn[0][0]               
__________________________________________________________________________________________________
dense_1_0_bottleneck_conv2D (Co (None, 24, 12, 12)   624         activation_15[0][0]              
__________________________________________________________________________________________________
dense_1_0_bottleneck_bn (BatchN (None, 24, 12, 12)   96          dense_1_0_bottleneck_conv2D[0][0]
__________________________________________________________________________________________________
activation_16 (Activation)      (None, 24, 12, 12)   0           dense_1_0_bottleneck_bn[0][0]    
__________________________________________________________________________________________________
dense_1_0_conv2D (Conv2D)       (None, 6, 12, 12)    1296        activation_16[0][0]              
__________________________________________________________________________________________________
dropout_7 (Dropout)             (None, 6, 12, 12)    0           dense_1_0_conv2D[0][0]           
__________________________________________________________________________________________________
concatenate_7 (Concatenate)     (None, 32, 12, 12)   0           max_pooling2d_2[0][0]            
                                                                 dropout_7[0][0]                  
__________________________________________________________________________________________________
dense_1_1_bn (BatchNormalizatio (None, 32, 12, 12)   128         concatenate_7[0][0]              
__________________________________________________________________________________________________
activation_17 (Activation)      (None, 32, 12, 12)   0           dense_1_1_bn[0][0]               
__________________________________________________________________________________________________
dense_1_1_bottleneck_conv2D (Co (None, 24, 12, 12)   768         activation_17[0][0]              
__________________________________________________________________________________________________
dense_1_1_bottleneck_bn (BatchN (None, 24, 12, 12)   96          dense_1_1_bottleneck_conv2D[0][0]
__________________________________________________________________________________________________
activation_18 (Activation)      (None, 24, 12, 12)   0           dense_1_1_bottleneck_bn[0][0]    
__________________________________________________________________________________________________
dense_1_1_conv2D (Conv2D)       (None, 6, 12, 12)    1296        activation_18[0][0]              
__________________________________________________________________________________________________
dropout_8 (Dropout)             (None, 6, 12, 12)    0           dense_1_1_conv2D[0][0]           
__________________________________________________________________________________________________
concatenate_8 (Concatenate)     (None, 38, 12, 12)   0           concatenate_7[0][0]              
                                                                 dropout_8[0][0]                  
__________________________________________________________________________________________________
dense_1_2_bn (BatchNormalizatio (None, 38, 12, 12)   152         concatenate_8[0][0]              
__________________________________________________________________________________________________
activation_19 (Activation)      (None, 38, 12, 12)   0           dense_1_2_bn[0][0]               
__________________________________________________________________________________________________
dense_1_2_bottleneck_conv2D (Co (None, 24, 12, 12)   912         activation_19[0][0]              
__________________________________________________________________________________________________
dense_1_2_bottleneck_bn (BatchN (None, 24, 12, 12)   96          dense_1_2_bottleneck_conv2D[0][0]
__________________________________________________________________________________________________
activation_20 (Activation)      (None, 24, 12, 12)   0           dense_1_2_bottleneck_bn[0][0]    
__________________________________________________________________________________________________
dense_1_2_conv2D (Conv2D)       (None, 6, 12, 12)    1296        activation_20[0][0]              
__________________________________________________________________________________________________
dropout_9 (Dropout)             (None, 6, 12, 12)    0           dense_1_2_conv2D[0][0]           
__________________________________________________________________________________________________
concatenate_9 (Concatenate)     (None, 44, 12, 12)   0           concatenate_8[0][0]              
                                                                 dropout_9[0][0]                  
__________________________________________________________________________________________________
dense_1_3_bn (BatchNormalizatio (None, 44, 12, 12)   176         concatenate_9[0][0]              
__________________________________________________________________________________________________
activation_21 (Activation)      (None, 44, 12, 12)   0           dense_1_3_bn[0][0]               
__________________________________________________________________________________________________
dense_1_3_bottleneck_conv2D (Co (None, 24, 12, 12)   1056        activation_21[0][0]              
__________________________________________________________________________________________________
dense_1_3_bottleneck_bn (BatchN (None, 24, 12, 12)   96          dense_1_3_bottleneck_conv2D[0][0]
__________________________________________________________________________________________________
activation_22 (Activation)      (None, 24, 12, 12)   0           dense_1_3_bottleneck_bn[0][0]    
__________________________________________________________________________________________________
dense_1_3_conv2D (Conv2D)       (None, 6, 12, 12)    1296        activation_22[0][0]              
__________________________________________________________________________________________________
dropout_10 (Dropout)            (None, 6, 12, 12)    0           dense_1_3_conv2D[0][0]           
__________________________________________________________________________________________________
concatenate_10 (Concatenate)    (None, 50, 12, 12)   0           concatenate_9[0][0]              
                                                                 dropout_10[0][0]                 
__________________________________________________________________________________________________
dense_1_4_bn (BatchNormalizatio (None, 50, 12, 12)   200         concatenate_10[0][0]             
__________________________________________________________________________________________________
activation_23 (Activation)      (None, 50, 12, 12)   0           dense_1_4_bn[0][0]               
__________________________________________________________________________________________________
dense_1_4_bottleneck_conv2D (Co (None, 24, 12, 12)   1200        activation_23[0][0]              
__________________________________________________________________________________________________
dense_1_4_bottleneck_bn (BatchN (None, 24, 12, 12)   96          dense_1_4_bottleneck_conv2D[0][0]
__________________________________________________________________________________________________
activation_24 (Activation)      (None, 24, 12, 12)   0           dense_1_4_bottleneck_bn[0][0]    
__________________________________________________________________________________________________
dense_1_4_conv2D (Conv2D)       (None, 6, 12, 12)    1296        activation_24[0][0]              
__________________________________________________________________________________________________
dropout_11 (Dropout)            (None, 6, 12, 12)    0           dense_1_4_conv2D[0][0]           
__________________________________________________________________________________________________
concatenate_11 (Concatenate)    (None, 56, 12, 12)   0           concatenate_10[0][0]             
                                                                 dropout_11[0][0]                 
__________________________________________________________________________________________________
dense_1_5_bn (BatchNormalizatio (None, 56, 12, 12)   224         concatenate_11[0][0]             
__________________________________________________________________________________________________
activation_25 (Activation)      (None, 56, 12, 12)   0           dense_1_5_bn[0][0]               
__________________________________________________________________________________________________
dense_1_5_bottleneck_conv2D (Co (None, 24, 12, 12)   1344        activation_25[0][0]              
__________________________________________________________________________________________________
dense_1_5_bottleneck_bn (BatchN (None, 24, 12, 12)   96          dense_1_5_bottleneck_conv2D[0][0]
__________________________________________________________________________________________________
activation_26 (Activation)      (None, 24, 12, 12)   0           dense_1_5_bottleneck_bn[0][0]    
__________________________________________________________________________________________________
dense_1_5_conv2D (Conv2D)       (None, 6, 12, 12)    1296        activation_26[0][0]              
__________________________________________________________________________________________________
dropout_12 (Dropout)            (None, 6, 12, 12)    0           dense_1_5_conv2D[0][0]           
__________________________________________________________________________________________________
concatenate_12 (Concatenate)    (None, 62, 12, 12)   0           concatenate_11[0][0]             
                                                                 dropout_12[0][0]                 
__________________________________________________________________________________________________
tr_1_bn (BatchNormalization)    (None, 62, 12, 12)   248         concatenate_12[0][0]             
__________________________________________________________________________________________________
activation_27 (Activation)      (None, 62, 12, 12)   0           tr_1_bn[0][0]                    
__________________________________________________________________________________________________
tr_1_conv2D (Conv2D)            (None, 31, 12, 12)   1922        activation_27[0][0]              
__________________________________________________________________________________________________
max_pooling2d_3 (MaxPooling2D)  (None, 31, 6, 6)     0           tr_1_conv2D[0][0]                
__________________________________________________________________________________________________
dense_2_0_bn (BatchNormalizatio (None, 31, 6, 6)     124         max_pooling2d_3[0][0]            
__________________________________________________________________________________________________
activation_28 (Activation)      (None, 31, 6, 6)     0           dense_2_0_bn[0][0]               
__________________________________________________________________________________________________
dense_2_0_bottleneck_conv2D (Co (None, 24, 6, 6)     744         activation_28[0][0]              
__________________________________________________________________________________________________
dense_2_0_bottleneck_bn (BatchN (None, 24, 6, 6)     96          dense_2_0_bottleneck_conv2D[0][0]
__________________________________________________________________________________________________
activation_29 (Activation)      (None, 24, 6, 6)     0           dense_2_0_bottleneck_bn[0][0]    
__________________________________________________________________________________________________
dense_2_0_conv2D (Conv2D)       (None, 6, 6, 6)      1296        activation_29[0][0]              
__________________________________________________________________________________________________
dropout_13 (Dropout)            (None, 6, 6, 6)      0           dense_2_0_conv2D[0][0]           
__________________________________________________________________________________________________
concatenate_13 (Concatenate)    (None, 37, 6, 6)     0           max_pooling2d_3[0][0]            
                                                                 dropout_13[0][0]                 
__________________________________________________________________________________________________
dense_2_1_bn (BatchNormalizatio (None, 37, 6, 6)     148         concatenate_13[0][0]             
__________________________________________________________________________________________________
activation_30 (Activation)      (None, 37, 6, 6)     0           dense_2_1_bn[0][0]               
__________________________________________________________________________________________________
dense_2_1_bottleneck_conv2D (Co (None, 24, 6, 6)     888         activation_30[0][0]              
__________________________________________________________________________________________________
dense_2_1_bottleneck_bn (BatchN (None, 24, 6, 6)     96          dense_2_1_bottleneck_conv2D[0][0]
__________________________________________________________________________________________________
activation_31 (Activation)      (None, 24, 6, 6)     0           dense_2_1_bottleneck_bn[0][0]    
__________________________________________________________________________________________________
dense_2_1_conv2D (Conv2D)       (None, 6, 6, 6)      1296        activation_31[0][0]              
__________________________________________________________________________________________________
dropout_14 (Dropout)            (None, 6, 6, 6)      0           dense_2_1_conv2D[0][0]           
__________________________________________________________________________________________________
concatenate_14 (Concatenate)    (None, 43, 6, 6)     0           concatenate_13[0][0]             
                                                                 dropout_14[0][0]                 
__________________________________________________________________________________________________
dense_2_2_bn (BatchNormalizatio (None, 43, 6, 6)     172         concatenate_14[0][0]             
__________________________________________________________________________________________________
activation_32 (Activation)      (None, 43, 6, 6)     0           dense_2_2_bn[0][0]               
__________________________________________________________________________________________________
dense_2_2_bottleneck_conv2D (Co (None, 24, 6, 6)     1032        activation_32[0][0]              
__________________________________________________________________________________________________
dense_2_2_bottleneck_bn (BatchN (None, 24, 6, 6)     96          dense_2_2_bottleneck_conv2D[0][0]
__________________________________________________________________________________________________
activation_33 (Activation)      (None, 24, 6, 6)     0           dense_2_2_bottleneck_bn[0][0]    
__________________________________________________________________________________________________
dense_2_2_conv2D (Conv2D)       (None, 6, 6, 6)      1296        activation_33[0][0]              
__________________________________________________________________________________________________
dropout_15 (Dropout)            (None, 6, 6, 6)      0           dense_2_2_conv2D[0][0]           
__________________________________________________________________________________________________
concatenate_15 (Concatenate)    (None, 49, 6, 6)     0           concatenate_14[0][0]             
                                                                 dropout_15[0][0]                 
__________________________________________________________________________________________________
dense_2_3_bn (BatchNormalizatio (None, 49, 6, 6)     196         concatenate_15[0][0]             
__________________________________________________________________________________________________
activation_34 (Activation)      (None, 49, 6, 6)     0           dense_2_3_bn[0][0]               
__________________________________________________________________________________________________
dense_2_3_bottleneck_conv2D (Co (None, 24, 6, 6)     1176        activation_34[0][0]              
__________________________________________________________________________________________________
dense_2_3_bottleneck_bn (BatchN (None, 24, 6, 6)     96          dense_2_3_bottleneck_conv2D[0][0]
__________________________________________________________________________________________________
activation_35 (Activation)      (None, 24, 6, 6)     0           dense_2_3_bottleneck_bn[0][0]    
__________________________________________________________________________________________________
dense_2_3_conv2D (Conv2D)       (None, 6, 6, 6)      1296        activation_35[0][0]              
__________________________________________________________________________________________________
dropout_16 (Dropout)            (None, 6, 6, 6)      0           dense_2_3_conv2D[0][0]           
__________________________________________________________________________________________________
concatenate_16 (Concatenate)    (None, 55, 6, 6)     0           concatenate_15[0][0]             
                                                                 dropout_16[0][0]                 
__________________________________________________________________________________________________
dense_2_4_bn (BatchNormalizatio (None, 55, 6, 6)     220         concatenate_16[0][0]             
__________________________________________________________________________________________________
activation_36 (Activation)      (None, 55, 6, 6)     0           dense_2_4_bn[0][0]               
__________________________________________________________________________________________________
dense_2_4_bottleneck_conv2D (Co (None, 24, 6, 6)     1320        activation_36[0][0]              
__________________________________________________________________________________________________
dense_2_4_bottleneck_bn (BatchN (None, 24, 6, 6)     96          dense_2_4_bottleneck_conv2D[0][0]
__________________________________________________________________________________________________
activation_37 (Activation)      (None, 24, 6, 6)     0           dense_2_4_bottleneck_bn[0][0]    
__________________________________________________________________________________________________
dense_2_4_conv2D (Conv2D)       (None, 6, 6, 6)      1296        activation_37[0][0]              
__________________________________________________________________________________________________
dropout_17 (Dropout)            (None, 6, 6, 6)      0           dense_2_4_conv2D[0][0]           
__________________________________________________________________________________________________
concatenate_17 (Concatenate)    (None, 61, 6, 6)     0           concatenate_16[0][0]             
                                                                 dropout_17[0][0]                 
__________________________________________________________________________________________________
dense_2_5_bn (BatchNormalizatio (None, 61, 6, 6)     244         concatenate_17[0][0]             
__________________________________________________________________________________________________
activation_38 (Activation)      (None, 61, 6, 6)     0           dense_2_5_bn[0][0]               
__________________________________________________________________________________________________
dense_2_5_bottleneck_conv2D (Co (None, 24, 6, 6)     1464        activation_38[0][0]              
__________________________________________________________________________________________________
dense_2_5_bottleneck_bn (BatchN (None, 24, 6, 6)     96          dense_2_5_bottleneck_conv2D[0][0]
__________________________________________________________________________________________________
activation_39 (Activation)      (None, 24, 6, 6)     0           dense_2_5_bottleneck_bn[0][0]    
__________________________________________________________________________________________________
dense_2_5_conv2D (Conv2D)       (None, 6, 6, 6)      1296        activation_39[0][0]              
__________________________________________________________________________________________________
dropout_18 (Dropout)            (None, 6, 6, 6)      0           dense_2_5_conv2D[0][0]           
__________________________________________________________________________________________________
concatenate_18 (Concatenate)    (None, 67, 6, 6)     0           concatenate_17[0][0]             
                                                                 dropout_18[0][0]                 
__________________________________________________________________________________________________
final_bn (BatchNormalization)   (None, 67, 6, 6)     268         concatenate_18[0][0]             
__________________________________________________________________________________________________
activation_40 (Activation)      (None, 67, 6, 6)     0           final_bn[0][0]                   
__________________________________________________________________________________________________
flatten_1 (Flatten)             (None, 2412)         0           activation_40[0][0]              
==================================================================================================
Total params: 49,726
Trainable params: 47,052
Non-trainable params: 2,674
__________________________________________________________________________________________________
__________________________________________________________________________________________________
Layer (type)                    Output Shape         Param #     Connected to                     
==================================================================================================
input_2 (InputLayer)            (None, 1, 96, 96)    0                                            
__________________________________________________________________________________________________
input_3 (InputLayer)            (None, 1, 96, 96)    0                                            
__________________________________________________________________________________________________
densenet (Model)                (None, 2412)         49726       input_2[0][0]                    
                                                                 input_3[0][0]                    
__________________________________________________________________________________________________
merge_features (Concatenate)    (None, 4824)         0           densenet[1][0]                   
                                                                 densenet[2][0]                   
__________________________________________________________________________________________________
dense_1 (Dense)                 (None, 512)          2470400     merge_features[0][0]             
__________________________________________________________________________________________________
activation_41 (Activation)      (None, 512)          0           dense_1[0][0]                    
__________________________________________________________________________________________________
batch_normalization_1 (BatchNor (None, 512)          2048        activation_41[0][0]              
__________________________________________________________________________________________________
dropout_19 (Dropout)            (None, 512)          0           batch_normalization_1[0][0]      
__________________________________________________________________________________________________
dense_2 (Dense)                 (None, 1)            513         dropout_19[0][0]                 
==================================================================================================
Total params: 2,522,687
Trainable params: 2,518,989
Non-trainable params: 3,698
__________________________________________________________________________________________________
Finished compiling
Train on 31872 samples, validate on 7968 samples
Epoch 1/7
 - 100s - loss: 0.6669 - acc: 0.7448 - val_loss: 1.7228 - val_acc: 0.5006
…
------------------------ current config for the test -------------------------
Layers:  [6, 6, 6]  Growth_rate:  12  nb_filter:  16  dropout:  0.2
dense_block  3  reduction_:  0.5  bottleneck:  True
------------------------	  end of configs        -------------------------
pooling:flatten
__________________________________________________________________________________________________
Layer (type)                    Output Shape         Param #     Connected to                     
==================================================================================================
input_1 (InputLayer)            (None, 1, 96, 96)    0                                            
__________________________________________________________________________________________________
initial_conv2D (Conv2D)         (None, 16, 48, 48)   784         input_1[0][0]                    
__________________________________________________________________________________________________
initial_bn (BatchNormalization) (None, 16, 48, 48)   64          initial_conv2D[0][0]             
__________________________________________________________________________________________________
activation_1 (Activation)       (None, 16, 48, 48)   0           initial_bn[0][0]                 
__________________________________________________________________________________________________
max_pooling2d_1 (MaxPooling2D)  (None, 16, 24, 24)   0           activation_1[0][0]               
__________________________________________________________________________________________________
dense_0_0_bn (BatchNormalizatio (None, 16, 24, 24)   64          max_pooling2d_1[0][0]            
__________________________________________________________________________________________________
activation_2 (Activation)       (None, 16, 24, 24)   0           dense_0_0_bn[0][0]               
__________________________________________________________________________________________________
dense_0_0_bottleneck_conv2D (Co (None, 48, 24, 24)   768         activation_2[0][0]               
__________________________________________________________________________________________________
dense_0_0_bottleneck_bn (BatchN (None, 48, 24, 24)   192         dense_0_0_bottleneck_conv2D[0][0]
__________________________________________________________________________________________________
activation_3 (Activation)       (None, 48, 24, 24)   0           dense_0_0_bottleneck_bn[0][0]    
__________________________________________________________________________________________________
dense_0_0_conv2D (Conv2D)       (None, 12, 24, 24)   5184        activation_3[0][0]               
__________________________________________________________________________________________________
dropout_1 (Dropout)             (None, 12, 24, 24)   0           dense_0_0_conv2D[0][0]           
__________________________________________________________________________________________________
concatenate_1 (Concatenate)     (None, 28, 24, 24)   0           max_pooling2d_1[0][0]            
                                                                 dropout_1[0][0]                  
__________________________________________________________________________________________________
dense_0_1_bn (BatchNormalizatio (None, 28, 24, 24)   112         concatenate_1[0][0]              
__________________________________________________________________________________________________
activation_4 (Activation)       (None, 28, 24, 24)   0           dense_0_1_bn[0][0]               
__________________________________________________________________________________________________
dense_0_1_bottleneck_conv2D (Co (None, 48, 24, 24)   1344        activation_4[0][0]               
__________________________________________________________________________________________________
dense_0_1_bottleneck_bn (BatchN (None, 48, 24, 24)   192         dense_0_1_bottleneck_conv2D[0][0]
__________________________________________________________________________________________________
activation_5 (Activation)       (None, 48, 24, 24)   0           dense_0_1_bottleneck_bn[0][0]    
__________________________________________________________________________________________________
dense_0_1_conv2D (Conv2D)       (None, 12, 24, 24)   5184        activation_5[0][0]               
__________________________________________________________________________________________________
dropout_2 (Dropout)             (None, 12, 24, 24)   0           dense_0_1_conv2D[0][0]           
__________________________________________________________________________________________________
concatenate_2 (Concatenate)     (None, 40, 24, 24)   0           concatenate_1[0][0]              
                                                                 dropout_2[0][0]                  
__________________________________________________________________________________________________
dense_0_2_bn (BatchNormalizatio (None, 40, 24, 24)   160         concatenate_2[0][0]              
__________________________________________________________________________________________________
activation_6 (Activation)       (None, 40, 24, 24)   0           dense_0_2_bn[0][0]               
__________________________________________________________________________________________________
dense_0_2_bottleneck_conv2D (Co (None, 48, 24, 24)   1920        activation_6[0][0]               
__________________________________________________________________________________________________
dense_0_2_bottleneck_bn (BatchN (None, 48, 24, 24)   192         dense_0_2_bottleneck_conv2D[0][0]
__________________________________________________________________________________________________
activation_7 (Activation)       (None, 48, 24, 24)   0           dense_0_2_bottleneck_bn[0][0]    
__________________________________________________________________________________________________
dense_0_2_conv2D (Conv2D)       (None, 12, 24, 24)   5184        activation_7[0][0]               
__________________________________________________________________________________________________
dropout_3 (Dropout)             (None, 12, 24, 24)   0           dense_0_2_conv2D[0][0]           
__________________________________________________________________________________________________
concatenate_3 (Concatenate)     (None, 52, 24, 24)   0           concatenate_2[0][0]              
                                                                 dropout_3[0][0]                  
__________________________________________________________________________________________________
dense_0_3_bn (BatchNormalizatio (None, 52, 24, 24)   208         concatenate_3[0][0]              
__________________________________________________________________________________________________
activation_8 (Activation)       (None, 52, 24, 24)   0           dense_0_3_bn[0][0]               
__________________________________________________________________________________________________
dense_0_3_bottleneck_conv2D (Co (None, 48, 24, 24)   2496        activation_8[0][0]               
__________________________________________________________________________________________________
dense_0_3_bottleneck_bn (BatchN (None, 48, 24, 24)   192         dense_0_3_bottleneck_conv2D[0][0]
__________________________________________________________________________________________________
activation_9 (Activation)       (None, 48, 24, 24)   0           dense_0_3_bottleneck_bn[0][0]    
__________________________________________________________________________________________________
dense_0_3_conv2D (Conv2D)       (None, 12, 24, 24)   5184        activation_9[0][0]               
__________________________________________________________________________________________________
dropout_4 (Dropout)             (None, 12, 24, 24)   0           dense_0_3_conv2D[0][0]           
__________________________________________________________________________________________________
concatenate_4 (Concatenate)     (None, 64, 24, 24)   0           concatenate_3[0][0]              
                                                                 dropout_4[0][0]                  
__________________________________________________________________________________________________
dense_0_4_bn (BatchNormalizatio (None, 64, 24, 24)   256         concatenate_4[0][0]              
__________________________________________________________________________________________________
activation_10 (Activation)      (None, 64, 24, 24)   0           dense_0_4_bn[0][0]               
__________________________________________________________________________________________________
dense_0_4_bottleneck_conv2D (Co (None, 48, 24, 24)   3072        activation_10[0][0]              
__________________________________________________________________________________________________
dense_0_4_bottleneck_bn (BatchN (None, 48, 24, 24)   192         dense_0_4_bottleneck_conv2D[0][0]
__________________________________________________________________________________________________
activation_11 (Activation)      (None, 48, 24, 24)   0           dense_0_4_bottleneck_bn[0][0]    
__________________________________________________________________________________________________
dense_0_4_conv2D (Conv2D)       (None, 12, 24, 24)   5184        activation_11[0][0]              
__________________________________________________________________________________________________
dropout_5 (Dropout)             (None, 12, 24, 24)   0           dense_0_4_conv2D[0][0]           
__________________________________________________________________________________________________
concatenate_5 (Concatenate)     (None, 76, 24, 24)   0           concatenate_4[0][0]              
                                                                 dropout_5[0][0]                  
__________________________________________________________________________________________________
dense_0_5_bn (BatchNormalizatio (None, 76, 24, 24)   304         concatenate_5[0][0]              
__________________________________________________________________________________________________
activation_12 (Activation)      (None, 76, 24, 24)   0           dense_0_5_bn[0][0]               
__________________________________________________________________________________________________
dense_0_5_bottleneck_conv2D (Co (None, 48, 24, 24)   3648        activation_12[0][0]              
__________________________________________________________________________________________________
dense_0_5_bottleneck_bn (BatchN (None, 48, 24, 24)   192         dense_0_5_bottleneck_conv2D[0][0]
__________________________________________________________________________________________________
activation_13 (Activation)      (None, 48, 24, 24)   0           dense_0_5_bottleneck_bn[0][0]    
__________________________________________________________________________________________________
dense_0_5_conv2D (Conv2D)       (None, 12, 24, 24)   5184        activation_13[0][0]              
__________________________________________________________________________________________________
dropout_6 (Dropout)             (None, 12, 24, 24)   0           dense_0_5_conv2D[0][0]           
__________________________________________________________________________________________________
concatenate_6 (Concatenate)     (None, 88, 24, 24)   0           concatenate_5[0][0]              
                                                                 dropout_6[0][0]                  
__________________________________________________________________________________________________
tr_0_bn (BatchNormalization)    (None, 88, 24, 24)   352         concatenate_6[0][0]              
__________________________________________________________________________________________________
activation_14 (Activation)      (None, 88, 24, 24)   0           tr_0_bn[0][0]                    
__________________________________________________________________________________________________
tr_0_conv2D (Conv2D)            (None, 44, 24, 24)   3872        activation_14[0][0]              
__________________________________________________________________________________________________
max_pooling2d_2 (MaxPooling2D)  (None, 44, 12, 12)   0           tr_0_conv2D[0][0]                
__________________________________________________________________________________________________
dense_1_0_bn (BatchNormalizatio (None, 44, 12, 12)   176         max_pooling2d_2[0][0]            
__________________________________________________________________________________________________
activation_15 (Activation)      (None, 44, 12, 12)   0           dense_1_0_bn[0][0]               
__________________________________________________________________________________________________
dense_1_0_bottleneck_conv2D (Co (None, 48, 12, 12)   2112        activation_15[0][0]              
__________________________________________________________________________________________________
dense_1_0_bottleneck_bn (BatchN (None, 48, 12, 12)   192         dense_1_0_bottleneck_conv2D[0][0]
__________________________________________________________________________________________________
activation_16 (Activation)      (None, 48, 12, 12)   0           dense_1_0_bottleneck_bn[0][0]    
__________________________________________________________________________________________________
dense_1_0_conv2D (Conv2D)       (None, 12, 12, 12)   5184        activation_16[0][0]              
__________________________________________________________________________________________________
dropout_7 (Dropout)             (None, 12, 12, 12)   0           dense_1_0_conv2D[0][0]           
__________________________________________________________________________________________________
concatenate_7 (Concatenate)     (None, 56, 12, 12)   0           max_pooling2d_2[0][0]            
                                                                 dropout_7[0][0]                  
__________________________________________________________________________________________________
dense_1_1_bn (BatchNormalizatio (None, 56, 12, 12)   224         concatenate_7[0][0]              
__________________________________________________________________________________________________
activation_17 (Activation)      (None, 56, 12, 12)   0           dense_1_1_bn[0][0]               
__________________________________________________________________________________________________
dense_1_1_bottleneck_conv2D (Co (None, 48, 12, 12)   2688        activation_17[0][0]              
__________________________________________________________________________________________________
dense_1_1_bottleneck_bn (BatchN (None, 48, 12, 12)   192         dense_1_1_bottleneck_conv2D[0][0]
__________________________________________________________________________________________________
activation_18 (Activation)      (None, 48, 12, 12)   0           dense_1_1_bottleneck_bn[0][0]    
__________________________________________________________________________________________________
dense_1_1_conv2D (Conv2D)       (None, 12, 12, 12)   5184        activation_18[0][0]              
__________________________________________________________________________________________________
dropout_8 (Dropout)             (None, 12, 12, 12)   0           dense_1_1_conv2D[0][0]           
__________________________________________________________________________________________________
concatenate_8 (Concatenate)     (None, 68, 12, 12)   0           concatenate_7[0][0]              
                                                                 dropout_8[0][0]                  
__________________________________________________________________________________________________
dense_1_2_bn (BatchNormalizatio (None, 68, 12, 12)   272         concatenate_8[0][0]              
__________________________________________________________________________________________________
activation_19 (Activation)      (None, 68, 12, 12)   0           dense_1_2_bn[0][0]               
__________________________________________________________________________________________________
dense_1_2_bottleneck_conv2D (Co (None, 48, 12, 12)   3264        activation_19[0][0]              
__________________________________________________________________________________________________
dense_1_2_bottleneck_bn (BatchN (None, 48, 12, 12)   192         dense_1_2_bottleneck_conv2D[0][0]
__________________________________________________________________________________________________
activation_20 (Activation)      (None, 48, 12, 12)   0           dense_1_2_bottleneck_bn[0][0]    
__________________________________________________________________________________________________
dense_1_2_conv2D (Conv2D)       (None, 12, 12, 12)   5184        activation_20[0][0]              
__________________________________________________________________________________________________
dropout_9 (Dropout)             (None, 12, 12, 12)   0           dense_1_2_conv2D[0][0]           
__________________________________________________________________________________________________
concatenate_9 (Concatenate)     (None, 80, 12, 12)   0           concatenate_8[0][0]              
                                                                 dropout_9[0][0]                  
__________________________________________________________________________________________________
dense_1_3_bn (BatchNormalizatio (None, 80, 12, 12)   320         concatenate_9[0][0]              
__________________________________________________________________________________________________
activation_21 (Activation)      (None, 80, 12, 12)   0           dense_1_3_bn[0][0]               
__________________________________________________________________________________________________
dense_1_3_bottleneck_conv2D (Co (None, 48, 12, 12)   3840        activation_21[0][0]              
__________________________________________________________________________________________________
dense_1_3_bottleneck_bn (BatchN (None, 48, 12, 12)   192         dense_1_3_bottleneck_conv2D[0][0]
__________________________________________________________________________________________________
activation_22 (Activation)      (None, 48, 12, 12)   0           dense_1_3_bottleneck_bn[0][0]    
__________________________________________________________________________________________________
dense_1_3_conv2D (Conv2D)       (None, 12, 12, 12)   5184        activation_22[0][0]              
__________________________________________________________________________________________________
dropout_10 (Dropout)            (None, 12, 12, 12)   0           dense_1_3_conv2D[0][0]           
__________________________________________________________________________________________________
concatenate_10 (Concatenate)    (None, 92, 12, 12)   0           concatenate_9[0][0]              
                                                                 dropout_10[0][0]                 
__________________________________________________________________________________________________
dense_1_4_bn (BatchNormalizatio (None, 92, 12, 12)   368         concatenate_10[0][0]             
__________________________________________________________________________________________________
activation_23 (Activation)      (None, 92, 12, 12)   0           dense_1_4_bn[0][0]               
__________________________________________________________________________________________________
dense_1_4_bottleneck_conv2D (Co (None, 48, 12, 12)   4416        activation_23[0][0]              
__________________________________________________________________________________________________
dense_1_4_bottleneck_bn (BatchN (None, 48, 12, 12)   192         dense_1_4_bottleneck_conv2D[0][0]
__________________________________________________________________________________________________
activation_24 (Activation)      (None, 48, 12, 12)   0           dense_1_4_bottleneck_bn[0][0]    
__________________________________________________________________________________________________
dense_1_4_conv2D (Conv2D)       (None, 12, 12, 12)   5184        activation_24[0][0]              
__________________________________________________________________________________________________
dropout_11 (Dropout)            (None, 12, 12, 12)   0           dense_1_4_conv2D[0][0]           
__________________________________________________________________________________________________
concatenate_11 (Concatenate)    (None, 104, 12, 12)  0           concatenate_10[0][0]             
                                                                 dropout_11[0][0]                 
__________________________________________________________________________________________________
dense_1_5_bn (BatchNormalizatio (None, 104, 12, 12)  416         concatenate_11[0][0]             
__________________________________________________________________________________________________
activation_25 (Activation)      (None, 104, 12, 12)  0           dense_1_5_bn[0][0]               
__________________________________________________________________________________________________
dense_1_5_bottleneck_conv2D (Co (None, 48, 12, 12)   4992        activation_25[0][0]              
__________________________________________________________________________________________________
dense_1_5_bottleneck_bn (BatchN (None, 48, 12, 12)   192         dense_1_5_bottleneck_conv2D[0][0]
__________________________________________________________________________________________________
activation_26 (Activation)      (None, 48, 12, 12)   0           dense_1_5_bottleneck_bn[0][0]    
__________________________________________________________________________________________________
dense_1_5_conv2D (Conv2D)       (None, 12, 12, 12)   5184        activation_26[0][0]              
__________________________________________________________________________________________________
dropout_12 (Dropout)            (None, 12, 12, 12)   0           dense_1_5_conv2D[0][0]           
__________________________________________________________________________________________________
concatenate_12 (Concatenate)    (None, 116, 12, 12)  0           concatenate_11[0][0]             
                                                                 dropout_12[0][0]                 
__________________________________________________________________________________________________
tr_1_bn (BatchNormalization)    (None, 116, 12, 12)  464         concatenate_12[0][0]             
__________________________________________________________________________________________________
activation_27 (Activation)      (None, 116, 12, 12)  0           tr_1_bn[0][0]                    
__________________________________________________________________________________________________
tr_1_conv2D (Conv2D)            (None, 58, 12, 12)   6728        activation_27[0][0]              
__________________________________________________________________________________________________
max_pooling2d_3 (MaxPooling2D)  (None, 58, 6, 6)     0           tr_1_conv2D[0][0]                
__________________________________________________________________________________________________
dense_2_0_bn (BatchNormalizatio (None, 58, 6, 6)     232         max_pooling2d_3[0][0]            
__________________________________________________________________________________________________
activation_28 (Activation)      (None, 58, 6, 6)     0           dense_2_0_bn[0][0]               
__________________________________________________________________________________________________
dense_2_0_bottleneck_conv2D (Co (None, 48, 6, 6)     2784        activation_28[0][0]              
__________________________________________________________________________________________________
dense_2_0_bottleneck_bn (BatchN (None, 48, 6, 6)     192         dense_2_0_bottleneck_conv2D[0][0]
__________________________________________________________________________________________________
activation_29 (Activation)      (None, 48, 6, 6)     0           dense_2_0_bottleneck_bn[0][0]    
__________________________________________________________________________________________________
dense_2_0_conv2D (Conv2D)       (None, 12, 6, 6)     5184        activation_29[0][0]              
__________________________________________________________________________________________________
dropout_13 (Dropout)            (None, 12, 6, 6)     0           dense_2_0_conv2D[0][0]           
__________________________________________________________________________________________________
concatenate_13 (Concatenate)    (None, 70, 6, 6)     0           max_pooling2d_3[0][0]            
                                                                 dropout_13[0][0]                 
__________________________________________________________________________________________________
dense_2_1_bn (BatchNormalizatio (None, 70, 6, 6)     280         concatenate_13[0][0]             
__________________________________________________________________________________________________
activation_30 (Activation)      (None, 70, 6, 6)     0           dense_2_1_bn[0][0]               
__________________________________________________________________________________________________
dense_2_1_bottleneck_conv2D (Co (None, 48, 6, 6)     3360        activation_30[0][0]              
__________________________________________________________________________________________________
dense_2_1_bottleneck_bn (BatchN (None, 48, 6, 6)     192         dense_2_1_bottleneck_conv2D[0][0]
__________________________________________________________________________________________________
activation_31 (Activation)      (None, 48, 6, 6)     0           dense_2_1_bottleneck_bn[0][0]    
__________________________________________________________________________________________________
dense_2_1_conv2D (Conv2D)       (None, 12, 6, 6)     5184        activation_31[0][0]              
__________________________________________________________________________________________________
dropout_14 (Dropout)            (None, 12, 6, 6)     0           dense_2_1_conv2D[0][0]           
__________________________________________________________________________________________________
concatenate_14 (Concatenate)    (None, 82, 6, 6)     0           concatenate_13[0][0]             
                                                                 dropout_14[0][0]                 
__________________________________________________________________________________________________
dense_2_2_bn (BatchNormalizatio (None, 82, 6, 6)     328         concatenate_14[0][0]             
__________________________________________________________________________________________________
activation_32 (Activation)      (None, 82, 6, 6)     0           dense_2_2_bn[0][0]               
__________________________________________________________________________________________________
dense_2_2_bottleneck_conv2D (Co (None, 48, 6, 6)     3936        activation_32[0][0]              
__________________________________________________________________________________________________
dense_2_2_bottleneck_bn (BatchN (None, 48, 6, 6)     192         dense_2_2_bottleneck_conv2D[0][0]
__________________________________________________________________________________________________
activation_33 (Activation)      (None, 48, 6, 6)     0           dense_2_2_bottleneck_bn[0][0]    
__________________________________________________________________________________________________
dense_2_2_conv2D (Conv2D)       (None, 12, 6, 6)     5184        activation_33[0][0]              
__________________________________________________________________________________________________
dropout_15 (Dropout)            (None, 12, 6, 6)     0           dense_2_2_conv2D[0][0]           
__________________________________________________________________________________________________
concatenate_15 (Concatenate)    (None, 94, 6, 6)     0           concatenate_14[0][0]             
                                                                 dropout_15[0][0]                 
__________________________________________________________________________________________________
dense_2_3_bn (BatchNormalizatio (None, 94, 6, 6)     376         concatenate_15[0][0]             
__________________________________________________________________________________________________
activation_34 (Activation)      (None, 94, 6, 6)     0           dense_2_3_bn[0][0]               
__________________________________________________________________________________________________
dense_2_3_bottleneck_conv2D (Co (None, 48, 6, 6)     4512        activation_34[0][0]              
__________________________________________________________________________________________________
dense_2_3_bottleneck_bn (BatchN (None, 48, 6, 6)     192         dense_2_3_bottleneck_conv2D[0][0]
__________________________________________________________________________________________________
activation_35 (Activation)      (None, 48, 6, 6)     0           dense_2_3_bottleneck_bn[0][0]    
__________________________________________________________________________________________________
dense_2_3_conv2D (Conv2D)       (None, 12, 6, 6)     5184        activation_35[0][0]              
__________________________________________________________________________________________________
dropout_16 (Dropout)            (None, 12, 6, 6)     0           dense_2_3_conv2D[0][0]           
__________________________________________________________________________________________________
concatenate_16 (Concatenate)    (None, 106, 6, 6)    0           concatenate_15[0][0]             
                                                                 dropout_16[0][0]                 
__________________________________________________________________________________________________
dense_2_4_bn (BatchNormalizatio (None, 106, 6, 6)    424         concatenate_16[0][0]             
__________________________________________________________________________________________________
activation_36 (Activation)      (None, 106, 6, 6)    0           dense_2_4_bn[0][0]               
__________________________________________________________________________________________________
dense_2_4_bottleneck_conv2D (Co (None, 48, 6, 6)     5088        activation_36[0][0]              
__________________________________________________________________________________________________
dense_2_4_bottleneck_bn (BatchN (None, 48, 6, 6)     192         dense_2_4_bottleneck_conv2D[0][0]
__________________________________________________________________________________________________
activation_37 (Activation)      (None, 48, 6, 6)     0           dense_2_4_bottleneck_bn[0][0]    
__________________________________________________________________________________________________
dense_2_4_conv2D (Conv2D)       (None, 12, 6, 6)     5184        activation_37[0][0]              
__________________________________________________________________________________________________
dropout_17 (Dropout)            (None, 12, 6, 6)     0           dense_2_4_conv2D[0][0]           
__________________________________________________________________________________________________
concatenate_17 (Concatenate)    (None, 118, 6, 6)    0           concatenate_16[0][0]             
                                                                 dropout_17[0][0]                 
__________________________________________________________________________________________________
dense_2_5_bn (BatchNormalizatio (None, 118, 6, 6)    472         concatenate_17[0][0]             
__________________________________________________________________________________________________
activation_38 (Activation)      (None, 118, 6, 6)    0           dense_2_5_bn[0][0]               
__________________________________________________________________________________________________
dense_2_5_bottleneck_conv2D (Co (None, 48, 6, 6)     5664        activation_38[0][0]              
__________________________________________________________________________________________________
dense_2_5_bottleneck_bn (BatchN (None, 48, 6, 6)     192         dense_2_5_bottleneck_conv2D[0][0]
__________________________________________________________________________________________________
activation_39 (Activation)      (None, 48, 6, 6)     0           dense_2_5_bottleneck_bn[0][0]    
__________________________________________________________________________________________________
dense_2_5_conv2D (Conv2D)       (None, 12, 6, 6)     5184        activation_39[0][0]              
__________________________________________________________________________________________________
…
==================================================================================================
input_2 (InputLayer)            (None, 1, 96, 96)    0                                            
__________________________________________________________________________________________________
input_3 (InputLayer)            (None, 1, 96, 96)    0                                            
__________________________________________________________________________________________________
densenet (Model)                (None, 1233)         245342      input_2[0][0]                    
                                                                 input_3[0][0]                    
__________________________________________________________________________________________________
merge_features (Concatenate)    (None, 2466)         0           densenet[1][0]                   
                                                                 densenet[2][0]                   
__________________________________________________________________________________________________
dense_1 (Dense)                 (None, 512)          1263104     merge_features[0][0]             
__________________________________________________________________________________________________
activation_54 (Activation)      (None, 512)          0           dense_1[0][0]                    
__________________________________________________________________________________________________
batch_normalization_1 (BatchNor (None, 512)          2048        activation_54[0][0]              
__________________________________________________________________________________________________
dropout_25 (Dropout)            (None, 512)          0           batch_normalization_1[0][0]      
__________________________________________________________________________________________________
dense_2 (Dense)                 (None, 1)            513         dropout_25[0][0]                 
==================================================================================================
Total params: 1,511,007
Trainable params: 1,503,069
Non-trainable params: 7,938
__________________________________________________________________________________________________
Finished compiling
Train on 31872 samples, validate on 7968 samples
Epoch 1/10
 - 140s - loss: 0.9747 - acc: 0.6735 - val_loss: 1.0012 - val_acc: 0.5944
…
------------------------ current config for the test -------------------------
Layers:  [6, 6, 6, 6]  Growth_rate:  18  nb_filter:  16  dropout:  0.2
dense_block  4  reduction_:  0.5  bottleneck:  True
------------------------	  end of configs        -------------------------
pooling:flatten
__________________________________________________________________________________________________
Layer (type)                    Output Shape         Param #     Connected to                     
==================================================================================================
input_1 (InputLayer)            (None, 1, 96, 96)    0                                            
__________________________________________________________________________________________________
initial_conv2D (Conv2D)         (None, 16, 48, 48)   784         input_1[0][0]                    
__________________________________________________________________________________________________
initial_bn (BatchNormalization) (None, 16, 48, 48)   64          initial_conv2D[0][0]             
__________________________________________________________________________________________________
activation_1 (Activation)       (None, 16, 48, 48)   0           initial_bn[0][0]                 
__________________________________________________________________________________________________
max_pooling2d_1 (MaxPooling2D)  (None, 16, 24, 24)   0           activation_1[0][0]               
__________________________________________________________________________________________________
dense_0_0_bn (BatchNormalizatio (None, 16, 24, 24)   64          max_pooling2d_1[0][0]            
__________________________________________________________________________________________________
activation_2 (Activation)       (None, 16, 24, 24)   0           dense_0_0_bn[0][0]               
__________________________________________________________________________________________________
dense_0_0_bottleneck_conv2D (Co (None, 72, 24, 24)   1152        activation_2[0][0]               
__________________________________________________________________________________________________
dense_0_0_bottleneck_bn (BatchN (None, 72, 24, 24)   288         dense_0_0_bottleneck_conv2D[0][0]
__________________________________________________________________________________________________
activation_3 (Activation)       (None, 72, 24, 24)   0           dense_0_0_bottleneck_bn[0][0]    
__________________________________________________________________________________________________
dense_0_0_conv2D (Conv2D)       (None, 18, 24, 24)   11664       activation_3[0][0]               
__________________________________________________________________________________________________
dropout_1 (Dropout)             (None, 18, 24, 24)   0           dense_0_0_conv2D[0][0]           
__________________________________________________________________________________________________
concatenate_1 (Concatenate)     (None, 34, 24, 24)   0           max_pooling2d_1[0][0]            
                                                                 dropout_1[0][0]                  
__________________________________________________________________________________________________
dense_0_1_bn (BatchNormalizatio (None, 34, 24, 24)   136         concatenate_1[0][0]              
__________________________________________________________________________________________________
activation_4 (Activation)       (None, 34, 24, 24)   0           dense_0_1_bn[0][0]               
__________________________________________________________________________________________________
dense_0_1_bottleneck_conv2D (Co (None, 72, 24, 24)   2448        activation_4[0][0]               
__________________________________________________________________________________________________
dense_0_1_bottleneck_bn (BatchN (None, 72, 24, 24)   288         dense_0_1_bottleneck_conv2D[0][0]
__________________________________________________________________________________________________
activation_5 (Activation)       (None, 72, 24, 24)   0           dense_0_1_bottleneck_bn[0][0]    
__________________________________________________________________________________________________
dense_0_1_conv2D (Conv2D)       (None, 18, 24, 24)   11664       activation_5[0][0]               
__________________________________________________________________________________________________
dropout_2 (Dropout)             (None, 18, 24, 24)   0           dense_0_1_conv2D[0][0]           
__________________________________________________________________________________________________
concatenate_2 (Concatenate)     (None, 52, 24, 24)   0           concatenate_1[0][0]              
                                                                 dropout_2[0][0]                  
__________________________________________________________________________________________________
dense_0_2_bn (BatchNormalizatio (None, 52, 24, 24)   208         concatenate_2[0][0]              
__________________________________________________________________________________________________
activation_6 (Activation)       (None, 52, 24, 24)   0           dense_0_2_bn[0][0]               
__________________________________________________________________________________________________
dense_0_2_bottleneck_conv2D (Co (None, 72, 24, 24)   3744        activation_6[0][0]               
__________________________________________________________________________________________________
dense_0_2_bottleneck_bn (BatchN (None, 72, 24, 24)   288         dense_0_2_bottleneck_conv2D[0][0]
__________________________________________________________________________________________________
activation_7 (Activation)       (None, 72, 24, 24)   0           dense_0_2_bottleneck_bn[0][0]    
__________________________________________________________________________________________________
dense_0_2_conv2D (Conv2D)       (None, 18, 24, 24)   11664       activation_7[0][0]               
__________________________________________________________________________________________________
dropout_3 (Dropout)             (None, 18, 24, 24)   0           dense_0_2_conv2D[0][0]           
__________________________________________________________________________________________________
concatenate_3 (Concatenate)     (None, 70, 24, 24)   0           concatenate_2[0][0]              
                                                                 dropout_3[0][0]                  
__________________________________________________________________________________________________
dense_0_3_bn (BatchNormalizatio (None, 70, 24, 24)   280         concatenate_3[0][0]              
__________________________________________________________________________________________________
activation_8 (Activation)       (None, 70, 24, 24)   0           dense_0_3_bn[0][0]               
__________________________________________________________________________________________________
dense_0_3_bottleneck_conv2D (Co (None, 72, 24, 24)   5040        activation_8[0][0]               
__________________________________________________________________________________________________
dense_0_3_bottleneck_bn (BatchN (None, 72, 24, 24)   288         dense_0_3_bottleneck_conv2D[0][0]
__________________________________________________________________________________________________
activation_9 (Activation)       (None, 72, 24, 24)   0           dense_0_3_bottleneck_bn[0][0]    
__________________________________________________________________________________________________
dense_0_3_conv2D (Conv2D)       (None, 18, 24, 24)   11664       activation_9[0][0]               
__________________________________________________________________________________________________
dropout_4 (Dropout)             (None, 18, 24, 24)   0           dense_0_3_conv2D[0][0]           
__________________________________________________________________________________________________
concatenate_4 (Concatenate)     (None, 88, 24, 24)   0           concatenate_3[0][0]              
                                                                 dropout_4[0][0]                  
__________________________________________________________________________________________________
dense_0_4_bn (BatchNormalizatio (None, 88, 24, 24)   352         concatenate_4[0][0]              
__________________________________________________________________________________________________
activation_10 (Activation)      (None, 88, 24, 24)   0           dense_0_4_bn[0][0]               
__________________________________________________________________________________________________
dense_0_4_bottleneck_conv2D (Co (None, 72, 24, 24)   6336        activation_10[0][0]              
__________________________________________________________________________________________________
dense_0_4_bottleneck_bn (BatchN (None, 72, 24, 24)   288         dense_0_4_bottleneck_conv2D[0][0]
__________________________________________________________________________________________________
activation_11 (Activation)      (None, 72, 24, 24)   0           dense_0_4_bottleneck_bn[0][0]    
__________________________________________________________________________________________________
dense_0_4_conv2D (Conv2D)       (None, 18, 24, 24)   11664       activation_11[0][0]              
__________________________________________________________________________________________________
dropout_5 (Dropout)             (None, 18, 24, 24)   0           dense_0_4_conv2D[0][0]           
__________________________________________________________________________________________________
concatenate_5 (Concatenate)     (None, 106, 24, 24)  0           concatenate_4[0][0]              
                                                                 dropout_5[0][0]                  
__________________________________________________________________________________________________
dense_0_5_bn (BatchNormalizatio (None, 106, 24, 24)  424         concatenate_5[0][0]              
__________________________________________________________________________________________________
activation_12 (Activation)      (None, 106, 24, 24)  0           dense_0_5_bn[0][0]               
__________________________________________________________________________________________________
dense_0_5_bottleneck_conv2D (Co (None, 72, 24, 24)   7632        activation_12[0][0]              
__________________________________________________________________________________________________
dense_0_5_bottleneck_bn (BatchN (None, 72, 24, 24)   288         dense_0_5_bottleneck_conv2D[0][0]
__________________________________________________________________________________________________
activation_13 (Activation)      (None, 72, 24, 24)   0           dense_0_5_bottleneck_bn[0][0]    
__________________________________________________________________________________________________
dense_0_5_conv2D (Conv2D)       (None, 18, 24, 24)   11664       activation_13[0][0]              
__________________________________________________________________________________________________
dropout_6 (Dropout)             (None, 18, 24, 24)   0           dense_0_5_conv2D[0][0]           
__________________________________________________________________________________________________
concatenate_6 (Concatenate)     (None, 124, 24, 24)  0           concatenate_5[0][0]              
                                                                 dropout_6[0][0]                  
__________________________________________________________________________________________________
tr_0_bn (BatchNormalization)    (None, 124, 24, 24)  496         concatenate_6[0][0]              
__________________________________________________________________________________________________
activation_14 (Activation)      (None, 124, 24, 24)  0           tr_0_bn[0][0]                    
__________________________________________________________________________________________________
tr_0_conv2D (Conv2D)            (None, 62, 24, 24)   7688        activation_14[0][0]              
__________________________________________________________________________________________________
max_pooling2d_2 (MaxPooling2D)  (None, 62, 12, 12)   0           tr_0_conv2D[0][0]                
__________________________________________________________________________________________________
dense_1_0_bn (BatchNormalizatio (None, 62, 12, 12)   248         max_pooling2d_2[0][0]            
__________________________________________________________________________________________________
activation_15 (Activation)      (None, 62, 12, 12)   0           dense_1_0_bn[0][0]               
__________________________________________________________________________________________________
dense_1_0_bottleneck_conv2D (Co (None, 72, 12, 12)   4464        activation_15[0][0]              
__________________________________________________________________________________________________
dense_1_0_bottleneck_bn (BatchN (None, 72, 12, 12)   288         dense_1_0_bottleneck_conv2D[0][0]
__________________________________________________________________________________________________
activation_16 (Activation)      (None, 72, 12, 12)   0           dense_1_0_bottleneck_bn[0][0]    
__________________________________________________________________________________________________
dense_1_0_conv2D (Conv2D)       (None, 18, 12, 12)   11664       activation_16[0][0]              
__________________________________________________________________________________________________
dropout_7 (Dropout)             (None, 18, 12, 12)   0           dense_1_0_conv2D[0][0]           
__________________________________________________________________________________________________
concatenate_7 (Concatenate)     (None, 80, 12, 12)   0           max_pooling2d_2[0][0]            
                                                                 dropout_7[0][0]                  
__________________________________________________________________________________________________
dense_1_1_bn (BatchNormalizatio (None, 80, 12, 12)   320         concatenate_7[0][0]              
__________________________________________________________________________________________________
activation_17 (Activation)      (None, 80, 12, 12)   0           dense_1_1_bn[0][0]               
__________________________________________________________________________________________________
dense_1_1_bottleneck_conv2D (Co (None, 72, 12, 12)   5760        activation_17[0][0]              
__________________________________________________________________________________________________
dense_1_1_bottleneck_bn (BatchN (None, 72, 12, 12)   288         dense_1_1_bottleneck_conv2D[0][0]
__________________________________________________________________________________________________
activation_18 (Activation)      (None, 72, 12, 12)   0           dense_1_1_bottleneck_bn[0][0]    
__________________________________________________________________________________________________
dense_1_1_conv2D (Conv2D)       (None, 18, 12, 12)   11664       activation_18[0][0]              
__________________________________________________________________________________________________
dropout_8 (Dropout)             (None, 18, 12, 12)   0           dense_1_1_conv2D[0][0]           
__________________________________________________________________________________________________
concatenate_8 (Concatenate)     (None, 98, 12, 12)   0           concatenate_7[0][0]              
                                                                 dropout_8[0][0]                  
__________________________________________________________________________________________________
dense_1_2_bn (BatchNormalizatio (None, 98, 12, 12)   392         concatenate_8[0][0]              
__________________________________________________________________________________________________
activation_19 (Activation)      (None, 98, 12, 12)   0           dense_1_2_bn[0][0]               
__________________________________________________________________________________________________
dense_1_2_bottleneck_conv2D (Co (None, 72, 12, 12)   7056        activation_19[0][0]              
__________________________________________________________________________________________________
dense_1_2_bottleneck_bn (BatchN (None, 72, 12, 12)   288         dense_1_2_bottleneck_conv2D[0][0]
__________________________________________________________________________________________________
activation_20 (Activation)      (None, 72, 12, 12)   0           dense_1_2_bottleneck_bn[0][0]    
__________________________________________________________________________________________________
dense_1_2_conv2D (Conv2D)       (None, 18, 12, 12)   11664       activation_20[0][0]              
__________________________________________________________________________________________________
dropout_9 (Dropout)             (None, 18, 12, 12)   0           dense_1_2_conv2D[0][0]           
__________________________________________________________________________________________________
concatenate_9 (Concatenate)     (None, 116, 12, 12)  0           concatenate_8[0][0]              
                                                                 dropout_9[0][0]                  
__________________________________________________________________________________________________
dense_1_3_bn (BatchNormalizatio (None, 116, 12, 12)  464         concatenate_9[0][0]              
__________________________________________________________________________________________________
activation_21 (Activation)      (None, 116, 12, 12)  0           dense_1_3_bn[0][0]               
__________________________________________________________________________________________________
dense_1_3_bottleneck_conv2D (Co (None, 72, 12, 12)   8352        activation_21[0][0]              
__________________________________________________________________________________________________
dense_1_3_bottleneck_bn (BatchN (None, 72, 12, 12)   288         dense_1_3_bottleneck_conv2D[0][0]
__________________________________________________________________________________________________
activation_22 (Activation)      (None, 72, 12, 12)   0           dense_1_3_bottleneck_bn[0][0]    
__________________________________________________________________________________________________
dense_1_3_conv2D (Conv2D)       (None, 18, 12, 12)   11664       activation_22[0][0]              
__________________________________________________________________________________________________
dropout_10 (Dropout)            (None, 18, 12, 12)   0           dense_1_3_conv2D[0][0]           
__________________________________________________________________________________________________
concatenate_10 (Concatenate)    (None, 134, 12, 12)  0           concatenate_9[0][0]              
                                                                 dropout_10[0][0]                 
__________________________________________________________________________________________________
dense_1_4_bn (BatchNormalizatio (None, 134, 12, 12)  536         concatenate_10[0][0]             
__________________________________________________________________________________________________
activation_23 (Activation)      (None, 134, 12, 12)  0           dense_1_4_bn[0][0]               
__________________________________________________________________________________________________
dense_1_4_bottleneck_conv2D (Co (None, 72, 12, 12)   9648        activation_23[0][0]              
__________________________________________________________________________________________________
dense_1_4_bottleneck_bn (BatchN (None, 72, 12, 12)   288         dense_1_4_bottleneck_conv2D[0][0]
__________________________________________________________________________________________________
activation_24 (Activation)      (None, 72, 12, 12)   0           dense_1_4_bottleneck_bn[0][0]    
__________________________________________________________________________________________________
dense_1_4_conv2D (Conv2D)       (None, 18, 12, 12)   11664       activation_24[0][0]              
__________________________________________________________________________________________________
dropout_11 (Dropout)            (None, 18, 12, 12)   0           dense_1_4_conv2D[0][0]           
__________________________________________________________________________________________________
concatenate_11 (Concatenate)    (None, 152, 12, 12)  0           concatenate_10[0][0]             
                                                                 dropout_11[0][0]                 
__________________________________________________________________________________________________
dense_1_5_bn (BatchNormalizatio (None, 152, 12, 12)  608         concatenate_11[0][0]             
__________________________________________________________________________________________________
activation_25 (Activation)      (None, 152, 12, 12)  0           dense_1_5_bn[0][0]               
__________________________________________________________________________________________________
dense_1_5_bottleneck_conv2D (Co (None, 72, 12, 12)   10944       activation_25[0][0]              
__________________________________________________________________________________________________
dense_1_5_bottleneck_bn (BatchN (None, 72, 12, 12)   288         dense_1_5_bottleneck_conv2D[0][0]
__________________________________________________________________________________________________
activation_26 (Activation)      (None, 72, 12, 12)   0           dense_1_5_bottleneck_bn[0][0]    
__________________________________________________________________________________________________
dense_1_5_conv2D (Conv2D)       (None, 18, 12, 12)   11664       activation_26[0][0]              
__________________________________________________________________________________________________
dropout_12 (Dropout)            (None, 18, 12, 12)   0           dense_1_5_conv2D[0][0]           
__________________________________________________________________________________________________
concatenate_12 (Concatenate)    (None, 170, 12, 12)  0           concatenate_11[0][0]             
                                                                 dropout_12[0][0]                 
__________________________________________________________________________________________________
tr_1_bn (BatchNormalization)    (None, 170, 12, 12)  680         concatenate_12[0][0]             
__________________________________________________________________________________________________
activation_27 (Activation)      (None, 170, 12, 12)  0           tr_1_bn[0][0]                    
__________________________________________________________________________________________________
tr_1_conv2D (Conv2D)            (None, 85, 12, 12)   14450       activation_27[0][0]              
__________________________________________________________________________________________________
max_pooling2d_3 (MaxPooling2D)  (None, 85, 6, 6)     0           tr_1_conv2D[0][0]                
__________________________________________________________________________________________________
dense_2_0_bn (BatchNormalizatio (None, 85, 6, 6)     340         max_pooling2d_3[0][0]            
__________________________________________________________________________________________________
activation_28 (Activation)      (None, 85, 6, 6)     0           dense_2_0_bn[0][0]               
__________________________________________________________________________________________________
dense_2_0_bottleneck_conv2D (Co (None, 72, 6, 6)     6120        activation_28[0][0]              
__________________________________________________________________________________________________
dense_2_0_bottleneck_bn (BatchN (None, 72, 6, 6)     288         dense_2_0_bottleneck_conv2D[0][0]
__________________________________________________________________________________________________
activation_29 (Activation)      (None, 72, 6, 6)     0           dense_2_0_bottleneck_bn[0][0]    
__________________________________________________________________________________________________
dense_2_0_conv2D (Conv2D)       (None, 18, 6, 6)     11664       activation_29[0][0]              
__________________________________________________________________________________________________
dropout_13 (Dropout)            (None, 18, 6, 6)     0           dense_2_0_conv2D[0][0]           
__________________________________________________________________________________________________
concatenate_13 (Concatenate)    (None, 103, 6, 6)    0           max_pooling2d_3[0][0]            
                                                                 dropout_13[0][0]                 
__________________________________________________________________________________________________
dense_2_1_bn (BatchNormalizatio (None, 103, 6, 6)    412         concatenate_13[0][0]             
__________________________________________________________________________________________________
activation_30 (Activation)      (None, 103, 6, 6)    0           dense_2_1_bn[0][0]               
__________________________________________________________________________________________________
dense_2_1_bottleneck_conv2D (Co (None, 72, 6, 6)     7416        activation_30[0][0]              
__________________________________________________________________________________________________
dense_2_1_bottleneck_bn (BatchN (None, 72, 6, 6)     288         dense_2_1_bottleneck_conv2D[0][0]
__________________________________________________________________________________________________
activation_31 (Activation)      (None, 72, 6, 6)     0           dense_2_1_bottleneck_bn[0][0]    
__________________________________________________________________________________________________
dense_2_1_conv2D (Conv2D)       (None, 18, 6, 6)     11664       activation_31[0][0]              
__________________________________________________________________________________________________
dropout_14 (Dropout)            (None, 18, 6, 6)     0           dense_2_1_conv2D[0][0]           
__________________________________________________________________________________________________
concatenate_14 (Concatenate)    (None, 121, 6, 6)    0           concatenate_13[0][0]             
                                                                 dropout_14[0][0]                 
__________________________________________________________________________________________________
dense_2_2_bn (BatchNormalizatio (None, 121, 6, 6)    484         concatenate_14[0][0]             
__________________________________________________________________________________________________
activation_32 (Activation)      (None, 121, 6, 6)    0           dense_2_2_bn[0][0]               
__________________________________________________________________________________________________
dense_2_2_bottleneck_conv2D (Co (None, 72, 6, 6)     8712        activation_32[0][0]              
__________________________________________________________________________________________________
dense_2_2_bottleneck_bn (BatchN (None, 72, 6, 6)     288         dense_2_2_bottleneck_conv2D[0][0]
__________________________________________________________________________________________________
activation_33 (Activation)      (None, 72, 6, 6)     0           dense_2_2_bottleneck_bn[0][0]    
__________________________________________________________________________________________________
dense_2_2_conv2D (Conv2D)       (None, 18, 6, 6)     11664       activation_33[0][0]              
__________________________________________________________________________________________________
dropout_15 (Dropout)            (None, 18, 6, 6)     0           dense_2_2_conv2D[0][0]           
__________________________________________________________________________________________________
concatenate_15 (Concatenate)    (None, 139, 6, 6)    0           concatenate_14[0][0]             
                                                                 dropout_15[0][0]                 
__________________________________________________________________________________________________
dense_2_3_bn (BatchNormalizatio (None, 139, 6, 6)    556         concatenate_15[0][0]             
__________________________________________________________________________________________________
activation_34 (Activation)      (None, 139, 6, 6)    0           dense_2_3_bn[0][0]               
__________________________________________________________________________________________________
dense_2_3_bottleneck_conv2D (Co (None, 72, 6, 6)     10008       activation_34[0][0]              
__________________________________________________________________________________________________
dense_2_3_bottleneck_bn (BatchN (None, 72, 6, 6)     288         dense_2_3_bottleneck_conv2D[0][0]
__________________________________________________________________________________________________
activation_35 (Activation)      (None, 72, 6, 6)     0           dense_2_3_bottleneck_bn[0][0]    
__________________________________________________________________________________________________
dense_2_3_conv2D (Conv2D)       (None, 18, 6, 6)     11664       activation_35[0][0]              
__________________________________________________________________________________________________
dropout_16 (Dropout)            (None, 18, 6, 6)     0           dense_2_3_conv2D[0][0]           
__________________________________________________________________________________________________
concatenate_16 (Concatenate)    (None, 157, 6, 6)    0           concatenate_15[0][0]             
                                                                 dropout_16[0][0]                 
__________________________________________________________________________________________________
dense_2_4_bn (BatchNormalizatio (None, 157, 6, 6)    628         concatenate_16[0][0]             
__________________________________________________________________________________________________
activation_36 (Activation)      (None, 157, 6, 6)    0           dense_2_4_bn[0][0]               
__________________________________________________________________________________________________
dense_2_4_bottleneck_conv2D (Co (None, 72, 6, 6)     11304       activation_36[0][0]              
__________________________________________________________________________________________________
dense_2_4_bottleneck_bn (BatchN (None, 72, 6, 6)     288         dense_2_4_bottleneck_conv2D[0][0]
__________________________________________________________________________________________________
activation_37 (Activation)      (None, 72, 6, 6)     0           dense_2_4_bottleneck_bn[0][0]    
__________________________________________________________________________________________________
dense_2_4_conv2D (Conv2D)       (None, 18, 6, 6)     11664       activation_37[0][0]              
__________________________________________________________________________________________________
dropout_17 (Dropout)            (None, 18, 6, 6)     0           dense_2_4_conv2D[0][0]           
__________________________________________________________________________________________________
concatenate_17 (Concatenate)    (None, 175, 6, 6)    0           concatenate_16[0][0]             
                                                                 dropout_17[0][0]                 
__________________________________________________________________________________________________
dense_2_5_bn (BatchNormalizatio (None, 175, 6, 6)    700         concatenate_17[0][0]             
__________________________________________________________________________________________________
activation_38 (Activation)      (None, 175, 6, 6)    0           dense_2_5_bn[0][0]               
__________________________________________________________________________________________________
dense_2_5_bottleneck_conv2D (Co (None, 72, 6, 6)     12600       activation_38[0][0]              
__________________________________________________________________________________________________
dense_2_5_bottleneck_bn (BatchN (None, 72, 6, 6)     288         dense_2_5_bottleneck_conv2D[0][0]
__________________________________________________________________________________________________
activation_39 (Activation)      (None, 72, 6, 6)     0           dense_2_5_bottleneck_bn[0][0]    
__________________________________________________________________________________________________
dense_2_5_conv2D (Conv2D)       (None, 18, 6, 6)     11664       activation_39[0][0]              
__________________________________________________________________________________________________
dropout_18 (Dropout)            (None, 18, 6, 6)     0           dense_2_5_conv2D[0][0]           
__________________________________________________________________________________________________
concatenate_18 (Concatenate)    (None, 193, 6, 6)    0           concatenate_17[0][0]             
                                                                 dropout_18[0][0]                 
__________________________________________________________________________________________________
tr_2_bn (BatchNormalization)    (None, 193, 6, 6)    772         concatenate_18[0][0]             
__________________________________________________________________________________________________
activation_40 (Activation)      (None, 193, 6, 6)    0           tr_2_bn[0][0]                    
__________________________________________________________________________________________________
tr_2_conv2D (Conv2D)            (None, 96, 6, 6)     18528       activation_40[0][0]              
__________________________________________________________________________________________________
max_pooling2d_4 (MaxPooling2D)  (None, 96, 3, 3)     0           tr_2_conv2D[0][0]                
__________________________________________________________________________________________________
dense_3_0_bn (BatchNormalizatio (None, 96, 3, 3)     384         max_pooling2d_4[0][0]            
__________________________________________________________________________________________________
activation_41 (Activation)      (None, 96, 3, 3)     0           dense_3_0_bn[0][0]               
__________________________________________________________________________________________________
dense_3_0_bottleneck_conv2D (Co (None, 72, 3, 3)     6912        activation_41[0][0]              
__________________________________________________________________________________________________
dense_3_0_bottleneck_bn (BatchN (None, 72, 3, 3)     288         dense_3_0_bottleneck_conv2D[0][0]
__________________________________________________________________________________________________
activation_42 (Activation)      (None, 72, 3, 3)     0           dense_3_0_bottleneck_bn[0][0]    
__________________________________________________________________________________________________
dense_3_0_conv2D (Conv2D)       (None, 18, 3, 3)     11664       activation_42[0][0]              
__________________________________________________________________________________________________
dropout_19 (Dropout)            (None, 18, 3, 3)     0           dense_3_0_conv2D[0][0]           
__________________________________________________________________________________________________
concatenate_19 (Concatenate)    (None, 114, 3, 3)    0           max_pooling2d_4[0][0]            
                                                                 dropout_19[0][0]                 
__________________________________________________________________________________________________
dense_3_1_bn (BatchNormalizatio (None, 114, 3, 3)    456         concatenate_19[0][0]             
__________________________________________________________________________________________________
activation_43 (Activation)      (None, 114, 3, 3)    0           dense_3_1_bn[0][0]               
__________________________________________________________________________________________________
dense_3_1_bottleneck_conv2D (Co (None, 72, 3, 3)     8208        activation_43[0][0]              
__________________________________________________________________________________________________
dense_3_1_bottleneck_bn (BatchN (None, 72, 3, 3)     288         dense_3_1_bottleneck_conv2D[0][0]
__________________________________________________________________________________________________
activation_44 (Activation)      (None, 72, 3, 3)     0           dense_3_1_bottleneck_bn[0][0]    
__________________________________________________________________________________________________
dense_3_1_conv2D (Conv2D)       (None, 18, 3, 3)     11664       activation_44[0][0]              
__________________________________________________________________________________________________
dropout_20 (Dropout)            (None, 18, 3, 3)     0           dense_3_1_conv2D[0][0]           
__________________________________________________________________________________________________
concatenate_20 (Concatenate)    (None, 132, 3, 3)    0           concatenate_19[0][0]             
                                                                 dropout_20[0][0]                 
__________________________________________________________________________________________________
dense_3_2_bn (BatchNormalizatio (None, 132, 3, 3)    528         concatenate_20[0][0]             
__________________________________________________________________________________________________
activation_45 (Activation)      (None, 132, 3, 3)    0           dense_3_2_bn[0][0]               
__________________________________________________________________________________________________
dense_3_2_bottleneck_conv2D (Co (None, 72, 3, 3)     9504        activation_45[0][0]              
__________________________________________________________________________________________________
dense_3_2_bottleneck_bn (BatchN (None, 72, 3, 3)     288         dense_3_2_bottleneck_conv2D[0][0]
__________________________________________________________________________________________________
activation_46 (Activation)      (None, 72, 3, 3)     0           dense_3_2_bottleneck_bn[0][0]    
__________________________________________________________________________________________________
dense_3_2_conv2D (Conv2D)       (None, 18, 3, 3)     11664       activation_46[0][0]              
__________________________________________________________________________________________________
dropout_21 (Dropout)            (None, 18, 3, 3)     0           dense_3_2_conv2D[0][0]           
__________________________________________________________________________________________________
concatenate_21 (Concatenate)    (None, 150, 3, 3)    0           concatenate_20[0][0]             
                                                                 dropout_21[0][0]                 
__________________________________________________________________________________________________
dense_3_3_bn (BatchNormalizatio (None, 150, 3, 3)    600         concatenate_21[0][0]             
__________________________________________________________________________________________________
activation_47 (Activation)      (None, 150, 3, 3)    0           dense_3_3_bn[0][0]               
__________________________________________________________________________________________________
dense_3_3_bottleneck_conv2D (Co (None, 72, 3, 3)     10800       activation_47[0][0]              
__________________________________________________________________________________________________
dense_3_3_bottleneck_bn (BatchN (None, 72, 3, 3)     288         dense_3_3_bottleneck_conv2D[0][0]
__________________________________________________________________________________________________
activation_48 (Activation)      (None, 72, 3, 3)     0           dense_3_3_bottleneck_bn[0][0]    
__________________________________________________________________________________________________
dense_3_3_conv2D (Conv2D)       (None, 18, 3, 3)     11664       activation_48[0][0]              
__________________________________________________________________________________________________
dropout_22 (Dropout)            (None, 18, 3, 3)     0           dense_3_3_conv2D[0][0]           
__________________________________________________________________________________________________
concatenate_22 (Concatenate)    (None, 168, 3, 3)    0           concatenate_21[0][0]             
                                                                 dropout_22[0][0]                 
__________________________________________________________________________________________________
dense_3_4_bn (BatchNormalizatio (None, 168, 3, 3)    672         concatenate_22[0][0]             
__________________________________________________________________________________________________
activation_49 (Activation)      (None, 168, 3, 3)    0           dense_3_4_bn[0][0]               
__________________________________________________________________________________________________
dense_3_4_bottleneck_conv2D (Co (None, 72, 3, 3)     12096       activation_49[0][0]              
__________________________________________________________________________________________________
dense_3_4_bottleneck_bn (BatchN (None, 72, 3, 3)     288         dense_3_4_bottleneck_conv2D[0][0]
__________________________________________________________________________________________________
activation_50 (Activation)      (None, 72, 3, 3)     0           dense_3_4_bottleneck_bn[0][0]    
__________________________________________________________________________________________________
dense_3_4_conv2D (Conv2D)       (None, 18, 3, 3)     11664       activation_50[0][0]              
__________________________________________________________________________________________________
dropout_23 (Dropout)            (None, 18, 3, 3)     0           dense_3_4_conv2D[0][0]           
__________________________________________________________________________________________________
concatenate_23 (Concatenate)    (None, 186, 3, 3)    0           concatenate_22[0][0]             
                                                                 dropout_23[0][0]                 
__________________________________________________________________________________________________
dense_3_5_bn (BatchNormalizatio (None, 186, 3, 3)    744         concatenate_23[0][0]             
__________________________________________________________________________________________________
activation_51 (Activation)      (None, 186, 3, 3)    0           dense_3_5_bn[0][0]               
__________________________________________________________________________________________________
dense_3_5_bottleneck_conv2D (Co (None, 72, 3, 3)     13392       activation_51[0][0]              
__________________________________________________________________________________________________
dense_3_5_bottleneck_bn (BatchN (None, 72, 3, 3)     288         dense_3_5_bottleneck_conv2D[0][0]
__________________________________________________________________________________________________
activation_52 (Activation)      (None, 72, 3, 3)     0           dense_3_5_bottleneck_bn[0][0]    
__________________________________________________________________________________________________
dense_3_5_conv2D (Conv2D)       (None, 18, 3, 3)     11664       activation_52[0][0]              
__________________________________________________________________________________________________
dropout_24 (Dropout)            (None, 18, 3, 3)     0           dense_3_5_conv2D[0][0]           
__________________________________________________________________________________________________
concatenate_24 (Concatenate)    (None, 204, 3, 3)    0           concatenate_23[0][0]             
                                                                 dropout_24[0][0]                 
__________________________________________________________________________________________________
final_bn (BatchNormalization)   (None, 204, 3, 3)    816         concatenate_24[0][0]             
__________________________________________________________________________________________________
activation_53 (Activation)      (None, 204, 3, 3)    0           final_bn[0][0]                   
__________________________________________________________________________________________________
flatten_1 (Flatten)             (None, 1836)         0           activation_53[0][0]              
==================================================================================================
Total params: 531,310
Trainable params: 521,172
Non-trainable params: 10,138
__________________________________________________________________________________________________
__________________________________________________________________________________________________
Layer (type)                    Output Shape         Param #     Connected to                     
==================================================================================================
input_2 (InputLayer)            (None, 1, 96, 96)    0                                            
__________________________________________________________________________________________________
input_3 (InputLayer)            (None, 1, 96, 96)    0                                            
__________________________________________________________________________________________________
densenet (Model)                (None, 1836)         531310      input_2[0][0]                    
                                                                 input_3[0][0]                    
__________________________________________________________________________________________________
merge_features (Concatenate)    (None, 3672)         0           densenet[1][0]                   
                                                                 densenet[2][0]                   
__________________________________________________________________________________________________
dense_1 (Dense)                 (None, 512)          1880576     merge_features[0][0]             
__________________________________________________________________________________________________
activation_54 (Activation)      (None, 512)          0           dense_1[0][0]                    
__________________________________________________________________________________________________
batch_normalization_1 (BatchNor (None, 512)          2048        activation_54[0][0]              
__________________________________________________________________________________________________
dropout_25 (Dropout)            (None, 512)          0           batch_normalization_1[0][0]      
__________________________________________________________________________________________________
dense_2 (Dense)                 (None, 1)            513         dropout_25[0][0]                 
==================================================================================================
Total params: 2,414,447
Trainable params: 2,403,285
Non-trainable params: 11,162
__________________________________________________________________________________________________
Finished compiling
Train on 31872 samples, validate on 7968 samples
Epoch 1/10
…
