…
Layers:  [8, 8, 8, 8]  Growth_rate:  30  nb_filter:  16  dropout:  0.2
dense_block  4  reduction:  0.5  bottleneck:  False
Epochs  15  batch_size:  64  lr:  0.07  optimizer:  adadelta
 es_patience:  4  lr_patience:  3
------------------------	  end of configs        -------------------------
pooling:flatten
__________________________________________________________________________________________________
Layer (type)                    Output Shape         Param #     Connected to                     
==================================================================================================
input_1 (InputLayer)            (None, 2, 96, 96)    0                                            
__________________________________________________________________________________________________
initial_conv2D (Conv2D)         (None, 16, 48, 48)   1568        input_1[0][0]                    
__________________________________________________________________________________________________
initial_bn (BatchNormalization) (None, 16, 48, 48)   64          initial_conv2D[0][0]             
__________________________________________________________________________________________________
activation_1 (Activation)       (None, 16, 48, 48)   0           initial_bn[0][0]                 
__________________________________________________________________________________________________
max_pooling2d_1 (MaxPooling2D)  (None, 16, 24, 24)   0           activation_1[0][0]               
__________________________________________________________________________________________________
dense_0_0_bn (BatchNormalizatio (None, 16, 24, 24)   64          max_pooling2d_1[0][0]            
__________________________________________________________________________________________________
activation_2 (Activation)       (None, 16, 24, 24)   0           dense_0_0_bn[0][0]               
__________________________________________________________________________________________________
dense_0_0_conv2D (Conv2D)       (None, 30, 24, 24)   4320        activation_2[0][0]               
__________________________________________________________________________________________________
dropout_1 (Dropout)             (None, 30, 24, 24)   0           dense_0_0_conv2D[0][0]           
__________________________________________________________________________________________________
concatenate_1 (Concatenate)     (None, 46, 24, 24)   0           max_pooling2d_1[0][0]            
                                                                 dropout_1[0][0]                  
__________________________________________________________________________________________________
dense_0_1_bn (BatchNormalizatio (None, 46, 24, 24)   184         concatenate_1[0][0]              
__________________________________________________________________________________________________
activation_3 (Activation)       (None, 46, 24, 24)   0           dense_0_1_bn[0][0]               
__________________________________________________________________________________________________
dense_0_1_conv2D (Conv2D)       (None, 30, 24, 24)   12420       activation_3[0][0]               
__________________________________________________________________________________________________
dropout_2 (Dropout)             (None, 30, 24, 24)   0           dense_0_1_conv2D[0][0]           
__________________________________________________________________________________________________
concatenate_2 (Concatenate)     (None, 76, 24, 24)   0           concatenate_1[0][0]              
                                                                 dropout_2[0][0]                  
__________________________________________________________________________________________________
dense_0_2_bn (BatchNormalizatio (None, 76, 24, 24)   304         concatenate_2[0][0]              
__________________________________________________________________________________________________
activation_4 (Activation)       (None, 76, 24, 24)   0           dense_0_2_bn[0][0]               
__________________________________________________________________________________________________
dense_0_2_conv2D (Conv2D)       (None, 30, 24, 24)   20520       activation_4[0][0]               
__________________________________________________________________________________________________
dropout_3 (Dropout)             (None, 30, 24, 24)   0           dense_0_2_conv2D[0][0]           
__________________________________________________________________________________________________
concatenate_3 (Concatenate)     (None, 106, 24, 24)  0           concatenate_2[0][0]              
                                                                 dropout_3[0][0]                  
__________________________________________________________________________________________________
dense_0_3_bn (BatchNormalizatio (None, 106, 24, 24)  424         concatenate_3[0][0]              
__________________________________________________________________________________________________
activation_5 (Activation)       (None, 106, 24, 24)  0           dense_0_3_bn[0][0]               
__________________________________________________________________________________________________
dense_0_3_conv2D (Conv2D)       (None, 30, 24, 24)   28620       activation_5[0][0]               
__________________________________________________________________________________________________
dropout_4 (Dropout)             (None, 30, 24, 24)   0           dense_0_3_conv2D[0][0]           
__________________________________________________________________________________________________
concatenate_4 (Concatenate)     (None, 136, 24, 24)  0           concatenate_3[0][0]              
                                                                 dropout_4[0][0]                  
__________________________________________________________________________________________________
dense_0_4_bn (BatchNormalizatio (None, 136, 24, 24)  544         concatenate_4[0][0]              
__________________________________________________________________________________________________
activation_6 (Activation)       (None, 136, 24, 24)  0           dense_0_4_bn[0][0]               
__________________________________________________________________________________________________
dense_0_4_conv2D (Conv2D)       (None, 30, 24, 24)   36720       activation_6[0][0]               
__________________________________________________________________________________________________
dropout_5 (Dropout)             (None, 30, 24, 24)   0           dense_0_4_conv2D[0][0]           
__________________________________________________________________________________________________
concatenate_5 (Concatenate)     (None, 166, 24, 24)  0           concatenate_4[0][0]              
                                                                 dropout_5[0][0]                  
__________________________________________________________________________________________________
dense_0_5_bn (BatchNormalizatio (None, 166, 24, 24)  664         concatenate_5[0][0]              
__________________________________________________________________________________________________
activation_7 (Activation)       (None, 166, 24, 24)  0           dense_0_5_bn[0][0]               
__________________________________________________________________________________________________
dense_0_5_conv2D (Conv2D)       (None, 30, 24, 24)   44820       activation_7[0][0]               
__________________________________________________________________________________________________
dropout_6 (Dropout)             (None, 30, 24, 24)   0           dense_0_5_conv2D[0][0]           
__________________________________________________________________________________________________
concatenate_6 (Concatenate)     (None, 196, 24, 24)  0           concatenate_5[0][0]              
                                                                 dropout_6[0][0]                  
__________________________________________________________________________________________________
dense_0_6_bn (BatchNormalizatio (None, 196, 24, 24)  784         concatenate_6[0][0]              
__________________________________________________________________________________________________
activation_8 (Activation)       (None, 196, 24, 24)  0           dense_0_6_bn[0][0]               
__________________________________________________________________________________________________
dense_0_6_conv2D (Conv2D)       (None, 30, 24, 24)   52920       activation_8[0][0]               
__________________________________________________________________________________________________
dropout_7 (Dropout)             (None, 30, 24, 24)   0           dense_0_6_conv2D[0][0]           
__________________________________________________________________________________________________
concatenate_7 (Concatenate)     (None, 226, 24, 24)  0           concatenate_6[0][0]              
                                                                 dropout_7[0][0]                  
__________________________________________________________________________________________________
dense_0_7_bn (BatchNormalizatio (None, 226, 24, 24)  904         concatenate_7[0][0]              
__________________________________________________________________________________________________
activation_9 (Activation)       (None, 226, 24, 24)  0           dense_0_7_bn[0][0]               
__________________________________________________________________________________________________
dense_0_7_conv2D (Conv2D)       (None, 30, 24, 24)   61020       activation_9[0][0]               
__________________________________________________________________________________________________
dropout_8 (Dropout)             (None, 30, 24, 24)   0           dense_0_7_conv2D[0][0]           
__________________________________________________________________________________________________
concatenate_8 (Concatenate)     (None, 256, 24, 24)  0           concatenate_7[0][0]              
                                                                 dropout_8[0][0]                  
__________________________________________________________________________________________________
tr_0_bn (BatchNormalization)    (None, 256, 24, 24)  1024        concatenate_8[0][0]              
__________________________________________________________________________________________________
activation_10 (Activation)      (None, 256, 24, 24)  0           tr_0_bn[0][0]                    
__________________________________________________________________________________________________
tr_0_conv2D (Conv2D)            (None, 128, 24, 24)  32768       activation_10[0][0]              
__________________________________________________________________________________________________
average_pooling2d_1 (AveragePoo (None, 128, 12, 12)  0           tr_0_conv2D[0][0]                
__________________________________________________________________________________________________
dense_1_0_bn (BatchNormalizatio (None, 128, 12, 12)  512         average_pooling2d_1[0][0]        
__________________________________________________________________________________________________
activation_11 (Activation)      (None, 128, 12, 12)  0           dense_1_0_bn[0][0]               
__________________________________________________________________________________________________
dense_1_0_conv2D (Conv2D)       (None, 30, 12, 12)   34560       activation_11[0][0]              
__________________________________________________________________________________________________
dropout_9 (Dropout)             (None, 30, 12, 12)   0           dense_1_0_conv2D[0][0]           
__________________________________________________________________________________________________
concatenate_9 (Concatenate)     (None, 158, 12, 12)  0           average_pooling2d_1[0][0]        
                                                                 dropout_9[0][0]                  
__________________________________________________________________________________________________
dense_1_1_bn (BatchNormalizatio (None, 158, 12, 12)  632         concatenate_9[0][0]              
__________________________________________________________________________________________________
activation_12 (Activation)      (None, 158, 12, 12)  0           dense_1_1_bn[0][0]               
__________________________________________________________________________________________________
dense_1_1_conv2D (Conv2D)       (None, 30, 12, 12)   42660       activation_12[0][0]              
__________________________________________________________________________________________________
dropout_10 (Dropout)            (None, 30, 12, 12)   0           dense_1_1_conv2D[0][0]           
__________________________________________________________________________________________________
concatenate_10 (Concatenate)    (None, 188, 12, 12)  0           concatenate_9[0][0]              
                                                                 dropout_10[0][0]                 
__________________________________________________________________________________________________
dense_1_2_bn (BatchNormalizatio (None, 188, 12, 12)  752         concatenate_10[0][0]             
__________________________________________________________________________________________________
activation_13 (Activation)      (None, 188, 12, 12)  0           dense_1_2_bn[0][0]               
__________________________________________________________________________________________________
dense_1_2_conv2D (Conv2D)       (None, 30, 12, 12)   50760       activation_13[0][0]              
__________________________________________________________________________________________________
dropout_11 (Dropout)            (None, 30, 12, 12)   0           dense_1_2_conv2D[0][0]           
__________________________________________________________________________________________________
concatenate_11 (Concatenate)    (None, 218, 12, 12)  0           concatenate_10[0][0]             
                                                                 dropout_11[0][0]                 
__________________________________________________________________________________________________
dense_1_3_bn (BatchNormalizatio (None, 218, 12, 12)  872         concatenate_11[0][0]             
__________________________________________________________________________________________________
activation_14 (Activation)      (None, 218, 12, 12)  0           dense_1_3_bn[0][0]               
__________________________________________________________________________________________________
dense_1_3_conv2D (Conv2D)       (None, 30, 12, 12)   58860       activation_14[0][0]              
__________________________________________________________________________________________________
dropout_12 (Dropout)            (None, 30, 12, 12)   0           dense_1_3_conv2D[0][0]           
__________________________________________________________________________________________________
concatenate_12 (Concatenate)    (None, 248, 12, 12)  0           concatenate_11[0][0]             
                                                                 dropout_12[0][0]                 
__________________________________________________________________________________________________
dense_1_4_bn (BatchNormalizatio (None, 248, 12, 12)  992         concatenate_12[0][0]             
__________________________________________________________________________________________________
activation_15 (Activation)      (None, 248, 12, 12)  0           dense_1_4_bn[0][0]               
__________________________________________________________________________________________________
dense_1_4_conv2D (Conv2D)       (None, 30, 12, 12)   66960       activation_15[0][0]              
__________________________________________________________________________________________________
dropout_13 (Dropout)            (None, 30, 12, 12)   0           dense_1_4_conv2D[0][0]           
__________________________________________________________________________________________________
concatenate_13 (Concatenate)    (None, 278, 12, 12)  0           concatenate_12[0][0]             
                                                                 dropout_13[0][0]                 
__________________________________________________________________________________________________
dense_1_5_bn (BatchNormalizatio (None, 278, 12, 12)  1112        concatenate_13[0][0]             
__________________________________________________________________________________________________
activation_16 (Activation)      (None, 278, 12, 12)  0           dense_1_5_bn[0][0]               
__________________________________________________________________________________________________
dense_1_5_conv2D (Conv2D)       (None, 30, 12, 12)   75060       activation_16[0][0]              
__________________________________________________________________________________________________
dropout_14 (Dropout)            (None, 30, 12, 12)   0           dense_1_5_conv2D[0][0]           
__________________________________________________________________________________________________
concatenate_14 (Concatenate)    (None, 308, 12, 12)  0           concatenate_13[0][0]             
                                                                 dropout_14[0][0]                 
__________________________________________________________________________________________________
dense_1_6_bn (BatchNormalizatio (None, 308, 12, 12)  1232        concatenate_14[0][0]             
__________________________________________________________________________________________________
activation_17 (Activation)      (None, 308, 12, 12)  0           dense_1_6_bn[0][0]               
__________________________________________________________________________________________________
dense_1_6_conv2D (Conv2D)       (None, 30, 12, 12)   83160       activation_17[0][0]              
__________________________________________________________________________________________________
dropout_15 (Dropout)            (None, 30, 12, 12)   0           dense_1_6_conv2D[0][0]           
__________________________________________________________________________________________________
concatenate_15 (Concatenate)    (None, 338, 12, 12)  0           concatenate_14[0][0]             
                                                                 dropout_15[0][0]                 
__________________________________________________________________________________________________
dense_1_7_bn (BatchNormalizatio (None, 338, 12, 12)  1352        concatenate_15[0][0]             
__________________________________________________________________________________________________
activation_18 (Activation)      (None, 338, 12, 12)  0           dense_1_7_bn[0][0]               
__________________________________________________________________________________________________
dense_1_7_conv2D (Conv2D)       (None, 30, 12, 12)   91260       activation_18[0][0]              
__________________________________________________________________________________________________
dropout_16 (Dropout)            (None, 30, 12, 12)   0           dense_1_7_conv2D[0][0]           
__________________________________________________________________________________________________
concatenate_16 (Concatenate)    (None, 368, 12, 12)  0           concatenate_15[0][0]             
                                                                 dropout_16[0][0]                 
__________________________________________________________________________________________________
tr_1_bn (BatchNormalization)    (None, 368, 12, 12)  1472        concatenate_16[0][0]             
__________________________________________________________________________________________________
activation_19 (Activation)      (None, 368, 12, 12)  0           tr_1_bn[0][0]                    
__________________________________________________________________________________________________
tr_1_conv2D (Conv2D)            (None, 184, 12, 12)  67712       activation_19[0][0]              
__________________________________________________________________________________________________
average_pooling2d_2 (AveragePoo (None, 184, 6, 6)    0           tr_1_conv2D[0][0]                
__________________________________________________________________________________________________
dense_2_0_bn (BatchNormalizatio (None, 184, 6, 6)    736         average_pooling2d_2[0][0]        
__________________________________________________________________________________________________
activation_20 (Activation)      (None, 184, 6, 6)    0           dense_2_0_bn[0][0]               
__________________________________________________________________________________________________
dense_2_0_conv2D (Conv2D)       (None, 30, 6, 6)     49680       activation_20[0][0]              
__________________________________________________________________________________________________
dropout_17 (Dropout)            (None, 30, 6, 6)     0           dense_2_0_conv2D[0][0]           
__________________________________________________________________________________________________
concatenate_17 (Concatenate)    (None, 214, 6, 6)    0           average_pooling2d_2[0][0]        
                                                                 dropout_17[0][0]                 
__________________________________________________________________________________________________
dense_2_1_bn (BatchNormalizatio (None, 214, 6, 6)    856         concatenate_17[0][0]             
__________________________________________________________________________________________________
activation_21 (Activation)      (None, 214, 6, 6)    0           dense_2_1_bn[0][0]               
__________________________________________________________________________________________________
dense_2_1_conv2D (Conv2D)       (None, 30, 6, 6)     57780       activation_21[0][0]              
__________________________________________________________________________________________________
dropout_18 (Dropout)            (None, 30, 6, 6)     0           dense_2_1_conv2D[0][0]           
__________________________________________________________________________________________________
concatenate_18 (Concatenate)    (None, 244, 6, 6)    0           concatenate_17[0][0]             
                                                                 dropout_18[0][0]                 
__________________________________________________________________________________________________
dense_2_2_bn (BatchNormalizatio (None, 244, 6, 6)    976         concatenate_18[0][0]             
__________________________________________________________________________________________________
activation_22 (Activation)      (None, 244, 6, 6)    0           dense_2_2_bn[0][0]               
__________________________________________________________________________________________________
dense_2_2_conv2D (Conv2D)       (None, 30, 6, 6)     65880       activation_22[0][0]              
__________________________________________________________________________________________________
dropout_19 (Dropout)            (None, 30, 6, 6)     0           dense_2_2_conv2D[0][0]           
__________________________________________________________________________________________________
concatenate_19 (Concatenate)    (None, 274, 6, 6)    0           concatenate_18[0][0]             
                                                                 dropout_19[0][0]                 
__________________________________________________________________________________________________
dense_2_3_bn (BatchNormalizatio (None, 274, 6, 6)    1096        concatenate_19[0][0]             
__________________________________________________________________________________________________
activation_23 (Activation)      (None, 274, 6, 6)    0           dense_2_3_bn[0][0]               
__________________________________________________________________________________________________
dense_2_3_conv2D (Conv2D)       (None, 30, 6, 6)     73980       activation_23[0][0]              
__________________________________________________________________________________________________
dropout_20 (Dropout)            (None, 30, 6, 6)     0           dense_2_3_conv2D[0][0]           
__________________________________________________________________________________________________
concatenate_20 (Concatenate)    (None, 304, 6, 6)    0           concatenate_19[0][0]             
                                                                 dropout_20[0][0]                 
__________________________________________________________________________________________________
dense_2_4_bn (BatchNormalizatio (None, 304, 6, 6)    1216        concatenate_20[0][0]             
__________________________________________________________________________________________________
activation_24 (Activation)      (None, 304, 6, 6)    0           dense_2_4_bn[0][0]               
__________________________________________________________________________________________________
dense_2_4_conv2D (Conv2D)       (None, 30, 6, 6)     82080       activation_24[0][0]              
__________________________________________________________________________________________________
dropout_21 (Dropout)            (None, 30, 6, 6)     0           dense_2_4_conv2D[0][0]           
__________________________________________________________________________________________________
concatenate_21 (Concatenate)    (None, 334, 6, 6)    0           concatenate_20[0][0]             
                                                                 dropout_21[0][0]                 
__________________________________________________________________________________________________
dense_2_5_bn (BatchNormalizatio (None, 334, 6, 6)    1336        concatenate_21[0][0]             
__________________________________________________________________________________________________
activation_25 (Activation)      (None, 334, 6, 6)    0           dense_2_5_bn[0][0]               
__________________________________________________________________________________________________
dense_2_5_conv2D (Conv2D)       (None, 30, 6, 6)     90180       activation_25[0][0]              
__________________________________________________________________________________________________
dropout_22 (Dropout)            (None, 30, 6, 6)     0           dense_2_5_conv2D[0][0]           
__________________________________________________________________________________________________
concatenate_22 (Concatenate)    (None, 364, 6, 6)    0           concatenate_21[0][0]             
                                                                 dropout_22[0][0]                 
__________________________________________________________________________________________________
dense_2_6_bn (BatchNormalizatio (None, 364, 6, 6)    1456        concatenate_22[0][0]             
__________________________________________________________________________________________________
activation_26 (Activation)      (None, 364, 6, 6)    0           dense_2_6_bn[0][0]               
__________________________________________________________________________________________________
dense_2_6_conv2D (Conv2D)       (None, 30, 6, 6)     98280       activation_26[0][0]              
__________________________________________________________________________________________________
dropout_23 (Dropout)            (None, 30, 6, 6)     0           dense_2_6_conv2D[0][0]           
__________________________________________________________________________________________________
concatenate_23 (Concatenate)    (None, 394, 6, 6)    0           concatenate_22[0][0]             
                                                                 dropout_23[0][0]                 
__________________________________________________________________________________________________
dense_2_7_bn (BatchNormalizatio (None, 394, 6, 6)    1576        concatenate_23[0][0]             
__________________________________________________________________________________________________
activation_27 (Activation)      (None, 394, 6, 6)    0           dense_2_7_bn[0][0]               
__________________________________________________________________________________________________
dense_2_7_conv2D (Conv2D)       (None, 30, 6, 6)     106380      activation_27[0][0]              
__________________________________________________________________________________________________
dropout_24 (Dropout)            (None, 30, 6, 6)     0           dense_2_7_conv2D[0][0]           
__________________________________________________________________________________________________
concatenate_24 (Concatenate)    (None, 424, 6, 6)    0           concatenate_23[0][0]             
                                                                 dropout_24[0][0]                 
__________________________________________________________________________________________________
tr_2_bn (BatchNormalization)    (None, 424, 6, 6)    1696        concatenate_24[0][0]             
__________________________________________________________________________________________________
activation_28 (Activation)      (None, 424, 6, 6)    0           tr_2_bn[0][0]                    
__________________________________________________________________________________________________
tr_2_conv2D (Conv2D)            (None, 212, 6, 6)    89888       activation_28[0][0]              
__________________________________________________________________________________________________
average_pooling2d_3 (AveragePoo (None, 212, 3, 3)    0           tr_2_conv2D[0][0]                
__________________________________________________________________________________________________
dense_3_0_bn (BatchNormalizatio (None, 212, 3, 3)    848         average_pooling2d_3[0][0]        
__________________________________________________________________________________________________
activation_29 (Activation)      (None, 212, 3, 3)    0           dense_3_0_bn[0][0]               
__________________________________________________________________________________________________
dense_3_0_conv2D (Conv2D)       (None, 30, 3, 3)     57240       activation_29[0][0]              
__________________________________________________________________________________________________
dropout_25 (Dropout)            (None, 30, 3, 3)     0           dense_3_0_conv2D[0][0]           
__________________________________________________________________________________________________
concatenate_25 (Concatenate)    (None, 242, 3, 3)    0           average_pooling2d_3[0][0]        
                                                                 dropout_25[0][0]                 
__________________________________________________________________________________________________
dense_3_1_bn (BatchNormalizatio (None, 242, 3, 3)    968         concatenate_25[0][0]             
__________________________________________________________________________________________________
activation_30 (Activation)      (None, 242, 3, 3)    0           dense_3_1_bn[0][0]               
__________________________________________________________________________________________________
dense_3_1_conv2D (Conv2D)       (None, 30, 3, 3)     65340       activation_30[0][0]              
__________________________________________________________________________________________________
dropout_26 (Dropout)            (None, 30, 3, 3)     0           dense_3_1_conv2D[0][0]           
__________________________________________________________________________________________________
concatenate_26 (Concatenate)    (None, 272, 3, 3)    0           concatenate_25[0][0]             
                                                                 dropout_26[0][0]                 
__________________________________________________________________________________________________
dense_3_2_bn (BatchNormalizatio (None, 272, 3, 3)    1088        concatenate_26[0][0]             
__________________________________________________________________________________________________
activation_31 (Activation)      (None, 272, 3, 3)    0           dense_3_2_bn[0][0]               
__________________________________________________________________________________________________
dense_3_2_conv2D (Conv2D)       (None, 30, 3, 3)     73440       activation_31[0][0]              
__________________________________________________________________________________________________
dropout_27 (Dropout)            (None, 30, 3, 3)     0           dense_3_2_conv2D[0][0]           
__________________________________________________________________________________________________
concatenate_27 (Concatenate)    (None, 302, 3, 3)    0           concatenate_26[0][0]             
                                                                 dropout_27[0][0]                 
__________________________________________________________________________________________________
dense_3_3_bn (BatchNormalizatio (None, 302, 3, 3)    1208        concatenate_27[0][0]             
__________________________________________________________________________________________________
activation_32 (Activation)      (None, 302, 3, 3)    0           dense_3_3_bn[0][0]               
__________________________________________________________________________________________________
dense_3_3_conv2D (Conv2D)       (None, 30, 3, 3)     81540       activation_32[0][0]              
__________________________________________________________________________________________________
dropout_28 (Dropout)            (None, 30, 3, 3)     0           dense_3_3_conv2D[0][0]           
__________________________________________________________________________________________________
concatenate_28 (Concatenate)    (None, 332, 3, 3)    0           concatenate_27[0][0]             
                                                                 dropout_28[0][0]                 
__________________________________________________________________________________________________
dense_3_4_bn (BatchNormalizatio (None, 332, 3, 3)    1328        concatenate_28[0][0]             
__________________________________________________________________________________________________
activation_33 (Activation)      (None, 332, 3, 3)    0           dense_3_4_bn[0][0]               
__________________________________________________________________________________________________
dense_3_4_conv2D (Conv2D)       (None, 30, 3, 3)     89640       activation_33[0][0]              
__________________________________________________________________________________________________
dropout_29 (Dropout)            (None, 30, 3, 3)     0           dense_3_4_conv2D[0][0]           
__________________________________________________________________________________________________
concatenate_29 (Concatenate)    (None, 362, 3, 3)    0           concatenate_28[0][0]             
                                                                 dropout_29[0][0]                 
__________________________________________________________________________________________________
dense_3_5_bn (BatchNormalizatio (None, 362, 3, 3)    1448        concatenate_29[0][0]             
__________________________________________________________________________________________________
activation_34 (Activation)      (None, 362, 3, 3)    0           dense_3_5_bn[0][0]               
__________________________________________________________________________________________________
dense_3_5_conv2D (Conv2D)       (None, 30, 3, 3)     97740       activation_34[0][0]              
__________________________________________________________________________________________________
dropout_30 (Dropout)            (None, 30, 3, 3)     0           dense_3_5_conv2D[0][0]           
__________________________________________________________________________________________________
concatenate_30 (Concatenate)    (None, 392, 3, 3)    0           concatenate_29[0][0]             
                                                                 dropout_30[0][0]                 
__________________________________________________________________________________________________
dense_3_6_bn (BatchNormalizatio (None, 392, 3, 3)    1568        concatenate_30[0][0]             
__________________________________________________________________________________________________
activation_35 (Activation)      (None, 392, 3, 3)    0           dense_3_6_bn[0][0]               
__________________________________________________________________________________________________
dense_3_6_conv2D (Conv2D)       (None, 30, 3, 3)     105840      activation_35[0][0]              
__________________________________________________________________________________________________
dropout_31 (Dropout)            (None, 30, 3, 3)     0           dense_3_6_conv2D[0][0]           
__________________________________________________________________________________________________
concatenate_31 (Concatenate)    (None, 422, 3, 3)    0           concatenate_30[0][0]             
                                                                 dropout_31[0][0]                 
__________________________________________________________________________________________________
dense_3_7_bn (BatchNormalizatio (None, 422, 3, 3)    1688        concatenate_31[0][0]             
__________________________________________________________________________________________________
activation_36 (Activation)      (None, 422, 3, 3)    0           dense_3_7_bn[0][0]               
__________________________________________________________________________________________________
dense_3_7_conv2D (Conv2D)       (None, 30, 3, 3)     113940      activation_36[0][0]              
__________________________________________________________________________________________________
dropout_32 (Dropout)            (None, 30, 3, 3)     0           dense_3_7_conv2D[0][0]           
__________________________________________________________________________________________________
concatenate_32 (Concatenate)    (None, 452, 3, 3)    0           concatenate_31[0][0]             
                                                                 dropout_32[0][0]                 
__________________________________________________________________________________________________
final_bn (BatchNormalization)   (None, 452, 3, 3)    1808        concatenate_32[0][0]             
__________________________________________________________________________________________________
activation_37 (Activation)      (None, 452, 3, 3)    0           final_bn[0][0]                   
__________________________________________________________________________________________________
flatten_1 (Flatten)             (None, 4068)         0           activation_37[0][0]              
__________________________________________________________________________________________________
dense_1 (Dense)                 (None, 1)            4069        flatten_1[0][0]                  
==================================================================================================
Total params: 2,306,389
Trainable params: 2,287,997
Non-trainable params: 18,392
__________________________________________________________________________________________________
Finished compiling
Train on 39840 samples, validate on 7968 samples
Epoch 1/15
 - 59s - loss: 0.4565 - acc: 0.8370 - val_loss: 0.3959 - val_acc: 0.8734
…
Layers:  [4, 4, 3, 3]  Growth_rate:  30  nb_filter:  16  dropout:  0.2
dense_block  4  reduction:  0.5  bottleneck:  False
Epochs  16  batch_size:  64  lr:  0.07  optimizer:  adadelta
 es_patience:  4  lr_patience:  3
------------------------	  end of configs        -------------------------
pooling:flatten
__________________________________________________________________________________________________
Layer (type)                    Output Shape         Param #     Connected to                     
==================================================================================================
input_1 (InputLayer)            (None, 2, 96, 96)    0                                            
__________________________________________________________________________________________________
initial_conv2D (Conv2D)         (None, 16, 48, 48)   1568        input_1[0][0]                    
__________________________________________________________________________________________________
initial_bn (BatchNormalization) (None, 16, 48, 48)   64          initial_conv2D[0][0]             
__________________________________________________________________________________________________
activation_1 (Activation)       (None, 16, 48, 48)   0           initial_bn[0][0]                 
__________________________________________________________________________________________________
max_pooling2d_1 (MaxPooling2D)  (None, 16, 24, 24)   0           activation_1[0][0]               
__________________________________________________________________________________________________
dense_0_0_bn (BatchNormalizatio (None, 16, 24, 24)   64          max_pooling2d_1[0][0]            
__________________________________________________________________________________________________
activation_2 (Activation)       (None, 16, 24, 24)   0           dense_0_0_bn[0][0]               
__________________________________________________________________________________________________
dense_0_0_conv2D (Conv2D)       (None, 30, 24, 24)   4320        activation_2[0][0]               
__________________________________________________________________________________________________
dropout_1 (Dropout)             (None, 30, 24, 24)   0           dense_0_0_conv2D[0][0]           
__________________________________________________________________________________________________
concatenate_1 (Concatenate)     (None, 46, 24, 24)   0           max_pooling2d_1[0][0]            
                                                                 dropout_1[0][0]                  
__________________________________________________________________________________________________
dense_0_1_bn (BatchNormalizatio (None, 46, 24, 24)   184         concatenate_1[0][0]              
__________________________________________________________________________________________________
activation_3 (Activation)       (None, 46, 24, 24)   0           dense_0_1_bn[0][0]               
__________________________________________________________________________________________________
dense_0_1_conv2D (Conv2D)       (None, 30, 24, 24)   12420       activation_3[0][0]               
__________________________________________________________________________________________________
dropout_2 (Dropout)             (None, 30, 24, 24)   0           dense_0_1_conv2D[0][0]           
__________________________________________________________________________________________________
concatenate_2 (Concatenate)     (None, 76, 24, 24)   0           concatenate_1[0][0]              
                                                                 dropout_2[0][0]                  
__________________________________________________________________________________________________
dense_0_2_bn (BatchNormalizatio (None, 76, 24, 24)   304         concatenate_2[0][0]              
__________________________________________________________________________________________________
activation_4 (Activation)       (None, 76, 24, 24)   0           dense_0_2_bn[0][0]               
__________________________________________________________________________________________________
dense_0_2_conv2D (Conv2D)       (None, 30, 24, 24)   20520       activation_4[0][0]               
__________________________________________________________________________________________________
dropout_3 (Dropout)             (None, 30, 24, 24)   0           dense_0_2_conv2D[0][0]           
__________________________________________________________________________________________________
concatenate_3 (Concatenate)     (None, 106, 24, 24)  0           concatenate_2[0][0]              
                                                                 dropout_3[0][0]                  
__________________________________________________________________________________________________
dense_0_3_bn (BatchNormalizatio (None, 106, 24, 24)  424         concatenate_3[0][0]              
__________________________________________________________________________________________________
activation_5 (Activation)       (None, 106, 24, 24)  0           dense_0_3_bn[0][0]               
__________________________________________________________________________________________________
dense_0_3_conv2D (Conv2D)       (None, 30, 24, 24)   28620       activation_5[0][0]               
__________________________________________________________________________________________________
dropout_4 (Dropout)             (None, 30, 24, 24)   0           dense_0_3_conv2D[0][0]           
__________________________________________________________________________________________________
concatenate_4 (Concatenate)     (None, 136, 24, 24)  0           concatenate_3[0][0]              
                                                                 dropout_4[0][0]                  
__________________________________________________________________________________________________
tr_0_bn (BatchNormalization)    (None, 136, 24, 24)  544         concatenate_4[0][0]              
__________________________________________________________________________________________________
activation_6 (Activation)       (None, 136, 24, 24)  0           tr_0_bn[0][0]                    
__________________________________________________________________________________________________
tr_0_conv2D (Conv2D)            (None, 68, 24, 24)   9248        activation_6[0][0]               
__________________________________________________________________________________________________
average_pooling2d_1 (AveragePoo (None, 68, 12, 12)   0           tr_0_conv2D[0][0]                
__________________________________________________________________________________________________
dense_1_0_bn (BatchNormalizatio (None, 68, 12, 12)   272         average_pooling2d_1[0][0]        
__________________________________________________________________________________________________
activation_7 (Activation)       (None, 68, 12, 12)   0           dense_1_0_bn[0][0]               
__________________________________________________________________________________________________
dense_1_0_conv2D (Conv2D)       (None, 30, 12, 12)   18360       activation_7[0][0]               
__________________________________________________________________________________________________
dropout_5 (Dropout)             (None, 30, 12, 12)   0           dense_1_0_conv2D[0][0]           
__________________________________________________________________________________________________
concatenate_5 (Concatenate)     (None, 98, 12, 12)   0           average_pooling2d_1[0][0]        
                                                                 dropout_5[0][0]                  
__________________________________________________________________________________________________
dense_1_1_bn (BatchNormalizatio (None, 98, 12, 12)   392         concatenate_5[0][0]              
__________________________________________________________________________________________________
activation_8 (Activation)       (None, 98, 12, 12)   0           dense_1_1_bn[0][0]               
__________________________________________________________________________________________________
dense_1_1_conv2D (Conv2D)       (None, 30, 12, 12)   26460       activation_8[0][0]               
__________________________________________________________________________________________________
dropout_6 (Dropout)             (None, 30, 12, 12)   0           dense_1_1_conv2D[0][0]           
__________________________________________________________________________________________________
concatenate_6 (Concatenate)     (None, 128, 12, 12)  0           concatenate_5[0][0]              
                                                                 dropout_6[0][0]                  
__________________________________________________________________________________________________
dense_1_2_bn (BatchNormalizatio (None, 128, 12, 12)  512         concatenate_6[0][0]              
__________________________________________________________________________________________________
activation_9 (Activation)       (None, 128, 12, 12)  0           dense_1_2_bn[0][0]               
__________________________________________________________________________________________________
dense_1_2_conv2D (Conv2D)       (None, 30, 12, 12)   34560       activation_9[0][0]               
__________________________________________________________________________________________________
dropout_7 (Dropout)             (None, 30, 12, 12)   0           dense_1_2_conv2D[0][0]           
__________________________________________________________________________________________________
concatenate_7 (Concatenate)     (None, 158, 12, 12)  0           concatenate_6[0][0]              
                                                                 dropout_7[0][0]                  
__________________________________________________________________________________________________
dense_1_3_bn (BatchNormalizatio (None, 158, 12, 12)  632         concatenate_7[0][0]              
__________________________________________________________________________________________________
activation_10 (Activation)      (None, 158, 12, 12)  0           dense_1_3_bn[0][0]               
__________________________________________________________________________________________________
dense_1_3_conv2D (Conv2D)       (None, 30, 12, 12)   42660       activation_10[0][0]              
__________________________________________________________________________________________________
dropout_8 (Dropout)             (None, 30, 12, 12)   0           dense_1_3_conv2D[0][0]           
__________________________________________________________________________________________________
concatenate_8 (Concatenate)     (None, 188, 12, 12)  0           concatenate_7[0][0]              
                                                                 dropout_8[0][0]                  
__________________________________________________________________________________________________
tr_1_bn (BatchNormalization)    (None, 188, 12, 12)  752         concatenate_8[0][0]              
__________________________________________________________________________________________________
activation_11 (Activation)      (None, 188, 12, 12)  0           tr_1_bn[0][0]                    
__________________________________________________________________________________________________
tr_1_conv2D (Conv2D)            (None, 94, 12, 12)   17672       activation_11[0][0]              
__________________________________________________________________________________________________
average_pooling2d_2 (AveragePoo (None, 94, 6, 6)     0           tr_1_conv2D[0][0]                
__________________________________________________________________________________________________
dense_2_0_bn (BatchNormalizatio (None, 94, 6, 6)     376         average_pooling2d_2[0][0]        
__________________________________________________________________________________________________
activation_12 (Activation)      (None, 94, 6, 6)     0           dense_2_0_bn[0][0]               
__________________________________________________________________________________________________
dense_2_0_conv2D (Conv2D)       (None, 30, 6, 6)     25380       activation_12[0][0]              
__________________________________________________________________________________________________
dropout_9 (Dropout)             (None, 30, 6, 6)     0           dense_2_0_conv2D[0][0]           
__________________________________________________________________________________________________
concatenate_9 (Concatenate)     (None, 124, 6, 6)    0           average_pooling2d_2[0][0]        
                                                                 dropout_9[0][0]                  
__________________________________________________________________________________________________
dense_2_1_bn (BatchNormalizatio (None, 124, 6, 6)    496         concatenate_9[0][0]              
__________________________________________________________________________________________________
activation_13 (Activation)      (None, 124, 6, 6)    0           dense_2_1_bn[0][0]               
__________________________________________________________________________________________________
dense_2_1_conv2D (Conv2D)       (None, 30, 6, 6)     33480       activation_13[0][0]              
__________________________________________________________________________________________________
dropout_10 (Dropout)            (None, 30, 6, 6)     0           dense_2_1_conv2D[0][0]           
__________________________________________________________________________________________________
concatenate_10 (Concatenate)    (None, 154, 6, 6)    0           concatenate_9[0][0]              
                                                                 dropout_10[0][0]                 
__________________________________________________________________________________________________
dense_2_2_bn (BatchNormalizatio (None, 154, 6, 6)    616         concatenate_10[0][0]             
__________________________________________________________________________________________________
activation_14 (Activation)      (None, 154, 6, 6)    0           dense_2_2_bn[0][0]               
__________________________________________________________________________________________________
dense_2_2_conv2D (Conv2D)       (None, 30, 6, 6)     41580       activation_14[0][0]              
__________________________________________________________________________________________________
dropout_11 (Dropout)            (None, 30, 6, 6)     0           dense_2_2_conv2D[0][0]           
__________________________________________________________________________________________________
concatenate_11 (Concatenate)    (None, 184, 6, 6)    0           concatenate_10[0][0]             
                                                                 dropout_11[0][0]                 
__________________________________________________________________________________________________
tr_2_bn (BatchNormalization)    (None, 184, 6, 6)    736         concatenate_11[0][0]             
__________________________________________________________________________________________________
activation_15 (Activation)      (None, 184, 6, 6)    0           tr_2_bn[0][0]                    
__________________________________________________________________________________________________
tr_2_conv2D (Conv2D)            (None, 92, 6, 6)     16928       activation_15[0][0]              
__________________________________________________________________________________________________
average_pooling2d_3 (AveragePoo (None, 92, 3, 3)     0           tr_2_conv2D[0][0]                
__________________________________________________________________________________________________
dense_3_0_bn (BatchNormalizatio (None, 92, 3, 3)     368         average_pooling2d_3[0][0]        
__________________________________________________________________________________________________
activation_16 (Activation)      (None, 92, 3, 3)     0           dense_3_0_bn[0][0]               
__________________________________________________________________________________________________
dense_3_0_conv2D (Conv2D)       (None, 30, 3, 3)     24840       activation_16[0][0]              
__________________________________________________________________________________________________
dropout_12 (Dropout)            (None, 30, 3, 3)     0           dense_3_0_conv2D[0][0]           
__________________________________________________________________________________________________
concatenate_12 (Concatenate)    (None, 122, 3, 3)    0           average_pooling2d_3[0][0]        
                                                                 dropout_12[0][0]                 
__________________________________________________________________________________________________
dense_3_1_bn (BatchNormalizatio (None, 122, 3, 3)    488         concatenate_12[0][0]             
__________________________________________________________________________________________________
activation_17 (Activation)      (None, 122, 3, 3)    0           dense_3_1_bn[0][0]               
__________________________________________________________________________________________________
dense_3_1_conv2D (Conv2D)       (None, 30, 3, 3)     32940       activation_17[0][0]              
__________________________________________________________________________________________________
dropout_13 (Dropout)            (None, 30, 3, 3)     0           dense_3_1_conv2D[0][0]           
__________________________________________________________________________________________________
concatenate_13 (Concatenate)    (None, 152, 3, 3)    0           concatenate_12[0][0]             
                                                                 dropout_13[0][0]                 
__________________________________________________________________________________________________
dense_3_2_bn (BatchNormalizatio (None, 152, 3, 3)    608         concatenate_13[0][0]             
__________________________________________________________________________________________________
activation_18 (Activation)      (None, 152, 3, 3)    0           dense_3_2_bn[0][0]               
__________________________________________________________________________________________________
dense_3_2_conv2D (Conv2D)       (None, 30, 3, 3)     41040       activation_18[0][0]              
__________________________________________________________________________________________________
dropout_14 (Dropout)            (None, 30, 3, 3)     0           dense_3_2_conv2D[0][0]           
__________________________________________________________________________________________________
concatenate_14 (Concatenate)    (None, 182, 3, 3)    0           concatenate_13[0][0]             
                                                                 dropout_14[0][0]                 
__________________________________________________________________________________________________
final_bn (BatchNormalization)   (None, 182, 3, 3)    728         concatenate_14[0][0]             
__________________________________________________________________________________________________
activation_19 (Activation)      (None, 182, 3, 3)    0           final_bn[0][0]                   
__________________________________________________________________________________________________
flatten_1 (Flatten)             (None, 1638)         0           activation_19[0][0]              
__________________________________________________________________________________________________
dense_1 (Dense)                 (None, 1)            1639        flatten_1[0][0]                  
==================================================================================================
Total params: 442,795
Trainable params: 438,515
Non-trainable params: 4,280
__________________________________________________________________________________________________
Finished compiling
Train on 39840 samples, validate on 7968 samples
Epoch 1/16
 - 33s - loss: 0.4497 - acc: 0.8123 - val_loss: 0.3638 - val_acc: 0.8528
…
Layers:  [2, 2, 3, 3]  Growth_rate:  30  nb_filter:  16  dropout:  0.2
dense_block  4  reduction:  0.5  bottleneck:  False
Epochs  17  batch_size:  64  lr:  0.07  optimizer:  adadelta
 es_patience:  4  lr_patience:  3
------------------------	  end of configs        -------------------------
pooling:flatten
__________________________________________________________________________________________________
Layer (type)                    Output Shape         Param #     Connected to                     
==================================================================================================
input_1 (InputLayer)            (None, 2, 96, 96)    0                                            
__________________________________________________________________________________________________
initial_conv2D (Conv2D)         (None, 16, 48, 48)   1568        input_1[0][0]                    
__________________________________________________________________________________________________
initial_bn (BatchNormalization) (None, 16, 48, 48)   64          initial_conv2D[0][0]             
__________________________________________________________________________________________________
activation_1 (Activation)       (None, 16, 48, 48)   0           initial_bn[0][0]                 
__________________________________________________________________________________________________
max_pooling2d_1 (MaxPooling2D)  (None, 16, 24, 24)   0           activation_1[0][0]               
__________________________________________________________________________________________________
dense_0_0_bn (BatchNormalizatio (None, 16, 24, 24)   64          max_pooling2d_1[0][0]            
__________________________________________________________________________________________________
activation_2 (Activation)       (None, 16, 24, 24)   0           dense_0_0_bn[0][0]               
__________________________________________________________________________________________________
dense_0_0_conv2D (Conv2D)       (None, 30, 24, 24)   4320        activation_2[0][0]               
__________________________________________________________________________________________________
dropout_1 (Dropout)             (None, 30, 24, 24)   0           dense_0_0_conv2D[0][0]           
__________________________________________________________________________________________________
concatenate_1 (Concatenate)     (None, 46, 24, 24)   0           max_pooling2d_1[0][0]            
                                                                 dropout_1[0][0]                  
__________________________________________________________________________________________________
dense_0_1_bn (BatchNormalizatio (None, 46, 24, 24)   184         concatenate_1[0][0]              
__________________________________________________________________________________________________
activation_3 (Activation)       (None, 46, 24, 24)   0           dense_0_1_bn[0][0]               
__________________________________________________________________________________________________
dense_0_1_conv2D (Conv2D)       (None, 30, 24, 24)   12420       activation_3[0][0]               
__________________________________________________________________________________________________
dropout_2 (Dropout)             (None, 30, 24, 24)   0           dense_0_1_conv2D[0][0]           
__________________________________________________________________________________________________
concatenate_2 (Concatenate)     (None, 76, 24, 24)   0           concatenate_1[0][0]              
                                                                 dropout_2[0][0]                  
__________________________________________________________________________________________________
tr_0_bn (BatchNormalization)    (None, 76, 24, 24)   304         concatenate_2[0][0]              
__________________________________________________________________________________________________
activation_4 (Activation)       (None, 76, 24, 24)   0           tr_0_bn[0][0]                    
__________________________________________________________________________________________________
tr_0_conv2D (Conv2D)            (None, 38, 24, 24)   2888        activation_4[0][0]               
__________________________________________________________________________________________________
average_pooling2d_1 (AveragePoo (None, 38, 12, 12)   0           tr_0_conv2D[0][0]                
__________________________________________________________________________________________________
dense_1_0_bn (BatchNormalizatio (None, 38, 12, 12)   152         average_pooling2d_1[0][0]        
__________________________________________________________________________________________________
activation_5 (Activation)       (None, 38, 12, 12)   0           dense_1_0_bn[0][0]               
__________________________________________________________________________________________________
dense_1_0_conv2D (Conv2D)       (None, 30, 12, 12)   10260       activation_5[0][0]               
__________________________________________________________________________________________________
dropout_3 (Dropout)             (None, 30, 12, 12)   0           dense_1_0_conv2D[0][0]           
__________________________________________________________________________________________________
concatenate_3 (Concatenate)     (None, 68, 12, 12)   0           average_pooling2d_1[0][0]        
                                                                 dropout_3[0][0]                  
__________________________________________________________________________________________________
dense_1_1_bn (BatchNormalizatio (None, 68, 12, 12)   272         concatenate_3[0][0]              
__________________________________________________________________________________________________
activation_6 (Activation)       (None, 68, 12, 12)   0           dense_1_1_bn[0][0]               
__________________________________________________________________________________________________
dense_1_1_conv2D (Conv2D)       (None, 30, 12, 12)   18360       activation_6[0][0]               
__________________________________________________________________________________________________
dropout_4 (Dropout)             (None, 30, 12, 12)   0           dense_1_1_conv2D[0][0]           
__________________________________________________________________________________________________
concatenate_4 (Concatenate)     (None, 98, 12, 12)   0           concatenate_3[0][0]              
                                                                 dropout_4[0][0]                  
__________________________________________________________________________________________________
tr_1_bn (BatchNormalization)    (None, 98, 12, 12)   392         concatenate_4[0][0]              
__________________________________________________________________________________________________
activation_7 (Activation)       (None, 98, 12, 12)   0           tr_1_bn[0][0]                    
__________________________________________________________________________________________________
tr_1_conv2D (Conv2D)            (None, 49, 12, 12)   4802        activation_7[0][0]               
__________________________________________________________________________________________________
average_pooling2d_2 (AveragePoo (None, 49, 6, 6)     0           tr_1_conv2D[0][0]                
__________________________________________________________________________________________________
dense_2_0_bn (BatchNormalizatio (None, 49, 6, 6)     196         average_pooling2d_2[0][0]        
__________________________________________________________________________________________________
activation_8 (Activation)       (None, 49, 6, 6)     0           dense_2_0_bn[0][0]               
__________________________________________________________________________________________________
dense_2_0_conv2D (Conv2D)       (None, 30, 6, 6)     13230       activation_8[0][0]               
__________________________________________________________________________________________________
dropout_5 (Dropout)             (None, 30, 6, 6)     0           dense_2_0_conv2D[0][0]           
__________________________________________________________________________________________________
concatenate_5 (Concatenate)     (None, 79, 6, 6)     0           average_pooling2d_2[0][0]        
                                                                 dropout_5[0][0]                  
__________________________________________________________________________________________________
dense_2_1_bn (BatchNormalizatio (None, 79, 6, 6)     316         concatenate_5[0][0]              
__________________________________________________________________________________________________
activation_9 (Activation)       (None, 79, 6, 6)     0           dense_2_1_bn[0][0]               
__________________________________________________________________________________________________
dense_2_1_conv2D (Conv2D)       (None, 30, 6, 6)     21330       activation_9[0][0]               
__________________________________________________________________________________________________
dropout_6 (Dropout)             (None, 30, 6, 6)     0           dense_2_1_conv2D[0][0]           
__________________________________________________________________________________________________
concatenate_6 (Concatenate)     (None, 109, 6, 6)    0           concatenate_5[0][0]              
                                                                 dropout_6[0][0]                  
__________________________________________________________________________________________________
dense_2_2_bn (BatchNormalizatio (None, 109, 6, 6)    436         concatenate_6[0][0]              
__________________________________________________________________________________________________
activation_10 (Activation)      (None, 109, 6, 6)    0           dense_2_2_bn[0][0]               
__________________________________________________________________________________________________
dense_2_2_conv2D (Conv2D)       (None, 30, 6, 6)     29430       activation_10[0][0]              
__________________________________________________________________________________________________
dropout_7 (Dropout)             (None, 30, 6, 6)     0           dense_2_2_conv2D[0][0]           
__________________________________________________________________________________________________
concatenate_7 (Concatenate)     (None, 139, 6, 6)    0           concatenate_6[0][0]              
                                                                 dropout_7[0][0]                  
__________________________________________________________________________________________________
tr_2_bn (BatchNormalization)    (None, 139, 6, 6)    556         concatenate_7[0][0]              
__________________________________________________________________________________________________
activation_11 (Activation)      (None, 139, 6, 6)    0           tr_2_bn[0][0]                    
__________________________________________________________________________________________________
tr_2_conv2D (Conv2D)            (None, 69, 6, 6)     9591        activation_11[0][0]              
__________________________________________________________________________________________________
average_pooling2d_3 (AveragePoo (None, 69, 3, 3)     0           tr_2_conv2D[0][0]                
__________________________________________________________________________________________________
dense_3_0_bn (BatchNormalizatio (None, 69, 3, 3)     276         average_pooling2d_3[0][0]        
__________________________________________________________________________________________________
activation_12 (Activation)      (None, 69, 3, 3)     0           dense_3_0_bn[0][0]               
__________________________________________________________________________________________________
dense_3_0_conv2D (Conv2D)       (None, 30, 3, 3)     18630       activation_12[0][0]              
__________________________________________________________________________________________________
dropout_8 (Dropout)             (None, 30, 3, 3)     0           dense_3_0_conv2D[0][0]           
__________________________________________________________________________________________________
concatenate_8 (Concatenate)     (None, 99, 3, 3)     0           average_pooling2d_3[0][0]        
                                                                 dropout_8[0][0]                  
__________________________________________________________________________________________________
dense_3_1_bn (BatchNormalizatio (None, 99, 3, 3)     396         concatenate_8[0][0]              
__________________________________________________________________________________________________
activation_13 (Activation)      (None, 99, 3, 3)     0           dense_3_1_bn[0][0]               
__________________________________________________________________________________________________
dense_3_1_conv2D (Conv2D)       (None, 30, 3, 3)     26730       activation_13[0][0]              
__________________________________________________________________________________________________
dropout_9 (Dropout)             (None, 30, 3, 3)     0           dense_3_1_conv2D[0][0]           
__________________________________________________________________________________________________
concatenate_9 (Concatenate)     (None, 129, 3, 3)    0           concatenate_8[0][0]              
                                                                 dropout_9[0][0]                  
__________________________________________________________________________________________________
dense_3_2_bn (BatchNormalizatio (None, 129, 3, 3)    516         concatenate_9[0][0]              
__________________________________________________________________________________________________
activation_14 (Activation)      (None, 129, 3, 3)    0           dense_3_2_bn[0][0]               
__________________________________________________________________________________________________
dense_3_2_conv2D (Conv2D)       (None, 30, 3, 3)     34830       activation_14[0][0]              
__________________________________________________________________________________________________
dropout_10 (Dropout)            (None, 30, 3, 3)     0           dense_3_2_conv2D[0][0]           
__________________________________________________________________________________________________
concatenate_10 (Concatenate)    (None, 159, 3, 3)    0           concatenate_9[0][0]              
                                                                 dropout_10[0][0]                 
__________________________________________________________________________________________________
final_bn (BatchNormalization)   (None, 159, 3, 3)    636         concatenate_10[0][0]             
__________________________________________________________________________________________________
activation_15 (Activation)      (None, 159, 3, 3)    0           final_bn[0][0]                   
__________________________________________________________________________________________________
flatten_1 (Flatten)             (None, 1431)         0           activation_15[0][0]              
__________________________________________________________________________________________________
dense_1 (Dense)                 (None, 1)            1432        flatten_1[0][0]                  
==================================================================================================
Total params: 214,581
Trainable params: 212,201
Non-trainable params: 2,380
__________________________________________________________________________________________________
Finished compiling
Train on 39840 samples, validate on 7968 samples
Epoch 1/17
 - 29s - loss: 0.4798 - acc: 0.7797 - val_loss: 0.4033 - val_acc: 0.8219
…
Layers:  [3, 3, 5, 5]  Growth_rate:  30  nb_filter:  16  dropout:  0.2
dense_block  4  reduction:  0.5  bottleneck:  False
Epochs  18  batch_size:  64  lr:  0.07  optimizer:  adadelta
 es_patience:  4  lr_patience:  3
------------------------	  end of configs        -------------------------
pooling:flatten
__________________________________________________________________________________________________
Layer (type)                    Output Shape         Param #     Connected to                     
==================================================================================================
input_1 (InputLayer)            (None, 2, 96, 96)    0                                            
__________________________________________________________________________________________________
initial_conv2D (Conv2D)         (None, 16, 48, 48)   1568        input_1[0][0]                    
__________________________________________________________________________________________________
initial_bn (BatchNormalization) (None, 16, 48, 48)   64          initial_conv2D[0][0]             
__________________________________________________________________________________________________
activation_1 (Activation)       (None, 16, 48, 48)   0           initial_bn[0][0]                 
__________________________________________________________________________________________________
max_pooling2d_1 (MaxPooling2D)  (None, 16, 24, 24)   0           activation_1[0][0]               
__________________________________________________________________________________________________
dense_0_0_bn (BatchNormalizatio (None, 16, 24, 24)   64          max_pooling2d_1[0][0]            
__________________________________________________________________________________________________
activation_2 (Activation)       (None, 16, 24, 24)   0           dense_0_0_bn[0][0]               
__________________________________________________________________________________________________
dense_0_0_conv2D (Conv2D)       (None, 30, 24, 24)   4320        activation_2[0][0]               
__________________________________________________________________________________________________
dropout_1 (Dropout)             (None, 30, 24, 24)   0           dense_0_0_conv2D[0][0]           
__________________________________________________________________________________________________
concatenate_1 (Concatenate)     (None, 46, 24, 24)   0           max_pooling2d_1[0][0]            
                                                                 dropout_1[0][0]                  
__________________________________________________________________________________________________
dense_0_1_bn (BatchNormalizatio (None, 46, 24, 24)   184         concatenate_1[0][0]              
__________________________________________________________________________________________________
activation_3 (Activation)       (None, 46, 24, 24)   0           dense_0_1_bn[0][0]               
__________________________________________________________________________________________________
dense_0_1_conv2D (Conv2D)       (None, 30, 24, 24)   12420       activation_3[0][0]               
__________________________________________________________________________________________________
dropout_2 (Dropout)             (None, 30, 24, 24)   0           dense_0_1_conv2D[0][0]           
__________________________________________________________________________________________________
concatenate_2 (Concatenate)     (None, 76, 24, 24)   0           concatenate_1[0][0]              
                                                                 dropout_2[0][0]                  
__________________________________________________________________________________________________
dense_0_2_bn (BatchNormalizatio (None, 76, 24, 24)   304         concatenate_2[0][0]              
__________________________________________________________________________________________________
activation_4 (Activation)       (None, 76, 24, 24)   0           dense_0_2_bn[0][0]               
__________________________________________________________________________________________________
dense_0_2_conv2D (Conv2D)       (None, 30, 24, 24)   20520       activation_4[0][0]               
__________________________________________________________________________________________________
dropout_3 (Dropout)             (None, 30, 24, 24)   0           dense_0_2_conv2D[0][0]           
__________________________________________________________________________________________________
concatenate_3 (Concatenate)     (None, 106, 24, 24)  0           concatenate_2[0][0]              
                                                                 dropout_3[0][0]                  
__________________________________________________________________________________________________
tr_0_bn (BatchNormalization)    (None, 106, 24, 24)  424         concatenate_3[0][0]              
__________________________________________________________________________________________________
activation_5 (Activation)       (None, 106, 24, 24)  0           tr_0_bn[0][0]                    
__________________________________________________________________________________________________
tr_0_conv2D (Conv2D)            (None, 53, 24, 24)   5618        activation_5[0][0]               
__________________________________________________________________________________________________
average_pooling2d_1 (AveragePoo (None, 53, 12, 12)   0           tr_0_conv2D[0][0]                
__________________________________________________________________________________________________
dense_1_0_bn (BatchNormalizatio (None, 53, 12, 12)   212         average_pooling2d_1[0][0]        
__________________________________________________________________________________________________
activation_6 (Activation)       (None, 53, 12, 12)   0           dense_1_0_bn[0][0]               
__________________________________________________________________________________________________
dense_1_0_conv2D (Conv2D)       (None, 30, 12, 12)   14310       activation_6[0][0]               
__________________________________________________________________________________________________
dropout_4 (Dropout)             (None, 30, 12, 12)   0           dense_1_0_conv2D[0][0]           
__________________________________________________________________________________________________
concatenate_4 (Concatenate)     (None, 83, 12, 12)   0           average_pooling2d_1[0][0]        
                                                                 dropout_4[0][0]                  
__________________________________________________________________________________________________
dense_1_1_bn (BatchNormalizatio (None, 83, 12, 12)   332         concatenate_4[0][0]              
__________________________________________________________________________________________________
activation_7 (Activation)       (None, 83, 12, 12)   0           dense_1_1_bn[0][0]               
__________________________________________________________________________________________________
dense_1_1_conv2D (Conv2D)       (None, 30, 12, 12)   22410       activation_7[0][0]               
__________________________________________________________________________________________________
dropout_5 (Dropout)             (None, 30, 12, 12)   0           dense_1_1_conv2D[0][0]           
__________________________________________________________________________________________________
concatenate_5 (Concatenate)     (None, 113, 12, 12)  0           concatenate_4[0][0]              
                                                                 dropout_5[0][0]                  
__________________________________________________________________________________________________
dense_1_2_bn (BatchNormalizatio (None, 113, 12, 12)  452         concatenate_5[0][0]              
__________________________________________________________________________________________________
activation_8 (Activation)       (None, 113, 12, 12)  0           dense_1_2_bn[0][0]               
__________________________________________________________________________________________________
dense_1_2_conv2D (Conv2D)       (None, 30, 12, 12)   30510       activation_8[0][0]               
__________________________________________________________________________________________________
dropout_6 (Dropout)             (None, 30, 12, 12)   0           dense_1_2_conv2D[0][0]           
__________________________________________________________________________________________________
concatenate_6 (Concatenate)     (None, 143, 12, 12)  0           concatenate_5[0][0]              
                                                                 dropout_6[0][0]                  
__________________________________________________________________________________________________
tr_1_bn (BatchNormalization)    (None, 143, 12, 12)  572         concatenate_6[0][0]              
__________________________________________________________________________________________________
activation_9 (Activation)       (None, 143, 12, 12)  0           tr_1_bn[0][0]                    
__________________________________________________________________________________________________
tr_1_conv2D (Conv2D)            (None, 71, 12, 12)   10153       activation_9[0][0]               
__________________________________________________________________________________________________
average_pooling2d_2 (AveragePoo (None, 71, 6, 6)     0           tr_1_conv2D[0][0]                
__________________________________________________________________________________________________
dense_2_0_bn (BatchNormalizatio (None, 71, 6, 6)     284         average_pooling2d_2[0][0]        
__________________________________________________________________________________________________
activation_10 (Activation)      (None, 71, 6, 6)     0           dense_2_0_bn[0][0]               
__________________________________________________________________________________________________
dense_2_0_conv2D (Conv2D)       (None, 30, 6, 6)     19170       activation_10[0][0]              
__________________________________________________________________________________________________
dropout_7 (Dropout)             (None, 30, 6, 6)     0           dense_2_0_conv2D[0][0]           
__________________________________________________________________________________________________
concatenate_7 (Concatenate)     (None, 101, 6, 6)    0           average_pooling2d_2[0][0]        
                                                                 dropout_7[0][0]                  
__________________________________________________________________________________________________
dense_2_1_bn (BatchNormalizatio (None, 101, 6, 6)    404         concatenate_7[0][0]              
__________________________________________________________________________________________________
activation_11 (Activation)      (None, 101, 6, 6)    0           dense_2_1_bn[0][0]               
__________________________________________________________________________________________________
dense_2_1_conv2D (Conv2D)       (None, 30, 6, 6)     27270       activation_11[0][0]              
__________________________________________________________________________________________________
dropout_8 (Dropout)             (None, 30, 6, 6)     0           dense_2_1_conv2D[0][0]           
__________________________________________________________________________________________________
concatenate_8 (Concatenate)     (None, 131, 6, 6)    0           concatenate_7[0][0]              
                                                                 dropout_8[0][0]                  
__________________________________________________________________________________________________
dense_2_2_bn (BatchNormalizatio (None, 131, 6, 6)    524         concatenate_8[0][0]              
__________________________________________________________________________________________________
activation_12 (Activation)      (None, 131, 6, 6)    0           dense_2_2_bn[0][0]               
__________________________________________________________________________________________________
dense_2_2_conv2D (Conv2D)       (None, 30, 6, 6)     35370       activation_12[0][0]              
__________________________________________________________________________________________________
dropout_9 (Dropout)             (None, 30, 6, 6)     0           dense_2_2_conv2D[0][0]           
__________________________________________________________________________________________________
concatenate_9 (Concatenate)     (None, 161, 6, 6)    0           concatenate_8[0][0]              
                                                                 dropout_9[0][0]                  
__________________________________________________________________________________________________
dense_2_3_bn (BatchNormalizatio (None, 161, 6, 6)    644         concatenate_9[0][0]              
__________________________________________________________________________________________________
activation_13 (Activation)      (None, 161, 6, 6)    0           dense_2_3_bn[0][0]               
__________________________________________________________________________________________________
dense_2_3_conv2D (Conv2D)       (None, 30, 6, 6)     43470       activation_13[0][0]              
__________________________________________________________________________________________________
dropout_10 (Dropout)            (None, 30, 6, 6)     0           dense_2_3_conv2D[0][0]           
__________________________________________________________________________________________________
concatenate_10 (Concatenate)    (None, 191, 6, 6)    0           concatenate_9[0][0]              
                                                                 dropout_10[0][0]                 
__________________________________________________________________________________________________
dense_2_4_bn (BatchNormalizatio (None, 191, 6, 6)    764         concatenate_10[0][0]             
__________________________________________________________________________________________________
activation_14 (Activation)      (None, 191, 6, 6)    0           dense_2_4_bn[0][0]               
__________________________________________________________________________________________________
dense_2_4_conv2D (Conv2D)       (None, 30, 6, 6)     51570       activation_14[0][0]              
__________________________________________________________________________________________________
dropout_11 (Dropout)            (None, 30, 6, 6)     0           dense_2_4_conv2D[0][0]           
__________________________________________________________________________________________________
concatenate_11 (Concatenate)    (None, 221, 6, 6)    0           concatenate_10[0][0]             
                                                                 dropout_11[0][0]                 
__________________________________________________________________________________________________
tr_2_bn (BatchNormalization)    (None, 221, 6, 6)    884         concatenate_11[0][0]             
__________________________________________________________________________________________________
activation_15 (Activation)      (None, 221, 6, 6)    0           tr_2_bn[0][0]                    
__________________________________________________________________________________________________
tr_2_conv2D (Conv2D)            (None, 110, 6, 6)    24310       activation_15[0][0]              
__________________________________________________________________________________________________
average_pooling2d_3 (AveragePoo (None, 110, 3, 3)    0           tr_2_conv2D[0][0]                
__________________________________________________________________________________________________
dense_3_0_bn (BatchNormalizatio (None, 110, 3, 3)    440         average_pooling2d_3[0][0]        
__________________________________________________________________________________________________
activation_16 (Activation)      (None, 110, 3, 3)    0           dense_3_0_bn[0][0]               
__________________________________________________________________________________________________
dense_3_0_conv2D (Conv2D)       (None, 30, 3, 3)     29700       activation_16[0][0]              
__________________________________________________________________________________________________
dropout_12 (Dropout)            (None, 30, 3, 3)     0           dense_3_0_conv2D[0][0]           
__________________________________________________________________________________________________
concatenate_12 (Concatenate)    (None, 140, 3, 3)    0           average_pooling2d_3[0][0]        
                                                                 dropout_12[0][0]                 
__________________________________________________________________________________________________
dense_3_1_bn (BatchNormalizatio (None, 140, 3, 3)    560         concatenate_12[0][0]             
__________________________________________________________________________________________________
activation_17 (Activation)      (None, 140, 3, 3)    0           dense_3_1_bn[0][0]               
__________________________________________________________________________________________________
dense_3_1_conv2D (Conv2D)       (None, 30, 3, 3)     37800       activation_17[0][0]              
__________________________________________________________________________________________________
dropout_13 (Dropout)            (None, 30, 3, 3)     0           dense_3_1_conv2D[0][0]           
__________________________________________________________________________________________________
concatenate_13 (Concatenate)    (None, 170, 3, 3)    0           concatenate_12[0][0]             
                                                                 dropout_13[0][0]                 
__________________________________________________________________________________________________
dense_3_2_bn (BatchNormalizatio (None, 170, 3, 3)    680         concatenate_13[0][0]             
__________________________________________________________________________________________________
activation_18 (Activation)      (None, 170, 3, 3)    0           dense_3_2_bn[0][0]               
__________________________________________________________________________________________________
dense_3_2_conv2D (Conv2D)       (None, 30, 3, 3)     45900       activation_18[0][0]              
__________________________________________________________________________________________________
dropout_14 (Dropout)            (None, 30, 3, 3)     0           dense_3_2_conv2D[0][0]           
__________________________________________________________________________________________________
concatenate_14 (Concatenate)    (None, 200, 3, 3)    0           concatenate_13[0][0]             
                                                                 dropout_14[0][0]                 
__________________________________________________________________________________________________
dense_3_3_bn (BatchNormalizatio (None, 200, 3, 3)    800         concatenate_14[0][0]             
__________________________________________________________________________________________________
activation_19 (Activation)      (None, 200, 3, 3)    0           dense_3_3_bn[0][0]               
__________________________________________________________________________________________________
dense_3_3_conv2D (Conv2D)       (None, 30, 3, 3)     54000       activation_19[0][0]              
__________________________________________________________________________________________________
dropout_15 (Dropout)            (None, 30, 3, 3)     0           dense_3_3_conv2D[0][0]           
__________________________________________________________________________________________________
concatenate_15 (Concatenate)    (None, 230, 3, 3)    0           concatenate_14[0][0]             
                                                                 dropout_15[0][0]                 
__________________________________________________________________________________________________
dense_3_4_bn (BatchNormalizatio (None, 230, 3, 3)    920         concatenate_15[0][0]             
__________________________________________________________________________________________________
activation_20 (Activation)      (None, 230, 3, 3)    0           dense_3_4_bn[0][0]               
__________________________________________________________________________________________________
dense_3_4_conv2D (Conv2D)       (None, 30, 3, 3)     62100       activation_20[0][0]              
__________________________________________________________________________________________________
dropout_16 (Dropout)            (None, 30, 3, 3)     0           dense_3_4_conv2D[0][0]           
__________________________________________________________________________________________________
concatenate_16 (Concatenate)    (None, 260, 3, 3)    0           concatenate_15[0][0]             
                                                                 dropout_16[0][0]                 
__________________________________________________________________________________________________
final_bn (BatchNormalization)   (None, 260, 3, 3)    1040        concatenate_16[0][0]             
__________________________________________________________________________________________________
activation_21 (Activation)      (None, 260, 3, 3)    0           final_bn[0][0]                   
__________________________________________________________________________________________________
flatten_1 (Flatten)             (None, 2340)         0           activation_21[0][0]              
__________________________________________________________________________________________________
dense_1 (Dense)                 (None, 1)            2341        flatten_1[0][0]                  
==================================================================================================
Total params: 565,382
Trainable params: 560,106
Non-trainable params: 5,276
__________________________________________________________________________________________________
Finished compiling
Train on 39840 samples, validate on 7968 samples
Epoch 1/18
 - 36s - loss: 0.4517 - acc: 0.8075 - val_loss: 0.3308 - val_acc: 0.8779
…
Layers:  [8, 8, 8]  Growth_rate:  30  nb_filter:  16  dropout:  0.2
dense_block  3  reduction:  0.5  bottleneck:  False
Epochs  19  batch_size:  64  lr:  0.07  optimizer:  adadelta
 es_patience:  4  lr_patience:  3
------------------------	  end of configs        -------------------------
pooling:flatten
__________________________________________________________________________________________________
Layer (type)                    Output Shape         Param #     Connected to                     
==================================================================================================
input_1 (InputLayer)            (None, 2, 96, 96)    0                                            
__________________________________________________________________________________________________
initial_conv2D (Conv2D)         (None, 16, 48, 48)   1568        input_1[0][0]                    
__________________________________________________________________________________________________
initial_bn (BatchNormalization) (None, 16, 48, 48)   64          initial_conv2D[0][0]             
__________________________________________________________________________________________________
activation_1 (Activation)       (None, 16, 48, 48)   0           initial_bn[0][0]                 
__________________________________________________________________________________________________
max_pooling2d_1 (MaxPooling2D)  (None, 16, 24, 24)   0           activation_1[0][0]               
__________________________________________________________________________________________________
dense_0_0_bn (BatchNormalizatio (None, 16, 24, 24)   64          max_pooling2d_1[0][0]            
__________________________________________________________________________________________________
activation_2 (Activation)       (None, 16, 24, 24)   0           dense_0_0_bn[0][0]               
__________________________________________________________________________________________________
dense_0_0_conv2D (Conv2D)       (None, 30, 24, 24)   4320        activation_2[0][0]               
__________________________________________________________________________________________________
dropout_1 (Dropout)             (None, 30, 24, 24)   0           dense_0_0_conv2D[0][0]           
__________________________________________________________________________________________________
concatenate_1 (Concatenate)     (None, 46, 24, 24)   0           max_pooling2d_1[0][0]            
                                                                 dropout_1[0][0]                  
__________________________________________________________________________________________________
dense_0_1_bn (BatchNormalizatio (None, 46, 24, 24)   184         concatenate_1[0][0]              
__________________________________________________________________________________________________
activation_3 (Activation)       (None, 46, 24, 24)   0           dense_0_1_bn[0][0]               
__________________________________________________________________________________________________
dense_0_1_conv2D (Conv2D)       (None, 30, 24, 24)   12420       activation_3[0][0]               
__________________________________________________________________________________________________
dropout_2 (Dropout)             (None, 30, 24, 24)   0           dense_0_1_conv2D[0][0]           
__________________________________________________________________________________________________
concatenate_2 (Concatenate)     (None, 76, 24, 24)   0           concatenate_1[0][0]              
                                                                 dropout_2[0][0]                  
__________________________________________________________________________________________________
dense_0_2_bn (BatchNormalizatio (None, 76, 24, 24)   304         concatenate_2[0][0]              
__________________________________________________________________________________________________
activation_4 (Activation)       (None, 76, 24, 24)   0           dense_0_2_bn[0][0]               
__________________________________________________________________________________________________
dense_0_2_conv2D (Conv2D)       (None, 30, 24, 24)   20520       activation_4[0][0]               
__________________________________________________________________________________________________
dropout_3 (Dropout)             (None, 30, 24, 24)   0           dense_0_2_conv2D[0][0]           
__________________________________________________________________________________________________
concatenate_3 (Concatenate)     (None, 106, 24, 24)  0           concatenate_2[0][0]              
                                                                 dropout_3[0][0]                  
__________________________________________________________________________________________________
dense_0_3_bn (BatchNormalizatio (None, 106, 24, 24)  424         concatenate_3[0][0]              
__________________________________________________________________________________________________
activation_5 (Activation)       (None, 106, 24, 24)  0           dense_0_3_bn[0][0]               
__________________________________________________________________________________________________
dense_0_3_conv2D (Conv2D)       (None, 30, 24, 24)   28620       activation_5[0][0]               
__________________________________________________________________________________________________
dropout_4 (Dropout)             (None, 30, 24, 24)   0           dense_0_3_conv2D[0][0]           
__________________________________________________________________________________________________
concatenate_4 (Concatenate)     (None, 136, 24, 24)  0           concatenate_3[0][0]              
                                                                 dropout_4[0][0]                  
__________________________________________________________________________________________________
dense_0_4_bn (BatchNormalizatio (None, 136, 24, 24)  544         concatenate_4[0][0]              
__________________________________________________________________________________________________
activation_6 (Activation)       (None, 136, 24, 24)  0           dense_0_4_bn[0][0]               
__________________________________________________________________________________________________
dense_0_4_conv2D (Conv2D)       (None, 30, 24, 24)   36720       activation_6[0][0]               
__________________________________________________________________________________________________
dropout_5 (Dropout)             (None, 30, 24, 24)   0           dense_0_4_conv2D[0][0]           
__________________________________________________________________________________________________
concatenate_5 (Concatenate)     (None, 166, 24, 24)  0           concatenate_4[0][0]              
                                                                 dropout_5[0][0]                  
__________________________________________________________________________________________________
dense_0_5_bn (BatchNormalizatio (None, 166, 24, 24)  664         concatenate_5[0][0]              
__________________________________________________________________________________________________
activation_7 (Activation)       (None, 166, 24, 24)  0           dense_0_5_bn[0][0]               
__________________________________________________________________________________________________
dense_0_5_conv2D (Conv2D)       (None, 30, 24, 24)   44820       activation_7[0][0]               
__________________________________________________________________________________________________
dropout_6 (Dropout)             (None, 30, 24, 24)   0           dense_0_5_conv2D[0][0]           
__________________________________________________________________________________________________
concatenate_6 (Concatenate)     (None, 196, 24, 24)  0           concatenate_5[0][0]              
                                                                 dropout_6[0][0]                  
__________________________________________________________________________________________________
dense_0_6_bn (BatchNormalizatio (None, 196, 24, 24)  784         concatenate_6[0][0]              
__________________________________________________________________________________________________
activation_8 (Activation)       (None, 196, 24, 24)  0           dense_0_6_bn[0][0]               
__________________________________________________________________________________________________
dense_0_6_conv2D (Conv2D)       (None, 30, 24, 24)   52920       activation_8[0][0]               
__________________________________________________________________________________________________
dropout_7 (Dropout)             (None, 30, 24, 24)   0           dense_0_6_conv2D[0][0]           
__________________________________________________________________________________________________
concatenate_7 (Concatenate)     (None, 226, 24, 24)  0           concatenate_6[0][0]              
                                                                 dropout_7[0][0]                  
__________________________________________________________________________________________________
dense_0_7_bn (BatchNormalizatio (None, 226, 24, 24)  904         concatenate_7[0][0]              
__________________________________________________________________________________________________
activation_9 (Activation)       (None, 226, 24, 24)  0           dense_0_7_bn[0][0]               
__________________________________________________________________________________________________
dense_0_7_conv2D (Conv2D)       (None, 30, 24, 24)   61020       activation_9[0][0]               
__________________________________________________________________________________________________
dropout_8 (Dropout)             (None, 30, 24, 24)   0           dense_0_7_conv2D[0][0]           
__________________________________________________________________________________________________
concatenate_8 (Concatenate)     (None, 256, 24, 24)  0           concatenate_7[0][0]              
                                                                 dropout_8[0][0]                  
__________________________________________________________________________________________________
tr_0_bn (BatchNormalization)    (None, 256, 24, 24)  1024        concatenate_8[0][0]              
__________________________________________________________________________________________________
activation_10 (Activation)      (None, 256, 24, 24)  0           tr_0_bn[0][0]                    
__________________________________________________________________________________________________
tr_0_conv2D (Conv2D)            (None, 128, 24, 24)  32768       activation_10[0][0]              
__________________________________________________________________________________________________
average_pooling2d_1 (AveragePoo (None, 128, 12, 12)  0           tr_0_conv2D[0][0]                
__________________________________________________________________________________________________
dense_1_0_bn (BatchNormalizatio (None, 128, 12, 12)  512         average_pooling2d_1[0][0]        
__________________________________________________________________________________________________
activation_11 (Activation)      (None, 128, 12, 12)  0           dense_1_0_bn[0][0]               
__________________________________________________________________________________________________
dense_1_0_conv2D (Conv2D)       (None, 30, 12, 12)   34560       activation_11[0][0]              
__________________________________________________________________________________________________
dropout_9 (Dropout)             (None, 30, 12, 12)   0           dense_1_0_conv2D[0][0]           
__________________________________________________________________________________________________
concatenate_9 (Concatenate)     (None, 158, 12, 12)  0           average_pooling2d_1[0][0]        
                                                                 dropout_9[0][0]                  
__________________________________________________________________________________________________
dense_1_1_bn (BatchNormalizatio (None, 158, 12, 12)  632         concatenate_9[0][0]              
__________________________________________________________________________________________________
activation_12 (Activation)      (None, 158, 12, 12)  0           dense_1_1_bn[0][0]               
__________________________________________________________________________________________________
dense_1_1_conv2D (Conv2D)       (None, 30, 12, 12)   42660       activation_12[0][0]              
__________________________________________________________________________________________________
dropout_10 (Dropout)            (None, 30, 12, 12)   0           dense_1_1_conv2D[0][0]           
__________________________________________________________________________________________________
concatenate_10 (Concatenate)    (None, 188, 12, 12)  0           concatenate_9[0][0]              
                                                                 dropout_10[0][0]                 
__________________________________________________________________________________________________
dense_1_2_bn (BatchNormalizatio (None, 188, 12, 12)  752         concatenate_10[0][0]             
__________________________________________________________________________________________________
activation_13 (Activation)      (None, 188, 12, 12)  0           dense_1_2_bn[0][0]               
__________________________________________________________________________________________________
dense_1_2_conv2D (Conv2D)       (None, 30, 12, 12)   50760       activation_13[0][0]              
__________________________________________________________________________________________________
dropout_11 (Dropout)            (None, 30, 12, 12)   0           dense_1_2_conv2D[0][0]           
__________________________________________________________________________________________________
concatenate_11 (Concatenate)    (None, 218, 12, 12)  0           concatenate_10[0][0]             
                                                                 dropout_11[0][0]                 
__________________________________________________________________________________________________
dense_1_3_bn (BatchNormalizatio (None, 218, 12, 12)  872         concatenate_11[0][0]             
__________________________________________________________________________________________________
activation_14 (Activation)      (None, 218, 12, 12)  0           dense_1_3_bn[0][0]               
__________________________________________________________________________________________________
dense_1_3_conv2D (Conv2D)       (None, 30, 12, 12)   58860       activation_14[0][0]              
__________________________________________________________________________________________________
dropout_12 (Dropout)            (None, 30, 12, 12)   0           dense_1_3_conv2D[0][0]           
__________________________________________________________________________________________________
concatenate_12 (Concatenate)    (None, 248, 12, 12)  0           concatenate_11[0][0]             
                                                                 dropout_12[0][0]                 
__________________________________________________________________________________________________
dense_1_4_bn (BatchNormalizatio (None, 248, 12, 12)  992         concatenate_12[0][0]             
__________________________________________________________________________________________________
activation_15 (Activation)      (None, 248, 12, 12)  0           dense_1_4_bn[0][0]               
__________________________________________________________________________________________________
dense_1_4_conv2D (Conv2D)       (None, 30, 12, 12)   66960       activation_15[0][0]              
__________________________________________________________________________________________________
dropout_13 (Dropout)            (None, 30, 12, 12)   0           dense_1_4_conv2D[0][0]           
__________________________________________________________________________________________________
concatenate_13 (Concatenate)    (None, 278, 12, 12)  0           concatenate_12[0][0]             
                                                                 dropout_13[0][0]                 
__________________________________________________________________________________________________
dense_1_5_bn (BatchNormalizatio (None, 278, 12, 12)  1112        concatenate_13[0][0]             
__________________________________________________________________________________________________
activation_16 (Activation)      (None, 278, 12, 12)  0           dense_1_5_bn[0][0]               
__________________________________________________________________________________________________
dense_1_5_conv2D (Conv2D)       (None, 30, 12, 12)   75060       activation_16[0][0]              
__________________________________________________________________________________________________
dropout_14 (Dropout)            (None, 30, 12, 12)   0           dense_1_5_conv2D[0][0]           
__________________________________________________________________________________________________
concatenate_14 (Concatenate)    (None, 308, 12, 12)  0           concatenate_13[0][0]             
                                                                 dropout_14[0][0]                 
__________________________________________________________________________________________________
dense_1_6_bn (BatchNormalizatio (None, 308, 12, 12)  1232        concatenate_14[0][0]             
__________________________________________________________________________________________________
activation_17 (Activation)      (None, 308, 12, 12)  0           dense_1_6_bn[0][0]               
__________________________________________________________________________________________________
dense_1_6_conv2D (Conv2D)       (None, 30, 12, 12)   83160       activation_17[0][0]              
__________________________________________________________________________________________________
dropout_15 (Dropout)            (None, 30, 12, 12)   0           dense_1_6_conv2D[0][0]           
__________________________________________________________________________________________________
concatenate_15 (Concatenate)    (None, 338, 12, 12)  0           concatenate_14[0][0]             
                                                                 dropout_15[0][0]                 
__________________________________________________________________________________________________
dense_1_7_bn (BatchNormalizatio (None, 338, 12, 12)  1352        concatenate_15[0][0]             
__________________________________________________________________________________________________
activation_18 (Activation)      (None, 338, 12, 12)  0           dense_1_7_bn[0][0]               
__________________________________________________________________________________________________
dense_1_7_conv2D (Conv2D)       (None, 30, 12, 12)   91260       activation_18[0][0]              
__________________________________________________________________________________________________
dropout_16 (Dropout)            (None, 30, 12, 12)   0           dense_1_7_conv2D[0][0]           
__________________________________________________________________________________________________
concatenate_16 (Concatenate)    (None, 368, 12, 12)  0           concatenate_15[0][0]             
                                                                 dropout_16[0][0]                 
__________________________________________________________________________________________________
tr_1_bn (BatchNormalization)    (None, 368, 12, 12)  1472        concatenate_16[0][0]             
__________________________________________________________________________________________________
activation_19 (Activation)      (None, 368, 12, 12)  0           tr_1_bn[0][0]                    
__________________________________________________________________________________________________
tr_1_conv2D (Conv2D)            (None, 184, 12, 12)  67712       activation_19[0][0]              
__________________________________________________________________________________________________
average_pooling2d_2 (AveragePoo (None, 184, 6, 6)    0           tr_1_conv2D[0][0]                
__________________________________________________________________________________________________
dense_2_0_bn (BatchNormalizatio (None, 184, 6, 6)    736         average_pooling2d_2[0][0]        
__________________________________________________________________________________________________
activation_20 (Activation)      (None, 184, 6, 6)    0           dense_2_0_bn[0][0]               
__________________________________________________________________________________________________
dense_2_0_conv2D (Conv2D)       (None, 30, 6, 6)     49680       activation_20[0][0]              
__________________________________________________________________________________________________
dropout_17 (Dropout)            (None, 30, 6, 6)     0           dense_2_0_conv2D[0][0]           
__________________________________________________________________________________________________
concatenate_17 (Concatenate)    (None, 214, 6, 6)    0           average_pooling2d_2[0][0]        
                                                                 dropout_17[0][0]                 
__________________________________________________________________________________________________
dense_2_1_bn (BatchNormalizatio (None, 214, 6, 6)    856         concatenate_17[0][0]             
__________________________________________________________________________________________________
activation_21 (Activation)      (None, 214, 6, 6)    0           dense_2_1_bn[0][0]               
__________________________________________________________________________________________________
dense_2_1_conv2D (Conv2D)       (None, 30, 6, 6)     57780       activation_21[0][0]              
__________________________________________________________________________________________________
dropout_18 (Dropout)            (None, 30, 6, 6)     0           dense_2_1_conv2D[0][0]           
__________________________________________________________________________________________________
concatenate_18 (Concatenate)    (None, 244, 6, 6)    0           concatenate_17[0][0]             
                                                                 dropout_18[0][0]                 
__________________________________________________________________________________________________
dense_2_2_bn (BatchNormalizatio (None, 244, 6, 6)    976         concatenate_18[0][0]             
__________________________________________________________________________________________________
activation_22 (Activation)      (None, 244, 6, 6)    0           dense_2_2_bn[0][0]               
__________________________________________________________________________________________________
dense_2_2_conv2D (Conv2D)       (None, 30, 6, 6)     65880       activation_22[0][0]              
__________________________________________________________________________________________________
dropout_19 (Dropout)            (None, 30, 6, 6)     0           dense_2_2_conv2D[0][0]           
__________________________________________________________________________________________________
concatenate_19 (Concatenate)    (None, 274, 6, 6)    0           concatenate_18[0][0]             
                                                                 dropout_19[0][0]                 
__________________________________________________________________________________________________
dense_2_3_bn (BatchNormalizatio (None, 274, 6, 6)    1096        concatenate_19[0][0]             
__________________________________________________________________________________________________
activation_23 (Activation)      (None, 274, 6, 6)    0           dense_2_3_bn[0][0]               
__________________________________________________________________________________________________
dense_2_3_conv2D (Conv2D)       (None, 30, 6, 6)     73980       activation_23[0][0]              
__________________________________________________________________________________________________
dropout_20 (Dropout)            (None, 30, 6, 6)     0           dense_2_3_conv2D[0][0]           
__________________________________________________________________________________________________
concatenate_20 (Concatenate)    (None, 304, 6, 6)    0           concatenate_19[0][0]             
                                                                 dropout_20[0][0]                 
__________________________________________________________________________________________________
dense_2_4_bn (BatchNormalizatio (None, 304, 6, 6)    1216        concatenate_20[0][0]             
__________________________________________________________________________________________________
activation_24 (Activation)      (None, 304, 6, 6)    0           dense_2_4_bn[0][0]               
__________________________________________________________________________________________________
dense_2_4_conv2D (Conv2D)       (None, 30, 6, 6)     82080       activation_24[0][0]              
__________________________________________________________________________________________________
dropout_21 (Dropout)            (None, 30, 6, 6)     0           dense_2_4_conv2D[0][0]           
__________________________________________________________________________________________________
concatenate_21 (Concatenate)    (None, 334, 6, 6)    0           concatenate_20[0][0]             
                                                                 dropout_21[0][0]                 
__________________________________________________________________________________________________
dense_2_5_bn (BatchNormalizatio (None, 334, 6, 6)    1336        concatenate_21[0][0]             
__________________________________________________________________________________________________
activation_25 (Activation)      (None, 334, 6, 6)    0           dense_2_5_bn[0][0]               
__________________________________________________________________________________________________
dense_2_5_conv2D (Conv2D)       (None, 30, 6, 6)     90180       activation_25[0][0]              
__________________________________________________________________________________________________
dropout_22 (Dropout)            (None, 30, 6, 6)     0           dense_2_5_conv2D[0][0]           
__________________________________________________________________________________________________
concatenate_22 (Concatenate)    (None, 364, 6, 6)    0           concatenate_21[0][0]             
                                                                 dropout_22[0][0]                 
__________________________________________________________________________________________________
dense_2_6_bn (BatchNormalizatio (None, 364, 6, 6)    1456        concatenate_22[0][0]             
__________________________________________________________________________________________________
activation_26 (Activation)      (None, 364, 6, 6)    0           dense_2_6_bn[0][0]               
__________________________________________________________________________________________________
dense_2_6_conv2D (Conv2D)       (None, 30, 6, 6)     98280       activation_26[0][0]              
__________________________________________________________________________________________________
dropout_23 (Dropout)            (None, 30, 6, 6)     0           dense_2_6_conv2D[0][0]           
__________________________________________________________________________________________________
concatenate_23 (Concatenate)    (None, 394, 6, 6)    0           concatenate_22[0][0]             
                                                                 dropout_23[0][0]                 
__________________________________________________________________________________________________
dense_2_7_bn (BatchNormalizatio (None, 394, 6, 6)    1576        concatenate_23[0][0]             
__________________________________________________________________________________________________
activation_27 (Activation)      (None, 394, 6, 6)    0           dense_2_7_bn[0][0]               
__________________________________________________________________________________________________
dense_2_7_conv2D (Conv2D)       (None, 30, 6, 6)     106380      activation_27[0][0]              
__________________________________________________________________________________________________
dropout_24 (Dropout)            (None, 30, 6, 6)     0           dense_2_7_conv2D[0][0]           
__________________________________________________________________________________________________
concatenate_24 (Concatenate)    (None, 424, 6, 6)    0           concatenate_23[0][0]             
                                                                 dropout_24[0][0]                 
__________________________________________________________________________________________________
final_bn (BatchNormalization)   (None, 424, 6, 6)    1696        concatenate_24[0][0]             
__________________________________________________________________________________________________
activation_28 (Activation)      (None, 424, 6, 6)    0           final_bn[0][0]                   
__________________________________________________________________________________________________
flatten_1 (Flatten)             (None, 15264)        0           activation_28[0][0]              
__________________________________________________________________________________________________
dense_1 (Dense)                 (None, 1)            15265       flatten_1[0][0]                  
==================================================================================================
Total params: 1,531,025
Trainable params: 1,518,609
Non-trainable params: 12,416
__________________________________________________________________________________________________
Finished compiling
Train on 39840 samples, validate on 7968 samples
Epoch 1/19
 - 44s - loss: 0.4235 - acc: 0.8357 - val_loss: 0.3432 - val_acc: 0.8750
…
Layers:  [10, 10, 10]  Growth_rate:  30  nb_filter:  16  dropout:  0.2
dense_block  3  reduction:  0.5  bottleneck:  False
Epochs  17  batch_size:  64  lr:  0.07  optimizer:  adadelta
 es_patience:  4  lr_patience:  3
------------------------	  end of configs        -------------------------
pooling:flatten
__________________________________________________________________________________________________
Layer (type)                    Output Shape         Param #     Connected to                     
==================================================================================================
input_1 (InputLayer)            (None, 2, 96, 96)    0                                            
__________________________________________________________________________________________________
initial_conv2D (Conv2D)         (None, 16, 48, 48)   1568        input_1[0][0]                    
__________________________________________________________________________________________________
initial_bn (BatchNormalization) (None, 16, 48, 48)   64          initial_conv2D[0][0]             
__________________________________________________________________________________________________
activation_1 (Activation)       (None, 16, 48, 48)   0           initial_bn[0][0]                 
__________________________________________________________________________________________________
max_pooling2d_1 (MaxPooling2D)  (None, 16, 24, 24)   0           activation_1[0][0]               
__________________________________________________________________________________________________
dense_0_0_bn (BatchNormalizatio (None, 16, 24, 24)   64          max_pooling2d_1[0][0]            
__________________________________________________________________________________________________
activation_2 (Activation)       (None, 16, 24, 24)   0           dense_0_0_bn[0][0]               
__________________________________________________________________________________________________
dense_0_0_conv2D (Conv2D)       (None, 30, 24, 24)   4320        activation_2[0][0]               
__________________________________________________________________________________________________
dropout_1 (Dropout)             (None, 30, 24, 24)   0           dense_0_0_conv2D[0][0]           
__________________________________________________________________________________________________
concatenate_1 (Concatenate)     (None, 46, 24, 24)   0           max_pooling2d_1[0][0]            
                                                                 dropout_1[0][0]                  
__________________________________________________________________________________________________
dense_0_1_bn (BatchNormalizatio (None, 46, 24, 24)   184         concatenate_1[0][0]              
__________________________________________________________________________________________________
activation_3 (Activation)       (None, 46, 24, 24)   0           dense_0_1_bn[0][0]               
__________________________________________________________________________________________________
dense_0_1_conv2D (Conv2D)       (None, 30, 24, 24)   12420       activation_3[0][0]               
__________________________________________________________________________________________________
dropout_2 (Dropout)             (None, 30, 24, 24)   0           dense_0_1_conv2D[0][0]           
__________________________________________________________________________________________________
concatenate_2 (Concatenate)     (None, 76, 24, 24)   0           concatenate_1[0][0]              
                                                                 dropout_2[0][0]                  
__________________________________________________________________________________________________
dense_0_2_bn (BatchNormalizatio (None, 76, 24, 24)   304         concatenate_2[0][0]              
__________________________________________________________________________________________________
activation_4 (Activation)       (None, 76, 24, 24)   0           dense_0_2_bn[0][0]               
__________________________________________________________________________________________________
dense_0_2_conv2D (Conv2D)       (None, 30, 24, 24)   20520       activation_4[0][0]               
__________________________________________________________________________________________________
dropout_3 (Dropout)             (None, 30, 24, 24)   0           dense_0_2_conv2D[0][0]           
__________________________________________________________________________________________________
concatenate_3 (Concatenate)     (None, 106, 24, 24)  0           concatenate_2[0][0]              
                                                                 dropout_3[0][0]                  
__________________________________________________________________________________________________
dense_0_3_bn (BatchNormalizatio (None, 106, 24, 24)  424         concatenate_3[0][0]              
__________________________________________________________________________________________________
activation_5 (Activation)       (None, 106, 24, 24)  0           dense_0_3_bn[0][0]               
__________________________________________________________________________________________________
dense_0_3_conv2D (Conv2D)       (None, 30, 24, 24)   28620       activation_5[0][0]               
__________________________________________________________________________________________________
dropout_4 (Dropout)             (None, 30, 24, 24)   0           dense_0_3_conv2D[0][0]           
__________________________________________________________________________________________________
concatenate_4 (Concatenate)     (None, 136, 24, 24)  0           concatenate_3[0][0]              
                                                                 dropout_4[0][0]                  
__________________________________________________________________________________________________
dense_0_4_bn (BatchNormalizatio (None, 136, 24, 24)  544         concatenate_4[0][0]              
__________________________________________________________________________________________________
activation_6 (Activation)       (None, 136, 24, 24)  0           dense_0_4_bn[0][0]               
__________________________________________________________________________________________________
dense_0_4_conv2D (Conv2D)       (None, 30, 24, 24)   36720       activation_6[0][0]               
__________________________________________________________________________________________________
dropout_5 (Dropout)             (None, 30, 24, 24)   0           dense_0_4_conv2D[0][0]           
__________________________________________________________________________________________________
concatenate_5 (Concatenate)     (None, 166, 24, 24)  0           concatenate_4[0][0]              
                                                                 dropout_5[0][0]                  
__________________________________________________________________________________________________
dense_0_5_bn (BatchNormalizatio (None, 166, 24, 24)  664         concatenate_5[0][0]              
__________________________________________________________________________________________________
activation_7 (Activation)       (None, 166, 24, 24)  0           dense_0_5_bn[0][0]               
__________________________________________________________________________________________________
dense_0_5_conv2D (Conv2D)       (None, 30, 24, 24)   44820       activation_7[0][0]               
__________________________________________________________________________________________________
dropout_6 (Dropout)             (None, 30, 24, 24)   0           dense_0_5_conv2D[0][0]           
__________________________________________________________________________________________________
concatenate_6 (Concatenate)     (None, 196, 24, 24)  0           concatenate_5[0][0]              
                                                                 dropout_6[0][0]                  
__________________________________________________________________________________________________
dense_0_6_bn (BatchNormalizatio (None, 196, 24, 24)  784         concatenate_6[0][0]              
__________________________________________________________________________________________________
activation_8 (Activation)       (None, 196, 24, 24)  0           dense_0_6_bn[0][0]               
__________________________________________________________________________________________________
dense_0_6_conv2D (Conv2D)       (None, 30, 24, 24)   52920       activation_8[0][0]               
__________________________________________________________________________________________________
dropout_7 (Dropout)             (None, 30, 24, 24)   0           dense_0_6_conv2D[0][0]           
__________________________________________________________________________________________________
concatenate_7 (Concatenate)     (None, 226, 24, 24)  0           concatenate_6[0][0]              
                                                                 dropout_7[0][0]                  
__________________________________________________________________________________________________
dense_0_7_bn (BatchNormalizatio (None, 226, 24, 24)  904         concatenate_7[0][0]              
__________________________________________________________________________________________________
activation_9 (Activation)       (None, 226, 24, 24)  0           dense_0_7_bn[0][0]               
__________________________________________________________________________________________________
dense_0_7_conv2D (Conv2D)       (None, 30, 24, 24)   61020       activation_9[0][0]               
__________________________________________________________________________________________________
dropout_8 (Dropout)             (None, 30, 24, 24)   0           dense_0_7_conv2D[0][0]           
__________________________________________________________________________________________________
concatenate_8 (Concatenate)     (None, 256, 24, 24)  0           concatenate_7[0][0]              
                                                                 dropout_8[0][0]                  
__________________________________________________________________________________________________
dense_0_8_bn (BatchNormalizatio (None, 256, 24, 24)  1024        concatenate_8[0][0]              
__________________________________________________________________________________________________
activation_10 (Activation)      (None, 256, 24, 24)  0           dense_0_8_bn[0][0]               
__________________________________________________________________________________________________
dense_0_8_conv2D (Conv2D)       (None, 30, 24, 24)   69120       activation_10[0][0]              
__________________________________________________________________________________________________
dropout_9 (Dropout)             (None, 30, 24, 24)   0           dense_0_8_conv2D[0][0]           
__________________________________________________________________________________________________
concatenate_9 (Concatenate)     (None, 286, 24, 24)  0           concatenate_8[0][0]              
                                                                 dropout_9[0][0]                  
__________________________________________________________________________________________________
dense_0_9_bn (BatchNormalizatio (None, 286, 24, 24)  1144        concatenate_9[0][0]              
__________________________________________________________________________________________________
activation_11 (Activation)      (None, 286, 24, 24)  0           dense_0_9_bn[0][0]               
__________________________________________________________________________________________________
dense_0_9_conv2D (Conv2D)       (None, 30, 24, 24)   77220       activation_11[0][0]              
__________________________________________________________________________________________________
dropout_10 (Dropout)            (None, 30, 24, 24)   0           dense_0_9_conv2D[0][0]           
__________________________________________________________________________________________________
concatenate_10 (Concatenate)    (None, 316, 24, 24)  0           concatenate_9[0][0]              
                                                                 dropout_10[0][0]                 
__________________________________________________________________________________________________
tr_0_bn (BatchNormalization)    (None, 316, 24, 24)  1264        concatenate_10[0][0]             
__________________________________________________________________________________________________
activation_12 (Activation)      (None, 316, 24, 24)  0           tr_0_bn[0][0]                    
__________________________________________________________________________________________________
tr_0_conv2D (Conv2D)            (None, 158, 24, 24)  49928       activation_12[0][0]              
__________________________________________________________________________________________________
average_pooling2d_1 (AveragePoo (None, 158, 12, 12)  0           tr_0_conv2D[0][0]                
__________________________________________________________________________________________________
dense_1_0_bn (BatchNormalizatio (None, 158, 12, 12)  632         average_pooling2d_1[0][0]        
__________________________________________________________________________________________________
activation_13 (Activation)      (None, 158, 12, 12)  0           dense_1_0_bn[0][0]               
__________________________________________________________________________________________________
dense_1_0_conv2D (Conv2D)       (None, 30, 12, 12)   42660       activation_13[0][0]              
__________________________________________________________________________________________________
dropout_11 (Dropout)            (None, 30, 12, 12)   0           dense_1_0_conv2D[0][0]           
__________________________________________________________________________________________________
concatenate_11 (Concatenate)    (None, 188, 12, 12)  0           average_pooling2d_1[0][0]        
                                                                 dropout_11[0][0]                 
__________________________________________________________________________________________________
dense_1_1_bn (BatchNormalizatio (None, 188, 12, 12)  752         concatenate_11[0][0]             
__________________________________________________________________________________________________
activation_14 (Activation)      (None, 188, 12, 12)  0           dense_1_1_bn[0][0]               
__________________________________________________________________________________________________
dense_1_1_conv2D (Conv2D)       (None, 30, 12, 12)   50760       activation_14[0][0]              
__________________________________________________________________________________________________
dropout_12 (Dropout)            (None, 30, 12, 12)   0           dense_1_1_conv2D[0][0]           
__________________________________________________________________________________________________
concatenate_12 (Concatenate)    (None, 218, 12, 12)  0           concatenate_11[0][0]             
                                                                 dropout_12[0][0]                 
__________________________________________________________________________________________________
dense_1_2_bn (BatchNormalizatio (None, 218, 12, 12)  872         concatenate_12[0][0]             
__________________________________________________________________________________________________
activation_15 (Activation)      (None, 218, 12, 12)  0           dense_1_2_bn[0][0]               
__________________________________________________________________________________________________
dense_1_2_conv2D (Conv2D)       (None, 30, 12, 12)   58860       activation_15[0][0]              
__________________________________________________________________________________________________
dropout_13 (Dropout)            (None, 30, 12, 12)   0           dense_1_2_conv2D[0][0]           
__________________________________________________________________________________________________
concatenate_13 (Concatenate)    (None, 248, 12, 12)  0           concatenate_12[0][0]             
                                                                 dropout_13[0][0]                 
__________________________________________________________________________________________________
dense_1_3_bn (BatchNormalizatio (None, 248, 12, 12)  992         concatenate_13[0][0]             
__________________________________________________________________________________________________
activation_16 (Activation)      (None, 248, 12, 12)  0           dense_1_3_bn[0][0]               
__________________________________________________________________________________________________
dense_1_3_conv2D (Conv2D)       (None, 30, 12, 12)   66960       activation_16[0][0]              
__________________________________________________________________________________________________
dropout_14 (Dropout)            (None, 30, 12, 12)   0           dense_1_3_conv2D[0][0]           
__________________________________________________________________________________________________
concatenate_14 (Concatenate)    (None, 278, 12, 12)  0           concatenate_13[0][0]             
                                                                 dropout_14[0][0]                 
__________________________________________________________________________________________________
dense_1_4_bn (BatchNormalizatio (None, 278, 12, 12)  1112        concatenate_14[0][0]             
__________________________________________________________________________________________________
activation_17 (Activation)      (None, 278, 12, 12)  0           dense_1_4_bn[0][0]               
__________________________________________________________________________________________________
dense_1_4_conv2D (Conv2D)       (None, 30, 12, 12)   75060       activation_17[0][0]              
__________________________________________________________________________________________________
dropout_15 (Dropout)            (None, 30, 12, 12)   0           dense_1_4_conv2D[0][0]           
__________________________________________________________________________________________________
concatenate_15 (Concatenate)    (None, 308, 12, 12)  0           concatenate_14[0][0]             
                                                                 dropout_15[0][0]                 
__________________________________________________________________________________________________
dense_1_5_bn (BatchNormalizatio (None, 308, 12, 12)  1232        concatenate_15[0][0]             
__________________________________________________________________________________________________
activation_18 (Activation)      (None, 308, 12, 12)  0           dense_1_5_bn[0][0]               
__________________________________________________________________________________________________
dense_1_5_conv2D (Conv2D)       (None, 30, 12, 12)   83160       activation_18[0][0]              
__________________________________________________________________________________________________
dropout_16 (Dropout)            (None, 30, 12, 12)   0           dense_1_5_conv2D[0][0]           
__________________________________________________________________________________________________
concatenate_16 (Concatenate)    (None, 338, 12, 12)  0           concatenate_15[0][0]             
                                                                 dropout_16[0][0]                 
__________________________________________________________________________________________________
dense_1_6_bn (BatchNormalizatio (None, 338, 12, 12)  1352        concatenate_16[0][0]             
__________________________________________________________________________________________________
activation_19 (Activation)      (None, 338, 12, 12)  0           dense_1_6_bn[0][0]               
__________________________________________________________________________________________________
dense_1_6_conv2D (Conv2D)       (None, 30, 12, 12)   91260       activation_19[0][0]              
__________________________________________________________________________________________________
dropout_17 (Dropout)            (None, 30, 12, 12)   0           dense_1_6_conv2D[0][0]           
__________________________________________________________________________________________________
concatenate_17 (Concatenate)    (None, 368, 12, 12)  0           concatenate_16[0][0]             
…
dropout_2 (Dropout)             (None, 30, 24, 24)   0           dense_0_1_conv2D[0][0]           
__________________________________________________________________________________________________
concatenate_2 (Concatenate)     (None, 76, 24, 24)   0           concatenate_1[0][0]              
                                                                 dropout_2[0][0]                  
__________________________________________________________________________________________________
dense_0_2_bn (BatchNormalizatio (None, 76, 24, 24)   304         concatenate_2[0][0]              
__________________________________________________________________________________________________
activation_4 (Activation)       (None, 76, 24, 24)   0           dense_0_2_bn[0][0]               
__________________________________________________________________________________________________
dense_0_2_conv2D (Conv2D)       (None, 30, 24, 24)   20520       activation_4[0][0]               
__________________________________________________________________________________________________
dropout_3 (Dropout)             (None, 30, 24, 24)   0           dense_0_2_conv2D[0][0]           
__________________________________________________________________________________________________
concatenate_3 (Concatenate)     (None, 106, 24, 24)  0           concatenate_2[0][0]              
                                                                 dropout_3[0][0]                  
__________________________________________________________________________________________________
dense_0_3_bn (BatchNormalizatio (None, 106, 24, 24)  424         concatenate_3[0][0]              
__________________________________________________________________________________________________
activation_5 (Activation)       (None, 106, 24, 24)  0           dense_0_3_bn[0][0]               
__________________________________________________________________________________________________
dense_0_3_conv2D (Conv2D)       (None, 30, 24, 24)   28620       activation_5[0][0]               
__________________________________________________________________________________________________
dropout_4 (Dropout)             (None, 30, 24, 24)   0           dense_0_3_conv2D[0][0]           
__________________________________________________________________________________________________
concatenate_4 (Concatenate)     (None, 136, 24, 24)  0           concatenate_3[0][0]              
                                                                 dropout_4[0][0]                  
__________________________________________________________________________________________________
dense_0_4_bn (BatchNormalizatio (None, 136, 24, 24)  544         concatenate_4[0][0]              
__________________________________________________________________________________________________
activation_6 (Activation)       (None, 136, 24, 24)  0           dense_0_4_bn[0][0]               
__________________________________________________________________________________________________
dense_0_4_conv2D (Conv2D)       (None, 30, 24, 24)   36720       activation_6[0][0]               
__________________________________________________________________________________________________
dropout_5 (Dropout)             (None, 30, 24, 24)   0           dense_0_4_conv2D[0][0]           
__________________________________________________________________________________________________
concatenate_5 (Concatenate)     (None, 166, 24, 24)  0           concatenate_4[0][0]              
                                                                 dropout_5[0][0]                  
__________________________________________________________________________________________________
dense_0_5_bn (BatchNormalizatio (None, 166, 24, 24)  664         concatenate_5[0][0]              
__________________________________________________________________________________________________
activation_7 (Activation)       (None, 166, 24, 24)  0           dense_0_5_bn[0][0]               
__________________________________________________________________________________________________
dense_0_5_conv2D (Conv2D)       (None, 30, 24, 24)   44820       activation_7[0][0]               
__________________________________________________________________________________________________
dropout_6 (Dropout)             (None, 30, 24, 24)   0           dense_0_5_conv2D[0][0]           
__________________________________________________________________________________________________
concatenate_6 (Concatenate)     (None, 196, 24, 24)  0           concatenate_5[0][0]              
                                                                 dropout_6[0][0]                  
__________________________________________________________________________________________________
dense_0_6_bn (BatchNormalizatio (None, 196, 24, 24)  784         concatenate_6[0][0]              
__________________________________________________________________________________________________
activation_8 (Activation)       (None, 196, 24, 24)  0           dense_0_6_bn[0][0]               
__________________________________________________________________________________________________
dense_0_6_conv2D (Conv2D)       (None, 30, 24, 24)   52920       activation_8[0][0]               
__________________________________________________________________________________________________
dropout_7 (Dropout)             (None, 30, 24, 24)   0           dense_0_6_conv2D[0][0]           
__________________________________________________________________________________________________
concatenate_7 (Concatenate)     (None, 226, 24, 24)  0           concatenate_6[0][0]              
                                                                 dropout_7[0][0]                  
__________________________________________________________________________________________________
dense_0_7_bn (BatchNormalizatio (None, 226, 24, 24)  904         concatenate_7[0][0]              
__________________________________________________________________________________________________
activation_9 (Activation)       (None, 226, 24, 24)  0           dense_0_7_bn[0][0]               
__________________________________________________________________________________________________
dense_0_7_conv2D (Conv2D)       (None, 30, 24, 24)   61020       activation_9[0][0]               
__________________________________________________________________________________________________
dropout_8 (Dropout)             (None, 30, 24, 24)   0           dense_0_7_conv2D[0][0]           
__________________________________________________________________________________________________
concatenate_8 (Concatenate)     (None, 256, 24, 24)  0           concatenate_7[0][0]              
                                                                 dropout_8[0][0]                  
__________________________________________________________________________________________________
dense_0_8_bn (BatchNormalizatio (None, 256, 24, 24)  1024        concatenate_8[0][0]              
__________________________________________________________________________________________________
activation_10 (Activation)      (None, 256, 24, 24)  0           dense_0_8_bn[0][0]               
__________________________________________________________________________________________________
dense_0_8_conv2D (Conv2D)       (None, 30, 24, 24)   69120       activation_10[0][0]              
__________________________________________________________________________________________________
dropout_9 (Dropout)             (None, 30, 24, 24)   0           dense_0_8_conv2D[0][0]           
__________________________________________________________________________________________________
concatenate_9 (Concatenate)     (None, 286, 24, 24)  0           concatenate_8[0][0]              
                                                                 dropout_9[0][0]                  
__________________________________________________________________________________________________
dense_0_9_bn (BatchNormalizatio (None, 286, 24, 24)  1144        concatenate_9[0][0]              
__________________________________________________________________________________________________
activation_11 (Activation)      (None, 286, 24, 24)  0           dense_0_9_bn[0][0]               
__________________________________________________________________________________________________
dense_0_9_conv2D (Conv2D)       (None, 30, 24, 24)   77220       activation_11[0][0]              
__________________________________________________________________________________________________
dropout_10 (Dropout)            (None, 30, 24, 24)   0           dense_0_9_conv2D[0][0]           
__________________________________________________________________________________________________
concatenate_10 (Concatenate)    (None, 316, 24, 24)  0           concatenate_9[0][0]              
                                                                 dropout_10[0][0]                 
__________________________________________________________________________________________________
dense_0_10_bn (BatchNormalizati (None, 316, 24, 24)  1264        concatenate_10[0][0]             
__________________________________________________________________________________________________
activation_12 (Activation)      (None, 316, 24, 24)  0           dense_0_10_bn[0][0]              
__________________________________________________________________________________________________
dense_0_10_conv2D (Conv2D)      (None, 30, 24, 24)   85320       activation_12[0][0]              
__________________________________________________________________________________________________
dropout_11 (Dropout)            (None, 30, 24, 24)   0           dense_0_10_conv2D[0][0]          
__________________________________________________________________________________________________
concatenate_11 (Concatenate)    (None, 346, 24, 24)  0           concatenate_10[0][0]             
                                                                 dropout_11[0][0]                 
__________________________________________________________________________________________________
dense_0_11_bn (BatchNormalizati (None, 346, 24, 24)  1384        concatenate_11[0][0]             
__________________________________________________________________________________________________
activation_13 (Activation)      (None, 346, 24, 24)  0           dense_0_11_bn[0][0]              
__________________________________________________________________________________________________
dense_0_11_conv2D (Conv2D)      (None, 30, 24, 24)   93420       activation_13[0][0]              
__________________________________________________________________________________________________
dropout_12 (Dropout)            (None, 30, 24, 24)   0           dense_0_11_conv2D[0][0]          
__________________________________________________________________________________________________
concatenate_12 (Concatenate)    (None, 376, 24, 24)  0           concatenate_11[0][0]             
                                                                 dropout_12[0][0]                 
__________________________________________________________________________________________________
dense_0_12_bn (BatchNormalizati (None, 376, 24, 24)  1504        concatenate_12[0][0]             
__________________________________________________________________________________________________
activation_14 (Activation)      (None, 376, 24, 24)  0           dense_0_12_bn[0][0]              
__________________________________________________________________________________________________
dense_0_12_conv2D (Conv2D)      (None, 30, 24, 24)   101520      activation_14[0][0]              
__________________________________________________________________________________________________
dropout_13 (Dropout)            (None, 30, 24, 24)   0           dense_0_12_conv2D[0][0]          
__________________________________________________________________________________________________
concatenate_13 (Concatenate)    (None, 406, 24, 24)  0           concatenate_12[0][0]             
                                                                 dropout_13[0][0]                 
__________________________________________________________________________________________________
dense_0_13_bn (BatchNormalizati (None, 406, 24, 24)  1624        concatenate_13[0][0]             
__________________________________________________________________________________________________
activation_15 (Activation)      (None, 406, 24, 24)  0           dense_0_13_bn[0][0]              
__________________________________________________________________________________________________
dense_0_13_conv2D (Conv2D)      (None, 30, 24, 24)   109620      activation_15[0][0]              
__________________________________________________________________________________________________
dropout_14 (Dropout)            (None, 30, 24, 24)   0           dense_0_13_conv2D[0][0]          
__________________________________________________________________________________________________
concatenate_14 (Concatenate)    (None, 436, 24, 24)  0           concatenate_13[0][0]             
                                                                 dropout_14[0][0]                 
__________________________________________________________________________________________________
dense_0_14_bn (BatchNormalizati (None, 436, 24, 24)  1744        concatenate_14[0][0]             
__________________________________________________________________________________________________
activation_16 (Activation)      (None, 436, 24, 24)  0           dense_0_14_bn[0][0]              
__________________________________________________________________________________________________
dense_0_14_conv2D (Conv2D)      (None, 30, 24, 24)   117720      activation_16[0][0]              
__________________________________________________________________________________________________
dropout_15 (Dropout)            (None, 30, 24, 24)   0           dense_0_14_conv2D[0][0]          
__________________________________________________________________________________________________
concatenate_15 (Concatenate)    (None, 466, 24, 24)  0           concatenate_14[0][0]             
                                                                 dropout_15[0][0]                 
__________________________________________________________________________________________________
tr_0_bn (BatchNormalization)    (None, 466, 24, 24)  1864        concatenate_15[0][0]             
__________________________________________________________________________________________________
activation_17 (Activation)      (None, 466, 24, 24)  0           tr_0_bn[0][0]                    
__________________________________________________________________________________________________
tr_0_conv2D (Conv2D)            (None, 233, 24, 24)  108578      activation_17[0][0]              
__________________________________________________________________________________________________
average_pooling2d_1 (AveragePoo (None, 233, 12, 12)  0           tr_0_conv2D[0][0]                
__________________________________________________________________________________________________
dense_1_0_bn (BatchNormalizatio (None, 233, 12, 12)  932         average_pooling2d_1[0][0]        
__________________________________________________________________________________________________
activation_18 (Activation)      (None, 233, 12, 12)  0           dense_1_0_bn[0][0]               
__________________________________________________________________________________________________
dense_1_0_conv2D (Conv2D)       (None, 30, 12, 12)   62910       activation_18[0][0]              
__________________________________________________________________________________________________
dropout_16 (Dropout)            (None, 30, 12, 12)   0           dense_1_0_conv2D[0][0]           
__________________________________________________________________________________________________
concatenate_16 (Concatenate)    (None, 263, 12, 12)  0           average_pooling2d_1[0][0]        
                                                                 dropout_16[0][0]                 
__________________________________________________________________________________________________
dense_1_1_bn (BatchNormalizatio (None, 263, 12, 12)  1052        concatenate_16[0][0]             
__________________________________________________________________________________________________
activation_19 (Activation)      (None, 263, 12, 12)  0           dense_1_1_bn[0][0]               
__________________________________________________________________________________________________
dense_1_1_conv2D (Conv2D)       (None, 30, 12, 12)   71010       activation_19[0][0]              
__________________________________________________________________________________________________
dropout_17 (Dropout)            (None, 30, 12, 12)   0           dense_1_1_conv2D[0][0]           
__________________________________________________________________________________________________
concatenate_17 (Concatenate)    (None, 293, 12, 12)  0           concatenate_16[0][0]             
                                                                 dropout_17[0][0]                 
__________________________________________________________________________________________________
dense_1_2_bn (BatchNormalizatio (None, 293, 12, 12)  1172        concatenate_17[0][0]             
__________________________________________________________________________________________________
activation_20 (Activation)      (None, 293, 12, 12)  0           dense_1_2_bn[0][0]               
__________________________________________________________________________________________________
dense_1_2_conv2D (Conv2D)       (None, 30, 12, 12)   79110       activation_20[0][0]              
__________________________________________________________________________________________________
dropout_18 (Dropout)            (None, 30, 12, 12)   0           dense_1_2_conv2D[0][0]           
__________________________________________________________________________________________________
concatenate_18 (Concatenate)    (None, 323, 12, 12)  0           concatenate_17[0][0]             
                                                                 dropout_18[0][0]                 
__________________________________________________________________________________________________
dense_1_3_bn (BatchNormalizatio (None, 323, 12, 12)  1292        concatenate_18[0][0]             
__________________________________________________________________________________________________
activation_21 (Activation)      (None, 323, 12, 12)  0           dense_1_3_bn[0][0]               
__________________________________________________________________________________________________
dense_1_3_conv2D (Conv2D)       (None, 30, 12, 12)   87210       activation_21[0][0]              
__________________________________________________________________________________________________
dropout_19 (Dropout)            (None, 30, 12, 12)   0           dense_1_3_conv2D[0][0]           
__________________________________________________________________________________________________
concatenate_19 (Concatenate)    (None, 353, 12, 12)  0           concatenate_18[0][0]             
                                                                 dropout_19[0][0]                 
__________________________________________________________________________________________________
dense_1_4_bn (BatchNormalizatio (None, 353, 12, 12)  1412        concatenate_19[0][0]             
__________________________________________________________________________________________________
activation_22 (Activation)      (None, 353, 12, 12)  0           dense_1_4_bn[0][0]               
__________________________________________________________________________________________________
dense_1_4_conv2D (Conv2D)       (None, 30, 12, 12)   95310       activation_22[0][0]              
__________________________________________________________________________________________________
dropout_20 (Dropout)            (None, 30, 12, 12)   0           dense_1_4_conv2D[0][0]           
__________________________________________________________________________________________________
concatenate_20 (Concatenate)    (None, 383, 12, 12)  0           concatenate_19[0][0]             
                                                                 dropout_20[0][0]                 
__________________________________________________________________________________________________
dense_1_5_bn (BatchNormalizatio (None, 383, 12, 12)  1532        concatenate_20[0][0]             
__________________________________________________________________________________________________
activation_23 (Activation)      (None, 383, 12, 12)  0           dense_1_5_bn[0][0]               
__________________________________________________________________________________________________
dense_1_5_conv2D (Conv2D)       (None, 30, 12, 12)   103410      activation_23[0][0]              
__________________________________________________________________________________________________
dropout_21 (Dropout)            (None, 30, 12, 12)   0           dense_1_5_conv2D[0][0]           
__________________________________________________________________________________________________
concatenate_21 (Concatenate)    (None, 413, 12, 12)  0           concatenate_20[0][0]             
                                                                 dropout_21[0][0]                 
__________________________________________________________________________________________________
dense_1_6_bn (BatchNormalizatio (None, 413, 12, 12)  1652        concatenate_21[0][0]             
__________________________________________________________________________________________________
activation_24 (Activation)      (None, 413, 12, 12)  0           dense_1_6_bn[0][0]               
__________________________________________________________________________________________________
dense_1_6_conv2D (Conv2D)       (None, 30, 12, 12)   111510      activation_24[0][0]              
__________________________________________________________________________________________________
dropout_22 (Dropout)            (None, 30, 12, 12)   0           dense_1_6_conv2D[0][0]           
__________________________________________________________________________________________________
concatenate_22 (Concatenate)    (None, 443, 12, 12)  0           concatenate_21[0][0]             
                                                                 dropout_22[0][0]                 
__________________________________________________________________________________________________
dense_1_7_bn (BatchNormalizatio (None, 443, 12, 12)  1772        concatenate_22[0][0]             
__________________________________________________________________________________________________
activation_25 (Activation)      (None, 443, 12, 12)  0           dense_1_7_bn[0][0]               
__________________________________________________________________________________________________
dense_1_7_conv2D (Conv2D)       (None, 30, 12, 12)   119610      activation_25[0][0]              
__________________________________________________________________________________________________
dropout_23 (Dropout)            (None, 30, 12, 12)   0           dense_1_7_conv2D[0][0]           
__________________________________________________________________________________________________
concatenate_23 (Concatenate)    (None, 473, 12, 12)  0           concatenate_22[0][0]             
                                                                 dropout_23[0][0]                 
__________________________________________________________________________________________________
dense_1_8_bn (BatchNormalizatio (None, 473, 12, 12)  1892        concatenate_23[0][0]             
__________________________________________________________________________________________________
activation_26 (Activation)      (None, 473, 12, 12)  0           dense_1_8_bn[0][0]               
__________________________________________________________________________________________________
dense_1_8_conv2D (Conv2D)       (None, 30, 12, 12)   127710      activation_26[0][0]              
__________________________________________________________________________________________________
dropout_24 (Dropout)            (None, 30, 12, 12)   0           dense_1_8_conv2D[0][0]           
__________________________________________________________________________________________________
concatenate_24 (Concatenate)    (None, 503, 12, 12)  0           concatenate_23[0][0]             
                                                                 dropout_24[0][0]                 
__________________________________________________________________________________________________
dense_1_9_bn (BatchNormalizatio (None, 503, 12, 12)  2012        concatenate_24[0][0]             
__________________________________________________________________________________________________
activation_27 (Activation)      (None, 503, 12, 12)  0           dense_1_9_bn[0][0]               
__________________________________________________________________________________________________
dense_1_9_conv2D (Conv2D)       (None, 30, 12, 12)   135810      activation_27[0][0]              
__________________________________________________________________________________________________
dropout_25 (Dropout)            (None, 30, 12, 12)   0           dense_1_9_conv2D[0][0]           
__________________________________________________________________________________________________
concatenate_25 (Concatenate)    (None, 533, 12, 12)  0           concatenate_24[0][0]             
                                                                 dropout_25[0][0]                 
__________________________________________________________________________________________________
dense_1_10_bn (BatchNormalizati (None, 533, 12, 12)  2132        concatenate_25[0][0]             
__________________________________________________________________________________________________
activation_28 (Activation)      (None, 533, 12, 12)  0           dense_1_10_bn[0][0]              
__________________________________________________________________________________________________
dense_1_10_conv2D (Conv2D)      (None, 30, 12, 12)   143910      activation_28[0][0]              
__________________________________________________________________________________________________
dropout_26 (Dropout)            (None, 30, 12, 12)   0           dense_1_10_conv2D[0][0]          
__________________________________________________________________________________________________
concatenate_26 (Concatenate)    (None, 563, 12, 12)  0           concatenate_25[0][0]             
                                                                 dropout_26[0][0]                 
__________________________________________________________________________________________________
dense_1_11_bn (BatchNormalizati (None, 563, 12, 12)  2252        concatenate_26[0][0]             
__________________________________________________________________________________________________
activation_29 (Activation)      (None, 563, 12, 12)  0           dense_1_11_bn[0][0]              
__________________________________________________________________________________________________
dense_1_11_conv2D (Conv2D)      (None, 30, 12, 12)   152010      activation_29[0][0]              
__________________________________________________________________________________________________
dropout_27 (Dropout)            (None, 30, 12, 12)   0           dense_1_11_conv2D[0][0]          
__________________________________________________________________________________________________
concatenate_27 (Concatenate)    (None, 593, 12, 12)  0           concatenate_26[0][0]             
                                                                 dropout_27[0][0]                 
__________________________________________________________________________________________________
dense_1_12_bn (BatchNormalizati (None, 593, 12, 12)  2372        concatenate_27[0][0]             
__________________________________________________________________________________________________
activation_30 (Activation)      (None, 593, 12, 12)  0           dense_1_12_bn[0][0]              
__________________________________________________________________________________________________
dense_1_12_conv2D (Conv2D)      (None, 30, 12, 12)   160110      activation_30[0][0]              
__________________________________________________________________________________________________
dropout_28 (Dropout)            (None, 30, 12, 12)   0           dense_1_12_conv2D[0][0]          
__________________________________________________________________________________________________
concatenate_28 (Concatenate)    (None, 623, 12, 12)  0           concatenate_27[0][0]             
                                                                 dropout_28[0][0]                 
__________________________________________________________________________________________________
dense_1_13_bn (BatchNormalizati (None, 623, 12, 12)  2492        concatenate_28[0][0]             
__________________________________________________________________________________________________
activation_31 (Activation)      (None, 623, 12, 12)  0           dense_1_13_bn[0][0]              
__________________________________________________________________________________________________
dense_1_13_conv2D (Conv2D)      (None, 30, 12, 12)   168210      activation_31[0][0]              
__________________________________________________________________________________________________
dropout_29 (Dropout)            (None, 30, 12, 12)   0           dense_1_13_conv2D[0][0]          
__________________________________________________________________________________________________
concatenate_29 (Concatenate)    (None, 653, 12, 12)  0           concatenate_28[0][0]             
                                                                 dropout_29[0][0]                 
__________________________________________________________________________________________________
dense_1_14_bn (BatchNormalizati (None, 653, 12, 12)  2612        concatenate_29[0][0]             
__________________________________________________________________________________________________
activation_32 (Activation)      (None, 653, 12, 12)  0           dense_1_14_bn[0][0]              
__________________________________________________________________________________________________
dense_1_14_conv2D (Conv2D)      (None, 30, 12, 12)   176310      activation_32[0][0]              
__________________________________________________________________________________________________
dropout_30 (Dropout)            (None, 30, 12, 12)   0           dense_1_14_conv2D[0][0]          
__________________________________________________________________________________________________
concatenate_30 (Concatenate)    (None, 683, 12, 12)  0           concatenate_29[0][0]             
                                                                 dropout_30[0][0]                 
__________________________________________________________________________________________________
tr_1_bn (BatchNormalization)    (None, 683, 12, 12)  2732        concatenate_30[0][0]             
__________________________________________________________________________________________________
activation_33 (Activation)      (None, 683, 12, 12)  0           tr_1_bn[0][0]                    
__________________________________________________________________________________________________
tr_1_conv2D (Conv2D)            (None, 341, 12, 12)  232903      activation_33[0][0]              
__________________________________________________________________________________________________
average_pooling2d_2 (AveragePoo (None, 341, 6, 6)    0           tr_1_conv2D[0][0]                
__________________________________________________________________________________________________
dense_2_0_bn (BatchNormalizatio (None, 341, 6, 6)    1364        average_pooling2d_2[0][0]        
__________________________________________________________________________________________________
activation_34 (Activation)      (None, 341, 6, 6)    0           dense_2_0_bn[0][0]               
__________________________________________________________________________________________________
dense_2_0_conv2D (Conv2D)       (None, 30, 6, 6)     92070       activation_34[0][0]              
__________________________________________________________________________________________________
dropout_31 (Dropout)            (None, 30, 6, 6)     0           dense_2_0_conv2D[0][0]           
__________________________________________________________________________________________________
concatenate_31 (Concatenate)    (None, 371, 6, 6)    0           average_pooling2d_2[0][0]        
                                                                 dropout_31[0][0]                 
__________________________________________________________________________________________________
dense_2_1_bn (BatchNormalizatio (None, 371, 6, 6)    1484        concatenate_31[0][0]             
__________________________________________________________________________________________________
activation_35 (Activation)      (None, 371, 6, 6)    0           dense_2_1_bn[0][0]               
__________________________________________________________________________________________________
dense_2_1_conv2D (Conv2D)       (None, 30, 6, 6)     100170      activation_35[0][0]              
__________________________________________________________________________________________________
dropout_32 (Dropout)            (None, 30, 6, 6)     0           dense_2_1_conv2D[0][0]           
__________________________________________________________________________________________________
concatenate_32 (Concatenate)    (None, 401, 6, 6)    0           concatenate_31[0][0]             
                                                                 dropout_32[0][0]                 
__________________________________________________________________________________________________
dense_2_2_bn (BatchNormalizatio (None, 401, 6, 6)    1604        concatenate_32[0][0]             
__________________________________________________________________________________________________
activation_36 (Activation)      (None, 401, 6, 6)    0           dense_2_2_bn[0][0]               
__________________________________________________________________________________________________
dense_2_2_conv2D (Conv2D)       (None, 30, 6, 6)     108270      activation_36[0][0]              
__________________________________________________________________________________________________
dropout_33 (Dropout)            (None, 30, 6, 6)     0           dense_2_2_conv2D[0][0]           
__________________________________________________________________________________________________
concatenate_33 (Concatenate)    (None, 431, 6, 6)    0           concatenate_32[0][0]             
                                                                 dropout_33[0][0]                 
__________________________________________________________________________________________________
dense_2_3_bn (BatchNormalizatio (None, 431, 6, 6)    1724        concatenate_33[0][0]             
__________________________________________________________________________________________________
activation_37 (Activation)      (None, 431, 6, 6)    0           dense_2_3_bn[0][0]               
__________________________________________________________________________________________________
dense_2_3_conv2D (Conv2D)       (None, 30, 6, 6)     116370      activation_37[0][0]              
__________________________________________________________________________________________________
dropout_34 (Dropout)            (None, 30, 6, 6)     0           dense_2_3_conv2D[0][0]           
__________________________________________________________________________________________________
concatenate_34 (Concatenate)    (None, 461, 6, 6)    0           concatenate_33[0][0]             
                                                                 dropout_34[0][0]                 
__________________________________________________________________________________________________
dense_2_4_bn (BatchNormalizatio (None, 461, 6, 6)    1844        concatenate_34[0][0]             
__________________________________________________________________________________________________
activation_38 (Activation)      (None, 461, 6, 6)    0           dense_2_4_bn[0][0]               
__________________________________________________________________________________________________
dense_2_4_conv2D (Conv2D)       (None, 30, 6, 6)     124470      activation_38[0][0]              
__________________________________________________________________________________________________
dropout_35 (Dropout)            (None, 30, 6, 6)     0           dense_2_4_conv2D[0][0]           
__________________________________________________________________________________________________
concatenate_35 (Concatenate)    (None, 491, 6, 6)    0           concatenate_34[0][0]             
                                                                 dropout_35[0][0]                 
__________________________________________________________________________________________________
dense_2_5_bn (BatchNormalizatio (None, 491, 6, 6)    1964        concatenate_35[0][0]             
__________________________________________________________________________________________________
activation_39 (Activation)      (None, 491, 6, 6)    0           dense_2_5_bn[0][0]               
__________________________________________________________________________________________________
dense_2_5_conv2D (Conv2D)       (None, 30, 6, 6)     132570      activation_39[0][0]              
__________________________________________________________________________________________________
dropout_36 (Dropout)            (None, 30, 6, 6)     0           dense_2_5_conv2D[0][0]           
__________________________________________________________________________________________________
concatenate_36 (Concatenate)    (None, 521, 6, 6)    0           concatenate_35[0][0]             
                                                                 dropout_36[0][0]                 
__________________________________________________________________________________________________
dense_2_6_bn (BatchNormalizatio (None, 521, 6, 6)    2084        concatenate_36[0][0]             
__________________________________________________________________________________________________
activation_40 (Activation)      (None, 521, 6, 6)    0           dense_2_6_bn[0][0]               
__________________________________________________________________________________________________
dense_2_6_conv2D (Conv2D)       (None, 30, 6, 6)     140670      activation_40[0][0]              
__________________________________________________________________________________________________
dropout_37 (Dropout)            (None, 30, 6, 6)     0           dense_2_6_conv2D[0][0]           
__________________________________________________________________________________________________
concatenate_37 (Concatenate)    (None, 551, 6, 6)    0           concatenate_36[0][0]             
                                                                 dropout_37[0][0]                 
__________________________________________________________________________________________________
dense_2_7_bn (BatchNormalizatio (None, 551, 6, 6)    2204        concatenate_37[0][0]             
__________________________________________________________________________________________________
activation_41 (Activation)      (None, 551, 6, 6)    0           dense_2_7_bn[0][0]               
__________________________________________________________________________________________________
dense_2_7_conv2D (Conv2D)       (None, 30, 6, 6)     148770      activation_41[0][0]              
__________________________________________________________________________________________________
dropout_38 (Dropout)            (None, 30, 6, 6)     0           dense_2_7_conv2D[0][0]           
__________________________________________________________________________________________________
concatenate_38 (Concatenate)    (None, 581, 6, 6)    0           concatenate_37[0][0]             
                                                                 dropout_38[0][0]                 
__________________________________________________________________________________________________
dense_2_8_bn (BatchNormalizatio (None, 581, 6, 6)    2324        concatenate_38[0][0]             
__________________________________________________________________________________________________
activation_42 (Activation)      (None, 581, 6, 6)    0           dense_2_8_bn[0][0]               
__________________________________________________________________________________________________
dense_2_8_conv2D (Conv2D)       (None, 30, 6, 6)     156870      activation_42[0][0]              
__________________________________________________________________________________________________
dropout_39 (Dropout)            (None, 30, 6, 6)     0           dense_2_8_conv2D[0][0]           
__________________________________________________________________________________________________
concatenate_39 (Concatenate)    (None, 611, 6, 6)    0           concatenate_38[0][0]             
                                                                 dropout_39[0][0]                 
__________________________________________________________________________________________________
dense_2_9_bn (BatchNormalizatio (None, 611, 6, 6)    2444        concatenate_39[0][0]             
__________________________________________________________________________________________________
activation_43 (Activation)      (None, 611, 6, 6)    0           dense_2_9_bn[0][0]               
__________________________________________________________________________________________________
dense_2_9_conv2D (Conv2D)       (None, 30, 6, 6)     164970      activation_43[0][0]              
__________________________________________________________________________________________________
dropout_40 (Dropout)            (None, 30, 6, 6)     0           dense_2_9_conv2D[0][0]           
__________________________________________________________________________________________________
concatenate_40 (Concatenate)    (None, 641, 6, 6)    0           concatenate_39[0][0]             
                                                                 dropout_40[0][0]                 
__________________________________________________________________________________________________
dense_2_10_bn (BatchNormalizati (None, 641, 6, 6)    2564        concatenate_40[0][0]             
__________________________________________________________________________________________________
activation_44 (Activation)      (None, 641, 6, 6)    0           dense_2_10_bn[0][0]              
__________________________________________________________________________________________________
dense_2_10_conv2D (Conv2D)      (None, 30, 6, 6)     173070      activation_44[0][0]              
__________________________________________________________________________________________________
dropout_41 (Dropout)            (None, 30, 6, 6)     0           dense_2_10_conv2D[0][0]          
__________________________________________________________________________________________________
concatenate_41 (Concatenate)    (None, 671, 6, 6)    0           concatenate_40[0][0]             
                                                                 dropout_41[0][0]                 
__________________________________________________________________________________________________
dense_2_11_bn (BatchNormalizati (None, 671, 6, 6)    2684        concatenate_41[0][0]             
__________________________________________________________________________________________________
activation_45 (Activation)      (None, 671, 6, 6)    0           dense_2_11_bn[0][0]              
__________________________________________________________________________________________________
dense_2_11_conv2D (Conv2D)      (None, 30, 6, 6)     181170      activation_45[0][0]              
__________________________________________________________________________________________________
dropout_42 (Dropout)            (None, 30, 6, 6)     0           dense_2_11_conv2D[0][0]          
__________________________________________________________________________________________________
concatenate_42 (Concatenate)    (None, 701, 6, 6)    0           concatenate_41[0][0]             
                                                                 dropout_42[0][0]                 
__________________________________________________________________________________________________
dense_2_12_bn (BatchNormalizati (None, 701, 6, 6)    2804        concatenate_42[0][0]             
__________________________________________________________________________________________________
activation_46 (Activation)      (None, 701, 6, 6)    0           dense_2_12_bn[0][0]              
__________________________________________________________________________________________________
dense_2_12_conv2D (Conv2D)      (None, 30, 6, 6)     189270      activation_46[0][0]              
__________________________________________________________________________________________________
dropout_43 (Dropout)            (None, 30, 6, 6)     0           dense_2_12_conv2D[0][0]          
__________________________________________________________________________________________________
concatenate_43 (Concatenate)    (None, 731, 6, 6)    0           concatenate_42[0][0]             
                                                                 dropout_43[0][0]                 
__________________________________________________________________________________________________
dense_2_13_bn (BatchNormalizati (None, 731, 6, 6)    2924        concatenate_43[0][0]             
__________________________________________________________________________________________________
activation_47 (Activation)      (None, 731, 6, 6)    0           dense_2_13_bn[0][0]              
__________________________________________________________________________________________________
dense_2_13_conv2D (Conv2D)      (None, 30, 6, 6)     197370      activation_47[0][0]              
__________________________________________________________________________________________________
dropout_44 (Dropout)            (None, 30, 6, 6)     0           dense_2_13_conv2D[0][0]          
__________________________________________________________________________________________________
concatenate_44 (Concatenate)    (None, 761, 6, 6)    0           concatenate_43[0][0]             
                                                                 dropout_44[0][0]                 
__________________________________________________________________________________________________
dense_2_14_bn (BatchNormalizati (None, 761, 6, 6)    3044        concatenate_44[0][0]             
__________________________________________________________________________________________________
activation_48 (Activation)      (None, 761, 6, 6)    0           dense_2_14_bn[0][0]              
__________________________________________________________________________________________________
dense_2_14_conv2D (Conv2D)      (None, 30, 6, 6)     205470      activation_48[0][0]              
__________________________________________________________________________________________________
dropout_45 (Dropout)            (None, 30, 6, 6)     0           dense_2_14_conv2D[0][0]          
__________________________________________________________________________________________________
concatenate_45 (Concatenate)    (None, 791, 6, 6)    0           concatenate_44[0][0]             
                                                                 dropout_45[0][0]                 
__________________________________________________________________________________________________
final_bn (BatchNormalization)   (None, 791, 6, 6)    3164        concatenate_45[0][0]             
__________________________________________________________________________________________________
activation_49 (Activation)      (None, 791, 6, 6)    0           final_bn[0][0]                   
__________________________________________________________________________________________________
flatten_1 (Flatten)             (None, 28476)        0           activation_49[0][0]              
__________________________________________________________________________________________________
dense_1 (Dense)                 (None, 1)            28477       flatten_1[0][0]                  
==================================================================================================
Total params: 5,393,550
Trainable params: 5,353,038
Non-trainable params: 40,512
__________________________________________________________________________________________________
Finished compiling
Train on 39840 samples, validate on 7968 samples
Epoch 1/15
 - 82s - loss: 0.4625 - acc: 0.8453 - val_loss: 0.3591 - val_acc: 0.9002
…
