…
Depth:  31  Growth_rate:  18  lr:  0.0005  nb_filter:  16  dropout:  0.37701561372628756
Epochs  3  batch_size:  8  es_patience:  5  lr_patience:  3
dense_block  4  reduction_:  0.5  bottleneck:  True
------------------------       end of configs        -------------------------
__________________________________________________________________________________________________
Layer (type)                    Output Shape         Param #     Connected to                     
==================================================================================================
input_1 (InputLayer)            (None, 2, 96, 96)    0                                            
__________________________________________________________________________________________________
initial_conv2D (Conv2D)         (None, 16, 96, 96)   288         input_1[0][0]                    
__________________________________________________________________________________________________
dense_0_0_bn (BatchNormalizatio (None, 16, 96, 96)   64          initial_conv2D[0][0]             
__________________________________________________________________________________________________
activation_1 (Activation)       (None, 16, 96, 96)   0           dense_0_0_bn[0][0]               
__________________________________________________________________________________________________
dense_0_0_bottleneck_conv2D (Co (None, 72, 96, 96)   1152        activation_1[0][0]               
__________________________________________________________________________________________________
dense_0_0_bottleneck_bn (BatchN (None, 72, 96, 96)   288         dense_0_0_bottleneck_conv2D[0][0]
__________________________________________________________________________________________________
activation_2 (Activation)       (None, 72, 96, 96)   0           dense_0_0_bottleneck_bn[0][0]    
__________________________________________________________________________________________________
dense_0_0_conv2D (Conv2D)       (None, 18, 96, 96)   11664       activation_2[0][0]               
__________________________________________________________________________________________________
dropout_1 (Dropout)             (None, 18, 96, 96)   0           dense_0_0_conv2D[0][0]           
__________________________________________________________________________________________________
concatenate_1 (Concatenate)     (None, 34, 96, 96)   0           initial_conv2D[0][0]             
                                                                 dropout_1[0][0]                  
__________________________________________________________________________________________________
dense_0_1_bn (BatchNormalizatio (None, 34, 96, 96)   136         concatenate_1[0][0]              
__________________________________________________________________________________________________
activation_3 (Activation)       (None, 34, 96, 96)   0           dense_0_1_bn[0][0]               
__________________________________________________________________________________________________
dense_0_1_bottleneck_conv2D (Co (None, 72, 96, 96)   2448        activation_3[0][0]               
__________________________________________________________________________________________________
dense_0_1_bottleneck_bn (BatchN (None, 72, 96, 96)   288         dense_0_1_bottleneck_conv2D[0][0]
__________________________________________________________________________________________________
activation_4 (Activation)       (None, 72, 96, 96)   0           dense_0_1_bottleneck_bn[0][0]    
__________________________________________________________________________________________________
dense_0_1_conv2D (Conv2D)       (None, 18, 96, 96)   11664       activation_4[0][0]               
__________________________________________________________________________________________________
dropout_2 (Dropout)             (None, 18, 96, 96)   0           dense_0_1_conv2D[0][0]           
__________________________________________________________________________________________________
concatenate_2 (Concatenate)     (None, 52, 96, 96)   0           concatenate_1[0][0]              
                                                                 dropout_2[0][0]                  
__________________________________________________________________________________________________
dense_0_2_bn (BatchNormalizatio (None, 52, 96, 96)   208         concatenate_2[0][0]              
__________________________________________________________________________________________________
activation_5 (Activation)       (None, 52, 96, 96)   0           dense_0_2_bn[0][0]               
__________________________________________________________________________________________________
dense_0_2_bottleneck_conv2D (Co (None, 72, 96, 96)   3744        activation_5[0][0]               
__________________________________________________________________________________________________
dense_0_2_bottleneck_bn (BatchN (None, 72, 96, 96)   288         dense_0_2_bottleneck_conv2D[0][0]
__________________________________________________________________________________________________
activation_6 (Activation)       (None, 72, 96, 96)   0           dense_0_2_bottleneck_bn[0][0]    
__________________________________________________________________________________________________
dense_0_2_conv2D (Conv2D)       (None, 18, 96, 96)   11664       activation_6[0][0]               
__________________________________________________________________________________________________
dropout_3 (Dropout)             (None, 18, 96, 96)   0           dense_0_2_conv2D[0][0]           
__________________________________________________________________________________________________
concatenate_3 (Concatenate)     (None, 70, 96, 96)   0           concatenate_2[0][0]              
                                                                 dropout_3[0][0]                  
__________________________________________________________________________________________________
dense_0_3_bn (BatchNormalizatio (None, 70, 96, 96)   280         concatenate_3[0][0]              
__________________________________________________________________________________________________
activation_7 (Activation)       (None, 70, 96, 96)   0           dense_0_3_bn[0][0]               
__________________________________________________________________________________________________
dense_0_3_bottleneck_conv2D (Co (None, 72, 96, 96)   5040        activation_7[0][0]               
__________________________________________________________________________________________________
dense_0_3_bottleneck_bn (BatchN (None, 72, 96, 96)   288         dense_0_3_bottleneck_conv2D[0][0]
__________________________________________________________________________________________________
activation_8 (Activation)       (None, 72, 96, 96)   0           dense_0_3_bottleneck_bn[0][0]    
__________________________________________________________________________________________________
dense_0_3_conv2D (Conv2D)       (None, 18, 96, 96)   11664       activation_8[0][0]               
__________________________________________________________________________________________________
dropout_4 (Dropout)             (None, 18, 96, 96)   0           dense_0_3_conv2D[0][0]           
__________________________________________________________________________________________________
concatenate_4 (Concatenate)     (None, 88, 96, 96)   0           concatenate_3[0][0]              
                                                                 dropout_4[0][0]                  
__________________________________________________________________________________________________
tr_0_bn (BatchNormalization)    (None, 88, 96, 96)   352         concatenate_4[0][0]              
__________________________________________________________________________________________________
activation_9 (Activation)       (None, 88, 96, 96)   0           tr_0_bn[0][0]                    
__________________________________________________________________________________________________
tr_0_conv2D (Conv2D)            (None, 44, 96, 96)   3872        activation_9[0][0]               
__________________________________________________________________________________________________
average_pooling2d_1 (AveragePoo (None, 44, 48, 48)   0           tr_0_conv2D[0][0]                
__________________________________________________________________________________________________
dense_1_0_bn (BatchNormalizatio (None, 44, 48, 48)   176         average_pooling2d_1[0][0]        
__________________________________________________________________________________________________
activation_10 (Activation)      (None, 44, 48, 48)   0           dense_1_0_bn[0][0]               
__________________________________________________________________________________________________
dense_1_0_bottleneck_conv2D (Co (None, 72, 48, 48)   3168        activation_10[0][0]              
__________________________________________________________________________________________________
dense_1_0_bottleneck_bn (BatchN (None, 72, 48, 48)   288         dense_1_0_bottleneck_conv2D[0][0]
__________________________________________________________________________________________________
activation_11 (Activation)      (None, 72, 48, 48)   0           dense_1_0_bottleneck_bn[0][0]    
__________________________________________________________________________________________________
dense_1_0_conv2D (Conv2D)       (None, 18, 48, 48)   11664       activation_11[0][0]              
__________________________________________________________________________________________________
dropout_5 (Dropout)             (None, 18, 48, 48)   0           dense_1_0_conv2D[0][0]           
__________________________________________________________________________________________________
concatenate_5 (Concatenate)     (None, 62, 48, 48)   0           average_pooling2d_1[0][0]        
                                                                 dropout_5[0][0]                  
__________________________________________________________________________________________________
dense_1_1_bn (BatchNormalizatio (None, 62, 48, 48)   248         concatenate_5[0][0]              
__________________________________________________________________________________________________
activation_12 (Activation)      (None, 62, 48, 48)   0           dense_1_1_bn[0][0]               
__________________________________________________________________________________________________
dense_1_1_bottleneck_conv2D (Co (None, 72, 48, 48)   4464        activation_12[0][0]              
__________________________________________________________________________________________________
dense_1_1_bottleneck_bn (BatchN (None, 72, 48, 48)   288         dense_1_1_bottleneck_conv2D[0][0]
__________________________________________________________________________________________________
activation_13 (Activation)      (None, 72, 48, 48)   0           dense_1_1_bottleneck_bn[0][0]    
__________________________________________________________________________________________________
dense_1_1_conv2D (Conv2D)       (None, 18, 48, 48)   11664       activation_13[0][0]              
__________________________________________________________________________________________________
dropout_6 (Dropout)             (None, 18, 48, 48)   0           dense_1_1_conv2D[0][0]           
__________________________________________________________________________________________________
concatenate_6 (Concatenate)     (None, 80, 48, 48)   0           concatenate_5[0][0]              
                                                                 dropout_6[0][0]                  
__________________________________________________________________________________________________
dense_1_2_bn (BatchNormalizatio (None, 80, 48, 48)   320         concatenate_6[0][0]              
__________________________________________________________________________________________________
activation_14 (Activation)      (None, 80, 48, 48)   0           dense_1_2_bn[0][0]               
__________________________________________________________________________________________________
dense_1_2_bottleneck_conv2D (Co (None, 72, 48, 48)   5760        activation_14[0][0]              
__________________________________________________________________________________________________
dense_1_2_bottleneck_bn (BatchN (None, 72, 48, 48)   288         dense_1_2_bottleneck_conv2D[0][0]
__________________________________________________________________________________________________
activation_15 (Activation)      (None, 72, 48, 48)   0           dense_1_2_bottleneck_bn[0][0]    
__________________________________________________________________________________________________
dense_1_2_conv2D (Conv2D)       (None, 18, 48, 48)   11664       activation_15[0][0]              
__________________________________________________________________________________________________
dropout_7 (Dropout)             (None, 18, 48, 48)   0           dense_1_2_conv2D[0][0]           
__________________________________________________________________________________________________
concatenate_7 (Concatenate)     (None, 98, 48, 48)   0           concatenate_6[0][0]              
                                                                 dropout_7[0][0]                  
__________________________________________________________________________________________________
dense_1_3_bn (BatchNormalizatio (None, 98, 48, 48)   392         concatenate_7[0][0]              
__________________________________________________________________________________________________
activation_16 (Activation)      (None, 98, 48, 48)   0           dense_1_3_bn[0][0]               
__________________________________________________________________________________________________
dense_1_3_bottleneck_conv2D (Co (None, 72, 48, 48)   7056        activation_16[0][0]              
__________________________________________________________________________________________________
dense_1_3_bottleneck_bn (BatchN (None, 72, 48, 48)   288         dense_1_3_bottleneck_conv2D[0][0]
__________________________________________________________________________________________________
activation_17 (Activation)      (None, 72, 48, 48)   0           dense_1_3_bottleneck_bn[0][0]    
__________________________________________________________________________________________________
dense_1_3_conv2D (Conv2D)       (None, 18, 48, 48)   11664       activation_17[0][0]              
__________________________________________________________________________________________________
dropout_8 (Dropout)             (None, 18, 48, 48)   0           dense_1_3_conv2D[0][0]           
__________________________________________________________________________________________________
concatenate_8 (Concatenate)     (None, 116, 48, 48)  0           concatenate_7[0][0]              
                                                                 dropout_8[0][0]                  
__________________________________________________________________________________________________
tr_1_bn (BatchNormalization)    (None, 116, 48, 48)  464         concatenate_8[0][0]              
__________________________________________________________________________________________________
activation_18 (Activation)      (None, 116, 48, 48)  0           tr_1_bn[0][0]                    
__________________________________________________________________________________________________
tr_1_conv2D (Conv2D)            (None, 58, 48, 48)   6728        activation_18[0][0]              
__________________________________________________________________________________________________
average_pooling2d_2 (AveragePoo (None, 58, 24, 24)   0           tr_1_conv2D[0][0]                
__________________________________________________________________________________________________
dense_2_0_bn (BatchNormalizatio (None, 58, 24, 24)   232         average_pooling2d_2[0][0]        
__________________________________________________________________________________________________
activation_19 (Activation)      (None, 58, 24, 24)   0           dense_2_0_bn[0][0]               
__________________________________________________________________________________________________
dense_2_0_bottleneck_conv2D (Co (None, 72, 24, 24)   4176        activation_19[0][0]              
__________________________________________________________________________________________________
dense_2_0_bottleneck_bn (BatchN (None, 72, 24, 24)   288         dense_2_0_bottleneck_conv2D[0][0]
__________________________________________________________________________________________________
activation_20 (Activation)      (None, 72, 24, 24)   0           dense_2_0_bottleneck_bn[0][0]    
__________________________________________________________________________________________________
dense_2_0_conv2D (Conv2D)       (None, 18, 24, 24)   11664       activation_20[0][0]              
__________________________________________________________________________________________________
dropout_9 (Dropout)             (None, 18, 24, 24)   0           dense_2_0_conv2D[0][0]           
__________________________________________________________________________________________________
concatenate_9 (Concatenate)     (None, 76, 24, 24)   0           average_pooling2d_2[0][0]        
                                                                 dropout_9[0][0]                  
__________________________________________________________________________________________________
dense_2_1_bn (BatchNormalizatio (None, 76, 24, 24)   304         concatenate_9[0][0]              
__________________________________________________________________________________________________
activation_21 (Activation)      (None, 76, 24, 24)   0           dense_2_1_bn[0][0]               
__________________________________________________________________________________________________
dense_2_1_bottleneck_conv2D (Co (None, 72, 24, 24)   5472        activation_21[0][0]              
__________________________________________________________________________________________________
dense_2_1_bottleneck_bn (BatchN (None, 72, 24, 24)   288         dense_2_1_bottleneck_conv2D[0][0]
__________________________________________________________________________________________________
activation_22 (Activation)      (None, 72, 24, 24)   0           dense_2_1_bottleneck_bn[0][0]    
__________________________________________________________________________________________________
dense_2_1_conv2D (Conv2D)       (None, 18, 24, 24)   11664       activation_22[0][0]              
__________________________________________________________________________________________________
dropout_10 (Dropout)            (None, 18, 24, 24)   0           dense_2_1_conv2D[0][0]           
__________________________________________________________________________________________________
concatenate_10 (Concatenate)    (None, 94, 24, 24)   0           concatenate_9[0][0]              
                                                                 dropout_10[0][0]                 
__________________________________________________________________________________________________
dense_2_2_bn (BatchNormalizatio (None, 94, 24, 24)   376         concatenate_10[0][0]             
__________________________________________________________________________________________________
activation_23 (Activation)      (None, 94, 24, 24)   0           dense_2_2_bn[0][0]               
__________________________________________________________________________________________________
dense_2_2_bottleneck_conv2D (Co (None, 72, 24, 24)   6768        activation_23[0][0]              
__________________________________________________________________________________________________
dense_2_2_bottleneck_bn (BatchN (None, 72, 24, 24)   288         dense_2_2_bottleneck_conv2D[0][0]
__________________________________________________________________________________________________
activation_24 (Activation)      (None, 72, 24, 24)   0           dense_2_2_bottleneck_bn[0][0]    
__________________________________________________________________________________________________
dense_2_2_conv2D (Conv2D)       (None, 18, 24, 24)   11664       activation_24[0][0]              
__________________________________________________________________________________________________
dropout_11 (Dropout)            (None, 18, 24, 24)   0           dense_2_2_conv2D[0][0]           
__________________________________________________________________________________________________
concatenate_11 (Concatenate)    (None, 112, 24, 24)  0           concatenate_10[0][0]             
                                                                 dropout_11[0][0]                 
__________________________________________________________________________________________________
dense_2_3_bn (BatchNormalizatio (None, 112, 24, 24)  448         concatenate_11[0][0]             
__________________________________________________________________________________________________
activation_25 (Activation)      (None, 112, 24, 24)  0           dense_2_3_bn[0][0]               
__________________________________________________________________________________________________
dense_2_3_bottleneck_conv2D (Co (None, 72, 24, 24)   8064        activation_25[0][0]              
__________________________________________________________________________________________________
dense_2_3_bottleneck_bn (BatchN (None, 72, 24, 24)   288         dense_2_3_bottleneck_conv2D[0][0]
__________________________________________________________________________________________________
activation_26 (Activation)      (None, 72, 24, 24)   0           dense_2_3_bottleneck_bn[0][0]    
__________________________________________________________________________________________________
dense_2_3_conv2D (Conv2D)       (None, 18, 24, 24)   11664       activation_26[0][0]              
__________________________________________________________________________________________________
dropout_12 (Dropout)            (None, 18, 24, 24)   0           dense_2_3_conv2D[0][0]           
__________________________________________________________________________________________________
concatenate_12 (Concatenate)    (None, 130, 24, 24)  0           concatenate_11[0][0]             
                                                                 dropout_12[0][0]                 
__________________________________________________________________________________________________
tr_2_bn (BatchNormalization)    (None, 130, 24, 24)  520         concatenate_12[0][0]             
__________________________________________________________________________________________________
activation_27 (Activation)      (None, 130, 24, 24)  0           tr_2_bn[0][0]                    
__________________________________________________________________________________________________
tr_2_conv2D (Conv2D)            (None, 65, 24, 24)   8450        activation_27[0][0]              
__________________________________________________________________________________________________
average_pooling2d_3 (AveragePoo (None, 65, 12, 12)   0           tr_2_conv2D[0][0]                
__________________________________________________________________________________________________
dense_3_0_bn (BatchNormalizatio (None, 65, 12, 12)   260         average_pooling2d_3[0][0]        
__________________________________________________________________________________________________
activation_28 (Activation)      (None, 65, 12, 12)   0           dense_3_0_bn[0][0]               
__________________________________________________________________________________________________
dense_3_0_bottleneck_conv2D (Co (None, 72, 12, 12)   4680        activation_28[0][0]              
__________________________________________________________________________________________________
dense_3_0_bottleneck_bn (BatchN (None, 72, 12, 12)   288         dense_3_0_bottleneck_conv2D[0][0]
__________________________________________________________________________________________________
activation_29 (Activation)      (None, 72, 12, 12)   0           dense_3_0_bottleneck_bn[0][0]    
__________________________________________________________________________________________________
dense_3_0_conv2D (Conv2D)       (None, 18, 12, 12)   11664       activation_29[0][0]              
__________________________________________________________________________________________________
dropout_13 (Dropout)            (None, 18, 12, 12)   0           dense_3_0_conv2D[0][0]           
__________________________________________________________________________________________________
concatenate_13 (Concatenate)    (None, 83, 12, 12)   0           average_pooling2d_3[0][0]        
                                                                 dropout_13[0][0]                 
__________________________________________________________________________________________________
dense_3_1_bn (BatchNormalizatio (None, 83, 12, 12)   332         concatenate_13[0][0]             
__________________________________________________________________________________________________
activation_30 (Activation)      (None, 83, 12, 12)   0           dense_3_1_bn[0][0]               
__________________________________________________________________________________________________
dense_3_1_bottleneck_conv2D (Co (None, 72, 12, 12)   5976        activation_30[0][0]              
__________________________________________________________________________________________________
dense_3_1_bottleneck_bn (BatchN (None, 72, 12, 12)   288         dense_3_1_bottleneck_conv2D[0][0]
__________________________________________________________________________________________________
activation_31 (Activation)      (None, 72, 12, 12)   0           dense_3_1_bottleneck_bn[0][0]    
__________________________________________________________________________________________________
dense_3_1_conv2D (Conv2D)       (None, 18, 12, 12)   11664       activation_31[0][0]              
__________________________________________________________________________________________________
dropout_14 (Dropout)            (None, 18, 12, 12)   0           dense_3_1_conv2D[0][0]           
__________________________________________________________________________________________________
concatenate_14 (Concatenate)    (None, 101, 12, 12)  0           concatenate_13[0][0]             
                                                                 dropout_14[0][0]                 
__________________________________________________________________________________________________
dense_3_2_bn (BatchNormalizatio (None, 101, 12, 12)  404         concatenate_14[0][0]             
__________________________________________________________________________________________________
activation_32 (Activation)      (None, 101, 12, 12)  0           dense_3_2_bn[0][0]               
__________________________________________________________________________________________________
dense_3_2_bottleneck_conv2D (Co (None, 72, 12, 12)   7272        activation_32[0][0]              
__________________________________________________________________________________________________
dense_3_2_bottleneck_bn (BatchN (None, 72, 12, 12)   288         dense_3_2_bottleneck_conv2D[0][0]
__________________________________________________________________________________________________
activation_33 (Activation)      (None, 72, 12, 12)   0           dense_3_2_bottleneck_bn[0][0]    
__________________________________________________________________________________________________
dense_3_2_conv2D (Conv2D)       (None, 18, 12, 12)   11664       activation_33[0][0]              
__________________________________________________________________________________________________
dropout_15 (Dropout)            (None, 18, 12, 12)   0           dense_3_2_conv2D[0][0]           
__________________________________________________________________________________________________
concatenate_15 (Concatenate)    (None, 119, 12, 12)  0           concatenate_14[0][0]             
                                                                 dropout_15[0][0]                 
__________________________________________________________________________________________________
dense_3_3_bn (BatchNormalizatio (None, 119, 12, 12)  476         concatenate_15[0][0]             
__________________________________________________________________________________________________
activation_34 (Activation)      (None, 119, 12, 12)  0           dense_3_3_bn[0][0]               
__________________________________________________________________________________________________
dense_3_3_bottleneck_conv2D (Co (None, 72, 12, 12)   8568        activation_34[0][0]              
__________________________________________________________________________________________________
dense_3_3_bottleneck_bn (BatchN (None, 72, 12, 12)   288         dense_3_3_bottleneck_conv2D[0][0]
__________________________________________________________________________________________________
activation_35 (Activation)      (None, 72, 12, 12)   0           dense_3_3_bottleneck_bn[0][0]    
__________________________________________________________________________________________________
dense_3_3_conv2D (Conv2D)       (None, 18, 12, 12)   11664       activation_35[0][0]              
__________________________________________________________________________________________________
dropout_16 (Dropout)            (None, 18, 12, 12)   0           dense_3_3_conv2D[0][0]           
__________________________________________________________________________________________________
concatenate_16 (Concatenate)    (None, 137, 12, 12)  0           concatenate_15[0][0]             
                                                                 dropout_16[0][0]                 
__________________________________________________________________________________________________
final_bn (BatchNormalization)   (None, 137, 12, 12)  548         concatenate_16[0][0]             
__________________________________________________________________________________________________
activation_36 (Activation)      (None, 137, 12, 12)  0           final_bn[0][0]                   
__________________________________________________________________________________________________
global_average_pooling2d_1 (Glo (None, 137)          0           activation_36[0][0]              
__________________________________________________________________________________________________
dense_1 (Dense)                 (None, 1)            138         global_average_pooling2d_1[0][0] 
==================================================================================================
Total params: 301,056
Trainable params: 295,482
Non-trainable params: 5,574
__________________________________________________________________________________________________
Train on 31872 samples, validate on 7968 samples
Epoch 1/3
 - 252s - loss: 0.6309 - acc: 0.7723 - val_loss: 0.5914 - val_acc: 0.7613
…
Depth:  31  Growth_rate:  24  lr:  0.0002  nb_filter:  16  dropout:  0.2700914467473825
Epochs  5  batch_size:  8  es_patience:  5  lr_patience:  3
dense_block  4  reduction_:  0.5  bottleneck:  True
------------------------       end of configs        -------------------------
__________________________________________________________________________________________________
Layer (type)                    Output Shape         Param #     Connected to                     
==================================================================================================
input_1 (InputLayer)            (None, 2, 96, 96)    0                                            
__________________________________________________________________________________________________
initial_conv2D (Conv2D)         (None, 16, 96, 96)   288         input_1[0][0]                    
__________________________________________________________________________________________________
dense_0_0_bn (BatchNormalizatio (None, 16, 96, 96)   64          initial_conv2D[0][0]             
__________________________________________________________________________________________________
activation_1 (Activation)       (None, 16, 96, 96)   0           dense_0_0_bn[0][0]               
__________________________________________________________________________________________________
dense_0_0_bottleneck_conv2D (Co (None, 96, 96, 96)   1536        activation_1[0][0]               
__________________________________________________________________________________________________
dense_0_0_bottleneck_bn (BatchN (None, 96, 96, 96)   384         dense_0_0_bottleneck_conv2D[0][0]
__________________________________________________________________________________________________
activation_2 (Activation)       (None, 96, 96, 96)   0           dense_0_0_bottleneck_bn[0][0]    
__________________________________________________________________________________________________
dense_0_0_conv2D (Conv2D)       (None, 24, 96, 96)   20736       activation_2[0][0]               
__________________________________________________________________________________________________
dropout_1 (Dropout)             (None, 24, 96, 96)   0           dense_0_0_conv2D[0][0]           
__________________________________________________________________________________________________
concatenate_1 (Concatenate)     (None, 40, 96, 96)   0           initial_conv2D[0][0]             
                                                                 dropout_1[0][0]                  
__________________________________________________________________________________________________
dense_0_1_bn (BatchNormalizatio (None, 40, 96, 96)   160         concatenate_1[0][0]              
__________________________________________________________________________________________________
activation_3 (Activation)       (None, 40, 96, 96)   0           dense_0_1_bn[0][0]               
__________________________________________________________________________________________________
dense_0_1_bottleneck_conv2D (Co (None, 96, 96, 96)   3840        activation_3[0][0]               
__________________________________________________________________________________________________
dense_0_1_bottleneck_bn (BatchN (None, 96, 96, 96)   384         dense_0_1_bottleneck_conv2D[0][0]
__________________________________________________________________________________________________
activation_4 (Activation)       (None, 96, 96, 96)   0           dense_0_1_bottleneck_bn[0][0]    
__________________________________________________________________________________________________
dense_0_1_conv2D (Conv2D)       (None, 24, 96, 96)   20736       activation_4[0][0]               
__________________________________________________________________________________________________
dropout_2 (Dropout)             (None, 24, 96, 96)   0           dense_0_1_conv2D[0][0]           
__________________________________________________________________________________________________
concatenate_2 (Concatenate)     (None, 64, 96, 96)   0           concatenate_1[0][0]              
                                                                 dropout_2[0][0]                  
__________________________________________________________________________________________________
dense_0_2_bn (BatchNormalizatio (None, 64, 96, 96)   256         concatenate_2[0][0]              
__________________________________________________________________________________________________
activation_5 (Activation)       (None, 64, 96, 96)   0           dense_0_2_bn[0][0]               
__________________________________________________________________________________________________
dense_0_2_bottleneck_conv2D (Co (None, 96, 96, 96)   6144        activation_5[0][0]               
__________________________________________________________________________________________________
dense_0_2_bottleneck_bn (BatchN (None, 96, 96, 96)   384         dense_0_2_bottleneck_conv2D[0][0]
__________________________________________________________________________________________________
activation_6 (Activation)       (None, 96, 96, 96)   0           dense_0_2_bottleneck_bn[0][0]    
__________________________________________________________________________________________________
dense_0_2_conv2D (Conv2D)       (None, 24, 96, 96)   20736       activation_6[0][0]               
__________________________________________________________________________________________________
dropout_3 (Dropout)             (None, 24, 96, 96)   0           dense_0_2_conv2D[0][0]           
__________________________________________________________________________________________________
concatenate_3 (Concatenate)     (None, 88, 96, 96)   0           concatenate_2[0][0]              
                                                                 dropout_3[0][0]                  
__________________________________________________________________________________________________
dense_0_3_bn (BatchNormalizatio (None, 88, 96, 96)   352         concatenate_3[0][0]              
__________________________________________________________________________________________________
activation_7 (Activation)       (None, 88, 96, 96)   0           dense_0_3_bn[0][0]               
__________________________________________________________________________________________________
dense_0_3_bottleneck_conv2D (Co (None, 96, 96, 96)   8448        activation_7[0][0]               
__________________________________________________________________________________________________
dense_0_3_bottleneck_bn (BatchN (None, 96, 96, 96)   384         dense_0_3_bottleneck_conv2D[0][0]
__________________________________________________________________________________________________
activation_8 (Activation)       (None, 96, 96, 96)   0           dense_0_3_bottleneck_bn[0][0]    
__________________________________________________________________________________________________
dense_0_3_conv2D (Conv2D)       (None, 24, 96, 96)   20736       activation_8[0][0]               
__________________________________________________________________________________________________
dropout_4 (Dropout)             (None, 24, 96, 96)   0           dense_0_3_conv2D[0][0]           
__________________________________________________________________________________________________
concatenate_4 (Concatenate)     (None, 112, 96, 96)  0           concatenate_3[0][0]              
                                                                 dropout_4[0][0]                  
__________________________________________________________________________________________________
tr_0_bn (BatchNormalization)    (None, 112, 96, 96)  448         concatenate_4[0][0]              
__________________________________________________________________________________________________
activation_9 (Activation)       (None, 112, 96, 96)  0           tr_0_bn[0][0]                    
__________________________________________________________________________________________________
tr_0_conv2D (Conv2D)            (None, 56, 96, 96)   6272        activation_9[0][0]               
__________________________________________________________________________________________________
average_pooling2d_1 (AveragePoo (None, 56, 48, 48)   0           tr_0_conv2D[0][0]                
__________________________________________________________________________________________________
dense_1_0_bn (BatchNormalizatio (None, 56, 48, 48)   224         average_pooling2d_1[0][0]        
__________________________________________________________________________________________________
activation_10 (Activation)      (None, 56, 48, 48)   0           dense_1_0_bn[0][0]               
__________________________________________________________________________________________________
dense_1_0_bottleneck_conv2D (Co (None, 96, 48, 48)   5376        activation_10[0][0]              
__________________________________________________________________________________________________
dense_1_0_bottleneck_bn (BatchN (None, 96, 48, 48)   384         dense_1_0_bottleneck_conv2D[0][0]
__________________________________________________________________________________________________
activation_11 (Activation)      (None, 96, 48, 48)   0           dense_1_0_bottleneck_bn[0][0]    
__________________________________________________________________________________________________
dense_1_0_conv2D (Conv2D)       (None, 24, 48, 48)   20736       activation_11[0][0]              
__________________________________________________________________________________________________
dropout_5 (Dropout)             (None, 24, 48, 48)   0           dense_1_0_conv2D[0][0]           
__________________________________________________________________________________________________
concatenate_5 (Concatenate)     (None, 80, 48, 48)   0           average_pooling2d_1[0][0]        
                                                                 dropout_5[0][0]                  
__________________________________________________________________________________________________
dense_1_1_bn (BatchNormalizatio (None, 80, 48, 48)   320         concatenate_5[0][0]              
__________________________________________________________________________________________________
activation_12 (Activation)      (None, 80, 48, 48)   0           dense_1_1_bn[0][0]               
__________________________________________________________________________________________________
dense_1_1_bottleneck_conv2D (Co (None, 96, 48, 48)   7680        activation_12[0][0]              
__________________________________________________________________________________________________
dense_1_1_bottleneck_bn (BatchN (None, 96, 48, 48)   384         dense_1_1_bottleneck_conv2D[0][0]
__________________________________________________________________________________________________
activation_13 (Activation)      (None, 96, 48, 48)   0           dense_1_1_bottleneck_bn[0][0]    
__________________________________________________________________________________________________
dense_1_1_conv2D (Conv2D)       (None, 24, 48, 48)   20736       activation_13[0][0]              
__________________________________________________________________________________________________
dropout_6 (Dropout)             (None, 24, 48, 48)   0           dense_1_1_conv2D[0][0]           
__________________________________________________________________________________________________
concatenate_6 (Concatenate)     (None, 104, 48, 48)  0           concatenate_5[0][0]              
                                                                 dropout_6[0][0]                  
__________________________________________________________________________________________________
dense_1_2_bn (BatchNormalizatio (None, 104, 48, 48)  416         concatenate_6[0][0]              
__________________________________________________________________________________________________
activation_14 (Activation)      (None, 104, 48, 48)  0           dense_1_2_bn[0][0]               
__________________________________________________________________________________________________
dense_1_2_bottleneck_conv2D (Co (None, 96, 48, 48)   9984        activation_14[0][0]              
__________________________________________________________________________________________________
dense_1_2_bottleneck_bn (BatchN (None, 96, 48, 48)   384         dense_1_2_bottleneck_conv2D[0][0]
__________________________________________________________________________________________________
activation_15 (Activation)      (None, 96, 48, 48)   0           dense_1_2_bottleneck_bn[0][0]    
__________________________________________________________________________________________________
dense_1_2_conv2D (Conv2D)       (None, 24, 48, 48)   20736       activation_15[0][0]              
__________________________________________________________________________________________________
dropout_7 (Dropout)             (None, 24, 48, 48)   0           dense_1_2_conv2D[0][0]           
__________________________________________________________________________________________________
concatenate_7 (Concatenate)     (None, 128, 48, 48)  0           concatenate_6[0][0]              
                                                                 dropout_7[0][0]                  
__________________________________________________________________________________________________
dense_1_3_bn (BatchNormalizatio (None, 128, 48, 48)  512         concatenate_7[0][0]              
__________________________________________________________________________________________________
activation_16 (Activation)      (None, 128, 48, 48)  0           dense_1_3_bn[0][0]               
__________________________________________________________________________________________________
dense_1_3_bottleneck_conv2D (Co (None, 96, 48, 48)   12288       activation_16[0][0]              
__________________________________________________________________________________________________
dense_1_3_bottleneck_bn (BatchN (None, 96, 48, 48)   384         dense_1_3_bottleneck_conv2D[0][0]
__________________________________________________________________________________________________
activation_17 (Activation)      (None, 96, 48, 48)   0           dense_1_3_bottleneck_bn[0][0]    
__________________________________________________________________________________________________
dense_1_3_conv2D (Conv2D)       (None, 24, 48, 48)   20736       activation_17[0][0]              
__________________________________________________________________________________________________
dropout_8 (Dropout)             (None, 24, 48, 48)   0           dense_1_3_conv2D[0][0]           
__________________________________________________________________________________________________
concatenate_8 (Concatenate)     (None, 152, 48, 48)  0           concatenate_7[0][0]              
                                                                 dropout_8[0][0]                  
__________________________________________________________________________________________________
tr_1_bn (BatchNormalization)    (None, 152, 48, 48)  608         concatenate_8[0][0]              
__________________________________________________________________________________________________
activation_18 (Activation)      (None, 152, 48, 48)  0           tr_1_bn[0][0]                    
__________________________________________________________________________________________________
tr_1_conv2D (Conv2D)            (None, 76, 48, 48)   11552       activation_18[0][0]              
__________________________________________________________________________________________________
average_pooling2d_2 (AveragePoo (None, 76, 24, 24)   0           tr_1_conv2D[0][0]                
__________________________________________________________________________________________________
dense_2_0_bn (BatchNormalizatio (None, 76, 24, 24)   304         average_pooling2d_2[0][0]        
__________________________________________________________________________________________________
activation_19 (Activation)      (None, 76, 24, 24)   0           dense_2_0_bn[0][0]               
__________________________________________________________________________________________________
dense_2_0_bottleneck_conv2D (Co (None, 96, 24, 24)   7296        activation_19[0][0]              
__________________________________________________________________________________________________
dense_2_0_bottleneck_bn (BatchN (None, 96, 24, 24)   384         dense_2_0_bottleneck_conv2D[0][0]
__________________________________________________________________________________________________
activation_20 (Activation)      (None, 96, 24, 24)   0           dense_2_0_bottleneck_bn[0][0]    
__________________________________________________________________________________________________
dense_2_0_conv2D (Conv2D)       (None, 24, 24, 24)   20736       activation_20[0][0]              
__________________________________________________________________________________________________
dropout_9 (Dropout)             (None, 24, 24, 24)   0           dense_2_0_conv2D[0][0]           
__________________________________________________________________________________________________
concatenate_9 (Concatenate)     (None, 100, 24, 24)  0           average_pooling2d_2[0][0]        
                                                                 dropout_9[0][0]                  
__________________________________________________________________________________________________
dense_2_1_bn (BatchNormalizatio (None, 100, 24, 24)  400         concatenate_9[0][0]              
__________________________________________________________________________________________________
activation_21 (Activation)      (None, 100, 24, 24)  0           dense_2_1_bn[0][0]               
__________________________________________________________________________________________________
dense_2_1_bottleneck_conv2D (Co (None, 96, 24, 24)   9600        activation_21[0][0]              
__________________________________________________________________________________________________
dense_2_1_bottleneck_bn (BatchN (None, 96, 24, 24)   384         dense_2_1_bottleneck_conv2D[0][0]
__________________________________________________________________________________________________
activation_22 (Activation)      (None, 96, 24, 24)   0           dense_2_1_bottleneck_bn[0][0]    
__________________________________________________________________________________________________
dense_2_1_conv2D (Conv2D)       (None, 24, 24, 24)   20736       activation_22[0][0]              
__________________________________________________________________________________________________
dropout_10 (Dropout)            (None, 24, 24, 24)   0           dense_2_1_conv2D[0][0]           
__________________________________________________________________________________________________
concatenate_10 (Concatenate)    (None, 124, 24, 24)  0           concatenate_9[0][0]              
                                                                 dropout_10[0][0]                 
__________________________________________________________________________________________________
dense_2_2_bn (BatchNormalizatio (None, 124, 24, 24)  496         concatenate_10[0][0]             
__________________________________________________________________________________________________
activation_23 (Activation)      (None, 124, 24, 24)  0           dense_2_2_bn[0][0]               
__________________________________________________________________________________________________
dense_2_2_bottleneck_conv2D (Co (None, 96, 24, 24)   11904       activation_23[0][0]              
__________________________________________________________________________________________________
dense_2_2_bottleneck_bn (BatchN (None, 96, 24, 24)   384         dense_2_2_bottleneck_conv2D[0][0]
__________________________________________________________________________________________________
activation_24 (Activation)      (None, 96, 24, 24)   0           dense_2_2_bottleneck_bn[0][0]    
__________________________________________________________________________________________________
dense_2_2_conv2D (Conv2D)       (None, 24, 24, 24)   20736       activation_24[0][0]              
__________________________________________________________________________________________________
dropout_11 (Dropout)            (None, 24, 24, 24)   0           dense_2_2_conv2D[0][0]           
__________________________________________________________________________________________________
concatenate_11 (Concatenate)    (None, 148, 24, 24)  0           concatenate_10[0][0]             
                                                                 dropout_11[0][0]                 
__________________________________________________________________________________________________
dense_2_3_bn (BatchNormalizatio (None, 148, 24, 24)  592         concatenate_11[0][0]             
__________________________________________________________________________________________________
activation_25 (Activation)      (None, 148, 24, 24)  0           dense_2_3_bn[0][0]               
__________________________________________________________________________________________________
dense_2_3_bottleneck_conv2D (Co (None, 96, 24, 24)   14208       activation_25[0][0]              
__________________________________________________________________________________________________
dense_2_3_bottleneck_bn (BatchN (None, 96, 24, 24)   384         dense_2_3_bottleneck_conv2D[0][0]
__________________________________________________________________________________________________
activation_26 (Activation)      (None, 96, 24, 24)   0           dense_2_3_bottleneck_bn[0][0]    
__________________________________________________________________________________________________
dense_2_3_conv2D (Conv2D)       (None, 24, 24, 24)   20736       activation_26[0][0]              
__________________________________________________________________________________________________
dropout_12 (Dropout)            (None, 24, 24, 24)   0           dense_2_3_conv2D[0][0]           
__________________________________________________________________________________________________
concatenate_12 (Concatenate)    (None, 172, 24, 24)  0           concatenate_11[0][0]             
                                                                 dropout_12[0][0]                 
__________________________________________________________________________________________________
tr_2_bn (BatchNormalization)    (None, 172, 24, 24)  688         concatenate_12[0][0]             
__________________________________________________________________________________________________
activation_27 (Activation)      (None, 172, 24, 24)  0           tr_2_bn[0][0]                    
__________________________________________________________________________________________________
tr_2_conv2D (Conv2D)            (None, 86, 24, 24)   14792       activation_27[0][0]              
__________________________________________________________________________________________________
average_pooling2d_3 (AveragePoo (None, 86, 12, 12)   0           tr_2_conv2D[0][0]                
__________________________________________________________________________________________________
dense_3_0_bn (BatchNormalizatio (None, 86, 12, 12)   344         average_pooling2d_3[0][0]        
__________________________________________________________________________________________________
activation_28 (Activation)      (None, 86, 12, 12)   0           dense_3_0_bn[0][0]               
__________________________________________________________________________________________________
dense_3_0_bottleneck_conv2D (Co (None, 96, 12, 12)   8256        activation_28[0][0]              
__________________________________________________________________________________________________
dense_3_0_bottleneck_bn (BatchN (None, 96, 12, 12)   384         dense_3_0_bottleneck_conv2D[0][0]
__________________________________________________________________________________________________
activation_29 (Activation)      (None, 96, 12, 12)   0           dense_3_0_bottleneck_bn[0][0]    
__________________________________________________________________________________________________
dense_3_0_conv2D (Conv2D)       (None, 24, 12, 12)   20736       activation_29[0][0]              
__________________________________________________________________________________________________
dropout_13 (Dropout)            (None, 24, 12, 12)   0           dense_3_0_conv2D[0][0]           
__________________________________________________________________________________________________
concatenate_13 (Concatenate)    (None, 110, 12, 12)  0           average_pooling2d_3[0][0]        
                                                                 dropout_13[0][0]                 
__________________________________________________________________________________________________
dense_3_1_bn (BatchNormalizatio (None, 110, 12, 12)  440         concatenate_13[0][0]             
__________________________________________________________________________________________________
activation_30 (Activation)      (None, 110, 12, 12)  0           dense_3_1_bn[0][0]               
__________________________________________________________________________________________________
dense_3_1_bottleneck_conv2D (Co (None, 96, 12, 12)   10560       activation_30[0][0]              
__________________________________________________________________________________________________
dense_3_1_bottleneck_bn (BatchN (None, 96, 12, 12)   384         dense_3_1_bottleneck_conv2D[0][0]
__________________________________________________________________________________________________
activation_31 (Activation)      (None, 96, 12, 12)   0           dense_3_1_bottleneck_bn[0][0]    
__________________________________________________________________________________________________
dense_3_1_conv2D (Conv2D)       (None, 24, 12, 12)   20736       activation_31[0][0]              
__________________________________________________________________________________________________
dropout_14 (Dropout)            (None, 24, 12, 12)   0           dense_3_1_conv2D[0][0]           
__________________________________________________________________________________________________
concatenate_14 (Concatenate)    (None, 134, 12, 12)  0           concatenate_13[0][0]             
                                                                 dropout_14[0][0]                 
__________________________________________________________________________________________________
dense_3_2_bn (BatchNormalizatio (None, 134, 12, 12)  536         concatenate_14[0][0]             
__________________________________________________________________________________________________
activation_32 (Activation)      (None, 134, 12, 12)  0           dense_3_2_bn[0][0]               
__________________________________________________________________________________________________
dense_3_2_bottleneck_conv2D (Co (None, 96, 12, 12)   12864       activation_32[0][0]              
__________________________________________________________________________________________________
dense_3_2_bottleneck_bn (BatchN (None, 96, 12, 12)   384         dense_3_2_bottleneck_conv2D[0][0]
__________________________________________________________________________________________________
activation_33 (Activation)      (None, 96, 12, 12)   0           dense_3_2_bottleneck_bn[0][0]    
__________________________________________________________________________________________________
dense_3_2_conv2D (Conv2D)       (None, 24, 12, 12)   20736       activation_33[0][0]              
__________________________________________________________________________________________________
dropout_15 (Dropout)            (None, 24, 12, 12)   0           dense_3_2_conv2D[0][0]           
__________________________________________________________________________________________________
concatenate_15 (Concatenate)    (None, 158, 12, 12)  0           concatenate_14[0][0]             
                                                                 dropout_15[0][0]                 
__________________________________________________________________________________________________
dense_3_3_bn (BatchNormalizatio (None, 158, 12, 12)  632         concatenate_15[0][0]             
__________________________________________________________________________________________________
activation_34 (Activation)      (None, 158, 12, 12)  0           dense_3_3_bn[0][0]               
__________________________________________________________________________________________________
dense_3_3_bottleneck_conv2D (Co (None, 96, 12, 12)   15168       activation_34[0][0]              
__________________________________________________________________________________________________
dense_3_3_bottleneck_bn (BatchN (None, 96, 12, 12)   384         dense_3_3_bottleneck_conv2D[0][0]
__________________________________________________________________________________________________
activation_35 (Activation)      (None, 96, 12, 12)   0           dense_3_3_bottleneck_bn[0][0]    
__________________________________________________________________________________________________
dense_3_3_conv2D (Conv2D)       (None, 24, 12, 12)   20736       activation_35[0][0]              
__________________________________________________________________________________________________
dropout_16 (Dropout)            (None, 24, 12, 12)   0           dense_3_3_conv2D[0][0]           
__________________________________________________________________________________________________
concatenate_16 (Concatenate)    (None, 182, 12, 12)  0           concatenate_15[0][0]             
                                                                 dropout_16[0][0]                 
__________________________________________________________________________________________________
final_bn (BatchNormalization)   (None, 182, 12, 12)  728         concatenate_16[0][0]             
__________________________________________________________________________________________________
activation_36 (Activation)      (None, 182, 12, 12)  0           final_bn[0][0]                   
__________________________________________________________________________________________________
global_average_pooling2d_1 (Glo (None, 182)          0           activation_36[0][0]              
__________________________________________________________________________________________________
dense_1 (Dense)                 (None, 1)            183         global_average_pooling2d_1[0][0] 
==================================================================================================
Total params: 524,679
Trainable params: 517,347
Non-trainable params: 7,332
__________________________________________________________________________________________________
Train on 31872 samples, validate on 7968 samples
Epoch 1/5
 - 253s - loss: 0.7448 - acc: 0.7800 - val_loss: 0.6212 - val_acc: 0.8244
…
Depth:  25  Growth_rate:  18  lr:  0.0001  nb_filter:  16  dropout:  0.265064829124285
Epochs  5  batch_size:  8  es_patience:  5  lr_patience:  3
dense_block  4  reduction_:  0.5  bottleneck:  True
------------------------       end of configs        -------------------------
__________________________________________________________________________________________________
Layer (type)                    Output Shape         Param #     Connected to                     
==================================================================================================
input_1 (InputLayer)            (None, 2, 96, 96)    0                                            
__________________________________________________________________________________________________
initial_conv2D (Conv2D)         (None, 16, 96, 96)   288         input_1[0][0]                    
__________________________________________________________________________________________________
dense_0_0_bn (BatchNormalizatio (None, 16, 96, 96)   64          initial_conv2D[0][0]             
__________________________________________________________________________________________________
activation_1 (Activation)       (None, 16, 96, 96)   0           dense_0_0_bn[0][0]               
__________________________________________________________________________________________________
dense_0_0_bottleneck_conv2D (Co (None, 72, 96, 96)   1152        activation_1[0][0]               
__________________________________________________________________________________________________
dense_0_0_bottleneck_bn (BatchN (None, 72, 96, 96)   288         dense_0_0_bottleneck_conv2D[0][0]
__________________________________________________________________________________________________
activation_2 (Activation)       (None, 72, 96, 96)   0           dense_0_0_bottleneck_bn[0][0]    
__________________________________________________________________________________________________
dense_0_0_conv2D (Conv2D)       (None, 18, 96, 96)   11664       activation_2[0][0]               
__________________________________________________________________________________________________
dropout_1 (Dropout)             (None, 18, 96, 96)   0           dense_0_0_conv2D[0][0]           
__________________________________________________________________________________________________
concatenate_1 (Concatenate)     (None, 34, 96, 96)   0           initial_conv2D[0][0]             
                                                                 dropout_1[0][0]                  
__________________________________________________________________________________________________
dense_0_1_bn (BatchNormalizatio (None, 34, 96, 96)   136         concatenate_1[0][0]              
__________________________________________________________________________________________________
activation_3 (Activation)       (None, 34, 96, 96)   0           dense_0_1_bn[0][0]               
__________________________________________________________________________________________________
dense_0_1_bottleneck_conv2D (Co (None, 72, 96, 96)   2448        activation_3[0][0]               
__________________________________________________________________________________________________
dense_0_1_bottleneck_bn (BatchN (None, 72, 96, 96)   288         dense_0_1_bottleneck_conv2D[0][0]
__________________________________________________________________________________________________
activation_4 (Activation)       (None, 72, 96, 96)   0           dense_0_1_bottleneck_bn[0][0]    
__________________________________________________________________________________________________
dense_0_1_conv2D (Conv2D)       (None, 18, 96, 96)   11664       activation_4[0][0]               
__________________________________________________________________________________________________
dropout_2 (Dropout)             (None, 18, 96, 96)   0           dense_0_1_conv2D[0][0]           
__________________________________________________________________________________________________
concatenate_2 (Concatenate)     (None, 52, 96, 96)   0           concatenate_1[0][0]              
                                                                 dropout_2[0][0]                  
__________________________________________________________________________________________________
dense_0_2_bn (BatchNormalizatio (None, 52, 96, 96)   208         concatenate_2[0][0]              
__________________________________________________________________________________________________
activation_5 (Activation)       (None, 52, 96, 96)   0           dense_0_2_bn[0][0]               
__________________________________________________________________________________________________
dense_0_2_bottleneck_conv2D (Co (None, 72, 96, 96)   3744        activation_5[0][0]               
__________________________________________________________________________________________________
dense_0_2_bottleneck_bn (BatchN (None, 72, 96, 96)   288         dense_0_2_bottleneck_conv2D[0][0]
__________________________________________________________________________________________________
activation_6 (Activation)       (None, 72, 96, 96)   0           dense_0_2_bottleneck_bn[0][0]    
__________________________________________________________________________________________________
dense_0_2_conv2D (Conv2D)       (None, 18, 96, 96)   11664       activation_6[0][0]               
__________________________________________________________________________________________________
dropout_3 (Dropout)             (None, 18, 96, 96)   0           dense_0_2_conv2D[0][0]           
__________________________________________________________________________________________________
concatenate_3 (Concatenate)     (None, 70, 96, 96)   0           concatenate_2[0][0]              
                                                                 dropout_3[0][0]                  
__________________________________________________________________________________________________
tr_0_bn (BatchNormalization)    (None, 70, 96, 96)   280         concatenate_3[0][0]              
__________________________________________________________________________________________________
activation_7 (Activation)       (None, 70, 96, 96)   0           tr_0_bn[0][0]                    
__________________________________________________________________________________________________
tr_0_conv2D (Conv2D)            (None, 35, 96, 96)   2450        activation_7[0][0]               
__________________________________________________________________________________________________
average_pooling2d_1 (AveragePoo (None, 35, 48, 48)   0           tr_0_conv2D[0][0]                
__________________________________________________________________________________________________
dense_1_0_bn (BatchNormalizatio (None, 35, 48, 48)   140         average_pooling2d_1[0][0]        
__________________________________________________________________________________________________
activation_8 (Activation)       (None, 35, 48, 48)   0           dense_1_0_bn[0][0]               
__________________________________________________________________________________________________
dense_1_0_bottleneck_conv2D (Co (None, 72, 48, 48)   2520        activation_8[0][0]               
__________________________________________________________________________________________________
dense_1_0_bottleneck_bn (BatchN (None, 72, 48, 48)   288         dense_1_0_bottleneck_conv2D[0][0]
__________________________________________________________________________________________________
activation_9 (Activation)       (None, 72, 48, 48)   0           dense_1_0_bottleneck_bn[0][0]    
__________________________________________________________________________________________________
dense_1_0_conv2D (Conv2D)       (None, 18, 48, 48)   11664       activation_9[0][0]               
__________________________________________________________________________________________________
dropout_4 (Dropout)             (None, 18, 48, 48)   0           dense_1_0_conv2D[0][0]           
__________________________________________________________________________________________________
concatenate_4 (Concatenate)     (None, 53, 48, 48)   0           average_pooling2d_1[0][0]        
                                                                 dropout_4[0][0]                  
__________________________________________________________________________________________________
dense_1_1_bn (BatchNormalizatio (None, 53, 48, 48)   212         concatenate_4[0][0]              
__________________________________________________________________________________________________
activation_10 (Activation)      (None, 53, 48, 48)   0           dense_1_1_bn[0][0]               
__________________________________________________________________________________________________
dense_1_1_bottleneck_conv2D (Co (None, 72, 48, 48)   3816        activation_10[0][0]              
__________________________________________________________________________________________________
dense_1_1_bottleneck_bn (BatchN (None, 72, 48, 48)   288         dense_1_1_bottleneck_conv2D[0][0]
__________________________________________________________________________________________________
activation_11 (Activation)      (None, 72, 48, 48)   0           dense_1_1_bottleneck_bn[0][0]    
__________________________________________________________________________________________________
dense_1_1_conv2D (Conv2D)       (None, 18, 48, 48)   11664       activation_11[0][0]              
__________________________________________________________________________________________________
dropout_5 (Dropout)             (None, 18, 48, 48)   0           dense_1_1_conv2D[0][0]           
__________________________________________________________________________________________________
concatenate_5 (Concatenate)     (None, 71, 48, 48)   0           concatenate_4[0][0]              
                                                                 dropout_5[0][0]                  
__________________________________________________________________________________________________
dense_1_2_bn (BatchNormalizatio (None, 71, 48, 48)   284         concatenate_5[0][0]              
__________________________________________________________________________________________________
activation_12 (Activation)      (None, 71, 48, 48)   0           dense_1_2_bn[0][0]               
__________________________________________________________________________________________________
dense_1_2_bottleneck_conv2D (Co (None, 72, 48, 48)   5112        activation_12[0][0]              
__________________________________________________________________________________________________
dense_1_2_bottleneck_bn (BatchN (None, 72, 48, 48)   288         dense_1_2_bottleneck_conv2D[0][0]
__________________________________________________________________________________________________
activation_13 (Activation)      (None, 72, 48, 48)   0           dense_1_2_bottleneck_bn[0][0]    
__________________________________________________________________________________________________
dense_1_2_conv2D (Conv2D)       (None, 18, 48, 48)   11664       activation_13[0][0]              
__________________________________________________________________________________________________
dropout_6 (Dropout)             (None, 18, 48, 48)   0           dense_1_2_conv2D[0][0]           
__________________________________________________________________________________________________
concatenate_6 (Concatenate)     (None, 89, 48, 48)   0           concatenate_5[0][0]              
                                                                 dropout_6[0][0]                  
__________________________________________________________________________________________________
tr_1_bn (BatchNormalization)    (None, 89, 48, 48)   356         concatenate_6[0][0]              
__________________________________________________________________________________________________
activation_14 (Activation)      (None, 89, 48, 48)   0           tr_1_bn[0][0]                    
__________________________________________________________________________________________________
tr_1_conv2D (Conv2D)            (None, 44, 48, 48)   3916        activation_14[0][0]              
__________________________________________________________________________________________________
average_pooling2d_2 (AveragePoo (None, 44, 24, 24)   0           tr_1_conv2D[0][0]                
__________________________________________________________________________________________________
dense_2_0_bn (BatchNormalizatio (None, 44, 24, 24)   176         average_pooling2d_2[0][0]        
__________________________________________________________________________________________________
activation_15 (Activation)      (None, 44, 24, 24)   0           dense_2_0_bn[0][0]               
__________________________________________________________________________________________________
dense_2_0_bottleneck_conv2D (Co (None, 72, 24, 24)   3168        activation_15[0][0]              
__________________________________________________________________________________________________
dense_2_0_bottleneck_bn (BatchN (None, 72, 24, 24)   288         dense_2_0_bottleneck_conv2D[0][0]
__________________________________________________________________________________________________
activation_16 (Activation)      (None, 72, 24, 24)   0           dense_2_0_bottleneck_bn[0][0]    
__________________________________________________________________________________________________
dense_2_0_conv2D (Conv2D)       (None, 18, 24, 24)   11664       activation_16[0][0]              
__________________________________________________________________________________________________
dropout_7 (Dropout)             (None, 18, 24, 24)   0           dense_2_0_conv2D[0][0]           
__________________________________________________________________________________________________
concatenate_7 (Concatenate)     (None, 62, 24, 24)   0           average_pooling2d_2[0][0]        
                                                                 dropout_7[0][0]                  
__________________________________________________________________________________________________
dense_2_1_bn (BatchNormalizatio (None, 62, 24, 24)   248         concatenate_7[0][0]              
__________________________________________________________________________________________________
activation_17 (Activation)      (None, 62, 24, 24)   0           dense_2_1_bn[0][0]               
__________________________________________________________________________________________________
dense_2_1_bottleneck_conv2D (Co (None, 72, 24, 24)   4464        activation_17[0][0]              
__________________________________________________________________________________________________
dense_2_1_bottleneck_bn (BatchN (None, 72, 24, 24)   288         dense_2_1_bottleneck_conv2D[0][0]
__________________________________________________________________________________________________
activation_18 (Activation)      (None, 72, 24, 24)   0           dense_2_1_bottleneck_bn[0][0]    
__________________________________________________________________________________________________
dense_2_1_conv2D (Conv2D)       (None, 18, 24, 24)   11664       activation_18[0][0]              
__________________________________________________________________________________________________
dropout_8 (Dropout)             (None, 18, 24, 24)   0           dense_2_1_conv2D[0][0]           
__________________________________________________________________________________________________
concatenate_8 (Concatenate)     (None, 80, 24, 24)   0           concatenate_7[0][0]              
                                                                 dropout_8[0][0]                  
__________________________________________________________________________________________________
dense_2_2_bn (BatchNormalizatio (None, 80, 24, 24)   320         concatenate_8[0][0]              
__________________________________________________________________________________________________
activation_19 (Activation)      (None, 80, 24, 24)   0           dense_2_2_bn[0][0]               
__________________________________________________________________________________________________
dense_2_2_bottleneck_conv2D (Co (None, 72, 24, 24)   5760        activation_19[0][0]              
__________________________________________________________________________________________________
dense_2_2_bottleneck_bn (BatchN (None, 72, 24, 24)   288         dense_2_2_bottleneck_conv2D[0][0]
__________________________________________________________________________________________________
activation_20 (Activation)      (None, 72, 24, 24)   0           dense_2_2_bottleneck_bn[0][0]    
__________________________________________________________________________________________________
dense_2_2_conv2D (Conv2D)       (None, 18, 24, 24)   11664       activation_20[0][0]              
__________________________________________________________________________________________________
dropout_9 (Dropout)             (None, 18, 24, 24)   0           dense_2_2_conv2D[0][0]           
__________________________________________________________________________________________________
concatenate_9 (Concatenate)     (None, 98, 24, 24)   0           concatenate_8[0][0]              
                                                                 dropout_9[0][0]                  
__________________________________________________________________________________________________
tr_2_bn (BatchNormalization)    (None, 98, 24, 24)   392         concatenate_9[0][0]              
__________________________________________________________________________________________________
activation_21 (Activation)      (None, 98, 24, 24)   0           tr_2_bn[0][0]                    
__________________________________________________________________________________________________
tr_2_conv2D (Conv2D)            (None, 49, 24, 24)   4802        activation_21[0][0]              
__________________________________________________________________________________________________
average_pooling2d_3 (AveragePoo (None, 49, 12, 12)   0           tr_2_conv2D[0][0]                
__________________________________________________________________________________________________
dense_3_0_bn (BatchNormalizatio (None, 49, 12, 12)   196         average_pooling2d_3[0][0]        
__________________________________________________________________________________________________
activation_22 (Activation)      (None, 49, 12, 12)   0           dense_3_0_bn[0][0]               
__________________________________________________________________________________________________
dense_3_0_bottleneck_conv2D (Co (None, 72, 12, 12)   3528        activation_22[0][0]              
__________________________________________________________________________________________________
dense_3_0_bottleneck_bn (BatchN (None, 72, 12, 12)   288         dense_3_0_bottleneck_conv2D[0][0]
__________________________________________________________________________________________________
activation_23 (Activation)      (None, 72, 12, 12)   0           dense_3_0_bottleneck_bn[0][0]    
__________________________________________________________________________________________________
dense_3_0_conv2D (Conv2D)       (None, 18, 12, 12)   11664       activation_23[0][0]              
__________________________________________________________________________________________________
dropout_10 (Dropout)            (None, 18, 12, 12)   0           dense_3_0_conv2D[0][0]           
__________________________________________________________________________________________________
concatenate_10 (Concatenate)    (None, 67, 12, 12)   0           average_pooling2d_3[0][0]        
                                                                 dropout_10[0][0]                 
__________________________________________________________________________________________________
dense_3_1_bn (BatchNormalizatio (None, 67, 12, 12)   268         concatenate_10[0][0]             
__________________________________________________________________________________________________
activation_24 (Activation)      (None, 67, 12, 12)   0           dense_3_1_bn[0][0]               
__________________________________________________________________________________________________
dense_3_1_bottleneck_conv2D (Co (None, 72, 12, 12)   4824        activation_24[0][0]              
__________________________________________________________________________________________________
dense_3_1_bottleneck_bn (BatchN (None, 72, 12, 12)   288         dense_3_1_bottleneck_conv2D[0][0]
__________________________________________________________________________________________________
activation_25 (Activation)      (None, 72, 12, 12)   0           dense_3_1_bottleneck_bn[0][0]    
__________________________________________________________________________________________________
dense_3_1_conv2D (Conv2D)       (None, 18, 12, 12)   11664       activation_25[0][0]              
__________________________________________________________________________________________________
dropout_11 (Dropout)            (None, 18, 12, 12)   0           dense_3_1_conv2D[0][0]           
__________________________________________________________________________________________________
concatenate_11 (Concatenate)    (None, 85, 12, 12)   0           concatenate_10[0][0]             
                                                                 dropout_11[0][0]                 
__________________________________________________________________________________________________
dense_3_2_bn (BatchNormalizatio (None, 85, 12, 12)   340         concatenate_11[0][0]             
__________________________________________________________________________________________________
activation_26 (Activation)      (None, 85, 12, 12)   0           dense_3_2_bn[0][0]               
__________________________________________________________________________________________________
dense_3_2_bottleneck_conv2D (Co (None, 72, 12, 12)   6120        activation_26[0][0]              
__________________________________________________________________________________________________
dense_3_2_bottleneck_bn (BatchN (None, 72, 12, 12)   288         dense_3_2_bottleneck_conv2D[0][0]
__________________________________________________________________________________________________
activation_27 (Activation)      (None, 72, 12, 12)   0           dense_3_2_bottleneck_bn[0][0]    
__________________________________________________________________________________________________
dense_3_2_conv2D (Conv2D)       (None, 18, 12, 12)   11664       activation_27[0][0]              
__________________________________________________________________________________________________
dropout_12 (Dropout)            (None, 18, 12, 12)   0           dense_3_2_conv2D[0][0]           
__________________________________________________________________________________________________
concatenate_12 (Concatenate)    (None, 103, 12, 12)  0           concatenate_11[0][0]             
                                                                 dropout_12[0][0]                 
__________________________________________________________________________________________________
final_bn (BatchNormalization)   (None, 103, 12, 12)  412         concatenate_12[0][0]             
__________________________________________________________________________________________________
activation_28 (Activation)      (None, 103, 12, 12)  0           final_bn[0][0]                   
__________________________________________________________________________________________________
global_average_pooling2d_1 (Glo (None, 103)          0           activation_28[0][0]              
__________________________________________________________________________________________________
dense_1 (Dense)                 (None, 1)            104         global_average_pooling2d_1[0][0] 
==================================================================================================
Total params: 205,672
Trainable params: 201,928
Non-trainable params: 3,744
__________________________________________________________________________________________________
Train on 31872 samples, validate on 7968 samples
Epoch 1/5
 - 215s - loss: 0.6807 - acc: 0.7620 - val_loss: 0.6861 - val_acc: 0.7454
…
Depth:  34  Growth_rate:  30  lr:  0.0002  nb_filter:  16  dropout:  0.2498540016669627
Epochs  7  batch_size:  8  es_patience:  5  lr_patience:  3
dense_block  4  reduction_:  0.5  bottleneck:  True
------------------------       end of configs        -------------------------
__________________________________________________________________________________________________
Layer (type)                    Output Shape         Param #     Connected to                     
==================================================================================================
input_1 (InputLayer)            (None, 2, 96, 96)    0                                            
__________________________________________________________________________________________________
initial_conv2D (Conv2D)         (None, 16, 96, 96)   288         input_1[0][0]                    
__________________________________________________________________________________________________
dense_0_0_bn (BatchNormalizatio (None, 16, 96, 96)   64          initial_conv2D[0][0]             
__________________________________________________________________________________________________
activation_1 (Activation)       (None, 16, 96, 96)   0           dense_0_0_bn[0][0]               
__________________________________________________________________________________________________
dense_0_0_bottleneck_conv2D (Co (None, 120, 96, 96)  1920        activation_1[0][0]               
__________________________________________________________________________________________________
dense_0_0_bottleneck_bn (BatchN (None, 120, 96, 96)  480         dense_0_0_bottleneck_conv2D[0][0]
__________________________________________________________________________________________________
activation_2 (Activation)       (None, 120, 96, 96)  0           dense_0_0_bottleneck_bn[0][0]    
__________________________________________________________________________________________________
dense_0_0_conv2D (Conv2D)       (None, 30, 96, 96)   32400       activation_2[0][0]               
__________________________________________________________________________________________________
dropout_1 (Dropout)             (None, 30, 96, 96)   0           dense_0_0_conv2D[0][0]           
__________________________________________________________________________________________________
concatenate_1 (Concatenate)     (None, 46, 96, 96)   0           initial_conv2D[0][0]             
                                                                 dropout_1[0][0]                  
__________________________________________________________________________________________________
dense_0_1_bn (BatchNormalizatio (None, 46, 96, 96)   184         concatenate_1[0][0]              
__________________________________________________________________________________________________
activation_3 (Activation)       (None, 46, 96, 96)   0           dense_0_1_bn[0][0]               
__________________________________________________________________________________________________
dense_0_1_bottleneck_conv2D (Co (None, 120, 96, 96)  5520        activation_3[0][0]               
__________________________________________________________________________________________________
dense_0_1_bottleneck_bn (BatchN (None, 120, 96, 96)  480         dense_0_1_bottleneck_conv2D[0][0]
__________________________________________________________________________________________________
activation_4 (Activation)       (None, 120, 96, 96)  0           dense_0_1_bottleneck_bn[0][0]    
__________________________________________________________________________________________________
dense_0_1_conv2D (Conv2D)       (None, 30, 96, 96)   32400       activation_4[0][0]               
__________________________________________________________________________________________________
dropout_2 (Dropout)             (None, 30, 96, 96)   0           dense_0_1_conv2D[0][0]           
__________________________________________________________________________________________________
concatenate_2 (Concatenate)     (None, 76, 96, 96)   0           concatenate_1[0][0]              
                                                                 dropout_2[0][0]                  
__________________________________________________________________________________________________
dense_0_2_bn (BatchNormalizatio (None, 76, 96, 96)   304         concatenate_2[0][0]              
__________________________________________________________________________________________________
activation_5 (Activation)       (None, 76, 96, 96)   0           dense_0_2_bn[0][0]               
__________________________________________________________________________________________________
dense_0_2_bottleneck_conv2D (Co (None, 120, 96, 96)  9120        activation_5[0][0]               
__________________________________________________________________________________________________
dense_0_2_bottleneck_bn (BatchN (None, 120, 96, 96)  480         dense_0_2_bottleneck_conv2D[0][0]
__________________________________________________________________________________________________
activation_6 (Activation)       (None, 120, 96, 96)  0           dense_0_2_bottleneck_bn[0][0]    
__________________________________________________________________________________________________
dense_0_2_conv2D (Conv2D)       (None, 30, 96, 96)   32400       activation_6[0][0]               
__________________________________________________________________________________________________
dropout_3 (Dropout)             (None, 30, 96, 96)   0           dense_0_2_conv2D[0][0]           
__________________________________________________________________________________________________
concatenate_3 (Concatenate)     (None, 106, 96, 96)  0           concatenate_2[0][0]              
                                                                 dropout_3[0][0]                  
__________________________________________________________________________________________________
dense_0_3_bn (BatchNormalizatio (None, 106, 96, 96)  424         concatenate_3[0][0]              
__________________________________________________________________________________________________
activation_7 (Activation)       (None, 106, 96, 96)  0           dense_0_3_bn[0][0]               
__________________________________________________________________________________________________
dense_0_3_bottleneck_conv2D (Co (None, 120, 96, 96)  12720       activation_7[0][0]               
__________________________________________________________________________________________________
dense_0_3_bottleneck_bn (BatchN (None, 120, 96, 96)  480         dense_0_3_bottleneck_conv2D[0][0]
__________________________________________________________________________________________________
activation_8 (Activation)       (None, 120, 96, 96)  0           dense_0_3_bottleneck_bn[0][0]    
__________________________________________________________________________________________________
dense_0_3_conv2D (Conv2D)       (None, 30, 96, 96)   32400       activation_8[0][0]               
__________________________________________________________________________________________________
dropout_4 (Dropout)             (None, 30, 96, 96)   0           dense_0_3_conv2D[0][0]           
__________________________________________________________________________________________________
concatenate_4 (Concatenate)     (None, 136, 96, 96)  0           concatenate_3[0][0]              
                                                                 dropout_4[0][0]                  
__________________________________________________________________________________________________
dense_0_4_bn (BatchNormalizatio (None, 136, 96, 96)  544         concatenate_4[0][0]              
__________________________________________________________________________________________________
activation_9 (Activation)       (None, 136, 96, 96)  0           dense_0_4_bn[0][0]               
__________________________________________________________________________________________________
dense_0_4_bottleneck_conv2D (Co (None, 120, 96, 96)  16320       activation_9[0][0]               
__________________________________________________________________________________________________
dense_0_4_bottleneck_bn (BatchN (None, 120, 96, 96)  480         dense_0_4_bottleneck_conv2D[0][0]
__________________________________________________________________________________________________
activation_10 (Activation)      (None, 120, 96, 96)  0           dense_0_4_bottleneck_bn[0][0]    
__________________________________________________________________________________________________
dense_0_4_conv2D (Conv2D)       (None, 30, 96, 96)   32400       activation_10[0][0]              
__________________________________________________________________________________________________
dropout_5 (Dropout)             (None, 30, 96, 96)   0           dense_0_4_conv2D[0][0]           
__________________________________________________________________________________________________
concatenate_5 (Concatenate)     (None, 166, 96, 96)  0           concatenate_4[0][0]              
                                                                 dropout_5[0][0]                  
__________________________________________________________________________________________________
tr_0_bn (BatchNormalization)    (None, 166, 96, 96)  664         concatenate_5[0][0]              
__________________________________________________________________________________________________
activation_11 (Activation)      (None, 166, 96, 96)  0           tr_0_bn[0][0]                    
__________________________________________________________________________________________________
tr_0_conv2D (Conv2D)            (None, 83, 96, 96)   13778       activation_11[0][0]              
__________________________________________________________________________________________________
average_pooling2d_1 (AveragePoo (None, 83, 48, 48)   0           tr_0_conv2D[0][0]                
__________________________________________________________________________________________________
dense_1_0_bn (BatchNormalizatio (None, 83, 48, 48)   332         average_pooling2d_1[0][0]        
__________________________________________________________________________________________________
activation_12 (Activation)      (None, 83, 48, 48)   0           dense_1_0_bn[0][0]               
__________________________________________________________________________________________________
dense_1_0_bottleneck_conv2D (Co (None, 120, 48, 48)  9960        activation_12[0][0]              
__________________________________________________________________________________________________
dense_1_0_bottleneck_bn (BatchN (None, 120, 48, 48)  480         dense_1_0_bottleneck_conv2D[0][0]
__________________________________________________________________________________________________
activation_13 (Activation)      (None, 120, 48, 48)  0           dense_1_0_bottleneck_bn[0][0]    
__________________________________________________________________________________________________
dense_1_0_conv2D (Conv2D)       (None, 30, 48, 48)   32400       activation_13[0][0]              
__________________________________________________________________________________________________
dropout_6 (Dropout)             (None, 30, 48, 48)   0           dense_1_0_conv2D[0][0]           
__________________________________________________________________________________________________
concatenate_6 (Concatenate)     (None, 113, 48, 48)  0           average_pooling2d_1[0][0]        
                                                                 dropout_6[0][0]                  
__________________________________________________________________________________________________
dense_1_1_bn (BatchNormalizatio (None, 113, 48, 48)  452         concatenate_6[0][0]              
__________________________________________________________________________________________________
activation_14 (Activation)      (None, 113, 48, 48)  0           dense_1_1_bn[0][0]               
__________________________________________________________________________________________________
dense_1_1_bottleneck_conv2D (Co (None, 120, 48, 48)  13560       activation_14[0][0]              
__________________________________________________________________________________________________
dense_1_1_bottleneck_bn (BatchN (None, 120, 48, 48)  480         dense_1_1_bottleneck_conv2D[0][0]
__________________________________________________________________________________________________
activation_15 (Activation)      (None, 120, 48, 48)  0           dense_1_1_bottleneck_bn[0][0]    
__________________________________________________________________________________________________
dense_1_1_conv2D (Conv2D)       (None, 30, 48, 48)   32400       activation_15[0][0]              
__________________________________________________________________________________________________
dropout_7 (Dropout)             (None, 30, 48, 48)   0           dense_1_1_conv2D[0][0]           
__________________________________________________________________________________________________
concatenate_7 (Concatenate)     (None, 143, 48, 48)  0           concatenate_6[0][0]              
                                                                 dropout_7[0][0]                  
__________________________________________________________________________________________________
dense_1_2_bn (BatchNormalizatio (None, 143, 48, 48)  572         concatenate_7[0][0]              
__________________________________________________________________________________________________
activation_16 (Activation)      (None, 143, 48, 48)  0           dense_1_2_bn[0][0]               
__________________________________________________________________________________________________
dense_1_2_bottleneck_conv2D (Co (None, 120, 48, 48)  17160       activation_16[0][0]              
__________________________________________________________________________________________________
dense_1_2_bottleneck_bn (BatchN (None, 120, 48, 48)  480         dense_1_2_bottleneck_conv2D[0][0]
__________________________________________________________________________________________________
activation_17 (Activation)      (None, 120, 48, 48)  0           dense_1_2_bottleneck_bn[0][0]    
__________________________________________________________________________________________________
dense_1_2_conv2D (Conv2D)       (None, 30, 48, 48)   32400       activation_17[0][0]              
__________________________________________________________________________________________________
dropout_8 (Dropout)             (None, 30, 48, 48)   0           dense_1_2_conv2D[0][0]           
__________________________________________________________________________________________________
concatenate_8 (Concatenate)     (None, 173, 48, 48)  0           concatenate_7[0][0]              
                                                                 dropout_8[0][0]                  
__________________________________________________________________________________________________
dense_1_3_bn (BatchNormalizatio (None, 173, 48, 48)  692         concatenate_8[0][0]              
__________________________________________________________________________________________________
activation_18 (Activation)      (None, 173, 48, 48)  0           dense_1_3_bn[0][0]               
__________________________________________________________________________________________________
dense_1_3_bottleneck_conv2D (Co (None, 120, 48, 48)  20760       activation_18[0][0]              
__________________________________________________________________________________________________
dense_1_3_bottleneck_bn (BatchN (None, 120, 48, 48)  480         dense_1_3_bottleneck_conv2D[0][0]
__________________________________________________________________________________________________
activation_19 (Activation)      (None, 120, 48, 48)  0           dense_1_3_bottleneck_bn[0][0]    
__________________________________________________________________________________________________
dense_1_3_conv2D (Conv2D)       (None, 30, 48, 48)   32400       activation_19[0][0]              
__________________________________________________________________________________________________
dropout_9 (Dropout)             (None, 30, 48, 48)   0           dense_1_3_conv2D[0][0]           
__________________________________________________________________________________________________
concatenate_9 (Concatenate)     (None, 203, 48, 48)  0           concatenate_8[0][0]              
                                                                 dropout_9[0][0]                  
__________________________________________________________________________________________________
dense_1_4_bn (BatchNormalizatio (None, 203, 48, 48)  812         concatenate_9[0][0]              
__________________________________________________________________________________________________
activation_20 (Activation)      (None, 203, 48, 48)  0           dense_1_4_bn[0][0]               
__________________________________________________________________________________________________
dense_1_4_bottleneck_conv2D (Co (None, 120, 48, 48)  24360       activation_20[0][0]              
__________________________________________________________________________________________________
dense_1_4_bottleneck_bn (BatchN (None, 120, 48, 48)  480         dense_1_4_bottleneck_conv2D[0][0]
__________________________________________________________________________________________________
activation_21 (Activation)      (None, 120, 48, 48)  0           dense_1_4_bottleneck_bn[0][0]    
__________________________________________________________________________________________________
dense_1_4_conv2D (Conv2D)       (None, 30, 48, 48)   32400       activation_21[0][0]              
__________________________________________________________________________________________________
dropout_10 (Dropout)            (None, 30, 48, 48)   0           dense_1_4_conv2D[0][0]           
__________________________________________________________________________________________________
concatenate_10 (Concatenate)    (None, 233, 48, 48)  0           concatenate_9[0][0]              
                                                                 dropout_10[0][0]                 
__________________________________________________________________________________________________
tr_1_bn (BatchNormalization)    (None, 233, 48, 48)  932         concatenate_10[0][0]             
__________________________________________________________________________________________________
activation_22 (Activation)      (None, 233, 48, 48)  0           tr_1_bn[0][0]                    
__________________________________________________________________________________________________
tr_1_conv2D (Conv2D)            (None, 116, 48, 48)  27028       activation_22[0][0]              
__________________________________________________________________________________________________
average_pooling2d_2 (AveragePoo (None, 116, 24, 24)  0           tr_1_conv2D[0][0]                
__________________________________________________________________________________________________
dense_2_0_bn (BatchNormalizatio (None, 116, 24, 24)  464         average_pooling2d_2[0][0]        
__________________________________________________________________________________________________
activation_23 (Activation)      (None, 116, 24, 24)  0           dense_2_0_bn[0][0]               
__________________________________________________________________________________________________
dense_2_0_bottleneck_conv2D (Co (None, 120, 24, 24)  13920       activation_23[0][0]              
__________________________________________________________________________________________________
dense_2_0_bottleneck_bn (BatchN (None, 120, 24, 24)  480         dense_2_0_bottleneck_conv2D[0][0]
__________________________________________________________________________________________________
activation_24 (Activation)      (None, 120, 24, 24)  0           dense_2_0_bottleneck_bn[0][0]    
__________________________________________________________________________________________________
dense_2_0_conv2D (Conv2D)       (None, 30, 24, 24)   32400       activation_24[0][0]              
__________________________________________________________________________________________________
dropout_11 (Dropout)            (None, 30, 24, 24)   0           dense_2_0_conv2D[0][0]           
__________________________________________________________________________________________________
concatenate_11 (Concatenate)    (None, 146, 24, 24)  0           average_pooling2d_2[0][0]        
                                                                 dropout_11[0][0]                 
__________________________________________________________________________________________________
dense_2_1_bn (BatchNormalizatio (None, 146, 24, 24)  584         concatenate_11[0][0]             
__________________________________________________________________________________________________
activation_25 (Activation)      (None, 146, 24, 24)  0           dense_2_1_bn[0][0]               
__________________________________________________________________________________________________
dense_2_1_bottleneck_conv2D (Co (None, 120, 24, 24)  17520       activation_25[0][0]              
__________________________________________________________________________________________________
dense_2_1_bottleneck_bn (BatchN (None, 120, 24, 24)  480         dense_2_1_bottleneck_conv2D[0][0]
__________________________________________________________________________________________________
activation_26 (Activation)      (None, 120, 24, 24)  0           dense_2_1_bottleneck_bn[0][0]    
__________________________________________________________________________________________________
dense_2_1_conv2D (Conv2D)       (None, 30, 24, 24)   32400       activation_26[0][0]              
__________________________________________________________________________________________________
dropout_12 (Dropout)            (None, 30, 24, 24)   0           dense_2_1_conv2D[0][0]           
__________________________________________________________________________________________________
concatenate_12 (Concatenate)    (None, 176, 24, 24)  0           concatenate_11[0][0]             
                                                                 dropout_12[0][0]                 
__________________________________________________________________________________________________
dense_2_2_bn (BatchNormalizatio (None, 176, 24, 24)  704         concatenate_12[0][0]             
__________________________________________________________________________________________________
activation_27 (Activation)      (None, 176, 24, 24)  0           dense_2_2_bn[0][0]               
__________________________________________________________________________________________________
dense_2_2_bottleneck_conv2D (Co (None, 120, 24, 24)  21120       activation_27[0][0]              
__________________________________________________________________________________________________
dense_2_2_bottleneck_bn (BatchN (None, 120, 24, 24)  480         dense_2_2_bottleneck_conv2D[0][0]
__________________________________________________________________________________________________
activation_28 (Activation)      (None, 120, 24, 24)  0           dense_2_2_bottleneck_bn[0][0]    
__________________________________________________________________________________________________
dense_2_2_conv2D (Conv2D)       (None, 30, 24, 24)   32400       activation_28[0][0]              
__________________________________________________________________________________________________
dropout_13 (Dropout)            (None, 30, 24, 24)   0           dense_2_2_conv2D[0][0]           
__________________________________________________________________________________________________
concatenate_13 (Concatenate)    (None, 206, 24, 24)  0           concatenate_12[0][0]             
                                                                 dropout_13[0][0]                 
__________________________________________________________________________________________________
dense_2_3_bn (BatchNormalizatio (None, 206, 24, 24)  824         concatenate_13[0][0]             
__________________________________________________________________________________________________
activation_29 (Activation)      (None, 206, 24, 24)  0           dense_2_3_bn[0][0]               
__________________________________________________________________________________________________
dense_2_3_bottleneck_conv2D (Co (None, 120, 24, 24)  24720       activation_29[0][0]              
__________________________________________________________________________________________________
dense_2_3_bottleneck_bn (BatchN (None, 120, 24, 24)  480         dense_2_3_bottleneck_conv2D[0][0]
__________________________________________________________________________________________________
activation_30 (Activation)      (None, 120, 24, 24)  0           dense_2_3_bottleneck_bn[0][0]    
__________________________________________________________________________________________________
dense_2_3_conv2D (Conv2D)       (None, 30, 24, 24)   32400       activation_30[0][0]              
__________________________________________________________________________________________________
dropout_14 (Dropout)            (None, 30, 24, 24)   0           dense_2_3_conv2D[0][0]           
__________________________________________________________________________________________________
concatenate_14 (Concatenate)    (None, 236, 24, 24)  0           concatenate_13[0][0]             
                                                                 dropout_14[0][0]                 
__________________________________________________________________________________________________
dense_2_4_bn (BatchNormalizatio (None, 236, 24, 24)  944         concatenate_14[0][0]             
__________________________________________________________________________________________________
activation_31 (Activation)      (None, 236, 24, 24)  0           dense_2_4_bn[0][0]               
__________________________________________________________________________________________________
dense_2_4_bottleneck_conv2D (Co (None, 120, 24, 24)  28320       activation_31[0][0]              
__________________________________________________________________________________________________
dense_2_4_bottleneck_bn (BatchN (None, 120, 24, 24)  480         dense_2_4_bottleneck_conv2D[0][0]
__________________________________________________________________________________________________
activation_32 (Activation)      (None, 120, 24, 24)  0           dense_2_4_bottleneck_bn[0][0]    
__________________________________________________________________________________________________
dense_2_4_conv2D (Conv2D)       (None, 30, 24, 24)   32400       activation_32[0][0]              
__________________________________________________________________________________________________
dropout_15 (Dropout)            (None, 30, 24, 24)   0           dense_2_4_conv2D[0][0]           
__________________________________________________________________________________________________
concatenate_15 (Concatenate)    (None, 266, 24, 24)  0           concatenate_14[0][0]             
                                                                 dropout_15[0][0]                 
__________________________________________________________________________________________________
tr_2_bn (BatchNormalization)    (None, 266, 24, 24)  1064        concatenate_15[0][0]             
__________________________________________________________________________________________________
activation_33 (Activation)      (None, 266, 24, 24)  0           tr_2_bn[0][0]                    
__________________________________________________________________________________________________
tr_2_conv2D (Conv2D)            (None, 133, 24, 24)  35378       activation_33[0][0]              
__________________________________________________________________________________________________
average_pooling2d_3 (AveragePoo (None, 133, 12, 12)  0           tr_2_conv2D[0][0]                
__________________________________________________________________________________________________
dense_3_0_bn (BatchNormalizatio (None, 133, 12, 12)  532         average_pooling2d_3[0][0]        
__________________________________________________________________________________________________
activation_34 (Activation)      (None, 133, 12, 12)  0           dense_3_0_bn[0][0]               
__________________________________________________________________________________________________
dense_3_0_bottleneck_conv2D (Co (None, 120, 12, 12)  15960       activation_34[0][0]              
__________________________________________________________________________________________________
dense_3_0_bottleneck_bn (BatchN (None, 120, 12, 12)  480         dense_3_0_bottleneck_conv2D[0][0]
__________________________________________________________________________________________________
activation_35 (Activation)      (None, 120, 12, 12)  0           dense_3_0_bottleneck_bn[0][0]    
__________________________________________________________________________________________________
dense_3_0_conv2D (Conv2D)       (None, 30, 12, 12)   32400       activation_35[0][0]              
__________________________________________________________________________________________________
dropout_16 (Dropout)            (None, 30, 12, 12)   0           dense_3_0_conv2D[0][0]           
__________________________________________________________________________________________________
concatenate_16 (Concatenate)    (None, 163, 12, 12)  0           average_pooling2d_3[0][0]        
                                                                 dropout_16[0][0]                 
__________________________________________________________________________________________________
dense_3_1_bn (BatchNormalizatio (None, 163, 12, 12)  652         concatenate_16[0][0]             
__________________________________________________________________________________________________
activation_36 (Activation)      (None, 163, 12, 12)  0           dense_3_1_bn[0][0]               
__________________________________________________________________________________________________
dense_3_1_bottleneck_conv2D (Co (None, 120, 12, 12)  19560       activation_36[0][0]              
__________________________________________________________________________________________________
dense_3_1_bottleneck_bn (BatchN (None, 120, 12, 12)  480         dense_3_1_bottleneck_conv2D[0][0]
__________________________________________________________________________________________________
activation_37 (Activation)      (None, 120, 12, 12)  0           dense_3_1_bottleneck_bn[0][0]    
__________________________________________________________________________________________________
dense_3_1_conv2D (Conv2D)       (None, 30, 12, 12)   32400       activation_37[0][0]              
__________________________________________________________________________________________________
dropout_17 (Dropout)            (None, 30, 12, 12)   0           dense_3_1_conv2D[0][0]           
__________________________________________________________________________________________________
concatenate_17 (Concatenate)    (None, 193, 12, 12)  0           concatenate_16[0][0]             
                                                                 dropout_17[0][0]                 
__________________________________________________________________________________________________
dense_3_2_bn (BatchNormalizatio (None, 193, 12, 12)  772         concatenate_17[0][0]             
__________________________________________________________________________________________________
activation_38 (Activation)      (None, 193, 12, 12)  0           dense_3_2_bn[0][0]               
__________________________________________________________________________________________________
dense_3_2_bottleneck_conv2D (Co (None, 120, 12, 12)  23160       activation_38[0][0]              
__________________________________________________________________________________________________
dense_3_2_bottleneck_bn (BatchN (None, 120, 12, 12)  480         dense_3_2_bottleneck_conv2D[0][0]
__________________________________________________________________________________________________
activation_39 (Activation)      (None, 120, 12, 12)  0           dense_3_2_bottleneck_bn[0][0]    
__________________________________________________________________________________________________
dense_3_2_conv2D (Conv2D)       (None, 30, 12, 12)   32400       activation_39[0][0]              
__________________________________________________________________________________________________
dropout_18 (Dropout)            (None, 30, 12, 12)   0           dense_3_2_conv2D[0][0]           
__________________________________________________________________________________________________
concatenate_18 (Concatenate)    (None, 223, 12, 12)  0           concatenate_17[0][0]             
                                                                 dropout_18[0][0]                 
__________________________________________________________________________________________________
dense_3_3_bn (BatchNormalizatio (None, 223, 12, 12)  892         concatenate_18[0][0]             
__________________________________________________________________________________________________
activation_40 (Activation)      (None, 223, 12, 12)  0           dense_3_3_bn[0][0]               
__________________________________________________________________________________________________
dense_3_3_bottleneck_conv2D (Co (None, 120, 12, 12)  26760       activation_40[0][0]              
__________________________________________________________________________________________________
dense_3_3_bottleneck_bn (BatchN (None, 120, 12, 12)  480         dense_3_3_bottleneck_conv2D[0][0]
__________________________________________________________________________________________________
activation_41 (Activation)      (None, 120, 12, 12)  0           dense_3_3_bottleneck_bn[0][0]    
__________________________________________________________________________________________________
dense_3_3_conv2D (Conv2D)       (None, 30, 12, 12)   32400       activation_41[0][0]              
__________________________________________________________________________________________________
dropout_19 (Dropout)            (None, 30, 12, 12)   0           dense_3_3_conv2D[0][0]           
__________________________________________________________________________________________________
concatenate_19 (Concatenate)    (None, 253, 12, 12)  0           concatenate_18[0][0]             
                                                                 dropout_19[0][0]                 
__________________________________________________________________________________________________
dense_3_4_bn (BatchNormalizatio (None, 253, 12, 12)  1012        concatenate_19[0][0]             
__________________________________________________________________________________________________
activation_42 (Activation)      (None, 253, 12, 12)  0           dense_3_4_bn[0][0]               
__________________________________________________________________________________________________
dense_3_4_bottleneck_conv2D (Co (None, 120, 12, 12)  30360       activation_42[0][0]              
__________________________________________________________________________________________________
dense_3_4_bottleneck_bn (BatchN (None, 120, 12, 12)  480         dense_3_4_bottleneck_conv2D[0][0]
__________________________________________________________________________________________________
activation_43 (Activation)      (None, 120, 12, 12)  0           dense_3_4_bottleneck_bn[0][0]    
__________________________________________________________________________________________________
dense_3_4_conv2D (Conv2D)       (None, 30, 12, 12)   32400       activation_43[0][0]              
__________________________________________________________________________________________________
dropout_20 (Dropout)            (None, 30, 12, 12)   0           dense_3_4_conv2D[0][0]           
__________________________________________________________________________________________________
concatenate_20 (Concatenate)    (None, 283, 12, 12)  0           concatenate_19[0][0]             
                                                                 dropout_20[0][0]                 
__________________________________________________________________________________________________
final_bn (BatchNormalization)   (None, 283, 12, 12)  1132        concatenate_20[0][0]             
__________________________________________________________________________________________________
activation_44 (Activation)      (None, 283, 12, 12)  0           final_bn[0][0]                   
__________________________________________________________________________________________________
global_average_pooling2d_1 (Glo (None, 283)          0           activation_44[0][0]              
__________________________________________________________________________________________________
dense_1 (Dense)                 (None, 1)            284         global_average_pooling2d_1[0][0] 
==================================================================================================
Total params: 1,102,708
Trainable params: 1,090,132
Non-trainable params: 12,576
__________________________________________________________________________________________________
Train on 31872 samples, validate on 7968 samples
Epoch 1/7
 - 319s - loss: 0.8751 - acc: 0.7776 - val_loss: 0.7509 - val_acc: 0.8128
…
Depth:  25  Growth_rate:  30  lr:  0.0005  nb_filter:  16  dropout:  0.39713376369586395
Epochs  7  batch_size:  8  es_patience:  5  lr_patience:  3
dense_block  4  reduction_:  0.5  bottleneck:  True
------------------------       end of configs        -------------------------
__________________________________________________________________________________________________
Layer (type)                    Output Shape         Param #     Connected to                     
==================================================================================================
input_1 (InputLayer)            (None, 2, 96, 96)    0                                            
__________________________________________________________________________________________________
initial_conv2D (Conv2D)         (None, 16, 96, 96)   288         input_1[0][0]                    
__________________________________________________________________________________________________
dense_0_0_bn (BatchNormalizatio (None, 16, 96, 96)   64          initial_conv2D[0][0]             
__________________________________________________________________________________________________
activation_1 (Activation)       (None, 16, 96, 96)   0           dense_0_0_bn[0][0]               
__________________________________________________________________________________________________
dense_0_0_bottleneck_conv2D (Co (None, 120, 96, 96)  1920        activation_1[0][0]               
__________________________________________________________________________________________________
dense_0_0_bottleneck_bn (BatchN (None, 120, 96, 96)  480         dense_0_0_bottleneck_conv2D[0][0]
__________________________________________________________________________________________________
activation_2 (Activation)       (None, 120, 96, 96)  0           dense_0_0_bottleneck_bn[0][0]    
__________________________________________________________________________________________________
dense_0_0_conv2D (Conv2D)       (None, 30, 96, 96)   32400       activation_2[0][0]               
__________________________________________________________________________________________________
dropout_1 (Dropout)             (None, 30, 96, 96)   0           dense_0_0_conv2D[0][0]           
__________________________________________________________________________________________________
concatenate_1 (Concatenate)     (None, 46, 96, 96)   0           initial_conv2D[0][0]             
                                                                 dropout_1[0][0]                  
__________________________________________________________________________________________________
dense_0_1_bn (BatchNormalizatio (None, 46, 96, 96)   184         concatenate_1[0][0]              
__________________________________________________________________________________________________
activation_3 (Activation)       (None, 46, 96, 96)   0           dense_0_1_bn[0][0]               
__________________________________________________________________________________________________
dense_0_1_bottleneck_conv2D (Co (None, 120, 96, 96)  5520        activation_3[0][0]               
__________________________________________________________________________________________________
dense_0_1_bottleneck_bn (BatchN (None, 120, 96, 96)  480         dense_0_1_bottleneck_conv2D[0][0]
__________________________________________________________________________________________________
activation_4 (Activation)       (None, 120, 96, 96)  0           dense_0_1_bottleneck_bn[0][0]    
__________________________________________________________________________________________________
dense_0_1_conv2D (Conv2D)       (None, 30, 96, 96)   32400       activation_4[0][0]               
__________________________________________________________________________________________________
dropout_2 (Dropout)             (None, 30, 96, 96)   0           dense_0_1_conv2D[0][0]           
__________________________________________________________________________________________________
concatenate_2 (Concatenate)     (None, 76, 96, 96)   0           concatenate_1[0][0]              
                                                                 dropout_2[0][0]                  
__________________________________________________________________________________________________
dense_0_2_bn (BatchNormalizatio (None, 76, 96, 96)   304         concatenate_2[0][0]              
__________________________________________________________________________________________________
activation_5 (Activation)       (None, 76, 96, 96)   0           dense_0_2_bn[0][0]               
__________________________________________________________________________________________________
dense_0_2_bottleneck_conv2D (Co (None, 120, 96, 96)  9120        activation_5[0][0]               
__________________________________________________________________________________________________
dense_0_2_bottleneck_bn (BatchN (None, 120, 96, 96)  480         dense_0_2_bottleneck_conv2D[0][0]
__________________________________________________________________________________________________
activation_6 (Activation)       (None, 120, 96, 96)  0           dense_0_2_bottleneck_bn[0][0]    
__________________________________________________________________________________________________
dense_0_2_conv2D (Conv2D)       (None, 30, 96, 96)   32400       activation_6[0][0]               
__________________________________________________________________________________________________
dropout_3 (Dropout)             (None, 30, 96, 96)   0           dense_0_2_conv2D[0][0]           
__________________________________________________________________________________________________
concatenate_3 (Concatenate)     (None, 106, 96, 96)  0           concatenate_2[0][0]              
                                                                 dropout_3[0][0]                  
__________________________________________________________________________________________________
tr_0_bn (BatchNormalization)    (None, 106, 96, 96)  424         concatenate_3[0][0]              
__________________________________________________________________________________________________
activation_7 (Activation)       (None, 106, 96, 96)  0           tr_0_bn[0][0]                    
__________________________________________________________________________________________________
tr_0_conv2D (Conv2D)            (None, 53, 96, 96)   5618        activation_7[0][0]               
__________________________________________________________________________________________________
average_pooling2d_1 (AveragePoo (None, 53, 48, 48)   0           tr_0_conv2D[0][0]                
__________________________________________________________________________________________________
dense_1_0_bn (BatchNormalizatio (None, 53, 48, 48)   212         average_pooling2d_1[0][0]        
__________________________________________________________________________________________________
activation_8 (Activation)       (None, 53, 48, 48)   0           dense_1_0_bn[0][0]               
__________________________________________________________________________________________________
dense_1_0_bottleneck_conv2D (Co (None, 120, 48, 48)  6360        activation_8[0][0]               
__________________________________________________________________________________________________
dense_1_0_bottleneck_bn (BatchN (None, 120, 48, 48)  480         dense_1_0_bottleneck_conv2D[0][0]
__________________________________________________________________________________________________
activation_9 (Activation)       (None, 120, 48, 48)  0           dense_1_0_bottleneck_bn[0][0]    
__________________________________________________________________________________________________
dense_1_0_conv2D (Conv2D)       (None, 30, 48, 48)   32400       activation_9[0][0]               
__________________________________________________________________________________________________
dropout_4 (Dropout)             (None, 30, 48, 48)   0           dense_1_0_conv2D[0][0]           
__________________________________________________________________________________________________
concatenate_4 (Concatenate)     (None, 83, 48, 48)   0           average_pooling2d_1[0][0]        
                                                                 dropout_4[0][0]                  
__________________________________________________________________________________________________
dense_1_1_bn (BatchNormalizatio (None, 83, 48, 48)   332         concatenate_4[0][0]              
__________________________________________________________________________________________________
activation_10 (Activation)      (None, 83, 48, 48)   0           dense_1_1_bn[0][0]               
__________________________________________________________________________________________________
dense_1_1_bottleneck_conv2D (Co (None, 120, 48, 48)  9960        activation_10[0][0]              
__________________________________________________________________________________________________
dense_1_1_bottleneck_bn (BatchN (None, 120, 48, 48)  480         dense_1_1_bottleneck_conv2D[0][0]
__________________________________________________________________________________________________
activation_11 (Activation)      (None, 120, 48, 48)  0           dense_1_1_bottleneck_bn[0][0]    
__________________________________________________________________________________________________
dense_1_1_conv2D (Conv2D)       (None, 30, 48, 48)   32400       activation_11[0][0]              
__________________________________________________________________________________________________
dropout_5 (Dropout)             (None, 30, 48, 48)   0           dense_1_1_conv2D[0][0]           
__________________________________________________________________________________________________
concatenate_5 (Concatenate)     (None, 113, 48, 48)  0           concatenate_4[0][0]              
                                                                 dropout_5[0][0]                  
__________________________________________________________________________________________________
dense_1_2_bn (BatchNormalizatio (None, 113, 48, 48)  452         concatenate_5[0][0]              
__________________________________________________________________________________________________
activation_12 (Activation)      (None, 113, 48, 48)  0           dense_1_2_bn[0][0]               
__________________________________________________________________________________________________
dense_1_2_bottleneck_conv2D (Co (None, 120, 48, 48)  13560       activation_12[0][0]              
__________________________________________________________________________________________________
dense_1_2_bottleneck_bn (BatchN (None, 120, 48, 48)  480         dense_1_2_bottleneck_conv2D[0][0]
__________________________________________________________________________________________________
activation_13 (Activation)      (None, 120, 48, 48)  0           dense_1_2_bottleneck_bn[0][0]    
__________________________________________________________________________________________________
dense_1_2_conv2D (Conv2D)       (None, 30, 48, 48)   32400       activation_13[0][0]              
__________________________________________________________________________________________________
dropout_6 (Dropout)             (None, 30, 48, 48)   0           dense_1_2_conv2D[0][0]           
__________________________________________________________________________________________________
concatenate_6 (Concatenate)     (None, 143, 48, 48)  0           concatenate_5[0][0]              
                                                                 dropout_6[0][0]                  
__________________________________________________________________________________________________
tr_1_bn (BatchNormalization)    (None, 143, 48, 48)  572         concatenate_6[0][0]              
__________________________________________________________________________________________________
activation_14 (Activation)      (None, 143, 48, 48)  0           tr_1_bn[0][0]                    
__________________________________________________________________________________________________
tr_1_conv2D (Conv2D)            (None, 71, 48, 48)   10153       activation_14[0][0]              
__________________________________________________________________________________________________
average_pooling2d_2 (AveragePoo (None, 71, 24, 24)   0           tr_1_conv2D[0][0]                
__________________________________________________________________________________________________
dense_2_0_bn (BatchNormalizatio (None, 71, 24, 24)   284         average_pooling2d_2[0][0]        
__________________________________________________________________________________________________
activation_15 (Activation)      (None, 71, 24, 24)   0           dense_2_0_bn[0][0]               
__________________________________________________________________________________________________
dense_2_0_bottleneck_conv2D (Co (None, 120, 24, 24)  8520        activation_15[0][0]              
__________________________________________________________________________________________________
dense_2_0_bottleneck_bn (BatchN (None, 120, 24, 24)  480         dense_2_0_bottleneck_conv2D[0][0]
__________________________________________________________________________________________________
activation_16 (Activation)      (None, 120, 24, 24)  0           dense_2_0_bottleneck_bn[0][0]    
__________________________________________________________________________________________________
dense_2_0_conv2D (Conv2D)       (None, 30, 24, 24)   32400       activation_16[0][0]              
__________________________________________________________________________________________________
dropout_7 (Dropout)             (None, 30, 24, 24)   0           dense_2_0_conv2D[0][0]           
__________________________________________________________________________________________________
concatenate_7 (Concatenate)     (None, 101, 24, 24)  0           average_pooling2d_2[0][0]        
                                                                 dropout_7[0][0]                  
__________________________________________________________________________________________________
dense_2_1_bn (BatchNormalizatio (None, 101, 24, 24)  404         concatenate_7[0][0]              
__________________________________________________________________________________________________
activation_17 (Activation)      (None, 101, 24, 24)  0           dense_2_1_bn[0][0]               
__________________________________________________________________________________________________
dense_2_1_bottleneck_conv2D (Co (None, 120, 24, 24)  12120       activation_17[0][0]              
__________________________________________________________________________________________________
dense_2_1_bottleneck_bn (BatchN (None, 120, 24, 24)  480         dense_2_1_bottleneck_conv2D[0][0]
__________________________________________________________________________________________________
activation_18 (Activation)      (None, 120, 24, 24)  0           dense_2_1_bottleneck_bn[0][0]    
__________________________________________________________________________________________________
dense_2_1_conv2D (Conv2D)       (None, 30, 24, 24)   32400       activation_18[0][0]              
__________________________________________________________________________________________________
dropout_8 (Dropout)             (None, 30, 24, 24)   0           dense_2_1_conv2D[0][0]           
__________________________________________________________________________________________________
concatenate_8 (Concatenate)     (None, 131, 24, 24)  0           concatenate_7[0][0]              
                                                                 dropout_8[0][0]                  
__________________________________________________________________________________________________
dense_2_2_bn (BatchNormalizatio (None, 131, 24, 24)  524         concatenate_8[0][0]              
__________________________________________________________________________________________________
activation_19 (Activation)      (None, 131, 24, 24)  0           dense_2_2_bn[0][0]               
__________________________________________________________________________________________________
dense_2_2_bottleneck_conv2D (Co (None, 120, 24, 24)  15720       activation_19[0][0]              
__________________________________________________________________________________________________
dense_2_2_bottleneck_bn (BatchN (None, 120, 24, 24)  480         dense_2_2_bottleneck_conv2D[0][0]
__________________________________________________________________________________________________
activation_20 (Activation)      (None, 120, 24, 24)  0           dense_2_2_bottleneck_bn[0][0]    
__________________________________________________________________________________________________
dense_2_2_conv2D (Conv2D)       (None, 30, 24, 24)   32400       activation_20[0][0]              
__________________________________________________________________________________________________
dropout_9 (Dropout)             (None, 30, 24, 24)   0           dense_2_2_conv2D[0][0]           
__________________________________________________________________________________________________
concatenate_9 (Concatenate)     (None, 161, 24, 24)  0           concatenate_8[0][0]              
                                                                 dropout_9[0][0]                  
__________________________________________________________________________________________________
tr_2_bn (BatchNormalization)    (None, 161, 24, 24)  644         concatenate_9[0][0]              
__________________________________________________________________________________________________
activation_21 (Activation)      (None, 161, 24, 24)  0           tr_2_bn[0][0]                    
__________________________________________________________________________________________________
tr_2_conv2D (Conv2D)            (None, 80, 24, 24)   12880       activation_21[0][0]              
__________________________________________________________________________________________________
average_pooling2d_3 (AveragePoo (None, 80, 12, 12)   0           tr_2_conv2D[0][0]                
__________________________________________________________________________________________________
dense_3_0_bn (BatchNormalizatio (None, 80, 12, 12)   320         average_pooling2d_3[0][0]        
__________________________________________________________________________________________________
activation_22 (Activation)      (None, 80, 12, 12)   0           dense_3_0_bn[0][0]               
__________________________________________________________________________________________________
dense_3_0_bottleneck_conv2D (Co (None, 120, 12, 12)  9600        activation_22[0][0]              
__________________________________________________________________________________________________
dense_3_0_bottleneck_bn (BatchN (None, 120, 12, 12)  480         dense_3_0_bottleneck_conv2D[0][0]
__________________________________________________________________________________________________
activation_23 (Activation)      (None, 120, 12, 12)  0           dense_3_0_bottleneck_bn[0][0]    
__________________________________________________________________________________________________
dense_3_0_conv2D (Conv2D)       (None, 30, 12, 12)   32400       activation_23[0][0]              
__________________________________________________________________________________________________
dropout_10 (Dropout)            (None, 30, 12, 12)   0           dense_3_0_conv2D[0][0]           
__________________________________________________________________________________________________
concatenate_10 (Concatenate)    (None, 110, 12, 12)  0           average_pooling2d_3[0][0]        
                                                                 dropout_10[0][0]                 
__________________________________________________________________________________________________
dense_3_1_bn (BatchNormalizatio (None, 110, 12, 12)  440         concatenate_10[0][0]             
__________________________________________________________________________________________________
activation_24 (Activation)      (None, 110, 12, 12)  0           dense_3_1_bn[0][0]               
__________________________________________________________________________________________________
dense_3_1_bottleneck_conv2D (Co (None, 120, 12, 12)  13200       activation_24[0][0]              
__________________________________________________________________________________________________
dense_3_1_bottleneck_bn (BatchN (None, 120, 12, 12)  480         dense_3_1_bottleneck_conv2D[0][0]
__________________________________________________________________________________________________
activation_25 (Activation)      (None, 120, 12, 12)  0           dense_3_1_bottleneck_bn[0][0]    
__________________________________________________________________________________________________
dense_3_1_conv2D (Conv2D)       (None, 30, 12, 12)   32400       activation_25[0][0]              
__________________________________________________________________________________________________
dropout_11 (Dropout)            (None, 30, 12, 12)   0           dense_3_1_conv2D[0][0]           
__________________________________________________________________________________________________
concatenate_11 (Concatenate)    (None, 140, 12, 12)  0           concatenate_10[0][0]             
                                                                 dropout_11[0][0]                 
__________________________________________________________________________________________________
dense_3_2_bn (BatchNormalizatio (None, 140, 12, 12)  560         concatenate_11[0][0]             
__________________________________________________________________________________________________
activation_26 (Activation)      (None, 140, 12, 12)  0           dense_3_2_bn[0][0]               
__________________________________________________________________________________________________
dense_3_2_bottleneck_conv2D (Co (None, 120, 12, 12)  16800       activation_26[0][0]              
__________________________________________________________________________________________________
dense_3_2_bottleneck_bn (BatchN (None, 120, 12, 12)  480         dense_3_2_bottleneck_conv2D[0][0]
__________________________________________________________________________________________________
activation_27 (Activation)      (None, 120, 12, 12)  0           dense_3_2_bottleneck_bn[0][0]    
__________________________________________________________________________________________________
dense_3_2_conv2D (Conv2D)       (None, 30, 12, 12)   32400       activation_27[0][0]              
__________________________________________________________________________________________________
dropout_12 (Dropout)            (None, 30, 12, 12)   0           dense_3_2_conv2D[0][0]           
__________________________________________________________________________________________________
concatenate_12 (Concatenate)    (None, 170, 12, 12)  0           concatenate_11[0][0]             
                                                                 dropout_12[0][0]                 
__________________________________________________________________________________________________
final_bn (BatchNormalization)   (None, 170, 12, 12)  680         concatenate_12[0][0]             
__________________________________________________________________________________________________
activation_28 (Activation)      (None, 170, 12, 12)  0           final_bn[0][0]                   
__________________________________________________________________________________________________
global_average_pooling2d_1 (Glo (None, 170)          0           activation_28[0][0]              
__________________________________________________________________________________________________
dense_1 (Dense)                 (None, 1)            171         global_average_pooling2d_1[0][0] 
==================================================================================================
Total params: 552,470
Trainable params: 546,390
Non-trainable params: 6,080
…
dense_0_3_bn (BatchNormalizatio (None, 106, 96, 96)  424         concatenate_3[0][0]              
__________________________________________________________________________________________________
activation_7 (Activation)       (None, 106, 96, 96)  0           dense_0_3_bn[0][0]               
__________________________________________________________________________________________________
dense_0_3_bottleneck_conv2D (Co (None, 120, 96, 96)  12720       activation_7[0][0]               
__________________________________________________________________________________________________
dense_0_3_bottleneck_bn (BatchN (None, 120, 96, 96)  480         dense_0_3_bottleneck_conv2D[0][0]
__________________________________________________________________________________________________
activation_8 (Activation)       (None, 120, 96, 96)  0           dense_0_3_bottleneck_bn[0][0]    
__________________________________________________________________________________________________
dense_0_3_conv2D (Conv2D)       (None, 30, 96, 96)   32400       activation_8[0][0]               
__________________________________________________________________________________________________
dropout_4 (Dropout)             (None, 30, 96, 96)   0           dense_0_3_conv2D[0][0]           
__________________________________________________________________________________________________
concatenate_4 (Concatenate)     (None, 136, 96, 96)  0           concatenate_3[0][0]              
                                                                 dropout_4[0][0]                  
__________________________________________________________________________________________________
tr_0_bn (BatchNormalization)    (None, 136, 96, 96)  544         concatenate_4[0][0]              
__________________________________________________________________________________________________
activation_9 (Activation)       (None, 136, 96, 96)  0           tr_0_bn[0][0]                    
__________________________________________________________________________________________________
tr_0_conv2D (Conv2D)            (None, 68, 96, 96)   9248        activation_9[0][0]               
__________________________________________________________________________________________________
average_pooling2d_1 (AveragePoo (None, 68, 48, 48)   0           tr_0_conv2D[0][0]                
__________________________________________________________________________________________________
dense_1_0_bn (BatchNormalizatio (None, 68, 48, 48)   272         average_pooling2d_1[0][0]        
__________________________________________________________________________________________________
activation_10 (Activation)      (None, 68, 48, 48)   0           dense_1_0_bn[0][0]               
__________________________________________________________________________________________________
dense_1_0_bottleneck_conv2D (Co (None, 120, 48, 48)  8160        activation_10[0][0]              
__________________________________________________________________________________________________
dense_1_0_bottleneck_bn (BatchN (None, 120, 48, 48)  480         dense_1_0_bottleneck_conv2D[0][0]
__________________________________________________________________________________________________
activation_11 (Activation)      (None, 120, 48, 48)  0           dense_1_0_bottleneck_bn[0][0]    
__________________________________________________________________________________________________
dense_1_0_conv2D (Conv2D)       (None, 30, 48, 48)   32400       activation_11[0][0]              
__________________________________________________________________________________________________
dropout_5 (Dropout)             (None, 30, 48, 48)   0           dense_1_0_conv2D[0][0]           
__________________________________________________________________________________________________
concatenate_5 (Concatenate)     (None, 98, 48, 48)   0           average_pooling2d_1[0][0]        
                                                                 dropout_5[0][0]                  
__________________________________________________________________________________________________
dense_1_1_bn (BatchNormalizatio (None, 98, 48, 48)   392         concatenate_5[0][0]              
__________________________________________________________________________________________________
activation_12 (Activation)      (None, 98, 48, 48)   0           dense_1_1_bn[0][0]               
__________________________________________________________________________________________________
dense_1_1_bottleneck_conv2D (Co (None, 120, 48, 48)  11760       activation_12[0][0]              
__________________________________________________________________________________________________
dense_1_1_bottleneck_bn (BatchN (None, 120, 48, 48)  480         dense_1_1_bottleneck_conv2D[0][0]
__________________________________________________________________________________________________
activation_13 (Activation)      (None, 120, 48, 48)  0           dense_1_1_bottleneck_bn[0][0]    
__________________________________________________________________________________________________
dense_1_1_conv2D (Conv2D)       (None, 30, 48, 48)   32400       activation_13[0][0]              
__________________________________________________________________________________________________
dropout_6 (Dropout)             (None, 30, 48, 48)   0           dense_1_1_conv2D[0][0]           
__________________________________________________________________________________________________
concatenate_6 (Concatenate)     (None, 128, 48, 48)  0           concatenate_5[0][0]              
                                                                 dropout_6[0][0]                  
__________________________________________________________________________________________________
dense_1_2_bn (BatchNormalizatio (None, 128, 48, 48)  512         concatenate_6[0][0]              
__________________________________________________________________________________________________
activation_14 (Activation)      (None, 128, 48, 48)  0           dense_1_2_bn[0][0]               
__________________________________________________________________________________________________
dense_1_2_bottleneck_conv2D (Co (None, 120, 48, 48)  15360       activation_14[0][0]              
__________________________________________________________________________________________________
dense_1_2_bottleneck_bn (BatchN (None, 120, 48, 48)  480         dense_1_2_bottleneck_conv2D[0][0]
__________________________________________________________________________________________________
activation_15 (Activation)      (None, 120, 48, 48)  0           dense_1_2_bottleneck_bn[0][0]    
__________________________________________________________________________________________________
dense_1_2_conv2D (Conv2D)       (None, 30, 48, 48)   32400       activation_15[0][0]              
__________________________________________________________________________________________________
dropout_7 (Dropout)             (None, 30, 48, 48)   0           dense_1_2_conv2D[0][0]           
__________________________________________________________________________________________________
concatenate_7 (Concatenate)     (None, 158, 48, 48)  0           concatenate_6[0][0]              
                                                                 dropout_7[0][0]                  
__________________________________________________________________________________________________
dense_1_3_bn (BatchNormalizatio (None, 158, 48, 48)  632         concatenate_7[0][0]              
__________________________________________________________________________________________________
activation_16 (Activation)      (None, 158, 48, 48)  0           dense_1_3_bn[0][0]               
__________________________________________________________________________________________________
dense_1_3_bottleneck_conv2D (Co (None, 120, 48, 48)  18960       activation_16[0][0]              
__________________________________________________________________________________________________
dense_1_3_bottleneck_bn (BatchN (None, 120, 48, 48)  480         dense_1_3_bottleneck_conv2D[0][0]
__________________________________________________________________________________________________
activation_17 (Activation)      (None, 120, 48, 48)  0           dense_1_3_bottleneck_bn[0][0]    
__________________________________________________________________________________________________
dense_1_3_conv2D (Conv2D)       (None, 30, 48, 48)   32400       activation_17[0][0]              
__________________________________________________________________________________________________
dropout_8 (Dropout)             (None, 30, 48, 48)   0           dense_1_3_conv2D[0][0]           
__________________________________________________________________________________________________
concatenate_8 (Concatenate)     (None, 188, 48, 48)  0           concatenate_7[0][0]              
                                                                 dropout_8[0][0]                  
__________________________________________________________________________________________________
tr_1_bn (BatchNormalization)    (None, 188, 48, 48)  752         concatenate_8[0][0]              
__________________________________________________________________________________________________
activation_18 (Activation)      (None, 188, 48, 48)  0           tr_1_bn[0][0]                    
__________________________________________________________________________________________________
tr_1_conv2D (Conv2D)            (None, 94, 48, 48)   17672       activation_18[0][0]              
__________________________________________________________________________________________________
average_pooling2d_2 (AveragePoo (None, 94, 24, 24)   0           tr_1_conv2D[0][0]                
__________________________________________________________________________________________________
dense_2_0_bn (BatchNormalizatio (None, 94, 24, 24)   376         average_pooling2d_2[0][0]        
__________________________________________________________________________________________________
activation_19 (Activation)      (None, 94, 24, 24)   0           dense_2_0_bn[0][0]               
__________________________________________________________________________________________________
dense_2_0_bottleneck_conv2D (Co (None, 120, 24, 24)  11280       activation_19[0][0]              
__________________________________________________________________________________________________
dense_2_0_bottleneck_bn (BatchN (None, 120, 24, 24)  480         dense_2_0_bottleneck_conv2D[0][0]
__________________________________________________________________________________________________
activation_20 (Activation)      (None, 120, 24, 24)  0           dense_2_0_bottleneck_bn[0][0]    
__________________________________________________________________________________________________
dense_2_0_conv2D (Conv2D)       (None, 30, 24, 24)   32400       activation_20[0][0]              
__________________________________________________________________________________________________
dropout_9 (Dropout)             (None, 30, 24, 24)   0           dense_2_0_conv2D[0][0]           
__________________________________________________________________________________________________
concatenate_9 (Concatenate)     (None, 124, 24, 24)  0           average_pooling2d_2[0][0]        
                                                                 dropout_9[0][0]                  
__________________________________________________________________________________________________
dense_2_1_bn (BatchNormalizatio (None, 124, 24, 24)  496         concatenate_9[0][0]              
__________________________________________________________________________________________________
activation_21 (Activation)      (None, 124, 24, 24)  0           dense_2_1_bn[0][0]               
__________________________________________________________________________________________________
dense_2_1_bottleneck_conv2D (Co (None, 120, 24, 24)  14880       activation_21[0][0]              
__________________________________________________________________________________________________
dense_2_1_bottleneck_bn (BatchN (None, 120, 24, 24)  480         dense_2_1_bottleneck_conv2D[0][0]
__________________________________________________________________________________________________
activation_22 (Activation)      (None, 120, 24, 24)  0           dense_2_1_bottleneck_bn[0][0]    
__________________________________________________________________________________________________
dense_2_1_conv2D (Conv2D)       (None, 30, 24, 24)   32400       activation_22[0][0]              
__________________________________________________________________________________________________
dropout_10 (Dropout)            (None, 30, 24, 24)   0           dense_2_1_conv2D[0][0]           
__________________________________________________________________________________________________
concatenate_10 (Concatenate)    (None, 154, 24, 24)  0           concatenate_9[0][0]              
                                                                 dropout_10[0][0]                 
__________________________________________________________________________________________________
dense_2_2_bn (BatchNormalizatio (None, 154, 24, 24)  616         concatenate_10[0][0]             
__________________________________________________________________________________________________
activation_23 (Activation)      (None, 154, 24, 24)  0           dense_2_2_bn[0][0]               
__________________________________________________________________________________________________
dense_2_2_bottleneck_conv2D (Co (None, 120, 24, 24)  18480       activation_23[0][0]              
__________________________________________________________________________________________________
dense_2_2_bottleneck_bn (BatchN (None, 120, 24, 24)  480         dense_2_2_bottleneck_conv2D[0][0]
__________________________________________________________________________________________________
activation_24 (Activation)      (None, 120, 24, 24)  0           dense_2_2_bottleneck_bn[0][0]    
__________________________________________________________________________________________________
dense_2_2_conv2D (Conv2D)       (None, 30, 24, 24)   32400       activation_24[0][0]              
__________________________________________________________________________________________________
dropout_11 (Dropout)            (None, 30, 24, 24)   0           dense_2_2_conv2D[0][0]           
__________________________________________________________________________________________________
concatenate_11 (Concatenate)    (None, 184, 24, 24)  0           concatenate_10[0][0]             
                                                                 dropout_11[0][0]                 
__________________________________________________________________________________________________
dense_2_3_bn (BatchNormalizatio (None, 184, 24, 24)  736         concatenate_11[0][0]             
__________________________________________________________________________________________________
activation_25 (Activation)      (None, 184, 24, 24)  0           dense_2_3_bn[0][0]               
__________________________________________________________________________________________________
dense_2_3_bottleneck_conv2D (Co (None, 120, 24, 24)  22080       activation_25[0][0]              
__________________________________________________________________________________________________
dense_2_3_bottleneck_bn (BatchN (None, 120, 24, 24)  480         dense_2_3_bottleneck_conv2D[0][0]
__________________________________________________________________________________________________
activation_26 (Activation)      (None, 120, 24, 24)  0           dense_2_3_bottleneck_bn[0][0]    
__________________________________________________________________________________________________
dense_2_3_conv2D (Conv2D)       (None, 30, 24, 24)   32400       activation_26[0][0]              
__________________________________________________________________________________________________
dropout_12 (Dropout)            (None, 30, 24, 24)   0           dense_2_3_conv2D[0][0]           
__________________________________________________________________________________________________
concatenate_12 (Concatenate)    (None, 214, 24, 24)  0           concatenate_11[0][0]             
                                                                 dropout_12[0][0]                 
__________________________________________________________________________________________________
tr_2_bn (BatchNormalization)    (None, 214, 24, 24)  856         concatenate_12[0][0]             
__________________________________________________________________________________________________
activation_27 (Activation)      (None, 214, 24, 24)  0           tr_2_bn[0][0]                    
__________________________________________________________________________________________________
tr_2_conv2D (Conv2D)            (None, 107, 24, 24)  22898       activation_27[0][0]              
__________________________________________________________________________________________________
average_pooling2d_3 (AveragePoo (None, 107, 12, 12)  0           tr_2_conv2D[0][0]                
__________________________________________________________________________________________________
dense_3_0_bn (BatchNormalizatio (None, 107, 12, 12)  428         average_pooling2d_3[0][0]        
__________________________________________________________________________________________________
activation_28 (Activation)      (None, 107, 12, 12)  0           dense_3_0_bn[0][0]               
__________________________________________________________________________________________________
dense_3_0_bottleneck_conv2D (Co (None, 120, 12, 12)  12840       activation_28[0][0]              
__________________________________________________________________________________________________
dense_3_0_bottleneck_bn (BatchN (None, 120, 12, 12)  480         dense_3_0_bottleneck_conv2D[0][0]
__________________________________________________________________________________________________
activation_29 (Activation)      (None, 120, 12, 12)  0           dense_3_0_bottleneck_bn[0][0]    
__________________________________________________________________________________________________
dense_3_0_conv2D (Conv2D)       (None, 30, 12, 12)   32400       activation_29[0][0]              
__________________________________________________________________________________________________
dropout_13 (Dropout)            (None, 30, 12, 12)   0           dense_3_0_conv2D[0][0]           
__________________________________________________________________________________________________
concatenate_13 (Concatenate)    (None, 137, 12, 12)  0           average_pooling2d_3[0][0]        
                                                                 dropout_13[0][0]                 
__________________________________________________________________________________________________
dense_3_1_bn (BatchNormalizatio (None, 137, 12, 12)  548         concatenate_13[0][0]             
__________________________________________________________________________________________________
activation_30 (Activation)      (None, 137, 12, 12)  0           dense_3_1_bn[0][0]               
__________________________________________________________________________________________________
dense_3_1_bottleneck_conv2D (Co (None, 120, 12, 12)  16440       activation_30[0][0]              
__________________________________________________________________________________________________
dense_3_1_bottleneck_bn (BatchN (None, 120, 12, 12)  480         dense_3_1_bottleneck_conv2D[0][0]
__________________________________________________________________________________________________
activation_31 (Activation)      (None, 120, 12, 12)  0           dense_3_1_bottleneck_bn[0][0]    
__________________________________________________________________________________________________
dense_3_1_conv2D (Conv2D)       (None, 30, 12, 12)   32400       activation_31[0][0]              
__________________________________________________________________________________________________
dropout_14 (Dropout)            (None, 30, 12, 12)   0           dense_3_1_conv2D[0][0]           
__________________________________________________________________________________________________
concatenate_14 (Concatenate)    (None, 167, 12, 12)  0           concatenate_13[0][0]             
                                                                 dropout_14[0][0]                 
__________________________________________________________________________________________________
dense_3_2_bn (BatchNormalizatio (None, 167, 12, 12)  668         concatenate_14[0][0]             
__________________________________________________________________________________________________
activation_32 (Activation)      (None, 167, 12, 12)  0           dense_3_2_bn[0][0]               
__________________________________________________________________________________________________
dense_3_2_bottleneck_conv2D (Co (None, 120, 12, 12)  20040       activation_32[0][0]              
__________________________________________________________________________________________________
dense_3_2_bottleneck_bn (BatchN (None, 120, 12, 12)  480         dense_3_2_bottleneck_conv2D[0][0]
__________________________________________________________________________________________________
activation_33 (Activation)      (None, 120, 12, 12)  0           dense_3_2_bottleneck_bn[0][0]    
__________________________________________________________________________________________________
dense_3_2_conv2D (Conv2D)       (None, 30, 12, 12)   32400       activation_33[0][0]              
__________________________________________________________________________________________________
dropout_15 (Dropout)            (None, 30, 12, 12)   0           dense_3_2_conv2D[0][0]           
__________________________________________________________________________________________________
concatenate_15 (Concatenate)    (None, 197, 12, 12)  0           concatenate_14[0][0]             
                                                                 dropout_15[0][0]                 
__________________________________________________________________________________________________
dense_3_3_bn (BatchNormalizatio (None, 197, 12, 12)  788         concatenate_15[0][0]             
__________________________________________________________________________________________________
activation_34 (Activation)      (None, 197, 12, 12)  0           dense_3_3_bn[0][0]               
__________________________________________________________________________________________________
dense_3_3_bottleneck_conv2D (Co (None, 120, 12, 12)  23640       activation_34[0][0]              
__________________________________________________________________________________________________
dense_3_3_bottleneck_bn (BatchN (None, 120, 12, 12)  480         dense_3_3_bottleneck_conv2D[0][0]
__________________________________________________________________________________________________
activation_35 (Activation)      (None, 120, 12, 12)  0           dense_3_3_bottleneck_bn[0][0]    
__________________________________________________________________________________________________
dense_3_3_conv2D (Conv2D)       (None, 30, 12, 12)   32400       activation_35[0][0]              
__________________________________________________________________________________________________
dropout_16 (Dropout)            (None, 30, 12, 12)   0           dense_3_3_conv2D[0][0]           
__________________________________________________________________________________________________
concatenate_16 (Concatenate)    (None, 227, 12, 12)  0           concatenate_15[0][0]             
                                                                 dropout_16[0][0]                 
__________________________________________________________________________________________________
final_bn (BatchNormalization)   (None, 227, 12, 12)  908         concatenate_16[0][0]             
__________________________________________________________________________________________________
activation_36 (Activation)      (None, 227, 12, 12)  0           final_bn[0][0]                   
__________________________________________________________________________________________________
global_average_pooling2d_1 (Glo (None, 227)          0           activation_36[0][0]              
__________________________________________________________________________________________________
dense_1 (Dense)                 (None, 1)            228         global_average_pooling2d_1[0][0] 
==================================================================================================
Total params: 810,114
Trainable params: 801,024
Non-trainable params: 9,090
__________________________________________________________________________________________________
Train on 31872 samples, validate on 7968 samples
Epoch 1/10
 - 260s - loss: 0.8668 - acc: 0.7715 - val_loss: 0.8008 - val_acc: 0.7922
…
Depth:  25  Growth_rate:  12  lr:  0.0001  nb_filter:  16  dropout:  0.22202687247320632
Epochs  3  batch_size:  8  es_patience:  5  lr_patience:  3
dense_block  4  reduction_:  0.5  bottleneck:  True
------------------------       end of configs        -------------------------
__________________________________________________________________________________________________
Layer (type)                    Output Shape         Param #     Connected to                     
==================================================================================================
input_1 (InputLayer)            (None, 2, 96, 96)    0                                            
__________________________________________________________________________________________________
initial_conv2D (Conv2D)         (None, 16, 96, 96)   288         input_1[0][0]                    
__________________________________________________________________________________________________
dense_0_0_bn (BatchNormalizatio (None, 16, 96, 96)   64          initial_conv2D[0][0]             
__________________________________________________________________________________________________
activation_1 (Activation)       (None, 16, 96, 96)   0           dense_0_0_bn[0][0]               
__________________________________________________________________________________________________
dense_0_0_bottleneck_conv2D (Co (None, 48, 96, 96)   768         activation_1[0][0]               
__________________________________________________________________________________________________
dense_0_0_bottleneck_bn (BatchN (None, 48, 96, 96)   192         dense_0_0_bottleneck_conv2D[0][0]
__________________________________________________________________________________________________
activation_2 (Activation)       (None, 48, 96, 96)   0           dense_0_0_bottleneck_bn[0][0]    
__________________________________________________________________________________________________
dense_0_0_conv2D (Conv2D)       (None, 12, 96, 96)   5184        activation_2[0][0]               
__________________________________________________________________________________________________
dropout_1 (Dropout)             (None, 12, 96, 96)   0           dense_0_0_conv2D[0][0]           
__________________________________________________________________________________________________
concatenate_1 (Concatenate)     (None, 28, 96, 96)   0           initial_conv2D[0][0]             
                                                                 dropout_1[0][0]                  
__________________________________________________________________________________________________
dense_0_1_bn (BatchNormalizatio (None, 28, 96, 96)   112         concatenate_1[0][0]              
__________________________________________________________________________________________________
activation_3 (Activation)       (None, 28, 96, 96)   0           dense_0_1_bn[0][0]               
__________________________________________________________________________________________________
dense_0_1_bottleneck_conv2D (Co (None, 48, 96, 96)   1344        activation_3[0][0]               
__________________________________________________________________________________________________
dense_0_1_bottleneck_bn (BatchN (None, 48, 96, 96)   192         dense_0_1_bottleneck_conv2D[0][0]
__________________________________________________________________________________________________
activation_4 (Activation)       (None, 48, 96, 96)   0           dense_0_1_bottleneck_bn[0][0]    
__________________________________________________________________________________________________
dense_0_1_conv2D (Conv2D)       (None, 12, 96, 96)   5184        activation_4[0][0]               
__________________________________________________________________________________________________
dropout_2 (Dropout)             (None, 12, 96, 96)   0           dense_0_1_conv2D[0][0]           
__________________________________________________________________________________________________
concatenate_2 (Concatenate)     (None, 40, 96, 96)   0           concatenate_1[0][0]              
                                                                 dropout_2[0][0]                  
__________________________________________________________________________________________________
dense_0_2_bn (BatchNormalizatio (None, 40, 96, 96)   160         concatenate_2[0][0]              
__________________________________________________________________________________________________
activation_5 (Activation)       (None, 40, 96, 96)   0           dense_0_2_bn[0][0]               
__________________________________________________________________________________________________
dense_0_2_bottleneck_conv2D (Co (None, 48, 96, 96)   1920        activation_5[0][0]               
__________________________________________________________________________________________________
dense_0_2_bottleneck_bn (BatchN (None, 48, 96, 96)   192         dense_0_2_bottleneck_conv2D[0][0]
__________________________________________________________________________________________________
activation_6 (Activation)       (None, 48, 96, 96)   0           dense_0_2_bottleneck_bn[0][0]    
__________________________________________________________________________________________________
dense_0_2_conv2D (Conv2D)       (None, 12, 96, 96)   5184        activation_6[0][0]               
__________________________________________________________________________________________________
dropout_3 (Dropout)             (None, 12, 96, 96)   0           dense_0_2_conv2D[0][0]           
__________________________________________________________________________________________________
concatenate_3 (Concatenate)     (None, 52, 96, 96)   0           concatenate_2[0][0]              
                                                                 dropout_3[0][0]                  
__________________________________________________________________________________________________
tr_0_bn (BatchNormalization)    (None, 52, 96, 96)   208         concatenate_3[0][0]              
__________________________________________________________________________________________________
activation_7 (Activation)       (None, 52, 96, 96)   0           tr_0_bn[0][0]                    
__________________________________________________________________________________________________
tr_0_conv2D (Conv2D)            (None, 26, 96, 96)   1352        activation_7[0][0]               
__________________________________________________________________________________________________
average_pooling2d_1 (AveragePoo (None, 26, 48, 48)   0           tr_0_conv2D[0][0]                
__________________________________________________________________________________________________
dense_1_0_bn (BatchNormalizatio (None, 26, 48, 48)   104         average_pooling2d_1[0][0]        
__________________________________________________________________________________________________
activation_8 (Activation)       (None, 26, 48, 48)   0           dense_1_0_bn[0][0]               
__________________________________________________________________________________________________
dense_1_0_bottleneck_conv2D (Co (None, 48, 48, 48)   1248        activation_8[0][0]               
__________________________________________________________________________________________________
dense_1_0_bottleneck_bn (BatchN (None, 48, 48, 48)   192         dense_1_0_bottleneck_conv2D[0][0]
__________________________________________________________________________________________________
activation_9 (Activation)       (None, 48, 48, 48)   0           dense_1_0_bottleneck_bn[0][0]    
__________________________________________________________________________________________________
dense_1_0_conv2D (Conv2D)       (None, 12, 48, 48)   5184        activation_9[0][0]               
__________________________________________________________________________________________________
dropout_4 (Dropout)             (None, 12, 48, 48)   0           dense_1_0_conv2D[0][0]           
__________________________________________________________________________________________________
concatenate_4 (Concatenate)     (None, 38, 48, 48)   0           average_pooling2d_1[0][0]        
                                                                 dropout_4[0][0]                  
__________________________________________________________________________________________________
dense_1_1_bn (BatchNormalizatio (None, 38, 48, 48)   152         concatenate_4[0][0]              
__________________________________________________________________________________________________
activation_10 (Activation)      (None, 38, 48, 48)   0           dense_1_1_bn[0][0]               
__________________________________________________________________________________________________
dense_1_1_bottleneck_conv2D (Co (None, 48, 48, 48)   1824        activation_10[0][0]              
__________________________________________________________________________________________________
dense_1_1_bottleneck_bn (BatchN (None, 48, 48, 48)   192         dense_1_1_bottleneck_conv2D[0][0]
__________________________________________________________________________________________________
activation_11 (Activation)      (None, 48, 48, 48)   0           dense_1_1_bottleneck_bn[0][0]    
__________________________________________________________________________________________________
dense_1_1_conv2D (Conv2D)       (None, 12, 48, 48)   5184        activation_11[0][0]              
__________________________________________________________________________________________________
dropout_5 (Dropout)             (None, 12, 48, 48)   0           dense_1_1_conv2D[0][0]           
__________________________________________________________________________________________________
concatenate_5 (Concatenate)     (None, 50, 48, 48)   0           concatenate_4[0][0]              
                                                                 dropout_5[0][0]                  
__________________________________________________________________________________________________
dense_1_2_bn (BatchNormalizatio (None, 50, 48, 48)   200         concatenate_5[0][0]              
__________________________________________________________________________________________________
activation_12 (Activation)      (None, 50, 48, 48)   0           dense_1_2_bn[0][0]               
__________________________________________________________________________________________________
dense_1_2_bottleneck_conv2D (Co (None, 48, 48, 48)   2400        activation_12[0][0]              
__________________________________________________________________________________________________
dense_1_2_bottleneck_bn (BatchN (None, 48, 48, 48)   192         dense_1_2_bottleneck_conv2D[0][0]
__________________________________________________________________________________________________
activation_13 (Activation)      (None, 48, 48, 48)   0           dense_1_2_bottleneck_bn[0][0]    
__________________________________________________________________________________________________
dense_1_2_conv2D (Conv2D)       (None, 12, 48, 48)   5184        activation_13[0][0]              
__________________________________________________________________________________________________
dropout_6 (Dropout)             (None, 12, 48, 48)   0           dense_1_2_conv2D[0][0]           
__________________________________________________________________________________________________
concatenate_6 (Concatenate)     (None, 62, 48, 48)   0           concatenate_5[0][0]              
                                                                 dropout_6[0][0]                  
__________________________________________________________________________________________________
tr_1_bn (BatchNormalization)    (None, 62, 48, 48)   248         concatenate_6[0][0]              
__________________________________________________________________________________________________
activation_14 (Activation)      (None, 62, 48, 48)   0           tr_1_bn[0][0]                    
__________________________________________________________________________________________________
tr_1_conv2D (Conv2D)            (None, 31, 48, 48)   1922        activation_14[0][0]              
__________________________________________________________________________________________________
average_pooling2d_2 (AveragePoo (None, 31, 24, 24)   0           tr_1_conv2D[0][0]                
__________________________________________________________________________________________________
dense_2_0_bn (BatchNormalizatio (None, 31, 24, 24)   124         average_pooling2d_2[0][0]        
__________________________________________________________________________________________________
activation_15 (Activation)      (None, 31, 24, 24)   0           dense_2_0_bn[0][0]               
__________________________________________________________________________________________________
dense_2_0_bottleneck_conv2D (Co (None, 48, 24, 24)   1488        activation_15[0][0]              
__________________________________________________________________________________________________
dense_2_0_bottleneck_bn (BatchN (None, 48, 24, 24)   192         dense_2_0_bottleneck_conv2D[0][0]
__________________________________________________________________________________________________
activation_16 (Activation)      (None, 48, 24, 24)   0           dense_2_0_bottleneck_bn[0][0]    
__________________________________________________________________________________________________
dense_2_0_conv2D (Conv2D)       (None, 12, 24, 24)   5184        activation_16[0][0]              
__________________________________________________________________________________________________
dropout_7 (Dropout)             (None, 12, 24, 24)   0           dense_2_0_conv2D[0][0]           
__________________________________________________________________________________________________
concatenate_7 (Concatenate)     (None, 43, 24, 24)   0           average_pooling2d_2[0][0]        
                                                                 dropout_7[0][0]                  
__________________________________________________________________________________________________
dense_2_1_bn (BatchNormalizatio (None, 43, 24, 24)   172         concatenate_7[0][0]              
__________________________________________________________________________________________________
activation_17 (Activation)      (None, 43, 24, 24)   0           dense_2_1_bn[0][0]               
__________________________________________________________________________________________________
dense_2_1_bottleneck_conv2D (Co (None, 48, 24, 24)   2064        activation_17[0][0]              
__________________________________________________________________________________________________
dense_2_1_bottleneck_bn (BatchN (None, 48, 24, 24)   192         dense_2_1_bottleneck_conv2D[0][0]
__________________________________________________________________________________________________
activation_18 (Activation)      (None, 48, 24, 24)   0           dense_2_1_bottleneck_bn[0][0]    
__________________________________________________________________________________________________
dense_2_1_conv2D (Conv2D)       (None, 12, 24, 24)   5184        activation_18[0][0]              
__________________________________________________________________________________________________
dropout_8 (Dropout)             (None, 12, 24, 24)   0           dense_2_1_conv2D[0][0]           
__________________________________________________________________________________________________
concatenate_8 (Concatenate)     (None, 55, 24, 24)   0           concatenate_7[0][0]              
                                                                 dropout_8[0][0]                  
__________________________________________________________________________________________________
dense_2_2_bn (BatchNormalizatio (None, 55, 24, 24)   220         concatenate_8[0][0]              
__________________________________________________________________________________________________
activation_19 (Activation)      (None, 55, 24, 24)   0           dense_2_2_bn[0][0]               
__________________________________________________________________________________________________
dense_2_2_bottleneck_conv2D (Co (None, 48, 24, 24)   2640        activation_19[0][0]              
__________________________________________________________________________________________________
dense_2_2_bottleneck_bn (BatchN (None, 48, 24, 24)   192         dense_2_2_bottleneck_conv2D[0][0]
__________________________________________________________________________________________________
activation_20 (Activation)      (None, 48, 24, 24)   0           dense_2_2_bottleneck_bn[0][0]    
__________________________________________________________________________________________________
dense_2_2_conv2D (Conv2D)       (None, 12, 24, 24)   5184        activation_20[0][0]              
__________________________________________________________________________________________________
dropout_9 (Dropout)             (None, 12, 24, 24)   0           dense_2_2_conv2D[0][0]           
__________________________________________________________________________________________________
concatenate_9 (Concatenate)     (None, 67, 24, 24)   0           concatenate_8[0][0]              
                                                                 dropout_9[0][0]                  
__________________________________________________________________________________________________
tr_2_bn (BatchNormalization)    (None, 67, 24, 24)   268         concatenate_9[0][0]              
__________________________________________________________________________________________________
activation_21 (Activation)      (None, 67, 24, 24)   0           tr_2_bn[0][0]                    
__________________________________________________________________________________________________
tr_2_conv2D (Conv2D)            (None, 33, 24, 24)   2211        activation_21[0][0]              
__________________________________________________________________________________________________
average_pooling2d_3 (AveragePoo (None, 33, 12, 12)   0           tr_2_conv2D[0][0]                
__________________________________________________________________________________________________
dense_3_0_bn (BatchNormalizatio (None, 33, 12, 12)   132         average_pooling2d_3[0][0]        
__________________________________________________________________________________________________
activation_22 (Activation)      (None, 33, 12, 12)   0           dense_3_0_bn[0][0]               
__________________________________________________________________________________________________
dense_3_0_bottleneck_conv2D (Co (None, 48, 12, 12)   1584        activation_22[0][0]              
__________________________________________________________________________________________________
dense_3_0_bottleneck_bn (BatchN (None, 48, 12, 12)   192         dense_3_0_bottleneck_conv2D[0][0]
__________________________________________________________________________________________________
activation_23 (Activation)      (None, 48, 12, 12)   0           dense_3_0_bottleneck_bn[0][0]    
__________________________________________________________________________________________________
dense_3_0_conv2D (Conv2D)       (None, 12, 12, 12)   5184        activation_23[0][0]              
__________________________________________________________________________________________________
dropout_10 (Dropout)            (None, 12, 12, 12)   0           dense_3_0_conv2D[0][0]           
__________________________________________________________________________________________________
concatenate_10 (Concatenate)    (None, 45, 12, 12)   0           average_pooling2d_3[0][0]        
                                                                 dropout_10[0][0]                 
__________________________________________________________________________________________________
dense_3_1_bn (BatchNormalizatio (None, 45, 12, 12)   180         concatenate_10[0][0]             
__________________________________________________________________________________________________
activation_24 (Activation)      (None, 45, 12, 12)   0           dense_3_1_bn[0][0]               
__________________________________________________________________________________________________
dense_3_1_bottleneck_conv2D (Co (None, 48, 12, 12)   2160        activation_24[0][0]              
__________________________________________________________________________________________________
dense_3_1_bottleneck_bn (BatchN (None, 48, 12, 12)   192         dense_3_1_bottleneck_conv2D[0][0]
__________________________________________________________________________________________________
activation_25 (Activation)      (None, 48, 12, 12)   0           dense_3_1_bottleneck_bn[0][0]    
__________________________________________________________________________________________________
dense_3_1_conv2D (Conv2D)       (None, 12, 12, 12)   5184        activation_25[0][0]              
__________________________________________________________________________________________________
dropout_11 (Dropout)            (None, 12, 12, 12)   0           dense_3_1_conv2D[0][0]           
__________________________________________________________________________________________________
concatenate_11 (Concatenate)    (None, 57, 12, 12)   0           concatenate_10[0][0]             
                                                                 dropout_11[0][0]                 
__________________________________________________________________________________________________
dense_3_2_bn (BatchNormalizatio (None, 57, 12, 12)   228         concatenate_11[0][0]             
__________________________________________________________________________________________________
activation_26 (Activation)      (None, 57, 12, 12)   0           dense_3_2_bn[0][0]               
__________________________________________________________________________________________________
dense_3_2_bottleneck_conv2D (Co (None, 48, 12, 12)   2736        activation_26[0][0]              
__________________________________________________________________________________________________
dense_3_2_bottleneck_bn (BatchN (None, 48, 12, 12)   192         dense_3_2_bottleneck_conv2D[0][0]
__________________________________________________________________________________________________
activation_27 (Activation)      (None, 48, 12, 12)   0           dense_3_2_bottleneck_bn[0][0]    
__________________________________________________________________________________________________
dense_3_2_conv2D (Conv2D)       (None, 12, 12, 12)   5184        activation_27[0][0]              
__________________________________________________________________________________________________
dropout_12 (Dropout)            (None, 12, 12, 12)   0           dense_3_2_conv2D[0][0]           
__________________________________________________________________________________________________
concatenate_12 (Concatenate)    (None, 69, 12, 12)   0           concatenate_11[0][0]             
                                                                 dropout_12[0][0]                 
__________________________________________________________________________________________________
final_bn (BatchNormalization)   (None, 69, 12, 12)   276         concatenate_12[0][0]             
__________________________________________________________________________________________________
activation_28 (Activation)      (None, 69, 12, 12)   0           final_bn[0][0]                   
__________________________________________________________________________________________________
global_average_pooling2d_1 (Glo (None, 69)           0           activation_28[0][0]              
__________________________________________________________________________________________________
dense_1 (Dense)                 (None, 1)            70          global_average_pooling2d_1[0][0] 
==================================================================================================
Total params: 95,379
Trainable params: 92,803
Non-trainable params: 2,576
__________________________________________________________________________________________________
Train on 31872 samples, validate on 7968 samples
Epoch 1/3
 - 197s - loss: 0.6262 - acc: 0.7553 - val_loss: 0.5635 - val_acc: 0.7958
…
