…
  54:     score, acc = model.evaluate(X_test, y_test)
  55:     print('Best saved model Test accuracy:', acc)
  56:     pred = model.predict(X_test)
  57:     auc_score = roc_auc_score(y_test,pred)
  58:     print("best saved model auc_score ------------------> ",auc_score)
  59: 
  60:     
  61:     return {'loss': -auc_score, 'status': STATUS_OK, 'model': model}  
  62: 
_________________________________________________________________
Layer (type)                 Output Shape              Param #   
=================================================================
input_1 (InputLayer)         (None, 2, 96, 96)         0         
_________________________________________________________________
initial_conv2D (Conv2D)      (None, 16, 96, 96)        288       
_________________________________________________________________
tr_0_bn (BatchNormalization) (None, 16, 96, 96)        64        
_________________________________________________________________
activation_1 (Activation)    (None, 16, 96, 96)        0         
_________________________________________________________________
tr_0_conv2D (Conv2D)         (None, 8, 96, 96)         128       
_________________________________________________________________
average_pooling2d_1 (Average (None, 8, 48, 48)         0         
_________________________________________________________________
final_bn (BatchNormalization (None, 8, 48, 48)         32        
_________________________________________________________________
activation_2 (Activation)    (None, 8, 48, 48)         0         
_________________________________________________________________
global_average_pooling2d_1 ( (None, 8)                 0         
_________________________________________________________________
dense_1 (Dense)              (None, 1)                 9         
=================================================================
Total params: 521
Trainable params: 473
Non-trainable params: 48
_________________________________________________________________
Train on 31872 samples, validate on 7968 samples
Epoch 1/40
 - 9s - loss: 0.6755 - acc: 0.6102 - val_loss: 0.6458 - val_acc: 0.6844

Epoch 00001: val_loss improved from inf to 0.64585, saving model to keras_densenet_simple_wt_29Sept_2200.h5
…
6400/7440 [========================>.....] - ETA: 0s
7040/7440 [===========================>..] - ETA: 0s
7440/7440 [==============================] - 1s 90us/step
Best saved model Test accuracy: 0.8165322580645161
best saved model auc_score ------------------>  0.8631193273788879
__________________________________________________________________________________________________
Layer (type)                    Output Shape         Param #     Connected to                     
==================================================================================================
input_2 (InputLayer)            (None, 2, 96, 96)    0                                            
__________________________________________________________________________________________________
initial_conv2D (Conv2D)         (None, 16, 96, 96)   288         input_2[0][0]                    
__________________________________________________________________________________________________
dense_0_0_bn (BatchNormalizatio (None, 16, 96, 96)   64          initial_conv2D[0][0]             
__________________________________________________________________________________________________
activation_3 (Activation)       (None, 16, 96, 96)   0           dense_0_0_bn[0][0]               
__________________________________________________________________________________________________
dense_0_0_bottleneck_conv2D (Co (None, 56, 96, 96)   896         activation_3[0][0]               
__________________________________________________________________________________________________
dense_0_0_bottleneck_bn (BatchN (None, 56, 96, 96)   224         dense_0_0_bottleneck_conv2D[0][0]
__________________________________________________________________________________________________
activation_4 (Activation)       (None, 56, 96, 96)   0           dense_0_0_bottleneck_bn[0][0]    
__________________________________________________________________________________________________
dense_0_0_conv2D (Conv2D)       (None, 14, 96, 96)   7056        activation_4[0][0]               
__________________________________________________________________________________________________
concatenate_1 (Concatenate)     (None, 30, 96, 96)   0           initial_conv2D[0][0]             
                                                                 dense_0_0_conv2D[0][0]           
__________________________________________________________________________________________________
tr_0_bn (BatchNormalization)    (None, 30, 96, 96)   120         concatenate_1[0][0]              
__________________________________________________________________________________________________
activation_5 (Activation)       (None, 30, 96, 96)   0           tr_0_bn[0][0]                    
__________________________________________________________________________________________________
tr_0_conv2D (Conv2D)            (None, 15, 96, 96)   450         activation_5[0][0]               
__________________________________________________________________________________________________
average_pooling2d_2 (AveragePoo (None, 15, 48, 48)   0           tr_0_conv2D[0][0]                
__________________________________________________________________________________________________
dense_1_0_bn (BatchNormalizatio (None, 15, 48, 48)   60          average_pooling2d_2[0][0]        
__________________________________________________________________________________________________
activation_6 (Activation)       (None, 15, 48, 48)   0           dense_1_0_bn[0][0]               
__________________________________________________________________________________________________
dense_1_0_bottleneck_conv2D (Co (None, 56, 48, 48)   840         activation_6[0][0]               
__________________________________________________________________________________________________
dense_1_0_bottleneck_bn (BatchN (None, 56, 48, 48)   224         dense_1_0_bottleneck_conv2D[0][0]
__________________________________________________________________________________________________
activation_7 (Activation)       (None, 56, 48, 48)   0           dense_1_0_bottleneck_bn[0][0]    
__________________________________________________________________________________________________
dense_1_0_conv2D (Conv2D)       (None, 14, 48, 48)   7056        activation_7[0][0]               
__________________________________________________________________________________________________
concatenate_2 (Concatenate)     (None, 29, 48, 48)   0           average_pooling2d_2[0][0]        
                                                                 dense_1_0_conv2D[0][0]           
__________________________________________________________________________________________________
final_bn (BatchNormalization)   (None, 29, 48, 48)   116         concatenate_2[0][0]              
__________________________________________________________________________________________________
activation_8 (Activation)       (None, 29, 48, 48)   0           final_bn[0][0]                   
__________________________________________________________________________________________________
global_average_pooling2d_2 (Glo (None, 29)           0           activation_8[0][0]               
__________________________________________________________________________________________________
dense_2 (Dense)                 (None, 1)            30          global_average_pooling2d_2[0][0] 
==================================================================================================
Total params: 17,424
Trainable params: 17,020
Non-trainable params: 404
__________________________________________________________________________________________________
Train on 31872 samples, validate on 7968 samples
Epoch 1/40
 - 16s - loss: 0.6177 - acc: 0.7039 - val_loss: 0.5706 - val_acc: 0.7511
…
7104/7440 [===========================>..] - ETA: 0s
7424/7440 [============================>.] - ETA: 0s
7440/7440 [==============================] - 1s 188us/step
Best saved model Test accuracy: 0.8306451612903226
best saved model auc_score ------------------>  0.898872954965892
__________________________________________________________________________________________________
Layer (type)                    Output Shape         Param #     Connected to                     
==================================================================================================
input_3 (InputLayer)            (None, 2, 96, 96)    0                                            
__________________________________________________________________________________________________
initial_conv2D (Conv2D)         (None, 16, 96, 96)   288         input_3[0][0]                    
__________________________________________________________________________________________________
dense_0_0_bn (BatchNormalizatio (None, 16, 96, 96)   64          initial_conv2D[0][0]             
__________________________________________________________________________________________________
activation_9 (Activation)       (None, 16, 96, 96)   0           dense_0_0_bn[0][0]               
__________________________________________________________________________________________________
dense_0_0_bottleneck_conv2D (Co (None, 56, 96, 96)   896         activation_9[0][0]               
__________________________________________________________________________________________________
dense_0_0_bottleneck_bn (BatchN (None, 56, 96, 96)   224         dense_0_0_bottleneck_conv2D[0][0]
__________________________________________________________________________________________________
activation_10 (Activation)      (None, 56, 96, 96)   0           dense_0_0_bottleneck_bn[0][0]    
__________________________________________________________________________________________________
dense_0_0_conv2D (Conv2D)       (None, 14, 96, 96)   7056        activation_10[0][0]              
__________________________________________________________________________________________________
concatenate_3 (Concatenate)     (None, 30, 96, 96)   0           initial_conv2D[0][0]             
                                                                 dense_0_0_conv2D[0][0]           
__________________________________________________________________________________________________
dense_0_1_bn (BatchNormalizatio (None, 30, 96, 96)   120         concatenate_3[0][0]              
__________________________________________________________________________________________________
activation_11 (Activation)      (None, 30, 96, 96)   0           dense_0_1_bn[0][0]               
__________________________________________________________________________________________________
dense_0_1_bottleneck_conv2D (Co (None, 56, 96, 96)   1680        activation_11[0][0]              
__________________________________________________________________________________________________
dense_0_1_bottleneck_bn (BatchN (None, 56, 96, 96)   224         dense_0_1_bottleneck_conv2D[0][0]
__________________________________________________________________________________________________
activation_12 (Activation)      (None, 56, 96, 96)   0           dense_0_1_bottleneck_bn[0][0]    
__________________________________________________________________________________________________
dense_0_1_conv2D (Conv2D)       (None, 14, 96, 96)   7056        activation_12[0][0]              
__________________________________________________________________________________________________
concatenate_4 (Concatenate)     (None, 44, 96, 96)   0           concatenate_3[0][0]              
                                                                 dense_0_1_conv2D[0][0]           
__________________________________________________________________________________________________
dense_0_2_bn (BatchNormalizatio (None, 44, 96, 96)   176         concatenate_4[0][0]              
__________________________________________________________________________________________________
activation_13 (Activation)      (None, 44, 96, 96)   0           dense_0_2_bn[0][0]               
__________________________________________________________________________________________________
dense_0_2_bottleneck_conv2D (Co (None, 56, 96, 96)   2464        activation_13[0][0]              
__________________________________________________________________________________________________
dense_0_2_bottleneck_bn (BatchN (None, 56, 96, 96)   224         dense_0_2_bottleneck_conv2D[0][0]
__________________________________________________________________________________________________
activation_14 (Activation)      (None, 56, 96, 96)   0           dense_0_2_bottleneck_bn[0][0]    
__________________________________________________________________________________________________
dense_0_2_conv2D (Conv2D)       (None, 14, 96, 96)   7056        activation_14[0][0]              
__________________________________________________________________________________________________
concatenate_5 (Concatenate)     (None, 58, 96, 96)   0           concatenate_4[0][0]              
                                                                 dense_0_2_conv2D[0][0]           
__________________________________________________________________________________________________
dense_0_3_bn (BatchNormalizatio (None, 58, 96, 96)   232         concatenate_5[0][0]              
__________________________________________________________________________________________________
activation_15 (Activation)      (None, 58, 96, 96)   0           dense_0_3_bn[0][0]               
__________________________________________________________________________________________________
dense_0_3_bottleneck_conv2D (Co (None, 56, 96, 96)   3248        activation_15[0][0]              
__________________________________________________________________________________________________
dense_0_3_bottleneck_bn (BatchN (None, 56, 96, 96)   224         dense_0_3_bottleneck_conv2D[0][0]
__________________________________________________________________________________________________
activation_16 (Activation)      (None, 56, 96, 96)   0           dense_0_3_bottleneck_bn[0][0]    
__________________________________________________________________________________________________
dense_0_3_conv2D (Conv2D)       (None, 14, 96, 96)   7056        activation_16[0][0]              
__________________________________________________________________________________________________
concatenate_6 (Concatenate)     (None, 72, 96, 96)   0           concatenate_5[0][0]              
                                                                 dense_0_3_conv2D[0][0]           
__________________________________________________________________________________________________
tr_0_bn (BatchNormalization)    (None, 72, 96, 96)   288         concatenate_6[0][0]              
__________________________________________________________________________________________________
activation_17 (Activation)      (None, 72, 96, 96)   0           tr_0_bn[0][0]                    
__________________________________________________________________________________________________
tr_0_conv2D (Conv2D)            (None, 36, 96, 96)   2592        activation_17[0][0]              
__________________________________________________________________________________________________
average_pooling2d_3 (AveragePoo (None, 36, 48, 48)   0           tr_0_conv2D[0][0]                
__________________________________________________________________________________________________
dense_1_0_bn (BatchNormalizatio (None, 36, 48, 48)   144         average_pooling2d_3[0][0]        
__________________________________________________________________________________________________
activation_18 (Activation)      (None, 36, 48, 48)   0           dense_1_0_bn[0][0]               
__________________________________________________________________________________________________
dense_1_0_bottleneck_conv2D (Co (None, 56, 48, 48)   2016        activation_18[0][0]              
__________________________________________________________________________________________________
dense_1_0_bottleneck_bn (BatchN (None, 56, 48, 48)   224         dense_1_0_bottleneck_conv2D[0][0]
__________________________________________________________________________________________________
activation_19 (Activation)      (None, 56, 48, 48)   0           dense_1_0_bottleneck_bn[0][0]    
__________________________________________________________________________________________________
dense_1_0_conv2D (Conv2D)       (None, 14, 48, 48)   7056        activation_19[0][0]              
__________________________________________________________________________________________________
concatenate_7 (Concatenate)     (None, 50, 48, 48)   0           average_pooling2d_3[0][0]        
                                                                 dense_1_0_conv2D[0][0]           
__________________________________________________________________________________________________
dense_1_1_bn (BatchNormalizatio (None, 50, 48, 48)   200         concatenate_7[0][0]              
__________________________________________________________________________________________________
activation_20 (Activation)      (None, 50, 48, 48)   0           dense_1_1_bn[0][0]               
__________________________________________________________________________________________________
dense_1_1_bottleneck_conv2D (Co (None, 56, 48, 48)   2800        activation_20[0][0]              
__________________________________________________________________________________________________
dense_1_1_bottleneck_bn (BatchN (None, 56, 48, 48)   224         dense_1_1_bottleneck_conv2D[0][0]
__________________________________________________________________________________________________
activation_21 (Activation)      (None, 56, 48, 48)   0           dense_1_1_bottleneck_bn[0][0]    
__________________________________________________________________________________________________
dense_1_1_conv2D (Conv2D)       (None, 14, 48, 48)   7056        activation_21[0][0]              
__________________________________________________________________________________________________
concatenate_8 (Concatenate)     (None, 64, 48, 48)   0           concatenate_7[0][0]              
                                                                 dense_1_1_conv2D[0][0]           
__________________________________________________________________________________________________
dense_1_2_bn (BatchNormalizatio (None, 64, 48, 48)   256         concatenate_8[0][0]              
__________________________________________________________________________________________________
activation_22 (Activation)      (None, 64, 48, 48)   0           dense_1_2_bn[0][0]               
__________________________________________________________________________________________________
dense_1_2_bottleneck_conv2D (Co (None, 56, 48, 48)   3584        activation_22[0][0]              
__________________________________________________________________________________________________
dense_1_2_bottleneck_bn (BatchN (None, 56, 48, 48)   224         dense_1_2_bottleneck_conv2D[0][0]
__________________________________________________________________________________________________
activation_23 (Activation)      (None, 56, 48, 48)   0           dense_1_2_bottleneck_bn[0][0]    
__________________________________________________________________________________________________
dense_1_2_conv2D (Conv2D)       (None, 14, 48, 48)   7056        activation_23[0][0]              
__________________________________________________________________________________________________
concatenate_9 (Concatenate)     (None, 78, 48, 48)   0           concatenate_8[0][0]              
                                                                 dense_1_2_conv2D[0][0]           
__________________________________________________________________________________________________
dense_1_3_bn (BatchNormalizatio (None, 78, 48, 48)   312         concatenate_9[0][0]              
__________________________________________________________________________________________________
activation_24 (Activation)      (None, 78, 48, 48)   0           dense_1_3_bn[0][0]               
__________________________________________________________________________________________________
dense_1_3_bottleneck_conv2D (Co (None, 56, 48, 48)   4368        activation_24[0][0]              
__________________________________________________________________________________________________
dense_1_3_bottleneck_bn (BatchN (None, 56, 48, 48)   224         dense_1_3_bottleneck_conv2D[0][0]
__________________________________________________________________________________________________
activation_25 (Activation)      (None, 56, 48, 48)   0           dense_1_3_bottleneck_bn[0][0]    
__________________________________________________________________________________________________
dense_1_3_conv2D (Conv2D)       (None, 14, 48, 48)   7056        activation_25[0][0]              
__________________________________________________________________________________________________
concatenate_10 (Concatenate)    (None, 92, 48, 48)   0           concatenate_9[0][0]              
                                                                 dense_1_3_conv2D[0][0]           
__________________________________________________________________________________________________
tr_1_bn (BatchNormalization)    (None, 92, 48, 48)   368         concatenate_10[0][0]             
__________________________________________________________________________________________________
activation_26 (Activation)      (None, 92, 48, 48)   0           tr_1_bn[0][0]                    
__________________________________________________________________________________________________
tr_1_conv2D (Conv2D)            (None, 46, 48, 48)   4232        activation_26[0][0]              
__________________________________________________________________________________________________
average_pooling2d_4 (AveragePoo (None, 46, 24, 24)   0           tr_1_conv2D[0][0]                
__________________________________________________________________________________________________
dense_2_0_bn (BatchNormalizatio (None, 46, 24, 24)   184         average_pooling2d_4[0][0]        
__________________________________________________________________________________________________
activation_27 (Activation)      (None, 46, 24, 24)   0           dense_2_0_bn[0][0]               
__________________________________________________________________________________________________
dense_2_0_bottleneck_conv2D (Co (None, 56, 24, 24)   2576        activation_27[0][0]              
__________________________________________________________________________________________________
dense_2_0_bottleneck_bn (BatchN (None, 56, 24, 24)   224         dense_2_0_bottleneck_conv2D[0][0]
__________________________________________________________________________________________________
activation_28 (Activation)      (None, 56, 24, 24)   0           dense_2_0_bottleneck_bn[0][0]    
__________________________________________________________________________________________________
dense_2_0_conv2D (Conv2D)       (None, 14, 24, 24)   7056        activation_28[0][0]              
__________________________________________________________________________________________________
concatenate_11 (Concatenate)    (None, 60, 24, 24)   0           average_pooling2d_4[0][0]        
                                                                 dense_2_0_conv2D[0][0]           
__________________________________________________________________________________________________
dense_2_1_bn (BatchNormalizatio (None, 60, 24, 24)   240         concatenate_11[0][0]             
__________________________________________________________________________________________________
activation_29 (Activation)      (None, 60, 24, 24)   0           dense_2_1_bn[0][0]               
__________________________________________________________________________________________________
dense_2_1_bottleneck_conv2D (Co (None, 56, 24, 24)   3360        activation_29[0][0]              
__________________________________________________________________________________________________
dense_2_1_bottleneck_bn (BatchN (None, 56, 24, 24)   224         dense_2_1_bottleneck_conv2D[0][0]
__________________________________________________________________________________________________
activation_30 (Activation)      (None, 56, 24, 24)   0           dense_2_1_bottleneck_bn[0][0]    
__________________________________________________________________________________________________
dense_2_1_conv2D (Conv2D)       (None, 14, 24, 24)   7056        activation_30[0][0]              
__________________________________________________________________________________________________
concatenate_12 (Concatenate)    (None, 74, 24, 24)   0           concatenate_11[0][0]             
                                                                 dense_2_1_conv2D[0][0]           
__________________________________________________________________________________________________
dense_2_2_bn (BatchNormalizatio (None, 74, 24, 24)   296         concatenate_12[0][0]             
__________________________________________________________________________________________________
activation_31 (Activation)      (None, 74, 24, 24)   0           dense_2_2_bn[0][0]               
__________________________________________________________________________________________________
dense_2_2_bottleneck_conv2D (Co (None, 56, 24, 24)   4144        activation_31[0][0]              
__________________________________________________________________________________________________
dense_2_2_bottleneck_bn (BatchN (None, 56, 24, 24)   224         dense_2_2_bottleneck_conv2D[0][0]
__________________________________________________________________________________________________
activation_32 (Activation)      (None, 56, 24, 24)   0           dense_2_2_bottleneck_bn[0][0]    
__________________________________________________________________________________________________
dense_2_2_conv2D (Conv2D)       (None, 14, 24, 24)   7056        activation_32[0][0]              
__________________________________________________________________________________________________
concatenate_13 (Concatenate)    (None, 88, 24, 24)   0           concatenate_12[0][0]             
                                                                 dense_2_2_conv2D[0][0]           
__________________________________________________________________________________________________
dense_2_3_bn (BatchNormalizatio (None, 88, 24, 24)   352         concatenate_13[0][0]             
__________________________________________________________________________________________________
activation_33 (Activation)      (None, 88, 24, 24)   0           dense_2_3_bn[0][0]               
__________________________________________________________________________________________________
dense_2_3_bottleneck_conv2D (Co (None, 56, 24, 24)   4928        activation_33[0][0]              
__________________________________________________________________________________________________
dense_2_3_bottleneck_bn (BatchN (None, 56, 24, 24)   224         dense_2_3_bottleneck_conv2D[0][0]
__________________________________________________________________________________________________
activation_34 (Activation)      (None, 56, 24, 24)   0           dense_2_3_bottleneck_bn[0][0]    
__________________________________________________________________________________________________
dense_2_3_conv2D (Conv2D)       (None, 14, 24, 24)   7056        activation_34[0][0]              
__________________________________________________________________________________________________
concatenate_14 (Concatenate)    (None, 102, 24, 24)  0           concatenate_13[0][0]             
                                                                 dense_2_3_conv2D[0][0]           
__________________________________________________________________________________________________
final_bn (BatchNormalization)   (None, 102, 24, 24)  408         concatenate_14[0][0]             
__________________________________________________________________________________________________
activation_35 (Activation)      (None, 102, 24, 24)  0           final_bn[0][0]                   
__________________________________________________________________________________________________
global_average_pooling2d_3 (Glo (None, 102)          0           activation_35[0][0]              
__________________________________________________________________________________________________
dense_3 (Dense)                 (None, 1)            103         global_average_pooling2d_3[0][0] 
==================================================================================================
Total params: 134,279
Trainable params: 131,115
Non-trainable params: 3,164
__________________________________________________________________________________________________
Train on 31872 samples, validate on 7968 samples
Epoch 1/40
 - 62s - loss: 0.6253 - acc: 0.7684 - val_loss: 0.5620 - val_acc: 0.8021
…
7328/7440 [============================>.] - ETA: 0s
7424/7440 [============================>.] - ETA: 0s
7440/7440 [==============================] - 5s 642us/step
Best saved model Test accuracy: 0.7924731182795699
best saved model auc_score ------------------>  0.8955412836744132
__________________________________________________________________________________________________
Layer (type)                    Output Shape         Param #     Connected to                     
==================================================================================================
input_4 (InputLayer)            (None, 2, 96, 96)    0                                            
__________________________________________________________________________________________________
initial_conv2D (Conv2D)         (None, 16, 96, 96)   288         input_4[0][0]                    
__________________________________________________________________________________________________
dense_0_0_bn (BatchNormalizatio (None, 16, 96, 96)   64          initial_conv2D[0][0]             
__________________________________________________________________________________________________
activation_36 (Activation)      (None, 16, 96, 96)   0           dense_0_0_bn[0][0]               
__________________________________________________________________________________________________
dense_0_0_bottleneck_conv2D (Co (None, 40, 96, 96)   640         activation_36[0][0]              
__________________________________________________________________________________________________
dense_0_0_bottleneck_bn (BatchN (None, 40, 96, 96)   160         dense_0_0_bottleneck_conv2D[0][0]
__________________________________________________________________________________________________
activation_37 (Activation)      (None, 40, 96, 96)   0           dense_0_0_bottleneck_bn[0][0]    
__________________________________________________________________________________________________
dense_0_0_conv2D (Conv2D)       (None, 10, 96, 96)   3600        activation_37[0][0]              
__________________________________________________________________________________________________
concatenate_15 (Concatenate)    (None, 26, 96, 96)   0           initial_conv2D[0][0]             
                                                                 dense_0_0_conv2D[0][0]           
__________________________________________________________________________________________________
tr_0_bn (BatchNormalization)    (None, 26, 96, 96)   104         concatenate_15[0][0]             
__________________________________________________________________________________________________
activation_38 (Activation)      (None, 26, 96, 96)   0           tr_0_bn[0][0]                    
__________________________________________________________________________________________________
tr_0_conv2D (Conv2D)            (None, 13, 96, 96)   338         activation_38[0][0]              
__________________________________________________________________________________________________
average_pooling2d_5 (AveragePoo (None, 13, 48, 48)   0           tr_0_conv2D[0][0]                
__________________________________________________________________________________________________
dense_1_0_bn (BatchNormalizatio (None, 13, 48, 48)   52          average_pooling2d_5[0][0]        
__________________________________________________________________________________________________
activation_39 (Activation)      (None, 13, 48, 48)   0           dense_1_0_bn[0][0]               
__________________________________________________________________________________________________
dense_1_0_bottleneck_conv2D (Co (None, 40, 48, 48)   520         activation_39[0][0]              
__________________________________________________________________________________________________
dense_1_0_bottleneck_bn (BatchN (None, 40, 48, 48)   160         dense_1_0_bottleneck_conv2D[0][0]
__________________________________________________________________________________________________
activation_40 (Activation)      (None, 40, 48, 48)   0           dense_1_0_bottleneck_bn[0][0]    
__________________________________________________________________________________________________
dense_1_0_conv2D (Conv2D)       (None, 10, 48, 48)   3600        activation_40[0][0]              
__________________________________________________________________________________________________
concatenate_16 (Concatenate)    (None, 23, 48, 48)   0           average_pooling2d_5[0][0]        
                                                                 dense_1_0_conv2D[0][0]           
__________________________________________________________________________________________________
tr_1_bn (BatchNormalization)    (None, 23, 48, 48)   92          concatenate_16[0][0]             
__________________________________________________________________________________________________
activation_41 (Activation)      (None, 23, 48, 48)   0           tr_1_bn[0][0]                    
__________________________________________________________________________________________________
tr_1_conv2D (Conv2D)            (None, 11, 48, 48)   253         activation_41[0][0]              
__________________________________________________________________________________________________
average_pooling2d_6 (AveragePoo (None, 11, 24, 24)   0           tr_1_conv2D[0][0]                
__________________________________________________________________________________________________
dense_2_0_bn (BatchNormalizatio (None, 11, 24, 24)   44          average_pooling2d_6[0][0]        
__________________________________________________________________________________________________
activation_42 (Activation)      (None, 11, 24, 24)   0           dense_2_0_bn[0][0]               
__________________________________________________________________________________________________
dense_2_0_bottleneck_conv2D (Co (None, 40, 24, 24)   440         activation_42[0][0]              
__________________________________________________________________________________________________
dense_2_0_bottleneck_bn (BatchN (None, 40, 24, 24)   160         dense_2_0_bottleneck_conv2D[0][0]
__________________________________________________________________________________________________
activation_43 (Activation)      (None, 40, 24, 24)   0           dense_2_0_bottleneck_bn[0][0]    
__________________________________________________________________________________________________
dense_2_0_conv2D (Conv2D)       (None, 10, 24, 24)   3600        activation_43[0][0]              
__________________________________________________________________________________________________
concatenate_17 (Concatenate)    (None, 21, 24, 24)   0           average_pooling2d_6[0][0]        
                                                                 dense_2_0_conv2D[0][0]           
__________________________________________________________________________________________________
final_bn (BatchNormalization)   (None, 21, 24, 24)   84          concatenate_17[0][0]             
__________________________________________________________________________________________________
activation_44 (Activation)      (None, 21, 24, 24)   0           final_bn[0][0]                   
__________________________________________________________________________________________________
global_average_pooling2d_4 (Glo (None, 21)           0           activation_44[0][0]              
__________________________________________________________________________________________________
dense_4 (Dense)                 (None, 1)            22          global_average_pooling2d_4[0][0] 
==================================================================================================
Total params: 14,221
Trainable params: 13,761
Non-trainable params: 460
__________________________________________________________________________________________________
Train on 31872 samples, validate on 7968 samples
Epoch 1/40
 - 19s - loss: 0.6061 - acc: 0.7234 - val_loss: 0.5594 - val_acc: 0.7518
…
7040/7440 [===========================>..] - ETA: 0s
7360/7440 [============================>.] - ETA: 0s
7440/7440 [==============================] - 2s 276us/step
Best saved model Test accuracy: 0.8365591397849462
best saved model auc_score ------------------>  0.9000390218522373
__________________________________________________________________________________________________
Layer (type)                    Output Shape         Param #     Connected to                     
==================================================================================================
input_5 (InputLayer)            (None, 2, 96, 96)    0                                            
__________________________________________________________________________________________________
initial_conv2D (Conv2D)         (None, 16, 96, 96)   288         input_5[0][0]                    
__________________________________________________________________________________________________
dense_0_0_bn (BatchNormalizatio (None, 16, 96, 96)   64          initial_conv2D[0][0]             
__________________________________________________________________________________________________
activation_45 (Activation)      (None, 16, 96, 96)   0           dense_0_0_bn[0][0]               
__________________________________________________________________________________________________
dense_0_0_bottleneck_conv2D (Co (None, 24, 96, 96)   384         activation_45[0][0]              
__________________________________________________________________________________________________
dense_0_0_bottleneck_bn (BatchN (None, 24, 96, 96)   96          dense_0_0_bottleneck_conv2D[0][0]
__________________________________________________________________________________________________
activation_46 (Activation)      (None, 24, 96, 96)   0           dense_0_0_bottleneck_bn[0][0]    
__________________________________________________________________________________________________
dense_0_0_conv2D (Conv2D)       (None, 6, 96, 96)    1296        activation_46[0][0]              
__________________________________________________________________________________________________
concatenate_18 (Concatenate)    (None, 22, 96, 96)   0           initial_conv2D[0][0]             
                                                                 dense_0_0_conv2D[0][0]           
__________________________________________________________________________________________________
dense_0_1_bn (BatchNormalizatio (None, 22, 96, 96)   88          concatenate_18[0][0]             
__________________________________________________________________________________________________
activation_47 (Activation)      (None, 22, 96, 96)   0           dense_0_1_bn[0][0]               
__________________________________________________________________________________________________
dense_0_1_bottleneck_conv2D (Co (None, 24, 96, 96)   528         activation_47[0][0]              
__________________________________________________________________________________________________
dense_0_1_bottleneck_bn (BatchN (None, 24, 96, 96)   96          dense_0_1_bottleneck_conv2D[0][0]
__________________________________________________________________________________________________
activation_48 (Activation)      (None, 24, 96, 96)   0           dense_0_1_bottleneck_bn[0][0]    
__________________________________________________________________________________________________
dense_0_1_conv2D (Conv2D)       (None, 6, 96, 96)    1296        activation_48[0][0]              
__________________________________________________________________________________________________
concatenate_19 (Concatenate)    (None, 28, 96, 96)   0           concatenate_18[0][0]             
                                                                 dense_0_1_conv2D[0][0]           
__________________________________________________________________________________________________
dense_0_2_bn (BatchNormalizatio (None, 28, 96, 96)   112         concatenate_19[0][0]             
__________________________________________________________________________________________________
activation_49 (Activation)      (None, 28, 96, 96)   0           dense_0_2_bn[0][0]               
__________________________________________________________________________________________________
dense_0_2_bottleneck_conv2D (Co (None, 24, 96, 96)   672         activation_49[0][0]              
__________________________________________________________________________________________________
dense_0_2_bottleneck_bn (BatchN (None, 24, 96, 96)   96          dense_0_2_bottleneck_conv2D[0][0]
__________________________________________________________________________________________________
activation_50 (Activation)      (None, 24, 96, 96)   0           dense_0_2_bottleneck_bn[0][0]    
__________________________________________________________________________________________________
dense_0_2_conv2D (Conv2D)       (None, 6, 96, 96)    1296        activation_50[0][0]              
__________________________________________________________________________________________________
concatenate_20 (Concatenate)    (None, 34, 96, 96)   0           concatenate_19[0][0]             
                                                                 dense_0_2_conv2D[0][0]           
__________________________________________________________________________________________________
tr_0_bn (BatchNormalization)    (None, 34, 96, 96)   136         concatenate_20[0][0]             
__________________________________________________________________________________________________
activation_51 (Activation)      (None, 34, 96, 96)   0           tr_0_bn[0][0]                    
__________________________________________________________________________________________________
tr_0_conv2D (Conv2D)            (None, 17, 96, 96)   578         activation_51[0][0]              
__________________________________________________________________________________________________
average_pooling2d_7 (AveragePoo (None, 17, 48, 48)   0           tr_0_conv2D[0][0]                
__________________________________________________________________________________________________
dense_1_0_bn (BatchNormalizatio (None, 17, 48, 48)   68          average_pooling2d_7[0][0]        
__________________________________________________________________________________________________
activation_52 (Activation)      (None, 17, 48, 48)   0           dense_1_0_bn[0][0]               
__________________________________________________________________________________________________
dense_1_0_bottleneck_conv2D (Co (None, 24, 48, 48)   408         activation_52[0][0]              
__________________________________________________________________________________________________
dense_1_0_bottleneck_bn (BatchN (None, 24, 48, 48)   96          dense_1_0_bottleneck_conv2D[0][0]
__________________________________________________________________________________________________
activation_53 (Activation)      (None, 24, 48, 48)   0           dense_1_0_bottleneck_bn[0][0]    
__________________________________________________________________________________________________
dense_1_0_conv2D (Conv2D)       (None, 6, 48, 48)    1296        activation_53[0][0]              
__________________________________________________________________________________________________
concatenate_21 (Concatenate)    (None, 23, 48, 48)   0           average_pooling2d_7[0][0]        
                                                                 dense_1_0_conv2D[0][0]           
__________________________________________________________________________________________________
dense_1_1_bn (BatchNormalizatio (None, 23, 48, 48)   92          concatenate_21[0][0]             
__________________________________________________________________________________________________
activation_54 (Activation)      (None, 23, 48, 48)   0           dense_1_1_bn[0][0]               
__________________________________________________________________________________________________
dense_1_1_bottleneck_conv2D (Co (None, 24, 48, 48)   552         activation_54[0][0]              
__________________________________________________________________________________________________
dense_1_1_bottleneck_bn (BatchN (None, 24, 48, 48)   96          dense_1_1_bottleneck_conv2D[0][0]
__________________________________________________________________________________________________
activation_55 (Activation)      (None, 24, 48, 48)   0           dense_1_1_bottleneck_bn[0][0]    
__________________________________________________________________________________________________
dense_1_1_conv2D (Conv2D)       (None, 6, 48, 48)    1296        activation_55[0][0]              
__________________________________________________________________________________________________
concatenate_22 (Concatenate)    (None, 29, 48, 48)   0           concatenate_21[0][0]             
                                                                 dense_1_1_conv2D[0][0]           
__________________________________________________________________________________________________
dense_1_2_bn (BatchNormalizatio (None, 29, 48, 48)   116         concatenate_22[0][0]             
__________________________________________________________________________________________________
activation_56 (Activation)      (None, 29, 48, 48)   0           dense_1_2_bn[0][0]               
__________________________________________________________________________________________________
dense_1_2_bottleneck_conv2D (Co (None, 24, 48, 48)   696         activation_56[0][0]              
__________________________________________________________________________________________________
dense_1_2_bottleneck_bn (BatchN (None, 24, 48, 48)   96          dense_1_2_bottleneck_conv2D[0][0]
__________________________________________________________________________________________________
activation_57 (Activation)      (None, 24, 48, 48)   0           dense_1_2_bottleneck_bn[0][0]    
__________________________________________________________________________________________________
dense_1_2_conv2D (Conv2D)       (None, 6, 48, 48)    1296        activation_57[0][0]              
__________________________________________________________________________________________________
concatenate_23 (Concatenate)    (None, 35, 48, 48)   0           concatenate_22[0][0]             
                                                                 dense_1_2_conv2D[0][0]           
__________________________________________________________________________________________________
tr_1_bn (BatchNormalization)    (None, 35, 48, 48)   140         concatenate_23[0][0]             
__________________________________________________________________________________________________
activation_58 (Activation)      (None, 35, 48, 48)   0           tr_1_bn[0][0]                    
__________________________________________________________________________________________________
tr_1_conv2D (Conv2D)            (None, 17, 48, 48)   595         activation_58[0][0]              
__________________________________________________________________________________________________
average_pooling2d_8 (AveragePoo (None, 17, 24, 24)   0           tr_1_conv2D[0][0]                
__________________________________________________________________________________________________
dense_2_0_bn (BatchNormalizatio (None, 17, 24, 24)   68          average_pooling2d_8[0][0]        
__________________________________________________________________________________________________
activation_59 (Activation)      (None, 17, 24, 24)   0           dense_2_0_bn[0][0]               
__________________________________________________________________________________________________
dense_2_0_bottleneck_conv2D (Co (None, 24, 24, 24)   408         activation_59[0][0]              
__________________________________________________________________________________________________
dense_2_0_bottleneck_bn (BatchN (None, 24, 24, 24)   96          dense_2_0_bottleneck_conv2D[0][0]
__________________________________________________________________________________________________
activation_60 (Activation)      (None, 24, 24, 24)   0           dense_2_0_bottleneck_bn[0][0]    
__________________________________________________________________________________________________
dense_2_0_conv2D (Conv2D)       (None, 6, 24, 24)    1296        activation_60[0][0]              
__________________________________________________________________________________________________
concatenate_24 (Concatenate)    (None, 23, 24, 24)   0           average_pooling2d_8[0][0]        
                                                                 dense_2_0_conv2D[0][0]           
__________________________________________________________________________________________________
dense_2_1_bn (BatchNormalizatio (None, 23, 24, 24)   92          concatenate_24[0][0]             
__________________________________________________________________________________________________
activation_61 (Activation)      (None, 23, 24, 24)   0           dense_2_1_bn[0][0]               
__________________________________________________________________________________________________
dense_2_1_bottleneck_conv2D (Co (None, 24, 24, 24)   552         activation_61[0][0]              
__________________________________________________________________________________________________
dense_2_1_bottleneck_bn (BatchN (None, 24, 24, 24)   96          dense_2_1_bottleneck_conv2D[0][0]
__________________________________________________________________________________________________
activation_62 (Activation)      (None, 24, 24, 24)   0           dense_2_1_bottleneck_bn[0][0]    
__________________________________________________________________________________________________
dense_2_1_conv2D (Conv2D)       (None, 6, 24, 24)    1296        activation_62[0][0]              
__________________________________________________________________________________________________
concatenate_25 (Concatenate)    (None, 29, 24, 24)   0           concatenate_24[0][0]             
                                                                 dense_2_1_conv2D[0][0]           
__________________________________________________________________________________________________
dense_2_2_bn (BatchNormalizatio (None, 29, 24, 24)   116         concatenate_25[0][0]             
__________________________________________________________________________________________________
activation_63 (Activation)      (None, 29, 24, 24)   0           dense_2_2_bn[0][0]               
__________________________________________________________________________________________________
dense_2_2_bottleneck_conv2D (Co (None, 24, 24, 24)   696         activation_63[0][0]              
__________________________________________________________________________________________________
dense_2_2_bottleneck_bn (BatchN (None, 24, 24, 24)   96          dense_2_2_bottleneck_conv2D[0][0]
__________________________________________________________________________________________________
activation_64 (Activation)      (None, 24, 24, 24)   0           dense_2_2_bottleneck_bn[0][0]    
__________________________________________________________________________________________________
dense_2_2_conv2D (Conv2D)       (None, 6, 24, 24)    1296        activation_64[0][0]              
__________________________________________________________________________________________________
concatenate_26 (Concatenate)    (None, 35, 24, 24)   0           concatenate_25[0][0]             
                                                                 dense_2_2_conv2D[0][0]           
__________________________________________________________________________________________________
final_bn (BatchNormalization)   (None, 35, 24, 24)   140         concatenate_26[0][0]             
__________________________________________________________________________________________________
activation_65 (Activation)      (None, 35, 24, 24)   0           final_bn[0][0]                   
__________________________________________________________________________________________________
global_average_pooling2d_5 (Glo (None, 35)           0           activation_65[0][0]              
__________________________________________________________________________________________________
dense_5 (Dense)                 (None, 1)            36          global_average_pooling2d_5[0][0] 
==================================================================================================
Total params: 20,153
Trainable params: 19,105
Non-trainable params: 1,048
__________________________________________________________________________________________________
Train on 31872 samples, validate on 7968 samples
Epoch 1/40
 - 35s - loss: 0.6546 - acc: 0.6897 - val_loss: 0.5767 - val_acc: 0.7620
…
7104/7440 [===========================>..] - ETA: 0s
7296/7440 [============================>.] - ETA: 0s
7440/7440 [==============================] - 3s 453us/step
Best saved model Test accuracy: 0.8181451612903226
best saved model auc_score ------------------>  0.8947200182101975
__________________________________________________________________________________________________
Layer (type)                    Output Shape         Param #     Connected to                     
==================================================================================================
input_6 (InputLayer)            (None, 2, 96, 96)    0                                            
__________________________________________________________________________________________________
initial_conv2D (Conv2D)         (None, 16, 96, 96)   288         input_6[0][0]                    
__________________________________________________________________________________________________
dense_0_0_bn (BatchNormalizatio (None, 16, 96, 96)   64          initial_conv2D[0][0]             
__________________________________________________________________________________________________
activation_66 (Activation)      (None, 16, 96, 96)   0           dense_0_0_bn[0][0]               
__________________________________________________________________________________________________
dense_0_0_bottleneck_conv2D (Co (None, 72, 96, 96)   1152        activation_66[0][0]              
__________________________________________________________________________________________________
dense_0_0_bottleneck_bn (BatchN (None, 72, 96, 96)   288         dense_0_0_bottleneck_conv2D[0][0]
__________________________________________________________________________________________________
activation_67 (Activation)      (None, 72, 96, 96)   0           dense_0_0_bottleneck_bn[0][0]    
__________________________________________________________________________________________________
dense_0_0_conv2D (Conv2D)       (None, 18, 96, 96)   11664       activation_67[0][0]              
__________________________________________________________________________________________________
concatenate_27 (Concatenate)    (None, 34, 96, 96)   0           initial_conv2D[0][0]             
                                                                 dense_0_0_conv2D[0][0]           
__________________________________________________________________________________________________
dense_0_1_bn (BatchNormalizatio (None, 34, 96, 96)   136         concatenate_27[0][0]             
__________________________________________________________________________________________________
activation_68 (Activation)      (None, 34, 96, 96)   0           dense_0_1_bn[0][0]               
__________________________________________________________________________________________________
dense_0_1_bottleneck_conv2D (Co (None, 72, 96, 96)   2448        activation_68[0][0]              
__________________________________________________________________________________________________
dense_0_1_bottleneck_bn (BatchN (None, 72, 96, 96)   288         dense_0_1_bottleneck_conv2D[0][0]
__________________________________________________________________________________________________
activation_69 (Activation)      (None, 72, 96, 96)   0           dense_0_1_bottleneck_bn[0][0]    
__________________________________________________________________________________________________
dense_0_1_conv2D (Conv2D)       (None, 18, 96, 96)   11664       activation_69[0][0]              
__________________________________________________________________________________________________
concatenate_28 (Concatenate)    (None, 52, 96, 96)   0           concatenate_27[0][0]             
                                                                 dense_0_1_conv2D[0][0]           
__________________________________________________________________________________________________
tr_0_bn (BatchNormalization)    (None, 52, 96, 96)   208         concatenate_28[0][0]             
__________________________________________________________________________________________________
activation_70 (Activation)      (None, 52, 96, 96)   0           tr_0_bn[0][0]                    
__________________________________________________________________________________________________
tr_0_conv2D (Conv2D)            (None, 26, 96, 96)   1352        activation_70[0][0]              
__________________________________________________________________________________________________
average_pooling2d_9 (AveragePoo (None, 26, 48, 48)   0           tr_0_conv2D[0][0]                
__________________________________________________________________________________________________
dense_1_0_bn (BatchNormalizatio (None, 26, 48, 48)   104         average_pooling2d_9[0][0]        
__________________________________________________________________________________________________
activation_71 (Activation)      (None, 26, 48, 48)   0           dense_1_0_bn[0][0]               
__________________________________________________________________________________________________
dense_1_0_bottleneck_conv2D (Co (None, 72, 48, 48)   1872        activation_71[0][0]              
__________________________________________________________________________________________________
dense_1_0_bottleneck_bn (BatchN (None, 72, 48, 48)   288         dense_1_0_bottleneck_conv2D[0][0]
__________________________________________________________________________________________________
activation_72 (Activation)      (None, 72, 48, 48)   0           dense_1_0_bottleneck_bn[0][0]    
__________________________________________________________________________________________________
dense_1_0_conv2D (Conv2D)       (None, 18, 48, 48)   11664       activation_72[0][0]              
__________________________________________________________________________________________________
concatenate_29 (Concatenate)    (None, 44, 48, 48)   0           average_pooling2d_9[0][0]        
                                                                 dense_1_0_conv2D[0][0]           
__________________________________________________________________________________________________
dense_1_1_bn (BatchNormalizatio (None, 44, 48, 48)   176         concatenate_29[0][0]             
__________________________________________________________________________________________________
activation_73 (Activation)      (None, 44, 48, 48)   0           dense_1_1_bn[0][0]               
__________________________________________________________________________________________________
dense_1_1_bottleneck_conv2D (Co (None, 72, 48, 48)   3168        activation_73[0][0]              
__________________________________________________________________________________________________
dense_1_1_bottleneck_bn (BatchN (None, 72, 48, 48)   288         dense_1_1_bottleneck_conv2D[0][0]
__________________________________________________________________________________________________
activation_74 (Activation)      (None, 72, 48, 48)   0           dense_1_1_bottleneck_bn[0][0]    
__________________________________________________________________________________________________
dense_1_1_conv2D (Conv2D)       (None, 18, 48, 48)   11664       activation_74[0][0]              
__________________________________________________________________________________________________
concatenate_30 (Concatenate)    (None, 62, 48, 48)   0           concatenate_29[0][0]             
                                                                 dense_1_1_conv2D[0][0]           
__________________________________________________________________________________________________
final_bn (BatchNormalization)   (None, 62, 48, 48)   248         concatenate_30[0][0]             
__________________________________________________________________________________________________
activation_75 (Activation)      (None, 62, 48, 48)   0           final_bn[0][0]                   
__________________________________________________________________________________________________
global_average_pooling2d_6 (Glo (None, 62)           0           activation_75[0][0]              
__________________________________________________________________________________________________
dense_6 (Dense)                 (None, 1)            63          global_average_pooling2d_6[0][0] 
==================================================================================================
Total params: 59,087
Trainable params: 58,043
Non-trainable params: 1,044
__________________________________________________________________________________________________
Train on 31872 samples, validate on 7968 samples
Epoch 1/40
 - 36s - loss: 0.6074 - acc: 0.7330 - val_loss: 0.5570 - val_acc: 0.7651
…
6912/7440 [==========================>...] - ETA: 0s
7072/7440 [===========================>..] - ETA: 0s
7232/7440 [============================>.] - ETA: 0s
7392/7440 [============================>.] - ETA: 0s
7440/7440 [==============================] - 4s 528us/step
Best saved model Test accuracy: 0.814247311827957
best saved model auc_score ------------------>  0.8915936090877558
_________________________________________________________________
Layer (type)                 Output Shape              Param #   
=================================================================
input_7 (InputLayer)         (None, 2, 96, 96)         0         
_________________________________________________________________
initial_conv2D (Conv2D)      (None, 16, 96, 96)        288       
_________________________________________________________________
tr_0_bn (BatchNormalization) (None, 16, 96, 96)        64        
_________________________________________________________________
activation_76 (Activation)   (None, 16, 96, 96)        0         
_________________________________________________________________
tr_0_conv2D (Conv2D)         (None, 8, 96, 96)         128       
_________________________________________________________________
average_pooling2d_10 (Averag (None, 8, 48, 48)         0         
_________________________________________________________________
tr_1_bn (BatchNormalization) (None, 8, 48, 48)         32        
_________________________________________________________________
activation_77 (Activation)   (None, 8, 48, 48)         0         
_________________________________________________________________
tr_1_conv2D (Conv2D)         (None, 4, 48, 48)         32        
_________________________________________________________________
average_pooling2d_11 (Averag (None, 4, 24, 24)         0         
_________________________________________________________________
final_bn (BatchNormalization (None, 4, 24, 24)         16        
_________________________________________________________________
activation_78 (Activation)   (None, 4, 24, 24)         0         
_________________________________________________________________
global_average_pooling2d_7 ( (None, 4)                 0         
_________________________________________________________________
dense_7 (Dense)              (None, 1)                 5         
=================================================================
Total params: 565
Trainable params: 509
Non-trainable params: 56
_________________________________________________________________
Train on 31872 samples, validate on 7968 samples
Epoch 1/40
 - 12s - loss: 0.6588 - acc: 0.6487 - val_loss: 0.6429 - val_acc: 0.6732

Epoch 00001: val_loss improved from inf to 0.64286, saving model to keras_densenet_simple_wt_29Sept_2200.h5
…
6944/7440 [===========================>..] - ETA: 0s
7424/7440 [============================>.] - ETA: 0s
7440/7440 [==============================] - 2s 284us/step
Best saved model Test accuracy: 0.8247311827956989
best saved model auc_score ------------------>  0.8734719693028095
__________________________________________________________________________________________________
Layer (type)                    Output Shape         Param #     Connected to                     
==================================================================================================
input_8 (InputLayer)            (None, 2, 96, 96)    0                                            
__________________________________________________________________________________________________
initial_conv2D (Conv2D)         (None, 16, 96, 96)   288         input_8[0][0]                    
__________________________________________________________________________________________________
dense_0_0_bn (BatchNormalizatio (None, 16, 96, 96)   64          initial_conv2D[0][0]             
__________________________________________________________________________________________________
activation_79 (Activation)      (None, 16, 96, 96)   0           dense_0_0_bn[0][0]               
__________________________________________________________________________________________________
dense_0_0_bottleneck_conv2D (Co (None, 40, 96, 96)   640         activation_79[0][0]              
__________________________________________________________________________________________________
dense_0_0_bottleneck_bn (BatchN (None, 40, 96, 96)   160         dense_0_0_bottleneck_conv2D[0][0]
__________________________________________________________________________________________________
activation_80 (Activation)      (None, 40, 96, 96)   0           dense_0_0_bottleneck_bn[0][0]    
__________________________________________________________________________________________________
dense_0_0_conv2D (Conv2D)       (None, 10, 96, 96)   3600        activation_80[0][0]              
__________________________________________________________________________________________________
concatenate_31 (Concatenate)    (None, 26, 96, 96)   0           initial_conv2D[0][0]             
                                                                 dense_0_0_conv2D[0][0]           
__________________________________________________________________________________________________
dense_0_1_bn (BatchNormalizatio (None, 26, 96, 96)   104         concatenate_31[0][0]             
__________________________________________________________________________________________________
activation_81 (Activation)      (None, 26, 96, 96)   0           dense_0_1_bn[0][0]               
__________________________________________________________________________________________________
dense_0_1_bottleneck_conv2D (Co (None, 40, 96, 96)   1040        activation_81[0][0]              
__________________________________________________________________________________________________
dense_0_1_bottleneck_bn (BatchN (None, 40, 96, 96)   160         dense_0_1_bottleneck_conv2D[0][0]
__________________________________________________________________________________________________
activation_82 (Activation)      (None, 40, 96, 96)   0           dense_0_1_bottleneck_bn[0][0]    
__________________________________________________________________________________________________
dense_0_1_conv2D (Conv2D)       (None, 10, 96, 96)   3600        activation_82[0][0]              
__________________________________________________________________________________________________
concatenate_32 (Concatenate)    (None, 36, 96, 96)   0           concatenate_31[0][0]             
                                                                 dense_0_1_conv2D[0][0]           
__________________________________________________________________________________________________
dense_0_2_bn (BatchNormalizatio (None, 36, 96, 96)   144         concatenate_32[0][0]             
__________________________________________________________________________________________________
activation_83 (Activation)      (None, 36, 96, 96)   0           dense_0_2_bn[0][0]               
__________________________________________________________________________________________________
dense_0_2_bottleneck_conv2D (Co (None, 40, 96, 96)   1440        activation_83[0][0]              
__________________________________________________________________________________________________
dense_0_2_bottleneck_bn (BatchN (None, 40, 96, 96)   160         dense_0_2_bottleneck_conv2D[0][0]
__________________________________________________________________________________________________
activation_84 (Activation)      (None, 40, 96, 96)   0           dense_0_2_bottleneck_bn[0][0]    
__________________________________________________________________________________________________
dense_0_2_conv2D (Conv2D)       (None, 10, 96, 96)   3600        activation_84[0][0]              
__________________________________________________________________________________________________
concatenate_33 (Concatenate)    (None, 46, 96, 96)   0           concatenate_32[0][0]             
                                                                 dense_0_2_conv2D[0][0]           
__________________________________________________________________________________________________
tr_0_bn (BatchNormalization)    (None, 46, 96, 96)   184         concatenate_33[0][0]             
__________________________________________________________________________________________________
activation_85 (Activation)      (None, 46, 96, 96)   0           tr_0_bn[0][0]                    
__________________________________________________________________________________________________
tr_0_conv2D (Conv2D)            (None, 23, 96, 96)   1058        activation_85[0][0]              
__________________________________________________________________________________________________
average_pooling2d_12 (AveragePo (None, 23, 48, 48)   0           tr_0_conv2D[0][0]                
__________________________________________________________________________________________________
dense_1_0_bn (BatchNormalizatio (None, 23, 48, 48)   92          average_pooling2d_12[0][0]       
__________________________________________________________________________________________________
activation_86 (Activation)      (None, 23, 48, 48)   0           dense_1_0_bn[0][0]               
__________________________________________________________________________________________________
dense_1_0_bottleneck_conv2D (Co (None, 40, 48, 48)   920         activation_86[0][0]              
__________________________________________________________________________________________________
dense_1_0_bottleneck_bn (BatchN (None, 40, 48, 48)   160         dense_1_0_bottleneck_conv2D[0][0]
__________________________________________________________________________________________________
activation_87 (Activation)      (None, 40, 48, 48)   0           dense_1_0_bottleneck_bn[0][0]    
__________________________________________________________________________________________________
dense_1_0_conv2D (Conv2D)       (None, 10, 48, 48)   3600        activation_87[0][0]              
__________________________________________________________________________________________________
concatenate_34 (Concatenate)    (None, 33, 48, 48)   0           average_pooling2d_12[0][0]       
                                                                 dense_1_0_conv2D[0][0]           
__________________________________________________________________________________________________
dense_1_1_bn (BatchNormalizatio (None, 33, 48, 48)   132         concatenate_34[0][0]             
__________________________________________________________________________________________________
activation_88 (Activation)      (None, 33, 48, 48)   0           dense_1_1_bn[0][0]               
__________________________________________________________________________________________________
dense_1_1_bottleneck_conv2D (Co (None, 40, 48, 48)   1320        activation_88[0][0]              
__________________________________________________________________________________________________
dense_1_1_bottleneck_bn (BatchN (None, 40, 48, 48)   160         dense_1_1_bottleneck_conv2D[0][0]
__________________________________________________________________________________________________
activation_89 (Activation)      (None, 40, 48, 48)   0           dense_1_1_bottleneck_bn[0][0]    
__________________________________________________________________________________________________
dense_1_1_conv2D (Conv2D)       (None, 10, 48, 48)   3600        activation_89[0][0]              
__________________________________________________________________________________________________
concatenate_35 (Concatenate)    (None, 43, 48, 48)   0           concatenate_34[0][0]             
                                                                 dense_1_1_conv2D[0][0]           
__________________________________________________________________________________________________
dense_1_2_bn (BatchNormalizatio (None, 43, 48, 48)   172         concatenate_35[0][0]             
__________________________________________________________________________________________________
activation_90 (Activation)      (None, 43, 48, 48)   0           dense_1_2_bn[0][0]               
__________________________________________________________________________________________________
dense_1_2_bottleneck_conv2D (Co (None, 40, 48, 48)   1720        activation_90[0][0]              
__________________________________________________________________________________________________
dense_1_2_bottleneck_bn (BatchN (None, 40, 48, 48)   160         dense_1_2_bottleneck_conv2D[0][0]
__________________________________________________________________________________________________
activation_91 (Activation)      (None, 40, 48, 48)   0           dense_1_2_bottleneck_bn[0][0]    
__________________________________________________________________________________________________
dense_1_2_conv2D (Conv2D)       (None, 10, 48, 48)   3600        activation_91[0][0]              
__________________________________________________________________________________________________
concatenate_36 (Concatenate)    (None, 53, 48, 48)   0           concatenate_35[0][0]             
                                                                 dense_1_2_conv2D[0][0]           
__________________________________________________________________________________________________
final_bn (BatchNormalization)   (None, 53, 48, 48)   212         concatenate_36[0][0]             
__________________________________________________________________________________________________
activation_92 (Activation)      (None, 53, 48, 48)   0           final_bn[0][0]                   
__________________________________________________________________________________________________
global_average_pooling2d_8 (Glo (None, 53)           0           activation_92[0][0]              
__________________________________________________________________________________________________
dense_8 (Dense)                 (None, 1)            54          global_average_pooling2d_8[0][0] 
==================================================================================================
Total params: 32,144
Trainable params: 31,112
Non-trainable params: 1,032
__________________________________________________________________________________________________
Train on 31872 samples, validate on 7968 samples
Epoch 1/40
 - 38s - loss: 0.5896 - acc: 0.7458 - val_loss: 0.5440 - val_acc: 0.7647
…
7104/7440 [===========================>..] - ETA: 0s
7296/7440 [============================>.] - ETA: 0s
7440/7440 [==============================] - 5s 665us/step
Best saved model Test accuracy: 0.8341397849462365
best saved model auc_score ------------------>  0.9143824791883456
__________________________________________________________________________________________________
Layer (type)                    Output Shape         Param #     Connected to                     
==================================================================================================
input_11 (InputLayer)           (None, 2, 96, 96)    0                                            
__________________________________________________________________________________________________
initial_conv2D (Conv2D)         (None, 16, 96, 96)   288         input_11[0][0]                   
__________________________________________________________________________________________________
dense_0_0_bn (BatchNormalizatio (None, 16, 96, 96)   64          initial_conv2D[0][0]             
__________________________________________________________________________________________________
activation_124 (Activation)     (None, 16, 96, 96)   0           dense_0_0_bn[0][0]               
__________________________________________________________________________________________________
dense_0_0_bottleneck_conv2D (Co (None, 40, 96, 96)   640         activation_124[0][0]             
__________________________________________________________________________________________________
dense_0_0_bottleneck_bn (BatchN (None, 40, 96, 96)   160         dense_0_0_bottleneck_conv2D[0][0]
__________________________________________________________________________________________________
activation_125 (Activation)     (None, 40, 96, 96)   0           dense_0_0_bottleneck_bn[0][0]    
__________________________________________________________________________________________________
dense_0_0_conv2D (Conv2D)       (None, 10, 96, 96)   3600        activation_125[0][0]             
__________________________________________________________________________________________________
concatenate_50 (Concatenate)    (None, 26, 96, 96)   0           initial_conv2D[0][0]             
                                                                 dense_0_0_conv2D[0][0]           
__________________________________________________________________________________________________
dense_0_1_bn (BatchNormalizatio (None, 26, 96, 96)   104         concatenate_50[0][0]             
__________________________________________________________________________________________________
activation_126 (Activation)     (None, 26, 96, 96)   0           dense_0_1_bn[0][0]               
__________________________________________________________________________________________________
dense_0_1_bottleneck_conv2D (Co (None, 40, 96, 96)   1040        activation_126[0][0]             
__________________________________________________________________________________________________
dense_0_1_bottleneck_bn (BatchN (None, 40, 96, 96)   160         dense_0_1_bottleneck_conv2D[0][0]
__________________________________________________________________________________________________
activation_127 (Activation)     (None, 40, 96, 96)   0           dense_0_1_bottleneck_bn[0][0]    
__________________________________________________________________________________________________
dense_0_1_conv2D (Conv2D)       (None, 10, 96, 96)   3600        activation_127[0][0]             
__________________________________________________________________________________________________
concatenate_51 (Concatenate)    (None, 36, 96, 96)   0           concatenate_50[0][0]             
                                                                 dense_0_1_conv2D[0][0]           
__________________________________________________________________________________________________
dense_0_2_bn (BatchNormalizatio (None, 36, 96, 96)   144         concatenate_51[0][0]             
__________________________________________________________________________________________________
activation_128 (Activation)     (None, 36, 96, 96)   0           dense_0_2_bn[0][0]               
__________________________________________________________________________________________________
dense_0_2_bottleneck_conv2D (Co (None, 40, 96, 96)   1440        activation_128[0][0]             
__________________________________________________________________________________________________
dense_0_2_bottleneck_bn (BatchN (None, 40, 96, 96)   160         dense_0_2_bottleneck_conv2D[0][0]
__________________________________________________________________________________________________
activation_129 (Activation)     (None, 40, 96, 96)   0           dense_0_2_bottleneck_bn[0][0]    
__________________________________________________________________________________________________
dense_0_2_conv2D (Conv2D)       (None, 10, 96, 96)   3600        activation_129[0][0]             
__________________________________________________________________________________________________
concatenate_52 (Concatenate)    (None, 46, 96, 96)   0           concatenate_51[0][0]             
                                                                 dense_0_2_conv2D[0][0]           
__________________________________________________________________________________________________
tr_0_bn (BatchNormalization)    (None, 46, 96, 96)   184         concatenate_52[0][0]             
__________________________________________________________________________________________________
activation_130 (Activation)     (None, 46, 96, 96)   0           tr_0_bn[0][0]                    
__________________________________________________________________________________________________
tr_0_conv2D (Conv2D)            (None, 23, 96, 96)   1058        activation_130[0][0]             
__________________________________________________________________________________________________
average_pooling2d_16 (AveragePo (None, 23, 48, 48)   0           tr_0_conv2D[0][0]                
__________________________________________________________________________________________________
dense_1_0_bn (BatchNormalizatio (None, 23, 48, 48)   92          average_pooling2d_16[0][0]       
__________________________________________________________________________________________________
activation_131 (Activation)     (None, 23, 48, 48)   0           dense_1_0_bn[0][0]               
__________________________________________________________________________________________________
dense_1_0_bottleneck_conv2D (Co (None, 40, 48, 48)   920         activation_131[0][0]             
__________________________________________________________________________________________________
dense_1_0_bottleneck_bn (BatchN (None, 40, 48, 48)   160         dense_1_0_bottleneck_conv2D[0][0]
__________________________________________________________________________________________________
activation_132 (Activation)     (None, 40, 48, 48)   0           dense_1_0_bottleneck_bn[0][0]    
__________________________________________________________________________________________________
dense_1_0_conv2D (Conv2D)       (None, 10, 48, 48)   3600        activation_132[0][0]             
__________________________________________________________________________________________________
concatenate_53 (Concatenate)    (None, 33, 48, 48)   0           average_pooling2d_16[0][0]       
                                                                 dense_1_0_conv2D[0][0]           
__________________________________________________________________________________________________
dense_1_1_bn (BatchNormalizatio (None, 33, 48, 48)   132         concatenate_53[0][0]             
__________________________________________________________________________________________________
activation_133 (Activation)     (None, 33, 48, 48)   0           dense_1_1_bn[0][0]               
__________________________________________________________________________________________________
dense_1_1_bottleneck_conv2D (Co (None, 40, 48, 48)   1320        activation_133[0][0]             
__________________________________________________________________________________________________
dense_1_1_bottleneck_bn (BatchN (None, 40, 48, 48)   160         dense_1_1_bottleneck_conv2D[0][0]
__________________________________________________________________________________________________
activation_134 (Activation)     (None, 40, 48, 48)   0           dense_1_1_bottleneck_bn[0][0]    
__________________________________________________________________________________________________
dense_1_1_conv2D (Conv2D)       (None, 10, 48, 48)   3600        activation_134[0][0]             
__________________________________________________________________________________________________
concatenate_54 (Concatenate)    (None, 43, 48, 48)   0           concatenate_53[0][0]             
                                                                 dense_1_1_conv2D[0][0]           
__________________________________________________________________________________________________
dense_1_2_bn (BatchNormalizatio (None, 43, 48, 48)   172         concatenate_54[0][0]             
__________________________________________________________________________________________________
activation_135 (Activation)     (None, 43, 48, 48)   0           dense_1_2_bn[0][0]               
__________________________________________________________________________________________________
dense_1_2_bottleneck_conv2D (Co (None, 40, 48, 48)   1720        activation_135[0][0]             
__________________________________________________________________________________________________
dense_1_2_bottleneck_bn (BatchN (None, 40, 48, 48)   160         dense_1_2_bottleneck_conv2D[0][0]
__________________________________________________________________________________________________
activation_136 (Activation)     (None, 40, 48, 48)   0           dense_1_2_bottleneck_bn[0][0]    
__________________________________________________________________________________________________
dense_1_2_conv2D (Conv2D)       (None, 10, 48, 48)   3600        activation_136[0][0]             
__________________________________________________________________________________________________
concatenate_55 (Concatenate)    (None, 53, 48, 48)   0           concatenate_54[0][0]             
                                                                 dense_1_2_conv2D[0][0]           
__________________________________________________________________________________________________
tr_1_bn (BatchNormalization)    (None, 53, 48, 48)   212         concatenate_55[0][0]             
__________________________________________________________________________________________________
activation_137 (Activation)     (None, 53, 48, 48)   0           tr_1_bn[0][0]                    
__________________________________________________________________________________________________
tr_1_conv2D (Conv2D)            (None, 26, 48, 48)   1378        activation_137[0][0]             
__________________________________________________________________________________________________
average_pooling2d_17 (AveragePo (None, 26, 24, 24)   0           tr_1_conv2D[0][0]                
__________________________________________________________________________________________________
dense_2_0_bn (BatchNormalizatio (None, 26, 24, 24)   104         average_pooling2d_17[0][0]       
__________________________________________________________________________________________________
activation_138 (Activation)     (None, 26, 24, 24)   0           dense_2_0_bn[0][0]               
__________________________________________________________________________________________________
dense_2_0_bottleneck_conv2D (Co (None, 40, 24, 24)   1040        activation_138[0][0]             
__________________________________________________________________________________________________
dense_2_0_bottleneck_bn (BatchN (None, 40, 24, 24)   160         dense_2_0_bottleneck_conv2D[0][0]
__________________________________________________________________________________________________
activation_139 (Activation)     (None, 40, 24, 24)   0           dense_2_0_bottleneck_bn[0][0]    
__________________________________________________________________________________________________
dense_2_0_conv2D (Conv2D)       (None, 10, 24, 24)   3600        activation_139[0][0]             
__________________________________________________________________________________________________
concatenate_56 (Concatenate)    (None, 36, 24, 24)   0           average_pooling2d_17[0][0]       
                                                                 dense_2_0_conv2D[0][0]           
__________________________________________________________________________________________________
dense_2_1_bn (BatchNormalizatio (None, 36, 24, 24)   144         concatenate_56[0][0]             
__________________________________________________________________________________________________
activation_140 (Activation)     (None, 36, 24, 24)   0           dense_2_1_bn[0][0]               
__________________________________________________________________________________________________
dense_2_1_bottleneck_conv2D (Co (None, 40, 24, 24)   1440        activation_140[0][0]             
__________________________________________________________________________________________________
dense_2_1_bottleneck_bn (BatchN (None, 40, 24, 24)   160         dense_2_1_bottleneck_conv2D[0][0]
__________________________________________________________________________________________________
activation_141 (Activation)     (None, 40, 24, 24)   0           dense_2_1_bottleneck_bn[0][0]    
__________________________________________________________________________________________________
dense_2_1_conv2D (Conv2D)       (None, 10, 24, 24)   3600        activation_141[0][0]             
__________________________________________________________________________________________________
concatenate_57 (Concatenate)    (None, 46, 24, 24)   0           concatenate_56[0][0]             
                                                                 dense_2_1_conv2D[0][0]           
__________________________________________________________________________________________________
dense_2_2_bn (BatchNormalizatio (None, 46, 24, 24)   184         concatenate_57[0][0]             
__________________________________________________________________________________________________
activation_142 (Activation)     (None, 46, 24, 24)   0           dense_2_2_bn[0][0]               
__________________________________________________________________________________________________
dense_2_2_bottleneck_conv2D (Co (None, 40, 24, 24)   1840        activation_142[0][0]             
__________________________________________________________________________________________________
dense_2_2_bottleneck_bn (BatchN (None, 40, 24, 24)   160         dense_2_2_bottleneck_conv2D[0][0]
__________________________________________________________________________________________________
activation_143 (Activation)     (None, 40, 24, 24)   0           dense_2_2_bottleneck_bn[0][0]    
__________________________________________________________________________________________________
dense_2_2_conv2D (Conv2D)       (None, 10, 24, 24)   3600        activation_143[0][0]             
__________________________________________________________________________________________________
concatenate_58 (Concatenate)    (None, 56, 24, 24)   0           concatenate_57[0][0]             
                                                                 dense_2_2_conv2D[0][0]           
__________________________________________________________________________________________________
final_bn (BatchNormalization)   (None, 56, 24, 24)   224         concatenate_58[0][0]             
__________________________________________________________________________________________________
activation_144 (Activation)     (None, 56, 24, 24)   0           final_bn[0][0]                   
__________________________________________________________________________________________________
global_average_pooling2d_11 (Gl (None, 56)           0           activation_144[0][0]             
__________________________________________________________________________________________________
dense_11 (Dense)                (None, 1)            57          global_average_pooling2d_11[0][0]
==================================================================================================
Total params: 49,781
Trainable params: 48,181
Non-trainable params: 1,600
__________________________________________________________________________________________________
Train on 31872 samples, validate on 7968 samples
Epoch 1/40
 - 47s - loss: 0.5993 - acc: 0.7517 - val_loss: 0.5405 - val_acc: 0.7894
…
7200/7440 [============================>.] - ETA: 0s
7328/7440 [============================>.] - ETA: 0s
7440/7440 [==============================] - 7s 927us/step
Best saved model Test accuracy: 0.7971774193548387
best saved model auc_score ------------------>  0.9030150884495316
__________________________________________________________________________________________________
Layer (type)                    Output Shape         Param #     Connected to                     
==================================================================================================
input_14 (InputLayer)           (None, 2, 96, 96)    0                                            
__________________________________________________________________________________________________
initial_conv2D (Conv2D)         (None, 16, 96, 96)   288         input_14[0][0]                   
__________________________________________________________________________________________________
dense_0_0_bn (BatchNormalizatio (None, 16, 96, 96)   64          initial_conv2D[0][0]             
__________________________________________________________________________________________________
activation_169 (Activation)     (None, 16, 96, 96)   0           dense_0_0_bn[0][0]               
__________________________________________________________________________________________________
dense_0_0_bottleneck_conv2D (Co (None, 40, 96, 96)   640         activation_169[0][0]             
__________________________________________________________________________________________________
dense_0_0_bottleneck_bn (BatchN (None, 40, 96, 96)   160         dense_0_0_bottleneck_conv2D[0][0]
__________________________________________________________________________________________________
activation_170 (Activation)     (None, 40, 96, 96)   0           dense_0_0_bottleneck_bn[0][0]    
__________________________________________________________________________________________________
dense_0_0_conv2D (Conv2D)       (None, 10, 96, 96)   3600        activation_170[0][0]             
__________________________________________________________________________________________________
concatenate_68 (Concatenate)    (None, 26, 96, 96)   0           initial_conv2D[0][0]             
                                                                 dense_0_0_conv2D[0][0]           
__________________________________________________________________________________________________
dense_0_1_bn (BatchNormalizatio (None, 26, 96, 96)   104         concatenate_68[0][0]             
__________________________________________________________________________________________________
activation_171 (Activation)     (None, 26, 96, 96)   0           dense_0_1_bn[0][0]               
__________________________________________________________________________________________________
dense_0_1_bottleneck_conv2D (Co (None, 40, 96, 96)   1040        activation_171[0][0]             
__________________________________________________________________________________________________
dense_0_1_bottleneck_bn (BatchN (None, 40, 96, 96)   160         dense_0_1_bottleneck_conv2D[0][0]
__________________________________________________________________________________________________
activation_172 (Activation)     (None, 40, 96, 96)   0           dense_0_1_bottleneck_bn[0][0]    
__________________________________________________________________________________________________
dense_0_1_conv2D (Conv2D)       (None, 10, 96, 96)   3600        activation_172[0][0]             
__________________________________________________________________________________________________
concatenate_69 (Concatenate)    (None, 36, 96, 96)   0           concatenate_68[0][0]             
                                                                 dense_0_1_conv2D[0][0]           
__________________________________________________________________________________________________
dense_0_2_bn (BatchNormalizatio (None, 36, 96, 96)   144         concatenate_69[0][0]             
__________________________________________________________________________________________________
activation_173 (Activation)     (None, 36, 96, 96)   0           dense_0_2_bn[0][0]               
__________________________________________________________________________________________________
dense_0_2_bottleneck_conv2D (Co (None, 40, 96, 96)   1440        activation_173[0][0]             
__________________________________________________________________________________________________
dense_0_2_bottleneck_bn (BatchN (None, 40, 96, 96)   160         dense_0_2_bottleneck_conv2D[0][0]
__________________________________________________________________________________________________
activation_174 (Activation)     (None, 40, 96, 96)   0           dense_0_2_bottleneck_bn[0][0]    
__________________________________________________________________________________________________
dense_0_2_conv2D (Conv2D)       (None, 10, 96, 96)   3600        activation_174[0][0]             
__________________________________________________________________________________________________
concatenate_70 (Concatenate)    (None, 46, 96, 96)   0           concatenate_69[0][0]             
                                                                 dense_0_2_conv2D[0][0]           
__________________________________________________________________________________________________
dense_0_3_bn (BatchNormalizatio (None, 46, 96, 96)   184         concatenate_70[0][0]             
__________________________________________________________________________________________________
activation_175 (Activation)     (None, 46, 96, 96)   0           dense_0_3_bn[0][0]               
__________________________________________________________________________________________________
dense_0_3_bottleneck_conv2D (Co (None, 40, 96, 96)   1840        activation_175[0][0]             
__________________________________________________________________________________________________
dense_0_3_bottleneck_bn (BatchN (None, 40, 96, 96)   160         dense_0_3_bottleneck_conv2D[0][0]
__________________________________________________________________________________________________
activation_176 (Activation)     (None, 40, 96, 96)   0           dense_0_3_bottleneck_bn[0][0]    
__________________________________________________________________________________________________
dense_0_3_conv2D (Conv2D)       (None, 10, 96, 96)   3600        activation_176[0][0]             
__________________________________________________________________________________________________
concatenate_71 (Concatenate)    (None, 56, 96, 96)   0           concatenate_70[0][0]             
                                                                 dense_0_3_conv2D[0][0]           
__________________________________________________________________________________________________
tr_0_bn (BatchNormalization)    (None, 56, 96, 96)   224         concatenate_71[0][0]             
__________________________________________________________________________________________________
activation_177 (Activation)     (None, 56, 96, 96)   0           tr_0_bn[0][0]                    
__________________________________________________________________________________________________
tr_0_conv2D (Conv2D)            (None, 28, 96, 96)   1568        activation_177[0][0]             
__________________________________________________________________________________________________
average_pooling2d_22 (AveragePo (None, 28, 48, 48)   0           tr_0_conv2D[0][0]                
__________________________________________________________________________________________________
dense_1_0_bn (BatchNormalizatio (None, 28, 48, 48)   112         average_pooling2d_22[0][0]       
__________________________________________________________________________________________________
activation_178 (Activation)     (None, 28, 48, 48)   0           dense_1_0_bn[0][0]               
__________________________________________________________________________________________________
dense_1_0_bottleneck_conv2D (Co (None, 40, 48, 48)   1120        activation_178[0][0]             
__________________________________________________________________________________________________
dense_1_0_bottleneck_bn (BatchN (None, 40, 48, 48)   160         dense_1_0_bottleneck_conv2D[0][0]
__________________________________________________________________________________________________
activation_179 (Activation)     (None, 40, 48, 48)   0           dense_1_0_bottleneck_bn[0][0]    
__________________________________________________________________________________________________
dense_1_0_conv2D (Conv2D)       (None, 10, 48, 48)   3600        activation_179[0][0]             
__________________________________________________________________________________________________
concatenate_72 (Concatenate)    (None, 38, 48, 48)   0           average_pooling2d_22[0][0]       
                                                                 dense_1_0_conv2D[0][0]           
__________________________________________________________________________________________________
dense_1_1_bn (BatchNormalizatio (None, 38, 48, 48)   152         concatenate_72[0][0]             
__________________________________________________________________________________________________
activation_180 (Activation)     (None, 38, 48, 48)   0           dense_1_1_bn[0][0]               
__________________________________________________________________________________________________
dense_1_1_bottleneck_conv2D (Co (None, 40, 48, 48)   1520        activation_180[0][0]             
__________________________________________________________________________________________________
dense_1_1_bottleneck_bn (BatchN (None, 40, 48, 48)   160         dense_1_1_bottleneck_conv2D[0][0]
__________________________________________________________________________________________________
activation_181 (Activation)     (None, 40, 48, 48)   0           dense_1_1_bottleneck_bn[0][0]    
__________________________________________________________________________________________________
dense_1_1_conv2D (Conv2D)       (None, 10, 48, 48)   3600        activation_181[0][0]             
__________________________________________________________________________________________________
concatenate_73 (Concatenate)    (None, 48, 48, 48)   0           concatenate_72[0][0]             
                                                                 dense_1_1_conv2D[0][0]           
__________________________________________________________________________________________________
dense_1_2_bn (BatchNormalizatio (None, 48, 48, 48)   192         concatenate_73[0][0]             
__________________________________________________________________________________________________
activation_182 (Activation)     (None, 48, 48, 48)   0           dense_1_2_bn[0][0]               
__________________________________________________________________________________________________
dense_1_2_bottleneck_conv2D (Co (None, 40, 48, 48)   1920        activation_182[0][0]             
__________________________________________________________________________________________________
dense_1_2_bottleneck_bn (BatchN (None, 40, 48, 48)   160         dense_1_2_bottleneck_conv2D[0][0]
__________________________________________________________________________________________________
activation_183 (Activation)     (None, 40, 48, 48)   0           dense_1_2_bottleneck_bn[0][0]    
__________________________________________________________________________________________________
dense_1_2_conv2D (Conv2D)       (None, 10, 48, 48)   3600        activation_183[0][0]             
__________________________________________________________________________________________________
concatenate_74 (Concatenate)    (None, 58, 48, 48)   0           concatenate_73[0][0]             
                                                                 dense_1_2_conv2D[0][0]           
__________________________________________________________________________________________________
dense_1_3_bn (BatchNormalizatio (None, 58, 48, 48)   232         concatenate_74[0][0]             
__________________________________________________________________________________________________
activation_184 (Activation)     (None, 58, 48, 48)   0           dense_1_3_bn[0][0]               
__________________________________________________________________________________________________
dense_1_3_bottleneck_conv2D (Co (None, 40, 48, 48)   2320        activation_184[0][0]             
__________________________________________________________________________________________________
dense_1_3_bottleneck_bn (BatchN (None, 40, 48, 48)   160         dense_1_3_bottleneck_conv2D[0][0]
__________________________________________________________________________________________________
activation_185 (Activation)     (None, 40, 48, 48)   0           dense_1_3_bottleneck_bn[0][0]    
__________________________________________________________________________________________________
dense_1_3_conv2D (Conv2D)       (None, 10, 48, 48)   3600        activation_185[0][0]             
__________________________________________________________________________________________________
concatenate_75 (Concatenate)    (None, 68, 48, 48)   0           concatenate_74[0][0]             
                                                                 dense_1_3_conv2D[0][0]           
__________________________________________________________________________________________________
final_bn (BatchNormalization)   (None, 68, 48, 48)   272         concatenate_75[0][0]             
__________________________________________________________________________________________________
activation_186 (Activation)     (None, 68, 48, 48)   0           final_bn[0][0]                   
__________________________________________________________________________________________________
global_average_pooling2d_14 (Gl (None, 68)           0           activation_186[0][0]             
__________________________________________________________________________________________________
dense_14 (Dense)                (None, 1)            69          global_average_pooling2d_14[0][0]
==================================================================================================
Total params: 45,525
Trainable params: 44,045
Non-trainable params: 1,480
__________________________________________________________________________________________________
Train on 31872 samples, validate on 7968 samples
Epoch 1/40
 - 55s - loss: 0.6061 - acc: 0.7439 - val_loss: 0.5494 - val_acc: 0.7679
…
