python hello-world.py
python hyperas_simple.py
python hyperas_contrastive_loss.py
python densenet_siamese_best_run.py
python hyperas_densenet.py
python hyperas_densenet_siamese.py
python densenet_simple.py
python keras_densenet_siamese.py
__________________________________________________________________________________________________
Layer (type)                    Output Shape         Param #     Connected to                     
==================================================================================================
input_1 (InputLayer)            (None, 2, 96, 96)    0                                            
__________________________________________________________________________________________________
initial_conv2D (Conv2D)         (None, 18, 96, 96)   324         input_1[0][0]                    
__________________________________________________________________________________________________
dense_0_0_bn (BatchNormalizatio (None, 18, 96, 96)   72          initial_conv2D[0][0]             
__________________________________________________________________________________________________
activation_1 (Activation)       (None, 18, 96, 96)   0           dense_0_0_bn[0][0]               
__________________________________________________________________________________________________
dense_0_0_conv2D (Conv2D)       (None, 12, 96, 96)   1944        activation_1[0][0]               
__________________________________________________________________________________________________
concatenate_1 (Concatenate)     (None, 30, 96, 96)   0           initial_conv2D[0][0]             
                                                                 dense_0_0_conv2D[0][0]           
__________________________________________________________________________________________________
dense_0_1_bn (BatchNormalizatio (None, 30, 96, 96)   120         concatenate_1[0][0]              
__________________________________________________________________________________________________
activation_2 (Activation)       (None, 30, 96, 96)   0           dense_0_1_bn[0][0]               
__________________________________________________________________________________________________
dense_0_1_conv2D (Conv2D)       (None, 12, 96, 96)   3240        activation_2[0][0]               
__________________________________________________________________________________________________
concatenate_2 (Concatenate)     (None, 42, 96, 96)   0           concatenate_1[0][0]              
                                                                 dense_0_1_conv2D[0][0]           
__________________________________________________________________________________________________
dense_0_2_bn (BatchNormalizatio (None, 42, 96, 96)   168         concatenate_2[0][0]              
__________________________________________________________________________________________________
activation_3 (Activation)       (None, 42, 96, 96)   0           dense_0_2_bn[0][0]               
__________________________________________________________________________________________________
dense_0_2_conv2D (Conv2D)       (None, 12, 96, 96)   4536        activation_3[0][0]               
__________________________________________________________________________________________________
concatenate_3 (Concatenate)     (None, 54, 96, 96)   0           concatenate_2[0][0]              
                                                                 dense_0_2_conv2D[0][0]           
__________________________________________________________________________________________________
tr_0_bn (BatchNormalization)    (None, 54, 96, 96)   216         concatenate_3[0][0]              
__________________________________________________________________________________________________
activation_4 (Activation)       (None, 54, 96, 96)   0           tr_0_bn[0][0]                    
__________________________________________________________________________________________________
tr_0_conv2D (Conv2D)            (None, 54, 96, 96)   2916        activation_4[0][0]               
__________________________________________________________________________________________________
average_pooling2d_1 (AveragePoo (None, 54, 48, 48)   0           tr_0_conv2D[0][0]                
__________________________________________________________________________________________________
dense_1_0_bn (BatchNormalizatio (None, 54, 48, 48)   216         average_pooling2d_1[0][0]        
__________________________________________________________________________________________________
activation_5 (Activation)       (None, 54, 48, 48)   0           dense_1_0_bn[0][0]               
__________________________________________________________________________________________________
dense_1_0_conv2D (Conv2D)       (None, 12, 48, 48)   5832        activation_5[0][0]               
__________________________________________________________________________________________________
concatenate_4 (Concatenate)     (None, 66, 48, 48)   0           average_pooling2d_1[0][0]        
                                                                 dense_1_0_conv2D[0][0]           
__________________________________________________________________________________________________
dense_1_1_bn (BatchNormalizatio (None, 66, 48, 48)   264         concatenate_4[0][0]              
__________________________________________________________________________________________________
activation_6 (Activation)       (None, 66, 48, 48)   0           dense_1_1_bn[0][0]               
__________________________________________________________________________________________________
dense_1_1_conv2D (Conv2D)       (None, 12, 48, 48)   7128        activation_6[0][0]               
__________________________________________________________________________________________________
concatenate_5 (Concatenate)     (None, 78, 48, 48)   0           concatenate_4[0][0]              
                                                                 dense_1_1_conv2D[0][0]           
__________________________________________________________________________________________________
dense_1_2_bn (BatchNormalizatio (None, 78, 48, 48)   312         concatenate_5[0][0]              
__________________________________________________________________________________________________
activation_7 (Activation)       (None, 78, 48, 48)   0           dense_1_2_bn[0][0]               
__________________________________________________________________________________________________
dense_1_2_conv2D (Conv2D)       (None, 12, 48, 48)   8424        activation_7[0][0]               
__________________________________________________________________________________________________
concatenate_6 (Concatenate)     (None, 90, 48, 48)   0           concatenate_5[0][0]              
                                                                 dense_1_2_conv2D[0][0]           
__________________________________________________________________________________________________
tr_1_bn (BatchNormalization)    (None, 90, 48, 48)   360         concatenate_6[0][0]              
__________________________________________________________________________________________________
activation_8 (Activation)       (None, 90, 48, 48)   0           tr_1_bn[0][0]                    
__________________________________________________________________________________________________
tr_1_conv2D (Conv2D)            (None, 90, 48, 48)   8100        activation_8[0][0]               
__________________________________________________________________________________________________
average_pooling2d_2 (AveragePoo (None, 90, 24, 24)   0           tr_1_conv2D[0][0]                
__________________________________________________________________________________________________
dense_2_0_bn (BatchNormalizatio (None, 90, 24, 24)   360         average_pooling2d_2[0][0]        
__________________________________________________________________________________________________
activation_9 (Activation)       (None, 90, 24, 24)   0           dense_2_0_bn[0][0]               
__________________________________________________________________________________________________
dense_2_0_conv2D (Conv2D)       (None, 12, 24, 24)   9720        activation_9[0][0]               
__________________________________________________________________________________________________
concatenate_7 (Concatenate)     (None, 102, 24, 24)  0           average_pooling2d_2[0][0]        
                                                                 dense_2_0_conv2D[0][0]           
__________________________________________________________________________________________________
dense_2_1_bn (BatchNormalizatio (None, 102, 24, 24)  408         concatenate_7[0][0]              
__________________________________________________________________________________________________
activation_10 (Activation)      (None, 102, 24, 24)  0           dense_2_1_bn[0][0]               
__________________________________________________________________________________________________
dense_2_1_conv2D (Conv2D)       (None, 12, 24, 24)   11016       activation_10[0][0]              
__________________________________________________________________________________________________
concatenate_8 (Concatenate)     (None, 114, 24, 24)  0           concatenate_7[0][0]              
                                                                 dense_2_1_conv2D[0][0]           
__________________________________________________________________________________________________
dense_2_2_bn (BatchNormalizatio (None, 114, 24, 24)  456         concatenate_8[0][0]              
__________________________________________________________________________________________________
activation_11 (Activation)      (None, 114, 24, 24)  0           dense_2_2_bn[0][0]               
__________________________________________________________________________________________________
dense_2_2_conv2D (Conv2D)       (None, 12, 24, 24)   12312       activation_11[0][0]              
__________________________________________________________________________________________________
concatenate_9 (Concatenate)     (None, 126, 24, 24)  0           concatenate_8[0][0]              
                                                                 dense_2_2_conv2D[0][0]           
__________________________________________________________________________________________________
final_bn (BatchNormalization)   (None, 126, 24, 24)  504         concatenate_9[0][0]              
__________________________________________________________________________________________________
activation_12 (Activation)      (None, 126, 24, 24)  0           final_bn[0][0]                   
__________________________________________________________________________________________________
global_average_pooling2d_1 (Glo (None, 126)          0           activation_12[0][0]              
__________________________________________________________________________________________________
dense_1 (Dense)                 (None, 1)            127         global_average_pooling2d_1[0][0] 
==================================================================================================
Total params: 79,075
Trainable params: 77,347
Non-trainable params: 1,728
__________________________________________________________________________________________________
Train on 39840 samples, validate on 7440 samples
Epoch 1/20
 - 34s - loss: 0.6016 - acc: 0.7192 - val_loss: 0.5822 - val_acc: 0.7555
…
