…
------------------------ current config for the test -------------------------
Layers:  [2]  Growth_rate:  24  nb_filter:  16  dropout:  0.2
dense_block  1  reduction_:  0.5  bottleneck:  True
------------------------	  end of configs        -------------------------
pooling:flatten
__________________________________________________________________________________________________
Layer (type)                    Output Shape         Param #     Connected to                     
==================================================================================================
input_1 (InputLayer)            (None, 1, 96, 96)    0                                            
__________________________________________________________________________________________________
initial_conv2D (Conv2D)         (None, 16, 48, 48)   784         input_1[0][0]                    
__________________________________________________________________________________________________
initial_bn (BatchNormalization) (None, 16, 48, 48)   64          initial_conv2D[0][0]             
__________________________________________________________________________________________________
activation_1 (Activation)       (None, 16, 48, 48)   0           initial_bn[0][0]                 
__________________________________________________________________________________________________
max_pooling2d_1 (MaxPooling2D)  (None, 16, 24, 24)   0           activation_1[0][0]               
__________________________________________________________________________________________________
dense_0_0_bn (BatchNormalizatio (None, 16, 24, 24)   64          max_pooling2d_1[0][0]            
__________________________________________________________________________________________________
activation_2 (Activation)       (None, 16, 24, 24)   0           dense_0_0_bn[0][0]               
__________________________________________________________________________________________________
dense_0_0_bottleneck_conv2D (Co (None, 96, 24, 24)   1536        activation_2[0][0]               
__________________________________________________________________________________________________
dense_0_0_bottleneck_bn (BatchN (None, 96, 24, 24)   384         dense_0_0_bottleneck_conv2D[0][0]
__________________________________________________________________________________________________
activation_3 (Activation)       (None, 96, 24, 24)   0           dense_0_0_bottleneck_bn[0][0]    
__________________________________________________________________________________________________
dense_0_0_conv2D (Conv2D)       (None, 24, 24, 24)   20736       activation_3[0][0]               
__________________________________________________________________________________________________
dropout_1 (Dropout)             (None, 24, 24, 24)   0           dense_0_0_conv2D[0][0]           
__________________________________________________________________________________________________
concatenate_1 (Concatenate)     (None, 40, 24, 24)   0           max_pooling2d_1[0][0]            
                                                                 dropout_1[0][0]                  
__________________________________________________________________________________________________
dense_0_1_bn (BatchNormalizatio (None, 40, 24, 24)   160         concatenate_1[0][0]              
__________________________________________________________________________________________________
activation_4 (Activation)       (None, 40, 24, 24)   0           dense_0_1_bn[0][0]               
__________________________________________________________________________________________________
dense_0_1_bottleneck_conv2D (Co (None, 96, 24, 24)   3840        activation_4[0][0]               
__________________________________________________________________________________________________
dense_0_1_bottleneck_bn (BatchN (None, 96, 24, 24)   384         dense_0_1_bottleneck_conv2D[0][0]
__________________________________________________________________________________________________
activation_5 (Activation)       (None, 96, 24, 24)   0           dense_0_1_bottleneck_bn[0][0]    
__________________________________________________________________________________________________
dense_0_1_conv2D (Conv2D)       (None, 24, 24, 24)   20736       activation_5[0][0]               
__________________________________________________________________________________________________
dropout_2 (Dropout)             (None, 24, 24, 24)   0           dense_0_1_conv2D[0][0]           
__________________________________________________________________________________________________
concatenate_2 (Concatenate)     (None, 64, 24, 24)   0           concatenate_1[0][0]              
                                                                 dropout_2[0][0]                  
__________________________________________________________________________________________________
final_bn (BatchNormalization)   (None, 64, 24, 24)   256         concatenate_2[0][0]              
__________________________________________________________________________________________________
activation_6 (Activation)       (None, 64, 24, 24)   0           final_bn[0][0]                   
__________________________________________________________________________________________________
flatten_1 (Flatten)             (None, 36864)        0           activation_6[0][0]               
==================================================================================================
Total params: 48,944
Trainable params: 48,288
Non-trainable params: 656
__________________________________________________________________________________________________
__________________________________________________________________________________________________
Layer (type)                    Output Shape         Param #     Connected to                     
==================================================================================================
input_2 (InputLayer)            (None, 1, 96, 96)    0                                            
__________________________________________________________________________________________________
input_3 (InputLayer)            (None, 1, 96, 96)    0                                            
__________________________________________________________________________________________________
densenet (Model)                (None, 36864)        48944       input_2[0][0]                    
                                                                 input_3[0][0]                    
__________________________________________________________________________________________________
merge_features (Concatenate)    (None, 73728)        0           densenet[1][0]                   
                                                                 densenet[2][0]                   
__________________________________________________________________________________________________
dense_1 (Dense)                 (None, 512)          37749248    merge_features[0][0]             
__________________________________________________________________________________________________
activation_7 (Activation)       (None, 512)          0           dense_1[0][0]                    
__________________________________________________________________________________________________
batch_normalization_1 (BatchNor (None, 512)          2048        activation_7[0][0]               
__________________________________________________________________________________________________
dropout_3 (Dropout)             (None, 512)          0           batch_normalization_1[0][0]      
__________________________________________________________________________________________________
dense_2 (Dense)                 (None, 1)            513         dropout_3[0][0]                  
==================================================================================================
Total params: 37,800,753
Trainable params: 37,799,073
Non-trainable params: 1,680
__________________________________________________________________________________________________
Finished compiling
Train on 31872 samples, validate on 7968 samples
Epoch 1/6
…
------------------------ current config for the test -------------------------
Layers:  [2]  Growth_rate:  30  nb_filter:  16  dropout:  0.2
dense_block  1  reduction_:  0.5  bottleneck:  True
------------------------	  end of configs        -------------------------
pooling:flatten
__________________________________________________________________________________________________
Layer (type)                    Output Shape         Param #     Connected to                     
==================================================================================================
input_1 (InputLayer)            (None, 1, 96, 96)    0                                            
__________________________________________________________________________________________________
initial_conv2D (Conv2D)         (None, 16, 48, 48)   784         input_1[0][0]                    
__________________________________________________________________________________________________
initial_bn (BatchNormalization) (None, 16, 48, 48)   64          initial_conv2D[0][0]             
__________________________________________________________________________________________________
activation_1 (Activation)       (None, 16, 48, 48)   0           initial_bn[0][0]                 
__________________________________________________________________________________________________
max_pooling2d_1 (MaxPooling2D)  (None, 16, 24, 24)   0           activation_1[0][0]               
__________________________________________________________________________________________________
dense_0_0_bn (BatchNormalizatio (None, 16, 24, 24)   64          max_pooling2d_1[0][0]            
__________________________________________________________________________________________________
activation_2 (Activation)       (None, 16, 24, 24)   0           dense_0_0_bn[0][0]               
__________________________________________________________________________________________________
dense_0_0_bottleneck_conv2D (Co (None, 120, 24, 24)  1920        activation_2[0][0]               
__________________________________________________________________________________________________
dense_0_0_bottleneck_bn (BatchN (None, 120, 24, 24)  480         dense_0_0_bottleneck_conv2D[0][0]
__________________________________________________________________________________________________
activation_3 (Activation)       (None, 120, 24, 24)  0           dense_0_0_bottleneck_bn[0][0]    
__________________________________________________________________________________________________
dense_0_0_conv2D (Conv2D)       (None, 30, 24, 24)   32400       activation_3[0][0]               
__________________________________________________________________________________________________
dropout_1 (Dropout)             (None, 30, 24, 24)   0           dense_0_0_conv2D[0][0]           
__________________________________________________________________________________________________
concatenate_1 (Concatenate)     (None, 46, 24, 24)   0           max_pooling2d_1[0][0]            
                                                                 dropout_1[0][0]                  
__________________________________________________________________________________________________
dense_0_1_bn (BatchNormalizatio (None, 46, 24, 24)   184         concatenate_1[0][0]              
__________________________________________________________________________________________________
activation_4 (Activation)       (None, 46, 24, 24)   0           dense_0_1_bn[0][0]               
__________________________________________________________________________________________________
dense_0_1_bottleneck_conv2D (Co (None, 120, 24, 24)  5520        activation_4[0][0]               
__________________________________________________________________________________________________
dense_0_1_bottleneck_bn (BatchN (None, 120, 24, 24)  480         dense_0_1_bottleneck_conv2D[0][0]
__________________________________________________________________________________________________
activation_5 (Activation)       (None, 120, 24, 24)  0           dense_0_1_bottleneck_bn[0][0]    
__________________________________________________________________________________________________
dense_0_1_conv2D (Conv2D)       (None, 30, 24, 24)   32400       activation_5[0][0]               
__________________________________________________________________________________________________
dropout_2 (Dropout)             (None, 30, 24, 24)   0           dense_0_1_conv2D[0][0]           
__________________________________________________________________________________________________
concatenate_2 (Concatenate)     (None, 76, 24, 24)   0           concatenate_1[0][0]              
                                                                 dropout_2[0][0]                  
__________________________________________________________________________________________________
final_bn (BatchNormalization)   (None, 76, 24, 24)   304         concatenate_2[0][0]              
__________________________________________________________________________________________________
activation_6 (Activation)       (None, 76, 24, 24)   0           final_bn[0][0]                   
__________________________________________________________________________________________________
flatten_1 (Flatten)             (None, 43776)        0           activation_6[0][0]               
==================================================================================================
Total params: 74,600
Trainable params: 73,812
Non-trainable params: 788
__________________________________________________________________________________________________
__________________________________________________________________________________________________
Layer (type)                    Output Shape         Param #     Connected to                     
==================================================================================================
input_2 (InputLayer)            (None, 1, 96, 96)    0                                            
__________________________________________________________________________________________________
input_3 (InputLayer)            (None, 1, 96, 96)    0                                            
__________________________________________________________________________________________________
densenet (Model)                (None, 43776)        74600       input_2[0][0]                    
                                                                 input_3[0][0]                    
__________________________________________________________________________________________________
merge_features (Concatenate)    (None, 87552)        0           densenet[1][0]                   
                                                                 densenet[2][0]                   
__________________________________________________________________________________________________
dense_1 (Dense)                 (None, 512)          44827136    merge_features[0][0]             
__________________________________________________________________________________________________
activation_7 (Activation)       (None, 512)          0           dense_1[0][0]                    
__________________________________________________________________________________________________
batch_normalization_1 (BatchNor (None, 512)          2048        activation_7[0][0]               
__________________________________________________________________________________________________
dropout_3 (Dropout)             (None, 512)          0           batch_normalization_1[0][0]      
__________________________________________________________________________________________________
dense_2 (Dense)                 (None, 1)            513         dropout_3[0][0]                  
==================================================================================================
Total params: 44,904,297
Trainable params: 44,902,485
Non-trainable params: 1,812
__________________________________________________________________________________________________
Finished compiling
Train on 31872 samples, validate on 7968 samples
Epoch 1/6
…
------------------------ current config for the test -------------------------
Layers:  [2]  Growth_rate:  36  nb_filter:  16  dropout:  0.2
dense_block  1  reduction_:  0.5  bottleneck:  True
------------------------	  end of configs        -------------------------
pooling:flatten
__________________________________________________________________________________________________
Layer (type)                    Output Shape         Param #     Connected to                     
==================================================================================================
input_1 (InputLayer)            (None, 1, 96, 96)    0                                            
__________________________________________________________________________________________________
initial_conv2D (Conv2D)         (None, 16, 48, 48)   784         input_1[0][0]                    
__________________________________________________________________________________________________
initial_bn (BatchNormalization) (None, 16, 48, 48)   64          initial_conv2D[0][0]             
__________________________________________________________________________________________________
activation_1 (Activation)       (None, 16, 48, 48)   0           initial_bn[0][0]                 
__________________________________________________________________________________________________
max_pooling2d_1 (MaxPooling2D)  (None, 16, 24, 24)   0           activation_1[0][0]               
__________________________________________________________________________________________________
dense_0_0_bn (BatchNormalizatio (None, 16, 24, 24)   64          max_pooling2d_1[0][0]            
__________________________________________________________________________________________________
activation_2 (Activation)       (None, 16, 24, 24)   0           dense_0_0_bn[0][0]               
__________________________________________________________________________________________________
dense_0_0_bottleneck_conv2D (Co (None, 144, 24, 24)  2304        activation_2[0][0]               
__________________________________________________________________________________________________
dense_0_0_bottleneck_bn (BatchN (None, 144, 24, 24)  576         dense_0_0_bottleneck_conv2D[0][0]
__________________________________________________________________________________________________
activation_3 (Activation)       (None, 144, 24, 24)  0           dense_0_0_bottleneck_bn[0][0]    
__________________________________________________________________________________________________
dense_0_0_conv2D (Conv2D)       (None, 36, 24, 24)   46656       activation_3[0][0]               
__________________________________________________________________________________________________
dropout_1 (Dropout)             (None, 36, 24, 24)   0           dense_0_0_conv2D[0][0]           
__________________________________________________________________________________________________
concatenate_1 (Concatenate)     (None, 52, 24, 24)   0           max_pooling2d_1[0][0]            
                                                                 dropout_1[0][0]                  
__________________________________________________________________________________________________
dense_0_1_bn (BatchNormalizatio (None, 52, 24, 24)   208         concatenate_1[0][0]              
__________________________________________________________________________________________________
activation_4 (Activation)       (None, 52, 24, 24)   0           dense_0_1_bn[0][0]               
__________________________________________________________________________________________________
dense_0_1_bottleneck_conv2D (Co (None, 144, 24, 24)  7488        activation_4[0][0]               
__________________________________________________________________________________________________
dense_0_1_bottleneck_bn (BatchN (None, 144, 24, 24)  576         dense_0_1_bottleneck_conv2D[0][0]
__________________________________________________________________________________________________
activation_5 (Activation)       (None, 144, 24, 24)  0           dense_0_1_bottleneck_bn[0][0]    
__________________________________________________________________________________________________
dense_0_1_conv2D (Conv2D)       (None, 36, 24, 24)   46656       activation_5[0][0]               
__________________________________________________________________________________________________
dropout_2 (Dropout)             (None, 36, 24, 24)   0           dense_0_1_conv2D[0][0]           
__________________________________________________________________________________________________
concatenate_2 (Concatenate)     (None, 88, 24, 24)   0           concatenate_1[0][0]              
                                                                 dropout_2[0][0]                  
__________________________________________________________________________________________________
final_bn (BatchNormalization)   (None, 88, 24, 24)   352         concatenate_2[0][0]              
__________________________________________________________________________________________________
activation_6 (Activation)       (None, 88, 24, 24)   0           final_bn[0][0]                   
__________________________________________________________________________________________________
flatten_1 (Flatten)             (None, 50688)        0           activation_6[0][0]               
==================================================================================================
Total params: 105,728
Trainable params: 104,808
Non-trainable params: 920
__________________________________________________________________________________________________
__________________________________________________________________________________________________
Layer (type)                    Output Shape         Param #     Connected to                     
==================================================================================================
input_2 (InputLayer)            (None, 1, 96, 96)    0                                            
__________________________________________________________________________________________________
input_3 (InputLayer)            (None, 1, 96, 96)    0                                            
__________________________________________________________________________________________________
densenet (Model)                (None, 50688)        105728      input_2[0][0]                    
                                                                 input_3[0][0]                    
__________________________________________________________________________________________________
merge_features (Concatenate)    (None, 101376)       0           densenet[1][0]                   
                                                                 densenet[2][0]                   
__________________________________________________________________________________________________
dense_1 (Dense)                 (None, 512)          51905024    merge_features[0][0]             
__________________________________________________________________________________________________
activation_7 (Activation)       (None, 512)          0           dense_1[0][0]                    
__________________________________________________________________________________________________
batch_normalization_1 (BatchNor (None, 512)          2048        activation_7[0][0]               
__________________________________________________________________________________________________
dropout_3 (Dropout)             (None, 512)          0           batch_normalization_1[0][0]      
__________________________________________________________________________________________________
dense_2 (Dense)                 (None, 1)            513         dropout_3[0][0]                  
==================================================================================================
Total params: 52,013,313
Trainable params: 52,011,369
Non-trainable params: 1,944
__________________________________________________________________________________________________
Finished compiling
Train on 31872 samples, validate on 7968 samples
Epoch 1/6
…
------------------------ current config for the test -------------------------
Layers:  [3]  Growth_rate:  24  nb_filter:  16  dropout:  0.2
dense_block  1  reduction_:  0.5  bottleneck:  True
------------------------	  end of configs        -------------------------
pooling:flatten
__________________________________________________________________________________________________
Layer (type)                    Output Shape         Param #     Connected to                     
==================================================================================================
input_1 (InputLayer)            (None, 1, 96, 96)    0                                            
__________________________________________________________________________________________________
initial_conv2D (Conv2D)         (None, 16, 48, 48)   784         input_1[0][0]                    
__________________________________________________________________________________________________
initial_bn (BatchNormalization) (None, 16, 48, 48)   64          initial_conv2D[0][0]             
__________________________________________________________________________________________________
activation_1 (Activation)       (None, 16, 48, 48)   0           initial_bn[0][0]                 
__________________________________________________________________________________________________
max_pooling2d_1 (MaxPooling2D)  (None, 16, 24, 24)   0           activation_1[0][0]               
__________________________________________________________________________________________________
dense_0_0_bn (BatchNormalizatio (None, 16, 24, 24)   64          max_pooling2d_1[0][0]            
__________________________________________________________________________________________________
activation_2 (Activation)       (None, 16, 24, 24)   0           dense_0_0_bn[0][0]               
__________________________________________________________________________________________________
dense_0_0_bottleneck_conv2D (Co (None, 96, 24, 24)   1536        activation_2[0][0]               
__________________________________________________________________________________________________
dense_0_0_bottleneck_bn (BatchN (None, 96, 24, 24)   384         dense_0_0_bottleneck_conv2D[0][0]
__________________________________________________________________________________________________
activation_3 (Activation)       (None, 96, 24, 24)   0           dense_0_0_bottleneck_bn[0][0]    
__________________________________________________________________________________________________
dense_0_0_conv2D (Conv2D)       (None, 24, 24, 24)   20736       activation_3[0][0]               
__________________________________________________________________________________________________
dropout_1 (Dropout)             (None, 24, 24, 24)   0           dense_0_0_conv2D[0][0]           
__________________________________________________________________________________________________
concatenate_1 (Concatenate)     (None, 40, 24, 24)   0           max_pooling2d_1[0][0]            
                                                                 dropout_1[0][0]                  
__________________________________________________________________________________________________
dense_0_1_bn (BatchNormalizatio (None, 40, 24, 24)   160         concatenate_1[0][0]              
__________________________________________________________________________________________________
activation_4 (Activation)       (None, 40, 24, 24)   0           dense_0_1_bn[0][0]               
__________________________________________________________________________________________________
dense_0_1_bottleneck_conv2D (Co (None, 96, 24, 24)   3840        activation_4[0][0]               
__________________________________________________________________________________________________
dense_0_1_bottleneck_bn (BatchN (None, 96, 24, 24)   384         dense_0_1_bottleneck_conv2D[0][0]
__________________________________________________________________________________________________
activation_5 (Activation)       (None, 96, 24, 24)   0           dense_0_1_bottleneck_bn[0][0]    
__________________________________________________________________________________________________
dense_0_1_conv2D (Conv2D)       (None, 24, 24, 24)   20736       activation_5[0][0]               
__________________________________________________________________________________________________
dropout_2 (Dropout)             (None, 24, 24, 24)   0           dense_0_1_conv2D[0][0]           
__________________________________________________________________________________________________
concatenate_2 (Concatenate)     (None, 64, 24, 24)   0           concatenate_1[0][0]              
                                                                 dropout_2[0][0]                  
__________________________________________________________________________________________________
dense_0_2_bn (BatchNormalizatio (None, 64, 24, 24)   256         concatenate_2[0][0]              
__________________________________________________________________________________________________
activation_6 (Activation)       (None, 64, 24, 24)   0           dense_0_2_bn[0][0]               
__________________________________________________________________________________________________
dense_0_2_bottleneck_conv2D (Co (None, 96, 24, 24)   6144        activation_6[0][0]               
__________________________________________________________________________________________________
dense_0_2_bottleneck_bn (BatchN (None, 96, 24, 24)   384         dense_0_2_bottleneck_conv2D[0][0]
__________________________________________________________________________________________________
activation_7 (Activation)       (None, 96, 24, 24)   0           dense_0_2_bottleneck_bn[0][0]    
__________________________________________________________________________________________________
dense_0_2_conv2D (Conv2D)       (None, 24, 24, 24)   20736       activation_7[0][0]               
__________________________________________________________________________________________________
dropout_3 (Dropout)             (None, 24, 24, 24)   0           dense_0_2_conv2D[0][0]           
__________________________________________________________________________________________________
concatenate_3 (Concatenate)     (None, 88, 24, 24)   0           concatenate_2[0][0]              
                                                                 dropout_3[0][0]                  
__________________________________________________________________________________________________
final_bn (BatchNormalization)   (None, 88, 24, 24)   352         concatenate_3[0][0]              
__________________________________________________________________________________________________
activation_8 (Activation)       (None, 88, 24, 24)   0           final_bn[0][0]                   
__________________________________________________________________________________________________
flatten_1 (Flatten)             (None, 50688)        0           activation_8[0][0]               
==================================================================================================
Total params: 76,560
Trainable params: 75,536
Non-trainable params: 1,024
__________________________________________________________________________________________________
__________________________________________________________________________________________________
Layer (type)                    Output Shape         Param #     Connected to                     
==================================================================================================
input_2 (InputLayer)            (None, 1, 96, 96)    0                                            
__________________________________________________________________________________________________
input_3 (InputLayer)            (None, 1, 96, 96)    0                                            
__________________________________________________________________________________________________
densenet (Model)                (None, 50688)        76560       input_2[0][0]                    
                                                                 input_3[0][0]                    
__________________________________________________________________________________________________
merge_features (Concatenate)    (None, 101376)       0           densenet[1][0]                   
                                                                 densenet[2][0]                   
__________________________________________________________________________________________________
dense_1 (Dense)                 (None, 512)          51905024    merge_features[0][0]             
__________________________________________________________________________________________________
activation_9 (Activation)       (None, 512)          0           dense_1[0][0]                    
__________________________________________________________________________________________________
batch_normalization_1 (BatchNor (None, 512)          2048        activation_9[0][0]               
__________________________________________________________________________________________________
dropout_4 (Dropout)             (None, 512)          0           batch_normalization_1[0][0]      
__________________________________________________________________________________________________
dense_2 (Dense)                 (None, 1)            513         dropout_4[0][0]                  
==================================================================================================
Total params: 51,984,145
Trainable params: 51,982,097
Non-trainable params: 2,048
__________________________________________________________________________________________________
Finished compiling
Train on 31872 samples, validate on 7968 samples
Epoch 1/6
…
------------------------ current config for the test -------------------------
Layers:  [3]  Growth_rate:  30  nb_filter:  16  dropout:  0.2
dense_block  1  reduction_:  0.5  bottleneck:  True
------------------------	  end of configs        -------------------------
pooling:flatten
__________________________________________________________________________________________________
Layer (type)                    Output Shape         Param #     Connected to                     
==================================================================================================
input_1 (InputLayer)            (None, 1, 96, 96)    0                                            
__________________________________________________________________________________________________
initial_conv2D (Conv2D)         (None, 16, 48, 48)   784         input_1[0][0]                    
__________________________________________________________________________________________________
initial_bn (BatchNormalization) (None, 16, 48, 48)   64          initial_conv2D[0][0]             
__________________________________________________________________________________________________
activation_1 (Activation)       (None, 16, 48, 48)   0           initial_bn[0][0]                 
__________________________________________________________________________________________________
max_pooling2d_1 (MaxPooling2D)  (None, 16, 24, 24)   0           activation_1[0][0]               
__________________________________________________________________________________________________
dense_0_0_bn (BatchNormalizatio (None, 16, 24, 24)   64          max_pooling2d_1[0][0]            
__________________________________________________________________________________________________
activation_2 (Activation)       (None, 16, 24, 24)   0           dense_0_0_bn[0][0]               
__________________________________________________________________________________________________
dense_0_0_bottleneck_conv2D (Co (None, 120, 24, 24)  1920        activation_2[0][0]               
__________________________________________________________________________________________________
dense_0_0_bottleneck_bn (BatchN (None, 120, 24, 24)  480         dense_0_0_bottleneck_conv2D[0][0]
__________________________________________________________________________________________________
activation_3 (Activation)       (None, 120, 24, 24)  0           dense_0_0_bottleneck_bn[0][0]    
__________________________________________________________________________________________________
dense_0_0_conv2D (Conv2D)       (None, 30, 24, 24)   32400       activation_3[0][0]               
__________________________________________________________________________________________________
dropout_1 (Dropout)             (None, 30, 24, 24)   0           dense_0_0_conv2D[0][0]           
__________________________________________________________________________________________________
concatenate_1 (Concatenate)     (None, 46, 24, 24)   0           max_pooling2d_1[0][0]            
                                                                 dropout_1[0][0]                  
__________________________________________________________________________________________________
dense_0_1_bn (BatchNormalizatio (None, 46, 24, 24)   184         concatenate_1[0][0]              
__________________________________________________________________________________________________
activation_4 (Activation)       (None, 46, 24, 24)   0           dense_0_1_bn[0][0]               
__________________________________________________________________________________________________
dense_0_1_bottleneck_conv2D (Co (None, 120, 24, 24)  5520        activation_4[0][0]               
__________________________________________________________________________________________________
dense_0_1_bottleneck_bn (BatchN (None, 120, 24, 24)  480         dense_0_1_bottleneck_conv2D[0][0]
__________________________________________________________________________________________________
activation_5 (Activation)       (None, 120, 24, 24)  0           dense_0_1_bottleneck_bn[0][0]    
__________________________________________________________________________________________________
dense_0_1_conv2D (Conv2D)       (None, 30, 24, 24)   32400       activation_5[0][0]               
__________________________________________________________________________________________________
dropout_2 (Dropout)             (None, 30, 24, 24)   0           dense_0_1_conv2D[0][0]           
__________________________________________________________________________________________________
concatenate_2 (Concatenate)     (None, 76, 24, 24)   0           concatenate_1[0][0]              
                                                                 dropout_2[0][0]                  
__________________________________________________________________________________________________
dense_0_2_bn (BatchNormalizatio (None, 76, 24, 24)   304         concatenate_2[0][0]              
__________________________________________________________________________________________________
activation_6 (Activation)       (None, 76, 24, 24)   0           dense_0_2_bn[0][0]               
__________________________________________________________________________________________________
dense_0_2_bottleneck_conv2D (Co (None, 120, 24, 24)  9120        activation_6[0][0]               
__________________________________________________________________________________________________
dense_0_2_bottleneck_bn (BatchN (None, 120, 24, 24)  480         dense_0_2_bottleneck_conv2D[0][0]
__________________________________________________________________________________________________
activation_7 (Activation)       (None, 120, 24, 24)  0           dense_0_2_bottleneck_bn[0][0]    
__________________________________________________________________________________________________
dense_0_2_conv2D (Conv2D)       (None, 30, 24, 24)   32400       activation_7[0][0]               
__________________________________________________________________________________________________
dropout_3 (Dropout)             (None, 30, 24, 24)   0           dense_0_2_conv2D[0][0]           
__________________________________________________________________________________________________
concatenate_3 (Concatenate)     (None, 106, 24, 24)  0           concatenate_2[0][0]              
                                                                 dropout_3[0][0]                  
__________________________________________________________________________________________________
final_bn (BatchNormalization)   (None, 106, 24, 24)  424         concatenate_3[0][0]              
__________________________________________________________________________________________________
activation_8 (Activation)       (None, 106, 24, 24)  0           final_bn[0][0]                   
__________________________________________________________________________________________________
flatten_1 (Flatten)             (None, 61056)        0           activation_8[0][0]               
==================================================================================================
Total params: 117,024
Trainable params: 115,784
Non-trainable params: 1,240
__________________________________________________________________________________________________
__________________________________________________________________________________________________
Layer (type)                    Output Shape         Param #     Connected to                     
==================================================================================================
input_2 (InputLayer)            (None, 1, 96, 96)    0                                            
__________________________________________________________________________________________________
input_3 (InputLayer)            (None, 1, 96, 96)    0                                            
__________________________________________________________________________________________________
densenet (Model)                (None, 61056)        117024      input_2[0][0]                    
                                                                 input_3[0][0]                    
__________________________________________________________________________________________________
merge_features (Concatenate)    (None, 122112)       0           densenet[1][0]                   
                                                                 densenet[2][0]                   
__________________________________________________________________________________________________
dense_1 (Dense)                 (None, 512)          62521856    merge_features[0][0]             
__________________________________________________________________________________________________
activation_9 (Activation)       (None, 512)          0           dense_1[0][0]                    
__________________________________________________________________________________________________
batch_normalization_1 (BatchNor (None, 512)          2048        activation_9[0][0]               
__________________________________________________________________________________________________
dropout_4 (Dropout)             (None, 512)          0           batch_normalization_1[0][0]      
__________________________________________________________________________________________________
dense_2 (Dense)                 (None, 1)            513         dropout_4[0][0]                  
==================================================================================================
Total params: 62,641,441
Trainable params: 62,639,177
Non-trainable params: 2,264
__________________________________________________________________________________________________
Finished compiling
Train on 31872 samples, validate on 7968 samples
Epoch 1/6
…
------------------------ current config for the test -------------------------
Layers:  [3]  Growth_rate:  36  nb_filter:  16  dropout:  0.2
dense_block  1  reduction_:  0.5  bottleneck:  True
------------------------	  end of configs        -------------------------
pooling:flatten
__________________________________________________________________________________________________
Layer (type)                    Output Shape         Param #     Connected to                     
==================================================================================================
input_1 (InputLayer)            (None, 1, 96, 96)    0                                            
__________________________________________________________________________________________________
initial_conv2D (Conv2D)         (None, 16, 48, 48)   784         input_1[0][0]                    
__________________________________________________________________________________________________
initial_bn (BatchNormalization) (None, 16, 48, 48)   64          initial_conv2D[0][0]             
__________________________________________________________________________________________________
activation_1 (Activation)       (None, 16, 48, 48)   0           initial_bn[0][0]                 
__________________________________________________________________________________________________
max_pooling2d_1 (MaxPooling2D)  (None, 16, 24, 24)   0           activation_1[0][0]               
__________________________________________________________________________________________________
dense_0_0_bn (BatchNormalizatio (None, 16, 24, 24)   64          max_pooling2d_1[0][0]            
__________________________________________________________________________________________________
activation_2 (Activation)       (None, 16, 24, 24)   0           dense_0_0_bn[0][0]               
__________________________________________________________________________________________________
dense_0_0_bottleneck_conv2D (Co (None, 144, 24, 24)  2304        activation_2[0][0]               
__________________________________________________________________________________________________
dense_0_0_bottleneck_bn (BatchN (None, 144, 24, 24)  576         dense_0_0_bottleneck_conv2D[0][0]
__________________________________________________________________________________________________
activation_3 (Activation)       (None, 144, 24, 24)  0           dense_0_0_bottleneck_bn[0][0]    
__________________________________________________________________________________________________
dense_0_0_conv2D (Conv2D)       (None, 36, 24, 24)   46656       activation_3[0][0]               
__________________________________________________________________________________________________
dropout_1 (Dropout)             (None, 36, 24, 24)   0           dense_0_0_conv2D[0][0]           
__________________________________________________________________________________________________
concatenate_1 (Concatenate)     (None, 52, 24, 24)   0           max_pooling2d_1[0][0]            
                                                                 dropout_1[0][0]                  
__________________________________________________________________________________________________
dense_0_1_bn (BatchNormalizatio (None, 52, 24, 24)   208         concatenate_1[0][0]              
__________________________________________________________________________________________________
activation_4 (Activation)       (None, 52, 24, 24)   0           dense_0_1_bn[0][0]               
__________________________________________________________________________________________________
dense_0_1_bottleneck_conv2D (Co (None, 144, 24, 24)  7488        activation_4[0][0]               
__________________________________________________________________________________________________
dense_0_1_bottleneck_bn (BatchN (None, 144, 24, 24)  576         dense_0_1_bottleneck_conv2D[0][0]
__________________________________________________________________________________________________
activation_5 (Activation)       (None, 144, 24, 24)  0           dense_0_1_bottleneck_bn[0][0]    
__________________________________________________________________________________________________
dense_0_1_conv2D (Conv2D)       (None, 36, 24, 24)   46656       activation_5[0][0]               
__________________________________________________________________________________________________
dropout_2 (Dropout)             (None, 36, 24, 24)   0           dense_0_1_conv2D[0][0]           
__________________________________________________________________________________________________
concatenate_2 (Concatenate)     (None, 88, 24, 24)   0           concatenate_1[0][0]              
                                                                 dropout_2[0][0]                  
__________________________________________________________________________________________________
dense_0_2_bn (BatchNormalizatio (None, 88, 24, 24)   352         concatenate_2[0][0]              
__________________________________________________________________________________________________
activation_6 (Activation)       (None, 88, 24, 24)   0           dense_0_2_bn[0][0]               
__________________________________________________________________________________________________
dense_0_2_bottleneck_conv2D (Co (None, 144, 24, 24)  12672       activation_6[0][0]               
__________________________________________________________________________________________________
dense_0_2_bottleneck_bn (BatchN (None, 144, 24, 24)  576         dense_0_2_bottleneck_conv2D[0][0]
__________________________________________________________________________________________________
activation_7 (Activation)       (None, 144, 24, 24)  0           dense_0_2_bottleneck_bn[0][0]    
__________________________________________________________________________________________________
dense_0_2_conv2D (Conv2D)       (None, 36, 24, 24)   46656       activation_7[0][0]               
__________________________________________________________________________________________________
dropout_3 (Dropout)             (None, 36, 24, 24)   0           dense_0_2_conv2D[0][0]           
__________________________________________________________________________________________________
concatenate_3 (Concatenate)     (None, 124, 24, 24)  0           concatenate_2[0][0]              
                                                                 dropout_3[0][0]                  
__________________________________________________________________________________________________
final_bn (BatchNormalization)   (None, 124, 24, 24)  496         concatenate_3[0][0]              
__________________________________________________________________________________________________
activation_8 (Activation)       (None, 124, 24, 24)  0           final_bn[0][0]                   
__________________________________________________________________________________________________
flatten_1 (Flatten)             (None, 71424)        0           activation_8[0][0]               
==================================================================================================
Total params: 166,128
Trainable params: 164,672
Non-trainable params: 1,456
__________________________________________________________________________________________________
__________________________________________________________________________________________________
Layer (type)                    Output Shape         Param #     Connected to                     
==================================================================================================
input_2 (InputLayer)            (None, 1, 96, 96)    0                                            
__________________________________________________________________________________________________
input_3 (InputLayer)            (None, 1, 96, 96)    0                                            
__________________________________________________________________________________________________
densenet (Model)                (None, 71424)        166128      input_2[0][0]                    
                                                                 input_3[0][0]                    
__________________________________________________________________________________________________
merge_features (Concatenate)    (None, 142848)       0           densenet[1][0]                   
                                                                 densenet[2][0]                   
__________________________________________________________________________________________________
dense_1 (Dense)                 (None, 512)          73138688    merge_features[0][0]             
__________________________________________________________________________________________________
activation_9 (Activation)       (None, 512)          0           dense_1[0][0]                    
__________________________________________________________________________________________________
batch_normalization_1 (BatchNor (None, 512)          2048        activation_9[0][0]               
__________________________________________________________________________________________________
dropout_4 (Dropout)             (None, 512)          0           batch_normalization_1[0][0]      
__________________________________________________________________________________________________
dense_2 (Dense)                 (None, 1)            513         dropout_4[0][0]                  
==================================================================================================
Total params: 73,307,377
Trainable params: 73,304,897
Non-trainable params: 2,480
__________________________________________________________________________________________________
Finished compiling
Train on 31872 samples, validate on 7968 samples
Epoch 1/6
…
------------------------ current config for the test -------------------------
Layers:  [4]  Growth_rate:  24  nb_filter:  16  dropout:  0.2
dense_block  1  reduction_:  0.5  bottleneck:  True
------------------------	  end of configs        -------------------------
pooling:flatten
__________________________________________________________________________________________________
Layer (type)                    Output Shape         Param #     Connected to                     
==================================================================================================
input_1 (InputLayer)            (None, 1, 96, 96)    0                                            
__________________________________________________________________________________________________
initial_conv2D (Conv2D)         (None, 16, 48, 48)   784         input_1[0][0]                    
__________________________________________________________________________________________________
initial_bn (BatchNormalization) (None, 16, 48, 48)   64          initial_conv2D[0][0]             
__________________________________________________________________________________________________
activation_1 (Activation)       (None, 16, 48, 48)   0           initial_bn[0][0]                 
__________________________________________________________________________________________________
max_pooling2d_1 (MaxPooling2D)  (None, 16, 24, 24)   0           activation_1[0][0]               
__________________________________________________________________________________________________
dense_0_0_bn (BatchNormalizatio (None, 16, 24, 24)   64          max_pooling2d_1[0][0]            
__________________________________________________________________________________________________
activation_2 (Activation)       (None, 16, 24, 24)   0           dense_0_0_bn[0][0]               
__________________________________________________________________________________________________
dense_0_0_bottleneck_conv2D (Co (None, 96, 24, 24)   1536        activation_2[0][0]               
__________________________________________________________________________________________________
dense_0_0_bottleneck_bn (BatchN (None, 96, 24, 24)   384         dense_0_0_bottleneck_conv2D[0][0]
__________________________________________________________________________________________________
activation_3 (Activation)       (None, 96, 24, 24)   0           dense_0_0_bottleneck_bn[0][0]    
__________________________________________________________________________________________________
dense_0_0_conv2D (Conv2D)       (None, 24, 24, 24)   20736       activation_3[0][0]               
__________________________________________________________________________________________________
dropout_1 (Dropout)             (None, 24, 24, 24)   0           dense_0_0_conv2D[0][0]           
__________________________________________________________________________________________________
concatenate_1 (Concatenate)     (None, 40, 24, 24)   0           max_pooling2d_1[0][0]            
                                                                 dropout_1[0][0]                  
__________________________________________________________________________________________________
dense_0_1_bn (BatchNormalizatio (None, 40, 24, 24)   160         concatenate_1[0][0]              
__________________________________________________________________________________________________
activation_4 (Activation)       (None, 40, 24, 24)   0           dense_0_1_bn[0][0]               
__________________________________________________________________________________________________
dense_0_1_bottleneck_conv2D (Co (None, 96, 24, 24)   3840        activation_4[0][0]               
__________________________________________________________________________________________________
dense_0_1_bottleneck_bn (BatchN (None, 96, 24, 24)   384         dense_0_1_bottleneck_conv2D[0][0]
__________________________________________________________________________________________________
activation_5 (Activation)       (None, 96, 24, 24)   0           dense_0_1_bottleneck_bn[0][0]    
__________________________________________________________________________________________________
dense_0_1_conv2D (Conv2D)       (None, 24, 24, 24)   20736       activation_5[0][0]               
__________________________________________________________________________________________________
dropout_2 (Dropout)             (None, 24, 24, 24)   0           dense_0_1_conv2D[0][0]           
__________________________________________________________________________________________________
concatenate_2 (Concatenate)     (None, 64, 24, 24)   0           concatenate_1[0][0]              
                                                                 dropout_2[0][0]                  
__________________________________________________________________________________________________
dense_0_2_bn (BatchNormalizatio (None, 64, 24, 24)   256         concatenate_2[0][0]              
__________________________________________________________________________________________________
activation_6 (Activation)       (None, 64, 24, 24)   0           dense_0_2_bn[0][0]               
__________________________________________________________________________________________________
dense_0_2_bottleneck_conv2D (Co (None, 96, 24, 24)   6144        activation_6[0][0]               
__________________________________________________________________________________________________
dense_0_2_bottleneck_bn (BatchN (None, 96, 24, 24)   384         dense_0_2_bottleneck_conv2D[0][0]
__________________________________________________________________________________________________
activation_7 (Activation)       (None, 96, 24, 24)   0           dense_0_2_bottleneck_bn[0][0]    
__________________________________________________________________________________________________
dense_0_2_conv2D (Conv2D)       (None, 24, 24, 24)   20736       activation_7[0][0]               
__________________________________________________________________________________________________
dropout_3 (Dropout)             (None, 24, 24, 24)   0           dense_0_2_conv2D[0][0]           
__________________________________________________________________________________________________
concatenate_3 (Concatenate)     (None, 88, 24, 24)   0           concatenate_2[0][0]              
                                                                 dropout_3[0][0]                  
__________________________________________________________________________________________________
dense_0_3_bn (BatchNormalizatio (None, 88, 24, 24)   352         concatenate_3[0][0]              
__________________________________________________________________________________________________
activation_8 (Activation)       (None, 88, 24, 24)   0           dense_0_3_bn[0][0]               
__________________________________________________________________________________________________
dense_0_3_bottleneck_conv2D (Co (None, 96, 24, 24)   8448        activation_8[0][0]               
__________________________________________________________________________________________________
dense_0_3_bottleneck_bn (BatchN (None, 96, 24, 24)   384         dense_0_3_bottleneck_conv2D[0][0]
__________________________________________________________________________________________________
activation_9 (Activation)       (None, 96, 24, 24)   0           dense_0_3_bottleneck_bn[0][0]    
__________________________________________________________________________________________________
dense_0_3_conv2D (Conv2D)       (None, 24, 24, 24)   20736       activation_9[0][0]               
__________________________________________________________________________________________________
dropout_4 (Dropout)             (None, 24, 24, 24)   0           dense_0_3_conv2D[0][0]           
__________________________________________________________________________________________________
concatenate_4 (Concatenate)     (None, 112, 24, 24)  0           concatenate_3[0][0]              
                                                                 dropout_4[0][0]                  
__________________________________________________________________________________________________
final_bn (BatchNormalization)   (None, 112, 24, 24)  448         concatenate_4[0][0]              
__________________________________________________________________________________________________
activation_10 (Activation)      (None, 112, 24, 24)  0           final_bn[0][0]                   
__________________________________________________________________________________________________
flatten_1 (Flatten)             (None, 64512)        0           activation_10[0][0]              
==================================================================================================
Total params: 106,576
Trainable params: 105,136
Non-trainable params: 1,440
__________________________________________________________________________________________________
__________________________________________________________________________________________________
Layer (type)                    Output Shape         Param #     Connected to                     
==================================================================================================
input_2 (InputLayer)            (None, 1, 96, 96)    0                                            
__________________________________________________________________________________________________
input_3 (InputLayer)            (None, 1, 96, 96)    0                                            
__________________________________________________________________________________________________
densenet (Model)                (None, 64512)        106576      input_2[0][0]                    
                                                                 input_3[0][0]                    
__________________________________________________________________________________________________
merge_features (Concatenate)    (None, 129024)       0           densenet[1][0]                   
                                                                 densenet[2][0]                   
__________________________________________________________________________________________________
dense_1 (Dense)                 (None, 512)          66060800    merge_features[0][0]             
__________________________________________________________________________________________________
activation_11 (Activation)      (None, 512)          0           dense_1[0][0]                    
__________________________________________________________________________________________________
batch_normalization_1 (BatchNor (None, 512)          2048        activation_11[0][0]              
__________________________________________________________________________________________________
dropout_5 (Dropout)             (None, 512)          0           batch_normalization_1[0][0]      
__________________________________________________________________________________________________
dense_2 (Dense)                 (None, 1)            513         dropout_5[0][0]                  
==================================================================================================
Total params: 66,169,937
Trainable params: 66,167,473
Non-trainable params: 2,464
__________________________________________________________________________________________________
Finished compiling
Train on 31872 samples, validate on 7968 samples
Epoch 1/6
…
------------------------ current config for the test -------------------------
Layers:  [4]  Growth_rate:  30  nb_filter:  16  dropout:  0.2
dense_block  1  reduction_:  0.5  bottleneck:  True
------------------------	  end of configs        -------------------------
pooling:flatten
__________________________________________________________________________________________________
Layer (type)                    Output Shape         Param #     Connected to                     
==================================================================================================
input_1 (InputLayer)            (None, 1, 96, 96)    0                                            
__________________________________________________________________________________________________
initial_conv2D (Conv2D)         (None, 16, 48, 48)   784         input_1[0][0]                    
__________________________________________________________________________________________________
initial_bn (BatchNormalization) (None, 16, 48, 48)   64          initial_conv2D[0][0]             
__________________________________________________________________________________________________
activation_1 (Activation)       (None, 16, 48, 48)   0           initial_bn[0][0]                 
__________________________________________________________________________________________________
max_pooling2d_1 (MaxPooling2D)  (None, 16, 24, 24)   0           activation_1[0][0]               
__________________________________________________________________________________________________
dense_0_0_bn (BatchNormalizatio (None, 16, 24, 24)   64          max_pooling2d_1[0][0]            
__________________________________________________________________________________________________
activation_2 (Activation)       (None, 16, 24, 24)   0           dense_0_0_bn[0][0]               
__________________________________________________________________________________________________
dense_0_0_bottleneck_conv2D (Co (None, 120, 24, 24)  1920        activation_2[0][0]               
__________________________________________________________________________________________________
dense_0_0_bottleneck_bn (BatchN (None, 120, 24, 24)  480         dense_0_0_bottleneck_conv2D[0][0]
__________________________________________________________________________________________________
activation_3 (Activation)       (None, 120, 24, 24)  0           dense_0_0_bottleneck_bn[0][0]    
__________________________________________________________________________________________________
dense_0_0_conv2D (Conv2D)       (None, 30, 24, 24)   32400       activation_3[0][0]               
__________________________________________________________________________________________________
dropout_1 (Dropout)             (None, 30, 24, 24)   0           dense_0_0_conv2D[0][0]           
__________________________________________________________________________________________________
concatenate_1 (Concatenate)     (None, 46, 24, 24)   0           max_pooling2d_1[0][0]            
                                                                 dropout_1[0][0]                  
__________________________________________________________________________________________________
dense_0_1_bn (BatchNormalizatio (None, 46, 24, 24)   184         concatenate_1[0][0]              
__________________________________________________________________________________________________
activation_4 (Activation)       (None, 46, 24, 24)   0           dense_0_1_bn[0][0]               
__________________________________________________________________________________________________
dense_0_1_bottleneck_conv2D (Co (None, 120, 24, 24)  5520        activation_4[0][0]               
__________________________________________________________________________________________________
dense_0_1_bottleneck_bn (BatchN (None, 120, 24, 24)  480         dense_0_1_bottleneck_conv2D[0][0]
__________________________________________________________________________________________________
activation_5 (Activation)       (None, 120, 24, 24)  0           dense_0_1_bottleneck_bn[0][0]    
__________________________________________________________________________________________________
dense_0_1_conv2D (Conv2D)       (None, 30, 24, 24)   32400       activation_5[0][0]               
__________________________________________________________________________________________________
dropout_2 (Dropout)             (None, 30, 24, 24)   0           dense_0_1_conv2D[0][0]           
__________________________________________________________________________________________________
concatenate_2 (Concatenate)     (None, 76, 24, 24)   0           concatenate_1[0][0]              
                                                                 dropout_2[0][0]                  
__________________________________________________________________________________________________
dense_0_2_bn (BatchNormalizatio (None, 76, 24, 24)   304         concatenate_2[0][0]              
__________________________________________________________________________________________________
activation_6 (Activation)       (None, 76, 24, 24)   0           dense_0_2_bn[0][0]               
__________________________________________________________________________________________________
dense_0_2_bottleneck_conv2D (Co (None, 120, 24, 24)  9120        activation_6[0][0]               
__________________________________________________________________________________________________
dense_0_2_bottleneck_bn (BatchN (None, 120, 24, 24)  480         dense_0_2_bottleneck_conv2D[0][0]
__________________________________________________________________________________________________
activation_7 (Activation)       (None, 120, 24, 24)  0           dense_0_2_bottleneck_bn[0][0]    
__________________________________________________________________________________________________
dense_0_2_conv2D (Conv2D)       (None, 30, 24, 24)   32400       activation_7[0][0]               
__________________________________________________________________________________________________
dropout_3 (Dropout)             (None, 30, 24, 24)   0           dense_0_2_conv2D[0][0]           
__________________________________________________________________________________________________
concatenate_3 (Concatenate)     (None, 106, 24, 24)  0           concatenate_2[0][0]              
                                                                 dropout_3[0][0]                  
__________________________________________________________________________________________________
dense_0_3_bn (BatchNormalizatio (None, 106, 24, 24)  424         concatenate_3[0][0]              
__________________________________________________________________________________________________
activation_8 (Activation)       (None, 106, 24, 24)  0           dense_0_3_bn[0][0]               
__________________________________________________________________________________________________
dense_0_3_bottleneck_conv2D (Co (None, 120, 24, 24)  12720       activation_8[0][0]               
__________________________________________________________________________________________________
dense_0_3_bottleneck_bn (BatchN (None, 120, 24, 24)  480         dense_0_3_bottleneck_conv2D[0][0]
__________________________________________________________________________________________________
activation_9 (Activation)       (None, 120, 24, 24)  0           dense_0_3_bottleneck_bn[0][0]    
__________________________________________________________________________________________________
dense_0_3_conv2D (Conv2D)       (None, 30, 24, 24)   32400       activation_9[0][0]               
__________________________________________________________________________________________________
dropout_4 (Dropout)             (None, 30, 24, 24)   0           dense_0_3_conv2D[0][0]           
__________________________________________________________________________________________________
concatenate_4 (Concatenate)     (None, 136, 24, 24)  0           concatenate_3[0][0]              
                                                                 dropout_4[0][0]                  
__________________________________________________________________________________________________
final_bn (BatchNormalization)   (None, 136, 24, 24)  544         concatenate_4[0][0]              
__________________________________________________________________________________________________
activation_10 (Activation)      (None, 136, 24, 24)  0           final_bn[0][0]                   
__________________________________________________________________________________________________
flatten_1 (Flatten)             (None, 78336)        0           activation_10[0][0]              
==================================================================================================
Total params: 163,168
Trainable params: 161,416
Non-trainable params: 1,752
__________________________________________________________________________________________________
__________________________________________________________________________________________________
Layer (type)                    Output Shape         Param #     Connected to                     
==================================================================================================
input_2 (InputLayer)            (None, 1, 96, 96)    0                                            
__________________________________________________________________________________________________
input_3 (InputLayer)            (None, 1, 96, 96)    0                                            
__________________________________________________________________________________________________
densenet (Model)                (None, 78336)        163168      input_2[0][0]                    
                                                                 input_3[0][0]                    
__________________________________________________________________________________________________
merge_features (Concatenate)    (None, 156672)       0           densenet[1][0]                   
                                                                 densenet[2][0]                   
__________________________________________________________________________________________________
dense_1 (Dense)                 (None, 512)          80216576    merge_features[0][0]             
__________________________________________________________________________________________________
activation_11 (Activation)      (None, 512)          0           dense_1[0][0]                    
__________________________________________________________________________________________________
batch_normalization_1 (BatchNor (None, 512)          2048        activation_11[0][0]              
__________________________________________________________________________________________________
dropout_5 (Dropout)             (None, 512)          0           batch_normalization_1[0][0]      
__________________________________________________________________________________________________
dense_2 (Dense)                 (None, 1)            513         dropout_5[0][0]                  
==================================================================================================
Total params: 80,382,305
Trainable params: 80,379,529
Non-trainable params: 2,776
__________________________________________________________________________________________________
Finished compiling
Train on 31872 samples, validate on 7968 samples
Epoch 1/6
…
------------------------ current config for the test -------------------------
Layers:  [4]  Growth_rate:  36  nb_filter:  16  dropout:  0.2
dense_block  1  reduction_:  0.5  bottleneck:  True
------------------------	  end of configs        -------------------------
pooling:flatten
__________________________________________________________________________________________________
Layer (type)                    Output Shape         Param #     Connected to                     
==================================================================================================
input_1 (InputLayer)            (None, 1, 96, 96)    0                                            
__________________________________________________________________________________________________
initial_conv2D (Conv2D)         (None, 16, 48, 48)   784         input_1[0][0]                    
__________________________________________________________________________________________________
initial_bn (BatchNormalization) (None, 16, 48, 48)   64          initial_conv2D[0][0]             
__________________________________________________________________________________________________
activation_1 (Activation)       (None, 16, 48, 48)   0           initial_bn[0][0]                 
__________________________________________________________________________________________________
max_pooling2d_1 (MaxPooling2D)  (None, 16, 24, 24)   0           activation_1[0][0]               
__________________________________________________________________________________________________
dense_0_0_bn (BatchNormalizatio (None, 16, 24, 24)   64          max_pooling2d_1[0][0]            
__________________________________________________________________________________________________
activation_2 (Activation)       (None, 16, 24, 24)   0           dense_0_0_bn[0][0]               
__________________________________________________________________________________________________
dense_0_0_bottleneck_conv2D (Co (None, 144, 24, 24)  2304        activation_2[0][0]               
__________________________________________________________________________________________________
dense_0_0_bottleneck_bn (BatchN (None, 144, 24, 24)  576         dense_0_0_bottleneck_conv2D[0][0]
__________________________________________________________________________________________________
activation_3 (Activation)       (None, 144, 24, 24)  0           dense_0_0_bottleneck_bn[0][0]    
__________________________________________________________________________________________________
dense_0_0_conv2D (Conv2D)       (None, 36, 24, 24)   46656       activation_3[0][0]               
__________________________________________________________________________________________________
dropout_1 (Dropout)             (None, 36, 24, 24)   0           dense_0_0_conv2D[0][0]           
__________________________________________________________________________________________________
concatenate_1 (Concatenate)     (None, 52, 24, 24)   0           max_pooling2d_1[0][0]            
                                                                 dropout_1[0][0]                  
__________________________________________________________________________________________________
dense_0_1_bn (BatchNormalizatio (None, 52, 24, 24)   208         concatenate_1[0][0]              
__________________________________________________________________________________________________
activation_4 (Activation)       (None, 52, 24, 24)   0           dense_0_1_bn[0][0]               
__________________________________________________________________________________________________
dense_0_1_bottleneck_conv2D (Co (None, 144, 24, 24)  7488        activation_4[0][0]               
__________________________________________________________________________________________________
dense_0_1_bottleneck_bn (BatchN (None, 144, 24, 24)  576         dense_0_1_bottleneck_conv2D[0][0]
__________________________________________________________________________________________________
activation_5 (Activation)       (None, 144, 24, 24)  0           dense_0_1_bottleneck_bn[0][0]    
__________________________________________________________________________________________________
dense_0_1_conv2D (Conv2D)       (None, 36, 24, 24)   46656       activation_5[0][0]               
__________________________________________________________________________________________________
dropout_2 (Dropout)             (None, 36, 24, 24)   0           dense_0_1_conv2D[0][0]           
__________________________________________________________________________________________________
concatenate_2 (Concatenate)     (None, 88, 24, 24)   0           concatenate_1[0][0]              
                                                                 dropout_2[0][0]                  
__________________________________________________________________________________________________
dense_0_2_bn (BatchNormalizatio (None, 88, 24, 24)   352         concatenate_2[0][0]              
__________________________________________________________________________________________________
activation_6 (Activation)       (None, 88, 24, 24)   0           dense_0_2_bn[0][0]               
__________________________________________________________________________________________________
dense_0_2_bottleneck_conv2D (Co (None, 144, 24, 24)  12672       activation_6[0][0]               
__________________________________________________________________________________________________
dense_0_2_bottleneck_bn (BatchN (None, 144, 24, 24)  576         dense_0_2_bottleneck_conv2D[0][0]
__________________________________________________________________________________________________
activation_7 (Activation)       (None, 144, 24, 24)  0           dense_0_2_bottleneck_bn[0][0]    
__________________________________________________________________________________________________
dense_0_2_conv2D (Conv2D)       (None, 36, 24, 24)   46656       activation_7[0][0]               
__________________________________________________________________________________________________
dropout_3 (Dropout)             (None, 36, 24, 24)   0           dense_0_2_conv2D[0][0]           
__________________________________________________________________________________________________
concatenate_3 (Concatenate)     (None, 124, 24, 24)  0           concatenate_2[0][0]              
                                                                 dropout_3[0][0]                  
__________________________________________________________________________________________________
dense_0_3_bn (BatchNormalizatio (None, 124, 24, 24)  496         concatenate_3[0][0]              
__________________________________________________________________________________________________
activation_8 (Activation)       (None, 124, 24, 24)  0           dense_0_3_bn[0][0]               
__________________________________________________________________________________________________
dense_0_3_bottleneck_conv2D (Co (None, 144, 24, 24)  17856       activation_8[0][0]               
__________________________________________________________________________________________________
dense_0_3_bottleneck_bn (BatchN (None, 144, 24, 24)  576         dense_0_3_bottleneck_conv2D[0][0]
__________________________________________________________________________________________________
activation_9 (Activation)       (None, 144, 24, 24)  0           dense_0_3_bottleneck_bn[0][0]    
__________________________________________________________________________________________________
dense_0_3_conv2D (Conv2D)       (None, 36, 24, 24)   46656       activation_9[0][0]               
__________________________________________________________________________________________________
dropout_4 (Dropout)             (None, 36, 24, 24)   0           dense_0_3_conv2D[0][0]           
__________________________________________________________________________________________________
concatenate_4 (Concatenate)     (None, 160, 24, 24)  0           concatenate_3[0][0]              
                                                                 dropout_4[0][0]                  
__________________________________________________________________________________________________
final_bn (BatchNormalization)   (None, 160, 24, 24)  640         concatenate_4[0][0]              
__________________________________________________________________________________________________
activation_10 (Activation)      (None, 160, 24, 24)  0           final_bn[0][0]                   
__________________________________________________________________________________________________
flatten_1 (Flatten)             (None, 92160)        0           activation_10[0][0]              
==================================================================================================
Total params: 231,856
Trainable params: 229,792
Non-trainable params: 2,064
__________________________________________________________________________________________________
__________________________________________________________________________________________________
Layer (type)                    Output Shape         Param #     Connected to                     
==================================================================================================
input_2 (InputLayer)            (None, 1, 96, 96)    0                                            
__________________________________________________________________________________________________
input_3 (InputLayer)            (None, 1, 96, 96)    0                                            
__________________________________________________________________________________________________
densenet (Model)                (None, 92160)        231856      input_2[0][0]                    
                                                                 input_3[0][0]                    
__________________________________________________________________________________________________
merge_features (Concatenate)    (None, 184320)       0           densenet[1][0]                   
                                                                 densenet[2][0]                   
__________________________________________________________________________________________________
dense_1 (Dense)                 (None, 512)          94372352    merge_features[0][0]             
__________________________________________________________________________________________________
activation_11 (Activation)      (None, 512)          0           dense_1[0][0]                    
__________________________________________________________________________________________________
batch_normalization_1 (BatchNor (None, 512)          2048        activation_11[0][0]              
__________________________________________________________________________________________________
dropout_5 (Dropout)             (None, 512)          0           batch_normalization_1[0][0]      
__________________________________________________________________________________________________
dense_2 (Dense)                 (None, 1)            513         dropout_5[0][0]                  
==================================================================================================
Total params: 94,606,769
Trainable params: 94,603,681
Non-trainable params: 3,088
__________________________________________________________________________________________________
Finished compiling
Train on 31872 samples, validate on 7968 samples
Epoch 1/6
…
------------------------ current config for the test -------------------------
Layers:  [6]  Growth_rate:  24  nb_filter:  16  dropout:  0.2
dense_block  1  reduction_:  0.5  bottleneck:  True
------------------------	  end of configs        -------------------------
pooling:flatten
__________________________________________________________________________________________________
Layer (type)                    Output Shape         Param #     Connected to                     
==================================================================================================
input_1 (InputLayer)            (None, 1, 96, 96)    0                                            
__________________________________________________________________________________________________
initial_conv2D (Conv2D)         (None, 16, 48, 48)   784         input_1[0][0]                    
__________________________________________________________________________________________________
initial_bn (BatchNormalization) (None, 16, 48, 48)   64          initial_conv2D[0][0]             
__________________________________________________________________________________________________
activation_1 (Activation)       (None, 16, 48, 48)   0           initial_bn[0][0]                 
__________________________________________________________________________________________________
max_pooling2d_1 (MaxPooling2D)  (None, 16, 24, 24)   0           activation_1[0][0]               
__________________________________________________________________________________________________
dense_0_0_bn (BatchNormalizatio (None, 16, 24, 24)   64          max_pooling2d_1[0][0]            
__________________________________________________________________________________________________
activation_2 (Activation)       (None, 16, 24, 24)   0           dense_0_0_bn[0][0]               
__________________________________________________________________________________________________
dense_0_0_bottleneck_conv2D (Co (None, 96, 24, 24)   1536        activation_2[0][0]               
__________________________________________________________________________________________________
dense_0_0_bottleneck_bn (BatchN (None, 96, 24, 24)   384         dense_0_0_bottleneck_conv2D[0][0]
__________________________________________________________________________________________________
activation_3 (Activation)       (None, 96, 24, 24)   0           dense_0_0_bottleneck_bn[0][0]    
__________________________________________________________________________________________________
dense_0_0_conv2D (Conv2D)       (None, 24, 24, 24)   20736       activation_3[0][0]               
__________________________________________________________________________________________________
dropout_1 (Dropout)             (None, 24, 24, 24)   0           dense_0_0_conv2D[0][0]           
__________________________________________________________________________________________________
concatenate_1 (Concatenate)     (None, 40, 24, 24)   0           max_pooling2d_1[0][0]            
                                                                 dropout_1[0][0]                  
__________________________________________________________________________________________________
dense_0_1_bn (BatchNormalizatio (None, 40, 24, 24)   160         concatenate_1[0][0]              
__________________________________________________________________________________________________
activation_4 (Activation)       (None, 40, 24, 24)   0           dense_0_1_bn[0][0]               
__________________________________________________________________________________________________
dense_0_1_bottleneck_conv2D (Co (None, 96, 24, 24)   3840        activation_4[0][0]               
__________________________________________________________________________________________________
dense_0_1_bottleneck_bn (BatchN (None, 96, 24, 24)   384         dense_0_1_bottleneck_conv2D[0][0]
__________________________________________________________________________________________________
activation_5 (Activation)       (None, 96, 24, 24)   0           dense_0_1_bottleneck_bn[0][0]    
__________________________________________________________________________________________________
dense_0_1_conv2D (Conv2D)       (None, 24, 24, 24)   20736       activation_5[0][0]               
__________________________________________________________________________________________________
dropout_2 (Dropout)             (None, 24, 24, 24)   0           dense_0_1_conv2D[0][0]           
__________________________________________________________________________________________________
concatenate_2 (Concatenate)     (None, 64, 24, 24)   0           concatenate_1[0][0]              
                                                                 dropout_2[0][0]                  
__________________________________________________________________________________________________
dense_0_2_bn (BatchNormalizatio (None, 64, 24, 24)   256         concatenate_2[0][0]              
__________________________________________________________________________________________________
activation_6 (Activation)       (None, 64, 24, 24)   0           dense_0_2_bn[0][0]               
__________________________________________________________________________________________________
dense_0_2_bottleneck_conv2D (Co (None, 96, 24, 24)   6144        activation_6[0][0]               
__________________________________________________________________________________________________
dense_0_2_bottleneck_bn (BatchN (None, 96, 24, 24)   384         dense_0_2_bottleneck_conv2D[0][0]
__________________________________________________________________________________________________
activation_7 (Activation)       (None, 96, 24, 24)   0           dense_0_2_bottleneck_bn[0][0]    
__________________________________________________________________________________________________
dense_0_2_conv2D (Conv2D)       (None, 24, 24, 24)   20736       activation_7[0][0]               
__________________________________________________________________________________________________
dropout_3 (Dropout)             (None, 24, 24, 24)   0           dense_0_2_conv2D[0][0]           
__________________________________________________________________________________________________
concatenate_3 (Concatenate)     (None, 88, 24, 24)   0           concatenate_2[0][0]              
                                                                 dropout_3[0][0]                  
__________________________________________________________________________________________________
dense_0_3_bn (BatchNormalizatio (None, 88, 24, 24)   352         concatenate_3[0][0]              
__________________________________________________________________________________________________
activation_8 (Activation)       (None, 88, 24, 24)   0           dense_0_3_bn[0][0]               
__________________________________________________________________________________________________
dense_0_3_bottleneck_conv2D (Co (None, 96, 24, 24)   8448        activation_8[0][0]               
__________________________________________________________________________________________________
dense_0_3_bottleneck_bn (BatchN (None, 96, 24, 24)   384         dense_0_3_bottleneck_conv2D[0][0]
__________________________________________________________________________________________________
activation_9 (Activation)       (None, 96, 24, 24)   0           dense_0_3_bottleneck_bn[0][0]    
__________________________________________________________________________________________________
dense_0_3_conv2D (Conv2D)       (None, 24, 24, 24)   20736       activation_9[0][0]               
__________________________________________________________________________________________________
dropout_4 (Dropout)             (None, 24, 24, 24)   0           dense_0_3_conv2D[0][0]           
__________________________________________________________________________________________________
concatenate_4 (Concatenate)     (None, 112, 24, 24)  0           concatenate_3[0][0]              
                                                                 dropout_4[0][0]                  
__________________________________________________________________________________________________
dense_0_4_bn (BatchNormalizatio (None, 112, 24, 24)  448         concatenate_4[0][0]              
__________________________________________________________________________________________________
activation_10 (Activation)      (None, 112, 24, 24)  0           dense_0_4_bn[0][0]               
__________________________________________________________________________________________________
dense_0_4_bottleneck_conv2D (Co (None, 96, 24, 24)   10752       activation_10[0][0]              
__________________________________________________________________________________________________
dense_0_4_bottleneck_bn (BatchN (None, 96, 24, 24)   384         dense_0_4_bottleneck_conv2D[0][0]
__________________________________________________________________________________________________
activation_11 (Activation)      (None, 96, 24, 24)   0           dense_0_4_bottleneck_bn[0][0]    
__________________________________________________________________________________________________
dense_0_4_conv2D (Conv2D)       (None, 24, 24, 24)   20736       activation_11[0][0]              
__________________________________________________________________________________________________
dropout_5 (Dropout)             (None, 24, 24, 24)   0           dense_0_4_conv2D[0][0]           
__________________________________________________________________________________________________
concatenate_5 (Concatenate)     (None, 136, 24, 24)  0           concatenate_4[0][0]              
                                                                 dropout_5[0][0]                  
__________________________________________________________________________________________________
dense_0_5_bn (BatchNormalizatio (None, 136, 24, 24)  544         concatenate_5[0][0]              
__________________________________________________________________________________________________
activation_12 (Activation)      (None, 136, 24, 24)  0           dense_0_5_bn[0][0]               
__________________________________________________________________________________________________
dense_0_5_bottleneck_conv2D (Co (None, 96, 24, 24)   13056       activation_12[0][0]              
__________________________________________________________________________________________________
dense_0_5_bottleneck_bn (BatchN (None, 96, 24, 24)   384         dense_0_5_bottleneck_conv2D[0][0]
__________________________________________________________________________________________________
activation_13 (Activation)      (None, 96, 24, 24)   0           dense_0_5_bottleneck_bn[0][0]    
__________________________________________________________________________________________________
dense_0_5_conv2D (Conv2D)       (None, 24, 24, 24)   20736       activation_13[0][0]              
__________________________________________________________________________________________________
dropout_6 (Dropout)             (None, 24, 24, 24)   0           dense_0_5_conv2D[0][0]           
__________________________________________________________________________________________________
concatenate_6 (Concatenate)     (None, 160, 24, 24)  0           concatenate_5[0][0]              
                                                                 dropout_6[0][0]                  
__________________________________________________________________________________________________
final_bn (BatchNormalization)   (None, 160, 24, 24)  640         concatenate_6[0][0]              
__________________________________________________________________________________________________
activation_14 (Activation)      (None, 160, 24, 24)  0           final_bn[0][0]                   
__________________________________________________________________________________________________
flatten_1 (Flatten)             (None, 92160)        0           activation_14[0][0]              
==================================================================================================
Total params: 173,808
Trainable params: 171,392
Non-trainable params: 2,416
__________________________________________________________________________________________________
__________________________________________________________________________________________________
Layer (type)                    Output Shape         Param #     Connected to                     
==================================================================================================
input_2 (InputLayer)            (None, 1, 96, 96)    0                                            
__________________________________________________________________________________________________
input_3 (InputLayer)            (None, 1, 96, 96)    0                                            
__________________________________________________________________________________________________
densenet (Model)                (None, 92160)        173808      input_2[0][0]                    
                                                                 input_3[0][0]                    
__________________________________________________________________________________________________
merge_features (Concatenate)    (None, 184320)       0           densenet[1][0]                   
                                                                 densenet[2][0]                   
__________________________________________________________________________________________________
dense_1 (Dense)                 (None, 512)          94372352    merge_features[0][0]             
__________________________________________________________________________________________________
activation_15 (Activation)      (None, 512)          0           dense_1[0][0]                    
__________________________________________________________________________________________________
batch_normalization_1 (BatchNor (None, 512)          2048        activation_15[0][0]              
__________________________________________________________________________________________________
dropout_7 (Dropout)             (None, 512)          0           batch_normalization_1[0][0]      
__________________________________________________________________________________________________
dense_2 (Dense)                 (None, 1)            513         dropout_7[0][0]                  
==================================================================================================
Total params: 94,548,721
Trainable params: 94,545,281
Non-trainable params: 3,440
__________________________________________________________________________________________________
Finished compiling
Train on 31872 samples, validate on 7968 samples
Epoch 1/6
…
------------------------ current config for the test -------------------------
Layers:  [6]  Growth_rate:  30  nb_filter:  16  dropout:  0.2
dense_block  1  reduction_:  0.5  bottleneck:  True
------------------------	  end of configs        -------------------------
pooling:flatten
__________________________________________________________________________________________________
Layer (type)                    Output Shape         Param #     Connected to                     
==================================================================================================
input_1 (InputLayer)            (None, 1, 96, 96)    0                                            
__________________________________________________________________________________________________
initial_conv2D (Conv2D)         (None, 16, 48, 48)   784         input_1[0][0]                    
__________________________________________________________________________________________________
initial_bn (BatchNormalization) (None, 16, 48, 48)   64          initial_conv2D[0][0]             
__________________________________________________________________________________________________
activation_1 (Activation)       (None, 16, 48, 48)   0           initial_bn[0][0]                 
__________________________________________________________________________________________________
max_pooling2d_1 (MaxPooling2D)  (None, 16, 24, 24)   0           activation_1[0][0]               
__________________________________________________________________________________________________
dense_0_0_bn (BatchNormalizatio (None, 16, 24, 24)   64          max_pooling2d_1[0][0]            
__________________________________________________________________________________________________
activation_2 (Activation)       (None, 16, 24, 24)   0           dense_0_0_bn[0][0]               
__________________________________________________________________________________________________
dense_0_0_bottleneck_conv2D (Co (None, 120, 24, 24)  1920        activation_2[0][0]               
__________________________________________________________________________________________________
dense_0_0_bottleneck_bn (BatchN (None, 120, 24, 24)  480         dense_0_0_bottleneck_conv2D[0][0]
__________________________________________________________________________________________________
activation_3 (Activation)       (None, 120, 24, 24)  0           dense_0_0_bottleneck_bn[0][0]    
__________________________________________________________________________________________________
dense_0_0_conv2D (Conv2D)       (None, 30, 24, 24)   32400       activation_3[0][0]               
__________________________________________________________________________________________________
dropout_1 (Dropout)             (None, 30, 24, 24)   0           dense_0_0_conv2D[0][0]           
__________________________________________________________________________________________________
concatenate_1 (Concatenate)     (None, 46, 24, 24)   0           max_pooling2d_1[0][0]            
                                                                 dropout_1[0][0]                  
__________________________________________________________________________________________________
dense_0_1_bn (BatchNormalizatio (None, 46, 24, 24)   184         concatenate_1[0][0]              
__________________________________________________________________________________________________
activation_4 (Activation)       (None, 46, 24, 24)   0           dense_0_1_bn[0][0]               
__________________________________________________________________________________________________
dense_0_1_bottleneck_conv2D (Co (None, 120, 24, 24)  5520        activation_4[0][0]               
__________________________________________________________________________________________________
dense_0_1_bottleneck_bn (BatchN (None, 120, 24, 24)  480         dense_0_1_bottleneck_conv2D[0][0]
__________________________________________________________________________________________________
activation_5 (Activation)       (None, 120, 24, 24)  0           dense_0_1_bottleneck_bn[0][0]    
__________________________________________________________________________________________________
dense_0_1_conv2D (Conv2D)       (None, 30, 24, 24)   32400       activation_5[0][0]               
__________________________________________________________________________________________________
dropout_2 (Dropout)             (None, 30, 24, 24)   0           dense_0_1_conv2D[0][0]           
__________________________________________________________________________________________________
concatenate_2 (Concatenate)     (None, 76, 24, 24)   0           concatenate_1[0][0]              
                                                                 dropout_2[0][0]                  
__________________________________________________________________________________________________
dense_0_2_bn (BatchNormalizatio (None, 76, 24, 24)   304         concatenate_2[0][0]              
__________________________________________________________________________________________________
activation_6 (Activation)       (None, 76, 24, 24)   0           dense_0_2_bn[0][0]               
__________________________________________________________________________________________________
dense_0_2_bottleneck_conv2D (Co (None, 120, 24, 24)  9120        activation_6[0][0]               
__________________________________________________________________________________________________
dense_0_2_bottleneck_bn (BatchN (None, 120, 24, 24)  480         dense_0_2_bottleneck_conv2D[0][0]
__________________________________________________________________________________________________
activation_7 (Activation)       (None, 120, 24, 24)  0           dense_0_2_bottleneck_bn[0][0]    
__________________________________________________________________________________________________
dense_0_2_conv2D (Conv2D)       (None, 30, 24, 24)   32400       activation_7[0][0]               
__________________________________________________________________________________________________
dropout_3 (Dropout)             (None, 30, 24, 24)   0           dense_0_2_conv2D[0][0]           
__________________________________________________________________________________________________
concatenate_3 (Concatenate)     (None, 106, 24, 24)  0           concatenate_2[0][0]              
                                                                 dropout_3[0][0]                  
__________________________________________________________________________________________________
dense_0_3_bn (BatchNormalizatio (None, 106, 24, 24)  424         concatenate_3[0][0]              
__________________________________________________________________________________________________
activation_8 (Activation)       (None, 106, 24, 24)  0           dense_0_3_bn[0][0]               
__________________________________________________________________________________________________
dense_0_3_bottleneck_conv2D (Co (None, 120, 24, 24)  12720       activation_8[0][0]               
__________________________________________________________________________________________________
dense_0_3_bottleneck_bn (BatchN (None, 120, 24, 24)  480         dense_0_3_bottleneck_conv2D[0][0]
__________________________________________________________________________________________________
activation_9 (Activation)       (None, 120, 24, 24)  0           dense_0_3_bottleneck_bn[0][0]    
__________________________________________________________________________________________________
dense_0_3_conv2D (Conv2D)       (None, 30, 24, 24)   32400       activation_9[0][0]               
__________________________________________________________________________________________________
dropout_4 (Dropout)             (None, 30, 24, 24)   0           dense_0_3_conv2D[0][0]           
__________________________________________________________________________________________________
concatenate_4 (Concatenate)     (None, 136, 24, 24)  0           concatenate_3[0][0]              
                                                                 dropout_4[0][0]                  
__________________________________________________________________________________________________
dense_0_4_bn (BatchNormalizatio (None, 136, 24, 24)  544         concatenate_4[0][0]              
__________________________________________________________________________________________________
activation_10 (Activation)      (None, 136, 24, 24)  0           dense_0_4_bn[0][0]               
__________________________________________________________________________________________________
dense_0_4_bottleneck_conv2D (Co (None, 120, 24, 24)  16320       activation_10[0][0]              
__________________________________________________________________________________________________
dense_0_4_bottleneck_bn (BatchN (None, 120, 24, 24)  480         dense_0_4_bottleneck_conv2D[0][0]
__________________________________________________________________________________________________
activation_11 (Activation)      (None, 120, 24, 24)  0           dense_0_4_bottleneck_bn[0][0]    
__________________________________________________________________________________________________
dense_0_4_conv2D (Conv2D)       (None, 30, 24, 24)   32400       activation_11[0][0]              
__________________________________________________________________________________________________
dropout_5 (Dropout)             (None, 30, 24, 24)   0           dense_0_4_conv2D[0][0]           
__________________________________________________________________________________________________
concatenate_5 (Concatenate)     (None, 166, 24, 24)  0           concatenate_4[0][0]              
                                                                 dropout_5[0][0]                  
__________________________________________________________________________________________________
dense_0_5_bn (BatchNormalizatio (None, 166, 24, 24)  664         concatenate_5[0][0]              
__________________________________________________________________________________________________
activation_12 (Activation)      (None, 166, 24, 24)  0           dense_0_5_bn[0][0]               
__________________________________________________________________________________________________
dense_0_5_bottleneck_conv2D (Co (None, 120, 24, 24)  19920       activation_12[0][0]              
__________________________________________________________________________________________________
dense_0_5_bottleneck_bn (BatchN (None, 120, 24, 24)  480         dense_0_5_bottleneck_conv2D[0][0]
__________________________________________________________________________________________________
activation_13 (Activation)      (None, 120, 24, 24)  0           dense_0_5_bottleneck_bn[0][0]    
__________________________________________________________________________________________________
dense_0_5_conv2D (Conv2D)       (None, 30, 24, 24)   32400       activation_13[0][0]              
__________________________________________________________________________________________________
dropout_6 (Dropout)             (None, 30, 24, 24)   0           dense_0_5_conv2D[0][0]           
__________________________________________________________________________________________________
concatenate_6 (Concatenate)     (None, 196, 24, 24)  0           concatenate_5[0][0]              
                                                                 dropout_6[0][0]                  
__________________________________________________________________________________________________
final_bn (BatchNormalization)   (None, 196, 24, 24)  784         concatenate_6[0][0]              
__________________________________________________________________________________________________
activation_14 (Activation)      (None, 196, 24, 24)  0           final_bn[0][0]                   
__________________________________________________________________________________________________
flatten_1 (Flatten)             (None, 112896)       0           activation_14[0][0]              
==================================================================================================
Total params: 266,616
Trainable params: 263,660
Non-trainable params: 2,956
__________________________________________________________________________________________________
__________________________________________________________________________________________________
Layer (type)                    Output Shape         Param #     Connected to                     
==================================================================================================
input_2 (InputLayer)            (None, 1, 96, 96)    0                                            
__________________________________________________________________________________________________
input_3 (InputLayer)            (None, 1, 96, 96)    0                                            
__________________________________________________________________________________________________
densenet (Model)                (None, 112896)       266616      input_2[0][0]                    
                                                                 input_3[0][0]                    
__________________________________________________________________________________________________
merge_features (Concatenate)    (None, 225792)       0           densenet[1][0]                   
                                                                 densenet[2][0]                   
__________________________________________________________________________________________________
dense_1 (Dense)                 (None, 512)          115606016   merge_features[0][0]             
__________________________________________________________________________________________________
activation_15 (Activation)      (None, 512)          0           dense_1[0][0]                    
__________________________________________________________________________________________________
batch_normalization_1 (BatchNor (None, 512)          2048        activation_15[0][0]              
__________________________________________________________________________________________________
dropout_7 (Dropout)             (None, 512)          0           batch_normalization_1[0][0]      
__________________________________________________________________________________________________
dense_2 (Dense)                 (None, 1)            513         dropout_7[0][0]                  
==================================================================================================
Total params: 115,875,193
Trainable params: 115,871,213
Non-trainable params: 3,980
__________________________________________________________________________________________________
Finished compiling
Train on 31872 samples, validate on 7968 samples
Epoch 1/6
…
------------------------ current config for the test -------------------------
Layers:  [6]  Growth_rate:  36  nb_filter:  16  dropout:  0.2
dense_block  1  reduction_:  0.5  bottleneck:  True
------------------------	  end of configs        -------------------------
pooling:flatten
__________________________________________________________________________________________________
Layer (type)                    Output Shape         Param #     Connected to                     
==================================================================================================
input_1 (InputLayer)            (None, 1, 96, 96)    0                                            
__________________________________________________________________________________________________
initial_conv2D (Conv2D)         (None, 16, 48, 48)   784         input_1[0][0]                    
__________________________________________________________________________________________________
initial_bn (BatchNormalization) (None, 16, 48, 48)   64          initial_conv2D[0][0]             
__________________________________________________________________________________________________
activation_1 (Activation)       (None, 16, 48, 48)   0           initial_bn[0][0]                 
__________________________________________________________________________________________________
max_pooling2d_1 (MaxPooling2D)  (None, 16, 24, 24)   0           activation_1[0][0]               
__________________________________________________________________________________________________
dense_0_0_bn (BatchNormalizatio (None, 16, 24, 24)   64          max_pooling2d_1[0][0]            
__________________________________________________________________________________________________
activation_2 (Activation)       (None, 16, 24, 24)   0           dense_0_0_bn[0][0]               
__________________________________________________________________________________________________
dense_0_0_bottleneck_conv2D (Co (None, 144, 24, 24)  2304        activation_2[0][0]               
__________________________________________________________________________________________________
dense_0_0_bottleneck_bn (BatchN (None, 144, 24, 24)  576         dense_0_0_bottleneck_conv2D[0][0]
__________________________________________________________________________________________________
activation_3 (Activation)       (None, 144, 24, 24)  0           dense_0_0_bottleneck_bn[0][0]    
__________________________________________________________________________________________________
dense_0_0_conv2D (Conv2D)       (None, 36, 24, 24)   46656       activation_3[0][0]               
__________________________________________________________________________________________________
dropout_1 (Dropout)             (None, 36, 24, 24)   0           dense_0_0_conv2D[0][0]           
__________________________________________________________________________________________________
concatenate_1 (Concatenate)     (None, 52, 24, 24)   0           max_pooling2d_1[0][0]            
                                                                 dropout_1[0][0]                  
__________________________________________________________________________________________________
dense_0_1_bn (BatchNormalizatio (None, 52, 24, 24)   208         concatenate_1[0][0]              
__________________________________________________________________________________________________
activation_4 (Activation)       (None, 52, 24, 24)   0           dense_0_1_bn[0][0]               
__________________________________________________________________________________________________
dense_0_1_bottleneck_conv2D (Co (None, 144, 24, 24)  7488        activation_4[0][0]               
__________________________________________________________________________________________________
dense_0_1_bottleneck_bn (BatchN (None, 144, 24, 24)  576         dense_0_1_bottleneck_conv2D[0][0]
__________________________________________________________________________________________________
activation_5 (Activation)       (None, 144, 24, 24)  0           dense_0_1_bottleneck_bn[0][0]    
__________________________________________________________________________________________________
dense_0_1_conv2D (Conv2D)       (None, 36, 24, 24)   46656       activation_5[0][0]               
__________________________________________________________________________________________________
dropout_2 (Dropout)             (None, 36, 24, 24)   0           dense_0_1_conv2D[0][0]           
__________________________________________________________________________________________________
concatenate_2 (Concatenate)     (None, 88, 24, 24)   0           concatenate_1[0][0]              
                                                                 dropout_2[0][0]                  
__________________________________________________________________________________________________
dense_0_2_bn (BatchNormalizatio (None, 88, 24, 24)   352         concatenate_2[0][0]              
__________________________________________________________________________________________________
activation_6 (Activation)       (None, 88, 24, 24)   0           dense_0_2_bn[0][0]               
__________________________________________________________________________________________________
dense_0_2_bottleneck_conv2D (Co (None, 144, 24, 24)  12672       activation_6[0][0]               
__________________________________________________________________________________________________
dense_0_2_bottleneck_bn (BatchN (None, 144, 24, 24)  576         dense_0_2_bottleneck_conv2D[0][0]
__________________________________________________________________________________________________
activation_7 (Activation)       (None, 144, 24, 24)  0           dense_0_2_bottleneck_bn[0][0]    
__________________________________________________________________________________________________
dense_0_2_conv2D (Conv2D)       (None, 36, 24, 24)   46656       activation_7[0][0]               
__________________________________________________________________________________________________
dropout_3 (Dropout)             (None, 36, 24, 24)   0           dense_0_2_conv2D[0][0]           
__________________________________________________________________________________________________
concatenate_3 (Concatenate)     (None, 124, 24, 24)  0           concatenate_2[0][0]              
                                                                 dropout_3[0][0]                  
__________________________________________________________________________________________________
dense_0_3_bn (BatchNormalizatio (None, 124, 24, 24)  496         concatenate_3[0][0]              
__________________________________________________________________________________________________
activation_8 (Activation)       (None, 124, 24, 24)  0           dense_0_3_bn[0][0]               
__________________________________________________________________________________________________
dense_0_3_bottleneck_conv2D (Co (None, 144, 24, 24)  17856       activation_8[0][0]               
__________________________________________________________________________________________________
dense_0_3_bottleneck_bn (BatchN (None, 144, 24, 24)  576         dense_0_3_bottleneck_conv2D[0][0]
__________________________________________________________________________________________________
activation_9 (Activation)       (None, 144, 24, 24)  0           dense_0_3_bottleneck_bn[0][0]    
__________________________________________________________________________________________________
dense_0_3_conv2D (Conv2D)       (None, 36, 24, 24)   46656       activation_9[0][0]               
__________________________________________________________________________________________________
dropout_4 (Dropout)             (None, 36, 24, 24)   0           dense_0_3_conv2D[0][0]           
__________________________________________________________________________________________________
concatenate_4 (Concatenate)     (None, 160, 24, 24)  0           concatenate_3[0][0]              
                                                                 dropout_4[0][0]                  
__________________________________________________________________________________________________
dense_0_4_bn (BatchNormalizatio (None, 160, 24, 24)  640         concatenate_4[0][0]              
__________________________________________________________________________________________________
activation_10 (Activation)      (None, 160, 24, 24)  0           dense_0_4_bn[0][0]               
__________________________________________________________________________________________________
dense_0_4_bottleneck_conv2D (Co (None, 144, 24, 24)  23040       activation_10[0][0]              
__________________________________________________________________________________________________
dense_0_4_bottleneck_bn (BatchN (None, 144, 24, 24)  576         dense_0_4_bottleneck_conv2D[0][0]
__________________________________________________________________________________________________
activation_11 (Activation)      (None, 144, 24, 24)  0           dense_0_4_bottleneck_bn[0][0]    
__________________________________________________________________________________________________
dense_0_4_conv2D (Conv2D)       (None, 36, 24, 24)   46656       activation_11[0][0]              
__________________________________________________________________________________________________
dropout_5 (Dropout)             (None, 36, 24, 24)   0           dense_0_4_conv2D[0][0]           
__________________________________________________________________________________________________
concatenate_5 (Concatenate)     (None, 196, 24, 24)  0           concatenate_4[0][0]              
                                                                 dropout_5[0][0]                  
__________________________________________________________________________________________________
dense_0_5_bn (BatchNormalizatio (None, 196, 24, 24)  784         concatenate_5[0][0]              
__________________________________________________________________________________________________
activation_12 (Activation)      (None, 196, 24, 24)  0           dense_0_5_bn[0][0]               
__________________________________________________________________________________________________
dense_0_5_bottleneck_conv2D (Co (None, 144, 24, 24)  28224       activation_12[0][0]              
__________________________________________________________________________________________________
dense_0_5_bottleneck_bn (BatchN (None, 144, 24, 24)  576         dense_0_5_bottleneck_conv2D[0][0]
__________________________________________________________________________________________________
activation_13 (Activation)      (None, 144, 24, 24)  0           dense_0_5_bottleneck_bn[0][0]    
__________________________________________________________________________________________________
dense_0_5_conv2D (Conv2D)       (None, 36, 24, 24)   46656       activation_13[0][0]              
__________________________________________________________________________________________________
dropout_6 (Dropout)             (None, 36, 24, 24)   0           dense_0_5_conv2D[0][0]           
__________________________________________________________________________________________________
concatenate_6 (Concatenate)     (None, 232, 24, 24)  0           concatenate_5[0][0]              
                                                                 dropout_6[0][0]                  
__________________________________________________________________________________________________
final_bn (BatchNormalization)   (None, 232, 24, 24)  928         concatenate_6[0][0]              
__________________________________________________________________________________________________
activation_14 (Activation)      (None, 232, 24, 24)  0           final_bn[0][0]                   
__________________________________________________________________________________________________
flatten_1 (Flatten)             (None, 133632)       0           activation_14[0][0]              
==================================================================================================
Total params: 379,296
Trainable params: 375,800
Non-trainable params: 3,496
__________________________________________________________________________________________________
__________________________________________________________________________________________________
Layer (type)                    Output Shape         Param #     Connected to                     
==================================================================================================
input_2 (InputLayer)            (None, 1, 96, 96)    0                                            
__________________________________________________________________________________________________
input_3 (InputLayer)            (None, 1, 96, 96)    0                                            
__________________________________________________________________________________________________
densenet (Model)                (None, 133632)       379296      input_2[0][0]                    
                                                                 input_3[0][0]                    
__________________________________________________________________________________________________
merge_features (Concatenate)    (None, 267264)       0           densenet[1][0]                   
                                                                 densenet[2][0]                   
__________________________________________________________________________________________________
dense_1 (Dense)                 (None, 512)          136839680   merge_features[0][0]             
__________________________________________________________________________________________________
activation_15 (Activation)      (None, 512)          0           dense_1[0][0]                    
__________________________________________________________________________________________________
batch_normalization_1 (BatchNor (None, 512)          2048        activation_15[0][0]              
__________________________________________________________________________________________________
dropout_7 (Dropout)             (None, 512)          0           batch_normalization_1[0][0]      
__________________________________________________________________________________________________
dense_2 (Dense)                 (None, 1)            513         dropout_7[0][0]                  
==================================================================================================
Total params: 137,221,537
Trainable params: 137,217,017
Non-trainable params: 4,520
__________________________________________________________________________________________________
Finished compiling
Train on 31872 samples, validate on 7968 samples
Epoch 1/6
…
------------------------ current config for the test -------------------------
Layers:  [8]  Growth_rate:  6  nb_filter:  16  dropout:  0.2
dense_block  1  reduction_:  0.5  bottleneck:  True
------------------------	  end of configs        -------------------------
pooling:flatten
__________________________________________________________________________________________________
Layer (type)                    Output Shape         Param #     Connected to                     
==================================================================================================
input_1 (InputLayer)            (None, 1, 96, 96)    0                                            
__________________________________________________________________________________________________
initial_conv2D (Conv2D)         (None, 16, 48, 48)   784         input_1[0][0]                    
__________________________________________________________________________________________________
initial_bn (BatchNormalization) (None, 16, 48, 48)   64          initial_conv2D[0][0]             
__________________________________________________________________________________________________
activation_1 (Activation)       (None, 16, 48, 48)   0           initial_bn[0][0]                 
__________________________________________________________________________________________________
max_pooling2d_1 (MaxPooling2D)  (None, 16, 24, 24)   0           activation_1[0][0]               
__________________________________________________________________________________________________
dense_0_0_bn (BatchNormalizatio (None, 16, 24, 24)   64          max_pooling2d_1[0][0]            
__________________________________________________________________________________________________
activation_2 (Activation)       (None, 16, 24, 24)   0           dense_0_0_bn[0][0]               
__________________________________________________________________________________________________
dense_0_0_bottleneck_conv2D (Co (None, 24, 24, 24)   384         activation_2[0][0]               
__________________________________________________________________________________________________
dense_0_0_bottleneck_bn (BatchN (None, 24, 24, 24)   96          dense_0_0_bottleneck_conv2D[0][0]
__________________________________________________________________________________________________
activation_3 (Activation)       (None, 24, 24, 24)   0           dense_0_0_bottleneck_bn[0][0]    
__________________________________________________________________________________________________
dense_0_0_conv2D (Conv2D)       (None, 6, 24, 24)    1296        activation_3[0][0]               
__________________________________________________________________________________________________
dropout_1 (Dropout)             (None, 6, 24, 24)    0           dense_0_0_conv2D[0][0]           
__________________________________________________________________________________________________
concatenate_1 (Concatenate)     (None, 22, 24, 24)   0           max_pooling2d_1[0][0]            
                                                                 dropout_1[0][0]                  
__________________________________________________________________________________________________
dense_0_1_bn (BatchNormalizatio (None, 22, 24, 24)   88          concatenate_1[0][0]              
__________________________________________________________________________________________________
activation_4 (Activation)       (None, 22, 24, 24)   0           dense_0_1_bn[0][0]               
__________________________________________________________________________________________________
dense_0_1_bottleneck_conv2D (Co (None, 24, 24, 24)   528         activation_4[0][0]               
__________________________________________________________________________________________________
dense_0_1_bottleneck_bn (BatchN (None, 24, 24, 24)   96          dense_0_1_bottleneck_conv2D[0][0]
__________________________________________________________________________________________________
activation_5 (Activation)       (None, 24, 24, 24)   0           dense_0_1_bottleneck_bn[0][0]    
__________________________________________________________________________________________________
dense_0_1_conv2D (Conv2D)       (None, 6, 24, 24)    1296        activation_5[0][0]               
__________________________________________________________________________________________________
dropout_2 (Dropout)             (None, 6, 24, 24)    0           dense_0_1_conv2D[0][0]           
__________________________________________________________________________________________________
concatenate_2 (Concatenate)     (None, 28, 24, 24)   0           concatenate_1[0][0]              
                                                                 dropout_2[0][0]                  
__________________________________________________________________________________________________
dense_0_2_bn (BatchNormalizatio (None, 28, 24, 24)   112         concatenate_2[0][0]              
__________________________________________________________________________________________________
activation_6 (Activation)       (None, 28, 24, 24)   0           dense_0_2_bn[0][0]               
__________________________________________________________________________________________________
dense_0_2_bottleneck_conv2D (Co (None, 24, 24, 24)   672         activation_6[0][0]               
__________________________________________________________________________________________________
dense_0_2_bottleneck_bn (BatchN (None, 24, 24, 24)   96          dense_0_2_bottleneck_conv2D[0][0]
__________________________________________________________________________________________________
activation_7 (Activation)       (None, 24, 24, 24)   0           dense_0_2_bottleneck_bn[0][0]    
__________________________________________________________________________________________________
dense_0_2_conv2D (Conv2D)       (None, 6, 24, 24)    1296        activation_7[0][0]               
__________________________________________________________________________________________________
dropout_3 (Dropout)             (None, 6, 24, 24)    0           dense_0_2_conv2D[0][0]           
__________________________________________________________________________________________________
concatenate_3 (Concatenate)     (None, 34, 24, 24)   0           concatenate_2[0][0]              
                                                                 dropout_3[0][0]                  
__________________________________________________________________________________________________
dense_0_3_bn (BatchNormalizatio (None, 34, 24, 24)   136         concatenate_3[0][0]              
__________________________________________________________________________________________________
activation_8 (Activation)       (None, 34, 24, 24)   0           dense_0_3_bn[0][0]               
__________________________________________________________________________________________________
dense_0_3_bottleneck_conv2D (Co (None, 24, 24, 24)   816         activation_8[0][0]               
__________________________________________________________________________________________________
dense_0_3_bottleneck_bn (BatchN (None, 24, 24, 24)   96          dense_0_3_bottleneck_conv2D[0][0]
__________________________________________________________________________________________________
activation_9 (Activation)       (None, 24, 24, 24)   0           dense_0_3_bottleneck_bn[0][0]    
__________________________________________________________________________________________________
dense_0_3_conv2D (Conv2D)       (None, 6, 24, 24)    1296        activation_9[0][0]               
__________________________________________________________________________________________________
dropout_4 (Dropout)             (None, 6, 24, 24)    0           dense_0_3_conv2D[0][0]           
__________________________________________________________________________________________________
concatenate_4 (Concatenate)     (None, 40, 24, 24)   0           concatenate_3[0][0]              
                                                                 dropout_4[0][0]                  
__________________________________________________________________________________________________
dense_0_4_bn (BatchNormalizatio (None, 40, 24, 24)   160         concatenate_4[0][0]              
__________________________________________________________________________________________________
activation_10 (Activation)      (None, 40, 24, 24)   0           dense_0_4_bn[0][0]               
__________________________________________________________________________________________________
dense_0_4_bottleneck_conv2D (Co (None, 24, 24, 24)   960         activation_10[0][0]              
__________________________________________________________________________________________________
dense_0_4_bottleneck_bn (BatchN (None, 24, 24, 24)   96          dense_0_4_bottleneck_conv2D[0][0]
__________________________________________________________________________________________________
activation_11 (Activation)      (None, 24, 24, 24)   0           dense_0_4_bottleneck_bn[0][0]    
__________________________________________________________________________________________________
dense_0_4_conv2D (Conv2D)       (None, 6, 24, 24)    1296        activation_11[0][0]              
__________________________________________________________________________________________________
dropout_5 (Dropout)             (None, 6, 24, 24)    0           dense_0_4_conv2D[0][0]           
__________________________________________________________________________________________________
concatenate_5 (Concatenate)     (None, 46, 24, 24)   0           concatenate_4[0][0]              
                                                                 dropout_5[0][0]                  
__________________________________________________________________________________________________
dense_0_5_bn (BatchNormalizatio (None, 46, 24, 24)   184         concatenate_5[0][0]              
__________________________________________________________________________________________________
activation_12 (Activation)      (None, 46, 24, 24)   0           dense_0_5_bn[0][0]               
__________________________________________________________________________________________________
dense_0_5_bottleneck_conv2D (Co (None, 24, 24, 24)   1104        activation_12[0][0]              
__________________________________________________________________________________________________
dense_0_5_bottleneck_bn (BatchN (None, 24, 24, 24)   96          dense_0_5_bottleneck_conv2D[0][0]
__________________________________________________________________________________________________
activation_13 (Activation)      (None, 24, 24, 24)   0           dense_0_5_bottleneck_bn[0][0]    
__________________________________________________________________________________________________
dense_0_5_conv2D (Conv2D)       (None, 6, 24, 24)    1296        activation_13[0][0]              
__________________________________________________________________________________________________
dropout_6 (Dropout)             (None, 6, 24, 24)    0           dense_0_5_conv2D[0][0]           
__________________________________________________________________________________________________
concatenate_6 (Concatenate)     (None, 52, 24, 24)   0           concatenate_5[0][0]              
                                                                 dropout_6[0][0]                  
__________________________________________________________________________________________________
dense_0_6_bn (BatchNormalizatio (None, 52, 24, 24)   208         concatenate_6[0][0]              
__________________________________________________________________________________________________
activation_14 (Activation)      (None, 52, 24, 24)   0           dense_0_6_bn[0][0]               
__________________________________________________________________________________________________
dense_0_6_bottleneck_conv2D (Co (None, 24, 24, 24)   1248        activation_14[0][0]              
__________________________________________________________________________________________________
dense_0_6_bottleneck_bn (BatchN (None, 24, 24, 24)   96          dense_0_6_bottleneck_conv2D[0][0]
__________________________________________________________________________________________________
activation_15 (Activation)      (None, 24, 24, 24)   0           dense_0_6_bottleneck_bn[0][0]    
__________________________________________________________________________________________________
dense_0_6_conv2D (Conv2D)       (None, 6, 24, 24)    1296        activation_15[0][0]              
__________________________________________________________________________________________________
dropout_7 (Dropout)             (None, 6, 24, 24)    0           dense_0_6_conv2D[0][0]           
__________________________________________________________________________________________________
concatenate_7 (Concatenate)     (None, 58, 24, 24)   0           concatenate_6[0][0]              
                                                                 dropout_7[0][0]                  
__________________________________________________________________________________________________
dense_0_7_bn (BatchNormalizatio (None, 58, 24, 24)   232         concatenate_7[0][0]              
__________________________________________________________________________________________________
activation_16 (Activation)      (None, 58, 24, 24)   0           dense_0_7_bn[0][0]               
__________________________________________________________________________________________________
dense_0_7_bottleneck_conv2D (Co (None, 24, 24, 24)   1392        activation_16[0][0]              
__________________________________________________________________________________________________
dense_0_7_bottleneck_bn (BatchN (None, 24, 24, 24)   96          dense_0_7_bottleneck_conv2D[0][0]
__________________________________________________________________________________________________
activation_17 (Activation)      (None, 24, 24, 24)   0           dense_0_7_bottleneck_bn[0][0]    
__________________________________________________________________________________________________
dense_0_7_conv2D (Conv2D)       (None, 6, 24, 24)    1296        activation_17[0][0]              
__________________________________________________________________________________________________
dropout_8 (Dropout)             (None, 6, 24, 24)    0           dense_0_7_conv2D[0][0]           
__________________________________________________________________________________________________
concatenate_8 (Concatenate)     (None, 64, 24, 24)   0           concatenate_7[0][0]              
                                                                 dropout_8[0][0]                  
__________________________________________________________________________________________________
final_bn (BatchNormalization)   (None, 64, 24, 24)   256         concatenate_8[0][0]              
__________________________________________________________________________________________________
activation_18 (Activation)      (None, 64, 24, 24)   0           final_bn[0][0]                   
__________________________________________________________________________________________________
flatten_1 (Flatten)             (None, 36864)        0           activation_18[0][0]              
==================================================================================================
Total params: 20,528
Trainable params: 19,392
Non-trainable params: 1,136
…
dense_block  1  reduction_:  0.5  bottleneck:  True
------------------------	  end of configs        -------------------------
pooling:flatten
__________________________________________________________________________________________________
Layer (type)                    Output Shape         Param #     Connected to                     
==================================================================================================
input_1 (InputLayer)            (None, 1, 96, 96)    0                                            
__________________________________________________________________________________________________
initial_conv2D (Conv2D)         (None, 16, 48, 48)   784         input_1[0][0]                    
__________________________________________________________________________________________________
initial_bn (BatchNormalization) (None, 16, 48, 48)   64          initial_conv2D[0][0]             
__________________________________________________________________________________________________
activation_1 (Activation)       (None, 16, 48, 48)   0           initial_bn[0][0]                 
__________________________________________________________________________________________________
max_pooling2d_1 (MaxPooling2D)  (None, 16, 24, 24)   0           activation_1[0][0]               
__________________________________________________________________________________________________
dense_0_0_bn (BatchNormalizatio (None, 16, 24, 24)   64          max_pooling2d_1[0][0]            
__________________________________________________________________________________________________
activation_2 (Activation)       (None, 16, 24, 24)   0           dense_0_0_bn[0][0]               
__________________________________________________________________________________________________
dense_0_0_bottleneck_conv2D (Co (None, 120, 24, 24)  1920        activation_2[0][0]               
__________________________________________________________________________________________________
dense_0_0_bottleneck_bn (BatchN (None, 120, 24, 24)  480         dense_0_0_bottleneck_conv2D[0][0]
__________________________________________________________________________________________________
activation_3 (Activation)       (None, 120, 24, 24)  0           dense_0_0_bottleneck_bn[0][0]    
__________________________________________________________________________________________________
dense_0_0_conv2D (Conv2D)       (None, 30, 24, 24)   32400       activation_3[0][0]               
__________________________________________________________________________________________________
dropout_1 (Dropout)             (None, 30, 24, 24)   0           dense_0_0_conv2D[0][0]           
__________________________________________________________________________________________________
concatenate_1 (Concatenate)     (None, 46, 24, 24)   0           max_pooling2d_1[0][0]            
                                                                 dropout_1[0][0]                  
__________________________________________________________________________________________________
dense_0_1_bn (BatchNormalizatio (None, 46, 24, 24)   184         concatenate_1[0][0]              
__________________________________________________________________________________________________
activation_4 (Activation)       (None, 46, 24, 24)   0           dense_0_1_bn[0][0]               
__________________________________________________________________________________________________
dense_0_1_bottleneck_conv2D (Co (None, 120, 24, 24)  5520        activation_4[0][0]               
__________________________________________________________________________________________________
dense_0_1_bottleneck_bn (BatchN (None, 120, 24, 24)  480         dense_0_1_bottleneck_conv2D[0][0]
__________________________________________________________________________________________________
activation_5 (Activation)       (None, 120, 24, 24)  0           dense_0_1_bottleneck_bn[0][0]    
__________________________________________________________________________________________________
dense_0_1_conv2D (Conv2D)       (None, 30, 24, 24)   32400       activation_5[0][0]               
__________________________________________________________________________________________________
dropout_2 (Dropout)             (None, 30, 24, 24)   0           dense_0_1_conv2D[0][0]           
__________________________________________________________________________________________________
concatenate_2 (Concatenate)     (None, 76, 24, 24)   0           concatenate_1[0][0]              
                                                                 dropout_2[0][0]                  
__________________________________________________________________________________________________
dense_0_2_bn (BatchNormalizatio (None, 76, 24, 24)   304         concatenate_2[0][0]              
__________________________________________________________________________________________________
activation_6 (Activation)       (None, 76, 24, 24)   0           dense_0_2_bn[0][0]               
__________________________________________________________________________________________________
dense_0_2_bottleneck_conv2D (Co (None, 120, 24, 24)  9120        activation_6[0][0]               
__________________________________________________________________________________________________
dense_0_2_bottleneck_bn (BatchN (None, 120, 24, 24)  480         dense_0_2_bottleneck_conv2D[0][0]
__________________________________________________________________________________________________
activation_7 (Activation)       (None, 120, 24, 24)  0           dense_0_2_bottleneck_bn[0][0]    
__________________________________________________________________________________________________
dense_0_2_conv2D (Conv2D)       (None, 30, 24, 24)   32400       activation_7[0][0]               
__________________________________________________________________________________________________
dropout_3 (Dropout)             (None, 30, 24, 24)   0           dense_0_2_conv2D[0][0]           
__________________________________________________________________________________________________
concatenate_3 (Concatenate)     (None, 106, 24, 24)  0           concatenate_2[0][0]              
                                                                 dropout_3[0][0]                  
__________________________________________________________________________________________________
dense_0_3_bn (BatchNormalizatio (None, 106, 24, 24)  424         concatenate_3[0][0]              
__________________________________________________________________________________________________
activation_8 (Activation)       (None, 106, 24, 24)  0           dense_0_3_bn[0][0]               
__________________________________________________________________________________________________
dense_0_3_bottleneck_conv2D (Co (None, 120, 24, 24)  12720       activation_8[0][0]               
__________________________________________________________________________________________________
dense_0_3_bottleneck_bn (BatchN (None, 120, 24, 24)  480         dense_0_3_bottleneck_conv2D[0][0]
__________________________________________________________________________________________________
activation_9 (Activation)       (None, 120, 24, 24)  0           dense_0_3_bottleneck_bn[0][0]    
__________________________________________________________________________________________________
dense_0_3_conv2D (Conv2D)       (None, 30, 24, 24)   32400       activation_9[0][0]               
__________________________________________________________________________________________________
dropout_4 (Dropout)             (None, 30, 24, 24)   0           dense_0_3_conv2D[0][0]           
__________________________________________________________________________________________________
concatenate_4 (Concatenate)     (None, 136, 24, 24)  0           concatenate_3[0][0]              
                                                                 dropout_4[0][0]                  
__________________________________________________________________________________________________
dense_0_4_bn (BatchNormalizatio (None, 136, 24, 24)  544         concatenate_4[0][0]              
__________________________________________________________________________________________________
activation_10 (Activation)      (None, 136, 24, 24)  0           dense_0_4_bn[0][0]               
__________________________________________________________________________________________________
dense_0_4_bottleneck_conv2D (Co (None, 120, 24, 24)  16320       activation_10[0][0]              
__________________________________________________________________________________________________
dense_0_4_bottleneck_bn (BatchN (None, 120, 24, 24)  480         dense_0_4_bottleneck_conv2D[0][0]
__________________________________________________________________________________________________
activation_11 (Activation)      (None, 120, 24, 24)  0           dense_0_4_bottleneck_bn[0][0]    
__________________________________________________________________________________________________
dense_0_4_conv2D (Conv2D)       (None, 30, 24, 24)   32400       activation_11[0][0]              
__________________________________________________________________________________________________
dropout_5 (Dropout)             (None, 30, 24, 24)   0           dense_0_4_conv2D[0][0]           
__________________________________________________________________________________________________
concatenate_5 (Concatenate)     (None, 166, 24, 24)  0           concatenate_4[0][0]              
                                                                 dropout_5[0][0]                  
__________________________________________________________________________________________________
dense_0_5_bn (BatchNormalizatio (None, 166, 24, 24)  664         concatenate_5[0][0]              
__________________________________________________________________________________________________
activation_12 (Activation)      (None, 166, 24, 24)  0           dense_0_5_bn[0][0]               
__________________________________________________________________________________________________
dense_0_5_bottleneck_conv2D (Co (None, 120, 24, 24)  19920       activation_12[0][0]              
__________________________________________________________________________________________________
dense_0_5_bottleneck_bn (BatchN (None, 120, 24, 24)  480         dense_0_5_bottleneck_conv2D[0][0]
__________________________________________________________________________________________________
activation_13 (Activation)      (None, 120, 24, 24)  0           dense_0_5_bottleneck_bn[0][0]    
__________________________________________________________________________________________________
dense_0_5_conv2D (Conv2D)       (None, 30, 24, 24)   32400       activation_13[0][0]              
__________________________________________________________________________________________________
dropout_6 (Dropout)             (None, 30, 24, 24)   0           dense_0_5_conv2D[0][0]           
__________________________________________________________________________________________________
concatenate_6 (Concatenate)     (None, 196, 24, 24)  0           concatenate_5[0][0]              
                                                                 dropout_6[0][0]                  
__________________________________________________________________________________________________
dense_0_6_bn (BatchNormalizatio (None, 196, 24, 24)  784         concatenate_6[0][0]              
__________________________________________________________________________________________________
activation_14 (Activation)      (None, 196, 24, 24)  0           dense_0_6_bn[0][0]               
__________________________________________________________________________________________________
dense_0_6_bottleneck_conv2D (Co (None, 120, 24, 24)  23520       activation_14[0][0]              
__________________________________________________________________________________________________
dense_0_6_bottleneck_bn (BatchN (None, 120, 24, 24)  480         dense_0_6_bottleneck_conv2D[0][0]
__________________________________________________________________________________________________
activation_15 (Activation)      (None, 120, 24, 24)  0           dense_0_6_bottleneck_bn[0][0]    
__________________________________________________________________________________________________
dense_0_6_conv2D (Conv2D)       (None, 30, 24, 24)   32400       activation_15[0][0]              
__________________________________________________________________________________________________
dropout_7 (Dropout)             (None, 30, 24, 24)   0           dense_0_6_conv2D[0][0]           
__________________________________________________________________________________________________
concatenate_7 (Concatenate)     (None, 226, 24, 24)  0           concatenate_6[0][0]              
                                                                 dropout_7[0][0]                  
__________________________________________________________________________________________________
dense_0_7_bn (BatchNormalizatio (None, 226, 24, 24)  904         concatenate_7[0][0]              
__________________________________________________________________________________________________
activation_16 (Activation)      (None, 226, 24, 24)  0           dense_0_7_bn[0][0]               
__________________________________________________________________________________________________
dense_0_7_bottleneck_conv2D (Co (None, 120, 24, 24)  27120       activation_16[0][0]              
__________________________________________________________________________________________________
dense_0_7_bottleneck_bn (BatchN (None, 120, 24, 24)  480         dense_0_7_bottleneck_conv2D[0][0]
__________________________________________________________________________________________________
activation_17 (Activation)      (None, 120, 24, 24)  0           dense_0_7_bottleneck_bn[0][0]    
__________________________________________________________________________________________________
dense_0_7_conv2D (Conv2D)       (None, 30, 24, 24)   32400       activation_17[0][0]              
__________________________________________________________________________________________________
dropout_8 (Dropout)             (None, 30, 24, 24)   0           dense_0_7_conv2D[0][0]           
__________________________________________________________________________________________________
concatenate_8 (Concatenate)     (None, 256, 24, 24)  0           concatenate_7[0][0]              
                                                                 dropout_8[0][0]                  
__________________________________________________________________________________________________
dense_0_8_bn (BatchNormalizatio (None, 256, 24, 24)  1024        concatenate_8[0][0]              
__________________________________________________________________________________________________
activation_18 (Activation)      (None, 256, 24, 24)  0           dense_0_8_bn[0][0]               
__________________________________________________________________________________________________
dense_0_8_bottleneck_conv2D (Co (None, 120, 24, 24)  30720       activation_18[0][0]              
__________________________________________________________________________________________________
dense_0_8_bottleneck_bn (BatchN (None, 120, 24, 24)  480         dense_0_8_bottleneck_conv2D[0][0]
__________________________________________________________________________________________________
activation_19 (Activation)      (None, 120, 24, 24)  0           dense_0_8_bottleneck_bn[0][0]    
__________________________________________________________________________________________________
dense_0_8_conv2D (Conv2D)       (None, 30, 24, 24)   32400       activation_19[0][0]              
__________________________________________________________________________________________________
dropout_9 (Dropout)             (None, 30, 24, 24)   0           dense_0_8_conv2D[0][0]           
__________________________________________________________________________________________________
concatenate_9 (Concatenate)     (None, 286, 24, 24)  0           concatenate_8[0][0]              
                                                                 dropout_9[0][0]                  
__________________________________________________________________________________________________
dense_0_9_bn (BatchNormalizatio (None, 286, 24, 24)  1144        concatenate_9[0][0]              
__________________________________________________________________________________________________
activation_20 (Activation)      (None, 286, 24, 24)  0           dense_0_9_bn[0][0]               
__________________________________________________________________________________________________
dense_0_9_bottleneck_conv2D (Co (None, 120, 24, 24)  34320       activation_20[0][0]              
__________________________________________________________________________________________________
dense_0_9_bottleneck_bn (BatchN (None, 120, 24, 24)  480         dense_0_9_bottleneck_conv2D[0][0]
__________________________________________________________________________________________________
activation_21 (Activation)      (None, 120, 24, 24)  0           dense_0_9_bottleneck_bn[0][0]    
__________________________________________________________________________________________________
dense_0_9_conv2D (Conv2D)       (None, 30, 24, 24)   32400       activation_21[0][0]              
__________________________________________________________________________________________________
dropout_10 (Dropout)            (None, 30, 24, 24)   0           dense_0_9_conv2D[0][0]           
__________________________________________________________________________________________________
concatenate_10 (Concatenate)    (None, 316, 24, 24)  0           concatenate_9[0][0]              
                                                                 dropout_10[0][0]                 
__________________________________________________________________________________________________
dense_0_10_bn (BatchNormalizati (None, 316, 24, 24)  1264        concatenate_10[0][0]             
__________________________________________________________________________________________________
activation_22 (Activation)      (None, 316, 24, 24)  0           dense_0_10_bn[0][0]              
__________________________________________________________________________________________________
dense_0_10_bottleneck_conv2D (C (None, 120, 24, 24)  37920       activation_22[0][0]              
__________________________________________________________________________________________________
dense_0_10_bottleneck_bn (Batch (None, 120, 24, 24)  480         dense_0_10_bottleneck_conv2D[0][0
__________________________________________________________________________________________________
activation_23 (Activation)      (None, 120, 24, 24)  0           dense_0_10_bottleneck_bn[0][0]   
__________________________________________________________________________________________________
dense_0_10_conv2D (Conv2D)      (None, 30, 24, 24)   32400       activation_23[0][0]              
__________________________________________________________________________________________________
dropout_11 (Dropout)            (None, 30, 24, 24)   0           dense_0_10_conv2D[0][0]          
__________________________________________________________________________________________________
concatenate_11 (Concatenate)    (None, 346, 24, 24)  0           concatenate_10[0][0]             
                                                                 dropout_11[0][0]                 
__________________________________________________________________________________________________
dense_0_11_bn (BatchNormalizati (None, 346, 24, 24)  1384        concatenate_11[0][0]             
__________________________________________________________________________________________________
activation_24 (Activation)      (None, 346, 24, 24)  0           dense_0_11_bn[0][0]              
__________________________________________________________________________________________________
dense_0_11_bottleneck_conv2D (C (None, 120, 24, 24)  41520       activation_24[0][0]              
__________________________________________________________________________________________________
dense_0_11_bottleneck_bn (Batch (None, 120, 24, 24)  480         dense_0_11_bottleneck_conv2D[0][0
__________________________________________________________________________________________________
activation_25 (Activation)      (None, 120, 24, 24)  0           dense_0_11_bottleneck_bn[0][0]   
__________________________________________________________________________________________________
dense_0_11_conv2D (Conv2D)      (None, 30, 24, 24)   32400       activation_25[0][0]              
__________________________________________________________________________________________________
dropout_12 (Dropout)            (None, 30, 24, 24)   0           dense_0_11_conv2D[0][0]          
__________________________________________________________________________________________________
concatenate_12 (Concatenate)    (None, 376, 24, 24)  0           concatenate_11[0][0]             
                                                                 dropout_12[0][0]                 
__________________________________________________________________________________________________
final_bn (BatchNormalization)   (None, 376, 24, 24)  1504        concatenate_12[0][0]             
__________________________________________________________________________________________________
activation_26 (Activation)      (None, 376, 24, 24)  0           final_bn[0][0]                   
__________________________________________________________________________________________________
flatten_1 (Flatten)             (None, 216576)       0           activation_26[0][0]              
==================================================================================================
Total params: 666,240
Trainable params: 658,232
Non-trainable params: 8,008
__________________________________________________________________________________________________
__________________________________________________________________________________________________
Layer (type)                    Output Shape         Param #     Connected to                     
==================================================================================================
input_2 (InputLayer)            (None, 1, 96, 96)    0                                            
__________________________________________________________________________________________________
input_3 (InputLayer)            (None, 1, 96, 96)    0                                            
__________________________________________________________________________________________________
densenet (Model)                (None, 216576)       666240      input_2[0][0]                    
                                                                 input_3[0][0]                    
__________________________________________________________________________________________________
merge_features (Concatenate)    (None, 433152)       0           densenet[1][0]                   
                                                                 densenet[2][0]                   
__________________________________________________________________________________________________
dense_1 (Dense)                 (None, 512)          221774336   merge_features[0][0]             
__________________________________________________________________________________________________
activation_27 (Activation)      (None, 512)          0           dense_1[0][0]                    
__________________________________________________________________________________________________
batch_normalization_1 (BatchNor (None, 512)          2048        activation_27[0][0]              
__________________________________________________________________________________________________
dropout_13 (Dropout)            (None, 512)          0           batch_normalization_1[0][0]      
__________________________________________________________________________________________________
dense_2 (Dense)                 (None, 1)            513         dropout_13[0][0]                 
==================================================================================================
Total params: 222,443,137
Trainable params: 222,434,105
Non-trainable params: 9,032
__________________________________________________________________________________________________
Finished compiling
Train on 31872 samples, validate on 7968 samples
Epoch 1/7
…
------------------------ current config for the test -------------------------
Layers:  [12]  Growth_rate:  36  nb_filter:  16  dropout:  0.2
dense_block  1  reduction_:  0.5  bottleneck:  True
------------------------	  end of configs        -------------------------
pooling:flatten
__________________________________________________________________________________________________
Layer (type)                    Output Shape         Param #     Connected to                     
==================================================================================================
input_1 (InputLayer)            (None, 1, 96, 96)    0                                            
__________________________________________________________________________________________________
initial_conv2D (Conv2D)         (None, 16, 48, 48)   784         input_1[0][0]                    
__________________________________________________________________________________________________
initial_bn (BatchNormalization) (None, 16, 48, 48)   64          initial_conv2D[0][0]             
__________________________________________________________________________________________________
activation_1 (Activation)       (None, 16, 48, 48)   0           initial_bn[0][0]                 
__________________________________________________________________________________________________
max_pooling2d_1 (MaxPooling2D)  (None, 16, 24, 24)   0           activation_1[0][0]               
__________________________________________________________________________________________________
dense_0_0_bn (BatchNormalizatio (None, 16, 24, 24)   64          max_pooling2d_1[0][0]            
__________________________________________________________________________________________________
activation_2 (Activation)       (None, 16, 24, 24)   0           dense_0_0_bn[0][0]               
__________________________________________________________________________________________________
dense_0_0_bottleneck_conv2D (Co (None, 144, 24, 24)  2304        activation_2[0][0]               
__________________________________________________________________________________________________
dense_0_0_bottleneck_bn (BatchN (None, 144, 24, 24)  576         dense_0_0_bottleneck_conv2D[0][0]
__________________________________________________________________________________________________
activation_3 (Activation)       (None, 144, 24, 24)  0           dense_0_0_bottleneck_bn[0][0]    
__________________________________________________________________________________________________
dense_0_0_conv2D (Conv2D)       (None, 36, 24, 24)   46656       activation_3[0][0]               
__________________________________________________________________________________________________
dropout_1 (Dropout)             (None, 36, 24, 24)   0           dense_0_0_conv2D[0][0]           
__________________________________________________________________________________________________
concatenate_1 (Concatenate)     (None, 52, 24, 24)   0           max_pooling2d_1[0][0]            
                                                                 dropout_1[0][0]                  
__________________________________________________________________________________________________
dense_0_1_bn (BatchNormalizatio (None, 52, 24, 24)   208         concatenate_1[0][0]              
__________________________________________________________________________________________________
activation_4 (Activation)       (None, 52, 24, 24)   0           dense_0_1_bn[0][0]               
__________________________________________________________________________________________________
dense_0_1_bottleneck_conv2D (Co (None, 144, 24, 24)  7488        activation_4[0][0]               
__________________________________________________________________________________________________
dense_0_1_bottleneck_bn (BatchN (None, 144, 24, 24)  576         dense_0_1_bottleneck_conv2D[0][0]
__________________________________________________________________________________________________
activation_5 (Activation)       (None, 144, 24, 24)  0           dense_0_1_bottleneck_bn[0][0]    
__________________________________________________________________________________________________
dense_0_1_conv2D (Conv2D)       (None, 36, 24, 24)   46656       activation_5[0][0]               
__________________________________________________________________________________________________
dropout_2 (Dropout)             (None, 36, 24, 24)   0           dense_0_1_conv2D[0][0]           
__________________________________________________________________________________________________
concatenate_2 (Concatenate)     (None, 88, 24, 24)   0           concatenate_1[0][0]              
                                                                 dropout_2[0][0]                  
__________________________________________________________________________________________________
dense_0_2_bn (BatchNormalizatio (None, 88, 24, 24)   352         concatenate_2[0][0]              
__________________________________________________________________________________________________
activation_6 (Activation)       (None, 88, 24, 24)   0           dense_0_2_bn[0][0]               
__________________________________________________________________________________________________
dense_0_2_bottleneck_conv2D (Co (None, 144, 24, 24)  12672       activation_6[0][0]               
__________________________________________________________________________________________________
dense_0_2_bottleneck_bn (BatchN (None, 144, 24, 24)  576         dense_0_2_bottleneck_conv2D[0][0]
__________________________________________________________________________________________________
activation_7 (Activation)       (None, 144, 24, 24)  0           dense_0_2_bottleneck_bn[0][0]    
__________________________________________________________________________________________________
dense_0_2_conv2D (Conv2D)       (None, 36, 24, 24)   46656       activation_7[0][0]               
__________________________________________________________________________________________________
dropout_3 (Dropout)             (None, 36, 24, 24)   0           dense_0_2_conv2D[0][0]           
__________________________________________________________________________________________________
concatenate_3 (Concatenate)     (None, 124, 24, 24)  0           concatenate_2[0][0]              
                                                                 dropout_3[0][0]                  
__________________________________________________________________________________________________
dense_0_3_bn (BatchNormalizatio (None, 124, 24, 24)  496         concatenate_3[0][0]              
__________________________________________________________________________________________________
activation_8 (Activation)       (None, 124, 24, 24)  0           dense_0_3_bn[0][0]               
__________________________________________________________________________________________________
dense_0_3_bottleneck_conv2D (Co (None, 144, 24, 24)  17856       activation_8[0][0]               
__________________________________________________________________________________________________
dense_0_3_bottleneck_bn (BatchN (None, 144, 24, 24)  576         dense_0_3_bottleneck_conv2D[0][0]
__________________________________________________________________________________________________
activation_9 (Activation)       (None, 144, 24, 24)  0           dense_0_3_bottleneck_bn[0][0]    
__________________________________________________________________________________________________
dense_0_3_conv2D (Conv2D)       (None, 36, 24, 24)   46656       activation_9[0][0]               
__________________________________________________________________________________________________
dropout_4 (Dropout)             (None, 36, 24, 24)   0           dense_0_3_conv2D[0][0]           
__________________________________________________________________________________________________
concatenate_4 (Concatenate)     (None, 160, 24, 24)  0           concatenate_3[0][0]              
                                                                 dropout_4[0][0]                  
__________________________________________________________________________________________________
dense_0_4_bn (BatchNormalizatio (None, 160, 24, 24)  640         concatenate_4[0][0]              
__________________________________________________________________________________________________
activation_10 (Activation)      (None, 160, 24, 24)  0           dense_0_4_bn[0][0]               
__________________________________________________________________________________________________
dense_0_4_bottleneck_conv2D (Co (None, 144, 24, 24)  23040       activation_10[0][0]              
__________________________________________________________________________________________________
dense_0_4_bottleneck_bn (BatchN (None, 144, 24, 24)  576         dense_0_4_bottleneck_conv2D[0][0]
__________________________________________________________________________________________________
activation_11 (Activation)      (None, 144, 24, 24)  0           dense_0_4_bottleneck_bn[0][0]    
__________________________________________________________________________________________________
dense_0_4_conv2D (Conv2D)       (None, 36, 24, 24)   46656       activation_11[0][0]              
__________________________________________________________________________________________________
dropout_5 (Dropout)             (None, 36, 24, 24)   0           dense_0_4_conv2D[0][0]           
__________________________________________________________________________________________________
concatenate_5 (Concatenate)     (None, 196, 24, 24)  0           concatenate_4[0][0]              
                                                                 dropout_5[0][0]                  
__________________________________________________________________________________________________
dense_0_5_bn (BatchNormalizatio (None, 196, 24, 24)  784         concatenate_5[0][0]              
__________________________________________________________________________________________________
activation_12 (Activation)      (None, 196, 24, 24)  0           dense_0_5_bn[0][0]               
__________________________________________________________________________________________________
dense_0_5_bottleneck_conv2D (Co (None, 144, 24, 24)  28224       activation_12[0][0]              
__________________________________________________________________________________________________
dense_0_5_bottleneck_bn (BatchN (None, 144, 24, 24)  576         dense_0_5_bottleneck_conv2D[0][0]
__________________________________________________________________________________________________
activation_13 (Activation)      (None, 144, 24, 24)  0           dense_0_5_bottleneck_bn[0][0]    
__________________________________________________________________________________________________
dense_0_5_conv2D (Conv2D)       (None, 36, 24, 24)   46656       activation_13[0][0]              
__________________________________________________________________________________________________
dropout_6 (Dropout)             (None, 36, 24, 24)   0           dense_0_5_conv2D[0][0]           
__________________________________________________________________________________________________
concatenate_6 (Concatenate)     (None, 232, 24, 24)  0           concatenate_5[0][0]              
                                                                 dropout_6[0][0]                  
__________________________________________________________________________________________________
dense_0_6_bn (BatchNormalizatio (None, 232, 24, 24)  928         concatenate_6[0][0]              
__________________________________________________________________________________________________
activation_14 (Activation)      (None, 232, 24, 24)  0           dense_0_6_bn[0][0]               
__________________________________________________________________________________________________
dense_0_6_bottleneck_conv2D (Co (None, 144, 24, 24)  33408       activation_14[0][0]              
__________________________________________________________________________________________________
dense_0_6_bottleneck_bn (BatchN (None, 144, 24, 24)  576         dense_0_6_bottleneck_conv2D[0][0]
__________________________________________________________________________________________________
activation_15 (Activation)      (None, 144, 24, 24)  0           dense_0_6_bottleneck_bn[0][0]    
__________________________________________________________________________________________________
dense_0_6_conv2D (Conv2D)       (None, 36, 24, 24)   46656       activation_15[0][0]              
__________________________________________________________________________________________________
dropout_7 (Dropout)             (None, 36, 24, 24)   0           dense_0_6_conv2D[0][0]           
__________________________________________________________________________________________________
concatenate_7 (Concatenate)     (None, 268, 24, 24)  0           concatenate_6[0][0]              
                                                                 dropout_7[0][0]                  
__________________________________________________________________________________________________
dense_0_7_bn (BatchNormalizatio (None, 268, 24, 24)  1072        concatenate_7[0][0]              
__________________________________________________________________________________________________
activation_16 (Activation)      (None, 268, 24, 24)  0           dense_0_7_bn[0][0]               
__________________________________________________________________________________________________
dense_0_7_bottleneck_conv2D (Co (None, 144, 24, 24)  38592       activation_16[0][0]              
__________________________________________________________________________________________________
dense_0_7_bottleneck_bn (BatchN (None, 144, 24, 24)  576         dense_0_7_bottleneck_conv2D[0][0]
__________________________________________________________________________________________________
activation_17 (Activation)      (None, 144, 24, 24)  0           dense_0_7_bottleneck_bn[0][0]    
__________________________________________________________________________________________________
dense_0_7_conv2D (Conv2D)       (None, 36, 24, 24)   46656       activation_17[0][0]              
__________________________________________________________________________________________________
dropout_8 (Dropout)             (None, 36, 24, 24)   0           dense_0_7_conv2D[0][0]           
__________________________________________________________________________________________________
concatenate_8 (Concatenate)     (None, 304, 24, 24)  0           concatenate_7[0][0]              
                                                                 dropout_8[0][0]                  
__________________________________________________________________________________________________
dense_0_8_bn (BatchNormalizatio (None, 304, 24, 24)  1216        concatenate_8[0][0]              
__________________________________________________________________________________________________
activation_18 (Activation)      (None, 304, 24, 24)  0           dense_0_8_bn[0][0]               
__________________________________________________________________________________________________
dense_0_8_bottleneck_conv2D (Co (None, 144, 24, 24)  43776       activation_18[0][0]              
__________________________________________________________________________________________________
dense_0_8_bottleneck_bn (BatchN (None, 144, 24, 24)  576         dense_0_8_bottleneck_conv2D[0][0]
__________________________________________________________________________________________________
activation_19 (Activation)      (None, 144, 24, 24)  0           dense_0_8_bottleneck_bn[0][0]    
__________________________________________________________________________________________________
dense_0_8_conv2D (Conv2D)       (None, 36, 24, 24)   46656       activation_19[0][0]              
__________________________________________________________________________________________________
dropout_9 (Dropout)             (None, 36, 24, 24)   0           dense_0_8_conv2D[0][0]           
__________________________________________________________________________________________________
concatenate_9 (Concatenate)     (None, 340, 24, 24)  0           concatenate_8[0][0]              
                                                                 dropout_9[0][0]                  
__________________________________________________________________________________________________
dense_0_9_bn (BatchNormalizatio (None, 340, 24, 24)  1360        concatenate_9[0][0]              
__________________________________________________________________________________________________
activation_20 (Activation)      (None, 340, 24, 24)  0           dense_0_9_bn[0][0]               
__________________________________________________________________________________________________
dense_0_9_bottleneck_conv2D (Co (None, 144, 24, 24)  48960       activation_20[0][0]              
__________________________________________________________________________________________________
dense_0_9_bottleneck_bn (BatchN (None, 144, 24, 24)  576         dense_0_9_bottleneck_conv2D[0][0]
__________________________________________________________________________________________________
activation_21 (Activation)      (None, 144, 24, 24)  0           dense_0_9_bottleneck_bn[0][0]    
__________________________________________________________________________________________________
dense_0_9_conv2D (Conv2D)       (None, 36, 24, 24)   46656       activation_21[0][0]              
__________________________________________________________________________________________________
dropout_10 (Dropout)            (None, 36, 24, 24)   0           dense_0_9_conv2D[0][0]           
__________________________________________________________________________________________________
concatenate_10 (Concatenate)    (None, 376, 24, 24)  0           concatenate_9[0][0]              
                                                                 dropout_10[0][0]                 
__________________________________________________________________________________________________
dense_0_10_bn (BatchNormalizati (None, 376, 24, 24)  1504        concatenate_10[0][0]             
__________________________________________________________________________________________________
activation_22 (Activation)      (None, 376, 24, 24)  0           dense_0_10_bn[0][0]              
__________________________________________________________________________________________________
dense_0_10_bottleneck_conv2D (C (None, 144, 24, 24)  54144       activation_22[0][0]              
__________________________________________________________________________________________________
dense_0_10_bottleneck_bn (Batch (None, 144, 24, 24)  576         dense_0_10_bottleneck_conv2D[0][0
__________________________________________________________________________________________________
activation_23 (Activation)      (None, 144, 24, 24)  0           dense_0_10_bottleneck_bn[0][0]   
__________________________________________________________________________________________________
dense_0_10_conv2D (Conv2D)      (None, 36, 24, 24)   46656       activation_23[0][0]              
__________________________________________________________________________________________________
dropout_11 (Dropout)            (None, 36, 24, 24)   0           dense_0_10_conv2D[0][0]          
__________________________________________________________________________________________________
concatenate_11 (Concatenate)    (None, 412, 24, 24)  0           concatenate_10[0][0]             
                                                                 dropout_11[0][0]                 
__________________________________________________________________________________________________
dense_0_11_bn (BatchNormalizati (None, 412, 24, 24)  1648        concatenate_11[0][0]             
__________________________________________________________________________________________________
activation_24 (Activation)      (None, 412, 24, 24)  0           dense_0_11_bn[0][0]              
__________________________________________________________________________________________________
dense_0_11_bottleneck_conv2D (C (None, 144, 24, 24)  59328       activation_24[0][0]              
__________________________________________________________________________________________________
dense_0_11_bottleneck_bn (Batch (None, 144, 24, 24)  576         dense_0_11_bottleneck_conv2D[0][0
__________________________________________________________________________________________________
activation_25 (Activation)      (None, 144, 24, 24)  0           dense_0_11_bottleneck_bn[0][0]   
__________________________________________________________________________________________________
dense_0_11_conv2D (Conv2D)      (None, 36, 24, 24)   46656       activation_25[0][0]              
__________________________________________________________________________________________________
dropout_12 (Dropout)            (None, 36, 24, 24)   0           dense_0_11_conv2D[0][0]          
__________________________________________________________________________________________________
concatenate_12 (Concatenate)    (None, 448, 24, 24)  0           concatenate_11[0][0]             
                                                                 dropout_12[0][0]                 
__________________________________________________________________________________________________
final_bn (BatchNormalization)   (None, 448, 24, 24)  1792        concatenate_12[0][0]             
__________________________________________________________________________________________________
activation_26 (Activation)      (None, 448, 24, 24)  0           final_bn[0][0]                   
__________________________________________________________________________________________________
flatten_1 (Flatten)             (None, 258048)       0           activation_26[0][0]              
==================================================================================================
Total params: 949,488
Trainable params: 939,968
Non-trainable params: 9,520
__________________________________________________________________________________________________
__________________________________________________________________________________________________
Layer (type)                    Output Shape         Param #     Connected to                     
==================================================================================================
input_2 (InputLayer)            (None, 1, 96, 96)    0                                            
__________________________________________________________________________________________________
input_3 (InputLayer)            (None, 1, 96, 96)    0                                            
__________________________________________________________________________________________________
densenet (Model)                (None, 258048)       949488      input_2[0][0]                    
                                                                 input_3[0][0]                    
__________________________________________________________________________________________________
merge_features (Concatenate)    (None, 516096)       0           densenet[1][0]                   
                                                                 densenet[2][0]                   
__________________________________________________________________________________________________
dense_1 (Dense)                 (None, 512)          264241664   merge_features[0][0]             
__________________________________________________________________________________________________
activation_27 (Activation)      (None, 512)          0           dense_1[0][0]                    
__________________________________________________________________________________________________
batch_normalization_1 (BatchNor (None, 512)          2048        activation_27[0][0]              
__________________________________________________________________________________________________
dropout_13 (Dropout)            (None, 512)          0           batch_normalization_1[0][0]      
__________________________________________________________________________________________________
dense_2 (Dense)                 (None, 1)            513         dropout_13[0][0]                 
==================================================================================================
Total params: 265,193,713
Trainable params: 265,183,169
Non-trainable params: 10,544
__________________________________________________________________________________________________
Finished compiling
Train on 31872 samples, validate on 7968 samples
Epoch 1/7
…
