…
------------------------ current config for the test -------------------------
Layers:  [2, 2]  Growth_rate:  30  nb_filter:  8  dropout:  0.2
dense_block  2  reduction_:  0.5  bottleneck:  True
------------------------	  end of configs        -------------------------
pooling:flatten
__________________________________________________________________________________________________
Layer (type)                    Output Shape         Param #     Connected to                     
==================================================================================================
input_1 (InputLayer)            (None, 1, 96, 96)    0                                            
__________________________________________________________________________________________________
initial_conv2D (Conv2D)         (None, 8, 48, 48)    392         input_1[0][0]                    
__________________________________________________________________________________________________
initial_bn (BatchNormalization) (None, 8, 48, 48)    32          initial_conv2D[0][0]             
__________________________________________________________________________________________________
activation_1 (Activation)       (None, 8, 48, 48)    0           initial_bn[0][0]                 
__________________________________________________________________________________________________
max_pooling2d_1 (MaxPooling2D)  (None, 8, 24, 24)    0           activation_1[0][0]               
__________________________________________________________________________________________________
dense_0_0_bn (BatchNormalizatio (None, 8, 24, 24)    32          max_pooling2d_1[0][0]            
__________________________________________________________________________________________________
activation_2 (Activation)       (None, 8, 24, 24)    0           dense_0_0_bn[0][0]               
__________________________________________________________________________________________________
dense_0_0_bottleneck_conv2D (Co (None, 120, 24, 24)  960         activation_2[0][0]               
__________________________________________________________________________________________________
dense_0_0_bottleneck_bn (BatchN (None, 120, 24, 24)  480         dense_0_0_bottleneck_conv2D[0][0]
__________________________________________________________________________________________________
activation_3 (Activation)       (None, 120, 24, 24)  0           dense_0_0_bottleneck_bn[0][0]    
__________________________________________________________________________________________________
dense_0_0_conv2D (Conv2D)       (None, 30, 24, 24)   32400       activation_3[0][0]               
__________________________________________________________________________________________________
dropout_1 (Dropout)             (None, 30, 24, 24)   0           dense_0_0_conv2D[0][0]           
__________________________________________________________________________________________________
concatenate_1 (Concatenate)     (None, 38, 24, 24)   0           max_pooling2d_1[0][0]            
                                                                 dropout_1[0][0]                  
__________________________________________________________________________________________________
dense_0_1_bn (BatchNormalizatio (None, 38, 24, 24)   152         concatenate_1[0][0]              
__________________________________________________________________________________________________
activation_4 (Activation)       (None, 38, 24, 24)   0           dense_0_1_bn[0][0]               
__________________________________________________________________________________________________
dense_0_1_bottleneck_conv2D (Co (None, 120, 24, 24)  4560        activation_4[0][0]               
__________________________________________________________________________________________________
dense_0_1_bottleneck_bn (BatchN (None, 120, 24, 24)  480         dense_0_1_bottleneck_conv2D[0][0]
__________________________________________________________________________________________________
activation_5 (Activation)       (None, 120, 24, 24)  0           dense_0_1_bottleneck_bn[0][0]    
__________________________________________________________________________________________________
dense_0_1_conv2D (Conv2D)       (None, 30, 24, 24)   32400       activation_5[0][0]               
__________________________________________________________________________________________________
dropout_2 (Dropout)             (None, 30, 24, 24)   0           dense_0_1_conv2D[0][0]           
__________________________________________________________________________________________________
concatenate_2 (Concatenate)     (None, 68, 24, 24)   0           concatenate_1[0][0]              
                                                                 dropout_2[0][0]                  
__________________________________________________________________________________________________
tr_0_bn (BatchNormalization)    (None, 68, 24, 24)   272         concatenate_2[0][0]              
__________________________________________________________________________________________________
activation_6 (Activation)       (None, 68, 24, 24)   0           tr_0_bn[0][0]                    
__________________________________________________________________________________________________
tr_0_conv2D (Conv2D)            (None, 34, 24, 24)   2312        activation_6[0][0]               
__________________________________________________________________________________________________
max_pooling2d_2 (MaxPooling2D)  (None, 34, 12, 12)   0           tr_0_conv2D[0][0]                
__________________________________________________________________________________________________
dense_1_0_bn (BatchNormalizatio (None, 34, 12, 12)   136         max_pooling2d_2[0][0]            
__________________________________________________________________________________________________
activation_7 (Activation)       (None, 34, 12, 12)   0           dense_1_0_bn[0][0]               
__________________________________________________________________________________________________
dense_1_0_bottleneck_conv2D (Co (None, 120, 12, 12)  4080        activation_7[0][0]               
__________________________________________________________________________________________________
dense_1_0_bottleneck_bn (BatchN (None, 120, 12, 12)  480         dense_1_0_bottleneck_conv2D[0][0]
__________________________________________________________________________________________________
activation_8 (Activation)       (None, 120, 12, 12)  0           dense_1_0_bottleneck_bn[0][0]    
__________________________________________________________________________________________________
dense_1_0_conv2D (Conv2D)       (None, 30, 12, 12)   32400       activation_8[0][0]               
__________________________________________________________________________________________________
dropout_3 (Dropout)             (None, 30, 12, 12)   0           dense_1_0_conv2D[0][0]           
__________________________________________________________________________________________________
concatenate_3 (Concatenate)     (None, 64, 12, 12)   0           max_pooling2d_2[0][0]            
                                                                 dropout_3[0][0]                  
__________________________________________________________________________________________________
dense_1_1_bn (BatchNormalizatio (None, 64, 12, 12)   256         concatenate_3[0][0]              
__________________________________________________________________________________________________
activation_9 (Activation)       (None, 64, 12, 12)   0           dense_1_1_bn[0][0]               
__________________________________________________________________________________________________
dense_1_1_bottleneck_conv2D (Co (None, 120, 12, 12)  7680        activation_9[0][0]               
__________________________________________________________________________________________________
dense_1_1_bottleneck_bn (BatchN (None, 120, 12, 12)  480         dense_1_1_bottleneck_conv2D[0][0]
__________________________________________________________________________________________________
activation_10 (Activation)      (None, 120, 12, 12)  0           dense_1_1_bottleneck_bn[0][0]    
__________________________________________________________________________________________________
dense_1_1_conv2D (Conv2D)       (None, 30, 12, 12)   32400       activation_10[0][0]              
__________________________________________________________________________________________________
dropout_4 (Dropout)             (None, 30, 12, 12)   0           dense_1_1_conv2D[0][0]           
__________________________________________________________________________________________________
concatenate_4 (Concatenate)     (None, 94, 12, 12)   0           concatenate_3[0][0]              
                                                                 dropout_4[0][0]                  
__________________________________________________________________________________________________
final_bn (BatchNormalization)   (None, 94, 12, 12)   376         concatenate_4[0][0]              
__________________________________________________________________________________________________
activation_11 (Activation)      (None, 94, 12, 12)   0           final_bn[0][0]                   
__________________________________________________________________________________________________
flatten_1 (Flatten)             (None, 13536)        0           activation_11[0][0]              
==================================================================================================
Total params: 152,760
Trainable params: 151,172
Non-trainable params: 1,588
__________________________________________________________________________________________________
__________________________________________________________________________________________________
Layer (type)                    Output Shape         Param #     Connected to                     
==================================================================================================
input_2 (InputLayer)            (None, 1, 96, 96)    0                                            
__________________________________________________________________________________________________
input_3 (InputLayer)            (None, 1, 96, 96)    0                                            
__________________________________________________________________________________________________
densenet (Model)                (None, 13536)        152760      input_2[0][0]                    
                                                                 input_3[0][0]                    
__________________________________________________________________________________________________
merge_features (Concatenate)    (None, 27072)        0           densenet[1][0]                   
                                                                 densenet[2][0]                   
__________________________________________________________________________________________________
dense_1 (Dense)                 (None, 512)          13861376    merge_features[0][0]             
__________________________________________________________________________________________________
activation_12 (Activation)      (None, 512)          0           dense_1[0][0]                    
__________________________________________________________________________________________________
batch_normalization_1 (BatchNor (None, 512)          2048        activation_12[0][0]              
__________________________________________________________________________________________________
dropout_5 (Dropout)             (None, 512)          0           batch_normalization_1[0][0]      
__________________________________________________________________________________________________
dense_2 (Dense)                 (None, 1)            513         dropout_5[0][0]                  
==================================================================================================
Total params: 14,016,697
Trainable params: 14,014,085
Non-trainable params: 2,612
__________________________________________________________________________________________________
Finished compiling
Train on 31872 samples, validate on 7968 samples
Epoch 1/6
…
------------------------ current config for the test -------------------------
Layers:  [2, 2]  Growth_rate:  30  nb_filter:  16  dropout:  0.2
dense_block  2  reduction_:  0.5  bottleneck:  True
------------------------	  end of configs        -------------------------
pooling:flatten
__________________________________________________________________________________________________
Layer (type)                    Output Shape         Param #     Connected to                     
==================================================================================================
input_1 (InputLayer)            (None, 1, 96, 96)    0                                            
__________________________________________________________________________________________________
initial_conv2D (Conv2D)         (None, 16, 48, 48)   784         input_1[0][0]                    
__________________________________________________________________________________________________
initial_bn (BatchNormalization) (None, 16, 48, 48)   64          initial_conv2D[0][0]             
__________________________________________________________________________________________________
activation_1 (Activation)       (None, 16, 48, 48)   0           initial_bn[0][0]                 
__________________________________________________________________________________________________
max_pooling2d_1 (MaxPooling2D)  (None, 16, 24, 24)   0           activation_1[0][0]               
__________________________________________________________________________________________________
dense_0_0_bn (BatchNormalizatio (None, 16, 24, 24)   64          max_pooling2d_1[0][0]            
__________________________________________________________________________________________________
activation_2 (Activation)       (None, 16, 24, 24)   0           dense_0_0_bn[0][0]               
__________________________________________________________________________________________________
dense_0_0_bottleneck_conv2D (Co (None, 120, 24, 24)  1920        activation_2[0][0]               
__________________________________________________________________________________________________
dense_0_0_bottleneck_bn (BatchN (None, 120, 24, 24)  480         dense_0_0_bottleneck_conv2D[0][0]
__________________________________________________________________________________________________
activation_3 (Activation)       (None, 120, 24, 24)  0           dense_0_0_bottleneck_bn[0][0]    
__________________________________________________________________________________________________
dense_0_0_conv2D (Conv2D)       (None, 30, 24, 24)   32400       activation_3[0][0]               
__________________________________________________________________________________________________
dropout_1 (Dropout)             (None, 30, 24, 24)   0           dense_0_0_conv2D[0][0]           
__________________________________________________________________________________________________
concatenate_1 (Concatenate)     (None, 46, 24, 24)   0           max_pooling2d_1[0][0]            
                                                                 dropout_1[0][0]                  
__________________________________________________________________________________________________
dense_0_1_bn (BatchNormalizatio (None, 46, 24, 24)   184         concatenate_1[0][0]              
__________________________________________________________________________________________________
activation_4 (Activation)       (None, 46, 24, 24)   0           dense_0_1_bn[0][0]               
__________________________________________________________________________________________________
dense_0_1_bottleneck_conv2D (Co (None, 120, 24, 24)  5520        activation_4[0][0]               
__________________________________________________________________________________________________
dense_0_1_bottleneck_bn (BatchN (None, 120, 24, 24)  480         dense_0_1_bottleneck_conv2D[0][0]
__________________________________________________________________________________________________
activation_5 (Activation)       (None, 120, 24, 24)  0           dense_0_1_bottleneck_bn[0][0]    
__________________________________________________________________________________________________
dense_0_1_conv2D (Conv2D)       (None, 30, 24, 24)   32400       activation_5[0][0]               
__________________________________________________________________________________________________
dropout_2 (Dropout)             (None, 30, 24, 24)   0           dense_0_1_conv2D[0][0]           
__________________________________________________________________________________________________
concatenate_2 (Concatenate)     (None, 76, 24, 24)   0           concatenate_1[0][0]              
                                                                 dropout_2[0][0]                  
__________________________________________________________________________________________________
tr_0_bn (BatchNormalization)    (None, 76, 24, 24)   304         concatenate_2[0][0]              
__________________________________________________________________________________________________
activation_6 (Activation)       (None, 76, 24, 24)   0           tr_0_bn[0][0]                    
__________________________________________________________________________________________________
tr_0_conv2D (Conv2D)            (None, 38, 24, 24)   2888        activation_6[0][0]               
__________________________________________________________________________________________________
max_pooling2d_2 (MaxPooling2D)  (None, 38, 12, 12)   0           tr_0_conv2D[0][0]                
__________________________________________________________________________________________________
dense_1_0_bn (BatchNormalizatio (None, 38, 12, 12)   152         max_pooling2d_2[0][0]            
__________________________________________________________________________________________________
activation_7 (Activation)       (None, 38, 12, 12)   0           dense_1_0_bn[0][0]               
__________________________________________________________________________________________________
dense_1_0_bottleneck_conv2D (Co (None, 120, 12, 12)  4560        activation_7[0][0]               
__________________________________________________________________________________________________
dense_1_0_bottleneck_bn (BatchN (None, 120, 12, 12)  480         dense_1_0_bottleneck_conv2D[0][0]
__________________________________________________________________________________________________
activation_8 (Activation)       (None, 120, 12, 12)  0           dense_1_0_bottleneck_bn[0][0]    
__________________________________________________________________________________________________
dense_1_0_conv2D (Conv2D)       (None, 30, 12, 12)   32400       activation_8[0][0]               
__________________________________________________________________________________________________
dropout_3 (Dropout)             (None, 30, 12, 12)   0           dense_1_0_conv2D[0][0]           
__________________________________________________________________________________________________
concatenate_3 (Concatenate)     (None, 68, 12, 12)   0           max_pooling2d_2[0][0]            
                                                                 dropout_3[0][0]                  
__________________________________________________________________________________________________
dense_1_1_bn (BatchNormalizatio (None, 68, 12, 12)   272         concatenate_3[0][0]              
__________________________________________________________________________________________________
activation_9 (Activation)       (None, 68, 12, 12)   0           dense_1_1_bn[0][0]               
__________________________________________________________________________________________________
dense_1_1_bottleneck_conv2D (Co (None, 120, 12, 12)  8160        activation_9[0][0]               
__________________________________________________________________________________________________
dense_1_1_bottleneck_bn (BatchN (None, 120, 12, 12)  480         dense_1_1_bottleneck_conv2D[0][0]
__________________________________________________________________________________________________
activation_10 (Activation)      (None, 120, 12, 12)  0           dense_1_1_bottleneck_bn[0][0]    
__________________________________________________________________________________________________
dense_1_1_conv2D (Conv2D)       (None, 30, 12, 12)   32400       activation_10[0][0]              
__________________________________________________________________________________________________
dropout_4 (Dropout)             (None, 30, 12, 12)   0           dense_1_1_conv2D[0][0]           
__________________________________________________________________________________________________
concatenate_4 (Concatenate)     (None, 98, 12, 12)   0           concatenate_3[0][0]              
                                                                 dropout_4[0][0]                  
__________________________________________________________________________________________________
final_bn (BatchNormalization)   (None, 98, 12, 12)   392         concatenate_4[0][0]              
__________________________________________________________________________________________________
activation_11 (Activation)      (None, 98, 12, 12)   0           final_bn[0][0]                   
__________________________________________________________________________________________________
flatten_1 (Flatten)             (None, 14112)        0           activation_11[0][0]              
==================================================================================================
Total params: 156,784
Trainable params: 155,108
Non-trainable params: 1,676
__________________________________________________________________________________________________
__________________________________________________________________________________________________
Layer (type)                    Output Shape         Param #     Connected to                     
==================================================================================================
input_2 (InputLayer)            (None, 1, 96, 96)    0                                            
__________________________________________________________________________________________________
input_3 (InputLayer)            (None, 1, 96, 96)    0                                            
__________________________________________________________________________________________________
densenet (Model)                (None, 14112)        156784      input_2[0][0]                    
                                                                 input_3[0][0]                    
__________________________________________________________________________________________________
merge_features (Concatenate)    (None, 28224)        0           densenet[1][0]                   
                                                                 densenet[2][0]                   
__________________________________________________________________________________________________
dense_1 (Dense)                 (None, 512)          14451200    merge_features[0][0]             
__________________________________________________________________________________________________
activation_12 (Activation)      (None, 512)          0           dense_1[0][0]                    
__________________________________________________________________________________________________
batch_normalization_1 (BatchNor (None, 512)          2048        activation_12[0][0]              
__________________________________________________________________________________________________
dropout_5 (Dropout)             (None, 512)          0           batch_normalization_1[0][0]      
__________________________________________________________________________________________________
dense_2 (Dense)                 (None, 1)            513         dropout_5[0][0]                  
==================================================================================================
Total params: 14,610,545
Trainable params: 14,607,845
Non-trainable params: 2,700
__________________________________________________________________________________________________
Finished compiling
Train on 31872 samples, validate on 7968 samples
Epoch 1/6
…
------------------------ current config for the test -------------------------
Layers:  [2, 2]  Growth_rate:  30  nb_filter:  32  dropout:  0.2
dense_block  2  reduction_:  0.5  bottleneck:  True
------------------------	  end of configs        -------------------------
pooling:flatten
__________________________________________________________________________________________________
Layer (type)                    Output Shape         Param #     Connected to                     
==================================================================================================
input_1 (InputLayer)            (None, 1, 96, 96)    0                                            
__________________________________________________________________________________________________
initial_conv2D (Conv2D)         (None, 32, 48, 48)   1568        input_1[0][0]                    
__________________________________________________________________________________________________
initial_bn (BatchNormalization) (None, 32, 48, 48)   128         initial_conv2D[0][0]             
__________________________________________________________________________________________________
activation_1 (Activation)       (None, 32, 48, 48)   0           initial_bn[0][0]                 
__________________________________________________________________________________________________
max_pooling2d_1 (MaxPooling2D)  (None, 32, 24, 24)   0           activation_1[0][0]               
__________________________________________________________________________________________________
dense_0_0_bn (BatchNormalizatio (None, 32, 24, 24)   128         max_pooling2d_1[0][0]            
__________________________________________________________________________________________________
activation_2 (Activation)       (None, 32, 24, 24)   0           dense_0_0_bn[0][0]               
__________________________________________________________________________________________________
dense_0_0_bottleneck_conv2D (Co (None, 120, 24, 24)  3840        activation_2[0][0]               
__________________________________________________________________________________________________
dense_0_0_bottleneck_bn (BatchN (None, 120, 24, 24)  480         dense_0_0_bottleneck_conv2D[0][0]
__________________________________________________________________________________________________
activation_3 (Activation)       (None, 120, 24, 24)  0           dense_0_0_bottleneck_bn[0][0]    
__________________________________________________________________________________________________
dense_0_0_conv2D (Conv2D)       (None, 30, 24, 24)   32400       activation_3[0][0]               
__________________________________________________________________________________________________
dropout_1 (Dropout)             (None, 30, 24, 24)   0           dense_0_0_conv2D[0][0]           
__________________________________________________________________________________________________
concatenate_1 (Concatenate)     (None, 62, 24, 24)   0           max_pooling2d_1[0][0]            
                                                                 dropout_1[0][0]                  
__________________________________________________________________________________________________
dense_0_1_bn (BatchNormalizatio (None, 62, 24, 24)   248         concatenate_1[0][0]              
__________________________________________________________________________________________________
activation_4 (Activation)       (None, 62, 24, 24)   0           dense_0_1_bn[0][0]               
__________________________________________________________________________________________________
dense_0_1_bottleneck_conv2D (Co (None, 120, 24, 24)  7440        activation_4[0][0]               
__________________________________________________________________________________________________
dense_0_1_bottleneck_bn (BatchN (None, 120, 24, 24)  480         dense_0_1_bottleneck_conv2D[0][0]
__________________________________________________________________________________________________
activation_5 (Activation)       (None, 120, 24, 24)  0           dense_0_1_bottleneck_bn[0][0]    
__________________________________________________________________________________________________
dense_0_1_conv2D (Conv2D)       (None, 30, 24, 24)   32400       activation_5[0][0]               
__________________________________________________________________________________________________
dropout_2 (Dropout)             (None, 30, 24, 24)   0           dense_0_1_conv2D[0][0]           
__________________________________________________________________________________________________
concatenate_2 (Concatenate)     (None, 92, 24, 24)   0           concatenate_1[0][0]              
                                                                 dropout_2[0][0]                  
__________________________________________________________________________________________________
tr_0_bn (BatchNormalization)    (None, 92, 24, 24)   368         concatenate_2[0][0]              
__________________________________________________________________________________________________
activation_6 (Activation)       (None, 92, 24, 24)   0           tr_0_bn[0][0]                    
__________________________________________________________________________________________________
tr_0_conv2D (Conv2D)            (None, 46, 24, 24)   4232        activation_6[0][0]               
__________________________________________________________________________________________________
max_pooling2d_2 (MaxPooling2D)  (None, 46, 12, 12)   0           tr_0_conv2D[0][0]                
__________________________________________________________________________________________________
dense_1_0_bn (BatchNormalizatio (None, 46, 12, 12)   184         max_pooling2d_2[0][0]            
__________________________________________________________________________________________________
activation_7 (Activation)       (None, 46, 12, 12)   0           dense_1_0_bn[0][0]               
__________________________________________________________________________________________________
dense_1_0_bottleneck_conv2D (Co (None, 120, 12, 12)  5520        activation_7[0][0]               
__________________________________________________________________________________________________
dense_1_0_bottleneck_bn (BatchN (None, 120, 12, 12)  480         dense_1_0_bottleneck_conv2D[0][0]
__________________________________________________________________________________________________
activation_8 (Activation)       (None, 120, 12, 12)  0           dense_1_0_bottleneck_bn[0][0]    
__________________________________________________________________________________________________
dense_1_0_conv2D (Conv2D)       (None, 30, 12, 12)   32400       activation_8[0][0]               
__________________________________________________________________________________________________
dropout_3 (Dropout)             (None, 30, 12, 12)   0           dense_1_0_conv2D[0][0]           
__________________________________________________________________________________________________
concatenate_3 (Concatenate)     (None, 76, 12, 12)   0           max_pooling2d_2[0][0]            
                                                                 dropout_3[0][0]                  
__________________________________________________________________________________________________
dense_1_1_bn (BatchNormalizatio (None, 76, 12, 12)   304         concatenate_3[0][0]              
__________________________________________________________________________________________________
activation_9 (Activation)       (None, 76, 12, 12)   0           dense_1_1_bn[0][0]               
__________________________________________________________________________________________________
dense_1_1_bottleneck_conv2D (Co (None, 120, 12, 12)  9120        activation_9[0][0]               
__________________________________________________________________________________________________
dense_1_1_bottleneck_bn (BatchN (None, 120, 12, 12)  480         dense_1_1_bottleneck_conv2D[0][0]
__________________________________________________________________________________________________
activation_10 (Activation)      (None, 120, 12, 12)  0           dense_1_1_bottleneck_bn[0][0]    
__________________________________________________________________________________________________
dense_1_1_conv2D (Conv2D)       (None, 30, 12, 12)   32400       activation_10[0][0]              
__________________________________________________________________________________________________
dropout_4 (Dropout)             (None, 30, 12, 12)   0           dense_1_1_conv2D[0][0]           
__________________________________________________________________________________________________
concatenate_4 (Concatenate)     (None, 106, 12, 12)  0           concatenate_3[0][0]              
                                                                 dropout_4[0][0]                  
__________________________________________________________________________________________________
final_bn (BatchNormalization)   (None, 106, 12, 12)  424         concatenate_4[0][0]              
__________________________________________________________________________________________________
activation_11 (Activation)      (None, 106, 12, 12)  0           final_bn[0][0]                   
__________________________________________________________________________________________________
flatten_1 (Flatten)             (None, 15264)        0           activation_11[0][0]              
==================================================================================================
Total params: 165,024
Trainable params: 163,172
Non-trainable params: 1,852
__________________________________________________________________________________________________
__________________________________________________________________________________________________
Layer (type)                    Output Shape         Param #     Connected to                     
==================================================================================================
input_2 (InputLayer)            (None, 1, 96, 96)    0                                            
__________________________________________________________________________________________________
input_3 (InputLayer)            (None, 1, 96, 96)    0                                            
__________________________________________________________________________________________________
densenet (Model)                (None, 15264)        165024      input_2[0][0]                    
                                                                 input_3[0][0]                    
__________________________________________________________________________________________________
merge_features (Concatenate)    (None, 30528)        0           densenet[1][0]                   
                                                                 densenet[2][0]                   
__________________________________________________________________________________________________
dense_1 (Dense)                 (None, 512)          15630848    merge_features[0][0]             
__________________________________________________________________________________________________
activation_12 (Activation)      (None, 512)          0           dense_1[0][0]                    
__________________________________________________________________________________________________
batch_normalization_1 (BatchNor (None, 512)          2048        activation_12[0][0]              
__________________________________________________________________________________________________
dropout_5 (Dropout)             (None, 512)          0           batch_normalization_1[0][0]      
__________________________________________________________________________________________________
dense_2 (Dense)                 (None, 1)            513         dropout_5[0][0]                  
==================================================================================================
Total params: 15,798,433
Trainable params: 15,795,557
Non-trainable params: 2,876
__________________________________________________________________________________________________
Finished compiling
Train on 31872 samples, validate on 7968 samples
Epoch 1/6
…
------------------------ current config for the test -------------------------
Layers:  [2, 2]  Growth_rate:  30  nb_filter:  64  dropout:  0.2
dense_block  2  reduction_:  0.5  bottleneck:  True
------------------------	  end of configs        -------------------------
pooling:flatten
__________________________________________________________________________________________________
Layer (type)                    Output Shape         Param #     Connected to                     
==================================================================================================
input_1 (InputLayer)            (None, 1, 96, 96)    0                                            
__________________________________________________________________________________________________
initial_conv2D (Conv2D)         (None, 64, 48, 48)   3136        input_1[0][0]                    
__________________________________________________________________________________________________
initial_bn (BatchNormalization) (None, 64, 48, 48)   256         initial_conv2D[0][0]             
__________________________________________________________________________________________________
activation_1 (Activation)       (None, 64, 48, 48)   0           initial_bn[0][0]                 
__________________________________________________________________________________________________
max_pooling2d_1 (MaxPooling2D)  (None, 64, 24, 24)   0           activation_1[0][0]               
__________________________________________________________________________________________________
dense_0_0_bn (BatchNormalizatio (None, 64, 24, 24)   256         max_pooling2d_1[0][0]            
__________________________________________________________________________________________________
activation_2 (Activation)       (None, 64, 24, 24)   0           dense_0_0_bn[0][0]               
__________________________________________________________________________________________________
dense_0_0_bottleneck_conv2D (Co (None, 120, 24, 24)  7680        activation_2[0][0]               
__________________________________________________________________________________________________
dense_0_0_bottleneck_bn (BatchN (None, 120, 24, 24)  480         dense_0_0_bottleneck_conv2D[0][0]
__________________________________________________________________________________________________
activation_3 (Activation)       (None, 120, 24, 24)  0           dense_0_0_bottleneck_bn[0][0]    
__________________________________________________________________________________________________
dense_0_0_conv2D (Conv2D)       (None, 30, 24, 24)   32400       activation_3[0][0]               
__________________________________________________________________________________________________
dropout_1 (Dropout)             (None, 30, 24, 24)   0           dense_0_0_conv2D[0][0]           
__________________________________________________________________________________________________
concatenate_1 (Concatenate)     (None, 94, 24, 24)   0           max_pooling2d_1[0][0]            
                                                                 dropout_1[0][0]                  
__________________________________________________________________________________________________
dense_0_1_bn (BatchNormalizatio (None, 94, 24, 24)   376         concatenate_1[0][0]              
__________________________________________________________________________________________________
activation_4 (Activation)       (None, 94, 24, 24)   0           dense_0_1_bn[0][0]               
__________________________________________________________________________________________________
dense_0_1_bottleneck_conv2D (Co (None, 120, 24, 24)  11280       activation_4[0][0]               
__________________________________________________________________________________________________
dense_0_1_bottleneck_bn (BatchN (None, 120, 24, 24)  480         dense_0_1_bottleneck_conv2D[0][0]
__________________________________________________________________________________________________
activation_5 (Activation)       (None, 120, 24, 24)  0           dense_0_1_bottleneck_bn[0][0]    
__________________________________________________________________________________________________
dense_0_1_conv2D (Conv2D)       (None, 30, 24, 24)   32400       activation_5[0][0]               
__________________________________________________________________________________________________
dropout_2 (Dropout)             (None, 30, 24, 24)   0           dense_0_1_conv2D[0][0]           
__________________________________________________________________________________________________
concatenate_2 (Concatenate)     (None, 124, 24, 24)  0           concatenate_1[0][0]              
                                                                 dropout_2[0][0]                  
__________________________________________________________________________________________________
tr_0_bn (BatchNormalization)    (None, 124, 24, 24)  496         concatenate_2[0][0]              
__________________________________________________________________________________________________
activation_6 (Activation)       (None, 124, 24, 24)  0           tr_0_bn[0][0]                    
__________________________________________________________________________________________________
tr_0_conv2D (Conv2D)            (None, 62, 24, 24)   7688        activation_6[0][0]               
__________________________________________________________________________________________________
max_pooling2d_2 (MaxPooling2D)  (None, 62, 12, 12)   0           tr_0_conv2D[0][0]                
__________________________________________________________________________________________________
dense_1_0_bn (BatchNormalizatio (None, 62, 12, 12)   248         max_pooling2d_2[0][0]            
__________________________________________________________________________________________________
activation_7 (Activation)       (None, 62, 12, 12)   0           dense_1_0_bn[0][0]               
__________________________________________________________________________________________________
dense_1_0_bottleneck_conv2D (Co (None, 120, 12, 12)  7440        activation_7[0][0]               
__________________________________________________________________________________________________
dense_1_0_bottleneck_bn (BatchN (None, 120, 12, 12)  480         dense_1_0_bottleneck_conv2D[0][0]
__________________________________________________________________________________________________
activation_8 (Activation)       (None, 120, 12, 12)  0           dense_1_0_bottleneck_bn[0][0]    
__________________________________________________________________________________________________
dense_1_0_conv2D (Conv2D)       (None, 30, 12, 12)   32400       activation_8[0][0]               
__________________________________________________________________________________________________
dropout_3 (Dropout)             (None, 30, 12, 12)   0           dense_1_0_conv2D[0][0]           
__________________________________________________________________________________________________
concatenate_3 (Concatenate)     (None, 92, 12, 12)   0           max_pooling2d_2[0][0]            
                                                                 dropout_3[0][0]                  
__________________________________________________________________________________________________
dense_1_1_bn (BatchNormalizatio (None, 92, 12, 12)   368         concatenate_3[0][0]              
__________________________________________________________________________________________________
activation_9 (Activation)       (None, 92, 12, 12)   0           dense_1_1_bn[0][0]               
__________________________________________________________________________________________________
dense_1_1_bottleneck_conv2D (Co (None, 120, 12, 12)  11040       activation_9[0][0]               
__________________________________________________________________________________________________
dense_1_1_bottleneck_bn (BatchN (None, 120, 12, 12)  480         dense_1_1_bottleneck_conv2D[0][0]
__________________________________________________________________________________________________
activation_10 (Activation)      (None, 120, 12, 12)  0           dense_1_1_bottleneck_bn[0][0]    
__________________________________________________________________________________________________
dense_1_1_conv2D (Conv2D)       (None, 30, 12, 12)   32400       activation_10[0][0]              
__________________________________________________________________________________________________
dropout_4 (Dropout)             (None, 30, 12, 12)   0           dense_1_1_conv2D[0][0]           
__________________________________________________________________________________________________
concatenate_4 (Concatenate)     (None, 122, 12, 12)  0           concatenate_3[0][0]              
                                                                 dropout_4[0][0]                  
__________________________________________________________________________________________________
final_bn (BatchNormalization)   (None, 122, 12, 12)  488         concatenate_4[0][0]              
__________________________________________________________________________________________________
activation_11 (Activation)      (None, 122, 12, 12)  0           final_bn[0][0]                   
__________________________________________________________________________________________________
flatten_1 (Flatten)             (None, 17568)        0           activation_11[0][0]              
==================================================================================================
Total params: 182,272
Trainable params: 180,068
Non-trainable params: 2,204
__________________________________________________________________________________________________
__________________________________________________________________________________________________
Layer (type)                    Output Shape         Param #     Connected to                     
==================================================================================================
input_2 (InputLayer)            (None, 1, 96, 96)    0                                            
__________________________________________________________________________________________________
input_3 (InputLayer)            (None, 1, 96, 96)    0                                            
__________________________________________________________________________________________________
densenet (Model)                (None, 17568)        182272      input_2[0][0]                    
                                                                 input_3[0][0]                    
__________________________________________________________________________________________________
merge_features (Concatenate)    (None, 35136)        0           densenet[1][0]                   
                                                                 densenet[2][0]                   
__________________________________________________________________________________________________
dense_1 (Dense)                 (None, 512)          17990144    merge_features[0][0]             
__________________________________________________________________________________________________
activation_12 (Activation)      (None, 512)          0           dense_1[0][0]                    
__________________________________________________________________________________________________
batch_normalization_1 (BatchNor (None, 512)          2048        activation_12[0][0]              
__________________________________________________________________________________________________
dropout_5 (Dropout)             (None, 512)          0           batch_normalization_1[0][0]      
__________________________________________________________________________________________________
dense_2 (Dense)                 (None, 1)            513         dropout_5[0][0]                  
==================================================================================================
Total params: 18,174,977
Trainable params: 18,171,749
Non-trainable params: 3,228
__________________________________________________________________________________________________
Finished compiling
Train on 31872 samples, validate on 7968 samples
Epoch 1/6
…
------------------------ current config for the test -------------------------
Layers:  [2, 2]  Growth_rate:  18  nb_filter:  8  dropout:  0.2
dense_block  2  reduction_:  0.5  bottleneck:  True
------------------------	  end of configs        -------------------------
pooling:flatten
__________________________________________________________________________________________________
Layer (type)                    Output Shape         Param #     Connected to                     
==================================================================================================
input_1 (InputLayer)            (None, 1, 96, 96)    0                                            
__________________________________________________________________________________________________
initial_conv2D (Conv2D)         (None, 8, 48, 48)    392         input_1[0][0]                    
__________________________________________________________________________________________________
initial_bn (BatchNormalization) (None, 8, 48, 48)    32          initial_conv2D[0][0]             
__________________________________________________________________________________________________
activation_1 (Activation)       (None, 8, 48, 48)    0           initial_bn[0][0]                 
__________________________________________________________________________________________________
max_pooling2d_1 (MaxPooling2D)  (None, 8, 24, 24)    0           activation_1[0][0]               
__________________________________________________________________________________________________
dense_0_0_bn (BatchNormalizatio (None, 8, 24, 24)    32          max_pooling2d_1[0][0]            
__________________________________________________________________________________________________
activation_2 (Activation)       (None, 8, 24, 24)    0           dense_0_0_bn[0][0]               
__________________________________________________________________________________________________
dense_0_0_bottleneck_conv2D (Co (None, 72, 24, 24)   576         activation_2[0][0]               
__________________________________________________________________________________________________
dense_0_0_bottleneck_bn (BatchN (None, 72, 24, 24)   288         dense_0_0_bottleneck_conv2D[0][0]
__________________________________________________________________________________________________
activation_3 (Activation)       (None, 72, 24, 24)   0           dense_0_0_bottleneck_bn[0][0]    
__________________________________________________________________________________________________
dense_0_0_conv2D (Conv2D)       (None, 18, 24, 24)   11664       activation_3[0][0]               
__________________________________________________________________________________________________
dropout_1 (Dropout)             (None, 18, 24, 24)   0           dense_0_0_conv2D[0][0]           
__________________________________________________________________________________________________
concatenate_1 (Concatenate)     (None, 26, 24, 24)   0           max_pooling2d_1[0][0]            
                                                                 dropout_1[0][0]                  
__________________________________________________________________________________________________
dense_0_1_bn (BatchNormalizatio (None, 26, 24, 24)   104         concatenate_1[0][0]              
__________________________________________________________________________________________________
activation_4 (Activation)       (None, 26, 24, 24)   0           dense_0_1_bn[0][0]               
__________________________________________________________________________________________________
dense_0_1_bottleneck_conv2D (Co (None, 72, 24, 24)   1872        activation_4[0][0]               
__________________________________________________________________________________________________
dense_0_1_bottleneck_bn (BatchN (None, 72, 24, 24)   288         dense_0_1_bottleneck_conv2D[0][0]
__________________________________________________________________________________________________
activation_5 (Activation)       (None, 72, 24, 24)   0           dense_0_1_bottleneck_bn[0][0]    
__________________________________________________________________________________________________
dense_0_1_conv2D (Conv2D)       (None, 18, 24, 24)   11664       activation_5[0][0]               
__________________________________________________________________________________________________
dropout_2 (Dropout)             (None, 18, 24, 24)   0           dense_0_1_conv2D[0][0]           
__________________________________________________________________________________________________
concatenate_2 (Concatenate)     (None, 44, 24, 24)   0           concatenate_1[0][0]              
                                                                 dropout_2[0][0]                  
__________________________________________________________________________________________________
tr_0_bn (BatchNormalization)    (None, 44, 24, 24)   176         concatenate_2[0][0]              
__________________________________________________________________________________________________
activation_6 (Activation)       (None, 44, 24, 24)   0           tr_0_bn[0][0]                    
__________________________________________________________________________________________________
tr_0_conv2D (Conv2D)            (None, 22, 24, 24)   968         activation_6[0][0]               
__________________________________________________________________________________________________
max_pooling2d_2 (MaxPooling2D)  (None, 22, 12, 12)   0           tr_0_conv2D[0][0]                
__________________________________________________________________________________________________
dense_1_0_bn (BatchNormalizatio (None, 22, 12, 12)   88          max_pooling2d_2[0][0]            
__________________________________________________________________________________________________
activation_7 (Activation)       (None, 22, 12, 12)   0           dense_1_0_bn[0][0]               
__________________________________________________________________________________________________
dense_1_0_bottleneck_conv2D (Co (None, 72, 12, 12)   1584        activation_7[0][0]               
__________________________________________________________________________________________________
dense_1_0_bottleneck_bn (BatchN (None, 72, 12, 12)   288         dense_1_0_bottleneck_conv2D[0][0]
__________________________________________________________________________________________________
activation_8 (Activation)       (None, 72, 12, 12)   0           dense_1_0_bottleneck_bn[0][0]    
__________________________________________________________________________________________________
dense_1_0_conv2D (Conv2D)       (None, 18, 12, 12)   11664       activation_8[0][0]               
__________________________________________________________________________________________________
dropout_3 (Dropout)             (None, 18, 12, 12)   0           dense_1_0_conv2D[0][0]           
__________________________________________________________________________________________________
concatenate_3 (Concatenate)     (None, 40, 12, 12)   0           max_pooling2d_2[0][0]            
                                                                 dropout_3[0][0]                  
__________________________________________________________________________________________________
dense_1_1_bn (BatchNormalizatio (None, 40, 12, 12)   160         concatenate_3[0][0]              
__________________________________________________________________________________________________
activation_9 (Activation)       (None, 40, 12, 12)   0           dense_1_1_bn[0][0]               
__________________________________________________________________________________________________
dense_1_1_bottleneck_conv2D (Co (None, 72, 12, 12)   2880        activation_9[0][0]               
__________________________________________________________________________________________________
dense_1_1_bottleneck_bn (BatchN (None, 72, 12, 12)   288         dense_1_1_bottleneck_conv2D[0][0]
__________________________________________________________________________________________________
activation_10 (Activation)      (None, 72, 12, 12)   0           dense_1_1_bottleneck_bn[0][0]    
__________________________________________________________________________________________________
dense_1_1_conv2D (Conv2D)       (None, 18, 12, 12)   11664       activation_10[0][0]              
__________________________________________________________________________________________________
dropout_4 (Dropout)             (None, 18, 12, 12)   0           dense_1_1_conv2D[0][0]           
__________________________________________________________________________________________________
concatenate_4 (Concatenate)     (None, 58, 12, 12)   0           concatenate_3[0][0]              
                                                                 dropout_4[0][0]                  
__________________________________________________________________________________________________
final_bn (BatchNormalization)   (None, 58, 12, 12)   232         concatenate_4[0][0]              
__________________________________________________________________________________________________
activation_11 (Activation)      (None, 58, 12, 12)   0           final_bn[0][0]                   
__________________________________________________________________________________________________
flatten_1 (Flatten)             (None, 8352)         0           activation_11[0][0]              
==================================================================================================
Total params: 56,904
Trainable params: 55,916
Non-trainable params: 988
__________________________________________________________________________________________________
__________________________________________________________________________________________________
Layer (type)                    Output Shape         Param #     Connected to                     
==================================================================================================
input_2 (InputLayer)            (None, 1, 96, 96)    0                                            
__________________________________________________________________________________________________
input_3 (InputLayer)            (None, 1, 96, 96)    0                                            
__________________________________________________________________________________________________
densenet (Model)                (None, 8352)         56904       input_2[0][0]                    
                                                                 input_3[0][0]                    
__________________________________________________________________________________________________
merge_features (Concatenate)    (None, 16704)        0           densenet[1][0]                   
                                                                 densenet[2][0]                   
__________________________________________________________________________________________________
dense_1 (Dense)                 (None, 512)          8552960     merge_features[0][0]             
__________________________________________________________________________________________________
activation_12 (Activation)      (None, 512)          0           dense_1[0][0]                    
__________________________________________________________________________________________________
batch_normalization_1 (BatchNor (None, 512)          2048        activation_12[0][0]              
__________________________________________________________________________________________________
dropout_5 (Dropout)             (None, 512)          0           batch_normalization_1[0][0]      
__________________________________________________________________________________________________
dense_2 (Dense)                 (None, 1)            513         dropout_5[0][0]                  
==================================================================================================
Total params: 8,612,425
Trainable params: 8,610,413
Non-trainable params: 2,012
__________________________________________________________________________________________________
Finished compiling
Train on 31872 samples, validate on 7968 samples
Epoch 1/6
 - 50s - loss: 0.5341 - acc: 0.7925 - val_loss: 0.3251 - val_acc: 0.9009
…
------------------------ current config for the test -------------------------
Layers:  [2, 2]  Growth_rate:  18  nb_filter:  16  dropout:  0.2
dense_block  2  reduction_:  0.5  bottleneck:  True
------------------------	  end of configs        -------------------------
pooling:flatten
__________________________________________________________________________________________________
Layer (type)                    Output Shape         Param #     Connected to                     
==================================================================================================
input_1 (InputLayer)            (None, 1, 96, 96)    0                                            
__________________________________________________________________________________________________
initial_conv2D (Conv2D)         (None, 16, 48, 48)   784         input_1[0][0]                    
__________________________________________________________________________________________________
initial_bn (BatchNormalization) (None, 16, 48, 48)   64          initial_conv2D[0][0]             
__________________________________________________________________________________________________
activation_1 (Activation)       (None, 16, 48, 48)   0           initial_bn[0][0]                 
__________________________________________________________________________________________________
max_pooling2d_1 (MaxPooling2D)  (None, 16, 24, 24)   0           activation_1[0][0]               
__________________________________________________________________________________________________
dense_0_0_bn (BatchNormalizatio (None, 16, 24, 24)   64          max_pooling2d_1[0][0]            
__________________________________________________________________________________________________
activation_2 (Activation)       (None, 16, 24, 24)   0           dense_0_0_bn[0][0]               
__________________________________________________________________________________________________
dense_0_0_bottleneck_conv2D (Co (None, 72, 24, 24)   1152        activation_2[0][0]               
__________________________________________________________________________________________________
dense_0_0_bottleneck_bn (BatchN (None, 72, 24, 24)   288         dense_0_0_bottleneck_conv2D[0][0]
__________________________________________________________________________________________________
activation_3 (Activation)       (None, 72, 24, 24)   0           dense_0_0_bottleneck_bn[0][0]    
__________________________________________________________________________________________________
dense_0_0_conv2D (Conv2D)       (None, 18, 24, 24)   11664       activation_3[0][0]               
__________________________________________________________________________________________________
dropout_1 (Dropout)             (None, 18, 24, 24)   0           dense_0_0_conv2D[0][0]           
__________________________________________________________________________________________________
concatenate_1 (Concatenate)     (None, 34, 24, 24)   0           max_pooling2d_1[0][0]            
                                                                 dropout_1[0][0]                  
__________________________________________________________________________________________________
dense_0_1_bn (BatchNormalizatio (None, 34, 24, 24)   136         concatenate_1[0][0]              
__________________________________________________________________________________________________
activation_4 (Activation)       (None, 34, 24, 24)   0           dense_0_1_bn[0][0]               
__________________________________________________________________________________________________
dense_0_1_bottleneck_conv2D (Co (None, 72, 24, 24)   2448        activation_4[0][0]               
__________________________________________________________________________________________________
dense_0_1_bottleneck_bn (BatchN (None, 72, 24, 24)   288         dense_0_1_bottleneck_conv2D[0][0]
__________________________________________________________________________________________________
activation_5 (Activation)       (None, 72, 24, 24)   0           dense_0_1_bottleneck_bn[0][0]    
__________________________________________________________________________________________________
dense_0_1_conv2D (Conv2D)       (None, 18, 24, 24)   11664       activation_5[0][0]               
__________________________________________________________________________________________________
dropout_2 (Dropout)             (None, 18, 24, 24)   0           dense_0_1_conv2D[0][0]           
__________________________________________________________________________________________________
concatenate_2 (Concatenate)     (None, 52, 24, 24)   0           concatenate_1[0][0]              
                                                                 dropout_2[0][0]                  
__________________________________________________________________________________________________
tr_0_bn (BatchNormalization)    (None, 52, 24, 24)   208         concatenate_2[0][0]              
__________________________________________________________________________________________________
activation_6 (Activation)       (None, 52, 24, 24)   0           tr_0_bn[0][0]                    
__________________________________________________________________________________________________
tr_0_conv2D (Conv2D)            (None, 26, 24, 24)   1352        activation_6[0][0]               
__________________________________________________________________________________________________
max_pooling2d_2 (MaxPooling2D)  (None, 26, 12, 12)   0           tr_0_conv2D[0][0]                
__________________________________________________________________________________________________
dense_1_0_bn (BatchNormalizatio (None, 26, 12, 12)   104         max_pooling2d_2[0][0]            
__________________________________________________________________________________________________
activation_7 (Activation)       (None, 26, 12, 12)   0           dense_1_0_bn[0][0]               
__________________________________________________________________________________________________
dense_1_0_bottleneck_conv2D (Co (None, 72, 12, 12)   1872        activation_7[0][0]               
__________________________________________________________________________________________________
dense_1_0_bottleneck_bn (BatchN (None, 72, 12, 12)   288         dense_1_0_bottleneck_conv2D[0][0]
__________________________________________________________________________________________________
activation_8 (Activation)       (None, 72, 12, 12)   0           dense_1_0_bottleneck_bn[0][0]    
__________________________________________________________________________________________________
dense_1_0_conv2D (Conv2D)       (None, 18, 12, 12)   11664       activation_8[0][0]               
__________________________________________________________________________________________________
dropout_3 (Dropout)             (None, 18, 12, 12)   0           dense_1_0_conv2D[0][0]           
__________________________________________________________________________________________________
concatenate_3 (Concatenate)     (None, 44, 12, 12)   0           max_pooling2d_2[0][0]            
                                                                 dropout_3[0][0]                  
__________________________________________________________________________________________________
dense_1_1_bn (BatchNormalizatio (None, 44, 12, 12)   176         concatenate_3[0][0]              
__________________________________________________________________________________________________
activation_9 (Activation)       (None, 44, 12, 12)   0           dense_1_1_bn[0][0]               
__________________________________________________________________________________________________
dense_1_1_bottleneck_conv2D (Co (None, 72, 12, 12)   3168        activation_9[0][0]               
__________________________________________________________________________________________________
dense_1_1_bottleneck_bn (BatchN (None, 72, 12, 12)   288         dense_1_1_bottleneck_conv2D[0][0]
__________________________________________________________________________________________________
activation_10 (Activation)      (None, 72, 12, 12)   0           dense_1_1_bottleneck_bn[0][0]    
__________________________________________________________________________________________________
dense_1_1_conv2D (Conv2D)       (None, 18, 12, 12)   11664       activation_10[0][0]              
__________________________________________________________________________________________________
dropout_4 (Dropout)             (None, 18, 12, 12)   0           dense_1_1_conv2D[0][0]           
__________________________________________________________________________________________________
concatenate_4 (Concatenate)     (None, 62, 12, 12)   0           concatenate_3[0][0]              
                                                                 dropout_4[0][0]                  
__________________________________________________________________________________________________
final_bn (BatchNormalization)   (None, 62, 12, 12)   248         concatenate_4[0][0]              
__________________________________________________________________________________________________
activation_11 (Activation)      (None, 62, 12, 12)   0           final_bn[0][0]                   
__________________________________________________________________________________________________
flatten_1 (Flatten)             (None, 8928)         0           activation_11[0][0]              
==================================================================================================
Total params: 59,584
Trainable params: 58,508
Non-trainable params: 1,076
__________________________________________________________________________________________________
__________________________________________________________________________________________________
Layer (type)                    Output Shape         Param #     Connected to                     
==================================================================================================
input_2 (InputLayer)            (None, 1, 96, 96)    0                                            
__________________________________________________________________________________________________
input_3 (InputLayer)            (None, 1, 96, 96)    0                                            
__________________________________________________________________________________________________
densenet (Model)                (None, 8928)         59584       input_2[0][0]                    
                                                                 input_3[0][0]                    
__________________________________________________________________________________________________
merge_features (Concatenate)    (None, 17856)        0           densenet[1][0]                   
                                                                 densenet[2][0]                   
__________________________________________________________________________________________________
dense_1 (Dense)                 (None, 512)          9142784     merge_features[0][0]             
__________________________________________________________________________________________________
activation_12 (Activation)      (None, 512)          0           dense_1[0][0]                    
__________________________________________________________________________________________________
batch_normalization_1 (BatchNor (None, 512)          2048        activation_12[0][0]              
__________________________________________________________________________________________________
dropout_5 (Dropout)             (None, 512)          0           batch_normalization_1[0][0]      
__________________________________________________________________________________________________
dense_2 (Dense)                 (None, 1)            513         dropout_5[0][0]                  
==================================================================================================
Total params: 9,204,929
Trainable params: 9,202,829
Non-trainable params: 2,100
__________________________________________________________________________________________________
Finished compiling
Train on 31872 samples, validate on 7968 samples
Epoch 1/6
 - 51s - loss: 0.4806 - acc: 0.8161 - val_loss: 1.0286 - val_acc: 0.5628
…
------------------------ current config for the test -------------------------
Layers:  [2, 2]  Growth_rate:  18  nb_filter:  32  dropout:  0.2
dense_block  2  reduction_:  0.5  bottleneck:  True
------------------------	  end of configs        -------------------------
pooling:flatten
__________________________________________________________________________________________________
Layer (type)                    Output Shape         Param #     Connected to                     
==================================================================================================
input_1 (InputLayer)            (None, 1, 96, 96)    0                                            
__________________________________________________________________________________________________
initial_conv2D (Conv2D)         (None, 32, 48, 48)   1568        input_1[0][0]                    
__________________________________________________________________________________________________
initial_bn (BatchNormalization) (None, 32, 48, 48)   128         initial_conv2D[0][0]             
__________________________________________________________________________________________________
activation_1 (Activation)       (None, 32, 48, 48)   0           initial_bn[0][0]                 
__________________________________________________________________________________________________
max_pooling2d_1 (MaxPooling2D)  (None, 32, 24, 24)   0           activation_1[0][0]               
__________________________________________________________________________________________________
dense_0_0_bn (BatchNormalizatio (None, 32, 24, 24)   128         max_pooling2d_1[0][0]            
__________________________________________________________________________________________________
activation_2 (Activation)       (None, 32, 24, 24)   0           dense_0_0_bn[0][0]               
__________________________________________________________________________________________________
dense_0_0_bottleneck_conv2D (Co (None, 72, 24, 24)   2304        activation_2[0][0]               
__________________________________________________________________________________________________
dense_0_0_bottleneck_bn (BatchN (None, 72, 24, 24)   288         dense_0_0_bottleneck_conv2D[0][0]
__________________________________________________________________________________________________
activation_3 (Activation)       (None, 72, 24, 24)   0           dense_0_0_bottleneck_bn[0][0]    
__________________________________________________________________________________________________
dense_0_0_conv2D (Conv2D)       (None, 18, 24, 24)   11664       activation_3[0][0]               
__________________________________________________________________________________________________
dropout_1 (Dropout)             (None, 18, 24, 24)   0           dense_0_0_conv2D[0][0]           
__________________________________________________________________________________________________
concatenate_1 (Concatenate)     (None, 50, 24, 24)   0           max_pooling2d_1[0][0]            
                                                                 dropout_1[0][0]                  
__________________________________________________________________________________________________
dense_0_1_bn (BatchNormalizatio (None, 50, 24, 24)   200         concatenate_1[0][0]              
__________________________________________________________________________________________________
activation_4 (Activation)       (None, 50, 24, 24)   0           dense_0_1_bn[0][0]               
__________________________________________________________________________________________________
dense_0_1_bottleneck_conv2D (Co (None, 72, 24, 24)   3600        activation_4[0][0]               
__________________________________________________________________________________________________
dense_0_1_bottleneck_bn (BatchN (None, 72, 24, 24)   288         dense_0_1_bottleneck_conv2D[0][0]
__________________________________________________________________________________________________
activation_5 (Activation)       (None, 72, 24, 24)   0           dense_0_1_bottleneck_bn[0][0]    
__________________________________________________________________________________________________
dense_0_1_conv2D (Conv2D)       (None, 18, 24, 24)   11664       activation_5[0][0]               
__________________________________________________________________________________________________
dropout_2 (Dropout)             (None, 18, 24, 24)   0           dense_0_1_conv2D[0][0]           
__________________________________________________________________________________________________
concatenate_2 (Concatenate)     (None, 68, 24, 24)   0           concatenate_1[0][0]              
                                                                 dropout_2[0][0]                  
__________________________________________________________________________________________________
tr_0_bn (BatchNormalization)    (None, 68, 24, 24)   272         concatenate_2[0][0]              
__________________________________________________________________________________________________
activation_6 (Activation)       (None, 68, 24, 24)   0           tr_0_bn[0][0]                    
__________________________________________________________________________________________________
tr_0_conv2D (Conv2D)            (None, 34, 24, 24)   2312        activation_6[0][0]               
__________________________________________________________________________________________________
max_pooling2d_2 (MaxPooling2D)  (None, 34, 12, 12)   0           tr_0_conv2D[0][0]                
__________________________________________________________________________________________________
dense_1_0_bn (BatchNormalizatio (None, 34, 12, 12)   136         max_pooling2d_2[0][0]            
__________________________________________________________________________________________________
activation_7 (Activation)       (None, 34, 12, 12)   0           dense_1_0_bn[0][0]               
__________________________________________________________________________________________________
dense_1_0_bottleneck_conv2D (Co (None, 72, 12, 12)   2448        activation_7[0][0]               
__________________________________________________________________________________________________
dense_1_0_bottleneck_bn (BatchN (None, 72, 12, 12)   288         dense_1_0_bottleneck_conv2D[0][0]
__________________________________________________________________________________________________
activation_8 (Activation)       (None, 72, 12, 12)   0           dense_1_0_bottleneck_bn[0][0]    
__________________________________________________________________________________________________
dense_1_0_conv2D (Conv2D)       (None, 18, 12, 12)   11664       activation_8[0][0]               
__________________________________________________________________________________________________
dropout_3 (Dropout)             (None, 18, 12, 12)   0           dense_1_0_conv2D[0][0]           
__________________________________________________________________________________________________
concatenate_3 (Concatenate)     (None, 52, 12, 12)   0           max_pooling2d_2[0][0]            
                                                                 dropout_3[0][0]                  
__________________________________________________________________________________________________
dense_1_1_bn (BatchNormalizatio (None, 52, 12, 12)   208         concatenate_3[0][0]              
__________________________________________________________________________________________________
activation_9 (Activation)       (None, 52, 12, 12)   0           dense_1_1_bn[0][0]               
__________________________________________________________________________________________________
dense_1_1_bottleneck_conv2D (Co (None, 72, 12, 12)   3744        activation_9[0][0]               
__________________________________________________________________________________________________
dense_1_1_bottleneck_bn (BatchN (None, 72, 12, 12)   288         dense_1_1_bottleneck_conv2D[0][0]
__________________________________________________________________________________________________
activation_10 (Activation)      (None, 72, 12, 12)   0           dense_1_1_bottleneck_bn[0][0]    
__________________________________________________________________________________________________
dense_1_1_conv2D (Conv2D)       (None, 18, 12, 12)   11664       activation_10[0][0]              
__________________________________________________________________________________________________
dropout_4 (Dropout)             (None, 18, 12, 12)   0           dense_1_1_conv2D[0][0]           
__________________________________________________________________________________________________
concatenate_4 (Concatenate)     (None, 70, 12, 12)   0           concatenate_3[0][0]              
                                                                 dropout_4[0][0]                  
__________________________________________________________________________________________________
final_bn (BatchNormalization)   (None, 70, 12, 12)   280         concatenate_4[0][0]              
__________________________________________________________________________________________________
activation_11 (Activation)      (None, 70, 12, 12)   0           final_bn[0][0]                   
__________________________________________________________________________________________________
flatten_1 (Flatten)             (None, 10080)        0           activation_11[0][0]              
==================================================================================================
Total params: 65,136
Trainable params: 63,884
Non-trainable params: 1,252
__________________________________________________________________________________________________
__________________________________________________________________________________________________
Layer (type)                    Output Shape         Param #     Connected to                     
==================================================================================================
input_2 (InputLayer)            (None, 1, 96, 96)    0                                            
__________________________________________________________________________________________________
input_3 (InputLayer)            (None, 1, 96, 96)    0                                            
__________________________________________________________________________________________________
densenet (Model)                (None, 10080)        65136       input_2[0][0]                    
                                                                 input_3[0][0]                    
__________________________________________________________________________________________________
merge_features (Concatenate)    (None, 20160)        0           densenet[1][0]                   
                                                                 densenet[2][0]                   
__________________________________________________________________________________________________
dense_1 (Dense)                 (None, 512)          10322432    merge_features[0][0]             
__________________________________________________________________________________________________
activation_12 (Activation)      (None, 512)          0           dense_1[0][0]                    
__________________________________________________________________________________________________
batch_normalization_1 (BatchNor (None, 512)          2048        activation_12[0][0]              
__________________________________________________________________________________________________
dropout_5 (Dropout)             (None, 512)          0           batch_normalization_1[0][0]      
__________________________________________________________________________________________________
dense_2 (Dense)                 (None, 1)            513         dropout_5[0][0]                  
==================================================================================================
Total params: 10,390,129
Trainable params: 10,387,853
Non-trainable params: 2,276
__________________________________________________________________________________________________
Finished compiling
Train on 31872 samples, validate on 7968 samples
Epoch 1/6
…
------------------------ current config for the test -------------------------
Layers:  [2, 2]  Growth_rate:  18  nb_filter:  64  dropout:  0.2
dense_block  2  reduction_:  0.5  bottleneck:  True
------------------------	  end of configs        -------------------------
pooling:flatten
__________________________________________________________________________________________________
Layer (type)                    Output Shape         Param #     Connected to                     
==================================================================================================
input_1 (InputLayer)            (None, 1, 96, 96)    0                                            
__________________________________________________________________________________________________
initial_conv2D (Conv2D)         (None, 64, 48, 48)   3136        input_1[0][0]                    
__________________________________________________________________________________________________
initial_bn (BatchNormalization) (None, 64, 48, 48)   256         initial_conv2D[0][0]             
__________________________________________________________________________________________________
activation_1 (Activation)       (None, 64, 48, 48)   0           initial_bn[0][0]                 
__________________________________________________________________________________________________
max_pooling2d_1 (MaxPooling2D)  (None, 64, 24, 24)   0           activation_1[0][0]               
__________________________________________________________________________________________________
dense_0_0_bn (BatchNormalizatio (None, 64, 24, 24)   256         max_pooling2d_1[0][0]            
__________________________________________________________________________________________________
activation_2 (Activation)       (None, 64, 24, 24)   0           dense_0_0_bn[0][0]               
__________________________________________________________________________________________________
dense_0_0_bottleneck_conv2D (Co (None, 72, 24, 24)   4608        activation_2[0][0]               
__________________________________________________________________________________________________
dense_0_0_bottleneck_bn (BatchN (None, 72, 24, 24)   288         dense_0_0_bottleneck_conv2D[0][0]
__________________________________________________________________________________________________
activation_3 (Activation)       (None, 72, 24, 24)   0           dense_0_0_bottleneck_bn[0][0]    
__________________________________________________________________________________________________
dense_0_0_conv2D (Conv2D)       (None, 18, 24, 24)   11664       activation_3[0][0]               
__________________________________________________________________________________________________
dropout_1 (Dropout)             (None, 18, 24, 24)   0           dense_0_0_conv2D[0][0]           
__________________________________________________________________________________________________
concatenate_1 (Concatenate)     (None, 82, 24, 24)   0           max_pooling2d_1[0][0]            
                                                                 dropout_1[0][0]                  
__________________________________________________________________________________________________
dense_0_1_bn (BatchNormalizatio (None, 82, 24, 24)   328         concatenate_1[0][0]              
__________________________________________________________________________________________________
activation_4 (Activation)       (None, 82, 24, 24)   0           dense_0_1_bn[0][0]               
__________________________________________________________________________________________________
dense_0_1_bottleneck_conv2D (Co (None, 72, 24, 24)   5904        activation_4[0][0]               
__________________________________________________________________________________________________
dense_0_1_bottleneck_bn (BatchN (None, 72, 24, 24)   288         dense_0_1_bottleneck_conv2D[0][0]
__________________________________________________________________________________________________
activation_5 (Activation)       (None, 72, 24, 24)   0           dense_0_1_bottleneck_bn[0][0]    
__________________________________________________________________________________________________
dense_0_1_conv2D (Conv2D)       (None, 18, 24, 24)   11664       activation_5[0][0]               
__________________________________________________________________________________________________
dropout_2 (Dropout)             (None, 18, 24, 24)   0           dense_0_1_conv2D[0][0]           
__________________________________________________________________________________________________
concatenate_2 (Concatenate)     (None, 100, 24, 24)  0           concatenate_1[0][0]              
                                                                 dropout_2[0][0]                  
__________________________________________________________________________________________________
tr_0_bn (BatchNormalization)    (None, 100, 24, 24)  400         concatenate_2[0][0]              
__________________________________________________________________________________________________
activation_6 (Activation)       (None, 100, 24, 24)  0           tr_0_bn[0][0]                    
__________________________________________________________________________________________________
tr_0_conv2D (Conv2D)            (None, 50, 24, 24)   5000        activation_6[0][0]               
__________________________________________________________________________________________________
max_pooling2d_2 (MaxPooling2D)  (None, 50, 12, 12)   0           tr_0_conv2D[0][0]                
__________________________________________________________________________________________________
dense_1_0_bn (BatchNormalizatio (None, 50, 12, 12)   200         max_pooling2d_2[0][0]            
__________________________________________________________________________________________________
activation_7 (Activation)       (None, 50, 12, 12)   0           dense_1_0_bn[0][0]               
__________________________________________________________________________________________________
dense_1_0_bottleneck_conv2D (Co (None, 72, 12, 12)   3600        activation_7[0][0]               
__________________________________________________________________________________________________
dense_1_0_bottleneck_bn (BatchN (None, 72, 12, 12)   288         dense_1_0_bottleneck_conv2D[0][0]
__________________________________________________________________________________________________
activation_8 (Activation)       (None, 72, 12, 12)   0           dense_1_0_bottleneck_bn[0][0]    
__________________________________________________________________________________________________
dense_1_0_conv2D (Conv2D)       (None, 18, 12, 12)   11664       activation_8[0][0]               
__________________________________________________________________________________________________
dropout_3 (Dropout)             (None, 18, 12, 12)   0           dense_1_0_conv2D[0][0]           
__________________________________________________________________________________________________
concatenate_3 (Concatenate)     (None, 68, 12, 12)   0           max_pooling2d_2[0][0]            
                                                                 dropout_3[0][0]                  
__________________________________________________________________________________________________
dense_1_1_bn (BatchNormalizatio (None, 68, 12, 12)   272         concatenate_3[0][0]              
__________________________________________________________________________________________________
activation_9 (Activation)       (None, 68, 12, 12)   0           dense_1_1_bn[0][0]               
__________________________________________________________________________________________________
dense_1_1_bottleneck_conv2D (Co (None, 72, 12, 12)   4896        activation_9[0][0]               
__________________________________________________________________________________________________
dense_1_1_bottleneck_bn (BatchN (None, 72, 12, 12)   288         dense_1_1_bottleneck_conv2D[0][0]
__________________________________________________________________________________________________
activation_10 (Activation)      (None, 72, 12, 12)   0           dense_1_1_bottleneck_bn[0][0]    
__________________________________________________________________________________________________
dense_1_1_conv2D (Conv2D)       (None, 18, 12, 12)   11664       activation_10[0][0]              
__________________________________________________________________________________________________
dropout_4 (Dropout)             (None, 18, 12, 12)   0           dense_1_1_conv2D[0][0]           
__________________________________________________________________________________________________
concatenate_4 (Concatenate)     (None, 86, 12, 12)   0           concatenate_3[0][0]              
                                                                 dropout_4[0][0]                  
__________________________________________________________________________________________________
final_bn (BatchNormalization)   (None, 86, 12, 12)   344         concatenate_4[0][0]              
__________________________________________________________________________________________________
activation_11 (Activation)      (None, 86, 12, 12)   0           final_bn[0][0]                   
__________________________________________________________________________________________________
flatten_1 (Flatten)             (None, 12384)        0           activation_11[0][0]              
==================================================================================================
Total params: 77,008
Trainable params: 75,404
Non-trainable params: 1,604
__________________________________________________________________________________________________
__________________________________________________________________________________________________
Layer (type)                    Output Shape         Param #     Connected to                     
==================================================================================================
input_2 (InputLayer)            (None, 1, 96, 96)    0                                            
__________________________________________________________________________________________________
input_3 (InputLayer)            (None, 1, 96, 96)    0                                            
__________________________________________________________________________________________________
densenet (Model)                (None, 12384)        77008       input_2[0][0]                    
                                                                 input_3[0][0]                    
__________________________________________________________________________________________________
merge_features (Concatenate)    (None, 24768)        0           densenet[1][0]                   
                                                                 densenet[2][0]                   
__________________________________________________________________________________________________
dense_1 (Dense)                 (None, 512)          12681728    merge_features[0][0]             
__________________________________________________________________________________________________
activation_12 (Activation)      (None, 512)          0           dense_1[0][0]                    
__________________________________________________________________________________________________
batch_normalization_1 (BatchNor (None, 512)          2048        activation_12[0][0]              
__________________________________________________________________________________________________
dropout_5 (Dropout)             (None, 512)          0           batch_normalization_1[0][0]      
__________________________________________________________________________________________________
dense_2 (Dense)                 (None, 1)            513         dropout_5[0][0]                  
==================================================================================================
Total params: 12,761,297
Trainable params: 12,758,669
Non-trainable params: 2,628
__________________________________________________________________________________________________
Finished compiling
Train on 31872 samples, validate on 7968 samples
Epoch 1/6
…
